mini_batch_exp/models/mnist_adam_batch16_lr0.1.pt (torch_old, 968530 bytes, 62 tensors)

conv1.weight f4 [16, 1, 3, 3]
000000 f8 6b 79 c1 21 4f 89 41 df 23 83 42 95 53 8d c2
       -15.58886 17.163637 65.57006 -70.663246
000010 c0 3e 09 c2 a7 4e 9c 40 19 a2 9f c2 f2 ef 09 c2
       -34.31128 4.884601 -79.8166 -34.48432
000020 c4 d1 ba c2 67 5f c3 c2 a3 db 94 41 b3 d8 55 42
       -93.4097 -97.68633 18.607244 53.46162
000030 6e c8 92 c2 00 90 18 41 d2 40 4b 42 1a 92 79 c2
       -73.391464 9.535156 50.8133 -62.392677
000040 2a ba 16 c2 cc 9f fa 41 43 e6 ec 40 b7 e4 6c c1
       -37.6818 31.328026 7.403108 -14.805839
000050 80 72 7f c2 4d 5a 03 42 34 0b bd c2 b9 59 86 40
       -63.861816 32.838184 -94.52188 4.1984525
000060 b4 37 87 c2 1e 67 61 c2 a5 58 89 42 13 3d b5 40
       -67.608795 -56.3507 68.673134 5.6637053
000070 2d 0a 49 c2 36 e8 db c2 b7 39 bb 41 de 02 d4 c1
       -50.259937 -109.95354 23.403181 -26.5014
000080 41 ce 01 c1 07 72 15 42 09 3e ac 42 69 af d7 41
       -8.112855 37.361355 86.12116 26.96065
000090 e8 9d ca 41 1e 2e 8d 42 6e 1d 77 42 89 03 5e c1
       25.327103 70.59007 61.77874 -13.875863
0000a0 19 5d 73 40 7c 44 68 c1 43 56 eb c2 84 d5 3a c2
       3.8025572 -14.51672 -117.66848 -46.70851
0000b0 5d b0 8c 41 88 e0 38 c2 d0 ac 9f c2 60 ed ab 41
       17.586115 -46.21927 -79.837524 21.490906
0000c0 31 a0 e2 41 94 af 59 c0 c9 ea ce c2 d8 8f 08 42
       28.328218 -3.4013414 -103.458565 34.140472
0000d0 c8 c7 09 42 77 b3 3a c1 23 42 2c 42 fc ae 94 41
       34.4451 -11.668815 43.064587 18.585442
0000e0 9c fc db c0 14 47 ad bf f9 d3 19 42 88 ce ac c2
       -6.874586 -1.3537316 38.457005 -86.40338
0000f0 34 db 85 c2 ae 64 d1 c2 67 ce 3b c2 d9 d4 a6 c0
       -66.92813 -104.69664 -46.951565 -5.2134824
000100 87 f4 0f 42 90 c7 ae 42 ba 23 0d 42 5e b2 3a 40
       35.988796 87.38977 35.28489 2.9171367
000110 a3 14 0d c1 77 80 2e c1 47 0a ec c2 83 3d 29 c1
       -8.817538 -10.9063635 -118.02007 -10.5775175
000120 05 db 75 42 2a c8 9a c0 b8 8e 35 c2 65 3d 4f 42
       61.463886 -4.836934 -45.389374 51.809956
000130 79 b8 bf 40 d3 54 86 c2 7a 56 30 42 1d 8f 44 c2
       5.9912686 -67.16567 44.08445 -49.13976
000140 b6 93 da c2 90 95 32 42 da 5f b1 42 71 e4 68 42
       -109.2885 44.646057 88.68721 58.223087
000150 c6 fe 76 42 05 45 4c 41 9f 16 f7 41 d8 62 8a c2
       61.748802 12.76685 30.886045 -69.193054
000160 9c be 43 c2 f1 8f a5 c0 aa b4 3b c1 c3 c4 d8 c2
       -48.936142 -5.173821 -11.731607 -108.3843
000170 a5 64 5c c2 3f c6 0e c3 6c 91 dc 41 d1 95 f8 41
       -55.098286 -142.7744 27.571007 31.073153
000180 1a ce 68 c2 78 0c 8e 41 9f bb 00 41 4d a3 a3 c0
       -58.20127 17.756088 8.045806 -5.113684
000190 b9 fc 61 c0 c0 01 28 c0 cb 64 12 c0 ba 09 0c c0
       -3.53105 -2.6251068 -2.287402 -2.1880937
0001a0 35 4b 54 c0 f3 48 37 c0 e8 6b fd bf d9 62 f9 bf
       -3.3170903 -2.8638275 -1.9798555 -1.9483291
0001b0 40 b1 a5 c2 92 33 33 c2 8d da e7 c1 4c 5b 76 c2
       -82.84619 -44.80036 -28.981714 -61.589157
0001c0 a8 2d 36 42 27 cf 16 42 b5 85 78 c2 f2 bc 13 c2
       45.544586 37.702297 -62.130573 -36.934517
0001d0 e5 21 02 42 ad 3c 92 c0 51 5c 4e 42 75 6f 44 c1
       32.5331 -4.5699067 51.590153 -12.277211
0001e0 9a 61 81 c2 61 5f d3 c2 74 37 47 c2 fd 00 23 c2
       -64.69063 -105.68629 -49.804153 -40.750965
0001f0 41 db 7a 42 ef ac fb 41 6a 3e b1 41 10 5b 11 42
       62.714115 31.45944 22.155476 36.33893
000200 8e 43 60 42 64 7f 6c 41 7f d4 50 42 30 12 ce 42
       56.06597 14.781101 52.207516 103.03552
000210 74 7f 60 42 59 29 7e 42 0a c8 e1 41 61 2b ae c2
       56.124466 63.54038 28.222675 -87.084724
000220 7d cf af 42 2d 5f 42 40 14 e5 d5 41 1b 66 7c 42
       87.90525 3.037059 26.736855 63.099712
000230 d4 fa 7f c2 e0 48 80 41 cb ca 2b c1 46 e6 bd c1
       -63.99495 16.035583 -10.73701 -23.737438

conv1.bias f4 [16]
000000 fd c5 3f 43 d6 b7 4c 42 a3 d3 97 42 d2 55 d0 c2
       191.77339 51.179527 75.91335 -104.16762
000010 4d 89 a1 c2 cb 42 90 43 3e 96 9e 42 ac 67 55 c2
       -80.768166 288.52182 79.29344 -53.351242
000020 4b f5 0c c3 d8 40 4c 43 47 90 e1 42 1b 9a ca bf
       -140.95818 204.2533 112.78179 -1.5828279
000030 a8 a5 21 42 f3 99 2e 43 39 6b 4d 40 a3 c1 00 c3
       40.411774 174.60136 3.2096694 -128.7564

bn1.weight f4 [16]
000000 26 03 e5 42 d1 1b b7 42 d7 cf 6a c2 4f 1d d8 42
       114.50615 91.55433 -58.70297 108.05724
000010 43 62 7f 42 49 27 b4 42 5a 7c b4 42 fe cd b5 42
       63.84596 90.07673 90.242874 90.90233
000020 67 92 77 42 b9 7b 01 40 e7 46 73 42 02 46 62 bf
       61.89297 2.0231764 60.81924 -0.88388073
000030 ae ad 9b 40 bf 33 a0 42 f3 3c b8 41 88 1c 3a 42
       4.864951 80.10107 23.02976 46.527863

bn1.bias f4 [16]
000000 31 31 6c 42 44 72 f2 c0 ca 79 1d c1 29 6f 92 be
       59.04804 -7.5764484 -9.842234 -0.28600433
000010 4b ae a9 41 98 e8 d2 41 48 9b 28 42 6b 52 e1 41
       21.210104 26.363571 42.15164 28.165243
000020 da 21 88 41 72 1a 36 c0 2f 46 c0 41 04 b6 01 c0
       17.01653 -2.845364 24.03427 -2.0267344
000030 88 30 41 40 56 34 f5 41 10 e4 64 42 2e 51 15 41
       3.018587 30.650555 57.222717 9.332319

bn1.running_mean f4 [16]
000000 b7 ec 72 44 49 e8 2b 45 0e 9a 99 44 b5 f3 88 45
       971.69867 2750.5178 1228.8142 4382.4634
000010 aa f3 88 45 f1 8f 8d 44 5c 46 c0 44 e0 6f 91 45
       4382.458 1132.4982 1538.1987 4653.9844
000020 3f c7 6c 45 5f c8 37 46 0d e1 2a 44 04 00 00 00
       3788.453 11762.093 683.5164 6e-45
000030 d2 bc 70 44 0e 01 ad 44 c5 52 b6 46 2b 8c 67 45
       962.9503 1384.033 23337.385 3704.7605

bn1.running_var f4 [16]
000000 07 0e 26 4b 18 e4 40 4c 91 7d 17 4b c4 23 b0 4c
       1.0882567e+07 5.0565216e+07 9.928081e+06 9.234794e+07
000010 05 f9 b2 4c 66 2f 24 4b fd 1d 6b 4b e7 4c b7 4c
       9.3833256e+07 1.0760038e+07 1.5408637e+07 9.61022e+07
000020 26 9c 96 4c f5 e9 ba 4d e5 fc 7f 4a 04 00 00 00
       7.896299e+07 3.9198685e+08 4.1941052e+06 6e-45
000030 69 5c ed 4a 50 3f 20 4b 00 68 97 4e eb 2f 5a 4c
       7.7778445e+06 1.0501968e+07 1.2700877e+09 5.719646e+07

conv2.weight f4 [32, 16, 4, 4]
000000 5d 90 5d 42 76 77 93 c2 04 56 44 c1 c3 06 0d 42
       55.39098 -73.73332 -12.271 35.256603
000010 89 44 9b 42 87 f2 d2 be 14 8f f1 41 87 f6 a5 c2
       77.63386 -0.4120066 30.194862 -82.9815
000020 fc b4 58 40 2e 26 3a 42 f6 8a 6d 40 52 77 39 c3
       3.3860464 46.537285 3.7116065 -185.4661
000030 64 72 1a c2 2d b7 83 c2 74 b1 ef c2 f8 46 9e c2
       -38.61171 -65.857765 -119.84659 -79.13861
000040 fc 34 a7 c1 87 36 9f 3d 8b e1 b6 c1 9e 8b 27 c2
       -20.900871 0.07774072 -22.860128 -41.886345
000050 85 3a 64 41 9d 99 45 42 70 dc c8 42 32 5d e7 41
       14.264287 49.400013 100.43054 28.920506
000060 f0 30 4d 41 30 d3 2f 42 91 98 a0 42 8c 61 36 42
       12.824448 43.956238 80.29798 45.59526
000070 8f 97 02 c2 af a8 f0 c0 df 0e fa 41 88 af 36 42
       -32.648006 -7.5205913 31.257261 45.671417
000080 ae ae ff c1 57 68 1b c1 a0 55 dd 41 52 15 21 41
       -31.960293 -9.712974 27.66681 10.067705
000090 8e df a8 42 4f 6f 5f c2 a5 46 db 41 2c aa 82 40
       84.43663 -55.8587 27.409494 4.083273
0000a0 d4 1c 2d 42 57 68 7c 42 99 2c 72 42 c4 23 3b 41
       43.278152 63.101894 60.543552 11.696232
0000b0 0a 9d 26 c2 9b 79 59 c2 61 2b 32 c2 f2 ef 6f c1
       -41.65336 -54.368755 -44.542362 -14.99608
0000c0 dd f8 a4 c2 1c 9e 8b 41 3d 3e b4 42 72 bb ba c2
       -82.48606 17.452202 90.12156 -93.366104
0000d0 1f e6 98 41 e5 f5 c5 c2 9e 9a 76 bf b2 16 ed 42
       19.112364 -98.98026 -0.9632968 118.54433
0000e0 e3 18 c3 42 8e 40 c2 c2 d5 9d e1 c1 6d fc c0 42
       97.54861 -97.12608 -28.202066 96.49302
0000f0 33 f0 d5 41 2c 11 43 42 d0 0b 6a c2 93 88 c2 3f
       26.742285 48.76677 -58.511536 1.5197929
000100 f5 cd 2b 42 32 50 d9 41 2f 5b 6c c1 e0 2e ac 41
       42.95113 27.164158 -14.772262 21.522888
000110 31 64 7d c1 aa 01 9e 42 86 6f 33 c2 22 a0 5f c2
       -15.836961 79.00325 -44.85891 -55.90638
000120 3b 51 0a c2 48 f9 cc c1 0e f7 2e 42 16 d5 32 c2
       -34.579327 -25.62172 43.741264 -44.70809
000130 d4 c7 ee 41 bb 2f 4e 42 85 9b 37 c2 e3 3e 36 c2
       29.847572 51.54661 -45.901875 -45.561413
000140 d8 9a 1c c2 51 6e ba 42 5b a1 a9 41 d3 a9 d6 c1
       -39.151215 93.21546 21.203787 -26.832922
000150 b6 79 76 41 70 8e 27 c2 f7 e8 aa 42 d3 16 06 42
       15.404715 -41.8891 85.45501 33.52229
000160 d8 97 06 43 30 a4 b5 41 0d b0 03 c3 49 72 d3 42
       134.59314 22.70517 -131.6877 105.72321
000170 4f 6a 09 c3 c8 79 31 42 cf 5f 01 c2 33 6e 3d c2
       -137.41527 44.368927 -32.343563 -47.357616
000180 eb 2d 6c 42 9e 53 31 41 75 67 56 c2 2b 86 76 3f
       59.04484 11.082914 -53.601032 0.96298474
000190 1c 11 7a c2 d1 ac 27 c2 5c ee 1a c3 37 05 ec c1
       -62.51671 -41.918766 -154.93109 -29.502546
0001a0 95 4f c2 c0 3a 52 be c2 60 aa bd 41 63 71 e4 c2
       -6.0722146 -95.1606 23.70819 -114.22146
0001b0 0d 65 d2 41 05 9e 4f 40 e2 6b 86 42 2c 49 b8 c2
       26.299341 3.2440197 67.21071 -92.142914
0001c0 d3 fb a2 42 1c 75 6f 42 5d d0 96 c2 e6 2a ed 42
       81.491844 59.864365 -75.40696 118.583786
0001d0 7a 9f 43 41 e0 25 39 42 e5 eb 96 c2 76 18 37 c2
       12.226435 46.286987 -75.46073 -45.773888
0001e0 1b 80 89 c2 cb 56 60 c1 c0 16 53 42 b5 b1 5a c2
       -68.750206 -14.02119 52.772217 -54.673542
0001f0 38 2f 26 40 ab 8a 22 41 d9 c2 90 c2 12 d5 f1 c0
       2.596632 10.1588545 -72.38056 -7.5572596
000200 6c 2c a1 40 55 1d e5 40 cd 90 80 c2 3a eb a1 41
       5.0366726 7.1598306 -64.282814 20.239857
000210 88 1f f9 41 20 5a 72 c2 8b 82 31 42 6d 0a 86 42
       31.140396 -60.588013 44.377483 67.02036
000220 bf ec ba 42 7b a1 e1 3f d2 c5 9e c1 89 fb f0 40
       93.462395 1.7627405 -19.846592 7.530705
000230 2a 74 74 42 d2 53 e6 40 a1 27 e2 40 a2 39 f5 c1
       61.11344 7.197732 7.0673375 -30.653141
000240 24 e8 59 42 82 0a 2e 41 f2 38 76 c2 dc 17 0c c2
       54.4767 10.877565 -61.55561 -35.0233
000250 43 70 10 40 dd 5e 08 42 8c 20 d8 c1 0d f4 91 c2
       2.256852 34.09264 -27.015892 -72.97666
000260 34 68 1d c2 f8 d8 88 41 c2 90 33 41 6a 90 64 c2
       -39.35176 17.105942 11.222841 -57.14103
000270 b8 cf 44 41 48 a8 29 40 b5 f5 05 42 f9 a1 12 c1
       12.300713 2.650896 33.48995 -9.164544
000280 ea 9c e3 40 19 5f a1 41 9e cc c0 40 35 0a 78 42
       7.1129045 20.171434 6.0249777 62.009968
000290 93 b7 17 c2 04 6e 31 c2 4d 54 23 41 45 43 03 42
       -37.92927 -44.357437 10.208081 32.815693
0002a0 df 6d 41 42 cd 3c e8 c1 04 6f c8 c2 1f 12 7a c1
       48.357296 -29.029688 -100.21683 -15.629424
0002b0 ef e4 58 41 b8 d3 43 42 9c 35 5f 42 49 fc 74 c2
       13.555892 48.956757 55.802353 -61.246372
0002c0 8a 28 8c c1 55 46 f5 3e da 51 6b 40 55 2a 53 c0
       -17.519794 0.47905222 3.6768708 -3.2994587
0002d0 fe e0 75 c1 0f ba ad c0 33 cb 11 c0 b1 b6 05 c0
       -15.36743 -5.428962 -2.2780273 -2.0892756
0002e0 ff a1 88 c1 d7 07 34 c1 fa 89 28 c1 7b 8f 65 c0
       -17.0791 -11.251914 -10.533686 -3.5868824
0002f0 03 a7 7f c1 e5 c3 6a c1 fa 8e 4f c1 82 29 3d c0
       -15.978274 -14.672826 -12.972406 -2.9556584
000300 0b 05 fa 41 7c 9c 8c 42 ad 27 f2 bf 9c 34 0e c1
       31.252462 70.30563 -1.8918358 -8.887844
000310 75 59 93 42 68 19 b9 40 13 1d 11 c2 b7 6f 81 41
       73.67472 5.7843513 -36.278393 16.179548
000320 6c 50 9b 42 a0 58 46 42 e7 89 c2 40 ff 98 4b c1
       77.657074 49.586548 6.079334 -12.724853
000330 69 e0 fa c1 2c d0 56 c2 5a 9c c7 c1 5c f1 36 c1
       -31.359575 -53.703293 -24.951344 -11.433926
000340 cc cf 1e 40 ad 0a 24 c2 09 b0 d0 c1 89 84 b7 c1
       2.481433 -41.010426 -26.085955 -22.939714
000350 bc 3a a7 42 d0 0c 1f c3 a0 21 c6 c2 11 ef 89 c0
       83.614716 -159.05005 -99.065674 -4.310433
000360 44 29 a3 c1 34 40 c3 c1 2c 65 79 c2 a0 9b 62 c3
       -20.39515 -24.40635 -62.3488 -226.60791
000370 95 2e ac 42 47 46 c5 42 cf 8a b4 40 89 83 65 40
       86.09098 98.63726 5.6419444 3.5861533
000380 c0 15 72 c0 c5 d8 51 c1 08 98 d8 c1 a6 e0 3a c2
       -3.7825775 -13.115422 -27.074234 -46.719383
000390 77 72 e1 c1 2e a3 b8 c0 e4 da 1a 41 7b 51 32 c2
       -28.180891 -5.7699194 9.67844 -44.57957
0003a0 65 30 db c0 a5 25 f2 c0 a8 ab 7a 41 80 6d c8 c0
       -6.8496575 -7.5670953 15.666908 -6.2633667
0003b0 6e f7 96 c1 eb 18 37 c0 bf 71 21 42 74 57 38 42
       -18.870815 -2.8608959 40.36108 46.085403
0003c0 ef b7 6b 42 a3 58 3f c2 ae 19 b0 41 4f df a9 42
       58.929623 -47.83656 22.012539 84.93615
0003d0 8c 0b 0a c1 6b 25 9a c2 66 3f 3f 42 ac 6c 63 c1
       -8.627819 -77.07308 47.811913 -14.214031
0003e0 b6 98 0d c1 76 24 15 c2 51 ca 40 c0 8a a0 0a 40
       -8.849783 -37.285606 -3.0123484 2.1660485
0003f0 51 f5 cd 41 49 b7 bf c1 79 c3 8f c1 0e 5d bb c1
       25.744783 -23.964495 -17.970446 -23.420437

conv2.bias f4 [32]
000000 4d 35 34 c2 96 77 47 c2 2a 71 e8 c2 3b 61 8f c2
       -45.05205 -49.866783 -116.22102 -71.6899
000010 59 59 c6 c2 33 ff e1 c2 a8 6f b4 c2 90 fd 17 c2
       -99.17451 -112.998436 -90.21808 -37.99762
000020 f2 c1 69 c2 db 80 31 c2 45 85 71 c2 42 ee b3 c2
       -58.4394 -44.375835 -60.380146 -89.96535
000030 fb 01 e4 c1 a5 ee ad c2 55 d0 b3 c2 3a 27 6d c2
       -28.500967 -86.9661 -89.9069 -59.288307
000040 61 bd 9c c2 f9 4d ef 41 ff de 05 c2 d3 b2 a8 c2
       -78.36988 29.913073 -33.46777 -84.349266
000050 21 93 f2 c0 f5 78 88 c2 c5 56 b3 c2 ab 55 53 c2
       -7.58046 -68.236244 -89.66947 -52.83366
000060 60 44 e0 c2 0e 13 21 c2 88 3a a5 c2 15 b9 d7 c1
       -112.133545 -40.26861 -82.61432 -26.965372
000070 eb 52 6e c2 46 0a fd c2 85 42 e7 c2 97 f6 9d c2
       -59.580975 -126.520065 -115.62992 -78.98162

bn2.weight f4 [32]
000000 de d1 84 42 09 0c 4d c2 d3 ec bd c2 32 74 b3 42
       66.4099 -51.261753 -94.96255 89.726944
000010 4a 51 83 c2 4c 62 87 42 10 83 72 42 73 41 b1 42
       -65.65877 67.691986 60.62799 88.62783
000020 dd 6e 19 40 71 3e 85 42 bd 12 b7 42 ca bb a2 42
       2.3973916 66.621956 91.5366 81.366776
000030 a5 93 5a 42 65 7a 4c 40 d1 f6 b1 42 88 87 c2 42
       54.644184 3.1949704 88.98206 97.26471
000040 5a 1e b1 42 b4 fe b0 c1 f5 b0 51 41 3b 01 6d 42
       88.55928 -22.124367 13.105702 59.2512
000050 ca 6e a1 42 7f 8b ad 42 6a 30 88 42 55 92 ad 42
       80.716385 86.77245 68.09456 86.785805
000060 28 eb 8a c2 a8 a2 19 3f 71 8f c5 42 77 06 9e c1
       -69.45929 0.6001382 98.78016 -19.753157
000070 64 db 77 42 d2 7a 82 42 9d 43 b7 42 98 fd 55 42
       61.96425 65.23988 91.63206 53.49765

bn2.bias f4 [32]
000000 e3 20 1c 41 7c d5 47 c1 8a ac 8e c1 78 e1 73 41
       9.758029 -12.48962 -17.834248 15.242546
000010 db 64 b9 c0 6d e2 88 41 30 a1 0e 41 74 86 da 40
       -5.7935615 17.11056 8.914352 6.8289127
000020 73 f9 6b c0 07 1d 81 c0 90 da 0d c0 9f 66 96 3f
       -3.6871002 -4.0347934 -2.216465 1.1750067
000030 13 23 7e 40 dc cb af bf 0a 67 ac 41 c2 70 61 41
       3.9708908 -1.3734088 21.550312 14.090029
000040 d4 bb 19 41 8e 44 34 c0 2c e3 d3 40 b7 2e a3 40
       9.608356 -2.8166842 6.621481 5.0994525
000050 b1 cc 1d 41 83 5c b0 40 3d 50 9f 41 8f f2 98 41
       9.8624735 5.511293 19.914179 19.118437
000060 d9 db 11 c0 f7 a8 06 bf 14 cc 00 41 41 02 a5 bf
       -2.2790434 -0.5260157 8.049824 -1.2891313
000070 c5 20 4a 41 50 ad 36 41 e4 a6 28 41 70 b0 db 40
       12.633 11.417313 10.540745 6.865288

bn2.running_mean f4 [32]
000000 a2 cc ea 46 cd 9c 48 46 c4 4f ad 46 39 46 17 47
       30054.316 12839.2 22183.883 38726.223
000010 be f0 6c 46 76 c3 57 46 c8 e7 e2 45 e4 43 0c 47
       15164.186 13808.865 7260.9727 35907.89
000020 15 31 aa 46 e4 ce e0 46 93 31 da 46 74 cc 38 46
       21784.541 28775.445 27928.787 11827.113
000030 e1 d3 50 47 4f dc 3e 46 35 3f f5 46 f9 2f 9a 46
       53459.88 12215.077 31391.604 19735.986
000040 29 51 cd 46 65 40 c6 47 04 00 00 00 c8 86 90 46
       26280.58 101504.79 6e-45 18499.39
000050 01 49 1a 47 97 a8 36 47 04 9b c8 46 d0 fc 05 47
       39497.004 46760.59 25677.508 34300.812
000060 d5 8b 0a 46 cc d8 b3 46 ed 4c d4 46 3e 21 0c 47
       8866.958 23020.398 27174.463 35873.242
000070 8f 2a fb 45 4f ff 4c 46 5d d9 03 47 18 1a e6 46
       8037.32 13119.827 33753.363 29453.047

bn2.running_var f4 [32]
000000 fa 24 34 4f 66 53 85 4e 70 49 f1 4e b4 6d 97 4f
       3.0223222e+09 1.1184177e+09 2.0240609e+09 5.081098e+09
000010 a5 e0 cf 4e 4a 16 d2 4e 20 36 05 4e 23 d5 32 4f
       1.743803e+09 1.762338e+09 5.587292e+08 3.0003126e+09
000020 f2 ae 1b 4f 35 38 08 4f 96 88 53 4f 06 0e 81 4e
       2.6119337e+09 2.285385e+09 3.548944e+09 1.08259e+09
000030 e5 1b 92 4f de d7 9f 4e 75 c0 85 4f 51 85 0d 4f
       4.9026033e+09 1.3408622e+09 4.487965e+09 2.3743245e+09
000040 2b 14 0e 4f f5 38 88 4f 04 00 00 00 04 aa 07 4f
       2.3836864e+09 4.570868e+09 6e-45 2.2760663e+09
000050 8c b8 4f 4f 27 81 ac 4f dc 6f 2e 4f 40 e0 6e 4f
       3.4849782e+09 5.7882906e+09 2.9265664e+09 4.0076739e+09
000060 85 6f 1d 4e 20 be 1f 4f 91 44 49 4f 30 84 f9 4e
       6.6033286e+08 2.6800374e+09 3.376714e+09 2.0930949e+09
000070 28 78 36 4e 41 a7 87 4e 5e 58 8b 4f aa 4d 1a 4f
       7.65332e+08 1.1379427e+09 4.6756485e+09 2.588781e+09

conv3.weight f4 [64, 32, 5, 5]
000000 0b b4 69 42 d8 21 80 42 65 e5 9e 41 3d fd 98 41
       58.425823 64.0661 19.86201 19.123652
000010 c8 d6 87 42 08 2b 68 42 a8 40 aa c1 9b 0f 9b c1
       67.919495 58.042023 -21.28157 -19.38262
000020 22 5c ad c1 61 8f 36 42 3a 64 38 c1 67 08 a1 c2
       -21.669987 45.64002 -11.524469 -80.51641
000030 b8 2a 23 c2 53 16 d9 41 16 85 46 c2 19 a4 69 c1
       -40.791718 27.1359 -49.629967 -14.602563
000040 06 31 74 c2 24 cd 10 c2 1c c8 ce 41 10 5f be c1
       -61.047874 -36.200333 25.84771 -23.796417
000050 33 7d 18 c2 0a ed 56 c2 45 29 74 c0 73 77 b9 41
       -38.122265 -53.731483 -3.815019 23.183325
000060 ce 96 3f 42 86 b8 95 42 63 1c 72 42 87 ba a1 c0
       47.89727 74.8604 60.52772 -5.0540195
000070 70 e7 a8 c1 ad e7 e6 41 55 aa 9c c1 fe b1 5c 41
       -21.113007 28.863123 -19.58317 13.793455
000080 44 c6 0d 43 dc 87 70 41 05 27 03 3f 21 ab cc c1
       141.77448 15.033169 0.51231414 -25.583559
000090 73 ca 50 c1 83 e4 88 42 c3 48 b3 42 46 9d 6e 42
       -13.049426 68.44631 89.64211 59.653587
0000a0 e1 b5 d9 c0 23 d2 c2 c2 1c 87 e4 c2 26 aa 90 42
       -6.803452 -97.41042 -114.263885 72.33232
0000b0 f1 ca 96 42 0c ab e6 40 8b 29 e9 42 e2 c2 51 43
       75.39637 7.2083797 116.58114 209.76126
0000c0 ca 62 97 42 d9 b7 1a c2 aa 62 20 42 d8 8b 7e c1
       75.69295 -38.67954 40.09635 -15.909142
0000d0 43 38 69 c1 cb a6 c2 41 0d 05 d1 c1 e1 f7 f7 c1
       -14.576236 24.331442 -26.127466 -30.996035
0000e0 e5 49 40 42 1f 0e 91 42 bd db 72 c1 c0 56 59 42
       48.072163 72.52758 -15.178647 54.334717
0000f0 38 ec fc be bf 07 c3 40 a3 c7 99 42 ae d9 d7 41
       -0.4939897 6.0946956 76.889915 26.981289
000100 ea cb 82 c2 1a d1 03 c2 5e 60 d9 41 1d bc 22 40
       -65.39827 -32.9542 27.172054 2.5427315
000110 36 c5 a3 c1 95 2e 73 41 3b 0a 4e 42 67 5a 5b c0
       -20.471294 15.198873 51.50999 -3.4273927
000120 e9 ad 41 c2 7f 3a e6 c2 ad 85 96 40 ba a1 00 43
       -48.419834 -115.11425 4.703818 128.63174
000130 1e 0b 16 c1 e3 2e 3b c2 84 83 13 c2 a9 80 ec c2
       -9.377714 -46.795788 -36.878433 -118.25129
000140 ef ce fb 42 3b 44 12 41 75 ab 74 41 bf a4 09 c3
       125.90417 9.141658 15.29186 -137.64354
000150 20 dc 9e c2 59 4b f5 c0 6d 8e dd 41 ba 53 98 41
       -79.42993 -7.6654477 27.694544 19.040882
000160 a2 d5 81 c2 37 82 6c c2 ae 84 29 42 64 ee 72 42
       -64.91725 -59.127163 42.37957 60.732803
000170 8a c9 6d c2 e0 f8 60 c2 d1 10 00 bf 4d 1b 56 c1
       -59.446815 -56.243042 -0.5002566 -13.381665
000180 04 1e c0 c1 b9 27 1f c2 33 91 0d c2 8a 5b 68 c2
       -24.014656 -39.78879 -35.391796 -58.089394
000190 20 b7 81 c2 e3 4d 99 c2 18 02 a8 c1 50 af cf 42
       -64.857666 -76.65212 -21.001022 103.84241
0001a0 f6 87 43 42 46 77 37 c2 e8 a4 71 40 09 d6 8f 41
       48.882774 -45.866478 3.77569 17.97951
0001b0 ae d2 39 42 7f d1 05 42 98 16 ac 41 06 b4 3d c2
       46.45574 33.454586 21.511032 -47.425804
0001c0 24 3c 11 c2 3a d0 3e c2 c4 79 36 c2 8d df dd c2
       -36.30873 -47.703346 -45.61891 -110.93662
0001d0 7e d3 87 c1 39 9d 9d 42 61 fd 84 42 3e d8 37 c2
       -16.978268 78.807076 66.49488 -45.961174
0001e0 5a 1e 59 40 f4 e2 1d 43 2f ca a1 42 6b 87 a0 c1
       3.3924775 157.88654 80.89489 -20.066122
0001f0 a1 af a2 41 7e b7 c3 be 20 33 aa 42 4f 1b 17 41
       20.335756 -0.3822593 85.09985 9.444167
000200 f4 98 8f c2 1a f9 fb c1 a3 60 62 42 f4 19 35 42
       -71.79874 -31.496632 56.59437 45.275345
000210 41 ef 46 42 5d b0 25 c2 15 9b 15 c3 8d 31 5b c1
       49.733646 -41.42223 -149.60579 -13.699597
000220 38 df 23 41 c6 f7 1a 42 20 6f 45 c1 03 64 b9 c2
       10.241997 38.741966 -12.33963 -92.695335
000230 8c 4a b1 c0 dc da db 41 b5 ac 7e c1 3b c6 af c1
       -5.54035 27.481865 -15.917165 -21.971792
000240 17 a3 95 c2 b9 fc 6f 42 72 f5 3a 42 75 c7 5f 42
       -74.818535 59.9968 46.739693 55.944782
000250 50 a0 86 c2 54 0b 08 c2 6a 1a c9 c2 39 1c 34 c2
       -67.31311 -34.011063 -100.55159 -45.02756
000260 b4 9d 3b 40 b4 1b d1 c2 9d 8c 47 42 24 aa a3 c2
       2.9315004 -104.55411 49.887318 -81.832306
000270 e8 57 b1 c2 23 fc b2 c2 71 f4 91 41 87 b6 7d 42
       -88.67169 -89.492455 18.244356 63.42825
000280 66 f0 83 c2 6c 02 56 42 1b 61 8e 42 e5 4c 39 41
       -65.96953 53.502365 71.18966 11.581273
000290 bc 63 23 42 87 31 97 40 88 be a6 42 63 db 42 42
       40.847397 4.724796 83.37213 48.714245
0002a0 ec 9e 7e 40 22 1f 9d 42 c8 33 21 42 57 7e b1 41
       3.9784498 78.56081 40.300568 22.18669
0002b0 f7 bc f2 42 1b 4b 6a 41 75 cf a3 41 6a 73 dd 3f
       121.36907 14.643336 20.476297 1.7300847
0002c0 ec ec 00 c1 4a 9d b5 c0 2d 2d 98 c1 e7 a2 18 40
       -8.057842 -5.6754503 -19.022058 2.3849428
0002d0 24 bf b0 c1 65 a8 54 c1 3a ab 04 42 c9 53 6b 42
       -22.09333 -13.291112 33.167213 58.83182
0002e0 e7 3f 8f 42 07 52 45 c2 cc 9f 43 c1 21 f3 1f 3f
       71.62481 -49.330105 -12.226513 0.6248036
0002f0 cf 91 d6 c2 ed 9e 15 c2 55 3a a7 c1 c4 e3 38 c2
       -107.28478 -37.4052 -20.903482 -46.222427
000300 3b c4 8c 41 81 00 fa c1 33 ab 68 42 a8 f0 7d 42
       17.595816 -31.250246 58.167187 63.485016
000310 c8 38 5d 42 7c b2 b9 42 70 9b 9f 42 e5 42 5b 42
       55.30545 92.8486 79.80359 54.815327
000320 b5 b8 34 42 38 ac 88 c2 18 15 04 42 94 44 00 c2
       45.180378 -68.336365 33.0206 -32.06697
000330 1d b2 ab c1 24 50 23 42 a5 89 63 c0 d6 f3 8a c1
       -21.46197 40.828262 -3.5552762 -17.36906
000340 88 c4 1c 42 fe 76 2b 40 58 55 2f c2 a4 00 64 c0
       39.191925 2.6791377 -43.833344 -3.562539
000350 47 31 4f c2 e7 d3 02 3f b0 6a 51 c0 54 5d 9a c0
       -51.798122 0.5110459 -3.2721367 -4.8238926
000360 69 11 de 41 fa 92 eb bf d4 a6 64 41 5b 07 d2 c1
       27.758501 -1.8404229 14.2907295 -26.253592
000370 25 ce 92 41 f6 8a 29 c0 df e1 b1 40 b7 39 cd 41
       18.350657 -2.6491065 5.558822 25.653181
000380 8d 90 16 41 5a ef 50 c2 05 9d 12 42 81 40 8a 42
       9.410291 -52.23374 36.65334 69.125984
000390 95 4b 40 c1 2e 62 70 42 b7 8b 5a c2 26 80 57 c1
       -12.018453 60.09588 -54.63644 -13.468786
0003a0 59 42 92 c2 88 c8 f7 c1 b7 c6 65 42 ec 50 22 41
       -73.129585 -30.972916 57.444057 10.144756
0003b0 95 9e de 41 d5 0b 4d c0 1b 1d 04 c1 6a 34 61 be
       27.827433 -3.2038472 -8.257106 -0.2199265
0003c0 f6 3d 84 42 33 16 ac 41 fb 1c bc 41 4f 0c 26 42
       66.12102 21.51084 23.51415 41.51202
0003d0 ab bf d8 c2 e4 d4 e2 c2 18 f3 c9 c2 08 75 d9 41
       -108.37435 -113.4158 -100.97479 27.182144
0003e0 88 d2 21 3e 15 4e 28 c0 9e ba ce c1 2b f6 2b 42
       0.15802968 -2.6297657 -25.841122 42.9904
0003f0 55 c2 56 42 e0 a1 9c 41 2e e1 4e 42 64 4d 4a 42
       53.689777 19.57904 51.719902 50.575577

conv3.bias f4 [64]
000000 a1 9d 8e c2 72 11 19 c2 fe 51 ef c1 e7 89 13 c2
       -71.30787 -38.267036 -29.915035 -36.88467
000010 a1 19 68 c2 1f 1e ca c2 49 57 94 42 d9 f1 a5 bf
       -58.02503 -101.05883 74.17048 -1.2964431
000020 bf 5b 40 c2 65 03 0e c2 05 b4 1c 41 dd ab 22 c2
       -48.089596 -35.503315 9.79395 -40.667835
000030 c5 e0 c9 c1 e0 08 6a c2 c3 64 82 c2 49 09 b5 c2
       -25.23475 -58.508667 -65.1968 -90.518135
000040 32 08 cd c1 77 7e 21 41 3b 58 85 c0 77 5b 07 42
       -25.629002 10.093375 -4.1670203 33.83932
000050 01 8c 84 c2 4d 61 5d 41 8e 5a a4 c2 18 35 c0 c1
       -66.273445 13.836255 -82.176865 -24.025925
000060 83 be ae c2 28 2d 25 c1 2a fa 94 c2 68 f7 28 c2
       -87.37209 -10.323524 -74.4886 -42.241608
000070 70 32 93 c1 b8 5e 91 41 93 bc 51 41 68 5d 4e c1
       -18.399628 18.17125 13.108539 -12.897804
000080 db cf c2 c2 c0 31 ab c2 cd 3b b1 41 68 df 02 c1
       -97.40597 -85.59717 22.1542 -8.179543
000090 0c 81 a4 c1 45 a1 13 43 ad c5 62 c2 20 d1 86 41
       -20.563011 147.62996 -56.693043 16.852112
0000a0 e4 a7 1f 42 1d c8 a7 c2 11 a0 35 41 ae c3 ca c2
       39.913956 -83.89085 11.351579 -101.38219
0000b0 04 f8 94 c2 14 03 28 c2 1a 06 22 42 49 04 19 c2
       -74.484406 -42.003006 40.50596 -38.254185
0000c0 d3 02 83 c1 42 ad 79 c2 f6 5a b4 c2 bf 42 54 41
       -16.376379 -62.419197 -90.17766 13.266295
0000d0 7b b4 11 40 b9 5d 5e c2 bd 6b f7 c1 4b 8a 3a c2
       2.2766407 -55.591526 -30.927607 -46.63505
0000e0 42 a6 de 41 ae 90 f2 c1 2a 6f ca c2 e3 09 7f c2
       27.83118 -30.320644 -101.21712 -63.759655
0000f0 d6 0c 7a c2 9c 67 bd 41 82 cc c7 c2 92 53 5f c1
       -62.512535 23.67559 -99.89943 -13.957903

bn3.weight f4 [64]
000000 a1 df 99 42 1f 37 7e c2 e9 0f 5a 42 ea 7d 8e 42
       76.936775 -63.55383 54.515537 71.245926
000010 44 5f 43 41 26 cd 44 41 ef 6a ca 42 c5 57 ae 42
       12.210758 12.300085 101.208855 87.171425
000020 59 ec 60 c2 50 11 5b 42 fe 67 e2 42 4a 89 59 42
       -56.23081 54.766907 113.20311 54.38407
000030 64 a2 ac 42 6e cf fb c0 91 67 37 c1 e6 0f 0f c1
       86.31717 -7.869071 -11.462785 -8.941381
000040 95 39 89 42 81 e1 a8 42 96 55 a7 42 ec 2c a1 42
       68.612465 84.44044 83.66716 80.58774
000050 0f 21 9b c0 64 c7 50 c2 52 f8 28 41 12 a9 89 42
       -4.8477855 -52.194717 10.560625 68.830215
000060 f3 da 18 40 89 16 25 42 be b6 57 c1 4e c2 34 c2
       2.3883636 41.272007 -13.482115 -45.18975
000070 d0 57 5a c2 9d 37 95 42 7e c0 41 c0 86 2a 63 42
       -54.585754 74.60862 -3.0273738 56.791527
000080 db 9e d0 40 04 80 cb c1 23 d1 63 42 3f c4 3e 42
       6.5193915 -25.437508 56.954235 47.691647
000090 c5 dc a3 42 dd f9 1d c0 b3 d6 1a 42 f4 d0 8c c2
       81.93119 -2.4683754 38.709667 -70.40811
0000a0 60 ae 70 42 99 ff c0 c0 8a b5 a0 c2 9a 50 ac bf
       60.170288 -6.031201 -80.35457 -1.3462098
0000b0 6d 7c 1a 41 28 3c aa 42 d4 a4 14 43 38 0e d1 41
       9.655377 85.11749 148.64386 26.131943
0000c0 00 05 67 42 7f d5 6b c1 e3 d5 b9 41 5a 94 84 42
       57.754883 -14.739623 23.229437 66.28975
0000d0 10 8e cf 42 fa df 9a c1 62 50 a0 42 b4 2c 3c 42
       103.777466 -19.359364 80.157 47.043655
0000e0 44 41 b5 42 20 3a 84 42 1a e3 3f c1 98 29 0a 42
       90.62747 66.113525 -11.992945 34.54062
0000f0 d7 ac ff 3f 23 36 9f 42 82 79 b6 41 df 72 88 42
       1.9974622 79.605736 22.80933 68.22436

bn3.bias f4 [64]
000000 eb f5 ed 3e 97 b2 74 c2 a8 fd ba 41 3d 81 c6 c2
       0.46476683 -61.174404 23.373856 -99.25242
000010 4b 0f 26 c3 9f d5 23 43 8b 35 a0 c0 bc b5 aa c2
       -166.05974 163.83446 -5.006536 -85.35495
000020 0e 5e d8 41 d7 ea 03 42 e1 0f a8 41 85 b4 af c2
       27.045925 32.979336 21.007753 -87.85258
000030 fc bc 3f 41 58 5a 4f 43 0e a5 41 c3 d5 2e 31 41
       11.983639 207.3529 -193.64474 11.073934
000040 80 40 da 42 c5 c5 7c 42 6f f2 bb c2 55 39 83 3f
       109.12598 63.193134 -93.9735 1.0251871
000050 11 06 1f 43 2c 3b 09 41 3b d4 db 41 3c 8b 07 42
       159.0237 8.576946 27.478628 33.88597
000060 f6 62 d4 3e 22 a9 1d 42 27 9a 35 43 46 5e 20 c3
       0.4148175 39.41517 181.60216 -160.36826
000070 c2 50 bb c1 b2 a2 80 41 8c 9f 76 c0 0c 4d f7 41
       -23.414433 16.079441 -3.853488 30.91262
000080 70 f2 51 c0 b7 c5 69 c0 34 96 3c c2 c0 45 39 42
       -3.2804222 -3.6526926 -47.146683 46.318115
000090 26 ec 71 bf 31 bf 8f c0 df 58 84 41 7e 5f ea c1
       -0.9450096 -4.492089 16.543394 -29.296627
0000a0 91 f7 90 42 ab 47 fe 42 f1 0d 00 c2 f5 41 8c 40
       72.48353 127.13998 -32.013615 4.3830514
0000b0 5e 67 00 41 ce 2d 48 42 f1 d4 fb c0 54 f1 6e c2
       8.025236 50.04473 -7.869744 -59.735672
0000c0 c3 58 80 c2 cf 47 6d 42 b2 98 93 be a3 00 d0 42
       -64.17336 59.320126 -0.28827435 104.00124
0000d0 76 de f3 41 d3 75 9c c1 ca 0f b2 c2 5f 8b c3 c1
       30.483624 -19.557531 -89.03084 -24.443052
0000e0 23 81 14 43 37 32 79 c1 de 5c 6a 43 83 58 cd c2
       148.50444 -15.5747595 234.36276 -102.672874
0000f0 86 3c a5 42 50 36 68 c2 38 e8 21 42 ef 1b 32 42
       82.61821 -58.05304 40.476776 44.52728

bn3.running_mean f4 [64]
000000 3e 1e bc 47 57 3c 6f 47 d2 73 17 47 7e 9a d9 47
       96316.484 61244.34 38771.82 111412.984
000010 6b 25 26 47 78 f5 ea 43 77 ed 11 48 ed 43 02 48
       42533.418 469.91772 149429.86 133391.7
000020 f4 1c cf 47 e1 cb 90 47 a2 0b c7 47 33 ba f3 46
       106041.91 74135.76 101911.266 31197.1
000030 10 c3 a4 47 00 aa 6d 44 5c 25 2a 47 d6 8d 3e 45
       84358.125 950.65625 43557.36 3048.8647
000040 dd 17 51 47 75 cb d2 47 37 55 af 47 4d 76 d6 47
       53527.863 107926.914 89770.43 109804.6
000050 e5 31 4c 45 0c 7b 7e 47 f6 c0 d0 45 59 1f 33 47
       3267.1184 65147.047 6680.12 45855.348
000060 5c 1d da 45 17 6b 0c 47 5d c2 0a 45 89 2d 93 46
       6979.67 35947.09 2220.1477 18838.768
000070 15 6d 4f 47 53 d7 b4 47 c4 57 bb 47 10 ec 0e 47
       53101.082 92590.65 95919.53 36588.062
000080 14 12 28 46 33 e4 d8 46 95 be df 47 36 90 55 47
       10756.52 27762.1 114557.164 54672.21
000090 a4 39 c7 47 b3 a6 8a 48 ca d6 32 47 2e 2b 3b 47
       102003.28 283957.6 45782.79 47915.18
0000a0 2b d6 34 47 0f db 0a 46 6f ce 61 47 15 d1 c2 45
       46294.168 8886.765 57806.434 6234.1353
0000b0 4d 07 52 44 a8 89 cd 47 29 6c 60 48 cc c3 8c 47
       840.1141 105235.31 229808.64 72071.59
0000c0 e5 f8 5d 47 17 04 06 43 88 f3 b0 46 bd 48 7c 47
       56824.895 134.01598 22649.766 64584.74
0000d0 d6 21 aa 47 16 01 10 46 14 dd c5 47 49 3d be 46
       87107.67 9216.271 101306.16 24350.643
0000e0 81 d0 d4 47 56 e3 0a 47 77 a3 8c 46 86 b9 33 46
       108961.01 35555.336 18001.732 11502.381
0000f0 f4 39 3c 44 eb a6 2f 48 62 f5 04 47 9b 70 3e 47
       752.9055 179867.67 34037.383 48752.605

bn3.running_var f4 [64]
000000 54 24 68 50 77 97 e4 4f 23 de b5 4f 51 3f 81 50
       1.557878e+10 7.6702633e+09 6.102468e+09 1.7347283e+10
000010 9c 5c 0a 50 63 02 55 4c 97 73 be 50 a4 e0 bb 50
       9.2853e+09 5.5839116e+07 2.556197e+10 2.5216492e+10
000020 46 bd 97 50 de 03 3f 50 73 0d 7c 50 0d a6 6a 4f
       2.036611e+10 1.2818807e+10 1.6914959e+10 3.9367508e+09
000030 b6 d0 80 50 ae 32 85 4c e5 f1 10 50 72 5d ae 4d
       1.7289294e+10 6.98341e+07 9.727088e+09 3.6566995e+08
000040 36 25 c8 4f 85 e1 a1 50 75 0a 5f 50 ae a7 2d 50
       6.7157637e+09 2.1727291e+10 1.4968018e+10 1.165379e+10
000050 99 0e 6f 4d 4e 6f 06 50 8d c9 57 4e e4 18 dd 4f
       2.5066946e+08 9.021766e+09 9.0507757e+08 7.418792e+09
000060 8a 91 9e 4e e4 34 e6 4f 70 29 9c 4d f2 f6 1a 4f
       1.3301691e+09 7.724452e+09 3.2749517e+08 2.599875e+09
000070 71 ae 00 50 16 1b 1e 50 d2 21 f8 50 39 99 92 4f
       8.635663e+09 1.0610301e+10 3.3303728e+10 4.9190303e+09
000080 d8 14 f6 4e a6 b3 82 4f ae 7a 92 50 dd b3 07 50
       2.0642806e+09 4.385623e+09 1.9660108e+10 9.106847e+09
000090 98 15 85 50 a0 4a 4e 51 de c5 d2 4f 5f b2 f4 4f
       1.786228e+10 5.5375954e+10 7.0723656e+09 8.210661e+09
0000a0 ac 22 fe 4f ac a2 a4 4e 9a ca 1b 50 b3 03 3c 4e
       8.52737e+09 1.3810621e+09 1.0454985e+10 7.8858976e+08
0000b0 dc b1 6b 4c 2f 0b b9 50 c5 35 1e 51 0e 19 39 50
       6.178597e+07 2.4836143e+10 4.2469183e+10 1.2421708e+10
0000c0 23 28 05 50 c7 d2 2f 4a fa eb 57 4f e3 a3 22 50
       8.936001e+09 2.8806898e+06 3.6225664e+09 1.0914598e+10
0000d0 2b 31 7b 50 cd a9 ab 4e 49 f7 56 50 8f bf 69 4f
       1.6857214e+10 1.440016e+09 1.4426121e+10 3.9216453e+09
0000e0 0e 1c 8e 50 d0 b4 81 4f 85 13 54 4f 11 8c b0 4e
       1.9073626e+10 4.352221e+09 3.558049e+09 1.4809847e+09
0000f0 ac ad 58 4c 5b 95 cc 50 76 fd f3 4f 08 00 02 50
       5.6800944e+07 2.7458722e+10 8.1869486e+09 8.72416e+09

fc1.weight f4 [256, 64]
000000 43 7b 74 c1 2c 0c e1 40 f4 67 3c 40 d5 2d 22 40
       -15.280093 7.032736 2.9438448 2.5340474
000010 55 ab b7 40 8b 26 fe c0 3f 91 12 41 bb 15 5c 41
       5.7396646 -7.942205 9.16046 13.755305
000020 de d7 87 40 45 47 35 41 b0 61 70 c0 c2 27 22 41
       4.245101 11.3299 -3.7559624 10.1347065
000030 8d 9b 25 c1 e3 77 45 40 35 65 59 41 19 ac 67 c1
       -10.350476 3.0854423 13.587209 -14.479516
000040 f8 b2 ff c0 86 7f 6f 40 97 25 98 41 09 16 a1 40
       -7.990597 3.7421584 19.018354 5.03394
000050 f6 10 bb c0 ec 6a 06 c1 ad a7 25 40 75 62 d9 c0
       -5.8458204 -8.401104 2.588359 -6.7932687
000060 e5 9b 26 c0 c2 b2 b8 c0 cc f2 16 c1 96 80 e0 40
       -2.603265 -5.771821 -9.434277 7.0156965
000070 c7 d2 f8 c0 06 dc 62 40 c4 71 41 41 ba 9c e2 40
       -7.7757297 3.5446792 12.090275 7.0816317
000080 fb f9 19 c0 4a ed 18 40 e0 60 20 41 49 22 3a 3f
       -2.4058826 2.389483 10.023651 0.72708565
000090 cf 09 59 41 8a 8e 1a c1 82 3f c2 be 6c 2a 8d 3f
       13.564895 -9.6598 -0.37939078 1.1028571
0000a0 f6 78 6b c0 62 f8 da c0 63 3c 50 40 90 bb 02 c1
       -3.6792579 -6.84282 3.2536857 -8.170792
0000b0 23 0a 20 c0 0d 98 28 bf 23 98 62 40 ae 3d 63 41
       -2.5006187 -0.6585701 3.5405357 14.2025585
0000c0 ab e4 ce 3f ce fb 30 41 a6 32 13 3f 1a 9b 7e 40
       1.6163534 11.061476 0.5749916 3.9782166
0000d0 2b b4 b6 40 63 24 c4 c0 38 fa 20 40 04 04 00 41
       5.709493 -6.1294417 2.5152721 8.00098
0000e0 f5 80 a5 c0 c9 35 71 40 d2 56 ef c0 42 ab 2d 41
       -5.171992 3.7689078 -7.479348 10.854311
0000f0 04 b8 a1 3f 57 b3 a8 40 48 a6 e9 bf 00 11 0b c1
       1.2634282 5.271892 -1.825387 -8.69165
000100 78 42 48 40 51 d5 1b bf 98 db 33 41 c6 32 2a 40
       3.129057 -0.6087237 11.241112 2.659349
000110 bc 4b 4f 41 aa 00 e0 c0 a9 6e 98 c0 0e 7d 38 3f
       12.95599 -7.000081 -4.7635083 0.7206582
000120 30 09 29 41 f3 5c 16 c0 1c 24 75 c1 23 01 42 41
       10.564743 -2.3494232 -15.321316 12.1252775
000130 c7 78 ab 40 0a 08 d6 c0 1a dc 2c 41 8c b4 c8 c1
       5.3584933 -6.6884813 10.803736 -25.088158
000140 a2 21 31 c0 16 39 48 c1 92 58 e2 40 f0 86 8f c1
       -2.7676778 -12.513937 7.073312 -17.940887
000150 58 a0 55 c1 86 c2 09 c1 3d 04 91 40 1b 0f 16 40
       -13.351646 -8.609991 4.5317674 2.344672
000160 01 e5 09 c1 9d 1d 73 41 fd 5e 00 c1 51 58 4c 41
       -8.618409 15.19473 -8.0231905 12.771562
000170 bc 78 58 c1 65 20 ac c0 ca 80 8e 41 3f 65 a5 41
       -13.529476 -5.3789544 17.812885 20.674437
000180 d5 0f 4b c1 4b 85 8a 40 09 29 3f 41 73 d1 da 3e
       -12.691365 4.328771 11.947518 0.42737922
000190 cb 22 49 bf 17 b1 b9 c0 51 d2 7e c1 19 2d 82 40
       -0.78568715 -5.8028674 -15.926347 4.068005
0001a0 82 4c 0e c1 30 89 b5 c0 09 fa fb 3f ec 8e 11 c1
       -8.893679 -5.6729965 1.968568 -9.097393
0001b0 b0 1b 39 c1 05 76 0b c1 56 f9 17 bf 9d be 3a 41
       -11.56926 -8.716313 -0.5936483 11.671536
0001c0 70 dd 17 41 b2 26 d9 3f 2b 7d 4e c0 04 5f 58 c1
       9.491562 1.6964934 -3.2263896 -13.523197
0001d0 13 04 ee 40 8d 16 67 40 f6 c3 a8 c1 4d 88 6a 41
       7.4379973 3.6107514 -21.095684 14.658277
0001e0 e0 3b ce c0 0e 81 91 41 a4 8d 32 c1 ec 46 e9 40
       -6.444809 18.188015 -11.15958 7.2899075
0001f0 cf 0b 6b c1 35 1c 57 41 07 71 8b be 78 81 4b c1
       -14.690383 13.4443865 -0.2723467 -12.719109
000200 1a 4c c8 c0 7c f7 41 41 e5 b4 b1 40 34 05 44 41
       -6.2592897 12.122921 5.553332 12.25127
000210 fb 90 37 41 29 18 cf c0 1c cf 64 c0 66 d0 a8 40
       11.472896 -6.471699 -3.575141 5.2754393
000220 03 47 32 bf 45 55 1a 40 6c ac 5e c1 56 3f 1d 41
       -0.69639605 2.4114544 -13.917095 9.827963
000230 cf 60 57 c1 85 59 a1 c0 28 07 f6 40 64 2c 15 c1
       -13.461135 -5.0421777 7.6883736 -9.323338
000240 e8 61 38 40 70 6a 3d 3f d2 d8 17 41 7d 5f 1d 41
       2.8809757 0.73990536 9.490435 9.835813
000250 ff fc 81 c1 1d 13 64 c1 6e 70 21 c0 63 92 8c 40
       -16.248533 -14.254666 -2.5224872 4.3928695
000260 67 f8 23 c1 c2 15 9d 41 7c 04 79 c0 5d 9b a4 40
       -10.248145 19.635624 -3.8908987 5.1439652
000270 f2 f8 b0 40 a8 9a d6 40 35 f4 00 41 a5 89 15 41
       5.530389 6.706379 8.059621 9.346105
000280 dd 7a 57 c0 58 7a 82 3f 47 c8 2a 3f 00 69 d8 c0
       -3.366874 1.0193586 0.6671185 -6.7628174
000290 da 8c 98 40 05 9c c5 c0 be 8c ad 40 73 22 63 c0
       4.767194 -6.1752954 5.4234304 -3.5489776
0002a0 92 43 89 3f d5 e2 2e c1 15 05 ff bf 54 1e 96 c0
       1.0723746 -10.930379 -1.9923426 -4.691202
0002b0 dd 3f f8 40 ef f1 b3 c0 21 e4 6d 40 c8 3c 22 41
       7.757796 -5.623283 3.717049 10.139839
0002c0 9b 08 13 41 9d 55 e3 be 57 3e 21 c1 b2 2f 4f 40
       9.189601 -0.44401255 -10.07772 3.237286
0002d0 7b d9 5d 41 f6 aa 20 40 49 19 98 40 16 98 8b 40
       13.865596 2.5104346 4.7530866 4.362315
0002e0 ea 92 86 c0 b4 e3 2a 3f 43 6b 84 c1 54 87 1f 41
       -4.205434 0.667537 -16.552374 9.970539
0002f0 31 c4 19 c0 97 a9 56 c1 b5 1d 70 40 34 33 2c 3f
       -2.4025996 -13.416404 3.7518132 0.6726563
000300 57 ed ba c1 d1 b0 32 41 35 cf da 3e d1 73 7f c0
       -23.365889 11.168168 0.4273621 -3.9914439
000310 d9 cd 1b 41 d3 94 25 c1 23 10 93 41 a5 e3 fa 40
       9.737756 -10.348834 18.38288 7.8402886
000320 d1 3f 9b 41 53 0b 10 c0 06 70 ca 40 49 4f fa 40
       19.40616 -2.2506912 6.3261747 7.8221784
000330 5e 40 42 c1 d0 5e 1f c1 27 64 2e 41 8e de 24 c1
       -12.140715 -9.960648 10.899451 -10.304335
000340 e7 90 82 c1 4b 9d 02 c1 2b 04 7f 41 44 b6 07 c1
       -16.320753 -8.163402 15.938518 -8.481998
000350 08 bc 2b c1 e8 4c a6 c1 74 1a 5d c1 3f 6e 4b 40
       -10.733406 -20.787552 -13.818958 3.178604
000360 38 c7 16 c1 49 19 8e 41 e6 04 93 c0 d0 c8 55 41
       -9.423637 17.762346 -4.594348 13.3615265
000370 0c b8 f6 c0 bf dc 57 3f c0 59 1a 41 5c 92 20 c1
       -7.7099667 0.84321207 9.646912 -10.035732
000380 19 be e3 c0 07 d3 18 41 0d b7 9c 41 8f fc 95 c1
       -7.1169553 9.55152 19.58938 -18.74832
000390 eb 3c 43 c0 ac 79 bf c0 1d 41 6c c1 98 90 c9 3f
       -3.0505931 -5.9836025 -14.765897 1.5747252
0003a0 2c 4e 7d c1 67 88 7a 3f bd 15 42 bf 39 45 00 c1
       -15.831585 0.97864383 -0.7581442 -8.0169
0003b0 8d 46 0d be fd c7 99 c1 f5 84 1a 40 66 d1 f1 40
       -0.13796444 -19.22265 2.414365 7.5568113
0003c0 05 73 94 41 60 9c 71 c0 46 f1 9f bf f9 01 c3 c0
       18.556162 -3.7751694 -1.2495506 -6.093991
0003d0 4e b9 8b 41 77 37 0b 41 bd 91 cd 3f 81 fa 35 41
       17.46548 8.701041 1.6060101 11.373658
0003e0 c9 33 09 c1 6c ae af 41 d2 57 04 c1 89 9b 41 41
       -8.575143 21.960167 -8.2714405 12.100472
0003f0 aa af ae c1 ef 87 23 c0 e3 13 00 c1 3f 0d 03 c1
       -21.835773 -2.5551717 -8.004855 -8.190734

fc1.bias f4 [256]
000000 cc bc 7b c1 fa df 61 c1 cd 3e f1 c0 5d e1 3f c1
       -15.733593 -14.117182 -7.538916 -11.99252
000010 3f d4 a2 c1 67 b6 75 c1 0d 86 66 42 6f 47 53 c1
       -20.353636 -15.357032 57.63091 -13.20494
000020 62 29 a0 c1 d6 9c 26 c1 66 dc 8c c1 58 85 77 c1
       -20.020206 -10.41329 -17.607616 -15.470055
000030 e2 0f 63 c1 6b 56 83 c1 bc dd 00 c1 e1 4b 42 c1
       -14.191378 -16.417196 -8.054134 -12.143525
000040 b7 01 5b c1 b6 58 81 c0 c9 f4 36 c1 0f d4 92 c1
       -13.687919 -4.042079 -11.434762 -18.353544
000050 c4 61 81 c1 2e dc b6 c1 1c 91 5b 42 c3 d4 8c c1
       -16.172737 -22.85751 54.89171 -17.603888
000060 87 09 50 42 c9 c9 3f c1 65 e0 3c 42 d7 5f 8e 42
       52.009304 -11.986764 47.219135 71.18719
000070 69 8b 87 42 02 82 ab 42 20 a4 98 c1 f3 b8 91 c1
       67.772285 85.75392 -19.08014 -18.215307
000080 cf df 7e 42 c6 09 0e c1 dc 1a e7 42 f7 f7 c5 42
       63.718563 -8.877386 115.55246 98.98431
000090 e7 0a 8d c1 6c 15 63 c1 65 f4 c3 c0 07 6b 84 c1
       -17.630323 -14.19273 -6.1235833 -16.55226
0000a0 d7 24 8a c1 68 2e 1b c1 3a 98 6d c1 49 56 6e c1
       -17.267988 -9.69883 -14.849665 -14.896066
0000b0 51 f1 52 c1 b6 be 25 c1 56 fc a2 c1 6b 3d 32 c1
       -13.183915 -10.35906 -20.37321 -11.139995
0000c0 8e 08 41 c1 10 bc 40 c1 88 f6 8b 42 59 a0 74 c1
       -12.064589 -12.045914 69.98151 -15.289147
0000d0 9e 4e ac 42 ce 70 12 42 c6 24 31 c1 8a df 04 c1
       86.15355 36.61016 -11.071478 -8.304575
0000e0 65 12 57 42 d4 da 84 42 45 d4 2f c1 05 f6 00 c1
       53.767963 66.4274 -10.989324 -8.060063
0000f0 3a a9 4d c1 42 56 0f c1 ac ea 7f c1 8c 45 bc c0
       -12.853815 -8.958559 -15.994793 -5.8834896
000100 3f bb 94 c1 0f c8 8a 42 37 8f 2f c1 c5 59 ac 42
       -18.591429 69.39074 -10.972465 86.17533
000110 ae fc cf c0 60 cd 3c c0 92 52 3c 42 03 e1 6c 42
       -6.4995947 -2.950035 47.080635 59.219738
000120 3d 15 23 c1 b2 55 2b c1 9c 35 18 42 ca 00 f1 41
       -10.192685 -10.708422 38.052353 30.125385
000130 9f 2f 4c c1 68 ad 24 42 f5 85 19 c1 c3 ee 02 c1
       -12.761626 41.169342 -9.595204 -8.183291
000140 93 97 4e c1 fe 6f 04 c1 c9 84 1e c1 6a 05 58 c1
       -12.912005 -8.277342 -9.907418 -13.501322
000150 b4 43 89 c0 75 bb 20 c1 ed ed b3 42 24 b9 a3 41
       -4.2895145 -10.045766 89.9647 20.4654
000160 db 41 97 c1 4b 15 a2 c1 f9 2c d4 c1 6f eb 50 c1
       -18.907156 -20.260397 -26.52196 -13.057479
000170 5d b9 89 c1 ff d8 79 42 7e 27 88 c1 4c 07 93 c1
       -17.21551 62.46191 -17.019283 -18.378563
000180 14 21 97 42 56 53 80 c1 4d bd b4 42 72 dd f5 c0
       75.564606 -16.040691 90.36973 -7.683282
000190 7d 5e ac c1 b0 37 7a c1 cf 28 fa 42 f7 34 4e 42
       -21.546137 -15.638596 125.079704 51.551723
0001a0 c6 34 92 c1 ee 53 71 42 c4 6c a0 c1 d8 8c 81 c1
       -18.275768 60.331963 -20.053108 -16.193771
0001b0 22 68 1c 42 2f 90 88 c0 90 2c 4d 42 3a 53 0c c1
       39.101692 -4.2676005 51.293518 -8.770319
0001c0 74 f1 23 c1 0e 8d 15 c1 16 55 81 c1 ab c7 41 c1
       -10.2464485 -9.346937 -16.166546 -12.111247
0001d0 9a 26 75 c1 69 d4 74 c1 d9 65 5c c1 35 c7 25 c1
       -15.321924 -15.301858 -13.774865 -10.361135
0001e0 a3 9b c3 42 aa cf 43 c1 6d 98 57 42 21 1c b3 c1
       97.80398 -12.238199 53.898853 -22.388735
0001f0 17 41 86 c1 a5 00 a3 c1 c1 c0 6b c1 a3 d1 b0 42
       -16.781782 -20.375315 -14.734559 88.40945
000200 9a b5 85 c1 df c9 e4 41 8d 36 8a c1 5e c3 bf c0
       -16.713673 28.59857 -17.276636 -5.9925985
000210 e5 b8 e7 42 b1 36 51 c1 79 27 ca c0 f5 33 a3 c1
       115.86112 -13.075852 -6.3173184 -20.40037
000220 e2 67 aa c0 14 ae be be f6 dd 76 42 d1 ac 97 c1
       -5.325181 -0.37242186 61.71676 -18.959383
000230 24 73 a2 42 ac 8d fa c0 96 4e 05 c1 a7 1a 11 43
       81.224884 -7.829794 -8.331686 145.10411
000240 b1 d2 a8 c0 d9 62 be 42 9e e6 01 43 3c 76 8b c1
       -5.275719 95.19306 129.90085 -17.432732
000250 39 dc b3 42 57 4b df c0 29 16 32 c1 db 22 bd c0
       89.93012 -6.9779468 -11.13041 -5.910505
000260 81 98 38 c1 3d 47 10 c1 e1 a3 40 42 00 fc 1e 42
       -11.537232 -9.017392 48.160038 39.746094
000270 36 13 2f c1 82 52 6b c1 a2 83 06 c1 99 5b b8 42
       -10.94219 -14.7076435 -8.407137 92.1789
000280 ce 30 a5 c1 8a cd 37 c1 d2 a1 ec c0 67 14 8b c1
       -20.64883 -11.48768 -7.3947535 -17.384962
000290 8d c8 bf 41 2d dd 3b c1 0e 44 80 c1 74 9a 54 c1
       23.972925 -11.741498 -16.03323 -13.287708
0002a0 87 da 5b c1 50 5a 4f c1 b7 2c 4b 42 df 14 76 c0
       -13.740851 -12.959549 50.793667 -3.8450239
0002b0 e4 09 2c c1 c9 31 02 c1 2f 3f b1 42 fe 39 67 42
       -10.752415 -8.137155 88.623405 57.806633
0002c0 26 c5 82 42 3b 46 a5 41 fe 31 a2 42 cb 97 70 c0
       65.385056 20.659292 81.09764 -3.7592647
0002d0 28 cf 83 c1 8b 8a bd 42 ac 38 4c c1 c0 6f e7 c0
       -16.47615 94.77059 -12.763836 -7.2323914
0002e0 14 a8 12 42 e5 7d 72 42 dc b2 b3 42 8d 66 f9 c0
       36.66414 60.622944 89.849335 -7.7937684
0002f0 6f 72 f1 bf 12 3b 4f c1 1f 2c ae c0 6c 3c 65 c1
       -1.8863047 -12.951921 -5.442886 -14.327251
000300 3c df 23 c1 6a b4 f4 c0 e2 15 2c c1 d4 df a1 c1
       -10.242001 -7.647023 -10.7553425 -20.234291
000310 6c 3c b5 c0 22 0a 3c c0 f4 5f 45 c1 1a 87 90 c1
       -5.6636257 -2.9381185 -12.335926 -18.065968
000320 69 69 3f 42 d1 a5 ae c1 31 04 20 c1 c4 c9 88 c1
       47.85294 -21.830965 -10.001023 -17.098518
000330 1b 63 af c1 9c 55 3d c1 ab 03 2e 42 36 f4 7f c1
       -21.923391 -11.833401 43.503582 -15.997122
000340 f1 27 a3 42 11 9d 64 c1 ad 4d 3d c1 d2 d6 33 c1
       81.57801 -14.288346 -11.831464 -11.239946
000350 cb 0f 4a c1 5b 62 30 c1 eb 7d ab c1 e8 77 b2 c1
       -12.628856 -11.024013 -21.436483 -22.308548
000360 f3 79 1f c1 88 f9 04 c1 ac c8 66 c1 68 00 27 c1
       -9.967273 -8.310921 -14.423992 -10.437599
000370 76 10 f4 c0 bd e1 b7 42 37 18 79 c1 ca 86 34 c1
       -7.6270094 91.940895 -15.568412 -11.2829075
000380 5b a6 7a 42 7b a7 98 c1 00 4f 2a c1 5a 93 27 c1
       62.662457 -19.081778 -10.644287 -10.4734745
000390 ea 7b 13 c1 3c 79 46 c1 5a 47 99 c1 e2 9c 47 42
       -9.217752 -12.404598 -19.15984 49.903206
0003a0 40 d7 16 c1 ff 4f 3f c1 dc 88 90 42 ed 0b 5b c1
       -9.427551 -11.95703 72.2673 -13.690412
0003b0 0e d8 37 c1 d1 ef cc 42 be 29 88 c1 25 8e 77 c1
       -11.490248 102.46839 -17.020382 -15.472203
0003c0 67 fb 02 43 67 2f 2b c1 cc b8 49 c1 41 ce 15 c1
       130.98204 -10.699073 -12.607616 -9.362855
0003d0 a7 fa 4c c1 40 21 72 c1 f9 44 4a c1 67 1f ca 42
       -12.811194 -15.133118 -12.641839 101.06133
0003e0 2f ec 27 42 2b 78 ae c0 17 81 a7 42 99 4b ef c0
       41.980648 -5.452169 83.75213 -7.477978
0003f0 2a 07 13 40 f7 a2 4c c1 0e ee 12 c1 5d 4b 4c c0
       2.2973123 -12.789786 -9.183119 -3.1920998
