mini_batch_exp/models/mnist_adam_batch32768_lr0.1.pt (torch_old, 968477 bytes, 62 tensors)

conv1.weight f4 [16, 1, 3, 3]
00000000: 8a38 ecbe 97a0 4cbe f617 ea3e 95ed 82be
00000010: 39d7 94be 8f68 0b3f 047d 93be 319b 8fbc
00000020: 5274 203f 4ef5 033f 6992 8a3f 6c8a 153f
00000030: 58bc 763f 0d0a c13e 65a3 993e a9d7 36be
00000040: c68c e8bd 8d00 3f3e 6f8e 13bf 40d4 c8be
00000050: 5b21 423f 8752 36bf 3cb7 a73e e23d 183f
00000060: 1fc5 d3be 1469 d3bc 5ab2 d9bd 0024 383f
00000070: 6a28 5fbd 8bba 8bbf cc01 c63e 37d0 773e
00000080: ebc4 b0bf 73b9 f33d a96f 303f 372e 2d3f
00000090: a7eb 033d ce95 36bd f219 13bf 8140 c53e
000000a0: 968b b83e 08b1 983e 12e8 013f fa4a 2c3f
000000b0: 604a ed3e eb28 6dbf 1a22 993d 39b5 0b3e
000000c0: 97ad 65bf f157 323e 267b 513f ef2e 00bf
000000d0: a0e0 b4be f4bd 923e f0a3 58be 8465 ba3e
000000e0: 306c efbe bbf2 333f 30d2 663f ee7a a63e
000000f0: 859b 623f b582 2b3f a23e 033f 54bf bd3e
00000100: 72dd a7bd f647 7b3f c631 81bd 2db5 a03d
00000110: b7c3 3b3f 5499 66bf 570d 15bf 5dfb 453e
00000120: 370d 2cbf c6a5 07bf 51af 55bf 8d0a 513f
00000130: 871f 3ebf 8aa9 1dbf a7c9 4d3f 8c8b 1b3f
00000140: 68ff 393e 3d44 f63a a48d 093e c72d 7dbe
00000150: 9afc cc3e 7d74 3e3f 2628 973e 3ca7 e1be
00000160: 5bc5 51bf 57d2 61bc 3b7f 0c3f 3735 6a3e
00000170: 3b3e 95bf 48cf 273f 1194 d73e 57f9 8ebf
00000180: 42b6 52be 6b12 9bbf 41be 0ebf 09df 7abf
00000190: 84ba d8be 6bce b63e ac6a fbbd c9d5 4e3f
000001a0: 3e09 e43e 5958 ae3e 8ea0 1d3e 221b b6bf
000001b0: 7bef b23e 1ee7 473f fb16 bb3e 64ea 9d3e
000001c0: 795a cd3e 8c11 ed3e de9b 95bf 0e55 2ebf
000001d0: 36da 76bd c3ce ae3e 8e30 663f 1921 f83e
000001e0: deaf 493f b140 823f d19b 043e af8a 133e
000001f0: bb11 1b3e 3342 00bd 6358 6e3d 47a8 9f3e
00000200: 5a4a 7abf 6d55 633f e527 8f3e c399 2dbf
00000210: 1f2a c03e c4b4 933e 10be 46bf 405b 0abf
00000220: 3375 cbbe 3be6 0d3f e5d7 1ebf 0c21 e9be
00000230: 2f9c 023f 24ee 51bf f08d 86bf 3bba 8dbe
-0.46136886 -0.19983135 0.45721406 -0.25571886 -0.29070452 0.5445642 -0.28806317 -0.017530056
0.6267749 0.5154618 1.0825931 0.5841434 0.9638114 0.3770298 0.30007473 -0.17855705
-0.113549754 0.18652554 -0.5763921 -0.39224434 0.75832146 -0.71219677 0.32756984 0.59469426
-0.4136133 -0.025806941 -0.10629721 0.7192993 -0.0544819 -1.0916303 0.38673246 0.24200521
-1.3810095 0.11900606 0.6892038 0.67648643 0.032207157 -0.04457646 -0.57461464 0.38525775
0.36043996 0.29822564 0.50744736 0.67301905 0.46345806 -0.9264056 0.074772075 0.1364335
-0.89718 0.1741636 0.81828535 -0.50071615 -0.35327625 0.28660548 -0.21156287 0.36405575
-0.46762228 0.7029225 0.9016447 0.32515663 0.88518554 0.6699632 0.51267445 0.37060034
-0.08196534 0.9815668 -0.06308322 0.078470565 0.7334551 -0.9007771 -0.5822348 0.19334169
-0.67207664 -0.52987325 -0.83470637 0.81656724 -0.74266857 -0.6158682 0.8038582 0.60759807
0.18163836 0.0018788647 0.13432938 -0.24724494 0.4003647 0.74396497 0.29522818 -0.44072902
-0.81941766 -0.013783059 0.5488164 0.22871862 -1.1659616 0.6555066 0.42105153 -1.1169842
-0.20577338 -1.2114996 -0.55759054 -0.97996575 -0.423298 0.3570436 -0.122762054 0.8079496
0.445383 0.3405178 0.15393278 -1.422703 0.34948334 0.7808703 0.3654097 0.30842888
0.40108088 0.4630245 -1.1688192 -0.68098533 -0.060266696 0.34142122 0.8991784 0.48462752
0.7878398 1.0175992 0.12950064 0.14408372 0.15143482 -0.031313132 0.05818976 0.31183073
-0.977697 0.88802224 0.27960125 -0.67812747 0.37532136 0.2884885 -0.7763376 -0.54045486
-0.39737853 0.5542943 -0.6204818 -0.45533025 0.5101957 -0.82004 -1.0512066 -0.27681145

conv1.bias f4 [16]
00000000: e554 43bf c4d1 283e fdb4 82bf eb09 b73f
00000010: 3761 203f 1513 debf 4840 4a3f c451 29c0
00000020: 18f2 8d3f ec07 1bbd 0fa9 f3be 7db6 c9be
00000030: 4801 c93c 355c 8abf 05e2 d4bf 2efd 4ebe
-0.76301414 0.16486269 -1.0211483 1.4299902 0.6264834 -1.7349573 0.79004335 -2.6456156
1.1089506 -0.03784935 -0.4758992 -0.3939704 0.024536744 -1.0809389 -1.6631476 -0.20213768

bn1.weight f4 [16]
00000000: 0912 873f 01d8 44be b6c3 4a3e 3328 e43f
00000010: ab32 5e3e e3be b73f ea5b 5d3f 9672 08bb
00000020: 1356 273f d6f0 da3f c0d3 d73f 1936 2a3f
00000030: 58e5 773f a441 093f 3505 6d3f 1bc1 d23f
1.0552379 -0.19223024 0.1980122 1.7824768 0.21699016 1.4355129 0.86468375 -0.0020820252
0.65365714 1.7104747 1.6861496 0.66488796 0.96834326 0.53615785 0.9258607 1.6465181

bn1.bias f4 [16]
00000000: b9e6 dc3e 08c9 023f f68c dc3e 794b c93e
00000010: 7168 103f ce97 4e3f c149 c33e ca42 2f3f
00000020: 3594 e23e aa16 023f ac8a 0c3e a57c 203f
00000030: d0d5 363e 7c2b d03e 9ccb 6d3e a01a 853f
0.43144777 0.51088 0.43076295 0.39315394 0.56409365 0.80700386 0.38142207 0.6846129
0.44253698 0.5081583 0.13724774 0.6269019 0.17855 0.40658176 0.23222202 1.039875

bn1.running_mean f4 [16]
00000000: 518e 3842 648d 4e43 8ffd 0442 5a93 9042
00000010: 4bb7 f842 fa15 e541 4036 5143 9771 9542
00000020: d233 1b42 2878 dd41 f180 d241 8b3d a641
00000030: 5a3d 9f42 594c 5943 e5fb 4a42 6346 0241
46.13898 206.5523 33.247616 72.287796 124.357994 28.63573 209.21191 74.721855
38.800606 27.68367 26.31296 20.78005 79.61983 217.29823 50.74599 8.142184

bn1.running_var f4 [16]
00000000: c30f 0f46 eee4 cb47 f5dd d145 c0ca 8d46
00000010: 3187 1b47 9fac ac45 83a1 d547 95f4 9546
00000020: 4a76 1546 5b66 7c45 45c0 ae45 42c2 4245
00000030: 9081 b646 13fa e547 80fb 5346 48d9 8144
9155.94 104393.86 6715.7446 18149.375 39815.19 5525.5776 109379.02 19194.291
9565.572 4038.3972 5592.0337 3116.141 23360.781 117748.15 13566.875 1038.79

conv2.weight f4 [32, 16, 4, 4]
00000000: be5a 023f d7bb ef3e 5eb6 153f f42d 7f3e
00000010: 6917 92bf c1c0 71be 1d80 bdbe 9fc4 2bbf
00000020: 55ad 61bf 1f1b 5fbf 68c4 31bf 9f3f fbbe
00000030: 0b65 30bf 6a8d 35bf 3aaf d7be 58e9 debe
00000040: 8693 eb3e 84ac 123f 35a6 a73e 68bf 873e
00000050: 34f2 673f 15cc 623f 5649 733e 15a1 d03e
00000060: 18c5 04bf dd84 24be 3348 e1be 3db4 54bd
00000070: 2741 19bf 7198 49bf 91f7 42bf 2fc2 21bf
00000080: 92ea 153f 5c54 13bc 7759 753e 472f 033d
00000090: 0c45 1a3d 00d4 d63e 372b a03e 77a7 8fbe
000000a0: d214 22bf a927 0abe 62ee 8fbb 3eaf fbbe
000000b0: 8a29 50bf 67f7 59bf 49da 09bf a818 26bf
000000c0: ce13 ed3f 648d 613f 9431 a73e 87c7 403e
000000d0: 1b66 e6be bc65 a1be 754b e1be ed85 91bf
000000e0: 660a c4be 7c7a e4be 2cf2 04bf c2c9 fabe
000000f0: a32f d3be 7e65 9ebe 9461 10be 524b 4dbe
00000100: aee9 603f dbe0 5c3f 405a 533f 02f1 bd3e
00000110: 3aef 333f 54df 903f 3ea4 c73d 645f 01bd
00000120: fbd4 32bf bcf4 54bf f882 4dbf 8220 21bf
00000130: f03a c4be 9d3c 0cbf 4d37 1abf 9ad9 edbe
00000140: e4d2 81be 8671 63ba c1e9 2c3f 315c 63bb
00000150: bd14 f9be b34e 753f d753 6dbd 0ea6 e4be
00000160: 1dce 4abf f17d 1fbf 4dd8 19bf 077e 96be
00000170: 908c edbe 6544 e6be 6235 ca3f 66c9 bbbe
00000180: 57ce 0cbf 2bbb e23e da62 1c3f c781 573f
00000190: d2e9 34bf 3ee6 d0be 8540 24bf 0128 27bf
000001a0: 49d9 4cbf e926 6cbf 9c9b 7abf e7cc 13bf
000001b0: 391b c7be 7f5a 26bf 2486 13bf ebab adbe
000001c0: ae03 be3e 498a 32be 773b df3d bcc0 e63c
000001d0: 4808 803f 6630 523f 5734 b03e a9cb 7e3d
000001e0: 04b0 09bf f956 a8bd f9a4 59be 9c40 00bf
000001f0: 18d6 44bf f850 4abf 52a6 32bf 289f 40bf
00000200: 86dd 8f3f d122 843f c496 533f aa4b 483e
00000210: c35d 11be 3d8f 0c3d fb2d 62be 0ee5 8ebe
00000220: 2432 8abe e084 f3be 5c91 12bf 0717 06bf
00000230: f047 823e 98d6 713f 67c1 5cbe dc8c a0be
00000240: de41 663e ec0a d9be dc62 f3be 59b4 a43e
00000250: 44e8 953f 2e04 923f 794f 883f 18bc 693f
00000260: 54da 2bbf 81c5 473e 09d4 693e 5094 04bf
00000270: 88aa 1fbf 9a54 0dbf a25f 1bbf d4f2 e7be
00000280: e1e3 47bf 3474 9c3e 9d3c 413f 5161 3f3f
00000290: c825 55bf 3642 163f 82e6 b53f 78ec f23f
000002a0: ead1 c2bf a9e8 d8bd 7106 8e3e 44b4 333f
000002b0: 1f79 40bf 30b1 1fbf a3bd 17bf a4a5 cabf
000002c0: 9aaf 543f 6733 e63e 41c3 fcbd 91a0 8ebe
000002d0: b9f0 e8be f706 8cbe 4428 0b40 2888 0040
000002e0: 0f73 35bf 11d8 f5be 90d1 3abf ecc7 02bf
000002f0: c557 d6be 1d5f 83be 116b efbe 2983 cfbe
00000300: 5b93 473e 1eac c0be 38ee e8be 3b8e 70bc
00000310: 5942 813f 2b5d 8a3f 5043 603f c2d1 073f
00000320: a716 903f 6e36 133f 6881 253e 460f ecbe
00000330: 8d45 12bf 782c 22bf 7a74 14bf 6540 0cbf
00000340: 77e2 c53e e5e7 e13e cc78 303d 708d 923e
00000350: a929 213f ad16 713f 435f 6c3f f8eb 193f
00000360: 3c03 5abf c970 44bf aeeb 8ebf e39a e8be
00000370: 9a6b 22bf 9d75 48bf 3e47 38bf 8418 edbe
00000380: 4acc 203f 1d57 ef3e 13da 7ebe 506b 3dbf
00000390: 5761 8e3e 893e 753e 199a 6c3c b05f 983e
000003a0: aca6 60bf a017 87be e8e3 9dbe e786 14be
000003b0: c049 f6be d74a 2dbf cb96 64bf 95dc 2abf
000003c0: 844b 7d3e 69ed e6be f5cf c3be 0e52 40be
000003d0: 2511 513f 9731 4c3f 3aa1 e23e ebf3 c3bc
000003e0: def1 453f 75a5 47be f38b 2ebe 39bc 7e3e
000003f0: 81b9 34bf 1191 4cbf 8466 2cbf 8dd7 18bf
0.5091971 0.46822998 0.58481395 0.24919873 -1.1413394 -0.23608686 -0.37011805 -0.67096895
-0.8815511 -0.8715076 -0.6944032 -0.49071977 -0.6890418 -0.70918906 -0.42125875 -0.43537402
0.4601099 0.5729449 0.32743993 0.2651322 0.9060395 0.88592654 0.23758444 0.40747896
-0.5186324 -0.16066308 -0.44000396 -0.0519297 -0.5986504 -0.7874823 -0.76159006 -0.63186926
0.5856105 -0.008992281 0.2395991 0.03202751 0.037663504 0.41958618 0.3128297 -0.28057453
-0.6331302 -0.13491692 -0.004392431 -0.49157137 -0.81313384 -0.8514313 -0.538487 -0.6488137
1.8521669 0.8810637 0.32655013 0.18826114 -0.44999775 -0.3152293 -0.44002882 -1.1368996
-0.38289183 -0.44624698 -0.51932025 -0.48982054 -0.4124728 -0.30936807 -0.14099723 -0.20048264
0.87856567 0.862806 0.82559586 0.37097937 0.70286906 1.1318154 0.097481236 -0.031585112
-0.6985623 -0.83185935 -0.8027797 -0.6294023 -0.38326216 -0.5477999 -0.6024063 -0.4645508
-0.2535621 -0.0008676279 0.6754418 -0.0034692402 -0.48648635 0.9582321 -0.057941284 -0.4465794
-0.79220754 -0.62301546 -0.60095674 -0.29393026 -0.46396303 -0.44974056 1.5797541 -0.36677092
-0.5500235 0.44283423 0.61088336 0.841824 -0.7066928 -0.4080066 -0.6416095 -0.65295416
-0.8001905 -0.9224687 -0.9789369 -0.5773453 -0.38887957 -0.64981836 -0.5762656 -0.33920226
0.37112182 -0.17435564 0.10900014 0.028168075 1.0002527 0.821051 0.34414932 0.062205944
-0.53784204 -0.08219714 -0.21254338 -0.50098586 -0.7688918 -0.790298 -0.69785035 -0.75242853
1.1239479 1.0323125 0.82651925 0.19560114 -0.14195924 0.03431629 -0.22087853 -0.2790913
-0.2699138 -0.47562313 -0.5725305 -0.52378887 0.2544551 0.9446807 -0.21558152 -0.31357467
0.22486064 -0.42391145 -0.4753636 0.32168844 1.1711507 1.1407526 1.0649253 0.91302633
-0.6713002 0.19508936 0.22834791 -0.51788807 -0.62369585 -0.55207217 -0.606928 -0.4530245
-0.7808209 0.30557406 0.75483114 0.7475787 -0.83260775 0.5869478 1.421097 1.8978415
-1.5220311 -0.105912514 0.2773929 0.7019694 -0.75184816 -0.6237974 -0.5927374 -1.58318
0.83080447 0.44961092 -0.12341929 -0.27856877 -0.45496157 -0.27349064 2.1743326 2.0083103
-0.7087869 -0.48016408 -0.72976017 -0.51086307 -0.41863838 -0.25658503 -0.46761373 -0.40529755
0.19489805 -0.37631315 -0.45494246 -0.014682348 1.0098373 1.0809683 0.8760271 0.5305444
1.1256913 0.5750493 0.16162646 -0.46105403 -0.57137376 -0.63349104 -0.5799023 -0.5478576
0.3864934 0.44122234 0.04308395 0.28623533 0.62954193 0.94175225 0.9233286 0.60125685
-0.85161185 -0.76734596 -1.1165674 -0.4543067 -0.63445437 -0.78304464 -0.71983707 -0.46307766
0.6281172 0.4674615 -0.24887876 -0.7399187 0.2780864 0.23949637 0.014441037 0.29760504
-0.8775432 -0.26385212 -0.3083794 -0.14504586 -0.48103142 -0.6769232 -0.8929259 -0.6674283
0.24735838 -0.45103005 -0.38244596 -0.18781301 0.81666785 0.7976317 0.4426363 -0.02392002
0.77322185 -0.1949671 -0.17045574 0.24876489 -0.70595556 -0.79908854 -0.67343926 -0.59703904

conv2.bias f4 [32]
00000000: c7b1 303f e33e 173f 5cf4 4ebf 0be2 e33e
00000010: 703d 2abf face 3e3f fb2d 5d3e 5eb2 4c3e
00000020: 7d1d 1e3f ff83 f93c eebe 0d3f 71ba e93e
00000030: dff5 6bbf 6fc8 70bf 7c5e b1be ee44 f3be
00000040: 823e 53bf ed90 2abf 3cf3 0cbf 299a b4be
00000050: 4a90 62bf 040c 13bf 3122 6dbf 4ebf 4a3f
00000060: c047 71be 492c edbe 3491 5a3e 93cf 0ebf
00000070: f408 31bf 9e15 23bd bab5 b23e e8bd 2a3f
0.69021267 0.5908033 -0.8084161 0.44508395 -0.66499996 0.7453457 0.21599571 0.19989917
0.61763746 0.030458448 0.5536946 0.45650056 -0.92172045 -0.9405584 -0.34642398 -0.47513527
-0.82517254 -0.6662739 -0.55058646 -0.35273865 -0.8850142 -0.5744021 -0.92630297 0.7919816
-0.23562527 -0.4632285 0.21344453 -0.55785483 -0.69154286 -0.039815538 0.3490427 0.66696024

bn2.weight f4 [32]
00000000: 4d12 3240 9c1f 91be 808f 3eba 2049 0b40
00000010: f9c2 b53e 17f3 c83f c108 c33f e5f5 6c3f
00000020: 9e9f dcbd 9dea 9cbc 34fa c03e 227a 30bf
00000030: df03 ed3f de89 c73f ae15 a0bf 096f 803f
00000040: 65fc cd3e 136f 863f 1287 c73e 843a 973f
00000050: 9b18 dc3f efc2 f43f 0912 ab3f 9d2b a6bf
00000060: 563f 723e 290e f83e 996f ac3f 3c83 bdbe
00000070: ed90 0d40 c4af 8f3f d680 c53f a9a5 d63f
2.782367 -0.2834443 -0.0007269308 2.1763382 0.35500315 1.5699185 1.5237046 0.92562705
-0.10772632 -0.019154841 0.3769089 -0.6893636 1.8516806 1.5588949 -1.2506616 1.0033885
0.40231624 1.0502647 0.38970238 1.1814733 1.7195009 1.9121989 1.3364879 -1.298206
0.23656973 0.48448303 1.3471557 -0.37014186 2.2119706 1.1225514 1.5429943 1.6769305

bn2.bias f4 [32]
00000000: e89f c7be 4ae9 debe c082 99be f821 e3be
00000010: d7ed 19bf 2e64 85be fd3b ddbe 147c 0dbe
00000020: 092a 8ebc 7523 1dbf 5c7a 27bd 9903 03bf
00000030: 6b97 36bf 18ca 61be cf5c a9be c2d6 4b3f
00000040: a28c 10bf d62d d23e 3cfb c2be bc2f a33e
00000050: b24a 453f ab19 a73e 7c27 67be 1a4b 6f3f
00000060: c802 e0be 9d5d 28bf 4195 21be 1aad ee3d
00000070: ac2c efbe b1ba 11bf 4d58 6dbd 79a2 a2be
-0.38989186 -0.4353736 -0.29982567 -0.44361854 -0.6012854 -0.26052994 -0.4320983 -0.13816863
-0.017354028 -0.6138223 -0.040888175 -0.51177365 -0.71324795 -0.22049749 -0.3307862 0.7962457
-0.5646459 0.41050595 -0.38082302 0.31872356 0.770671 0.3263677 -0.22573656 0.9347397
-0.43752122 -0.6576784 -0.15779592 0.1165411 -0.4671377 -0.56925493 -0.05794554 -0.31764582

bn2.running_mean f4 [32]
00000000: 13ce 2241 ba34 3442 5a7a bd40 8fe2 8041
00000010: 7acc ba40 ba51 a441 beab 6841 b3c5 b541
00000020: 5a72 5442 dbf6 2d42 85be 0d41 0361 0842
00000030: 37ad b841 4e20 ec41 ddd4 1742 00ac d941
00000040: 3cec f840 214b b741 6b11 5542 026e 9142
00000050: 9f80 2741 a63f 1c41 1ae9 e040 4834 8d42
00000060: d71c 2a41 605e 4a3f c0cb 1f42 7af7 9042
00000070: 77cc a840 33f7 d841 4961 1a42 ff9e dd41
10.175311 45.05149 5.9211855 16.110624 5.8374605 20.539906 14.541929 22.721533
53.11167 43.49107 8.859014 34.094738 23.084578 29.515774 37.957874 27.208984
7.778837 22.911684 53.26701 72.71486 10.468902 9.765539 7.028455 70.60211
10.632041 0.79050255 39.948975 72.48335 5.274959 27.120703 38.595005 27.702635

bn2.running_var f4 [32]
00000000: b072 b343 133a 5544 2ab2 0943 8f72 b243
00000010: 2422 d942 3b5c c543 ba79 0144 f782 f043
00000020: a9a2 4a44 b981 3544 d420 5443 45ee 2f44
00000030: 0a65 3244 db7d 1144 ea88 6744 d9e7 d343
00000040: bc11 3d43 5194 1d44 ffe6 8e44 9f94 a144
00000050: dbf9 ad43 aea9 5b43 2880 e242 b40c 7344
00000060: a2d6 9743 1eea 3341 6800 1144 4711 a144
00000070: a853 b542 4cb4 0744 ae90 4244 81f3 2644
358.896 852.9074 137.69595 356.895 108.56668 394.72055 517.902 481.02316
810.54156 726.0269 212.12823 703.72296 713.57874 581.9665 926.1393 423.8113
189.06927 630.31744 1143.2186 1292.6444 347.952 219.66281 113.250305 972.1985
303.67682 11.2446575 580.00635 1288.5399 90.66339 542.81714 778.2606 667.80475

conv3.weight f4 [64, 32, 5, 5]
00000000: 9ab0 abbe 4559 363e 461a 52be 339b 2d3f
00000010: 8244 5a3f da2a 653d 6e87 5abe 0413 83bf
00000020: 6152 623f fb4a d93e 61ef 8d3d c94c 3abf
00000030: 900d 33bf 6361 0dbe 10ce df3e 40b3 413e
00000040: c52b a93d 1496 dc3f 78f7 13bf e20d d43d
00000050: d850 2e3e 3a82 6f3f c97c 513f 9708 2bbd
00000060: 7159 5a3f bf77 12bf 57d4 38bf 45c7 363f
00000070: f6bd 13be a5a9 88bd 8e48 5ebf 278d 64bf
00000080: a70f 5b3e 27e1 d3be 15b3 00bf 09de 73bf
00000090: d54b 1c3e cfd2 02bf 344c 87bf df6e 2a3e
000000a0: 90b3 473f df4a c93e 5123 91be 8238 e9be
000000b0: 3a18 413f 0e76 263f 5969 e0bd 3f05 56bf
000000c0: 1b45 40bf 56e3 553f 9cd2 63bf 93a2 66bf
000000d0: d0f2 67bf 961f 8abe 1ebf 553f 7b84 7ebf
000000e0: d4b6 b3be ec59 dd3e 0b03 e8be 03aa dbbe
000000f0: aca5 c63e eba0 263f 05d6 bebe 7ee5 59bf
00000100: 8ba4 563f e1cb 4c3f 61f5 b83e e827 8bbe
00000110: 04fa 4fbf d399 2d3f 0659 963e 30f8 b1be
00000120: 8e60 3bbf 4948 1cbf 02d8 31bf cbe7 3b3f
00000130: 3de6 4c3f d6b1 563f 04e9 773f 8554 a83f
00000140: 9d24 753e 4386 10be 3df4 ebbe acb6 463e
00000150: 07ff 4f3f a7e0 35bf bb7f 0dbf baeb 17bf
00000160: 58a7 3cbf 1c04 3e3f 42fc 0f3e 1adf 023e
00000170: 83bf a23f e16b 183f 2c4c 0f3f f39c 423f
00000180: 7959 683f e5ad bf3e a02d eb3e e2d7 853f
00000190: 4c85 bd3e 7555 0b3f 4244 4bbf 3b48 2dbf
000001a0: 3f4e b1be 64cd 103f 0048 7c3f f437 2e3e
000001b0: f1e5 fd3e c451 e0be 9ae3 a0be 6c90 0cbf
000001c0: f3fb 27be 4f3b 4d3f 6b97 14bd 8326 09bf
000001d0: e966 58bf df69 62bf 3d8f 4e3f d378 9bbb
000001e0: 095d 08bf 1295 4fbf a711 af3e c5ca 6c3e
000001f0: 701d 70bf 6c16 c63e d2d7 443e 1f62 0e3f
00000200: 501f a1bd 586d 243b 0883 14bf 31ac 95be
00000210: 86e3 4c3f dd89 583d 282f 023f 3f88 62bf
00000220: 0f69 8ebe 0115 b7be 5e8e 66be 83c2 be3d
00000230: e0f1 de3e a115 16be 5e5b 21bf 68c1 30bf
00000240: af54 6fbe 12d3 4a3f 5ea5 1d3f 613b c53e
00000250: 1e9d 3a3f 01f0 753f f36d 13bf e050 783e
00000260: 3a57 3f3f 8319 343d 9633 8f3f d966 46bf
00000270: a285 f9bc d8f2 1dbe e998 47bf faea 193f
00000280: 70c1 86bf bd2a 563f 27c3 6abf 9724 97be
00000290: 0f17 663f 75c7 293f 4544 7a3e 1297 3c3e
000002a0: 7d60 91be f8c5 133f fcf5 103f 2fdf 34bf
000002b0: 3c28 51bf 30f4 20bf 9120 11bf adb2 c2be
000002c0: 6334 cf3e 32c1 7f3f eadf 423f 3c83 643f
000002d0: d0a5 1dbf fe15 0abf 8e66 4cbf dd9d 84bf
000002e0: d9f1 b9be 41f6 11be e71a 27bd f73a 35bf
000002f0: f27b 5ebe 0e9b 15bf 980e f93e a090 d13e
00000300: a17e 6f3f 831d 753f 5c92 51bf 65b6 053e
00000310: 1a5b 173f 9d2e 6ebe 9a24 98be 7d1e a0be
00000320: a77e 49bf f573 b8be 3b66 03bf 233e b2be
00000330: e78c e53e c742 67bf 8a8c 21bf eb8c 613e
00000340: 05fe 0f3e b0f4 8abd 4095 513f 7b17 dcbe
00000350: 3a91 39bf 029c 85be 139e 783f d9d1 553f
00000360: 5820 383e ca3d 76bf 1391 94be ceed 5b3f
00000370: dc74 d03e d8b6 0e3e 6db2 78bf 254e 49bf
00000380: 56f3 3c3f 8079 30bf a207 27bf d7e7 1d3e
00000390: 8db4 29be ff63 5a3f f032 5dbf cd14 623e
000003a0: 543a 57bf 0eae b1be 3dbc c83e 5977 bcbd
000003b0: b32c d9bd 6cf9 41bf 0c73 ad3e 1c03 563c
000003c0: 4d17 4c3f 9cc7 e9bc c521 edbe 7934 d7be
000003d0: e9bb 723f 9160 1c3f 1db1 413e 24fb 85be
000003e0: 10f9 9bbe 04d8 873f 9a3a fdbe 1cd4 89bf
000003f0: 521b f6be e76e 23bf 3312 413f 9a22 75bf
-0.33533174 0.17807491 -0.20517835 0.6781494 0.85260785 0.05594907 -0.21340725 -1.0240178
0.8840695 0.42440018 0.069304235 -0.72773415 -0.6994257 -0.13806681 0.437119 0.18916035
0.082603015 1.72333 -0.5779948 0.103542104 0.17023027 0.93558085 0.8183103 -0.04175624
0.85292727 -0.5721397 -0.72199005 0.7139781 -0.14427933 -0.06672982 -0.8682946 -0.8927788
0.2139269 -0.41382715 -0.5027326 -0.95260674 0.15263303 -0.5110292 -1.057013 0.16643856
0.78008366 0.39314935 -0.28347257 -0.45550925 0.7542759 0.6502389 -0.109575935 -0.83601755
-0.75105447 0.8355001 -0.8899324 -0.9009182 -0.9060488 -0.26977223 0.83494747 -0.994209
-0.35100424 0.43232667 -0.45314822 -0.42903146 0.38798273 0.6508929 -0.3727266 -0.851158
0.8384482 0.79998595 0.3612471 -0.27178884 -0.8124087 0.6781284 0.29364794 -0.34759665
-0.73194206 -0.610478 -0.69470227 0.73400563 0.80038816 0.83865106 0.9683993 1.3150793
0.23939748 -0.14113717 -0.46084777 0.19405621 0.81248516 -0.7104592 -0.55273026 -0.59344065
-0.73692846 0.7422502 0.14061072 0.12780419 1.2714695 0.5953961 0.55975604 0.76020736
0.90761524 0.37437358 0.45933247 1.0456507 0.3701576 0.5442727 -0.7940103 -0.6768834
-0.3463001 0.565634 0.98547363 0.17013532 0.49589494 -0.43812382 -0.31423646 -0.5490787
-0.16404705 0.8016862 -0.036277216 -0.5357439 -0.8453203 -0.88442796 0.80687314 -0.004744628
-0.5326696 -0.8108684 0.34193155 0.23124225 -0.9379492 0.38688982 0.19222954 0.5561847
-0.078673005 0.0025089588 -0.5801244 -0.29232934 0.80034673 0.05286585 0.50853205 -0.88489145
-0.27814528 -0.35758212 -0.22515246 0.09314444 0.4354391 -0.14656688 -0.6303004 -0.69045115
-0.23372148 0.7922832 0.61580455 0.38521865 0.7289599 0.9606934 -0.57589644 0.24249601
0.7474247 0.043969642 1.1187618 -0.77500683 -0.030459229 -0.15424669 -0.779677 0.6012417
-1.0527782 0.83658963 -0.9170403 -0.29520103 0.89878935 0.6631997 0.24440105 0.18417004
-0.28393927 0.5772395 0.5662534 -0.7065305 -0.8170202 -0.628726 -0.5669032 -0.38026944
0.40469655 0.9990417 0.76122916 0.8926275 -0.61581135 -0.5393981 -0.79843986 -1.0360676
-0.36317328 -0.14254095 -0.04079714 -0.707931 -0.21726969 -0.5843972 0.48643947 0.40930653
0.93552595 0.95748156 -0.8186395 0.13057859 0.59123385 -0.23259969 -0.29715425 -0.3127326
-0.7870888 -0.36025968 -0.51327866 -0.34813032 0.44834062 -0.9033627 -0.6310507 0.22026412
0.14061745 -0.06784952 0.8186836 -0.42986664 -0.72487223 -0.26095587 0.971162 0.8352333
0.17981088 -0.9618803 -0.29016933 0.85909736 0.40714157 0.13936937 -0.97147256 -0.78634864
0.738088 -0.68935394 -0.6524602 0.15420471 -0.16572781 0.8530883 -0.8640585 0.22078247
-0.84073377 -0.34703106 0.39206114 -0.09202451 -0.10604229 -0.7577121 0.33876836 0.013062265
0.79723054 -0.028537564 -0.46314827 -0.4203222 0.9481798 0.6108485 0.1891522 -0.26168168
-0.30463457 1.0612798 -0.49458772 -1.0767856 -0.4806772 -0.638411 0.75418395 -0.9575592

conv3.bias f4 [64]
00000000: 6972 cd3e c60a 863d ade0 f93e d4ce eabe
00000010: b056 dbbe a7b9 52bf a953 6abf 299f 48bf
00000020: 37ed 373f 9b45 1abf 23d5 283f 2ba6 773e
00000030: 96fc 7d3f 6371 653f d26b bb3e b756 4dbf
00000040: bb7c 82bf 2572 033f f14b 173e ffb6 443f
00000050: 9700 623f 58be f4bf 1e31 08bf 4fbf 103f
00000060: da3c d1be c880 41bf 9a59 9fbe 5b1b 72bf
00000070: 804e dfbe 7243 063f 90a3 80bf e693 4bbf
00000080: 6acc 48bf 2ad7 41bf 0755 22bf 0620 3fbf
00000090: 7463 43bf dd51 ff3d d4a2 883f 3225 143e
000000a0: 8c3e 52bf a27e 2f3f 436a 073f e272 c03e
000000b0: c2c6 05bf 0f8d 50bf 996f dd3e 6899 623e
000000c0: 3398 fdbe 65b5 7b3f 89cc d1be 16e7 d2be
000000d0: a3d9 133e fee9 4abf 3091 7ebf 97bc 383f
000000e0: 0380 fabe 9af6 a83e beed c5be 032a 033f
000000f0: 9e2d 373e 2fad 273d 92d6 043f 1d37 0b3f
0.4012635 0.065450236 0.48804227 -0.45860922 -0.42839575 -0.82314533 -0.91533905 -0.7836786
0.71846336 -0.6026246 0.6595022 0.24184482 0.9921354 0.8962614 0.36605698 -0.8021044
-1.0194315 0.51346046 0.14775063 0.7684173 0.8828215 -1.9120588 -0.53199947 0.56541914
-0.4086674 -0.7558713 -0.31123048 -0.9457299 -0.43614578 0.52446663 -1.0049915 -0.7952255
-0.7843691 -0.7571894 -0.6341099 -0.7465824 -0.7632363 0.12466786 1.0674691 0.14467314
-0.8212669 0.685526 0.5289652 0.3758765 -0.52256405 -0.8146524 0.43249205 0.22128832
-0.4953018 0.9832366 -0.4097636 -0.4119193 0.1443849 -0.79263294 -0.9944029 0.72162765
-0.4892579 0.33000642 -0.38657945 0.5123598 0.17888495 0.040936645 0.5188991 0.5438097

bn3.weight f4 [64]
00000000: 6ee1 623f 562c f23f aa6c 483f 2e9e 853f
00000010: 6592 0c3f 1938 4e3f bb3b 703e 7d09 313f
00000020: 18b9 803f 7486 873e 6e99 de3f 6ff0 d33f
00000030: 190d c93d f7db 0f3f 693e bc3d fa8d 903f
00000040: 5ec6 ea3f 48c6 d13f efa6 dd3f 4a37 343f
00000050: 7d5b 913f 49fd c63f 7697 ca3f cfce ba3f
00000060: f822 d33f c03a 693f fcaf 973e d05f 133f
00000070: 1d90 cc3e 70de 993f 94f7 b33f a193 823f
00000080: 1448 1b3f 69f9 673e 1dcb c73f 9161 d93e
00000090: 561a 123e d282 ea3f c9ae 3c3f a86e 0b40
000000a0: 6da3 443f 0c98 e33f 3b65 b43e 9ed2 243f
000000b0: c059 7e3f ae62 a33f d31d 153f 0074 ee3f
000000c0: 4488 0d3f 0184 3a3f eabf dd3f acbc bc3f
000000d0: a268 b73f e06a 1d40 11ce e6be 9e9a bf3f
000000e0: 47d1 333f fd05 1640 0960 3bbe 499a 9f3f
000000f0: 07de fa3f 885c c13f 4871 daba f309 0f40
0.8862523 1.891978 0.7829081 1.0438898 0.5491088 0.8055435 0.23460285 0.691551
1.0056486 0.26469767 1.7390573 1.655775 0.09816951 0.56195015 0.09191591 1.1293328
1.8341787 1.6388636 1.7316569 0.70396864 1.1356045 1.5546046 1.5827472 1.4594363
1.6495047 0.9110527 0.29626453 0.57568073 0.399537 1.2021008 1.405993 1.0201303
0.6065686 0.22653736 1.560886 0.4245725 0.14267859 1.8321173 0.737042 2.178629
0.7681187 1.7780776 0.35233483 0.64383876 0.993557 1.276449 0.58248633 1.862915
0.5528605 0.7285767 1.7324193 1.4745078 1.4328806 2.4596481 -0.4507909 1.496906
0.70241207 2.3441155 -0.18298353 1.2468959 1.9599007 1.5106363 -0.001666584 2.2349823

bn3.bias f4 [64]
00000000: 35e5 603f e47c 10bf 3aee a4be e381 10bf
00000010: f707 21be 196c 2bbf 9399 b03e b303 94bf
00000020: 7225 8f3e cc11 2abf 09df 983d 499c 73bf
00000030: 7fb8 633f 0449 e8be f685 6d3f 32e2 5bbf
00000040: c077 fd3e 0e8c b2be 5a79 033e 58c9 40be
00000050: 65a6 1abf 1203 21be aab1 7a3e 8e90 f5be
00000060: 640f 43be 4b1c d2bc 7a71 053f 2e5b 18be
00000070: 17f0 cf3e e04f 9d3e 7dec aabe d251 833e
00000080: d75e c03d 68d7 8f3e 531c 1b3f b047 33be
00000090: ddd7 453e 049d 103f 28c8 af3e 881f f5be
000000a0: c248 973e b309 8dbf 4ec3 b93f 5a5a 03bf
000000b0: d8ac 8bbc cb40 da3d cc09 103f e1d3 61bf
000000c0: f69b 723e c7f7 9a3d e154 1cbf 24e4 5b3f
000000d0: ee71 ad3d 8107 fdbd bd6c 41be 6413 b3be
000000e0: bac9 4ebf 1f39 35bf 1810 96bc 0133 61be
000000f0: 1c81 14bd cf60 d13e 8a59 4cbf 27ae aabe
0.8784974 -0.5644057 -0.32213002 -0.5644819 -0.15725695 -0.6696182 0.34492168 -1.1563629
0.27958256 -0.66433406 0.074644156 -0.9516035 0.88953394 -0.45368207 0.92782533 -0.8589202
0.49505424 -0.34872478 0.1283926 -0.18826807 -0.6041015 -0.15723827 0.24481836 -0.4796185
-0.1904884 -0.025648257 0.52126276 -0.14878532 0.40612862 0.30725002 -0.3338355 0.2564836
0.09393089 0.2809403 0.60590094 -0.17507815 0.19320627 0.56489587 0.34332395 -0.4787562
0.29547697 -1.1018585 1.4512727 -0.5130974 -0.017050192 0.106568895 0.5626495 -0.88213927
0.23692307 0.07566791 -0.61067015 0.8589499 0.08468996 -0.12354947 -0.18889137 -0.3497573
-0.8077656 -0.70790285 -0.018318221 -0.21992113 -0.03625594 0.40894172 -0.79824126 -0.33335993

bn3.running_mean f4 [64]
00000000: c2a2 2541 ad12 3542 f9d6 da41 2210 413d
00000010: cf3a 2e40 c9a6 5841 dacd 7f3d d9aa 4e41
00000020: 0a21 1141 4f6c 0740 e908 b642 d992 0342
00000030: 060c d642 1209 5442 5837 6741 1002 0d40
00000040: 7c31 2d3b d5ef 5942 e76e 9042 1547 9342
00000050: 92ca 0142 ca6d a640 7bea 0a42 a1a9 2042
00000060: c574 9c41 c66e 4d42 ebcc 9b3e bdca f940
00000070: f829 8540 f26f 1041 506e f340 3fb6 8b40
00000080: 1aca 3a41 681b 3b3b 0a9b 2f41 b485 ed40
00000090: c7bb d740 957d 1442 68d8 0643 6aba cf41
000000a0: e5df af41 983a 6842 e58f b141 7717 5641
000000b0: 4152 b441 1cfa 843f 8553 2442 39eb 0d42
000000c0: af9d e741 62f8 ac42 1087 ba40 12a4 9241
000000d0: 11d1 fc41 cef4 bc41 4394 5240 1c58 7742
000000e0: 3fe7 5342 d5a3 1442 2ee4 1741 1dbd ad42
000000f0: 9eaf c041 4ed3 2241 2878 b342 08ba c541
10.352236 45.268238 27.354967 0.047134526 2.7223394 13.540719 0.062452175 12.916711
9.070566 2.1159856 91.0174 32.893406 107.02348 53.008858 14.451012 2.203251
0.00264272 54.48421 72.216606 73.63883 32.447823 5.200902 34.728985 40.165653
19.557016 51.358177 0.30429778 7.8059983 4.161373 9.02733 7.607216 4.365997
11.674341 0.002855027 10.975351 7.422571 6.741672 37.12264 134.84534 25.966022
21.984324 58.05722 22.195261 13.380729 22.540163 1.0388827 41.081562 35.47971
28.951994 86.48512 5.828987 18.330112 31.602083 23.619534 3.2902992 61.836044
52.975826 37.159992 9.493208 86.86936 24.08575 10.176588 89.73468 24.715836

bn3.running_var f4 [64]
00000000: 1432 0644 3e45 1245 6644 eb44 434d 893e
00000010: 078c ce42 3108 3444 c327 823f c6ee 1e44
00000020: b813 9e43 27aa 4942 c799 4645 1fb0 a844
00000030: 5cf6 eb44 fb8d 3445 7704 4a44 3f76 0643
00000040: f24a 053d f070 6445 1c0b ba45 2745 8045
00000050: bf78 b444 13d6 a743 e3cd 8a44 1f65 ed44
00000060: c228 3b44 dc05 de44 f80e 0f41 78c6 b943
00000070: 362f 5d43 ba7f d843 29fc ff43 31da 4143
00000080: 91e5 de43 4664 273d 9ce2 4544 49c2 9243
00000090: e608 d743 f8a3 1d45 a774 4845 b961 bc44
000000a0: 3f4f 3d44 dda3 2845 ee8c 7244 7aaa 4e44
000000b0: e182 ea44 1adc 1942 5ff2 b044 c414 0d45
000000c0: fa0e cf44 e94c 8545 bc0d a043 1e7d bd44
000000d0: cabc 2b45 90a2 d144 baae 2243 1a7a 0545
000000e0: 525e 1845 bb24 1d45 0afd 1244 53ae 9945
000000f0: 0978 ac44 68b2 1244 9d40 5f45 c202 b244
536.7825 2340.3276 1882.1375 0.2681676 103.27349 720.128 1.0168384 635.73083
316.15405 50.416164 3177.611 1349.5038 1887.6987 2888.8738 808.06976 134.4619
0.032542177 3655.0586 5953.3887 4104.644 1443.7733 335.67245 1110.434 1899.16
748.63684 1776.1831 8.9411545 371.55054 221.18442 432.99786 511.97 193.85231
445.7935 0.040867113 791.5408 293.51785 430.06952 2522.248 3207.2908 1507.0538
757.2382 2698.2415 970.202 826.6637 1876.09 38.464943 1415.5741 2257.2979
1656.468 4265.614 320.1073 1515.9099 2747.7993 1677.0801 162.68253 2135.6313
2437.895 2514.2957 587.95374 4917.7905 1379.7511 586.7876 3572.0383 1424.0862

fc1.weight f4 [256, 64]
00000000: a6d6 263f d56c 12bf b811 20bd 58d3 43bf
00000010: d41c a2bc e50d e43c a66e 2c3f 157f 12bf
00000020: ec33 863e b351 47be bddd 5f3e c530 7f3d
00000030: f781 8bbe dd2b cdbe 65a5 283f d7c3 d6bd
00000040: 11d0 4cbf 0936 fd3e b8c9 65bf 2d30 ecbe
00000050: ebf1 62bc f4b4 063f 74ef 3ebf edd7 8bbe
00000060: 78eb 0d3f 4bb7 53be 09ee 2b3f d2a2 c6be
00000070: a2f4 f8be 0bb6 543f e7f1 82bd edd4 763f
00000080: 784f b33e 8b1f 38bf 1e52 05bf d947 5ebd
00000090: 0b3b 78bf 3eba 8d3f 0fc9 afbe 7dfe 993f
000000a0: da2c 50be 2250 a8be f255 26be d40a 3b3f
000000b0: b647 1c3e 11b3 07bf 2e73 4ebd e2b5 35be
000000c0: 25b6 42bf dae9 d53e 8ce6 1abf 2062 943f
000000d0: 6f21 0dbf 1d79 18be 9147 3bbf 5229 1abe
000000e0: e80d 823e 54be 3d3f 7857 2e3f 6484 3ebe
000000f0: 9b83 febd 410b 983e dc00 b0be b019 113e
00000100: d46a 5fbe 8528 54bf f22f 28bf 1a9a 02bf
00000110: e400 453f e9e6 c93c ac62 5b3f 3562 723e
00000120: 449a 193d 8b6d fa3e 6f6c c23e 235f 013c
00000130: 9575 65be 0ba2 343d 7082 853e 7792 533f
00000140: 149e 83be ce13 08bf d34c c7be cb6f dcbe
00000150: 9d62 89bf f287 b73e 7951 abbd d080 573f
00000160: 6ee4 853e 8d5d 423f 1192 07bf 038e cabe
00000170: 48fb 043e 7f34 1cbf f724 8e3f 98ed 2fbf
00000180: 93f1 2f3e 7148 5cbf 0d75 743f ee0c bf3e
00000190: 516b c43e 425e 843f 0eb0 57be 497a d2be
000001a0: 7d5f 023f 2e50 683f 2222 8abf 01d0 473d
000001b0: 8b80 8e3e 0034 1fbf 0076 84be 4ca8 e4be
000001c0: c1c6 3e3f f2c8 18bf 530b 40bf 8830 19bf
000001d0: bcee 0dbf 364f 24bf 56b9 1b3f 8a2a 523d
000001e0: 6c5a 453e e729 0e3f 6494 5d3f ac27 66be
000001f0: 32d3 55bf 171c bc3e 758c e1be 7d1e 67bf
00000200: 1093 4dbf d2ea 84bf ec74 9e3e f80b 64bf
00000210: 1dcf 163f ebd9 433f 9925 c13e ae40 c8bd
00000220: 3a27 14bf 94ec 433f e094 6f3f b92d 333f
00000230: cbca b43e 3060 373f c007 d33e b049 043f
00000240: aa96 debe be78 e8be be48 793e 5ab0 c6be
00000250: cff0 60bf 96de 9d3e e0d3 44bf c09a 3c3f
00000260: 85d8 c53e 1a44 2e3f 755b 4f3f 5ac2 e1be
00000270: a7d8 b4be ea3d c7be 27d9 333e 27ea 84be
00000280: dc12 3b3f e30d 71be 98d5 203e 8609 643f
00000290: af53 12be 99ff a73e 8c60 cc3e ef42 82be
000002a0: 5371 8d3e 8268 453e bec0 c5bd 8ee4 d5be
000002b0: 386d d93e 2a05 5f3e 023f 7fbc 2ec5 503f
000002c0: 98ca a13e 7219 763f 52c3 83bf 5cf4 b3be
000002d0: d377 5abe 6e5e 5ebf 470e 203d cfe6 623f
000002e0: 82cc ca3e 9eb9 64bf 5c31 a73e 1fb1 b23e
000002f0: a1cf f43e ed80 18be 6104 85be 6e92 90bf
00000300: f6f5 e03d 0d5d a03e 1c2b c53e d88f 333f
00000310: bfb1 4d3d 4fd4 e13e ac30 56bf 979a 12bf
00000320: 9741 963e 02c6 013f ce3c 473a 1c59 6b3f
00000330: ba1c 36be af19 213f 75bc 623e 1aa4 c93a
00000340: 1b9d c53e 4112 883e 7101 9c3f 9f33 0fbf
00000350: a7ca 5e3f 6d12 58bf f78b 9c3e 1246 be3c
00000360: 128e 8e3e dc47 14bf dba9 e33e 9c16 d53e
00000370: 3e53 653d 396f 0b3e e07b 67bf 5d9a cdbe
00000380: 2228 f0be 1fc5 fd3e e83a 013e dbf9 973e
00000390: a674 063f f5b7 46bf 4699 1e3f 6ba0 323f
000003a0: 1637 86be 3eff 993e 9130 ad3f adb8 593e
000003b0: bb16 c3be 5a2c 1b3f 1581 113f 73da 9b3f
000003c0: 50a9 9dbe 7543 e53e ca7d 913f f64f 74be
000003d0: 2871 e53e 1522 24be 56c4 223f a06e c03e
000003e0: df0c 85be 03b7 47bf 237f ba3e dc54 4a3f
000003f0: f73a fdbe 6d2d ea3e 2239 f53e 448a a53e
0.6517128 -0.57197315 -0.039079398 -0.7649436 -0.019789137 0.027838657 0.67356336 -0.5722516
0.26211488 -0.1946476 0.2186193 0.06230237 -0.27247593 -0.40072528 0.6587737 -0.10486572
-0.80004984 0.49455288 -0.89760923 -0.46130505 -0.013851623 0.5261986 -0.74584126 -0.27313176
0.5543742 -0.2067539 0.6716009 -0.38796097 -0.4862414 0.83090276 -0.063937955 0.9641865
0.35021567 -0.7192313 -0.52078426 -0.054267738 -0.9696509 1.1072462 -0.34333083 1.2030789
-0.2032961 -0.32873636 -0.16243723 0.730634 0.1526173 -0.5300761 -0.050402813 -0.17745164
-0.7605918 0.41779977 -0.60508037 1.1592445 -0.5512914 -0.14889951 -0.73156077 -0.15054825
0.25401235 0.7411854 0.68102217 -0.1860519 -0.124274455 0.29696086 -0.34375656 0.14169955
-0.21818095 -0.8287433 -0.6569816 -0.5101639 0.76954484 0.02464624 0.85697436 0.23670276
0.037500635 0.489117 0.37973353 0.0078962175 -0.22408135 0.04409985 0.26076078 0.8264536
-0.25706542 -0.5315522 -0.389258 -0.4305404 -1.0733219 0.35845906 -0.08365149 0.8418093
0.2615084 0.75924 -0.52957255 -0.3956147 0.12986481 -0.610176 1.1105031 -0.68721914
0.17181997 -0.86048037 0.95491105 0.37314552 0.38363126 1.0341265 -0.21063253 -0.4110892
0.50926954 0.90747344 -1.0791667 0.048782352 0.27832446 -0.6218872 -0.25871277 -0.4465965
0.74522024 -0.5968162 -0.7501728 -0.5983968 -0.55442405 -0.64183366 0.60829675 0.0513101
0.19272774 0.5553269 0.8655455 -0.22476071 -0.83525383 0.3674018 -0.44052473 -0.90280896
-0.80302525 -1.0384161 0.3094858 -0.8908076 0.5890978 0.7650439 0.37723997 -0.09777962
-0.57872355 0.76532865 0.9358654 0.6999164 0.3531097 0.71631145 0.4121685 0.5167494
-0.43474323 -0.4540462 0.24344155 -0.3880642 -0.87867445 0.30833882 -0.76885796 0.7367363
0.38641754 0.68072665 0.8099893 -0.4409359 -0.35321543 -0.38914424 0.17563306 -0.25959894
0.7307565 -0.23540454 0.1570648 0.8907703 -0.14289735 0.32812193 0.3991741 -0.2544169
0.27625522 0.19278148 -0.09655903 -0.41775936 0.4246614 0.21779314 -0.015578987 0.8155087
0.3159988 0.96132576 -1.0293982 -0.3514737 -0.21334772 -0.8686284 0.039076116 0.88633436
0.39609152 -0.8934573 0.32654846 0.34900758 0.47814658 -0.14892931 -0.25979903 -1.1294687
0.10984413 0.31320992 0.38509452 0.70141363 0.05021834 0.4410729 -0.8366802 -0.57267135
0.29346916 0.5069276 0.0007600308 0.91932845 -0.17784396 0.62929815 0.22142203 0.0015383989
0.38596424 0.26576427 1.218794 -0.5593814 0.8702797 -0.84403116 0.30575535 0.023226772
0.27842766 -0.5792215 0.44465527 0.41618812 0.05598759 0.13616647 -0.90423393 -0.40156832
-0.4690562 0.49564454 0.12620127 0.29682812 0.5252174 -0.77624446 0.61952627 0.6977603
-0.26213902 0.30077547 1.3530446 0.21261854 -0.3810328 0.6061455 0.5683759 1.217604
-0.30793238 0.44778028 1.1366513 -0.23858628 0.44812894 -0.16028626 0.63580835 0.375844
-0.25986382 -0.7801363 0.36425123 0.79035735 -0.4945905 0.45737782 0.4789515 0.3233205

fc1.bias f4 [256]
00000000: 8c8f c8be 64e3 b53e 68c9 0abf d5ef d6be
00000010: 34bc 54be 34fb aabd 195e 29bf 5750 04bf
00000020: 031f 2c3f 585d 413d 1d68 66be 74f2 b9be
00000030: e229 e9bd 4ee1 d4be 353a e2be 738e 86bf
00000040: b51d 053f 5380 5abe ebb9 153e 7166 93be
00000050: 7489 04bf 9382 f8be 8acb 8bbe 6959 8ebf
00000060: 96b7 6cbf 0809 b1bd 52fd 3abf 684e 9b3e
00000070: 67c1 17be 79d5 6cbf 8282 02bf aa29 99be
00000080: e925 8abe 5a1f c3bd ee4c 74be 43f9 02bf
00000090: 595b 21bf ea45 34bf 89fc 883f 1fe7 b0be
000000a0: 2bc9 3dbf d495 a63e bb64 72be 93cd 90bf
000000b0: efb1 013f e43c 31bf afe1 debe fd91 fa3e
000000c0: d208 00bf eff8 043d 4d40 c9bd c104 7dbf
000000d0: dace d03d 5724 c9be f84f 4fbf f10e 98bf
000000e0: 6853 373f 5170 623f 1eb5 0ebf 4a2d 803d
000000f0: 1a2b 9dbc a041 983e 3efb aabe 310b 90bf
00000100: 0694 42be 5dcc 623f d245 64be d6d5 28bf
00000110: 43b2 83bf c084 26be afab 0abf 0d15 5bbf
00000120: c8f8 4bbf 3d6b 23bf c632 12bf c49a a5be
00000130: 65d1 8bbf 6ee0 533f f677 49bf 7372 8abf
00000140: b7b0 2b3d b08f 7cbf 0d83 1cbe a713 563e
00000150: 1998 98bf ae21 66bf 5a7e 833e a394 d6be
00000160: 2376 3bbf ef9a d03d 061e 0b3d f685 66bf
00000170: b721 183f 87df 913e 8d8d 98bf ff6b 7bbf
00000180: db18 8f3d 3680 41bf 8974 17be cf7d a6be
00000190: bbdc 46bf ea3b 8e3e c85d 56bf 2246 18bf
000001a0: 9604 f8be 2351 b6be f28b aa3e 8587 f03d
000001b0: 4b91 d5be fb8a cbbf 9ade f7be 924c e13c
000001c0: af7a 28bf 85c2 c1be 9639 de3d d284 9abe
000001d0: 8e35 483f 722d fabe 27b4 30be 1d26 30be
000001e0: cf4c 80bf 5855 1a3e 9242 52bf 0589 83bf
000001f0: 30f1 57bf c9ff adbe e454 24bf c3f0 e83e
00000200: f0dc 673f df93 b1bf d0bd 573e 9d1e c93e
00000210: b6ff edbe ada3 c2be 62e0 88be db21 0ebf
00000220: da88 883e 8441 8cbe 9d2f 44bf 9d36 3bbf
00000230: 9996 c8be 09be 0d3e 6333 35bd 1ed8 3abf
00000240: 7de5 c53e 9ae9 37bf cfec cf3e b3ba 38bf
00000250: 55fd 98be 33fc 3dbe 32f8 34bf 5a50 32bd
00000260: 39c4 8bbe c706 a3be fc99 47bf 686f 11bf
00000270: 8608 eabe b512 81bf 45cb 6ebe 3a8e fcbe
00000280: 0c46 89bd 7b99 4abf db55 75be cf4b 1ebf
00000290: 0dc6 a2bd eb80 f8bd ee18 afbe b2f3 f3be
000002a0: 8656 0fbf 9339 bcbe edd6 23bf a144 0a3e
000002b0: bc4b 42bf 409f b1be 5fa2 8ebf e5d8 cd3b
000002c0: 83ed 43bd 78e6 6dbf 4d50 593d 4409 a5be
000002d0: 6105 213e 231d aebf b017 48bf 81d6 f8be
000002e0: 6c6e 0dbf 858d 56be 4bb1 febe 36fc 95bf
000002f0: 53b1 84be 50ee 03bf 4fa8 d1be cd2a 5abf
00000300: 75a1 58bf 990b 36bf 6413 29bf b1e6 4dbf
00000310: 8b36 5bbf 53c7 97be b8be 78bc f596 8bbf
00000320: 2972 afbc 0aa5 01bf 33f1 83bd df0d 96bf
00000330: 2576 1ebf b127 5b3a bc7b 42be fc4e 4bbf
00000340: ac1b 74bf 0111 393f bd7e bebf 1453 69bf
00000350: 7c83 a03e 191d 32bf 2f34 0bbf 2ed4 613f
00000360: 178c 073e 83a6 8dbf cdd0 4b3e 87bf 09bf
00000370: 713d 45bf 2734 023e d5dc c3be b183 563e
00000380: e041 36be 2e75 873e 1f7c 16bf 697d 323e
00000390: 941c 333f 40a0 963e 9d7b c6bd e5e1 0abf
000003a0: 79d8 00bf 7b21 9f3e 880a 55bf 3cd8 473e
000003b0: 93f7 6abf e3c0 7ebf 7eca 58be 3043 28bf
000003c0: ec5d 003f 2315 42be 5eed 55be c652 ec3e
000003d0: 2b2c 64bf 60cf b3be 7b9d dfbe 4f2b 56be
000003e0: 5115 6cbf 3891 dfbe 6655 ab3e a5ae 5b3e
000003f0: c58d 90bf 4369 8cbf 09b9 97be ea46 9fbf
-0.39172018 0.35525048 -0.5421357 -0.41979852 -0.20774919 -0.083486944 -0.66159207 -0.5168509
0.6723482 0.04720816 -0.22500654 -0.3631779 -0.11384942 -0.41578144 -0.44185033 -1.0512222
0.51998454 -0.21338014 0.14621703 -0.28789094 -0.51772237 -0.4853712 -0.27303725 -1.1121036
-0.9246763 -0.08644301 -0.73042786 0.30333257 -0.14819871 -0.92513233 -0.5098039 -0.299146
-0.26982048 -0.09527464 -0.23857471 -0.51161593 -0.6303001 -0.7041918 1.0702068 -0.3455133
-0.7413508 0.32536185 -0.23671238 -1.1312736 0.5066213 -0.69233537 -0.43531558 0.48939505
-0.5001346 0.032463964 -0.098267175 -0.9883538 0.10195704 -0.39285538 -0.809814 -1.187956
0.7161164 0.8845263 -0.5574511 0.06258638 -0.019185591 0.29737568 -0.33394808 -1.1253415
-0.19001779 0.88593084 -0.2229226 -0.6595129 -1.0288776 -0.16261578 -0.5416822 -0.85578996
-0.79676485 -0.6383551 -0.57108724 -0.3234464 -1.0923277 0.8276433 -0.7869867 -1.0816177
0.041916575 -0.9865675 -0.15284367 0.20905934 -1.1921417 -0.8989514 0.25682336 -0.41910276
-0.7322714 0.10185801 0.03396418 -0.9004816 0.59426445 0.2849085 -1.1918198 -0.98211664
0.06987163 -0.7558626 -0.14790548 -0.3251786 -0.7768056 0.27780086 -0.8373685 -0.59482014
-0.48441 -0.35608777 0.33309895 0.11744598 -0.41712412 -1.5901788 -0.4841202 0.027502332
-0.658122 -0.3784372 0.108508274 -0.3017946 0.7820672 -0.48862797 -0.17256223 -0.17202039
-1.002344 0.15071619 -0.8213283 -1.027619 -0.843524 -0.3398421 -0.6419203 0.45496187
0.905715 -1.3873252 0.21068501 0.3928117 -0.46484154 -0.380155 -0.2673369 -0.5552041
0.2666691 -0.27393734 -0.7663515 -0.7313021 -0.39177397 0.13842024 -0.04423846 -0.7298602
0.38651648 -0.7184082 0.40610358 -0.7215988 -0.29880777 -0.18553238 -0.70691216 -0.04353366
-0.27298144 -0.31841108 -0.77969337 -0.5681062 -0.45709628 -1.0083834 -0.23319729 -0.4932726
-0.067028135 -0.7914044 -0.23958533 -0.61834425 -0.079479314 -0.12133964 -0.34198707 -0.47646862
-0.559914 -0.36762676 -0.63999826 0.13502742 -0.7589681 -0.3469181 -1.1143302 0.0062819594
-0.04783393 -0.9292979 0.053055096 -0.32233632 0.15724708 -1.3602642 -0.78161144 -0.48601153
-0.55246615 -0.20952423 -0.4974464 -1.1717594 -0.25916538 -0.5153551 -0.40948722 -0.8522156
-0.84621364 -0.71111447 -0.6604521 -0.8043013 -0.856301 -0.2964426 -0.01518219 -1.0905443
-0.02141674 -0.50642455 -0.064424895 -1.1722983 -0.61899024 0.00083601015 -0.18992513 -0.79417396
-0.95354724 0.7229157 -1.4882427 -0.9114239 0.31350315 -0.6957565 -0.543765 0.88214386
0.13237034 -1.106644 0.1990387 -0.5380787 -0.7704688 0.12715207 -0.3825442 0.20948674
-0.17798567 0.26456589 -0.58783144 0.17430653 0.6996548 0.29419136 -0.09691546 -0.5425094
-0.5033031 0.3108023 -0.83219194 0.1951608 -0.9178402 -0.9951307 -0.21170995 -0.6572752
0.50143313 -0.18953376 -0.2089133 0.461569 -0.89129895 -0.35119152 -0.43674836 -0.20914958
-0.92220026 -0.4366548 0.3346359 0.2145334 -1.1293265 -1.0969623 -0.29633358 -1.2443516

bn4.weight f4 [256]
00000000: 962b 1e3f c1c5 f53e 71c2 6f3f bba9 d53e
00000010: 8757 343f 2eb9 bcbe cf26 863e 99e4 7bbd
00000020: 1e03 5f3f 6caa 54bf 8e47 993e 9473 a13e
00000030: 642f fc3e ab81 173e a274 f03e 4aca d1be
00000040: e390 283e dd26 4a3f 468c 1b3f 1b0e 0f3f
00000050: b57d 003e a4c3 26be 3493 4f3e ed22 5f3e
00000060: 65e5 44be f4f1 4c3e 6526 2f3f dddd d33e
00000070: cd50 273d ce4e 483f 4491 953f 00a5 293f
00000080: b4b8 183f 5dc0 203e fc41 9abe abb2 63bd
00000090: 3155 a83f ecdc 423f 427f 3f3e 6e9f 293f
000000a0: 7d3a 3b3f c9b6 db3e da95 24bf fbe8 a93e
000000b0: 53d6 7f3e 1c1f a63e 028c 21be af77 5d3e
000000c0: be77 ca3f 70cf 233f 5ff5 363f 04c2 953d
000000d0: 4213 933f 7f66 703d 8f8e c33e 881d 903e
000000e0: 50cc e93e 2f41 6a3f 8e17 263f 498d c93f
000000f0: 8ec8 bdbd 283a 7c3e ba03 b33e 3ca3 993e
00000100: bcaa 5b3e 4ac6 593e 3af0 753f 36d6 553f
00000110: d3e3 fd3d 53f1 743f a9df d43d 030f b73e
00000120: 664e b43e 2900 d33e 588d 993f 099e c53e
00000130: d7eb 8f3f 8372 0a3f 95df 123f f58d 0e3f
00000140: 3242 5bbd e222 493e 5663 f23e a146 0e3f
00000150: bf97 693f 62ff fd3e 6b7f 5cbf 8f31 f73e
00000160: 94a4 6d3f 5f0c fe3f a2ca 183f 537e f63d
00000170: 2b00 cb3e 33e8 9e3e a7c1 abbd 2af9 d13f
00000180: e49d 5c3f a40d 1b3f 5b49 073f add0 9ebd
00000190: 4a3d 34bd a824 bb3f 7ff8 27bf 5a44 c03d
000001a0: fc5a 0cbe 6365 003f 2d46 8e3e 2d96 b33e
000001b0: 22c6 f23e f913 833f 8073 403f 3054 c63f
000001c0: f48b dc3c 9aa2 d3bd 1881 c93f 7bc2 fb3e
000001d0: 56db cb3e 7c1d 063f 6459 b53e dbb5 c83e
000001e0: 107b 51be daab ee3d 1b44 0a3f 2dfd 183f
000001f0: 80e9 253f 8104 3e3f 27b9 0d3f 44e5 e33e
00000200: 996c 073f c865 ac3f cfce 6a3f 1b7a 813f
00000210: 9918 fe3e c130 143f 29dc b63e 4463 203f
00000220: 7a03 0f3f b1c1 0a3f 736a 81be 3b33 4e3f
00000230: 4edf 323e fd66 d83e 1701 e13e 2d41 443e
00000240: 7b00 463f b641 e83e ca03 0e3f 82e3 79bc
00000250: 8be2 febe 81c5 b23d 4a24 8e3e da20 863e
00000260: 56c1 643f 74b4 b03d 2de7 9c3e 3914 ae3b
00000270: f676 583e 6092 9d3e 4ed5 693e 4121 2e3f
00000280: 5021 283f a588 a13e 2e6a b13f a273 123e
00000290: 50b2 073f 9e3c 8f3f 1c63 873e 6fc4 033f
000002a0: 34c9 143f 7073 103f 6373 033f 1e48 d13c
000002b0: 58e7 133e 867a 433f a42f 7bbe 25e2 1d3f
000002c0: 84ba 013f 6861 2cbf 81f2 7e3e 210c 243e
000002d0: 411b 723e 45bb 283f a079 c4be ddac 3f3f
000002e0: adc1 4d3f 5916 ca3e d5b5 3c3f e3cf 163f
000002f0: 72b9 9ebd 2efd 4e3f a019 253f 9d4d 61be
00000300: d211 9cbe d8fc 0a3e 551f 823e cce5 093e
00000310: c502 303d 47a7 f53e 6def a23e 1711 a73e
00000320: 43d6 8c3e 3c7a 303f effc ab3e 4394 0fbe
00000330: 22a7 193f d3d8 c33d 8c78 6b3f 0a8e 803f
00000340: a605 803e a760 fb3e 9854 0abc 6977 15bd
00000350: 66ad 4d3e d5c3 6a3d 8a35 83bd 2b8c 82bd
00000360: a906 863f 6a9e ccbc 6e73 8cbe be4d c53c
00000370: 72f6 193f def1 aa3e 6879 e83e 7ef0 ee3e
00000380: 2c87 183f dc05 e93e 3588 293f e5da c9be
00000390: a6a9 543f 5ffc b23e b98b 153f 56c7 adbf
000003a0: f3d6 8e3f ceb2 a13e 8738 123f b712 073f
000003b0: 580e a43e 941b f53e 8c60 c1be 8794 f43d
000003c0: 8938 bc3e 861b 733e be24 c93e af0a 5f3f
000003d0: 45a3 413d cf65 083f af00 063d 66f1 4f3f
000003e0: 58f0 903c ceeb 7e3f 0249 2cbd d0b0 c13f
000003f0: 64ca b1be 80c8 be3b d520 503e 4f3c 513f
0.61785257 0.48002437 0.9365607 0.41731057 0.70446056 -0.3686003 0.26201484 -0.061497305
0.8711413 -0.83072543 0.29937404 0.31533492 0.49254906 0.14795558 0.46963984 -0.40974647
0.1646152 0.7896555 0.60760915 0.558809 0.12547953 -0.16285568 0.20270997 0.21790667
-0.19228132 0.20014173 0.6841796 0.41380206 0.040848542 0.78245246 1.1684957 0.66267395
0.59656835 0.15698381 -0.30128467 -0.055590313 1.3150998 0.7611835 0.18700889 0.66258895
0.7313612 0.42912892 -0.64291155 0.33185562 0.24984102 0.3244561 -0.15776065 0.21627687
1.5817792 0.639884 0.71468157 0.07312396 1.1490252 0.058691498 0.381947 0.2814753
0.4566369 0.9150571 0.6487969 1.5746242 -0.092667684 0.2463156 0.3496378 0.3000735
0.21451849 0.21267048 0.9606968 0.83529985 0.1239697 0.9568073 0.10394222 0.3575364
0.35216063 0.4121106 1.199626 0.38597134 1.1243848 0.5408098 0.5737241 0.5568536
-0.053529926 0.19642213 0.47341412 0.5557652 0.9124717 0.49608904 -0.86131924 0.48279998
0.9282925 1.9847525 0.59684193 0.12035813 0.39648566 0.3103653 -0.08386546 1.6404164
0.8617842 0.6056769 0.52846307 -0.077546455 -0.044003762 1.4620562 -0.6561355 0.09388037
-0.13706583 0.50154704 0.27787915 0.35075513 0.47416788 1.024047 0.7517624 1.5494442
0.026922204 -0.10333748 1.5742521 0.49171814 0.39815778 0.5238874 0.35419762 0.39201245
-0.20457101 0.11653872 0.5401017 0.59761316 0.6480942 0.7422562 0.55360645 0.44510853
0.5290008 1.3468561 0.91721815 1.0115389 0.49628142 0.5788689 0.35714844 0.6265147
0.5586468 0.542018 -0.25276527 0.8054692 0.17467996 0.42266074 0.43946144 0.19165488
0.77344483 0.45362633 0.5547453 -0.015251996 -0.49782214 0.08729077 0.2776206 0.2619694
0.8935751 0.08628169 0.30645123 0.0053124693 0.2113913 0.30775738 0.22835276 0.6801949
0.6567583 0.31549564 1.3860528 0.14301923 0.5300646 1.1190374 0.26442802 0.5147161
0.5811951 0.56426144 0.5134794 0.025547083 0.1444372 0.7635883 -0.24529892 0.61673194
0.50675225 -0.6733613 0.24897195 0.16020252 0.23643209 0.6591075 -0.38374043 0.74873143
0.8037365 0.39470175 0.73714954 0.5891096 -0.07750215 0.8085507 0.64492226 -0.22002263
-0.30482346 0.13573015 0.2541453 0.13466567 0.04297139 0.47979185 0.31823292 0.32630226
0.2750722 0.68936515 0.3359141 -0.14021401 0.6002065 0.0956284 0.91980815 1.0043347
0.2500431 0.49097177 -0.00844302 -0.03649083 0.20085678 0.057315666 -0.06406696 -0.06374391
1.0470783 -0.024977881 -0.27431816 0.024084922 0.6014167 0.33387655 0.45405126 0.46667856
0.59581256 0.45512283 0.6622346 -0.39424816 0.8307136 0.3495817 0.58416325 -1.3576458
1.1159347 0.3158173 0.57117504 0.5276293 0.32042193 0.47872603 -0.37768972 0.11942392
0.36761883 0.23740968 0.39285845 0.87125677 0.047274847 0.5328035 0.032715496 0.8122772
0.01769273 0.9957856 -0.042061813 1.5132084 -0.34724724 0.0058222413 0.20325024 0.8173265
