mini_batch_exp/models/mnist_adam_batch16384_lr0.1.pt (torch_old, 968495 bytes, 62 tensors)

conv1.weight f4 [16, 1, 3, 3]
0	0x3f606c62	0.8766538
1	0x3f8e3aa3	1.1111645
2	0x3e4d1d2c	0.2003066
3	0x3f2a23b6	0.6646074
4	0x3eeb3e19	0.45945814
5	0xbd323061	-0.04350317
6	0x3f0024c8	0.50056124
7	0xbd9816a2	-0.07426192
8	0x3ef6be81	0.48192218
9	0xbef31a45	-0.4748098
10	0xbe022a7b	-0.12711518
11	0xbe22dd3f	-0.15904711
12	0xbf0e3b11	-0.5555888
13	0xbefb3392	-0.49062783
14	0x3cdcbeec	0.026946507
15	0xbf1f1fa4	-0.62157655
16	0x3f3a6f43	0.7282602
17	0x3f85de98	1.0458555
18	0xbeee9e78	-0.46605277
19	0x3f3467d3	0.70470923
20	0xbe167d6f	-0.14696287
21	0xbe95f7ab	-0.29290518
22	0x3f90a65a	1.1300766
23	0x3d6b1b02	0.057398804
24	0x3e7e5086	0.24835405
25	0x3eef919d	0.46790782
26	0x3d7261c4	0.059175268
27	0x3fabdbde	1.3426473
28	0x3fa54ea5	1.2914625
29	0x3e8fe7d3	0.28106555
30	0x3da751fe	0.08169936
31	0xbc3e1a3d	-0.011602935
32	0xbe362b05	-0.17789848
33	0xbe5f8487	-0.21827899
34	0xbe96c45f	-0.29446694
35	0xbdbc1f4d	-0.09185658
36	0x3ea2151d	0.31656733
37	0x3f2432ca	0.6414
38	0xbf6497b3	-0.89293975
39	0x3f8ced22	1.1009867
40	0x3f6f4429	0.9346338
41	0xbf507f7a	-0.81444514
42	0x3e6a0c69	0.22856297
43	0x3ea233b3	0.31680068
44	0xbeb77254	-0.35829413
45	0x3f45c473	0.7725288
46	0x3ee88bd6	0.45419186
47	0xbe7ada25	-0.24497278
48	0xbe7e4a17	-0.2483295
49	0x3f94b116	1.1616542
50	0x3ebc8c3a	0.36825734
51	0x3e234487	0.1594411
52	0x3f942a50	1.1575413
53	0xbed3f1bb	-0.41395363
54	0x3da019ff	0.07817458
55	0xbe3af7ea	-0.18258634
56	0x3e9373f5	0.28799406
57	0x3ea6f197	0.32606193
58	0xbe45b239	-0.19306268
59	0x3fcd8805	1.6057135
60	0xbed37d08	-0.4130633
61	0x3ed2b95c	0.41157043
62	0x3f509607	0.81478924
63	0x3e0a11e7	0.13483392
64	0xbe9a11d8	-0.3009174
65	0xbf65f176	-0.89821565
66	0x3f4b469b	0.7940461
67	0x3e0a5b64	0.13511425
68	0xbead5262	-0.33851916
69	0xbcc8da9a	-0.0245183
70	0x3ee094c4	0.438635
71	0x3e9fdb10	0.3122182
72	0xbfa19a10	-1.2625141
73	0xbf460c0b	-0.77362126
74	0x3c8ba471	0.017046185
75	0x3ea50a77	0.32234547
76	0x3f8d843e	1.1055982
77	0x3eaa582c	0.33270395
78	0x3f14b94e	0.5809525
79	0x3df488f1	0.11940182
80	0xbf29f78d	-0.6639336
81	0x3f681ebe	0.9067191
82	0xbec1a182	-0.37818533
83	0xbf06c28d	-0.5264061
84	0x3eed6b42	0.46370894
85	0xbeabb71a	-0.33538133
86	0xbe4e1e61	-0.20128776
87	0x3f203fbb	0.62597245
88	0xbf047cc6	-0.5175289
89	0xbeaaec80	-0.3338356
90	0x3f1ccdf7	0.6125178
91	0xbf4bc6b8	-0.79600096
92	0xbf9e8c5e	-1.2386587
93	0x3dc8b81d	0.09800742
94	0xbf2917eb	-0.6605212
95	0xbf53fdfe	-0.82809436
96	0xbe8370ab	-0.25671896
97	0xbec72814	-0.38897765
98	0xbf343a0d	-0.7040108
99	0xbd72c5fe	-0.05927085
100	0x3f28da8f	0.65958494
101	0x3f1da9cd	0.6158722
102	0x3e67526e	0.22590038
103	0x3f81d44a	1.014291
104	0x3f0b2a8f	0.54361814
105	0x3f402f40	0.750721
106	0x3f119bf1	0.5687857
107	0xbeae4de4	-0.340438
108	0xbf0765fe	-0.5289
109	0xbfc2f4e9	-1.5230991
110	0xbecaf127	-0.3963711
111	0xbfc92090	-1.5713062
112	0x3f3b5198	0.7317138
113	0x3f57d4f1	0.843093
114	0xbf358b4e	-0.7091569
115	0xbe0f5091	-0.13995577
116	0x3f0b530e	0.54423606
117	0xbd3cb0c0	-0.046067
118	0x3f0b276a	0.54357016
119	0x3f796080	0.9741287
120	0xbed977fe	-0.4247436
121	0x3e92de93	0.28685436
122	0x3eeba2bc	0.46022594
123	0xbf03f26d	-0.5154179
124	0x3e4c04ce	0.19923708
125	0x3ec85cb5	0.3913323
126	0xbe76ca93	-0.24100713
127	0xbf149ddf	-0.5805339
128	0x3f3202a2	0.6953527
129	0xbf3b990b	-0.732804
130	0xbef10f05	-0.47081771
131	0x3f16aed9	0.58860546
132	0x3db0efe5	0.08639506
133	0xbe783ea4	-0.24242646
134	0x3f31b68b	0.69419163
135	0x3f00ec79	0.5036083
136	0x3f5f8231	0.8730803
137	0x3fcd04bf	1.6017073
138	0x3e81fca6	0.25388068
139	0xbf0d9bd2	-0.5531589
140	0xbdb126ed	-0.08650003
141	0xbeb1f8db	-0.34760174
142	0xbed6ff42	-0.4199162
143	0xbfc728cd	-1.5559326

conv1.bias f4 [16]
0	0xbdd0277d	-0.10163782
1	0xbf61c2f2	-0.8818809
2	0xbe1c2c10	-0.15251184
3	0x3f6f635f	0.93511003
4	0xbfc6b94b	-1.5525297
5	0x3ea3e1bf	0.32008168
6	0xbf10044e	-0.5625657
7	0xbe4a36fe	-0.1974754
8	0xbf486db9	-0.78292423
9	0xbfa19d8e	-1.2626207
10	0xbf595270	-0.84891415
11	0x3f1161df	0.56789964
12	0xbf88d936	-1.0691288
13	0x3b90ff19	0.0044249413
14	0x3f1f9d84	0.62349725
15	0xbb14a2fa	-0.002268015

bn1.weight f4 [16]
0	0x3ec6c579	0.38822535
1	0x3f163c64	0.586859
2	0x3e0c2335	0.13685305
3	0xbf9e8daf	-1.2386988
4	0x3f853a5c	1.0408435
5	0x3f12b1b4	0.57302403
6	0xbedfc25d	-0.43702975
7	0x3f96d43e	1.1783521
8	0x4024463b	2.5667865
9	0x3f744d0c	0.95430064
10	0x3ef4b648	0.4779532
11	0x3efc553c	0.4928378
12	0x400e7d2d	2.2263901
13	0x3f3a6094	0.72803617
14	0x3fcd4b96	1.6038692
15	0x3fe893b3	1.8170074

bn1.bias f4 [16]
0	0xbf9ebcc7	-1.240136
1	0xbdccf226	-0.10007124
2	0xbf355d36	-0.70845354
3	0xbf822947	-1.0168847
4	0xbf9782ac	-1.1836753
5	0xbd93d599	-0.07218475
6	0xbf0d484d	-0.5518845
7	0x3ee40033	0.44531402
8	0x401e83c9	2.4767935
9	0x3d8768ea	0.06611808
10	0xbea883ba	-0.32913
11	0xbe666a3a	-0.2250146
12	0xbf15c244	-0.5849955
13	0xbf38e6ba	-0.7222706
14	0x3ea1f765	0.3163406
15	0x3e579115	0.21051438

bn1.running_mean f4 [16]
0	0x43634a8c	227.2912
1	0x422dbec1	43.436283
2	0x42d8b0e3	108.34548
3	0x430ec7f8	142.78113
4	0x42ecbae1	118.365
5	0x4333a9c2	179.66312
6	0x431e8190	158.5061
7	0x423f8f95	47.890217
8	0x422feac5	43.979267
9	0x42259614	41.39656
10	0x40e897d4	7.2685337
11	0x435f1bb7	223.10826
12	0x41cf7a0b	25.934591
13	0x42ecb7ef	118.359245
14	0x423b83ad	46.87859
15	0x42b52df1	90.58973

bn1.running_var f4 [16]
0	0x47eb60e0	120513.75
1	0x461bb27d	9964.622
2	0x4701002e	33024.18
3	0x47665e4b	58974.293
4	0x47346c82	46188.508
5	0x479db39f	80743.24
6	0x4782f0e8	67041.81
7	0x4608ff3f	8767.812
8	0x462209d7	10370.46
9	0x4614929b	9508.651
10	0x4422c861	651.1309
11	0x47ef7fcb	122623.586
12	0x45a74087	5352.066
13	0x471aea1f	39658.12
14	0x4621e922	10362.283
15	0x47095056	35152.336

conv2.weight f4 [32, 16, 4, 4]
0	0xbf26bbac	-0.65130115
1	0xbf2f30ec	-0.68434024
2	0x3ed2cafc	0.4117049
3	0xbe3c4c5b	-0.18388502
4	0xbf01586b	-0.5052554
5	0x3f77ce34	0.96799016
6	0x3f89ac7b	1.0755762
7	0xbf16d0d3	-0.5891239
8	0xbec43483	-0.38321313
9	0x3f863bc9	1.0486995
10	0x3f5452f7	0.82939094
11	0xbf08902c	-0.5334499
12	0x3f87ddf8	1.0614614
13	0x3f64e877	0.89417213
14	0x3f18b8be	0.59656894
15	0x3e8fe4f8	0.28104377
16	0xbeea26a2	-0.457326
17	0x3f9d8bd5	1.2308298
18	0x3f565ff6	0.83740175
19	0xbef9e595	-0.4880797
20	0xbf06610c	-0.5249183
21	0x3eb20ad2	0.3477388
22	0xbdd663dd	-0.10468266
23	0xbef35458	-0.47525287
24	0x3f2cacfb	0.6745145
25	0x3ebf74fc	0.3739394
26	0x3b3d55d2	0.0028890264
27	0x3e1e3792	0.15450886
28	0x3f402498	0.7505584
29	0x3edbe3f9	0.42947367
30	0x3e30c117	0.17261158
31	0xbc3bce1e	-0.011462716
32	0xbf15d744	-0.58531594
33	0x4001573f	2.02095
34	0x3f828594	1.0197015
35	0xbf0d0630	-0.55087566
36	0xbe7faf48	-0.24969208
37	0x3f4844b3	0.78229827
38	0xbf20a8a7	-0.62757343
39	0xbf07146c	-0.52765536
40	0x3f3c02c4	0.7344172
41	0x3edf6200	0.43629456
42	0xbcc0147a	-0.023447264
43	0x3ead8f9f	0.33898637
44	0x3f55f556	0.8357748
45	0x3f0e8cc2	0.5568353
46	0x3d729cae	0.059231453
47	0x3e373878	0.17892635
48	0xbf2f19a5	-0.68398505
49	0xbf573710	-0.84068394
50	0x3ed793cd	0.4210495
51	0x3ecebca9	0.4037831
52	0xbf1910bd	-0.59791166
53	0xbef4d55b	-0.47819027
54	0x3f4df7d4	0.8045628
55	0xbf20f4fa	-0.62873805
56	0xbf0eba0c	-0.55752635
57	0x3fb6348d	1.4234787
58	0x3f921c9a	1.1414979
59	0xbf193938	-0.59852934
60	0x3e4269ea	0.18985716
61	0x3f8c0485	1.0938879
62	0x3ef78449	0.48343113
63	0x3ec44830	0.38336325
64	0xbf1707a6	-0.58996046
65	0xbeff9f03	-0.49926004
66	0x3f8633b2	1.0484526
67	0x3eac7f72	0.33690983
68	0xbf27733b	-0.654102
69	0xbea410dd	-0.32044116
70	0x3f72e90e	0.94886863
71	0xbec06b42	-0.3758183
72	0xbf01b785	-0.50670654
73	0x3f570ef7	0.8400721
74	0x3ecde7ce	0.40215915
75	0xbeec9c44	-0.4621297
76	0x3ec2a7db	0.3801869
77	0x3f4eb240	0.8074074
78	0x3ec68cba	0.3877924
79	0xbd74b7bd	-0.05974554
80	0xbefa7bac	-0.4892248
81	0x3dd0d1e4	0.101962835
82	0xbe950bd5	-0.2911059
83	0xbf2ca2b6	-0.6743578
84	0x3ee27757	0.44231674
85	0x3f816e11	1.0111715
86	0x3f0d3f10	0.5517435
87	0x3d39cfb3	0.045364093
88	0x3f7ea096	0.99463785
89	0x3f16a833	0.588504
90	0x3eee60d6	0.46558255
91	0x3f29abb7	0.6627764
92	0x3f71d475	0.9446481
93	0x3eb097b3	0.34490737
94	0x3d857f05	0.06518368
95	0x3eacde8c	0.3376354
96	0xbe083ff5	-0.13305648
97	0x3f3d686a	0.7398745
98	0xbf178dfd	-0.5920103
99	0xbf2dcfb4	-0.67895055
100	0x3f3d56e7	0.7396073
101	0x3f20dcca	0.628369
102	0xbe9ab70e	-0.30217785
103	0xbe5dd259	-0.21662273
104	0x3f51851a	0.8184372
105	0x3ed2fde3	0.41209325
106	0x3b3d0254	0.00288405
107	0x3f28ac3b	0.658878
108	0x3f4a2f07	0.7897801
109	0x3e6aa8e2	0.22915986
110	0xbc2c7cd9	-0.010527813
111	0x3ddaee7e	0.1069002
112	0xbf0c9813	-0.54919547
113	0xbef7ecdd	-0.484229
114	0x3f8f990e	1.1218584
115	0xbeae1116	-0.3399741
116	0xbf390137	-0.7226748
117	0x3d57c07d	0.052673806
118	0x3ec01e3d	0.3752307
119	0xbee209dd	-0.4414815
120	0xbf1cbba8	-0.6122384
121	0x3f06a4c3	0.52595156
122	0x3e29861a	0.16555062
123	0xbd8eeeb7	-0.06979125
124	0x3f42feec	0.7617023
125	0x3f257c9d	0.6464327
126	0x3e1a14c8	0.1504699
127	0xbdcfd0dd	-0.101472594
128	0xbe801220	-0.25013828
129	0xbdb2f334	-0.087377936
130	0x3df96a9f	0.121785395
131	0xbe600dd1	-0.2188027
132	0x3f4c227d	0.79740125
133	0x3f57e19b	0.8432862
134	0x3f182514	0.59431577
135	0xbd29924a	-0.041399278
136	0x3f659da9	0.89693695
137	0x3f3e379f	0.7430362
138	0xbe31ed4f	-0.17375682
139	0x3cc04dc2	0.023474578
140	0x3f35ce18	0.710176
141	0x3e116a39	0.14200677
142	0xbe5b856f	-0.2143762
143	0xbd21df8a	-0.039519824
144	0xbf0ed8ae	-0.55799377
145	0xbef89868	-0.48553777
146	0x3f883f3c	1.0644298
147	0x3e27b290	0.1637671
148	0xbf0775b9	-0.52914006
149	0x3f62fca3	0.88666743
150	0x3f24b129	0.64332825
151	0xbf0a2744	-0.53966165
152	0xbeea4a16	-0.45759648
153	0x3f81fa03	1.0154423
154	0x3f23726d	0.63846475
155	0xbf3f006b	-0.7461001
156	0x4029c19c	2.652442
157	0x3f610aeb	0.87907284
158	0x3f1e0392	0.617242
159	0x3f26e18e	0.6518792
160	0x3e94b2d6	0.2904269
161	0xbf2717bf	-0.6527061
162	0x3f86094b	1.0471586
163	0x3f37e0dd	0.7182749
164	0xbf05179f	-0.5198917
165	0xbf00a946	-0.5025829
166	0x3f66e7d5	0.901975
167	0xbed72a9c	-0.42024696
168	0xbf04307e	-0.51636493
169	0x3f758c3f	0.95917124
170	0x3f507a5e	0.8143672
171	0xbebe52a2	-0.3717242
172	0xbece709f	-0.40320298
173	0x3f4f2d87	0.80928844
174	0x3f25abb4	0.64715123
175	0x3e8be1a6	0.27320594
176	0xbf29d5e3	-0.6634199
177	0x3f10f2ed	0.56620675
178	0x3f13d477	0.5774607
179	0x3d7d4c8a	0.06184057
180	0xbee213cc	-0.4415573
181	0x3fb20b53	1.3909706
182	0xbdbf8229	-0.09350998
183	0xbf2b4901	-0.6690827
184	0x3f898106	1.07425
185	0x3f60e839	0.87854344
186	0xbeb97e53	-0.3622919
187	0xbef12c39	-0.47104052
188	0x3f6bf6a7	0.92173237
189	0x3f24145a	0.64093554
190	0x3e6df99e	0.23239753
191	0x3ec4a716	0.38408726
192	0x3de9d7bb	0.114181004
193	0xbc900689	-0.017581241
194	0x3f662bfd	0.8991087
195	0x3fa137d1	1.2595159
196	0xbf3d5579	-0.73958546
197	0xbeea3e82	-0.45750815
198	0x3f835b2c	1.0262198
199	0x3f610d49	0.87910897
200	0x3df613ba	0.12015481
201	0xbe728af4	-0.23685819
202	0x3f0d38d7	0.55164856
203	0xbfdc05d8	-1.7189283
204	0xbd09e7aa	-0.033668198
205	0x3e495eff	0.19665144
206	0x3e2a62ab	0.16639201
207	0xbf2fba47	-0.6864361
208	0xbf3e6880	-0.74378204
209	0xbe0d4158	-0.13794458
210	0xbf4d10ae	-0.80103576
211	0xbf731b12	-0.9496318
212	0x3f229692	0.63511
213	0x3f422805	0.75842315
214	0xbecce4b6	-0.40018243
215	0xbec2e185	-0.38062683
216	0x3ef9ce1c	0.4879006
217	0x3ea80264	0.32814324
218	0x3ebb95ff	0.36637875
219	0x3f0bb4b3	0.545726
220	0x3f3ef70e	0.74595726
221	0x3e89deef	0.26927897
222	0x3d2ce394	0.042209223
223	0x3f09c0ca	0.538098
224	0x3f8388c8	1.0276117
225	0xbe6cf566	-0.23140487
226	0xbf4be119	-0.79640347
227	0x3efc81d5	0.49317804
228	0x3f4765ac	0.77889514
229	0xbf197454	-0.5994313
230	0xbf183292	-0.59452164
231	0xbe9c22d5	-0.30495325
232	0x3f482f0f	0.78196806
233	0x3e292910	0.1651957
234	0x3ea2b6b1	0.31780007
235	0xbf0d30c4	-0.55152535
236	0x3f054ad6	0.52067316
237	0xbe9161e9	-0.28395012
238	0x3f5b2d0b	0.85615605
239	0xbf176ae9	-0.59147507
240	0xbf82337c	-1.0171962
241	0xbf9baccd	-1.216211
242	0x3e922eb9	0.28551272
243	0x3e84c8d8	0.25934482
244	0xbf45ed92	-0.7731563
245	0xbeda80e7	-0.4267647
246	0x3fb778ad	1.4333702
247	0xbf38b876	-0.72156465
248	0xbf2b0b57	-0.6681418
249	0xbe326feb	-0.17425506
250	0xbedc092b	-0.42975745
251	0xbf098f10	-0.5373392
252	0xbf15f67f	-0.5857925
253	0x3e320dce	0.17388079
254	0x3e8c3322	0.2738276
255	0xbd940fd2	-0.0722958

conv2.bias f4 [32]
0	0x3f3d3a3e	0.73916996
1	0xbf5cecd4	-0.8629887
2	0xbf09b52f	-0.5379209
3	0xbf22ffcf	-0.6367158
4	0x3f05db95	0.5228818
5	0x3d8eb4a8	0.06968051
6	0x3f49cb15	0.78825504
7	0x3e421709	0.189541
8	0x3f9292d3	1.1451057
9	0xbf56300f	-0.8366708
10	0x3f792621	0.97323805
11	0x3ec1fc3e	0.37887758
12	0x3f7335f9	0.9500423
13	0x3f561341	0.8362313
14	0xbd98a263	-0.07452848
15	0xbf768c38	-0.96307707
16	0x3f193d8c	0.5985954
17	0xbf802832	-1.0012267
18	0xbecc0ba9	-0.39852646
19	0x3ed2b018	0.41149974
20	0xbf46fb80	-0.7772751
21	0x3f040984	0.5157702
22	0x3ead336f	0.33828303
23	0xbde4e835	-0.111771025
24	0x3e1641cb	0.14673536
25	0xbca91257	-0.020638628
26	0xbe71a8c5	-0.23599537
27	0xbe7e5af5	-0.24839385
28	0xbf4a716c	-0.7907932
29	0xbf896bab	-1.0735983
30	0xbea4121b	-0.32045063
31	0x3efb929e	0.49135298

bn2.weight f4 [32]
0	0x3f6fbebe	0.93650424
1	0x3fb5b8e1	1.4197046
2	0x3f300c57	0.6876883
3	0x3f85910a	1.0434887
4	0xbe81e2fd	-0.2536849
5	0x3fc882ae	1.566488
6	0x3f0c91b9	0.54909855
7	0x3fa3d928	1.2800646
8	0x3fa66e7d	1.3002468
9	0x3f69e90d	0.9137123
10	0x3f888181	1.0664521
11	0x3ede7d9c	0.43455207
12	0x3feeff46	1.8671653
13	0xbf53ec01	-0.8278199
14	0x3f829ff3	1.0205063
15	0x3fc7f8e7	1.5622834
16	0x3e293628	0.16524565
17	0x3ffc0318	1.9688444
18	0x3efa194e	0.4884743
19	0x3f7f298d	0.99672776
20	0x3fc55199	1.5415527
21	0x4014e3b3	2.3263977
22	0x3f95c5d8	1.1701002
23	0x3fdb01af	1.7109889
24	0x3fa9a265	1.3252684
25	0x3f55c77a	0.835075
26	0x3efe7255	0.49696603
27	0x3f69d81a	0.9134537
28	0x401aec4a	2.420672
29	0x3fe2b386	1.7711036
30	0x3f541ed4	0.8285954
31	0x3fab0372	1.3360426

bn2.bias f4 [32]
0	0x3f66334f	0.8992204
1	0xbf0f3b53	-0.55949897
2	0xbec22c3f	-0.37924382
3	0x3f766f7e	0.96263874
4	0xbeb330f2	-0.3499828
5	0xbf034124	-0.5127127
6	0xbf322c4c	-0.6959884
7	0xbf32ecb9	-0.6989246
8	0x3dbaf160	0.0912807
9	0xbec4f01d	-0.38464442
10	0x3f80b46e	1.0055063
11	0xbf27c11a	-0.65529025
12	0xbee5cdd9	-0.44883612
13	0xbeacea4b	-0.337725
14	0xbf164c0b	-0.5870978
15	0xbedf8c86	-0.43661898
16	0xbf3d8b45	-0.74040633
17	0xbee45d9a	-0.44602662
18	0x3f300b2b	0.6876704
19	0xbf12f766	-0.5740875
20	0xbf0e4496	-0.55573404
21	0xbf4429d4	-0.76626325
22	0xbec34b0a	-0.38143188
23	0x3f1d7f15	0.61522037
24	0xbe8e3768	-0.27776647
25	0xbf1cbd7c	-0.6122663
26	0xbf12851a	-0.57234347
27	0xbf11555e	-0.56770885
28	0x3f1eedbe	0.62081516
29	0xbf3d96c6	-0.74058187
30	0x3f7384e2	0.9512464
31	0xbd0cfe2c	-0.034422085

bn2.running_mean f4 [32]
0	0x4186998b	16.824972
1	0x421218cb	36.52421
2	0x40adac19	5.427258
3	0x40115e3f	2.2713773
4	0x41b457c1	22.542849
5	0x411c1689	9.755502
6	0x424bae6f	50.920345
7	0x40f45994	7.635935
8	0x422729c7	41.7908
9	0x41529f31	13.163865
10	0x41abe6bf	21.487669
11	0x420b2671	34.78754
12	0x41283a6f	10.514266
13	0x41fef05f	31.867369
14	0x41802f87	16.023207
15	0x418c7e78	17.561752
16	0x422ca370	43.159607
17	0x410e7431	8.903367
18	0x42004d93	32.075756
19	0x42338c31	44.886906
20	0x40c16f9b	6.0448737
21	0x40fb6f4f	7.8573375
22	0x4254c62e	53.193535
23	0x40f0ae0b	7.5212455
24	0x421adecc	38.717575
25	0x41c88db3	25.06919
26	0x417adfce	15.67964
27	0x41900c23	18.005926
28	0x40e31c42	7.0971994
29	0x40e1cf9a	7.056592
30	0x41e52c9a	28.646778
31	0x413909fe	11.5649395

bn2.running_var f4 [32]
0	0x43a7912e	335.13422
1	0x441db560	630.834
2	0x430066ec	128.40204
3	0x42088399	34.128513
4	0x4406e19e	539.52527
5	0x4310b09c	144.68988
6	0x4420ca50	643.16113
7	0x4332e7f1	178.90602
8	0x44748f34	978.23755
9	0x43939066	295.1281
10	0x43a3573a	326.68146
11	0x43e1476d	450.558
12	0x433ad02c	186.81317
13	0x4400e97e	515.6483
14	0x439daaa8	315.33325
15	0x43b13fcb	354.49838
16	0x439a3bfd	308.46866
17	0x433838e8	184.22229
18	0x44242a6b	656.6628
19	0x4401e19f	519.5253
20	0x4309299e	137.16257
21	0x42bc1681	94.04395
22	0x440a322c	552.78394
23	0x42e8b956	116.361984
24	0x441eb5ea	634.8424
25	0x4361989e	225.59616
26	0x43bbec63	375.84677
27	0x440b404c	557.00464
28	0x42bbd068	93.90704
29	0x429e8b5f	79.27221
30	0x443de1d4	759.52856
31	0x43468b5b	198.54436

conv3.weight f4 [64, 32, 5, 5]
0	0xbe85a736	-0.26104134
1	0xbf3be19f	-0.73391145
2	0xbf627df3	-0.88473433
3	0xbf436ff9	-0.7634273
4	0xbf288fae	-0.6584424
5	0x3f0ca874	0.5494454
6	0xbf3d4219	-0.7392898
7	0xbf6c112d	-0.9221371
8	0xbe8b5faf	-0.27221438
9	0x3d8a9215	0.06766144
10	0x3f13d4ec	0.5774677
11	0x3f0e7c4d	0.5565842
12	0x3ec39eee	0.3820719
13	0xbf7ac7c6	-0.9796108
14	0xbf2c56e7	-0.673201
15	0x3cd6b0f5	0.026207427
16	0x3eac2ad1	0.33626416
17	0x3e798b7f	0.2436962
18	0xbf11c9a4	-0.56948304
19	0x3e855c40	0.26046944
20	0xbf1c988a	-0.61170256
21	0xbf3d385c	-0.7391412
22	0xbf45f489	-0.77326256
23	0xbf34ec38	-0.7067294
24	0xbf0874eb	-0.533034
25	0x3f0c89bc	0.54897666
26	0xbe9a3b33	-0.3012329
27	0xbe9b93ce	-0.30386204
28	0xbf1ac732	-0.604602
29	0xbe8b35f3	-0.27189597
30	0x3f8b1971	1.0867139
31	0xbc1cd259	-0.009571635
32	0x3e8eb641	0.27873424
33	0xbeb09b76	-0.34493607
34	0x3f52b3ea	0.8230578
35	0x3f5a3988	0.85244036
36	0x3f174eb3	0.5910446
37	0xbf46b77e	-0.77623737
38	0xbeea562e	-0.45768875
39	0x3f672ba0	0.9030094
40	0x3f795d5b	0.97408074
41	0xbf32963e	-0.697605
42	0xbf5d0e3e	-0.86349857
43	0xbd1762a1	-0.036959294
44	0x3f217bc9	0.63079506
45	0x3ecc28d6	0.39874905
46	0xbe58b08d	-0.21161099
47	0xbec89700	-0.39177704
48	0xbf97b7e0	-1.1852989
49	0x3e6dab39	0.23209848
50	0x3f59bfd8	0.85058355
51	0x3f0992c6	0.53739583
52	0x3f1c3f18	0.61033773
53	0x3f164976	0.5870584
54	0x3f2929b5	0.66079265
55	0x3f645b49	0.8920179
56	0xbef516ec	-0.4786905
57	0xbef68094	-0.48144972
58	0x3eaf1d29	0.34201935
59	0x3f85eeef	1.0463542
60	0x3f6ddf93	0.9291927
61	0xbf8dfe54	-1.109324
62	0xbf7404a8	-0.95319605
63	0xbf56dc1a	-0.839296
64	0x3f32924b	0.69754475
65	0x3f60aa5e	0.8775996
66	0x3dd20df6	0.10256569
67	0xbf02576d	-0.5091465
68	0xbf8e9c00	-1.1141357
69	0xbeefda25	-0.4684612
70	0x3f55d2c7	0.83524746
71	0x3f3de572	0.7417823
72	0x3f1f2487	0.6216511
73	0x3ebf733a	0.37392598
74	0x3f13a071	0.5766669
75	0x3f648250	0.8926134
76	0x3f2e2bde	0.68035686
77	0xbe0d2142	-0.13782218
78	0xbf2fc168	-0.6865449
79	0xbf382d20	-0.71943855
80	0x3f6ea76f	0.93224233
81	0x3e95677d	0.29180518
82	0xbf52aa31	-0.8229094
83	0xbf21fbba	-0.6327473
84	0xbec3d116	-0.38245457
85	0x3f99ca88	1.2014933
86	0xbf2b3df6	-0.6689142
87	0xbf4e8283	-0.80667895
88	0x3e34b38f	0.17646621
89	0x3df77811	0.12083448
90	0x3f56087e	0.8360671
91	0xbea9395a	-0.33051568
92	0x3ba74a56	0.005105297
93	0xbf5d59c4	-0.86465096
94	0xbe24b0e5	-0.16083105
95	0x3f4e2c56	0.805364
96	0xbe31af26	-0.1735197
97	0xbf1b47e4	-0.6065657
98	0xbf42b28b	-0.76053685
99	0xbcf84d07	-0.030310167
100	0x3ed5fa59	0.41792563
101	0x3ed30a6c	0.4121889
102	0x3ec006de	0.3750524
103	0x3f39c95a	0.72572863
104	0x3f31c428	0.69439936
105	0x3f0b2447	0.5435223
106	0xbf81d7f1	-1.0144025
107	0xbf023497	-0.50861496
108	0xbf0a0426	-0.5391258
109	0xbdf0c3ee	-0.117561206
110	0x3eb33427	0.35000727
111	0xbf77e0d2	-0.96827424
112	0xbf6d5a9f	-0.927164
113	0xbe27e1c3	-0.16394715
114	0x3ed17771	0.4091144
115	0x3f555620	0.8333454
116	0x3f337a26	0.7010826
117	0xbdca5978	-0.09880346
118	0xbeab4de5	-0.33457866
119	0x3e2d6b8d	0.16935559
120	0x3f2e1b25	0.6801017
121	0x3f04bac2	0.5184747
122	0x3ea9a79b	0.33135685
123	0x3d03054a	0.031987466
124	0x3ed2d617	0.41178963
125	0xbd6ab492	-0.05730111
126	0xbe6767fa	-0.22598258
127	0x3e496e07	0.19670878
128	0x3f2befac	0.67162585
129	0x3ee8b5b3	0.45451126
130	0xbf6bcc38	-0.9210849
131	0xbf36ecda	-0.71455157
132	0x3e8b6683	0.27226648
133	0x3e058350	0.13038373
134	0xbf294a78	-0.66129255
135	0xbedad9aa	-0.4274419
136	0x3e428b4b	0.18998449
137	0x3f1a6c01	0.6032105
138	0x3d4b0c93	0.04957254
139	0xbe8236b1	-0.2543235
140	0x3e18637e	0.14881703
141	0x3ef941f5	0.48683134
142	0x3eb26649	0.34843662
143	0x3f3295ec	0.6976001
144	0xbef38abd	-0.47566786
145	0xbf2b0a24	-0.6681235
146	0xbe155116	-0.14581713
147	0x3e8cb3d4	0.27480948
148	0xbf07ad7d	-0.529991
149	0xbe852cdc	-0.26010787
150	0x3ec05da4	0.37571442
151	0x3f5378fe	0.82606494
152	0x3f189bd0	0.5961275
153	0x3eb055f9	0.34440592
154	0xbf35740e	-0.7088021
155	0x3f5b2dc1	0.8561669
156	0x3f70c0ef	0.94044393
157	0x3ebb506d	0.36584798
158	0xbf7bbc98	-0.98334646
159	0xbf4c711a	-0.7986008
160	0x3f58f01d	0.84741384
161	0x3f27e855	0.65588886
162	0xbebd7ec3	-0.37010774
163	0xbeea078d	-0.45708886
164	0xbeaf6b2b	-0.3426145
165	0x3f3e2bfc	0.74285865
166	0x3f769c13	0.963319
167	0xbe5bd4aa	-0.21467844
168	0x3f1ade7d	0.6049574
169	0xbe4f13ed	-0.20222445
170	0x3f49041a	0.78521883
171	0x3e0589b3	0.1304081
172	0x3e1190bb	0.14215367
173	0x3dc0a271	0.09405983
174	0xbedc5997	-0.43037102
175	0x3f848364	1.0352597
176	0x3e018f6b	0.12652366
177	0xbdc6ca85	-0.09706596
178	0x3d816b38	0.063192785
179	0xbe7acc5f	-0.24492024
180	0x3f7a343f	0.9773597
181	0x3e4ef57e	0.20210835
182	0x3f105b78	0.5638957
183	0x3f1216ae	0.57065856
184	0x3f12a2b7	0.57279533
185	0x3f6debf7	0.9293818
186	0xbe7ec889	-0.24881186
187	0x3ecdbdf9	0.40184
188	0xbe8dc8ec	-0.27692354
189	0x3eac5c35	0.33664098
190	0x3f79a489	0.97516686
191	0xbf80906a	-1.0044072
192	0xbecdab31	-0.4016967
193	0xbf3f5a3c	-0.7474706
194	0x3f5096f4	0.81480336
195	0x3f017ac2	0.5057794
196	0x3e12ac5c	0.14323562
197	0xbe86046b	-0.26175246
198	0x3e090c42	0.13383582
199	0x3f13426e	0.5752324
200	0x3f68fed1	0.9101382
201	0xbe529bd1	-0.20567252
202	0xbf5bb77c	-0.8582685
203	0xbf6950d0	-0.91138935
204	0x3f3c4827	0.73547596
205	0x3f370ae2	0.7150098
206	0xbf271c58	-0.65277624
207	0xbf139008	-0.5764165
208	0xbf084f27	-0.53245777
209	0xbda663f2	-0.08124532
210	0x3f624489	0.88385826
211	0x3e91f971	0.2851062
212	0xbf9c3699	-1.2204162
213	0x3e20b766	0.15694961
214	0x3e1210da	0.14264241
215	0x3f2a9f2e	0.6664914
216	0xbef037cc	-0.4691757
217	0xbe339691	-0.17537905
218	0x3eac211f	0.3361902
219	0x3eab90a6	0.33508795
220	0xbf05a06c	-0.5219791
221	0xbeb7d977	-0.359081
222	0xbe0d82df	-0.13819455
223	0xbf1bf5e5	-0.6092208
224	0x3f1fd127	0.62428516
225	0x3edf2248	0.43580842
226	0x3f03740c	0.5134895
227	0x3f4d4f78	0.80199385
228	0x3f1764b1	0.5913802
229	0xbeec0cb3	-0.4610344
230	0x3faf0df8	1.3676138
231	0xbdfbe3d4	-0.12299314
232	0xbf1d75df	-0.6150798
233	0xbf073f72	-0.52831185
234	0x3f85e398	1.0460081
235	0x3f6d8f27	0.9279656
236	0xbda042b7	-0.07825225
237	0xbf761522	-0.96125996
238	0xbf716b56	-0.94304407
239	0x3f3e6914	0.74379086
240	0x3f6abcb9	0.9169422
241	0x3ea24095	0.31689897
242	0xbf68db09	-0.9095922
243	0x3e0e2285	0.13880356
244	0xbe0b966e	-0.13631603
245	0x3f4b3df4	0.7939141
246	0x3f65e1a0	0.897974
247	0x3f4b77a9	0.7947946
248	0x3f380ce0	0.71894646
249	0x3ea8ec68	0.32992864
250	0xbf208da4	-0.62716126
251	0xbf11275b	-0.56700677
252	0x3df53713	0.11973395
253	0x3e58358b	0.21114175
254	0x3e61bfa3	0.2204576
255	0xbdf708be	-0.12062214

conv3.bias f4 [64]
0	0xbecdee3a	-0.40220815
1	0xbf68f7e3	-0.91003245
2	0xbf6e0782	-0.92980206
3	0xbf639414	-0.88897824
4	0xbe6431c1	-0.22284605
5	0xbf3d2d63	-0.7389738
6	0xbf3d036a	-0.73833334
7	0x3f5f270c	0.87168956
8	0x3f206523	0.6265432
9	0xbf43a250	-0.76419544
10	0xbf507ef7	-0.8144373
11	0x3dadde23	0.08489635
12	0xbf2f9b34	-0.68596196
13	0xba5b42cb	-0.000836414
14	0xbf2ad855	-0.66736346
15	0xbf6338a4	-0.887583
16	0xbe8d10a8	-0.2755177
17	0x3f011a5c	0.50430846
18	0x3f293e98	0.66111135
19	0xbf04f3fe	-0.519348
20	0xbf2dde4f	-0.6791734
21	0xbf3a0a09	-0.7267156
22	0x3e8a1049	0.2696555
23	0xbe8f157b	-0.27946076
24	0x3b04f85d	0.0020289638
25	0x3ecbe8ce	0.39826053
26	0x3d51bc88	0.051205188
27	0xbf125fe7	-0.57177585
28	0xbf5a5607	-0.8528752
29	0xbe52f1ee	-0.20600101
30	0x3ebb7968	0.36616063
31	0x3e59bf19	0.21264304
32	0xbf667226	-0.90017927
33	0xbf5f29b2	-0.87172997
34	0x3f081c25	0.53167945
35	0xbe4953a2	-0.1966081
36	0x3f4b3a1c	0.7938554
37	0xbe9aa184	-0.30201352
38	0xbf06ce3a	-0.52658427
39	0xbf7fca59	-0.99918133
40	0xbf856326	-1.0420883
41	0x3edf2cd4	0.4358889
42	0xbfa256b3	-1.2682709
43	0x3f0b3653	0.5437977
44	0xbec7d011	-0.3902593
45	0x3ea2f413	0.3182684
46	0xbf11ca14	-0.5694897
47	0x3dbb121c	0.091343135
48	0x3f2b489c	0.6690767
49	0xbe2da376	-0.16956887
50	0xbf2a838f	-0.6660699
51	0xbf797989	-0.9745107
52	0xbefa5e40	-0.48900032
53	0xbe8883b0	-0.2666297
54	0xbdab4003	-0.08361819
55	0xbf3f3844	-0.7469523
56	0xbd268840	-0.040657282
57	0xbf169ff1	-0.588378
58	0xbec13617	-0.3773658
59	0xbeea79bd	-0.45796004
60	0xbeb31102	-0.34973913
61	0x3f821a34	1.0164247
62	0x3f8c33bb	1.0953287
63	0xbf1c2a6f	-0.6100225

bn3.weight f4 [64]
0	0x3fdd165d	1.727245
1	0x3e819712	0.2531057
2	0x3fce1824	1.6101117
3	0x3e964c93	0.29355296
4	0x3f1d038a	0.61333525
5	0x3e417438	0.1889199
6	0x3f75e5ff	0.9605407
7	0x3f6d6490	0.9273157
8	0x3fc124d2	1.5089362
9	0x3f13ff6c	0.5781162
10	0x3f6cedd8	0.9255042
11	0x3fc75de9	1.5575534
12	0x3ee5aab8	0.4485681
13	0x3fccdce1	1.6004907
14	0x3f154b5b	0.5831811
15	0x3e9a0ba4	0.30087006
16	0x3fb95006	1.4477546
17	0x3fd6ae54	1.6771951
18	0x3f0786bc	0.52939963
19	0x3fd7ef61	1.6869928
20	0x3f71bdfd	0.94430524
21	0x3f1cd9e2	0.6126996
22	0x400f00b3	2.2344177
23	0x3ee5e7ba	0.44903356
24	0x3fa974eb	1.3238806
25	0x3f2d69ad	0.67739373
26	0x401379a4	2.3042994
27	0x3f85e8ec	1.0461707
28	0x3fc8405e	1.5644643
29	0x3fcd9844	1.6062093
30	0x3ebcf099	0.3690231
31	0x3e8cc22a	0.27491885
32	0x3fb18a32	1.3870299
33	0x3fb6ab34	1.4270997
34	0x3fe12ad5	1.7591196
35	0x3e07c0bd	0.13257118
36	0x3f273ad8	0.65324163
37	0x3fc7e668	1.561719
38	0x3f5163f5	0.8179315
39	0x3edd49f5	0.43220487
40	0xbbd77d79	-0.006576237
41	0x3f5b62be	0.85697544
42	0x3f08b84f	0.5340623
43	0x3fa9d6da	1.3268692
44	0x4006bb97	2.1051996
45	0x3fd28ca0	1.6449165
46	0x3f5b6b13	0.8571026
47	0x3fd005ef	1.6251811
48	0x3fa35505	1.2760321
49	0x3fb44fab	1.4086813
50	0x3fb760ee	1.4326456
51	0x3d6a9c1f	0.057277795
52	0x3e4c0cb3	0.1992672
53	0x3f99f641	1.2028276
54	0x3fc13eb8	1.5097265
55	0x3d985c32	0.0743946
56	0xbeddf64f	-0.4335198
57	0x400d6f01	2.2099001
58	0x3fb04f40	1.3774185
59	0x401339a6	2.3003936
60	0x3f8f3778	1.1188803
61	0x3fd53b82	1.6658785
62	0xbddc6603	-0.10761645
63	0x3fc63c4c	1.5487151

bn3.bias f4 [64]
0	0xbf290884	-0.6602862
1	0xbf4031a4	-0.75075746
2	0xbf24c91f	-0.64369386
3	0xbfac9a0a	-1.3484509
4	0x3e92d669	0.28679207
5	0xbe284a79	-0.16434659
6	0xbe7a4db4	-0.24443704
7	0xbf6fe6c6	-0.9371151
8	0x3e36d4a3	0.17854552
9	0xbf35af3e	-0.70970523
10	0xbe9ee4d6	-0.31033963
11	0x3dd694b0	0.10477579
12	0x3f975775	1.1823565
13	0x3e16f953	0.14743547
14	0xbf76717d	-0.9626692
15	0x3dec1bdb	0.115287505
16	0x3edf6a0b	0.43635592
17	0xbdebd424	-0.11515072
18	0xbe68fe7d	-0.2275333
19	0xbf6d1038	-0.9260287
20	0x3e4647af	0.19363283
21	0x3ef92009	0.48657253
22	0xbdcdafe1	-0.10043312
23	0x3e82be62	0.25535876
24	0xbf2f79a4	-0.68544984
25	0x3f13e281	0.5776749
26	0xbf063567	-0.52425236
27	0xbe245590	-0.16048265
28	0xbf6a0f49	-0.91429573
29	0xbe1e67df	-0.15469311
30	0xbcd7293f	-0.026264785
31	0x3f8bccb9	1.0921851
32	0xbe77fb09	-0.24216856
33	0xbdb87825	-0.09007291
34	0x3f450c3a	0.7697178
35	0xbf07adbc	-0.5299947
36	0x3f2154c7	0.63019985
37	0xbf04c645	-0.51865035
38	0x3cc6b6f3	0.024257159
39	0xbf5f1b65	-0.87151176
40	0xbed4509f	-0.4146776
41	0xbe9eeee4	-0.31041634
42	0xbf0a1e58	-0.5395255
43	0xbf00b3b4	-0.50274205
44	0xbf773930	-0.96571636
45	0xbea3ae23	-0.31968793
46	0xbf256c20	-0.6461811
47	0x3d3a7434	0.045520976
48	0xbea82df5	-0.32847562
49	0x3d0ec572	0.034856267
50	0xbecc07a1	-0.3984957
51	0xbebd33f1	-0.3695369
52	0xbec47a00	-0.3837433
53	0x3ec9487f	0.39313123
54	0x3f483020	0.7819843
55	0x3f73305f	0.94995683
56	0xbdc3ddc1	-0.095637806
57	0xbe9a83ab	-0.3017858
58	0xbea4bbb5	-0.3217446
59	0x3babc48e	0.005241937
60	0xbe64e913	-0.22354536
61	0xbe36a429	-0.1783606
62	0x3eaa4b2e	0.33260483
63	0xbf46f179	-0.7771221

bn3.running_mean f4 [64]
0	0x3fc88608	1.5665903
1	0x1178cb08	1.9626314e-28
2	0x40e6b879	7.2100186
3	0x39b95a9f	0.00035353468
4	0x4076b4a4	3.8547754
5	0x3fb94908	1.4475412
6	0x3f3f1015	0.74633914
7	0x4251612e	52.344902
8	0x41dab875	27.340067
9	0x3d19934a	0.03749398
10	0x421dc92a	39.44645
11	0x41b8f153	23.117834
12	0x3df44c4f	0.11928617
13	0x424ed8e4	51.711807
14	0x3ed683a5	0.41897312
15	0x10aea6e6	6.8888047e-29
16	0x4272e999	60.728123
17	0x41d0c44a	26.095844
18	0x420c76a1	35.11585
19	0x404b493f	3.1763456
20	0x40766e39	3.8504775
21	0x3eda48d0	0.42633677
22	0x4248a366	50.15957
23	0x4280e4ff	64.44726
24	0x429660b1	75.18885
25	0x409856b0	4.760582
26	0x4279855c	62.380234
27	0x40a51d73	5.159845
28	0x253230d8	1.5455588e-16
29	0x41672937	14.447562
30	0x429be387	77.94439
31	0x428f5c14	71.67984
32	0x4079adfa	3.9012437
33	0x41288584	10.532597
34	0x422c5282	43.080574
35	0x3adbd690	0.0016772319
36	0x42ebb3a8	117.85089
37	0x41bba6d8	23.456467
38	0x4195ff77	18.749739
39	0x3fb55345	1.4166037
40	0x41912b01	18.145998
41	0x40cbd3d9	6.3696103
42	0x206ecf70	2.022802e-19
43	0x4166f8f2	14.435778
44	0x4200c1bb	32.18919
45	0x409fdda3	4.9958053
46	0x4192a988	18.332779
47	0x4243e0d5	48.969563
48	0x431a2dc0	154.17871
49	0x40486b3d	3.1315453
50	0x400afdfb	2.1717517
51	0x3981864e	0.00024704862
52	0x40c154c7	6.041599
53	0x41280cf8	10.503166
54	0x42a88c22	84.2737
55	0x3ffcd128	1.975133
56	0x416b66e8	14.712624
57	0x41c50f43	24.632452
58	0x40da4391	6.820748
59	0x41815fc8	16.171768
60	0x41b53fe7	22.656202
61	0x42fbf63a	125.98091
62	0x4232fb16	44.7452
63	0x41920e58	18.257004

bn3.running_var f4 [64]
0	0x42b33124	89.59598
1	0x12b081e2	1.113918e-27
2	0x440cb4b2	562.82336
3	0x3be86042	0.007091553
4	0x42e116ba	112.54439
5	0x4279d54e	62.458305
6	0x41fb9dcb	31.452047
7	0x452335a3	2611.3523
8	0x43baf1b6	373.88837
9	0x3f72442c	0.9463527
10	0x44d92db3	1737.4281
11	0x44450ad2	788.16907
12	0x4042b163	3.0420768
13	0x44cf45db	1658.183
14	0x415a5894	13.6466255
15	0x1233585b	5.6591347e-28
16	0x44f30b5b	1944.3549
17	0x44748bcf	978.1845
18	0x448f6dad	1147.4274
19	0x43459bff	197.60936
20	0x42b04859	88.141304
21	0x413ea064	11.914158
22	0x44f966b3	1995.2094
23	0x45040977	2112.5916
24	0x451a39d2	2467.6138
25	0x437be697	251.90074
26	0x4498ee57	1223.4481
27	0x4387e547	271.79123
28	0x2700a13f	1.785098e-15
29	0x4414f67f	595.8515
30	0x44eb3710	1881.7207
31	0x45126b7a	2342.7173
32	0x435221eb	210.13249
33	0x447472ff	977.7968
34	0x44be0d5a	1520.4172
35	0x3c7e0d4f	0.015506103
36	0x44da7c89	1747.8917
37	0x44a89c93	1348.893
38	0x43d25ef9	420.74197
39	0x42587563	54.114635
40	0x4482c58f	1046.1737
41	0x4373a552	243.64578
42	0x20844a39	2.2410786e-19
43	0x43f8e00b	497.75034
44	0x444fa51a	830.5797
45	0x4368105a	232.06387
46	0x443ca221	754.53326
47	0x443a0ebf	744.2304
48	0x44b416a6	1440.7078
49	0x430f8cc2	143.54984
50	0x428f23f7	71.570244
51	0x3b7740ac	0.0037727756
52	0x43707bb3	240.4832
53	0x43f0a680	481.30078
54	0x44ec5707	1890.7196
55	0x423e1f02	47.53028
56	0x449b87c4	1244.2427
57	0x447395c8	974.34033
58	0x43d56f61	426.87015
59	0x43dbc2f7	439.52316
60	0x44f15208	1930.5635
61	0x44b0e92e	1415.2869
62	0x449bd758	1246.7295
63	0x442cfe62	691.97473

fc1.weight f4 [256, 64]
0	0x3f1f3cca	0.6220213
1	0x3d0a77aa	0.033805527
2	0x3f63ceaf	0.8898725
3	0x3f5249fc	0.8214414
4	0xbef1472d	-0.47124615
5	0x3f322a3e	0.69595706
6	0xbe4dd3e4	-0.20100361
7	0x3f4b56bf	0.7942924
8	0xbf0bf280	-0.546669
9	0x3e072597	0.13197933
10	0xbf477102	-0.7790681
11	0x3c960590	0.0183132
12	0xbf13e652	-0.57773316
13	0x3ed0a40c	0.40750158
14	0x3e9bb648	0.30412507
15	0x3dd082d8	0.101812065
16	0xbe45499c	-0.19266361
17	0xbdd78648	-0.10523659
18	0xbf0387c6	-0.5137905
19	0x3f6bf0e3	0.9216444
20	0xbf333d2d	-0.7001522
21	0xbf391598	-0.72298574
22	0xbe6b6b58	-0.22990167
23	0xbe7e7b15	-0.2485164
24	0xbd2d99f9	-0.042383168
25	0xbf20f0ce	-0.6286744
26	0x3e5b42b9	0.21412171
27	0x3f45fc9d	0.7733858
28	0x3f593fe3	0.8486311
29	0x3f41f85e	0.75769603
30	0xbf20bc47	-0.6278729
31	0xbec15db2	-0.37766796
32	0x3f392952	0.72328675
33	0xbe9e7fb9	-0.3095682
34	0xbe9d412a	-0.3071378
35	0x3f378673	0.7168953
36	0xbf30d279	-0.69071156
37	0x3f0467ad	0.51720697
38	0xbf2231cd	-0.6335724
39	0x3f70a613	0.9400341
40	0xbd4dcf21	-0.05024636
41	0x3ebfacfa	0.37436658
42	0x3ed0da90	0.4079175
43	0x3f7a22fa	0.9770962
44	0xbf518e45	-0.8185771
45	0x3f4b1656	0.79330957
46	0xbf0b650d	-0.54451066
47	0xbb0a468a	-0.0021099173
48	0xbf30b81a	-0.69030917
49	0x3d1bd9ae	0.038049392
50	0x3f93aeb5	1.1537691
51	0x3eff3f1c	0.49852836
52	0x3f61e5cd	0.88241273
53	0xbf4071db	-0.7517373
54	0x3f2afe3f	0.667942
55	0xbe57bd7c	-0.21068376
56	0x3e6dadc0	0.23210812
57	0x3f1f8f90	0.62328434
58	0x3f07e1ac	0.5307872
59	0xbf060a5b	-0.5235955
60	0x3d0e0846	0.03467586
61	0x3eb6d191	0.3570676
62	0x3e2bc095	0.16772683
63	0xbf2926fe	-0.6607512
64	0x3bdde1f8	0.0067713223
65	0xbec01688	-0.3751719
66	0x3dc70c7b	0.09719177
67	0x3f5a4064	0.852545
68	0xbea5d743	-0.32390794
69	0xbf383c75	-0.7196725
70	0x3f188166	0.59572446
71	0x3f24c404	0.64361596
72	0x3e0850bb	0.13312046
73	0xbe22701d	-0.1586308
74	0xbf7bb778	-0.98326826
75	0xbeddf98a	-0.43354446
76	0xbfc2613b	-1.5185922
77	0x3f0dd67f	0.5540542
78	0xbeae5354	-0.3404795
79	0x3ec07204	0.37586987
80	0xbf345a27	-0.7045006
81	0x3ed27296	0.41103047
82	0x3ebf84af	0.37405917
83	0x3e110f05	0.14165886
84	0x3e8aaa5e	0.27083105
85	0x3f25ee50	0.6481676
86	0xbf5de262	-0.8667356
87	0x3e6c72a7	0.23090611
88	0x3f15ed65	0.5856536
89	0xbf2deaf4	-0.67936635
90	0xbf3b89e9	-0.7325731
91	0x3ecd333c	0.4007815
92	0xbd5f64c8	-0.054539472
93	0xbf6ea24b	-0.9321639
94	0xbda77cf1	-0.081781276
95	0x3ef30461	0.47464278
96	0x3e0839ee	0.13303348
97	0xbe7691df	-0.24079083
98	0x3f833dd3	1.0253242
99	0xbeb0de31	-0.3454452
100	0x3d748919	0.05970106
101	0xbf661db3	-0.8988907
102	0x3d1696ea	0.036765017
103	0xbea6e16f	-0.32593867
104	0xbed74a8b	-0.4204906
105	0xbd7a8dcd	-0.061170388
106	0x3d8a9a4b	0.0676771
107	0xbeb9f888	-0.36322427
108	0x3d8d378d	0.06895361
109	0x3e74d6d6	0.23910078
110	0x3db4ee81	0.088345535
111	0x3fca7d49	1.5819484
112	0x3fa6f76d	1.3044258
113	0x3d806222	0.06268717
114	0xbdd01d84	-0.1016188
115	0x3f3c0718	0.73448324
116	0xbe2aece0	-0.16691923
117	0xbe124523	-0.14284186
118	0x3f6f95ad	0.9358776
119	0xbf5298d7	-0.82264465
120	0xbe8c7a41	-0.27437022
121	0xbe93e4f9	-0.2888563
122	0x3def177b	0.116744004
123	0x3e413037	0.18866049
124	0x3cc195d1	0.023631008
125	0x3f848df1	1.0355817
126	0xbef20adf	-0.4727392
127	0x3dfccfb2	0.12344302
128	0xbd902b66	-0.070395276
129	0xbf3cb85d	-0.73718816
130	0x3f2f4bec	0.6847522
131	0xbf410092	-0.75391495
132	0xbe2a2c15	-0.16618378
133	0xbeb79004	-0.35852063
134	0xbf2f1618	-0.6839309
135	0xbf27cba3	-0.655451
136	0x3e80a606	0.25126666
137	0xbf02527b	-0.50907105
138	0x3f658e97	0.896707
139	0xbf6a3af7	-0.91496223
140	0xbf2dc317	-0.6787581
141	0x3f161e18	0.5863967
142	0xbf4d12d4	-0.80106854
143	0xbf4aeb8b	-0.7926566
144	0xbdd0e4bf	-0.1019988
145	0x3f1c5441	0.6106606
146	0xbf652893	-0.89515036
147	0x3f569116	0.83815134
148	0x3f54befb	0.83103913
149	0x3e91ba75	0.28462568
150	0x3dc16734	0.094435126
151	0xbec4e21a	-0.38453752
152	0xbeb3cd56	-0.35117596
153	0x3ea13c9e	0.3149156
154	0x3f6618d0	0.8988161
155	0xbeb8fd1c	-0.36130607
156	0xbf25d597	-0.6477904
157	0xbf1d703f	-0.614994
158	0x3f2a6cbd	0.6657217
159	0x3f54bae4	0.8309767
160	0x3d9b7fe8	0.075927556
161	0xbe1b52ce	-0.15168306
162	0xbc65d6c8	-0.014028259
163	0xbf1bb2de	-0.60819805
164	0xbe7e0b14	-0.24808913
165	0xbe4136fb	-0.1886863
166	0xbf5c687d	-0.86096936
167	0xbe103022	-0.14080861
168	0x3f0a59aa	0.54043067
169	0x3f17e763	0.59337443
170	0xbf31181c	-0.69177413
171	0xbf087e7d	-0.53318006
172	0x3f81c3fe	1.0137937
173	0x3eaa9b57	0.3332164
174	0x3e5faf44	0.21844202
175	0xbeb5af31	-0.35485223
176	0xbdbfc92f	-0.093645446
177	0xbf21bb56	-0.63176477
178	0xbcafc124	-0.021454401
179	0xbf36e9b5	-0.7145036
180	0xbed1c144	-0.40967762
181	0xbf3b4a5e	-0.7316035
182	0x3f0c3638	0.5477023
183	0xbf144bd3	-0.579282
184	0xbf3be23b	-0.73392075
185	0x3f10dc5e	0.56586254
186	0x3f2950ce	0.66138923
187	0xbe89e515	-0.26932588
188	0xbecb9802	-0.3976441
189	0xbf1188e8	-0.5684953
190	0xbf08f105	-0.53492767
191	0xbe86b4d4	-0.26309836
192	0xbf4f82a8	-0.8105874
193	0xbec31d7c	-0.38108432
194	0xbf35455e	-0.7080897
195	0xbee753aa	-0.45181018
196	0xbf0f64a0	-0.56012917
197	0xbf618fdf	-0.88110155
198	0xbe27c505	-0.1638375
199	0xbe4aa5c2	-0.19789794
200	0x3fc180ff	1.5117491
201	0xbf309d2d	-0.6898983
202	0x3d957b9a	0.07298966
203	0x3f19835c	0.59966063
204	0x3eed73a3	0.46377286
205	0xbf00c746	-0.5030407
206	0x3de6728a	0.11252315
207	0xbe89fb1a	-0.26949388
208	0xbedf62db	-0.43630108
209	0x3f36018a	0.710961
210	0x3db84c34	0.089989096
211	0xbf369407	-0.7131962
212	0x3d9f143c	0.07767531
213	0x3f1d8973	0.61537856
214	0xc0134ef4	-2.301694
215	0x3f06f08c	0.52710795
216	0x3e319517	0.1734203
217	0x3a881edd	0.0010385175
218	0x3e805a99	0.2506912
219	0xbf53d91d	-0.82753164
220	0xbf293a48	-0.66104555
221	0x3f481200	0.78152466
222	0x3e6f99d6	0.23398528
223	0xbeb3ff94	-0.35155928
224	0xbe9cd2cc	-0.30629575
225	0xbda6e9e8	-0.08150083
226	0x3ed77e5c	0.42088592
227	0xbea9519b	-0.33070073
228	0x3f3ec412	0.7451793
229	0xbf4cd428	-0.80011225
230	0xbea54393	-0.32278118
231	0xbf0f2716	-0.55919015
232	0x3d65304d	0.055954266
233	0xbe291acc	-0.16514128
234	0xbec90d67	-0.39268038
235	0x3e270653	0.16311006
236	0xbeecf9d9	-0.4628437
237	0xbf462fe6	-0.7741684
238	0xbf561ccc	-0.8363769
239	0xbf749324	-0.9553702
240	0x3ed847fd	0.42242423
241	0x3e0884c5	0.13331898
242	0xbf3b428d	-0.73148423
243	0x3e50b01d	0.20379682
244	0x3ee8eb1e	0.4549188
245	0xbdb5c080	-0.08874607
246	0xbeb0b076	-0.3450963
247	0xbe5d00ef	-0.21582387
248	0x3dc027e3	0.09382608
249	0xbea144d6	-0.3149783
250	0xbf634ddd	-0.88790685
251	0xbfd9afb7	-1.7006749
252	0xbe191174	-0.14948064
253	0x3e09c405	0.13453682
254	0x3ecaa0fb	0.39575943
255	0xbf8b4fad	-1.088369

fc1.bias f4 [256]
0	0xbf8216d4	-1.0163217
1	0xbf04c608	-0.5186467
2	0x3e8d2b56	0.27572125
3	0x3e9c37bd	0.30511275
4	0xbf01aa59	-0.50650555
5	0xbf51643b	-0.81793565
6	0xbf30f29c	-0.6912019
7	0x3ea75946	0.32685298
8	0x3e953df2	0.29148823
9	0x3f30dd1c	0.69087386
10	0xbeb88934	-0.36042178
11	0x3eaf45b1	0.34232858
12	0xbdb1610f	-0.086610906
13	0xbf6b815c	-0.9199426
14	0xbee1e560	-0.44120312
15	0x3d9b13f4	0.07572165
16	0xbf0d4bf6	-0.5519403
17	0xbf341914	-0.70350766
18	0xbea1c1eb	-0.3159326
19	0xbf563d42	-0.8368722
20	0x3e7f49d2	0.24930504
21	0xbeeaed1d	-0.45884028
22	0xbf99c3eb	-1.2012914
23	0x3d7f9306	0.06239607
24	0xbf5071ef	-0.8142385
25	0xbf31ed87	-0.6950306
26	0xbf205fea	-0.62646353
27	0x3d2d5eaa	0.042326607
28	0xbf6bb120	-0.92067146
29	0xbf2743b6	-0.65337694
30	0xbf575592	-0.84114945
31	0xbe449c47	-0.1920024
32	0xbf57f440	-0.8435707
33	0x3e08bd37	0.1335343
34	0xbf96e020	-1.1787148
35	0xbf248190	-0.64260197
36	0xbee53f5d	-0.44774905
37	0xbf297314	-0.6619122
38	0xbeef490e	-0.46735424
39	0xbe9e73b4	-0.3094765
40	0x3e9904b2	0.29886395
41	0xbf644a52	-0.89175904
42	0x3f35a96f	0.7096166
43	0xbeace645	-0.33769432
44	0xbf8aea8b	-1.0852827
45	0xbf8c1afd	-1.0945736
46	0x3e74f6c2	0.23922256
47	0xbf566bc6	-0.837582
48	0xbcb20d45	-0.021734843
49	0xbf3d7939	-0.74013096
50	0x3e0f5ce2	0.14000276
51	0xbf33a7d5	-0.70177966
52	0xbdad9b6b	-0.08476909
53	0xbec1e72e	-0.3787169
54	0xbe587cfb	-0.21141426
55	0x3f0975f1	0.5369559
56	0xbd9c4fc3	-0.07632401
57	0x3f4c83b2	0.7988845
58	0xbedfb2d7	-0.4369113
59	0xbed47e44	-0.41502583
60	0xbed4e1cf	-0.41578528
61	0xbf0bf605	-0.5467227
62	0xbaa0ebb1	-0.0012277273
63	0xbef333fd	-0.475006
64	0xbf258060	-0.6464901
65	0xbf17b825	-0.5926536
66	0x3eb6fa10	0.35737658
67	0xbf9fccb0	-1.2484341
68	0x3ece0526	0.40238303
69	0xbf7bd31c	-0.98369
70	0xbf086671	-0.53281313
71	0xbf5be367	-0.85893863
72	0xbf87aad5	-1.0599009
73	0xbf0ed97d	-0.5580061
74	0xbeebe344	-0.46071827
75	0xbf165ad9	-0.5873237
76	0xbf868ee2	-1.0512354
77	0xbe9939aa	-0.29926807
78	0xbf48d22a	-0.78445685
79	0x3d1bfd69	0.038083468
80	0xbf67ea4a	-0.9059187
81	0xbe967340	-0.29384804
82	0xbf390ca6	-0.72284925
83	0xbdac8e46	-0.08425574
84	0x3d700ab4	0.058603957
85	0x3f46399c	0.77431655
86	0xbee8e7d1	-0.45489362
87	0xbf7162d1	-0.94291407
88	0xbed05908	-0.40692925
89	0xbf4a62a8	-0.7905679
90	0x3eff4c01	0.49862674
91	0x3f32c361	0.69829375
92	0xbf2b2bb7	-0.6686358
93	0xbf2c175b	-0.6722314
94	0xbe38cb3b	-0.18046276
95	0xbf3cdf0e	-0.73777854
96	0x3f492f79	0.7858806
97	0x3eb0aad3	0.3450533
98	0x3bfcb9b3	0.0077125668
99	0x3ead3f6c	0.3383745
100	0xbf1609fd	-0.5860899
101	0xbe3a59ed	-0.18198366
102	0xbe6cc55f	-0.23122166
103	0xbecca1d0	-0.39967203
104	0xbe0e1dc8	-0.13878548
105	0xbecded6b	-0.40220198
106	0xbd1bd4c2	-0.0380447
107	0xbdc5d2d4	-0.09659353
108	0xbf6f777b	-0.9354169
109	0x3f4fe6b1	0.8121138
110	0x3dab1e21	0.08355356
111	0xbf519a44	-0.81876016
112	0xbc915adc	-0.01774352
113	0xbf296541	-0.66170126
114	0xbf4ece3e	-0.8078345
115	0x3b3282c8	0.0027238596
116	0x3ea6b0b2	0.32556683
117	0xbe734d58	-0.23759973
118	0x3d0193ac	0.03163497
119	0xbe9a3507	-0.30118582
120	0xbf472ab2	-0.7779952
121	0xbf71439a	-0.94243777
122	0xbee39195	-0.44447008
123	0x3d8172b4	0.06320706
124	0xbf009746	-0.50230825
125	0xbf9f6731	-1.2453367
126	0xbf50e3e0	-0.8159771
127	0xbf5e52a3	-0.86844844
128	0xbdd7fd19	-0.105463214
129	0xbda27690	-0.0793277
130	0x3d7a7767	0.061149027
131	0xbf79c174	-0.9756081
132	0xbf417720	-0.75572395
133	0xbf840582	-1.0314181
134	0x3ec5ee4c	0.3865837
135	0xbf204a62	-0.626135
136	0xbdb9dd7a	-0.090754464
137	0xbf42c415	-0.7608045
138	0xbf88dab2	-1.069174
139	0xbee30548	-0.44339967
140	0xbf684f62	-0.9074613
141	0x3e8c6a60	0.27424908
142	0xbf972b0e	-1.1810014
143	0xbf8498b1	-1.0359098
144	0xbd9b4f44	-0.07583478
145	0x3d80149f	0.06253933
146	0xbf137b51	-0.5761004
147	0xbf69ba6d	-0.9130009
148	0xbea489ad	-0.32136288
149	0x3ea562b9	0.32301882
150	0xbf1a3270	-0.6023321
151	0xbda0074b	-0.07813891
152	0xbf30706d	-0.6892155
153	0xbedd1f33	-0.43187866
154	0x3e5be63f	0.2147455
155	0x3ef12977	0.47101948
156	0xbf74fcc1	-0.9569817
157	0xbeefd136	-0.46839303
158	0xbf16ef13	-0.5895855
159	0xbe230652	-0.1592038
160	0xbf7bca11	-0.98355204
161	0x3f8cba4a	1.0994351
162	0xbee1e460	-0.4411955
163	0xbe957d48	-0.29197145
164	0xbf0e7eb5	-0.5566209
165	0x3f2b687b	0.669563
166	0xbf16e596	-0.5894407
167	0x3ca51ab0	0.020154327
168	0xbe745b54	-0.23862964
169	0x3f1ad034	0.6047394
170	0xbeae12f3	-0.33998832
171	0xbf6ff488	-0.937325
172	0xbead74a7	-0.3387806
173	0x3e755472	0.23957995
174	0xbf492127	-0.7856621
175	0xbf200bf4	-0.6251824
176	0xbf29052e	-0.6602353
177	0xbf93937a	-1.1529381
178	0xbeec7fe1	-0.46191314
179	0x3eca3884	0.39496243
180	0xbf5dd66d	-0.8665531
181	0xbf80b5a6	-1.0055435
182	0xbf283aab	-0.6571452
183	0xbf814f10	-1.0102253
184	0xbf56d510	-0.8391886
185	0xbf038d4d	-0.5138748
186	0xbf1c687b	-0.61096925
187	0xbf482174	-0.78176045
188	0xbf0398c4	-0.51404977
189	0x3e3154da	0.17317525
190	0xbfba775b	-1.4567674
191	0x3eaf20fb	0.3420485
192	0xbeca7474	-0.39541972
193	0xbf5d9fef	-0.86572164
194	0xbd8d66a7	-0.06904345
195	0xbeebbf5f	-0.46044442
196	0x3db64f91	0.08901895
197	0xbf7985b4	-0.9746964
198	0xbe0dad2b	-0.1383559
199	0x3d7b8dae	0.061414413
200	0x3e166651	0.14687468
201	0xbedc5e1e	-0.43040556
202	0xbecbf204	-0.3983308
203	0xbef20787	-0.47271368
204	0xbf58cf66	-0.84691465
205	0xbe094156	-0.1340383
206	0xbf1e17b0	-0.61754894
207	0xbedc2a8b	-0.43001208
208	0xbeaa1d6b	-0.3322557
209	0xbf20c151	-0.6279498
210	0xbf045bbb	-0.5170247
211	0x3f1c1174	0.6096413
212	0xbef1327f	-0.47108838
213	0xbf109c9d	-0.5648897
214	0xbee0b664	-0.43889153
215	0xbddff258	-0.10934895
216	0xbe106497	-0.14100872
217	0x3ebc5120	0.36780643
218	0xbf5c6902	-0.8609773
219	0x3eaaa464	0.33328545
220	0xbe71cf9a	-0.2361435
221	0xbef41927	-0.4767544
222	0x3f5bd1e3	0.85867137
223	0xbf9c5a5f	-1.2215079
224	0x3e98d478	0.298496
225	0x3d36d148	0.04463318
226	0x3eeac855	0.45855966
227	0xbf6f69eb	-0.93520993
228	0xbf5672c9	-0.837689
229	0xbdeb7146	-0.114962146
230	0xbf824496	-1.0177181
231	0xbf3dacbe	-0.7409171
232	0xbf756dbc	-0.95870566
233	0xbecaa564	-0.39579308
234	0xbf6233a8	-0.8836007
235	0x3ec6063e	0.38676637
236	0x3c812b5c	0.015767746
237	0x3edbfbe0	0.42965603
238	0xbec10b5a	-0.37703973
239	0xbebc7398	-0.3680694
240	0x3ea8ec19	0.32992628
241	0xbeb7977a	-0.35857755
242	0xbf7574ef	-0.9588155
243	0x3e909eb1	0.28246072
244	0xbf4eba5d	-0.8075312
245	0xbf570212	-0.83987534
246	0xbf57625b	-0.84134454
247	0xbefbfbe1	-0.49215606
248	0xbec75878	-0.38934684
249	0x3d958346	0.07300429
250	0xbf881a46	-1.0633018
251	0xbf4562fd	-0.7710417
252	0xbe11c43c	-0.14235014
253	0x3f203b95	0.62590915
254	0xbf834012	-1.0253928
255	0xbf49077b	-0.7852704

bn4.weight f4 [256]
0	0x3f33d9f1	0.7025443
1	0x3f4ee428	0.8081689
2	0x3ed6e608	0.41972375
3	0x3feb28d9	1.8371841
4	0x3dfde81d	0.12397788
5	0xbea172fd	-0.31533042
6	0x3ed528b8	0.41632628
7	0x3f438bb0	0.7638502
8	0x3cdc3667	0.02688141
9	0x3f199b1d	0.6000231
10	0x3f2bea3d	0.67154294
11	0x3f4e5772	0.8060218
12	0x3e182864	0.14859158
13	0x3fd1df47	1.6396264
14	0x3eb864c6	0.36014384
15	0x3f5423a8	0.8286691
16	0x3f0f7596	0.56038797
17	0x3fe69820	1.8015175
18	0x3e7a0bca	0.2441856
19	0x3ec927f2	0.39288288
20	0x3fdd1862	1.7273066
21	0x3f42b1db	0.76052636
22	0x3ec829c8	0.39094377
23	0x3f57b425	0.84259254
24	0xbd910ab6	-0.07082121
25	0xbdea78da	-0.11448832
26	0x3f741d4f	0.9535722
27	0x3e88d9ce	0.26728672
28	0x3e56634c	0.20936316
29	0x3f2c9621	0.6741658
30	0x3f833054	1.0249124
31	0x3f30fb12	0.691331
32	0x3f4978c1	0.7869988
33	0xbd5ba0b5	-0.05362006
34	0xbcda60d6	-0.026657503
35	0x3f6a6c59	0.91571575
36	0x3fe12b59	1.7591354
37	0xbd9729a2	-0.07380988
38	0x3edf577c	0.43621433
39	0x3e2d51ed	0.16925783
40	0x3f272e96	0.6530546
41	0x3e54e274	0.2078951
42	0x3eb88594	0.36039412
43	0x3f897326	1.0738266
44	0x3e5e367e	0.21700475
45	0x3f249aed	0.642989
46	0x3f11d18f	0.56960386
47	0x3f0fd2ca	0.56181014
48	0x3f6b1df1	0.9184256
49	0x3f8aa838	1.0832586
50	0xbe38ca86	-0.18046007
51	0x3e8ddcd2	0.27707535
52	0x3ed55597	0.41666862
53	0x3ecce859	0.40021017
54	0x3f7c5e11	0.98581034
55	0x3faec97d	1.3655239
56	0x3f1887b2	0.59582055
57	0x3effc8d2	0.499579
58	0x3f142e59	0.5788322
59	0x3ee7187f	0.45135877
60	0x3eab7feb	0.3349603
61	0x3f515854	0.81775403
62	0x3f10f94b	0.5663039
63	0x403dc704	2.965272
64	0x3f5584ed	0.83405954
65	0xbe88235d	-0.2658948
66	0x3f17ffea	0.5937487
67	0x3f2368b7	0.6383166
68	0x3f51da54	0.8197377
69	0x3e21e825	0.15811212
70	0xbe48b2f7	-0.1959952
71	0x3e9232c7	0.28554365
72	0x3e12c868	0.14334261
73	0x3f10c9be	0.56557834
74	0x3f151bb3	0.5824539
75	0x3f09a4c7	0.53767055
76	0x3efeee9c	0.4979142
77	0x400aee7d	2.1708062
78	0x3edfbb01	0.4369736
79	0x3f16272d	0.5865353
80	0x3e8d50fb	0.27600846
81	0x3f78e46e	0.97223556
82	0xbee5e3f1	-0.44900468
83	0xbcd5829a	-0.026063252
84	0x3f1c68a8	0.6109719
85	0x3f551caf	0.8324689
86	0x3f40eed3	0.75364417
87	0x3f56d5aa	0.83919775
88	0x3f5948ab	0.8487651
89	0x3f0498b6	0.5179552
90	0x3f97f61d	1.1871983
91	0x3fcddc58	1.6082869
92	0xbd9250d1	-0.07144321
93	0x3f3db0ce	0.7409791
94	0x3fc910c6	1.5708244
95	0x3f1f6458	0.6226249
96	0x3fe21f57	1.7665814
97	0x3f4d20f5	0.80128413
98	0x3f00056a	0.5000826
99	0x3f34a00f	0.7055673
100	0xbe3a1c64	-0.18174893
101	0x3f6a2522	0.9146291
102	0x3f21641d	0.63043386
103	0x3ed10182	0.40821463
104	0x3f9587e8	1.16821
105	0x3f931c73	1.1493057
106	0x3f263c63	0.6493589
107	0x3f31e1f4	0.694854
108	0x3f1f17fa	0.6214596
109	0x3f68efd9	0.9099098
110	0x3f892ae7	1.0716218
111	0x3ed014df	0.40640923
112	0x3e8c1734	0.27361453
113	0x3dfb4e68	0.12270814
114	0xbcde927b	-0.027169457
115	0x3ea1aaf5	0.31575742
116	0x3e70451a	0.2346386
117	0x3f846566	1.0343444
118	0x3f7d0d7f	0.9884872
119	0x3fa55c07	1.291871
120	0xbdf361b6	-0.11883871
121	0x3f6d6ac8	0.9274106
122	0x3e70392d	0.23459311
123	0x3d165a83	0.036707412
124	0x3d8a5c65	0.06755904
125	0xbc9a68df	-0.018848835
126	0x3dc74611	0.09730161
127	0x3f5275be	0.8221091
128	0x3ef9df2f	0.48803088
129	0x3f5afdbd	0.85543424
130	0xbec518a6	-0.38495368
131	0x3fe1f182	1.7651827
132	0x3ed05c76	0.40695542
133	0x3d4f9183	0.05067588
134	0x3e813b95	0.2524077
135	0x3e5e3df5	0.21703322
136	0x3ef7b179	0.48377588
137	0x3f9208f1	1.1408979
138	0xbf4385d5	-0.76376086
139	0x3ec6c2e8	0.38820577
140	0x3f4b2a13	0.79361075
141	0x3fc3eac5	1.5306021
142	0xbe0acb6a	-0.13554159
143	0x3ed522c7	0.41628096
144	0xbe954ee0	-0.2916174
145	0x3ef351d6	0.47523373
146	0x3e3265f3	0.17421703
147	0x3feda711	1.856661
148	0x3e726a51	0.23673369
149	0x3f7fa53f	0.9986152
150	0xbe65d0f6	-0.22442994
151	0x3ef706ad	0.4824728
152	0xbec03876	-0.37543076
153	0x3f2d6f52	0.67747986
154	0x3f4775f7	0.77914375
155	0x3f33e0cb	0.7026488
156	0x3edd7bf1	0.43258622
157	0x3f9864ca	1.1905758
158	0x3f296e59	0.66184
159	0x3f6b8a08	0.92007494
160	0xbf5395b7	-0.8265032
161	0xbec1d69e	-0.37859052
162	0x3f8631ba	1.0483925
163	0x3c01d06c	0.007923227
164	0x3fa73603	1.3063358
165	0x400a443f	2.1604154
166	0x3ee6a792	0.4504972
167	0x3fbb9983	1.4656223
168	0x3e379306	0.17927179
169	0x3ec09c77	0.37619373
170	0x3f2ac8ba	0.66712534
171	0x3ed91fa0	0.4240694
172	0x3f8e26d1	1.1105596
173	0xbed4aacc	-0.41536558
174	0x3ea89aa8	0.32930493
175	0x3fa3d563	1.2799495
176	0x3f6e8258	0.9316764
177	0x3e84d01e	0.2594003
178	0x3f39da71	0.7259894
179	0x3f34eb74	0.7067177
180	0x3e7d88dc	0.24759239
181	0x3f115157	0.5676474
182	0x3f927240	1.1441116
183	0x3f1a3bcf	0.6024751
184	0x3d6a6367	0.057223704
185	0x3f9222f9	1.1416923
186	0x3f39ed31	0.7262755
187	0x3f1b7b14	0.6073468
188	0x3e653a28	0.22385466
189	0x3e99d55b	0.3004559
190	0x3c33e931	0.01098089
191	0x3faee054	1.366221
192	0x3f9dfb22	1.2342265
193	0x4005d328	2.091013
194	0x3f99e83f	1.2024001
195	0x3e902b4b	0.2815803
196	0xbe8428a8	-0.25812268
197	0x3ef1c204	0.47218335
198	0x3f2be3ca	0.67144454
199	0x3faeec00	1.3665771
200	0x3e0c158e	0.13680097
201	0x3f298955	0.6622518
202	0x3f93c2f7	1.1543874
203	0x3f77ebb3	0.96844023
204	0x3e011473	0.12605457
205	0x3f21b16c	0.6316135
206	0x3e5dfdc8	0.21678841
207	0x3fc3d149	1.5298244
208	0x3f8449d4	1.033503
209	0xbefaded2	-0.48998123
210	0x3fcc16e9	1.5944492
211	0x3f65bdcd	0.8974274
212	0x3e674c03	0.2258759
213	0xbe3cde9d	-0.18444295
214	0xbe2fef23	-0.17181067
215	0x3f85165c	1.0397449
216	0x3fbe2993	1.4856437
217	0x3fbfd579	1.4987022
218	0x3f4b961c	0.79525924
219	0x3fefc782	1.873276
220	0x3df70b0f	0.12062656
221	0x3f0214ed	0.5081318
222	0x3f9145c8	1.134942
223	0x3f1c2e7e	0.6100844
224	0x3fd4b413	1.6617454
225	0x3ea0cea1	0.31407645
226	0x3f906472	1.1280653
227	0x3e4cdd9b	0.20006411
228	0xbe936666	-0.2878906
229	0x3e86b1e5	0.26307598
230	0x3eb6fcac	0.35739648
231	0x3f9f7c25	1.2459761
232	0x3f97e8fb	1.1867975
233	0x3ec6fec2	0.3886624
234	0x3d06ff0e	0.032958083
235	0x400fa35d	2.244346
236	0x3fdea424	1.7393842
237	0x3fac57a8	1.346425
238	0x3e7e5b6e	0.24839565
239	0x3e3c90be	0.1841459
240	0x3e426d7a	0.18987074
241	0x3e9ea716	0.3098685
242	0x3efe0fdf	0.49621484
243	0x3fac073b	1.3439707
244	0xbde60a3e	-0.11232422
245	0x3e9e1266	0.30873412
246	0x3e4959d6	0.19663176
247	0x3e53b76d	0.2067544
248	0x3f05a1d5	0.5220006
249	0x3f1de679	0.616798
250	0x3dfe2ca2	0.12410857
251	0x3f88729a	1.0659974
252	0x3f1e6aea	0.6188189
253	0x3f19624e	0.59915626
254	0x3f2bca34	0.6710541
255	0x3e953ed8	0.29149508
