mini_batch_exp/models/mnist_adam_batch8192_lr0.1.pt (torch_old, 968495 bytes, 62 tensors)

conv1.weight f4 [16, 1, 3, 3]
0	0xbe26930a	-0.16267028
1	0x3f1ded81	0.6169053
2	0x3e8d6a6c	0.27620256
3	0x3f281c4b	0.6566817
4	0x3e82aa75	0.25520673
5	0xbee0beb4	-0.43895495
6	0x3f313a44	0.6922953
7	0xbe1ec39b	-0.15504305
8	0xbeaed645	-0.3414785
9	0xbf0708a3	-0.52747554
10	0xbdb0741d	-0.08615897
11	0x3e9bf7c8	0.3046248
12	0xbef71ca7	-0.48264048
13	0xbe42f141	-0.19037344
14	0x3f087c80	0.5331497
15	0xbeb609d1	-0.35554364
16	0x3ef02837	0.46905681
17	0x3f7eaf37	0.99486107
18	0xbeb00626	-0.3437969
19	0x3eca7a95	0.39546648
20	0xbd207cc9	-0.039181504
21	0xbe3261d6	-0.17420134
22	0x3f6a5a17	0.91543716
23	0x3f4b348b	0.7937705
24	0x3dec5d70	0.11541259
25	0x3f19df54	0.60106397
26	0x3df63dd3	0.12023511
27	0x3f6e8284	0.931679
28	0x3f4e5a3c	0.80606437
29	0x3f6fc80b	0.93664616
30	0xbe4de781	-0.20107843
31	0xbeac95b4	-0.33707964
32	0xbc6ebe76	-0.014571777
33	0xbf584dc9	-0.8449369
34	0xbfa61763	-1.2975887
35	0xbc91ed34	-0.017813303
36	0xbc951dc6	-0.018202674
37	0x3f33a3ef	0.7017202
38	0xbf727a52	-0.94717896
39	0x3f85edcb	1.0463194
40	0x3f071768	0.5277009
41	0xbf255f01	-0.6459809
42	0x3f127785	0.5721362
43	0x3bc5158f	0.006014533
44	0xbe3a98b3	-0.18222313
45	0xbd3210c3	-0.043473016
46	0x3e5a004b	0.21289174
47	0xbe940668	-0.28911138
48	0xbf3e945e	-0.7444514
49	0x3f4c1196	0.79714334
50	0x3f297d7d	0.66207105
51	0xbdaf9411	-0.08573163
52	0x3f7a6156	0.9780477
53	0xbee58e37	-0.44835064
54	0x3ebcf042	0.36902052
55	0x3e4da8ec	0.2008397
56	0xbb1b0e51	-0.0023659656
57	0x3f61dc5d	0.8822687
58	0x3ef753f7	0.48306248
59	0x3f1ea33d	0.6196783
60	0x3d88b528	0.06675178
61	0x3f9db38d	1.232042
62	0x3f3a7d78	0.728477
63	0xbddb6574	-0.1071271
64	0xbeff55a5	-0.4987003
65	0xbf3bd42e	-0.73370636
66	0x3f4b92ac	0.7952068
67	0xbe7db21f	-0.24774979
68	0xbf8c77ed	-1.0974098
69	0x3f0a48c7	0.540173
70	0x3f9a97de	1.2077596
71	0x3f405196	0.7512449
72	0xbfcf34d1	-1.6187993
73	0xbf2a9f00	-0.66648865
74	0x3f065856	0.5247854
75	0x3e2dedb3	0.16985206
76	0x3f48bc9e	0.78412807
77	0x3d594bdb	0.053050857
78	0x3f3cfd3b	0.738239
79	0x3e9874f0	0.29776716
80	0xbf648f73	-0.89281386
81	0x3f6bf601	0.9217225
82	0xbf6223b7	-0.88335747
83	0xbdc0a2ca	-0.094060495
84	0x3f01739d	0.50567037
85	0xbef27acd	-0.47359315
86	0xbe4fcc84	-0.2029286
87	0x3ed9f757	0.42571518
88	0xbf026436	-0.5093416
89	0x3d265c92	0.040615626
90	0x3f223479	0.63361317
91	0xbe8f28e2	-0.2796088
92	0xbf71ad33	-0.94404906
93	0xbebef166	-0.37293547
94	0xbf31d9eb	-0.6947314
95	0xbf6ad785	-0.91735107
96	0xbf5f25d9	-0.87167126
97	0xbec1a8f7	-0.37824222
98	0xbf644a0d	-0.8917549
99	0xbf57b013	-0.8425304
100	0x3e405249	0.1878139
101	0x3e9205ea	0.28520137
102	0x3deeb4ed	0.116556026
103	0x3f8c127d	1.0943142
104	0x3e98449f	0.29739854
105	0x3d92bb68	0.07164651
106	0x3eb814ee	0.35953468
107	0xbf2b6fd0	-0.6696749
108	0xbf0856f4	-0.5325768
109	0xbf8d31ba	-1.10308
110	0xbf647f1f	-0.8925647
111	0xbfa6e026	-1.3037155
112	0x3f21a6a4	0.631449
113	0x3efd88db	0.49518475
114	0xbf29d191	-0.663354
115	0xbda841ac	-0.08215651
116	0x3f1b84f1	0.6074973
117	0x3ec43786	0.3832361
118	0x3f295db3	0.661586
119	0x3ef38ba1	0.47567466
120	0xbe2c9f15	-0.1685756
121	0x3e0401dc	0.12891334
122	0x3f37229f	0.715372
123	0xbe40609d	-0.18786855
124	0x3e1b1593	0.15144949
125	0x3f358986	0.7091297
126	0xbe327655	-0.17427953
127	0xbf1bb27f	-0.6081924
128	0x3f389971	0.72109133
129	0xbf664635	-0.8995088
130	0xbea48242	-0.3213063
131	0x3f1fb9b7	0.62392753
132	0xbf2e7d7f	-0.6816024
133	0xbea46e60	-0.3211546
134	0x3f09e832	0.53869927
135	0xbb4a691c	-0.0030885404
136	0x3e26a12a	0.16272417
137	0x3f541e79	0.82859
138	0xbf628d25	-0.8849662
139	0xbf56b033	-0.8386261
140	0x3e093e1e	0.13402602
141	0xbf4137bb	-0.7547566
142	0xbf50be53	-0.8154041
143	0xbfad4824	-1.353764

conv1.bias f4 [16]
0	0xbf6356d5	-0.8880437
1	0xbfaa70aa	-1.3315632
2	0xbf36b35c	-0.7136743
3	0xbd6806b8	-0.056647032
4	0xc00a14bc	-2.1575155
5	0x3f194bf4	0.5988152
6	0xbecf64bf	-0.4050655
7	0xbfa6ed1b	-1.3041109
8	0x3f0b690e	0.54457176
9	0xbfee27b2	-1.8605864
10	0x3bfc59ca	0.0077011334
11	0x3edbea69	0.42952278
12	0xbf826fa6	-1.0190322
13	0x3e3c661f	0.18398331
14	0x3d75ff41	0.060057882
15	0x3f482683	0.78183764

bn1.weight f4 [16]
0	0x3f2c58e1	0.6732312
1	0xbe26fc35	-0.16307147
2	0xbee0c9f0	-0.43904066
3	0x3f8b405d	1.0879017
4	0x3f4c4c5b	0.7980401
5	0x3f4af97f	0.7928695
6	0xbe7b8b5b	-0.24564879
7	0x3fc25088	1.5180826
8	0x400a4526	2.1604705
9	0x3fab68e3	1.3391384
10	0x3efc1597	0.49235222
11	0x3f8d0ddd	1.1019856
12	0x401f8605	2.492555
13	0x3f432ddc	0.7624185
14	0x3fdf3fca	1.7441342
15	0x3fbb0de0	1.4613609

bn1.bias f4 [16]
0	0xbf99f4ed	-1.202787
1	0x3e478c0c	0.19487017
2	0xbf137c43	-0.57611483
3	0xbe71acec	-0.2360112
4	0xbf812d13	-1.009188
5	0x3e5bc5c7	0.21462165
6	0x3ed77b91	0.4208646
7	0x3f07dfc0	0.5307579
8	0x3f897aa0	1.0740547
9	0x3e394386	0.18092164
10	0x3aed77d2	0.0018117374
11	0xbd6bf9a1	-0.05761111
12	0x3e6ca48b	0.23109643
13	0xbe6439f5	-0.22287734
14	0xbea8fad1	-0.33003858
15	0xbec34a55	-0.38142648

bn1.running_mean f4 [16]
0	0x42bba3be	93.81981
1	0x429f135d	79.53782
2	0x430c76b5	140.4637
3	0x428f4486	71.633835
4	0x42bce8b2	94.45448
5	0x429a99aa	77.300125
6	0x43788bf3	248.54668
7	0x42a76651	83.69984
8	0x422543a3	41.31605
9	0x41febc92	31.842075
10	0x40b0a9b4	5.5207157
11	0x429971b7	76.7221
12	0x4181e8a5	16.238596
13	0x431dc516	157.76987
14	0x420b26bf	34.787838
15	0x415241f9	13.141107

bn1.running_var f4 [16]
0	0x46c52dc3	25238.88
1	0x46afd532	22506.598
2	0x47507232	53362.195
3	0x46bdfda0	24318.812
4	0x46f06f82	30775.754
5	0x46906e24	18487.07
6	0x480bf727	143324.61
7	0x46d4d771	27243.72
8	0x46094d0c	8787.262
9	0x45c79335	6386.401
10	0x43dfe431	447.78275
11	0x46950451	19074.158
12	0x4519e5b2	2462.356
13	0x476511d7	58641.84
14	0x45f4fe2c	7839.7715
15	0x450512ac	2129.167

conv2.weight f4 [32, 16, 4, 4]
0	0xbf241a45	-0.64102584
1	0xbf5e2186	-0.867699
2	0xbe4605a5	-0.1933809
3	0xbec4a4f0	-0.38407087
4	0xbf168df4	-0.58810353
5	0xbf295763	-0.66148967
6	0xbda6b4e2	-0.081399694
7	0xbf5bb390	-0.85820866
8	0xbf19be19	-0.6005569
9	0x3f382249	0.71927315
10	0x3e8b2eb0	0.27184057
11	0xbf5d4973	-0.864402
12	0x3f695fb2	0.91161644
13	0x3f61aa2e	0.881503
14	0x3f2a0456	0.66412866
15	0x3f332ef1	0.699935
16	0xbf39592c	-0.7240169
17	0xbec3397f	-0.38129804
18	0xbeabbb62	-0.335414
19	0xbf3cb125	-0.737078
20	0xbf20a2d3	-0.6274845
21	0x3a493c98	0.00076765707
22	0xbef9857a	-0.48734647
23	0xbefba7a3	-0.49151334
24	0x3f6065fe	0.8765563
25	0x3f02bd90	0.510705
26	0x3e0ff775	0.14059241
27	0x3f1446c1	0.5792046
28	0x3f550639	0.8321262
29	0x3f1d0ae3	0.61344737
30	0x3ec9941c	0.3937081
31	0x3e8cfa9c	0.2753495
32	0xbf3fd759	-0.7493797
33	0xbe5c7334	-0.21528322
34	0xbe955821	-0.291688
35	0xbf296794	-0.6617367
36	0xbf02a6fa	-0.51036036
37	0x3de7ba04	0.113147765
38	0xbf6dd736	-0.9290651
39	0xbf08cc87	-0.53437084
40	0x3f737c5d	0.9511164
41	0x3f0e72cf	0.55643934
42	0x3e17411c	0.14770931
43	0x3ef6f5de	0.48234457
44	0x3f667715	0.90025455
45	0x3f4bd5db	0.7962319
46	0x3e8595e8	0.26090932
47	0x3e8afe32	0.2714706
48	0xbf2ae270	-0.66751766
49	0xbfa57946	-1.2927635
50	0xbe19aaab	-0.15006511
51	0x3db90b7b	0.09035393
52	0xbf2a5ce1	-0.6654797
53	0xbf6a948c	-0.91632915
54	0xbee480ed	-0.44629613
55	0xbf176006	-0.59130895
56	0xbf31a913	-0.6939861
57	0xbe03eacd	-0.12882538
58	0xbf426a1c	-0.7594316
59	0xbf0fbcb8	-0.56147337
60	0xbe9b63fa	-0.30349714
61	0x3f2b68fc	0.6695707
62	0x3f06ddcc	0.52682185
63	0x3f15b98e	0.5848626
64	0xbf1d674d	-0.6148575
65	0xbf28448d	-0.657296
66	0xbf13d413	-0.57745475
67	0xbeff5ab5	-0.4987389
68	0xbf29dc68	-0.6635194
69	0xbf3adee8	-0.7299638
70	0xbc3d2464	-0.011544321
71	0xbf3df90c	-0.7420814
72	0xbef4649b	-0.47733006
73	0x3eea8204	0.4580232
74	0xbdaefc87	-0.085442595
75	0xbf1e64e2	-0.61872685
76	0x3f0ae2af	0.5425214
77	0x3f4de139	0.8042179
78	0x3ed21589	0.41032055
79	0xbd8bee10	-0.06832516
80	0xbf2e2b5d	-0.6803492
81	0xbf3c73a1	-0.73613936
82	0xbf88f576	-1.0699909
83	0xbf5202bf	-0.8203544
84	0xbf16606d	-0.58740884
85	0xbd365a48	-0.044519693
86	0xbecf5fe0	-0.40502834
87	0xbf161152	-0.5862018
88	0x3f663731	0.89927965
89	0x3f177688	0.5916524
90	0x3ebdfc0e	0.37106365
91	0x3f54ded2	0.83152497
92	0x3f7b4afb	0.98161286
93	0x3f568fed	0.83813363
94	0x3e68e3ac	0.227431
95	0x3ebbf69e	0.3671159
96	0xbf3cac96	-0.73700845
97	0xbec07139	-0.37586382
98	0xbf6f0e8c	-0.9338157
99	0xbf4e5503	-0.8059847
100	0x3e81b0f5	0.2533032
101	0xbd677199	-0.05650482
102	0xbf93c548	-1.154458
103	0xbf20847f	-0.62702173
104	0x3f5f6b3c	0.87273
105	0x3e9d17a4	0.306821
106	0xbe2a9186	-0.16657075
107	0x3f1a1a9f	0.6019687
108	0x3f539ef2	0.82664406
109	0x3f086039	0.53271824
110	0xbbd9106b	-0.0066242716
111	0x3e83f86c	0.25775468
112	0xbf1ed8bf	-0.6204948
113	0xbf3aad88	-0.7292104
114	0xbf7df5c9	-0.99203163
115	0xbf2a39e0	-0.6649456
116	0xbf37ac68	-0.71747446
117	0xbeacdd97	-0.3376281
118	0xbec5d308	-0.38637567
119	0xbed95dd7	-0.42454407
120	0x3ee8bac3	0.45454988
121	0x3f4577f0	0.77136135
122	0x3ead9d40	0.33909035
123	0x3f23fe72	0.6406013
124	0x3fab30a8	1.3374224
125	0x3f741e36	0.953586
126	0x3f023f9b	0.50878304
127	0xbdb0d0e5	-0.086335935
128	0xbf29141f	-0.6604633
129	0xbf6835b0	-0.9070692
130	0xbf3118ec	-0.6917865
131	0xbf053b30	-0.5204344
132	0xbeec7184	-0.46180356
133	0xbf0b9e1d	-0.54538137
134	0x3e06110e	0.13092443
135	0xbf5122a2	-0.8169347
136	0x3f0e6a31	0.55630785
137	0x3ef5d7ad	0.4801611
138	0xbe5c15f7	-0.21492754
139	0x3d7fd52c	0.062459156
140	0x3f2c1214	0.67215085
141	0x3f2a0518	0.6641402
142	0x3e903384	0.28164303
143	0x3d790212	0.06079299
144	0xbed06021	-0.4069834
145	0xbefaaf08	-0.48961663
146	0x3e7036c0	0.23458385
147	0xbe85a84b	-0.2610496
148	0xbeb83cdf	-0.3598394
149	0x3f152977	0.58266395
150	0x3e4889c0	0.19583797
151	0xbf78c05f	-0.97168535
152	0xbed616e8	-0.4181435
153	0x3f62f3b3	0.88653105
154	0x3eb3df8d	0.35131493
155	0xbf8d3f11	-1.1034871
156	0x3f983cff	1.1893615
157	0x3f391a39	0.7230564
158	0x3e95bfd5	0.2924792
159	0xbf3a83c8	-0.7285733
160	0x3edbed5e	0.42954534
161	0xbf24baf7	-0.64347786
162	0x3f023e2e	0.5087613
163	0x3f16db49	0.5892835
164	0xbf007c62	-0.50189793
165	0xbf1b0dd7	-0.6056799
166	0x3f354725	0.7081168
167	0xbf560680	-0.8360367
168	0xbf0b2822	-0.5435811
169	0x3f17cbff	0.5929565
170	0x3f294558	0.66121435
171	0xbe4f52e5	-0.20246466
172	0xbf14cb80	-0.58123016
173	0x3f1861e3	0.59524363
174	0x3e7e63e2	0.2484279
175	0x3d7f03cf	0.06225949
176	0xbf41672f	-0.7554807
177	0xbe5339f0	-0.2062757
178	0xbce52eb2	-0.027976368
179	0xbe53ce24	-0.20684105
180	0xbf2fcb0b	-0.68669194
181	0xbe2c033e	-0.16798112
182	0xbf85f843	-1.0466388
183	0xbf4a3d01	-0.78999335
184	0x3e9c5c5b	0.30539212
185	0x3ef5a3bd	0.47976485
186	0xbf893946	-1.0720603
187	0xbefc700e	-0.4930424
188	0x3f64b16c	0.89333224
189	0x3f25a216	0.6470045
190	0x3ec0c635	0.3765122
191	0x3f4a15a6	0.7893928
192	0x3f73bde2	0.95211613
193	0x3f8641d6	1.0488842
194	0x3ccd5eb2	0.025069568
195	0x4002cc3f	2.0437162
196	0xbf0c3792	-0.54772294
197	0xbe9b860b	-0.30375704
198	0xbf6be973	-0.9215309
199	0x3f1d051e	0.61335933
200	0xbcbd9a2e	-0.023144808
201	0x3e0b0c6c	0.13578957
202	0x3f516c4b	0.81805867
203	0x3f1c5251	0.61063105
204	0xbea27a57	-0.31733963
205	0x3f8b543b	1.088508
206	0x3f888686	1.0666053
207	0x3d3446a4	0.04401268
208	0xbf6b0855	-0.9180959
209	0xbf05be50	-0.5224352
210	0xbf338242	-0.7012063
211	0xbf43e825	-0.765261
212	0xbec82c7e	-0.39096445
213	0xbeaa4751	-0.33257535
214	0xbf74ce03	-0.9562685
215	0xbf31421e	-0.6924151
216	0x3cfb5164	0.030678459
217	0xbe04c9a5	-0.12967546
218	0xbefa66cb	-0.4890655
219	0x3f2ed5cb	0.6829497
220	0x3f657cb4	0.89643407
221	0x3ecf30a8	0.4046681
222	0x3d77a89d	0.060463537
223	0x3f41d296	0.75711954
224	0x3e354537	0.17702185
225	0xbf845a7d	-1.0340115
226	0xbea2632e	-0.31716293
227	0x3fd507dc	1.6643023
228	0x3eaa2c85	0.3323709
229	0xbf077be7	-0.52923435
230	0xbf1bf4e5	-0.60920554
231	0xbccaed3d	-0.024771327
232	0x3eee820f	0.46583602
233	0x3de8eee7	0.11373692
234	0xbf216a9f	-0.63053316
235	0x3ed81253	0.4220148
236	0x3e062a1c	0.13102001
237	0xbe3cf77a	-0.1845378
238	0xbf3e9009	-0.7443853
239	0x3ecb5b07	0.39717886
240	0xbf8c578f	-1.0964221
241	0xbf9b7902	-1.2146304
242	0xbd71d94a	-0.059045114
243	0x3b960c6e	0.0045791185
244	0xbf4c98d4	-0.799207
245	0xbf691a9c	-0.9105623
246	0xbedf4cfc	-0.43613422
247	0xbf4526dc	-0.7701242
248	0xbf25861a	-0.6465775
249	0xbf8e0310	-1.1094685
250	0xbef2bca7	-0.47409555
251	0xbf14fc02	-0.58197033
252	0xbed54712	-0.41655785
253	0x3f8b2a28	1.087224
254	0x3f263616	0.6492628
255	0x3f8cdfdd	1.1005818

conv2.bias f4 [32]
0	0x3ebcc15b	0.3686627
1	0xbed922b7	-0.42409298
2	0xbd115f45	-0.035491247
3	0xbf27fa0e	-0.6561593
4	0x3f5d702f	0.86499304
5	0x3edfee70	0.437366
6	0x3f120d7e	0.5705184
7	0x3e96b953	0.29438266
8	0x3f97ba82	1.1853793
9	0xbf3b6169	-0.7319551
10	0x3f3540d5	0.7080205
11	0x3f1e3ce4	0.6181166
12	0x3f5672e2	0.8376905
13	0x3f50814a	0.8144728
14	0xbeb16630	-0.34648275
15	0xbf56f526	-0.83967817
16	0x3f020fdf	0.5080547
17	0x3ea6b70f	0.32561538
18	0x3e96e889	0.29474285
19	0x3ec17457	0.37784073
20	0xbf4b970a	-0.7952734
21	0x3e58e986	0.21182832
22	0x3dd8c75e	0.10584901
23	0x3f0d60e4	0.5522597
24	0xbd663edf	-0.056212302
25	0xbf036171	-0.5132056
26	0xbeb8975b	-0.36052975
27	0xbe71d81c	-0.23617595
28	0xbfaab239	-1.3335639
29	0xbf5010cd	-0.81275636
30	0xbde404af	-0.11133706
31	0x3f0e144b	0.55499715

bn2.weight f4 [32]
0	0x3f8847d2	1.0646918
1	0x4000658b	2.0061977
2	0x3f84f8bc	1.0388408
3	0xbf22a476	-0.635322
4	0x3ce5885e	0.028019127
5	0xbd67c461	-0.056583766
6	0x3f5e38cf	0.86805433
7	0x3f86a3b6	1.0518711
8	0x3f41e2e9	0.7573686
9	0x3e9692d2	0.2940889
10	0xbf5624ac	-0.83649707
11	0x3f064852	0.524541
12	0x3fe8cc6a	1.8187382
13	0xbdba5838	-0.09098858
14	0x3f3de181	0.74172217
15	0x4000a7a1	2.0102313
16	0xbeeac2c5	-0.45851722
17	0x3feb8d3d	1.8402478
18	0x3f5a13ab	0.8518626
19	0x3f610346	0.8789562
20	0x3fd8e35d	1.6944386
21	0x4017bb3f	2.3708036
22	0x3f802213	1.0010399
23	0x3facdfbe	1.3505781
24	0x3fe0882e	1.7541559
25	0x3fe9ac75	1.8255755
26	0xbd2a9110	-0.04164225
27	0x3f96164a	1.1725552
28	0x40076dc2	2.116074
29	0x3fa36282	1.2764437
30	0x3f0db652	0.55356324
31	0x3fd3cf7b	1.6547693

bn2.bias f4 [32]
0	0x3f4a4f08	0.7902684
1	0xbdd5d009	-0.1044007
2	0xbeb68489	-0.3564799
3	0x3f8b4e47	1.0883263
4	0x3e1a8ad4	0.15092021
5	0xbf6fb5ff	-0.9363708
6	0xbe308873	-0.17239551
7	0xbf01113d	-0.5041693
8	0x3f3ae9d4	0.73013043
9	0xbda71561	-0.081583746
10	0xbe7bc266	-0.24585876
11	0xbf0a1286	-0.53934515
12	0xbddb1c72	-0.10698785
13	0xbe98c079	-0.29834345
14	0xbe9b2ec6	-0.30309123
15	0x3e89fa7f	0.26948926
16	0x3d319246	0.043352388
17	0xbeeb0fe3	-0.45910558
18	0x3fbb8a6c	1.4651618
19	0xbea93e49	-0.33055332
20	0x3e5f6fcc	0.21819991
21	0xbf0f3859	-0.55945355
22	0xbe7479ef	-0.23874639
23	0x3ee79049	0.45227268
24	0xbdbaa298	-0.091130435
25	0xbf17b529	-0.59260803
26	0xbeec2db9	-0.46128634
27	0xbeeec87b	-0.4663733
28	0x3f26cd3b	0.65156907
29	0xbf2c125c	-0.67215514
30	0x3f7e1740	0.99254227
31	0xbe76c392	-0.24098042

bn2.running_mean f4 [32]
0	0x41e99190	29.196075
1	0x41cea216	25.829144
2	0x41c0aaad	24.083338
3	0x41a11e61	20.139833
4	0x41c0c84d	24.097803
5	0x41e10bd7	28.130781
6	0x418210a1	16.25812
7	0x41a798a9	20.949541
8	0x42271013	41.765697
9	0x41abbb37	21.466413
10	0x41fdfae0	31.747498
11	0x41e69c08	28.826187
12	0x41911348	18.134415
13	0x420fd192	35.95466
14	0x418a5d0e	17.295437
15	0x4187bd69	16.967485
16	0x41bdfa5a	23.747242
17	0x41c442fd	24.53271
18	0x4203481b	32.820415
19	0x41cd7f45	25.687143
20	0x40f585f6	7.6726027
21	0x4141c948	12.111641
22	0x41ec3e88	29.530533
23	0x41681b33	14.50664
24	0x4236d05d	45.70348
25	0x41666115	14.398702
26	0x41cc4536	25.533794
27	0x41d7451a	26.908741
28	0x414f3a99	12.951806
29	0x41388e88	11.534798
30	0x41c313c9	24.38466
31	0x41a7f841	20.996218

bn2.running_var f4 [32]
0	0x43ffbef0	511.4917
1	0x44256c31	661.6905
2	0x4427a18f	670.52435
3	0x43dbb4a1	439.41116
4	0x44393256	740.7865
5	0x4457f30c	863.7976
6	0x43c6431a	396.52423
7	0x440ce273	563.53827
8	0x44afdbe2	1406.8713
9	0x440ace37	555.2221
10	0x43fa59c6	500.70135
11	0x43d8ad7e	433.3554
12	0x43c82904	400.32043
13	0x446b41aa	941.026
14	0x43c33543	390.4161
15	0x43cbae4d	407.36172
16	0x43908203	289.01572
17	0x43a4248c	328.28552
18	0x441ec605	635.09406
19	0x44066a3f	537.6601
20	0x4331b26c	177.69696
21	0x43520c0b	210.04704
22	0x444601bd	792.02716
23	0x43961f48	300.2444
24	0x44c2d509	1558.6573
25	0x43770e6d	247.05635
26	0x4441c3bf	775.05853
27	0x445ac5c9	875.0904
28	0x4364985f	228.5952
29	0x4379eade	249.91745
30	0x442e29e2	696.6544
31	0x43b1b1f1	355.39017

conv3.weight f4 [64, 32, 5, 5]
0	0x3e9d4fa0	0.30724812
1	0xbedb1637	-0.42790386
2	0xbf5cb9d3	-0.86221045
3	0xbf59de5e	-0.8510493
4	0xbf53d6f5	-0.82749873
5	0x3ee48cbd	0.44638625
6	0xbf1d5822	-0.61462605
7	0xbdb37eaa	-0.08764394
8	0x3f3173fe	0.69317615
9	0x3ee5699f	0.44807145
10	0xbf170496	-0.5899137
11	0xbec75a67	-0.3893616
12	0x3e4a0272	0.19727495
13	0xbf54f177	-0.83180946
14	0xbf45432d	-0.7705563
15	0xbf1d0201	-0.6133118
16	0xbddec485	-0.10877327
17	0x3e3ef213	0.18647031
18	0xbf2e268c	-0.6802757
19	0xbf4e0cfc	-0.8048856
20	0xbe9b0fac	-0.30285394
21	0xbec78777	-0.3897054
22	0xbf3d3d6f	-0.73921865
23	0xbf2e3f46	-0.680653
24	0x3e8e7da0	0.2783022
25	0x3f1cbd13	0.61226004
26	0xbe69b764	-0.22823864
27	0xbeb25bd4	-0.34835684
28	0xbf4bc3cd	-0.79595643
29	0xbe91d75c	-0.2848462
30	0x3eb346ab	0.35014853
31	0x3e29734b	0.16547887
32	0x3f15b09d	0.58472615
33	0x3ddeb317	0.108740024
34	0x3f2b7709	0.6697851
35	0x3ee6b565	0.45060268
36	0x3ed4fe97	0.41600487
37	0xbf44733d	-0.7673834
38	0xbef5a169	-0.4797471
39	0x3f7b7553	0.982259
40	0x3edff5d5	0.43742242
41	0xbf3e9c15	-0.7445691
42	0xbf2867b3	-0.6578323
43	0x3ec2a516	0.38016576
44	0x3f2af65f	0.6678218
45	0x3f09f74f	0.5389299
46	0xbebbc3eb	-0.3667291
47	0x3e78e049	0.24304308
48	0x3f49ceb2	0.78831017
49	0x3ede2957	0.43390915
50	0x3f7ed27c	0.99539924
51	0x3f11d677	0.5696787
52	0x3e2f0281	0.17090799
53	0x3d810854	0.063004166
54	0x3edfbfec	0.43701112
55	0x3f75f53d	0.9607733
56	0x3eed6af5	0.46370664
57	0xbee81f46	-0.4533636
58	0xbe8b0f85	-0.27160278
59	0x3edd068e	0.43169063
60	0x3f0f76d3	0.56040686
61	0xbf222dab	-0.63350934
62	0xbf4858d1	-0.78260523
63	0xbf49947a	-0.7874218
64	0x3f632f0d	0.8874367
65	0x3f30e977	0.6910624
66	0xbf209638	-0.62729216
67	0xbedc7cf0	-0.4306407
68	0xbf6ec430	-0.9326811
69	0xbfa3ecd1	-1.2806646
70	0x3f163415	0.5867322
71	0x3f0f3c10	0.55951023
72	0x3f1fc3a8	0.6240792
73	0x3dfda1ca	0.123843744
74	0x3ea0983e	0.31366152
75	0x3f81a3f4	1.012816
76	0x3f4c560d	0.79818803
77	0xbf08f0d1	-0.53492457
78	0xbf4e87d6	-0.8067602
79	0xbeeb1c4e	-0.45920032
80	0x3f8420cc	1.0322509
81	0x3d421c5f	0.047390338
82	0xbf41fc5b	-0.7577569
83	0xbf5946fe	-0.8487395
84	0xbf25960d	-0.64682084
85	0x3ebb4b19	0.36580732
86	0xbe929939	-0.28632525
87	0xbf61c4f6	-0.88191164
88	0x3ea385b5	0.31937948
89	0xbe56398a	-0.20920387
90	0xbed7145d	-0.42007723
91	0xbf37bc69	-0.71771866
92	0xbdfb5edb	-0.122739516
93	0xbf51392c	-0.8172786
94	0xbf3c6051	-0.7358447
95	0x3f06d441	0.52667624
96	0xbed13dba	-0.40867406
97	0xbf3b118f	-0.7307367
98	0xbf5cd8d0	-0.8626833
99	0xbeb54a7d	-0.35408393
100	0x3ef2fa9e	0.4745683
101	0x3e0f5028	0.13995421
102	0xbe625da9	-0.22106041
103	0xbbd19cf1	-0.0063968827
104	0x3f152a1f	0.58267397
105	0x3f37cd63	0.7179777
106	0xbe9ffb46	-0.31246394
107	0xbf30ada1	-0.69014937
108	0xbf5499b8	-0.83047056
109	0xbf2e5aa0	-0.6810703
110	0x3ec85d81	0.39133838
111	0xbe9c9656	-0.30583447
112	0xbf45dcd2	-0.7729007
113	0xbc099193	-0.008396524
114	0x3f30b25e	0.69022167
115	0x3efbdb3e	0.49190706
116	0x3cd3a8bc	0.025837295
117	0xbd7dce58	-0.061964363
118	0xbd815fc1	-0.06317092
119	0x3c0314f9	0.008000606
120	0x3d575f8a	0.052581348
121	0xbed911f6	-0.42396516
122	0xbf0b4cf5	-0.544143
123	0xbed1b10b	-0.40955386
124	0xbed7800f	-0.42089888
125	0xbe75b10d	-0.23993321
126	0xbe8be65f	-0.27324197
127	0x3f5267aa	0.8218943
128	0x3f64f336	0.8943361
129	0x3f5fdd03	0.8744661
130	0xbf7dc562	-0.9912931
131	0xbf3a1a14	-0.7269604
132	0x3eee737e	0.4657249
133	0x3e95ebef	0.29281566
134	0xbd06e455	-0.0329326
135	0xbf2b1e25	-0.6684287
136	0x3e396f2f	0.1810882
137	0x3f12040f	0.5703744
138	0xbf5e2005	-0.8676761
139	0xbe9d7754	-0.30755103
140	0x3f402ce4	0.750685
141	0x3f578db6	0.8420061
142	0x3eb66ffa	0.35632306
143	0x3f328213	0.6972973
144	0xbeaf56e1	-0.3424597
145	0x3cdb6b90	0.026784688
146	0x3e682f53	0.22674303
147	0x3f077376	0.52910554
148	0xbe422359	-0.18958797
149	0xbdbe16c7	-0.09281688
150	0x3f0f104d	0.5588425
151	0x3fa40fe2	1.2817347
152	0x3f694090	0.9111414
153	0x3e6c4149	0.2307178
154	0xbf8b2dee	-1.0873392
155	0x3f767e43	0.9628641
156	0x3f972e5e	1.1811025
157	0x3e40c761	0.18826057
158	0xbf22897a	-0.6349102
159	0xbf627fac	-0.8847606
160	0x3f66b593	0.9012081
161	0x3ef404d7	0.47659943
162	0xbf4d7f31	-0.80272204
163	0x3e43b90c	0.19113559
164	0xbedcfe47	-0.43162748
165	0x3f5f21b0	0.8716078
166	0x3f22588f	0.6341638
167	0xbf1aabd7	-0.60418457
168	0x3f62ce0f	0.8859567
169	0xbe92aba7	-0.28646585
170	0x3f5ad720	0.85484505
171	0x3eb90342	0.36135298
172	0x3ea15bad	0.31515256
173	0x3e9eb88c	0.31000173
174	0xbeb0d2c4	-0.345358
175	0x3f905d93	1.1278557
176	0x3e042c3d	0.129075
177	0x3cbd12e4	0.023080297
178	0x3ddbc2d7	0.10730522
179	0xbedf1d4a	-0.43577033
180	0x3fa63813	1.2985862
181	0xbe46cd25	-0.19414194
182	0x3f40ce84	0.7531512
183	0x3f141b1e	0.5785388
184	0x3f346f8f	0.70482725
185	0x3f91a56c	1.1378608
186	0xbf8daa7f	-1.1067656
187	0x3f5be228	0.8589196
188	0xbe876bf8	-0.2644956
189	0xbf3a45f1	-0.7276297
190	0x3f9215b1	1.141287
191	0xbf0feb99	-0.5621887
192	0xbe9f9f1e	-0.31176084
193	0xbf4968f2	-0.7867576
194	0x3f17f24c	0.5935409
195	0x3f072775	0.5279458
196	0x3f3a7586	0.72835577
197	0xbdb6d92a	-0.089281395
198	0x3e65fa3c	0.22458738
199	0x3f42016d	0.75783426
200	0x3f3a337b	0.727348
201	0x3dc69a06	0.096973464
202	0xbf1a531a	-0.6028305
203	0xbf76d105	-0.9641269
204	0xbf46cae3	-0.7765333
205	0xbd0d0794	-0.034431055
206	0x3ea06777	0.31328937
207	0x3e1d7629	0.15377106
208	0xbe133869	-0.14376988
209	0xbd8c4a90	-0.06850159
210	0x3f399611	0.7249461
211	0x3eb72534	0.3577057
212	0xbf59081a	-0.84777987
213	0xbd30421c	-0.043031797
214	0xbe526ec4	-0.20550066
215	0x3f68e968	0.9098115
216	0xbecba4b4	-0.39774096
217	0xbeaba4ae	-0.33524078
218	0x3eeec005	0.46630874
219	0xbe82b69e	-0.2552995
220	0x3dea08aa	0.11427434
221	0xbf28450d	-0.65730363
222	0x3d9b962a	0.07597001
223	0x3ebf748d	0.3739361
224	0x3fb11b42	1.3836443
225	0x3f2eaca9	0.6823221
226	0x3da1c568	0.078989804
227	0x3e909ffc	0.28247058
228	0xbed9a241	-0.42506602
229	0xbe60cea1	-0.21953823
230	0x3f36c902	0.71400464
231	0x3f1c41b8	0.6103778
232	0xbe891360	-0.26772594
233	0xbf620dfb	-0.8830258
234	0x3e66fa62	0.22556451
235	0x3f8691a7	1.05132
236	0x3f44d145	0.7688182
237	0xbf14c6a5	-0.5811561
238	0xbf407bd5	-0.7518895
239	0x3f7a978a	0.9788748
240	0x3f164335	0.586963
241	0xbee0d2b6	-0.4391076
242	0xbf60536e	-0.87627304
243	0x3ddfbfe0	0.10925269
244	0xbf72fdc8	-0.9491849
245	0x3ee4917a	0.4464224
246	0x3edfa4a3	0.43680295
247	0x3f1dfd57	0.6171469
248	0x3ea9ea65	0.3318664
249	0xbf243dad	-0.6415661
250	0xbf513261	-0.817175
251	0xbf392960	-0.7232876
252	0x3e630693	0.22170477
253	0x3f1eb893	0.6200039
254	0x3f0acf47	0.5422253
255	0xbf1a7643	-0.60336703

conv3.bias f4 [64]
0	0xbeef8e4a	-0.46788245
1	0xbed11c46	-0.40841883
2	0xbf737ece	-0.95115364
3	0xbf61f74d	-0.88267976
4	0xbe809b19	-0.2511833
5	0xbf460703	-0.7735445
6	0xbf5fbcf5	-0.873977
7	0x3f4cef9b	0.8005311
8	0x3f00274a	0.5005995
9	0xbf37efb0	-0.7185011
10	0xbf499d97	-0.7875609
11	0xbf0772b2	-0.52909386
12	0xbf724045	-0.9462932
13	0x3e60e70a	0.21963134
14	0xbe9e3486	-0.30899447
15	0xbf614587	-0.87996715
16	0xbf53d51e	-0.82747066
17	0x3f625f29	0.8842645
18	0x3f2a5707	0.66539043
19	0xbf07a5b6	-0.5298723
20	0xbf5bf812	-0.859254
21	0xbed1e5c6	-0.40995616
22	0x3e14c535	0.14528354
23	0xbf1f9048	-0.6232953
24	0xbfad6dcb	-1.3549131
25	0xbec2d3b3	-0.3805214
26	0x3e9d7b42	0.307581
27	0xbf14acaa	-0.58075964
28	0xbf6a5edb	-0.9155099
29	0x3e710edf	0.23540829
30	0x3f124061	0.57129484
31	0x3e1673ce	0.14692613
32	0xbf221447	-0.6331219
33	0xbf44d503	-0.7688753
34	0x3f18ff25	0.5976432
35	0xbcf70269	-0.030152516
36	0x3f4e8996	0.8067869
37	0xbf15773a	-0.5838505
38	0xbec29785	-0.38006225
39	0x3ece202d	0.40258923
40	0xbf868255	-1.0508524
41	0x3e8119e0	0.25215054
42	0xbf3a4289	-0.72757775
43	0x3d9e2a67	0.07722931
44	0xbeeb2e6b	-0.45933852
45	0x3f089a14	0.53360105
46	0xbea962de	-0.33083242
47	0xbedfc0ae	-0.4370169
48	0x3f202a9b	0.6256501
49	0xbee85fc0	-0.4538555
50	0xbf297be2	-0.66204655
51	0xbf49e260	-0.78861046
52	0xbfa494f2	-1.2857955
53	0x3e558ffb	0.20855705
54	0x3e7ae30a	0.24500671
55	0xbf82a756	-1.0207317
56	0xbe5b1511	-0.21394755
57	0xbf4342a0	-0.76273537
58	0xbef11b23	-0.47091016
59	0xbf438501	-0.7637482
60	0xbef18155	-0.47168985
61	0x3f74876c	0.9551914
62	0x3ee74dbb	0.4517649
63	0xbeffe5bc	-0.4997996

bn3.weight f4 [64]
0	0x3f60320c	0.87576365
1	0x3f07dc18	0.5307021
2	0x3fa93601	1.3219606
3	0x3f00af2c	0.5026729
4	0x3f1fb036	0.6237825
5	0x3f1937e5	0.59850913
6	0x3f1da2ab	0.61576337
7	0xbdc55e25	-0.09637097
8	0x3fab96fb	1.340545
9	0x3f5c65b2	0.86092675
10	0x3fb1dadf	1.3894919
11	0xbf850b02	-1.0393984
12	0x3eee44d3	0.46536884
13	0x40083408	2.1281757
14	0x3fd85be6	1.6903045
15	0x3e384ab5	0.17997248
16	0x3ec368b9	0.38165835
17	0x400a6817	2.1626031
18	0x3f9b056a	1.2111027
19	0x3fd7c91d	1.685825
20	0x3f6531de	0.89529216
21	0x3fb8b9f6	1.4431751
22	0x3ff80f7e	1.9379728
23	0x3ef86726	0.48516196
24	0x3f858258	1.0430403
25	0x3fbf44b8	1.4942846
26	0x3ff5acf7	1.919341
27	0x3f74d35d	0.95635015
28	0x3fda1e6c	1.7040534
29	0x3f91444e	1.134897
30	0x3f1c7321	0.6111317
31	0x3f8a00da	1.078151
32	0x3fa71219	1.3052398
33	0x3fc12f01	1.509247
34	0x3f4b71b7	0.7947039
35	0x3f28b0a3	0.65894526
36	0xbe7d8015	-0.2475589
37	0x3f7edcd6	0.9955572
38	0xbe0c484b	-0.13699453
39	0x3f50d578	0.8157573
40	0xbe17d231	-0.14826275
41	0x3f83b802	1.029053
42	0x3f1ac4b6	0.6045641
43	0x3fb278a2	1.3943064
44	0x4018f108	2.3897114
45	0x3fc8a820	1.5676308
46	0x3fb7de01	1.4364625
47	0x3fdfe35a	1.7491257
48	0x3f4b6ee8	0.79466105
49	0x3fe42871	1.7824842
50	0x3f3a356a	0.72737753
51	0x3ebe7d2f	0.37204883
52	0x3eedce51	0.4644647
53	0x3f5ee372	0.87065804
54	0x3f96b115	1.1772791
55	0x3f61edc3	0.8825342
56	0xbe3e06e0	-0.1855731
57	0x3fee7894	1.8630548
58	0x3fc0d76c	1.5065742
59	0x3fbb53f8	1.4635
60	0x3eea7f27	0.45800135
61	0x3fe4edb7	1.7885045
62	0xbf21de40	-0.6322975
63	0x3fb708e5	1.4299589

bn3.bias f4 [64]
0	0xbfa5a866	-1.2942016
1	0xbee4758d	-0.44620934
2	0xbf00db68	-0.5033479
3	0xbe191bbd	-0.14951988
4	0x3e07a327	0.13245831
5	0x3e68ef6d	0.22747584
6	0x3e3e53da	0.18586674
7	0xbf2febe6	-0.6871933
8	0x3e72a432	0.23695448
9	0xbc0329b4	-0.008005548
10	0x3e9fe91c	0.31232536
11	0xbeb26c60	-0.3484831
12	0x3ea30853	0.31842288
13	0x3e9b07eb	0.30279478
14	0xbf73e4ac	-0.952708
15	0xbda49d14	-0.08037773
16	0xbfb827dc	-1.4387164
17	0xbedb0e94	-0.4278456
18	0xbe92ed57	-0.286967
19	0xbf77fe48	-0.9687238
20	0xbeb0f452	-0.34561402
21	0x3fa2a776	1.2707355
22	0xbe1638c9	-0.146701
23	0x3f093ad4	0.5360539
24	0xbe067d80	-0.13133812
25	0x3e511f1f	0.20422028
26	0xbf505562	-0.81380284
27	0x3e127953	0.14304094
28	0xbf84554d	-1.0338532
29	0xbf22bc22	-0.6356832
30	0xbe6de4d5	-0.23231824
31	0x3f4a9290	0.79129887
32	0xbeaf98e4	-0.34296334
33	0xbeb8d237	-0.3609788
34	0xbda3b031	-0.0799259
35	0xbb899d6c	-0.0041996744
36	0x3f01dbf9	0.50726277
37	0xbf004a6d	-0.50113565
38	0xbf3618d8	-0.7113166
39	0xbf34c852	-0.70618165
40	0xbf090620	-0.5352497
41	0xbf0b4e54	-0.54416394
42	0xbe870aed	-0.26375523
43	0x3c0d80a0	0.008636624
44	0xbf73798a	-0.9510733
45	0xbec24631	-0.37944177
46	0xbf584989	-0.84487206
47	0x3e63b688	0.22237599
48	0x3de40c3b	0.11135145
49	0xbce696a4	-0.028148003
50	0xbf2b5811	-0.66931254
51	0xbe7e54a2	-0.24836972
52	0xbf0b1978	-0.5433574
53	0x3f532ac5	0.82487136
54	0x3d843de6	0.06457119
55	0x3fa090ca	1.2544186
56	0xbeddf0f4	-0.43347895
57	0x3da79fa8	0.08184749
58	0xbdd93f7d	-0.106078126
59	0x3f30819c	0.6894777
60	0xbf1a72e7	-0.6033158
61	0xbe8309aa	-0.2559331
62	0x3e53fe9a	0.20702592
63	0xbf862afa	-1.0481865

bn3.running_mean f4 [64]
0	0x3ed5e66b	0.41777357
1	0x401fd8b9	2.4976027
2	0x41062d02	8.385988
3	0x38943da7	7.0686736e-05
4	0x40807cf8	4.015255
5	0x40b2b06e	5.584037
6	0x3f9eac45	1.2396322
7	0x41a21f00	20.265137
8	0x4110d243	9.051333
9	0x3d794050	0.06085235
10	0x422d860f	43.380917
11	0x3ff93fa1	1.9472543
12	0x132fa59f	2.2169763e-27
13	0x4264e84b	57.22685
14	0x4192b9fb	18.34081
15	0x00000004	6e-45
16	0x4057b4e5	3.370416
17	0x42af81d1	87.75355
18	0x422b1a19	42.775486
19	0x409117b3	4.534143
20	0x401d98e7	2.4624574
21	0x414ead4a	12.917307
22	0x42b53f87	90.62408
23	0x42a3ebd2	81.96059
24	0x40aeea45	5.4660974
25	0x40f5e1bd	7.683806
26	0x42bd0672	94.51259
27	0x4086ec22	4.216325
28	0x3f466c24	0.7750876
29	0x415861b9	13.523858
30	0x42bab1cf	93.34728
31	0x4260d362	56.20643
32	0x41449984	12.287479
33	0x41a28ba3	20.318182
34	0x42078359	33.87827
35	0x400b6092	2.1777692
36	0x42ed577e	118.67088
37	0x4100510e	8.019789
38	0x40a3a447	5.1138034
39	0x418efb89	17.87282
40	0x3fa6db42	1.3035662
41	0x404cf03a	3.2021623
42	0x3d10cd43	0.035352003
43	0x420d3f6c	35.311935
44	0x41e48be6	28.56831
45	0x41c53ead	24.655603
46	0x41820a81	16.255129
47	0x41e3deb3	28.48374
48	0x42b7eaf7	91.958916
49	0x0317812b	4.452319e-37
50	0x3fec3582	1.8453829
51	0x00000004	6e-45
52	0x3f1cf3f0	0.6130972
53	0x41505096	13.019674
54	0x426cdff1	59.218693
55	0x3f98e5af	1.1945094
56	0x3faaf2b9	1.3355323
57	0x415f3cb7	13.952323
58	0x40cefd2f	6.468406
59	0x41460827	12.37699
60	0x4001fbaa	2.0309854
61	0x42b0d81f	88.42211
62	0x408f0d31	4.4703603
63	0x41dfd30b	27.978048

bn3.running_var f4 [64]
0	0x41ae22ff	21.767088
1	0x42c247d9	97.14033
2	0x4409b75a	550.86487
3	0x39bd9175	0.00036157263
4	0x42f58b2c	122.77182
5	0x435c0bf2	220.04666
6	0x427d1fe3	63.28114
7	0x44607790	897.86816
8	0x439a3366	308.40155
9	0x3fa1b26e	1.2632577
10	0x44a7616d	1339.0446
11	0x4277c277	61.939907
12	0x132281eb	2.051133e-27
13	0x44af5602	1402.6877
14	0x444d7d8d	821.96173
15	0x00000004	6e-45
16	0x42a0e4ef	80.447136
17	0x44918b88	1164.3604
18	0x44a7871a	1340.2219
19	0x43797795	249.46712
20	0x42cc793f	102.23681
21	0x441ef86d	635.88165
22	0x44bca6e1	1509.215
23	0x451f89ec	2552.62
24	0x43798bf8	249.54675
25	0x43c7905d	399.12784
26	0x44bec199	1526.0499
27	0x434e2aa1	206.16652
28	0x41de72a9	27.805986
29	0x43bdbe37	379.48605
30	0x4505f640	2143.3906
31	0x4496af1e	1205.4724
32	0x444c5475	817.31964
33	0x44aca604	1381.188
34	0x447dc8a2	1015.1349
35	0x42a57866	82.73515
36	0x44d32545	1689.1647
37	0x43b39752	359.1822
38	0x433be301	187.88673
39	0x4432293c	712.6443
40	0x420617bc	33.52318
41	0x429bb45a	77.85225
42	0x3ecf4d3a	0.40488607
43	0x44956376	1195.1082
44	0x4444c98a	787.14905
45	0x44311614	708.345
46	0x441ad493	619.3215
47	0x440f678c	573.6179
48	0x45065f5e	2149.9604
49	0x04565285	2.519347e-36
50	0x428a7ab8	69.239685
51	0x00000004	6e-45
52	0x418b241b	17.39263
53	0x443b8af2	750.171
54	0x44c12466	1545.1375
55	0x423ac6f6	46.694298
56	0x41e3f1d2	28.493076
57	0x4434f950	723.8955
58	0x43b562f2	362.773
59	0x43cfcf36	415.61884
60	0x42b52cea	90.58772
61	0x44b3a75d	1437.2301
62	0x4308f43a	136.95401
63	0x448a7fc4	1107.9927

fc1.weight f4 [256, 64]
0	0x3ee3dc0e	0.44503826
1	0xb979d6b1	-0.00023826469
2	0x3f7bbe1d	0.98336965
3	0x3f695a2d	0.9115322
4	0xbf217184	-0.63063836
5	0x3f4b954f	0.795247
6	0xbeb35259	-0.35023764
7	0x3f082d12	0.5319377
8	0xbf5a641a	-0.8530899
9	0xbe32361a	-0.1740345
10	0xbf4ab48e	-0.79181755
11	0xbedf6519	-0.4363182
12	0xbed877b1	-0.42278817
13	0x3edb76eb	0.42864165
14	0x3f407b64	0.7518828
15	0x3c1388d7	0.009004793
16	0xbf6eda2b	-0.9330165
17	0x3c88610d	0.01664784
18	0xbe4ac63b	-0.19802181
19	0x3f78dcbd	0.9721182
20	0xbf4b0fe1	-0.79321104
21	0xbf2e9bdf	-0.6820659
22	0x3cd7ab44	0.026326783
23	0xbe38eb82	-0.18058589
24	0xbe8e0cac	-0.27744043
25	0xbeb751be	-0.35804552
26	0x3f318062	0.6933652
27	0x3f438ff5	0.76391536
28	0x3f6f7661	0.93540007
29	0x3efe8f6c	0.49718797
30	0xbf161bb4	-0.5863602
31	0xbe0326bd	-0.12807746
32	0x3ea3f565	0.3202316
33	0xbe46ecfb	-0.19426338
34	0xbeea14a5	-0.45718876
35	0x3f60e90e	0.87855613
36	0xbf579a04	-0.84219384
37	0x3e5b5e22	0.21422628
38	0xbf1aba49	-0.604405
39	0x3f4133f9	0.7546993
40	0x3ea07f3a	0.31347066
41	0x3e9f6957	0.31135055
42	0x3eafe2aa	0.34352618
43	0x3f8bfb15	1.0935999
44	0xbf6c6bfe	-0.92352283
45	0x3f79147c	0.9729688
46	0xbef8c01a	-0.48584062
47	0xbdce7a3a	-0.100819066
48	0xbf66c6b3	-0.9014694
49	0xbe7bcb45	-0.2458926
50	0x3f65018b	0.8945548
51	0x3f0092f1	0.50224215
52	0x3f5d86b0	0.8653364
53	0xbf4deda0	-0.8044071
54	0xbd1f3a60	-0.03887403
55	0xbecd8925	-0.40143695
56	0xbe82c191	-0.25538304
57	0x3f3ea9f1	0.7447806
58	0x3f6d4903	0.9268953
59	0xbf011f36	-0.5043825
60	0xbe2a06a2	-0.16604093
61	0xbec3207d	-0.38110724
62	0xbcf7707b	-0.030205002
63	0xbf17a4cf	-0.5923585
64	0x3eb1fdeb	0.34764037
65	0x3ec304b6	0.38089532
66	0xbef21fff	-0.47290036
67	0x3f661052	0.8986865
68	0xbea57998	-0.3231933
69	0xbf0ea842	-0.5572549
70	0x3f1121ca	0.56692183
71	0xbde1cdfd	-0.11025617
72	0x3ef681ad	0.4814581
73	0xbe931994	-0.28730452
74	0xbf61711d	-0.8806322
75	0xbe43a8af	-0.19107316
76	0xbe8500fd	-0.25977316
77	0x3f639886	0.8890461
78	0xbf06b843	-0.5262491
79	0x3e83ef6b	0.257686
80	0xbeb6cbfd	-0.35702506
81	0x3fbbd955	1.46757
82	0x3f13df5b	0.5776269
83	0x3f1cc11e	0.61232173
84	0xbeacdbc9	-0.33761433
85	0x3f80a9bf	1.0051802
86	0xbf77632e	-0.9663571
87	0x3ecc058d	0.39847985
88	0xbea0ba77	-0.3139226
89	0xbf56539d	-0.83721334
90	0xbf533504	-0.8250277
91	0x3e35cc00	0.17753601
92	0xbdbd3621	-0.0923884
93	0xbf5e34f2	-0.8679954
94	0x3d595ff5	0.053070027
95	0x3f3162e6	0.6929153
96	0x3f3c4ba0	0.73552895
97	0xbed9c437	-0.42532513
98	0x3ef9b0b0	0.48767614
99	0xbedc5c39	-0.4303911
100	0xbefa560d	-0.48893777
101	0x3e3aa335	0.18226321
102	0x3e4d9025	0.20074518
103	0xbf519bc9	-0.81878334
104	0xbe6b3a81	-0.22971536
105	0xbe446d13	-0.19182234
106	0x3c6ab7c0	0.014326036
107	0x3f34dcef	0.7064962
108	0xbf3f888a	-0.7481772
109	0x3f2127ee	0.6295155
110	0x3ee2d219	0.44300917
111	0x3f7d10e6	0.9885391
112	0xbd38e29b	-0.045137983
113	0xbe2206ac	-0.15822858
114	0x3f62221e	0.8833331
115	0x3f3f9a64	0.74844956
116	0x3e54d206	0.20783243
117	0xbc8dc4be	-0.017305728
118	0xbde40a26	-0.11134748
119	0xbf80f561	-1.0074884
120	0xbf1be2d3	-0.6089298
121	0xbf72fb05	-0.94914275
122	0x3f34f827	0.7069115
123	0xbf3b04ff	-0.730545
124	0xbed73e22	-0.4203959
125	0x3caca782	0.021075968
126	0xbf4f66fb	-0.8101651
127	0x3eb83147	0.35975096
128	0x3f097167	0.53688663
129	0xbf55f5d0	-0.83578205
130	0x3ecec843	0.40387163
131	0xbf137ea2	-0.576151
132	0xbdd0feb7	-0.10204833
133	0xbf18210d	-0.5942543
134	0xbf5d034c	-0.86333156
135	0x3e79879d	0.24368139
136	0xbd5354c5	-0.051594514
137	0xbf0c1f22	-0.54735005
138	0x3f620c13	0.88299674
139	0xbf546fd7	-0.82983154
140	0xbf02623b	-0.5093114
141	0x3dd314ae	0.10306679
142	0xbf86764c	-1.0504851
143	0xbf2c8eb3	-0.6740524
144	0x3ed42837	0.41436931
145	0x3e8ce949	0.27521732
146	0xbfcec83c	-1.6154857
147	0x3e6a0380	0.22852898
148	0x3e97739c	0.2958039
149	0x3f347cd2	0.7050296
150	0x3ec1bd01	0.3783951
151	0xbf216972	-0.6305152
152	0xbc7ae865	-0.015314196
153	0x3f388d91	0.72091013
154	0x3f84d5ce	1.0377748
155	0xbe8ae5c5	-0.27128425
156	0xbf452ad7	-0.77018493
157	0xbee02a3d	-0.43782225
158	0x3ebffb41	0.3749638
159	0x3f58d9b7	0.84707206
160	0x3ea6d473	0.3258396
161	0xbeafc402	-0.3432923
162	0x3e8ecd88	0.27891183
163	0xbf3ded03	-0.74189776
164	0xbe8cfafe	-0.27535242
165	0xbd467a13	-0.048456263
166	0xbf45a969	-0.77211624
167	0xbd272f82	-0.04081679
168	0x3e5ea105	0.21741112
169	0xbdc6b901	-0.097032554
170	0xbf44d158	-0.76881933
171	0xbf5f0762	-0.8712064
172	0x3f941e44	1.1571736
173	0x3d051533	0.03249092
174	0x3d6404f9	0.055668805
175	0xbe9eacc7	-0.30991194
176	0x3ebb4695	0.36577287
177	0xbf012f44	-0.50462747
178	0xbdba520c	-0.090976804
179	0xbf264389	-0.649468
180	0xbf23cce4	-0.63984513
181	0x3cdcc9e9	0.026951747
182	0x3f1058d4	0.5638554
183	0xbeac05c2	-0.33598143
184	0xbf27a371	-0.65483767
185	0x3efc3ce0	0.49265194
186	0x3f1b930d	0.60771257
187	0x3f0cc70b	0.54991215
188	0xbda377fb	-0.07981869
189	0xbf04b1ac	-0.51833606
190	0xbe7eb6ee	-0.2487447
191	0xbe24892c	-0.16067952
192	0xbf772208	-0.965363
193	0x3ef2dd52	0.4743448
194	0xbe844352	-0.2583261
195	0xbef06485	-0.4695169
196	0xbf1c0809	-0.6094976
197	0xbf5c1c57	-0.85980743
198	0xbd0aab23	-0.033854615
199	0xbe24c5f7	-0.16091143
200	0x3f6e0aa9	0.92985016
201	0xbf3e354b	-0.7430007
202	0x3ea0c9d0	0.3140397
203	0x3f540e6a	0.82834494
204	0x3f39bbbf	0.725521
205	0x3d1781ec	0.036989138
206	0x3efe3581	0.49650195
207	0xbe07a43c	-0.13246244
208	0xbdf3c583	-0.11902907
209	0xbe524182	-0.20532802
210	0x3dc94d84	0.09829238
211	0xbf6aeb64	-0.9176543
212	0x3e021862	0.12704614
213	0x3e31d0da	0.17364827
214	0xc00a5223	-2.1612632
215	0x3eef1522	0.4669581
216	0x3e948b0c	0.29012334
217	0xbcb8c592	-0.022555146
218	0x3e7b460c	0.2453844
219	0xbf697056	-0.91187036
220	0xbf4fc00c	-0.81152415
221	0x3efe6b50	0.49691248
222	0x3e0aa595	0.13539727
223	0xbf10680a	-0.5640875
224	0xbd99d7e1	-0.07511879
225	0x3decb455	0.11557833
226	0x3e88a09d	0.26685038
227	0xbe9d1ea4	-0.3068744
228	0x3f702c0e	0.9381722
229	0xbf569e60	-0.8383541
230	0xbd7f670b	-0.06235413
231	0xbf6256d0	-0.88413715
232	0x3e0e7ec4	0.13915545
233	0xbd5aad0d	-0.05338769
234	0x3cbd84bf	0.023134587
235	0x3e01ca00	0.12674713
236	0x3e329fab	0.17443721
237	0xbf23e928	-0.64027643
238	0xbf909be4	-1.1297574
239	0xbf496292	-0.7866603
240	0x3ee77f0e	0.45214123
241	0x3eed5cfd	0.46360007
242	0xbf52d74b	-0.8235976
243	0x3ece1528	0.40250516
244	0x3f04d89c	0.5189302
245	0x3ede95b6	0.43473595
246	0xbe50668d	-0.2035162
247	0xbe940214	-0.28907835
248	0x3e4d4a81	0.20047952
249	0xbe244e85	-0.16045578
250	0xbf68f426	-0.9099754
251	0xbf311d31	-0.6918517
252	0xbc9dfc38	-0.019285306
253	0x3e67c098	0.22632062
254	0x3f342637	0.7037081
255	0xbf598771	-0.8497229

fc1.bias f4 [256]
0	0xbf8792c4	-1.0591664
1	0xbf9965d3	-1.1984199
2	0x3e72168d	0.23641415
3	0x3f15b019	0.5847183
4	0x3e79ab84	0.24381834
5	0xbf8f1983	-1.117966
6	0xbed9bcfc	-0.42526996
7	0x3f618274	0.8808968
8	0x3dfa762d	0.122295715
9	0x3dc56f31	0.09640349
10	0xbf80ef4a	-1.0073025
11	0x3e7dee9e	0.24798056
12	0x3ee68465	0.45022884
13	0xbf56a25f	-0.8384151
14	0xbea4a107	-0.32154104
15	0xbf0362c6	-0.5132259
16	0xbf084c6d	-0.53241616
17	0xbf0282cc	-0.5098083
18	0xbf8d7fbd	-1.1054608
19	0xbf26d412	-0.65167344
20	0x3ecf5cc5	0.40500465
21	0xbfc77f81	-1.5585786
22	0xbfa06f48	-1.253396
23	0x3d86cadf	0.06581663
24	0xbf78c991	-0.97182566
25	0xbfb7585b	-1.4323839
26	0xbed5de26	-0.41771048
27	0x3ef93c7a	0.48678952
28	0xbf94044b	-1.156381
29	0xbf2e6647	-0.6812481
30	0x3d329220	0.043596387
31	0xbebaacfa	-0.36460096
32	0xbf8c248a	-1.0948651
33	0xbf63bbb2	-0.88958275
34	0xbf82c846	-1.0217369
35	0xbf981323	-1.188084
36	0xbf6dfbae	-0.9296216
37	0xbf3c606f	-0.73584646
38	0x3e16fc52	0.1474469
39	0xbf3bdff8	-0.73388624
40	0x3dc60306	0.096685454
41	0xbf229f13	-0.6352398
42	0x3f044657	0.5166983
43	0xbeac93c4	-0.33706486
44	0xbf955148	-1.166543
45	0xbf4e4921	-0.80580336
46	0x3f45dae6	0.7728714
47	0xbf71ebb7	-0.945003
48	0xbf0f5f82	-0.5600511
49	0xbf852e50	-1.0404758
50	0x3e5f78b5	0.2182339
51	0xbf554ebf	-0.8332328
52	0x3e078862	0.1323562
53	0xbe5e48e3	-0.21707492
54	0xbeb3d980	-0.35126877
55	0x3eb0e0fd	0.34546652
56	0xbf04ded9	-0.5190254
57	0xbe3c3e80	-0.18383217
58	0xbe872917	-0.26398537
59	0xbf1daa43	-0.61587924
60	0xbede7293	-0.43446788
61	0xbee1ec49	-0.44125584
62	0xbf096d4d	-0.53682405
63	0xbf8b558a	-1.088548
64	0xbf00f9d7	-0.50381225
65	0xbf3be60f	-0.73397917
66	0xbfa86625	-1.3156172
67	0xbf0292d4	-0.5100529
68	0x3f50042c	0.81256366
69	0xbf1dce78	-0.6164317
70	0xbf36d3e4	-0.7141707
71	0xbf8bd198	-1.0923338
72	0xbf8e9d46	-1.1141746
73	0xbf926411	-1.1436788
74	0xbeaac72a	-0.33355075
75	0xbf776b0e	-0.9664773
76	0xbf8a3396	-1.0796993
77	0xbf746e38	-0.9548068
78	0xbf3464b9	-0.7046619
79	0xbf2a475c	-0.66515136
80	0xbf340873	-0.7032539
81	0xbe6446a1	-0.22292568
82	0xbf7e127f	-0.9924697
83	0xbcd32fdf	-0.025779663
84	0xbec3e4b3	-0.3826042
85	0x3f63ca73	0.8898079
86	0xbd848fd3	-0.06472745
87	0xbf78e043	-0.97217196
88	0xbe9fe5ba	-0.31229955
89	0xbf1f75a3	-0.62288874
90	0xbeb5d835	-0.35516515
91	0x3ee8fb3e	0.45504183
92	0xbf179a03	-0.5921938
93	0xbf4cdef0	-0.80027676
94	0xbe838e17	-0.25694343
95	0xbf557c2e	-0.8339261
96	0x3f1f4cda	0.6222664
97	0x3edeb43e	0.4349689
98	0xbec0dfe1	-0.37670806
99	0x3ebe791f	0.37201783
100	0x3e475f2e	0.19469902
101	0xbf291fc4	-0.66064095
102	0xbeb65f56	-0.3561961
103	0xbf0eb0d1	-0.5573855
104	0x3ee33790	0.44378328
105	0xbed8f372	-0.42373234
106	0xbe981818	-0.29705882
107	0xbe372248	-0.17884171
108	0xbf8c3e6f	-1.0956553
109	0x3d0f463a	0.034979083
110	0x3de9ec15	0.11421982
111	0xbf012b8a	-0.5045706
112	0x3ed10ff9	0.408325
113	0xbf04ae2a	-0.51828253
114	0xbf9dcb1a	-1.2327607
115	0x3e1f0fc8	0.15533364
116	0xbea727be	-0.32647508
117	0x3e85d7d3	0.26141223
118	0x3d932761	0.07185245
119	0xbd9dc335	-0.077032484
120	0xbf897af9	-1.0740653
121	0xbfa2bb39	-1.2713386
122	0xbed6c0aa	-0.41943866
123	0xbf349150	-0.7053423
124	0xbf196c62	-0.59931004
125	0xbf24ede7	-0.6442551
126	0xbf030409	-0.5117803
127	0x3eb03a8c	0.34419668
128	0xbf97fc54	-1.187388
129	0xbf07dcdf	-0.530714
130	0xbe68b0d9	-0.22723712
131	0xbf1fc4ad	-0.6240948
132	0xbf689816	-0.90857065
133	0xbf286349	-0.657765
134	0x3f0e3d2d	0.55562097
135	0xbf1eaa52	-0.6197864
136	0xbf583d70	-0.84468746
137	0xbf15385c	-0.5828912
138	0xbf8874a2	-1.0660594
139	0xbeb342f6	-0.35012025
140	0xbf764561	-0.96199614
141	0x3e0d8a85	0.13822372
142	0xbf82cfc8	-1.021966
143	0xbfac19c7	-1.3445367
144	0xbf8fff20	-1.1249733
145	0xbf549949	-0.83046395
146	0xbf30fa0f	-0.6913156
147	0xbfa05559	-1.2526046
148	0x3dbb6851	0.09150756
149	0x3f5989ca	0.84975874
150	0x3e455900	0.19272232
151	0xbdabd74f	-0.08390676
152	0xbf25a201	-0.64700323
153	0xbf62e829	-0.886355
154	0x3f377910	0.716691
155	0x3e62bd7f	0.221426
156	0xbf75514f	-0.9582719
157	0xbf39ce40	-0.7258034
158	0xbf12d2e1	-0.57353026
159	0x3f233309	0.6374975
160	0xbf1e73fe	-0.6189574
161	0x3f804ac3	1.0022815
162	0xbf272779	-0.65294605
163	0x3edc6e3d	0.43052855
164	0xbf46389a	-0.7743012
165	0x3f8936a2	1.0719798
166	0xbf22f5fb	-0.63656586
167	0x3d29dd74	0.04147096
168	0xbec2aef0	-0.38024092
169	0xbd930e8b	-0.07180508
170	0x3e853f68	0.26024938
171	0xbf99b156	-1.2007244
172	0xbec28a68	-0.3799622
173	0xbf174736	-0.59093034
174	0xbf7404c5	-0.9531978
175	0xbf480aee	-0.7814168
176	0xbf9f01aa	-1.2422383
177	0xbf99dfdf	-1.2021445
178	0xbf64340b	-0.8914191
179	0x3efe384b	0.49652323
180	0xbf632b7d	-0.8873823
181	0xbf596d1d	-0.8493212
182	0xbf05cf12	-0.5226909
183	0xbf8225dc	-1.0167804
184	0xbef25540	-0.47330666
185	0xbeb43a58	-0.35200763
186	0xbf5f87e3	-0.8731672
187	0xbf64f512	-0.8943645
188	0xbf1f0da5	-0.62130195
189	0xbeae87f0	-0.34088087
190	0xbf1bb92d	-0.6082943
191	0xbdde8b26	-0.10866384
192	0xbf93080e	-1.1486833
193	0xbf55ba9b	-0.8348786
194	0x3e992351	0.29909757
195	0xbeeb7488	-0.45987344
196	0xbeec679d	-0.461728
197	0xbf5ae441	-0.8550454
198	0xbebec9ea	-0.37263423
199	0x3ec4b35f	0.384181
200	0x3cdbdf12	0.026839767
201	0x3dd48969	0.103777714
202	0x3f0cd7b7	0.55016655
203	0x3e31fcf9	0.17381658
204	0xbf1cf51a	-0.61311495
205	0xbf20a3f5	-0.6275018
206	0xbf284f25	-0.65745765
207	0xbebae83b	-0.36505303
208	0xbebf28a8	-0.37335706
209	0xbf84ed20	-1.0384865
210	0xbef99fb0	-0.48754644
211	0x3f6de0b9	0.92921025
212	0xbe78127c	-0.24225801
213	0xbece3c3b	-0.40280327
214	0xbef90c75	-0.48642316
215	0xbef761cc	-0.483168
216	0x3df531c0	0.1197238
217	0x3e88d6f3	0.26726493
218	0xbf53e9bb	-0.8277852
219	0x3f338c00	0.701355
220	0xbf09b084	-0.53784966
221	0xbec7c504	-0.39017498
222	0x3f537a8e	0.8260888
223	0xbf40455e	-0.75105846
224	0x3eac4ad9	0.33650854
225	0xbe072993	-0.13199453
226	0xbd80e094	-0.06292835
227	0xbf5c4ba6	-0.8605293
228	0xbf582615	-0.8443311
229	0x3ecc9d7b	0.39963898
230	0xbf5e5b46	-0.8685802
231	0xbee7a4aa	-0.45242816
232	0xbf59796b	-0.84950894
233	0xbed2e280	-0.4118843
234	0xbf82cce2	-1.0218775
235	0xbddafa2b	-0.10692247
236	0x3e5720a3	0.21008544
237	0x3ee06feb	0.43835387
238	0xbe981ff9	-0.29711893
239	0x3d588c19	0.052867983
240	0x3f197b18	0.5995345
241	0xbf52e5e1	-0.8238202
242	0xbfb7f04c	-1.4370208
243	0x3dccadfa	0.09994121
244	0xbf300c99	-0.6876922
245	0xbf67eae1	-0.9059277
246	0xbf54c1c9	-0.8310819
247	0xbe9831c5	-0.2972547
248	0xbee731bb	-0.4515513
249	0xbf4cbda7	-0.79976887
250	0xbf6677af	-0.9002637
251	0xbf8f695e	-1.120403
252	0x3f097b6f	0.5370397
253	0x3f6e2f3c	0.93040824
254	0xbf5212c8	-0.8205991
255	0xbf9c77a8	-1.2224016

bn4.weight f4 [256]
0	0x3e69de8b	0.228388
1	0x3ff24371	1.8926831
2	0x3f226090	0.6342859
3	0x3fad6d77	1.3549031
4	0x4000fca4	2.01542
5	0xbfabfbe5	-1.3436247
6	0x3e5edcce	0.21763918
7	0x3f71ab19	0.944017
8	0xbebd103d	-0.3692645
9	0x3f327a68	0.6971803
10	0x3eb53a93	0.3539625
11	0x3e363634	0.17794114
12	0x3e910119	0.2832115
13	0x3f5d3d7d	0.8642195
14	0x3eb270ef	0.34851786
15	0x3f8a58e5	1.0808378
16	0x3eff44c4	0.49857152
17	0x3f5780e5	0.8418105
18	0x3e23505e	0.15948626
19	0x3d95133e	0.07279061
20	0x3f39eeaa	0.726298
21	0x3f6b0310	0.9180155
22	0xbe70fc62	-0.23533776
23	0x3f9b8f71	1.215315
24	0xbe12df3c	-0.1434297
25	0xbf82681b	-1.018802
26	0x3f4a95c4	0.79134774
27	0x3f60237c	0.87554145
28	0x3f927f7e	1.1445158
29	0x3ee8757a	0.45402128
30	0x3fd90166	1.6953552
31	0x3f0efbbd	0.5585287
32	0x3f9ef32a	1.2417958
33	0x3fbd062f	1.4767512
34	0xbe0a9a4e	-0.13535425
35	0x3efd3268	0.4945252
36	0x3f3780ee	0.71681106
37	0xbe55214e	-0.20813486
38	0x3ee32bac	0.44369256
39	0x3fa655f6	1.2994983
40	0x3ede0ef0	0.4337077
41	0x3ea4f03f	0.32214543
42	0x3fb2f31a	1.3980439
43	0x3e698f88	0.22808659
44	0x3dc9b5ad	0.09849105
45	0x3efdf3da	0.49600106
46	0x3ef73c73	0.48288307
47	0x3f863ea4	1.0487866
48	0x3eabd520	0.3356104
49	0x3f9bc9f4	1.2171006
50	0x3f2df788	0.6795583
51	0x3ec159df	0.3776388
52	0x3eb07598	0.34464717
53	0x3ec18a2c	0.3780073
54	0x3f485c6b	0.7826602
55	0x3f9831d9	1.1890212
56	0x3dab67b9	0.08369393
57	0x3eaee2a2	0.34157282
58	0x3ef08ce8	0.46982503
59	0x3d9fd4bd	0.078042485
60	0x3f0f3388	0.55938005
61	0x3f46e52c	0.7769344
62	0x3dfd26c0	0.123609066
63	0x3fdce36a	1.7256901
64	0x3f5acb4c	0.85466456
65	0xbe2093df	-0.15681408
66	0x3fbb31ae	1.4624536
67	0x3e83cd22	0.2574244
68	0x3fdc26e9	1.7199374
69	0xbe58433b	-0.21119396
70	0xbe94cff8	-0.29064918
71	0xbec484d3	-0.38382587
72	0x3e661db1	0.22472264
73	0xbddc3eb1	-0.10754145
74	0x3f35c480	0.7100296
75	0x3eb3de64	0.35130608
76	0x3e99f175	0.3006703
77	0x3fe6a299	1.8018371
78	0x3f2d5638	0.67709684
79	0x3e8e1d4f	0.27756736
80	0x3ed3fb77	0.4140279
81	0x3f7ebd8a	0.99507964
82	0x3f9caba7	1.2239884
83	0xbf04bca8	-0.51850367
84	0x3fa38290	1.277422
85	0x3ef52292	0.47877938
86	0xbc350d67	-0.011050559
87	0x3fa6b897	1.3025082
88	0x3f37c9e1	0.7179242
89	0x3eedff41	0.46483806
90	0x3fa33c42	1.2752764
91	0x3faec623	1.3654217
92	0xbd5d078e	-0.053962283
93	0x3efd1a68	0.4943421
94	0x3f63226a	0.88724387
95	0x3eddbc57	0.43307754
96	0x3f40236a	0.7505404
97	0x3f6b7f9a	0.9199158
98	0x3bcc7bce	0.0062403446
99	0x3fbf9bd6	1.4969432
100	0xbe86772f	-0.26262805
101	0x3e0a41fd	0.13501735
102	0x3f37299b	0.7154786
103	0xbe71079b	-0.23538058
104	0x3f620a41	0.88296896
105	0x3fd3c235	1.6543642
106	0x4001cf5c	2.0282812
107	0x3fa51806	1.2897956
108	0x3e79016b	0.24316947
109	0x3e41eaf5	0.18937285
110	0x3f8613f3	1.0474838
111	0x3e99f034	0.30066073
112	0x3eec9d8f	0.46213958
113	0x3f52a897	0.822885
114	0x3ee18012	0.44043022
115	0x3f5d9825	0.8656028
116	0x3e048972	0.12943056
117	0x3efdfeef	0.4960856
118	0x3f593679	0.84848744
119	0x3f00c4ed	0.50300485
120	0x3e0db73f	0.13839434
121	0x3ecec8bb	0.4038752
122	0x3e572862	0.21011499
123	0x3dbdacde	0.092614874
124	0xbe6c39a1	-0.23068859
125	0x4008f8d5	2.1401875
126	0x3f9b6dae	1.2142847
127	0x3f1e69f9	0.6188045
128	0x3f881e96	1.0634334
129	0x3f89c2ad	1.0762535
130	0x3f14b7f0	0.58093166
131	0x3fa1eb46	1.2649925
132	0x3f3ea1a0	0.7446537
133	0x3e774350	0.24146771
134	0x3f33e0fc	0.70265174
135	0x3e694f2d	0.2278411
136	0x3fe4d7ff	1.7878417
137	0x3fdabd5b	1.7089037
138	0x3e19c641	0.15017034
139	0x3efb6697	0.49101707
140	0x3f44501b	0.7668473
141	0x3fc50731	1.539282
142	0x3cc2f8a9	0.023800211
143	0xbf49dedd	-0.7885569
144	0xbd576f6f	-0.052596506
145	0x3f86229a	1.047931
146	0x3ea0fbfb	0.31442246
147	0x3fb6b832	1.4274962
148	0x3f072ac2	0.5279962
149	0x3f2ea96d	0.68227273
150	0x3ffe1f30	1.9853268
151	0x3f7e13a2	0.9924871
152	0x3f02c0a8	0.5107522
153	0x3f962386	1.1729591
154	0x3f32d4d9	0.6985603
155	0x3f62d945	0.88612777
156	0x3ecab1f1	0.39588884
157	0x3f661878	0.89881086
158	0x3f569c9b	0.8383271
159	0x3fc1a4cb	1.5128416
160	0x3eb7159f	0.35758683
161	0xbdd53c69	-0.10411913
162	0x3f84d31e	1.0376928
163	0x3f609ee7	0.87742466
164	0x3ff0186a	1.875745
165	0x3f48377d	0.7820967
166	0x3ee2432e	0.4419188
167	0x3fc965c7	1.5734185
168	0x4013969c	2.3060675
169	0xbf0ced27	-0.55049366
170	0x3f5d7455	0.86505634
171	0x3cb00eee	0.021491494
172	0x3e94bcbb	0.2905024
173	0x3f5c83cf	0.86138624
174	0x3f411920	0.7542896
175	0x3f91f266	1.1402099
176	0x3f26f287	0.6521382
177	0x3de69abf	0.11259984
178	0x3fbd0dad	1.4769799
179	0x3eaa6735	0.33281866
180	0x3eac7949	0.33686283
181	0x3e791470	0.24324203
182	0x3f2475f6	0.64242494
183	0x3ef066e5	0.46953502
184	0x3e11a2c8	0.14222252
185	0xbd8c599a	-0.06853028
186	0x3f2450cc	0.64185786
187	0x3f0b1fe3	0.5434553
188	0x3eef6886	0.46759433
189	0x3e677254	0.22602206
190	0x3f384bb7	0.7199053
191	0x401e1866	2.4702392
192	0x3fc4e55f	1.5382499
193	0xbd968c61	-0.07350994
194	0x3f63d860	0.8900204
195	0x3f806b90	1.0032825
196	0xbe032d65	-0.12810285
197	0x3f1bdddf	0.60885423
198	0x3eb7ebed	0.35922185
199	0x3f88ed8e	1.0697496
200	0xbc59e927	-0.013300217
201	0x3ebc0da8	0.3672917
202	0x3ee392c2	0.44447905
203	0x3f7dd2d4	0.99149823
204	0x3faed1d3	1.3657783
205	0x3f3710c9	0.7150999
206	0x3dea87c8	0.114516795
207	0x3f92fbb8	1.1483068
208	0x3fa29881	1.270279
209	0xbeb4dee9	-0.35326317
210	0x3fe75a35	1.8074404
211	0x3f477cc9	0.7792478
212	0x3f07bd66	0.53023374
213	0xbda70463	-0.081551336
214	0x3f13ba91	0.5770655
215	0x3e5e87df	0.21731518
216	0x3fe047a1	1.752186
217	0x3fc490a4	1.5356641
218	0x3f68f63d	0.9100073
219	0xbc28a7e5	-0.010293935
220	0xbdc3f74b	-0.09568652
221	0x3f93a345	1.1534201
222	0x3f57bcda	0.8427254
223	0x3edd70ed	0.43250218
224	0x3fb4a783	1.411362
225	0x3eb1b17d	0.34705725
226	0x3f8d4c3e	1.1038892
227	0x3fb4cf07	1.412568
228	0xbf17be69	-0.5927492
229	0x3ef7db02	0.48409277
230	0x3f3e379b	0.743036
231	0x3f5c99e7	0.86172336
232	0x3f8223dc	1.0167193
233	0x3fba1fc4	1.4540944
234	0xbf437fbb	-0.76366776
235	0x3fe7f547	1.8121728
236	0x3fc3ded6	1.5302379
237	0x3eedd72e	0.46453232
238	0x3f2659ed	0.64980966
239	0x3ea9117c	0.33021152
240	0x3f9084dc	1.1290545
241	0x3f0d5b04	0.55217004
242	0x3e9cc249	0.30616978
243	0x3fa9c01a	1.326175
244	0xbd37ead1	-0.044901673
245	0x3e16c319	0.14722861
246	0x3dcc784c	0.09983882
247	0x3f77f808	0.9686284
248	0x3f2560f3	0.6460106
249	0x3e6c6672	0.23085955
250	0x3ca76e27	0.020438267
251	0x3f940529	1.1564075
252	0x3f1667f3	0.58752364
253	0x3f38bab2	0.72159874
254	0x3c15722e	0.009121461
255	0x3ef9d63f	0.4879627
