mini_batch_exp/models/mnist_sgd_batch60000_lr0.1.pt (torch_old, 326374 bytes, 26 tensors)

conv1.weight f4 [16, 1, 3, 3]
0.0024934183 -0.14415959 0.046805553 0.1579824 -0.19188665 0.29015526 -0.123392984 0.103835635
0.31918296 -0.022014199 0.190439 -0.06301188 0.27696767 -0.2037907 -0.1300356 0.12444252
-0.0011745156 -0.07493967 -0.08268352 -0.099933386 0.17877409 -0.30675498 0.2771875 0.16814387
-0.1562232 -0.007880182 -0.10151866 0.049627826 0.11445977 -0.29417202 -0.09580322 -0.3175634
-0.2939127 0.054276332 0.15110217 0.29155287 0.16399461 0.12118345 -0.32319003 -0.0523816
-0.018831925 -0.002016156 0.32171494 0.23187084 -0.08195519 -0.2529861 0.23632157 -0.23842685
-0.2778429 0.12040012 0.24606597 -0.31461594 -0.27871427 0.29755014 -0.26806584 0.06492837
-0.2820945 0.17186072 0.040074836 -0.119530566 0.13204925 -0.20614378 0.20855063 0.24071145
-0.27700678 0.22378936 -0.051932704 -0.022761762 0.32531616 -0.087397486 -0.3099285 0.3080957
-0.33560717 0.058238976 -0.11486175 0.2673883 -0.3038698 -0.07649726 0.05345762 0.2559475
-0.14528202 0.014871946 0.10950731 0.19746837 0.107031114 0.2768364 0.074357115 0.034168687
-0.28849676 0.12302103 0.09160817 -0.16366038 -0.29152468 0.1394754 -0.09943134 -0.01857872
-0.13692945 -0.2551859 0.10705569 -0.14931196 -0.04150302 0.09983299 -0.041907124 0.31144536
0.14648308 0.26966152 -0.2633773 -0.25422823 -0.017281959 0.25567165 -0.028083025 0.25236803
0.09644232 0.13979343 -0.33037424 -0.10703295 -0.04257972 0.32350042 0.08637031 0.23564121
0.07364157 0.20073643 -0.1013297 0.32595217 -0.065426335 -0.18510245 0.047902204 -0.00055753597
-0.34038046 0.16203655 0.20444942 0.09547672 0.13112123 -0.2647925 -0.27619943 -0.023959344
0.12188682 0.0038217881 -0.23319504 0.19830644 0.30570415 -0.102794714 -0.30803517 -0.22844079
00000000: 9e68 233b 929e 13be 2eb7 3f3d 23c6 213e
00000010: ef7d 44be 3b8f 943e 76b5 fcbd c7a7 d43d
00000020: f36b a33e 1f57 b4bc 7102 433e 5f0c 81bd
00000030: b5ce 8d3e 82ae 50be 0d28 05be b8db fe3d
00000040: 34f2 99ba f879 99bd fa55 a9bd e0a9 ccbd
00000050: 8e10 373e fd0e 9dbe 85eb 8d3e e82d 2c3e
00000060: f9f8 1fbe e11b 01bc 04e9 cfbd 8c46 4b3d
00000070: e269 ea3d b79d 96be 7b34 c4bd ac97 a2be
00000080: ba7b 96be dc50 5e3d 87ba 1a3e 6b46 953e
00000090: 34ee 273e 072f f83d 2a79 a5be 178e 56bd
000000a0: 6945 9abc 7c21 04bb d2b7 a43e 8d6f 6d3e
000000b0: 1fd8 a7bd 6587 81be 48fe 713e 2b26 74be
000000c0: 6d41 8ebe 5794 f63d b8f8 7b3e 5715 a1be
000000d0: a3b3 8ebe 7e58 983e ed3f 89be 2af9 843d
000000e0: b16e 90be 42fc 2f3e 8325 243d 71cc f4bd
000000f0: eb37 073e 5b17 53be 4c8e 553e 107d 763e
00000100: d5d3 8dbe 0a29 653e 63b7 54bd e076 babc
00000110: d78f a63e 74fd b2bd f3ae 9ebe b8be 9d3e
00000120: b4d4 abbe fe8b 6e3d a33c ebbd 1fe7 883e
00000130: d394 9bbe 98aa 9cbd 61f6 5a3d 8d0b 833e
00000140: cfc4 14be 76a9 733c 5e45 e03d 2635 4a3e
00000150: 2133 db3d 80bd 8d3e 8b48 983d 77f4 0b3d
00000160: d9b5 93be 73f2 fb3d 109d bb3d 9696 27be
00000170: b942 95be a4d2 0e3e a9a2 cbbd 6632 98bc
00000180: 3c37 0cbe baa7 82be 0340 db3d 3ce5 18be
00000190: 12ff 29bd 3d75 cc3d cea6 2bbd c475 9f3e
000001a0: a9ff 153e 1311 8a3e 64d9 86be 342a 82be
000001b0: e592 8dbc 65e7 823e 5f0e e6bc 6236 813e
000001c0: 8d83 c53d 0226 0f3e d026 a9be 1734 dbbd
000001d0: 1368 2ebd d9a1 a53e ebe2 b03d ee4b 713e
000001e0: 64d1 963d da8d 4d3e f285 cfbd 34e3 a63e
000001f0: 3efe 85bd 7f8b 3dbe 1a35 443d 9b27 12ba
00000200: 5946 aebe e9ec 253e 305b 513e 4c89 c33d
00000210: a544 063e e292 87be 036a 8dbe 6346 c4bc
00000220: cc9f f93d f776 7a3b aeca 6ebe d810 4b3e
00000230: 4185 9c3e 0986 d2bd c9b6 9dbe 62ec 69be

conv1.bias f4 [16]
-0.2676107 -0.22764984 -0.07380236 0.023768855 0.09790201 -0.27819812 -0.024029411 -0.31742483
0.1398578 0.088238075 -0.28344858 0.06299256 -0.27842292 0.23318715 -0.037761044 -0.1297432
00000000: 4504 89be 0a1d 69be b125 97bd e7b6 c23c
00000010: d980 c83d fc6f 8ebe 54d9 c4bc 8285 a2be
00000020: e236 0f3e 2ab6 b43d 2c20 91be 3e02 813d
00000030: 738d 8ebe 9dc8 6e3e 53ab 1abd 67db 04be

bn1.weight f4 [16]
0.99471754 1.0053109 0.98711264 1.0074152 1.0101932 0.9925226 0.9673016 1.0000902
1.0060633 1.0117357 0.9814769 1.010131 1.0136353 1.0008116 0.9947513 1.0152879
00000000: cfa5 7e3f 07ae 803f 6ab3 7c3f fbf2 803f
00000010: 034e 813f f615 7e3f 14a1 773f f502 803f
00000020: afc6 803f 8e80 813f 1242 7b3f f94b 813f
00000030: cdbe 813f 981a 803f 05a8 7e3f f4f4 813f

bn1.bias f4 [16]
-0.001903983 0.0029163493 -0.0046666833 0.0062909503 0.0014186809 -0.012659613 0.0057117664 -0.003320018
0.0037919804 0.0017644152 -0.0021414096 0.0073113167 0.009996745 -0.0017690489 -0.0033603325 0.010109573
00000000: 118f f9ba 3920 3f3b faea 98bb 5124 ce3b
00000010: 08f3 b93a 446a 4fbc c529 bb3b a994 59bb
00000020: e082 783b f343 e73a e456 0cbb c593 ef3b
00000030: 63c9 233c 6edf e7ba 0639 5cbb 9fa2 253c

bn1.running_mean f4 [16]
30.838285 14.874239 10.404053 8.34277 27.899048 9.615185 5.4250093 28.240007
4.172844 38.215435 2.408245 15.322684 20.394726 54.234158 9.236681 6.8629456
00000000: cfb4 f641 e2fc 6d41 0077 2641 fc7b 0541
00000010: 4031 df41 ccd7 1941 ad99 ad40 89eb e141
00000020: f087 8540 9bdc 1842 b020 1a40 b729 7541
00000030: 6628 a341 c7ef 5842 72c9 1341 409d db40

bn1.running_var f4 [16]
2715.348 856.8547 623.4107 454.83133 2301.772 645.8654 165.2649 2227.1135
206.81213 3673.669 46.029545 844.6375 1487.7212 7529.124 503.64078 444.53732
00000000: 91b5 2945 b336 5644 49da 1b44 696a e343
00000010: 5adc 0f45 6377 2144 d043 2543 d131 0b45
00000020: e8cf 4e43 b49a 6545 411e 3842 cd28 5344
00000030: 14f7 b944 fe48 eb45 05d2 fb43 c744 de43

conv2.weight f4 [32, 16, 4, 4]
-0.036008462 0.010738093 0.03324792 -0.060413647 0.011004181 -0.035849277 -0.030269977 -0.017278472
-0.047121722 -0.01698268 -0.066064194 0.047937408 0.0042965384 0.023474207 -0.041765057 0.052274395
0.07098496 0.0023744993 0.047554348 0.037503358 0.06425948 0.02677539 -0.016343137 0.0009960112
0.04615931 0.027942996 0.049612645 0.045825604 0.039101996 -0.0018343017 0.026112888 -0.050635498
0.04468531 0.00094708195 0.035396095 -0.015703458 0.00089904707 0.04780993 -0.00928787 -0.045359332
0.024129847 -0.02126665 0.04248491 -0.022942804 -0.019569913 -0.019679563 0.043565474 -0.06525028
0.040747985 0.061039343 -0.029737465 0.04689459 0.005079504 0.06686601 -0.008561138 0.01809178
0.037858784 0.028478488 -0.047887042 0.057158012 0.005361482 -0.028822554 -0.0419678 0.015597442
0.056628756 0.007737122 0.012699486 -0.042693403 8.290249e-05 -0.0044108382 0.0058681713 -0.0022352366
-0.040713828 -0.05017729 -0.03470853 -0.06976837 -0.016390728 -0.006696689 -0.035018608 -0.06636276
-0.0070364494 -0.04725364 0.03710687 0.011370904 0.01617637 0.014193647 -0.029076753 -0.058606803
-0.0016261801 -0.06152941 0.023264652 0.0048285252 -0.0062630335 -0.037450206 0.020280965 0.002818536
0.0015885012 0.040388517 -0.014087465 -0.0018745537 0.0030353358 -0.027041253 -0.010800324 -0.054272067
0.028920367 -0.041745 -0.05395902 0.044762194 0.03163813 -0.005220564 0.029323615 -0.011355541
-0.0047143293 -0.054975327 0.048352133 -0.030966973 -0.04275763 -0.05415037 -0.017147154 -0.04269482
-0.034873076 -0.04575974 -0.0013247302 -0.054895896 -0.03028571 0.034876 -0.029579002 -0.06973768
-0.038539246 0.0047422554 0.058686517 -0.04433133 0.0050414465 0.026392637 -0.029523674 -0.024393145
0.032645132 0.06825013 0.045885768 -0.024475455 0.017719006 0.059534334 0.05379152 -0.002025974
0.016254984 0.05736878 0.0057726023 -0.018215358 -0.0074214246 0.0036769805 -0.012252677 0.040143732
0.013565024 0.02583177 0.013058861 -0.045339525 0.02105946 0.0036556977 -0.07253609 -0.0015930693
0.028063653 -0.028500952 -0.033780787 0.04037564 -0.058761407 -0.01489328 0.014061303 -0.010808011
-0.03728532 -0.041207414 -0.050962295 0.032700762 -0.03264615 -0.031598836 -0.049212877 0.008950555
0.0043151435 0.05764762 0.033772234 0.025586395 0.05042298 -0.031917166 0.033408113 0.025783326
-0.01732748 0.0005897169 0.03117212 0.037148338 -0.041402318 0.048343554 0.0051524076 0.03321445
0.0010645201 -0.01286005 -0.00025927686 -0.0022158644 0.034552757 0.034669366 0.022472654 0.059703775
0.016739326 0.024804454 0.05433519 0.013482931 0.0018349802 -0.036779646 0.036722243 0.008344614
0.015213106 0.041055325 -0.03644679 0.040413924 -0.0013962854 0.017481672 -0.025012294 -0.052349523
0.029489184 -0.018201526 -0.0217045 0.024348529 -0.0048689246 -0.045652747 0.02478479 0.046125155
0.022497993 0.0014920839 0.036362294 0.016860817 -0.06148122 -0.04879169 0.03723971 -0.055274434
-0.0013740197 -0.017772194 0.024362732 -0.04943714 -0.06017961 -0.04340623 0.027628731 0.019767446
0.06275001 0.02011177 0.034988806 0.049745068 -0.04370976 0.017383257 -0.032154046 -0.04037088
0.050340746 -0.0120295985 -0.04076335 0.021634974 -0.012401342 0.057777524 0.023749337 -0.04545098
00000000: 9c7d 13bd d4ee 2f3c f92e 083d 4d74 77bd
00000010: e14a 343c b1d6 12bd bef8 f7bc 958b 8dbc
00000020: b502 41bd 431f 8bbc aa4c 87bd 045a 443d
00000030: fac9 8c3b fb4c c03c d611 2bbd ad1d 563d
00000040: 9060 913d 7d9d 1b3b 59c8 423d 1f9d 193d
00000050: 799a 833d 1058 db3c 0be2 85bc 978c 823a
00000060: 8b11 3d3d b6e8 e43c a136 4b3d a1b3 3b3d
00000070: 6a29 203d f46c f0ba b2ea d53c 2b67 4fbd
00000080: f207 373d 9845 783a 7ffb 103d 8aa4 80bc
00000090: 07ae 6b3a 58d4 433d 262c 18bc b5ca 39bd
000000a0: f5ab c53c 6637 aebc a804 2e3d 8cf2 bbbc
000000b0: 1551 a0bc 0937 a1bc b671 323d f0a1 85bd
000000c0: 5ce7 263d 6404 7a3d fc9b f3bc 8b14 403d
000000d0: f871 a63b 0cf1 883d 0444 0cbc 3635 943c
000000e0: d011 1b3d b84b e93c 3425 44bd 851e 6a3d
000000f0: 5faf af3b 471d ecbc 6ee6 2bbd 6a8c 7f3c
00000100: 8ef3 673d af87 fd3b 8111 503c 47df 2ebd
00000110: efdb ad38 cb88 90bb ca49 c03b 0c7d 12bb
00000120: 8bc3 26bd b486 4dbd 882a 0ebd b8e2 8ebd
00000130: d945 86bc e66f dbbb ac6f 0fbd 33e9 87bd
00000140: 0492 e6bb 088d 41bd 60fd 173d 074d 3a3c
00000150: 4f84 843c 788c 683c 5f32 eebc b00d 70bd
00000160: 8d25 d5ba 4306 7cbd 8395 be3c 9b38 9e3b
00000170: 223a cdbb 6365 19bd 4424 a63c 30b7 383b
00000180: 4135 d03a 6e6e 253d 1ccf 66bc 96b3 f5ba
00000190: 7cec 463b 9e85 ddbc d8f3 30bc 634c 5ebd
000001a0: 68ea ec3c cefc 2abd 2204 5dbd 9058 373d
000001b0: fc96 013d 4411 abbb 1438 f03c 970c 3abc
000001c0: a97a 9abb cf2d 61bd e30c 463d 73ae fdbc
000001d0: a022 2fbd c7cc 5dbd 3078 8cbc c3e0 2ebd
000001e0: 12d7 0ebd 916e 3bbd 92a2 adba 85da 60bd
000001f0: bd19 f8bc 23da 0e3d aa4f f2bc a1d2 8ebd
00000200: 54db 1dbd ec64 9b3b 4661 703d c594 35bd
00000210: b832 a53b 5f35 d83c a2db f1bc 22d4 c7bc
00000220: e7b6 053d b9c6 8b3d b7f2 3b3d c080 c8bc
00000230: 7327 913c 46da 733d 7f54 5c3d 34c6 04bb
00000240: 2c29 853c 87fb 6a3d 1928 bd3b 6038 95bc
00000250: 6c2f f3bb 7ff9 703b 74bf 48bc c16d 243d
00000260: d63f 5e3c 269d d33c d5f4 553c f0b5 39bd
00000270: e384 ac3c 6e94 6f3b cd8d 94bd 89ce d0ba
00000280: bfe5 e53c d47a e9bc b95d 0abd ed60 253d
00000290: cdaf 70bd f202 74bc 6161 663c 1514 31bc
000002a0: 7eb8 18bd 1bc9 28bd d7bd 50bd 3cf1 053d
000002b0: f8b7 05bd c86d 01bd 7193 49bd 59a5 123c
000002c0: 0c66 8d3b e91f 6c3d c154 0a3d 8f9a d13c
000002d0: 5488 4e3d 93bb 02bd f2d6 083d 8e37 d33c
000002e0: 5cf2 8dbc 3b97 1a3a ac5c ff3c db28 183d
000002f0: 7a95 29bd e403 463d 87d5 a83b e00b 083d
00000300: 5e87 8b3a f6b2 52bc 8def 87b9 0938 11bb
00000310: 3187 0d3d 7701 0e3d 9218 b83c f28b 743d
00000320: e920 893c b632 cb3c 948e 5e3d 83e7 5c3c
00000330: b883 f03a 41a6 16bd 106a 163d d9b7 083c
00000340: 6440 793c a129 283d 3b49 15bd 1289 253d
00000350: 9003 b7ba b935 8f3c 95e6 ccbc 746c 56bd
00000360: 4d93 f13c 5e1b 95bc a3cd b1bc 9176 c73c
00000370: 808b 9fbb 60fe 3abd 7909 cb3c bbed 3c3d
00000380: b64d b83c 0792 c33a a1f0 143d b21f 8a3c
00000390: bbd3 7bbd ccd9 47bd ab88 183d 7267 62bd
000003a0: 7318 b4ba fe96 91bc 5a94 c73c 997e 4abd
000003b0: e57e 76bd bbca 31bd a655 e23c 57ef a13c
000003c0: 1483 803d 70c1 a43c 6c50 0f3d 7cc1 4b3d
000003d0: 0109 33bd 5567 8e3c f6b3 03bd f05b 25bd
000003e0: 1932 4e3d cb17 45bc 78f7 26bd d43b b13c
000003f0: 002f 4bbc 20a8 6c3d f88d c23c cf2a 3abd

conv2.bias f4 [32]
0.033349518 -0.008328363 -0.044016413 -0.02177917 0.01849803 0.014785313 0.023740882 -0.036948845
0.015245521 -0.011606072 0.021485386 0.054900423 -0.02120048 0.048914675 0.051690303 0.01697383
0.012585927 0.019695561 -0.04814149 -0.015851079 0.01568635 0.03983966 0.010655284 0.015330048
0.068023644 0.0103830965 -0.058246598 0.007248097 -0.033017524 0.009799242 0.03883873 -0.028769698
00000000: 8199 083d b073 08bc 8e4a 34bd 3b6a b2bc
00000010: 2e89 973c 193e 723c 3d7c c23c ac57 17bd
00000020: 5ac8 793c 6527 3ebc 1f02 b03c 44df 603d
00000030: a1ac adbc c15a 483d 36b9 533d b40c 8b3c
00000040: 3435 4e3c 9658 a13c 0330 45bd 1fda 81bc
00000050: a980 803c e92e 233d 8093 2e3c e22a 7b3c
00000060: fb4f 8b3d dd1d 2a3c fc93 6ebd 7281 ed3b
00000070: 623d 07bd 008d 203c 5c15 1f3d 6eae ebbc

bn2.weight f4 [32]
1.0006319 0.99440587 0.9987576 1.0045475 0.9949714 0.99882925 1.0042338 0.9976258
0.9873062 0.99741167 0.99576646 0.99661463 1.0044521 1.0024773 0.99632436 0.9922818
0.99609315 0.99862885 1.0159403 0.99304366 1.0060108 1.0018535 1.0028085 0.9854572
1.0044388 1.0083611 0.9976472 0.98909557 1.0155416 1.0047058 1.0108261 1.0020616
00000000: b514 803f 6291 7e3f 94ae 7f3f 0395 803f
00000010: 72b6 7e3f 46b3 7f3f bc8a 803f 6864 7f3f
00000020: 19c0 7c3f 5f56 7f3f 8dea 7e3f 2322 7f3f
00000030: e391 803f 2d51 803f 1d0f 7f3f 2e06 7e3f
00000040: f6ff 7e3f 24a6 7f3f 550a 823f 1c38 7e3f
00000050: f6c4 803f bc3c 803f 075c 803f ec46 7c3f
00000060: 7391 803f fa11 813f cf65 7f3f 5e35 7d3f
00000070: 44fd 813f 339a 803f c062 813f 8e43 803f

bn2.bias f4 [32]
0.0023331654 0.0008465274 -0.00016401942 0.0012318204 -0.0013679756 0.0013218111 -0.0012221322 -0.0018718431
-0.0016615622 -0.0012942306 -0.0015205092 -0.0005862029 0.0026189226 0.00023349577 -0.0013196232 0.001748523
-0.0010652386 -0.0021961466 -0.0006727473 -0.00023894105 -0.0016169273 -0.0013832152 0.00017471553 0.0001793632
0.0015141383 -0.00241087 0.0017626217 0.0020993794 -0.00028603987 0.0012193366 0.004804637 -0.0014536094
00000000: 05e8 183b 7ee9 5d3a a1fc 2bb9 0975 a13a
00000010: a54d b3ba 9f40 ad3a f42f a0ba a258 f5ba
00000020: c7c8 d9ba 2ca3 a9ba d34b c7ba 69ab 19ba
00000030: 3ba2 2b3b 8bd6 7439 35f7 acba b22e e53a
00000040: 7a9f 8bba 3aed 0fbb 4f5b 30ba 408c 7ab9
00000050: 14ef d3ba 004d b5ba d833 3739 7113 3c39
00000060: 0d76 c63a b0ff 1dbb c507 e73a be95 093b
00000070: 9ff7 95b9 26d2 9f3a 3770 9d3b 0a87 beba

bn2.running_mean f4 [32]
0.4777817 0.72652847 0.66620004 0.47657862 0.61683166 0.58057356 0.7317281 0.86716354
0.7648876 0.822425 0.5680929 0.7293464 0.7615252 0.9658206 0.68901014 0.46376747
0.76031005 0.5721855 0.40458435 0.6535637 0.49823806 0.74134976 0.5682636 0.6882326
0.5551874 0.44701862 0.4624255 0.5280966 0.5344851 0.6394102 0.56486803 0.86337614
00000000: ce9f f43e c5fd 393f 168c 2a3f 1d02 f43e
00000010: aee8 1d3f 78a0 143f 8852 3b3f 6efe 5d3f
00000020: accf 433f 728a 523f 896e 113f 72b6 3a3f
00000030: 51f3 423f 0540 773f f862 303f ee72 ed3e
00000040: aea3 423f c07a 123f ae25 cf3e f34f 273f
00000050: 0f19 ff3e 19c9 3d3f b979 113f 0330 303f
00000060: c320 0e3f a0df e43e 09c3 ec3e 5731 073f
00000070: 04d4 083f 63b0 233f 319b 103f 3806 5d3f

bn2.running_var f4 [32]
0.2627996 0.4440327 0.43239087 0.33048436 0.43045437 0.44839603 0.45496744 0.70260787
0.42467675 0.4862412 0.3341834 0.44012392 0.61471224 0.7441485 0.33797532 0.27538827
0.4618207 0.28875446 0.18751875 0.51111656 0.29756227 0.6636938 0.35687566 0.5184405
0.25787663 0.2005334 0.2735813 0.20803587 0.33936495 0.34153917 0.2292934 0.54940116
00000000: ab8d 863e 4158 e33e 5662 dd3e 3f35 a93e
00000010: 8464 dc3e 2a94 e53e 7ef1 e83e 1cde 333f
00000020: 3b6f d93e 9bf4 f83e 161a ab3e ec57 e13e
00000030: c85d 1d3f 8480 3e3f 1a0b ad3e b1ff 8c3e
00000040: c373 ec3e a0d7 933e ea04 403e 89d8 023f
00000050: 155a 983e d6e7 293f 68b8 b63e 84b8 043f
00000060: 6808 843e a158 4d3e d912 8c3e 5b07 553e
00000070: 3ec1 ad3e 39de ae3e e4cb 6a3e 8ea5 0c3f

conv3.weight f4 [64, 32, 5, 5]
0.024635505 -0.020412955 0.011030639 -0.027381632 -0.013411404 0.0015054479 0.0006804694 -0.024010083
0.027819388 -0.031989567 -0.008568212 -0.028183121 -0.013145552 0.016992973 -0.0419149 -0.014028812
0.0012878214 -0.01848507 0.007926804 -0.014708952 -0.0021902998 0.032761693 0.027367314 -0.005050237
-0.019615743 -0.024630178 0.013636427 0.0066088983 0.026030052 0.019606205 -0.00220827 0.03762223
-0.017995179 -0.0116514405 -0.036126677 -0.0049367826 0.019274257 -0.02614186 -0.035882067 0.0102524515
-0.0028926658 -0.01957716 0.012733425 -0.0364663 0.01855852 0.012986479 -0.034356795 0.005184028
-0.0008585179 0.03203709 0.016305989 0.017977236 0.0014454795 -0.011338232 -0.03395608 -0.04322969
0.0306796 0.023150364 0.017800886 -0.016358517 -0.011649363 0.030649569 -0.0015864365 0.011904608
0.026309166 0.024971489 -0.011144816 0.021393886 -0.001753214 -0.008355712 0.019021196 0.031871643
-0.019897833 0.0015179304 0.0026842635 -0.033000063 -0.036652055 -0.0032303254 -0.021950962 0.0272376
-0.011896922 0.020249642 0.02050222 -0.008129186 0.015533409 0.017088106 -0.0006298972 -0.003408662
-0.04073706 -0.0010416674 0.028023953 0.0067438907 0.001499553 0.0077358843 0.044223268 -0.014126103
-0.0156619 -0.020479595 -0.0064947708 0.035846528 0.0054014605 0.019594014 -0.017733786 0.030491846
0.02936089 -0.025782336 -0.00987512 -0.017208192 0.0074695474 -0.022624068 -0.0024097294 0.003858254
0.00038111384 -0.02590523 -0.030799499 -0.033773545 0.008701747 0.01067079 0.005145386 -0.0056070206
0.006734641 0.021852357 0.017670384 -0.0025762073 0.004251286 -0.009309917 -0.011153243 -0.02936284
-0.02676817 0.0035407327 0.017328518 0.02761705 -0.015797695 -0.029217908 -0.03493815 0.030420307
0.006855733 -0.028205905 0.025431173 -0.013320637 -0.0044538956 0.00027108454 0.012512851 -0.00021105965
-0.004383484 0.03859518 0.0042242296 0.027262272 0.019580053 0.027208563 -0.03004471 -0.012746288
-0.032911427 -0.04040653 0.0050748526 0.005229792 -0.006387346 -0.027301835 -0.006468013 -0.008472352
-0.004577553 0.025527751 0.0052332976 -0.010630991 0.018733315 0.025698932 0.039297838 0.014265599
0.030853378 -0.024858434 -0.030449111 -0.013470402 -0.025969062 0.0095245335 -0.03428374 0.005071209
0.020419879 -0.034569297 0.0041935523 0.010871709 -0.040238805 4.285535e-05 -0.018316375 0.021799829
-0.020751495 -0.0059127016 -0.005697186 0.003258247 0.01821049 0.0039632753 0.01810771 0.009391518
0.028949516 -0.003921611 0.005540868 -0.03092468 0.0109516755 0.004867136 -0.0055478583 -0.029009175
0.016883284 0.025609953 0.026463285 -0.035238817 0.013782584 -0.0005322703 0.00048731393 0.030049248
-0.01012799 0.013674111 0.018377637 -0.033557322 -0.028044324 0.021458415 -0.00526248 0.0024648674
0.03145622 0.013105566 0.028809447 -0.006673225 0.019728245 -0.033221714 -0.019933362 -0.02842613
-0.0055282735 0.015826717 -0.019155666 0.031370893 -0.015639517 -0.026401034 -0.010296042 0.020060938
-0.017960578 0.013831357 -0.019281905 0.011623221 -0.03543978 0.023731297 -0.013986514 0.009675076
0.0031164396 -0.0049563153 -0.013278101 0.012670369 0.015182588 0.033545893 -0.017812584 -0.0065163374
0.023302924 -0.017855346 3.8698927e-05 0.0054902313 0.005673348 -0.015313579 0.027279798 0.01863924
00000000: 66d0 c93c 1239 a7bc dab9 343c 724f e0bc
00000010: 81bb 5bbc 7352 c53a 8761 323a cbb0 c4bc
00000020: 7ce5 e33c 7e07 03bd b061 0cbc 4ae0 e6bc
00000030: 7160 57bc d934 8b3c f5ae 2bbd 1ad9 65bc
00000040: 1ecc a83a 006e 97bc 6ddf 013c d1fd 70bc
00000050: 228b 0fbb 2031 063d 6b31 e03c 757c a5bb
00000060: 32b1 a0bc 3ac5 c9bc 526b 5f3c 758f d83b
00000070: fa3c d53c 319d a03c 9fb8 10bb c419 1a3d
00000080: a06a 93bc afe5 3ebc 91f9 13bd bcc4 a1bb
00000090: 0ce5 9d3c 7427 d6bc 13f9 12bd e6f9 273c
000000a0: e192 3dbb 4860 a0bc db9f 503c b05d 15bd
000000b0: 0a08 983c 3ec5 543c b6b9 0cbd c7de a93b
000000c0: 290e 61ba 5339 033d 2394 853c ff44 933c
000000d0: 3e76 bd3a fec3 39bc 8815 0bbd 9e11 31bd
000000e0: c953 fb3c d5a5 bd3c 2ad3 913c 4c02 86bc
000000f0: f8dc 3ebc ce14 fb3c faef cfba 8c0b 433c
00000100: 5286 d73c 0291 cc3c bf98 36bc 3b42 af3c
00000110: 1acc e5ba 65e6 08bc 57d2 9b3c d78b 023d
00000120: c800 a3bc 4bf5 c63a 78ea 2f3b 132b 07bd
00000130: 7720 16bd deb3 53bb 81d2 b3bc 6321 df3c
00000140: 4feb 42bc 94e2 a53c 46f4 a73c 4730 05bc
00000150: d77f 7e3c 5bfc 8b3c af1f 25ba dc63 5fbb
00000160: e7db 26bd 8f88 88ba 7d92 e53c dbfb dc3b
00000170: a68c c43a 4d7d fd3b 7523 353d 2c71 67bc
00000180: 634d 80bc d3c4 a7bc 16d2 d4bb cfd3 123d
00000190: bcfe b03b a083 a03c 7246 91bc 09ca f93c
000001a0: 4086 f03c 7a35 d3bc 41cb 21bc 32f8 8cbc
000001b0: 1bc3 f43b 1c56 b9bc 8dec 1dbb c3da 7c3b
000001c0: 3cd0 c739 3437 d4bc 3b4f fcbc 2156 0abd
000001d0: c691 0e3c 8ad4 2e3c a09a a83b 19bb b7bb
000001e0: 43ae dc3b b703 b33c 7bc1 903c 96d5 28bb
000001f0: 5f4e 8b3b 9f88 18bc 17bc 36bc 578a f0bc
00000200: ec48 dbbc a30b 683b 89f4 8d3c 273d e23c
00000210: 2b6a 81bc 655a efbc 4e1b 0fbd 0234 f93c
00000220: 0fa6 e03b 1210 e7bc 0955 d03c cd3e 5abc
00000230: fcf1 91bb 5a20 8e39 b302 4d3c e54f 5db9
00000240: 54a3 8fbb fb15 1e3d 686b 8a3b 2155 df3c
00000250: 5966 a03c 7ee4 de3c 5320 f6bc cfd5 50bc
00000260: 22ce 06bd 5181 25bd f34a a63b ad5e ab3b
00000270: f14c d1bb 19a8 dfbc a0f1 d3bb 9fcf 0abc
00000280: 4cff 95bb 931f d13c 157c ab3b 9c2d 2ebc
00000290: 9c76 993c 9186 d23c c5f6 203d 42ba 693c
000002a0: 39c0 fc3c eaa3 cbbc 6a70 f9bc f6b2 5cbc
000002b0: 12bd d4bc ca0c 1c3c 1b6d 0cbd 622c a63b
000002c0: 9747 a73c 8998 0dbd 116a 893b 411f 323c
000002d0: 72d1 24bd 95bf 3338 390c 96bc 8e95 b23c
000002e0: 0aff a9bc 56bf c1bb 76af babb 5088 553b
000002f0: 2a2e 953c 5dde 813b 9f56 943c e2de 193c
00000300: 8927 ed3c db80 80bb 2b90 b53b c155 fdbc
00000310: a86e 333c 7f7c 9f3b cfca b5bb a6a4 edbc
00000320: d04e 8a3c f7cb d13c 88c9 d83c 9456 10bd
00000330: 59d0 613c 0e88 0bba 2b7e ff39 d729 f63c
00000340: deef 25bc 6109 603c b38c 963c 6773 09bd
00000350: 36bd e5bc 8fc9 af3c e270 acbb 9d89 213b
00000360: 3dd8 003d bab8 563c ca01 ec3c 12ab dabb
00000370: 219d a13c 7e13 08bd 4a4b a3bc eadd e8bc
00000380: 8526 b5bb 08a7 813c 58ec 9cbc c47e 003d
00000390: 721e 80bc fb46 d8bc bbb0 28bc d656 a43c
000003a0: 1022 93bc ea9c 623c 16f5 9dbc 536f 3e3c
000003b0: 4e29 11bd 2368 c23c b127 65bc 3684 1e3c
000003c0: 2e3d 4c3b 9668 a2bb 648c 59bc 6197 4f3c
000003d0: 64c0 783c 6b67 093d b2eb 91bc 0087 d5bb
000003e0: c6e5 be3c 6045 92bc a850 2238 66e7 b33b
000003f0: 7ee7 b93b cee5 7abc e279 df3c 52b1 983c

conv3.bias f4 [64]
0.021594131 -0.029473705 0.00038947636 -0.011711128 -0.005569012 -0.0019060405 0.005581636 0.012421679
0.013096499 -0.010956154 -0.00977353 0.025730882 0.034336865 0.014256487 -0.02838656 -0.007285941
-0.021202141 -0.0099028945 -0.029821169 -0.025744056 0.023138009 -0.026783282 -0.027318658 -0.009210153
0.013023169 -0.029320594 0.028448662 0.000733799 0.034819033 0.0067194677 0.012046746 0.037359145
0.0019426153 0.0058969436 0.0014500218 -0.012023515 0.0043631266 0.033824474 0.0010493668 -0.020562232
-0.016797697 0.024344243 -0.0058496133 -0.012187311 -0.024982324 -0.017103454 0.014692868 0.0004873772
0.0056002056 -0.022491777 0.0128863985 -0.024569344 0.0036541682 0.009972623 -0.025420295 -0.03477683
-0.011411906 0.029714067 0.008622256 0.02210762 -0.02414368 -0.016660914 0.033640083 0.022738026
00000000: 2de6 b03c d772 f1bc a232 cc39 08e0 3fbc
00000010: 427c b6bb 1bd4 f9ba 28e6 b63b 4c84 4b3c
00000020: b392 563c 7181 33bc 2821 20bc 92c9 d23c
00000030: d0a4 0c3d 0a94 693c ee8a e8bc e7be eebb
00000040: 1db0 adbc c03f 22bc 864b f4bc 33e5 d2bc
00000050: ec8b bd3c 9d68 dbbc 61cb dfbc 2ee6 16bc
00000060: 215f 553c be31 f0bc 2b0d e93c 6b5c 403a
00000070: 679e 0e3d fb2e dc3b b75f 453c e705 193d
00000080: 5a9f fe3a 263b c13b a80e be3a 47fe 44bc
00000090: 8ff8 8e3b 888b 0a3d e88a 893a 2072 a8bc
000000a0: 539b 89bc 946d c73c 1dae bfbb 4aad 47bc
000000b0: bba7 ccbc 8b1c 8cbc 5bba 703c a986 ff39
000000c0: ee81 b73b ad40 b8bc 7921 533c a645 c9bc
000000d0: c57a 6f3b 3664 233c 393e d0bc 2672 0ebd
000000e0: 01f9 3abc ea6a f33c 5d44 0d3c 0a1b b53c
000000f0: f8c8 c5bc 787c 88bc 2fca 093d 1945 ba3c

bn3.weight f4 [64]
1.0124794 1.0187573 0.9989467 1.0016301 0.9973522 0.9922354 0.99775344 0.99107987
0.9857266 0.9859306 1.0022253 0.9881101 1.0014032 0.99615 1.0009774 0.99602246
1.0118052 0.9980633 0.99313444 0.99648154 0.9884033 1.0104159 1.0000998 0.9921857
0.99367493 0.99849266 0.9942244 0.984168 1.0146477 1.003079 1.0033883 1.0033025
0.99689394 0.9903128 1.0058819 0.99770695 0.99334925 1.019897 1.0019153 1.0018883
0.99585813 1.0120095 1.0034546 1.0031637 1.0027927 0.9939196 1.0053226 1.0089321
0.99639106 1.0059638 0.9981142 0.9894988 1.004484 1.0165844 0.9914572 0.9933011
1.00417 1.0046654 1.0125548 0.9968256 1.0010078 0.99035615 0.9985861 1.0078819
00000000: ed98 813f a466 823f f9ba 7f3f 6a35 803f
00000010: 7952 7f3f 2403 7e3f c56c 7f3f 69b7 7d3f
00000020: 9458 7c3f f365 7c3f eb48 803f c9f4 7c3f
00000030: fb2d 803f b003 7f3f 0720 803f 54fb 7e3f
00000040: d582 813f 1481 7f3f 0f3e 7e3f 6a19 7f3f
00000050: 0008 7d3f 4f55 813f 4503 803f e2ff 7d3f
00000060: 7b61 7e3f 379d 7f3f 7e85 7e3f 6ff2 7b3f
00000070: fadf 813f e564 803f 076f 803f 376c 803f
00000080: 7134 7f3f 2485 7d3f bdc0 803f b969 7f3f
00000090: 234c 7e3f fc8b 823f c33e 803f e03d 803f
000000a0: 8ff0 7e3f 8789 813f 3371 803f ab67 803f
000000b0: 835b 803f 8471 7e3f 69ae 803f b024 813f
000000c0: 7c13 7f3f 6cc3 803f 6a84 7f3f cb4f 7d3f
000000d0: ef92 803f 701f 823f 24d0 7d3f fb48 7e3f
000000e0: a488 803f e098 803f 659b 813f f62f 7f3f
000000f0: 0621 803f fb87 7d3f 57a3 7f3f 4602 813f

bn3.bias f4 [64]
-0.0018906753 -0.0036414869 -0.004102995 0.0009302412 0.002167743 -0.0032251803 0.00022992642 0.0012111425
0.00032980554 0.0019656047 0.0032650644 0.0026005795 0.004718386 0.0009830825 0.0018672722 0.003929156
-0.0029811815 -0.0014700923 -0.000513225 0.0022172816 0.004117204 0.0049453704 -0.0006136132 0.003127854
-0.0015597405 0.002513032 0.0030493303 -0.0058649583 0.0014137616 -0.00017854526 0.004374512 0.004149851
0.006970689 -0.0035379226 0.0022212637 -0.0046390137 0.0015209512 -0.0018284008 0.004800927 -0.0008080556
0.0023204144 -0.0016738346 0.0013171193 -0.0013578361 -0.0035043687 0.0019048325 0.0039612553 -0.007666787
-0.00195296 0.00347509 0.0020373564 -0.0029137672 -0.0032228797 -0.00051183766 0.0047031906 -0.0009679599
-0.0016751278 0.004805145 -0.002799673 -0.007149689 0.0025008558 0.0051646247 -7.531832e-05 0.002119629
00000000: 89d0 f7ba 03a6 6ebb 6b72 86bb 6edb 733a
00000010: b110 0e3b 8c5d 53bb 6718 7139 33bf 9e3a
00000020: c0e9 ac39 60d1 003b b1fa 553b 7c6e 2a3b
00000030: b19c 9a3b c6da 803a 42bf f43a 26c0 803b
00000040: ed5f 43bb 1db0 c0ba f289 06ba d04f 113b
00000050: 9ce9 863b c60c a23b e3da 20ba affc 4c3b
00000060: 3570 ccba aeb1 243b 46d7 473b d62e c0bb
00000070: f84d b93a e137 3bb9 1158 8f3b 79fb 873b
00000080: 616a e43b 7edc 67bb 9f92 113b de02 98bb
00000090: a75a c73a f3a6 efba 1851 9d3b b2d3 53ba
000000a0: 1812 183b 9264 dbba 31a3 ac3a 6bf9 b1ba
000000b0: 8da9 65bb 93ab f93a 6bcd 813b ac39 fbbb
000000c0: 77fa ffba 56be 633b 2b85 053b e7f4 3ebb
000000d0: f336 53bb d82c 06ba 391d 9a3b b0be 7dba
000000e0: f68f dbba 7a74 9d3b b87a 37bb f047 eabb
000000f0: 66e5 233b 033c a93b 37f4 9db8 79e9 0a3b

bn3.running_mean f4 [64]
0.18425016 0.4414149 0.4954295 0.46993473 0.6422275 0.12069926 0.3680799 0.49852085
0.5036103 0.2576319 0.25608262 0.40549225 0.5442311 0.24641854 0.49138466 0.25075787
0.22672677 0.21954192 0.22803119 0.42363772 0.73234206 1.0373377 0.5811956 0.3569693
0.56416655 0.09484893 0.34831357 0.19165565 0.9327827 0.29347143 0.49891353 0.4625141
0.5825764 0.18006428 0.25498393 0.066399544 0.39523366 0.53677833 0.6209803 0.3270522
0.3600221 0.63658273 0.6059779 0.456404 0.18428564 0.7001819 0.4143393 0.42615372
0.65523994 0.46005195 0.25676012 0.2164587 0.20828925 0.2302661 0.7221349 0.27252683
0.47433624 0.39113253 0.7593279 0.392031 0.7814346 0.25737143 0.52353114 0.26040578
00000000: 13ac 3c3e 2201 e23e efa8 fd3e 499b f03e
00000010: 0569 243f 2c31 f73d f874 bc3e 203e ff3e
00000020: 9bec 003f 54e8 833e 431d 833e ae9c cf3e
00000030: bb52 0b3f 2455 7c3e c596 fb3e 5663 803e
00000040: 102b 683e 99cf 603e 0281 693e 0be7 d83e
00000050: c57a 3b3f 7bc7 843f 3cc9 143f aec4 b63e
00000060: 386d 103f 2840 c23d 2856 b23e 6141 443e
00000070: d9ca 6e3f e341 963e 9871 ff3e a6ce ec3e
00000080: ba23 153f c562 383e 418d 823e 7cfc 873d
00000090: 115c ca3e 4e6a 093f 91f8 1e3f 6373 a73e
000000a0: d154 b83e 16f7 223f 5e21 1b3f c9ad e93e
000000b0: 60b5 3c3e 1f3f 333f 4824 d43e d230 da3e
000000c0: cebd 273f ee8b eb3e 1076 833e 59a7 5d3e
000000d0: c749 553e e0ca 6b3e d5dd 383f a388 8b3e
000000e0: 33dc f23e 8642 c83e 5063 423f 4ab8 c83e
000000f0: 190c 483f 30c6 833e 2306 063f e853 853e

bn3.running_var f4 [64]
0.16863191 0.24393725 0.348855 0.20987484 0.34138322 0.11260541 0.23213366 0.23261589
0.32443503 0.20765708 0.11538078 0.2585835 0.24123459 0.12489449 0.32097316 0.2095687
0.12653294 0.17882599 0.13302864 0.2882873 0.25943536 0.3339189 0.3386822 0.1717652
0.2304117 0.062489748 0.2914408 0.117160834 0.366984 0.1768724 0.28069526 0.39216977
0.36293143 0.17617616 0.25788617 0.07508354 0.1741793 0.41913396 0.36492786 0.20318738
0.23660861 0.33961776 0.27921963 0.3458159 0.109432936 0.38802594 0.18197583 0.30553028
0.25561056 0.3545842 0.19807121 0.16218297 0.169405 0.2497158 0.45481095 0.18812907
0.35012135 0.24397266 0.40848896 0.6317971 0.2480386 0.16883852 0.26340592 0.2072248
00000000: d8ad 2c3e b0ca 793e 1f9d b23e 6ee9 563e
00000010: c8c9 ae3e aa9d e63d 72b4 6d3e dc32 6e3e
00000020: 591c a63e 0fa4 543e c24c ec3d 0e65 843e
00000030: 3306 773e afc8 ff3d 9856 a43e 2d99 563e
00000040: da91 013e 291e 373e a938 083e 659a 933e
00000050: b6d4 843e 6bf7 aa3e c167 ad3e 37e3 2f3e
00000060: 0bf1 6b3e 40f5 7f3d bb37 953e 05f2 ef3d
00000070: 54e5 bb3e 0a1e 353e 4ab7 8f3e 7aca c83e
00000080: 26d2 b93e 8667 343e a809 843e 66c5 993d
00000090: 0f5c 323e ba98 d63e d3d7 ba3e 5a10 503e
000000a0: 8749 723e 61e2 ad3e e0f5 8e3e c80e b13e
000000b0: 601e e03d 56ab c63e df57 3a3e 776e 9c3e
000000c0: 63df 823e 0f8c b53e 2ed3 4a3e 4b13 263e
000000d0: 8178 2d3e 80b5 7f3e fbdc e83e e8a4 403e
000000e0: 1b43 b33e f8d3 793e 7725 d13e 74bd 213f
000000f0: d5fd 7d3e 01e4 2c3e 24dd 863e bd32 543e

fc1.weight f4 [256, 64]
0.08892031 -0.018504813 -0.047580753 0.057053763 0.09015443 0.024238236 -0.025318356 -0.05611195
0.031177795 0.04343525 -0.08193527 -0.019906035 0.09810837 -0.096747085 0.120485626 0.024506142
0.032072596 0.10544988 -0.08906212 -0.09534803 0.09236359 0.07166742 -0.063819505 -0.047231656
-0.09999131 0.083258405 0.10289699 -0.096888274 -0.122143134 0.104114935 -0.02848596 0.12224278
-0.012758122 0.035195656 0.011176351 -0.05796461 -0.063343324 0.10865355 0.08513106 0.06963285
0.038480587 -0.06771218 0.11194985 -0.04355598 0.086144745 0.08456532 -0.031344634 -0.019646307
0.032691233 0.09486902 0.10411821 -0.0022142907 -0.10313602 0.085118815 0.067413874 0.024577696
0.10259608 0.0051494935 0.022277104 0.11616936 -0.11318385 0.007030421 -0.03851607 -0.087681845
0.113654286 -0.024222488 -0.122658506 -0.043628242 -0.047897596 0.10525961 0.04359007 0.10588898
0.050988674 -0.029057452 -0.002411522 -0.10504904 -0.030694153 -0.11673847 -0.09546948 -0.03725359
0.12881675 -0.059626482 0.03867697 -0.03067263 -0.0016611326 -0.05830282 0.053175855 -0.061999757
0.041759215 0.06469004 0.014377858 -0.01408766 0.107989214 0.037356272 0.079969294 0.079054885
0.07313952 -0.09846953 0.03784831 0.08992078 0.07475058 0.047193706 -0.035236325 -0.11528172
0.03824466 0.080552235 -0.06806084 0.07993078 0.05871299 -0.041882083 0.098665595 -0.037644256
-0.06752336 -0.08280534 -0.09402893 0.092229344 -0.016105242 0.07056815 0.052100707 0.03140871
-0.06395108 -0.0935916 -0.029248813 0.050361503 0.049093377 0.06911994 -0.070254155 0.022062311
-0.06002444 -0.11594181 0.04626918 -0.09038502 0.09048205 -0.09326371 -0.10140998 0.007936302
-0.09201528 -0.059666403 0.11564448 -0.013778993 0.042106777 0.06986666 -0.11879505 0.0639851
-0.10841051 -0.09707707 -0.035911985 0.01552886 0.040836103 0.025789497 -0.05481304 -0.028254556
0.0012039251 0.06743582 0.13133465 -0.09687743 0.10886346 -0.12035499 -0.08035145 0.10505105
-0.10993377 0.11756439 -0.12708896 0.058780886 0.11651927 0.0054361303 0.103440575 0.051869065
-0.086671986 0.0006721624 -0.036234997 -0.118881084 -0.06260181 -0.021797577 -0.025029847 0.09065865
0.050613083 0.009414394 -0.100935735 -0.00044602985 -0.080731474 0.043529846 0.05732563 0.07802311
-0.04385598 -0.012186984 -0.10878864 -0.099974826 0.10803809 -0.062463142 0.109924294 -0.07114184
-0.028277993 -0.035111204 0.040631328 -0.024818763 0.016281657 0.094536185 -0.071735695 0.117895074
0.049117632 0.028456008 0.000675182 0.006825978 0.00019684923 -0.08670198 -0.05439074 0.09112601
-0.008896573 -0.05660208 0.08718094 -0.049255572 -0.044181738 -0.041334346 -0.06199644 -0.050230935
-0.06587602 -0.07419237 -0.10653818 -0.10655747 -0.019437743 -0.11325099 0.100079454 0.08441074
0.0824407 0.10444068 0.02661547 0.016718633 0.096857086 -0.032327145 0.043575246 0.041274782
-0.05756963 -0.090024814 -0.033900037 0.034580372 0.08197495 0.050575204 0.047372583 0.036136787
0.051089704 -0.09047638 0.016789185 -0.06896821 0.10475629 0.017022438 0.07282736 -0.09566867
0.06353034 -0.0886538 0.046829265 0.022190537 -0.039196953 -0.070127554 0.07745107 -0.07341996
00000000: da1b b63d 6897 97bc 09e4 42bd 35b1 693d
00000010: e3a2 b83d 448f c63c 7168 cfbc a5d5 65bd
00000020: 9368 ff3c 29e9 313d aecd a7bd fb11 a3bc
00000030: 0bed c83d 5623 c6bd 2bc1 f63d 1bc1 c83c
00000040: 8e5e 033d 1bf6 d73d 3366 b6bd d445 c3bd
00000050: 1f29 bd3d 5ec6 923d cdb3 82bd fb75 41bd
00000060: 3ec8 ccbd 6283 aa3d a8bb d23d 5c6d c6bd
00000070: 2e26 fabd 363a d53d 635b e9bc 6c5a fa3d
00000080: 7107 51bc 5229 103d 041d 373c 4d6c 6dbd
00000090: 25ba 81bd c185 de3d 3159 ae3d ab9b 8e3d
000000a0: d29d 1d3d afac 8abd f745 e53d c167 32bd
000000b0: a86c b03d 9530 ad3d 3b63 00bd 4bf1 a0bc
000000c0: 3ee7 053d b04a c23d ee3b d53d a21d 11bb
000000d0: fa38 d3bd c652 ae3d 4910 8a3d 2a57 c93c
000000e0: e51d d23d 15bd a83b 797e b63c 34ea ed3d
000000f0: efcc e7bd 725f e63b 07c3 1dbd 8a92 b3bd
00000100: 94c3 e83d 3d6e c6bc 6234 fbbd 87b3 32bd
00000110: 4530 44bd 5a92 d73d 808b 323d 52dc d83d
00000120: 80d9 503d e509 eebc a00a 1ebb f323 d7bd
00000130: 4e72 fbbc 9414 efbd 8185 c3bd 3897 18bd
00000140: 8ae8 033e e63a 74bd be6b 1e3d 2b45 fbbc
00000150: 5cba d9ba f0ce 6ebd edce 593d 75f3 7dbd
00000160: b60b 2b3d 367c 843d 1b91 6b3c eecf 66bc
00000170: 7329 dd3d e402 193d f1c6 a33d 87e7 a13d
00000180: 2cca 953d 65aa c9bd d406 1b3d 6328 b83d
00000190: d516 993d 304e 413d f753 10bd d318 ecbd
000001a0: 6fa6 1c3d 92f8 a43d 7b63 8bbd c0b2 a33d
000001b0: 087d 703d 8c8c 2bbd 3011 ca3d dd30 1abd
000001c0: b049 8abd d995 a9bd 3d92 c0bd bde2 bc3d
000001d0: 24ef 83bc 0986 903d 8d67 553d 6ba6 003d
000001e0: c9f8 82bd f4ac bfbd 359b efbc dd47 4e3d
000001f0: 2316 493d c18e 8d3d 69e1 8fbd 05bc b43c
00000200: 30dc 75bd e672 edbd c084 3d3d c81b b9bd
00000210: a74e b93d 0b01 bfbd 09b0 cfbd 4307 023c
00000220: 8272 bcbd c264 74bd 03d7 ec3d 49c1 61bc
00000230: 2878 2c3d 4016 8f3d d24a f3bd 9f0a 833d
00000240: 5406 debd 58d0 c6bd 7218 13bd c26c 7e3c
00000250: c243 273d 7f44 d33c a383 60bd 1976 e7bc
00000260: 06cd 9d3a cb1b 8a3d 977c 063e ad67 c6bd
00000270: cef3 de3d ad7c f6bd 4d8f a4bd 0125 d73d
00000280: f524 e1bd 99c5 f03d 9c23 02be 3ac4 703d
00000290: a8a1 ee3d 9121 b23b a7d8 d33d a874 543d
000002a0: 1581 b1bd 0e34 303a 266b 14bd ed77 f3bd
000002b0: 6135 80bd d590 b2bc 650b cdbc 3eab b93d
000002c0: aa4f 4f3d d53e 1a3c 65b7 cebd 1dd9 e9b9
000002d0: 8b56 a5bd 5a4c 323d 48ce 6a3d 95ca 9f3d
000002e0: 54a2 33bd eaab 47bc 94cc debd 9abf ccbd
000002f0: 1343 dd3d 5ad9 7fbd fd1f e13d d0b2 91bd
00000300: 40a7 e7bc c4d0 0fbd 096d 263d b850 cbbc
00000310: 1c61 853c 309c c13d 2aea 92bd f972 f13d
00000320: 922f 493d 931c e93c b2fe 303a 74ac df3b
00000330: 5069 4e39 cf90 b1bd d3c8 5ebd 46a0 ba3d
00000340: efc2 11bc 95d7 67bd ec8b b23d 36c0 49bd
00000350: e9f7 34bd 344e 29bd fbef 7dbd f4be 4dbd
00000360: 02ea 86bd 2bf2 97bd b030 dabd ce3a dabd
00000370: e73b 9fbc 23f0 e7bd 75f6 cc3d 8adf ac3d
00000380: abd6 a83d ffe4 d53d b008 da3c 84f5 883c
00000390: 025d c63d 7869 04bd f57b 323d bf0f 293d
000003a0: 22ce 6bbd ee5e b8bd c4da 0abd 26a4 0d3d
000003b0: 7ce2 a73d f227 4f3d c109 423d 2b04 143d
000003c0: 7043 513d ae4b b9bd 7989 893c 343f 8dbd
000003d0: 778a d63d a472 8b3c 8326 953d f0ed c3bd
000003e0: 321c 823d 2090 b5bd 0bd0 3f3d eec8 b53c
000003f0: fc8c 20bd 099f 8fbd ab9e 9e3d 345d 96bd

fc1.bias f4 [256]
0.027840253 0.063699685 -0.0047780536 0.06530645 -0.011088697 0.055404507 0.05452305 0.071814924
0.113322794 -0.002371555 0.04083393 0.09956109 -0.07075164 -0.012251413 0.043668672 -0.014702866
-0.072239645 0.085371986 -0.11738688 -0.08450546 -0.1109525 0.10820238 0.0064292885 0.001954218
0.024830151 -0.029964833 -0.11632531 0.040475942 -0.08141549 0.06381162 -0.09685176 -0.109250255
0.11738087 0.0066049653 -0.04955861 0.07133681 -0.03458105 -0.09412983 0.08113106 -0.07331208
0.040954158 0.117872305 -0.03819953 0.09279948 -0.102743216 0.0691277 0.05900004 0.10731116
-0.07652335 -0.002963641 0.06882107 0.04920737 -0.0912262 -0.11187888 -0.01870634 0.021570357
0.06466311 0.04146849 0.09634962 0.10835386 0.070221044 0.08797028 0.1028999 -0.11266654
-0.030685153 -0.018922072 0.09544952 0.109712325 -0.10539204 -0.09999059 0.08658547 -0.042635772
0.057862595 -0.037906248 -0.04614952 0.11400965 0.120300844 0.11657827 0.12518783 0.029507846
0.124729045 -0.028557817 0.11906901 0.0055248993 -0.07890594 0.10345435 0.08302594 0.009348013
0.019966342 0.05013529 0.003752693 -0.12099957 0.015663201 0.054102186 -0.08200308 -0.095733725
0.08831696 -0.08948417 0.094527915 -0.009068586 0.0212913 0.09659145 0.04712449 -0.12185432
0.006728537 0.08758595 -0.118205234 0.08816596 0.1242183 -0.030440995 0.0869453 0.016379017
-0.090440676 0.07165442 0.040185127 0.0049322983 0.033714768 0.11123766 0.045767978 -0.052318007
-0.07507543 -0.10982056 0.0032359501 -0.1191064 -0.081239454 -0.044432744 0.076818384 0.025860861
0.12826398 -0.089782886 -0.017483322 -0.019693336 0.021745114 -0.10638291 0.078680955 -0.10991593
0.0065443134 0.03177265 -0.055265173 0.04788905 0.04119689 0.08241781 0.09429771 -0.008597899
0.046967614 0.09130101 -0.05323585 0.02860988 0.012962601 0.06538519 0.041499764 -0.039583445
-0.008090011 0.058481053 0.022741025 -0.10395614 0.07780621 -0.11820197 0.036650848 -0.032033548
0.06301081 -0.0020267654 -0.030859098 0.062269535 0.038125645 -0.093385264 -0.058048844 -0.08694254
0.09267605 -0.038910117 0.06017755 0.07755689 0.0968264 -0.06032752 0.09858878 0.0072067124
0.047836266 -0.090371214 -0.07243887 0.12376426 -0.10696032 -0.08944227 0.10664692 0.0082104765
-0.12227426 0.122766405 -0.107108355 -0.06209532 0.05119258 0.04123726 -0.05389921 0.082431674
-0.09922599 0.08129162 0.103824265 -0.028124994 -0.011907217 0.12805864 -0.119338155 0.1097541
0.07064738 -0.070886105 0.107902616 -0.10315407 0.10832258 -0.11226016 0.0100399805 0.06239733
-0.08647093 0.023712644 -0.05721685 -0.044122156 -0.10887533 0.0735351 0.07253196 0.051015858
-0.09228981 0.056991555 0.06576566 0.020219851 -0.09169225 -0.11056895 -0.11985424 -0.027392581
-0.11314503 -0.096838415 0.030679433 -0.114468925 -0.028809888 -0.08328068 0.091460176 0.020572795
0.066970795 -0.11475926 -0.05003761 0.06726518 0.07148397 0.107995555 0.03522412 0.06808149
0.12273283 -0.07355674 0.06207143 0.11108354 0.0361651 0.10278965 0.002441339 -0.09965806
-0.0014274113 0.053129576 0.11742367 0.032498017 -0.10205088 0.036959708 0.040763576 -0.011681228
00000000: 3e11 e43c fb74 823d 3891 9cbb 63bf 853d
00000010: 5ead 35bc d6ef 623d 9053 5f3d b413 933d
00000020: c815 e83d 176c 1bbb 7b41 273d afe6 cb3d
00000030: 3ce6 90bd 27ba 48bc ecdd 323d 4ae4 70bc
00000040: 61f2 93bd 82d7 ae3d 8868 f0bd 3311 adbd
00000050: 103b e3bd 3699 dd3d c8ac d23b 5612 003b
00000060: 9a68 cb3c cf78 f5bc f73b eebd 1aca 253d
00000070: 2abd a6bd abaf 823d 375a c6bd 99be dfbd
00000080: 6265 f03d 776e d83b f8fd 4abd 0919 923d
00000090: dca4 0dbd 24c7 c0bd 0b28 a63d a524 96bd
000000a0: 8cbf 273d 0967 f13d 1c77 1cbd a70d be3d
000000b0: 096b d2bd d392 8d3d 07aa 713d f4c5 db3d
000000c0: 46b8 9cbd a539 42bb 10f2 8c3d ab8d 493d
000000d0: cdd4 babd c120 e5bd 0a3e 99bc 51b4 b03c
000000e0: 186e 843d ddda 293d f352 c53d a1e8 dd3d
000000f0: 0dd0 8f3d c329 b43d 2fbd d23d b7bd e6bd
00000100: 6e5f fbbc 7602 9bbc 0a7b c33d dbb0 e03d
00000110: c8d7 d7bd dec7 ccbd b953 b13d d9a2 2ebd
00000120: 5401 6d3d 9543 1bbd 4707 3dbd e47d e93d
00000130: 4a60 f63d 97c0 ee3d 3d31 003e 70ba f13c
00000140: f171 ff3d 15f2 e9bc 74da f33d 370a b53b
00000150: 7099 a1bd e0df d33d 8109 aa3d 6928 193c
00000160: 7490 a33c a95a 4d3d beef 753b 9fce f7bd
00000170: 1d50 803c 419a 5d3d 3bf1 a7bd 0b10 c4bd
00000180: 86df b43d 7a43 b7bd da97 c13d 6894 14bc
00000190: 186b ae3c bdd1 c53d 9c05 413d c28e f9bd
000001a0: 0f7b dc3b 4360 b33d 9615 f2bd 5b90 b43d
000001b0: 2a66 fe3d 655f f9bc 6110 b23d 4a2d 863c
000001c0: f638 b9bd 8dbf 923d 2999 243d 1e9f a13b
000001d0: 7f18 0a3d 92d0 e33d 3477 3b3d 684b 56bd
000001e0: 26c1 99bd 9ae9 e0bd 3c12 543b 0eee f3bd
000001f0: df60 a6bd 1cff 35bd f552 9d3d 28da d33c
00000200: a257 033e 17e0 b7bd 2f39 8fbc eb53 a1bc
00000210: cf22 b23c 48df d9bd 7b23 a13d 9a1b e1bd
00000220: ae71 d63b 0a24 023d bc5d 62bd 4f27 443d
00000230: 12be 283d abca a83d 281f c13d 34de 0cbc
00000240: 1d61 403d 06fc ba3d d60d 5abd 445f ea3c
00000250: 1761 543c ace8 853d a8fb 293d 4022 22bd
00000260: f78b 04bc d489 6f3d 634b ba3c f5e6 d4bd
00000270: dd58 9f3d e013 f2bd 331f 163d 9c35 03bd
00000280: d00b 813d 7bd3 04bb 38cc fcbc 570e 7f3d
00000290: a329 1c3d c640 bfbd a0c4 6dbd ee0e b2bd
000002a0: f1cc bd3d 3760 1fbd bc7c 763d 26d6 9e3d
000002b0: eb4c c63d fd19 77bd eae8 c93d 4926 ec3b
000002c0: f6ef 433d 8b14 b9bd d55a 94bd 1e78 fd3d
000002d0: 030e dbbd 822d b7bd b369 da3d 3c85 063c
000002e0: ed6a fabd f46c fb3d a05b dbbd aa57 7ebd
000002f0: 50af 513d 67e8 283d 6bc5 5cbd f0d1 a83d
00000300: ff36 cbbd 397c a63d d1a1 d43d 6366 e6bc
00000310: 7d16 43bc ce21 033e 9067 f4bd c2c6 e03d
00000320: 93af 903d bc2c 91bd 0cfc dc3d 7142 d3bd
00000330: 3bd8 dd3d a8e8 e5bd bb7e 243c 5894 7f3d
00000340: ac17 b1bd 0541 c23c 375c 6abd 6fb9 34bd
00000350: 07fa debd 9299 963d a38b 943d 01f6 503d
00000360: 7102 bdbd fa6f 693d 25b0 863d 1aa4 a53c
00000370: 25c9 bbbd f971 e2bd 2476 f5bd 6866 e0bc
00000380: 95b8 e7bd 3853 c6bd 6f53 fb3c af6e eabd
00000390: b702 ecbc 108f aabd 794f bb3d 4788 a83c
000003a0: fc27 893d e706 ebbd 3df4 4cbd 54c2 893d
000003b0: 3066 923d c62c dd3d 2b47 103d 4f6e 8b3d
000003c0: 5a5b fb3d eba4 96bd 9d3e 7e3d c47f e33d
000003d0: db21 143d 6183 d23d dffe 1f3b 8619 ccbd
000003e0: fa17 bbba 669e 593d d27b f03d a41c 053d
000003f0: 0d00 d1bd 1063 173d b5f7 263d 9f62 3fbc

bn4.weight f4 [256]
1.0160254 1.0043757 1.0070235 1.0026004 1.0087568 1.0040462 0.9995506 1.0087941
1.0093843 1.0062 1.0054146 1.0092967 1.0026398 1.0027888 1.0016481 1.0017494
1.0081223 1.0063894 1.0047785 1.0100436 1.0056298 1.0036908 1.0029674 1.0022565
1.0046644 1.0057129 1.0041603 1.0036768 0.9999802 1.0110049 1.0058333 1.0029948
1.0071465 1.0025192 1.0063522 1.0023861 1.0026844 1.0099107 1.0074984 1.0150499
1.0081036 1.0063572 1.0024754 0.9986349 1.0015846 1.006564 1.0056957 1.0115663
1.0053195 1.0116287 1.0137116 1.0103917 1.0051467 1.0046108 1.0094054 1.0108391
1.0084326 1.003175 1.0018982 1.005531 1.0063796 1.0045291 1.0058825 1.0089612
1.0036281 1.0063286 1.0118417 1.0078212 1.0054029 1.0040917 1.0083977 1.0055802
1.006343 1.0054072 1.0041107 1.0081462 1.0034424 1.0068173 1.0046723 1.0071406
1.009676 1.0049491 1.0054597 1.0051085 1.0063378 1.0013639 1.0052882 1.004133
1.0046405 1.0165703 1.0002677 1.0008792 1.010436 1.003296 1.001652 1.0024191
1.0096579 1.0068549 1.0068389 1.0030551 1.0014576 1.0139774 1.0032792 1.0095676
1.0019493 1.0113819 1.0022547 1.0113449 1.010025 1.0031029 1.0058354 1.0083208
1.00178 1.005656 0.99929327 1.0082767 1.0056202 1.0049177 1.0106993 1.0088246
1.0072854 1.0060829 1.0018086 1.0040786 1.0036962 1.0107858 1.0103226 1.0083495
1.012599 1.0041217 1.0087292 1.0081519 1.0021031 1.0085055 1.0075777 1.0053228
1.0068837 1.0082841 1.0055587 1.0096271 1.0086175 1.0064062 1.0146092 0.9988351
1.0122944 1.0072641 1.0081925 1.0057967 1.0044937 1.007101 1.0100411 1.0107161
1.0102412 1.0020944 1.0087755 1.0038427 1.0068578 1.0051833 1.0018243 1.0075874
1.0122775 1.0077379 1.0040662 1.0056419 1.008826 1.0057677 1.0101521 1.0010487
1.0071446 1.0050793 1.0049795 1.0086576 1.0052736 1.01033 1.00114 1.0013402
1.0062829 1.0000404 1.0061215 1.0014983 1.0079235 1.0074942 1.0035925 1.0088068
1.007276 1.0137132 1.0062603 1.0070257 1.0093539 1.004585 1.0067369 1.0039881
1.0014994 1.0044025 1.0054768 1.0019032 1.0103414 1.0111494 1.0012516 1.0073998
1.0056489 1.0037172 1.0103375 1.00427 1.0018516 1.0100582 1.0140228 1.0053585
1.0058501 1.0012378 1.0021427 1.0007297 1.0047134 1.0073552 0.99972266 1.0075876
1.0135309 1.0039748 1.0081825 1.0056839 1.0042696 1.0060325 1.0003766 1.0061445
1.0021853 1.0086255 1.0063126 1.004271 1.0045489 1.0018462 1.0021881 1.0058581
1.0062624 1.0074499 1.0036794 1.0041876 1.0001079 1.0051751 1.0071483 1.0029813
1.011413 1.0050426 1.0107865 0.99836123 1.0034049 1.0070506 1.0065899 1.0108453
1.0006788 1.0066581 1.0058323 1.0057796 1.0034386 1.0025634 1.0049688 1.0111442
00000000: 1f0d 823f 628f 803f 25e6 803f 3655 803f
00000010: f11e 813f 9684 803f 8ce2 7f3f 2a20 813f
00000020: 8133 813f 29cb 803f 6db1 803f a230 813f
00000030: 8056 803f 625b 803f 0136 803f 5339 803f
00000040: 270a 813f 5ed1 803f 959c 803f 1c49 813f
00000050: 7ab8 803f f178 803f 3c61 803f f149 803f
00000060: d898 803f 33bb 803f 5388 803f 7b78 803f
00000070: b4fe 7f3f 9c68 813f 25bf 803f 2262 803f
00000080: 2dea 803f 8d52 803f 26d0 803f 304e 803f
00000090: f657 803f c144 813f b5f5 803f 28ed 813f
000000a0: 8a09 813f 50d0 803f 1d51 803f 89a6 7f3f
000000b0: ed33 803f 17d7 803f a3ba 803f 017b 813f
000000c0: 4fae 803f 0d7d 813f 4dc1 813f 8454 813f
000000d0: a6a8 803f 1697 803f 3234 813f 2d63 813f
000000e0: 5214 813f 0a68 803f 333e 803f 3db5 803f
000000f0: 0cd1 803f 6994 803f c2c0 803f a425 813f
00000100: e376 803f 60cf 803f 0784 813f 4900 813f
00000110: 0bb1 803f 1486 803f 2d13 813f dab6 803f
00000120: d9cf 803f 2fb1 803f b386 803f ef0a 813f
00000130: cd70 803f 64df 803f 1a99 803f fce9 803f
00000140: 103d 813f 2ca2 803f e7b2 803f 65a7 803f
00000150: adcf 803f b12c 803f 49ad 803f 6e87 803f
00000160: 0f98 803f fa1e 823f c608 803f cf1c 803f
00000170: f855 813f 016c 803f 2236 803f 454f 803f
00000180: 783c 813f 9fe0 803f 19e0 803f 1c64 803f
00000190: c32f 803f 03ca 813f 746b 803f 8339 813f
000001a0: e03f 803f f674 813f e249 803f c073 813f
000001b0: 8048 813f ad65 803f 37bf 803f a810 813f
000001c0: 543a 803f 56b9 803f afd1 7f3f 360f 813f
000001d0: 2ab8 803f 25a1 803f 985e 813f 2a21 813f
000001e0: baee 803f 53c7 803f 443b 803f a685 803f
000001f0: 1e79 803f 6e61 813f 4052 813f 9911 813f
00000200: d89c 813f 0f87 803f 0a1e 813f 1f0b 813f
00000210: ea44 803f b516 813f 4ef8 803f 6bae 803f
00000220: 91e1 803f 740f 813f 26b6 803f 763b 813f
00000230: 611a 813f ebd1 803f b7de 813f a8b3 7f3f
00000240: dd92 813f 08ee 803f 740c 813f f2bd 803f
00000250: 4093 803f b0e8 803f 0749 813f 255f 813f
00000260: 954f 813f a144 803f 8e1f 813f eb7d 803f
00000270: b7e0 803f d9a9 803f c73b 803f a0f8 803f
00000280: 4f92 813f 8efd 803f 3e85 803f e0b8 803f
00000290: 3621 813f ffbc 803f aa4c 813f 5d22 803f
000002a0: 1dea 803f 70a6 803f 2ba3 803f b11b 813f
000002b0: ceac 803f 7e52 813f 5b25 803f ea2b 803f
000002c0: e1cd 803f 5301 803f 97c8 803f 1931 803f
000002d0: a303 813f 92f5 803f b875 803f 9520 813f
000002e0: 6cee 803f 5bc1 813f 23cd 803f 38e6 803f
000002f0: 8232 813f 3e96 803f c1dc 803f af82 803f
00000300: 2231 803f 4390 803f 77b3 803f 5d3e 803f
00000310: de52 813f 586d 813f 0329 803f 7af2 803f
00000320: 1ab9 803f ce79 803f bd52 813f eb8b 803f
00000330: ac3c 803f 9649 813f 80cb 813f 96af 803f
00000340: b2bf 803f 8f28 803f 3646 803f e917 803f
00000350: 739a 803f 04f1 803f d3ed 7f3f a1f8 803f
00000360: 61bb 813f 3f82 803f 200c 813f 40ba 803f
00000370: e88b 803f acc5 803f 570c 803f 58c9 803f
00000380: 9c47 803f a41a 813f dace 803f f48b 803f
00000390: 0f95 803f 7f3c 803f b347 803f f5bf 803f
000003a0: 35cd 803f 1ef4 803f 9178 803f 3889 803f
000003b0: 8903 803f 94a9 803f 3cea 803f b161 803f
000003c0: fb75 813f 3ca5 803f 7461 813f 9a94 7f3f
000003d0: 926f 803f 09e7 803f f0d7 803f 6163 813f
000003e0: 3e16 803f 2cda 803f 1dbf 803f 63bd 803f
000003f0: ad70 803f ff53 803f d1a2 803f 2c6d 813f
