mini_batch_exp/models/mnist_adam_batch128_lr0.1.pt (torch_old, 968494 bytes, 62 tensors)

conv1.weight f4 [16, 1, 3, 3]
000000 fb 30 41 bf f0 d8 89 bf bd 5b 2e bf c7 0e 0e bf
       -0.75465363 -1.0769329 -0.6810873 -0.554913
000010 80 6c 45 bf d8 21 6f be 71 e3 61 bf d8 92 55 bf
       -0.7711868 -0.23352754 -0.88237673 -0.8342719
000020 ef 6d 85 bf 61 e3 21 be f6 41 53 c0 e4 16 9f bd
       -1.0424174 -0.15809394 -3.300901 -0.07768038
000030 ff a5 3e c2 49 c1 bf c0 cf 2c d0 41 55 a9 cb 3f
       -47.662106 -5.9923444 26.02188 1.5911051
000040 db 60 a9 41 f0 7f 68 40 a3 b2 81 c0 e3 4e 7f c0
       21.172293 3.6328087 -4.0530562 -3.9891899
000050 13 94 42 c2 a0 fd 79 41 19 79 26 42 c6 33 3b c1
       -48.644604 15.62442 41.61826 -11.70014
000060 a6 2f 72 c1 2e 6a 2a 41 92 37 71 40 0e 4c 65 41
       -15.136633 10.650923 3.7690167 14.331068
000070 69 20 11 c2 56 41 9e c1 52 e1 e9 c1 97 69 f5 c0
       -36.28165 -19.781902 -29.23502 -7.6691394
000080 4e 9a ab 41 1e 8d 11 c2 3c 8f 40 c0 af a0 75 41
       21.450344 -36.38781 -3.0087423 15.351729
000090 29 29 39 c2 14 7e 06 c1 20 2b 40 41 7f d0 ec 3f
       -46.290195 -8.405781 12.010529 1.8501128
0000a0 d6 92 0e 42 79 45 6f 40 f4 ec 44 3f 2c 1e 18 3f
       35.643394 3.7386153 0.7692406 0.5942104
0000b0 fa cf c5 c1 a4 f5 f1 c1 87 5d 9a c0 10 50 dc 40
       -24.726551 -30.244942 -4.823917 6.8847733
0000c0 6d c5 1f c2 b1 40 91 41 da 23 bf 41 16 3a f9 c1
       -39.9428 18.156588 23.892506 -31.153362
0000d0 37 5c 78 c0 53 8b 32 41 68 7d 4c 41 da 9f e2 c0
       -3.8806283 11.159015 12.780617 -7.082013
0000e0 74 ee b7 c1 c0 54 b7 41 f8 c7 82 c1 6f 70 ae c1
       -22.991432 22.916382 -16.347641 -21.8049
0000f0 8b 4f 41 41 64 2d f9 c1 7d 1b 03 c2 ce d6 18 c0
       12.08192 -31.147163 -32.776844 -2.3881106
000100 e4 75 1a c2 42 3d 52 c1 7c d7 a6 40 4e 36 a1 c1
       -38.615128 -13.1399555 5.2138042 -20.151516
000110 44 84 3f c1 28 8d d8 41 13 dc ff 41 af a5 7f 41
       -11.969791 27.068924 31.982458 15.97795
000120 45 5a a0 41 61 27 bd 41 5f bc ec c0 ff 98 86 c1
       20.044077 23.644228 -7.3979945 -16.824705
000130 b4 22 06 40 01 eb ae c1 f9 f0 ef c1 f7 d1 03 c2
       2.095868 -21.864748 -29.992662 -32.955044
000140 6e 84 31 c1 2b 46 41 c1 f8 f3 44 41 e2 08 8e 41
       -11.094831 -12.079631 12.309563 17.754337
000150 3c 72 10 c2 da df 96 bf 72 78 00 41 d3 de 12 c2
       -36.111557 -1.1787064 8.029406 -36.7176
000160 c2 de ab c1 b1 a6 07 c2 29 a7 c5 40 81 a1 72 41
       -21.483768 -33.912785 6.1766553 15.16443
000170 e4 36 c5 41 c6 2b e1 c0 f8 89 38 3f 29 01 a6 41
       24.651802 -7.0365934 0.72085524 20.750566
000180 7f 64 e9 c1 c5 0e 2a c2 2b 4d d4 bf 55 bc c3 41
       -29.17407 -42.514423 -1.658605 24.466959
000190 6f 01 23 42 fc 1e 7e 40 59 9a d0 41 e1 f0 77 41
       40.7514 3.9706411 26.075365 15.496308
0001a0 4e e7 2c c0 ef c1 67 41 8a 94 0c 41 4e 5d 2b c1
       -2.7016177 14.484847 8.786264 -10.710279
0001b0 cb b3 25 41 c7 75 c0 41 f0 f0 63 41 48 44 1b c1
       10.356395 24.057508 14.246323 -9.70417
0001c0 ec fa 19 41 f4 46 bf 41 f5 e1 c7 c1 ba 45 53 41
       9.62376 23.909645 -24.98533 13.204523
0001d0 0e fa 8d 41 be e7 bf c1 22 ce 94 3f 72 2a 1f c1
       17.747097 -23.988155 1.1625407 -9.947863
0001e0 61 77 c8 c1 3a 0f 01 42 26 73 28 41 c4 d7 87 c2
       -25.05829 32.26487 10.528112 -67.92142
0001f0 7c e9 ed c0 9b 3e e4 bf 05 91 48 c1 13 f7 d1 41
       -7.4347515 -1.7831606 -12.535405 26.245642
000200 29 ae 8d 41 a3 2a 5a 41 31 1c ce 41 11 64 e0 c0
       17.71004 13.635409 25.763765 -7.012215
000210 b5 8f 90 c0 94 9b b8 c1 bd f0 13 c2 7c 55 c3 3f
       -4.5175424 -23.075966 -36.985096 1.5260463
000220 db 59 3a 41 36 8a 83 41 d2 d5 ea bc b9 f5 d3 41
       11.646937 16.442486 -0.02866641 26.494982
000230 0f 47 5b 42 d3 54 78 c1 6a cf 8f 41 1b 18 b4 c0
       54.819393 -15.520709 17.976276 -5.6279426

conv1.bias f4 [16]
000000 f0 fe d8 be 31 e4 70 c2 40 60 50 c2 53 c7 42 42
       -0.42382002 -60.222843 -52.093994 48.694653
000010 08 79 8b c2 44 0d 53 c2 0f c1 ca c2 c0 6a 64 42
       -69.73639 -52.762955 -101.37707 57.104248
000020 f2 9b 60 42 22 45 c2 42 46 c2 81 c2 cb fc d2 c0
       56.15229 97.135025 -64.87944 -6.5933585
000030 4f 75 12 c2 28 0b 1a c2 bf 6d 3c 42 e4 d5 19 42
       -36.61456 -38.510895 47.107174 38.458878

bn1.weight f4 [16]
000000 61 b9 7e 3f de bd e4 40 c7 7e cd 41 da 36 d8 41
       0.99501616 7.148177 25.686903 27.026783
000010 63 f8 97 41 db 95 c0 41 f3 fe e7 41 e6 4b 1d 42
       18.996283 24.073172 28.999487 39.32412
000020 8c 00 cb 41 f6 e1 28 42 cd 25 10 42 da 2a 42 3e
       25.375267 42.220665 36.036915 0.18961659
000030 f0 db 88 3f db 2c 3e 41 48 1f dd 41 83 c7 32 40
       1.069212 11.885951 27.640274 2.7934272

bn1.bias f4 [16]
000000 2d a9 51 bf ad 65 cb bf 1d fd 42 41 b2 2c 1c 40
       -0.81898767 -1.5890404 12.186795 2.440228
000010 cb c8 2c 3f c7 be fd 40 eb 41 ac 40 16 74 7c 41
       0.67493886 7.9295382 5.3830466 15.778341
000020 b8 c4 32 41 cd e1 b3 41 da 56 56 41 1a e8 66 3f
       11.173027 22.485254 13.396204 0.9019791
000030 78 8d 7f be 86 c9 9c bf 21 10 92 41 b2 1d 1f c0
       -0.2495631 -1.2249 18.257875 -2.4861875

bn1.running_mean f4 [16]
000000 04 00 00 00 ea 04 bf 44 54 14 80 44 ac 36 11 44
       6e-45 1528.1536 1024.6353 580.85425
000010 c5 17 4a 44 51 5f 89 44 34 06 30 44 9f 69 f0 44
       808.3714 1098.9786 704.0969 1923.3007
000020 36 8d 2a 44 6b 1a bf 43 32 99 c4 44 c8 e5 d9 45
       682.2064 382.2064 1572.7874 6972.7227
000030 46 b2 91 45 22 be 49 43 13 e0 fc 44 a3 a0 c6 45
       4662.284 201.7427 2023.0023 6356.0796

bn1.running_var f4 [16]
000000 04 00 00 00 f6 0a 25 4b 41 46 d5 4a f7 d0 06 4a
       6e-45 1.0816246e+07 6.9885765e+06 2.2088298e+06
000010 7c 94 82 4a b1 66 fa 4a e0 b9 7d 4a 4f e2 84 4b
       4.278846e+06 8.2051445e+06 4.157048e+06 1.7417374e+07
000020 52 6a 50 4a 34 a0 bf 49 65 6c 50 4b c6 b1 ea 4c
       3.4146765e+06 1.5697985e+06 1.3659237e+07 1.2304747e+08
000030 d8 f4 4f 4c 05 ba 36 49 71 6d 87 4b 88 06 c9 4c
       5.451453e+07 748448.3 1.7750754e+07 1.0539526e+08

conv2.weight f4 [32, 16, 4, 4]
000000 79 3e 6f c0 6a 64 ac c0 60 a9 71 c0 2f 2c cd c0
       -3.738188 -5.3872576 -3.7759628 -6.4116435
000010 b2 01 8d c0 ef b9 9d c0 c8 cb 71 c0 a9 08 91 c0
       -4.406457 -4.928947 -3.7780628 -4.532307
000020 f4 a8 69 c0 c7 e3 9c c0 e4 ed 71 c0 29 ea 90 c0
       -3.650937 -4.902805 -3.7801447 -4.528584
000030 03 ae 85 c0 19 e6 92 c0 85 22 9d c0 e2 5b 9c c0
       -4.1774917 -4.590588 -4.910464 -4.886216
000040 24 a6 1a c2 2a d1 37 3f f0 a2 52 41 54 9a 2a 41
       -38.662247 0.71803534 13.16478 10.662678
000050 ce 6a 8c c1 82 7d dd 41 62 6d d3 41 ea 20 50 c1
       -17.55215 27.686283 26.42841 -13.008036
000060 06 1c 92 41 4c f8 ff 41 73 c5 9e c0 a1 94 64 c2
       18.263683 31.996239 -4.9616027 -57.145145
000070 87 f7 12 42 4d 3e 06 41 43 d0 19 c2 62 a1 b4 c1
       36.741726 8.39021 -38.45338 -22.5788
000080 fe 05 5c 40 cf 0d 8c c1 8b 38 f0 c1 38 cb 38 c1
       3.4378657 -17.506742 -30.027609 -11.549614
000090 a2 64 0e c1 16 02 3e c1 54 b0 51 c1 b1 64 e3 40
       -8.899569 -11.875509 -13.105549 7.1060414
0000a0 4a ff 7f 40 51 51 80 c1 51 60 dc c0 d7 55 07 c1
       3.9999566 -16.039705 -6.8867574 -8.458457
0000b0 cb 39 1b bf 69 98 9d c0 2b 8c 04 41 0f 66 03 40
       -0.6063506 -4.9248548 8.284221 2.0531042
0000c0 3a 39 25 41 80 ee b2 41 e1 b7 b3 41 aa 47 f5 c0
       10.326471 22.366455 22.464785 -7.664998
0000d0 b4 ed 69 41 25 52 a9 41 20 a8 d4 41 9d 1a 04 40
       14.620533 21.16511 26.582092 2.0641243
0000e0 74 e6 d7 41 d3 32 08 41 ff a2 8c 41 52 a4 03 c2
       26.987526 8.512408 17.579588 -32.91047
0000f0 bc cf b6 41 47 6d 0f 42 6c 19 9b c0 a8 74 75 c2
       22.851433 35.856716 -4.8468533 -61.363922
000100 d9 35 2f c2 a3 b5 82 c1 b0 20 d9 3f fb 96 e4 40
       -43.802586 -16.33869 1.69631 7.14343
000110 64 a3 92 c2 73 3b 6a 40 e1 7b 15 42 70 d2 51 41
       -73.31912 3.6598785 37.370975 13.113876
000120 c5 b1 8a 40 f1 c2 5c 3e c2 6a 72 41 68 e4 0e c2
       4.3342004 0.21558739 15.151064 -35.723053
000130 49 83 46 c0 4c fd 15 41 3f 42 54 41 c7 0e a8 c1
       -3.101763 9.37434 13.266173 -21.007215
000140 34 ac 45 c1 7b 81 88 41 6f 26 bd 41 b5 57 85 41
       -12.354542 17.063223 23.643766 16.667826
000150 4e 2f ae 40 62 f9 cb 41 11 cd 13 41 a8 ae 01 c2
       5.4432745 25.496769 9.237565 -32.420563
000160 35 42 f6 41 f0 92 f7 40 be a5 6e 40 b3 89 3f c2
       30.782328 7.7366867 3.728866 -47.88447
000170 9b 43 0b 42 94 98 3d 41 d9 3b 22 c2 ad 4e f7 c1
       34.81602 11.8497505 -40.558445 -30.913416
000180 e0 c4 0d 42 a8 82 75 41 2a 08 f2 c1 e5 7b dc bf
       35.44226 15.3443985 -30.253986 -1.722531
000190 29 d7 a5 c0 a5 2c b5 c0 1a 4e a7 bf cb af 47 c0
       -5.1825147 -5.6617 -1.307071 -3.1201046
0001a0 9b f3 89 40 1c b4 ab c1 b1 20 14 41 03 19 aa 40
       4.310987 -21.462944 9.257981 5.315553
0001b0 21 74 9d c1 a5 2f eb 3f 38 3d 89 41 ad 3f a7 c1
       -19.681704 1.8373915 17.154892 -20.906092
0001c0 9b cf 34 c2 61 11 a3 c0 d8 ea 64 c1 a5 33 aa 40
       -45.20274 -5.0958714 -14.307335 5.3188043
0001d0 0d cc 64 c1 c8 3f 3c bf 29 1d 0c 41 63 a1 07 c1
       -14.299817 -0.7353482 8.757119 -8.476901
0001e0 ab 30 62 41 5f 59 b2 40 5f 8b 77 c1 f4 d4 5b c1
       14.136882 5.5734096 -15.471526 -13.7394905
0001f0 56 f8 ab 40 14 85 46 c1 a6 75 08 c2 0a e8 c0 c0
       5.3740644 -12.40749 -34.11489 -6.028325
000200 b3 de 2a c1 9c 43 51 c1 4e 0b 21 41 5c ce 9c 41
       -10.67937 -13.079006 10.06526 19.600761
000210 cd 18 a3 3f a0 5e 35 c1 66 bd 53 c0 ef 6b 2b 42
       1.2741944 -11.335602 -3.308435 42.855404
000220 c3 41 82 c1 86 3d 8f 41 ee 08 7a 41 dd db 6c 41
       -16.28211 17.90504 15.62718 14.803678
000230 01 07 43 c2 b2 61 e4 40 bb a5 b7 bd 55 91 62 c0
       -48.75684 7.1369257 -0.089671575 -3.5401204
000240 5b 84 00 c2 35 28 9b c1 0f 85 1d 40 04 36 a8 c1
       -32.129253 -19.394632 2.4612463 -21.026375
000250 5e ae c5 40 f7 93 f2 c1 65 a7 ed c1 7f 6c 81 c1
       6.177535 -30.322248 -29.706736 -16.177977
000260 d1 20 af c1 05 0a 01 c2 80 1b 81 c1 8b 74 d1 40
       -21.891024 -32.259785 -16.138428 6.5454764
000270 be 45 32 c1 3b e2 80 c2 d3 66 9d c1 d7 65 9f 41
       -11.142027 -64.44186 -19.675207 19.924726
000280 71 41 04 c2 6f 2c 6e c1 ee 90 07 c2 40 59 09 40
       -33.063908 -14.885848 -33.891533 2.1460724
000290 d3 14 a7 c1 9c ab c3 c1 19 82 87 c2 12 e9 b8 41
       -20.885168 -24.458794 -67.7541 23.113804
0002a0 85 27 13 c2 2b 6e 89 bf ef 8f d7 c1 3e 6a a1 40
       -36.788593 -1.0736746 -26.94528 5.044219
0002b0 aa 50 de c1 2a d3 82 c1 93 1e 9b c1 d7 54 e2 40
       -27.789387 -16.353107 -19.389929 7.0728564
0002c0 0c dc 16 c1 62 3c 65 40 b5 d9 5d 41 30 11 83 3f
       -9.428722 3.5818105 13.865651 1.023962
0002d0 72 f4 87 c1 ec b8 4d 41 b5 f4 5a 41 4c f5 db 40
       -16.994358 12.857647 13.684743 6.8736935
0002e0 14 0f cf 40 78 c8 7b 41 5e 74 01 41 af 98 0e 41
       6.4705906 15.736443 8.09091 8.912276
0002f0 5a 25 74 41 f2 39 14 41 67 cc a6 41 bf 6b bd 40
       15.259119 9.264147 20.849806 5.9194026
000300 7b 81 07 c2 8a 2f b8 c1 0e 96 4a c1 51 2b 50 41
       -33.876446 -23.023212 -12.661634 13.010575
000310 53 c0 14 c2 cc dc 89 c0 f5 d7 2f 40 99 33 73 40
       -37.187817 -4.3082027 2.747556 3.8000243
000320 c8 3d 40 c1 0a bc 89 41 a8 81 64 41 f5 b0 c0 3d
       -12.015083 17.216816 14.281654 0.09408752
000330 e7 7e 8a 41 bc 84 50 41 78 f2 67 3e 58 30 92 c1
       17.311964 13.032406 0.22651088 -18.273605
000340 7b 09 8c c1 fd 28 14 41 07 2a 35 40 04 92 06 c2
       -17.50463 9.260007 2.8306901 -33.642593
000350 d1 b3 b2 c0 b1 e1 1f c0 e1 ea 8c c1 9d 5d 1d c2
       -5.5844502 -2.49815 -17.614687 -39.34142
000360 c5 07 cd 41 cf 17 bd bf b7 32 82 c1 0b d0 14 bf
       25.628794 -1.4772891 -16.274763 -0.5812995
000370 51 b3 43 41 6e ab 28 c1 75 f6 7e c1 6e c3 6c 41
       12.231278 -10.541853 -15.93517 14.797712
000380 e9 85 91 c0 62 0e c3 c1 d3 9f 0d 40 d8 3a 45 41
       -4.5475965 -24.382023 2.21288 12.326866
000390 86 b3 ab c1 0d cc 1a c2 a7 f5 a0 40 ad 14 08 42
       -21.462658 -38.69927 5.029987 34.02019
0003a0 7c 42 47 c2 f6 fe 0c c1 2c 4e 88 41 e6 9b 10 bc
       -49.814926 -8.812246 17.03817 -0.008826232
0003b0 e1 db f2 be 59 60 f8 c0 8a 74 6b 41 6c ec 96 bf
       -0.4743338 -7.761761 14.715952 -1.17909
0003c0 48 6a cf c0 87 9c 62 c0 cf d9 e3 c0 12 6a 96 bf
       -6.481724 -3.5408037 -7.120338 -1.175112
0003d0 d9 d9 4b c1 f3 ad b4 c0 2d 66 e2 3e 68 5f 9a 3f
       -12.740685 -5.646234 0.4421858 1.2060366
0003e0 d7 cb 8b 40 ba d2 90 41 a8 cd d2 40 45 ef eb 3e
       4.368633 18.102894 6.5876045 0.46080986
0003f0 03 0c 63 41 1e 19 12 41 7a 4a 0e 41 f5 2f bf c0
       14.190433 9.131132 8.893183 -5.974604

conv2.bias f4 [32]
000000 40 9f 2f 40 5f 94 58 c1 d2 54 51 c2 1e f9 80 41
       2.7440948 -13.536223 -52.332832 16.12164
000010 f5 86 ff c1 75 2e e2 c0 34 a8 b3 c0 f5 bd 0a c1
       -31.940897 -7.068171 -5.6142826 -8.671376
000020 05 b3 2c c1 6c 79 be c1 7c f7 cf c1 59 67 45 c2
       -10.793706 -23.809288 -25.995842 -49.350925
000030 d9 58 d5 c1 38 c6 c0 c1 a5 0b 10 40 4d 31 1f c1
       -26.668383 -24.096786 2.2507107 -9.949536
000040 be a6 f3 c1 17 6c 1f c1 14 db 02 42 2f d4 e0 c0
       -30.456417 -9.963889 32.713943 -7.0259013
000050 c9 64 8d 40 b2 eb 32 c1 fb b8 45 c1 76 25 4a c2
       4.418553 -11.182543 -12.357661 -50.536583
000060 75 a5 a1 bf 9e 00 3b 41 7e 5f be c1 b7 7a 90 c1
       -1.2628618 11.687651 -23.796627 -18.05992
000070 d1 c1 1d c2 51 d7 09 c2 9b 0b 99 c1 7f 90 d4 c1
       -39.439274 -34.46027 -19.130667 -26.570555

bn2.weight f4 [32]
000000 ff b3 00 42 b0 f9 d6 41 71 d8 ee 41 e1 0e 0b 42
       32.175777 26.871918 29.855684 34.76453
000010 24 e4 69 41 90 38 f5 41 ea 48 32 41 cf c3 ef 41
       14.618198 30.652618 11.142801 29.97061
000020 dd 28 01 42 40 81 a7 41 95 04 88 c1 97 c2 d0 41
       32.289906 20.93811 -17.002237 26.095015
000030 25 b3 a9 bf 6c 74 b7 41 22 98 b7 41 60 92 c9 41
       -1.3257796 22.931847 22.949284 25.196472
000040 ff f9 4e bf 1a fa 12 40 7f 17 e8 41 5b ac 25 42
       -0.80850214 2.296515 29.011473 41.418316
000050 03 a1 56 3e 6d 34 9b 41 d6 e7 a9 bf 75 21 fe 41
       0.20959859 19.400599 -1.3273876 31.766336
000060 42 72 d2 41 e4 63 11 42 c6 e9 0e 42 4c 13 80 41
       26.30579 36.34755 35.728294 16.009422
000070 35 5f dc 41 9b cc cc 41 fd 5e c9 41 79 07 b4 41
       27.546488 25.599905 25.171381 22.503649

bn2.bias f4 [32]
000000 ef 30 09 41 8a bd 23 3f df 5d 9a 40 4f c5 0e 41
       8.574447 0.6396109 4.823959 8.923171
000010 e9 8c 4e 40 b6 12 0c 41 c7 cb 18 40 a5 0b d4 40
       3.2273505 8.754568 2.3874376 6.6264215
000020 73 a7 b0 40 8b 2a 9a 40 df b9 97 c0 f4 f3 e8 be
       5.5204406 4.817693 -4.7414393 -0.4549862
000030 eb c2 70 40 fa 5c f5 40 50 2a f6 40 e8 71 a5 40
       3.7618968 7.6675997 7.692665 5.1701546
000040 d5 43 0f bf df 63 91 bf 68 c1 ed 40 e3 50 21 41
       -0.5596288 -1.1358603 7.429859 10.082248
000050 83 a6 72 3e d6 55 f0 40 8b 2e 5e bf 73 62 64 40
       0.23696332 7.510478 -0.8678977 3.5685089
000060 c5 cd 2b 40 5d e0 0b 41 77 40 26 40 24 cc 95 3f
       2.6844342 8.742276 2.5976846 1.1702924
000070 1e dd 00 40 43 90 ce 40 83 37 9d bf 1e e5 9c 40
       2.013496 6.45511 -1.2282566 4.9029684

bn2.running_mean f4 [32]
000000 a8 60 71 45 a4 8e 2e 45 c1 5f 64 45 8c 2e ad 45
       3862.041 2792.915 3653.9846 5541.8184
000010 dd 2c 13 44 61 01 d8 44 b5 d1 ad 44 c0 cc b6 45
       588.701 1728.0431 1390.5533 5849.5938
000020 27 b6 92 45 01 b9 8e 45 67 ae 9c 44 96 53 c2 44
       4694.769 4567.1255 1253.4501 1554.612
000030 b0 72 f6 42 27 15 92 44 17 d4 27 46 fd dd 7a 45
       123.224 1168.661 10741.022 4013.8743
000040 bb e6 af 43 fe ba 8f 46 08 db 92 46 c2 61 fa 45
       351.80258 18397.496 18797.516 8012.2197
000050 b9 ae 71 46 7e c5 1c 46 33 4f 0a 46 ad 6f 24 45
       15467.681 10033.373 8851.8 2630.9797
000060 ec 77 6d 45 d6 c6 ae 45 91 79 8e 45 a0 66 a4 45
       3799.495 5592.8545 4559.196 5260.828
000070 b2 77 89 45 40 ed 69 45 ec 08 e1 45 4b f7 7c 45
       4398.962 3742.8281 7201.115 4047.4558

bn2.running_var f4 [32]
000000 da d1 8e 4c 73 93 35 4c 9e fb 38 4c 25 f3 a5 4c
       7.487867e+07 4.7599052e+07 4.849215e+07 8.700548e+07
000010 c5 da 99 4a 1a 6f 94 4b 00 78 44 4b 76 47 ba 4c
       5.0415065e+06 1.945554e+07 1.2875776e+07 9.766392e+07
000020 d7 a6 56 4c ff 0c 2b 4c f9 04 4d 4b 3f 8f 8e 4b
       5.626966e+07 4.4839932e+07 1.3436153e+07 1.8685566e+07
000030 27 49 1f 49 8c ea 45 4b 55 c5 f4 4c 31 dd 25 4c
       652434.44 1.2970636e+07 1.2833041e+08 4.348026e+07
000040 7f df 37 4a b0 6a 55 4d 44 de 2f 4d 45 a6 9e 4c
       3.0125758e+06 2.2378368e+08 1.844112e+08 8.3178024e+07
000050 29 7f 40 4d 3d 75 e5 4c c6 ab 1a 4d 78 e9 ea 4b
       2.0184744e+08 1.20302056e+08 1.6218429e+08 3.0790384e+07
000060 8b 42 1a 4c 34 39 90 4c ff 3e 58 4c d6 7c 47 4c
       4.0438316e+07 7.561462e+07 5.6687612e+07 5.229449e+07
000070 c6 f5 30 4c 62 ef 6f 4c 6b f1 b5 4c 06 35 38 4c
       4.6389016e+07 6.2897544e+07 9.539055e+07 4.828879e+07

conv3.weight f4 [64, 32, 5, 5]
000000 e3 aa ba c1 df 7a 05 c2 e7 c3 1d c1 73 4a a3 c1
       -23.33344 -33.36999 -9.860328 -20.411352
000010 f4 93 cb c1 48 30 0e 41 e6 04 3d c0 44 b6 0c 41
       -25.447243 8.886787 -2.953424 8.794498
000020 97 c2 00 c2 0e 56 ee c1 22 c7 dd 3d 4d 4e 02 c1
       -32.19003 -29.792019 0.10828997 -8.144116
000030 85 14 a0 40 a5 c7 3c 3f 50 eb 0b c1 67 f0 70 c1
       5.002505 0.73742133 -8.744949 -15.058692
000040 f5 d5 3a 3f 52 4c 2b 41 0d c0 77 bf d3 8e 24 41
       0.7298272 10.706133 -0.9677742 10.284869
000050 6e d5 5b c0 f7 a7 67 41 05 fa f7 41 40 2c a3 40
       -3.4349017 14.478507 30.99708 5.0991516
000060 dc bf 22 40 34 42 b3 c0 ef bc a8 c1 fe 03 82 c1
       2.5429602 -5.6018314 -21.092253 -16.25195
000070 ca e4 c6 bf f6 0f 7e c1 4d fa b7 c0 1b bf f1 40
       -1.5538571 -15.878897 -5.7493043 7.5545783
000080 b6 e5 69 c1 8b f4 38 c1 7f 84 20 c1 ea ef 3e c0
       -14.618582 -11.559703 -10.032348 -2.9833932
000090 03 81 14 c1 fd 4a d8 c1 8a 87 65 40 cd 40 79 c1
       -9.281497 -27.036615 3.5863976 -15.5783205
0000a0 60 35 8e 41 02 9b 1b 41 7f 47 42 c1 54 22 be bf
       17.776062 9.725344 -12.142455 -1.4854226
0000b0 89 bb d3 40 35 f3 f1 c0 be 48 8a c1 9e 68 5d c1
       6.6166425 -7.5609384 -17.285519 -13.838041
0000c0 e2 67 02 c1 8d d4 6e 40 0c 10 d8 41 90 ff 0f 41
       -8.150362 3.731723 27.007835 8.999893
0000d0 a4 9f 06 42 34 f4 95 41 7b 3f 0c 41 84 2d 04 c0
       33.6559 18.74424 8.765498 -2.065278
0000e0 0c 81 49 c1 5c 13 f8 bf d6 63 df c1 51 e3 aa c1
       -12.594006 -1.9380908 -27.923748 -21.360994
0000f0 21 35 4f c0 a6 b9 0c c2 41 89 1c 41 88 4c ed c1
       -3.2376177 -35.181297 9.783509 -29.662369
000100 d5 ce a3 c1 6c c8 a9 c1 47 89 ed c1 85 08 36 41
       -20.475992 -21.222862 -29.69203 11.37708
000110 29 ca ba c1 1c 9a 70 3e 6f 54 9b c1 1b 68 4d c1
       -23.348711 0.23496288 -19.416227 -12.837916
000120 bb dd ed 40 dd 44 a2 c1 a4 18 b1 c0 1f 2d cf c1
       7.4333167 -20.283625 -5.534258 -25.897032
000130 92 07 5e c1 89 cd 83 c1 c5 cf 69 c1 3d 0e e6 c0
       -13.876848 -16.475359 -14.613225 -7.189238
000140 6a a7 d1 c1 70 a0 90 c1 2c d1 27 c0 df 37 b7 c0
       -26.206745 -18.078339 -2.6221418 -5.72557
000150 55 07 a7 41 f4 2b 6f 41 63 c9 c2 bd 92 ae 84 c2
       20.87858 14.948231 -0.09511068 -66.34096
000160 2e 5c e8 c0 01 6f cb c0 1a 0d a0 40 ce a1 a7 c1
       -7.2612524 -6.3573003 5.0015993 -20.954006
000170 9b f7 0d c2 b6 f8 85 41 09 de 90 c1 cf 47 27 c0
       -35.491802 16.74644 -18.108416 -2.6137578
000180 7e 0a dd c0 a7 5d fa 40 d5 f5 26 42 44 2c 0a 41
       -6.907531 7.823932 41.74007 8.635807
000190 c3 e1 a6 c0 5b 0e 8e 41 97 44 cb 3f b0 ad 66 c1
       -5.215059 17.75701 1.5880307 -14.417404
0001a0 6e 11 05 c1 16 31 36 c1 7b 0a 9c c1 fd d0 27 c0
       -8.316755 -11.386984 -19.505117 -2.6221306
0001b0 6a a3 a9 c1 10 39 96 c1 57 fc 9b 41 d1 68 84 bf
       -21.204792 -18.777863 19.498213 -1.0344487
0001c0 c7 6c 4e 41 57 18 77 c1 28 d7 d1 41 e9 c6 fd c0
       12.901557 -15.443442 26.230057 -7.930531
0001d0 1e 8c 6c 41 38 80 21 40 ea f5 9a 41 1c 31 a5 c0
       14.784208 2.5234509 19.370075 -5.162245
0001e0 a7 e4 fb 41 60 8e 2a 41 c7 37 e8 3e 98 91 fc 41
       31.486647 10.6597595 0.45355055 31.57109
0001f0 0c 35 df 3f 6d bf 71 41 3a b5 0d c1 be a9 63 40
       1.7438064 15.109235 -8.856745 3.5572352
000200 c4 9b c7 40 b4 02 99 c0 f0 d4 a2 41 6a 3e be c1
       6.2377644 -4.78158 20.353973 -23.780476
000210 22 9a b4 c1 4c 9f 85 c1 5d aa bf 40 b0 9e 15 41
       -22.57526 -16.702782 5.9895463 9.351242
000220 38 de 2f c1 0d 95 a8 c1 2e da 1b bf be 45 be c1
       -10.991753 -21.072779 -0.6087979 -23.784054
000230 d9 1d 43 40 1d 18 8f c1 42 94 1b c2 b5 bd eb c0
       3.0486968 -17.886774 -38.894783 -7.3669076
000240 7e ca 1f c1 24 92 c2 40 88 0e a9 c0 ff 73 b0 3f
       -9.986937 6.0803394 -5.283024 1.3785399
000250 3f 46 aa 41 47 e0 9d 41 76 f6 1b c1 7b 56 85 3f
       21.2843 19.73451 -9.747671 1.0417017
000260 9d ec 2c c0 ad 83 8a 41 a3 bb 17 c1 7a ca bb 41
       -2.7019417 17.314295 -9.48331 23.473866
000270 13 46 47 c1 36 ee b4 40 66 d7 a0 41 ed 51 a8 3f
       -12.454608 5.6540785 20.105175 1.3150002
000280 f0 be 85 c1 5d 5b 7a 41 be 5b 83 40 c4 3d f7 41
       -16.718231 15.6473055 4.104949 30.905159
000290 e8 55 ab 40 22 48 1f c0 df ec de c1 51 ba 64 40
       5.3542366 -2.4887776 -27.86566 3.5738719
0002a0 41 69 14 41 d5 cc 3b c0 9e ef 36 c0 1d d1 85 c1
       9.275697 -2.934377 -2.858375 -16.727106
0002b0 70 84 8a 40 77 76 8a 40 59 59 a6 41 88 a4 e0 c0
       4.3286667 4.326961 20.793627 -7.0200844
0002c0 c6 fe 40 3d 2b 71 5f 40 fc 86 df 40 c1 58 a9 c1
       0.04711797 3.4912822 6.9852276 -21.168337
0002d0 9e e3 c7 be 35 cb 16 c1 08 19 06 41 9e db c2 bf
       -0.39040846 -9.424611 8.381111 -1.5223272
0002e0 96 55 73 41 25 6d 65 41 f7 ce 65 41 51 a8 a5 c0
       15.208395 14.339147 14.363029 -5.1767964
0002f0 65 57 58 40 bd e3 04 c1 ca 69 d1 40 61 69 a9 41
       3.3803341 -8.3056 6.5441637 21.176455
000300 fa 7f 1a c1 af ce 2f 41 65 d4 c9 c1 f3 21 5b c1
       -9.656244 10.98796 -25.228708 -13.695788
000310 a6 7d 0b c2 bf 63 08 c1 91 72 68 bf 82 b8 7e c1
       -34.872704 -8.524352 -0.90799814 -15.920046
000320 20 a5 2b 42 8b dc 08 42 61 c8 20 41 ad 37 2b 41
       42.911255 34.215374 10.048921 10.701093
000330 3f 45 82 3f 57 76 ec 40 3a c8 cd c1 b4 7f 4a c0
       1.0177382 7.389446 -25.722767 -3.1640444
000340 b7 77 8f 41 4d ef 2c c0 cf d6 05 c0 d1 53 8c 40
       17.933455 -2.7021058 -2.0912359 4.3852315
000350 40 01 98 41 a6 c9 dd c0 61 6c eb 41 f1 65 9a 41
       19.00061 -6.9308653 29.42792 19.299776
000360 70 d7 f1 41 18 5e 4d 41 2d 18 94 41 2a 5d a6 40
       30.230194 12.835472 18.511805 5.1988726
000370 c3 e3 96 41 ef 44 bf c0 fe 89 d1 c1 30 cc 86 c0
       18.861212 -5.9771647 -26.192379 -4.212425
000380 7f 7b 5c c0 d7 0d bb c0 71 f5 a5 c1 9c 22 83 c1
       -3.4450376 -5.8454394 -20.744844 -16.3919
000390 ea c9 b0 c1 c5 5c 47 c1 c8 2f 40 bf b3 49 a7 c0
       -22.09859 -12.460149 -0.7507291 -5.2277465
0003a0 2d 9b b5 c0 10 6f 1c c1 fe a7 e0 c1 5c d8 5d bf
       -5.6751924 -9.777115 -28.082027 -0.86658263
0003b0 ca 94 8b c1 28 8a 5d c1 09 3a 3d c1 ce 6a fa c1
       -17.44765 -13.84623 -11.826669 -31.30215
0003c0 29 6a 68 c1 a8 b7 f9 40 85 ec dd bf fa 5d ff c0
       -14.525918 7.803669 -1.7337805 -7.9802217
0003d0 2f 8d 09 40 ee d9 5f 41 26 c0 6e 40 cd ee 86 c1
       2.1492422 13.9907055 3.7304778 -16.866602
0003e0 b6 c2 e9 c0 9e 4e 8d 40 a3 42 97 40 58 5b 8e 41
       -7.3050184 4.415847 4.7268844 17.794601
0003f0 46 07 5d 40 12 6c a9 41 d3 67 aa 41 75 4e fd be
       3.453569 21.177769 21.300695 -0.4947392

conv3.bias f4 [64]
000000 25 18 17 3e 67 d3 b1 c1 b0 70 cd c1 b6 87 6f c1
       0.14755304 -22.228224 -25.680023 -14.970633
000010 6c 18 6b c0 d5 27 ee 3d b0 e7 ec 40 b1 c7 21 40
       -3.6733656 0.11628691 7.403282 2.5278132
000020 c9 95 83 c1 1d 50 87 c1 58 5d 63 c0 72 e1 52 c0
       -16.448137 -16.914118 -3.5525723 -3.29501
000030 b2 24 97 c1 fc b2 c3 c1 fc 5d 8f c1 ea 36 99 c1
       -18.892918 -24.462395 -17.92089 -19.151814
000040 64 98 f3 c0 c3 86 1e c1 46 6e 1b c1 bc d8 c7 41
       -7.6123524 -9.907901 -9.714422 24.980827
000050 37 a8 81 c1 c3 4e 88 3f c9 48 fa c1 07 d9 6e c1
       -16.207136 1.0649036 -31.28554 -14.927985
000060 00 4f 8c c1 5c 44 b9 40 72 08 07 c1 14 a6 7d c0
       -17.538574 5.7895947 -8.439562 -3.9632616
000070 2c 43 d6 41 ed 03 74 c1 28 fc a5 c0 9f 15 06 be
       26.782799 -15.250958 -5.187031 -0.13094185
000080 f8 c8 72 c1 75 13 b4 c1 66 77 59 c1 13 12 b1 c1
       -15.174065 -22.5095 -13.59165 -22.133825
000090 80 db 3d c1 87 33 ba c1 7e 29 81 c1 46 71 d2 40
       -11.866089 -23.27516 -16.14526 6.5763273
0000a0 95 ef 0a 42 31 f4 d2 c0 ac 62 ed c0 7f d0 22 41
       34.733967 -6.5923085 -7.418295 10.175902
0000b0 fc 34 a3 c1 a4 04 47 40 27 9d 64 40 18 00 e7 c0
       -20.400871 3.1096582 3.5720918 -7.2187614
0000c0 39 60 e7 c0 81 f5 66 3f 66 ce 43 c1 1f 0b 2c c1
       -7.230496 0.9021836 -12.23789 -10.752715
0000d0 e5 eb 25 c1 ce 02 87 40 37 24 b1 c1 23 4d 50 c1
       -10.370091 4.2190924 -22.142683 -13.018832
0000e0 15 0a ba c1 e2 db 2d 3f 21 15 98 c1 fb de d0 c1
       -23.254923 0.6791364 -19.010317 -26.108877
0000f0 2a 04 0b c2 2c 1c 49 c1 1b 2f de c0 19 a1 2b 41
       -34.754066 -12.569378 -6.94325 10.7268305

bn3.weight f4 [64]
000000 ea bc 4f c0 84 ed 79 41 e3 07 c3 41 3e 44 0c 42
       -3.2459054 15.620487 24.37885 35.066643
000010 3d 9a 99 41 bb 83 98 41 d2 ee f4 41 a3 2f 0b 42
       19.200312 19.064322 30.616611 34.79652
000020 d4 9d 52 c1 cd fa 83 41 32 0f 03 42 79 09 b7 41
       -13.163532 16.497461 32.76484 22.879625
000030 8b 32 d4 c0 92 94 e5 40 85 95 df 41 0a dc d1 41
       -6.63117 7.174386 27.948008 26.23244
000040 d4 d0 c5 41 e2 03 08 be a7 a3 88 41 1a 32 21 42
       24.726967 -0.13282731 17.079908 40.298927
000050 b6 45 fa 41 38 16 0f 40 79 9c d0 40 24 9e 16 c0
       31.284039 2.2357311 6.5191007 -2.3534021
000060 e3 64 a5 41 e8 49 02 42 48 8a ee 41 55 8c 10 42
       20.674261 32.572174 29.81752 36.137043
000070 66 95 cb 41 ab ef 3c c1 67 e2 96 3f bf 60 5a 41
       25.447948 -11.808513 1.1787843 13.64862
000080 1d 3b 83 41 a0 0a 03 42 f4 45 b3 41 16 27 25 42
       16.403864 32.760376 22.409157 41.28817
000090 b1 53 1c 42 fd 3b 5e c1 ab 1c 17 42 9e 5b d1 40
       39.08173 -13.889646 37.777996 6.5424337
0000a0 26 84 14 42 c5 90 00 42 e6 9e d4 41 a6 03 f0 41
       37.12905 32.141376 26.577587 30.001781
0000b0 bf f9 65 41 71 d9 f6 41 b0 86 66 41 30 d0 82 41
       14.373473 30.856173 14.407883 16.351654
0000c0 46 5c d5 41 5c 82 54 3f 85 04 c1 41 4e f2 04 42
       26.670055 0.8301141 24.127207 33.236626
0000d0 e0 89 21 42 8e 6b 03 42 34 50 6e c1 bd a0 02 42
       40.384644 32.855034 -14.894581 32.65697
0000e0 47 a6 07 41 17 96 d2 40 3f 8f fa 41 dc d2 01 c1
       8.478095 6.5808215 31.319944 -8.113979
0000f0 aa 70 75 c0 59 f2 2c 40 e3 49 49 c0 a8 3f d6 41
       -3.8350015 2.7022917 -3.1451347 26.781082

bn3.bias f4 [64]
000000 93 7f 63 bf cb 89 c1 c0 a5 0b ae 40 4d f1 3e 40
       -0.8886654 -6.0480704 5.4389215 2.9834778
000010 20 93 e5 40 f3 bb 1e 41 d0 4a 91 41 ca 0f 6b 41
       7.1742096 9.920886 18.16153 14.691355
000020 4b 52 4e 3d 35 e8 c1 40 57 93 39 41 4b 88 b2 40
       0.05037145 6.0595956 11.598472 5.5791373
000030 20 70 85 bf 29 1d 20 40 c6 31 39 41 5c f7 02 40
       -1.0424843 2.5017798 11.574652 2.0463476
000040 18 23 1a 41 f1 b2 4c bf 2e a3 c3 40 81 34 e8 41
       9.633568 -0.7996054 6.1136694 29.025637
000050 22 31 33 41 30 b0 00 c0 08 b8 76 40 c5 46 1f 3c
       11.199495 -2.0107536 3.8549824 0.009721463
000060 8a 3f ed 40 72 b9 76 40 d2 fb 59 41 c8 3d e0 40
       7.414006 3.8550687 13.62398 7.0075417
000070 06 01 f1 40 8a ae fe c0 66 ae 54 c0 0c 5d 8a 3f
       7.531375 -7.958806 -3.3231444 1.0809646
000080 d3 f4 74 40 7d 25 21 41 37 2b e3 40 c5 6d d5 bf
       3.827443 10.071652 7.0990252 -1.6674124
000090 94 f8 15 bf 44 d1 75 be df 79 12 41 7b 0a 1e bf
       -0.58582425 -0.2400561 9.154754 -0.6173474
0000a0 fe b0 12 c1 75 fb 77 41 a2 b2 34 41 db 8e 85 41
       -9.168211 15.498891 11.293612 16.694754
0000b0 63 43 26 c0 22 3e 83 41 f9 b3 41 c0 fe 63 61 bf
       -2.597863 16.405338 -3.0266097 -0.880432
0000c0 63 6a 70 41 96 5e 45 c0 f2 37 df 40 f3 43 14 c0
       15.025973 -3.083898 6.9755793 -2.3166473
0000d0 52 b6 12 41 c5 77 db 40 83 f0 c3 40 18 f8 34 41
       9.169512 6.8583703 6.1231093 11.31057
0000e0 ea 5f 4c 41 b7 b5 ec 3e 49 e2 3b 41 58 4b 3d c1
       12.7734165 0.46232387 11.742745 -11.830894
0000f0 8d f9 8d c0 e1 57 28 3f d5 0f 1e c0 dd 3a 46 41
       -4.4367127 0.6575909 -2.4697163 12.389371

bn3.running_mean f4 [64]
000000 31 22 82 45 6a f5 a2 45 ab e8 72 45 22 35 3b 46
       4164.274 5214.677 3886.5417 11981.283
000010 73 62 ef 45 f5 2e 82 46 3d 49 49 46 3a 20 47 45
       7660.306 16663.479 12882.31 3186.0142
000020 f0 f4 5c 44 ac b0 29 45 0c 0a 73 45 08 08 6c 46
       883.82715 2715.042 3888.628 15106.008
000030 ed 7d 95 44 6b 19 ce 43 35 58 54 45 fb de 8d 45
       1195.9352 412.19858 3397.513 4539.8726
000040 f5 7e 52 45 c3 22 93 45 57 24 84 45 fc 57 ca 46
       3367.9348 4708.345 4228.5425 25899.992
000050 3a 6d ec 45 2b 27 d0 46 97 f0 f9 44 e2 c9 85 44
       7565.6533 26643.584 1999.5184 1070.3088
000060 c6 d1 05 46 48 39 d0 46 85 49 43 46 de ca 87 46
       8564.443 26652.64 12498.38 17381.434
000070 91 d8 0f 47 5d 87 85 45 0a dc b0 43 fc dd 52 45
       36824.566 4272.9204 353.71906 3373.874
000080 b2 58 88 45 5b 3a 9b 45 1c 7b 90 45 fb c9 d1 45
       4363.087 4967.2944 4623.3887 6713.2476
000090 73 2e fb 45 1b 52 4b 45 8a cf f5 45 1c 3d 46 46
       8037.806 3253.1316 7865.9424 12687.277
0000a0 6c 7e 03 47 73 ed ea 45 bd 7b 25 46 9e d0 9f 46
       33662.42 7517.681 10590.935 20456.309
0000b0 e2 ec c1 44 aa 88 99 46 6f 04 c8 45 46 17 2c 45
       1551.4026 19652.332 6400.554 2753.4546
0000c0 4c 79 0b 46 a1 19 c5 46 e7 9c c6 45 d7 8b 65 46
       8926.324 25228.814 6355.613 14690.96
0000d0 df 80 e0 45 f1 50 6d 46 f2 60 0f 46 c9 06 34 45
       7184.109 15188.235 9176.236 2880.424
0000e0 2b 23 56 45 3b 50 7e 46 8f 45 e8 45 19 bc 32 42
       3426.198 16276.058 7432.695 44.68369
0000f0 12 31 07 43 6e e5 0c 46 74 a6 9c 46 86 79 29 46
       135.19168 9017.357 20051.227 10846.381

bn3.running_var f4 [64]
000000 c5 41 d7 4c 4f ea 0a 4d fb 1e 10 4d 86 08 b0 4d
       1.12856616e+08 1.4566322e+08 1.5112184e+08 3.6916858e+08
000010 d6 f1 59 4d 96 e8 9c 4d 8f aa c3 4d 4b ab ad 4c
       2.2853155e+08 3.2906106e+08 4.1034186e+08 9.105263e+07
000020 8a 9d c8 4b 31 28 63 4c 46 04 0a 4d 82 a7 11 4e
       2.629506e+07 5.9547844e+07 1.44721e+08 6.109185e+08
000030 a4 a2 cf 4b 4b 92 f9 4a 4d f7 f2 4c 09 9a b4 4c
       2.7215176e+07 8.1779575e+06 1.2738417e+08 9.4687304e+07
000040 0f 23 b2 4c 27 be f7 4c 36 ff a7 4c ef 65 1a 4e
       9.3395064e+07 1.2988857e+08 8.807877e+07 6.475929e+08
000050 48 95 4a 4d e7 d2 60 4e 1e fc 51 4c 12 54 67 4b
       2.124238e+08 9.429795e+08 5.5046264e+07 1.5160338e+07
000060 de 09 a4 4d a1 55 4a 4e 9b 3a a3 4d 50 fe 26 4e
       3.4401376e+08 8.4865235e+08 3.4231587e+08 7.004211e+08
000070 05 30 54 4e aa 65 2f 4d 89 68 9c 4a 76 cb 9f 4c
       8.899792e+08 1.8391722e+08 5.1251885e+06 8.377848e+07
000080 a9 e4 bc 4c 92 9c 09 4d 21 bb f6 4c 56 18 81 4d
       9.903444e+07 1.4429622e+08 1.2935809e+08 2.7073197e+08
000090 8a 16 a5 4d 51 0f b2 4c cd 48 a5 4d 4a 65 88 4d
       3.4621472e+08 9.335463e+07 3.4662646e+08 2.8604243e+08
0000a0 63 63 25 4e b2 4c 6f 4d 72 d6 9e 4d 4a bf 04 4e
       6.936885e+08 2.509238e+08 3.3310675e+08 5.567822e+08
0000b0 9b 1a 2d 4c 1d 62 4c 4e ce d2 2f 4d d6 2e 80 4c
       4.5378156e+07 8.572455e+08 1.8436426e+08 6.720478e+07
0000c0 05 f3 7c 4d 76 55 4f 4e d8 f7 26 4d d9 82 be 4d
       2.6523656e+08 8.696211e+08 1.7507878e+08 3.9953078e+08
0000d0 21 58 9d 4d eb ae f2 4d f4 b2 32 4d b8 bb ad 4c
       3.2997482e+08 5.089437e+08 1.8737952e+08 9.108627e+07
0000e0 2e 52 a5 4c 1b ee d0 4d e0 ea 65 4d f3 eb 0e 49
       8.667582e+07 4.3815818e+08 2.4108595e+08 585407.2
0000f0 21 c6 a2 49 46 a8 b3 4d c6 db fb 4d eb e3 a9 4d
       1.3334441e+06 3.767687e+08 5.2818554e+08 3.562858e+08

fc1.weight f4 [256, 64]
000000 a3 9d 65 c1 c2 09 52 41 fc 4a 17 41 55 2d b1 c0
       -14.350986 13.127382 9.455807 -5.5367837
000010 80 e4 ca c0 45 43 3f c0 2f c1 7a c1 2c 48 e1 c1
       -6.340393 -2.9884808 -15.672164 -28.16024
000020 6c 47 f8 c0 e8 43 ee c0 39 d1 0a c2 66 04 4c c1
       -7.7587185 -7.4457893 -34.70432 -12.751074
000030 bd 23 32 41 63 0f 2b 41 d2 7a 2b c2 33 44 21 41
       11.133725 10.6912565 -42.86994 10.07915
000040 c4 85 13 c1 ed 98 d4 3f 3e ce d7 c0 61 0e da c0
       -9.220158 1.6609169 -6.743926 -6.814255
000050 d8 ea 4c 40 dc 8b ce 40 8a 92 92 41 19 d2 85 c0
       3.2018337 6.4545727 18.321552 -4.1818967
000060 d8 58 90 c0 dd bb 7c c0 ba 84 06 41 f0 ee 82 c1
       -4.510845 -3.9489663 8.407404 -16.366669
000070 9a a4 be 3f de ef dd 3f 00 bc 8f 40 8a 1e 68 41
       1.4893982 1.7338827 4.491699 14.507456
000080 29 0b 70 c1 a5 15 76 41 57 fe f3 40 44 c3 df 40
       -15.002725 15.380284 7.6247973 6.992586
000090 27 d8 78 c0 33 72 1b c0 d3 e5 6e 41 62 74 7c c1
       -3.888193 -2.4288452 14.931109 -15.778414
0000a0 58 f9 91 40 8d cc 93 c1 09 f8 c9 c1 58 ee d1 c0
       4.5616875 -18.474878 -25.24611 -6.5603447
0000b0 54 51 d2 be 02 c6 63 c1 30 0d ab 41 7b 89 5a 41
       -0.41077673 -14.235842 21.38144 13.658565
0000c0 3b f9 e7 40 71 79 80 41 e3 e7 2b 41 1a 05 9e 40
       7.2491736 16.059298 10.744113 4.9381227
0000d0 e6 6d 24 41 d8 25 f3 bf b7 c7 24 c1 3d 49 e1 c1
       10.276831 -1.8995924 -10.2987585 -28.16076
0000e0 f3 0f 2f c2 f8 de ec c0 f7 51 52 c1 b7 c4 23 42
       -43.765575 -7.402218 -13.145011 40.942104
0000f0 39 a8 59 41 d3 23 e1 40 08 22 8b 41 24 b2 2a 41
       13.60357 7.035623 17.391617 10.668491
000100 c4 b9 a4 c1 ed b0 5d 41 35 bc 81 41 23 56 3a c1
       -20.590706 13.855695 16.216898 -11.646029
000110 c9 cf f0 3f 55 d2 9b c0 fb 54 d1 c1 d9 c6 e9 bf
       1.8813411 -4.8694253 -26.166494 -1.8263808
000120 e6 93 e0 41 71 a5 a9 c1 f1 c0 68 c1 40 cc e2 c1
       28.072216 -21.205782 -14.547105 -28.349731
000130 88 b4 81 c1 ad 32 f1 bf 37 0f 15 c2 22 73 8c 40
       -16.21315 -1.884359 -37.26486 4.3890543
000140 a9 f3 b6 c1 b6 b4 06 c0 76 d7 20 41 89 9e 54 c1
       -22.868975 -2.1047797 10.052603 -13.288705
000150 06 8f 8a c1 b1 2c e7 c0 25 97 97 40 ba 11 20 c1
       -17.319836 -7.2242055 4.7372003 -10.004328
000160 5b 49 a3 c1 09 83 8e 40 05 b2 31 40 a7 05 16 c0
       -20.410818 4.4534955 2.7764904 -2.344095
000170 93 59 db c0 be cb 81 41 15 3c d4 41 ad ea 52 40
       -6.8546844 16.224483 26.529337 3.2955735
000180 0a 5e 05 c1 22 d3 6b 40 90 24 93 c0 c6 16 f4 40
       -8.335459 3.6847615 -4.598213 7.62778
000190 19 44 92 bf ee 93 cf c1 81 33 e8 40 66 f0 1a c1
       -1.1427032 -25.947231 7.256287 -9.683691
0001a0 bd 5e e6 40 55 b8 85 c1 0e c2 ff c1 a2 d2 06 c1
       7.1990647 -16.715006 -31.969753 -8.426424
0001b0 31 d5 c0 40 7e ba 6d c1 a7 52 3f 41 a1 c6 65 41
       6.0260243 -14.85803 11.957679 14.360993
0001c0 cf cc ad c1 75 80 16 42 6d ad f0 c0 83 9a 46 40
       -21.725004 37.625446 -7.52117 3.1031806
0001d0 b5 08 a8 41 6b e0 03 41 3e b9 2d c1 d6 9f 8d c1
       21.004251 8.24229 -10.857725 -17.703045
0001e0 d2 9e 0a c2 cb ab f3 c1 f5 07 a0 c1 a6 40 02 42
       -34.655098 -30.458883 -20.003885 32.563133
0001f0 e2 4c 7f 40 89 82 e6 3f 16 8e c1 c0 15 fa e7 40
       3.9890676 1.8008586 -6.0485945 7.2492776
000200 35 83 38 c1 66 c7 19 c1 b5 8e 3b 41 bf e7 15 41
       -11.532033 -9.611181 11.722341 9.369079
000210 99 3e 1e c1 5f 38 21 c1 20 53 89 c1 bb 44 9a c1
       -9.890283 -10.076262 -17.165588 -19.28356
000220 69 e7 f7 3e c0 08 95 41 34 f4 d6 c1 0f 9b d9 c1
       0.4841874 18.629272 -26.86924 -27.200712
000230 d2 b6 1d c1 0a da 77 40 de 7d 18 c2 ee 81 5f 41
       -9.857134 3.872683 -38.122917 13.969221
000240 70 56 5c c1 1c 19 13 41 ac 8d ce 40 14 3d bf c1
       -13.771103 9.19363 6.454794 -23.904823
000250 03 84 b6 3e a8 43 90 40 23 94 79 bf 2c 34 a0 c1
       0.35647592 4.508259 -0.97491664 -20.025475
000260 06 70 30 c1 a7 3e 95 c0 52 19 60 41 95 cc 97 be
       -11.027349 -4.663898 14.006182 -0.2964827
000270 e7 17 43 c0 f2 63 bc 3f 34 d1 81 41 78 1f 02 41
       -3.048334 1.4718001 16.22715 8.132683
000280 68 82 0b c2 73 15 9f 41 3e 95 02 c1 9e d4 a0 41
       -34.87735 19.885473 -8.161436 20.103817
000290 e8 d2 6d c0 62 33 47 c0 ee 35 17 41 73 3f 8e 41
       -3.7159977 -3.1125112 9.450666 17.780981
0002a0 74 29 3a 41 13 ea 51 c1 03 c7 74 c1 f6 fb 3b 41
       11.63512 -13.119647 -15.298587 11.749014
0002b0 54 45 07 42 7c 08 22 c1 65 82 02 c0 fe 32 ef 40
       33.817703 -10.127071 -2.0392087 7.4749746
0002c0 59 3a d1 c0 c8 75 61 41 87 1c 0c 41 d0 25 ad 41
       -6.5383725 14.091255 8.756965 21.643463
0002d0 a2 a7 20 c0 46 b1 e0 c0 32 85 b7 40 eb 6e 06 c1
       -2.5102315 -7.02164 5.735009 -8.40208
0002e0 88 fe 73 c1 8f 6d 51 c1 3c 25 93 c0 b3 b2 d5 41
       -15.249641 -13.089248 -4.598295 26.712255
0002f0 75 95 72 41 fe d0 15 c1 70 95 80 41 9a 27 00 c0
       15.161489 -9.3635235 16.072968 -2.002417
000300 66 4a c3 c0 cf 76 07 c2 43 28 2d c1 a3 2a c8 bf
       -6.102832 -33.866024 -10.8223295 -1.5638012
000310 7e 17 f8 c1 d0 6a fc c1 9c b1 97 c1 69 f1 82 41
       -31.01147 -31.552155 -18.961723 16.367876
000320 93 fa 07 41 6d 1a 20 41 14 af ab 40 33 0a dc c1
       8.498675 10.006452 5.365122 -27.50498
000330 43 2a 68 3f 3c 84 44 c1 62 7a 31 c1 2a 64 b6 c1
       0.90689486 -12.282284 -11.092379 -22.798908
000340 c9 7c a5 c1 fb 18 5e c1 fd c5 cc bf 70 15 81 c1
       -20.68593 -13.881099 -1.5997921 -16.135468
000350 4a 2a 45 c1 45 a8 9c bf fe f4 27 c0 81 ba 59 c1
       -12.3228245 -1.2238852 -2.6243281 -13.608033
000360 6b e1 6e c1 90 18 59 c1 8a c1 16 c2 5a 9a 64 41
       -14.930034 -13.568497 -37.689003 14.2876835
000370 33 ed 13 c1 cb 00 e5 41 8d 4d 88 c1 5d 92 01 41
       -9.24541 28.625387 -17.037867 8.098233
000380 8b 2d 16 c1 6a 66 a7 c1 6f e7 49 41 9f 2e 9c c0
       -9.386119 -20.925007 12.619002 -4.880691
000390 88 3d 71 c0 ac 2c 19 c1 0c 90 dc c1 8e e5 11 c1
       -3.7693806 -9.573406 -27.570335 -9.118544
0003a0 37 c2 86 c0 d6 0f 88 c1 6e 91 95 c1 e9 54 43 c1
       -4.211208 -17.007732 -18.69601 -12.20823
0003b0 13 80 ff 3f 16 fe 88 bf f8 1e 1d c1 ea 73 04 41
       1.996096 -1.0702541 -9.820061 8.278299
0003c0 ea bd 62 c1 ff ba cb c0 90 ba 42 c1 2e 85 9c 40
       -14.171366 -6.3665767 -12.1705475 4.8912573
0003d0 a5 5e ce c1 f2 9a 5c c1 34 db ae 40 40 e8 80 c0
       -25.796213 -13.787828 5.464258 -4.028351
0003e0 3f 15 09 bf 19 7b 93 c0 12 15 9f c1 fc cc 74 bf
       -0.53548044 -4.6087766 -19.885288 -0.9562528
0003f0 c2 ad 5d c1 89 f5 c5 c0 93 a9 97 c1 c4 28 27 c1
       -13.854921 -6.1862226 -18.9578 -10.447453

fc1.bias f4 [256]
000000 4c 30 16 c2 70 99 00 c2 a0 ae ff c1 4d 21 5c c0
       -37.547165 -32.14984 -31.960266 -3.4395325
000010 38 d4 8d c1 6c 44 2c c2 d1 75 88 c1 b6 89 ae c1
       -17.728622 -43.06682 -17.057528 -21.817242
000020 2e 82 2d c1 bc e2 dc c1 7e db bd c1 87 f1 9a c0
       -10.844282 -27.61071 -23.732174 -4.8419833
000030 29 f7 25 c2 ed 93 c0 c1 d5 81 2d c1 12 12 b6 c1
       -41.491367 -24.07223 -10.844197 -22.758823
000040 d8 a5 18 c2 a6 b6 ec c1 76 63 c0 bf 06 ba 24 42
       -38.161957 -29.589184 -1.5030353 41.181664
000050 7b d9 a6 c1 09 e5 ff c1 a7 cc 20 c2 96 84 0f c2
       -20.856192 -31.986834 -40.199856 -35.87948
000060 fd 41 17 c2 f7 1b 13 c2 32 6a 01 c2 45 b0 00 c2
       -37.81444 -36.77731 -32.353706 -32.17214
000070 61 f0 e5 c1 f7 31 0e c2 6c 86 31 c2 ad e8 1c c2
       -28.742373 -35.548794 -44.38127 -39.227222
000080 21 78 97 c1 04 ea 34 c2 5b 2b 26 c2 8e 79 8f c1
       -18.933657 -45.22853 -41.54234 -17.934353
000090 63 40 ab c1 44 33 90 c1 54 6d c1 c1 31 08 28 c1
       -21.406439 -18.025032 -24.178383 -10.502
0000a0 43 39 e1 c0 c9 fe ca c1 84 59 fb c1 fb e9 06 42
       -7.03824 -25.374407 -31.418709 33.728497
0000b0 ce b2 c2 c1 ed 9e a6 c1 84 ef 28 c2 16 68 10 c2
       -24.337307 -20.8276 -42.233902 -36.101646
0000c0 f1 58 ca c1 89 50 f7 c1 45 b2 0c c2 27 1e c4 c1
       -25.293428 -30.914324 -35.17409 -24.514723
0000d0 eb 78 c7 40 6a df 05 c2 7c a6 1a c2 ea b5 47 c2
       6.2335105 -33.468178 -38.662582 -49.92765
0000e0 c2 a0 19 c2 eb 59 cb c1 4b 13 05 c2 50 82 e3 c1
       -38.40699 -25.418905 -33.26884 -28.43863
0000f0 f1 0a b9 c1 81 d7 97 c1 c6 9c 02 c2 27 1e fc c1
       -23.130342 -18.980227 -32.6531 -31.514723
000100 af 1f ec c1 f9 ed c6 c1 1f 7e 1b c1 fb a2 ed c1
       -29.51547 -24.866198 -9.718291 -29.70458
000110 5e 4c 97 c1 2e 34 cc c1 e4 37 6f c1 b8 9d c6 c1
       -18.912289 -25.525478 -14.951145 -24.827011
000120 63 0f bf c1 e1 96 41 c1 49 30 34 42 7b 39 00 c2
       -23.882513 -12.099336 45.047153 -32.056133
000130 74 5c ee c1 53 71 e3 c1 1d 7c 66 c1 bd f7 f2 c1
       -29.795143 -28.430334 -14.405301 -30.370966
000140 32 7d d5 c1 8e ef 89 c1 a1 7d b0 c1 8e d3 70 c1
       -26.68613 -17.24197 -22.061342 -15.051649
000150 8c 68 90 c1 7f b6 84 c1 b1 88 11 c2 93 11 61 c2
       -18.051048 -16.58911 -36.383488 -56.267162
000160 cf 69 d3 c1 fc df d6 c1 57 0c 91 c1 06 3f 4d c2
       -26.426664 -26.859367 -18.131025 -51.311546
000170 1a 98 b7 c1 9b 2f 26 c2 d1 d9 eb c1 d1 6e 1c bf
       -22.949268 -41.54649 -29.481356 -0.6110659
000180 2b 14 30 c2 0d 4a 03 c2 fc 83 08 c2 8e 03 a5 c1
       -44.019695 -32.822315 -34.12889 -20.626736
000190 06 34 f9 c1 01 b7 0c c1 aa 98 84 c1 01 cb 0e c2
       -31.150402 -8.794679 -16.574543 -35.698246
0001a0 ff 3e 10 c2 5d c4 48 c2 aa 8f d5 40 05 75 0a c2
       -36.06152 -50.19176 6.673787 -34.614277
0001b0 f0 86 e8 c1 ab 31 14 c2 61 2e 41 c1 48 ec ee c1
       -29.065887 -37.048504 -12.073823 -29.865372
0001c0 f4 fc f5 c1 03 44 6a c1 58 2f b0 c1 41 89 09 c2
       -30.748512 -14.641604 -22.023117 -34.384037
0001d0 77 e7 06 c2 50 1c df c1 43 c6 06 c2 9e 2e bb c1
       -33.72604 -27.888824 -33.693615 -23.397762
0001e0 fa 42 94 c0 1a 8c ff c1 ad 1b 88 c1 47 22 e4 c1
       -4.633176 -31.943409 -17.013514 -28.516737
0001f0 63 46 ae c1 92 c4 b2 c1 64 6c e0 41 f2 cc b0 c1
       -21.784369 -22.345982 28.052925 -22.10007
000200 df 6e ea c1 c3 8c 22 c2 e3 92 91 c1 0f dd ae c1
       -29.304136 -40.637463 -18.196722 -21.857939
000210 d7 b4 04 c2 83 20 0b c2 c7 c7 a2 c1 d7 8e 05 c2
       -33.1766 -34.78175 -20.347548 -33.389492
000220 52 74 e1 c1 d5 9b 9a c1 e5 51 c1 c1 e0 56 dc c1
       -28.181797 -19.32609 -24.164988 -27.54242
000230 73 23 0c c2 88 1d bf c1 66 a1 0d c2 ba 13 a0 c1
       -35.03462 -23.88942 -35.407616 -20.009632
000240 58 92 0a c2 c1 f6 e4 c1 7f e8 df c1 db 3f 32 c0
       -34.642914 -28.620485 -27.988523 -2.7851474
000250 3a b8 c4 c1 53 86 01 c2 ff 46 f0 c1 71 1f 7f c1
       -24.589954 -32.381176 -30.034666 -15.945176
000260 81 87 bb c1 49 ad e5 c1 c2 65 40 c2 69 e0 b8 c1
       -23.441164 -28.709612 -48.099373 -23.109575
000270 4d ee bf c1 c7 03 01 c2 68 d7 32 42 18 75 20 c2
       -23.991358 -32.25369 44.710358 -40.11435
000280 49 ed 00 c2 33 29 ae c1 be 8e d5 c1 43 90 ba c1
       -32.231724 -21.770117 -26.694698 -23.32044
000290 6e 5c 1c c2 06 be 10 40 90 95 e5 c1 61 ad 9b c1
       -39.090263 2.261598 -28.698029 -19.459658
0002a0 f3 d2 f0 c1 75 2e f7 c1 c3 27 0a c2 ed 66 3a c2
       -30.103003 -30.897684 -34.53883 -46.600513
0002b0 66 31 39 c2 35 e9 ed c1 8a 06 08 c2 8a 10 cd c1
       -46.29824 -29.73887 -34.006386 -25.633076
0002c0 b5 24 ee c1 fa 4b 86 41 f1 55 95 41 df f0 32 c2
       -29.767923 16.787098 18.666964 -44.735226
0002d0 a7 bc ac c1 ec 51 14 c2 97 28 d3 c1 5a e7 c5 c1
       -21.592115 -37.08 -26.39482 -24.737965
0002e0 ac 0a 4f c2 b5 be 6c c1 ef e9 f7 c1 b1 3b d0 c1
       -51.76042 -14.796559 -30.989225 -26.029146
0002f0 86 96 e5 c1 a2 3e 73 c1 f7 a0 08 c2 51 19 e9 c1
       -28.698498 -15.202791 -34.157192 -29.137362
000300 8c 93 9b c1 3c dd e8 c1 dc 54 1b c2 33 b9 ae c1
       -19.447044 -29.108025 -38.83287 -21.84043
000310 1a 38 56 c1 9c 7d 0b c2 ad 7d b9 c1 93 ad 2e c2
       -13.388697 -34.872665 -23.186365 -43.669506
000320 c1 59 03 c2 c0 7b 48 c2 4f bb b8 c1 fe ee 2d c2
       -32.83765 -50.12085 -23.09146 -43.48339
000330 05 68 a7 c1 1c 2d 23 c2 d0 2f b0 c1 d1 1f 5f 41
       -20.92579 -40.794052 -22.023346 13.945268
000340 57 f5 f1 c1 7b 94 3a c0 94 ff 02 c2 bc 52 8a c1
       -30.244795 -2.9153125 -32.749588 -17.290398
000350 4a 57 14 c2 65 7c a1 c1 06 19 01 c2 81 d8 94 c1
       -37.085243 -20.18574 -32.274437 -18.605715
000360 f8 bd 3b c1 be b6 e2 c1 9c 17 9e c1 97 f3 d0 c1
       -11.733879 -28.33923 -19.761528 -26.11894
000370 b7 09 cb c1 9e 1f 90 c1 93 39 d5 c1 b1 62 89 c1
       -25.379744 -18.015438 -26.653112 -17.17319
000380 fb 5d 24 c2 a8 b2 ab c1 41 7f b9 c1 0a 31 a0 c1
       -41.091778 -21.462234 -23.187136 -20.023945
000390 aa b4 87 c1 11 92 8b c1 44 e8 d1 c1 50 03 25 c2
       -16.963215 -17.446321 -26.23841 -41.253235
0003a0 89 35 a4 c1 f5 ad 27 c1 e2 b5 30 c2 7f 3e 53 c2
       -20.52614 -10.47997 -44.17762 -52.81103
0003b0 1d 85 0c c2 89 e7 28 c2 a5 27 fe c1 0a f7 9e c1
       -35.129993 -42.22611 -31.769358 -19.870625
0003c0 19 07 80 c1 d2 d9 e5 c1 c3 e0 e1 c1 63 01 2f c2
       -16.003466 -28.731358 -28.234747 -43.751354
0003d0 0f 04 91 c1 48 db c6 c1 ef 71 16 c2 78 24 2d c2
       -18.126982 -24.85707 -37.611263 -43.285614
0003e0 a2 12 9e c1 73 3a 19 c2 2b 45 fa 40 5a 89 77 c1
       -19.759098 -38.30708 7.8209434 -15.471033
0003f0 98 f8 08 c2 47 6a f9 c1 6b 63 dd c1 6f 77 ba c1
       -34.242767 -31.176893 -27.673544 -23.308317
