mini_batch_exp/models/mnist_sgd_batch4_lr0.1.pt (torch_old, 326371 bytes, 26 tensors)

conv1.weight f4 [16, 1, 3, 3]
0	0xc0c684c8	-6.2037086
1	0xc12255ef	-10.14598
2	0x3f36ae78	0.7135997
3	0xc0557afb	-3.3356311
4	0xbf4e56b1	-0.8060103
5	0x40aa6598	5.3249016
6	0x40fc0027	7.8750186
7	0x412c577e	10.77136
8	0xc07aee6a	-3.9208016
9	0xc09ffe65	-4.999804
10	0xc032a445	-2.7912762
11	0xbfa9112d	-1.3208367
12	0xbf68edb7	-0.90987724
13	0xbfa289a0	-1.269825
14	0xc0b140e3	-5.5391707
15	0xc00026e6	-2.0023742
16	0xc0c162d7	-6.0433154
17	0xc10cb98f	-8.795302
18	0xbf25b4dd	-0.647291
19	0xbe4d8d52	-0.2007344
20	0xbf61b2cc	-0.8816345
21	0xbfd7413f	-1.6816787
22	0xbd2f4160	-0.042786956
23	0xbfb0e38c	-1.3819442
24	0xbf70252f	-0.9380674
25	0xbfb8a11b	-1.4424165
26	0xbf4e5d5c	-0.80611205
27	0xbf55be2d	-0.8349331
28	0xbfa25aaf	-1.2683924
29	0xbf3fc32a	-0.7490717
30	0xbf7228b1	-0.9459334
31	0xbec5d5bb	-0.38639626
32	0xc0019edf	-2.0253217
33	0xbf5eb93f	-0.87001413
34	0xbe439343	-0.19099145
35	0xbf1e117f	-0.61745447
36	0xbfc5ff33	-1.5468506
37	0xc01be420	-2.4357986
38	0xbe144c44	-0.14482218
39	0xbfba229e	-1.4541814
40	0xbef62727	-0.48076746
41	0x3f9d0ca9	1.2269489
42	0xbfcf5b7b	-1.6199793
43	0xbefdda6b	-0.49580702
44	0x3fe91702	1.8210146
45	0xc1549dcb	-13.288524
46	0xc11ca232	-9.789598
47	0x4021fcf6	2.5310645
48	0xc0b9029b	-5.781568
49	0xc0714b7c	-3.7702322
50	0x4185a923	16.707586
51	0xc0d2f7e4	-6.59276
52	0xc13106c4	-11.064152
53	0xbf9dace7	-1.2318391
54	0xc062d867	-3.5444582
55	0x3ffa1ad4	1.9539437
56	0x40f4730d	7.6390443
57	0xc0c7699c	-6.231642
58	0x4086bebd	4.2107835
59	0x40971795	4.7216287
60	0xc0f4132a	-7.6273394
61	0xbfbeb3ae	-1.4898584
62	0x406d7b70	3.710659
63	0xbfbea603	-1.4894413
64	0xbe99dbf6	-0.3005063
65	0xc097ef30	-4.7479477
66	0xc0841420	-4.1274567
67	0xbffd0a50	-1.9768772
68	0xc012e884	-2.2954416
69	0xc02ec2cd	-2.7306397
70	0xbfad72e0	-1.3550682
71	0xc0255db9	-2.5838454
72	0x3f09f752	0.53893006
73	0xc0a7f013	-5.248056
74	0xc114bbc6	-9.295843
75	0x3f4008b9	0.7501331
76	0xc046f702	-3.1088262
77	0xc08d300c	-4.412115
78	0x408dc1c5	4.4299035
79	0x413624a0	11.383942
80	0x4102f6ab	8.185222
81	0xbe585e1b	-0.21129648
82	0x3fa97c09	1.3240978
83	0x40272747	2.6117723
84	0xbcba3f6b	-0.022735318
85	0x3fbb88ad	1.4651085
86	0x3fe7bb90	1.8104115
87	0xbc89dc40	-0.016828656
88	0x3fb8f652	1.4450171
89	0x4030b960	2.7613144
90	0x41ac0fca	21.50771
91	0x41c83497	25.025679
92	0x41840355	16.501627
93	0x41bc2444	23.517708
94	0x42007a8e	32.119682
95	0x414657e5	12.396459
96	0x418abcde	17.34222
97	0x4203e738	32.9758
98	0x412fb4bb	10.981624
99	0x41bff282	23.993412
100	0x4118b503	9.544192
101	0xbf88e94f	-1.06962
102	0xc0ac2839	-5.37991
103	0xc0e67c0d	-7.202643
104	0xc0e7d80b	-7.2451224
105	0xc1796630	-15.587448
106	0xc0cf9444	-6.486849
107	0xc0b122db	-5.535505
108	0x40eee093	7.464914
109	0xc16c77ce	-14.779249
110	0xc15ea153	-13.914386
111	0x41814c1f	16.162169
112	0xbfb92bfa	-1.4466546
113	0xc0c2763e	-6.076934
114	0x4216af25	37.67104
115	0x410e200a	8.882822
116	0x4035db17	2.8414972
117	0xc04f6c07	-3.2409685
118	0xc146d1ad	-12.42619
119	0xc1762d5e	-15.386076
120	0xc193e805	-18.48829
121	0xc159db45	-13.616033
122	0xbfdd3ebb	-1.7284769
123	0xc18b7e38	-17.43663
124	0xc0facc0a	-7.837407
125	0xbe448917	-0.1919292
126	0xc10efaa4	-8.936192
127	0x40bd52cb	5.9163566
128	0x409a36bd	4.819182
129	0x40eb679d	7.356398
130	0x41359a11	11.350114
131	0xc05db4e4	-3.4641657
132	0xbf888eda	-1.0668595
133	0xc03105f3	-2.765988
134	0xc10a76a5	-8.653966
135	0xc1b96c48	-23.177872
136	0xc0dc6af6	-6.8880568
137	0xc12e38f5	-10.888906
138	0xc1d460c2	-26.547245
139	0xc1434987	-12.205451
140	0x403b0f35	2.9228032
141	0xc088dd43	-4.2770095
142	0x402ba1a2	2.6817403
143	0x41b47fd0	22.562408

conv1.bias f4 [16]
0	0x3e101b7a	0.14072981
1	0xbe4addde	-0.19811198
2	0x3e8bd5f0	0.2731166
3	0xbcdb9d2e	-0.026808348
4	0x3e4e3c2f	0.20140146
5	0x3ec2df74	0.38061106
6	0xbe189fc1	-0.14904691
7	0x3fa3fc91	1.2811452
8	0x3e042a3d	0.12906738
9	0xbd07af01	-0.03312588
10	0xbe9d9123	-0.30774793
11	0x3a99fc8d	0.001174824
12	0xbe352ba4	-0.17692429
13	0xbe8769d4	-0.26447928
14	0x3e3a7f64	0.18212658
15	0x3e0a7c10	0.13523889

bn1.weight f4 [16]
0	0xc1cedec2	-25.858768
1	0x4013cd12	2.3093915
2	0xc089d4f0	-4.3072433
3	0xbff3594a	-1.9011624
4	0xbf419bc2	-0.7562829
5	0xc1968852	-18.816563
6	0x41935a7f	18.419188
7	0x3e0ecad9	0.13944568
8	0xc1a15947	-20.168592
9	0xc0ef53cc	-7.478979
10	0xc147f735	-12.497853
11	0xc1898816	-17.191448
12	0xc22547fa	-41.32029
13	0x41062b7b	8.385615
14	0xc1adb433	-21.712988
15	0xc1af1851	-21.886873

bn1.bias f4 [16]
0	0x41d2de76	26.358624
1	0xc09057be	-4.5107107
2	0x4117eac2	9.494814
3	0xc125a4bd	-10.352719
4	0xc16bbf36	-14.734182
5	0xc199b901	-19.215334
6	0x4192f30e	18.36868
7	0xc1b24ff2	-22.289036
8	0xc234de02	-45.216805
9	0xc10ed8e3	-8.927951
10	0xc118965a	-9.536707
11	0x4283be98	65.87225
12	0xc1693eb5	-14.577809
13	0x3ff16e16	1.886172
14	0x415d11b1	13.816819
15	0x417ce9b1	15.807054

bn1.running_mean f4 [16]
0	0x4423103e	652.2538
1	0x00000004	6e-45
2	0x3e447ef2	0.19189051
3	0x00000004	6e-45
4	0x4270d7b7	60.21066
5	0x4334e47d	180.89253
6	0x440992b1	550.29205
7	0x3f667021	0.90014845
8	0x442ffbb4	703.93286
9	0x440e7b42	569.9259
10	0x461651d4	9620.457
11	0x445f1ea1	892.4786
12	0x451d3e80	2515.9062
13	0x00000004	6e-45
14	0x4438c5bd	739.08966
15	0x443121e4	708.52954

bn1.running_var f4 [16]
0	0x49db239d	1.7951876e+06
1	0x00000004	6e-45
2	0x3c7f1a4d	0.015570235
3	0x00000004	6e-45
4	0x46c2645c	24882.18
5	0x48d0331e	426392.94
6	0x4995cf48	1.227241e+06
7	0x3eaf6c32	0.34262234
8	0x49f935d6	2.0415308e+06
9	0x4943352c	799570.75
10	0x4d4de715	2.1590459e+08
11	0x4a7cb3e3	4.1402808e+06
12	0x4b9ab27a	2.0276468e+07
13	0x00000004	6e-45
14	0x4a027b77	2.1378218e+06
15	0x4a376ada	3.0051105e+06

conv2.weight f4 [32, 16, 4, 4]
0	0xbe9b8fbb	-0.30383095
1	0xbe05aa16	-0.13053164
2	0x3e8f5493	0.27994213
3	0x3e33c836	0.17556843
4	0xbe0d4fb5	-0.13799937
5	0xbe16f0af	-0.14740251
6	0xbe318155	-0.17334493
7	0x3e6a17af	0.22860597
8	0xbdcf55d0	-0.10123789
9	0xbf0353d3	-0.5129978
10	0xbe8402ff	-0.25783536
11	0xbd3de102	-0.046357162
12	0xbc6547df	-0.013994186
13	0xbed58e35	-0.41710058
14	0xbe08af46	-0.13348112
15	0xbd13593f	-0.035973784
16	0xbe51a689	-0.20473684
17	0x3dabb6cd	0.08384476
18	0xbec43f36	-0.38329476
19	0x3c829917	0.01594214
20	0x3e8997a3	0.26873502
21	0x3eb7d55a	0.35904962
22	0x3eecf6e2	0.46282107
23	0xbeb068d1	-0.3445497
24	0x3e946f01	0.2899094
25	0x3f166f5b	0.58763665
26	0x3e957f3d	0.29198638
27	0xbe478b77	-0.19486795
28	0x3d00a0f1	0.031403486
29	0x3ed124e2	0.40848452
30	0x3f0b15ee	0.5433034
31	0x3db0d0dd	0.086335875
32	0x3d0c2fb1	0.03422517
33	0xbded7784	-0.115950614
34	0x3ef0b391	0.47011998
35	0x3d8e4859	0.06947393
36	0xbebcbe57	-0.36863968
37	0xbe2fd287	-0.17170154
38	0x3df9a91f	0.121904604
39	0xbec25869	-0.37958077
40	0xbb96b660	-0.0045993775
41	0xbecac62e	-0.39604324
42	0xbe8cfb28	-0.27535367
43	0xbe0e3b30	-0.13889766
44	0xbe43e1be	-0.19129083
45	0xbf16cd67	-0.5890717
46	0xbeef3d76	-0.46726578
47	0xbeacc307	-0.33742544
48	0x3ee9ffe7	0.4570305
49	0x3f2347a5	0.63781196
50	0x3f59e67a	0.85117304
51	0x3f1e1086	0.6174396
52	0x3e842702	0.2581101
53	0x3f0be873	0.54651564
54	0x3f11286c	0.56702304
55	0x3dd9b903	0.10630991
56	0x3efb15bb	0.49040017
57	0x3f250788	0.64464617
58	0x3ed3c99c	0.41364753
59	0x3ec2d4f6	0.380531
60	0x3d574850	0.052559197
61	0x3f004f42	0.5012094
62	0x3ea610cf	0.324347
63	0x3ea59410	0.32339525
64	0x3f3d01d4	0.73830914
65	0x3f735013	0.9504406
66	0x3f4f5852	0.8099414
67	0x3ddd85af	0.10816514
68	0x3f2232c4	0.6335871
69	0x3f01bcef	0.50678915
70	0x3edd5a2c	0.43232858
71	0xbc68d6f8	-0.014211409
72	0x3ecab602	0.39591986
73	0x3ee63e56	0.44969434
74	0x3ead7d8a	0.3388484
75	0x3e8bb7d8	0.272887
76	0x3e18e236	0.14930043
77	0x3f156a41	0.58365256
78	0x3ea9d3ce	0.33169407
79	0x3d9e092e	0.07716595
80	0xbea2bb9a	-0.31783754
81	0x3f8ed601	1.1159059
82	0x3f194843	0.5987589
83	0x3eb983a2	0.3623324
84	0xbe4ddc23	-0.20103507
85	0x3da20da9	0.07912762
86	0x3ea01363	0.3126479
87	0x3ea35c12	0.31906182
88	0x3e75bb26	0.23997173
89	0x3dc9c7f8	0.09852594
90	0x3ed9e942	0.42560774
91	0x3f0c9c12	0.54925644
92	0x3edb0117	0.4277427
93	0x3e826c16	0.25473088
94	0xbeb20321	-0.34768012
95	0x3f0b177f	0.5433273
96	0xbf370f38	-0.71507597
97	0xbf01ba88	-0.5067525
98	0xbf2e08dc	-0.6798227
99	0xbef2bb4e	-0.47408527
100	0xbe02e69b	-0.12783282
101	0x3df1c895	0.11805836
102	0x3e70c002	0.23510745
103	0xbeeb84f4	-0.45999873
104	0xbdfd9b32	-0.12383117
105	0x3e3057e9	0.17221035
106	0x3d44c8df	0.048043128
107	0xbec152ce	-0.37758487
108	0xbd170d37	-0.036877837
109	0x3d1b5a76	0.037928067
110	0x3e03cfae	0.12872192
111	0xbe5545da	-0.20827428
112	0x3f27e115	0.6557782
113	0x3ec8419e	0.39112562
114	0x3e90e495	0.28299394
115	0x3f862d08	1.0482492
116	0x3c71459c	0.014726069
117	0x3eb9cf93	0.3629118
118	0x3eaca17f	0.33716962
119	0x3f6a72cf	0.91581434
120	0x3fbbbe0a	1.466737
121	0x3f6bd382	0.9211961
122	0x3e66cd54	0.22539264
123	0x3f796418	0.97418356
124	0x3f9f49bc	1.2444377
125	0x3e879b89	0.2648585
126	0x3ebd60e9	0.36988
127	0x3f986000	1.1904297
128	0x3ec544f9	0.38529184
129	0x3ecaf347	0.3963873
130	0x3e9ccee6	0.306266
131	0x3e98a170	0.29810667
132	0x3ea58f53	0.3233591
133	0x3f687544	0.90803933
134	0x3f5f6494	0.87262845
135	0xbdd99517	-0.1062414
136	0x3da2e7e5	0.079543866
137	0x3e7a6aa5	0.24454744
138	0xbd251dd7	-0.04031166
139	0x3d7269a2	0.05918277
140	0xbc8fe2fe	-0.017564293
141	0x3e2d90d2	0.16949776
142	0x3ee51e6e	0.44749779
143	0x3eb74054	0.35791266
144	0x3f1d6c07	0.6149296
145	0x3f3e899c	0.74428725
146	0x3f69c9b6	0.9132341
147	0xbdd790ac	-0.10525641
148	0x3f0cc1ff	0.54983515
149	0x3f11117b	0.566673
150	0x3efbfc60	0.49215984
151	0x3dc50223	0.09619548
152	0x3b93646c	0.004498055
153	0x3eb92a47	0.36165068
154	0x3e5e6784	0.21719176
155	0x3eb7343f	0.35782048
156	0x3ecfa2ed	0.4055399
157	0x3f0877e9	0.5330797
158	0x3ea9ed9c	0.33189094
159	0x3eb72767	0.3577225
160	0x3e31095f	0.17288731
161	0xbd5ec970	-0.054391325
162	0x3f3006a9	0.6876016
163	0x3f92c5c3	1.1466602
164	0x3e84126c	0.25795305
165	0x3e0257dd	0.1272883
166	0x3ea67d0f	0.32517287
167	0x3efbfb64	0.49215233
168	0x3ecc1e9c	0.39867103
169	0x3ef6077b	0.48052582
170	0x3e15862f	0.14601968
171	0x3f6a6b96	0.91570413
172	0x3f1b39ac	0.60634875
173	0x3f011fd0	0.5043917
174	0x3f22674c	0.6343887
175	0x3f898659	1.0744125
176	0xbfc8e1ba	-1.5693886
177	0xc02b7901	-2.6792605
178	0xc04af507	-3.1712053
179	0xbf8de861	-1.1086541
180	0xbe655b11	-0.2239802
181	0xbf0a864e	-0.5411118
182	0xbf68fb40	-0.9100838
183	0xbf6e1bbb	-0.93011063
184	0x3ed22975	0.41047254
185	0xbee0d551	-0.43912748
186	0xbf2e03b6	-0.6797441
187	0xbf22ec66	-0.63641965
188	0xbf48b84e	-0.78406227
189	0xbf39e228	-0.7261071
190	0x3c320498	0.010865353
191	0xbdf20d87	-0.118189864
192	0xbe8c0d9c	-0.27354133
193	0xbd8e08a1	-0.069352396
194	0x3ed3aaaf	0.4134116
195	0x3ef9cbb7	0.48788235
196	0x3e5bb8c7	0.21457206
197	0x3dfe4378	0.124152124
198	0x3ea92332	0.33034664
199	0x3ebe513f	0.3717136
200	0x3e81d475	0.25357404
201	0xbf43b6d7	-0.76450866
202	0xbf4a0f43	-0.7892954
203	0xbecab529	-0.3959134
204	0xbd143e86	-0.03619244
205	0xbf2c1e25	-0.67233497
206	0xbf107e22	-0.56442463
207	0xbe8dc34f	-0.2768807
208	0x3eaa4f2d	0.3326353
209	0x3f03e6cb	0.5152404
210	0x3e79765d	0.24361558
211	0x3ebe986e	0.3722567
212	0x3db2b95d	0.087267615
213	0x3ea0c6f1	0.3140178
214	0x3ed353db	0.41274914
215	0x3d1a662a	0.037695087
216	0xbd9bf5ba	-0.07615228
217	0x3f09f8eb	0.53895444
218	0x3f014987	0.5050282
219	0x3ebaa9f8	0.364578
220	0x3be3807c	0.0069428068
221	0x3f004961	0.5011197
222	0x3e91d6d1	0.28484204
223	0x3ee99a46	0.45625514
224	0xbf78ff16	-0.9726423
225	0xbbf23270	-0.0073912665
226	0xbe96090b	-0.29303774
227	0xbf0b90ba	-0.5451771
228	0x3e8c1261	0.27357772
229	0x3e8f6e41	0.28013805
230	0x3e38f9f6	0.18064103
231	0xbe186318	-0.14881551
232	0xbd89b074	-0.06723109
233	0x3e518265	0.20459898
234	0x3e2e8edb	0.17046683
235	0xbe1cd5b9	-0.15315904
236	0xbdc78830	-0.097427726
237	0x3da8a121	0.08233858
238	0x3e604e4e	0.21904871
239	0x3d66febd	0.05639528
240	0x3f2beb0a	0.67155516
241	0x3ddea630	0.108715415
242	0x3d6be4d3	0.05759127
243	0x3f68ea3f	0.9098243
244	0x3f28cd91	0.6593867
245	0x3f07d720	0.5306263
246	0xbde2fc57	-0.11083286
247	0x3dfc36d5	0.12315146
248	0x3d8b59b1	0.06804217
249	0x3dbecb5d	0.09316132
250	0xbe68fff3	-0.22753887
251	0x3e9f2394	0.3108183
252	0xbe21bc0b	-0.15794389
253	0xbe934cb8	-0.2876947
254	0xbd89b992	-0.06724848
255	0x3d9ed3e4	0.07755259

conv2.bias f4 [32]
0	0xbea1a7df	-0.31573388
1	0x3e05ede7	0.13079034
2	0xbdc17d60	-0.094477415
3	0xbe4e9b35	-0.20176394
4	0xbe66c3a1	-0.22535564
5	0xbf5ec9c2	-0.8702661
6	0x3efdebca	0.49593955
7	0x3e113cd7	0.14183365
8	0xbe4d28a8	-0.2003504
9	0xbca84738	-0.020541772
10	0xbe086fa1	-0.13323833
11	0xbd698933	-0.05701561
12	0xbe88d1bb	-0.26722512
13	0xbec4f8e8	-0.3847115
14	0xbe6fe8fd	-0.23428722
15	0x3d2bc4b2	0.04193563
16	0x3cdc7284	0.026910074
17	0xbe1962ce	-0.14979097
18	0xbe5ec418	-0.21754491
19	0xbe1bfa9b	-0.15232317
20	0x3e46f35f	0.19428776
21	0xbe44f0c2	-0.19232467
22	0x3d54ed98	0.0519844
23	0xbd8deac9	-0.06929547
24	0x3ec47ab9	0.3837488
25	0xbeb58267	-0.35451052
26	0xbe9033eb	-0.2816461
27	0x3d5c4ce7	0.053784277
28	0xbe94e500	-0.29080963
29	0xc00a6ab0	-2.1627617
30	0xbe344373	-0.17603855
31	0xbdc2da7c	-0.09514329

bn2.weight f4 [32]
0	0x3f86d58c	1.0533919
1	0xc198746b	-19.056845
2	0x40ae4294	5.445627
3	0x3f841fb2	1.0322173
4	0xc0bb09e6	-5.8449583
5	0x40a31b3d	5.097075
6	0x41e93080	29.148682
7	0x41894e04	17.163094
8	0xbff1fdb5	-1.890555
9	0x3fb941e6	1.4473236
10	0x402e2891	2.721226
11	0x3f96536a	1.1744206
12	0x40b632a7	5.693683
13	0x40d25888	6.573307
14	0xc0a62002	-5.191407
15	0xc1a45c79	-20.545153
16	0xc08d01ac	-4.406454
17	0x41d8cec2	27.100956
18	0x40a2a3fa	5.0825167
19	0xc0d35a75	-6.604792
20	0x419c2a65	19.5207
21	0x41ce8a65	25.817575
22	0x40fb49e9	7.852772
23	0x3f6874e9	0.9080339
24	0x420fa0f0	35.907166
25	0x40a3da0a	5.120366
26	0x411ac3bb	9.672786
27	0xc1858698	-16.69072
28	0xc0ab09d0	-5.344948
29	0x4060d15d	3.5127785
30	0x4128cd20	10.550079
31	0xc1e3303a	-28.398548

bn2.bias f4 [32]
0	0x40b2ee78	5.59161
1	0xc204fb79	-33.24558
2	0x4221362f	40.302914
3	0x4138715d	11.527677
4	0xc2030df6	-32.763634
5	0xc14c2904	-12.760014
6	0xc195171e	-18.636288
7	0x41ff2897	31.89482
8	0xc134576b	-11.271342
9	0xbfa863b6	-1.3155429
10	0x41c13205	24.149424
11	0x4203ad08	32.918976
12	0xc219b7ce	-38.429497
13	0xc24309f2	-48.759712
14	0x41d8eb56	27.11491
15	0x4287a683	67.82522
16	0x41d20dbc	26.256706
17	0x4221c488	40.441925
18	0xc04f5091	-3.2392924
19	0x4212163b	36.52171
20	0xc07de759	-3.9672453
21	0x4115a10b	9.351817
22	0x41988c63	19.068548
23	0x409fce0b	4.9939017
24	0xc208af3c	-34.171127
25	0x40e92b78	7.2865562
26	0x40807629	4.014424
27	0x427df242	63.48658
28	0x4064ecdd	3.576957
29	0x41b74428	22.90828
30	0xc1baa7a0	-23.331848
31	0x41d19a85	26.200449

bn2.running_mean f4 [32]
0	0x00000004	6e-45
1	0x45aebce5	5591.612
2	0x45cc64c7	6540.597
3	0x00000004	6e-45
4	0x00000004	6e-45
5	0x00000004	6e-45
6	0x45698104	3736.0635
7	0x447cd3fb	1011.3122
8	0x00000004	6e-45
9	0x00000004	6e-45
10	0x00000004	6e-45
11	0x00000004	6e-45
12	0x00000004	6e-45
13	0x00000004	6e-45
14	0x00000004	6e-45
15	0x00000004	6e-45
16	0x00000004	6e-45
17	0x456d85d3	3800.364
18	0x00000004	6e-45
19	0x39504d15	0.00019865141
20	0x4542ae54	3114.8955
21	0x44db38ba	1753.7727
22	0x00000004	6e-45
23	0x00000004	6e-45
24	0x467a0ab7	16002.679
25	0x00000004	6e-45
26	0x00000004	6e-45
27	0x43cddb4b	411.71323
28	0x00000004	6e-45
29	0x00000004	6e-45
30	0x00000004	6e-45
31	0x43ab9235	343.14224

bn2.running_var f4 [32]
0	0x00000004	6e-45
1	0x4a3bdfec	3.078139e+06
2	0x4c1e0d92	4.143265e+07
3	0x00000004	6e-45
4	0x00000004	6e-45
5	0x00000004	6e-45
6	0x4b7418e9	1.5997161e+07
7	0x4a2d6c18	2.84135e+06
8	0x00000004	6e-45
9	0x00000004	6e-45
10	0x00000004	6e-45
11	0x00000004	6e-45
12	0x00000004	6e-45
13	0x00000004	6e-45
14	0x00000004	6e-45
15	0x00000004	6e-45
16	0x00000004	6e-45
17	0x499e7df3	1.2983664e+06
18	0x00000004	6e-45
19	0x3cb323e8	0.021867707
20	0x497cf2c0	1.036076e+06
21	0x4a715cbf	3.9544798e+06
22	0x00000004	6e-45
23	0x00000004	6e-45
24	0x4b59a1e0	1.4262752e+07
25	0x00000004	6e-45
26	0x00000004	6e-45
27	0x4993e955	1.2116906e+06
28	0x00000004	6e-45
29	0x00000004	6e-45
30	0x00000004	6e-45
31	0x48894d98	281196.75

conv3.weight f4 [64, 32, 5, 5]
0	0xbd3e300c	-0.04643254
1	0x3a3846c3	0.0007029587
2	0x3d8a3ab6	0.067494795
3	0x3d95fa89	0.073231764
4	0x3d7e4b63	0.062083613
5	0xbd0b7887	-0.03405049
6	0x3e067780	0.13131523
7	0x3dc3ccb8	0.095605314
8	0x3da4c9d7	0.080463104
9	0x3cf5652e	0.029955473
10	0xbdcaf431	-0.09909857
11	0xbb24e52e	-0.0025161016
12	0xbdb99bcf	-0.09062921
13	0x3d1a7d74	0.037717298
14	0xbc697756	-0.014249643
15	0x3c1b203e	0.009468136
16	0xbcf71d87	-0.030165447
17	0xbb6c0510	-0.003601376
18	0x3d73e465	0.059543986
19	0x3ca906a2	0.020633046
20	0x3c3f3aae	0.011671705
21	0xbbcbc06f	-0.006218008
22	0x3dafb48e	0.0857936
23	0x3dc872cc	0.09787521
24	0x3c046aa9	0.00808207
25	0xbd667897	-0.056267347
26	0xbd6ddbeb	-0.05807106
27	0xbd43b47e	-0.047779553
28	0xbe4497c1	-0.19198515
29	0xbc2c2810	-0.0105075985
30	0xbafbd337	-0.0019212727
31	0x3d2e0607	0.042486217
32	0x3d804e4f	0.06264936
33	0xbca26709	-0.019824522
34	0x3d2f2a60	0.04276502
35	0xbcda9ec8	-0.02668704
36	0xbd829f04	-0.06377986
37	0x3c83ddd2	0.016096983
38	0x3cacadbb	0.021078935
39	0xbd1d4379	-0.038394425
40	0xbb31023a	-0.0027009384
41	0x3d25f847	0.04051998
42	0x3c61a158	0.0137713775
43	0xbb64cf7e	-0.0034913714
44	0xbd153510	-0.036427557
45	0x3b94f922	0.0045463005
46	0xbc05758a	-0.008145699
47	0xbd1c60b0	-0.038178146
48	0xbdbd1965	-0.09233359
49	0xbd91aa83	-0.07112601
50	0xbd9f224e	-0.07770215
51	0x3d8d91a2	0.06912543
52	0xbdf5b942	-0.11998226
53	0x3d3d332f	0.04619139
54	0xbdcb5e7d	-0.099301316
55	0x3cdb4402	0.026765827
56	0x3df733bd	0.12070415
57	0xbe058053	-0.13037233
58	0xbd609373	-0.05482812
59	0xbdd60f0a	-0.10452087
60	0xbcdec03c	-0.027191274
61	0x3a8259d3	0.0009944983
62	0xbe109f13	-0.14123182
63	0x3d1ab784	0.03777267
64	0xbdf53310	-0.1197263
65	0xbd96812d	-0.07348857
66	0x3d61cee6	0.055128954
67	0x3d168381	0.036746506
68	0x3d3b1052	0.04566986
69	0xbc76ec59	-0.015070998
70	0x3d7f9c6c	0.062405035
71	0xbd356221	-0.044283036
72	0xbde087d8	-0.1096341
73	0xbda3a10d	-0.079897024
74	0xbdcb8e9b	-0.09939309
75	0xbc9640e3	-0.018341487
76	0x3ccc7105	0.024956236
77	0x3d467baa	0.04845778
78	0x3e215a9e	0.15757224
79	0x3d6626c0	0.0561893
80	0x3ba9f933	0.0051871776
81	0xbbff477c	-0.007790504
82	0xbd534fcb	-0.05158977
83	0x3d844aa8	0.06459552
84	0x3d03479d	0.032050718
85	0xbb847e7c	-0.0040433984
86	0xbe23b733	-0.15987854
87	0x3d83bac1	0.06432105
88	0x3c772a0e	0.01508571
89	0x3d5d51b1	0.054032985
90	0xbb3c2b42	-0.0028712307
91	0xbcaf1a7a	-0.02137493
92	0x3d9c751f	0.076395266
93	0xbc8bab52	-0.017049465
94	0x3c8ebb1a	0.017423201
95	0x3c053388	0.008129962
96	0x3b6906cf	0.0035557037
97	0xba990779	-0.0011675201
98	0x3cfe5d61	0.031050386
99	0xbc8b0684	-0.01697088
100	0x3c37564c	0.011190008
101	0x3cc897f4	0.02448652
102	0x3c92f36b	0.017938336
103	0x3cc34e68	0.023841098
104	0x3cc5dec5	0.024154076
105	0xba33da6d	-0.0006860856
106	0x3d0e5f4f	0.034758862
107	0x3dfe7dc1	0.124263294
108	0x3dd553f8	0.104164064
109	0xbce282ea	-0.027650315
110	0xbb0daf53	-0.0021619394
111	0xbd03d606	-0.03218653
112	0xbc69c628	-0.014268436
113	0xbcd0b5c6	-0.025477301
114	0xbba9f7f4	-0.005187029
115	0x3d037330	0.032092273
116	0xbd2b2620	-0.041784406
117	0x3d94352c	0.07236704
118	0x3d9eb8a1	0.07750059
119	0x3bf45d3c	0.0074574035
120	0x3d10b2c4	0.035326734
121	0x3d4221e1	0.04739559
122	0x3db05124	0.08609226
123	0x3d236b72	0.03989739
124	0xbca0fd1b	-0.01965194
125	0x3d35194c	0.044213578
126	0xbd77a009	-0.060455356
127	0xbc0954c6	-0.008382028
128	0x3a3f64f3	0.00073011144
129	0x3cb28b9b	0.021795085
130	0xbc9dbb82	-0.01925445
131	0xbb62bf58	-0.0034598913
132	0xbded4234	-0.11584893
133	0x3cc8a4c5	0.02449263
134	0x3d5b3695	0.05351885
135	0x3d01aa68	0.031656653
136	0xbd6c3b64	-0.057673827
137	0xbd81759a	-0.06321259
138	0x3c44dd88	0.012015708
139	0x3c882ae1	0.016622009
140	0x3b328024	0.0027237022
141	0xbd5a9079	-0.053360436
142	0x3d280ad6	0.04102596
143	0xbca4ca31	-0.020115944
144	0x3ccd98a5	0.0250972
145	0xbdccd49e	-0.10001491
146	0xbd8547b4	-0.06507817
147	0xbdcf2feb	-0.101165615
148	0xbd35c1e7	-0.044374373
149	0x3c1a51b7	0.009418896
150	0xbb90ec18	-0.004422676
151	0xbd0c149c	-0.034199342
152	0x3bfa0b58	0.007630747
153	0xbd98bb93	-0.07457652
154	0xbdd3df41	-0.10345317
155	0xbdf88301	-0.12134362
156	0xbde9e830	-0.114212394
157	0xbe0ab898	-0.1354698
158	0xbdc6d94b	-0.09709414
159	0xbe96a012	-0.29419
160	0xbdbb1ad5	-0.09135977
161	0xbcddd5c3	-0.027079469
162	0x3d3397c1	0.043845896
163	0xbc5a1398	-0.013310336
164	0xbe3b42b1	-0.1828716
165	0x3cc554b1	0.024088236
166	0x3cd08aba	0.025456775
167	0x3d1b5ea9	0.03793207
168	0x3cb2148a	0.02173831
169	0x3d36c078	0.044617146
170	0x3d7af078	0.061264485
171	0x3cde4e03	0.027136808
172	0x3d9ec467	0.077523045
173	0x3d44652b	0.047948044
174	0xbd3c46f5	-0.045966107
175	0xbdc32f70	-0.09530532
176	0x3d72b7e1	0.05925739
177	0x3caf423d	0.02139389
178	0x3d7f0f81	0.062270645
179	0xbd7860f9	-0.060639355
180	0xbce009bf	-0.027348397
181	0xbc0fb222	-0.0087704975
182	0xbe22b82e	-0.15890571
183	0x3cef516e	0.029213633
184	0xbd08f2a3	-0.03343452
185	0xbc46783e	-0.012113629
186	0xbd015afb	-0.031580906
187	0xbe83b455	-0.2572352
188	0x3c1590b9	0.009128743
189	0xbd9c4df2	-0.076320544
190	0x3cffd91b	0.031231454
191	0x3c9c7c2a	0.019102175
192	0xbbc5528f	-0.0060218046
193	0x3da90b18	0.08254069
194	0xbd538493	-0.051640105
195	0x3dae4082	0.08508398
196	0x3dc349ff	0.09535598
197	0x3dc26786	0.09492402
198	0x3c68472e	0.014177127
199	0xbb1cc68b	-0.0023922052
200	0xbd78c9b2	-0.060739227
201	0xbcb2613f	-0.021774886
202	0xbd5bebd6	-0.053691708
203	0xbbb451ae	-0.005502901
204	0x3df20cd6	0.118188545
205	0xbcdfa6ba	-0.027301181
206	0x3c8e2680	0.017352343
207	0x3d536d97	0.051618185
208	0xbd1fb249	-0.038988385
209	0x3e27c5a6	0.1638399
210	0xbd1e7376	-0.03868433
211	0x3d8c8cc5	0.06862787
212	0xbd30ce01	-0.04316521
213	0xbd353df6	-0.044248544
214	0x3d9cdbaa	0.07659085
215	0xbd8a1f0f	-0.06744205
216	0x3c8c1009	0.01709749
217	0xbdf57b4a	-0.11986406
218	0x3b874d8a	0.0041291164
219	0x3e064ea9	0.13115944
220	0xbd1cccd1	-0.038281266
221	0x3d17b89f	0.037041303
222	0x3c9f7118	0.019463107
223	0x3e00095e	0.12503573
224	0x3dbe8a40	0.09303713
225	0xbc2e3e24	-0.010634933
226	0xbcfe3df4	-0.0310354
227	0xbddac6f3	-0.10682478
228	0xbc874709	-0.016513364
229	0xbb4549b9	-0.0030103757
230	0xbae03ec5	-0.001710855
231	0xbda92c03	-0.08260348
232	0xbd47b753	-0.048758816
233	0x3c636174	0.013878215
234	0x3d82f5de	0.06394552
235	0xbd334401	-0.043766025
236	0x3cb5826e	0.02215692
237	0xbc8bde89	-0.017073886
238	0xbd9f6cda	-0.07784434
239	0x3b98680d	0.0046510757
240	0xbd483f18	-0.048888296
241	0xbda33ae8	-0.0797022
242	0xbd8c4e21	-0.068508394
243	0xbcfcc116	-0.03085379
244	0x3cce0829	0.025150375
245	0xbbf61e8f	-0.007510967
246	0xbd35ab19	-0.044352625
247	0xbc931466	-0.017954063
248	0xbd80adfa	-0.062831834
249	0x3c50019a	0.012695694
250	0xbcd0f5c5	-0.025507817
251	0xbd30037f	-0.042972084
252	0x3c0bf16f	0.008541449
253	0x3cc580cb	0.024109265
254	0xbc424c49	-0.011859008
255	0xbd321f47	-0.04348686

conv3.bias f4 [64]
0	0x3d5f767a	0.054556347
1	0x3d1d6e71	0.038435403
2	0x3cf38273	0.029725289
3	0xbbe46b70	-0.0069708154
4	0xbc7cac73	-0.0154219745
5	0xbcf9a552	-0.030474339
6	0x3eaed57e	0.34147257
7	0xbf8a9e11	-1.0829488
8	0xba39024a	-0.0007057531
9	0x3bc75ff4	0.0060844366
10	0x3cd5f87b	0.026119461
11	0xbca614ea	-0.020273644
12	0x3d41a949	0.047280584
13	0x3f72f865	0.9491027
14	0x3d96348f	0.073342435
15	0xbb5f299b	-0.0034051898
16	0x3d0fedd6	0.035138927
17	0x3de07f14	0.10961738
18	0x3c9495e8	0.018137887
19	0x3c043cfa	0.008071179
20	0x3d9d10d4	0.07669225
21	0x3e011164	0.1260429
22	0x3d423eeb	0.047423285
23	0xbd07a451	-0.03311569
24	0xbe5dddd6	-0.21666655
25	0xbcb8d484	-0.022562273
26	0x3dba8496	0.0910732
27	0x3f4c1b7e	0.7972945
28	0x3debffab	0.11523374
29	0xbdaec110	-0.085329175
30	0xbbf8ca7d	-0.007592498
31	0x3dc538fc	0.096300095
32	0xbdc29922	-0.09501864
33	0x3d0364ad	0.032078434
34	0x3f531605	0.82455474
35	0xbbcc48aa	-0.006234248
36	0x3d0e67a9	0.034766827
37	0xbbb6c702	-0.005577923
38	0xc05d2d48	-3.4558887
39	0xbb88465a	-0.004158777
40	0x3cbd6049	0.023117201
41	0x3d604557	0.054753628
42	0x3e52b20e	0.20575735
43	0x3e279e3c	0.16368955
44	0xbc01a44f	-0.007912709
45	0xbd800042	-0.06250049
46	0x3d8628f0	0.06550777
47	0xbc420387	-0.011841661
48	0xbb92e151	-0.004482426
49	0x3f79c5de	0.97567546
50	0xbe888964	-0.2666732
51	0xbddc848d	-0.107674696
52	0x3e121ce2	0.1426883
53	0xbfeeeb85	-1.8665625
54	0x3be4eefa	0.006986496
55	0xbf2dd497	-0.6790251
56	0xbd502990	-0.050820887
57	0xbdc52cae	-0.096276626
58	0x3fa3d954	1.2800698
59	0x3d66c637	0.056341376
60	0x3d68e659	0.0568603
61	0xbd349a12	-0.044092245
62	0x3f52eb66	0.8239044
63	0x404b83b0	3.1799126

bn3.weight f4 [64]
0	0x3f3c187b	0.73474854
1	0x40cf1809	6.471684
2	0x40d07131	6.5138173
3	0x404c8cb7	3.1960886
4	0x40b34760	5.602463
5	0x40342001	2.8144534
6	0x410cb136	8.793264
7	0x409462a6	4.637042
8	0x3fada643	1.3566364
9	0x40ccd400	6.400879
10	0x40bf4cc5	5.9781213
11	0x40dca1c8	6.8947487
12	0x40e610ef	7.189567
13	0x40d90c11	6.782723
14	0x40527c56	3.2888389
15	0x40b8a703	5.770387
16	0x40b28473	5.578668
17	0x40b05ec3	5.5115676
18	0x400559dc	2.0836096
19	0x40400600	3.0003662
20	0x4098412a	4.7579546
21	0x40b7064c	5.7195187
22	0x4091b75d	4.553633
23	0x3ef924e8	0.4866097
24	0x3f75fa7a	0.9608532
25	0x403f4e08	2.9891376
26	0x40a75b32	5.2298822
27	0x410c947a	8.786249
28	0x40dbcc03	6.868654
29	0x3fdc4887	1.7209634
30	0x405f1070	3.4853783
31	0x411f1edc	9.945034
32	0x40cac6dd	6.3367753
33	0x40b067c2	5.5126657
34	0x40acb8a5	5.3975396
35	0x40e9700c	7.2949276
36	0x406b884c	3.680194
37	0x409cf644	4.9050617
38	0x40f897a5	7.7685113
39	0x401b2b73	2.424527
40	0x41364480	11.391724
41	0x40be3507	5.943973
42	0x3f767e5d	0.96286565
43	0x40b1504e	5.541053
44	0x40255f8b	2.5839565
45	0x3f88f18b	1.0698713
46	0x40ce301d	6.443373
47	0x3fc73504	1.5563054
48	0x409217ab	4.565389
49	0x407a355f	3.9095075
50	0x3f900889	1.1252605
51	0x409a1b98	4.8158684
52	0x40ceffe9	6.468739
53	0x401162d0	2.271656
54	0x40d3c9e7	6.6183963
55	0x40fc6ff2	7.888665
56	0x3fc38b5c	1.5276904
57	0xc0e9f0b1	-7.3106313
58	0x401618bc	2.3452597
59	0x3fe2f221	1.7730142
60	0x401d8e33	2.4618042
61	0x3fbc095b	1.4690355
62	0x40e50f04	7.158083
63	0x3fd0a158	1.6299238

bn3.bias f4 [64]
0	0x40263f87	2.5976274
1	0x3e4c6c1f	0.1996312
2	0xc0a99a48	-5.300083
3	0x4155fdd2	13.374468
4	0x3ee90ece	0.45519108
5	0x3fef764e	1.8707979
6	0xc0c6cff4	-6.212885
7	0xbe2a3562	-0.16621926
8	0xbfdf13c5	-1.7427908
9	0x40478417	3.1174371
10	0xc081c6b4	-4.0555058
11	0xc0a43237	-5.1311297
12	0xc18fece2	-17.990665
13	0x40f346d6	7.602397
14	0x3cbc3af1	0.022977324
15	0xc13b70af	-11.715011
16	0xbf3d3c9c	-0.7392061
17	0x4011f0f4	2.2803316
18	0xbfbd0360	-1.4766655
19	0xc0524ceb	-3.2859447
20	0x4164b598	14.294334
21	0xbef92faa	-0.48669177
22	0x41869a84	16.825447
23	0xbff246fd	-1.8927914
24	0xbf91ce99	-1.1391174
25	0xbfcd4a62	-1.6038325
26	0x40b067a0	5.5126495
27	0x40c0cec0	6.025238
28	0x408dc591	4.430367
29	0xc0370b71	-2.8600733
30	0x3f75e298	0.9604888
31	0xc0e93643	-7.2878737
32	0x3ef03588	0.4691584
33	0x413144d6	11.079306
34	0x40ed4379	7.4144864
35	0xbf720663	-0.94540995
36	0x40304212	2.7540326
37	0xbf2d0681	-0.6758805
38	0xbfc557fb	-1.5417475
39	0x40829bae	4.081504
40	0xbfcb92c8	-1.5904169
41	0xc076332d	-3.8468735
42	0xc0323644	-2.784562
43	0x3fb5318d	1.4155747
44	0x3ed469eb	0.4148706
45	0x3f29d551	0.6634112
46	0xc01d6ffc	-2.45996
47	0x3e045959	0.12924708
48	0x3e5f515c	0.2180838
49	0xbfe8b3ce	-1.8179872
50	0x40b25300	5.572632
51	0x408b8959	4.360516
52	0x407438a9	3.8159583
53	0xc065b9f9	-3.5894759
54	0x3d017226	0.031603
55	0x409245ee	4.5710363
56	0x3e4b77f9	0.19869985
57	0xc112d1e9	-9.176248
58	0x3fcce939	1.6008674
59	0x4137aa24	11.479038
60	0x3f250ae2	0.6446973
61	0x3f655721	0.89586073
62	0x3f6dcd3c	0.9289129
63	0x405e9503	3.477845

bn3.running_mean f4 [64]
0	0x00000004	6e-45
1	0x44c61e32	1584.9436
2	0x38d6c36a	0.00010240714
3	0x455d4fe7	3540.994
4	0x4535bfdc	2907.9912
5	0x00000004	6e-45
6	0x00000004	6e-45
7	0x4462490c	905.14136
8	0x00000004	6e-45
9	0x45113b5c	2323.71
10	0x442cc105	691.0159
11	0x454d5d88	3285.8457
12	0x3d7ad4b2	0.061238
13	0x00000004	6e-45
14	0x47fb2f81	128607.01
15	0x00000004	6e-45
16	0x3b0df708	0.0021662135
17	0x3c7f38ad	0.015577477
18	0x00000004	6e-45
19	0x00000004	6e-45
20	0x3b919c04	0.0044436473
21	0x449faa6c	1277.3257
22	0x44a331d4	1305.5571
23	0x3bbbe136	0.0057336343
24	0x00000004	6e-45
25	0x00000004	6e-45
26	0x444662e9	793.5455
27	0x00000004	6e-45
28	0x00000004	6e-45
29	0x00000004	6e-45
30	0x00000004	6e-45
31	0x3c770521	0.015076906
32	0x45096d91	2198.848
33	0x3d4d4c9f	0.0501219
34	0x00000004	6e-45
35	0x3b758ae2	0.0037466814
36	0x00000004	6e-45
37	0x451065c0	2310.3594
38	0x3f080d3d	0.531452
39	0x00000004	6e-45
40	0x3b3d8947	0.0028920935
41	0x45657112	3671.067
42	0x00000004	6e-45
43	0x47b2fdbf	91643.49
44	0x44d568bd	1707.2731
45	0x00000004	6e-45
46	0x442e14ba	696.32385
47	0x00000004	6e-45
48	0x00000004	6e-45
49	0x45486b66	3206.7124
50	0x46486a33	12826.55
51	0x3b1330d5	0.0022459526
52	0x3c7e34d0	0.015515521
53	0x4702763e	33398.242
54	0x45396076	2966.0288
55	0x38f163db	0.00011510375
56	0x00000004	6e-45
57	0x3b84b913	0.004050383
58	0x442727c7	668.6215
59	0x47ddb139	113506.445
60	0x00000004	6e-45
61	0x00000004	6e-45
62	0x00000004	6e-45
63	0x464ee09f	13240.155

bn3.running_var f4 [64]
0	0x00000004	6e-45
1	0x48533666	216281.6
2	0x3b9ecb32	0.004846
3	0x484717d4	203871.31
4	0x48a90260	346131.0
5	0x00000004	6e-45
6	0x00000004	6e-45
7	0x4919cb25	629938.3
8	0x00000004	6e-45
9	0x49685f34	951795.25
10	0x48ef6643	490290.1
11	0x4893d5af	302765.47
12	0x41f7146b	30.88497
13	0x00000004	6e-45
14	0x4c77d3ee	6.4966584e+07
15	0x00000004	6e-45
16	0x3e897619	0.26847914
17	0x41a7d1e9	20.977495
18	0x00000004	6e-45
19	0x00000004	6e-45
20	0x4129f041	10.621156
21	0x47fd967c	129836.97
22	0x495ee308	912944.5
23	0x40196dd7	2.397329
24	0x00000004	6e-45
25	0x00000004	6e-45
26	0x48ddde2a	454385.3
27	0x00000004	6e-45
28	0x00000004	6e-45
29	0x00000004	6e-45
30	0x00000004	6e-45
31	0x42ebdde8	117.93341
32	0x4898493c	311881.88
33	0x433e75e6	190.46054
34	0x00000004	6e-45
35	0x3f4b8632	0.7950164
36	0x00000004	6e-45
37	0x4a206806	2.6280975e+06
38	0x46d92eb1	27799.346
39	0x00000004	6e-45
40	0x3fcfed6b	1.6244329
41	0x48d1851e	429096.94
42	0x00000004	6e-45
43	0x4b8d3bc5	1.8511754e+07
44	0x46d687d7	27459.92
45	0x00000004	6e-45
46	0x48996a4c	314194.38
47	0x00000004	6e-45
48	0x00000004	6e-45
49	0x4887b226	277905.2
50	0x49e823a6	1.9016848e+06
51	0x3f120751	0.57042414
52	0x42ec2ab7	118.08343
53	0x4c149f12	3.89602e+07
54	0x48b08731	361529.53
55	0x3c023d63	0.007949206
56	0x00000004	6e-45
57	0x406357e2	3.552239
58	0x4881533c	264857.88
59	0x4bb7e33a	2.4102516e+07
60	0x00000004	6e-45
61	0x00000004	6e-45
62	0x00000004	6e-45
63	0x49e3b0c3	1.8652404e+06

fc1.weight f4 [256, 64]
0	0xbea20ca1	-0.3165026
1	0x3f0be32b	0.54643506
2	0xc0581d57	-3.3767908
3	0x4059e4e4	3.4045954
4	0xbe4c534d	-0.19953652
5	0xbe8b8628	-0.2725079
6	0x3db6e439	0.08930249
7	0xbea2f3cf	-0.31826636
8	0xbf2eb578	-0.6824565
9	0x3f8c88ec	1.0979285
10	0xc07d6900	-3.9595337
11	0x3ec23bc2	0.37936217
12	0xbeb6723e	-0.35634035
13	0x3fda50f1	1.7055951
14	0xbe9c5fa9	-0.30541733
15	0x40512a76	3.2682166
16	0x3e461c4c	0.19346732
17	0x404b1f43	3.173783
18	0xbee6b128	-0.45057034
19	0x3f66d363	0.901663
20	0xc01063f7	-2.2561014
21	0x3e9772f7	0.295799
22	0x3df74f2c	0.12075648
23	0x3eda9962	0.42695147
24	0xbe1fcf09	-0.15606321
25	0x3e954fb8	0.29162383
26	0x406be02a	3.685557
27	0x406cc13e	3.6992946
28	0xbe7dde3d	-0.24791808
29	0xbe011d72	-0.12608889
30	0xbf8f3c39	-1.1190253
31	0xc0bcb48c	-5.8970394
32	0xbe9a5730	-0.30144644
33	0xbf09ec52	-0.5387622
34	0x3fa87c41	1.3162919
35	0x3de25720	0.11051774
36	0xbdc3e91a	-0.09565945
37	0x3f245dea	0.642058
38	0x3de1f876	0.11033718
39	0xbecf77a6	-0.40520972
40	0x405cbf17	3.4491632
41	0xbf4d8f97	-0.80297226
42	0xbf392140	-0.7231636
43	0xbf57106e	-0.84009445
44	0x3e97b18b	0.29627642
45	0x3c905065	0.01761646
46	0x3f8f7adc	1.1209369
47	0xbeabbd01	-0.33542636
48	0xbf028b07	-0.5099339
49	0x3d79b3ef	0.060962614
50	0xbfa6e26a	-1.3037846
51	0xbf59a4f2	-0.8501731
52	0x40576afc	3.3659048
53	0xbf016ba2	-0.5055486
54	0xbe2e4c44	-0.1702128
55	0x4052679d	3.287574
56	0xbe68f769	-0.2275063
57	0xc058f1d4	-3.38976
58	0xbf591a9f	-0.84806246
59	0xbfff090f	-1.992464
60	0xbd5068d2	-0.050881214
61	0x3c26f106	0.0101893
62	0x400f9c56	2.243917
63	0xbe7d2ba9	-0.24723686
64	0x3f0bb78e	0.5457696
65	0x3de5cd94	0.112208515
66	0x3ea0bafd	0.3139266
67	0x3f9e3503	1.2359928
68	0xbe9c977c	-0.30584323
69	0x3eb1640f	0.3464665
70	0xc0093f7a	-2.1444993
71	0x3d91aa69	0.07112581
72	0xbf17d3b4	-0.5930741
73	0x3f6125f6	0.8794855
74	0x3f9fe6f0	1.2492352
75	0xbf9b8ca7	-1.2152299
76	0xc0b624c7	-5.6919894
77	0x3ffabc16	1.9588649
78	0xbe5f78a1	-0.2182336
79	0xbf9b3d4a	-1.2128079
80	0xbc4ca117	-0.012489579
81	0x3fda086d	1.7033821
82	0xbd188319	-0.0372344
83	0x3dbcb4db	0.09214183
84	0xbe3ab981	-0.18234827
85	0xbec60c59	-0.38681296
86	0x40844574	4.133478
87	0x3da69c30	0.08135259
88	0xbe2ce6cb	-0.16884916
89	0xbd2a029f	-0.041506406
90	0xbeadd392	-0.33950478
91	0xbe19da42	-0.15024665
92	0x40072759	2.1117766
93	0xbe228a53	-0.15873079
94	0xbec51ad8	-0.38497043
95	0xbf9be307	-1.2178658
96	0x3e2f0d1c	0.17094845
97	0x3ffe2f8c	1.985826
98	0xbd919481	-0.07108403
99	0xbda98b34	-0.08278504
100	0x3e77702b	0.24163882
101	0xbeb2acb6	-0.34897393
102	0xc02fc3c6	-2.746324
103	0x3eb55375	0.35415235
104	0xbeb269f1	-0.34846452
105	0x3f564bf2	0.83709633
106	0xbe060bd1	-0.13090445
107	0xbd73648e	-0.05942207
108	0x3eca4122	0.39502817
109	0xbb29516a	-0.002583588
110	0xbe6b2c66	-0.22966155
111	0x3cee645a	0.029100586
112	0xbc86e16c	-0.016464911
113	0xbe7fa766	-0.24966201
114	0x3f1cb5f5	0.61215144
115	0x3ed0d621	0.40788367
116	0xbe34bd2f	-0.17650293
117	0xbfb4c015	-1.4121119
118	0xbf169993	-0.58828086
119	0x3f3ea05b	0.74463433
120	0x3d9a718c	0.075411886
121	0xbf564639	-0.837009
122	0x3e954952	0.291575
123	0x3fa8ad34	1.3177857
124	0x3eaf34a8	0.3421986
125	0xbe4880e8	-0.19580424
126	0x3f7fc8f4	0.99916005
127	0x3d350af3	0.044199895
128	0x3e84b4bc	0.2591914
129	0xbe0424d0	-0.12904668
130	0x3f394bf1	0.723815
131	0x401235f1	2.2845423
132	0xbfe24bc2	-1.767937
133	0xbcff950e	-0.031199005
134	0xbeed74d9	-0.4637821
135	0x3da038c8	0.0782333
136	0xbd6fdaaf	-0.058558162
137	0xbef81714	-0.48455107
138	0x3f070978	0.52748823
139	0xbf190223	-0.59768885
140	0xc010d8d7	-2.2632349
141	0x3f1264a6	0.5718483
142	0xbe3e19c9	-0.18564524
143	0xbeb5d446	-0.35513514
144	0x3dfc02c8	0.12305218
145	0xc00aaa73	-2.1666534
146	0xbcb5c59b	-0.022188952
147	0xbd0c3ef3	-0.03423972
148	0x3fa34892	1.2756522
149	0xbe9e834f	-0.30959556
150	0x3f96d10b	1.1782545
151	0xbe92b504	-0.2865373
152	0xbe924607	-0.28569052
153	0xbe3b8946	-0.18314084
154	0x3e158c25	0.14604242
155	0xbfcbfd45	-1.5936667
156	0xbfb690e8	-1.4262972
157	0xbe70278d	-0.23452587
158	0x3ed73b9f	0.42037675
159	0x3fb85a6c	1.4402595
160	0x3e4b2312	0.19837597
161	0xbee66f2d	-0.45006695
162	0x3fa575b9	1.2926551
163	0x3dc52c43	0.09627583
164	0xbb99e60a	-0.0046966122
165	0xbf4d55a5	-0.8020881
166	0xbeeecf92	-0.4664274
167	0x3d6e61a3	0.058198582
168	0x3fd11ff8	1.6337881
169	0x3f623bac	0.883723
170	0xbe57d30d	-0.21076603
171	0x3e9d9317	0.30776283
172	0x3e5d86d2	0.21633461
173	0x3e180f12	0.14849499
174	0xbe4e1681	-0.20125772
175	0xbbda8971	-0.0066692163
176	0xbe6c8ec8	-0.23101342
177	0xbe67e4bc	-0.22645849
178	0x3e119ba8	0.14219534
179	0x3e40bed3	0.18822794
180	0xbf0855b6	-0.53255785
181	0xbe75a20c	-0.23987597
182	0x3e7c0364	0.24610668
183	0xbfdf9133	-1.7466186
184	0xbe019c40	-0.12657261
185	0xbf915811	-1.1355001
186	0xbe64b504	-0.22334677
187	0x3eef1187	0.4669306
188	0x3e7716cb	0.24129789
189	0xbd79083f	-0.06079888
190	0xbf4689d2	-0.7755405
191	0x3dc9e22c	0.09857592
192	0x40349f7e	2.8222346
193	0x3c05b474	0.008160699
194	0x411cb90b	9.7951765
195	0x40e4376a	7.1317644
196	0x404aedd3	3.1707656
197	0x3fe0d8df	1.7566184
198	0xbeaa87dc	-0.33306777
199	0x3f08ea08	0.53482103
200	0xc05a2d18	-3.4090023
201	0x3ff3be0e	1.9042375
202	0xc156e951	-13.431962
203	0xc04c4996	-3.1919913
204	0xc04ad710	-3.1693764
205	0xc0c15a91	-6.0423055
206	0xbf11d714	-0.5696881
207	0xc176114e	-15.379225
208	0x3c6e9b1e	0.01456335
209	0xc0a4f7be	-5.155242
210	0xbf2f9f07	-0.6860203
211	0xbff3b9d2	-1.9041083
212	0x4187986c	16.949425
213	0xc03ccf2c	-2.9501448
214	0x415d2a2b	13.822795
215	0xbff19fbf	-1.8876876
216	0xbf790d80	-0.97286224
217	0xbfceb148	-1.6147852
218	0x3ffe04b8	1.984519
219	0xc0d8a678	-6.770321
220	0xbf95cf43	-1.1703876
221	0xbfba7bfb	-1.4569086
222	0x3fe3509a	1.7758973
223	0x411a1201	9.6293955
224	0x400605a7	2.094095
225	0x4150564d	13.02107
226	0x414b3125	12.699498
227	0xc0452702	-3.0805058
228	0x40252924	2.580636
229	0xc0233bbc	-2.550521
230	0x40f576a8	7.6707344
231	0x408bb8f4	4.3663273
232	0xc0ab1c2a	-5.347188
233	0xbf342a87	-0.7037739
234	0x3f0f9c47	0.56097835
235	0x402dcfe8	2.7158146
236	0x400af988	2.1714802
237	0x3f13e006	0.5776371
238	0xc086947f	-4.205627
239	0x3ebaae09	0.36460903
240	0x3f5296a8	0.82261133
241	0xc01d8359	-2.4611418
242	0x40e2ef9f	7.0917506
243	0x40980345	4.750399
244	0x414d2812	12.822283
245	0xc0aafc67	-5.343311
246	0xc0816275	-4.0432687
247	0x40ea993c	7.3312054
248	0x3f265afb	0.64982575
249	0xc1088a85	-8.533818
250	0x3fe91c85	1.8211828
251	0x412bff14	10.749775
252	0x3e583996	0.21115717
253	0xbed211d0	-0.41029215
254	0xc102eddd	-8.183072
255	0x3fc7770f	1.5583209

fc1.bias f4 [256]
0	0xbf2dfd55	-0.6796468
1	0xbd551a7e	-0.052027218
2	0x3a402314	0.0007329446
3	0x3fb257e8	1.3933077
4	0xbe11bbb5	-0.14231761
5	0xbf774624	-0.965914
6	0xbee2befd	-0.44286337
7	0xbebc0ac9	-0.36726978
8	0x3dc21f1a	0.094785884
9	0x3e9bc33c	0.3042239
10	0x3ec071ab	0.37586722
11	0x3e8dd21b	0.2769936
12	0xbeb925f0	-0.36161757
13	0xbeb6308a	-0.35583907
14	0xbf09ff31	-0.53905016
15	0x3f49bca6	0.7880348
16	0x3e88894f	0.26667258
17	0xbd1f493e	-0.03888821
18	0x3ee3bb3e	0.44478792
19	0xbe460387	-0.19337283
20	0x3f51df3f	0.8198127
21	0xbe8af0a6	-0.27136725
22	0xbdddace6	-0.108239934
23	0xbe54382b	-0.20724551
24	0xbf5586a7	-0.8340859
25	0xbe1c6765	-0.15273817
26	0xbda4690c	-0.080278486
27	0x3f1368e6	0.5758194
28	0xbeafafc2	-0.3431378
29	0x3f50fceb	0.8163592
30	0xbebac8e1	-0.36481383
31	0x3e8f8183	0.28028497
32	0x3e6b4252	0.22974518
33	0xbea9a55c	-0.33133972
34	0xbf8255b8	-1.0182409
35	0xbeda61c4	-0.42652714
36	0x3e1760fa	0.14783087
37	0x3e7a9cfb	0.24473946
38	0xbf0af572	-0.5428077
39	0xbddeefa6	-0.10885553
40	0x3e99d66f	0.30046412
41	0x3eccf508	0.40030694
42	0xbd05ea0a	-0.0326939
43	0xbe2347be	-0.15945336
44	0x3e05fcaf	0.13084672
45	0x3e471bfc	0.19444269
46	0x3e4db0a6	0.20086917
47	0x3d0b4edc	0.034010753
48	0x3e8cc739	0.27495745
49	0x3e98d623	0.29850873
50	0x3d287360	0.041125655
51	0x3f572ec7	0.8405575
52	0x3e496100	0.19665909
53	0x3e567411	0.20942713
54	0xbe702753	-0.23452501
55	0xbef32f65	-0.47497097
56	0xbdb1010a	-0.08642776
57	0xbf5b6b39	-0.85710484
58	0xbf29e3f5	-0.6636346
59	0x3ea447b2	0.3208595
60	0x40270992	2.6099591
61	0xbec7c6ba	-0.39018804
62	0x3f8a3a6d	1.079908
63	0xbeac056d	-0.3359789
64	0x3ef9e7bf	0.4880962
65	0xbf69ec1d	-0.91375905
66	0x3e454c5c	0.1926741
67	0xbf29aab7	-0.66276115
68	0xbeb21a06	-0.3478548
69	0xbeb64fe0	-0.35607815
70	0x3e46f68a	0.19429985
71	0xbe628a73	-0.22123127
72	0x3ed59faf	0.4172339
73	0xbf7f9339	-0.9983402
74	0x3f03def6	0.51512086
75	0xbf998674	-1.1994157
76	0x3f0c636e	0.5483922
77	0xb95dc8ed	-0.00021151053
78	0xbf338391	-0.7012263
79	0x3e63357d	0.22188373
80	0xbd9ac59a	-0.07557221
81	0xbec5c852	-0.38629395
82	0x3fe70cda	1.8050797
83	0x3e0fd305	0.14045341
84	0x3ece4200	0.4028473
85	0x3e6b75d4	0.22994167
86	0xbefbc82c	-0.49176157
87	0xbd3f9315	-0.046771128
88	0x3e4369a9	0.19083275
89	0xbf894c51	-1.0726415
90	0x3f260586	0.6485218
91	0x3e90f62c	0.28312814
92	0xbf9ddfb0	-1.2333889
93	0xbe2a8e70	-0.16655898
94	0x3f976b9f	1.1829718
95	0xbe4b427b	-0.19849579
96	0xbe63a083	-0.22229199
97	0x3f071bfe	0.5277709
98	0x3e09b770	0.13448882
99	0x3e66f9ca	0.22556224
100	0xbf0d60c0	-0.55225754
101	0x3f07c333	0.53032225
102	0x3f81015c	1.007854
103	0x3dcf0ed1	0.10110248
104	0x3dc77591	0.09739221
105	0x3e7ae9e7	0.24503289
106	0x3ecb973a	0.39763814
107	0xbd52702e	-0.051376514
108	0xbe567fbb	-0.20947163
109	0x3f1c5b37	0.6107668
110	0x3e0013d8	0.1250757
111	0x3d94c96d	0.072649814
112	0xbfe010ad	-1.7505089
113	0xbe625b32	-0.22105101
114	0xbfa0a6e0	-1.2550926
115	0xbee9c394	-0.45657027
116	0x3f32987e	0.69763935
117	0x3e29a1c2	0.16565612
118	0xbf8d4233	-1.1035827
119	0xbdbc6e8f	-0.09200775
120	0xbe3a56fc	-0.18197244
121	0xbf645811	-0.8919688
122	0xbeab6309	-0.33473995
123	0xbe44b4e6	-0.19209632
124	0x3e632545	0.22182186
125	0x3e96c9e1	0.29450896
126	0xbf031fcb	-0.5122039
127	0x3dabb0c7	0.08383327
128	0x3dd5b92e	0.10435711
129	0x3ef0d0e5	0.47034374
130	0x3eb29d7c	0.34885776
131	0xbe883ba6	-0.26608008
132	0xbe3725ea	-0.17885557
133	0xbf429ee9	-0.7602373
134	0xbea26ac9	-0.31722096
135	0x3e880364	0.26565087
136	0xbe468acd	-0.19388886
137	0x3f2605b1	0.64852434
138	0x3d597b89	0.053096328
139	0x3e96d5fd	0.29460135
140	0x3f0be33d	0.54643613
141	0x3f24e860	0.64417076
142	0xbdcc1d9e	-0.099665865
143	0xbe02554b	-0.12727849
144	0xc028f39e	-2.6398692
145	0x3ddb9fe0	0.10723853
146	0xbbfc23f3	-0.007694715
147	0xbe810549	-0.25199345
148	0x3e19e013	0.15026884
149	0x3d2b5fa5	0.04183926
150	0xbf40cacb	-0.7530944
151	0x3e6ec031	0.23315503
152	0x3dc4a1e3	0.0960119
153	0xbf7ab48e	-0.97931755
154	0xbf161bc6	-0.5863613
155	0xbd5c9afc	-0.053858742
156	0x3dd650cd	0.1046463
157	0x3ec53c7d	0.3852271
158	0xbef5b66d	-0.47990742
159	0xbe3b60b5	-0.1829861
160	0x3f2e200b	0.68017644
161	0xbe14dc08	-0.1453706
162	0xbf37f64d	-0.718602
163	0xbe19dd4d	-0.15025826
164	0xbeb1afaa	-0.34704334
165	0xbe0693a0	-0.13142252
166	0xbe40c570	-0.18825316
167	0x3f3071bf	0.6892356
168	0xbebd79bc	-0.37006938
169	0x3d694a2e	0.05695551
170	0x3f981b06	1.1883247
171	0xbed386b7	-0.41313717
172	0xbf822307	-1.016694
173	0x3ed38350	0.4131112
174	0x3eb4188d	0.3517498
175	0x3e2948b3	0.16531639
176	0x3e678ca1	0.2261224
177	0x3f1b3418	0.60626364
178	0x3e596cda	0.2123293
179	0xbed06a3e	-0.40706056
180	0xbdb516e1	-0.088422544
181	0x3f43c6a9	0.76475006
182	0xbb31ba0a	-0.0027118945
183	0xbe1f7161	-0.15570594
184	0xbf67958e	-0.9046258
185	0xbd61c48b	-0.05511908
186	0x3e207311	0.15668894
187	0xbee6fe5b	-0.45115933
188	0xbd4c2ba1	-0.049846295
189	0x3e8a01eb	0.26954588
190	0x3eeac3c5	0.45852485
191	0x3e8aceb5	0.2711083
192	0xbeee8a15	-0.46589723
193	0xbb42fa3c	-0.0029751202
194	0xbcb9b031	-0.022667022
195	0xbe922066	-0.28540343
196	0xbd9122f3	-0.07086744
197	0x3daccd6f	0.08437621
198	0xbeebbda7	-0.4604313
199	0xbec2ac49	-0.38022068
200	0xbed9a231	-0.42506555
201	0x3f01c355	0.5068868
202	0x3f5ae15c	0.8550012
203	0xbf1de91c	-0.6168382
204	0x3fe579d4	1.7927804
205	0xbea0ae2a	-0.31382877
206	0x3cda10d7	0.026619358
207	0x3ee89e20	0.4543314
208	0x3ea41ebe	0.32054704
209	0x3f055b31	0.5209227
210	0xbed4f318	-0.41591716
211	0xbe240767	-0.16018449
212	0x3e1f8051	0.15576293
213	0x3e2f60fe	0.17126843
214	0x3ed56f9e	0.4168672
215	0xbf10aa18	-0.5650954
216	0x3e85c4d6	0.26126736
217	0xbe5b4561	-0.21413185
218	0x3e7e9754	0.24862415
219	0xbf5d58af	-0.86463445
220	0xbdd0ea0a	-0.102008894
221	0xbf894d85	-1.0726782
222	0xbf482813	-0.7818615
223	0xbe020cf7	-0.12700258
224	0xbed4968e	-0.41521114
225	0xbe877a4e	-0.264605
226	0xbde8fc3d	-0.11376236
227	0x3eb997fc	0.36248767
228	0xbf83cd7b	-1.0297083
229	0x3f5a4167	0.85256046
230	0xbf73a24e	-0.9516953
231	0x3f6ac02d	0.91699487
232	0xbec42485	-0.38309112
233	0xbd1c7296	-0.038195215
234	0x3e9dd974	0.30829966
235	0xbe2da422	-0.16957143
236	0x3e7cdf3d	0.24694534
237	0x3e145d5e	0.14488742
238	0x3f4b2712	0.7935649
239	0x3ea94961	0.33063796
240	0x3efcb0a1	0.49353507
241	0xbfb18548	-1.3868799
242	0x3ec52994	0.38508284
243	0x3e804b04	0.25057232
244	0x3fbc25dd	1.4699055
245	0xbda5b7a5	-0.08091668
246	0x3f048a1f	0.51773256
247	0xbd5bd56c	-0.05367033
248	0x3ebae8e2	0.365058
249	0x3f18064c	0.5938461
250	0x3ed10a29	0.40828064
251	0xbebc7dfa	-0.36814862
252	0xbebd0545	-0.36918083
253	0xbd9d88ab	-0.07692083
254	0xbcba0d26	-0.022711348
255	0x3f26edff	0.65206903
