mini_batch_exp/models/mnist_adam_batch60000_lr0.1.pt (torch_old, 968477 bytes, 62 tensors)

conv1.weight f4 [16, 1, 3, 3]
000000 8e 6a 84 be fd df 04 be 98 e4 c1 3e 3b 9c 2b 3c
       -0.25862545 -0.1297607 0.37869716 0.01047426
000010 ce e9 19 be 7e aa 08 3f c6 ab 8f bd 2b 81 6e 3e
       -0.15030596 0.5338515 -0.07015185 0.23291461
000020 fc f3 73 3f df 26 0c 3f 3a b4 7f 3f b3 1e 1f 3f
       0.95294166 0.5474681 0.9988438 0.6215622
000030 f2 50 71 3f c4 1d af 3e 92 53 b8 3e 3e 06 98 be
       0.9426414 0.34202397 0.3600126 -0.29692262
000040 50 13 5c be e5 5f 8b 3e 47 11 15 bf 12 58 6b be
       -0.21491742 0.272216 -0.5822949 -0.22982815
000050 c1 56 eb 3e 2d e0 1d bf 6f 5f 02 3f fe 2d 8d 3f
       0.45964625 -0.6167019 0.5092687 1.1029661
000060 9d ec 83 be 1a 26 e3 bd a9 fb d0 bd 7e 9b ca 3e
       -0.2576646 -0.11091252 -0.1020425 0.39571756
000070 1d 12 9d 3e b2 3e c3 bf 50 1e b5 3e e5 ad 49 3e
       0.30677882 -1.5253508 0.3537469 0.19695242
000080 8f 5d 9c bf dc 5f b2 3e e2 7a 00 3f 38 07 69 3f
       -1.2216052 0.3483876 0.50187504 0.9102664
000090 71 cd a9 3d 3c 06 0e bf dd 6b 33 bf 59 fb 12 3e
       0.08291138 -0.5547826 -0.7008646 0.14353694
0000a0 a1 23 2f bf ee ad 04 3e fb 7d 3c 3f 3c e7 67 3f
       -0.6841374 0.12956974 0.7362973 0.9058721
0000b0 12 45 f2 3e 92 a1 5c bf f5 03 44 3e 4d 79 65 3c
       0.4731832 -0.86184037 0.19142134 0.014005971
0000c0 71 d1 64 bf 26 27 b5 3d 7b 73 1d 3f 4c 0b 0b bf
       -0.8938208 0.088453576 0.61504334 -0.5431411
0000d0 2d 3e bb be 2e b1 fc 3e 21 07 56 be dd 5d 30 3e
       -0.36570874 0.49353927 -0.20901157 0.17223306
0000e0 c3 02 1b bf 5a 86 2b 3f eb 73 7a 3f 10 2f c2 3e
       -0.6055109 0.6700188 0.97833127 0.3792653
0000f0 8c 81 64 3f 97 85 2f 3f 6d 66 06 3f 71 f1 a6 3e
       0.8926017 0.68563217 0.5250004 0.3260608
000100 69 86 4b be 39 28 5e 3f f8 4f 34 bd e5 17 69 3d
       -0.19875492 0.86780125 -0.044021577 0.056907553
000110 7c c0 45 3f 28 bf 44 bf f2 0c 30 bf ad 1b 17 3e
       0.7724683 -0.7685418 -0.6876975 0.14756651
000120 fc 64 46 bf aa 95 00 bf 6c 9c 48 bf 9b 9f 2b 3f
       -0.7749784 -0.5022837 -0.7836368 0.67040414
000130 f2 b0 36 bf 94 0f d8 be f9 92 35 3f f5 c9 57 3f
       -0.7136375 -0.42199385 0.7092739 0.84292537
000140 89 32 e0 3e 6a 91 0e 3a e5 eb bf 3d ed d4 8e be
       0.43788555 0.00054385385 0.09371165 -0.27896824
000150 f7 b5 20 3f 2f 60 3e 3f f4 a4 b8 3e 82 5f 3f bf
       0.62777656 0.74365515 0.3606335 -0.7475511
000160 5d f3 3a bf 04 02 6a bd dd c8 6b 3f df a0 9b 3d
       -0.7302759 -0.05713083 0.9210337 0.07599043
000170 3c dd b8 bf a4 24 14 3f 00 ab 8d 3d c9 df 5a bf
       -1.4442515 0.5786841 0.06917381 -0.8549772
000180 01 8e 50 be 17 56 6a bf 9f 5a 29 bf 93 49 3e bf
       -0.2036667 -0.9153761 -0.661539 -0.74331015
000190 2c af 33 bf ce 0f c0 3e 89 65 90 be 29 83 eb 3e
       -0.70189166 0.37512058 -0.28202465 0.45998505
0001a0 8a 90 f7 3e 6e ae d2 3e 80 af 19 be 06 f6 95 bf
       0.48352462 0.41148704 -0.15008354 -1.1715705
0001b0 a8 63 9e 3e 1a db 46 3f d2 49 db 3e 16 a9 f8 3e
       0.30935407 0.7767807 0.42829758 0.48566502
0001c0 65 02 15 3f 1a 37 17 3f e6 db 9a bf 4a 85 c7 be
       0.5820678 0.59068453 -1.2098358 -0.3896888
0001d0 cb 64 91 3d ad 4f ce 3e e0 28 3a 3f 31 aa 06 3f
       0.07099303 0.40295163 0.7271862 0.5260344
0001e0 31 fa 69 3f 68 0c 80 3f ac f4 1a 3e 6d de 24 3e
       0.91397387 1.0003786 0.15132397 0.16100474
0001f0 78 f0 0f 3d 88 1b 38 bd 02 95 91 bd d6 62 dc 3e
       0.03514144 -0.04494813 -0.07108499 0.43044156
000200 8d 76 4c bf ae 34 72 3f 76 fb f2 3e 12 62 ff be
       -0.79868394 0.9461163 0.47457474 -0.4987951
000210 68 31 ce 3e ab 07 b8 3b f4 26 13 bf 71 3e e6 be
       0.4027207 0.0056161485 -0.5748131 -0.44969514
000220 61 93 17 bf fe f4 84 3e d1 b1 f7 be e0 f4 a4 be
       -0.5920926 0.25968164 -0.4837785 -0.32218075
000230 c6 2f ac 3f 0b 65 3c bf c4 d0 07 bf 6a 31 89 3d
       1.3452079 -0.7359168 -0.53052926 0.06698878

conv1.bias f4 [16]
000000 3a 91 dd be 72 3b 10 3f 73 8c 8b bf 32 23 c6 bc
       -0.43274862 0.56340706 -1.0902237 -0.024186704
000010 59 63 87 3c c1 c7 c1 bf 34 bc 72 3f ca 79 0b c0
       0.016526865 -1.5139085 0.94818425 -2.1793084
000020 a5 98 8d 3f 63 9d 29 3f ed fa 52 bf 2a cd cf be
       1.1062208 0.6625578 -0.8241413 -0.40586215
000030 78 11 06 3e 40 e2 0a bf 2d ce b2 bf 63 df 93 be
       0.13092601 -0.5425148 -1.396917 -0.28881368

bn1.weight f4 [16]
000000 24 f7 80 3f 5e 2b 1f bf e3 a8 63 3f 4f 2d a5 3f
       1.0075421 -0.6217555 0.88929576 1.2904452
000010 9c 07 6f 3f 83 e0 c6 3f 6c 17 83 3f 0e be 04 3f
       0.93370986 1.5537266 1.0241523 0.518525
000020 9c 95 0e 3f f5 b6 05 40 1f 48 cb 3f b4 f9 37 3f
       0.55697036 2.0892918 1.5881385 0.7186539
000030 81 c0 a6 3f 03 99 f7 3e eb ff 41 3f 30 63 9c 3f
       1.3027498 0.48358926 0.75781125 1.221777

bn1.bias f4 [16]
000000 ca 30 ec 3e e4 5b 18 3f 2e 11 ae 3e 2f 97 73 bf
       0.46130973 0.59515214 0.33997482 -0.9515256
000010 04 84 46 3e 39 a4 27 3f 42 77 db 3e 86 be 1a 3f
       0.19386297 0.6548496 0.42864424 0.60446966
000020 ab 6c 66 bc 9d bd 0a 3f a1 1d 2b 3e e4 d4 40 3f
       -0.014063994 0.54195577 0.16710521 0.75324845
000030 ed 4b 87 3e e8 3a 3a 3e 73 d8 d1 bd ac b0 f7 3e
       0.26425114 0.18186533 -0.102463625 0.48376977

bn1.running_mean f4 [16]
000000 9e ac bd 42 4c 1e 48 43 ce 42 61 42 67 3d 93 42
       94.83714 200.11835 56.31524 73.61993
000010 58 0d 89 42 a9 c4 ca 41 93 35 4a 43 c9 92 76 42
       68.52606 25.346025 202.20927 61.643345
000020 ee 0f 3d 42 3f 54 f5 41 e9 d2 f0 41 54 da 07 41
       47.265556 30.666136 30.102983 8.490803
000030 5c cb e7 42 f5 27 57 43 44 f2 7a 42 74 9b d5 41
       115.89719 215.15608 62.736588 26.700905

bn1.running_var f4 [16]
000000 cc 94 c9 46 40 d0 bd 47 dd 0d 4f 46 5d e5 97 46
       25802.398 97184.5 13251.466 19442.682
000010 51 64 87 46 57 48 87 45 96 e7 ca 47 b9 a0 5b 46
       17330.158 4329.0425 103887.17 14056.181
000020 1b 40 46 46 85 ef 9e 45 63 46 dc 45 3e 85 52 44
       12688.026 5085.94 7048.7983 842.0819
000030 fd be 1c 47 d4 39 e1 47 92 22 7c 46 98 9e b9 45
       40126.99 115315.66 16136.643 5939.824

conv2.weight f4 [32, 16, 4, 4]
000000 46 a2 08 3f 32 8b 61 3e 53 ce eb 3d 75 91 95 be
       0.5337261 0.22025755 0.115139626 -0.29212537
000010 de c8 48 bf a0 9b 72 bf 64 5d 6d bf 75 0b 5c bf
       -0.784315 -0.94768715 -0.9272063 -0.8595498
000020 c3 a4 57 bf 55 6f 4c bf 6d 72 31 bf 12 8b 2d bf
       -0.8423578 -0.7985738 -0.69315225 -0.6779033
000030 a0 c3 2c bf 6a cf 30 bf 5b 21 1d bf 6d 4d 34 bf
       -0.67486 -0.6906649 -0.6137902 -0.7043064
000040 64 8c 9b 3e 1d a4 d0 3e 97 2c 74 3e 24 cd 0d 3e
       0.30380547 0.40750208 0.23845135 0.13847786
000050 c6 9f 2b 3f 81 72 25 3f bb 78 03 be ab 2a 03 3e
       0.6704067 0.64627844 -0.12839024 0.12809245
000060 0d 37 45 bf b5 0e 69 bf 8e a2 6f bf a3 c0 93 be
       -0.77037126 -0.91038066 -0.93607414 -0.28857908
000070 f7 a6 37 bf ce 06 61 bf ab 43 60 bf 7b 44 28 bf
       -0.71739143 -0.8790101 -0.87603253 -0.6572949
000080 fc 2c a0 3d 2c 4e 96 be 76 72 1a 3e 5b 78 cd bc
       0.0782108 -0.29356515 0.15082726 -0.025081804
000090 8d 5f 37 bf 19 c2 54 be 24 f0 e4 bc ff 29 0e bf
       -0.71630174 -0.20777167 -0.02794654 -0.5553283
0000a0 10 5f 38 bf a6 94 94 be ac 15 89 3e fb 8e 52 bf
       -0.72020054 -0.2901966 0.26774347 -0.8224942
0000b0 78 79 51 bf 91 d4 59 bf 80 d7 0f bf 0f 25 4c bf
       -0.8182597 -0.85089976 -0.561882 -0.79744047
0000c0 2b 7d c2 3f 8e 99 60 3f de 05 a3 3e a4 bb fb 3e
       1.5194448 0.87734306 0.31840414 0.49166596
0000d0 e8 50 a5 be 41 8e 46 be 72 c6 d2 be f8 9a ee be
       -0.3228829 -0.19390203 -0.41167027 -0.46602607
0000e0 c3 9e a5 be a1 e2 f3 be 13 02 12 bf b8 df 08 bf
       -0.32347688 -0.47633842 -0.57034415 -0.5346637
0000f0 d9 88 8e be 76 c3 ce be ae 24 c2 be 94 b8 02 bf
       -0.2783878 -0.403835 -0.3791861 -0.51062894
000100 03 53 86 3f 87 4e 4d 3f 54 c4 d9 3e 1b af 1d be
       1.0494083 0.8019795 0.425326 -0.15398829
000110 50 68 54 3f de c6 33 3e d8 86 3c bf 28 48 8e be
       0.8297167 0.1755633 -0.73643255 -0.27789426
000120 68 e1 d0 be aa 94 3a bf 9c 7e 3b bf 08 dd 24 bf
       -0.4079697 -0.72883093 -0.73240066 -0.64399767
000130 97 41 c3 bd 00 8e c2 be c4 00 16 bf 6d 9d f1 be
       -0.09533995 -0.37998962 -0.5859492 -0.4719042
000140 37 1c 54 bf c6 a4 e4 be 02 1d a9 3e 8c 7f 61 3c
       -0.8285555 -0.44656962 0.33029944 0.01376332
000150 da 49 62 bf 2a 7a 9f 3e 30 9a 99 be 0a aa 11 bf
       -0.8839394 0.3114789 -0.30000448 -0.56900084
000160 fd 74 5f bf 50 81 91 bf a2 f7 12 bf 93 50 49 bf
       -0.87287885 -1.1367588 -0.5740911 -0.7863857
000170 c0 21 56 bf dc 15 ee be 1b 21 01 bf 98 b9 69 bf
       -0.8364525 -0.46501052 -0.5044114 -0.9129882
000180 3a 61 70 be 1c 35 0b 3e e0 af 97 3e 15 31 db 3e
       -0.23474589 0.13594478 0.2962637 0.42810884
000190 23 12 2a bf e5 ce 3d bf 76 3c 6a bf 26 93 6a bf
       -0.66433924 -0.7414382 -0.91498506 -0.9163078
0001a0 1c 8a 40 bf 66 3b 5f bf 8a f6 60 bf b6 01 16 bf
       -0.7521074 -0.8720001 -0.8787619 -0.5859636
0001b0 d6 ed 45 be 10 5d 0d bf 54 4f 3c bf c7 27 1a bf
       -0.19329008 -0.5522013 -0.73558545 -0.60216945
0001c0 97 ee 89 bc a7 4a 92 be c7 40 c3 3d 28 b5 f3 bc
       -0.016837401 -0.2857258 0.0953384 -0.029749468
0001d0 e7 29 6b 3f 67 47 1b 3f 88 bf 4b 3d 96 60 c9 be
       0.9186081 0.60655826 0.049743205 -0.39331502
0001e0 2d 9b 5b bf 68 2b 61 bf f2 10 0c bf c3 b9 48 bf
       -0.85783654 -0.8795686 -0.54713356 -0.7840845
0001f0 eb 02 55 bf fb ff 4e bf 3d 83 2e bf ec 5b 47 bf
       -0.8320758 -0.80859345 -0.68169004 -0.77874637
000200 2f af 6c 3f 78 7c 50 3f e0 27 29 3f 9e 53 8c bd
       0.9245481 0.81439924 0.6607647 -0.06851886
000210 21 66 1d bf 62 d0 bf be 17 2f fe be 2d 93 eb be
       -0.6148396 -0.3746367 -0.49645302 -0.46010724
000220 91 de 04 bf 95 cd 24 bf 1d 7a 18 bf 19 10 18 bf
       -0.5190211 -0.64376193 -0.5956133 -0.59399563
000230 aa ba 09 3f 0b c2 5b 3f 18 83 df be 15 21 f9 be
       0.5380045 0.8584296 -0.43654704 -0.48658052
000240 11 7d e1 3e e9 9c 00 3e e3 c3 19 bc 22 99 48 3e
       0.4404073 0.12559856 -0.009385082 0.19589666
000250 63 9f a3 3f 9b 93 67 3f b1 14 36 3e a4 38 21 be
       1.2783016 0.90459603 0.1778133 -0.15744263
000260 5e ec 44 bf b1 8b 92 be 42 9c d9 be 67 4b 45 bf
       -0.7692317 -0.286222 -0.42502028 -0.7706818
000270 96 8a 26 bf c1 17 27 bf f7 08 29 bf 85 ad 21 bf
       -0.65055215 -0.6527062 -0.66029304 -0.63155395
000280 84 82 5d bf 82 56 a2 3e f7 2e 02 3f fa 8a 94 3f
       -0.86527276 0.31706625 0.5085291 1.1604912
000290 1f 91 de be ef 10 35 3f ed 1f 74 3f b8 53 1a 40
       -0.43470094 0.70728964 0.95361215 2.4113598
0002a0 12 cc 9e bf 92 88 51 3c 3e 3c 6a 3d fe f3 f2 3e
       -1.2406027 0.012788909 0.057186358 0.47451776
0002b0 86 cd 72 bf d6 0b 73 bf 67 7b 02 bf 49 a8 9c bf
       -0.94844854 -0.94939935 -0.5096955 -1.2238857
0002c0 6a 53 37 3f d3 af 2e 3f 16 6a da be 92 83 35 bf
       0.71611655 0.68237036 -0.42659062 -0.70903885
0002d0 44 da 56 be 34 57 95 be 04 97 83 3e b7 1d ee 3e
       -0.20981699 -0.29168093 0.25701153 0.46507046
0002e0 9e d1 1e bf 21 41 11 bf c4 f1 3e bf 39 ed 05 bf
       -0.620386 -0.56740004 -0.74587655 -0.523151
0002f0 54 d7 f5 be 2b a9 ad be 2c ba 10 bf a4 63 13 bf
       -0.48015845 -0.33918127 -0.56534076 -0.57573915
000300 ca d9 01 3f fb 07 83 3e 35 fd ad bd 3c 35 87 bd
       0.50722945 0.25592026 -0.08495561 -0.066019505
000310 b3 bf 8a 3f 75 6c 6b 3f bb 69 ed 3e fc 1d a8 be
       1.0839752 0.9196237 0.46369728 -0.32835376
000320 4e a3 86 3f 65 dc da 3d 78 30 7a be b2 01 27 bf
       1.0518587 0.10686568 -0.24432552 -0.6523696
000330 02 49 10 bf f7 cb 1b bf 5e 89 0a bf fe bb 14 bf
       -0.563614 -0.608581 -0.54115856 -0.58099353
000340 69 53 c7 3e 38 ee bf 3e 79 45 04 bd ad 15 2d 3e
       0.38930824 0.37486434 -0.032292817 0.169028
000350 4f d0 11 3f aa 18 0d 3f ef 4a e1 3e 1b 9e 87 3e
       0.5695848 0.5511576 0.44002482 0.26487812
000360 3d c8 7d bf 1e 96 62 bf ea 9a 88 bf b7 02 11 bf
       -0.99133664 -0.8851031 -1.0672276 -0.5664477
000370 28 42 2b bf db b7 43 bf 31 9c 32 bf 2c 76 0c bf
       -0.6689782 -0.76452416 -0.6976958 -0.54867816
000380 b9 fe 09 3f cb 19 c4 3e bf aa 24 3d aa 5b 52 3f
       0.539043 0.38300928 0.0402019 0.8217112
000390 8a 81 b9 3e 7f bc 0c 3e f2 e7 bf bd 94 dd 14 3f
       0.36231643 0.1374378 -0.09370412 0.581506
0003a0 48 34 71 bf 48 51 84 be 37 c6 05 be b2 1c 97 3e
       -0.942204 -0.25843263 -0.13063894 0.2951408
0003b0 2b e5 04 bf 18 a6 1a bf 61 8d 34 bf 17 a5 1e bf
       -0.5191218 -0.6040969 -0.7052823 -0.6197066
0003c0 7b 2d 97 3e 92 4c 15 be 0a 9e 8a 3d 6f 9f 98 3e
       0.29526886 -0.1457999 0.06768425 0.29809138
0003d0 d5 50 31 3f 61 a0 2a 3f 6e ff 0f bd 8e 94 14 3e
       0.69263965 0.6665097 -0.035155706 0.14509794
0003e0 6a 1b 18 3f cd dd 8b be 9b 70 05 3e de 69 45 3e
       0.5941683 -0.27317658 0.13031237 0.19278666
0003f0 2c bb 35 bf 48 96 17 bf 32 39 17 bf da 0c 31 bf
       -0.70988727 -0.59213686 -0.5907165 -0.69160235

conv2.bias f4 [32]
000000 7a 25 f2 3e 84 23 36 3f 58 85 f9 be 65 5b 35 3f
       0.47294217 0.7114794 -0.48734546 0.7084258
000010 65 50 af be 0b d7 0f 3f 81 10 45 3e 1c c6 29 3e
       -0.34241024 0.56187505 0.19244577 0.16579479
000020 af 18 3b 3e 9d 58 7e 3d 58 fa 05 3f b8 0b 0a 3f
       0.18271135 0.062096227 0.5233512 0.5392413
000030 6f d3 5b bf 41 91 6c bf 5c 54 21 bf 6d a9 e0 be
       -0.858695 -0.9240914 -0.6301935 -0.43879262
000040 ca e6 5a bf 65 64 c4 be b3 1b 23 bf 86 96 1a be
       -0.85508406 -0.38357845 -0.6371414 -0.15096483
000050 3e 17 60 bf 1c 55 14 bf b7 7a 59 bf f0 64 5f 3f
       -0.87535465 -0.57942367 -0.84952873 0.87263393
000060 de b3 32 be 17 ce 07 bf 06 8e b1 bf 9a 08 12 bf
       -0.17451426 -0.53048843 -1.3871467 -0.57044375
000070 42 53 16 bf a8 52 7b be a2 ea 52 3e 11 64 67 3f
       -0.5872079 -0.2454325 0.20597318 0.90387064

bn2.weight f4 [32]
000000 fb b7 0b 40 4f 20 06 be 54 84 80 3d cd fc 14 40
       2.1831043 -0.13098262 0.062752396 2.3279297
000010 4c 57 9c 3d ea c1 f8 3f 01 1d a4 3f f3 c5 e4 3e
       0.07633838 1.9434178 1.2821351 0.44682273
000020 51 85 d7 3d 34 5d 83 3e 43 b7 a4 3e ca 12 d2 bd
       0.10523475 0.25657046 0.32171068 -0.1025749
000030 f8 82 91 3f 1b cb db 3f c9 a6 f2 bf 88 e8 24 3f
       1.1368093 1.7171358 -1.8957149 0.64417315
000040 ac 60 3b 3f 11 9d a9 3f 7c 87 82 3f b3 3a ae 3f
       0.73194385 1.3251058 1.0197597 1.3611664
000050 ec 07 de 3f 36 09 01 40 e2 4b 9e 3f 7d b2 58 bf
       1.7346168 2.0161872 1.2366908 -0.8464735
000060 bf bd 17 3f 1d b2 09 3f 3a 22 a3 3f ee c6 af be
       0.59273905 0.53787404 1.274482 -0.3433146
000070 6f c7 fa 3f 70 8e a5 3f e2 82 96 3f 3a 70 b0 3f
       1.9592112 1.2934093 1.1758692 1.3784249

bn2.bias f4 [32]
000000 9e 88 12 bf ef 6a e8 be 97 77 b7 be 13 a3 0d bf
       -0.5723971 -0.45394084 -0.35833427 -0.55326957
000010 88 c4 75 3e 75 44 5c be 9d e5 dc be c0 ab 99 be
       0.24000752 -0.2151049 -0.4314393 -0.30013847
000020 ff 21 18 be 2a dd 24 bf db 46 2f be cd 31 1a bf
       -0.14856718 -0.6439997 -0.17116873 -0.6023224
000030 e3 35 2a bf ad a3 94 be 5b e5 e2 be 26 0f f7 3e
       -0.66488475 -0.29031125 -0.4431561 0.48253745
000040 c7 cb 2b bf 69 1c ba 3e aa 7a fa be 93 bf 98 be
       -0.67107815 0.363498 -0.4892171 -0.2983366
000050 3d ab 22 3f 2f 85 3d 3f 2e 0c b7 be 75 71 a1 bc
       0.6354254 0.7403135 -0.3575148 -0.01970742
000060 6c 59 26 bf c5 be 48 bf cf a1 c7 3e fe 36 8e be
       -0.64980197 -0.7841609 0.38990638 -0.2777633
000070 08 0f 04 bf 02 49 fe be f1 f1 88 be 59 6a 23 bf
       -0.51585436 -0.49665076 -0.26747087 -0.6383415

bn2.running_mean f4 [32]
000000 a3 5a 9f 40 c2 76 26 42 86 5c 40 41 b3 49 c8 41
       4.979814 41.615974 12.022589 25.035986
000010 f3 1d 94 41 11 bf 5c 41 df ad ad 41 8a b8 23 42
       18.514624 13.796647 21.709898 40.930214
000020 93 26 2c 42 24 da 10 42 f9 a3 d0 40 b1 0f da 41
       43.03767 36.213028 6.520016 27.257662
000030 cd 7b ec 41 31 0f d9 41 9a c0 fc 41 73 c4 0e 42
       29.56045 27.132418 31.594044 35.691845
000040 07 5f 70 41 7c f2 e3 41 f7 bf 0a 42 01 e6 68 42
       15.0232 28.4934 34.687466 58.224613
000050 58 9a 89 41 17 6e 8f 41 e0 77 37 41 2b c2 8b 42
       17.200363 17.928755 11.466766 69.879234
000060 c5 cc 06 41 bf 12 78 3f 21 50 dd 41 49 31 65 42
       8.424993 0.96903604 27.664125 57.29813
000070 a5 76 f3 40 e3 ea be 41 18 5d 1e 42 1f e2 0a 42
       7.608233 23.86469 39.59091 34.72082

bn2.running_var f4 [32]
000000 14 5a 2a 43 42 19 82 44 4a 8b 98 43 cf 68 2b 44
       170.35187 1040.7893 305.0882 685.63763
000010 2a f2 ac 43 e4 5c cf 43 7d 67 52 44 80 90 86 44
       345.8919 414.7257 841.617 1076.5156
000020 dd 95 75 44 78 40 4a 44 54 7f 1d 43 30 71 46 44
       982.3416 809.0073 157.49738 793.76855
000030 86 44 77 44 d3 83 24 44 79 a6 68 44 e2 59 0a 44
       989.0707 658.05975 930.60114 553.4044
000040 ab d4 c6 43 28 55 44 44 fe ff 61 44 09 61 b7 44
       397.66147 785.33057 903.9999 1467.0323
000050 79 ba 1d 44 7b da ab 43 a6 84 97 43 e2 b0 b4 44
       630.91364 343.70688 303.03632 1445.5276
000060 7e 6d 39 43 d8 98 30 41 ce c3 fb 43 9d d9 af 44
       185.4277 11.037315 503.52972 1406.8004
000070 b3 fd 09 43 f5 29 38 44 88 46 83 44 44 9f 18 44
       137.99101 736.6556 1050.2041 610.4885

conv3.weight f4 [64, 32, 5, 5]
000000 1c 23 06 bf 0b b9 b8 bc 47 e3 ba 3c b5 c6 96 3f
       -0.5239732 -0.022549173 0.022813452 1.177939
000010 f0 69 49 3f 1a 85 88 be cc 15 8f be d8 57 d2 be
       0.7867727 -0.26664048 -0.27946317 -0.41082644
000020 78 f8 76 3f cf 8e 62 3e ac 8f e9 be 68 c8 18 bf
       0.96472883 0.2212479 -0.45617425 -0.59680796
000030 eb c3 2f bf 91 5c ef be 1d a0 c0 3e d0 45 ea 3d
       -0.6865832 -0.4675031 0.37622157 0.11439097
000040 5e 59 09 be 81 b2 65 3e e2 99 6f bf 0b 2d fa 3d
       -0.13412997 0.22431375 -0.9359418 0.122156225
000050 e1 e9 58 3e 7b 28 65 3f 89 eb 49 3f 9c f4 2f be
       0.21182968 0.89514893 0.78875023 -0.17183155
000060 2b 05 63 3f b3 e0 d5 be ef 6b cc be b9 8b 3a 3f
       0.8867976 -0.41772994 -0.39926097 0.7286945
000070 cb b9 9f bd c9 77 2a 3e 4c 6b 4c bf 7e b8 39 bf
       -0.07799109 0.16647257 -0.7985122 -0.7254714
000080 67 c1 b7 be ad cc bf be bc 15 df be b8 0e 3c bf
       -0.35889742 -0.37460843 -0.4357127 -0.7345996
000090 dd b9 ec bc 3a 1b 49 bf 2b 45 16 bf 0a 8a 16 3f
       -0.02889722 -0.7855717 -0.5869929 0.5880438
0000a0 78 70 60 3f fc 69 b6 3e f1 e2 38 be d9 1f af 3e
       0.87671614 0.35627735 -0.18055321 0.34203985
0000b0 09 b7 4a 3f 22 7a 2a 3f de ae 14 be 04 21 51 bf
       0.7918554 0.6659261 -0.14519832 -0.81691
0000c0 1f 8c eb be 8a 75 5c 3f aa d5 4a bf db d9 31 bf
       -0.4600534 0.8611685 -0.79232275 -0.69473046
0000d0 a8 1f 83 bf ed e7 a8 be 7f 6a 3c 3f ab 3f 6f bf
       -1.0244036 -0.32989445 0.736 -0.93456525
0000e0 dd 2b c6 be ce 8f 36 be 3d 28 5d be ef 4c 07 bf
       -0.3870534 -0.17828295 -0.21597381 -0.52851766
0000f0 d8 39 65 3f 47 87 10 3f 03 3f 9b bf 08 c2 0d bf
       0.8954139 0.56456417 -1.2128605 -0.55374193
000100 0b bf 64 3f 26 70 5c 3f 56 31 7e 3d ef 6e 0b be
       0.8935401 0.86108625 0.06205877 -0.13616537
000110 16 c7 36 bf ff 95 2f 3f 06 1d 20 3e a1 54 e4 be
       -0.7139753 0.6858825 0.15636072 -0.44595817
000120 c5 fc 4b bf a6 fe 24 bf f4 55 50 bf fd 73 80 3f
       -0.7968257 -0.6445106 -0.81381154 1.0035397
000130 64 b3 85 3f 92 d6 53 3f 76 9a 81 3f 2e 69 f2 3f
       1.0445371 0.82749283 1.0125263 1.8938348
000140 84 a3 42 3e 2b b3 4c 3d 57 88 d7 3e 0b 1f e0 3e
       0.19007689 0.049975555 0.42096207 0.43773684
000150 f4 93 41 3f c3 2d 35 bf 8b b3 28 bf 12 97 58 bf
       0.75616384 -0.7077295 -0.6589896 -0.84605515
000160 3d 7a 26 bf 33 be 2f 3f 5b 0f 16 3e a8 d2 20 be
       -0.6503027 0.68649596 0.14654295 -0.15705359
000170 0a d6 84 3f 82 bd f0 3e 33 0a 21 3f fa 74 5c 3f
       1.037782 0.47019583 0.6290619 0.8611599
000180 08 5e 4c 3f d4 b0 b8 3e 11 8f 1e 3f 6d 26 8d 3f
       0.7983098 0.3607241 0.6193705 1.1027352
000190 63 51 57 3f 4b 30 00 3f 21 d0 83 bf e0 69 43 bf
       0.8410856 0.5007369 -1.0297891 -0.7633343
0001a0 87 35 4b 3e ad fd ab 3e 41 db 52 bc 4f 99 cf 3c
       0.19844638 0.33591977 -0.012869657 0.025341658
0001b0 c0 c5 cf 3e 49 c5 45 bf ae 58 01 bf 41 08 0f bf
       0.4058056 -0.7725416 -0.5052594 -0.5587197
0001c0 27 06 29 3e 8d 61 5d 3f 68 e5 af be 6d 2d c0 be
       0.16506253 0.86476976 -0.3435471 -0.37534657
0001d0 2f 60 93 bf fe 2e 4f bf fa 05 37 3f f1 8f f3 3d
       -1.1513728 -0.8093108 0.71493495 0.11892689
0001e0 84 bc 43 bf 99 1a 72 bf 5d 01 d6 3e 32 37 8a 3e
       -0.76459527 -0.94571835 0.41797915 0.26995236
0001f0 55 b5 54 bf 02 32 b3 3e 3e 53 3e 3f 71 a5 90 3f
       -0.8308919 0.3499909 0.7434577 1.1300489
000200 ae 15 15 bf 66 40 35 bf 30 15 8c be d3 b7 d0 3d
       -0.58236206 -0.7080139 -0.27359915 0.10191312
000210 1e c8 3e 3f 08 75 88 3e 8a 38 40 3f aa 9d 29 bf
       0.74524105 0.26651788 0.7508627 -0.662562
000220 73 c4 b2 be f4 93 5c bf b5 d6 89 be ad 9f d2 3e
       -0.34915504 -0.8616326 -0.2692162 0.41137448
000230 2c 7b 33 3f a8 bc 4e be 5a a0 0d bf 06 9d 90 be
       0.7010982 -0.20189154 -0.553228 -0.282448
000240 1f fa f5 ba 56 d6 57 3f b2 86 27 3f c2 58 3a 3f
       -0.0018766558 0.84311426 0.65439904 0.72791684
000250 7c c7 58 3f eb dc 78 3f 32 5e 58 3d 77 70 74 3f
       0.8467939 0.97212094 0.052824207 0.9548411
000260 08 51 75 3d 57 c9 21 be 53 6a 33 3f 22 ee 0c bf
       0.05989173 -0.15799461 0.7008411 -0.5505086
000270 e2 77 3b be 21 21 16 bf 77 6b 0d bf 17 0f 26 3f
       -0.1830745 -0.586443 -0.55242103 0.64866775
000280 9f e3 80 bf 8b 19 75 3e 29 46 98 bf 62 44 94 3e
       -1.0069464 0.23935525 -1.1896411 0.28958422
000290 9e 2d 55 3f 4e f4 49 3f be ce 06 3e cf 05 bb 3e
       0.8327273 0.78888404 0.13164803 0.3652787
0002a0 9a 01 9e bd ac ee e3 3e 3b f9 3d 3f 2f 5f 4e bf
       -0.07715149 0.4451803 0.7420842 -0.8061399
0002b0 04 d2 48 bf 6d 59 20 bf 47 13 1e bf b8 22 92 be
       -0.7844546 -0.6263645 -0.61748165 -0.28542113
0002c0 05 e2 b1 3e 15 b0 79 3f 83 9b 99 3f e8 64 29 3f
       0.34742752 0.97534305 1.2000583 0.66169596
0002d0 53 e8 0e bf 7c bf fd be bd 3d d8 be 9c d5 8f be
       -0.5582325 -0.49560153 -0.42234603 -0.2809266
0002e0 f5 d7 8a 3e eb c4 a5 bd b3 46 36 3c 31 90 55 bf
       0.27117887 -0.080942 0.011125254 -0.83423144
0002f0 92 ca 0d be 8a d1 cc be 10 4f 19 3f 3e cf d4 3e
       -0.13846806 -0.40003616 0.59886265 0.41564363
000300 5b e0 87 3f cd 8a 57 3f da f1 13 bf ef 5d 9a 3e
       1.0615343 0.8419617 -0.5779091 0.3014979
000310 04 c7 39 3f 65 a1 29 be 3a 3e c5 bd 43 a8 2f be
       0.725693 -0.16565473 -0.096310094 -0.1715403
000320 6b 58 2e bf e8 4f 5f bc de 3e f0 be dc 47 5a bd
       -0.68103665 -0.013629891 -0.46922964 -0.053291187
000330 26 23 39 3f 17 1d 49 bf 95 7d 16 bf 8e 0f 66 bf
       0.7231926 -0.7856001 -0.5878537 -0.89867485
000340 bd f2 5b bd 2d af 24 3e 36 35 80 3f ee c1 da be
       -0.05369829 0.1608245 1.0016239 -0.42726082
000350 f6 81 27 bf bf 7a cd be dd aa 80 3f 7c df 58 3f
       -0.6543268 -0.4013271 1.0052143 0.8471601
000360 ba cf 1f 3f f6 14 bd be 14 85 ce 3e ff 20 67 3f
       0.6242634 -0.36930054 0.40335906 0.90284723
000370 35 cf 81 3e de 2e 73 3e fa 74 53 bf cf b8 49 bf
       0.253534 0.23748347 -0.8260037 -0.7879762
000380 38 82 45 3f 7c 57 0a bf 29 bb 9c be fb 94 6f 3e
       0.77151823 -0.5403974 -0.30611542 0.23396675
000390 64 3f e1 3e 13 32 3c 3f 49 31 45 bf 92 e5 cc 3d
       0.43993676 0.7351391 -0.7702833 0.100047246
0003a0 12 64 2d bf 2a dc bd 3d 21 d9 0e 3f 2f eb 5f 3f
       -0.6773082 0.092705086 0.5580006 0.87468237
0003b0 3d fe 08 bf 5e 30 16 bf 24 41 48 3f 33 f8 56 3f
       -0.53512937 -0.5866755 0.78224397 0.8397247
0003c0 e4 28 66 3f 6c 59 20 bd c6 05 7c be c0 53 9c be
       0.89906144 -0.03914778 -0.24611577 -0.30532646
0003d0 c6 87 75 3f 6b 42 1f 3f f2 90 93 3e be e6 45 be
       0.959103 0.6221072 0.28821522 -0.19326302
0003e0 4d b1 71 be 79 95 9e 3f 6e de a0 be 7c 35 84 bf
       -0.23602791 1.2389365 -0.314197 -1.0328822
0003f0 b8 3d 02 bf cf a8 f2 be 00 34 4a 3f dd 45 39 bf
       -0.50875425 -0.47394416 0.78985596 -0.7237223

conv3.bias f4 [64]
000000 65 13 06 3f 7f bd 13 3e 3f c8 b0 3e f4 ce 1e bf
       0.52373344 0.14427756 0.34527776 -0.62034535
000010 f0 df f5 be f9 bf 50 bf 64 48 6b bf 33 a5 37 bf
       -0.48022413 -0.8154293 -0.91907334 -0.7173645
000020 b4 0c 8a 3e 5c 7e 52 bf c6 ee 07 3f df fd a3 3c
       0.26962817 -0.8222406 0.53098714 0.020018516
000030 78 34 86 3f ea c9 b8 be 14 aa 13 bf 7c 87 61 bf
       1.0484762 -0.36091548 -0.57681394 -0.8809736
000040 37 c8 79 bf f7 81 f0 3e ee 5e 42 3d 33 5b 45 3f
       -0.9757113 0.46974155 0.047453813 0.77092284
000050 0f d7 6a 3f 60 59 05 bf f0 ce fd be 14 ee 27 3f
       0.91734403 -0.520895 -0.49571943 0.65597653
000060 c9 74 77 bf 5e de 38 bf 84 47 b8 be 2c 4a 40 bf
       -0.96662575 -0.72214305 -0.35992062 -0.7511318
000070 3e cf e6 be 25 be 4a 3f 06 87 62 bf b4 7b 40 bf
       -0.45079988 0.7919639 -0.8848728 -0.75188756
000080 39 96 48 bf 13 73 42 bf e7 3e 34 bf 8e 92 20 bf
       -0.7835422 -0.7595684 -0.7040848 -0.62723625
000090 6a f7 88 be 06 e3 d9 bd 06 f5 79 3f 27 39 8a 3e
       -0.26751262 -0.106390044 0.976395 0.2699673
0000a0 e7 8b 51 bf 71 f9 3f 3f 20 99 b8 3e 51 f5 f3 3e
       -0.818541 0.7498999 0.36054325 0.476481
0000b0 7d d4 00 bf 9b dc 49 bf f7 a1 17 3f ea 9b 23 3f
       -0.5032423 -0.7885224 0.59231514 0.6390978
0000c0 28 b0 84 bf 58 26 89 3f 02 03 cf be 53 2c bc be
       -1.0366259 1.0714827 -0.40431982 -0.36752567
0000d0 a5 e0 3a 3f ac 92 1e bf c3 54 7b bf d3 f2 35 3f
       0.7299903 -0.61942554 -0.9817621 0.71073645
0000e0 8a cc 31 bf 9a 5d a5 3e 9a 2e 3d bf 34 21 0a 3f
       -0.69452727 0.32297975 -0.73899233 0.53956914
0000f0 39 1f 41 3c 9b f2 69 be e5 31 08 3f bb 7e 00 3f
       0.011787229 -0.22846453 0.53201133 0.50193375

bn3.weight f4 [64]
000000 7d 57 97 3f 53 f8 09 40 dd f7 87 3f 50 8f a0 3f
       1.1823574 2.1557815 1.0622517 1.2543736
000010 13 75 98 3e 58 d5 14 3f b2 13 87 3d 74 42 3d 3f
       0.2977682 0.58138037 0.065955535 0.73929524
000020 0d 7f 1e 3e 04 a5 93 3e 07 49 d7 3f a7 5a 5a 3f
       0.15478154 0.28836834 1.6819161 0.85294574
000030 be 6c c2 3e b4 f2 54 3f 30 7b 24 3f 0c 29 a5 3f
       0.3797359 0.83182836 0.6425047 1.2903152
000040 dd e6 86 3f f9 47 ee 3f 27 2c de 3f 07 f1 4e 3f
       1.0539204 1.8615714 1.7357224 0.8083653
000050 83 b0 cc 3f 6d 13 ae 3f 1c 3d aa 3f a9 ac cc 3f
       1.5991367 1.3599678 1.3299899 1.5990192
000060 54 78 2b 3f 49 73 2f 3f 1e 02 3a 3e 33 d6 d5 bc
       0.6698048 0.68535286 0.1816487 -0.026103115
000070 92 a5 93 3e dc d9 79 3f cd e1 c3 3f 17 bb 9c 3f
       0.28837258 0.9759805 1.5303284 1.2244595
000080 45 be ff 3e 70 d7 a9 3e 06 53 69 3f eb 04 29 3d
       0.49949852 0.33172178 0.9114231 0.041264456
000090 ef c0 6b 3f ac dd cc 3f b7 f8 7c 3f b6 30 15 40
       0.9209127 1.6005149 0.9881701 2.331098
0000a0 17 24 0f 3f 35 e0 d3 3f 3e af 19 be 7b a2 d5 3e
       0.55914444 1.6552798 -0.15008256 0.41725525
0000b0 dd 89 6d 3f b6 41 b8 3f 01 51 04 3f 5e 0b f1 3f
       0.9278849 1.4395053 0.516861 1.8831594
0000c0 a0 bf 8a 3f de 75 6f 3f f3 6a ed 3f b2 3c b5 3f
       1.0839729 0.93539226 1.8548263 1.4159148
0000d0 4f fa 78 3f c2 1e 00 40 73 ef 0d bf bc 6a a2 3f
       0.9725694 2.0018773 -0.55443496 1.2688823
0000e0 89 a1 68 3f cb 81 1c 40 23 c3 9c bc d8 bd 2d 3f
       0.90871483 2.445422 -0.019136017 0.67867804
0000f0 6b 41 cd 3f a5 48 b7 3f 7f 2a ec bd af f5 fd 3f
       1.6035589 1.4319044 -0.11531543 1.9840602

bn3.bias f4 [64]
000000 9f 11 60 3f 5d e5 af bd 46 48 90 be 56 79 49 bf
       0.8752689 -0.085886694 -0.2818014 -0.7870077
000010 d1 34 6a 3f bc be 82 be 27 69 2d bd 11 bb 3c bf
       0.9148684 -0.25536144 -0.04233661 -0.7372294
000020 af 17 fb 3e 5f 19 0f bf 65 3e 9e 3e 5d dc 85 bf
       0.49041507 -0.5589809 0.30906978 -1.0457875
000030 76 51 50 3f a0 eb 37 bf 5b 15 1e 3f cf 63 43 bf
       0.813743 -0.7184391 0.61751336 -0.7632417
000040 f3 e8 84 be f6 f0 11 bf b2 64 36 3c 5f 90 5f bd
       -0.25958976 -0.570083 0.011132406 -0.054581042
000050 f7 7f 98 3e f8 f9 2f 3e a1 56 ea 3e 32 46 13 bf
       0.2978513 0.171852 0.45769218 -0.57528985
000060 9d 45 62 bf 24 32 09 bf 5f 92 25 3f 58 e4 a9 3d
       -0.8838747 -0.53592134 0.6467647 0.08295506
000070 53 08 cd 3e d9 00 a6 bc 67 fd aa be d7 e3 a4 3e
       0.40045413 -0.020264076 -0.33396456 0.32205078
000080 70 3c 0d bf bd 2f 49 bd 1b 38 07 3f 37 87 4d bf
       -0.55170345 -0.049117792 0.52819985 -0.80284446
000090 03 97 e2 3e 5c ec 8a 3f 77 87 8d 3e 43 d7 ac 3e
       0.44255838 1.0853381 0.27642414 0.33757982
0000a0 23 a6 8d 3e 59 56 85 bf 9b c1 88 3f 46 d8 47 3d
       0.27665815 -1.0416976 1.0684084 0.04879024
0000b0 ce 8e fd 3e 2e f6 cb be 59 45 80 3e 12 96 87 bf
       0.49523014 -0.39836258 0.25052908 -1.0592673
0000c0 c7 1b b1 3e 3c f1 21 3e 04 19 01 bd 67 b2 92 3f
       0.34591505 0.1581468 -0.031517997 1.1460694
0000d0 01 71 69 be b3 da 1a bf 29 d0 d9 bd a4 1a cf be
       -0.22797014 -0.6048996 -0.106354065 -0.40450013
0000e0 a5 2b 0b bf 33 7b 07 bf d6 52 3d 3e 66 b1 0b 3d
       -0.5436347 -0.5292236 0.1848863 0.034104727
0000f0 fc 75 56 bc 24 8a 9d 3e fd 01 71 bf 60 5b d5 3d
       -0.013089653 0.30769455 -0.9414366 0.10417819

bn3.running_mean f4 [64]
000000 fd d3 9d 41 a8 f4 6d 42 84 ad e8 41 9e 88 a9 31
       19.72851 59.488922 29.084724 4.934079e-09
000010 f4 f0 cd 3f 31 de ec 41 1c 8b bc 3c 29 12 6a 41
       1.6089158 29.608492 0.023015551 14.629434
000020 cc 8a b6 3f 94 3b fd 3e dd 67 95 42 d9 0d 06 42
       1.4261107 0.49459517 74.70286 33.513523
000030 aa d6 fe 42 16 0c a8 41 cf 66 c8 3f 52 93 21 3e
       127.419266 21.005901 1.5656375 0.15778854
000040 95 dc ea 3a 51 91 4b 42 c3 50 c1 42 8a 80 8b 42
       0.0017918522 50.89191 96.65774 69.75105
000050 65 3f 3a 42 a4 65 9d 40 93 93 a3 41 77 c7 fe 41
       46.56191 4.9186573 20.447058 31.847395
000060 f1 cf c6 3f 5c 07 1f 42 49 12 8d 3d fc cf cf 41
       1.5532209 39.757187 0.06888253 25.976555
000070 45 6a cd 3f b8 83 72 41 2a e7 6f 41 6f 57 d1 40
       1.6048056 15.157158 14.993937 6.541923
000080 74 28 0f 41 0a 64 a0 3e ca 2c ce 40 d7 44 aa 41
       8.947376 0.31326324 6.4429674 21.283613
000090 4d bf d3 41 d0 0b 75 41 64 6f 15 43 51 e9 d2 41
       26.468409 15.315384 149.43512 26.363924
0000a0 17 f7 ca 41 68 1a 8f 42 a3 8a e4 41 26 fb 10 41
       25.37065 71.551575 28.567694 9.061316
0000b0 1e 25 8b 41 26 8c 78 3f 37 2c 72 42 7e ae 2b 42
       17.393124 0.9708885 60.54318 42.920403
0000c0 4b 89 4b 41 5a 4f f0 42 87 cb ed 40 76 e8 b6 41
       12.721019 120.15498 7.4310946 22.863506
0000d0 b0 03 ad 42 73 a0 ea 41 c6 0e c6 3f a3 f8 8b 42
       86.5072 29.328344 1.5473258 69.98562
0000e0 98 e2 1c 42 2a a9 24 42 79 38 4b 3f c5 80 e4 42
       39.221283 41.1652 0.79383045 114.2515
0000f0 e7 34 b4 41 d0 ab 40 40 8e b7 d5 42 1c 55 14 42
       22.525831 3.0104866 106.858505 37.083115

bn3.running_var f4 [64]
000000 b6 06 b3 44 d2 27 40 45 67 02 0b 45 43 8d d6 31
       1432.2097 3074.4888 2224.1501 6.2442793e-09
000010 02 15 7f 42 74 43 af 44 5b 2e dd 3e d3 e0 2d 44
       63.770515 1402.1079 0.4319943 695.5129
000020 38 07 5e 42 5d 37 85 41 23 86 82 45 00 c6 c3 44
       55.50705 16.652033 4176.767 1566.1875
000030 e8 87 df 44 93 88 8a 44 f3 6d 82 42 38 9d b4 40
       1788.2471 1108.268 65.214745 5.6441917
000040 00 c4 a5 3c fd c7 69 45 ae 14 b8 45 f3 65 91 45
       0.020235062 3740.4993 5890.585 4652.7437
000050 75 39 f7 44 84 2e 7f 43 d5 38 66 44 a2 97 b9 44
       1977.7955 255.1817 920.888 1484.7385
000060 5e 53 7a 42 95 33 fd 44 39 d1 bb 3f 75 de 86 44
       62.581413 2025.6119 1.4673225 1078.9518
000070 ee 13 8f 42 ab 1c 55 44 da 7e 6d 44 a7 2b b0 43
       71.538925 852.44794 949.98206 352.34103
000080 86 d8 bc 43 7a f4 e6 40 83 86 c0 43 95 18 9c 44
       377.6916 7.2173433 385.05087 1248.7682
000090 87 ab 96 44 a9 17 82 44 3f 2b 37 45 ef 3b c7 44
       1205.3602 1040.7394 2930.703 1593.8729
0000a0 36 f6 88 44 1e f7 42 45 36 f4 af 44 c2 43 0d 44
       1095.6941 3119.4448 1407.6316 565.0587
0000b0 e1 b6 af 44 f7 e9 f4 41 db ac 1f 45 0e 3c 31 45
       1405.715 30.61424 2554.8035 2835.7534
0000c0 35 a2 91 44 39 25 a8 45 98 47 ea 43 76 1c f0 44
       1165.069 5380.653 468.55933 1920.8894
0000d0 91 a5 65 45 08 c7 12 45 a4 6e 60 42 3a 61 1c 45
       3674.348 2348.4395 56.108047 2502.0767
0000e0 e1 45 ea 44 2c 2d 31 45 83 3d c1 41 9c 8f 84 45
       1874.1837 2834.8232 24.155035 4241.951
0000f0 bc d1 c6 44 de 9b 0d 43 3a 60 44 45 04 b3 02 45
       1590.5542 141.60886 3142.0142 2091.1885

fc1.weight f4 [256, 64]
000000 fd a4 11 3d 82 87 71 bf 71 57 d1 be 7d be 48 bf
       0.035557736 -0.94347394 -0.40887025 -0.7841566
000010 69 5a 87 3f 4d d8 20 3f 87 3c fb 3e 8e 19 4b bf
       1.0574466 0.6283005 0.49069616 -0.7933587
000020 39 de 48 bf 28 4e b0 be 3e 3b 1a 3f d4 ab bb 3e
       -0.78464085 -0.34434628 0.60246646 0.36654532
000030 7f d2 19 3e b1 ea 16 3e 6b e0 1a bf 03 7d 06 be
       0.15021704 0.14737965 -0.60498685 -0.13133626
000040 1d 35 25 bf c5 48 c4 be 55 34 ce be 10 a0 25 bf
       -0.6453417 -0.3833677 -0.402743 -0.6469736
000050 c2 39 1f bf e9 d9 06 bd f8 16 f5 be 0b 76 1c bc
       -0.62197506 -0.03292266 -0.47869086 -0.009549628
000060 11 61 00 3f 1f 8f 65 3f cf db 3c be c3 71 cc 3e
       0.5014811 0.8967151 -0.18443225 0.39930543
000070 3c f0 fc be 6d c4 46 3f 0c fc a8 3e b1 cd 7c be
       -0.49402034 0.7764347 0.33004797 -0.2468784
000080 8e f5 3f 3f b9 e9 1b bf 7e 47 2d bf cb b1 eb 3e
       0.7498406 -0.6090351 -0.67687213 0.46034083
000090 6a b1 45 bf 90 9c 63 3f 8d 73 56 3e c3 aa 49 3f
       -0.7722384 0.8891077 0.20942517 0.78776187
0000a0 48 0f 8a 3e 27 10 2b 3e c2 31 fe be 0b a8 c6 be
       0.26964784 0.1670538 -0.49647337 -0.38800082
0000b0 fd 86 39 3f b7 d1 a9 be 28 a7 cd bc 25 7a 83 3f
       0.724716 -0.33167812 -0.02510412 1.027165
0000c0 95 c0 f2 3e b4 8a 58 3f 7f 3f 39 bf e2 15 4e 3f
       0.47412553 0.84586644 -0.7236251 0.8050214
0000d0 16 4d 33 bf 8b 3e 09 bf bf 92 2f bf bc d3 dd 3e
       -0.700395 -0.5361106 -0.6858329 0.43325603
0000e0 70 33 18 3f 23 06 58 3f fb 7b 70 3f 37 19 d1 3e
       0.5945349 0.84384364 0.9393918 0.4083955
0000f0 b1 3f 9f be 91 11 93 be a1 7f 1a 3e 06 6b df bd
       -0.3110328 -0.2872434 0.15087749 -0.10909085
000100 92 b4 a4 3e bd ca 48 bf 06 1d 8d be 70 79 20 bf
       0.32169014 -0.78434354 -0.27561206 -0.626853
000110 0a 22 23 3f dc a1 f7 3d b4 c5 61 3f 5c 21 a4 be
       0.63723814 0.12091419 0.88192296 -0.320567
000120 cc fe ae 3c 1a 68 36 3e 8b 28 ef 3d e2 61 8c bd
       0.021361731 0.17813149 0.11677655 -0.06854607
000130 91 55 10 3d 7e e8 79 3c 55 9d da 3e 2a c9 08 3f
       0.035237852 0.015253184 0.4269816 0.5343195
000140 05 7f 13 bf f9 b4 1a bf 2d 2b c6 be 59 a6 bd be
       -0.5761569 -0.6043239 -0.38704816 -0.37040976
000150 cd 54 85 bf b8 9e 05 3e 4e d4 00 3f 78 7f 68 3f
       -1.0416504 0.13048828 0.5032395 0.908195
000160 6b 3e 2c 3f c0 4f ab 3e dc 81 28 bf 47 11 47 be
       0.6728274 0.33459282 -0.6582315 -0.19440185
000170 c6 b3 f6 bd b2 b6 65 be 4c 8c 3b 3f 16 2a 1d bf
       -0.12046008 -0.22432974 0.7326095 -0.61392343
000180 ab d1 6a 3e 09 1c 63 bf 43 18 84 3f f0 6b d0 3e
       0.22931544 -0.88714653 1.0319904 0.4070735
000190 15 10 73 3e c3 7f 86 3f 60 12 f7 bd 6b 0f c5 be
       0.23736604 1.050774 -0.12064052 -0.38488325
0001a0 5c 5b 20 3f 4f 6a 46 3f 73 01 84 bf ee 96 02 bc
       0.62639403 0.77505964 -1.0312942 -0.007970555
0001b0 b2 92 e7 3d e4 c2 3c bf ae 57 ee 3d e4 ea 5d bf
       0.11307277 -0.7373488 0.11637817 -0.8668654
0001c0 dd a4 55 3f a6 03 28 bf 05 11 42 bf 67 e3 15 bf
       0.83454686 -0.6563057 -0.7580722 -0.58550113
0001d0 b6 e9 e9 be f0 d5 89 bf ce 5e 80 3e bb 39 1d be
       -0.4568612 -1.0768414 0.2507233 -0.15354054
0001e0 77 f8 5f 3e 28 97 50 3f c0 60 66 3f 03 b4 ba be
       0.21872126 0.81480646 0.8999138 -0.36465463
0001f0 7b 67 35 bf cd df 67 3e cf 8c 87 be 4f f2 4f bf
       -0.70861024 0.22643967 -0.26474616 -0.8122911
000200 2d 3f 51 bf 89 6d 7a bf 6a d3 a5 3c e4 a0 57 bf
       -0.81737024 -0.9782339 0.020242412 -0.84229875
000210 c0 2a 2c 3f be df 37 3f 36 5c a3 3e d8 50 16 3e
       0.6725273 0.7182578 0.3190629 0.14679277
000220 35 30 3d bf ef 80 17 3f 70 9b 68 3f 61 cb 27 3f
       -0.73901683 0.5918111 0.9086218 0.65544707
000230 f3 dd e5 3d 73 72 33 3f 78 cb 10 be 63 d6 77 3f
       0.11223974 0.7009651 -0.14140117 0.96811503
000240 3f 79 c9 be ee 9b 30 be e5 71 4d be 44 18 ab be
       -0.39350316 -0.17246982 -0.20062979 -0.3341695
000250 09 0a 4f bf 50 21 b6 3e 82 b1 4e bf bf a9 5d 3f
       -0.8087469 0.3557229 -0.80739605 0.86587137
000260 a6 cb 1e 3f da e4 4e 3f 45 78 78 bd a3 df 67 be
       0.6202949 0.8081795 -0.060661573 -0.22643904
000270 63 69 18 bf f3 ec 00 bf a5 06 83 3e 67 24 84 be
       -0.5953581 -0.50361556 0.25591007 -0.25809023
000280 87 90 22 3f 0f 7f 6d be ca 5b a6 3d 18 20 26 3f
       0.6350178 -0.23193 0.08122976 0.6489272
000290 0c 84 79 be 5d c0 92 3e 00 24 84 3e 5b ce b5 be
       -0.24366778 0.28662387 0.25808716 -0.35509
0002a0 cc 4b 8a bd 5b 5f 83 3e 6b 51 ad be 37 f7 b3 be
       -0.06752738 0.25658688 -0.3385118 -0.35149547
0002b0 19 d6 c3 3e 8c c9 82 3e 4c f8 2d bf 41 a5 39 3f
       0.3824928 0.25544393 -0.67956996 0.7251778
0002c0 da 6f e1 3e b1 2f 67 3f 5b 6e 75 bf b6 04 35 bf
       0.44030648 0.90307146 -0.95871514 -0.70710313
0002d0 30 48 66 be 5c aa ea be 8d 23 3a 3e b5 5c 65 3f
       -0.22488475 -0.458331 0.18177624 0.89594585
0002e0 f1 c9 c2 3e 81 c8 1b be 9c 2b aa 3e 44 18 d8 3e
       0.38044694 -0.15213205 0.33236396 0.42206013
0002f0 7a 57 0d 3f ad df d4 be 86 11 88 be 40 41 77 bf
       0.55211604 -0.415769 -0.2657587 -0.9658394
000300 9d 34 c3 3e fe 82 0f 3f 6c 1a 11 3f 5c fd 42 3f
       0.38126078 0.56059253 0.5668094 0.76167846
000310 42 89 95 be 86 41 6f 3e cb 6f 14 bf 86 b8 24 bf
       -0.29206282 0.23364839 -0.5798308 -0.6434406
000320 87 b3 c3 3e 1e f5 85 3d 5d 81 e3 be ab 99 a5 3e
       0.38222906 0.06540893 -0.44434634 0.32343802
000330 64 2e 7b be cc e1 80 bc 13 fa 0c 3e f4 62 20 be
       -0.24529415 -0.015732668 0.1376727 -0.15662748
000340 01 d3 63 3f 99 40 89 3f be 51 88 3f 84 ee 97 3e
       0.8899384 1.0722839 1.0649946 0.2967416
000350 34 07 80 3f 82 05 af be 99 84 d2 3b be e6 83 be
       1.0002198 -0.3418389 0.0064244983 -0.2576198
000360 02 de 24 3f 05 43 3b be 11 a2 21 3f fc 9d b0 ba
       0.6440126 -0.18287285 0.6313792 -0.0013474817
000370 71 41 49 3f ba 60 ea 3d e4 c5 0e bf 66 4d de be
       0.7861548 0.114442304 -0.5577071 -0.43418425
000380 03 42 61 be 8d d9 95 3f 32 29 05 3e 8c 79 5c bf
       -0.21997838 1.1707016 0.13003996 -0.86122966
000390 09 c9 ab 3e 6b 91 c1 be 8d a6 d6 3e c3 df 30 3f
       0.33551815 -0.37806258 0.41923943 0.69091433
0003a0 e2 80 04 bf 29 7c 49 3e 5b be 9a 3f a9 3d 93 3f
       -0.5175916 0.1967627 1.2089342 1.1503192
0003b0 3b 45 90 be 0c 5b 85 3f 82 66 64 3f dc 4b 2e 3f
       -0.2817782 1.041841 0.89218915 0.680845
0003c0 bf b1 10 bf 14 5b 07 3e de 1a 62 3f bb bf 2d 3f
       -0.5652122 0.13218337 0.88322246 0.6787068
0003d0 5e 78 2b 3f 71 79 a3 3e a0 d3 dc 3d f6 95 09 be
       0.6698054 0.3192859 0.10782552 -0.13436112
0003e0 1e e6 c6 be 79 5d 89 be 06 dc 03 3f c5 5d 12 3f
       -0.3884744 -0.26829126 0.51507604 0.5717433
0003f0 26 4b 34 bf 69 41 86 3f 10 c1 9e 3e d5 db 4b 3e
       -0.7042717 1.0488712 0.3100667 0.19908078

fc1.bias f4 [256]
000000 c0 87 46 be 50 7d 35 3f 0e 28 26 bf 02 34 bc be
       -0.19387722 0.70894337 -0.6490487 -0.3675843
000010 65 6e 67 be 62 a9 d6 3e 4a a5 66 bf 5e a6 23 bf
       -0.22600706 0.41926104 -0.9009596 -0.6392573
000020 19 50 32 3f 0a 92 f6 bc 50 39 9e be 7f 66 53 3e
       0.6965347 -0.030098934 -0.309031 0.20644568
000030 87 b7 42 be d8 d4 10 bf d7 ce 07 bf e0 cd 97 bf
       -0.19015323 -0.56574774 -0.5304999 -1.1859703
000040 69 67 18 3f 23 2c 33 be 1e 88 4a bd e8 45 3b 3f
       0.5953279 -0.17497306 -0.049446218 0.73153543
000050 7c f3 6d bf c8 8e ab be 4f 83 a9 be 85 43 71 bf
       -0.9294965 -0.3350737 -0.33107993 -0.9424365
000060 14 2a 3a bf 45 25 aa bd 53 06 2f bf 30 ad 48 3e
       -0.72720456 -0.0830789 -0.68369025 0.19597316
000070 9c 5d 46 bc 36 31 8a bf 5b c5 f4 be 0c 40 4e bf
       -0.012107279 -1.0796268 -0.4780682 -0.8056648
000080 39 5d a2 be 53 1f 75 be 79 d0 e6 be a0 c5 3a bf
       -0.31711748 -0.2393773 -0.45080927 -0.729578
000090 d6 e9 73 bf 34 43 3a bf 62 cd d3 be ad 25 32 be
       -0.9527868 -0.72758794 -0.41367632 -0.17397185
0000a0 1b b8 bf be 7f 8d 0b 3f c1 a9 96 bd d9 ae 90 bf
       -0.3744515 0.5451278 -0.07356597 -1.1303359
0000b0 5b 98 a2 3e 60 91 bc be 6b 64 4a bf 4c 5e 10 3f
       0.31756863 -0.36829662 -0.79059476 0.56393886
0000c0 db 79 02 bf 2e 53 0e be 1d 7a 9a be 50 a3 87 bf
       -0.50967187 -0.13898918 -0.3017129 -1.0596714
0000d0 5b 00 09 be a4 d7 2f 3d 0d bf 75 bf 8e 11 57 bf
       -0.13379042 0.04293026 -0.95994645 -0.8401116
0000e0 7e fa 2a 3f df 2d 89 3f 62 99 3d be 38 c5 8b be
       0.6678847 1.0717124 -0.18515542 -0.27298903
0000f0 c2 92 85 bd 34 61 a0 3d e9 e3 e3 be 33 f5 1b bf
       -0.065221325 0.0783104 -0.4450982 -0.6092102
000100 8c d8 38 be 38 a5 65 3f 4b e4 60 3e 04 75 4a be
       -0.18051356 0.8970523 0.21962087 -0.197712
000110 46 45 70 bf 35 bd 12 3e 2a 52 38 bf f3 67 73 bf
       -0.938557 0.14329989 -0.7200037 -0.9508049
000120 4b 49 59 bf 41 9e b6 be ee 25 48 bf f2 56 19 3e
       -0.8487746 -0.35667613 -0.78182876 0.14974573
000130 b8 03 41 bf a9 be dd 3e 71 03 cb be f0 bb 7c bf
       -0.753963 0.43309525 -0.39651063 -0.9872427
000140 5d 0c 8c bc dc 26 77 bf 8e ae 34 3f 81 66 57 3e
       -0.017095739 -0.9654367 0.7057885 0.21035196
000150 9b b2 8e bf 74 a5 3b bf 58 b8 1e 3f 1a 38 21 bf
       -1.1148256 -0.73299336 0.62000036 -0.6297623
000160 c4 a3 01 bf c0 8a de bd ef 8c ed bd 46 f6 08 bf
       -0.5064051 -0.10866308 -0.115991466 -0.53500783
000170 ed 5e 65 3e 2f 73 80 3e 78 d7 a2 bf c0 ca 59 bf
       0.22399493 0.25087878 -1.2722006 -0.85074997
000180 6e 15 1e bd c4 e6 56 bf f8 6d ad 3d 4e 91 97 be
       -0.038594656 -0.8394587 0.084682405 -0.29603046
000190 5e da 33 bf 05 88 f1 be 5f 47 ba bd 38 78 fc 3e
       -0.70255077 -0.47174087 -0.09095644 0.4931047
0001a0 36 80 bd be 97 f7 12 be 0f ca 2a 3e 32 14 84 bf
       -0.3701188 -0.1435226 0.16678642 -1.0318663
0001b0 dc 12 2a bf 92 a4 0f 3d e0 96 da be b5 ba 4f 3e
       -0.6643503 0.035069056 -0.42693233 0.20286067
0001c0 ac a2 33 bf a0 b7 d3 be 90 ff 14 3e 63 f0 0c bf
       -0.7017009 -0.41351032 0.14550614 -0.550543
0001d0 a1 62 2b 3f 73 7b a8 be ad 69 ba bd 7d cd 48 bf
       0.6694737 -0.32906684 -0.09102187 -0.7843855
0001e0 ec a7 64 bf 94 e2 88 bd 20 79 49 bf b1 80 85 bf
       -0.8931873 -0.06683841 -0.7870045 -1.0429899
0001f0 3a 06 59 bf fb ea b4 be c5 67 38 bf e1 c6 10 3f
       -0.84775126 -0.35335526 -0.7203334 0.56553465
000200 05 8b 55 3e dd db 5a bf 93 8d b9 3d 05 05 3a 3e
       0.20853813 -0.85491735 0.09060206 0.18165977
000210 be 43 20 bf e9 d7 a4 be be 02 02 bd 8d cd c3 be
       -0.62603366 -0.32195976 -0.031740896 -0.3824276
000220 6e f5 37 3f 35 fe ea be f6 e5 4d bf 5a 36 67 bf
       0.7185887 -0.4589707 -0.8042902 -0.9031731
000230 19 4d 5c be 63 d7 75 3d f2 04 6a 3e c6 02 1f bf
       -0.21513785 0.060019862 0.22853449 -0.62113607
000240 e5 5d 51 3f 39 95 d9 be 38 54 b9 3e 73 b2 fb be
       0.81783897 -0.4249666 0.36197066 -0.49159583
000250 f1 41 9b be cb c8 0b 3e 18 b9 09 bf a3 9b 6a bf
       -0.30323747 0.13650815 -0.53798056 -0.9164373
000260 5f 15 05 be a5 b4 12 bf ab be 71 bf 5f 36 5e bf
       -0.12996434 -0.5730689 -0.9443156 -0.86801714
000270 6d af 58 bf 4e 89 80 bf 43 b1 52 be 96 16 81 be
       -0.8464268 -1.0041902 -0.20575432 -0.25212544
000280 e2 77 56 bd 78 12 0f bf 0c e3 72 bd 1f fc 05 bf
       -0.052360423 -0.55887556 -0.05929856 -0.5233783
000290 ea 3f 0b bf 99 ce 17 3f 1c d3 39 be b8 a2 34 bf
       -0.543944 0.5929962 -0.18146938 -0.7056079
0002a0 9b 28 bf be ea ac 02 bf 07 35 ad be 3e 14 d3 3e
       -0.37335667 -0.51045096 -0.3382952 0.4122638
0002b0 bf 1c 7e bf 8a 97 ad be fc 47 5d bf 69 8f 7a bd
       -0.99262613 -0.33904678 -0.86437964 -0.061171923
0002c0 30 df 39 bd b4 fe 74 bf 79 42 5d be 5a 8c 8f be
       -0.045378864 -0.95701146 -0.21607389 -0.28036767
0002d0 a2 ac 25 3d 2c cf 6d bf 5d 27 b4 be 4a 5e f0 be
       0.04044784 -0.92894244 -0.35186282 -0.46946937
0002e0 fa 6a 51 bf b5 60 5f 3c 89 2a 76 bf a7 f7 e2 3d
       -0.8180386 0.013633897 -0.96158653 0.11082392
0002f0 97 3a 79 be 05 8a 10 bf 34 c2 99 bb c4 96 32 bf
       -0.24338757 -0.564606 -0.0046923403 -0.697613
000300 a6 73 28 bf 99 1d 2f bf 0a bb 38 bf 07 e9 56 bf
       -0.65801466 -0.6840454 -0.721604 -0.8394932
000310 11 1b 07 bf 7a db 6a be 70 18 ff be 0d ba 9e bf
       -0.52775675 -0.22935286 -0.49823332 -1.2400528
000320 40 4e 50 3e bb ed 58 bf d4 22 ac be dc b5 47 bf
       0.2034235 -0.8473775 -0.33620322 -0.7801187
000330 d1 b5 03 bf 6a 5d f1 bd 9c 1d 50 3e fc 8e 57 bf
       -0.51449305 -0.117853954 0.20323795 -0.8420255
000340 35 f0 74 bf ae 5f 40 3f bd 57 85 bf 9f f8 6a bf
       -0.95679027 0.75145996 -1.0417401 -0.91785616
000350 3d 5f f8 3e 84 38 56 bf 59 9f 35 bf 8c 06 68 3f
       0.4851016 -0.83679986 -0.7094627 0.9063499
000360 77 68 8f 3e b8 29 86 bf 2a 84 43 3e 04 e3 dd be
       0.28009388 -1.0481482 0.19093385 -0.43337262
000370 42 f8 55 be cf 71 49 bf 9c 27 75 bf a1 77 35 bf
       -0.20895484 -0.78689283 -0.95763564 -0.70885664
000380 0d 0b cd be 8b 2c 2d 3f 00 ba 98 bf 46 2b 5c bf
       -0.40047494 0.6764609 -1.1931763 -0.8600353
000390 9e 57 01 3f 30 b4 c3 3e 39 a1 e3 3d 95 a0 bc be
       0.5052432 0.3822341 0.11114735 -0.36841264
0003a0 a3 87 f8 be 0e f4 7c 3f b2 5e 74 bf f0 e8 ec 3e
       -0.48540983 0.988099 -0.95456994 0.46271467
0003b0 28 00 96 bf 02 11 87 bf 46 a1 05 3f 64 c0 4d bf
       -1.1718798 -1.0552065 0.5219921 -0.8037169
0003c0 9a 44 38 3f 88 00 1e bf 38 cd f7 be c3 fb 99 3e
       0.7197968 -0.6171956 -0.48398757 0.3007489
0003d0 51 b3 75 bf f0 e8 15 bd 9f 89 b3 bd ae 3a 59 be
       -0.9597674 -0.0365991 -0.087664835 -0.21213791
0003e0 45 1b 85 bf 32 be 8b be db f2 12 bf ea 33 bd be
       -1.0398947 -0.27293545 -0.5740182 -0.3695367
0003f0 46 f7 8a bf 35 60 6f bf c1 ef e5 be c9 fb 8d bf
       -1.0856712 -0.93506175 -0.4490948 -1.1092464
