mini_batch_exp/models/mnist_sgd_batch2_lr0.1.pt (torch_old, 326371 bytes, 26 tensors)

conv1.weight f4 [16, 1, 3, 3]
3.8531876 -0.40189296 -0.98189646 4.7619963 1.6610175 3.3579288 3.1866693 4.3397374
2.8609016 -10.521722 -28.118279 -8.542442 -33.131493 -39.65152 3.9085045 -40.90665
-46.291534 -20.578146 -10.989278 -6.54045 -0.9301055 -15.761986 -3.1888363 -2.6202765
-6.6273093 -3.614528 -1.5943074 -6.929212 -0.9048931 -0.62947625 -0.6999459 -0.0992476
-1.284763 -0.5527528 -0.4572431 -0.7222555 4.3587728 5.083573 -1.6979299 6.5942254
2.564826 -0.9665587 2.0188053 1.5601685 -1.6288213 6.477197 4.604602 -1.4589376
6.279296 1.7428921 -3.0442657 4.268786 0.33050913 -1.3542871 -14.0106735 -5.4449854
-9.204989 -5.248049 -2.4076338 -10.987726 5.2603536 -1.3339524 -8.682154 76.64888
2.6205924 -3.6244204 -11.548016 -11.720705 -4.1489754 -13.708699 -5.8819723 -3.3745644
-48.11676 -43.729553 -15.052736 -23.370401 -1.6771429 2.1995723 -8.104245 -24.48238
-25.682816 -7.808469 -0.94630146 -13.425141 -13.449249 -12.817022 -19.993513 -2.05192
-22.910372 -27.912306 9.481786 1.4357378 10.515738 16.076752 3.1422892 9.658925
-0.20736974 -4.12898 10.163217 -22.963657 -84.4385 -179.46088 -3.6143897 -135.90604
-234.0346 -17.388472 -91.8502 -150.74083 -12.788005 -2.7610607 -23.709747 -5.885917
-1.5794331 -8.814799 -0.21837282 -1.8841588 -1.8469231 -14.930657 -12.031317 -9.492115
-36.743256 -21.447594 -17.521107 -13.693565 -12.997894 31.370783 -41.190735 -6.120608
-6.2308292 -117.3988 -8.140629 -3.3935442 -49.327225 -4.8877563 -8.775781 31.780703
12.711372 3.2411406 5.1025295 11.4980955 17.343931 8.8756 3.6308322 4.1194763
00000000: a09a 7640 eac4 cdbe 915d 7bbf 4662 9840
00000010: 399c d43f 4ee8 5640 64f2 4b40 21df 8a40
00000020: 0319 3740 f958 28c1 3cf2 e0c1 d8ad 08c1
00000030: a686 04c2 289b 1ec2 f024 7a40 69a0 23c2
00000040: 882a 39c2 0ba0 a4c1 15d4 2fc1 5e4b d1c0
00000050: 651b 6ebf 1831 7cc1 e515 4cc0 9cb2 27c0
00000060: eb12 d4c0 6d54 67c0 4412 ccbf 1bbc ddc0
00000070: 13a7 67bf 5b25 21bf a82f 33bf 5342 cbbd
00000080: 1d73 a4bf 3581 0dbf c51b eabe bde5 38bf
00000090: 117b 8b40 a1ac a240 c455 d9bf e503 d340
000000a0: 1c26 2440 6470 77bf 1b34 0140 9ab3 c73f
000000b0: 377d d0bf 3345 cf40 e658 9340 78be babf
000000c0: feef c840 1717 df3f 40d5 42c0 e599 8840
000000d0: 7e38 a93e 4859 adbf b82b 60c1 523d aec0
000000e0: a347 13c1 04f0 a7c0 ac16 1ac0 bacd 2fc1
000000f0: d154 a840 f4be aabf 1aea 0ac1 3a4c 9942
00000100: c9b7 2740 81f6 67c0 acc4 38c1 0288 3bc1
00000110: 68c4 84c0 d556 5bc1 1e39 bcc0 ddf8 57c0
00000120: 9077 40c2 10eb 2ec2 02d8 70c1 95f6 bac1
00000130: 9eac d6bf cbc5 0c40 fdaa 01c1 eadb c3c1
00000140: 6876 cdc1 fade f9c0 d040 72bf 61cd 56c1
00000150: 2030 57c1 8612 4dc1 b7f2 9fc1 a852 03c0
00000160: 7148 b7c1 674c dfc1 65b5 1741 42c6 b73f
00000170: 7640 2841 309d 8041 441b 4940 f58a 1a41
00000180: bc58 54be 9b20 84c0 899c 2241 92b5 b7c1
00000190: 83e0 a8c2 fc75 33c3 2952 67c0 f2e7 07c3
000001a0: dc08 6ac3 971b 8bc1 4db3 b7c2 a7bd 16c3
000001b0: ab9b 4cc1 38b5 30c0 90ad bdc1 6f59 bcc0
000001c0: dd2a cabf 6b09 0dc1 209d 5fbe 1e2c f1bf
000001d0: fa67 ecbf f9e3 6ec1 4680 40c1 b4df 17c1
000001e0: 18f9 12c2 ac94 abc1 3a2b 8cc1 d818 5bc1
000001f0: 60f7 4fc1 5df7 fa41 50c3 24c2 05dc c3c0
00000200: f462 c7c0 30cc eac2 0440 02c1 d42f 59c0
00000210: 144f 45c2 8068 9cc0 9969 0cc1 e13e fe41
00000220: c861 4b41 d96e 4f40 ec47 a340 33f8 3741
00000230: 5fc0 8a41 7502 0e41 8e5f 6840 c0d2 8340

conv1.bias f4 [16]
0.10435913 -0.053570893 3.1060972 -3.4027421 0.19709973 0.18791166 -0.067529805 9.958554
-0.1857072 -0.1544041 -0.3570073 -0.659023 -5.6403117 0.0032318989 0.47534057 0.123975806
00000000: 3dba d53d 276d 5bbd 4cca 4640 87c6 59c0
00000010: 83d4 493e ea6b 403e 114d 8abd 3d56 1f41
00000020: 072a 3ebe 1c1c 1ebe a9c9 b6be bbb5 28bf
00000030: 6f7d b4c0 44ce 533b d75f f33e 07e7 fd3d

bn1.weight f4 [16]
-18.981627 112.75745 -112.05333 15.71808 -1.6402254 -19.960472 16.590748 -17.491417
-2.6398075 -17.391973 -72.098625 48.559628 -39.89436 -7.50679 0.39646545 -53.379856
00000000: 5fda 97c1 d083 e142 4e1b e0c2 417d 7b41
00000010: e8f2 d1bf 0caf 9fc1 dab9 8441 6cee 8bc1
00000020: 9bf2 28c0 c322 8bc1 7f32 90c2 0f3d 4242
00000030: d393 1fc2 a037 f0c0 85fd ca3e f984 55c2

bn1.bias f4 [16]
45.34314 -32.075863 -126.406876 4.483684 25.27728 9.3918085 38.55277 58.567585
27.788177 52.5022 67.40084 -237.32065 15.375517 -1.0477844 17.087706 82.684
00000000: 605f 3542 af4d 00c2 52d0 fcc2 577a 8f40
00000010: df37 ca41 d944 1641 0936 1a42 3545 6a42
00000020: 304e de41 4102 5242 3bcd 8642 1652 6dc3
00000030: 1e02 7641 cd1d 86bf 9fb3 8841 355e a542

bn1.running_mean f4 [16]
1110.9982 0.2818862 2.183326 6e-45 973.7974 1014.97906 20.89097 3047.3762
0.12462166 6e-45 2753.547 6e-45 6e-45 453.11346 0.33396652 4802.224
00000000: f1df 8a44 6353 903e 9dbb 0b40 0400 0000
00000010: 0973 7344 a9be 7d44 b520 a741 0576 3e45
00000020: a439 ff3d 0400 0000 c118 2c45 0400 0000
00000030: 0400 0000 868e e243 a9fd aa3e cb11 9645

bn1.running_var f4 [16]
2.8227968e+06 67.82345 2.0087795 6e-45 2.6172098e+06 2.9169818e+06 15553.384 3.4715084e+07
16.755615 6e-45 1.6956478e+07 6e-45 6e-45 1.7814159e+06 0.047109846 5.2135972e+07
00000000: 334a 2c4a 9ba5 8742 d88f 0040 0400 0000
00000010: e7bd 1f4a d709 324a 8905 7346 736d 044c
00000020: 800b 8641 0400 0000 1f5e 814b 0400 0000
00000030: 0400 0000 3f75 d949 41f6 403d 09e2 464c

conv2.weight f4 [32, 16, 4, 4]
1.3589472 1.5843884 -2.8445013 -4.870898 1.7737353 0.9557115 -2.9195466 -7.03314
0.57875264 -0.7925092 0.2992876 -3.3263736 0.058169782 0.9059051 1.1515541 2.8861213
-3.3490064 3.0129604 14.394661 -14.331986 -4.3508306 -3.6569664 64.87509 -9.912707
-3.77516 -0.7135241 37.274418 50.482025 0.7435239 2.3368573 0.22158118 26.740793
1.1392376 1.1348903 26.694906 23.034567 0.73386264 0.93040895 27.810146 30.690763
2.5461955 9.827389 6.3915825 26.0513 8.186227 4.669039 10.017053 7.6666374
24.943504 25.119158 24.264944 23.952402 25.23175 25.170475 24.619257 23.576668
24.632566 25.204426 24.290693 24.176199 24.685556 25.635866 24.655691 24.427628
1.1220927 0.85419387 0.069797 -6.260382 0.95833844 0.6159457 0.6912207 -6.867147
0.2269093 0.040369622 0.41076076 -3.5585039 -0.44230422 -0.29275176 1.4072245 2.1584392
-0.75179434 -1.5986775 -7.141356 -13.711615 -0.812565 -0.95875657 -6.394725 -21.080141
-1.0505159 -3.030608 -9.662936 -11.485684 -4.7168784 -4.501671 -3.2612913 -3.0471094
13.444443 13.681368 13.410939 13.569529 13.303918 13.326223 15.628815 16.261112
13.447491 15.25139 13.37081 15.03807 14.323276 11.3421545 14.969296 15.072783
-5.828624 -6.61458 -6.7373905 -11.230775 -6.304612 -5.81213 -4.530438 -11.550108
-6.5519204 -5.56506 -4.4328675 -13.684459 -7.8860593 -7.89222 -7.7291136 -4.2239966
7.5699077 7.726991 8.0049925 7.8024487 7.4141207 7.753217 8.034244 8.11735
7.153133 8.10761 8.54445 8.06553 2.114898 8.774813 8.985428 8.12535
14.822677 12.039842 10.859437 11.552127 11.690715 11.611317 11.070835 12.484748
11.153236 11.003544 12.305237 12.306121 10.867424 10.687418 11.558416 11.909003
9.9420595 7.756958 -23.12235 -12.896885 9.513499 7.3818736 -24.928535 -27.03259
4.8895535 0.050106827 -7.1287985 -8.963474 2.453638 4.0275307 5.7974772 10.634498
-4.1760244 -2.1048 -0.99571097 -4.655076 -5.6920066 -5.077163 -5.3671775 -0.55599344
-7.5767264 -0.8989414 -0.81725264 3.3592029 -6.6678114 -1.5446495 0.72978115 5.9783773
8.186211 6.9749026 7.746527 8.742088 7.208836 6.7970004 7.6973896 9.544429
6.669282 6.9129214 8.852175 9.7604 6.970892 7.7438498 9.209125 9.024802
-2.1444533 -4.5372024 -36.96372 -5.0883317 -0.20969158 -9.633423 -40.69985 1.7008803
-15.112108 -6.243027 1.1701956 -9.158258 3.6028855 3.0238621 1.4883201 -10.08115
-6.933121 -8.283291 33.40464 24.561264 -7.7521844 -5.967555 33.618134 43.48361
-7.651936 7.9640703 -4.793458 32.125404 5.3143706 -2.455333 -0.69646937 -5.2919326
5.0658255 3.8100438 -1.3799845 -44.21877 6.549335 6.1379375 5.4127173 -42.05508
6.59909 4.8397493 -0.682201 -45.82497 5.277988 -4.9427524 -6.659319 0.94655454
00000000: fbf1 ad3f 3dcd ca3f 4f0c 36c0 65de 9bc0
00000010: c209 e33f 82a9 743f dad9 3ac0 7c0f e1c0
00000020: 2229 143f e2e1 4abf 393c 993e 4ee3 54c0
00000030: 7043 6e3d 66e9 673f 2066 933f 36b6 3840
00000040: 1f56 56c0 58d4 4040 8850 6641 d14f 65c1
00000050: 013a 8bc0 bd0b 6ac0 0cc0 8142 739a 1ec1
00000060: 399c 71c0 84a9 36bf 0119 1542 98ed 4942
00000070: 9557 3e3f 128f 1540 2de6 623e 25ed d541
00000080: 8ad2 913f 1644 913f 2b8f d541 cb46 b841
00000090: 6cde 3b3f 482f 6e3f 2e7b de41 af86 f541
000000a0: def4 2240 fc3c 1d41 d887 cc40 1069 d041
000000b0: c9fa 0241 c468 9540 d945 2041 1855 f540
000000c0: 4c8c c741 09f4 c841 9b1e c241 859e bf41
000000d0: a0da c941 225d c941 3df4 c441 049d bc41
000000e0: 7f0f c541 aaa2 c941 5753 c241 db68 c141
000000f0: 057c c541 4116 cd41 db3e c541 c86b c341
00000100: bca0 8f3f 73ac 5a3f bbf1 8e3d 0d55 c8c0
00000110: ab55 753f 9eae 1d3f d7f3 303f abbf dbc0
00000120: e95a 683e 9e5a 253d 3c4f d23e 87be 63c0
00000130: b375 e2be 8fe3 95be ef1f b43f de23 0a40
00000140: 9875 40bf 77a1 ccbf fd85 e4c0 c662 5bc1
00000150: 4304 50bf 1271 75bf 96a1 ccc0 21a4 a8c1
00000160: 4e77 86bf 7bf5 41c0 639b 1ac1 5dc5 37c1
00000170: abf0 96c0 b00d 90c0 ffb8 50c0 d703 43c0
00000180: 701c 5741 e2e6 5a41 3593 5641 ca1c 5941
00000190: d9dc 5441 3638 5541 a00f 7a41 c216 8241
000001a0: ec28 5741 b205 7441 d6ee 5541 ef9b 7041
000001b0: 232c 6541 7779 3541 3d82 6f41 1f2a 7141
000001c0: 1684 bac0 a4aa d3c0 b498 d7c0 41b1 33c1
000001d0: 62bf c9c0 f8fc b9c0 59f9 90c0 3ecd 38c1
000001e0: 55a9 d1c0 f914 b2c0 0dda 8dc0 8bf3 5ac1
000001f0: 995a fcc0 118d fcc0 e654 f7c0 fb2a 87c0
00000200: af3c f240 8343 f740 7314 0041 a9ad f940
00000210: 7a40 ed40 5b1a f840 438c 0041 aae0 0141
00000220: 77e6 e440 c5b8 0141 11b6 0841 690c 0141
00000230: 7d5a 0740 a265 0c41 50c4 0f41 6f01 0241
00000240: af29 6d41 31a3 4041 41c0 2d41 83d5 3841
00000250: 2b0d 3b41 f4c7 3941 2422 3141 87c1 4741
00000260: a873 3241 840e 3041 40e2 4441 dfe5 4441
00000270: f8e0 2d41 aaff 2a41 46ef 3841 478b 3e41
00000280: ad12 1f41 0039 f840 93fa b8c1 a459 4ec1
00000290: 4b37 1841 4f38 ec40 a46d c7c1 bf42 d8c1
000002a0: 3977 9c40 d13c 4d3d 1e1f e4c0 646a 0fc1
000002b0: 6808 1d40 88e1 8040 ef84 b940 e726 2a41
000002c0: fea1 85c0 0bb5 06c0 eae6 7ebf 62f6 94c0
000002d0: eb24 b6c0 1f78 a2c0 ebbf abc0 9655 0ebf
000002e0: 8b74 f2c0 0621 66bf 7837 51bf 2efd 5640
000002f0: b65e d5c0 13b7 c5bf f0d2 3a3f de4e bf40
00000300: b8fa 0241 6732 df40 8de3 f740 98df 0b41
00000310: c9ae e640 0781 d940 0451 f640 fbb5 1841
00000320: c26a d540 a736 dd40 82a2 0d41 992a 1c41
00000330: 8c11 df40 9ecd f740 9358 1341 9765 1041
00000340: b93e 09c0 c330 91c0 d9da 13c2 9dd3 a2c0
00000350: 64b9 56be 8022 1ac1 a5cc 22c2 72b6 d93f
00000360: 32cb 71c1 e1c6 c7c0 f8c8 953f 3a88 12c1
00000370: ad95 6640 f586 4140 4681 be3f 644c 21c1
00000380: 21dc ddc0 5c88 04c1 5a9e 0542 787d c441
00000390: e511 f8c0 36f6 bec0 f878 0642 37ef 2d42
000003a0: a9dc f4c0 aad9 fe40 0264 99c0 6a80 0042
000003b0: 530f aa40 2d24 1dc0 d14b 32bf 8357 a9c0
000003c0: 3e1b a240 c2d7 7340 55a3 b0bf 05e0 30c2
000003d0: 2794 d140 fc69 c440 fb34 ad40 6738 28c2
000003e0: bf2b d340 3adf 9a40 baa4 2ebf c54c 37c2
000003f0: 47e5 a840 072b 9ec0 2419 d5c0 6651 723f

conv2.bias f4 [32]
0.87506545 0.24348216 -0.7974884 0.09816341 -0.301291 -0.337162 0.9292355 0.116948225
-0.066061184 -0.019488748 0.32426888 0.70773566 1.104155 -0.23745486 -0.094897136 -0.4235533
0.16765502 0.2553734 0.043697678 -0.7091214 0.29970247 -0.19685902 -0.029652104 0.31452888
-0.003246173 -0.030633306 -1.4447539 0.2836269 -0.049278595 -0.350218 0.18287902 0.082339056
00000000: 4a04 603f 6353 793e 3328 4cbf e609 c93d
00000010: d042 9abe 7fa0 acbe 61e2 6d3f 8d82 ef3d
00000020: 164b 87bd dea6 9fbc 9206 a63e 2a2e 353f
00000030: f354 8d3f 5e27 73be 6e59 c2bd fadb d8be
00000040: c2ad 2b3e 4dc0 823e 56fc 323d fb88 35bf
00000050: 9a72 993e 6995 49be f8e8 f2bc ee09 a13e
00000060: bfbd 54bb b3f2 fabc b2ed b8bf 8c37 913e
00000070: 5ad8 49bd c64f b3be a344 3b3e 61a1 a83d

bn2.weight f4 [32]
-13.312208 36.87435 25.801311 8.879661 53.06901 -4.76593 -70.02091 -13.337278
15.995155 23.566778 32.676414 -24.1188 -67.29165 43.16472 -33.890854 1.659659
-17.027252 -10.305741 -29.335512 -30.370947 -3.9588714 26.863132 16.072958 34.134804
37.743507 -11.078087 5.0248547 6.3351355 11.20645 -1.303514 25.272108 4.147327
00000000: cefe 54c1 567f 1342 1669 ce41 1713 0e41
00000010: ab46 5442 8082 98c0 b50a 8cc2 7e65 55c1
00000020: 28ec 7f41 c388 bc41 a6b4 0242 4df3 c0c1
00000030: 5395 86c2 aca8 2c42 3c90 07c2 b56f d43f
00000040: d037 88c1 51e4 24c1 21af eac1 b3f7 f2c1
00000050: 265e 7dc0 b2e7 d641 6b95 8041 0a8a 0842
00000060: 5af9 1642 d83f 31c1 9ccb a040 6eb9 ca40
00000070: 9f4d 3341 8cd9 a6bf 472d ca41 e7b6 8440

bn2.bias f4 [32]
10.236881 -4.0427856 -12.486551 0.12272453 17.547476 3.9591277 -10.285829 10.642697
12.706307 -8.519613 -12.597283 24.41833 -16.626049 9.51544 11.176211 -10.597793
13.956521 2.2609346 3.631401 9.658344 3.5160255 -15.087281 3.6658792 16.655235
-8.40932 -0.64532334 11.878664 -4.131117 -15.546432 4.346976 5.745426 -10.763985
00000000: 44ca 2341 805e 81c0 eac8 47c1 0057 fb3d
00000010: 3b61 8c41 5962 7d40 c192 24c1 7d48 2a41
00000020: 094d 4b41 5650 08c1 798e 49c1 bd58 c341
00000030: 2602 85c1 3e3f 1841 c3d1 3241 8f90 29c1
00000040: e94d 5f41 27b3 1040 e068 6840 9488 1a41
00000050: 9006 6140 8165 71c1 c49d 6a40 ec3d 8541
00000060: 938c 06c1 e933 25bf 020f 3e41 1c32 84c0
00000070: 2fbe 78c1 6d1a 8b40 88da b740 4839 2cc1

bn2.running_mean f4 [32]
20734.117 26325.922 26.883257 22415.29 80131.11 42.580227 93321.375 278.6783
12155.678 4789.0503 3687.7227 241.97314 184436.84 146.76947 1.8365211 8267.7295
19.271626 2381.5603 1066.4218 4875.2056 1648.9249 825.51166 146.96262 55886.598
14468.467 1765.5334 12138.794 196.01286 3.196846 1209.5066 28195.832 1.2469596
00000000: 3cfc a146 d8ab cd46 e910 d741 941e af46
00000010: 8e81 9c47 2752 2a42 b044 b647 d356 8b43
00000020: b6ee 3d46 67a8 9545 907b 6645 20f9 7143
00000030: 361d 3448 fcc4 1243 2013 eb3f eb2e 0146
00000040: 4a2c 9a41 f7d8 1445 7f4d 8544 a559 9845
00000050: 991d ce44 bf60 4e44 6ef6 1243 994e 5a47
00000060: de11 6246 12b1 dc44 2dab 3d46 4b03 4443
00000070: 2099 4c40 3630 9744 aa47 dc46 5f9c 9f3f

bn2.running_var f4 [32]
4.7824285e+08 9.100774e+07 345050.97 1.2326916e+08 7.0510534e+08 489805.56 1.9623162e+08 481206.03
1.7433612e+07 3.4072556e+07 2.346106e+07 1.5134828e+07 9.14251e+08 3.9607892e+06 44526.543 5.2854495e+06
846679.1 6.5913875e+06 4.1545908e+07 2.568683e+07 964603.1 3.0384676e+07 1.0058155e+06 1.8099366e+08
8.317941e+07 3.855319e+06 5.7328024e+07 2.2094068e+06 117082.71 6.2357175e+06 1.9773796e+07 5035.881
00000000: 410b e44d 6095 ad4c 5f7b a848 051e eb4c
00000010: 371c 284e b229 ef48 1c24 3b4d c1f6 ea48
00000020: 0602 854b fbf9 014c 62fe b24b 6cf0 664b
00000030: 74f9 594e 55bf 714a 8bee 2d47 934c a14a
00000040: 72b5 4e49 3727 c94a 2d7c 1e4c 97f9 c34b
00000050: b27f 6b49 12d1 e74b 788f 7549 e89b 2c4d
00000060: f2a6 9e4c 5c4f 6b4a 66b0 5a4c fbd9 064a
00000070: 5bad e447 8b4c be4a b2dc 964b 0c5f 9d45

conv3.weight f4 [64, 32, 5, 5]
-0.013993591 -0.12395001 -0.14012618 0.87630147 0.06202369 -0.42347005 -0.25774592 -0.28236234
0.37665787 -0.33025765 -0.17003748 0.056984223 -0.11339435 -0.37401667 0.8997852 0.020139877
-0.058516968 -0.30415866 -0.28605044 0.037433803 -0.009054188 -0.105570264 -0.00405856 -0.1444898
-0.4244167 0.09957812 0.22568733 0.27488953 -0.295763 -1.6890404 0.27353853 0.293082
0.25832677 0.2328984 -0.30697402 0.037986085 0.18608332 0.14670336 0.2866558 0.0015929915
-0.1284942 0.26270112 0.29154223 0.28820193 0.2411751 0.11134831 0.38618913 0.245364
0.27977312 0.22331554 0.29418722 0.4490712 0.3900301 0.32890746 0.020376706 0.36998814
0.28859705 0.4450593 0.31644684 -0.028359609 0.17116821 0.008868343 0.09468432 0.17278785
-0.15301716 0.157864 0.22305632 0.11635167 0.025603566 0.1091584 0.0058735264 0.27486634
0.36818326 0.440941 0.30568698 0.038004305 0.04123842 -0.02304881 -0.61274767 0.14015242
-0.07217713 -0.124779224 -0.17695114 -0.665233 0.058065917 0.034094308 0.0082709035 -0.021992898
-0.01813603 -1.0397817 -0.10735776 -0.043194428 0.13827552 0.16423544 -0.06832432 -0.033470377
-0.038791765 0.07017802 0.1376451 0.15604603 0.629799 0.67682505 0.65176684 0.66660744
0.67561156 -3.7529123 -3.3525538 -0.8549803 0.5698026 0.63920844 -2.0201275 0.6868371
0.39503756 0.6719061 0.6544169 0.63353723 -1.8937626 0.691444 0.66897386 0.64676076
0.013585596 0.1515326 0.6641226 0.6588481 0.6426685 -0.23712881 -0.106816344 -0.03830775
-0.027303653 -0.06860052 -0.29335383 0.042045847 -0.17801897 0.05149581 -0.10367425 -0.124580406
0.03926021 -0.116975255 -0.009639306 -0.14438303 -0.06497707 -0.030117778 -0.09083243 -0.11192581
0.06146859 -0.07470488 -0.16759229 -0.2618003 -0.06254377 -0.058046453 -1.0497707 -0.51551086
-0.4579603 -0.83578247 -0.2698259 0.12759687 0.5497416 -0.028766776 0.29440698 -1.2106072
0.67479956 -0.038323864 -0.8393429 -1.0882801 -0.9006435 0.50209343 0.15882193 0.06714762
-0.79146993 1.2264411 -0.7808811 -0.16496275 -0.36029735 -0.60647565 -0.50013417 -0.0877548
0.037929505 0.014560174 -0.012905973 -0.030902803 0.1529164 -0.08092047 -0.063031875 -0.080342755
0.13645583 -0.03340694 -0.32657617 -0.1637381 -0.020890126 -0.02188499 -0.06427872 -0.106466
-0.09635375 0.034804095 -0.020675292 -0.12938681 -0.054396726 0.019348938 0.027632866 0.072084434
0.18815376 0.10823336 0.09764358 0.046817407 0.13776132 0.24091287 -0.0914096 0.10119189
-0.13821514 0.25717434 0.021052992 -0.1306669 0.100455634 0.054674122 0.08932771 0.012274286
0.04643011 0.09232091 0.07313922 -0.122194655 0.029764753 0.14169608 0.2608574 0.12974921
0.14673156 0.2253583 0.15507963 0.007915278 -0.46703035 0.09460155 -0.15139599 -0.25910637
-0.1724697 -0.39415163 0.33581075 -0.09296569 0.02862741 0.13155341 -0.14198995 -0.52396077
-0.1276365 -0.18138461 0.03258582 0.012235106 -0.28147855 0.24128433 -0.012655817 0.014552959
-0.067171454 0.41925886 0.23838024 0.108826846 0.053449534 -0.1006582 0.023476684 0.035311352
00000000: 6045 65bc 81d9 fdbd 3d7d 0fbe 4b55 603f
00000010: 8e0c 7e3d 11d1 d8be 46f7 83be cc91 90be
00000020: 4dd9 c03e 8817 a9be 4e1e 2ebe 4a68 693d
00000030: 4c3b e8bd 1d7f bfbe 5358 663f 62fc a43c
00000040: 7daf 6fbd afba 9bbe 3475 92be 3054 193d
00000050: 0458 14bc 3935 d8bd abfd 84bb 22f5 13be
00000060: 254d d9be 9def cb3d 941a 673e 52be 8c3e
00000070: 3f6e 97be 7a32 d8bf 3e0d 8c3e d80e 963e
00000080: 6843 843e eb7c 6e3e b32b 9dbe 4c97 1b3d
00000090: a08c 3e3e 6839 163e 8dc4 923e edcb d03a
000000a0: fc93 03be c380 863e 0645 953e 348f 933e
000000b0: 9bf6 763e 950a e43d 95ba c53e b340 7b3e
000000c0: 6c3e 8f3e d4ac 643e b59f 963e a9ec e53e
000000d0: 06b2 c73e 8f66 a83e 0ded a63c 166f bd3e
000000e0: fec2 933e d0de e33e 5205 a23e 6952 e8bc
000000f0: b846 2f3e 874c 113c dae9 c13d 4cef 303e
00000100: 88b0 1cbe 1aa7 213e e068 643e c949 ee3d
00000110: 92be d13c 708e df3d b676 c03b 48bb 8c3e
00000120: 8482 bc3e 05c3 e13e 0183 9c3e 67aa 1b3d
00000130: 9ee9 283d dcd0 bcbc 08dd 1cbf 1e84 0f3e
00000140: 9ad1 93bd 408c ffbd ae32 35be b64c 2abf
00000150: 87d6 6d3d 79a6 0b3d af82 073c 732a b4bc
00000160: 0392 94bc 9117 85bf 63de dbbd a4ec 30bd
00000170: 1998 0d3e 562d 283e 9fed 8bbd 3c18 09bd
00000180: 1de4 1ebd 7eb9 8f3d d6f2 0c3e 88ca 1f3e
00000190: 823a 213f 6844 2d3f 31da 263f c9a6 2a3f
000001a0: e1f4 2c3f b72f 70c0 3e90 56c0 fddf 5abf
000001b0: 95de 113f 2aa3 233f c549 01c0 8ed4 2f3f
000001c0: 5d42 ca3e 0a02 2c3f de87 273f 7f2f 223f
000001d0: d066 f2bf 7902 313f df41 2b3f 1d92 253f
000001e0: 1f96 5e3c 5d2b 1b3e f003 2a3f 45aa 283f
000001f0: ec85 243f e5d1 72be 87c2 dabd 96e8 1cbd
00000200: e9ab dfbc 6e7e 8cbd 7932 96be 4438 2c3d
00000210: 9b4a 36be 45ed 523d 2a53 d4bd 0324 ffbd
00000220: 50cf 203d b990 efbd 2eee 1dbc 25d9 13be
00000230: b312 85bd 8fb9 f6bc 5a06 babd 5c39 e5bd
00000240: 7dc6 7b3d dffe 98bd 509d 2bbe b00a 86be
00000250: f316 80bd 1ec2 6dbd e35e 86bf 85f8 03bf
00000260: c679 eabe d7f5 55bf 9f26 8abe c1a8 023e
00000270: debb 0c3f 4da8 ebbc 83bc 963e 2df5 9abf
00000280: aabf 2c3f 7cf9 1cbd 2ddf 56bf c34c 8bbf
00000290: 9390 66bf 3289 003f 37a2 223e b184 893d
000002a0: c69d 4abf 06fc 9c3f d3e7 47bf ffeb 28be
000002b0: e578 b8be fd41 1bbf cb08 00bf cab8 b3bd
000002c0: f85b 1b3d cc8d 6e3c 9373 53bc e027 fdbc
000002d0: 1e96 1c3e a2b9 a5bd db16 81bd be8a a4bd
000002e0: 14bb 0b3e b7d5 08bd fe34 a7be f6aa 27be
000002f0: c521 abbc 2748 b3bc 90a4 83bd d90a dabd
00000300: 1d55 c5bd bd8e 0e3d 3b5f a9bc fa7d 04be
00000310: 1acf 5ebd aa81 9e3c 525e e23c 01a1 933d
00000320: 61ab 403e 74a9 dd3d 5bf9 c73d 9cc3 3f3d
00000330: 4e11 0d3e ddb1 763e f534 bbbd b23d cf3d
00000340: 4588 0dbe 5bac 833e 5377 ac3c 8bcd 05be
00000350: afbb cd3d f9f1 5f3d 72f1 b63d 161a 493c
00000360: 802d 3e3d bf12 bd3d 04ca 953d 3141 fabd
00000370: 36d5 f33c c718 113e 1a8f 853e fadc 043e
00000380: cc40 163e 54c4 663e 32cd 1e3e 15af 013c
00000390: 9a1e efbe 75be c13d 8d07 1bbe 97a9 84be
000003a0: e69b 30be 3ece c9be 63ef ab3e cc64 bebd
000003b0: 0884 ea3c f0b5 063e d065 11be 4b22 06bf
000003c0: 25b3 02be e3bc 39be b578 053d c175 483c
000003d0: f51d 90be 3d13 773e 585a 4fbc 896f 6e3c
000003e0: 3091 89bd 19a9 d63e f319 743e 9ce0 de3d
000003f0: e6ed 5a3d e325 cebd 2d52 c03c a3a2 103d

conv3.bias f4 [64]
-0.0037985488 0.442601 -0.04972429 -0.008055182 -0.021929149 -0.011166116 0.018245362 -0.03595775
-0.0060502505 0.14385012 -0.032129318 0.008076379 -0.64460564 -0.023487084 -0.013682426 0.016502524
8.714189 0.028269151 -1.7102281 0.06958205 0.008677432 0.026217751 -0.17405136 -0.44868863
-0.03342685 -0.029007724 0.008959497 0.016408138 0.03348771 -0.025472058 0.21525489 0.031434722
-0.008433865 -0.02157706 -31.17296 -0.08432407 0.01597912 0.02044527 -0.0003333495 0.010401399
-0.018253777 0.061831865 0.016984638 -0.14547145 -0.019532274 1.1315064 0.020414347 0.0633995
0.00071176514 -0.052484542 -0.08711367 0.02179173 0.1434407 -0.017966373 0.02776851 0.13222231
0.090181984 -0.015820283 0.03096732 -0.0486125 13.378005 -0.26459596 -0.028209446 0.010842642
00000000: 13f1 78bb 999c e23e b2ab 4bbd e2f9 03bc
00000010: c2a4 b3bc 16f2 36bc 4c77 953c 6f48 13bd
00000020: 2e41 c6bb 724d 133e 089a 03bd ca52 043c
00000030: e004 25bf fc67 c0bc 412c 60bc 4d30 873c
00000040: 516d 0b41 b594 e73c c1e8 dabf 0981 8e3d
00000050: ca2b 0e3c 9cc6 d63c 853a 32be 84ba e5be
00000060: 98ea 08bd 9ba1 edbc dbca 123c 5c6a 863c
00000070: 692a 093d c7aa d0bc c76b 5c3e b2c1 003d
00000080: 322e 0abc 60c2 b0bc 3962 f9c1 19b2 acbd
00000090: a5e6 823c d77c a73c 6ac5 aeb9 a16a 2a3c
000000a0: f288 95bc 6943 7d3d 5e23 8b3c 78f6 14be
000000b0: 2602 a0bc 34d5 903f fd3b a73c 99d7 813d
000000c0: c095 3a3a 08fa 56bd a768 b2bd 9284 b23c
000000d0: 1ee2 123e 372e 93bc c97a e33c 4965 073e
000000e0: 55b1 b83d 8a99 81bc 2daf fd3c e71d 47bd
000000f0: 4f0c 5641 1f79 87be 7f17 e7bc 56a5 313c

bn3.weight f4 [64]
1.7286917 86.072235 31.869844 4.7181406 16.4177 11.677775 -1.2781394 -0.8923319
34.702114 -326.5259 200.2022 1.269497 -1.3022994 6.0310135 -110.83772 6.3896823
102.17493 42.182617 291.37296 -9.393656 20.673002 -8.651554 -125.90334 -12.975473
8.272743 -0.56136125 -7.5282054 10.425363 7.316946 46.706833 268.43427 -61.42097
2.4368212 -14.666095 -0.49952397 58.614613 9.518008 19.416668 148.71901 12.4185705
541.849 -115.10685 -25.322536 -21.541319 -26.094366 11.064245 4.0474987 201.18513
27.742485 -87.05135 -18.753332 13.250372 3.1550162 -2.2270865 198.7554 65.54444
-61.496468 -213.0121 0.38199535 -1.8676854 -13.2874155 4.270859 -12.120569 -85.51326
00000000: c545 dd3f fc24 ac42 71f5 fe41 02fb 9640
00000010: 7357 8341 2bd8 3a41 129a a3bf dd6f 64bf
00000020: f7ce 0a42 5143 a3c3 c333 4843 e17e a23f
00000030: bfb1 a6bf 10fe c040 eaac ddc2 4778 cc40
00000040: 9059 cc42 00bb 2842 bdaf 9143 6a4c 16c1
00000050: 4f62 a541 c46c 0ac1 83ce fbc2 8a9b 4fc1
00000060: 285d 0441 5fb5 0fbf 0fe7 f0c0 49ce 2641
00000070: 6c24 ea40 ccd3 3a42 9637 8643 13af 75c2
00000080: e1f4 1b40 53a8 6ac1 9bc1 ffbe 5d75 6a42
00000090: c349 1841 5655 9b41 11b8 1443 77b2 4641
000000a0: 5676 0744 b536 e6c2 8e94 cac1 9f54 acc1
000000b0: 43c1 d0c1 2607 3141 1c85 8140 652f 4943
000000c0: 9cf0 dd41 4b1a aec2 d306 96c1 8601 5441
000000d0: c9eb 4940 9688 0ec0 62c1 4643 c116 8342
000000e0: 62fc 75c2 1903 55c3 e594 c33e 5110 efbf
000000f0: 4199 54c1 e0aa 8840 daed 41c1 ca06 abc2

bn3.bias f4 [64]
-9.30484 276.60153 -88.32771 17.350666 68.080475 -21.140715 17.787983 17.721483
-5.073039 45.4554 -56.569824 -16.580675 -57.98463 -23.532932 235.63919 31.763868
-134.0136 -123.897026 301.15656 -89.600235 58.280437 -28.23 -22.622051 9.785525
23.290207 8.193516 30.371664 -19.056622 -12.971334 -107.91413 -38.678528 -1.6546209
-43.6483 51.664074 16.365908 11.161528 16.418661 18.961786 -134.53041 173.64577
-178.69843 -121.43441 -11.7780905 -62.22495 22.176311 -116.56449 -11.006325 59.844772
-175.28131 127.46873 44.75 -8.924188 -42.474632 12.387132 -74.640854 -86.91224
-56.43542 91.03488 -4.5000124 4.3706636 15.20895 1.1920904 22.344353 -162.03978
00000000: a0e0 14c1 ff4c 8a43 caa7 b0c2 2ace 8a41
00000010: 3429 8842 2f20 a9c1 ca4d 8e41 99c5 8d41
00000020: 5656 a2c0 54d2 3542 8047 62c2 39a5 84c1
00000030: 43f0 67c2 7243 bcc1 a2a3 6b43 671c fe41
00000040: 7b03 06c3 47cb f7c2 0a94 9643 5233 b3c2
00000050: 2b1f 6942 0ad7 e1c1 f6f9 b4c1 8391 1c41
00000060: 5852 ba41 a418 0341 2bf9 f241 f673 98c1
00000070: 968a 4fc1 09d4 d7c2 d0b6 1ac2 9eca d3bf
00000080: dc97 2ec2 03a8 4e42 61ed 8241 9e95 3241
00000090: 6b59 8341 bdb1 9741 c987 06c3 51a5 2d43
000000a0: ccb2 32c3 6bde f2c2 0f73 3cc1 59e6 78c2
000000b0: 1669 b141 0521 e9c2 e819 30c1 0c61 6f42
000000c0: 0448 2fc3 fdef fe42 0000 3342 79c9 0ec1
000000d0: 06e6 29c2 b131 4641 1e48 95c2 11d3 adc2
000000e0: dfbd 61c2 dc11 b642 1a00 90c0 7adc 8b40
000000f0: dc57 7341 6b96 983f 3cc1 b241 2f0a 22c3

bn3.running_mean f4 [64]
306.79315 670.11084 457.816 754.5768 148917.84 102.77977 56.43306 54.62066
4915.942 1044.9304 3716.7297 7033.3438 230.79228 4.455117 9.31634 40.643166
7662.9287 5777.2236 293.99023 10938.823 36.05006 12.819281 1031.906 132.24596
401.62817 26.784908 21.828564 127.67989 300.91708 664.0253 757.58105 1233.4563
2.490593 17.873466 6332.0293 10.400553 0.5820438 144.48746 1329.8943 1878.7466
462.43436 1651.4614 0.7532088 352.25513 259.14218 9445.789 5.7151723 455.38312
835.2374 1.1639109 10.169462 101.952545 6589.2725 4239.8794 2049.4802 2220.3901
2131.7927 18006.387 99.85417 22.953844 50719.88 31.694565 127.83621 2917.6433
00000000: 8665 9943 1887 2744 73e8 e443 eaa4 3c44
00000010: 766d 1148 3e8f cd42 74bb 6142 8e7b 5a42
00000020: 899f 9945 c69d 8244 ad4b 6845 c0ca db45
00000030: d3ca 6643 5290 8e40 bb0f 1541 9a92 2242
00000040: 6e77 ef45 ca89 b445 c0fe 9243 4beb 2a46
00000050: 4333 1042 c61b 4d41 fefc 8044 f73e 0443
00000060: 68d0 c843 7e47 d641 e6a0 ae41 1b5c ff42
00000070: 6375 9643 9f01 2644 3065 3d44 9a2e 9a44
00000080: e065 1f40 dcfc 8e41 3ce0 c545 aa68 2641
00000090: d300 153f ca7c 1043 9e3c a644 e4d7 ea44
000000a0: 9937 e743 c46e ce44 4bd2 403f a820 b043
000000b0: 3392 8143 2897 1346 b1e2 b640 0ab1 e343
000000c0: 32cf 5044 08fb 943f 1eb6 2241 b4e7 cb42
000000d0: 2eea cd45 097f 8445 af17 0045 3ec6 0a45
000000e0: af3c 0545 c6ac 8c46 56b5 c742 79a1 b741
000000f0: e11f 4647 788e fd41 24ac ff42 4b5a 3645

bn3.running_var f4 [64]
210246.73 579202.06 439351.47 64270.953 2.9770387e+10 227704.1 27818.879 7735.6533
4.8522596e+07 1.0587635e+06 938912.5 2.1726158e+07 4.9537335e+06 8792.663 29953.432 1080.0133
1.6659267e+08 4.1695692e+07 5.377604e+07 1.1166764e+07 20972.559 2204.5974 4.8036965e+06 2.4880882e+06
59326.945 2531.4941 3782.3416 97217.05 168412.56 6.6382215e+06 1.4617906e+06 6.547213e+06
595.6595 1363.3363 2.5759905e+09 12297.759 789.2758 8683.198 4.7812856e+07 7.115388e+07
106512.76 3.8933745e+06 933.9082 599066.1 118348.75 3.452409e+07 2332.1936 117212.36
4.236563e+06 3658.6624 29347.877 11646.059 9.151706e+06 5.592392e+07 1.6049118e+06 377387.66
2.7009282e+06 1.1961267e+09 3216.8105 2090.9758 3.6015155e+09 127280.65 4403.9165 1.4814101e+07
00000000: af51 4d48 2168 0d49 ef86 d648 f40e 7b47
00000010: 82ce dd50 065e 5e48 c255 d946 3abd f145
00000020: 5919 394c 5c3e 8149 083a 6549 e7c1 a54b
00000030: 0b2d 974a a762 0946 dd02 ea46 6d00 8744
00000040: 0ae0 1e4d 730e 1f4c aa23 4d4c 2c64 2a4b
00000050: 1ed9 a346 8fc9 0945 e198 924a 61dc 174a
00000060: f2be 6747 e837 1e45 7765 6c45 86e0 bd47
00000070: 2477 2448 1b95 ca4a f570 b249 1ace c74a
00000080: 35ea 1444 c36a aa44 7f8a 194f 0927 4046
00000090: a751 4544 cbac 0746 3e64 364c 1bb7 874c
000000a0: 6108 d047 faa1 6d4a 207a 6944 a241 1249
000000b0: 6026 e747 eeb2 034c 19c3 1145 2eee e447
000000c0: 264a 814a 99aa 6445 c147 e546 3cf8 3546
000000d0: daa4 0b4b 3455 554c 7ee9 c349 7545 b848
000000e0: 01da 244a e496 8e4e f80c 4945 9daf 0245
000000f0: c4aa 564f 5398 f847 559f 8945 950b 624b

fc1.weight f4 [256, 64]
-0.1655579 -2.7691793 -0.6006272 -0.16644847 -0.4916098 0.022703035 -0.08018392 -0.30991194
0.07382279 -0.8449387 0.17444809 0.20899872 0.50287133 0.31379807 -3.0406852 -0.27974468
4.749954 4.232787 0.3490638 0.20689322 -0.554484 0.37772912 -0.44288757 -0.20111136
-0.11191242 -0.32434663 -0.34682882 -0.039067328 0.20618649 0.71162707 -2.6574001 0.12930147
0.36454538 -0.3934415 -0.1023228 -0.17581956 -0.20248288 -0.24366198 -0.56619674 0.31018385
1.8639703 2.0524874 -0.6318548 0.30484697 -0.47036618 3.0757766 0.0688127 0.25564387
1.2725517 -0.87329626 -0.4501966 0.047138397 0.27517557 -0.15800206 0.8116034 -0.11876999
1.3702438 -0.73104644 0.045631055 -0.18082856 0.15389772 -0.12794824 0.033868644 1.3363502
-1.6428136 88.95518 17.917162 5.058348 16.094305 -7.3522463 7.943474 4.2111273
8.352364 114.09102 -69.68653 -2.2284286 -15.176921 -6.151379 64.66153 8.81815
-51.840897 -31.63657 44.0667 -4.814426 18.400356 -7.3904147 40.018776 2.1994488
3.8866165 2.0490267 12.295114 -1.57118 -4.6012034 -31.396996 -86.945915 22.905949
-11.735595 12.221565 4.4509597 3.0479424 4.338055 -0.30135316 -33.991013 37.76507
145.03345 -62.18033 5.807153 -15.921929 13.827035 -44.926395 -2.7217073 73.371826
-49.94099 33.022366 12.860955 -1.0281551 -14.809222 2.7735612 -90.87837 -31.727133
-29.30791 -38.782238 -0.69274235 0.84461915 0.3334402 0.46722078 11.143571 -59.685394
0.06706363 -1.7820069 -0.045201346 -0.40454033 0.01738217 0.5293206 0.20083177 -0.40148985
0.04253753 0.91658354 0.71296763 0.048147313 1.2463968 0.4317043 -1.03475 -0.6386735
3.9022765 2.628434 -0.031753354 2.584263 -0.7536228 0.41255313 0.22354032 -0.55274194
-0.40140805 -0.9989879 -0.5461954 -0.63915217 0.40030977 1.8535768 0.18741304 0.41778168
0.8144942 -1.0973712 -0.1309461 -0.12666428 -0.17657655 -0.5661344 1.0188539 -3.1096213
3.7682993 0.14538833 0.18034294 1.2855024 -0.54865813 1.1673551 0.2929767 0.40273082
2.8176825 -2.310141 -0.7192367 -0.15170772 0.42065856 -0.40839243 1.4300582 2.623841
-0.41256353 -0.27944446 0.23035109 -0.20323715 -0.35972646 -0.124656275 -0.5070732 3.6237168
-0.3729235 -1.4680862 -2.4496217 0.8539492 -13.921063 -2.2022018 -0.25917855 -0.07404177
-0.32880086 -15.896326 -4.2521653 -0.390394 -2.2191818 -0.7126072 4.8189216 1.1564986
-11.299636 -12.2345 0.66617453 12.120797 2.268443 -1.4822311 1.1471733 0.3405702
1.1577156 1.175959 2.4037862 1.7963744 -1.1711538 -5.6908946 7.3051553 0.29308304
-2.022589 -4.23968 1.2060791 -10.488468 0.23499939 0.51973313 -0.35527638 -5.2171926
-49.361557 17.048656 -0.42665175 -0.6902929 1.0281873 -1.588228 -0.82121056 3.1467834
-3.2132676 1.7914411 1.497437 -0.21015684 -1.9809312 1.854549 -4.7975693 -6.9736896
6.8659673 -1.1527888 -0.73164463 0.04106698 -0.33557257 -0.047466855 -0.078256145 -0.80688727
00000000: 0388 29be 3c3a 31c0 b4c2 19bf 7871 2abe
00000010: 48b4 fbbe b7fb b93c 7837 a4bd c7ac 9ebe
00000020: 6730 973d e74d 58bf 85a2 323e c303 563e
00000030: 2dbc 003f 24aa a03e 969a 42c0 b23a 8fbe
00000040: a0ff 9740 fe72 8740 7eb8 b23e d1db 533e
00000050: aaf2 0dbf b665 c13e 29c2 e2be 23f0 4dbe
00000060: 5732 e5bd c310 a6be 8c93 b1be 1005 20bd
00000070: 8d22 533e 312d 363f d812 2ac0 9b67 043e
00000080: b1a5 ba3e 2a71 c9be 9e8e d1bd 0b0a 34be
00000090: ac57 4fbe 8782 79be 45f2 10bf 6bd0 9e3e
000000a0: 9496 ee3f f45b 0340 3cc1 21bf e714 9c3e
000000b0: d6d3 f0be 86d9 4440 aced 8c3d c1e3 823e
000000c0: f9e2 a23f 5890 5fbf 2b80 e6be 3114 413d
000000d0: d0e3 8c3e 4bcb 21be 3ec5 4f3f ae3d f3bd
000000e0: 2664 af3f dc25 3bbf a1e7 3a3d 1f2b 39be
000000f0: 5d97 1d3e dd04 03be d9b9 0a3d 860d ab3f
00000100: b747 d2bf 0de9 b142 5956 8f41 fddd a140
00000110: 23c1 8041 9a45 ebc0 f030 fe40 8ec1 8640
00000120: 48a3 0541 9a2e e442 815f 8bc2 939e 0ec0
00000130: abd4 72c1 19d8 c4c0 b452 8142 2417 0d41
00000140: 145d 4fc2 b217 fdc1 4d44 3042 c70f 9ac0
00000150: ee33 9341 477e ecc0 3a13 2042 c5c3 0c40
00000160: 53be 7840 4123 0340 c9b8 4441 6d1c c9bf
00000170: 0f3d 93c0 0c2d fbc1 4fe4 adc2 623f b741
00000180: ffc4 3bc1 888b 4341 436e 8e40 7d11 4340
00000190: 59d1 8a40 f64a 9abe ccf6 07c2 6f0f 1742
000001a0: 9008 1143 a8b8 78c2 33d4 b940 39c0 7ec1
000001b0: 893b 5d41 a1b4 33c2 7430 2ec0 60be 9242
000001c0: 93c3 47c2 e716 0442 79c6 4d41 969a 83bf
000001d0: 93f2 6cc1 0782 3140 bac1 b5c2 2bd1 fdc1
000001e0: 9a76 eac1 0321 1bc2 9057 31bf f638 583f
000001f0: adb8 aa3e 9037 ef3e 114c 3241 d8bd 6ec2
00000200: a858 893d cd18 e4bf 0c25 39bd e91f cfbe
00000210: 0d65 8e3c 8e81 073f d8a6 4d3e 1490 cdbe
00000220: d53b 2e3d 38a5 6a3f 0c85 363f 1e36 453d
00000230: ee89 9f3f 5908 dd3e b072 84bf 1b80 23bf
00000240: e6be 7940 4338 2840 ce0f 02bd 9164 2540
00000250: 6ced 40bf 2a3a d33e c1e7 643e 7f80 0dbf
00000260: 5b85 cdbe acbd 7fbf 76d3 0bbf 7a9f 23bf
00000270: 67f5 cc3e 0142 ed3f 34e9 3f3e 7be7 d53e
00000280: b182 503f a976 8cbf bc16 06be 48b4 01be
00000290: 7cd0 34be 2fee 10bf ce69 823f 0904 47c0
000002a0: d12b 7140 aee0 143e d2ab 383e 588b a43f
000002b0: dc74 0cbf e46b 953f 0b01 963e bc32 ce3e
000002c0: e954 3440 5ad9 13c0 e51f 38bf 4559 1bbe
000002d0: 8f60 d73e d018 d1be 260c b73f 03ed 2740
000002e0: 873b d3be 5813 8fbe 28e1 6b3e 661d 50be
000002f0: 112e b8be ca4b ffbd 8dcf 01bf faea 6740
00000300: d4ef bebe 40ea bbbf 9ac6 1cc0 6a9c 5a3f
00000310: adbc 5ec1 e0f0 0cc0 0db3 84be 36a3 97bd
00000320: 9658 a8be 5a57 7ec1 bd11 88c0 b9e1 c7be
00000330: 1307 0ec0 6d6d 36bf 9b34 9a40 2508 943f
00000340: 4fcb 34c1 83c0 43c1 6a8a 2a3f c9ee 4141
00000350: 2c2e 1140 c0b9 bdbf 93d6 923f 385f ae3e
00000360: 0630 943f d385 963f a2d7 1940 99ef e53f
00000370: 5ee8 95bf cf1b b6c0 d5c3 e940 fb0e 963e
00000380: 1972 01c0 75ab 87c0 cd60 9a3f c4d0 27c1
00000390: aea3 703e 3b0d 053f c9e6 b5be 3ef3 a6c0
000003a0: 3c72 45c2 a663 8841 1972 dabe 09b7 30bf
000003b0: a49b 833f 0e4b cbbf db3a 52bf e664 4940
000003c0: 2da6 4dc0 f14d e53f 04ac bf3f 5b33 57be
000003d0: 278f fdbf dd61 ed3f b085 99c0 7728 dfc0
000003e0: 01b6 db40 958e 93bf 104d 3bbf da35 283d
000003f0: 2bd0 abbe 9b6c 42bd c244 a0bd 2a90 4ebf

fc1.bias f4 [256]
-0.05215847 0.37844217 -0.35161737 0.4747261 0.064867534 0.34450033 0.23095433 0.3463201
0.3009482 -0.18965945 0.030733246 0.046650216 0.18836556 -0.77067816 0.10431739 0.11008827
-0.48758137 2.4919412 -0.10593098 0.46212414 -0.08512592 0.11437078 0.9681134 -0.9583256
-0.49269986 -3.5203538 0.35130352 -2.577902 -0.48929018 -0.22066073 0.10039492 0.27023357
-0.051280487 -1.0502477 0.004887253 -0.2517702 -0.012984751 -0.017726833 0.0240132 0.10149574
-0.026764082 0.08944329 0.08668838 -0.018936 0.48777586 -0.008447653 0.0841843 0.071229115
0.03172336 -0.006053971 4.6542673 -0.18693347 -0.18775819 0.1677088 0.119705126 -0.3991481
0.08947933 -1.4901189 -0.4085264 -0.008590246 0.032780837 -0.21335733 0.52792555 0.122208975
-0.091600515 -0.39009422 0.11117891 -2.1158574 -1.0560263 0.70855767 0.31005925 -0.7430797
0.2562418 -0.3292832 -0.008397813 -0.19711 -0.1133277 0.10270529 -0.5444475 0.09799571
0.023652365 0.33402437 1.382573 0.038223978 0.14872389 -0.39528766 -0.16548488 0.007956553
0.07781923 -0.12765405 0.13910164 0.017013706 1.1599207 0.5630903 0.38625997 -0.0092072
-1.28913 -0.2119172 1.3890043 -0.2564522 -0.1491997 -0.08080112 -0.026115946 -0.14830221
-0.12644151 0.04253525 0.997216 -0.52589357 0.07907208 -0.085800886 -0.53117734 0.033427276
1.388704 0.37557426 -0.032474004 0.10807891 -0.7234182 -0.001496444 -0.10498565 -0.13192126
-4.1426754 -1.0974078 -0.031875536 0.21147516 -0.26472452 0.0327445 -0.068618424 0.13541052
-0.3516928 0.05047946 0.12360939 -0.10089372 -0.15780517 -0.078544326 -0.022927286 0.06050585
0.52454597 -0.69690174 0.5963904 -0.02146122 0.053163886 0.48464456 -4.05213 0.3313491
-0.046848875 0.084215544 -0.045699257 0.13142583 -0.49757135 -0.0018274836 -0.103930764 0.06637929
0.13452843 -0.11092714 -0.25015193 0.08088168 1.5866418 -0.27324757 0.1914989 0.16768599
0.7645903 0.16031732 -0.76239485 -0.57271534 -0.036211345 0.32179743 0.57034594 -0.2410774
-0.016064765 -0.080611974 0.53565234 -0.04670462 -0.55147946 -0.014415968 0.108808234 -0.1485591
0.05777758 0.06019405 -0.37948006 2.1145756 -0.22982365 -0.27003527 0.1714157 1.6551367
-0.9219052 -0.12325979 -0.09959792 -0.038468838 -0.09214393 -0.18710528 -0.15720218 -0.055876184
-0.23761992 -2.2820508 -0.31705052 0.08805593 1.2029883 0.090832695 0.045413237 0.039680853
0.012916684 -0.11724638 -4.5187206 0.68315166 0.03125511 -0.037393242 -2.0176387 0.13783085
-0.18572006 0.12295008 -0.07717098 1.4062822 -0.106232695 0.009562422 -0.028960662 -0.88609225
0.060215317 1.2612219 0.043227103 -0.0028275996 0.40113583 -0.16011424 -0.09127395 -0.011534437
-0.13573094 -0.4531532 0.20618816 0.07330249 -0.073358 0.0033589716 0.50728947 0.0824796
0.34053668 -1.7206033 0.20872806 -0.23532897 -0.8720222 -0.022813443 -0.16455606 0.04399152
-0.008746074 -0.0045483825 -4.2308326 0.033982024 0.048909746 0.12707208 0.003166213 0.04977541
-0.8405765 0.17726655 0.006425875 -0.83410645 2.4684484 -1.1150913 1.5238119 -0.2113486
00000000: 1fa4 55bd 2cc3 c13e 3107 b4be 4d0f f33e
00000010: 45d9 843d 5962 b03e 4b7f 6c3e de50 b13e
00000020: e215 9a3e 1636 42be 4ac4 fb3c 4c14 3f3d
00000030: e7e2 403e 2a4b 45bf 5ba4 d53d f575 e13d
00000040: 44a4 f9be f77b 1f40 57f2 d8bd 899b ec3e
00000050: 8056 aebd 3a3b ea3d 48d6 773f d454 75bf
00000060: 2843 fcbe 7a4d 61c0 0ede b33e 59fc 24c0
00000070: 3e84 fabe e3f4 61be da9b cd3d 0e5c 8a3e
00000080: 7d0b 52bd 846e 86bf 4025 a03b 06e8 80be
00000090: febd 54bc dd37 91bc 55b7 c43c 00dd cf3d
000000a0: 5940 dbbc 0b2e b73d ad89 b13d ac1f 9bbc
000000b0: c2bd f93e 0668 0abc d168 ac3d 92e0 913d
000000c0: 5bf0 013d 6460 c6bb c2ef 9440 7d6b 3fbe
000000d0: af43 40be dbbb 2b3e f627 f53d 245d ccbe
000000e0: f040 b73d 37bc bebf 5f2a d1be 1abe 0cbc
000000f0: 3345 063d 587a 5abe 2126 073f b348 fa3d
00000100: 0d99 bbbd 6eba c7be c5b1 e33d 356a 07c0
00000110: df2b 87bf 0964 353f 16c0 9e3e 793a 3ebf
00000120: 2032 833e cf97 a8be fb96 09bc 34d7 49be
00000130: 5a18 e8bd 2757 d23d e960 0bbf fab1 c83d
00000140: 9bc2 c13c 3e05 ab3e 27f8 b03f bf90 1c3d
00000150: 134b 183e 2563 cabe de74 29be 345c 023c
00000160: b05f 9f3d beb7 02be a970 0e3e 5460 8b3c
00000170: 4878 943f b026 103f dec3 c53e ccd9 16bc
00000180: 3602 a5bf d300 59be e5ca b13f b44d 83be
00000190: cec7 18be 0f7b a5bd 1cf1 d5bc 89dc 17be
000001a0: e279 01be 7139 2e3d 8c49 7f3f f6a0 06bf
000001b0: 8bf0 a13d 60b8 afbd 3dfb 07bf 0aeb 083d
000001c0: 0dc1 b13f 454b c03e 7603 05bd 7a58 dd3d
000001d0: ef31 39bf 5424 c4ba b702 d7bd 5e16 07be
000001e0: cc90 84c0 dc77 8cbf ec8f 02bd f28c 583e
000001f0: f989 87be 191f 063d d187 8cbd 0ea9 0a3e
00000200: 1411 b4be 8dc3 4e3d eb26 fd3d 5ea1 cebd
00000210: ae97 21be d9db a0bd 01d2 bbbc fbd4 773d
00000220: a548 063f 2768 32bf 0bad 183f 71cf afbc
00000230: 60c2 593d 5523 f83e 0dab 81c0 97a6 a93e
00000240: 9be4 3fbd 3379 ac3d 252f 3bbd 7e94 063e
00000250: acc1 febe 2d88 efba a7d9 d4bd ddf1 873d
00000260: d2c1 093e c52d e3bd ea13 80be 4ba5 a53d
00000270: 1417 cb3f 1be7 8bbe 4a18 443e e0b5 2b3e
00000280: 31bc 433f 392a 243e 4f2c 43bf 799d 12bf
00000290: 5952 14bd a2c2 a43e 3102 123f fedc 76be
000002a0: 419a 83bc e417 a5bd 8320 093f 584d 3fbd
000002b0: c22d 0dbf f430 6cbc dad6 de3d e01f 18be
000002c0: 2fa8 6c3d 098e 763d 364b c2be 3555 0740
000002d0: e456 6bbe 1042 8abe 9987 2f3e 85db d33f
000002e0: fb01 6cbf a16f fcbd fff9 cbbd 8091 1dbd
000002f0: f5b5 bcbd 8798 3fbe 9cf9 20be 6dde 64bd
00000300: a352 73be 1f0d 12c0 7254 a2be ab56 b43d
00000310: 85fb 993f 7e06 ba3d 3b03 3a3d 6488 223d
00000320: 80a0 533c df1e f0bd 5c99 90c0 07e3 2e3f
00000330: 5c05 003d a829 19bd fe20 01c0 8823 0d3e
00000340: 662d 3ebe 40cd fb3d d20b 9ebd 0e01 b43f
00000350: 8790 d9bd b4ab 1c3c e93e edbc f1d6 62bf
00000360: 56a4 763d b86f a13f e70e 313d 404f 39bb
00000370: ad61 cd3e fdf4 23be d6ed babd effa 3cbc
00000380: 0dfd 0abe b203 e8be fd22 533e 9e1f 963d
00000390: b83c 96bd 3122 5c3b b9dd 013f 11eb a83d
000003a0: d35a ae3e bb3c dcbf cfbc 553e 14fa 70be
000003b0: d93c 5fbf 42e3 babc 6281 28be 7430 343d
000003c0: b14b 0fbc 990a 95bb fb62 87c0 bc30 0b3d
000003d0: 9655 483d 2f1f 023e 3d80 4f3b 4de1 4b3d
000003e0: 0630 57bf 5d85 353e 2590 d23b 0088 55bf
000003f0: 0ffb 1d40 50bb 8ebf 450c c33f c46b 58be

bn4.weight f4 [256]
-1.6089919 -5.1605853e-09 0.18030013 -8.457306e-09 0.19717747 0.09007544 -2.0565372 0.4294105
0.011339549 1.0448662 -3.2302754e-08 -1.2840139 1.8354467 -0.6438834 4.1522545e-09 -8.177742e-11
-0.37905228 -1.8699167e-08 2.159814e-09 -1.757215e-08 0.22401257 0.23986632 1.0354055 0.48798677
0.299293 1.0765667 -0.0171974 0.9164933 0.94237024 1.9658986e-09 1.6993312 -0.4641872
0.98486555 -4.7396565e-08 -0.46480718 5.003705e-10 1.2320694 -0.5393377 7.051829e-09 -0.6299844
9.511269e-09 -4.384146e-08 -1.0527255e-08 -0.22140183 -0.1945046 0.50941247 0.7569702 -0.22353937
0.008411547 -1.017511e-08 0.38019726 0.5045182 1.3457666e-05 -0.87716377 1.7954861 0.00030728377
-1.291174 0.9152199 1.1487517 0.25676522 6.283605e-09 -1.8349603 0.46728683 -1.5784292e-09
-0.0016506264 0.8764795 -1.761529e-08 1.8648148 -5.622473e-09 -2.1543918e-05 -1.2239115e-08 0.4162355
0.29981837 -3.3234815e-09 0.10154907 1.7140235 1.7512984e-09 -0.0002520065 0.18813393 4.932157e-10
1.2779623 0.47549734 -0.3114925 2.6038363e-09 -0.29365134 0.65330917 0.8988125 0.74543905
0.76443434 1.1321969 9.817262e-05 -0.461157 5.538181e-09 -6.3838406e-09 -0.00029368963 2.1476307
-7.874492e-09 1.7039887 -0.30051503 0.9031049 -1.1741306 -1.9547755e-08 -0.7604883 0.47821414
5.1390864e-10 -0.41488713 2.23118e-08 -1.4805058 -1.5322417e-09 1.1588535 -1.3086889e-09 1.0020728
2.8935728e-08 0.001515467 1.213461 1.1348835e-08 0.8484476 1.2203322e-08 0.35216737 0.40847477
0.59130794 1.1526718 1.5154047 0.00057302305 1.7102873 -0.07550839 3.1171842 0.09156432
1.0608789 1.6550219e-09 5.4148077e-09 0.9237738 -0.013928561 -1.6999758e-08 -2.666063e-09 0.56627643
-0.09130189 1.1363095 0.5977148 0.561986 0.56657344 0.08294668 0.7372616 0.0005329551
0.7873683 -0.38008755 4.9786286e-09 -3.3924485e-09 1.3864089 1.1127717e-08 0.7343082 0.00020334478
-0.67038333 2.2110069 0.4914193 -5.4027896e-06 0.001823937 0.19190016 1.8125647e-08 1.6542862e-10
-0.9792792 -0.2740925 -1.6090425e-08 1.0223378 -1.8794723 -0.2950078 7.0484516e-09 0.29895553
0.00018171596 -3.561659e-08 -5.5076024e-09 0.34638426 0.7575893 -0.4289717 -1.9650546e-08 1.4739211
-7.5049406e-10 4.9986657e-08 0.8112715 -1.1114032 0.46167102 0.011527849 3.555592e-08 0.31727493
0.35113588 0.6859915 0.31807065 -3.943254e-08 -2.2036875e-09 0.33632746 -9.910096e-10 -4.1457998e-08
-0.23057246 0.87865186 1.0223734 -6.030775e-09 -0.48169494 -3.3717866e-09 0.0001920114 -7.0427284e-08
0.84115833 0.39182776 0.12697275 -0.2580763 0.31839725 -0.30234522 0.14699367 -6.800414e-09
0.19865794 -0.25316864 1.5633125 -0.58437955 -0.13361311 9.303287e-09 5.9052727e-09 0.65258014
0.4106958 -0.0077037527 -1.5602442e-09 4.008756e-09 -2.9408875e-08 -1.0275292 0.18710156 0.6975292
-5.25711e-09 1.510736 -1.0467473e-08 1.5726873 0.64289904 -5.5966543e-09 -0.40656057 -0.25780243
8.268385e-09 1.1084172 1.559566e-09 -1.665039 0.44503206 -1.4549891 1.6222616 0.13027596
-0.31809533 6.26491e-08 1.2277889 0.12384207 8.150889e-09 -0.10180938 0.90848786 1.0870789e-09
-1.0785468 0.5917853 0.6034985 -1.5189068e-08 -3.851282e-08 -1.948541e-10 0.038184445 -1.5054504e-09
00000000: 72f3 cdbf fd50 b1b1 99a0 383e a04b 11b2
00000010: e4e8 493e 7979 b83d 4e9e 03c0 b1db db3e
00000020: 84c9 393c 2dbe 853f 41bd 0ab3 915a a4bf
00000030: ebef ea3f 8bd5 24bf 9eab 8e31 98d4 b3ae
00000040: 2413 c2be e79f a0b2 da6b 1431 91f1 96b2
00000050: 8d63 653e 849f 753e 2b88 843f 67d9 f93e
00000060: ef3c 993e f0cc 893f 90e1 8cbc 4e9f 6a3f
00000070: 2d3f 713f 7418 0731 af83 d93f f2a9 edbe
00000080: 2620 7c3f 1391 4bb3 35fb edbe 728a 0930
00000090: 73b4 9d3f 0912 0abf 8b4c f231 a846 21bf
000000a0: 0167 2332 324c 3cb3 5bdb 34b2 29b7 62be
000000b0: 372c 47be db68 023f cdc8 413f 81e7 64be
000000c0: 96d0 093c 9bce 2eb2 37a9 c23e 1b28 013f
000000d0: 3cc8 6137 ce8d 60bf 7dd2 e53f ee1a a139
000000e0: 3145 a5bf da4b 6a3f 4c0a 933f bb76 833e
000000f0: 2de7 d731 fbdf eabf 3840 ef3e 0af0 d8b0
00000100: d559 d8ba f660 603f 6f50 97b2 40b2 ee3f
00000110: cc2f c1b1 36b9 b4b7 3244 52b2 d21c d53e
00000120: cb81 993e 4e63 64b1 f5f8 cf3d 1f65 db3f
00000130: 56b2 f030 bd1f 84b9 2ea6 403e f892 0730
00000140: 4594 a33f 6374 f33e f27b 9fbe 2cef 3231
00000150: 7859 96be 453f 273f 9318 663f 18d5 3e3f
00000160: f8b1 433f d4eb 903f 06e2 cd38 c51c ecbe
00000170: 5b4a be31 db58 dbb1 5bfa 99b9 c872 0940
00000180: 6248 07b2 4d1c da3f 1bdd 99be e231 673f
00000190: e949 96bf f8e9 a7b2 5caf 42bf 7cd8 f43e
000001a0: 1b43 0d30 166c d4be 2ba8 bf32 3781 bdbf
000001b0: f696 d2b0 5055 943f 66dd b3b0 ec43 803f
000001c0: 578e f832 a2a2 c63a b152 9b3f b4f8 4232
000001d0: dd33 593f c7a6 5132 484f b43e 9b23 d13e
000001e0: f55f 173f c08a 933f c8f8 c13f ed36 163a
000001f0: b2ea da3f 25a4 9abd f27f 4740 1386 bb3d
00000200: e1ca 873f e876 e330 270d ba31 717c 6c3f
00000210: 9e34 64bc dd06 92b2 e035 37b1 7ef7 103f
00000220: 7cfc babd 9772 913f d603 193f 51de 0f3f
00000230: f50a 113f f3df a93d 2dbd 3c3f 03b6 0b3a
00000240: f890 493f d69a c2be 7b10 ab31 9620 69b1
00000250: d975 b13f 382c 3f32 9ffb 3b3f f338 5539
00000260: 3e9e 2bbf 2381 0d40 4f9b fb3e 9c49 b5b6
00000270: 2c11 ef3a 7a81 443e b8b2 9b32 04e4 352f
00000280: 0bb2 7abf da55 8cbe 3837 8ab2 f7db 823f
00000290: 8c92 f0bf 430b 97be d62e f231 b310 993e
000002a0: 028b 3e39 dbf8 18b3 623d bdb1 4759 b13e
000002b0: 5ff1 413f 2ea2 dbbe 02cc a8b2 72a9 bc3f
000002c0: 534b 4eb0 e9b0 5633 7daf 4f3f 7642 8ebf
000002d0: 2560 ec3e 4edf 3c3c 26b6 1833 dc71 a23e
000002e0: 15c8 b33e 249d 2f3f 28da a23e 895c 29b3
000002f0: ae6f 17b1 1d33 ac3e 0d34 88b0 8d0f 32b3
00000300: 301b 6cbe 54ef 603f 22dd 823f 4237 cfb1
00000310: b8a0 f6be 19b5 67b1 ab56 4939 cf3d 97b3
00000320: 2756 573f a69d c83e 2505 023e 9422 84be
00000330: f704 a33e fecc 9abe 8285 163e 13a9 e9b1
00000340: fd6c 4b3e 529f 81be a01a c83f e699 15bf
00000350: e0d1 08be 4ad4 1f32 54e7 ca31 7e0f 273f
00000360: b846 d23e c36f fcbb 3670 d6b0 64bd 8931
00000370: cd9e fcb2 1486 83bf 8d97 3f3e 4691 323f
00000380: 07a2 b4b1 cc5f c13f 6fd4 33b2 d14d c93f
00000390: 0895 243f b14c c0b1 b528 d0be aefe 83be
000003a0: be0c 0e32 9de0 8d3f 5a58 d630 ff1f d5bf
000003b0: 3edb e33e 153d babf 45a6 cf3f 1067 053e
000003c0: 64dd a2be b589 8633 3028 9d3f e9a0 fd3d
000003d0: fd07 0c32 7081 d0bd a992 683f 3068 9530
000003e0: d20d 8abf 3e7f 173f e17e 1a3f 1d79 82b2
000003f0: 4b69 25b3 8e3e 56af 4b67 1c3d 54e8 ceb0
