mini_batch_exp/models/mnist_sgd_batch128_lr0.1.pt (torch_old, 326371 bytes, 26 tensors)

conv1.weight f4 [16, 1, 3, 3]
-0.15071784 -0.12553315 0.1389308 0.093756944 -0.19888873 0.20359747 -0.2640188 -0.1255375
-0.29775542 0.18359372 -0.11785825 0.04007326 0.17195556 -0.24217302 -0.25008655 0.046878234
0.30958712 0.2355125 -0.18079315 0.31443062 -0.01047115 0.22927377 0.20602113 -0.36070067
0.04411662 0.26409775 0.09565751 0.07308828 -0.13151483 0.11154034 0.32520676 -0.14664434
0.15042524 -0.26524836 -0.064990655 0.26838562 -0.38745993 -0.0010507746 0.20641498 0.27999282
0.20534441 0.062678255 -0.004369601 -0.09733927 -0.3172276 0.093284 0.016669456 0.30258548
-0.04734177 -0.04494571 0.19809794 -0.36593652 -0.31574765 0.182954 -0.0030950932 0.21538703
0.2630809 0.19271173 -0.06395283 0.07497979 -0.0038764018 0.1994309 -0.10625615 -0.023179138
-0.2601252 0.21236049 -0.3880985 0.1341564 -0.21306397 0.024968948 0.31346917 0.20030284
0.110385135 0.35710827 0.31129557 0.115532346 -0.18112504 -0.21508896 -0.22761679 -0.2185521
-0.049590062 0.046809446 -0.06742366 0.20122392 -0.33491555 -0.3060028 -0.1966793 0.28353488
0.10670972 -0.25627792 0.031005437 0.2981598 0.18445475 0.17804563 -0.17489178 0.33876583
0.2928294 -0.18802601 -0.2744568 0.10954994 0.19349208 0.24587676 -0.1786561 -0.14482795
0.34204784 -0.25419027 0.117294155 -0.279629 0.015739111 0.052194897 0.2581909 -0.11940154
-0.41227475 0.15967809 0.1845719 -0.13946459 0.0021450394 -0.35102394 0.04511807 0.20936103
-0.17468756 0.12910268 -0.0071046473 -0.33150485 -0.0055624624 0.13749768 0.3034189 0.049802903
0.010655214 0.03529944 -0.0470439 -0.07012862 0.1350691 -0.18584946 -0.34183896 -0.30837396
0.16818583 0.2747057 -0.19187891 -0.16687569 -0.0077962037 0.2668491 -0.33211148 -0.07595024
00000000: c755 1abe c38b 00be e043 0e3e a403 c03d
00000010: 7da9 4bbe db7b 503e 792d 87be e78c 00be
00000020: 6673 98be feff 3b3e ab5f f1bd dc23 243d
00000030: 1e15 303e 34fc 77be 580b 80be 6403 403d
00000040: 3482 9e3e 302a 713e d721 39be 0dfd a03e
00000050: 308f 2bbc bec6 6a3e 34f7 523e c2ad b8be
00000060: a1b3 343d d237 873e 16e8 c33d 4faf 953d
00000070: d3ab 06be 436f e43d 8081 a63e ef29 16be
00000080: 1309 1a3e a2ce 87be d219 85bd d769 893e
00000090: 2661 c6be 25ba 89ba 735e 533e 385b 8f3e
000000a0: ce45 523e 755d 803d df2e 8fbb d059 c7bd
000000b0: a86b a2be af0b bf3d 628e 883c 7cec 9a3e
000000c0: 72e9 41bd fe18 38bd 30da 4a3e 085c bbbe
000000d0: ada9 a1be 4b58 3b3e 0cd7 4abb 6b8e 5c3e
000000e0: 8ab2 863e 3956 453e b4f9 82bd 018f 993d
000000f0: 3b0b 7ebb 9d37 4c3e d39c d9bd 2de2 bdbc
00000100: 212f 85be 0775 593e d9b4 c6be 4c60 093e
00000110: 712d 5abe ae8b cc3c 087f a03e 301c 4d3e
00000120: 9a11 e23d e5d6 b63e 2262 9f3e 399c ec3d
00000130: d878 39be 4840 5cbe 6014 69be 1fcc 5fbe
00000140: f31e 4bbd 43bb 3f3d 6a15 8abd a50d 4e3e
00000150: 0d7a abbe 66ac 9cbe 4c66 49be 7c2b 913e
00000160: a08a da3d dc36 83be 1dff fd3c 67a8 983e
00000170: b5e1 3c3e 9851 363e d516 33be b772 ad3e
00000180: bced 953e e489 40be 9a85 8cbe b85b e03d
00000190: ca22 463e 1ec7 7b3e a0f1 36be c74d 14be
000001a0: e520 af3e 3a25 82be eb37 f03d 882b 8fbe
000001b0: 4fef 803c 51ca 553d 9931 843e cb88 f4bd
000001c0: ad15 d3be a782 233e 6b00 3d3e cecf 0ebe
000001d0: ca93 0c3b 69b9 b3be bacd 383d bd62 563e
000001e0: 4ce1 32be 7e33 043e 1ace e8bb 01bb a9be
000001f0: 5145 b6bb 31cc 0c3e b959 9b3e 21fe 4b3d
00000200: 3593 2e3c 2596 103d 1bb1 40bd 989f 8fbd
00000210: 8e4f 0a3e 524f 3ebe 8405 afbe 31e3 9dbe
00000220: e838 2c3e 3aa6 8c3e e87b 44be 76e1 2abe
00000230: 4c77 ffbb 72a0 883e 840a aabe cd8b 9bbd

conv1.bias f4 [16]
0.30116007 -0.27434596 -0.04105001 -0.04611741 -0.0021551498 0.23399407 -0.0029276337 -0.18158238
-0.024089523 0.2150017 0.023815485 -0.05548827 -0.09274658 -0.22507149 0.011771591 -0.106817275
00000000: a731 9a3e 1377 8cbe 0e24 28bd 9ce5 3cbd
00000010: 6a3d 0dbb 249c 6f3e 8bdd 3fbb bbf0 39be
00000020: 6457 c5bc 6829 5c3e b118 c33c ab47 63bd
00000030: ebf1 bdbd 2479 66be a2dd 403c 04c3 dabd

bn1.weight f4 [16]
1.0065421 1.0311666 0.9929495 0.9665624 1.0389781 0.99565244 0.9611689 0.9795747
1.065153 1.0304466 0.9570703 0.9682859 0.9886767 0.999674 1.0278506 0.96763474
00000000: 5fd6 803f 44fd 833f f031 7e3f a270 773f
00000010: 3cfd 843f 14e3 7e3f 2a0f 763f 68c5 7a3f
00000020: ef56 883f ade5 833f 8f02 753f 96e1 773f
00000030: eb19 7d3f a3ea 7f3f 9c90 833f e9b6 773f

bn1.bias f4 [16]
-0.04539843 0.01463331 0.030752437 0.05066887 0.032350764 0.036708135 0.038463358 0.012537784
-0.008184871 -0.062398873 0.0615733 0.010782542 0.016438233 0.051784772 0.038739488 -0.022409188
00000000: b4f3 39bd 8dc0 6f3c 89ec fb3c 298a 4f3d
00000010: 3c82 043d 455b 163d c18b 1d3d 476b 4d3c
00000020: d619 06bc f695 7fbd 4934 7c3d 42a9 303c
00000030: 79a9 863c 451c 543d 4cad 1e3d 7993 b7bc

bn1.running_mean f4 [16]
1.6595262 26.612213 38.680317 24.0918 13.642569 20.2655 43.93539 18.064053
20.834675 4.202322 44.9985 22.04224 10.367248 9.440659 16.992468 5.3108687
00000000: 5b6b d43f d0e5 d441 a5b8 1a42 02bc c041
00000010: f647 5a41 be1f a241 d7bd 2f42 2e83 9041
00000020: 6aad a641 6c79 8640 77fe 3342 8256 b041
00000030: 3fe0 2541 f00c 1741 93f0 8741 a3f2 a940

bn1.running_var f4 [16]
54.736084 1701.9661 3976.7534 1317.1222 856.0278 1643.4813 4628.0283 1356.3098
2106.118 148.18297 5165.117 1766.4128 484.44354 577.15936 1175.3925 258.31726
00000000: c0f1 5a42 eabe d444 0e8c 7845 e9a3 a444
00000010: c701 5644 676f cd44 3aa0 9045 ea89 a944
00000020: e3a1 0345 d72e 1443 f068 a145 36cd dc44
00000030: c638 f243 334a 1044 8fec 9244 9c28 8143

conv2.weight f4 [32, 16, 4, 4]
0.023790158 -0.014025696 0.023839025 -0.02476878 -0.0060748626 0.045548387 0.039400063 0.07066087
-0.04090978 -0.02375766 -0.014585122 -0.016474605 0.05065935 0.058576286 -0.05154401 0.02981545
-0.05874538 -0.018626662 0.01590285 0.060667224 -0.06679774 -0.05079127 0.04438144 0.008829352
-0.0039384835 -0.01791308 0.026425501 -0.025677755 -0.04906876 0.04067514 0.009863482 0.055423602
-0.06788959 0.0043193395 0.04804223 -0.023827473 0.024713786 0.02385653 0.028374262 0.044855654
0.008111651 -0.016012806 0.045689635 -0.008458854 0.01765179 0.005189687 0.008106751 -0.06699169
-0.0037009292 -0.03455512 0.023965627 0.05791773 0.03760691 -0.044072166 0.002570184 -0.05717399
-0.04362431 0.022464124 0.0015754742 0.0031648998 -0.025128428 -0.062201146 0.030189628 -0.030315762
-0.011615285 -0.038033593 -0.07148242 -0.047803137 -0.016538735 0.012720737 0.0054275594 -0.046676695
0.033381034 -0.0060530705 0.089998834 -0.008431741 -0.031595353 0.06848798 0.08005902 -0.022590652
-0.05806989 -0.07058394 0.01194293 0.02302739 -0.0708574 0.011011509 0.048683837 0.03764277
0.015134974 -0.063364185 -0.052598286 0.032989636 0.03994199 -0.056153312 -0.08683943 0.027270216
0.025103152 -0.03635045 0.040593248 0.069272585 0.042047236 -0.016673228 -0.028729206 0.022170026
-0.049432006 0.0460369 -0.02049065 0.041517086 -0.051004354 -0.05831665 0.025430486 -0.0014210793
-0.028790977 0.03653988 -0.015315212 -0.00547678 0.043908346 0.025610656 -0.021472292 0.0361491
0.04905008 0.023737287 0.041308526 -0.025918148 0.004635721 -0.03415414 0.0059317527 -0.037717685
-0.035612073 0.054787483 -0.014371396 -0.044018157 0.029087566 0.08152152 0.024118109 -0.008556364
-0.024020461 0.004980702 0.08121438 0.022379998 -0.0069311224 -0.05264853 0.004224237 0.09101634
-0.023742817 -0.026363937 0.05648921 0.0052044727 -0.046811294 0.04701828 -0.033548653 -0.032553148
0.02428987 0.025579069 -0.059875462 -0.01973983 0.014425754 0.024236882 -0.0014998493 -0.002812529
0.017938988 0.02533442 0.06530384 0.034733552 -0.057729833 -0.03151311 -0.055463918 -0.022884063
-0.044118144 -0.03913159 0.04470809 -0.0041017565 -0.052340724 0.00010321055 0.02001053 -0.015175146
-0.05139625 0.012502968 0.042360593 0.053369053 -0.03458301 0.035305608 0.040484626 0.07067716
-0.01937719 0.054935634 0.030676803 0.022922626 -0.034171093 0.041494705 -0.059398845 -0.011851051
-0.027950376 0.03320127 0.044140685 0.054774724 -0.02716556 0.034149285 0.08042888 0.036746327
0.028028859 -0.03135084 0.044257507 0.013202874 -0.075127654 0.0006742731 -0.036644533 -0.0524731
0.02306519 -0.014801199 0.04733035 -0.05052113 0.067350894 0.027778713 -0.028811445 -0.0072129867
-0.06334958 -0.012847189 -0.07546147 0.06398435 -0.014339523 0.024846783 -0.05093151 -0.03675021
0.031734858 0.045199443 -0.03928726 -0.02631947 0.01727412 0.015852045 0.0118035115 -0.05040556
-0.01892245 0.01393664 -0.004272014 0.019674322 -0.027753517 0.012302178 -0.00017487991 0.087739095
0.07020032 0.065773815 0.031216927 0.0443068 0.04414378 0.039042383 0.026156574 -0.029540822
0.04270245 -0.07152533 -0.009204119 -0.02141538 -0.049113363 -0.0126918685 0.04691483 0.0038541788
00000000: 94e3 c23c 08cc 65bc 0f4a c33c e6e7 cabc
00000010: a40f c7bb f290 3a3d f661 213d a5b6 903d
00000020: 0391 27bd 6d9f c2bc 6ff6 6ebc c0f5 86bc
00000030: 2e80 4f3d b0ed 6f3d d01f 53bd 883f f43c
00000040: ff9e 70bd f196 98bc b246 823c 327e 783d
00000050: 41cd 88bd 820a 50bd 50c9 353d fda8 103c
00000060: 650e 81bb 74be 92bc 4b7a d83c 285a d2bc
00000070: 53fc 48bd fa9a 263d 719a 213c dc03 633d
00000080: b309 8bbd 3f89 8d3b eec7 443d d531 c3bc
00000090: 9174 ca3c c56e c33c 2471 e83c 90ba 373d
000000a0: bbe6 043c 4a2d 83bc 0e25 3b3d 0197 0abc
000000b0: 7d9a 903c 400e aa3b 2ed2 043c f032 89bd
000000c0: 4a8b 72bb ab89 0dbd 9053 c43c 243b 6d3d
000000d0: b409 1a3d 0485 34bd 8870 283b 462f 6abd
000000e0: 68af 32bd af06 b83c 2480 ce3a 356a 4f3b
000000f0: 22da cdbc a1c6 7ebd 3d50 f73c c358 f8bc
00000100: 094e 3ebc 1dc9 1bbd 6065 92bd 39cd 43bd
00000110: 3e7c 87bc a36a 503c abd9 b13b 1030 3fbd
00000120: 8dba 083d d658 c6bb 4f51 b83d 4925 0abc
00000130: 216a 01bd 6d43 8c3d fcf5 a33d 0810 b9bc
00000140: b1da 6dbd 508e 90bd 47ac 433c f0a3 bc3c
00000150: af1d 91bd 9e69 343c b468 473d 4e2f 1a3d
00000160: aff8 773c 15c5 81bd 4d71 57bd 2420 073d
00000170: 369a 233d 0401 66bd dfd8 b1bd ca65 df3c
00000180: 20a5 cd3c 36e4 14bd 1b45 263d c9de 8d3d
00000190: b939 2c3d 4b96 88bc 8359 ebbc ea9d b53c
000001a0: 3779 4abd 3091 3c3d 02dc a7bc d20d 2a3d
000001b0: f1e9 50bd 71dd 6ebd 9853 d03c 8243 baba
000001c0: 0edb ebbc d7aa 153d a8ec 7abc 8f76 b3bb
000001d0: 3dd9 333d 70cd d13c a9e6 afbc 1411 143d
000001e0: bde8 483d b374 c23c 2133 293d 4c52 d4bc
000001f0: 3fe7 973b 36e5 0bbd 265f c23b dc7d 1abd
00000200: f7dd 11bd d768 603d 0176 6bbc 624c 34bd
00000210: 0c49 ee3c c1f4 a63d 5793 c53c fe2f 0cbc
00000220: 8fc6 c4bc 2835 a33b ba53 a63d 4256 b73c
00000230: 781e e3bb fca5 57bd 786b 8a3b c666 ba3d
00000240: 4c80 c2bc 2ff9 d7bc 3b61 673d 488a aa3b
00000250: 33bd 3fbd 3d96 403d 506a 09bd 7356 05bd
00000260: 8dfb c63c 328b d13c f93f 75bd 6db5 a1bc
00000270: ff59 6c3c 6d8c c63c 9796 c4ba 6852 38bb
00000280: c9f4 923c 218a cf3c 05be 853d c544 0e3d
00000290: 1e76 6cbd e413 01bd 222e 63bd 5c77 bbbc
000002a0: 3ab5 34bd 7248 20bd d51f 373d 0768 86bb
000002b0: 3a63 56bd be72 d838 1fed a33c 2da1 78bc
000002c0: e084 52bd 40d9 4c3c 4d82 2d3d 8299 5a3d
000002d0: eaa6 0dbd 9d9c 103d 35d3 253d 30bf 903d
000002e0: eabc 9ebc 3004 613d eb4d fb3c 3bc8 bb3c
000002f0: fdf6 0bbd 5af6 293d 344c 73bd e92a 42bc
00000300: 30f8 e4bc 0efe 073d ddcc 343d 765b 603d
00000310: 4f8a debc 1fe0 0b3d e6b7 a43d 5183 163d
00000320: c79c e53c bd69 00bd 5c47 353d de50 583c
00000330: 87dc 99bd b4c1 303a 9418 16bd 09ee 56bd
00000340: 36f3 bc3c ba80 72bc 78dd 413d 3fef 4ebd
00000350: 44ef 893d 2f90 e33c fb05 ecbc eb5a ecbb
00000360: 6dbd 81bd 047d 52bc 8b8b 9abd 3a0a 833d
00000370: 52f0 6abc 7b8b cb3c 8f9d 50bd 6387 16bd
00000380: 69fc 013d 0d23 393d aeeb 20bd ee9b d7bc
00000390: 7582 8d3c 26dc 813c 8463 413c 0f76 4ebd
000003a0: 4103 9bbc 8156 643c 40fc 8bbb 0b2c a13c
000003b0: 585b e3bc 138f 493c f85f 37b9 8eb0 b33d
000003c0: 2fc5 8f3d 6cb4 863d a4ba ff3c 0c7b 353d
000003d0: 1cd0 343d e8ea 1f3d 5046 d63c 98ff f1bc
000003e0: c4e8 2e3d df7b 92bd e0cc 16bc 4f6f afbc
000003f0: 182b 49bd 8ef1 4fbc c429 403d 6496 7c3b

conv2.bias f4 [32]
0.0059285937 -0.023233723 0.011503421 -0.009407113 -0.102826156 -0.015339074 -0.039290804 -0.006914906
-0.030260075 -0.06302928 -0.007265111 -0.0020549027 -0.03509447 0.058584668 -0.040873557 -0.010805354
0.049459595 0.030778399 -0.021782221 -0.055501092 -0.0803188 -0.03367549 -0.07953956 -0.0556011
0.043139536 -0.10633385 -0.00076545717 -0.04482222 0.0024180617 -0.033545934 -0.052689392 -0.019703608
00000000: a644 c23b a654 bebc d878 3c3c 4b20 1abc
00000010: 8596 d2bd bd50 7bbc 65ef 20bd 7096 e2bb
00000020: fae3 f7bc 7f15 81bd 2b10 eebb 8cab 06bb
00000030: 38bf 0fbd 7af6 6f3d 086b 27bd f108 31bc
00000040: 2596 4a3d fb22 fc3c a170 b2bc 1d55 63bd
00000050: 2f7e a4bd 50ef 09bd a3e5 a2bd fbbd 63bd
00000060: 15b3 303d 90c5 d9bd f6a8 48ba 8197 37bd
00000070: 5878 1e3b 7667 09bd d5d0 57bd 7669 a1bc

bn2.weight f4 [32]
0.9683725 0.9854788 0.99147505 1.0635492 1.0256357 1.032432 0.9933902 0.9667166
0.99082637 0.9860918 1.0015874 1.0043634 1.0199221 0.95716965 1.0032594 0.98311836
0.97331583 0.9879443 1.0210882 1.0305735 1.025004 0.98231065 1.0233543 1.0391171
0.97890115 1.0182028 1.0030491 0.9872167 1.0266237 0.9956572 0.95150894 0.97701275
00000000: 43e7 773f 5748 7c3f 4fd1 7d3f 6122 883f
00000010: 0848 833f bb26 843f d24e 7e3f bd7a 773f
00000020: cca6 7d3f 8370 7c3f 0434 803f fb8e 803f
00000030: cf8c 823f 1209 753f ce6a 803f a5ad 7b3f
00000040: 3a2b 793f ebe9 7c3f 05b3 823f d5e9 833f
00000050: 5533 833f b678 7b3f 46fd 823f ca01 853f
00000060: 4499 7a3f 7854 823f ea63 803f 3cba 7c3f
00000070: 6868 833f 64e3 7e3f 1796 733f 821d 7a3f

bn2.bias f4 [32]
0.0032245289 0.012581523 0.012509873 0.0145016415 0.010774607 0.008489548 0.0036645161 0.006565697
0.010844537 0.0065535293 0.0016628735 -0.0053717047 0.006209368 0.01053152 -0.0028246036 0.008082858
0.0032235072 0.012061074 0.019669596 0.007166916 0.014541305 -0.0045699356 0.012521043 0.004982437
0.0034728397 -0.0007322783 0.01288644 0.014368994 0.00581897 0.010162011 -0.0019606361 0.006885284
00000000: 9e52 533b bb22 4e3c 36f6 4c3c 4b98 6d3c
00000010: fa87 303c bf17 0b3c 6128 703b 0f25 d73b
00000020: 49ad 313c fdbe d63b c7f4 d93a 2005 b0bb
00000030: f477 cb3b 658c 2c3c fc1c 39bb f76d 043c
00000040: 7a41 533b d09b 453c 2222 a13c 73d8 ea3b
00000050: a73e 6e3c 66bf 95bb 1025 4d3c b643 a33b
00000060: 9598 633b 5df6 3fba a621 533c ee6b 6b3c
00000070: 0fad be3b 907e 263c 047e 00bb f39d e13b

bn2.running_mean f4 [32]
0.7598099 0.4718497 0.60866183 0.55258036 0.5895822 0.5382537 0.42968097 0.6698801
0.74465203 0.7210545 0.7832928 0.5507122 0.57986873 0.7637322 0.93808657 0.850692
0.87827456 0.57752246 0.5533497 0.60514146 0.5773309 0.6516432 0.6062725 0.7306538
0.72367424 0.40957505 0.652134 0.84068614 0.67616326 0.55880135 0.5124752 0.765432
00000000: e782 423f 4996 f13e 43d1 1b3f e875 0d3f
00000010: dcee 163f ffca 093f 25ff db3e 437d 2b3f
00000020: 84a1 3e3f 0797 383f e085 483f 7afb 0c3f
00000030: 4772 143f f483 433f 7126 703f f3c6 593f
00000040: 9ad6 603f 83d8 133f 53a8 0d3f 8dea 1a3f
00000050: f5cb 133f 17d2 263f ad34 1b3f 210c 3b3f
00000060: b742 393f d2b3 d13e 41f2 263f 3537 573f
00000070: 0919 2d3f 9b0d 0f3f 9331 033f 5af3 433f

bn2.running_var f4 [32]
0.71722895 0.3480693 0.49108198 0.48136976 0.40154636 0.4299409 0.25434172 0.49740174
0.39113694 0.55762166 0.54430604 0.36061618 0.4209112 0.5589959 0.65970856 0.4901618
0.9541445 0.27911744 0.37620664 0.44342747 0.3781763 0.47013232 0.5069596 0.6425808
0.36105064 0.26042733 0.50113624 0.8543956 0.6096487 0.3091405 0.43996844 0.5748955
00000000: 519c 373f 2436 b23e 196f fb3e 1976 f63e
00000010: 7c97 cd3e 3721 dc3e 1439 823e 71ab fe3e
00000020: 1a43 c83e 4bc0 0e3f a457 0b3f afa2 b83e
00000030: ac81 d73e 5b1a 0f3f a9e2 283f 7df6 fa3e
00000040: d042 743f 7be8 8e3e 289e c03e ed08 e33e
00000050: 53a0 c13e 2fb5 f03e 1bc8 013f 2d80 243f
00000060: a1db b83e bb56 853e 774a 003f acb9 5a3f
00000070: f011 1c3f aa47 9e3e 8b43 e13e 5a2c 133f

conv3.weight f4 [64, 32, 5, 5]
0.011458711 0.027664216 -0.01931435 -0.038512178 -0.000987481 0.012140381 0.013501689 -0.0044762883
0.02449778 0.0059242863 0.040427323 -0.008603638 -0.016060105 0.0009628248 -0.01710744 0.0326924
0.032354556 -0.06314701 0.02635901 0.01416671 0.024340302 -0.0037014238 0.0093804905 0.02777422
0.008703991 -0.0023358571 -0.018272696 -0.014084405 -0.0064930436 0.024919761 -0.016199403 0.056680277
0.015020523 -0.0355902 -0.030187463 -0.016799618 0.009801764 0.00030408587 -0.01054173 0.04708248
-0.012867094 -0.029160518 -0.016851328 -6.7694e-05 -0.014188791 -0.009981435 -0.015265915 -0.024351338
0.009949299 -0.061462894 0.004555598 -0.020030636 -0.012315273 6.923992e-05 0.053597454 -0.0014010409
-0.0056908797 -0.04120649 0.026204715 -0.012318751 -0.016942639 0.01416087 -0.04213552 -0.026905295
-0.02294602 0.008970174 0.019358844 0.0058627767 -0.0007280328 -0.021275628 -0.0030877707 -0.027034953
-0.010733872 0.0054579237 -0.037584417 0.0123167 -0.025082929 0.008817565 -0.021027513 -0.03267119
0.0076026455 0.008313886 0.00019042863 -0.011056494 -0.028021129 0.02252616 -0.039258186 -0.045215484
-0.057973225 0.0059196674 0.01251882 -0.013415461 -0.01382449 0.019564398 -0.018573051 0.032005087
0.0075153178 0.013850467 -0.03347847 -0.020183424 0.012320103 -0.03423997 0.005796501 0.026923174
-0.0039786273 -0.009767695 0.004060909 0.014802905 -0.026980055 -0.019978205 0.008412078 -0.0012932075
0.017757656 0.0018565471 0.040127926 0.0024536431 -0.03538476 0.0010490766 0.06560072 0.042653047
0.06639793 0.023129024 -0.0113488445 -0.037933074 -0.020524785 0.027761819 -0.02612292 0.01679538
-0.0021900055 0.0020031477 0.007323868 -0.0021546045 0.027596626 -0.026031528 0.007768843 8.015763e-05
-0.00733616 -0.008781469 -0.028636746 0.009589706 0.006011917 -0.009475258 -0.018334541 0.0010790961
-0.007527916 0.040215716 0.01897259 0.0013005846 -0.01325991 -0.022395683 0.024507033 -0.009546457
-0.009477047 0.01763421 0.0109236445 0.0055659087 -0.038050577 -0.016855622 0.007914832 0.012843984
-0.026858049 -0.030469837 -0.033689182 -0.012478852 0.045320697 0.0014977466 -0.017723175 -0.036615893
-0.029541248 -0.032372136 -0.026111513 -0.033184938 -0.024581052 -0.019516924 0.0018682211 -0.0026770104
-0.008915242 0.004205237 0.0049815853 0.013057414 0.013372514 -0.014310626 0.043393 -0.0399261
-0.0050128195 0.0254739 -0.005145834 0.04228235 0.021477269 -0.007192011 -0.018999862 0.012727446
0.021368004 0.015725635 0.017917965 -0.014401097 0.024956336 0.02425261 0.013917079 -0.02195942
-0.026773747 0.003501684 0.017423367 -0.032837734 0.019738857 0.018277504 0.02833404 0.004976362
0.030284023 0.023456436 -0.013689253 0.011951476 -0.0027142295 0.03521663 0.024757141 -0.009217347
0.016481534 -0.006192105 0.027200775 -0.02497755 -0.011791203 -0.0035489197 0.012408653 -0.0037129507
-0.044137437 0.006977223 -0.0057911663 -0.0031433487 -0.024398003 -0.028713478 -0.021960797 -0.019188892
0.043854546 -0.01687415 0.0163132 0.018174572 0.031802613 9.163595e-05 0.024651075 -0.02950973
0.042282112 0.0066546397 0.008493921 -0.015580092 0.01770997 0.036398973 -0.012092003 0.01899574
-0.021038704 0.002277186 -0.0011167878 0.039284617 -0.03279699 -0.010855781 0.022901403 0.0066476455
00000000: 51bd 3b3c 11a0 e23c 2139 9ebc f2be 1dbd
00000010: 5d6e 81ba 73e8 463c 3036 5d3c d4ad 92bb
00000020: 91af c83c 8420 c23b 1f97 253d 46f6 0cbc
00000030: 7b90 83bc 1466 7c3a e724 8cbc 77e8 053d
00000040: 3686 043d 3853 81bd daee d73c 7d1b 683c
00000050: 5065 c73c 9693 72bb a1b0 193c c386 e33c
00000060: 2f9b 0e3c 2e15 19bb 9fb0 95bc 47c2 66bc
00000070: 99c3 d4bb 8724 cc3c 9cb4 84bc 9429 683d
00000080: a418 763c 08c7 11bd b34b f7bc 5a9f 89bc
00000090: 9497 203c b76d 9f39 38b7 2cbc 8fd9 403d
000000a0: 81d0 52bc 0ae2 eebc cc0b 8abc f1f6 8db8
000000b0: 1a78 68bc 2c89 23bc e31d 7abc 757c c7bc
000000c0: 6202 233c 84c0 7bbd 2047 953b 4a17 a4bc
000000d0: 00c6 49bc e634 9138 0189 5b3d 22a3 b7ba
000000e0: 8f7a babb 23c8 28bd 45ab d63c 96d4 49bc
000000f0: 4acb 8abc fe02 683c 4c96 2cbd 7e68 dcbc
00000100: 4bf9 bbbc a3f7 123c 7096 9e3c 891c c03b
00000110: 74d9 3eba 3a4a aebc 325c 4abb 6878 ddbc
00000120: 1fdd 2fbc 62d8 b23b 1ef2 19bd fccb 493c
00000130: b77a cdbc 8c77 103c e441 acbc 3ad2 05bd
00000140: 9d1f f93b f736 083c ccad 4739 4c26 35bc
00000150: 918c e5bc c888 b83c 31cd 20bd df33 39bd
00000160: 5575 6dbd c5f9 c13b bd1b 4d3c 86cc 5bbc
00000170: 1d80 62bc 8445 a03c 8326 98bc c417 033d
00000180: 0e43 f63b 12ed 623c b820 09bd b557 a5bc
00000190: 42da 493c 363f 0cbd 93f0 bd3b fd8d dc3c
000001a0: 255f 82bb af08 20bc 6011 853b e287 723c
000001b0: 4705 ddbc 55a9 a3bc d0d2 093c d880 a9ba
000001c0: 8178 913c 6257 f33a 2e5d 243d 4dcd 203b
000001d0: 9cef 10bd 2b81 893a ac59 863d f6b4 2e3d
000001e0: a3fb 873d 1479 bd3c 81f0 39bc b65f 1bbd
000001f0: 9823 a8bc c16c e33c bcff d5bc 7796 893c
00000200: 3286 0fbb 3e47 033b 0ffd ef3b 4434 0dbb
00000210: 5212 e23c 1240 d5bc c791 fe3b 4d1a a838
00000220: 2c64 f0bb 27e0 0fbc 9c97 eabc 241e 1d3c
00000230: 9dff c43b 1d3e 1bbc 5232 96bc 7570 8d3a
00000240: bdac f6bb 3cb9 243d 686c 9b3c 6178 aa3a
00000250: 1840 59bc 2777 b7bc f9c2 c83c be68 1cbc
00000260: 9e45 1bbc 9e75 903c 16f9 323c 3a62 b63b
00000270: ecda 1bbd cd14 8abc 36ad 013c 936f 523c
00000280: 6905 dcbc e19b f9bc abfd 09bd 1974 4cbc
00000290: 32a2 393d 0950 c43a 3130 91bc 8cfa 15bd
000002a0: 7d00 f2bc a598 04bd d0e7 d5bc eeec 07bd
000002b0: 345e c9bc f5e1 9fbc 19df f43a c870 2fbb
000002c0: 3c11 12bc 16cc 893b 913c a33b c4ee 553c
000002d0: 6418 5b3c 1e77 6abc dcbc 313d 8d89 23bd
000002e0: 9442 a4bb a4ae d03c 629e a8bb 4230 2d3d
000002f0: 19f1 af3c f6aa ebbb 99a5 9bbc c786 503c
00000300: f40b af3c 0cd3 803c b2c8 923c 94f2 6bbc
00000310: 3b71 cc3c 69ad c63c 7604 643c 3ee4 b3bc
00000320: 9e54 dbbc 827c 653b 73bb 8e3c dc80 06bd
00000330: 62b3 a13c b4ba 953c ca1c e83c c010 a33b
00000340: 3316 f83c b627 c03c e348 60bc 20d0 433c
00000350: 37e1 31bb 503f 103d 7dcf ca3c 5b04 17bc
00000360: 4804 873c 24e7 cabb 29d4 de3c b89d ccbc
00000370: e42f 41bc fe94 68bb aa4d 4b3c fa54 73bb
00000380: 75c9 34bd 30a1 e43b d3c3 bdbb a400 4ebb
00000390: 52de c7bc 8738 ebbc 21e7 b3bc 0632 9dbc
000003a0: d3a0 333d a83b 8abc 43a3 853c d7e2 943c
000003b0: 7543 023d ad2c c038 0df1 c93c 64be f1bc
000003c0: 0230 2d3d 2a0f da3b 162a 0b3c a443 7fbc
000003d0: 8014 913c 1717 153d 891d 46bc f49c 9b3c
000003e0: 5c59 acbc d73c 153b 2e61 92ba e8e8 203d
000003f0: 2356 06bd 72dc 31bc b99b bb3c 7ed4 d93b

conv3.bias f4 [64]
0.0119522335 -0.020470055 -0.004234565 -0.012319269 -0.030145288 0.031367995 -0.013518456 -0.038906254
-0.011760377 -9.20217e-05 -0.023811676 0.020075165 -0.015182205 -0.0157851 0.026756328 0.016462415
-0.009268802 -0.024196384 0.013379291 -0.034349263 0.029965624 -0.029436855 -0.01363342 -0.023578806
-0.03455756 -0.019811232 -0.017301802 0.020403216 0.011702646 -0.00040254495 0.03380493 0.020431127
0.005119188 0.020892918 0.017141316 0.012300526 -0.0072925035 -0.014631499 0.011146856 -0.015689027
-0.00015658804 -0.00054797623 0.015403576 0.018759858 0.033756524 -0.03664691 0.023434019 0.004187123
0.027883222 0.028217034 -0.0007610089 0.008913826 -0.01692384 0.022164995 -0.010755658 0.024923213
-0.015795931 -0.010315679 0.020411136 -0.013325319 -0.01719981 -0.023505969 -0.0016836334 -0.028179286
00000000: 4dd3 433c d1b0 a7bc 1bc2 8abb c2d6 49bc
00000010: 40f3 f6bc ba7b 003d 847c 5dbc 2a5c 1fbd
00000020: 99ae 40bc c6fb c0b8 b410 c3bc ac74 a43c
00000030: c8be 78bc c14f 81bc 1630 db3c 30dc 863c
00000040: 2cdc 17bc 7f37 c6bc d034 5b3c d0b1 0cbd
00000050: 787a f53c 8f25 f1bc b55e 5fbc 5728 c1bc
00000060: 3a8c 0dbd 2a4b a2bc 82bc 8dbc a524 a73c
00000070: 74bc 3f3c ab0c d3b9 0a77 0a3d 2e5f a73c
00000080: ddbe a73b a027 ab3c f26b 8c3c 2588 493c
00000090: f4f5 eebb f4b8 6fbc 4da1 363c 4686 80bc
000000a0: c831 24b9 10a6 0fba 485f 7c3c 46ae 993c
000000b0: 4844 0a3d 121b 16bd b3f8 bf3c 2234 893b
000000c0: 5b6b e43c 6927 e73c 717e 47ba 4c0b 123c
000000d0: dda3 8abc 5d93 b53c 8038 30bc c42b cc3c
000000e0: 7866 81bc 1803 29bc 4135 a73c 7052 5abc
000000f0: 9ee6 8cbc 978f c0bc 5dad dcba 3fd8 e6bc

bn3.weight f4 [64]
1.0198616 0.97885984 0.9992047 1.0522391 0.98589015 0.98106325 0.9882279 1.0079226
0.99677694 1.0252644 0.96330637 0.950083 0.99786365 0.99621737 1.0102813 1.0267849
1.0079842 1.0633888 1.0459349 0.9884946 1.0299752 1.0138268 0.97272795 1.0142719
1.0071434 0.98716384 1.0002136 1.0005677 1.0092758 0.9896546 1.0310321 1.006403
1.0026829 0.9985429 1.0050877 1.0261956 0.97335863 0.97659457 0.9552132 0.98914176
0.9921485 1.0115812 0.9922617 1.0204237 1.0037243 1.0054891 1.014072 0.99116534
0.95869964 1.0016431 1.0319716 0.9969906 0.9668536 1.0097715 0.9610208 0.9942201
0.9892383 1.0112166 0.999991 0.99519044 0.9836278 1.0010693 1.0015298 0.985538
00000000: d38a 823f 8f96 7a3f e1cb 7f3f c5af 863f
00000010: 4c63 7c3f f626 7b3f 81fc 7c3f 9c03 813f
00000020: c62c 7f3f dd3b 833f 3f9b 763f a438 733f
00000030: fe73 7f3f 1a08 7f3f e650 813f b06d 833f
00000040: a005 813f 201d 883f 32e1 853f fb0d 7d3f
00000050: 3ad6 833f 14c5 813f b304 793f a9d3 813f
00000060: 13ea 803f c5b6 7c3f 0007 803f 9a12 803f
00000070: f32f 813f 015a 7d3f dcf8 833f d0d1 803f
00000080: ea57 803f 82a0 7f3f b7a6 803f 615a 833f
00000090: 082e 793f 1a02 7a3f da88 743f 6538 7d3f
000000a0: 72fd 7d3f 7e7b 813f dd04 7e3f 3e9d 823f
000000b0: 0a7a 803f deb3 803f 1ccd 813f 03bd 7d3f
000000c0: 576d 753f d735 803f a517 843f c73a 7f3f
000000d0: b883 773f 3140 813f 7605 763f 3585 7e3f
000000e0: b93e 7d3f 8c6f 813f 69ff 7f3f cdc4 7e3f
000000f0: 08cf 7b3f 0a23 803f 2132 803f 384c 7c3f

bn3.bias f4 [64]
-0.022542698 0.0019166374 -0.0058773626 -0.006943533 -0.0010756553 0.008513261 -0.0048927213 0.010249223
0.00092137174 0.0011424115 0.0072844704 -0.002607503 0.019010972 0.005795058 -0.0012983306 -0.004039765
0.00063879567 0.009651154 -0.014174827 0.011469195 0.009985986 0.02141033 -0.0047480008 0.0063539166
-0.010085446 0.008096726 0.008244168 0.006965714 0.0010860726 0.00809251 -0.0032050926 -0.013895934
0.0011990584 -0.0064514987 -0.035626642 0.025030995 0.0031505688 0.024242964 0.009536986 0.02927552
0.011980904 0.0030226316 0.019241026 0.018067501 0.00559301 -0.0017123133 0.006868659 0.0040300596
-0.0018675583 0.00845229 0.010761142 0.023651756 0.016909072 0.00066484296 -0.0056426134 -0.018677287
0.03116682 -0.0129797375 -0.004205143 -0.0067908303 0.004925677 0.01006561 0.02176221 0.00078687567
00000000: 77ab b8bc ae37 fb3a e496 c0bb 9486 e3bb
00000010: 01fd 8cba 347b 0b3c 1f53 a0bb 5bec 273c
00000020: 3688 713a f8bc 953a 91b2 ee3b a4e2 2abb
00000030: e6bc 9b3c 78e4 bd3b bf2c aaba 0160 84bb
00000040: da74 273a e01f 1e3c 893d 68bc 4ae9 3b3c
00000050: 439c 233c b764 af3c 1e95 9bbb 8434 d03b
00000060: 6d3d 25bc 21a8 043c 8c12 073c a540 e43b
00000070: 8d5a 8e3a 7296 043c 880c 52bb c6ab 63bc
00000080: b929 9d3a 1867 d3bb 3eed 11bd cd0d cd3c
00000090: c679 4e3b 2e99 c63c 0541 1c3c 37d3 ef3c
000000a0: 8e4b 443c 5817 463b 5b9f 9d3c 4c02 943c
000000b0: 9245 b73b b36f e0ba 7d12 e13b 970e 843b
000000c0: dcc8 f4ba 797b 0a3c 804f 303c 54c1 c13c
000000d0: e584 8a3c db48 2e3a ace5 b8bb 1c01 99bc
000000e0: 8f51 ff3c f7a8 54bc 4ccb 89bb 9d85 debb
000000f0: 9367 a13b 3aea 243c aa46 b23c 5546 4e3a

bn3.running_mean f4 [64]
0.7538498 1.1089267 0.28339487 0.28014517 0.32385388 0.63308924 6e-45 0.47284886
0.21003234 0.5117264 0.14315426 0.10399771 0.395744 0.54052633 0.29559684 1.1035818
0.5008446 0.37394544 0.14502187 0.4115012 0.24498397 0.38353652 0.08736657 0.31160194
0.36015296 0.43013373 0.71626776 0.3591137 0.75143486 0.48759207 0.32926422 0.079012245
0.15220904 0.83181804 0.15674151 0.2119032 0.36382744 0.2900284 0.4942943 1.0119419
0.27681312 0.79889655 0.65679115 0.566618 0.36061808 0.40545002 0.5107313 0.6981755
0.5143608 0.22078228 0.2810053 0.3047425 0.58387923 0.5156533 0.6150317 0.53095305
0.1902949 0.21172084 0.38334978 0.2025165 0.38330796 0.1740919 0.23637521 0.52487415
00000000: 4dfc 403f 4ff1 8d3f 2219 913e 306f 8f3e
00000010: 2dd0 a53e 2312 223f 0400 0000 3f19 f23e
00000020: b812 573e 8000 033f 0897 123e c0fc d43d
00000030: f59e ca3e ef5f 0a3f 7858 973e 2b42 8d3f
00000040: 5a37 003f c775 bf3e 9d80 143e 49b0 d23e
00000050: 14dd 7a3e e65e c43e 3fed b23d 4a8a 9f3e
00000060: f865 b83e 7d3a dc3e 535d 373f c0dd b73e
00000070: 095e 403f aba5 f93e 5295 a83e 2cd1 a13d
00000080: b0dc 1b3e 07f2 543f d980 203e 27fd 583e
00000090: 9747 ba3e 9a7e 943e 2414 fd3e 5087 813f
000000a0: 73ba 8d3e 7c84 4c3f 7723 283f e10d 113f
000000b0: efa2 b83e 2597 cf3e 49bf 023f a1bb 323f
000000c0: 26ad 033f c014 623e eddf 8f3e 3507 9c3e
000000d0: 1c79 153f db01 043f b872 1d3f 8aec 073f
000000e0: abdc 423e 59cd 583e 6c46 c43e 7c60 4f3e
000000f0: f140 c43e 2645 323e 580c 723e 275e 063f

bn3.running_var f4 [64]
0.6138124 0.98187834 0.24352045 0.39843485 0.31894028 0.47333387 6e-45 0.39974812
0.234067 0.4469193 0.12995648 0.091570474 0.4464916 0.5199957 0.26629853 0.6926052
0.41868395 0.5013572 0.17531869 0.37792757 0.23116209 0.38050252 0.0781737 0.2926104
0.23672064 0.39683372 0.59743893 0.2760667 0.645601 0.5907508 0.3201325 0.053233594
0.20062564 0.6341695 0.21334413 0.2241308 0.27525184 0.35916436 0.40526918 0.9931245
0.23608433 0.6751695 0.49557972 0.4791508 0.37717643 0.3975878 0.4890442 0.5777367
0.47490764 0.25600642 0.27370507 0.39170966 0.4228957 0.38191214 0.63024706 0.47071227
0.18008423 0.14515845 0.35791937 0.14843118 0.4040249 0.18405858 0.27465743 0.33755064
00000000: cf22 1d3f 615c 7b3f 6d5d 793e a7ff cb3e
00000010: 244c a33e d158 f23e 0400 0000 c9ab cc3e
00000020: 42af 6f3e 9bd2 e43e 5013 053e 4d89 bb3d
00000030: 8c9a e43e 701e 053f 4858 883e 934e 313f
00000040: be5d d63e f258 003f be86 333e b97f c13e
00000050: c1b5 6c3e 3ad1 c23e 8819 a03d 08d1 953e
00000060: e566 723e ca2d cb3e c2f1 183f 9d58 8d3e
00000070: 1b46 253f 723b 173f 68e8 a33e 780b 5a3d
00000080: cf70 4d3e ef58 223f e276 5a3e 8b82 653e
00000090: cfed 8c3e 64e4 b73e 717f cf3e 683d 7e3f
000000a0: 17c0 713e e9d7 2c3f a0bc fd3e 4153 f53e
000000b0: 451d c13e a190 cb3e 0064 fa3e 8de6 133f
000000c0: 1827 f33e 4613 833e 1223 8c3e 2b8e c83e
000000d0: c985 d83e fd89 c33e df57 213f 3301 f13e
000000e0: 0068 383e 6ba4 143e 3541 b73e 58fe 173e
000000f0: 5adc ce3e da79 3c3e e69f 8c3e 70d3 ac3e

fc1.weight f4 [256, 64]
0.020714387 0.07518213 -0.08941299 -0.04245117 -0.12090239 -0.043652833 -0.105553955 -0.07335633
-0.0013331536 -0.018186538 -0.10011968 -0.06629573 -0.025243755 0.048358895 -0.12991995 0.018444717
-0.025468212 0.0667799 -0.10486137 0.07058657 -0.016150458 -0.05162687 -0.11478523 0.07071209
-0.061966296 -0.012985299 -0.022447875 -0.055290926 -0.045376778 -0.09521673 -0.01572505 -0.0868954
-0.02143093 -0.048311785 0.1343431 -0.014852372 0.072533205 -0.095841795 -0.10210191 0.04442925
-0.05053977 0.0874446 -0.076891266 -0.099176034 -0.051757194 -0.08330121 0.038857564 -0.021525463
-0.0022649455 -0.13195626 -0.10877101 0.08363295 0.06025247 -0.04515403 -0.06076492 -0.05115722
-0.07714185 -0.060073137 -0.0010590986 -0.05267947 -0.039308127 0.041097715 0.08414056 -0.013819657
0.021415517 -0.008935774 0.020837516 0.06506337 0.0073274686 0.08047342 0.011048627 -0.061437875
0.049115323 0.07144707 -0.025205133 0.03467134 -0.00037813146 0.06898586 -0.01905094 -0.07589046
-0.11749736 -0.15057349 0.058123462 0.01972855 -0.055403102 0.01055843 -0.052041054 0.13752139
0.008227882 -0.038283084 0.09985164 -0.0359483 -0.06336409 0.09395346 0.045092452 -0.07451309
-0.02852884 0.02692937 0.081838384 -0.07322136 -0.09573298 0.08376308 0.1044159 -0.0864346
-0.011665083 0.03522487 -0.10381468 -0.028517125 -0.09919687 0.1174541 0.06006396 0.03039348
-0.038511723 -0.095774904 0.053395644 -0.081245646 -0.080528736 0.0923848 -0.09809453 -0.07371242
-0.044252824 -0.08714815 0.101998456 0.00969542 -0.0006106609 -0.07378509 -0.0014729063 -0.036042262
-0.09921114 0.115268916 0.059390433 -0.0021613615 -0.019743737 0.086575 0.06470486 -0.013156626
-0.008038259 0.059020024 -0.042819284 0.0036692342 -0.08078225 0.06264923 -0.09976827 0.06864064
-0.08855275 -0.111661166 -0.08222805 0.070555866 0.037511803 -0.024461936 -0.057965245 0.109724015
0.033206657 -0.1036571 0.077446 -0.016623925 0.06316144 0.026133034 -0.07617466 -0.0071329796
0.09169048 -0.029025106 -0.016793689 0.037918027 0.07226215 0.09921822 -0.07765401 0.07701084
-0.10652724 -0.061941348 -0.02239379 -0.049551263 0.12925021 0.1280281 0.018644 -0.083086126
-0.08592899 0.019958444 -0.009757311 -0.014995505 -0.021396752 0.0688903 0.022206603 0.015551411
0.055500526 0.06872067 0.13387808 0.0519995 0.08636446 -0.10022268 0.030872047 0.031163692
0.014803586 0.04118384 0.014106652 -0.121516176 -0.050839122 0.13328572 0.09936467 -0.1147534
-0.106861554 0.05282495 -0.029315658 -0.052851137 0.11315433 -0.06041963 -0.006492936 0.070987135
-0.097591564 -0.033380266 0.108194955 -0.008256865 0.07071822 -0.08582127 0.103403375 -0.060890567
-0.12292363 -0.0762823 0.08154864 -0.030108988 -0.07827938 0.0030511483 0.05892397 0.00780971
0.13958563 -0.017353183 0.08649476 0.07356804 -0.010781859 -0.06482258 -0.020738766 -0.05963864
-0.04306963 0.04283989 0.053582117 0.016780052 -0.13711986 -0.05010468 -0.010296292 -0.06144507
0.08606763 0.08219947 -0.10533103 0.046646215 -0.08786824 0.018909834 -0.041722186 0.03822881
-0.016381953 0.054541014 0.09820147 -0.028600859 0.04025294 0.10187696 0.002362127 -0.0328307
00000000: 38b1 a93c 17f9 993d 281e b7bd 47e1 2dbd
00000010: ac9b f7bd 50cd 32bd ac2c d8bd d83b 96bd
00000020: 36bd aeba effb 94bc 8c0b cdbd 0ec6 87bd
00000030: fecb cebc fa13 463d bc09 05be 6019 973c
00000040: b6a2 d0bc e6c3 883d 8fc1 d6bd b18f 903d
00000050: f74d 84bc b276 53bd 8514 ebbd 80d1 903d
00000060: 5fd0 7dbd 4bc0 54bc 9be4 b7bc bd78 62bd
00000070: 00dd 39bd fd00 c3bd d2d1 80bc 37f6 b1bd
00000080: eb8f afbc 94e2 45bd 3d91 093e 5d57 73bc
00000090: 4a8c 943d b448 c4bd ce1a d1bd 72fb 353d
000000a0: ca02 4fbd 2816 b33d 2b79 9dbd ce1c cbbd
000000b0: 5aff 53bd d399 aabd 1c29 1f3d 2b56 b0bc
000000c0: 7b6f 14bb 8b1f 07be 56c3 debd c147 ab3d
000000d0: 4bcb 763d 6ff3 38bd a3e4 78bd 3c8a 51bd
000000e0: 8cfc 9dbd 400f 76bd 74d1 8aba 6ec6 57bd
000000f0: 8f01 21bd 1456 283d e351 ac3d d86b 62bc
00000100: 986f af3c 5a67 12bc 70b3 aa3c f23f 853d
00000110: 431b f03b 40cf a43d 4d05 353c 48a6 7bbd
00000120: 262d 493d d752 923d ff7a cebc 8903 0e3d
00000130: f23f c6b9 7548 8d3d b810 9cbc 756c 9bbd
00000140: 75a2 f0bd f02f 1abe de12 6e3d c59d a13c
00000150: 5dee 62bd 44fd 2c3c 0029 55bd 68d2 0c3e
00000160: 3dce 063c b9ce 1cbd 047f cc3d 863e 13bd
00000170: 08c5 81bd ac6a c03d ddb2 383d 529a 98bd
00000180: 50b5 e9bc fb9a dc3c e29a a73d 15f5 95bd
00000190: a70f c4bd fa8b ab3d 01d8 d53d a004 b1bd
000001a0: e71e 3fbc f447 103d ca9c d4bd bf9c e9bc
000001b0: bb27 cbbd c68b f03d a005 763d bffb f83c
000001c0: 78be 1dbd a225 c4bd 64b5 5a3d 1e64 a6bd
000001d0: 40ec a4bd 3e34 bd3d c9e5 c8bd 8af6 96bd
000001e0: 7342 35bd bb7a b2bd 91e4 d03d 8ad9 1e3c
000001f0: c214 20ba a31c 97bd 890e c1ba 0da1 13bd
00000200: 362f cbbd 1c12 ec3d 6243 733d a1a5 0dbb
00000210: 9ebd a1bc 3c4e b13d fb83 843d e48e 57bc
00000220: e7b2 03bc fbbe 713d 4663 2fbd 8977 703b
00000230: 2a71 a5bd 3d4e 803d 4f53 ccbd 7793 8c3d
00000240: 255b b5bd 9cae e4bd 2e67 a8bd 987f 903d
00000250: faa5 193d 6664 c8bc f76c 6dbd fcb6 e03d
00000260: b403 083d 2c4a d4bd 029c 9e3d e62e 88bc
00000270: c95a 813d f214 d63c 7601 9cbd c5bb e9bb
00000280: 38c8 bb3d 0fc6 edbc eb92 89bc ef4f 1b3d
00000290: 2efe 933d ec32 cb3d 1109 9fbd dcb7 9d3d
000002a0: f42a dabd 36b6 7dbd 2e73 b7bc 44f6 4abd
000002b0: 2b5a 043e cc19 033e 4dbb 983c 0f29 aabd
000002c0: 8afb afbd e47f a33c 21dd 1fbc b5af 75bc
000002d0: 3e48 afbc 5c16 8d3d 9fea b53c 58cb 7e3c
000002e0: 8554 633d 6cbd 8c3d 5617 093e 6dfd 543d
000002f0: dadf b03d 8c41 cdbd 60e7 fc3c 004b ff3c
00000300: bd8a 723c 63b0 283d 961f 673c 79dd f8bd
00000310: af3c 50bd 0d7c 083e b47f cb3d d503 ebbd
00000320: 3bda dabd fa5e 583d 6427 f0bc 6f7a 58bd
00000330: 75bd e73d 937a 77bd b2c2 d4bb b461 913d
00000340: 16de c7bd bfb9 08bd 5195 dd3d cd47 07bc
00000350: b7d4 903d 10c3 afbd 26c5 d33d 6368 79bd
00000360: 62bf fbbd e539 9cbd f902 a73d 20a7 f6bc
00000370: f150 a0bd c6f5 473b 435a 713d 99e8 ff3b
00000380: 89ef 0e3e 4328 8ebc 2a24 b13d d7aa 963d
00000390: 65a6 30bc b3c1 84bd 58e4 a9bc a647 74bd
000003a0: c869 30bd e178 2f3d ec78 5b3d 5276 893c
000003b0: 2669 0cbe 913a 4dbd c7b1 28bc d3ad 7bbd
000003c0: 3a44 b03d 3258 a83d ccb7 d7bd 1a10 3f3d
000003d0: 44f4 b3bd cce8 9a3c e2e4 2abd d095 1c3d
000003e0: 7233 86bc 6666 5f3d da1d c93d 594c eabc
000003f0: 44e0 243d dea4 d03d eacd 1a3b 7c79 06bd

fc1.bias f4 [256]
0.105319716 0.054384384 0.11725116 0.039162368 -0.122619025 -0.09636143 -0.0834898 -0.0035520834
0.08955413 -0.09247178 -0.037121747 0.116077304 0.08018162 -0.024812834 -0.0706171 -0.038204446
0.011028474 -0.072069325 -0.04978227 0.052531276 0.00075840263 -0.06481339 0.026652329 -0.063415244
-0.040124048 0.03365921 0.034938626 -0.036326934 0.034847263 -0.0853859 0.04609782 -0.061650157
-0.11009937 0.065012164 -0.010278085 0.03982763 -0.013921378 -0.013686785 0.100184344 -0.032643158
0.016478848 0.10544385 0.12377243 0.051360026 -0.04548109 -0.00066057034 0.11856637 -0.10045048
0.07946235 0.12406591 0.06481999 0.09899398 -0.022545649 0.028356502 0.07683294 0.056831036
0.025342558 -0.03911593 0.021295678 0.07562087 0.12799871 -0.0064200745 -0.096851446 -0.04621018
0.049554948 -0.077692516 0.08703705 -0.018507887 0.07574003 -0.11340333 -0.087828405 0.084787436
0.049373355 0.06300523 0.03066227 0.13324755 -0.006645893 -0.099828295 0.07510855 0.03334161
-0.105450176 0.029324176 -0.09487662 0.018462565 0.11107657 0.04650469 0.05732662 0.062059335
-0.05578219 -0.07251894 0.089921914 -0.023066765 -0.025997156 0.018989824 -0.08370064 0.11695894
0.042177025 0.07138265 0.01594481 0.07916204 -0.059429757 -0.11296227 0.040722568 0.108721584
0.04672492 0.08634821 0.035419416 0.078193076 0.11755868 0.012419175 -0.09094625 -0.030871775
-0.09411217 -0.084510654 0.036090057 0.022197638 -0.06909642 -0.06904211 -0.063408844 -0.084250204
-0.06334779 -0.068168536 -0.09297299 0.100082815 -0.0257924 0.055042136 -0.01808403 0.09613898
-0.056669947 -0.091082454 0.105441436 -0.01981132 -0.036677107 0.051069524 -0.061694667 -0.0066625956
-0.045525137 0.09576377 -0.09973117 0.09937501 -0.09339025 -0.10661329 0.08870854 0.056846984
0.0037247562 0.08237045 -0.114592545 -0.048882805 0.05409888 0.111832306 -0.115867816 -5.601734e-05
0.12954071 0.016188916 -0.110489585 -0.025230378 -0.0944383 -0.050792996 0.040486798 0.061320182
-0.09204887 0.0642824 0.11019567 0.057242513 0.12079011 0.044935197 -0.029581789 0.032948494
-0.014414562 -0.006258058 0.045584448 0.09097631 -0.04092179 -0.024539977 0.027803425 0.025658516
-0.009966984 0.019149844 0.0042304723 -0.004338606 0.010411016 0.046215653 0.054580893 -0.0015769141
-0.048960015 -0.08391806 0.06931568 -0.09416793 0.025035154 0.042369746 -0.059798177 -0.0657923
0.10805618 -0.0069476413 -0.028994378 0.046244964 -0.105213575 -0.10300619 -0.07931343 0.07342286
0.048043374 0.03740003 -0.053887762 -0.060464084 0.07623603 -0.062802814 -0.06475022 0.015326102
-0.07945108 -0.018425623 -0.023579128 -0.023395969 -0.0023354776 -0.036548585 -0.103953 -0.10282296
-0.08799493 -0.065092765 -0.068073615 0.071273535 0.0005501619 0.07969648 -0.006087363 -0.0725389
0.048413392 0.053501617 -0.057599768 -0.0142503455 0.032507077 -0.039263964 0.12448882 -0.020843625
0.07919962 0.051873103 0.06151153 -0.040022537 0.0052485717 -0.102953486 0.0336378 -0.032833554
-0.061902456 -0.09798361 -0.05259781 0.05871258 -0.090289146 0.0072229533 -0.01864737 0.00094189116
0.10959099 -0.046379387 -0.009682723 -0.03136677 -0.06787621 -0.103275806 -0.08984824 -0.0739644
00000000: ddb1 d73d 29c2 5e3d 6021 f03d b868 203d
00000010: af1f fbbd 2459 c5bd b3fc aabd 12ca 68bb
00000020: 2868 b73d d861 bdbd f90c 18bd f0b9 ed3d
00000030: 4336 a43d 4944 cbbc b39f 90bd 447c 1cbd
00000040: c6b0 343c 1599 93bd 7ee8 4bbd 092b 573d
00000050: 8acf 463a e2bc 84bd fc55 da3c dadf 81bd
00000060: 1d59 24bd 3dde 093d ce1b 0f3d 8dcb 14bd
00000070: 01bc 0e3d cede aebd 11d1 3c3d e084 7cbd
00000080: c77b e1bd 1925 853d 6a65 28bc 4c22 233d
00000090: 7e16 64bc 893e 60bc 732d cd3d d5b4 05bd
000000a0: a6fe 863c f2f2 d73d 667c fd3d e45e 523d
000000b0: 614a 3abd 202a 2dba edd2 f23d fbb8 cdbd
000000c0: 28bd a23d 4516 fe3d 58c0 843d 5bbd ca3d
000000d0: a7b1 b8bc e54b e83c 975a 9d3d a9c7 683d
000000e0: 329b cf3c 0738 20bd 4674 ae3c 1ddf 9a3d
000000f0: 1812 033e 7d5f d2bb 0d5a c6bd e346 3dbd
00000100: 21fa 4a3d 411d 9fbd 7b40 b23d da9d 97bc
00000110: 971d 9b3d 0140 e8bd 61df b3bd 09a5 ad3d
00000120: b73b 4a3d e308 813d 712f fb3c 0c72 083e
00000130: cbc5 d9bb c772 ccbd 83d2 993d 3691 083d
00000140: 43f6 d7bd 4139 f03c ac4e c2bd ce3e 973c
00000150: 1d7c e33d b47b 3e3d 51cf 6a3d ee31 7e3d
00000160: de7b 64bd cf84 94bd fb28 b83d 83f6 bcbc
00000170: fdf7 d4bc 8c90 9b3c 3e6b abbd 2b88 ef3d
00000180: d1c1 2c3d 1131 923d b19e 823c b51f a23d
00000190: 9e6c 73bd c358 e7bd b5cc 263d 6ca9 de3d
000001a0: a162 3f3d 55d7 b03d f313 113d b123 a03d
000001b0: 9bc2 f03d cc79 4b3c 0742 babd cee6 fcbc
000001c0: e2bd c0bd ec13 adbd 2bd3 133d d2d7 b53c
000001d0: 6d82 8dbd f365 8dbd 7fdc 81bd 5f8b acbd
000001e0: 7cbc 81bd f29b 8bbd 9f68 bebd 38f8 cc3d
000001f0: 954a d3bc dd73 613d f624 94bc 83e4 c43d
00000200: bf1e 68bd 7089 babd aef1 d73d 594b a2bc
00000210: bc3a 16bd 472e 513d 8cb3 7cbd e751 dabb
00000220: 9178 3abd cc1f c43d db3f ccbd 2085 cb3d
00000230: 6343 bfbd 1258 dabd d3ac b53d 62d8 683d
00000240: 0a1b 743b d7b1 a83d 7faf eabd 5639 48bd
00000250: ca96 5d3d 5608 e53d 1b4c edbd 29f4 6ab8
00000260: 52a6 043e 9e9e 843c 5d48 e2bd f0af cebc
00000270: de68 c1bd 510c 50bd 7cd5 253d df2a 7b3d
00000280: 1e84 bcbd 7ea6 833d 44ae e13d 2077 6a3d
00000290: ce60 f73d f80d 383d 8255 f2bc 00f5 063d
000002a0: 0e2b 6cbc 6510 cdbb c2b6 3a3d ca51 ba3d
000002b0: 9b9d 27bd 1008 c9bc 02c4 e33c cf31 d23c
000002c0: 904c 23bc 22e0 9c3c c69f 8a3b dd2a 8ebb
000002d0: f792 2a3c a04c 3d3d 3790 5f3d 75b0 ceba
000002e0: 4c8a 48bd 3bdd abbd 61f5 8d3d 1edb c0bd
000002f0: 8616 cd3c e68b 2d3d efee 74bd 1dbe 86bd
00000300: 8f4c dd3d 0aa9 e3bb 9e85 edbc 5c6b 3d3d
00000310: 377a d7bd e9f4 d2bd 146f a2bd b95e 963d
00000320: 21c9 443d c630 193d 6ab9 5cbd 30a9 77bd
00000330: a321 9c3d c39e 80bd c39b 84bd 551a 7b3c
00000340: 3fb7 a2bd 55f1 96bc 0429 c1bc e7a8 bfbc
00000350: d00e 19bb f8b3 15bd 4fe5 d4bd d894 d2bd
00000360: b036 b4bd 5b4f 85bd 2e6a 8bbd dcf7 913d
00000370: bd38 103a e837 a33d 8178 c7bb 468f 94bd
00000380: 1f4d 463d 8324 5b3d bced 6bbd 487a 69bc
00000390: 2426 053d 40d3 20bd fff3 fe3d 40c0 aabc
000003a0: 6933 a23d e478 543d 84f3 7b3d acee 23bd
000003b0: 36fc ab3b 47d9 d2bd cac7 093d 7a7c 06bd
000003c0: 6e8d 7dbd a2ab c8bd cd70 57bd 9a7c 703d
000003d0: 84e9 b8bd 86ae ec3b 5fc2 98bc 3fe9 763a
000003e0: 3e71 e03d 50f8 3dbd 49a4 1ebc 717a 00bd
000003f0: af02 8bbd 4482 d3bd 5b02 b8bd a67a 97bd

bn4.weight f4 [256]
1.0299739 1.055129 1.0453259 1.0316405 1.0366576 1.0363059 1.0234196 1.023987
1.044265 1.0309796 1.043164 1.0245308 1.0181533 1.0298415 1.039777 1.017772
1.0341501 1.0221281 1.0125221 1.0403502 1.0494071 1.0271401 1.0412244 1.0399227
1.045855 1.0472518 1.0151653 1.0327241 1.0401022 1.0294065 1.0289298 1.0297614
1.0507953 1.0418255 1.0495415 1.0343746 1.0126467 1.0247475 1.0165544 1.0484061
1.0293174 1.0295628 1.0402328 1.0256128 1.0418961 1.0404081 1.0170724 1.0361139
1.0561491 1.0484275 1.0191275 1.0391039 1.018091 1.0417755 1.0258375 1.0143205
1.0533375 1.0126038 1.0412354 1.0465142 1.0352678 1.0284009 1.0440977 1.026411
1.0319765 1.0452392 1.0508152 1.0264692 1.0425653 1.0243056 1.0512539 1.037197
1.0356863 1.0401016 1.0262171 1.0476553 1.0182626 1.0356241 1.0377458 1.0365654
1.0294087 1.0393375 1.0191892 1.0363572 1.0191764 1.0400407 1.0387698 1.0280493
1.0543032 1.0402296 1.0193586 1.023494 1.0274073 1.0505674 1.0507993 1.0197883
1.0602129 1.0454472 1.0251449 1.0241882 1.0281789 1.0455319 1.0396783 1.0595402
1.0323954 1.0298641 1.0195115 1.0367126 1.0218025 1.048064 1.0193062 1.0430207
1.0249411 1.0221987 1.0317647 1.0403341 1.0484697 1.051023 1.0124854 1.0387691
1.0228715 1.0268253 1.0470427 1.0331335 1.0244514 1.0195735 1.0282744 1.0303617
1.0314606 1.023697 1.0392444 1.0505196 1.0383226 1.0242956 1.0346555 1.0151743
1.0584205 1.0423367 1.0285484 1.0269469 1.0371809 1.028476 1.0336595 1.0296352
1.0091147 1.0388217 1.0078416 1.0275056 1.0416033 1.0289127 1.038367 1.0395803
1.034273 1.0381947 1.0383905 1.0434434 1.0314937 1.0319837 1.017137 1.0303947
1.0318277 1.0414147 1.0585091 1.0116762 1.0340828 1.0428015 1.0237169 1.0287356
1.0404273 1.0402899 1.0292149 1.0245371 1.0251639 1.0330193 1.0356771 1.0437787
1.0414588 1.0405338 1.0387881 1.0468774 1.033981 1.0241642 1.0211323 1.0315707
1.035896 1.0237633 1.0327927 1.0291234 1.0148792 1.0260055 1.0367498 1.0284379
1.0471275 1.0340337 1.018695 1.0248575 1.0246607 1.0525396 1.0368447 1.0426211
1.0405524 1.0379847 1.0310246 1.0252919 1.0442744 1.0189008 1.0324937 1.0218998
1.025595 1.0286226 1.0369871 1.0251291 1.0047491 1.0443232 1.0506364 1.0305077
1.0520569 1.0302446 1.0216261 1.0420977 1.0174674 1.0588523 1.0354073 1.0595535
1.0248913 1.05822 1.0322938 1.0202248 1.0278802 1.0488688 1.0385011 1.0344921
1.0161475 1.0324838 1.0383797 1.0636915 1.0424412 1.0208193 1.0290786 1.0340065
1.0444696 1.0340992 1.0261258 1.0102183 1.0683684 1.019535 1.0263549 1.0418968
1.040855 1.0247533 1.0344231 1.0160531 1.0354866 1.0334044 1.0351157 1.0502586
00000000: 2fd6 833f 780e 873f 3dcd 853f cc0c 843f
00000010: 32b1 843f aca5 843f 6aff 823f 0212 833f
00000020: 7aaa 853f 24f7 833f 6686 853f d323 833f
00000030: d952 823f d9d1 833f 6a17 853f 5a46 823f
00000040: 085f 843f 18d5 823f 539a 813f 322a 853f
00000050: f952 863f 5479 833f d746 853f 301c 853f
00000060: 94de 853f 590c 863f f0f0 813f 4e30 843f
00000070: 1222 853f 98c3 833f f9b3 833f 39cf 833f
00000080: 7680 863f 8a5a 853f 6057 863f 6366 843f
00000090: 689e 813f ed2a 833f 741e 823f 2c32 863f
000000a0: acc0 833f b7c8 833f 5926 853f 4847 833f
000000b0: da5c 853f 182c 853f 6e2f 823f 619f 843f
000000c0: e52f 873f df32 863f c572 823f 5b01 853f
000000d0: ce50 823f e658 853f a54e 833f 41d5 813f
000000e0: c3d3 863f 009d 813f 3447 853f 2df4 853f
000000f0: a883 843f a4a2 833f fea4 853f 7061 833f
00000100: ce17 843f 66ca 853f 1d81 863f 5863 833f
00000110: c872 853f 721c 833f 7d8f 863f dfc2 843f
00000120: 5e91 843f 0d22 853f 155b 833f 9219 863f
00000130: 6e56 823f 558f 843f dbd4 843f 2dae 843f
00000140: aac3 833f 0309 853f cb74 823f 5aa7 843f
00000150: 5f74 823f 0e20 853f 69f6 843f 1f97 833f
00000160: 68f3 863f 3e26 853f 587a 823f da01 833f
00000170: 1582 833f fe78 863f 9780 863f 6c88 823f
00000180: 0eb5 873f 37d1 853f f337 833f 9918 833f
00000190: 5e9b 833f fdd3 853f 2e14 853f 039f 873f
000001a0: 8825 843f 96d2 833f 5a7f 823f 00b3 843f
000001b0: 6dca 823f f626 863f a078 823f b481 853f
000001c0: 4531 833f 68d7 823f de10 843f ab29 853f
000001d0: 4134 863f ec87 863f 1f99 813f 63f6 843f
000001e0: 74ed 823f 036f 833f 7f05 863f b83d 843f
000001f0: 3921 833f 6281 823f 7f9e 833f e4e2 833f
00000200: e706 843f 8108 833f f605 853f 6d77 863f
00000210: c1e7 843f 1e1c 833f 976f 843f 3bf1 813f
00000220: 537a 873f 4a6b 853f 79a7 833f ff72 833f
00000230: 58c2 843f 1aa5 833f f44e 843f 16cb 833f
00000240: ac2a 813f 1cf8 843f f400 813f 4e85 833f
00000250: 4253 853f 69b3 833f 36e9 843f f810 853f
00000260: 0f63 843f 90e3 843f fbe9 843f 8e8f 853f
00000270: fc07 843f 0b18 843f 8c31 823f f9e3 833f
00000280: ee12 843f 144d 853f 3a7d 873f 9b7e 813f
00000290: d35c 843f 857a 853f 2809 833f 9cad 833f
000002a0: b92c 853f 3828 853f 50bd 833f 0824 833f
000002b0: 9238 833f fa39 843f 1191 843f 8a9a 853f
000002c0: 864e 853f 3630 853f 02f7 843f 1400 863f
000002d0: 7d59 843f d017 833f 77b4 823f 820a 843f
000002e0: 3d98 843f ad0a 833f 8d32 843f 51ba 833f
000002f0: 90e7 813f 2654 833f 38b4 843f daa3 833f
00000300: 4608 863f 375b 843f 9964 823f 882e 833f
00000310: 1528 833f 9eb9 863f 54b7 843f 9c74 853f
00000320: d230 853f afdc 843f 9df8 833f c43c 833f
00000330: c9aa 853f 576b 823f c128 843f 9dcd 823f
00000340: b246 833f e8a9 833f febb 843f 6e37 833f
00000350: 9e9b 803f 62ac 853f 417b 863f ade7 833f
00000360: cda9 863f 0edf 833f a5c4 823f 7563 853f
00000370: 5f3c 823f 7988 873f 3a88 843f 739f 873f
00000380: a32f 833f c173 873f 3422 843f ba96 823f
00000390: 9491 833f 5541 863f 9bed 843f 3d6a 843f
000003a0: 1f11 823f 6e28 843f a0e9 843f 0b27 883f
000003b0: b76e 853f 35aa 823f d9b8 833f 535a 843f
000003c0: 2eb1 853f 5d5d 843f 1758 833f d54e 813f
000003d0: 4cc0 883f 1f80 823f 995f 833f e05c 853f
000003e0: bd3a 853f 1e2b 833f fa67 843f 070e 823f
000003f0: d38a 843f 9846 843f ac7e 843f e06e 863f
