mini_batch_exp/models/mnist_sgd_batch512_lr0.1.pt (torch_old, 326372 bytes, 26 tensors)

conv1.weight f4 [16, 1, 3, 3]
00000000: d927 46bc dfa1 123d 58dc 083e 075c 87be
00000010: e2fe 973e c7b7 9e3d 52c5 04bd 97ae 5e3e
00000020: b328 34bd fbf2 11be 196a a13e bec2 9b3e
00000030: 157e be3d 3124 31bc f3b5 a03d aabb a1bc
00000040: 6a01 aabd 6616 23be b08c f53d 2449 0c3d
00000050: 3a53 3cbe 1696 f4bd df76 8d3a c088 373e
00000060: bab5 7abd a28c 57be 198a 9f3e 06e2 9fbd
00000070: 858b 093e 218a 50be 7ece 02bd 2ccf 3d3e
00000080: 9abb 2f3d 9ba7 973e dd1e a13d 66e1 923e
00000090: 875e 61be 6c1c 413d 6347 c9be 2cd5 b6bd
000000a0: 5e42 9dbe 66bc 433e 73ec 84bc b599 03be
000000b0: 6dee 8f3e 9285 063e 793c 8cbd 262c 73be
000000c0: 7237 883e 9836 a83d bc5d a4be 554a 86bd
000000d0: 7574 7b3e dc9d 883e 417f 9dbe 0152 dfbd
000000e0: 8c86 b03e 0da6 85be 6a6e 073d 36f5 6cbe
000000f0: 6065 14be 27a2 94be ce83 89bd 8ca2 d5bd
00000100: e211 f8bd e50f a7be 9c68 413e 1adf 7abe
00000110: a47e 003e 407d 893d 8d97 99be 4eeb 60be
00000120: 9a94 c1bd 0065 58be a748 88be 5471 7abd
00000130: 689e 873d 8461 febc c972 1a3d a42d 553e
00000140: d805 e83d 5b3e c7bb 24c2 9a3c 4830 16be
00000150: de69 173d 5907 4abe fe0c 693d 4564 c23e
00000160: c16c 4cbe ef3e 433d 07fe a73e d8cb a1be
00000170: 8377 a6bc fa6a 59be 8985 a83e bdf4 683e
00000180: a35a 093d c828 103e 892c 69be 6628 c63d
00000190: 0bdc 3ebe d996 993e 8747 d93d 846d 0d3d
000001a0: 612d f9bd 1e97 d03c d52d 863d e111 a1be
000001b0: 955e 903e 5eb7 c7bd ce84 acbe b075 603e
000001c0: 4d1a 58bd 9471 5cbe 51fa 28be 8114 99be
000001d0: 110e dcbd a6cb 10be 9186 a43d 0a09 663e
000001e0: 8bf5 ea3d 0458 73bd 0145 093e b8dd 543e
000001f0: 0533 823d 69ed 1d3e 6449 65be 0ad3 8abd
00000200: 3ab9 1f3c 9bb7 92bd 3192 30be d82e 21be
00000210: db3f 823e ffbe 5a3c 2595 8dbe bbc3 8fbe
00000220: 2a9d 79be 8051 893c 27cc 813e 5e7e 163e
00000230: 6976 fabc c52d 443d 95f3 5e3d 1e91 3fbd
-0.012094461 0.035798904 0.13365304 -0.264374 0.29686648 0.077498965 -0.03241474 0.21746288
-0.043984126 -0.14252846 0.3152626 0.30422014 0.09301392 -0.010811851 0.07847204 -0.019742806
-0.08301051 -0.15926513 0.11989725 0.03424944 -0.18391123 -0.11942689 0.0010792873 0.1792326
-0.061208464 -0.21049741 0.31160048 -0.078067824 0.13432129 -0.20365192 -0.031935208 0.18536061
0.04290352 0.2962006 0.07867215 0.2868759 -0.22008716 0.047146246 -0.39312276 -0.08927378
-0.30714697 0.19114837 -0.016226029 -0.12851603 0.28111592 0.1313689 -0.06847472 -0.2374731
0.266048 0.08213538 -0.32102764 -0.065571465 0.24556144 0.26682937 -0.3076115 -0.10904313
0.3447765 -0.2610325 0.033064283 -0.23140416 -0.14491796 -0.29029962 -0.06714593 -0.10431394
-0.12112786 -0.32629314 0.18887562 -0.24499169 0.1254831 0.06713343 -0.29998437 -0.21964762
-0.094521716 -0.21132278 -0.2661793 -0.061143234 0.066220105 -0.031052358 0.037707124 0.20818192
0.113292396 -0.0060804314 0.018891402 -0.14666855 0.036966197 -0.19729365 0.056897156 0.37967125
-0.19963361 0.04766744 0.32810995 -0.31600833 -0.02032066 -0.21232215 0.3291438 0.2274961
0.033533704 0.14078057 -0.22770895 0.09675674 -0.18638627 0.299979 0.10609346 0.03452827
-0.121668585 0.025462683 0.065517105 -0.31458953 0.2819716 -0.097517714 -0.33695072 0.21919894
-0.052759457 -0.21527702 -0.16501738 -0.29898456 -0.107448705 -0.14140186 0.08033479 0.22464386
0.11472615 -0.05941011 0.13405229 0.20787704 0.063573875 0.15422596 -0.22391278 -0.06778534
0.009748751 -0.07163926 -0.17243268 -0.15740526 0.25439343 0.013351201 -0.2765285 -0.28079018
-0.2437636 0.016762495 0.25351068 0.14696643 -0.03057404 0.04789521 0.054431517 -0.046769254

conv1.bias f4 [16]
00000000: 0695 f3bd 361e eabd 8c86 1d3d 3fdf 58be
00000010: 3b05 533d 0cce 6f3d 97c3 43be 360d 7bbe
00000020: f9ff 45bc 14bc fd3d dcb0 a0be b381 9a3e
00000030: ae03 0cbe 3509 503e d080 da3b f683 953d
-0.11893658 -0.114315435 0.038458392 -0.21178912 0.05151866 0.05854611 -0.1911758 -0.24516758
-0.012084954 0.12389389 -0.31384933 0.30177078 -0.13673279 0.20316012 0.0066681877 0.0730056

bn1.weight f4 [16]
00000000: d822 7e3f 1839 7f3f 438c 753f 8c77 7f3f
00000010: 77d4 813f 13d4 813f 8a58 833f 9136 753f
00000020: 2e84 833f 9123 7d3f f97b 773f f7c7 793f
00000030: f0cb 853f e7ae 803f 77e1 823f 15d1 7f3f
0.9927192 0.99696493 0.9591715 0.9979179 1.0142964 1.0142845 1.0261395 0.95786387
1.0274713 0.98882395 0.9667354 0.9757075 1.0452862 1.0053376 1.0225056 0.9992841

bn1.bias f4 [16]
00000000: cfc2 183d 66ac 043c f164 253b be9b 653c
00000010: 4c31 3e3c eb31 f93b a1b6 98bc 121a 973c
00000020: 54cb abbc a11a b83b c1cc 813b 8d08 273c
00000030: 67f3 2d3d b04d 3f3c 6ca2 1cbc d88e 883c
0.03729516 0.008097744 0.0025237168 0.014014183 0.011608433 0.0076048276 -0.018641772 0.018445048
-0.020970978 0.005618409 0.003961176 0.01019491 0.042468455 0.011676237 -0.009560209 0.016669676

bn1.running_mean f4 [16]
00000000: ccd1 dc41 91a5 e141 6a7e 5541 35be 2742
00000010: 7234 c940 7d51 d141 3079 0240 7f64 973f
00000020: 8f50 0d41 8033 1d41 35a9 af41 9f11 4941
00000030: 8624 ec40 9a8f 2e42 1ded f93f 517d 0841
27.60244 28.205843 13.343363 41.93575 6.287652 26.16479 2.0386467 1.1827544
8.832168 9.825073 21.95762 12.566802 7.3794584 43.640236 1.9525486 8.530595

bn1.running_var f4 [16]
00000000: bdf9 0d45 d08a 1d45 e351 1744 d27d 8e45
00000010: e24f a343 d1bd ff44 f6ad b842 70d4 ec41
00000020: 8a9a f343 1820 e643 c1ba 9744 c5b7 0344
00000030: 5f83 e943 5df1 8845 3a34 a042 df7d e443
2271.6086 2520.6758 605.2795 4559.7275 326.62408 2045.9318 92.33977 29.60373
487.20734 460.25073 1213.836 526.8714 467.02634 4382.1704 80.102005 456.98337

conv2.weight f4 [32, 16, 4, 4]
00000000: c6af 473d 76d9 49bd 0b3e 1dbc 6138 893d
00000010: f9e9 d03c 85a4 3f3d 396a bdbc 22f6 89b8
00000020: 605a f5bc 1341 55bc 0fde 56bd c82a aebb
00000030: 259c 723c 58f1 86bd b643 a2bd 77f5 2f3d
00000040: 154e c4bc d4b4 d4bb 2484 94bc a002 11bd
00000050: bd5a f8bc 90c3 4b3c c92a 8a3c 89a8 353d
00000060: baac e1bb 7dc9 853d cf99 a9bc 7359 bcbc
00000070: cb97 93bc 6260 ebbc e35d a23c 5cd7 11bd
00000080: ff42 98bc 9da5 de3c e2a3 a8bc 51d6 853c
00000090: 027d babc 22fa 1c3c 4117 543d 0438 53bc
000000a0: 0531 1dbd 338e d439 5343 ef3c 7154 a0bb
000000b0: 096d 673c 2667 bfbc 156d d93b f99d cebc
000000c0: eb0a 19bd f5f6 8dbc 4ad0 063c d476 13bd
000000d0: 590f 443d be66 16bd c6a5 cbba 7964 7b3c
000000e0: c462 9e3c ce05 0cbd 4408 fabc 81cb 25ba
000000f0: e8a6 133c 134e 443d 8e33 bd3a 33b7 323d
00000100: 733e 3f3d 46d0 38bb 00de 983d 9b0f 97bc
00000110: a46d 873d 0fb1 b03c 4957 dfbc 8394 a93c
00000120: a935 0ebd 9e8c b6bc 8f59 1ebc 23e4 8cbc
00000130: 76c2 a5bc 42b2 87bd 6656 e93c 1b71 0bbd
00000140: f843 06bd dbd8 75bd 7de9 6abc f925 8b3c
00000150: 37a2 ee3c 6a7a bb3c 35a5 c1bc 3d32 a7bb
00000160: 9120 343d df49 803c 2f0d 333d 6f29 123d
00000170: e47a ab3c c1ff bb3d e10a b9bc c5e1 f73c
00000180: a68e 823b ac3f ce3c c062 68bd f296 5b3c
00000190: cc5c f7bc 549d 5bbd fb2c 523b 5470 d0bc
000001a0: 5682 61bc 99ce aabd 25a9 96bc febe ef3b
000001b0: bcee 1ebc b1de 313d afb3 a23c 5a30 4d3b
000001c0: 83f1 c83c 5587 18bd d192 78bc f684 d93c
000001d0: 5244 e4bc be3c 63bc 53e4 75bd b406 e13c
000001e0: 604c e2bc 17e9 db3b 53f2 c9b9 5987 a4bc
000001f0: 68dd 1cbc 19db 84bb 9635 fbbc 30ba 98bc
00000200: d47f 293d aecd 6a3c 080c 33bd 4063 be3c
00000210: bada 85bd 4e91 bd3c 48fe 04bd a6dc 6bbc
00000220: c86a 23bc 1245 c53c 59e6 373c 1861 da3c
00000230: dee1 85bd f312 723d a76d 3b3d e757 d7bc
00000240: 305e 32bd fa05 a83d 31aa 95b8 dfea 8d3c
00000250: 8983 47bd 6b77 033c 3407 bd3a a088 453d
00000260: ca53 0dbc b6c9 283d 3476 adbc d049 363b
00000270: a058 94ba 287f b93d 6378 a63b 5a69 883d
00000280: bf96 1e3a 9f1a 4b3d b15d c33b c4fb 333d
00000290: af4f 183d 5a12 7f3d d95d 3f3d 2365 e83b
000002a0: 685f 213c 8b25 9f3c 8854 60bd 61fb 30bd
000002b0: 4894 493d 7b07 9fbc 1eba 2cbc f434 7b3c
000002c0: 8af5 913c 2fd0 1a3d 8212 a73c 67b1 efbc
000002d0: d430 843c b276 babc d538 20bd 6cc3 303d
000002e0: 3852 b43c 656b 0e3d 3660 9c3c 958d 803c
000002f0: 471b 543d 6f0d 49bd 0aac f93c 4731 623d
00000300: c8b4 463d 7e43 a03d 7238 223d d2a0 6a3c
00000310: acf3 7f3c 699c 44bd 4800 373d c937 a3bc
00000320: c1e9 89bd 3d28 a1bd 0b33 76bd 5dd0 0b3d
00000330: 9813 5dbc 8ebc e4bd 1fb4 60bc 1adc 56bd
00000340: 8bb4 b9bc f5c0 443d aac4 61bd 66e3 82bd
00000350: 848a 553d 8eda 063d 70bd 353c 4801 acbc
00000360: 56de 2a3c 7244 5fbd 1c8e e43c 894d 073d
00000370: 2949 8dbc a358 5cbd f03a 84bd b790 54bc
00000380: 6e7c 97bd d3a6 8bbd 41ff 4fbd 3a12 eabc
00000390: ef2e 96bd c6ed e3bc b8c8 d23c 80ed c83c
000003a0: f6f8 5bbd e209 bf3c 6333 713d 32f0 06bd
000003b0: affd a23d 49ba 97bb c1bc 8bbd 8242 07bc
000003c0: 3b33 8fbc 8319 b7bc 2245 d73c c673 4ebc
000003d0: 2811 ac3c 7c2b 58bc 9a77 573d 5bf6 80bc
000003e0: b5da b43c cd4e 50bd b545 353d 1e91 8c3d
000003f0: 91ab 103c cc31 8e3d 7a01 853d 43a4 c93c
0.048751615 -0.049279653 -0.009597312 0.067002065 0.025502192 0.046787757 -0.02312194 -6.578515e-05
-0.02995032 -0.013016003 -0.052457865 -0.0053151585 0.014807736 -0.065890014 -0.07923071 0.042958703
-0.023963014 -0.006491283 -0.018129416 -0.035402894 -0.030316705 0.012436762 0.016866105 0.04435018
-0.0068870457 0.065325715 -0.020703224 -0.022991871 -0.018016716 -0.028732482 0.01982016 -0.035605773
-0.018586634 0.02717858 -0.020585958 0.016337546 -0.022764686 0.009581121 0.05177999 -0.012891773
-0.038376827 0.00040541738 0.029206907 -0.0048928787 0.014125117 -0.023364615 0.006635318 -0.025221812
-0.037363928 -0.017329672 0.008228371 -0.036001995 0.0478662 -0.036719076 -0.0015537075 0.015343779
0.019334204 -0.034185223 -0.03052152 -0.0006324575 0.0090119615 0.04792602 0.001443492 0.043631744
0.046690416 -0.0028200313 0.07464218 -0.018440058 0.06612709 0.021568803 -0.0272633 0.020700699
-0.034719143 -0.022283848 -0.009664907 -0.017198628 -0.020234328 -0.06625797 0.02848358 -0.034043413
-0.032779664 -0.060021263 -0.0143378945 0.01698588 0.029130084 0.02288552 -0.023638347 -0.0051024244
0.04397637 0.015660224 0.043713745 0.035684045 0.020932622 0.091796406 -0.022588195 0.030259022
0.00398429 0.025176845 -0.0567348 0.013402687 -0.030195616 -0.053616837 0.0032070267 -0.025444187
-0.013763985 -0.083401866 -0.018391201 0.007316469 -0.009700473 0.043425266 0.01986107 0.0031309337
0.024529224 -0.037238438 -0.0151717225 0.026552659 -0.027864609 -0.013869463 -0.0600322 0.027469017
-0.027624309 0.006711136 -0.00038518253 -0.02008407 -0.009574272 -0.004054439 -0.0306652 -0.018643469
0.041381672 0.014331264 -0.043712646 0.023240685 -0.065358594 0.023140576 -0.032469064 -0.014395868
-0.009974189 0.024080787 0.011224353 0.026657626 -0.06537221 0.059100103 0.04575887 -0.026287032
-0.043546855 0.08204265 -7.136574e-05 0.01732391 -0.048709426 0.008024077 0.0014421702 0.048226
-0.008625934 0.04120799 -0.021174528 0.0027814992 -0.0011317916 0.09057456 0.005080269 0.06660719
0.00060496846 0.049585935 0.0059620966 0.043941274 0.037185367 0.06227336 0.04672036 0.0070921346
0.009849407 0.019427082 -0.054768115 -0.043208484 0.049213678 -0.019412747 -0.010542421 0.015332449
0.017817277 0.037796196 0.020394567 -0.029259397 0.016136564 -0.022761676 -0.0391167 0.04315512
0.022011861 0.03477039 0.019088846 0.015692512 0.051783826 -0.049085077 0.030477542 0.055222776
0.04851225 0.07825373 0.03960461 0.014320569 0.015622061 -0.048000727 0.044678003 -0.019924061
-0.06734038 -0.07869003 -0.060107272 0.034134258 -0.013493441 -0.111687765 -0.013714819 -0.052456
-0.022669097 0.04803558 -0.055119194 -0.06391029 0.052134052 0.032923274 0.011092529 -0.020996705
0.010428986 -0.054508634 0.027899794 0.033032928 -0.0172468 -0.053795468 -0.06456554 -0.012973956
-0.0739678 -0.068189286 -0.05078054 -0.028573144 -0.073331706 -0.02782334 0.025730476 0.024527311
-0.053704225 0.023320142 0.058886897 -0.03294391 0.079585426 -0.004630361 -0.06823111 -0.008255603
-0.017480483 -0.022351032 0.026278082 -0.012600845 0.021004274 -0.013193961 0.052604295 -0.015742471
0.022076944 -0.0508564 0.04425593 0.068636164 0.008829967 0.06943092 0.06494422 0.024614459

conv2.bias f4 [32]
00000000: 1cc5 35bc 9f41 46bd 3bc8 433d d390 81bd
00000010: c850 14bd f5c6 d5bc 2966 8e3c b4b5 2cbd
00000020: c793 903c deca e5bc b23f 833c 3ca6 d5bc
00000030: a1a0 333b 3484 313d aa77 d2bb 3609 16bd
00000040: cdd4 0f3c 394b 54bd 4d4c 6dbc f7cc c53b
00000050: 84a2 16bd 6b19 7cbd 1959 a3bd ef09 47bd
00000060: 8f8c f83c 6975 96bc 7df6 1bbd acb4 153d
00000070: b0d7 0b3c eb8e d4bc 878f 033d b94a d9bc
-0.011094358 -0.048402425 0.047798377 -0.06326451 -0.03620985 -0.026095847 0.017382698 -0.042165473
0.01764859 -0.028050836 0.016021583 -0.026080243 0.0027408975 0.04333897 -0.0064229565 -0.036629878
0.008778763 -0.05182955 -0.014483524 0.0060363966 -0.03677608 -0.061547678 -0.079759784 -0.048593458
0.030340461 -0.018366532 -0.038076866 0.036549255 0.008535311 -0.025947055 0.0321193 -0.026524888

bn2.weight f4 [32]
00000000: 0e33 823f 93ca 813f e4b0 7c3f cd42 7e3f
00000010: 36cc 833f 821b 843f d98c 803f 32e2 7a3f
00000020: 55a8 7a3f cbbb 7f3f b016 813f 4afc 7d3f
00000030: c4cf 7e3f e109 803f 9b35 803f 7a3b 7c3f
00000040: 3a56 803f ece1 7a3f 2bec 793f c374 813f
00000050: 2474 803f 928c 7b3f 22ae 833f 030c 7d3f
00000060: ad79 7a3f 9090 7f3f 878b 7e3f a2a2 7d3f
00000070: 2993 813f fc0c 833f 5029 7f3f cb36 813f
1.0171831 1.0139946 0.98707414 0.9932068 1.0296695 1.0320895 1.0042983 0.98001397
0.97913104 0.99895924 1.0085049 0.9921309 0.99535775 1.0003015 1.0016359 0.98528254
1.0026314 0.9800098 0.9762599 1.0113758 1.0035443 0.9826137 1.0287516 0.98846453
0.9784191 0.9982996 0.9943165 0.9907628 1.0123035 1.0238338 0.9967241 1.0094846

bn2.bias f4 [32]
00000000: 85e9 0d3c 8745 7b3b 592d 403b e8d3 9ab9
00000010: e3fb 843a f72f 5ebb e386 053b bb21 a43b
00000020: 15b4 723a 45de 8a3b 7dc5 da36 1986 f23b
00000030: df79 d639 36fd c03b 4a47 543b 484c 2c3a
00000040: 71cb 7dba 044d 403b 6388 ecba 669a e0ba
00000050: 5dfe 1b3b 1d4a 103c 9e0b 6b3b 4f38 40bb
00000060: cbf8 283b 8883 0fbb 5c39 8a3a 5369 bbbb
00000070: 60f0 3a3b 7288 e73b ac1f cb3b d00b b93a
0.008661632 0.0038341002 0.0029323904 -0.0002953105 0.0010145869 -0.00339031 0.0020374588 0.005008904
0.00092584017 0.0042379224 6.519897e-06 0.0074012396 0.00040908062 0.00588956 0.0032391124 0.0006572646
-0.0009681499 0.002934278 -0.0018046018 -0.0017135858 0.0023802735 0.0088067325 0.0035865079 -0.0029330438
0.0025783058 -0.0021898467 0.0010545659 -0.0057193427 0.0028524622 0.007065826 0.006198844 0.00141179

bn2.running_mean f4 [32]
00000000: e785 043f 4761 0f3f 9400 283f bdb5 ae3e
00000010: 4ca0 db3e 604e d73e ee8f 163f da2d 103f
00000020: 1131 443f 3151 283f a53b 1c3f 5c85 0c3f
00000030: 2a11 f53e 8e84 313f 3a40 f63e 103f 213f
00000040: 0772 e73e 3601 1e3f 96ab 1a3f 1914 1d3f
00000050: a4d6 693f e363 db3e 8af6 cf3e dbb2 2b3f
00000060: 67d8 e43e 9308 ee3e a6e4 103f 8f43 1d3f
00000070: c8d4 fa3e ceb7 2c3f d9c6 0d3f 464b 223f
0.5176682 0.5600781 0.6562588 0.3412303 0.42895734 0.42051983 0.5881337 0.56319964
0.7663737 0.6574889 0.6102851 0.5489099 0.47864658 0.6934289 0.48095876 0.6298685
0.45204183 0.617206 0.6041807 0.6135879 0.9134314 0.42849645 0.40617782 0.67069787
0.44696352 0.46490917 0.5659889 0.6143121 0.48990464 0.67467964 0.5538154 0.6339611

bn2.running_var f4 [32]
00000000: a4c3 923e 957a b43e d8f0 dd3e 6443 0b3e
00000010: d04a 863e 99c5 6f3e fef8 dd3e 4b12 a23e
00000020: 5dba d93e fd99 c13e d982 923e 4fa5 813e
00000030: baff 673e e215 f83e 774c 8d3e b858 ba3e
00000040: 1d14 793e 0e6e cc3e c52c a43e 8616 b33e
00000050: 949f 2a3f 8c9c 423e b09d 7e3e 6809 d73e
00000060: 080a 373e d928 683e e2f2 a03e 7adc 743e
00000070: b1ca bb3e 0728 043f c2be 6f3e 755d bc3e
0.28664887 0.35249773 0.43347812 0.13599926 0.26228952 0.23415221 0.43354028 0.3165458
0.42524996 0.37812796 0.28615454 0.25321433 0.22656146 0.48454195 0.275974 0.36395812
0.24324079 0.39927715 0.32065406 0.34978122 0.66649747 0.1900503 0.2486484 0.41999364
0.1787492 0.22671832 0.31435305 0.2391223 0.3667808 0.51623577 0.23412612 0.36790052

conv3.weight f4 [64, 32, 5, 5]
00000000: ccc3 00bd aa0c 92ba 4a48 323d 7b2d fabb
00000010: 4f15 b73c 09e5 4b3c 996c 24bc e41a 833c
00000020: 6d6f fabc e776 00bd a27d eabc d2f4 11bd
00000030: 3472 1ebb e6a7 5b3c fbd6 d9bc 81df f9bc
00000040: 1689 b93c d6c2 2abd 20eb 1d3b b2fa 983c
00000050: 5875 f8bc a3cc 8b3b dc51 723c 2240 93bc
00000060: 20a5 f03c ac6b 393c 0352 33bc 4784 043d
00000070: 5b27 633c d99c 3a3c 2d66 cf3c 3e91 80bc
00000080: 1120 79bc 6b2b 173d 4e58 0ebc f641 253d
00000090: 6488 9b3c c364 75bc 9d00 373c 56f2 ac3b
000000a0: a50f 973c a175 303c 8877 2abc 474a f13c
000000b0: da33 1abb dd78 e33c 25c0 a83c 4abd c0ba
000000c0: 077d 8bbb 674d 5cbc 40d1 963b 9ee5 65bc
000000d0: 6a94 ebbc aeec 0e3d 36fb 50bc e941 9e3c
000000e0: c418 c0bc 11ea a73b 479a d23c 2e8b cdbc
000000f0: c6af cc3c da9c 1c3c 93f3 70ba a80d 043c
00000100: cc4d 993b d9ae 0f3d b4f9 11bd 8d38 a8bc
00000110: 0625 95bc b1da 7a3b b445 903b 25f0 36bc
00000120: 11f2 91bc aa0a 65bc e1e8 e43b 8163 97bb
00000130: b50e 853c c470 523a efe9 4238 854f 7dbc
00000140: 7926 6e3c e4db 853b cc11 48ba d4df 08bd
00000150: 136f f2ba 4b5e 4d3c a357 d73a bab4 e4bb
00000160: 43ee a83c 6a54 ffbb 9789 253b f67a 30bc
00000170: 967a 583c 1fed 7cbc 9677 3b3d 0896 c6bc
00000180: a9f1 ddba 144a 083d 1fa1 2b3d e4d8 d5bb
00000190: 14ba b9bc 40a6 4abc 2e1b 583b 9328 f93b
000001a0: b5d3 84bb 42ed 953c 709a 20bb b5a2 cd3b
000001b0: c0ed e13b 3061 113d 2b18 e9bc a1b7 383c
000001c0: 61ca efbc b657 463c ebfd 60bc 630d 6b3b
000001d0: 203a d43c 3e3e 32bd 3396 a1bc 1e4d 9dbc
000001e0: 761b 933c 0e4e babb 0c67 e4bc 2b80 cabc
000001f0: 57cb adbb 4c27 19bd 39f3 f93c c87d 5bbc
00000200: 6325 12bc 8946 483a 17a3 24b9 2f5d 5d3d
00000210: a3e0 bf3c 87bd 153d 75f3 eabb 8013 a33c
00000220: 2b96 3e3b 75bd fabc ab51 0cbb aaee 2a3c
00000230: 3fa2 053d 34c7 17bd ba38 f73c 934f b7bc
00000240: 6aa4 be3c 1248 953b 02a3 13ba a97b 763c
00000250: 9c06 00bd 9889 383b 6546 1e3d 2d65 133c
00000260: 0094 0cbd 754f 92bb 30b6 60bb a768 383c
00000270: 0f4a 973b 893e b53c fcf2 a9bc 9147 db3c
00000280: 194d 283c 8810 863a 0201 a43c f70b 9b3c
00000290: 4c1c 85bb 7630 133c 9eaf bbba 16da 4d3c
000002a0: 8d25 d1bc 2db3 ae3c 4cc9 283b 3dc7 e23b
000002b0: a7b9 313d 4057 8a3b f11f 8bbb 3ac0 80b9
000002c0: 9ee6 d9bb 31e2 b9bb e8c9 f63b dd74 313b
000002d0: 0798 4e3c ba37 9d3b 52fe 963c 1a02 0f3d
000002e0: c324 82bc 8813 3fbb 97a4 5a3d 962f c0bc
000002f0: b98f e73c 1875 d03b af70 f43c 3753 6b3c
00000300: 0463 613c 46ba 6f3c 8aab 383c 542a cabb
00000310: 0eab e83c c399 f5bc 8176 423c 053e 05bc
00000320: 8b8a a33c beca 933c f6c6 c4bc fea4 8a3c
00000330: a3d6 12bd 1e4d ca3a 1dad b1bb d2ff c83c
00000340: 07fe 0a3c d83b 023d beed 3d3c ca2a 67bc
00000350: 59fc f83b ec94 013c d4c3 af3c 7caf a73b
00000360: c5a9 0b3b d0b9 84bc 2c93 45bd d7ce 85bb
00000370: b996 383d af21 0d3d b5de 1abb 3215 9b3b
00000380: 90a5 a23b 5743 693b a93f f13b 5858 5fbb
00000390: c4da 92bb a1ef 6f3c beef beba cfea 723c
000003a0: cbd8 3a3b d25a d6bb 3dbd 34bc 0a71 eb3a
000003b0: f507 c3bb 45e6 01bd 5cff 733b 5cd7 133c
000003c0: a0bc 4abc abf9 0c3c 0e2e 0ebd 6ac6 28bc
000003d0: 994e 7dbc 9f32 9e3b 1c91 4cbd e0d1 8e3c
000003e0: 880a 3cbc 1105 b5b9 2ece 8a3c 0671 e23c
000003f0: f088 49bc 672e fdbc 5176 10bc ea0d ccbc
-0.031436726 -0.001114269 0.04352597 -0.007634816 0.022349028 0.012444743 -0.010035657 0.016004033
-0.03057071 -0.031363394 -0.02862436 -0.03563387 -0.0024176957 0.013406729 -0.026591768 -0.030502083
0.022648375 -0.041689716 0.0024096444 0.018674228 -0.030329391 0.004266338 0.014790025 -0.017974917
0.029375613 0.011317175 -0.010944846 0.032352712 0.013864364 0.011389934 0.025317276 -0.015694257
-0.015205399 0.03690664 -0.008688046 0.04034611 0.018985935 -0.014977637 0.01116958 0.005277912
0.018440077 0.010770232 -0.010404475 0.029454364 -0.002352944 0.027767593 0.020599434 -0.001470485
-0.004256848 -0.0134461885 0.0046025813 -0.014031796 -0.028757293 0.034893684 -0.012755206 0.019318538
-0.02344931 0.0051243384 0.02570833 -0.02509078 0.024986159 0.009558881 -0.0009191569 0.0080598965
0.0046784636 0.035078857 -0.035638526 -0.020534778 -0.01820613 0.0038277323 0.0044028405 -0.011165653
-0.017815622 -0.013979593 0.006985769 -0.004620016 0.016242364 0.00080276676 4.6471072e-05 -0.015460853
0.01453554 0.004085051 -0.00076320465 -0.033416584 -0.0018496237 0.012534688 0.0016429316 -0.006979552
0.020621425 -0.0077920454 0.0025259012 -0.010771504 0.0132128205 -0.015437393 0.045768343 -0.024241462
-0.0016932982 0.03327377 0.041901704 -0.0065260995 -0.022671737 -0.012368739 0.0032975185 0.007603714
-0.0040535578 0.01830161 -0.0024506114 0.0062754997 0.006894797 0.035493076 -0.028453907 0.011274249
-0.029271306 0.012105873 -0.013732414 0.0035866133 0.025906622 -0.04351639 -0.01972494 -0.019201811
0.01795743 -0.0056855744 -0.027881168 -0.024719318 -0.005303781 -0.037390992 0.030511485 -0.013396688
-0.0089200465 0.0007639905 -0.00015701014 0.054043945 0.023422545 0.0365577 -0.0071701356 0.01990676
0.0029081206 -0.030607918 -0.0021410983 0.0104328785 0.032625433 -0.03705521 0.030178417 -0.022376811
0.023271758 0.0045557106 -0.0005631895 0.015044131 -0.031256303 0.0028158184 0.038641352 0.00899629
-0.03432083 -0.0044650384 -0.003428828 0.01125542 0.004616983 0.022124546 -0.020745747 0.026767524
0.010272288 0.0010228315 0.020020012 0.018926604 -0.004062211 0.008983722 -0.0014319306 0.012564203
-0.0255306 0.021325672 0.0025754748 0.0069207237 0.043389942 0.004221827 -0.004245751 -0.00024557282
-0.006649806 -0.005672716 0.0075313933 0.0027077713 0.012609488 0.004797903 0.018431816 0.034914114
-0.01588667 -0.0029155929 0.05337962 -0.02346019 0.028266774 0.006361615 0.029838888 0.014363102
0.013756517 0.014631813 0.011271367 -0.0061695967 0.028401878 -0.029980546 0.011869074 -0.008132462
0.019963523 0.018041011 -0.024020653 0.016924378 -0.035849225 0.001543436 -0.005422248 0.024536047
0.008483416 0.031795353 0.011592327 -0.014109323 0.0075984416 0.007909041 0.021455683 0.005117355
0.0021310907 -0.016201884 -0.048236057 -0.004083495 0.045065615 0.03445595 -0.002363128 0.0047327513
0.0049635842 0.0035593116 0.007362325 -0.0034079757 -0.0044816453 0.014644534 -0.0014567298 0.014826491
0.0028510566 -0.0065415883 -0.011031446 0.0017962765 -0.0059518763 -0.031713743 0.0037231063 0.009023514
-0.012374073 0.008604447 -0.03471189 -0.010301212 -0.015460634 0.004827812 -0.049943075 0.01743406
-0.01147712 -0.00034526785 0.016944017 0.027641784 -0.012300715 -0.030905915 -0.008817271 -0.024908978

conv3.bias f4 [64]
00000000: d170 48bc 4665 973c 425a 003c 2f36 5c3c
00000010: ece4 3abc 94a4 d6bc c569 a93c 7768 103d
00000020: f035 9b3c 9e5f 963c 128d a4bc a123 963b
00000030: 4bbf fc3c fc1f e3bc 964b 023a 519d 123d
00000040: 5cb7 f6bc 117d 40bc c772 adbc 4071 e8bc
00000050: a18d 9e3c 42e8 09bd 9b2f 5abc b87c 063c
00000060: 7696 56bb 6948 a83c 04bb d7bc a6fd c13c
00000070: a46a ea3c d5ab 87bc e99f 833c e0e5 88bb
00000080: 7ca7 ebbc a030 99bc 5e1b f4bc 4253 ae3c
00000090: 4036 80bc d90a cd3b c669 e5bc 9f2b 85bc
000000a0: 4a67 bdbc b34c eebc a00f 40bc 904e 453b
000000b0: 6143 4cbc 69b6 b1bc b6f0 7bbb a8ee 013d
000000c0: 9973 87bc f151 993c ac60 bd3c 67b4 843c
000000d0: abc6 1ebb 6c5a 213c 18bd b03c 0f9d cfbc
000000e0: 4e27 9ebc c743 79bb c834 cdbc 5f4a 8dbc
000000f0: 6b1b 80bc ae91 c8bc c3c6 01bd da8f 903c
-0.012233929 0.018480908 0.007834019 0.013440653 -0.011407118 -0.026201524 0.020680318 0.035255875
0.018946618 0.01835614 -0.020086799 0.004581884 0.030852934 -0.027725212 0.00049703696 0.03579456
-0.03011673 -0.011748568 -0.021172894 -0.028374314 0.019354643 -0.033668764 -0.013317014 0.008208446
-0.003274349 0.02054234 -0.026334293 0.02368052 0.028615303 -0.016561428 0.016067462 -0.004177794
-0.028766386 -0.018699944 -0.029798206 0.021279935 -0.015650868 0.0062573967 -0.028004538 -0.016256152
-0.023120541 -0.029089307 -0.011722475 0.0030106641 -0.012467236 -0.021693425 -0.0038443035 0.03172174
-0.016534613 0.01871583 0.023117386 0.016199304 -0.0024227302 0.009848218 0.021574542 -0.025343446
-0.019305851 -0.0038034783 -0.025049582 -0.017247377 -0.015638074 -0.024483528 -0.031683695 0.017646719

bn3.weight f4 [64]
00000000: 4a3f 823f 394d 7c3f 2a2c 7e3f b51c 843f
00000010: 076f 843f 1e63 803f 9a12 833f af14 773f
00000020: b69b 813f ba7a 7e3f eda2 823f a05d 7f3f
00000030: 2c70 7f3f 3ce3 7a3f 1462 7b3f 6943 7a3f
00000040: 84cd 813f 0b76 833f 1ffe 7e3f c6dc 823f
00000050: 4ab4 7b3f 24e1 793f 8579 7d3f 1c44 803f
00000060: 61bc 823f 370b 813f 9642 793f 89f3 813f
00000070: d90c 7d3f 5380 803f e34b 7c3f 0161 7d3f
00000080: 9317 7e3f 0578 7d3f ca68 813f 3dd9 7a3f
00000090: d4ae 7b3f 0570 823f 920f 7d3f a315 803f
000000a0: 7906 823f 474c 783f ceaa 7f3f b811 7c3f
000000b0: 6d41 803f 63e5 7f3f 0937 813f c778 803f
000000c0: a428 823f 909f 7f3f a6a2 7e3f 5caf 7e3f
000000d0: 6bec 803f b653 7d3f b33b 7f3f ac21 853f
000000e0: 1cde 7d3f f246 803f e68b 813f 0e70 803f
000000f0: f3a4 813f 5865 7a3f 8937 803f b3a5 7f3f
1.0175564 0.9855533 0.9928614 1.0321261 1.0346383 1.0030248 1.0240052 0.96515936
1.0125644 0.99406016 1.0205971 0.99752235 0.99780536 0.9800298 0.9819653 0.9775911
1.0140843 1.0270399 0.9960651 1.0223625 0.98321974 0.9760916 0.9901355 1.0020785
1.0213739 1.0081547 0.9736723 1.0152446 0.9884773 1.0039161 0.98553294 0.9897614
0.9925472 0.9901126 1.0110104 0.9798773 0.9831364 1.0190436 0.98851883 1.0006603
1.0158225 0.9699139 0.9987 0.98464537 1.0019966 0.9995939 1.009492 1.0036858
1.0168653 0.9985285 0.9946693 0.9948633 1.0072149 0.9895586 0.9970047 1.0400901
0.99167037 1.0021651 1.0120819 1.0034196 1.0128464 0.9781089 1.0016948 0.9986221

bn3.bias f4 [64]
00000000: 752d a63b 36a6 25bc db27 9139 c734 1fbc
00000010: a478 44bb a0c9 f93b 69bd 3f3c f6b2 ef3a
00000020: c5d6 8c3b 5568 47bc 1bd1 c1ba fabb 96ba
00000030: f6f6 cebb 1ba7 a9b9 88b3 273b f191 1d3c
00000040: 58d2 a43b 4194 6f3b a75c 82bb 1832 2a3c
00000050: 7b0f 793c f3b4 523c 8e46 343c 4d6b b83b
00000060: a418 813c b5cb 493b c365 0abc 6523 06bb
00000070: 8412 9cbb d85c 073c 096e a2ba cdc8 323a
00000080: ab8d 513c 1787 83bb 118c 40bb 944b 8939
00000090: 53d6 913b 8610 023c ac53 9c3b 620c d7b8
000000a0: 3dee a2bb 96f2 1bbc 078b c53b d62a d23b
000000b0: b66a 37bb 30d5 7ebc b345 c2bb 51bd 3ebb
000000c0: eb22 d43b 70fe ea3b 74b3 84bb e792 413c
000000d0: 48ea 633b 8071 18bc 6d71 543c 5036 923c
000000e0: bb74 bebb dcfb d1bb f17a 943c 0ff6 f0bb
000000f0: c9fe fd3b dfae 433c a5c1 a93c 0f91 69bb
0.005071337 -0.010110429 0.0002768625 -0.009717173 -0.0029979134 0.0076229125 0.011702874 0.0018287587
0.0042980635 -0.012170871 -0.001478705 -0.0011500113 -0.006316061 -0.00032358695 0.0025589187 0.009617315
0.0050299577 0.0036556872 -0.00397833 0.01038792 0.015201445 0.0128605245 0.01100315 0.0056280256
0.01575882 0.0030791585 -0.008447113 -0.0020467874 -0.0047629494 0.008261882 -0.0012392412 0.0006820083
0.012790124 -0.0040139067 -0.002938036 0.00026186986 0.0044505983 0.00793851 0.0047707167 -0.000102543054
-0.004972248 -0.009518286 0.0060285362 0.006413798 -0.0027987189 -0.015553758 -0.005928719 -0.002910454
0.006473889 0.0071714446 -0.004049713 0.011814809 0.0034777094 -0.009304404 0.012966496 0.017848164
-0.005812255 -0.006408198 0.01812503 -0.007353551 0.00775132 0.011943548 0.02072222 -0.003563944

bn3.running_mean f4 [64]
00000000: 26f5 a63d 9ff7 cd3e 9608 fb3d 8f6f 823e
00000010: 9c34 a23d 5b1f 273f e8d6 ee3d 64bb 893e
00000020: 41c8 323f 182f 143e 60e8 523e 9c3b f83e
00000030: 2ba1 3a3e 79df 2c3e 5407 6c3e 8cd5 573f
00000040: adda 1f3e 5e15 193e bd6d 163e 39e2 2c3e
00000050: 2d6c dc3e a702 0d3f 8b9b cf3d f37b 663e
00000060: 4ee9 823e 62f5 383e 2593 da3e a004 123f
00000070: 7b79 d13d 6293 603e e63c 083f c28a 9d3e
00000080: f5ef 693e f6eb 663e 07c4 023e fd51 3e3f
00000090: e725 0c3f cac0 be3e 8baf f63e 0d70 163e
000000a0: 6297 933e 06e9 123f 0a07 6d3e 3c14 e23e
000000b0: 44da 603e 9ba6 cf3d 5df1 a63e 287d d83e
000000c0: 034e 923e fb48 e63e 59db c73e cba7 5a3f
000000d0: 8c80 8f3e f0ea 1d3f 4042 c73e fea0 283e
000000e0: 2683 263f 9fcf 873e 4d85 343e 46b0 5e3e
000000f0: f201 ab3e f6a4 a93d f04b 193e 5e32 163e
0.08152227 0.40227982 0.12257497 0.25475737 0.07920191 0.6528222 0.11662084 0.2690078
0.69836813 0.1447109 0.20596457 0.48482978 0.18225543 0.16882123 0.2304967 0.8431022
0.15610762 0.14949557 0.146903 0.16883172 0.43051282 0.5508217 0.10137089 0.2250822
0.25568622 0.18062356 0.42690387 0.5703831 0.10228249 0.21931222 0.53217924 0.30769926
0.22845443 0.2255095 0.12770091 0.74343854 0.54745334 0.3725646 0.48180804 0.14691181
0.28826433 0.57386816 0.23147216 0.44156063 0.21958262 0.10139199 0.3260602 0.42282987
0.28575143 0.44977555 0.39034536 0.8541228 0.2802776 0.6168661 0.38917732 0.16467664
0.65043867 0.2652559 0.17628975 0.2174693 0.33399922 0.08283417 0.14970374 0.14667651

bn3.running_var f4 [64]
00000000: ef93 513d df35 803e e33d 963d 5d67 183e
00000010: 9996 0d3d cea2 b13e 4bc2 a13d f3af 4d3e
00000020: 878d be3e aed6 173e 51cf f83d 74a4 843e
00000030: 0e15 cf3d 61ea d63d 248f 053e c78b 193f
00000040: c225 c43d 68aa b53d 66bd a03d 76a1 d33d
00000050: 7509 5c3e d09b bc3e 73fb 763d 2b6e 3d3e
00000060: 39cd 2d3e b6ab c73d 48dd 723e 49c1 593e
00000070: e12f 813d bf12 223e cc9d 903e 47ae 283e
00000080: b02a 4c3e 387c 1c3e 7694 fc3d b958 783e
00000090: 0800 a73e 08e0 583e 109c 8a3e 610d d83d
000000a0: 6fd2 0f3e c390 f13e ca96 2e3e ec4a ae3e
000000b0: 9cd9 263e 347c 8a3d 3913 693e 939e 713e
000000c0: 3bbb 4c3e 180c 863e 1702 483e b314 933e
000000d0: 05c5 473e 07f5 873e a23d a83e f10f 053e
000000e0: ee8e d93e b028 253e f3da f03d c7fa 093e
000000f0: c676 583e 9694 353d ba61 dd3d 98d2 cf3d
0.05116647 0.250411 0.07336023 0.1488318 0.03456745 0.34694523 0.078983866 0.2008665
0.37217352 0.14827988 0.121489175 0.25906718 0.10111438 0.10493923 0.13042885 0.5997891
0.09577514 0.08870393 0.07848625 0.103335306 0.21487983 0.36837626 0.060298394 0.18499057
0.16972817 0.09749548 0.23717225 0.21265139 0.0630796 0.15827464 0.2824539 0.16472732
0.19938159 0.1528176 0.12333004 0.24252595 0.3261721 0.21179211 0.2707219 0.10549427
0.14045118 0.47180757 0.17049709 0.34041536 0.16293949 0.06761971 0.22761239 0.23595648
0.19993298 0.26181102 0.19532047 0.2872673 0.1950875 0.2655413 0.32859522 0.12994362
0.4249186 0.16128802 0.11760511 0.1347457 0.21139058 0.044331156 0.108096555 0.101475894

fc1.weight f4 [256, 64]
00000000: 0d65 25bd 4776 143c 1f74 bdbc 84cc debd
00000010: 2bcc bbbd f8bc 983d 43db 7c3b ac53 8c3d
00000020: 3a8b 9bbc 55c8 8bbc 101a 15bc 0be7 72bd
00000030: 53c3 7f3d 1d46 a0bd fba4 a03d 1901 82bd
00000040: 574f 733d 70bb 2cbd deeb 9abd 8ef1 8bbd
00000050: 4186 f4bc ba1a a9bd bc05 ffbd 9f0b ee3d
00000060: f86e e03d 7712 9fbd 6c4c 0abb bd0b 173e
00000070: e169 dabd 3c14 e7ba 6ee0 a1bd cb51 5b3d
00000080: 95b8 57bd 926c c83d 9827 ef3c d23f 4f3d
00000090: 6f8d e23d ead1 813c 4bf7 ca3d 4752 c6bd
000000a0: efc7 7cbd b050 853d da5e f4bc 29c1 f13c
000000b0: 3500 6b3d 9245 773d 17fc 5bbd 4797 ee3d
000000c0: 16ef 89bd 5b9c 6c3d f180 1e3d cd22 b4bd
000000d0: bbcc 4b3d 4aa8 ec3d 47f7 1abc 9481 3cbd
000000e0: 73ea fe3c 0309 4bbc eaf3 bc3d 1c4d 4dbd
000000f0: 4e5e eb3d d301 ca3d ae39 82bb b406 d83c
00000100: ffc4 f03d e400 073d ee4f 1b3d a7d3 25bd
00000110: 7d5b 3a3d 0687 683d cc53 b83d 9d5f dc3d
00000120: c496 dbbc 41f8 58bd 26f7 60bc 5ddd 913c
00000130: 62ee 833d a201 60bd f1c1 943d 4965 0aba
00000140: a54d 043d d3fb 283c 6a7e d539 7685 c1bc
00000150: 9557 223c 41f2 213d e625 cb3c b7fa 5d3d
00000160: af1a ea3d 4a30 883d 7a8c e8bd 3e66 0abd
00000170: 23a4 f2bd 1531 9f3c 286b c4bd 1f43 83bd
00000180: f0ad 203c 7fc8 c5bd 849d d53d 54b5 0bbd
00000190: ebae a4bd 1d3a dc3d 7a55 5d3c eba8 663d
000001a0: 67aa a73d a6bf a7bd 0308 bd3d e9bd 1fbd
000001b0: f52f 33bd 7d8a 19bb fa0c 053e 5091 38bd
000001c0: 6a9b 9e3c c55a cc3c a25a b43d 8e23 b73d
000001d0: 5d62 ff3c 2f50 d03c c34e a73d fe37 a7bc
000001e0: d628 32bd 02d2 ebbd e571 f1bc 2a80 d0bd
000001f0: 66d7 15bd e055 b339 50ac 5b3d d1d8 8bbd
00000200: 8e56 edbd 544b bd3d dddd 43bd 5d28 b43d
00000210: e4ee 89bb 0fcf 073e 6a56 d13d 7dca 1c3b
00000220: f55c 25bd 66d5 713d 9f83 aebd 8afd adbd
00000230: e965 953d 7fb9 dd3d c8da 9b3c a5f7 593d
00000240: 6496 4a3d 8669 12bd 83e8 d4bc cf94 b5bd
00000250: 2e6f 473b c0a3 a93c 9d01 5b3d dc60 84bd
00000260: 38c2 03bd 0741 de3c 70e0 f3bd 6c9d 2abd
00000270: 90e8 e4bd 0f21 833d 7897 b33d ab4a 06bd
00000280: 4632 25bd 5a37 49bc e449 91bd bc4a 363d
00000290: 6a7e 95bd 8086 1d3c 0451 17bd e0bc 64bd
000002a0: 80d8 e8bd d26d 0e3c 27ac dbbd 2010 51bd
000002b0: 5469 8ebd e224 193d c3d7 db3c 0787 7cbd
000002c0: b2e9 e53d e899 123d 06d4 0fbc 9242 243d
000002d0: 3869 1a3d 9a23 5b3d ca60 d43c c825 6b3d
000002e0: 3754 a63d d35d e6bd 7d6e e13d 20ea b63d
000002f0: 56f1 953d c906 c03c 899e 023c ee2c bdbd
00000300: 817a 673d 9ea6 4d3b 5c3f b9bb e43e 693d
00000310: a637 cf3d 7ad5 aabc 71f9 503d 69ec b63d
00000320: b615 98bd 1561 debd 29cf 4fbd 3b4d 9e3d
00000330: 53fd 8bbd 9182 f73c 1fa5 c23d b991 2d3d
00000340: 9418 b9bd 35d7 84bd 0f1c 133d 45d1 ec3d
00000350: f580 823c 966a 8d3d 6227 1b3c 838c 063d
00000360: cf16 873d c2d5 a7bb 6e50 443c 0feb d73d
00000370: c582 e3bc 031c 03bd 5c6b 08be b972 b6bd
00000380: a1fa 88bd 2969 dcbc cc9e 4c3d 8c32 5b3d
00000390: d8cf fc3d 7eda dd3d c9da a1bd 48c0 d03d
000003a0: 7d0a 79bc 08be ba3d c0fd c83c 4b8e cd3d
000003b0: 8303 943d 4288 75bd fb0b c3bd 3346 f53c
000003c0: 0ca4 293d 8aa0 08be 08e0 703d 2339 c93d
000003d0: 4864 503c 7de2 e9bd 1b43 9bbd ae4a c83c
000003e0: 7f23 96bd 6a2c 38bb 9171 753d 8d84 5b3c
000003f0: 69a4 32bd 3339 5bbd 120d e5bd 71e6 eabd
-0.040379573 0.009061403 -0.02312666 -0.10878852 -0.09169801 0.07457918 0.0038582839 0.06851897
-0.018987287 -0.0170633 -0.009100452 -0.05930237 0.062442135 -0.07825873 0.078439675 -0.063478656
0.059401836 -0.04217094 -0.07564519 -0.06833182 -0.029849174 -0.08257051 -0.124522656 0.1162331
0.109586656 -0.07767194 -0.002110268 0.14750572 -0.10664726 -0.0017629932 -0.07904135 0.0535448
-0.052666266 0.09786333 0.029193684 0.050597973 0.110621326 0.015847165 0.09910449 -0.09683662
-0.06171411 0.065095305 -0.029830385 0.029511051 0.057373244 0.06036908 -0.05370721 0.116499476
-0.06735055 0.0577663 0.038697187 -0.087957 0.049755793 0.11555536 -0.00945837 -0.046022013
0.031117653 -0.012392285 0.092262104 -0.050122365 0.114925966 0.09863629 -0.003974161 0.026370384
0.11756324 0.032959834 0.037918024 -0.04048505 0.045497406 0.056769393 0.09000358 0.10760424
-0.02680529 -0.05297113 -0.0137308 0.01780575 0.06441952 -0.054689057 0.07263554 -0.0005279375
0.03230061 0.010313946 0.00040720712 -0.02362321 0.0099085765 0.039537672 0.024798345 0.05419418
0.11430871 0.066498354 -0.11354919 -0.033788912 -0.11847713 0.019432584 -0.09590751 -0.06409287
0.009807095 -0.09657382 0.10430434 -0.034108475 -0.080411755 0.10753272 0.013509149 0.056313436
0.081867985 -0.08190851 0.09230044 -0.03899947 -0.043746907 -0.0023428493 0.12993231 -0.045060456
0.019361217 0.024945626 0.08806349 0.089423284 0.031174833 0.02542886 0.081693195 -0.020412441
-0.043495975 -0.11514665 -0.029473254 -0.10180695 -0.036582373 0.00034205522 0.053631127 -0.06828464
-0.115887746 0.09242883 -0.047819007 0.08796761 -0.004209386 0.1326258 0.1022156 0.0023924403
-0.040371854 0.059041403 -0.085211985 -0.08495624 0.072948284 0.10826396 0.019025221 0.053214688
0.04945983 -0.035745166 -0.025989776 -0.088662736 0.0030431258 0.020707965 0.053468335 -0.06463787
-0.032167643 0.027130617 -0.119080424 -0.041654035 -0.1117717 0.0640279 0.08769125 -0.032786053
-0.040331148 -0.012281263 -0.07094172 0.044504866 -0.07299502 0.009614587 -0.036942497 -0.055844188
-0.11369419 0.008693175 -0.10726195 -0.05104077 -0.069536835 0.03738869 0.026836282 -0.06165221
0.112262145 0.035791308 -0.008778578 0.04010255 0.037698 0.05350075 0.025925059 0.057409078
0.081215315 -0.11248364 0.11007402 0.089313745 0.07321422 0.023440735 0.007972368 -0.09237085
0.056513313 0.003137983 -0.005653305 0.056944743 0.10118036 -0.020853747 0.051019136 0.089318104
-0.07426016 -0.10858361 -0.050734673 0.07729574 -0.06835427 0.030213626 0.095041506 0.0423753
-0.09037891 -0.0648636 0.03591543 0.115633525 0.015930632 0.06905095 0.009469839 0.032848846
0.06596147 -0.0051219175 0.011982067 0.10542881 -0.027772317 -0.032009136 -0.13322204 -0.089086
-0.06688429 -0.026905613 0.049956128 0.053515002 0.123443305 0.1083269 -0.07903058 0.10192925
-0.0152002545 0.09118277 0.02453506 0.10036906 0.07227232 -0.0599444 -0.095237695 0.0299407
0.041416213 -0.13342491 0.058807403 0.09825351 0.012719221 -0.11420152 -0.07581159 0.024449673
-0.07330989 -0.0028102645 0.05992276 0.013398302 -0.043613825 -0.053521346 -0.111841336 -0.114697345

fc1.bias f4 [256]
00000000: c15c 5a3d df53 af3d cdd2 e53d 4f3a ec3d
00000010: bdc9 99bc 8fea 05bc 2302 863d be7b aebd
00000020: 8fbb 683d aa88 11bc d79d eb3d 76b3 a2bb
00000030: ec2f 82bc 5177 00bd 6664 06bd aeea 7cbd
00000040: dafe 013d 69e2 2abd db7b b23d 41f3 ee3d
00000050: 65c7 953d ca7f 453d c2ef d9bd 5896 bbbd
00000060: 59bb 25bc 80dc debd 0b9c ae3d c31e 2f3d
00000070: 04a7 cbbd 882d 2d3d c33b d3bd 8de9 bbbd
00000080: e932 74bd 9326 d8bd 781b 6fbd 9b20 5c3d
00000090: cdcd bd3c 82df acbd 2f24 a4bd a5d8 96bd
000000a0: 3900 a43d ecc9 a13d 9f32 d73d 8c1a 263d
000000b0: 24a4 463d 3ece 553c b09f fc3d 0e81 bd3d
000000c0: dbce 69bd b836 bdbd 5dbc 7ebd 4ca7 c33d
000000d0: 8a52 663d cc38 a83d 3b32 a83d 8bb0 5fbd
000000e0: 9801 d63d ca1c 4fbd 0e36 dd3d 926a 2e3d
000000f0: 9939 6d3d f383 d8bd 662e 023e 82cf b7bd
00000100: ac48 e5bd aa98 983c a650 573d da90 f93d
00000110: 0ade bd3d e718 e1bd 9152 7b3d 6954 e0bc
00000120: 2f52 9bbd 7c6c c3bd a27b 8ebc 36d5 503c
00000130: 2d4b 583c 99d3 f43d 1c0a bbbd 6653 e73d
00000140: 824e 9c3d 11b7 89bd eeee 4f3d 4483 b1bd
00000150: da86 cd3c 6a2b 703d 4774 3f3d af4d f4bb
00000160: 86a8 a2bd 28bd 9c3c 3cad e8bd 9927 513c
00000170: 44d4 183d 84c8 353d 5644 50bd bfd2 97bd
00000180: af3f c13d 3df2 bb3d 05eb 8f3d bf72 973b
00000190: bd23 ae3d 9737 493d 2fee bb3d 2e98 dfbd
000001a0: 95fb de3c ba9c 683d 4959 a8bd 82c9 d5bd
000001b0: c482 4cbd fdaa c73c b220 babd 1958 363d
000001c0: 9eee 5f3d 41cc 1abd 0bd2 8dbd a91c c7bd
000001d0: b2d3 babc 2441 d3bd 4e3e 883d 6afe 94bd
000001e0: fbf2 eebd a4b9 e13d acf5 f33c f859 c3bd
000001f0: b6b4 2cbd 55cf e83d 1512 61bd ed2f 60bc
00000200: b12d adbd 6516 933d 6bf0 ccbc 89e6 3a3d
00000210: c4bc b4bd 4670 0f3d 01f3 89bd a4c4 ebbd
00000220: f468 28bc dde9 713d 4e13 30bd 197f 6abd
00000230: fb45 9b3d cf56 a1bd 28df db3d dc41 e43b
00000240: 597c a73d 5c92 6dbd 14e8 ec3c c5dd 393d
00000250: 2a3c e9bd aa02 5e3d 3eec a9bd 7f27 c33d
00000260: 0782 643d aa46 5bbd 044d 833d d54c 13bd
00000270: 339d 0a3d 71d5 81bd e7da 73bd c85b 26bd
00000280: afb0 383d f3ee 1b3d e6e7 8ebd d2ab dbbd
00000290: a1b1 2abd 7ac5 6f3d b013 95bc e40c aabc
000002a0: e313 f8bd b702 95bd 6d20 0d3d 12a5 ed3d
000002b0: b760 423d 2d6e ae3b 5e00 da3d c773 8e3d
000002c0: 4669 493d edf7 b5bd 3b28 34bd 1242 dfbc
000002d0: a047 45bd 2398 9abd f955 a0bd 8032 c2bc
000002e0: e6fb c73d 6d26 d1bd 8e24 02bc fab2 fb3d
000002f0: 924b f23d a213 04bd 7e2c 8a3d bc45 be3c
00000300: 8ce4 fd3c bf8e 853d cce5 4b3d 78f7 9dbd
00000310: a3f5 373b 3b43 0dbd 24a9 dd3d 1cb4 d83c
00000320: 8a87 f53d 7197 2d3d 1948 70bd e0c5 d4bd
00000330: b6c2 8e3c cfe4 5a3d 9381 cf3c 1cf3 9abd
00000340: 31f9 98bd 045b a4bd 7658 0fbd e770 553c
00000350: ea3d 13bd e401 ebb9 5cc3 c63d 343b f53d
00000360: d0ad e73d 0012 adbd 6aa8 963d 73cb 0bbd
00000370: f954 e33d d054 0b3e 1063 46bb 72c4 003e
00000380: 3a86 c13c 10d7 fa3d 6e08 d93d b224 5fbd
00000390: 170b cebd 63b4 9bbd 77c9 ccbd 66a4 043e
000003a0: ee21 253d 03e4 eb3d 3946 a0bd 37ef 163c
000003b0: 1c76 a93d a7ca 42bb a2bb 513d 1b36 073b
000003c0: c11e acbd 7475 5cbd c11d 803d 81c6 06bd
000003d0: 6895 22bd df96 00bd c97a 053d 974f 9dbd
000003e0: b9b8 e4bc 8ab3 e73d 191f f33b e6a5 f8bb
000003f0: 89f8 793d ac27 83bc cd93 35bd 225d ca3c
0.053311113 0.08560919 0.11221848 0.11534559 -0.018772954 -0.008173599 0.06543376 -0.08519696
0.056819495 -0.008882681 0.11504715 -0.004965241 -0.015891992 -0.03136379 -0.03281059 -0.061747245
0.031737186 -0.041719828 0.0871503 0.11667491 0.07313422 0.048217572 -0.10641433 -0.09159535
-0.010115468 -0.10881901 0.085258566 0.042753946 -0.09943965 0.04227975 -0.10314133 -0.09175406
-0.059618864 -0.105542324 -0.058375806 0.053742032 0.023169423 -0.08441068 -0.08014714 -0.073655404
0.08007855 0.07899842 0.10507702 0.04055266 0.04849638 0.01304966 0.123351455 0.09253131
-0.05708204 -0.092389524 -0.062191356 0.09553394 0.05623106 0.08213958 0.08212706 -0.054611724
0.10449523 -0.050564565 0.10801326 0.042582102 0.057916258 -0.10572042 0.12713012 -0.08975126
-0.11195502 0.018627483 0.052567147 0.12185831 0.09270866 -0.10991078 0.06135804 -0.027384
-0.07584035 -0.09542176 -0.017392937 0.012746146 0.013201517 0.119544216 -0.091327876 0.11295204
0.07632162 -0.0672437 0.05076497 -0.08667615 0.025088716 0.058635153 0.04674175 -0.0074555497
-0.079422995 0.019133165 -0.11361167 0.0127657885 0.037311807 0.04438068 -0.05084642 -0.074132435
0.09435975 0.09177063 0.07027248 0.004621833 0.0850291 0.04912528 0.09176289 -0.10917698
0.027219573 0.05679009 -0.08220155 -0.10438825 -0.049929395 0.024373526 -0.090882674 0.04451761
0.054670922 -0.037792448 -0.06924828 -0.09722263 -0.022806022 -0.10315159 0.06652509 -0.07275088
-0.116674386 0.11021736 0.029780231 -0.095386446 -0.042164527 0.113676704 -0.054948885 -0.013683301
-0.084559806 0.07182006 -0.025016984 0.04563001 -0.08825067 0.03501918 -0.067358024 -0.115121156
-0.010278929 0.05906092 -0.04298716 -0.057250116 0.07581707 -0.078778856 0.10735923 0.006965859
0.08178014 -0.058000907 0.028919257 0.04537751 -0.113884285 0.05420176 -0.08297013 0.09529018
0.055788066 -0.053534187 0.06411174 -0.035961945 0.033841323 -0.06339539 -0.059534933 -0.040614873
0.045090374 0.038069677 -0.06977825 -0.107261315 -0.041673306 0.058537938 -0.018197864 -0.0207581
-0.12113168 -0.072759084 0.03445475 0.1160375 0.047455516 0.0053231926 0.10644601 0.069556765
0.049172662 -0.08885179 -0.04398368 -0.027253184 -0.04816401 -0.07548549 -0.07828898 -0.02370572
0.09764843 -0.10212407 -0.007943286 0.122899964 0.1183082 -0.032245286 0.067467675 0.023226611
0.030992769 0.06521367 0.0497797 -0.077132165 0.0028069995 -0.034487944 0.10823277 0.02645307
0.11988743 0.042380754 -0.058662508 -0.10389304 0.01742683 0.053440865 0.02533034 -0.07565901
-0.074694045 -0.08025172 -0.034996472 0.013027406 -0.035947718 -0.00044824101 0.097052306 0.11974183
0.11312449 -0.08450699 0.07356341 -0.03412957 0.111001916 0.13606572 -0.0030271448 0.12574938
0.023623575 0.12248051 0.10597311 -0.054478355 -0.10060709 -0.076027654 -0.09999364 0.12953338
0.04031556 0.11518099 -0.07825894 0.009212307 0.08274481 -0.002972284 0.05120433 0.0020631615
-0.08404303 -0.05382295 0.06255675 -0.03290415 -0.039693266 -0.031393882 0.0325878 -0.07681196
-0.027920114 0.11313541 0.0074194786 -0.007588136 0.061028037 -0.016010128 -0.044330407 0.024702612

bn4.weight f4 [256]
00000000: 3309 853f 57d3 823f f15d 843f 13b4 823f
00000010: 84ea 833f 776e 833f fc84 833f 4ef9 833f
00000020: 46db 833f ddf4 823f 5b15 823f e925 823f
00000030: 3e17 833f 876e 833f f165 833f 4bcb 813f
00000040: 1e3c 833f 1bd3 823f 49f3 823f 6593 813f
00000050: f3b3 823f c4d5 833f b0f3 813f 89f2 833f
00000060: 3675 823f 171e 833f 3bf2 833f 3272 823f
00000070: 7588 853f 917c 833f 6de1 833f 9d57 823f
00000080: 60d6 843f c3fe 823f 3214 823f 28f2 843f
00000090: f1e8 813f b743 833f e074 843f 0cbd 833f
000000a0: 5b08 833f f049 823f 7aeb 823f 0ff0 813f
000000b0: 09b7 823f 9c46 823f 92dd 843f ce8c 843f
000000c0: f9b7 833f e5d6 833f 05b5 813f bb25 823f
000000d0: 956e 823f 0ae5 843f 910b 823f 5439 823f
000000e0: c019 833f 7075 833f 2002 833f ebea 813f
000000f0: cdda 823f faa3 813f 9a40 823f b9c8 863f
00000100: a621 833f 4aa7 823f 116d 823f a6e0 823f
00000110: 19b3 823f 945c 823f 205d 823f 90a6 823f
00000120: 8322 833f 708f 843f ca50 823f c9b6 843f
00000130: 7666 823f 23f5 823f 0945 813f c275 833f
00000140: 6935 853f 7eb7 843f 3014 803f 7ea0 823f
00000150: 37a2 823f dfe8 823f 1916 823f aca2 813f
00000160: 015f 813f 2dc6 813f 97eb 833f b2dc 823f
00000170: cc9a 823f 291b 823f 9d70 833f 3f42 843f
00000180: 8916 843f 880d 853f dc02 823f 7ac9 833f
00000190: b67f 853f c927 823f e9bf 843f cc32 843f
000001a0: e2e4 823f 4482 843f 0663 853f 8c63 843f
000001b0: 2695 833f 1f4b 833f ed4d 813f 1dc6 813f
000001c0: dad8 823f 4e99 833f 1039 853f cbc3 833f
000001d0: eed9 843f 5eae 823f 961d 823f 6f2f 823f
000001e0: d86e 843f 662d 833f 1706 843f 75ef 823f
000001f0: d1c2 853f 69e2 853f 7f7b 823f 16ae 833f
00000200: 8164 833f e2f2 833f 9882 833f e40a 843f
00000210: b7c3 833f bbe8 823f 68df 823f 60db 823f
00000220: 79c6 823f 2cdf 823f fb36 863f ecb1 823f
00000230: 515d 823f ffbe 813f 28cd 823f 324e 833f
00000240: 256b 853f 341d 833f 855d 833f a467 833f
00000250: 0b40 843f ec66 823f ac02 833f f715 823f
00000260: 21c7 823f f766 843f 6db7 803f 2e3a 833f
00000270: 1ce2 823f 04fc 813f d8f7 823f f773 843f
00000280: f910 833f 3806 833f 49a2 813f 82e2 823f
00000290: bddc 823f f863 823f f613 823f d404 833f
000002a0: 64ed 823f 2228 833f 7ba5 813f 38da 823f
000002b0: 4130 843f 0cfe 833f 8bec 813f 3eca 833f
000002c0: dacd 823f c673 823f 6bc5 833f b5c2 813f
000002d0: 876b 813f 5166 823f d8da 833f 437f 833f
000002e0: b162 823f 2830 823f fcb2 813f 1abc 823f
000002f0: d9f0 833f e2c4 833f 5aea 823f d3d2 823f
00000300: 3c3c 843f 2efa 823f 7ef1 813f 5fc0 833f
00000310: 46f8 843f bda4 823f 253a 843f 61f8 833f
00000320: 9c8c 823f f17c 823f a23e 833f 7dd9 813f
00000330: b72d 853f df22 853f dbaf 823f b038 833f
00000340: 3a0e 843f fdd2 833f 5aac 833f e50f 833f
00000350: e9ea 823f b08b 823f b068 823f 3dad 833f
00000360: 2554 833f 4ca2 823f f112 813f 45b0 823f
00000370: 814c 843f b37c 833f b13e 813f dd71 833f
00000380: fc7c 833f f99e 813f a9d0 823f 0572 813f
00000390: 2ef2 843f ae70 823f 28e1 843f f489 823f
000003a0: 2adc 833f c3f0 823f f818 813f 4389 833f
000003b0: 7118 833f 9bd7 833f 47d2 823f 3438 833f
000003c0: 7bc7 843f 98f4 833f 447a 833f 33f3 813f
000003d0: cc65 833f 0168 823f f9aa 833f d746 843f
000003e0: 5624 823f 8d09 843f ed50 843f 9559 833f
000003f0: 5ead 823f e8de 843f 947e 853f 5123 833f
1.0393432 1.0220746 1.0341169 1.0211204 1.0305943 1.0268086 1.0274959 1.0310457
1.0301292 1.0230976 1.0162767 1.0167819 1.0241468 1.0268105 1.0265485 1.0140165
1.0252721 1.0220674 1.0230495 1.0123106 1.0211166 1.0299611 1.0152493 1.0308391
1.019202 1.0243558 1.0308298 1.01911 1.0432268 1.027239 1.030317 1.0182987
1.0377922 1.0233997 1.0162413 1.03864 1.0149213 1.025504 1.0348167 1.0292068
1.0236925 1.0178814 1.0228112 1.0151385 1.0212108 1.0177798 1.0380118 1.035547
1.0290519 1.0299956 1.0133368 1.0167764 1.0189997 1.0382397 1.015978 1.0173745
1.0242233 1.0270214 1.0235023 1.0149816 1.0223023 1.0128167 1.0175965 1.0530006
1.0244644 1.0207303 1.0189534 1.0224807 1.0210906 1.0184503 1.018467 1.0207081
1.0244907 1.0356274 1.0180905 1.0368282 1.0187519 1.023106 1.0099193 1.0270312
1.0406924 1.0368497 1.0006161 1.0205228 1.0205754 1.0227317 1.0162994 1.0127769
1.0107118 1.0138603 1.0306271 1.0223601 1.020349 1.0164539 1.0268742 1.0332717
1.0319377 1.0394754 1.0157123 1.0295861 1.0429599 1.0168391 1.0371066 1.0328002
1.02261 1.0352254 1.0420845 1.0342879 1.0279891 1.02573 1.0101906 1.0138584
1.0222428 1.028116 1.0408039 1.0294126 1.0379007 1.0209463 1.0165279 1.0170726
1.0346327 1.024823 1.0314358 1.0229326 1.0450078 1.045972 1.0193938 1.0287502
1.0265046 1.0308497 1.0274229 1.0315824 1.0294102 1.0227274 1.0224428 1.0223198
1.0216819 1.0224357 1.0485529 1.0210547 1.0184728 1.0136412 1.0218859 1.0258238
1.0423323 1.0243287 1.0262915 1.0266004 1.0332044 1.0187659 1.023519 1.0162953
1.0217019 1.0343922 1.0055977 1.025213 1.0225253 1.0155034 1.0231886 1.034789
1.0239555 1.0236273 1.012765 1.0225375 1.0223614 1.0186758 1.0162342 1.0235848
1.0228696 1.0246623 1.0128626 1.0222845 1.0327226 1.0311904 1.0150312 1.0296094
1.0219071 1.0191581 1.0294622 1.0137545 1.011094 1.0187474 1.0301161 1.0273212
1.0186368 1.0170946 1.0132747 1.0213654 1.0307876 1.0294459 1.0227768 1.0220588
1.0330882 1.0232599 1.0151823 1.0293082 1.0388267 1.0206524 1.0330244 1.0310174
1.019916 1.0194379 1.0253489 1.0144497 1.0404576 1.0401267 1.0209917 1.0251675
1.0316842 1.0298764 1.0286973 1.0239226 1.0227939 1.0198879 1.0188198 1.0287243
1.0260054 1.0205779 1.0083905 1.0210043 1.0335847 1.027243 1.0097257 1.0269123
1.0272517 1.012664 1.0219928 1.0112921 1.0386407 1.0190637 1.0381212 1.019835
1.0301564 1.0229725 1.0085745 1.0276264 1.0241834 1.0300173 1.0220422 1.0251527
1.0373377 1.0309019 1.0271688 1.0152344 1.0265441 1.018799 1.0286552 1.0334119
1.0167339 1.0315415 1.0337197 1.0261713 1.0209157 1.0380526 1.0429254 1.0245153
