mini_batch_exp/models/mnist_adam_batch1024_lr0.1.pt (torch_old, 968495 bytes, 62 tensors)

conv1.weight f4 [16, 1, 3, 3]
0	0xc0255082	-2.5830388
1	0x3fe83c6f	1.8143443
2	0x3eaf0df4	0.34190333
3	0xc186b90c	-16.840355
4	0x3f2b627e	0.6694716
5	0x412ee444	10.930729
6	0xc09402e2	-4.625352
7	0x3f0dbb7c	0.55364203
8	0x3f7e4341	0.9932137
9	0xc0d31207	-6.5959506
10	0x4093b718	4.6161003
11	0xbe9044d0	-0.281775
12	0x3dc4c422	0.09607722
13	0x412d9457	10.848716
14	0x3fcbb9bc	1.5916057
15	0xc1008408	-8.032234
16	0xc0ecafa1	-7.396439
17	0x406db858	3.7143764
18	0x3fde831a	1.7383759
19	0xc169a113	-14.601825
20	0xc019531d	-2.3956978
21	0xc162a436	-14.165091
22	0x4091dc39	4.5581326
23	0x40e26b93	7.0756316
24	0xc0c66826	-6.2002134
25	0x3e28322e	0.16425392
26	0x408f9a26	4.487567
27	0xc0215944	-2.5210733
28	0xbcc82460	-0.024431407
29	0xc0829069	-4.080128
30	0xc0e54625	-7.1648126
31	0xc039aa98	-2.9010372
32	0xc07343b4	-3.8010073
33	0xc09c68f4	-4.8878117
34	0x40537ed8	3.304617
35	0x4081aa2d	4.0520234
36	0x40f79989	7.737492
37	0x407c69a3	3.9439476
38	0xc040ec4a	-3.014422
39	0xc112b8bc	-9.170101
40	0xc1233995	-10.201558
41	0xbfeba647	-1.8410119
42	0x3fc02bc6	1.5013359
43	0x40c37444	6.1079426
44	0x40c976ea	6.295766
45	0xbf041353	-0.51591986
46	0x3dd4517e	0.10367106
47	0xbf08a23f	-0.5337257
48	0xc06a4fb7	-3.6611154
49	0x405bc283	3.433747
50	0xbe1d272d	-0.15346976
51	0xc08ba1a5	-4.363482
52	0x41a8cabf	21.098997
53	0xc09eb8fa	-4.96008
54	0xc10a600a	-8.648447
55	0xc02ecf23	-2.7313926
56	0xc0890b19	-4.2826047
57	0x40b49304	5.6429462
58	0x40b58293	5.672189
59	0xc11378f1	-9.217027
60	0xbf633903	-0.8875887
61	0xc0bed888	-5.963932
62	0xc10272f0	-8.153061
63	0xc00e4b84	-2.223359
64	0xc174e54b	-15.30598
65	0xc00a5033	-2.161145
66	0x40f150f6	7.541133
67	0xc0685617	-3.6302545
68	0xc11f7765	-9.966649
69	0x4025a665	2.588281
70	0xbe6d29f8	-0.23160541
71	0xc0d0c217	-6.5236926
72	0x3fa5ee74	1.2963395
73	0x3f94a73a	1.1613533
74	0xc10d9b39	-8.850396
75	0x40e33008	7.099613
76	0xbfe896d2	-1.8171027
77	0xc128081a	-10.501978
78	0x404f0fa2	3.2353292
79	0x40a3d891	5.1201863
80	0x3f9571fe	1.1675413
81	0x3ffac9a8	1.9592791
82	0xc0ab398c	-5.350775
83	0x4058fda8	3.390482
84	0x40d6bb6e	6.7103796
85	0xc135fe50	-11.374588
86	0xbfde2e83	-1.7357944
87	0x40aca52f	5.395164
88	0x3fe4f7f5	1.788817
89	0x3facf5f8	1.3512564
90	0xbf9cebc1	-1.2259446
91	0xc07147f9	-3.7700179
92	0x3f2dfc0a	0.67962706
93	0x3edd053a	0.4316805
94	0x411cee6b	9.8082075
95	0x4118b457	9.544028
96	0x40212f7c	2.5185232
97	0xbfa8b760	-1.3180962
98	0xc0da7f37	-6.828029
99	0xbfe7aa54	-1.8098855
100	0xbf5ee5e0	-0.8706951
101	0xc01967a9	-2.396952
102	0xbfa1016e	-1.2578561
103	0xbf15eedb	-0.5856759
104	0xbf549200	-0.8303528
105	0xbfebf7f5	-1.8435045
106	0xc010c1ca	-2.261828
107	0xc0102e0d	-2.2528107
108	0x410a960e	8.661634
109	0xc0874b53	-4.227945
110	0xc1065f65	-8.39829
111	0x40242b69	2.5651495
112	0xc161a3ae	-14.102461
113	0x40a3d193	5.119333
114	0xc10d2f97	-8.824119
115	0xc0f490cf	-7.642677
116	0x3d54ca99	0.051951025
117	0x405792ef	3.368343
118	0x4008df79	2.1386397
119	0x3fbd990d	1.4812332
120	0x4046e536	3.10774
121	0x4030578d	2.7553437
122	0x404eb9b4	3.2300844
123	0x40a98aff	5.2982173
124	0x40d129a4	6.536333
125	0x40f7dc96	7.745677
126	0xc13e47a7	-11.892493
127	0xbe2f15cc	-0.17098159
128	0x3fd03559	1.626628
129	0xbebed737	-0.3727357
130	0x3fad5a30	1.3543148
131	0xc0db284a	-6.848668
132	0x405763e3	3.3654716
133	0x40ea51e3	7.322496
134	0xc0cc5ae3	-6.3860946
135	0xbf80d6a4	-1.0065503
136	0xc136bff3	-11.421863
137	0xc0618a49	-3.5240653
138	0x3fde458a	1.7364972
139	0x3fb65902	1.4245913
140	0x3f5b6f09	0.857163
141	0x402a344f	2.6594427
142	0x40b420eb	5.6290183
143	0x40225f48	2.5370655

conv1.bias f4 [16]
0	0xc1a9e316	-21.235882
1	0xc16f34a6	-14.950354
2	0x414a7f44	12.656071
3	0x41767003	15.402347
4	0x418ae3e0	17.361267
5	0xc22aefeb	-42.734295
6	0x406afd8c	3.6717253
7	0x4152a928	13.166298
8	0xc12a5f40	-10.648254
9	0x41129dd4	9.163532
10	0xc083f98c	-4.1242123
11	0x3fc3efd0	1.530756
12	0xbfaafca4	-1.335835
13	0x3f8b8460	1.0899773
14	0x40566815	3.3501027
15	0x4142b9b0	12.170334

bn1.weight f4 [16]
0	0x40d00596	6.500682
1	0x40593b8d	3.3942597
2	0x41540e29	13.253457
3	0x410dedf1	8.870591
4	0x40a7e90d	5.2471986
5	0x41035c8a	8.210093
6	0x40bc594f	5.885902
7	0x41017c4d	8.092847
8	0x40fd43ce	7.914527
9	0x4084bb49	4.147862
10	0x40cd7309	6.4202924
11	0x403885e7	2.8831728
12	0x41198c62	9.596773
13	0x4090f4ec	4.5298977
14	0x40e30c55	7.0952554
15	0x412869fa	10.525873

bn1.bias f4 [16]
0	0x4032c307	2.7931535
1	0x3f018806	0.5059818
2	0x4075ee3e	3.8426661
3	0x407daac5	3.963548
4	0xbe819059	-0.2530544
5	0x40871a5c	4.2219677
6	0xbf314bff	-0.69256586
7	0x40017110	2.0225258
8	0x3fb71708	1.4303904
9	0x3db2a569	0.08722956
10	0xbd75d52a	-0.060017742
11	0x4077a8e6	3.8696837
12	0x403ec1c4	2.9805765
13	0x400692ef	2.102718
14	0xbe94f835	-0.29095617
15	0x40ea5cf2	7.323846

bn1.running_mean f4 [16]
0	0x43c7b600	399.42188
1	0x43a68a15	333.07877
2	0x437bc0a8	251.75256
3	0x429f33aa	79.60091
4	0x43e6496a	460.57355
5	0x444aa755	810.61456
6	0x41553419	13.325219
7	0x42c6e052	99.438126
8	0x43e2e15c	453.76062
9	0x43b22c0a	356.34406
10	0x44339204	718.2815
11	0x3f88fb56	1.0701702
12	0x430909a1	137.03761
13	0x44eec0aa	1910.0208
14	0x42d8e79b	108.452354
15	0x43ce3f9f	412.49704

bn1.running_var f4 [16]
0	0x496205b2	925787.1
1	0x4908387f	557959.94
2	0x48d45dcb	434926.34
3	0x474f8e37	53134.215
4	0x49159bd8	612797.5
5	0x4a048384	2.171105e+06
6	0x45f02171	7684.18
7	0x47eb02eb	120325.836
8	0x496c9884	969096.25
9	0x48e7eb55	474970.66
10	0x49c001a4	1.5729165e+06
11	0x3efc3c0e	0.49264568
12	0x482f255c	179349.44
13	0x4af82d22	8.132241e+06
14	0x47f7d3ee	126887.86
15	0x493bbeed	769006.8

conv2.weight f4 [32, 16, 4, 4]
0	0xbf002e1d	-0.50070363
1	0x40c2980e	6.0810614
2	0xc0783498	-3.87821
3	0xbef823f2	-0.48464924
4	0x3fbbcc39	1.4671699
5	0x40267b0f	2.601261
6	0xc0f48e02	-7.642335
7	0x40356e68	2.8348637
8	0xbf93852c	-1.1525016
9	0xbf9e00aa	-1.2343953
10	0xc09a40e7	-4.8204226
11	0xbdd1dc98	-0.10247153
12	0xbe37aec9	-0.17937769
13	0xc0a4b0fa	-5.1466036
14	0xc0a3660a	-5.106206
15	0x3f57adfd	0.8424986
16	0xc013fea3	-2.3124168
17	0xbe507776	-0.2035807
18	0xbfb34e47	-1.4008263
19	0x3fcc84af	1.5977992
20	0xc0849787	-4.143497
21	0x4068fd91	3.6404765
22	0x3f9be39f	1.217884
23	0x404e0187	3.2188432
24	0xbe2a000c	-0.1660158
25	0xc043a731	-3.0570796
26	0xc100e39c	-8.055569
27	0x3e2129da	0.15738621
28	0x40603a6e	3.5035663
29	0x4082c1e2	4.0861673
30	0x408a3447	4.3188815
31	0x400e7cf7	2.2263772
32	0xbfb64d2f	-1.4242305
33	0x3f9325c5	1.1495901
34	0xc0ac7026	-5.38869
35	0x3fed707f	1.8549956
36	0xc096d290	-4.7132034
37	0x408a6218	4.3244743
38	0x3de850d9	0.113435455
39	0xc00c31cb	-2.1905391
40	0xc0f25537	-7.572902
41	0xbf44f84f	-0.7694139
42	0xc04f9002	-3.2431645
43	0xc05d9968	-3.4624882
44	0xc0df869c	-6.985182
45	0xc0a1a066	-5.05083
46	0xc0ad5dc5	-5.4176965
47	0x3ec56aba	0.38557988
48	0xbf277fda	-0.6542946
49	0x402ce1d0	2.7012825
50	0x4096c7af	4.7118754
51	0x40297da3	2.6482933
52	0x3dc1636c	0.09442791
53	0x40935427	4.6040225
54	0xc0498b12	-3.1491132
55	0xc00b2ae6	-2.1744933
56	0xc066b51e	-3.6048045
57	0xbf4f18e9	-0.80897385
58	0xbf8a4548	-1.0802393
59	0xc056d32e	-3.3566394
60	0x3ff02b37	1.8763188
61	0x40a1e933	5.0597167
62	0x40b371d3	5.6076446
63	0x3f7f15f9	0.996429
64	0x401fb000	2.4951172
65	0x410d402e	8.828169
66	0x40d85839	6.7607694
67	0xbf3f93c9	-0.7483488
68	0x406fd3c2	3.7472997
69	0xbe435ebc	-0.19079107
70	0x3f85b8ef	1.0447062
71	0x3ff4330d	1.907808
72	0xc05f9ed1	-3.4940684
73	0x415a7498	13.653465
74	0x4109815f	8.594085
75	0x3fd5cde1	1.6703454
76	0x4095da34	4.682886
77	0xbf760e3d	-0.96115476
78	0x40dd39ca	6.9133043
79	0x40230591	2.5472147
80	0xc081de85	-4.058413
81	0x4056c304	3.3556528
82	0x3f88be66	1.0683105
83	0x4075243e	3.830337
84	0x400ef49c	2.2336798
85	0x410727d3	8.447223
86	0xc0896eb9	-4.294766
87	0xbf8c2bb0	-1.0950832
88	0xbf994b27	-1.197606
89	0xbfad07e0	-1.3518028
90	0xc0ff8084	-7.984438
91	0xc02477f1	-2.5698206
92	0x408c401b	4.3828254
93	0x3fae6215	1.3623682
94	0xbe0c2016	-0.13684115
95	0x3fa65b85	1.299668
96	0x3f222f04	0.6335299
97	0x3e556b95	0.2084182
98	0xc0944d0b	-4.6344047
99	0x4117baf7	9.483146
100	0xbfe3f61a	-1.7809479
101	0xc0aee31c	-5.4652233
102	0x3fadb66d	1.3571297
103	0x40c5fcd9	6.187115
104	0xbfa1f416	-1.2652614
105	0x408ecf43	4.4628005
106	0xbe9f2697	-0.3108413
107	0x3f43c04a	0.76465285
108	0x40a482da	5.140973
109	0xc058568d	-3.3802826
110	0x3f1c5c5e	0.6107844
111	0x3f88f481	1.0699617
112	0xbf9c0b39	-1.2190925
113	0xc1442c74	-12.260853
114	0xc10e1567	-8.880225
115	0xc0764607	-3.8480241
116	0xc0158640	-2.336319
117	0xc0ace072	-5.402398
118	0xc099b9b3	-4.8039184
119	0xbff5d99f	-1.9207038
120	0xc1466050	-12.398514
121	0xc08fe2a9	-4.4964185
122	0xc05b92d6	-3.4308372
123	0xc08e8311	-4.4534993
124	0x40877bd8	4.2338676
125	0xbf41d778	-0.75719404
126	0x3ea58cf1	0.32334092
127	0xc03d2a17	-2.955694
128	0x3fe72824	1.8059125
129	0xbe722889	-0.23648275
130	0xc0494523	-3.1448448
131	0xbf442ff5	-0.76635677
132	0x40af24e5	5.4732537
133	0xc0e456ac	-7.13558
134	0x3f9b5af2	1.2137129
135	0xbff5f1d1	-1.9214422
136	0xbe2e75f6	-0.17037186
137	0x41223efa	10.140375
138	0x4006a4a3	2.1037986
139	0x3ef2e749	0.47442082
140	0x40dadd3b	6.8395057
141	0x3fdc39f9	1.7205192
142	0x3feaa94f	1.8332919
143	0x3ff379e6	1.9021575
144	0x40614d92	3.5203595
145	0x4015fac0	2.3434296
146	0x3d396ebd	0.045271624
147	0xc09e5fd4	-4.949198
148	0x41012b45	8.073064
149	0xc1007f03	-8.031009
150	0x3e1e6df8	0.15471637
151	0xbfdb2983	-1.7122043
152	0xc0198023	-2.3984458
153	0x4079598a	3.89609
154	0x3fee83c0	1.8633957
155	0xbf183994	-0.5946286
156	0x40b6b789	5.709904
157	0x4015601a	2.3339906
158	0x409ece8b	4.962713
159	0x403f52be	2.9894252
160	0xc05021f3	-3.252072
161	0xbf57bff2	-0.8427726
162	0x3fafc430	1.3731747
163	0x3feca916	1.8489101
164	0x40784a54	3.8795366
165	0x41084a89	8.518197
166	0x40686713	3.6312912
167	0xbfd008c0	-1.625267
168	0x3dfb5fc1	0.12274123
169	0xc0649c9e	-3.5720592
170	0xc08ebe20	-4.4607086
171	0xc0699bca	-3.6501336
172	0x4083653c	4.1061077
173	0x40a63a53	5.1946197
174	0x40df9a25	6.9875665
175	0x3fa4098e	1.2815416
176	0xbf11e531	-0.56990343
177	0x3f864ac3	1.0491565
178	0xbf7719bb	-0.96523637
179	0x3eac043d	0.33596984
180	0xc025cdf3	-2.5906951
181	0xc00856bb	-2.1302936
182	0xbffe907b	-1.9887842
183	0xbf4a1245	-0.7893413
184	0x3f8a144e	1.0787446
185	0xc0751040	-3.8291168
186	0xbf904783	-1.1271824
187	0x3ec45b1c	0.3835076
188	0xbf7e1f31	-0.99266344
189	0xc0d24308	-6.5706825
190	0xbfa6a48e	-1.3018968
191	0xbf01cbc8	-0.5070157
192	0xbfabe748	-1.3429956
193	0x4103769a	8.216455
194	0x40064bb6	2.098371
195	0xc120338f	-10.012588
196	0xc0fdc613	-7.930429
197	0x3fac6437	1.3468083
198	0x4069c267	3.6524904
199	0x408635ca	4.194066
200	0xbf7a9181	-0.9787827
201	0x403b8b90	2.9303932
202	0x40a8f03c	5.2793255
203	0xbf5eaae8	-0.8697953
204	0xc10de654	-8.868732
205	0xc1169e8d	-9.413709
206	0xc0eaaedf	-7.3338466
207	0xc09fedc3	-4.9977736
208	0xc0aeaa00	-5.458252
209	0xc07358ad	-3.8022873
210	0xbf2fb58e	-0.68636405
211	0x3e034d47	0.12822448
212	0xbf498c42	-0.7872964
213	0xbf0ecf29	-0.5578485
214	0xc02c1094	-2.6885118
215	0xc0128ba7	-2.2897737
216	0xbf0628ae	-0.5240582
217	0xbfcf5add	-1.6199604
218	0xc0cb2c88	-6.349186
219	0xc00faf41	-2.2450716
220	0x404c2ccd	3.1902344
221	0x3fa85023	1.3149456
222	0x3f07ea2e	0.53091705
223	0x3f199058	0.59985876
224	0xc050fb0e	-3.2653232
225	0x3e6f4bd3	0.23368768
226	0xbf8fd51d	-1.1236912
227	0x40a0fb0c	5.0306454
228	0x3d80f2a1	0.06296278
229	0x4134e7fe	11.306639
230	0xc0c0e854	-6.0283604
231	0x3b33cab3	0.002743405
232	0xc11ceeb3	-9.808276
233	0x400a8849	2.1645682
234	0x3f9334a9	1.1500446
235	0x4007d34c	2.1222715
236	0x3f975b32	1.1824706
237	0xbe3446a6	-0.17605075
238	0xbf84e5c8	-1.0382624
239	0x3fc654cb	1.5494627
240	0xc081d02a	-4.0566607
241	0x409fba10	4.9914627
242	0xc02c8d5f	-2.6961286
243	0x3f216e9e	0.63059413
244	0x40ce836b	6.453542
245	0xc02b9803	-2.681153
246	0xc061eb13	-3.5299728
247	0xc06e0ee9	-3.71966
248	0xc14fc69c	-12.985989
249	0xbf6ed3f3	-0.9329216
250	0x408dc479	4.4302335
251	0x400bc5b5	2.183942
252	0x40b7161b	5.7214484
253	0x40ac36ca	5.381688
254	0x40b8c147	5.7735934
255	0x4127316c	10.449566

conv2.bias f4 [32]
0	0xbeef5fbc	-0.46752727
1	0x3f7128cb	0.9420287
2	0xbfad8dc9	-1.3558894
3	0xbf6aa104	-0.9165194
4	0xbfbaedcd	-1.4603821
5	0x3f019a68	0.5062623
6	0xbe9c2e7b	-0.30504212
7	0xc0105fd6	-2.2558494
8	0x3ed451be	0.41468614
9	0xc019646e	-2.3967547
10	0xbf3b8487	-0.73249096
11	0x3ee3bbb1	0.44479135
12	0xbf898d7f	-1.0746306
13	0xc005c501	-2.0901492
14	0x3fc1f4b3	1.5152801
15	0xbfb9b76c	-1.4509101
16	0xbed45592	-0.41471535
17	0xbf9c6423	-1.2218059
18	0xc02f6b75	-2.7409337
19	0xbf215326	-0.630175
20	0xbf93c883	-1.1545566
21	0xbfe99e5a	-1.825145
22	0x3db7c973	0.0897397
23	0xc03c54f5	-2.9426854
24	0xc0ff8565	-7.9850335
25	0xc02d05b8	-2.703474
26	0xc00b6267	-2.177881
27	0xc034476e	-2.8168597
28	0xc04e6bf2	-3.2253385
29	0xbdf18c12	-0.117942944
30	0xc064e32f	-3.5763662
31	0xbfe81814	-1.8132348

bn2.weight f4 [32]
0	0x40c9403d	6.2890916
1	0x3f23cd79	0.639854
2	0x403b42bb	2.925948
3	0x3ea0b10d	0.3138508
4	0x40fc29c5	7.880099
5	0x3e46f4ae	0.19429275
6	0x41052820	8.322296
7	0x410235fb	8.138179
8	0x409b1126	4.8458433
9	0x40f2495c	7.571455
10	0x40ea9ffa	7.3320284
11	0x40c71984	6.2218647
12	0x40e60cff	7.1890864
13	0x40ddcdf1	6.9313893
14	0x40f388a6	7.6104307
15	0x411ac3f5	9.672841
16	0x4120810e	10.0315075
17	0xc0541fd8	-3.3144436
18	0xc0879bbc	-4.2377605
19	0x3ec19e51	0.37816098
20	0x40ce5aa7	6.448566
21	0x40b6c2c2	5.711274
22	0x4120f0c2	10.058779
23	0x40a5aa87	5.1770663
24	0x410e8a51	8.908769
25	0x4090cf5e	4.5253134
26	0x410f34c0	8.950378
27	0x40c6d70f	6.2137523
28	0x410378ec	8.217022
29	0x3f7b29fd	0.98110944
30	0x411b9763	9.72446
31	0x40f226c6	7.567233

bn2.bias f4 [32]
0	0x3fce143a	1.6099923
1	0x3f0f47f1	0.5596915
2	0x3e919534	0.28434145
3	0x3f06a6e0	0.5259838
4	0x4000eb3d	2.0143578
5	0x3ece01bb	0.40235695
6	0x402cb4b0	2.6985283
7	0x40335851	2.8022654
8	0x3fcb05ba	1.5861123
9	0x3ffc762f	1.9723567
10	0x3f750836	0.95715654
11	0x3f7001ec	0.9375293
12	0x3f87f78f	1.0622424
13	0x401a4cd2	2.4109387
14	0x3fa351d2	1.2759345
15	0x3fd0e9d0	1.6321354
16	0x3f3ca4aa	0.7368876
17	0xbf1612fa	-0.58622706
18	0xbb672f85	-0.0035276127
19	0x3f044192	0.5166255
20	0x3f3fc098	0.7490325
21	0x3f13dfa8	0.5776315
22	0x40982d7c	4.7555523
23	0x3f45dae2	0.77287114
24	0x3f717614	0.943208
25	0x3efe4e11	0.49668935
26	0x3ffba784	1.9660497
27	0x3fe38bc7	1.7777032
28	0x3fd4ac0d	1.6615006
29	0x3f186f1b	0.59544533
30	0x4012f9c8	2.2964954
31	0x3f07d897	0.53064865

bn2.running_mean f4 [32]
0	0x43c81bb5	400.21646
1	0x4402624a	521.53577
2	0x439f33ff	318.40622
3	0x43d52a10	426.3286
4	0x43515c56	209.36069
5	0x4408c9c0	547.15234
6	0x444fa48a	830.5709
7	0x4380b49f	257.4111
8	0x4420076d	640.116
9	0x44281776	672.3666
10	0x4339517c	185.3183
11	0x4464f377	915.80414
12	0x43aefe52	349.98688
13	0x434d3e33	205.24297
14	0x44213e5c	644.97437
15	0x438c38b5	280.44302
16	0x437c0ab2	252.04178
17	0x440f4945	573.14484
18	0x41c00683	24.00318
19	0x43c28565	389.04214
20	0x43dc8119	441.00858
21	0x4436d14b	731.2702
22	0x43d13710	418.43018
23	0x42b0a1d2	88.316055
24	0x433b1c36	187.1102
25	0x4375a8f1	245.65993
26	0x43c1cb86	387.59003
27	0x441005eb	576.09247
28	0x43138ace	147.5422
29	0x43fdff9c	507.99695
30	0x42f5f922	122.98659
31	0x43c5d30a	395.64874

bn2.running_var f4 [32]
0	0x48af2a6e	358739.44
1	0x483fa6a7	196250.61
2	0x4822731c	166348.44
3	0x4816d1dd	154439.45
4	0x4859aeef	222907.73
5	0x481d2bb6	160942.84
6	0x49394ea3	759018.2
7	0x48d1a6ed	429367.4
8	0x48cfbd51	425450.53
9	0x48ff2cb3	522597.6
10	0x480ee28d	146314.2
11	0x49150e96	610537.4
12	0x48957e5b	306162.84
13	0x484f077b	211997.92
14	0x48ce4bd6	422494.7
15	0x489072f3	295831.6
16	0x4860f288	230346.12
17	0x487a1fa4	256126.56
18	0x46e0163d	28683.12
19	0x47587cde	55420.867
20	0x487df796	260062.34
21	0x48db4e36	449137.7
22	0x48db8f6d	449659.4
23	0x47a7d620	85932.25
24	0x480e7e45	145913.08
25	0x483d5cba	193906.9
26	0x488d6dac	289645.38
27	0x4912b261	600870.06
28	0x4822c00c	166656.19
29	0x4830ddbc	181110.94
30	0x47f0b070	123232.875
31	0x48a0e89f	329540.97

conv3.weight f4 [64, 32, 5, 5]
0	0xc04d2965	-3.2056515
1	0x3f2bd7f7	0.6712641
2	0x3da8a66d	0.08234868
3	0x3fa5709a	1.2924988
4	0xbfb08c04	-1.3792729
5	0xbfd65d71	-1.6747266
6	0xbfb5306e	-1.4155405
7	0xbfa700f9	-1.3047172
8	0xbf58d78b	-0.8470389
9	0x40f55e5a	7.6677675
10	0xc01b2634	-2.4242067
11	0x406044f8	3.5042095
12	0x3f408e20	0.75216866
13	0xc00c741f	-2.1945875
14	0x40132f27	2.299753
15	0x405d66a3	3.4593894
16	0xbf430299	-0.7617584
17	0xc0819bbf	-4.050262
18	0xc13b8607	-11.7202215
19	0xc0179f9c	-2.3691168
20	0xc11af425	-9.684606
21	0xc04d23b8	-3.205305
22	0xc091cf58	-4.5565605
23	0xc08d7fb3	-4.4218383
24	0x3e26e16b	0.16296928
25	0xbf57d59d	-0.84310323
26	0xbf12961e	-0.5726031
27	0x3eaf8370	0.34279966
28	0xbf1768f4	-0.5914452
29	0xbe78dd4f	-0.24303173
30	0xbe81d484	-0.2535745
31	0xbe088e42	-0.13335517
32	0xc084a50b	-4.145147
33	0x3f5284b5	0.82233745
34	0x3ffc1b12	1.9695761
35	0xbd464e5d	-0.048414577
36	0xbe8dd533	-0.2770172
37	0xc0a5c681	-5.1804814
38	0x4026666c	2.6000013
39	0x3e8446a6	0.2583515
40	0xbdb6bf4c	-0.08923206
41	0x3e6312ae	0.22175094
42	0x3f5b183e	0.85583866
43	0x3e2061ff	0.15662383
44	0xbe8cb1bf	-0.2747936
45	0xbfa47fd6	-1.2851512
46	0x3e7eba84	0.24875838
47	0x3f1e73a2	0.6189519
48	0xbf5efedf	-0.8710765
49	0xbfae038f	-1.3594836
50	0xc0cd5133	-6.416162
51	0xc031460b	-2.7699
52	0xc01e1a73	-2.4703643
53	0xc074829c	-3.8204718
54	0x3f08eaf4	0.5348351
55	0x40b22ca3	5.567949
56	0x3f710ce2	0.9416028
57	0x40418072	3.0234647
58	0xc073857e	-3.8050227
59	0x3fc5a77a	1.5441735
60	0xbfd0aab8	-1.6302099
61	0x3f79682b	0.9742457
62	0xc18cb5c1	-17.588747
63	0xc08253bf	-4.072723
64	0xbfcf52f1	-1.6197187
65	0xbf88fdf2	-1.0702498
66	0xc009e402	-2.1545415
67	0xbfa523d6	-1.2901561
68	0x3e9975d5	0.2997271
69	0xbdd70d28	-0.10500556
70	0xbf8c7412	-1.0972922
71	0xbf2ab1d2	-0.6667758
72	0xbfad69e2	-1.3547938
73	0xc09a204f	-4.816444
74	0xbf8dc140	-1.10746
75	0xbfcbdb91	-1.5926381
76	0xc083422e	-4.1018286
77	0xbfc457c7	-1.5339288
78	0xbdc5db3d	-0.09660957
79	0x3f7576c0	0.95884323
80	0xbefaa29f	-0.48952195
81	0x3e47b86a	0.19503942
82	0xbfcf547a	-1.6197655
83	0xbf2280cb	-0.6347777
84	0xbdf40051	-0.11914123
85	0xbeac1924	-0.3361293
86	0xbe7f7947	-0.24948607
87	0xbf886225	-1.0654951
88	0xbf1cfafb	-0.61320466
89	0xbebb1bcf	-0.36544654
90	0xbf0c7ce2	-0.54878056
91	0xbed400c2	-0.41406828
92	0x3ef112b4	0.47084582
93	0x3f8199e3	1.0125087
94	0x3d0d938c	0.03456454
95	0xbe6731cb	-0.22577588
96	0xbf9ff79a	-1.2497437
97	0x3c452593	0.012032884
98	0x3df64c73	0.120263
99	0xbf249c29	-0.6430078
100	0x406c69ac	3.6939497
101	0xbf4b0e26	-0.79318464
102	0xbfae8491	-1.3634206
103	0x40bb32db	5.849958
104	0x409e7b44	4.952547
105	0xc030ed05	-2.7644665
106	0xc05c4a78	-3.4420452
107	0xc0abf05f	-5.373092
108	0x3ffd43c3	1.9786304
109	0x4077ba38	3.870741
110	0xbf3af7fb	-0.7303464
111	0x3fd2d85a	1.6472275
112	0xc074422f	-3.8165395
113	0x3f1c413f	0.6103706
114	0x407341b3	3.800885
115	0xbe85918c	-0.26087606
116	0xc08bd5dd	-4.3698564
117	0xc0a4f28f	-5.154609
118	0xc05e6638	-3.474989
119	0x40a9c6ae	5.305503
120	0xc02774e8	-2.6165104
121	0xc0b00588	-5.500675
122	0xbfd0670e	-1.628145
123	0x3fd5bfc2	1.6699145
124	0x403870ac	2.881877
125	0x3f732b08	0.94987535
126	0x3ed55e48	0.41673493
127	0xbd8ea897	-0.0696575
128	0x3f7692c0	0.9631767
129	0xbdbbfdd6	-0.09179275
130	0xbeeb86d4	-0.46001303
131	0x4080c249	4.0237164
132	0xbdda126c	-0.10648045
133	0x3f98dea1	1.1942941
134	0xbe8090ff	-0.25110623
135	0x3ddaba78	0.10680097
136	0xbe0bfb71	-0.13670136
137	0xbfa950ec	-1.322782
138	0x3feffb6c	1.8748603
139	0x3ce56d66	0.028006267
140	0x3df44e06	0.11928944
141	0xbbcaced3	-0.006189206
142	0x3f0c45f8	0.54794264
143	0xbf45c112	-0.77247727
144	0xbed9adcf	-0.42515418
145	0xbf0bf775	-0.54674464
146	0xbf78732c	-0.9705074
147	0x3e3cd3a3	0.18440108
148	0xbfa05286	-1.2525184
149	0xbe892903	-0.26789102
150	0xc0701e7b	-3.7518604
151	0xc061726d	-3.522609
152	0x40a2513f	5.0724177
153	0x3f964f97	1.1743039
154	0xc08c06d8	-4.3758354
155	0x40805542	4.0104074
156	0xbd9dc68f	-0.07703888
157	0x3fcdc66b	1.6076177
158	0x402a20c6	2.6582503
159	0x40a3c9ed	5.118399
160	0x403a4150	2.9102364
161	0x3e268591	0.16261889
162	0xc0671f42	-3.6112828
163	0xc01fc762	-2.4965444
164	0xbe01ffd0	-0.12695241
165	0xbd39d418	-0.045368284
166	0xbf293409	-0.66095024
167	0xc01611ee	-2.3448443
168	0xbf90ecb2	-1.1322234
169	0x408de7ec	4.434561
170	0xbf2e746f	-0.68146414
171	0xc014759c	-2.3196783
172	0x405a6257	3.4122522
173	0x401e7aab	2.476237
174	0xbf91cc82	-1.1390536
175	0xbfad8d78	-1.3558798
176	0x41241d1c	10.257107
177	0xc0b2418d	-5.570502
178	0xc0b9b48e	-5.8032904
179	0xc0ba4e73	-5.8220763
180	0x414194a9	12.098794
181	0x4077a375	3.8693516
182	0x40bcbb32	5.897851
183	0x40db11ba	6.845914
184	0xc092c364	-4.5863514
185	0xbdc0480f	-0.09388744
186	0xc08d2805	-4.411135
187	0x400c9923	2.1968467
188	0xbeae1ddf	-0.34007165
189	0x41005365	8.02036
190	0x3ed2dcae	0.4118399
191	0x3f58f1de	0.8474406
192	0xc0296f8a	-2.6474328
193	0xc0f88ca0	-7.767166
194	0xc09ca052	-4.8945704
195	0x3f4e7327	0.8064446
196	0x3fc515a1	1.5397226
197	0x3df837f0	0.12120044
198	0xc0431382	-3.0480657
199	0xc08bb455	-4.365763
200	0xbfc240e2	-1.5176051
201	0xc011ca0e	-2.2779574
202	0x3ea7117d	0.3263053
203	0x3ff5c8ee	1.9201944
204	0x3f2f925a	0.6858269
205	0xbedcc16c	-0.4311632
206	0x40929f1b	4.581922
207	0x408886c4	4.266451
208	0x40a6a57f	5.207702
209	0x401a47af	2.4106252
210	0xbfd5b2b0	-1.6695156
211	0x3f546aa4	0.8297522
212	0xbe885a99	-0.2663162
213	0x40b5076b	5.6571555
214	0x3fabe79c	1.3430057
215	0x3fc08bc9	1.5042659
216	0x3e6d54e0	0.23176908
217	0x3fe4e518	1.7882414
218	0xc0c6a522	-6.207658
219	0xc066f082	-3.6084294
220	0xbfa267fb	-1.2687982
221	0x40068b2f	2.102245
222	0x3f586110	0.84523106
223	0xbff72841	-1.930916
224	0xbfe93610	-1.8219624
225	0xc08484c5	-4.141207
226	0xc0c385c0	-6.110077
227	0xbf5eeef0	-0.8708334
228	0xc0182fea	-2.3779244
229	0x40621e16	3.5330863
230	0xc0630987	-3.5474565
231	0xc0f4f418	-7.6547966
232	0xc09357bb	-4.6044593
233	0xc0941a95	-4.628245
234	0xbfdcf570	-1.7262402
235	0xc13a1438	-11.629936
236	0xc126f51a	-10.434839
237	0xc01efba6	-2.4841094
238	0xc0a6dc62	-5.214402
239	0x40a38b95	5.110789
240	0xc06f08d6	-3.7349143
241	0xc0a4f775	-5.155207
242	0xbf3c84a1	-0.73639876
243	0xbf9e8cac	-1.238668
244	0xc00c1a88	-2.1891193
245	0xc0e33800	-7.100586
246	0x3be4ca4d	0.006982124
247	0xc0be02f2	-5.9378595
248	0xbfd3275d	-1.6496388
249	0xbf8b3c6f	-1.0877818
250	0xbf53bcfa	-0.8271023
251	0x3fae1f3d	1.3603283
252	0x40167f0a	2.3515038
253	0x403737e1	2.8627856
254	0x402b2450	2.6740913
255	0xc033f9f4	-2.812131

conv3.bias f4 [64]
0	0x4003e05c	2.0605688
1	0xbef78418	-0.48342967
2	0xbcd7b715	-0.026332418
3	0xbeef65f3	-0.4675747
4	0xbf5c8074	-0.86133504
5	0xbea48864	-0.32135308
6	0x3e29f4d5	0.16597302
7	0xbfd7ee1f	-1.6869544
8	0x3f56d875	0.8392404
9	0xc046bed9	-3.1053984
10	0xc02a2b0b	-2.6588771
11	0xbd4e4645	-0.050359983
12	0xbe75e7e5	-0.24014242
13	0xbf35a4ba	-0.7095448
14	0x3f8c015f	1.0937918
15	0xbf4cacdd	-0.7995127
16	0x3f73bbba	0.95208323
17	0xc00268c7	-2.037645
18	0xbf900d59	-1.1254073
19	0x3f9ad5ae	1.209646
20	0xbf92a72f	-1.145727
21	0x4026e28c	2.6075773
22	0x3f2b830a	0.66996825
23	0x4022b0e7	2.5420473
24	0x3e4e1337	0.20124517
25	0xbffd2049	-1.9775478
26	0xc03424e4	-2.8147516
27	0xbf9062fc	-1.1280208
28	0xbe8a6a98	-0.2703445
29	0x3e91bb78	0.2846334
30	0xbfbe2062	-1.4853632
31	0xbff962cb	-1.9483274
32	0x3faab55c	1.3336596
33	0xbf632c3f	-0.8873939
34	0xbfb767f5	-1.43286
35	0x3e3e8309	0.18604673
36	0x3f304a30	0.688632
37	0xbe96789e	-0.293889
38	0xbf99d68d	-1.2018601
39	0xbfcf24e9	-1.6183139
40	0x3dfe6ff9	0.12423701
41	0xbec9fe3b	-0.39451775
42	0xbebc1b5f	-0.36739632
43	0xbff6ebc0	-1.9290695
44	0xbf9fc906	-1.2483222
45	0xc009bc9f	-2.1521375
46	0xbfaaa30d	-1.3331009
47	0xbf30b98e	-0.69033134
48	0xbfe34e49	-1.7758266
49	0xc00c6501	-2.1936648
50	0xbedad1e9	-0.42738274
51	0xc030de03	-2.7635505
52	0xbfb50693	-1.4142631
53	0xbee7ecf1	-0.4529796
54	0xc0000844	-2.0005045
55	0xbee65529	-0.44986847
56	0xc015a772	-2.338345
57	0xbfd7b504	-1.6852117
58	0xbf95fb30	-1.1717281
59	0xbf4ba23f	-0.7954444
60	0xbdbd9201	-0.09256364
61	0xbe98beb0	-0.29832983
62	0xbfb52ad4	-1.4153695
63	0x3f5d0b3e	0.8634528

bn3.weight f4 [64]
0	0x40e92b18	7.2865105
1	0x4100cacf	8.049514
2	0x410d5cc8	8.835152
3	0x41074e0a	8.4565525
4	0xc040f9b6	-3.0152411
5	0x40ad513f	5.4161677
6	0x410fe922	8.994417
7	0x40d7e39b	6.746534
8	0x40e58456	7.1724043
9	0x40c25505	6.0728784
10	0x3fa80f52	1.3129675
11	0x40c28e9b	6.079908
12	0x3f6cbeed	0.9247883
13	0x400f4303	2.238465
14	0x409d7fd2	4.921853
15	0x410178c1	8.091981
16	0x4112473b	9.14239
17	0x40e838fa	7.256955
18	0x3faa39ed	1.3298928
19	0x4087020e	4.219001
20	0x40e60566	7.188159
21	0x410e21f2	8.883287
22	0x41069eb5	8.413747
23	0x41134ab4	9.205738
24	0x40468e67	3.1024415
25	0x408be55f	4.3717494
26	0x40ace22e	5.40261
27	0x40bd8000	5.921875
28	0x40a34282	5.1018686
29	0x40c2d31e	6.088271
30	0x4102e2ab	8.180339
31	0x408e58a0	4.4483185
32	0x414badcd	12.729932
33	0x40cc7afc	6.3900127
34	0x4120a605	10.040532
35	0x4094b096	4.646556
36	0x40c62bcd	6.192847
37	0x4118b95f	9.545257
38	0x40ef6e5c	7.4822216
39	0x40b2b9de	5.585189
40	0x41315229	11.082559
41	0x40b3aa5c	5.614546
42	0x40b0adfa	5.5212374
43	0x40b909d5	5.78245
44	0x41141971	9.256211
45	0x402df0a5	2.7178128
46	0x40d4a89e	6.645583
47	0x40db04fd	6.844359
48	0x408a869d	4.3289323
49	0x40bc527e	5.88507
50	0x40e5ab53	7.1771636
51	0x40c0ae23	6.021257
52	0x409d1868	4.9092293
53	0x409d01e2	4.90648
54	0x40d1264c	6.535925
55	0x40b9416f	5.7892375
56	0xbff3adca	-1.9037411
57	0x40805be9	4.0112195
58	0xbe874fa3	-0.26427945
59	0x40aaeb63	5.3412337
60	0x407af252	3.92104
61	0x4055a16d	3.3379776
62	0x409d5d19	4.9176145
63	0x40603d4a	3.5037408

bn3.bias f4 [64]
0	0x3ef54ff4	0.47912562
1	0x4030c732	2.762158
2	0x406e9ed8	3.728445
3	0x3f898989	1.0745097
4	0xc0c6d8db	-6.2139716
5	0x3fdf3c2e	1.744024
6	0x403a087d	2.906768
7	0x3fa4a881	1.2863923
8	0x404eb9f8	3.2301006
9	0x4088030d	4.2503724
10	0xbf8d1325	-1.1021467
11	0x3f93851c	1.1524997
12	0xbf669638	-0.90072966
13	0xbe50ef3b	-0.20403759
14	0x3ebea617	0.37236091
15	0x3f342404	0.70367455
16	0x40c6a268	6.207325
17	0x40234be0	2.551506
18	0xbf3ee37c	-0.74565864
19	0x3f7bd1dc	0.98367095
20	0x408a5e25	4.3239923
21	0x3f5933ce	0.8484467
22	0x3e602842	0.21890357
23	0x406002ea	3.5001779
24	0x4002b503	2.042298
25	0xbf8eff24	-1.1171613
26	0x4040d756	3.013143
27	0x40206dc1	2.5066988
28	0x3f84229a	1.032306
29	0xc04800f3	-3.125058
30	0x400b693b	2.1782978
31	0x3e9ca59e	0.30595106
32	0x3fa9ee46	1.327584
33	0x3fbf2db5	1.4935824
34	0x3ee708d0	0.4512391
35	0xbef5dc97	-0.4801986
36	0x40355702	2.8334355
37	0x4045dd34	3.0916262
38	0xbfd2c29c	-1.646564
39	0x3f23fcc9	0.64057595
40	0x407df6bf	3.9681852
41	0x4087146a	4.221242
42	0xbfb7aa51	-1.4348851
43	0x405bf823	3.43702
44	0x40244864	2.5669184
45	0x3f7db168	0.99098825
46	0x4046f63d	3.1087792
47	0x407e9a61	3.9781725
48	0x3fdf6e02	1.7455447
49	0x3c95e119	0.018295811
50	0x4013d931	2.3101313
51	0x401a3cc3	2.4099586
52	0x403057f9	2.7553694
53	0x3f672cb3	0.9030258
54	0x4064f03c	3.5771627
55	0x40629ac9	3.5406973
56	0x3f765e57	0.962377
57	0x3fd87c73	1.6912979
58	0xc02549e5	-2.5826352
59	0xbd351355	-0.04420789
60	0xbfd7b5e4	-1.6852384
61	0xbf95ad36	-1.1693485
62	0x3e06fde2	0.13182786
63	0x4008c6bd	2.13713

bn3.running_mean f4 [64]
0	0x444af4e1	811.82623
1	0x436133a4	225.20172
2	0x43fab34b	501.40073
3	0x44065598	537.3374
4	0x431becb8	155.92468
5	0x441ba92d	622.6434
6	0x4412374f	584.8642
7	0x4339bf4b	185.74724
8	0x44ce8d28	1652.4111
9	0x435b3a7b	219.22844
10	0x431dcc2c	157.79755
11	0x436d43ba	237.26456
12	0x43a1aaaa	323.3333
13	0x42f0f0a9	120.47004
14	0x447fd9c0	1023.40234
15	0x44454372	789.05383
16	0x44655c80	917.4453
17	0x43b1c0a3	355.50497
18	0x42fb52a5	125.661415
19	0x44aec988	1398.2979
20	0x4452ece3	843.70135
21	0x4417b6b5	606.8548
22	0x4501efc9	2078.9866
23	0x44c098e9	1540.7784
24	0x43ee3065	476.37808
25	0x41a4018f	20.500761
26	0x4362227b	226.13469
27	0x424840da	50.06333
28	0x4333c02b	179.75066
29	0x442f0002	700.0001
30	0x43836266	262.76874
31	0x429c8f36	78.27971
32	0x446e4a37	953.1596
33	0x43d0ccd2	417.60016
34	0x43b2c9ad	357.5756
35	0x42f1c4fa	120.88472
36	0x43c5f993	395.9498
37	0x4412fd28	587.95557
38	0x42f65487	123.16509
39	0x431819c0	152.10059
40	0x43a35e1c	326.73523
41	0x43f3312f	486.38425
42	0x42c11a20	96.551025
43	0x43bbc66c	375.55017
44	0x429664b7	75.19671
45	0x422f3178	43.79831
46	0x4369353e	233.20798
47	0x435a844d	218.5168
48	0x42b10821	88.51588
49	0x42808568	64.26056
50	0x447f99cb	1022.403
51	0x42c50d1e	98.52562
52	0x4327e1da	167.88223
53	0x42c3e14b	97.940025
54	0x43a08421	321.03226
55	0x4327ddf5	167.86702
56	0x421448f2	37.071236
57	0x434a14b6	202.0809
58	0x43a9777c	338.93347
59	0x41fd177d	31.636469
60	0x43ccb195	409.38736
61	0x4334b019	180.68788
62	0x42dda8a3	110.82937
63	0x43d060b0	416.75537

bn3.running_var f4 [64]
0	0x49629940	928148.0
1	0x48e5a479	470307.78
2	0x4959cc48	892100.5
3	0x4963e7b2	933499.1
4	0x47ed9628	121644.31
5	0x493b716d	767766.8
6	0x49898660	1.126604e+06
7	0x48c79c21	408801.03
8	0x49c55f36	1.6168708e+06
9	0x488e4774	291387.62
10	0x486e73e0	244175.5
11	0x4880df6e	263931.44
12	0x488333e5	268703.16
13	0x48366890	186786.25
14	0x493000a9	720906.56
15	0x49a76940	1.371432e+06
16	0x49f17f50	1.978346e+06
17	0x48dcfefc	452599.88
18	0x47ac1b88	88119.06
19	0x49aa2950	1.393962e+06
20	0x498e30e6	1.1648288e+06
21	0x495b97fc	899455.75
22	0x4a090039	2.2446222e+06
23	0x4a31ba6d	2.9118992e+06
24	0x48aae645	350002.16
25	0x46e0ed7c	28790.742
26	0x48f7e914	507720.62
27	0x47c6a37c	101702.97
28	0x488ac0f7	284167.72
29	0x49266a8b	681640.7
30	0x491d9f5a	645621.6
31	0x47f545ba	125579.45
32	0x4a0becf4	2.292541e+06
33	0x49210370	659511.0
34	0x495b0d7d	897239.8
35	0x47ec6fba	121055.45
36	0x48fb4c32	514657.56
37	0x49af1b92	1.4344822e+06
38	0x4827f3bd	171982.95
39	0x4851e9d9	214951.39
40	0x4940c126	789522.4
41	0x4916b5fc	617311.75
42	0x48010e59	132153.39
43	0x48d64961	438859.03
44	0x47cf306d	106080.85
45	0x47159bbf	38299.746
46	0x489382ce	302102.44
47	0x48cb7293	416660.6
48	0x481984ed	157203.7
49	0x47c36cbd	100057.48
50	0x49ad5e99	1.4202431e+06
51	0x47e43e18	116860.19
52	0x48875d0e	277224.44
53	0x47e71f1e	118334.234
54	0x48d52608	436528.25
55	0x486b1739	240732.89
56	0x46ff50c0	32680.375
57	0x488ce892	288580.56
58	0x48eb9ac9	482518.28
59	0x470f947b	36756.48
60	0x4907be10	556001.0
61	0x4855f05d	219073.45
62	0x482779fa	171495.9
63	0x48bfa0fe	392455.94

fc1.weight f4 [256, 64]
0	0x403f207d	2.986358
1	0xc09fc0db	-4.992292
2	0x400074c5	2.007127
3	0xbdef15c1	-0.11674071
4	0x3feb3ccc	1.8377929
5	0xbe94e69d	-0.29082194
6	0x3f6f0d28	0.9337945
7	0x3efb0183	0.4902459
8	0xbf23889f	-0.6388034
9	0xc0006e8b	-2.006747
10	0x3f09deac	0.53855395
11	0xc0094923	-2.145089
12	0x3f48775d	0.78307134
13	0xbf89f28b	-1.0777143
14	0x3f8f58fb	1.119903
15	0xbf99920f	-1.1997699
16	0xbf631223	-0.8869955
17	0x400c03be	2.1877284
18	0x3f6b2c1c	0.9186418
19	0xbfc7c002	-1.5605471
20	0xbf2f45b5	-0.6846574
21	0x3f6a7be1	0.91595274
22	0x404b61d5	3.1778462
23	0xbf7cbbbd	-0.98723966
24	0x3f83e277	1.0303487
25	0x3f3939dc	0.7235391
26	0xc03a1fc4	-2.9081888
27	0x3f87165e	1.0553701
28	0x3f71b847	0.9442181
29	0xbf1902b2	-0.5976974
30	0xbf3fecd4	-0.74970746
31	0xbe9b9d75	-0.30393568
32	0xc0130681	-2.297272
33	0x3e004ace	0.12528536
34	0xbf105617	-0.5638136
35	0x3eb6ef3f	0.35729405
36	0x3f564a65	0.8370727
37	0xbec7f3a4	-0.3905307
38	0x4033dd21	2.8103716
39	0xbf291694	-0.66050076
40	0xbf8e746e	-1.1129282
41	0xbf17169f	-0.5901889
42	0x4092ab1c	4.5833874
43	0x3f9c445d	1.2208363
44	0xbfc71d6a	-1.5555851
45	0x3fd3ba56	1.654124
46	0xbec55be6	-0.38546675
47	0xc06b237e	-3.6740413
48	0xc02f592c	-2.7398176
49	0x3e168a0d	0.147011
50	0xc0082693	-2.1273544
51	0x3e1af6c0	0.1513319
52	0xbde8886a	-0.11354144
53	0xbe130a7a	-0.14359465
54	0xc052311d	-3.2842476
55	0x3fb3913d	1.4028698
56	0xbf32fa18	-0.6991286
57	0xbf849ff3	-1.0361313
58	0x3f8ac83b	1.0842355
59	0x407ba1e1	3.9317553
60	0x3ed16917	0.4090049
61	0x3fdd6550	1.7296543
62	0x3d5df8ef	0.05419248
63	0xbd8843c5	-0.06653551
64	0x40068fbc	2.1025229
65	0xbe9b5a8b	-0.30342516
66	0x402528d8	2.580618
67	0xbf7b880f	-0.98254484
68	0xbea942ef	-0.3305888
69	0xbff06b0f	-1.8782672
70	0x3f21880f	0.63098234
71	0xbfa4d191	-1.2876455
72	0x402263d8	2.537344
73	0xbf7902e2	-0.97270024
74	0xbf44c310	-0.7686014
75	0xbfa78954	-1.3088784
76	0x3f38e8a0	0.7222996
77	0xbf0c7eb0	-0.5488081
78	0x3fd50965	1.6643492
79	0xbf8a7429	-1.0816699
80	0x40728c91	3.7898295
81	0xbffdb5fd	-1.9821163
82	0x3fa16627	1.26093
83	0x409e4336	4.9457045
84	0xc06e05fa	-3.7191148
85	0x3fba6174	1.456099
86	0xbf870df4	-1.0551133
87	0xc05a1b62	-3.4079213
88	0x4039118a	2.8916955
89	0xbfa4e878	-1.2883444
90	0xbfe2797e	-1.7693326
91	0x3f8dc82e	1.1076715
92	0xbfda286b	-1.7043585
93	0xbfd43290	-1.657793
94	0xbf856087	-1.0420083
95	0x4087f3a6	4.2484922
96	0xbfed5c84	-1.8543859
97	0xbf46369a	-0.77427065
98	0x4057363b	3.362685
99	0xbfdfefe2	-1.7495081
100	0xbf46467f	-0.7745132
101	0xbf9e0aca	-1.2347043
102	0x3da648b0	0.08119333
103	0x3fc42841	1.5324785
104	0x40abeea1	5.3728795
105	0x3f3dbd33	0.7411682
106	0x4032eee4	2.7958307
107	0xc073ebff	-3.811279
108	0xbfc8dda6	-1.5692642
109	0xbe6af993	-0.22946768
110	0x402a5fe9	2.662104
111	0xbeb35cea	-0.35031825
112	0xbe8684f1	-0.262733
113	0x3ed085d5	0.40727106
114	0x3fbaba87	1.4588174
115	0xbeed4c51	-0.46347287
116	0x4006daba	2.1071
117	0x3f3b89d2	0.7325717
118	0x3fb7206a	1.4306767
119	0x40625903	3.5366828
120	0xbfd4eefe	-1.6635435
121	0xbfb823d0	-1.4385929
122	0xbfd2c9fe	-1.6467893
123	0xbfa91aa4	-1.3211255
124	0xbedb8599	-0.42875364
125	0xbc7a8d68	-0.015292503
126	0x407aa3a0	3.9162369
127	0x3f12f9eb	0.57412595
128	0xbfd3590d	-1.6511551
129	0xbf602bdd	-0.8756693
130	0xbfbac6ee	-1.4591959
131	0x40072b87	2.1120317
132	0x3f1faca1	0.62372786
133	0xbf072021	-0.527834
134	0xbfe1e6d5	-1.7648569
135	0xbf96c13e	-1.1777723
136	0x40186eb6	2.3817573
137	0xbfdc4d8f	-1.7211169
138	0xbdf03386	-0.11728577
139	0xc02cec52	-2.7019238
140	0x3dee9d4f	0.11651098
141	0x3f8e994c	1.1140532
142	0xbeae0760	-0.33990002
143	0x404dd98f	3.2164037
144	0x3fd65d43	1.6747211
145	0x3e00c172	0.12573794
146	0xbfc0872f	-1.5041255
147	0x3f4c2a68	0.79752207
148	0xc08c4d1d	-4.3844132
149	0xbe803747	-0.25042173
150	0x3fddad78	1.7318563
151	0x3da21033	0.07913246
152	0xbf3d1fd5	-0.73876697
153	0xbf20f958	-0.6288047
154	0xc05df886	-3.4682937
155	0xbed768ec	-0.42072237
156	0xbf54dd07	-0.8314976
157	0x3f5be23e	0.85892093
158	0xbe8b7db7	-0.2724435
159	0x3e4493c4	0.19196993
160	0x402b5dc7	2.6775987
161	0x3ff84892	1.9397147
162	0x402be37e	2.68576
163	0x3f233a1b	0.63760537
164	0xc006905d	-2.1025612
165	0xc0266b6d	-2.6003067
166	0xbe084d7a	-0.13310805
167	0x4059843a	3.3986955
168	0x3d554f26	0.052077435
169	0xbf99079b	-1.1955446
170	0x3d0512a3	0.032488476
171	0xc00bc63b	-2.183974
172	0xbe6241ce	-0.22095415
173	0xbde76cee	-0.113000736
174	0xbfafdb2c	-1.3738761
175	0xbfa47e49	-1.2851039
176	0x3eebfeed	0.4609293
177	0xbfe0b4c8	-1.755517
178	0x405cfa98	3.452795
179	0xc025ef2d	-2.5927231
180	0x3fc2465f	1.5177726
181	0x3cf5ae0a	0.029990215
182	0xc04be160	-3.1856308
183	0x3f4196ab	0.75620526
184	0x3f2f5a03	0.6849672
185	0xbf67b039	-0.9050327
186	0x3f9b274d	1.2121369
187	0xbe676cd5	-0.2260011
188	0xbefa43be	-0.48879808
189	0xbe11e5a6	-0.1424776
190	0x3e2b451b	0.1672558
191	0xc003b28a	-2.0577722
192	0xc056da0b	-3.3570583
193	0xbfbb349b	-1.4625429
194	0xc048fa8c	-3.1402922
195	0x40c42666	6.1296873
196	0x3fe09a6e	1.7547128
197	0xbf898f9a	-1.0746949
198	0xc0176749	-2.365679
199	0x3eea3fd4	0.45751822
200	0xc06bdf97	-3.6855218
201	0xc0868828	-4.2041206
202	0x3e18fe1b	0.14940684
203	0xbec9842c	-0.39358652
204	0x3f140b5a	0.5782982
205	0xbd9c29ef	-0.07625186
206	0xc01f6cff	-2.4910276
207	0xbfed3a6b	-1.8533453
208	0x3f92183c	1.1413646
209	0xc0023701	-2.0346072
210	0xbeba85f9	-0.36430338
211	0xc0b66223	-5.6994796
212	0xc0814401	-4.0395513
213	0xbfb7074f	-1.4299105
214	0xbf90b3be	-1.1304853
215	0x4026454e	2.59798
216	0xbd3bf4f2	-0.045887895
217	0x400240b5	2.0351994
218	0xc032c2d4	-2.7931414
219	0x40119048	2.2744312
220	0xbef212a1	-0.47279838
221	0xbf120d8f	-0.5705194
222	0xbf138fa9	-0.57641083
223	0xbfb85220	-1.4400063
224	0xc0746c5d	-3.819114
225	0xbfa415dc	-1.2819171
226	0x403a4791	2.910618
227	0xbf819720	-1.0124245
228	0xbc855344	-0.016275056
229	0x40975567	4.729175
230	0x3ff11ff8	1.8837881
231	0x3f0ef38c	0.55840373
232	0xbfde86d7	-1.73849
233	0xc0462b27	-3.0963838
234	0x3fe1d2d3	1.7642463
235	0xc085ff4b	-4.1874137
236	0xbdd7512d	-0.1051353
237	0x3f1639ee	0.58682144
238	0xbf4d8f5e	-0.80296886
239	0xc0b8a0dd	-5.7696366
240	0x3f122630	0.5708952
241	0x3d5af411	0.053455416
242	0xc038cecb	-2.8876216
243	0xc08428a5	-4.1299615
244	0xbfe1a7db	-1.762935
245	0x3ffc3e0f	1.9706439
246	0xbffb9e76	-1.9657733
247	0xc04761ce	-3.1153445
248	0x40677216	3.6163383
249	0xbfe8eb66	-1.8196838
250	0x3f887a66	1.0662353
251	0x3fb0163b	1.3756784
252	0x40866230	4.199486
253	0x405e833c	3.47676
254	0x3fe1d43d	1.7642895
255	0x3f56c8de	0.8390025

fc1.bias f4 [256]
0	0xc03710ac	-2.8603926
1	0x3e87ff9a	0.26562196
2	0xbf0ed25c	-0.5578973
3	0xc08d7f3b	-4.421781
4	0xbe98fd2f	-0.29880664
5	0xbf2363a7	-0.6382393
6	0x3db71558	0.08939618
7	0xc0118806	-2.2739272
8	0xbeb8476b	-0.35991988
9	0xbfc0b829	-1.5056201
10	0xc02dd412	-2.7160687
11	0xbf27cefa	-0.65550196
12	0x3e0aff72	0.13574007
13	0xbf594399	-0.8486877
14	0xbf529159	-0.8225303
15	0xbfcb7dc3	-1.5897754
16	0xc01ccf93	-2.4501693
17	0xbf28b685	-0.659035
18	0xbfb42706	-1.4074409
19	0x3f9e46bf	1.236534
20	0xbf91f5a6	-1.1403091
21	0xc083afd1	-4.115212
22	0xc0482f56	-3.1278892
23	0xc0021eef	-2.033138
24	0xc0aad6e6	-5.3387327
25	0xbfc2f7f5	-1.523192
26	0xbfaa2b44	-1.3294454
27	0x400e3234	2.2218142
28	0xc0141bdb	-2.3142002
29	0xc025f19f	-2.5928724
30	0xc08902b3	-4.2815795
31	0xc0980477	-4.750545
32	0xbfa59335	-1.2935549
33	0xbeddbb4f	-0.43306968
34	0xc0096ab1	-2.147137
35	0xbfae2407	-1.3604745
36	0xc01a43ee	-2.410396
37	0xc007129f	-2.1105115
38	0xc03129e9	-2.768183
39	0xbf8ee4cc	-1.1163573
40	0xbfb957d6	-1.447993
41	0x3e0423a3	0.1290422
42	0xbeae935e	-0.34096807
43	0xbfa97bab	-1.3240865
44	0xbfe5b2ce	-1.7945192
45	0x3e52c5d1	0.20583273
46	0xbf511542	-0.8167306
47	0xbfa4c16e	-1.287153
48	0xbfcb953d	-1.5904919
49	0xc027ab46	-2.6198287
50	0xc01968dd	-2.3970253
51	0xbefa6c4a	-0.48910743
52	0x3e3ad237	0.18244253
53	0xc01e2df0	-2.4715538
54	0xbfbf3599	-1.4938232
55	0xbf4a2d6a	-0.78975546
56	0xc040ccef	-3.0125082
57	0xbf438a6d	-0.76383096
58	0xbf08ced2	-0.5344058
59	0xbf4a8938	-0.7911563
60	0xbfb82c76	-1.4388568
61	0xc0419b4b	-3.0251033
62	0xbf429266	-0.76004636
63	0xbfbce7ec	-1.4758277
64	0xbfcf19a9	-1.6179706
65	0x3eb5a815	0.354798
66	0xbdf36c99	-0.11885948
67	0xbdc62352	-0.096747056
68	0xbf127327	-0.5720696
69	0xbf9e06b0	-1.2345791
70	0xc006ab95	-2.1042225
71	0xc00117e8	-2.0170841
72	0xbfdddcf9	-1.733306
73	0xc04f17c3	-3.2358253
74	0xc0063d65	-2.0974972
75	0xbf7f1a3f	-0.99649423
76	0xbf7e01d3	-0.99221534
77	0xc00a6431	-2.1623652
78	0x3e081c1b	0.13291971
79	0xbf9f795c	-1.2458911
80	0xbf1f6a32	-0.62271416
81	0xbeb2057f	-0.34769818
82	0xbf3be596	-0.73397195
83	0xbf7e7c42	-0.9940835
84	0xbfcb4af8	-1.5882254
85	0xbebc2289	-0.36745098
86	0xbe17ed0b	-0.14836518
87	0xbfdd8529	-1.7306262
88	0xc0292a30	-2.6432
89	0xc04259c4	-3.0367289
90	0xc0bc3a49	-5.882115
91	0xbf1fd56a	-0.6243502
92	0x3ed3f0ac	0.41394556
93	0xc028b77f	-2.6361997
94	0xbeb279b1	-0.34858468
95	0xbf4061fe	-0.75149524
96	0x3d69a4fe	0.057042114
97	0x3f0e6d4d	0.5563553
98	0xc00e26e1	-2.221123
99	0xc018df3e	-2.3886256
100	0xbf3b2d44	-0.73115945
101	0xbf8d2b7e	-1.1028898
102	0xc061495b	-3.5201023
103	0xbe6a4b55	-0.228803
104	0xc06425a5	-3.5647976
105	0x3ebe1f64	0.37133324
106	0xc091d1a8	-4.556843
107	0xc02a81c0	-2.6641693
108	0xc0417aed	-3.0231278
109	0xbda30fdb	-0.079620086
110	0xbfa9593a	-1.3230355
111	0xbe3a8223	-0.18213706
112	0x3c9ebec8	0.019378081
113	0xc03482dc	-2.820487
114	0xbf3a5164	-0.7278044
115	0xc0292788	-2.6430378
116	0x3f278fd2	0.6545383
117	0xbfa5929a	-1.2935364
118	0xc02ddd9e	-2.7166514
119	0xbcd5d625	-0.026103089
120	0xbf51174b	-0.8167617
121	0xbfb53b75	-1.415877
122	0xc0128300	-2.2892456
123	0xbf42a370	-0.76030636
124	0xc01afffd	-2.4218743
125	0xbf52184a	-0.8206831
126	0x3f0010e7	0.5002579
127	0x3e905698	0.28191066
128	0xc02c3522	-2.690743
129	0xc074c840	-3.8247223
130	0xbe194848	-0.1496898
131	0xbf9fcca9	-1.2484332
132	0xbfcf3884	-1.6189122
133	0xbfdf3457	-1.7437848
134	0xbfae4242	-1.361397
135	0xc018b730	-2.3861809
136	0x3f57b98e	0.8426751
137	0xc04fbee2	-3.2460256
138	0xbf08c672	-0.53427804
139	0xc00d3a3f	-2.20668
140	0xc0073c04	-2.113038
141	0xbfbdaf9e	-1.4819219
142	0xc08b80a8	-4.359455
143	0xc01ba71b	-2.4320743
144	0xbf9a7ec8	-1.206994
145	0xbf190f86	-0.5978931
146	0xc011c406	-2.2775893
147	0xbea6e6b0	-0.32597876
148	0xbf64acf7	-0.89326423
149	0xc0a853e0	-5.2602386
150	0xbf857c06	-1.0428474
151	0xbfb7cb52	-1.4358923
152	0xbf208261	-0.6269894
153	0xc08b22ca	-4.3479967
154	0xbf773842	-0.9657022
155	0xc085d9b1	-4.1828237
156	0xc06eb0fc	-3.7295523
157	0xc01d833e	-2.4611354
158	0xc02a35a8	-2.659525
159	0xc063b341	-3.5578158
160	0xc044f286	-3.0773025
161	0xc046a642	-3.1038976
162	0xc0173a02	-2.3629155
163	0xbf2af69f	-0.66782564
164	0x3e1bbbf9	0.15208425
165	0xbfa0891b	-1.2541841
166	0xc05bf4ce	-3.4368167
167	0xbf67fffd	-0.9062498
168	0xc01ab430	-2.4172478
169	0xbf291d86	-0.66060674
170	0xbfbd07e6	-1.4768035
171	0x3ebb75ce	0.36613315
172	0x3fa4e506	1.2882392
173	0xbfb62069	-1.4228641
174	0xbf8e3ea1	-1.1112863
175	0xc03c7cf0	-2.9451256
176	0xc02562e4	-2.5841608
177	0xbeb3c5d9	-0.35111883
178	0x3e80b5ef	0.25138804
179	0xc0671dcb	-3.6111934
180	0xbf301327	-0.68779224
181	0x3b92ad79	0.004476246
182	0xbffa5b9f	-1.955921
183	0xbff28ea8	-1.8949785
184	0xc0450722	-3.0785604
185	0x3fa19057	1.2622174
186	0xbfc28c45	-1.5199057
187	0xbd5484e1	-0.051884536
188	0xbfc3a429	-1.5284473
189	0x3f87c216	1.0606105
190	0xbf458f2c	-0.7717159
191	0xbfb630db	-1.423366
192	0xc0639d48	-3.5564747
193	0xbfa0ebdc	-1.2571979
194	0xc0156bf2	-2.3347135
195	0xc00a07aa	-2.1567178
196	0xc07805de	-3.875358
197	0xc0024679	-2.0355513
198	0xbfa101f0	-1.2578716
199	0xc016e145	-2.3574994
200	0x3edef962	0.4354964
201	0xbc4be047	-0.012443609
202	0xbf2e15ca	-0.68002
203	0xbed2b7cf	-0.4115586
204	0x3e30edfd	0.17278285
205	0xc09354d5	-4.6041055
206	0xc0047efb	-2.0702503
207	0xbfaa0bbd	-1.3284832
208	0xbfc126ff	-1.5090026
209	0xbfff8839	-1.9963447
210	0xbf3c0e48	-0.7345929
211	0xbffe61cc	-1.9873595
212	0xbf8fec7a	-1.1244042
213	0xc007d099	-2.1221068
214	0x3ea99aef	0.33126017
215	0xc06f760a	-3.7415795
216	0xbf555930	-0.83339214
217	0xbfa0b84b	-1.2556242
218	0xbfcb1e9a	-1.5868714
219	0xc0503f5a	-3.2538667
220	0xc00c7f26	-2.1952605
221	0x3fbfc770	1.4982738
222	0xbf92b1bb	-1.1460489
223	0xc003ab5c	-2.057334
224	0xbfcb7fd1	-1.5898381
225	0xc05b85da	-3.4300447
226	0xbf844624	-1.0333905
227	0xbf171835	-0.5902131
228	0x3fa8d013	1.3188499
229	0xbe0f644b	-0.14003102
230	0xbffd47b2	-1.9787505
231	0x3f2a7776	0.6658853
232	0x3f10b722	0.5652944
233	0xbfd01297	-1.6255673
234	0xbf55d4d1	-0.8352786
235	0xc027e603	-2.6234138
236	0x3e4893b0	0.19587588
237	0xbfc853fc	-1.565063
238	0xbf47b883	-0.7801592
239	0xbfcb4cb8	-1.5882788
240	0xc0883a51	-4.2571187
241	0xbf9a1e6c	-1.2040534
242	0xbffa8857	-1.9572858
243	0xbffac2a0	-1.9590645
244	0xbface9e4	-1.3508878
245	0xbf808496	-1.0040462
246	0xbef235fd	-0.47306815
247	0xbeeac4fb	-0.4585341
248	0xbf30ad28	-0.69014215
249	0x3fe4bb38	1.7869635
250	0xbfab22ab	-1.3369955
251	0xbe841924	-0.2580043
252	0xc0277550	-2.6165352
253	0xbfccc001	-1.5996095
254	0xc0c75172	-6.228692
255	0xbe289ad5	-0.16465314

bn4.weight f4 [256]
0	0x3e122dce	0.14275286
1	0xbcc6efeb	-0.024284324
2	0xbbc8c0f0	-0.0061265156
3	0x3e3d358b	0.18477456
4	0x3e9fe855	0.31231943
5	0x3eb3d7c9	0.35125569
6	0x3cc4a15f	0.024002729
7	0x3e9da7d9	0.3079212
8	0xbd0f66a6	-0.035010003
9	0x403fab4c	2.9948301
10	0x3d992d7a	0.07479377
11	0x3f1ee18c	0.6206291
12	0x3ca7a7de	0.020465788
13	0xbdc0ee6f	-0.094204776
14	0xbd26851f	-0.040654298
15	0x3f0243e0	0.5088482
16	0xbe5faaba	-0.21842471
17	0xbeb46077	-0.35229847
18	0xbf6ffcd1	-0.9374514
19	0xbda3dbfe	-0.080009446
20	0x3dac910c	0.08426103
21	0xbea75f04	-0.3268968
22	0xbf1a10d2	-0.60181916
23	0x40490c95	3.141393
24	0x4022a0a2	2.5410542
25	0x3d9b5e60	0.0758636
26	0xbd43af9d	-0.0477749
27	0x40349614	2.82166
28	0xbe6761b8	-0.2259587
29	0x3d4dce02	0.050245292
30	0x3f407afd	0.75187665
31	0x3f13bd35	0.5771058
32	0x3f0c0336	0.546924
33	0xbdf4ac59	-0.11946935
34	0x40079193	2.1182601
35	0x3efcc309	0.4936755
36	0xbe86be9a	-0.26317292
37	0xbf87f690	-1.062212
38	0x4030af73	2.7607086
39	0x3f9d82ab	1.2305502
40	0x3d945902	0.072435394
41	0xbdc5f827	-0.09666472
42	0x3d946a21	0.07246805
43	0xbb9c30c1	-0.004766554
44	0xbe096ec8	-0.13421166
45	0xbe2af2c4	-0.1669417
46	0x3e7230c7	0.2365142
47	0x3b7f73ed	0.003897901
48	0x3d2ae97f	0.041726585
49	0x3fd62d2d	1.6732537
50	0xbf34e877	-0.70667213
51	0xbd9b0605	-0.075695075
52	0x403d490a	2.957583
53	0x3f6a798e	0.9159173
54	0xbe3b137b	-0.1826915
55	0xbd0e09a3	-0.03467716
56	0x3db11e51	0.086483605
57	0xbd43189f	-0.047630902
58	0xbcd82745	-0.026385913
59	0xbf271e9d	-0.6528109
60	0xbd88b6f0	-0.066755176
61	0xbe960d9e	-0.29307264
62	0x3e249e67	0.1607605
63	0x3d61d4bc	0.05513452
64	0xbed278f6	-0.4110791
65	0xbee2e6bd	-0.44316664
66	0x3b46c7cc	0.003033149
67	0xbc979aa4	-0.018506356
68	0x3ccc21f5	0.024918536
69	0xbd700a69	-0.058603678
70	0xbc45f4a7	-0.012082255
71	0x40065d29	2.099436
72	0x4008363c	2.1283102
73	0x3f7e6ea2	0.9938756
74	0x3f2d3638	0.67660856
75	0x3e7b6763	0.24551158
76	0x3d90f66a	0.0707825
77	0xbdf61c90	-0.120171666
78	0xbd01ac41	-0.031658415
79	0xbd22fe28	-0.039793164
80	0x3efb8e5d	0.49132052
81	0x4039d72b	2.9037578
82	0xbcfa405c	-0.030548267
83	0xbf11402e	-0.56738555
84	0x3e0d6755	0.1380895
85	0x3f065413	0.5247204
86	0x3d8c7e03	0.06859972
87	0x3f0d0c70	0.55097103
88	0xbc7c4e9e	-0.015399603
89	0x3f45f165	0.77321464
90	0x402d0ec0	2.7040253
91	0x3e3f082f	0.18655466
92	0xbb314b39	-0.0027052893
93	0x3f11d973	0.56972426
94	0xbcea93fd	-0.02863502
95	0x3ffc6829	1.9719287
96	0x3e87300e	0.2640385
97	0x3dc4a8e7	0.09602528
98	0x3dd94ee6	0.10610752
99	0x3fd2f8d7	1.648219
100	0xbd0ce0f1	-0.03439421
101	0x3e5515fa	0.20809165
102	0x3eeedf9e	0.4665498
103	0x407160ff	3.7715452
104	0xbf1941a5	-0.5986579
105	0xbe3b59ca	-0.1829597
106	0xbe868c80	-0.26279068
107	0x3fb1ecc6	1.3900383
108	0x40092a46	2.1432052
109	0x3d3a4863	0.04547919
110	0xbccb4ecd	-0.024817849
111	0xbe69e486	-0.22841081
112	0xbd8e4a37	-0.06947749
113	0x3fd89674	1.6920915
114	0xbdd4851c	-0.10376951
115	0xbc5d8240	-0.013519824
116	0xbe074600	-0.13210297
117	0x3dedfcf2	0.11620511
118	0x400efc11	2.234135
119	0x3bf27b57	0.007399957
120	0xbe66ca69	-0.22538151
121	0xbf6267f1	-0.8843985
122	0xbe8a38c0	-0.26996422
123	0xbe5a973d	-0.21346755
124	0x3fea12bb	1.8286966
125	0x3d1f27d7	0.038856354
126	0xbd062d51	-0.03275806
127	0xbca03fdc	-0.0195617
128	0x40604377	3.5041177
129	0xbe94a634	-0.29033053
130	0x3e1cf92f	0.15329431
131	0x4024e2b7	2.5763376
132	0x3f4dfa58	0.8046012
133	0xbe929b14	-0.2863394
134	0x3e896cb8	0.26840758
135	0x4023be06	2.558473
136	0x3e9953c3	0.29946718
137	0xbe31551a	-0.1731762
138	0x3c31ff5e	0.010864107
139	0x3f7cd873	0.98767775
140	0x3fcd6690	1.6046925
141	0x3c84ac01	0.0161953
142	0x403bef94	2.9364977
143	0x3e0ee17e	0.13953206
144	0x3fb1fcf7	1.3905324
145	0x3beb644c	0.007183587
146	0x3f87897a	1.058883
147	0x3afd54af	0.0019327606
148	0xbd4d5677	-0.050131287
149	0x3f87b1a7	1.060109
150	0xbb8a40b3	-0.0042191385
151	0xbe3c14f7	-0.18367372
152	0xbdcf74c2	-0.10129692
153	0x3f8c2e1f	1.0951575
154	0x3c764b79	0.0150326425
155	0x3f70b965	0.9403289
156	0x3fe53e63	1.7909664
157	0xbe615d00	-0.22008133
158	0x3e95a8a7	0.29230234
159	0x3f2c95bd	0.6741598
160	0x3db36411	0.087593205
161	0x3e4f3e22	0.20238546
162	0xbe3fa185	-0.18713959
163	0x3c029782	0.007970693
164	0x3fada529	1.3566028
165	0xbec520e6	-0.38501662
166	0x401b9f34	2.431592
167	0xbe168f58	-0.14703119
168	0xbf63fcce	-0.89057624
169	0x3de921a5	0.1138337
170	0x3d22bbb3	0.039729785
171	0x3e343f03	0.17602162
172	0xbe1eba1d	-0.15500684
173	0x3c8a13ba	0.01685511
174	0x3d02d790	0.031943858
175	0x3e1322f0	0.14368796
176	0x3fcaf779	1.5856773
177	0x3cc125f9	0.023577677
178	0x4001fef3	2.0311859
179	0x3f174e29	0.5910364
180	0x4032eb1c	2.7956
181	0xbdbb654a	-0.09150179
182	0xbee813e4	-0.45327675
183	0xbda82a99	-0.0821125
184	0x3d3632e5	0.04448213
185	0xbc74c774	-0.014940131
186	0x3e1bc5a2	0.1521211
187	0x3dd1aeaa	0.10238393
188	0x3ba63ee4	0.005073415
189	0x3a0bdd1c	0.0005335377
190	0xbe6ef1dd	-0.23334451
191	0x3ea05b4c	0.31319654
192	0x3d92563d	0.07145355
193	0x3d89deb8	0.06731933
194	0xbe009e54	-0.12560397
195	0x3fb722f6	1.4307544
196	0xbd6e8c01	-0.058238987
197	0xbd99205b	-0.074768744
198	0xbb85b093	-0.004079887
199	0x3f293251	0.660924
200	0xbe0aec34	-0.13566667
201	0xbd070c33	-0.03297062
202	0x3c5de63a	0.01354366
203	0xbb8f150f	-0.004366524
204	0x3fd7bc50	1.6854343
205	0x3f8125df	1.0089682
206	0xbed26fc6	-0.411009
207	0x3f1a299b	0.60219735
208	0xbb3cee3d	-0.0028828525
209	0x3e1f7d9c	0.1557526
210	0xbf1d6732	-0.6148559
211	0x405be815	3.4360402
212	0xbb62bbe3	-0.0034596852
213	0x3d2a28af	0.041542705
214	0xbb710026	-0.003677377
215	0x3fbf3db6	1.4940708
216	0x3caa3541	0.020777347
217	0x3d6f617a	0.05844257
218	0x3d1c0cb2	0.038098045
219	0x3d6ac7bc	0.057319388
220	0xbf1a277b	-0.6021649
221	0x3dcef16c	0.10104641
222	0x3e10b5d5	0.14131863
223	0xbd849ea7	-0.06475573
224	0xbde750c7	-0.11294704
225	0xbfa26db7	-1.2689732
226	0xbdf4d9ce	-0.119556054
227	0xbe53b5b1	-0.20674779
228	0x407823cf	3.8771856
229	0xbd8de819	-0.06929035
230	0x3eb7faba	0.35933477
231	0x3dca81ef	0.09888064
232	0x3dab5668	0.0836609
233	0xbd9ce3d2	-0.07660641
234	0x3fbd2bd7	1.4779004
235	0xbec0f1b5	-0.37684408
236	0xbdca7740	-0.098860264
237	0x3d54c808	0.051948577
238	0x3e393ff1	0.18090798
239	0xbbe4958b	-0.0069758347
240	0x3f93c596	1.1544673
241	0xbf84dbaf	-1.0379542
242	0x3fa0c67d	1.2560574
243	0x3e4063f2	0.18788126
244	0x4012da87	2.2945879
245	0xbed59766	-0.4171707
246	0x3de754a5	0.112954415
247	0x3e21900f	0.1577761
248	0x3bafc5e0	0.0053641647
249	0x400a2dae	2.159038
250	0x3f4efd3a	0.80855143
251	0x3e405ba6	0.18784961
252	0x3db6fcbc	0.08934924
253	0xbee76e63	-0.45201406
254	0x3fe5d87e	1.7956693
255	0xbd3b169d	-0.045675863
