mini_batch_exp/models/mnist_sgd_batch2048_lr0.1.pt (torch_old, 326372 bytes, 26 tensors)

conv1.weight f4 [16, 1, 3, 3]
-0.27016398 0.31338948 0.14998081 0.11154183 0.09347653 0.275327 0.15510899 0.020253193
0.16766956 -0.064345844 -0.1933095 0.17865424 -0.27526408 -0.25262803 0.3285674 0.034101475
0.26111978 0.12718447 0.1293501 -0.1680115 -0.0697284 0.2889916 0.09675298 -0.35085708
-0.07613362 -0.09041931 -0.08791782 -0.19374275 0.31102484 -0.13493207 0.07735634 0.32180998
0.08499891 -0.13870819 0.21132487 0.3047157 -0.1860689 0.30279258 -0.21557473 0.20024832
0.27528062 0.10835027 -0.10858188 0.16747728 -0.026364189 -0.059987795 0.06439309 -0.034402736
0.14111736 -0.16556393 -0.1606882 0.16002767 -0.3264432 0.27888262 -0.020206366 -0.1723551
0.10901864 0.118469566 0.3350408 0.15253648 0.1538992 0.22510867 -0.25723678 -0.2529572
-0.17453681 0.018497447 -0.089621745 -0.078803115 0.20027365 -0.21662122 0.21014048 0.26419398
0.016365064 -0.2701479 -0.33756134 0.30904856 -0.16241483 0.14131351 0.073615566 -0.2092379
-0.31558406 0.018757673 -0.13035792 0.24038912 -0.06331498 0.34228948 0.028228292 -0.13724303
0.12650363 0.14677685 0.043808427 0.07029026 0.22334285 0.22249946 -0.048040032 0.25917983
-0.20879972 0.3329388 -0.17503938 0.31366894 -0.029662158 -0.28254336 -0.0018378318 0.20844746
-0.34386754 0.27147305 0.20157789 -0.3372922 -0.18495642 -0.23658532 -0.20555484 -0.26986137
0.21835612 -0.14190182 -0.17214167 0.19110104 0.06780243 -0.26387116 0.095991515 -0.17303227
0.05366715 0.0044259774 -0.18176164 -0.10260183 -0.28275597 0.21538739 -0.14741872 -0.06547684
-0.12507044 0.15314855 0.17050077 -0.16659093 -0.08642792 0.07772897 0.2599138 0.122177415
0.21676652 0.14108641 -0.25823867 0.0632522 0.2637395 -0.01865358 -0.30409023 -0.33105737
00000000: ef52 8abe 9674 a03e 9294 193e 0b70 e43d
00000010: 9f70 bf3d a9f7 8c3e e4d4 1e3e 06ea a53c
00000020: 92b1 2b3e c1c7 83bd edf2 45be 23f1 363e
00000030: 6aef 8cbe 7658 81be fc39 a83e fdad 0b3d
00000040: 7eb1 853e a53c 023e 5a74 043e 350b 2cbe
00000050: c3cd 8ebd b5f6 933e 6d26 c63d 8aa3 b3be
00000060: f2eb 9bbd c22d b9bd 420e b4bd 8064 46be
00000070: a63e 9f3e a22b 0abe 006d 9e3d 47c4 a43e
00000080: e913 ae3d 8509 0ebe 8c65 583e b203 9c3e
00000090: d988 3ebe a107 9b3e 9fbf 5cbe e50d 4d3e
000000a0: 95f1 8c3e bfe6 dd3d 2d60 debd 2a7f 2b3e
000000b0: b6f9 d7bc c3b5 75bd 86e0 833d e2e9 0cbd
000000c0: 1281 103e 9789 29be 738b 24be 4bde 233e
000000d0: 9023 a7be b4c9 8e3e d287 a5bc db7d 30be
000000e0: 2a45 df3d 2ca0 f23d 788a ab3e 8632 1c3e
000000f0: c097 1d3e e382 663e 8ab4 83be 9b83 81be
00000100: c7b9 32be f587 973c 9b8b b7bd 8763 a1bd
00000110: 8914 4d3e f4d1 5dbe 112f 573e 6f44 873e
00000120: 0710 863c d350 8abe d7d4 acbe 9d3b 9e3e
00000130: 1350 26be 7db4 103e c2c3 963d 7642 56be
00000140: 3c94 a1be b1a9 993c 8c7c 05be 9128 763e
00000150: 49ab 81bd 9140 af3e 053f e73c 7089 0cbe
00000160: 2b8a 013e ac4c 163e 7770 333d 57f4 8f3d
00000170: fdb3 643e e6d6 633e a0c5 44bd 38b3 843e
00000180: 98cf 55be f476 aa3e 863d 33be 3799 a03e
00000190: 0efe f2bc 86a9 90be 67e3 f0ba 4073 553e
000001a0: 680f b0be 84fe 8a3e 6f6a 4e3e 90b1 acbe
000001b0: 3765 3dbe 6c43 72be f87c 52be 452b 8abe
000001c0: bf98 5f3e b64e 11be e845 30be feaf 433e
000001d0: 00dc 8a3d 1f1a 87be 3397 c43d 5f2f 31be
000001e0: 16d2 5b3d ca07 913b b91f 3abe e920 d2bd
000001f0: 64c5 90be 838e 5c3e eff4 16be b918 86bd
00000200: 7712 00be f9d2 1c3e c197 2e3e d096 2abe
00000210: 1f01 b1bd 5e30 9f3d 6c13 853e 2738 fa3d
00000220: 0bf8 5d3e f578 103e dc37 84be 5f8a 813d
00000230: dd08 873e 65cf 98bc b7b1 9bbe 5a80 a9be

conv1.bias f4 [16]
-0.22180326 -0.3210119 0.25088346 0.24558121 0.33117908 -0.20999336 -0.061246525 -0.2890623
-0.332929 -0.18076399 0.1410637 0.18303414 0.054353606 0.17800024 0.1046388 0.13785984
00000000: 6520 63be ac5b a4be cc73 803e a479 7b3e
00000010: 4e90 a93e 8008 57be a3dd 7abd f9ff 93be
00000020: ab75 aabe 321a 39be 0173 103e 4d6d 3b3e
00000030: e3a1 5e3d b245 363e de4c d63d 212b 0d3e

bn1.weight f4 [16]
1.0053307 1.0165784 1.0078468 0.9962158 0.9992975 0.95356727 1.006993 1.0087416
0.9876088 0.9983219 1.0019274 1.0221521 0.96998703 0.96163285 0.9988695 1.0557073
00000000: adae 803f 3e1f 823f 2001 813f 0008 7f3f
00000010: f6d1 7f3f fc1c 743f 26e5 803f 721e 813f
00000020: eed3 7c3f 0692 7f3f 283f 803f e1d5 823f
00000030: 1251 783f 922d 763f e9b5 7f3f 6b21 873f

bn1.bias f4 [16]
0.0076058605 0.020054506 0.005153166 -0.010501592 0.013085788 0.008790981 0.016179299 0.0073936745
-0.010667462 -0.010518114 0.003911285 0.021626456 0.005022951 0.006905857 0.037233453 0.0022980669
00000000: 953a f93b 5949 a43c e4db a83b df0e 2cbc
00000010: c665 563c 0c08 103c 738a 843c a346 f23b
00000020: 94c6 2ebc 2b54 2cbc 3d2a 803b f729 b13c
00000030: 9197 a43b 874a e23b 1b82 183d 2a9b 163b

bn1.running_mean f4 [16]
58.56513 24.991957 8.139117 50.896477 33.338314 7.366105 40.51056 18.33823
4.2814283 35.128403 42.172226 23.207352 2.2057729 1.6777618 12.661389 14.312788
00000000: b142 6a42 87ef c741 d339 0241 fe95 4b42
00000010: 6f5a 0542 22b7 eb40 d00a 2242 b2b4 9241
00000020: 7601 8940 7c83 0c42 5cb0 2842 a8a8 b941
00000030: 622b 0d40 e6c0 d63f 0d95 4a41 2e01 6541

bn1.running_var f4 [16]
8467.217 2402.6162 407.94748 6796.781 3161.9443 215.18604 4528.3315 1585.6332
219.66595 3327.359 4381.9595 2474.642 61.512 36.6912 614.26776 1170.1349
00000000: de4c 0446 dc29 1645 47f9 cb43 3f66 d445
00000010: 1c9f 4545 a02f 5743 a782 8d45 4334 c644
00000020: 7caa 5b43 bef5 4f45 adef 8845 46aa 1a45
00000030: 4a0c 7642 cac3 1242 2391 1944 5144 9244

conv2.weight f4 [32, 16, 4, 4]
-0.0065228026 0.012857188 -0.022202414 0.060109135 -0.015278664 0.024829725 -0.01857929 0.034247328
-0.06360617 0.02560739 0.03212655 -0.031039936 0.015677776 -0.02818041 -0.042294115 -0.025886424
-0.008885903 0.032702737 0.0006701905 0.049601745 -7.144531e-05 -0.036675736 0.039953385 -0.028532686
0.014643702 0.025106683 0.05345966 -0.05435257 -0.017044934 -0.04383884 -0.011353436 0.04542289
-0.045051653 -0.01129057 -0.05309556 0.0022020359 -0.06284614 0.0048623253 0.022760874 0.055078954
0.026972644 -0.02659261 -0.057742536 -0.012026215 -0.020212494 -0.022008173 -0.030656572 -0.018234082
0.055642653 -0.03827554 0.026807338 0.046593625 0.013935048 -0.031523626 -0.0039408533 0.020888634
-0.020553367 0.021009915 0.031614035 0.074245885 0.030687686 -0.014379811 -0.05556168 0.024839804
0.036684074 0.03296325 -0.010186425 0.013806663 0.053051878 -0.0014775663 0.020960534 -0.019135972
0.013434975 -0.045372196 0.009094767 0.007629103 -0.04171951 0.0025563408 -0.061202772 0.043441143
0.020797847 -0.023954248 0.042443402 -0.0023626692 0.03327878 0.0015696095 0.0055489456 0.07174212
0.028013328 -0.016541239 -0.03422364 -0.053576943 0.026460564 -0.0023389559 0.002846333 -0.0077175577
-0.005310187 -0.047924884 0.071173824 0.044228807 -0.042659875 0.038129013 0.0025191118 -0.0026642717
-0.049121242 -0.027916918 -0.07276975 -0.025472857 -0.057267178 0.01959816 0.0194961 0.043570645
0.02293452 -0.030252447 0.0009776992 0.033883166 -0.030003343 0.06621523 0.06081761 0.05988974
-0.04913062 -0.016451841 -0.0057852487 -0.027722016 0.04436018 -0.036464594 0.028564103 -0.012847531
-0.013717645 0.034854244 -0.010325834 0.054211956 0.05300464 -0.056229543 0.0050552343 0.0043251365
-0.035060577 -0.030593919 -0.017039316 -0.048852134 0.035879705 0.010834873 0.07336948 0.042078517
-0.0426518 0.046871167 -0.027092397 0.031073688 0.046410415 0.04000602 0.059155364 -0.047598477
0.019462025 0.046723522 -0.014792537 0.06216544 0.02446349 0.045944497 -0.06242234 0.06277145
0.03824331 0.018268792 0.041349005 -0.048045136 -0.0074483124 0.010454676 0.0075217145 0.014645844
-0.05747364 0.05189426 -0.048985586 0.039146677 0.002616768 -0.06302493 -0.054779764 0.023785865
0.025360506 -0.007524137 -0.048392437 -0.032586113 -0.009457943 0.047607236 -0.01776019 0.026812306
-0.03679875 -0.027630942 0.06680223 -0.009025731 0.009499462 -0.008921397 -0.006075822 -0.072045386
-0.020978747 -0.019662578 -0.005419587 -0.04446412 -0.007015421 -0.04297234 -0.054428104 -0.061191626
0.014915078 -0.03317893 -0.0014652001 -0.045220416 0.0051637515 -0.005675364 0.021373164 -0.06839492
-0.037115477 -0.02758038 -0.027092023 0.029580085 0.060631584 0.01658643 0.06084416 0.028662344
-0.008696325 -0.0028668991 -0.028908364 -0.00815236 -0.06891017 0.021475652 -0.07215791 0.035087876
-0.025084112 0.016827436 -0.03222425 0.035862323 -0.051528245 0.04278568 0.019885883 -0.0656029
0.003651595 -0.0156048555 0.056294043 0.038265236 -0.06356625 -0.005460797 0.049120758 -0.03486363
0.03076759 -0.034564026 -0.0047388272 -0.04541566 0.058245577 0.05144427 -0.0052206055 -0.042588055
-0.0020550843 -0.00796624 -0.0396096 0.0009487983 -0.06168317 -0.06487301 0.024595924 -0.03526426
00000000: 3cbd d5bb f4a6 523c d6e1 b5bc ff34 763d
00000010: 5d53 7abc b567 cb3c 9833 98bc ed46 0c3d
00000020: f443 82bd 97c6 d13c 2197 033d 7747 febc
00000030: ae6e 803c 9ada e6bc 983c 2dbd c40f d4bc
00000040: 2e96 11bc 4ef3 053d b9af 2f3a 332b 4b3d
00000050: e9d4 95b8 4c39 16bd 29a6 233d 61bd e9bc
00000060: 23ec 6f3c 88ac cd3c 84f8 5a3d cda0 5ebd
00000070: d1a1 8bbc 5b90 33bd c303 3abc 5a0d 3a3d
00000080: 1588 38bd 15fc 38bc bb7a 59bd 0850 103b
00000090: 7ab5 80bd 2454 9f3b 0375 ba3c 789a 613d
000000a0: bcf5 dc3c bfd8 d9bc 7083 6cbd 9a09 45bc
000000b0: ac94 a5bc 7c4a b4bc 7e23 fbbc a45f 95bc
000000c0: 8de9 633d d0c6 1cbd 109b db3c f5d8 3e3d
000000d0: d44f 643c eb1e 01bd 4622 81bb a41e ab3c
000000e0: 895f a8bc fc1c ac3c b87d 013d 3a0e 983d
000000f0: be64 fb3c 4c99 6bbc a594 63bd d87c cb3c
00000100: 0a42 163d 7904 073d f7e4 26bc 5835 623c
00000110: ed4c 593d e6aa c1ba 6db5 ab3c 0bc3 9cbc
00000120: 5f1e 5c3c 32d8 39bd 3802 153c 8efd f93b
00000130: 14e2 2abd 4888 273b c2af 7abd 57ef 313d
00000140: 3f60 aa3c b33b c4bc 22d9 2d3d 03d7 1abb
00000150: 544f 083d 5bbb cd3a eed3 b53b 88ed 923d
00000160: 357c e53c 7e81 87bc 162e 0cbd 7f73 5bbd
00000170: d3c3 d83c 2b49 19bb 8b89 3a3b 91e3 fcbb
00000180: 1401 aebb e24c 44bd 95c3 913d 4429 353d
00000190: 1fbc 2ebd 2b2d 1c3d af17 253b 109b 2ebb
000001a0: 5b33 49bd 05b2 e4bc 4f08 95bd 74ac d0bc
000001b0: fd90 6abd 528c a03c 49b6 9f3c 2277 323d
000001c0: 2de1 bb3c fbd3 f7bc 2426 803a 13c9 0a3d
000001d0: 92c9 f5bc da9b 873d e31b 793d f24e 753d
000001e0: 303d 49bd 03c6 86bc 2f92 bdbb 4819 e3bc
000001f0: 05b3 353d e65b 15bd 44ff e93c 737e 52bc
00000200: f9bf 60bc 53c3 0e3d b02d 29bc 5b0d 5e3d
00000210: 651b 593d f350 66bd 61a6 a53b e0b9 8d3b
00000220: ae9b 0fbd 19a0 fabc 0996 8bbc 2d19 48bd
00000230: 99f6 123d c084 313c bd42 963d 865a 2c3d
00000240: a7b3 2ebd fbfb 3f3d e0f0 ddbc 3f8e fe3c
00000250: d918 3e3d 5add 233d e54c 723d 9ff6 42bd
00000260: d36e 9f3c 2a61 3f3d 665c 72bc 30a1 7e3d
00000270: a867 c83c 4c30 3c3d 91ae 7fbd 518e 803d
00000280: 04a5 1c3d 6fa8 953c 935d 293d faca 44bd
00000290: f910 f4bb 174a 2b3c b778 f63b 1ff5 6f3c
000002a0: 7b69 6bbd 138f 543d 1ca5 48bd 4458 203d
000002b0: 157e 2b3b 3713 81bd bf60 60bd 93da c23c
000002c0: d6c0 cf3c 098d f6bb 2637 46bd 0479 05bd
000002d0: 7df5 1abc ceff 423d d17d 91bc 7ba5 db3c
000002e0: 49ba 16bd 495a e2bc 9ccf 883d a9e0 13bc
000002f0: a2a3 1b3c 0d2b 12bc b017 c7bb 888c 93bd
00000300: 9fdb abbc 6a13 a1bc ca96 b1bb 0220 36bd
00000310: 9ee1 e5bb c403 30bd 01f0 5ebd 12a4 7abd
00000320: 5f5e 743c a1e6 07bd f50b c0ba 0b39 39bd
00000330: b034 a93b 67f8 b9bb c616 af3c a312 8cbd
00000340: 6606 18bd 40f0 e1bc 17f0 ddbc ef51 f23c
00000350: d358 783d 44e0 873c ba37 793d 4bcd ea3c
00000360: 087b 0ebc 96e2 3bbb 3cd1 ecbc 7a91 05bc
00000370: c620 8dbd b5ed af3c 87c7 93bd 4eb8 0f3d
00000380: 327d cdbc b1d9 893c 93fd 03bd 5fe4 123d
00000390: 480f 53bd 0a40 2f3d b8e7 a23c d05a 86bd
000003a0: 994f 6f3b 82ab 7fbc 9594 663d 02bc 1c3d
000003b0: 062f 82bd 7cf0 b2bb d932 493d 2acd 0ebd
000003c0: 500c fc3c 0293 0dbd 2a48 9bbb c505 3abd
000003d0: ea92 6e3d 3ab7 523d 9d11 abbb d070 2ebd
000003e0: 98ae 06bb d584 02bc ad3d 22bd c7b8 783a
000003f0: 7ea7 7cbd 24dc 84bd 647d c93c 4271 10bd

conv2.bias f4 [32]
-0.015609206 0.039426252 0.045639995 -0.025095483 -0.03777952 -0.044437736 -0.045249388 0.02198032
-0.05301279 -0.048649993 -0.0076975427 -0.027078634 -0.06604534 -0.032843012 -0.06155755 0.015748115
-0.049824186 -0.041050427 -0.012652042 -0.015402021 -0.0071242405 -0.047660645 0.052520543 0.04243285
-0.0074811555 -0.064744845 -0.016628068 -0.03907085 0.043928087 -0.052050572 -0.016692095 -0.028474363
00000000: c1bd 7fbc 6c7d 213d 01f1 3a3d 0b95 cdbc
00000010: b3be 1abd 5804 36bd 6c57 39bd 1210 b43c
00000020: f023 59bd 3745 47bd ab3b fcbb 03d4 ddbc
00000030: c742 87bd 6586 06bd c523 7cbd 3102 813c
00000040: 7214 4cbd 7e24 28bd 834a 4fbc c258 7cbc
00000050: 7672 e9bb cf37 43bd c81f 573d 11ce 2d3d
00000060: 7b24 f5bb f298 84bd 9637 88bc c108 20bd
00000070: f0ed 333d fb32 55bd dcbd 88bc 1143 e9bc

bn2.weight f4 [32]
0.99687827 1.0037891 0.99270403 0.98470175 1.0114138 0.9997048 0.9947486 0.9978334
1.0161551 1.0190015 0.9904855 0.9976837 1.0040809 0.98955995 0.99559087 1.0188345
1.0066538 0.9938413 1.030663 0.98749125 0.9968561 1.0015271 0.9837245 1.0000757
1.0014721 1.0078341 0.99812603 0.995792 1.0023599 0.9938935 0.98721284 0.9979852
00000000: 6a33 7f3f 297c 803f da21 7e3f 6a15 7c3f
00000010: 0276 813f a7ec 7f3f d8a7 7e3f 0272 7f3f
00000020: 5f11 823f a46e 823f 7590 7d3f 3368 7f3f
00000030: b985 803f cd53 7d3f 0bdf 7e3f 2b69 823f
00000040: 08da 803f 626c 7e3f c4ec 833f 3acc 7c3f
00000050: f631 7f3f 0a32 803f 5ed5 7b3f 7b02 803f
00000060: 3d30 803f b500 813f 3085 7f3f 39ec 7e3f
00000070: 544d 803f ce6f 7e3f fbb9 7c3f f57b 7f3f

bn2.bias f4 [32]
0.005986527 0.0025428282 0.0025949853 0.009119666 -0.0010214903 0.00030389414 0.0033246905 0.0006720147
0.001844228 0.001213985 -0.0003918421 0.0031406907 0.004499969 0.003704865 0.007137888 0.006004958
0.0024815814 0.0016449027 0.0060129133 -9.981388e-05 0.0026350655 0.0018853248 0.0033686883 0.0039607
0.00014727275 -0.004071624 0.0028687497 0.0025016502 -9.081042e-05 0.0013970837 0.0018289797 -0.000405493
00000000: a12a c43b 94a5 263b a110 2a3b a76a 153c
00000010: 87e3 85ba fb53 9f39 0de3 593b 252a 303a
00000020: 06ba f13a 941e 9f3a 2870 cdb9 0cd4 4d3b
00000030: 7a74 933b 52cd 723b f2e4 e93b 3dc5 c43b
00000040: 07a2 223b c799 d73a f907 c53b 2b53 d1b8
00000050: 10b1 2c3b 011d f73a 36c5 5c3b c2c8 813b
00000060: 3a6d 1a39 426b 85bb a201 3c3b baf2 233b
00000070: 7971 beb8 5a1e b73a 60ba ef3a 5998 d4b9

bn2.running_mean f4 [32]
0.5231258 0.5769385 0.6629725 0.70634836 0.36238506 0.4033067 0.5748768 0.35876074
0.40102395 0.4430656 0.9312835 0.6554271 0.3950414 0.5854502 0.32538548 0.54779166
0.35490677 0.9131514 0.33817926 0.7122479 0.46918657 0.86165154 0.8256604 0.5122157
0.3941959 0.37992093 0.88998693 0.5148523 0.46972895 0.7929436 0.63182443 0.53980654
00000000: 93eb 053f 3eb2 133f 91b8 293f 3fd3 343f
00000010: 898a b93e 377e ce3e 202b 133f 7daf b73e
00000020: 0353 cd3e 7fd9 e23e 9868 6e3f 12ca 273f
00000030: de42 ca3e 10e0 153f ed98 a63e 133c 0c3f
00000040: 57b6 b53e 4ac4 693f d525 ad3e e155 363f
00000050: 3939 f03e 3295 5c3f 7b5e 533f 9120 033f
00000060: 0cd4 c93e ff84 c23e 2fd6 633f 5ccd 033f
00000070: 5080 f03e 5afe 4a3f 3fbf 213f c330 0a3f

bn2.running_var f4 [32]
0.31423697 0.3651298 0.41577953 0.48726144 0.18869036 0.22746934 0.3714204 0.14720795
0.27351567 0.21805868 0.68932945 0.3622344 0.17482752 0.24221192 0.12602659 0.30252424
0.15481879 0.62759036 0.17240246 0.41599688 0.21568796 0.53726125 0.39415467 0.27544633
0.21934044 0.2090499 0.5710331 0.2807353 0.24658506 0.88535535 0.4079063 0.22095165
00000000: abe3 a03e 4bf2 ba3e 0ee1 d43e 557a f93e
00000010: 0c38 413e b9ed 683e d12a be3e aebd 163e
00000020: 3f0a 8c3e c64a 5f3e e577 303f ca76 b93e
00000030: fc05 333e 6706 783e 1d0d 013e 75e4 9a3e
00000040: d188 1e3e c3a9 203f 458a 303e 8bfd d43e
00000050: 4edd 5c3e f489 093f a4ce c93e 4d07 8d3e
00000060: c89a 603e 2d11 563e 3a2f 123f 8abc 8f3e
00000070: cb80 7c3e a6a6 623f 18d9 d03e 2641 623e

conv3.weight f4 [64, 32, 5, 5]
0.0030379652 -0.008299457 0.018929299 -0.0120517 -0.0131650325 0.02454878 0.03106045 0.029619318
-0.019642632 -0.029270101 0.021980846 0.022801965 0.011914307 -0.028532257 -0.022406226 -0.017148728
-0.021016357 -0.0075119203 -0.005104895 0.01885801 -0.03834134 -0.022103216 0.04480709 -0.023417694
-0.026850749 0.026557917 -0.004562689 0.019963507 0.009013364 -0.008811811 -0.031925157 -0.0040758993
-0.026508635 0.03499995 0.03235387 0.010629899 -0.014527262 0.0020798282 0.0021767141 -0.035129115
0.023189377 0.022276608 -0.024148997 -0.026546948 0.019848855 0.0029902065 0.024992375 0.024495823
-0.034295905 -0.009301094 0.02703234 0.005910367 -0.026848497 -0.01494682 -0.014718714 0.019300535
0.02569074 0.03769861 -0.0054544625 -0.016733883 0.002728294 0.022610333 0.0040014475 0.0028327613
-0.013421239 -0.00747754 0.030817192 -0.022625914 0.028165003 0.021764264 0.001680841 0.033680182
-0.033623498 -0.035814095 -0.023260884 -0.009856692 -0.03400764 0.022122795 -0.031787243 -0.009031366
0.037289944 -0.0023240594 -0.010109374 -0.02523629 -0.03493683 -0.017889233 0.02864189 0.005733326
0.023677882 -0.038640287 -0.00039292622 -0.003835384 -0.008954957 -0.009509655 -0.028057288 -0.017407307
0.0014992955 0.011176693 0.011937589 0.0031607102 0.01893016 0.008583506 0.018901095 0.017706802
-0.005448703 0.011754574 -0.03817649 -0.044265777 -0.00976903 0.009526369 -0.0019244709 -0.0325908
-0.0007761249 -0.012084493 0.031978566 -0.018920835 -0.019296871 0.020570537 -0.020250984 -0.0053035566
-0.0030015828 -0.038210265 -0.029770082 -0.013245051 0.009719051 -0.008008037 -0.01973831 -0.015288674
0.016939986 -0.019575749 0.01005463 -0.020373907 -0.016085 -0.023848733 -0.02303785 0.028202487
-0.023913942 0.012045437 0.04458205 0.008374161 -0.02126152 0.0081423195 0.037696145 -0.0067101927
0.0066685122 -0.0031271065 0.018982854 -0.023010237 -0.02160593 0.0018943641 -0.018629577 0.010644468
-0.023217853 0.013394002 -0.016195362 0.021553803 -0.01315171 0.0061523663 -0.031778976 0.005789381
-0.013978367 0.0008795406 -0.028580775 -0.02129846 -0.0288607 -0.035549838 0.0074732187 -0.03317154
0.0147612635 -0.027863145 -0.03425504 0.029859638 -0.015473889 0.008819441 -0.028672388 0.0035475213
0.0025046305 -0.02177255 0.002061482 -0.007558998 -0.014977201 -0.011200585 0.0073722266 0.00307235
-0.0014541378 -0.001578455 -0.023214445 0.02108018 -0.00074792624 -0.01413978 -0.014947988 0.026944425
0.029818596 -0.038205914 0.014364706 0.008596955 -0.011756592 -0.01945816 0.025951333 0.00969666
0.030521723 0.0025337515 -0.002205889 0.009079911 0.031935595 0.022612585 0.04507899 -0.0051762746
-0.0074020713 -0.023055619 0.04485964 0.04539181 0.033885997 -0.029489268 -0.030444717 -0.02379684
-0.020278078 0.0021855754 -0.016489653 0.031910975 0.03282086 -0.023584208 -0.019704627 -0.02387867
-0.016324244 0.028238758 0.02269493 0.015969459 -0.030010367 -0.026316062 0.03707175 -0.014525117
-0.01950168 -0.013057359 -0.033582266 0.0046587987 0.0032141823 0.02748344 0.008146407 -0.012316992
-0.0013342757 -0.00689649 0.030434437 0.022199038 -0.020270778 -0.021186804 0.010501412 0.031554926
-0.0027425943 0.035974983 -0.02623547 8.035139e-06 -0.023200152 -0.0015382527 0.0028948667 -0.016404584
00000000: 9918 473b 72fa 07bc 9e11 9b3c 7e74 45bc
00000010: 26b2 57bc 861a c93c 7c72 fe3c 36a4 f23c
00000020: 96e9 a0bc dac7 efbc 2d11 b43c 30cb ba3c
00000030: 3a34 433c 7bbc e9bc 438d b7bc 7d7b 8cbc
00000040: 7f2a acbc 8e26 f6bb f746 a7bb 1d7c 9a3c
00000050: cf0b 1dbd ce11 b5bc a487 373d 77d6 bfbc
00000060: 1af6 dbbc fd8f d93c 9c82 95bb 828a a33c
00000070: caac 133c 6a5f 10bc f4c3 02bd 1f8f 85bb
00000080: a328 d9bc 1c5c 0f3d 7e85 043d 0729 2e3c
00000090: c103 6ebc ba4d 083b 34a7 0e3b 8ce3 0fbd
000000a0: a6f7 bd3c 6f7d b63c 1ed4 c5bc fc78 d9bc
000000b0: 119a a23c 57f7 433b cfbc cc3c 77ab c83c
000000c0: dd79 0cbd 9e63 18bc ed72 dd3c c0ab c13b
000000d0: 61f1 dbbc 82e3 74bc c326 71bc 281c 9e3c
000000e0: 6375 d23c dc69 1a3d 59bb b2bb 7f15 89bc
000000f0: 2ecd 323b 4e39 b93c 931e 833b d9a5 393b
00000100: c2e4 5bbc 2706 f5bb 5674 fc3c fb59 b9bc
00000110: 4bba e63c f84a b23c aa4f dc3a 3bf4 093d
00000120: cbb8 09bd cdb1 12bd 9c8d bebc f67d 21bc
00000130: 984b 0bbd dd3a b53c 5733 02bd 4bf8 13bc
00000140: 57bd 183d 3f4f 18bb caa1 25bc 56bc cebc
00000150: ec19 0fbd 718c 92bc 66a2 ea3c a0de bb3b
00000160: 1ef8 c13c 4745 1ebd aa01 ceb9 115b 7bbb
00000170: d0b7 12bc 62ce 1bbc 66d8 e5bc c599 8ebc
00000180: 0284 c43a 731e 373c e195 433c eb23 4f3b
00000190: 6c13 9b3c d5a1 0c3c 78d6 9a3c db0d 913c
000001a0: 098b b2bb 4296 403c f45e 1cbd 0850 35bd
000001b0: 480e 20bc 7d14 1c3c 873e fcba ee7d 05bd
000001c0: dc74 4bba 0afe 45bc f5fb 023d deff 9abc
000001d0: 7914 9ebc 8b83 a83c 64e5 a5bc 75c9 adbb
000001e0: 34b6 44bb 5e82 1cbd 63e0 f3bc c501 59bc
000001f0: a83c 1f3c 2434 03bc 3cb2 a1bc 597d 7abc
00000200: bac5 8a3c 525d a0bc 2dbc 243c 2ee7 a6bc
00000210: b1c4 83bc 6b5e c3bc e0b9 bcbc e708 e73c
00000220: 2ce7 c3bc 395a 453c ab9b 363d c733 093c
00000230: a42c aebc 5d67 053c 4667 1a3d 2de1 dbbb
00000240: 8983 da3b 24f0 4cbb ee81 9b3c f77f bcbc
00000250: ebfe b0bc 504c f83a 0e9d 98bc 2266 2e3c
00000260: 5e33 bebc 8472 5b3c 23ac 84bc 9a91 b03c
00000270: 457a 57bc ca99 c93b ac2a 02bd d9b4 bd3b
00000280: 8505 65bc f890 663a 3b22 eabc 1c7a aebc
00000290: 466d ecbc b59c 11bd e7e1 f43b e1de 07bd
000002a0: 3ad9 713c 4041 e4bc 034f 0cbd 339c f43c
000002b0: 3286 7dbc 6b7f 103c 5be2 eabc 887d 683b
000002c0: ba24 243b 595c b2bc ee19 073b 79b1 f7bb
000002d0: ef62 75bc a982 37bc b892 f13b 7b59 493b
000002e0: c598 beba 29e4 ceba 382c bebc 57b0 ac3c
000002f0: 7b10 44ba 89aa 67bc 68e8 74bc 8eba dc3c
00000300: 2146 f43c ce7d 1cbd f259 6b3c 3eda 0c3c
00000310: b99e 40bc b866 9fbc e497 d43c bdde 1e3c
00000320: b108 fa3c 4c0d 263b ad90 10bb e8c3 143c
00000330: e6ce 023d 073e b93c bfa4 383d bd9d a9bb
00000340: 138d f2bb 23df bcbc bebe 373d c3ec 393d
00000350: 0bcc 0a3d 7a93 f1bc 3367 f9bc 97f1 c2bc
00000360: 361e a6bc df3b 0f3b 4f15 87bc 15b5 023d
00000370: 2b6f 063d ab33 c1bc 996b a1bc 339d c3bc
00000380: 6cba 85bc f854 e73c b8ea b93c 62d2 823c
00000390: 4dd8 f5bc c894 d7bc 8cd8 173d c2fa 6dbc
000003a0: fdc1 9fbc 88ee 55bc 8f8d 09bd d6a8 983b
000003b0: 08a5 523b f324 e13c 8278 053c 35cd 49bc
000003c0: dde2 aeba f4fb e1bb a451 f93c c2da b53c
000003d0: e70e a6bc f38f adbc 1d0e 2c3c bd3f 013d
000003e0: 19bd 33bb 815a 133d c5eb d6bc a9ce 0637
000003f0: 3f0e bebc 329f c9ba ceb7 3d3b e862 86bc

conv3.bias f4 [64]
-0.010527795 -0.030159416 0.019323567 0.016993817 -0.01253372 0.010493262 0.033277366 0.017330281
0.032425757 0.0023516768 -0.02608857 0.011680971 0.011330057 0.008053467 -0.022592835 0.0064356755
-0.025934698 0.010445877 -0.02236174 0.040094633 -0.02348062 -0.019232549 -0.0038726928 0.0059599667
0.012663013 0.030306546 -0.026601808 0.03227888 0.0256854 0.021546304 -0.011372611 -0.010020162
0.0030535134 0.00040353 -0.0006903526 0.008475596 0.0056220405 0.019525815 0.004150408 -0.02572824
0.0323725 0.014212676 0.02424649 -0.012830128 0.0031426554 -0.012907039 -0.026987152 -0.039493866
0.0017039815 0.0070427977 0.008556108 -0.0028611876 0.025792496 -0.028764755 -0.01876488 -0.0030237192
-0.01587122 0.010710515 0.021779219 -0.0015200592 -0.026496088 -0.012569805 0.037355617 -0.007533595
00000000: c67c 2cbc e110 f7bc 754c 9e3c 9e36 8b3c
00000010: 3b5a 4dbc eeeb 2b3c d94d 083d 3cf8 8d3c
00000020: dfd0 043d 971e 1a3b b2b7 d5bc 8b61 3f3c
00000030: b4a1 393c b0f2 033c 9c14 b9bc 5ce2 d23b
00000040: 0175 d4bc 2f25 2b3c f82f b7bc 453a 243d
00000050: 6e5a c0bc 948d 9dbc 01cd 7dbb d34b c33b
00000060: 8778 4f3c 6f45 f83c 09ec d9bc dc36 043d
00000070: 306a d23c e081 b03c 3054 3abc 9b2b 24bc
00000080: 741d 483b e190 d339 c7f8 34ba 3add 0a3c
00000090: 1839 b83b 9af4 9f3c 2500 883b 08c4 d2bc
000000a0: 0799 043d 49dc 683c 93a0 c63c 7535 52bc
000000b0: 02f5 4d3b 0c78 53bc 2914 ddbc 52c4 21bd
000000c0: 2258 df3a 45c7 e63b eb2e 0c3c c382 3bbb
000000d0: c94a d33c 10a4 ebbc ceb8 99bc 9729 46bb
000000e0: 5c04 82bc 287b 2f3c 556a b23c b93c c7ba
000000f0: 530e d9bc 95f1 4dbc 3402 193d 60dc f6bb

bn3.weight f4 [64]
0.9857549 0.9886021 1.0035942 1.0274947 0.9854852 1.0382292 0.97388077 1.0045522
0.98640895 1.0047247 0.99892324 0.9777021 0.9799604 1.0186039 1.0071774 1.0083401
0.99928015 1.0297406 1.0076505 1.0295104 1.0019016 0.9959244 1.0418792 1.0059406
1.037891 1.0252793 0.99983203 0.9920837 1.0154086 0.98723316 1.0016307 0.9752675
1.0132279 1.0099897 0.9811129 0.99074715 1.0030966 0.9832474 0.963508 1.0055578
0.97750413 0.9955062 1.0292838 0.997573 0.9969541 0.9984718 0.9860583 0.96125436
0.99830496 1.0168374 1.0012221 0.974027 0.981523 0.97933555 1.034625 0.97429204
1.0208715 0.9781555 0.98005456 1.004678 0.9850165 1.0301987 0.9968178 1.0153908
00000000: 6f5a 7c3f 0715 7d3f c675 803f f284 833f
00000010: c248 7c3f b2e4 843f 4050 793f 2b95 803f
00000020: 4c85 7c3f d29a 803f 6fb9 7f3f af4a 7a3f
00000030: afde 7a3f 9d61 823f 30eb 803f 4a11 813f
00000040: d3d0 7f3f 8ace 833f b1fa 803f ffc6 833f
00000050: 503e 803f e7f4 7e3f 4c5c 853f a9c2 803f
00000060: 9dd9 843f 5a3c 833f fef4 7f3f 33f9 7d3f
00000070: e9f8 813f 50bb 7c3f 6f35 803f 22ab 793f
00000080: 74b1 813f 5847 813f 372a 7b3f 9ba1 7d3f
00000090: 7865 803f 1ab6 7b3f 76a8 763f 1eb6 803f
000000a0: b63d 7a3f 7fd9 7e3f 92bf 833f f260 7f3f
000000b0: 6238 7f3f d99b 7f3f 516e 7c3f c414 763f
000000c0: ea90 7f3f ba27 823f 0c28 803f d559 793f
000000d0: 1745 7b3f bcb5 7a3f 986e 843f 346b 793f
000000e0: ebab 823f 6668 7a3f dbe4 7a3f 4a99 803f
000000f0: 0b2a 7c3f 8ddd 833f 742f 7f3f 53f8 813f

bn3.bias f4 [64]
-0.006435923 -0.002998192 0.0013887809 -0.003105229 0.0020935952 -0.007828191 0.005998245 0.00022650011
0.006556955 0.0012361988 0.011244043 -0.001729488 0.004847443 -0.0043608495 -0.0013474748 -0.002328265
0.0084659895 -0.006695449 -0.0027971906 0.007278577 -0.0006554224 -0.0055170883 -0.008835198 -0.0023541513
-0.005567943 -0.0048502004 0.003408344 -0.0010093775 0.0109938 -0.008755356 0.005369941 0.0007756659
-0.00037702298 0.008417806 0.014101039 0.006294111 0.004777137 -0.0016099237 0.0065643108 0.00014966128
-0.005265977 0.010742666 -0.006351929 -0.0047580465 0.00049788813 0.013261212 -0.0022848798 -0.0031524259
0.0018080319 0.00025943285 0.0045204703 0.012058522 -0.0037876873 -0.008675949 0.010776405 0.0053923037
0.0058818017 -0.0026907893 0.0017787912 0.006740812 -0.0014603272 0.008176451 0.011583629 -0.0050849905
00000000: 6fe4 d2bb 517d 44bb c107 b63a 1981 4bbb
00000010: b334 093b d041 00bc ed8c c43b a980 6d39
00000020: badb d63b f307 a23a ef38 383c fdaf e2ba
00000030: 4dd7 9e3b 75e5 8ebb c09d b0ba ce95 18bb
00000040: efb4 0a3c 7f65 dbbb 1251 37bb 2181 ee3b
00000050: a7d0 2bba b1c8 b4bb 82c1 10bc 1b48 1abb
00000060: 4b73 b6bb 6eee 9ebb 865e 5f3b 174d 84ba
00000070: 571f 343c a072 0fbc 54f6 af3b 0f56 4b3a
00000080: 2bab c5b9 d6ea 093c 0b08 673c d43e ce3b
00000090: 8889 9c3b 1304 d3ba 6e19 d73b 65ee 1c39
000000a0: 378e acbb 0202 303c d823 d0bb 63e9 9bbb
000000b0: b584 023a 8e45 593c ecbd 15bb ee98 4ebb
000000c0: 7cfb ec3a 7d04 8839 7420 943b 1b91 453c
000000d0: d93a 78bb 9125 0ebc 858f 303c ecb1 b03b
000000e0: 21bc c03b f457 30bb 5426 e93a 08e2 dc3b
000000f0: 7368 bfba 85f6 053c 43c9 3d3c fe9f a6bb

bn3.running_mean f4 [64]
0.78112906 0.16527738 0.6420889 0.6478171 0.2786062 0.21926354 0.030344082 0.4472672
0.44249722 0.3488477 0.31908357 0.5364353 0.19979623 0.09808042 0.2122084 0.21312372
0.16824748 0.3023685 0.38110197 0.3435582 0.33095977 0.24542323 0.12186399 0.1853377
0.123559244 0.11692347 0.32055312 0.7989487 0.121273 0.09426185 0.31532314 0.6217798
0.14396535 0.10266406 0.48170966 0.5829865 0.29796246 0.45803514 0.5910138 0.1914488
0.11726291 0.25775838 0.38187876 0.53843874 0.47671497 0.3387474 0.4622352 0.06819711
0.14358036 0.3430006 0.41030455 0.34169796 0.21418148 0.665246 0.06364174 0.50497234
0.08940434 0.5702645 0.30296642 0.3492153 0.10918205 0.0960132 0.92370546 0.40199277
00000000: 13f8 473f 793e 293e f05f 243f 57d7 253f
00000010: 79a5 8e3e 9f86 603e 2794 f83c 3500 e53e
00000020: ff8e e23e 2a9c b23e ec5e a33e d353 093f
00000030: 6297 4c3e 63de c83d 294d 593e 1b3d 5a3e
00000040: 1149 2c3e 0bd0 9a3e cc1f c33e dce6 af3e
00000050: 8f73 a93e 3a50 7b3e d493 f93d 2bc9 3d3e
00000060: a10c fd3d 9275 ef3d 8a1f a43e e787 4c3f
00000070: fb5d f83d 5b0c c13d 0972 a13e f62c 1f3f
00000080: a76b 133e 8941 d23d a6a2 f63e 9a3e 153f
00000090: 898e 983e 9583 ea3e ae4c 173f 270b 443e
000000a0: 8927 f03d e8f8 833e 9d85 c33e 1fd7 093f
000000b0: fc13 f43e 4d70 ad3e 18aa ec3e edaa 8b3d
000000c0: bb06 133e c69d af3e 7013 d23e 09f3 ae3e
000000d0: 6452 5b3e 904d 2a3f 9a56 823d de45 013f
000000e0: 9f19 b73d dbfc 113f 6a1e 9b3e 59cc b23e
000000f0: d79a df3d 92a2 c43d f677 6c3f ffd1 cd3e

bn3.running_var f4 [64]
0.36115545 0.07316192 0.32811424 0.35405117 0.1270392 0.08020147 0.018067973 0.31759998
0.25950927 0.1846922 0.247265 0.3885794 0.106233165 0.07015828 0.10858368 0.11778507
0.12242374 0.11869449 0.18080814 0.13963063 0.23372999 0.16794705 0.047658157 0.0770687
0.0546504 0.07035013 0.16259225 0.5124745 0.059649415 0.04751174 0.21097812 0.3547737
0.05955697 0.05279201 0.39173445 0.39725095 0.19129848 0.24809977 0.2842819 0.08080445
0.071173765 0.18835506 0.14640124 0.2224586 0.3080964 0.17865595 0.24080361 0.042469304
0.06820766 0.15280163 0.2061634 0.28479776 0.12106395 0.35604066 0.036988594 0.23720211
0.055720687 0.38019782 0.16178189 0.18854116 0.04901065 0.05531396 0.36505255 0.25237602
00000000: 5ee9 b83e ebd5 953d 97fe a73e 3246 b53e
00000010: 9016 023e ab40 a43d 4903 943c 779c a23e
00000020: 66de 843e f41f 3d3e 0933 7d3e e1f3 c63e
00000030: c690 d93d 25af 8f3d 1f61 de3d 4c39 f13d
00000040: 4cb9 fa3d 1916 f33d c525 393e 55fb 0e3e
00000050: ea56 6f3e 50fa 2b3e 3335 433d 32d6 9d3d
00000060: 19d9 5f3d bb13 903d 957e 263e 8731 033f
00000070: f252 743d ac9b 423d a60a 583e e6a4 b53e
00000080: 02f2 733d 6f3c 583d 6b91 c83e 7a64 cb3e
00000090: c0e3 433e de0d 7e3e 668d 913e ce7c a53d
000000a0: 8dc3 913d 26e0 403e 35ea 153e 30cc 633e
000000b0: d0be 9d3e 96f1 363e 3995 763e 4bf4 2d3d
000000c0: 75b0 8b3d 0878 1c3e 801c 533e 03d1 913e
000000d0: 60f0 f73d f64a b63e 5a81 173d 1ce5 723e
000000e0: 603b 643d 4aa9 c23e 27aa 253e ef10 413e
000000f0: 64bf 483d e490 623d 2be8 ba3e 6e37 813e

fc1.weight f4 [256, 64]
-0.039039467 -0.07264101 0.0077460324 0.09209737 0.010787027 -0.034342118 -0.0033362384 0.08165082
-0.027213115 0.11241084 -0.09330808 -0.11429518 -0.12117877 0.013961898 -0.097069055 0.08472193
0.09786473 0.102566496 0.05801753 0.045105603 0.025731748 0.064318374 -0.019599168 -0.007139249
-0.04669224 -0.022206953 0.054677512 0.0463549 0.12182565 -0.101719715 0.05255559 0.08453295
-0.003002834 0.022310367 -0.03620655 0.041927114 0.086065866 -0.07602176 0.09867578 0.03898128
0.094494484 -0.026712276 -0.053297658 -0.08266403 0.02348177 -0.037144024 -0.025572255 -0.11940772
0.049713746 -0.033163436 0.08928614 0.04924468 0.03578362 0.034946803 0.005727835 -0.046474315
-0.08693718 -0.06898266 0.017773464 -0.07219221 -0.05228057 0.0019898918 -0.12074731 -0.0035166268
0.0376632 -0.08345787 0.062402412 -0.07525342 0.10127179 -0.0537236 0.10800603 0.08134327
0.061860826 0.08886537 0.031844843 -0.12401053 0.10198077 -0.06713688 0.015876647 0.10859636
-0.10766406 -0.039276224 -0.11481453 -0.04913727 -0.045155413 -0.08405682 0.122266084 0.10567198
-0.058416415 -0.1265285 -0.10738184 0.11686634 0.07988971 -0.0259059 0.05284017 0.12322597
-0.010462739 -0.11189166 0.107195966 0.010064829 0.0063996934 -0.004334418 -0.077532664 -0.06935888
0.07886931 0.10930152 -0.08612214 -0.007892515 -0.071875505 0.11579434 0.10850188 0.11089625
-0.069903806 -0.05024441 -0.07193894 0.05307224 -0.11327547 -0.07703572 0.06752983 -0.115276285
0.055511303 0.0020568008 0.049363624 -0.04986248 -0.0631227 -0.0064822338 0.048225645 0.08844283
0.0821781 0.123169325 0.096177556 0.036935437 -0.1061956 -0.032108605 0.054890294 -0.005829487
0.12736784 -0.11587161 0.08330056 -0.061949246 0.061908547 -0.09963215 0.10128684 -0.07850995
-0.018843818 0.040077437 0.099781804 0.1033854 -0.09139365 0.075416744 -0.121619835 -0.011930101
0.06846793 -0.06701267 0.06562408 0.08525075 0.12032308 0.08427259 -0.05548779 -0.014985403
0.10383097 -0.047006667 0.018907694 -0.09698573 0.11371231 0.09617067 0.019189417 -0.005255414
0.061270937 0.04515961 0.019954253 0.11669142 -0.030674344 -0.121327415 0.07256615 0.091991894
-0.06344155 0.009869799 0.04167223 -0.098371446 0.008113762 -0.033096217 0.11779147 -0.013276794
0.08191362 -0.0015266414 0.0034353998 0.12563005 0.066401616 0.09352075 -0.0044291653 0.059210237
0.075820155 -0.0874917 -0.0679381 0.04365988 0.0350386 0.098517545 -0.056090843 0.059721116
0.027418708 0.026264692 0.058545314 -0.05927824 -0.063183285 0.024564283 0.0068909475 0.084841795
-0.09835894 -0.070452526 -0.012109875 0.058891434 -0.13007046 0.02232881 -0.06051455 -0.05929372
-0.02534924 0.005956003 0.031013945 -0.06105148 0.023712235 0.1124297 -0.09627654 -0.11269225
-0.11674814 0.10684509 0.07201526 -0.08842876 -0.069271825 0.010813587 0.02138147 0.082175545
-0.078284666 -0.018856913 -0.02841027 -0.022512041 -0.029745916 -0.06450013 -0.013609332 -0.106861815
0.091254875 0.1289411 -0.081865594 0.07564387 0.0425081 -0.030461248 0.13813657 -0.02260612
-0.013689404 -0.019888515 -0.00570495 -0.09724868 0.10937167 -0.0006007948 -0.012075331 0.016862657
00000000: d9e7 1fbd cfc4 94bd 6ed2 fd3b 8c9d bc3d
00000010: 12bc 303c 52aa 0cbd cba4 5abb 8c38 a73d
00000020: 0aee debc a837 e63d 4f18 bfbd 9713 eabd
00000030: 932c f8bd 72c0 643c 24cc c6bd b182 ad3d
00000040: 4e6d c83d 620e d23d caa3 6d3d a7c0 383d
00000050: 63cb d23c 5ab9 833d 6f8e a0bc 5cf0 e9bb
00000060: 5d40 3fbd 5beb b5bc 87f5 5f3d a3de 3d3d
00000070: ba7f f93d 6d52 d0bd 8844 573d 9c1f ad3d
00000080: 32cb 44bb 3bc4 b63c 524d 14bd c4bb 2b3d
00000090: 4d43 b03d 4cb1 9bbd 8716 ca3d d6aa 1f3d
000000a0: 5386 c13d b4d3 dabc a54e 5abd c24b a9bd
000000b0: d75c c03c 5524 18bd e87c d1bc 098c f4bd
000000c0: a4a0 4b3d 62d6 07bd a7db b63d cab4 493d
000000d0: d891 123d 6124 0f3d 90b0 bb3b da5b 3ebd
000000e0: 1f0c b2bd c846 8dbd a899 913c 82d9 93bd
000000f0: 2724 56bd d868 023b 5e4a f7bd 3577 66bb
00000100: ba44 1a3d f6eb aabd ac99 7f3d 771e 9abd
00000110: 9667 cf3d 470d 5cbd 4432 dd3d 4d97 a63d
00000120: c761 7d3d 0cff b53d bd6f 023d 3cf9 fdbd
00000130: 4bdb d03d 0f7f 89bd be0f 823c c567 de3d
00000140: fa7e dcbd 1be0 20bd e123 ebbd 2944 49bd
00000150: e2f4 38bd fb25 acbd a466 fa3d 8d6a d83d
00000160: 0d46 6fbd b090 01be 03eb dbbd 9f57 ef3d
00000170: 379d a33d 9c38 d4bc ef6e 583d e65d fc3d
00000180: e86b 2bbc 7427 e5bd 8f89 db3d f4e6 243c
00000190: 85b4 d13b bc07 8ebb 72c9 9ebd 070c 8ebd
000001a0: 3c86 a13d 7ad9 df3d ce60 b0bd 9b4f 01bc
000001b0: 7733 93bd 9525 ed3d 3c36 de3d 931d e33d
000001c0: ba29 8fbd 15cd 4dbd b954 93bd 4762 593d
000001d0: f8fc e7bd e7c4 9dbd 144d 8a3d f915 ecbd
000001e0: d25f 633d 64cb 063b 8331 4a3d 9a3c 4cbd
000001f0: 7946 81bd eb68 d4bb 4188 453d 8421 b53d
00000200: fe4c a83d 3340 fc3d bdf8 c43d 9d49 173d
00000210: 147d d9bd 5084 03bd a5d4 603d 4805 bfbb
00000220: b76c 023e 184e edbd 7c99 aa3d 7ebe 7dbd
00000230: d193 7d3d f10b ccbd 7a6f cf3d d3c9 a0bd
00000240: 5a5e 9abc 3d28 243d 675a cc3d b9bb d33d
00000250: 982c bbbd 1874 9a3d d213 f9bd 7876 43bc
00000260: ea38 8c3d f03d 89bd eb65 863d f297 ae3d
00000270: f26b f63d 1c97 ac3d 2a47 63bd 5685 75bc
00000280: 55a5 d43d 108a 40bd 4fe4 9a3c 74a0 c6bd
00000290: 00e2 e83d 21f5 c43d 2033 9d3c 9c35 acbb
000002a0: 3cf7 7a3d 49f9 383d 1a77 a33c e9fb ee3d
000002b0: c348 fbbc 827a f8bd 909d 943d 3f66 bc3d
000002c0: a5ed 81bd f0b4 213c 80b0 2a3d f876 c9bd
000002d0: 96ef 043c e68f 07bd a73c f13d e986 59bc
000002e0: 54c2 a73d 9619 c8ba 7224 613b 2aa5 003e
000002f0: 92fd 873d cf87 bf3d 8822 91bb 6f86 723d
00000300: 9947 9b3d d92e b3bd 2123 8bbd b4d4 323d
00000310: a384 0f3d 91c3 c93d 83bf 65bd 219e 743d
00000320: 339d e03c 0d29 d73c 36cd 6f3d bdcd 72bd
00000330: 3d66 81bd 093b c93c 75cd e13b 89c1 ad3d
00000340: 6970 c9bd 6a49 90bd 7f68 46bc 2538 713d
00000350: 3131 05be e9ea b63c 1bde 77bd f9dd 72bd
00000360: 36a9 cfbc 932a c33b f510 fe3c 1e11 7abd
00000370: 2940 c23c 8b41 e63d a22c c5bd 32cb e6bd
00000380: a619 efbd 99d1 da3d bd7c 933d 231a b5bd
00000390: 63de 8dbd 792b 313c 3128 af3c a74b a83d
000003a0: b653 a0bd d079 9abc a8bc e8bc 2c6b b8bc
000003b0: b5ad f3bc a518 84bd adf9 5ebc 5eda dabd
000003c0: d6e3 ba3d 2309 043e 26a9 a7bd 2ceb 9a3d
000003d0: f91c 2e3d de89 f9bc ac73 0d3e 7830 b9bc
000003e0: 8649 60bc 3ded a2bc 97f0 babb 512a c7bd
000003f0: 41fe df3d a87e 1dba 9cd7 45bc 8e23 8a3c

fc1.bias f4 [256]
-0.03337132 -0.0091861095 -0.035114445 0.048096787 0.10635465 -0.08159517 -0.076826595 0.050504576
-0.025143027 -0.067577794 0.017153598 0.1215722 0.11177382 -0.035993703 0.06285057 -0.038640294
0.03131476 -0.032745365 0.08846904 -0.07741147 0.034764998 -0.072250366 0.068062626 -0.06644452
0.09537667 0.05139723 0.050926838 -0.08922619 -0.014401586 0.03209077 -0.053324606 -0.0014682196
-0.054221828 -0.09304425 -0.030571619 0.04829636 0.060588907 -0.04321238 -0.12564872 -0.01522421
-0.0972185 0.10817594 -0.07187182 0.122343674 0.10292968 0.05508601 -0.059596118 0.09334219
0.05953834 0.12008545 0.10258756 -0.011553734 0.124000385 0.0068752463 0.001759835 0.12586616
0.091084614 0.096986815 -0.07159592 8.654408e-05 0.11993171 0.017691 0.0028778114 -0.015543226
-0.0040348014 0.030989029 0.07225988 0.015752457 -0.097852044 0.030656202 -0.0018765975 -0.08388233
-0.12090053 -0.10888745 0.09892641 0.009138172 -0.037522215 0.1268094 0.08321261 -0.046606127
0.045985017 -0.056980174 -0.079139955 -0.021101952 -0.09552986 -0.036732413 -0.005850822 0.076191194
-0.031012382 -0.08642141 0.09271048 -0.09965234 -0.12377182 -0.108494446 0.017412959 0.01584014
0.086584285 -0.06572423 0.07867889 0.10426884 0.086494245 -0.10846565 -0.0036659818 0.07124965
-0.11837595 -0.031865608 0.07565995 -0.028555606 0.045046296 0.0606699 0.09617016 -0.113646194
-0.013726158 -0.02153241 0.028386733 0.03382482 -0.055590916 0.069378786 0.07373412 -0.1019073
-0.040477596 -0.06582782 0.10465419 -0.10050845 0.12050525 0.019595202 0.010862869 -0.058769036
0.12884544 0.09788583 0.07587038 -0.11730222 0.0035177546 0.11537308 -0.113320135 0.06914499
-0.07425502 0.08334177 -0.12508026 0.02286645 -0.04529116 -0.11439679 -0.028027212 0.07739566
0.030087324 -0.073740676 -0.09864188 -0.056138977 -0.058937706 0.13358216 0.05332222 0.047266748
0.04409537 0.045048326 -0.09820393 0.113819875 -0.015042877 -0.10206692 -0.12921347 0.04960655
0.094951645 0.05944253 0.07158922 0.057038996 -0.035218265 -0.087517746 0.047150407 -0.02758604
0.0154867945 0.043915458 -0.0129167875 -0.015509434 0.09012905 -0.014166599 -0.02556948 0.052826352
-0.0379549 -0.0946187 -0.05693613 -0.114153445 0.048305705 -0.027348757 -0.045055468 -0.09408657
0.11838452 0.036453143 -0.08814107 -0.07800841 -0.057916593 -0.11885811 -0.11083935 -0.11292088
-0.0770039 -0.059925083 0.061396766 0.09804258 0.0264329 0.06939342 -0.112510145 0.03956846
-0.08229234 0.094919905 -0.09882413 -0.072802715 -0.051391177 -0.063673064 0.10608532 -0.10123223
-0.08893718 0.11098313 -0.02279569 -0.11438495 -0.09832421 0.11787707 -0.0527688 -0.054198686
-0.06845098 -0.026730204 -0.07055333 -0.071621366 0.012236433 0.03149085 -0.06390587 0.0529427
-0.038169384 -0.037165053 0.047042325 0.0712897 -0.09807792 -0.06292023 0.018368712 0.061217636
0.058526512 -0.015111985 0.12846981 0.019975714 -0.003363769 0.10109839 -0.0323146 -0.042761568
0.10623256 0.09656672 -0.0667755 0.09675868 -0.07755035 0.08619298 -0.09355159 -0.012906757
-0.117228486 -0.109366044 0.12887396 -0.09500992 0.09195359 -0.05538882 0.0034361407 -0.09321315
00000000: 5eb0 08bd 5681 16bc 2ad4 0fbd 2301 453d
00000010: 77d0 d93d 5e1b a7bd 4357 9dbd e3dd 4e3d
00000020: c0f8 cdbc 3a66 8abd b485 8c3c d8fa f83d
00000030: ace9 e43d 226e 13bd cdb7 803d 4945 1ebd
00000040: e843 003d 0120 06bd 422f b53d e889 9ebd
00000050: be65 0e3d 00f8 93bd 6b64 8b3d 1114 88bd
00000060: d854 c33d e785 523d a998 503d 38bc b6bd
00000070: a1f4 6bbc 9c71 033d e76a 5abd 4671 c0ba
00000080: b517 5ebd fc8d bebd 5571 fabc 67d2 453d
00000090: 132c 783d 77ff 30bd 0faa 00be f76e 79bc
000000a0: 7e1a c7bd 598b dd3d 8831 93bd 528f fa3d
000000b0: cccc d23d dea1 613d 0f1b 74bd 312a bf3d
000000c0: 79de 733d 5cef f53d 6d19 d23d df4b 3dbc
000000d0: eaf3 fd3d bf49 e13b 44aa e63a 0fe3 003e
000000e0: 928a ba3d 06a1 c63d e2a0 92bd 007f b538
000000f0: c29e f53d b7ec 903c aa99 3c3b 04a9 7ebc
00000100: 5e36 84bb b4dc fd3c fdfc 933d 4c0b 813c
00000110: a766 c8bd b722 fb3c 2af8 f5ba 80ca abbd
00000120: b29a f7bd 6200 dfbd ee99 ca3d 45b8 153c
00000130: e5b0 19bd 53da 013e 5f6b aa3d 11e6 3ebd
00000140: c95a 3c3d 0b64 69bd 2114 a2bd 00de acbc
00000150: 29a5 c3bd ba74 16bd 41b8 bfbb 210a 9c3d
00000160: ae0d febc b5fd b0bd fede bd3d 8716 ccbd
00000170: 147c fdbd 5632 debd 9fa5 8e3c 2ec3 813c
00000180: 1a53 b13d 6d9a 86bd 6622 a13d e78a d53d
00000190: e523 b13d 3d23 debd f840 70bb 56eb 913d
000001a0: 176f f2bd 8385 02bd 9bf3 9a3d 72ed e9bc
000001b0: 7782 383d 0081 783d dcf4 c43d 56bf e8bd
000001c0: aee3 60bc bd64 b0bc 4b8b e83c e58b 0a3d
000001d0: 4db3 63bd 7716 8e3d ea01 973d c6b4 d0bd
000001e0: d6cb 25bd bcd0 86bd f054 d63d 60d7 cdbd
000001f0: 75cb f63d 1e86 a03c 2dfa 313c cdb7 70bd
00000200: 0ff0 033e 5e78 c83d ee61 9b3d 253c f0bd
00000210: 218a 663b b948 ec3d 6314 e8bd e39b 8d3d
00000220: 0413 98bd 17af aa3d 0a15 00be 6c52 bb3c
00000230: 3983 39bd dd48 eabd 5399 e5bc 9e81 9e3d
00000240: b179 f63c 5a05 97bd c104 cabd fcf1 65bd
00000250: aa68 71bd c3c9 083e 6668 5a3d c79a 413d
00000260: 599d 343d 9884 383d 241f c9bd 651a e93d
00000270: 6676 76bc 7608 d1bd 8950 04be 3d30 4b3d
00000280: 0276 c23d 037a 733d 5e9d 923d b9a1 693d
00000290: 0741 10bd 813c b3bd c920 413d 1efc e1bc
000002a0: 53bc 7d3c b2e0 333d efa0 53bc 481b 7ebc
000002b0: 9495 b83d 061b 68bc 1677 d1bc 7260 583d
000002c0: 9976 1bbd 73c7 c1bd dc35 69bd 48c9 e9bd
000002d0: 34dc 453d 800a e0bc 158c 38bd 76b0 c0bd
000002e0: 9573 f23d e44f 153d 4e83 b4bd e0c2 9fbd
000002f0: f339 6dbd e16b f3bd beff e2bd 1043 e7bd
00000300: 39b4 9dbd 0174 75bd 2d7b 7b3d 8cca c83d
00000310: cf89 d83c 231e 8e3d b86b e6bd 8a12 223d
00000320: e388 a8bd 5e65 c23d 4e64 cabd 9719 95bd
00000330: 8e7f 52bd 0667 82bd 4343 d93d d852 cfbd
00000340: b224 b6bd 204b e33d 07be babc a842 eabd
00000350: 345e c9bd 8969 f13d 1924 58bd 71ff 5dbd
00000360: 0730 8cbd 4df9 dabc 447e 90bd 39ae 92bd
00000370: 527b 483c 8dfc 003d 15e1 82bd 72da 583d
00000380: 8057 1cbd 623a 18bd 74af 403d 5600 923d
00000390: 14dd c8bd 52dc 80bd fb79 963c 58bf 7a3d
000003a0: 7fb9 6f3d 4298 77bc 978d 033e 1ca4 a33c
000003b0: ae72 5cbb ac0c cf3d 505c 04bd c126 2fbd
000003c0: 7590 d93d c6c4 c53d 98c1 88bd 6a29 c63d
000003d0: b8d2 9ebd f285 b03d fa97 bfbd dd76 53bc
000003e0: 7d15 f0bd 4efb dfbd 89f7 033e 9094 c2bd
000003f0: 2a52 bc3d 63df 62bd e030 613b 89e6 bebd

bn4.weight f4 [256]
1.0055271 1.0109688 1.0109699 1.0142332 1.0114349 1.0171959 1.020175 1.0182538
1.0186908 1.0201299 1.0166796 1.0153644 1.0110769 1.0199711 1.0268137 1.0261543
1.0258002 1.0096563 1.0188826 1.0400971 1.025926 1.0199196 1.0134488 1.0237911
1.0173786 1.024606 1.015866 1.0220424 1.003543 1.0238051 1.0136607 1.0198171
1.0379405 1.0310829 1.0297958 1.015665 1.0124053 1.0131571 1.018556 1.0204718
1.0230896 1.0213224 1.0274687 1.016794 1.0173241 1.0308275 1.0148201 1.0256344
1.020322 1.0147865 1.0101025 1.0342865 1.0262942 1.0244178 1.0118763 1.0225488
1.0166969 1.0201473 1.0165573 1.0133678 1.0162364 1.023662 1.0266392 1.0120732
1.0135638 1.0189033 1.0178285 1.0112722 1.0282617 1.0163789 1.0249954 1.0186801
1.0033096 1.012973 1.0257031 1.0178564 1.0149231 1.0137211 1.0060831 1.0381716
1.0120826 1.0207278 1.0183089 1.0302812 1.0083141 1.0303445 1.0389718 1.0250584
1.0245626 1.0107181 1.0205977 1.0121973 1.0269244 1.0249267 1.0138788 1.0155028
1.027061 1.0106686 1.0137026 1.0286344 1.0280191 1.0225432 1.0336747 1.0177253
1.0153264 1.0208082 1.0358913 1.0086125 1.0347221 1.0131632 1.0099123 1.0217352
1.0129708 1.0117495 1.005516 1.020483 1.0221618 1.0192013 1.0279379 1.0265638
1.012873 1.0123558 1.020197 1.02366 1.0172862 1.0133084 1.0184137 1.0133647
1.0320857 1.0172727 1.0273565 1.0234662 1.0280735 1.0268221 1.0179114 1.0310622
1.0256188 1.0156391 1.0345461 1.0244875 1.0184568 1.0065126 1.0173774 1.0220666
1.0157837 1.014047 1.002222 1.0268835 1.0302488 1.0187926 1.0207002 1.0055127
1.0141437 1.0201044 1.0174841 1.0353789 1.0190947 1.0184834 1.038824 1.0053582
1.0263002 1.013306 1.0288408 1.0175056 1.0146259 1.0268885 1.0227811 1.0248995
1.0355757 1.0206939 1.012272 1.0212967 1.0184803 1.0040987 1.0292587 1.0098586
1.0157409 1.0164367 1.0413299 1.0209212 1.0176762 1.0075413 1.0213623 1.0194323
1.0163742 1.0183027 1.0324069 1.0127659 1.0229633 1.023303 1.0211691 1.0229627
1.0267184 1.0000926 1.0257796 1.0238745 1.0270113 1.0230911 1.0313648 1.0284686
1.0254381 1.0126015 1.0101413 1.0075247 1.0253094 1.0331136 1.0254544 1.0211744
1.0317925 1.0198536 1.0173687 1.0094109 1.021436 1.0185866 1.0233191 1.0204576
1.0216428 1.0077696 1.0162027 1.0237013 1.0146204 1.0303876 1.0082159 1.0069176
1.0103844 1.0299239 1.0147994 1.0295454 1.0245411 1.0406082 1.0094938 1.0211493
1.0174496 1.0113034 1.0241697 1.0305643 1.0112119 1.0078236 1.0190139 1.0196669
1.0155706 1.0279278 1.0418559 1.0185956 1.0073558 1.0093681 1.0137193 1.0098206
1.0186862 1.012251 1.0232326 1.0312408 1.0080962 1.0198503 1.0135686 1.0394603
00000000: 1db5 803f 6d67 813f 7667 813f 65d2 813f
00000010: b376 813f 7a33 823f 1895 823f 2456 823f
00000020: 7664 823f 9e93 823f 8f22 823f 76f7 813f
00000030: f86a 813f 6a8e 823f a26e 833f 0659 833f
00000040: 6c4d 833f 6b3c 813f bf6a 823f e721 853f
00000050: 8b51 833f ba8c 823f b1b8 813f 960b 833f
00000060: 7639 823f 4a26 833f e607 823f 49d2 823f
00000070: 1974 803f 0c0c 833f a2bf 813f 5e89 823f
00000080: 3cdb 843f 86fa 833f 59d0 833f 5001 823f
00000090: 7f96 813f 22af 813f 0b60 823f d29e 823f
000000a0: 9af4 823f b1ba 823f 1884 833f 4e26 823f
000000b0: ad37 823f 28f2 833f a0e5 813f fd47 833f
000000c0: e999 823f 86e4 813f 0a4b 813f 8063 843f
000000d0: 9c5d 833f 1f20 833f 2a85 813f e1e2 823f
000000e0: 2023 823f 3094 823f 8d1e 823f 09b6 813f
000000f0: 0914 823f 5b07 833f ea68 833f 9d8b 813f
00000100: 75bc 813f 6c6b 823f 3448 823f 5e71 813f
00000110: 149e 833f b418 823f 0d33 833f 1c64 823f
00000120: 736c 803f 19a9 813f 3d4a 833f 1e49 823f
00000130: 00e9 813f 9dc1 813f 55c7 803f cfe2 843f
00000140: ec8b 813f 35a7 823f f257 823f 41e0 833f
00000150: 7010 813f 54e2 833f 07fd 843f 1d35 833f
00000160: de24 833f 365f 813f f2a2 823f ae8f 813f
00000170: 4272 833f cc30 833f c8c6 813f fffb 813f
00000180: bc76 833f 975d 813f 02c1 813f 4baa 833f
00000190: 2196 833f b2e2 823f 744f 843f d344 823f
000001a0: 37f6 813f d8a9 823f 1698 843f 371a 813f
000001b0: c671 843f 55af 813f ce44 813f 38c8 823f
000001c0: 07a9 813f 0281 813f c0b4 803f 309f 823f
000001d0: 33d6 823f 3075 823f 7893 833f 7166 833f
000001e0: d3a5 813f e094 813f d195 823f 4a07 833f
000001f0: 6f36 823f 17b4 813f 615b 823f efb5 813f
00000200: 621b 843f fe35 823f 6b80 833f f100 833f
00000210: ea97 833f e86e 833f ec4a 823f d9f9 833f
00000220: 7a47 833f 7600 823f 026c 843f 6822 833f
00000230: cb5c 823f 68d5 803f 6c39 823f 14d3 823f
00000240: 3305 823f 4bcc 813f cf48 803f eb70 833f
00000250: 31df 833f cc67 823f 4ea6 823f a4b4 803f
00000260: 76cf 813f c892 823f eb3c 823f 4c87 843f
00000270: b271 823f aa5d 823f 2ff8 843f 94af 803f
00000280: ce5d 833f 03b4 813f 0eb1 833f a03d 823f
00000290: 43df 813f 1571 833f 7eea 823f e82f 833f
000002a0: bf8d 843f 19a6 823f 2192 813f dab9 823f
000002b0: 905d 823f 4e86 803f c0be 833f 0c43 813f
000002c0: cc03 823f 991a 823f 4c4a 853f 8cad 823f
000002d0: 3743 823f 1df7 803f 00bc 823f c27c 823f
000002e0: 8d18 823f be57 823f e925 843f 50a2 813f
000002f0: 76f0 823f 98fb 823f abb5 823f 71f0 823f
00000300: 826b 833f 0903 803f bf4c 833f 520e 833f
00000310: 1b75 833f a6f4 823f c303 843f dca4 833f
00000320: 8e41 833f ed9c 813f 4f4c 813f 92f6 803f
00000330: 573d 833f 113d 843f 1742 833f d8b5 823f
00000340: c711 843f 908a 823f 2339 823f 6034 813f
00000350: 6abe 823f 0c61 823f 1ffc 823f 5b9e 823f
00000360: 31c5 823f 98fe 803f ee12 823f a508 833f
00000370: 15df 813f bee3 833f 380d 813f ade2 803f
00000380: 4754 813f 8cd4 833f f2e4 813f 25c8 833f
00000390: 2a24 833f a632 853f 1837 813f 05b5 823f
000003a0: ca3b 823f 6472 813f fe17 833f 88e9 833f
000003b0: 646f 813f 5d00 813f 0c6f 823f 7284 823f
000003c0: 38fe 813f 2393 833f 895b 853f 5761 823f
000003d0: 09f1 803f f932 813f 8ec1 813f cd41 813f
000003e0: 4f64 823f 7191 813f 49f9 823f b3ff 833f
000003f0: 4c09 813f 748a 823f 9ebc 813f 090d 853f
