mini_batch_exp/models/mnist_adam_batch32_lr0.1.pt (torch_old, 968530 bytes, 62 tensors)

conv1.weight f4 [16, 1, 3, 3]
0	0xbff3daa2	-1.9051096
1	0x42764e0f	61.57623
2	0xc18089d8	-16.067307
3	0x415ba56d	13.727887
4	0x4265efba	57.484108
5	0x427ba05f	62.906612
6	0xc220cc43	-40.199474
7	0x41f4e3ae	30.611172
8	0x42071e15	33.779377
9	0x40d495e0	6.6432953
10	0xc228fa5e	-42.2445
11	0xc27b34d2	-62.801582
12	0x4267a10c	57.907272
13	0xc18dc8f6	-17.723125
14	0xc249deab	-50.46745
15	0xc141ea84	-12.119755
16	0xc2478d67	-49.88809
17	0xc108d3e3	-8.55173
18	0x40a425e3	5.129625
19	0x41e9c990	29.22342
20	0x424f7119	51.860447
21	0xc20911b1	-34.267277
22	0x413fc809	11.986337
23	0x40da51eb	6.8224998
24	0xc28ac71c	-69.388885
25	0xc2686ef7	-58.108364
26	0xc2215c0a	-40.33988
27	0xc2773ff3	-61.81245
28	0x4007255c	2.1116552
29	0x403e6c2d	2.9753525
30	0xc102543c	-8.145565
31	0x42a3dd52	81.93227
32	0xc0f63e5d	-7.6951127
33	0xbd8e5a63	-0.06950834
34	0xc131a94f	-11.103835
35	0xc241378f	-48.304256
36	0xc1ed7636	-29.68272
37	0xc1d29b94	-26.325966
38	0x40a2fab5	5.093104
39	0xc2dca94e	-110.33067
40	0x4182efc0	16.367065
41	0x4262e48b	56.723186
42	0xc1dbba94	-27.466103
43	0xc252a080	-52.65674
44	0xc09585f3	-4.672601
45	0xc221c8fb	-40.44627
46	0xc28614ec	-67.04086
47	0x41662022	14.382845
48	0x41c55de5	24.670847
49	0xc0e44d41	-7.1344304
50	0xc29299c4	-73.30032
51	0x4150e861	13.056733
52	0x4206c6a4	33.693985
53	0xc09c0ce9	-4.876576
54	0xc1aa757d	-21.307367
55	0xc18958d7	-17.168379
56	0x40153d77	2.3318765
57	0xc27f4207	-63.81448
58	0xc2243e11	-41.06061
59	0xc20be6b0	-34.97528
60	0xc305d263	-133.82182
61	0xc1a7d036	-20.976665
62	0x416eb73c	14.919735
63	0xc0778a04	-3.8677988
64	0xc051d009	-3.2783225
65	0xc00d5709	-2.2084372
66	0xbf81c866	-1.0139282
67	0xbfd7719f	-1.683155
68	0xc005d44f	-2.0910833
69	0xbfdc4a86	-1.7210243
70	0xc0872e48	-4.2243996
71	0xc0884227	-4.258075
72	0x41b7a8ff	22.957518
73	0xc102c39a	-8.172754
74	0xc23c2f12	-47.045967
75	0x4261216e	56.282646
76	0xbe462a83	-0.19352154
77	0xc28986d4	-68.763336
78	0x4206ae7e	33.670403
79	0xc03ad07a	-2.9189744
80	0xc1b2a86f	-22.332243
81	0x421135e4	36.302628
82	0x418db262	17.712101
83	0xc2733090	-60.797424
84	0xbe10190d	-0.14072056
85	0xc2c34a26	-97.64482
86	0x418c22a2	17.51691
87	0xc21f7999	-39.868748
88	0xbedb2492	-0.42801338
89	0x41b69405	22.822275
90	0x413f1287	11.942023
91	0x415287fd	13.1582
92	0x41e0e962	28.113956
93	0x41130992	9.1898365
94	0x41f00c95	30.006144
95	0x4265a6c1	57.412846
96	0xc1009d88	-8.03846
97	0xc298a94f	-76.33068
98	0xc212c388	-36.69095
99	0x401989a6	2.3990264
100	0x42453b91	49.30817
101	0x421f2b2c	39.79216
102	0x41d9d2a7	27.227858
103	0x418af698	17.370407
104	0xc2683ee3	-58.061413
105	0xc1bb50f1	-23.414522
106	0xc2103caf	-36.05926
107	0xc247473e	-49.819572
108	0xc130981c	-11.037136
109	0x42173e5c	37.810898
110	0xc1de663a	-27.799915
111	0xc1b1572b	-22.167562
112	0xc1f14874	-30.160378
113	0xc20d9fad	-35.405933
114	0xc18e8b47	-17.818007
115	0x41614e76	14.0816555
116	0xc281ba1f	-64.86352
117	0xc1cc029e	-25.501278
118	0xc254edb6	-53.23214
119	0xc1d948f9	-27.160631
120	0xc2979a60	-75.80151
121	0x41c78ab6	24.94273
122	0x41d88311	27.063997
123	0xc200a97d	-32.165516
124	0x41d721a3	26.891424
125	0x41f91bd8	31.138596
126	0xc252a748	-52.66336
127	0xc1d93e49	-27.155413
128	0x40aed1df	5.463119
129	0x411be995	9.744527
130	0x42c2b9d9	97.36298
131	0x41f42f18	30.522995
132	0x3feb91a1	1.8403817
133	0xbf3a74c9	-0.7283445
134	0xc2176c55	-37.855793
135	0x400ec00c	2.2304716
136	0xc10148b6	-8.080252
137	0xc2b43c74	-90.11807
138	0x40029b56	2.040731
139	0xc18aa1d4	-17.329018
140	0xc173a53f	-15.227843
141	0x4154cad0	13.299515
142	0x426db22f	59.424007
143	0x4232c230	44.689636

conv1.bias f4 [16]
0	0x4212ebc4	36.73024
1	0xc18c34c8	-17.525772
2	0x42e6b936	115.36174
3	0xc0179af8	-2.3688335
4	0xc204981d	-33.14855
5	0x43240323	164.01225
6	0xc26442cf	-57.065243
7	0xc14023e1	-12.0087595
8	0xc2d0c4e0	-104.38452
9	0x4306ab78	134.6698
10	0x420d2034	35.28145
11	0xc254a268	-53.1586
12	0xc205b7e1	-33.42957
13	0x4264f121	57.235477
14	0xc1907773	-18.058325
15	0xc30a1623	-138.08647

bn1.weight f4 [16]
0	0x40ad524e	5.416297
1	0x4236f378	45.737762
2	0x42c205ec	97.011566
3	0x420dfbe6	35.495995
4	0x4280a64d	64.32481
5	0x429a352d	77.10386
6	0x40616b93	3.5221908
7	0x3f7eba33	0.9950287
8	0x424ceced	51.231373
9	0x4291dc22	72.92995
10	0x41e97221	29.180727
11	0x4239645e	46.348015
12	0xc1bd1907	-23.63722
13	0x427244ad	60.567066
14	0x422b8f4f	42.88995
15	0x42656767	57.35098

bn1.bias f4 [16]
0	0x403bc191	2.9336894
1	0x41237c5d	10.217862
2	0x42586674	54.10005
3	0xc14a4094	-12.640766
4	0xc0822533	-4.067041
5	0x418fba13	17.965857
6	0xc009c43d	-2.1526024
7	0x40ad474a	5.4149523
8	0x4174c9af	15.299239
9	0x42027fc4	32.62477
10	0x41821670	16.260956
11	0x41b32266	22.391796
12	0xc167a18e	-14.476942
13	0x41e51521	28.635317
14	0xc18d7917	-17.684126
15	0x414784d4	12.469929

bn1.running_mean f4 [16]
0	0x46368818	11682.023
1	0x4410215f	576.5214
2	0x44dea859	1781.2609
3	0x445c9d82	882.46106
4	0x442241bd	649.02716
5	0x443f4d71	765.21
6	0x42acf5cc	86.48007
7	0x00000004	6e-45
8	0x452d93d5	2777.2395
9	0x44a1a948	1293.29
10	0x457b9369	4025.2131
11	0x4545e715	3166.4426
12	0x4284c8f5	66.392494
13	0x44ee6a1c	1907.3159
14	0x457855da	3973.3657
15	0x45480956	3200.5835

bn1.running_var f4 [16]
0	0x4d9eb895	3.328621e+08
1	0x4a83aa0c	4.314374e+06
2	0x4bb698d2	2.3933348e+07
3	0x4ad81801	7.0809605e+06
4	0x4aa83f22	5.513105e+06
5	0x4aa399d0	5.360872e+06
6	0x47f6b69f	126317.24
7	0x00000004	6e-45
8	0x4c2806dd	4.404722e+07
9	0x4ad34a2e	6.923543e+06
10	0x4c6e4741	6.2463236e+07
11	0x4c3dbc2b	4.97379e+07
12	0x48295d09	173428.14
13	0x4ba4da14	2.1607464e+07
14	0x4c5f576e	5.854764e+07
15	0x4c3c2c40	4.9328384e+07

conv2.weight f4 [32, 16, 4, 4]
0	0x40c62c87	6.1929355
1	0xc0205c12	-2.5056195
2	0xc208a918	-34.16513
3	0xc1d3279a	-26.394337
4	0xc18d3548	-17.651016
5	0x412ab33b	10.668757
6	0xbf22e936	-0.636371
7	0xc27fd19a	-63.95469
8	0xc22341f2	-40.8144
9	0xc20b021d	-34.752064
10	0xc2913f7f	-72.624016
11	0xc2927911	-73.23646
12	0xc20c9021	-35.14075
13	0xc21f2d2e	-39.79412
14	0xc23a7d93	-46.62263
15	0xc22529bd	-41.29076
16	0xc299c5a1	-76.885994
17	0xc1a934ee	-21.150845
18	0x42887e13	68.24624
19	0xc0990915	-4.7823586
20	0x41365566	11.395849
21	0x4155681a	13.337915
22	0x41470861	12.439546
23	0xc1ea53c5	-29.290903
24	0x421f140a	39.76957
25	0xc2d0df75	-104.43644
26	0xc25e9026	-55.64077
27	0xc22ad890	-42.711487
28	0x42107b60	36.120483
29	0x4184263f	16.518675
30	0x41b067d6	22.050701
31	0xc17e62de	-15.8991375
32	0x403305e9	2.7972357
33	0xbf8eeb63	-1.1165584
34	0xc1419ef9	-12.101312
35	0x41866d4b	16.803366
36	0x4230a128	44.15738
37	0x4219b37b	38.425274
38	0x424a010c	50.501022
39	0x41e09082	28.07056
40	0xc1829c2a	-16.326252
41	0x41d0e90c	26.113792
42	0x41436974	12.213245
43	0xc2c6797f	-99.2373
44	0xc2302758	-44.03842
45	0xc28a10f0	-69.03308
46	0xc2677703	-57.866222
47	0x424d0c04	51.261734
48	0x42310181	44.25147
49	0x40229316	2.5402274
50	0x426a400d	58.56255
51	0x41e990d7	29.195723
52	0xc2539267	-52.89297
53	0xc18e28c8	-17.769913
54	0xc15d3058	-13.824303
55	0x427eae79	63.670383
56	0x420eeeeb	35.73332
57	0xc1b1994c	-22.199852
58	0xc07c63ab	-3.9435833
59	0x4223160b	40.771526
60	0x42585e0b	54.09184
61	0xc0d952ef	-6.7913737
62	0x422dad76	43.419395
63	0x41b13ab6	22.153667
64	0xc2010826	-32.257957
65	0x4276fd20	61.747192
66	0x42837548	65.729065
67	0x423c5970	47.08734
68	0x420cc367	35.190823
69	0x41912b19	18.146044
70	0xc1bcf961	-23.621767
71	0xc2f05f02	-120.18556
72	0xc27a42a9	-62.565098
73	0xc295939a	-74.788284
74	0xc2e12e6a	-112.59065
75	0x413ee2c8	11.9303665
76	0xc216ffb7	-37.74972
77	0xc1dc034e	-27.501614
78	0x41c0f53d	24.119745
79	0x4211efe5	36.484272
80	0x40b8249a	5.754468
81	0x40b06bae	5.5131445
82	0x415b93de	13.7236
83	0xc283e6dc	-65.9509
84	0x41ef447c	29.90844
85	0x410374cf	8.216018
86	0x420070de	32.11022
87	0xc2239262	-40.892952
88	0x41a6a5f9	20.831041
89	0x4215c21c	37.43956
90	0x40aec270	5.461235
91	0x409027c9	4.5048566
92	0xc1d0c630	-26.096771
93	0xc1ac301e	-21.523495
94	0x3f0069a3	0.5016119
95	0x428d66e6	70.70097
96	0xc1a807bb	-21.003775
97	0xc1aa9e90	-21.327423
98	0xc1132455	-9.19637
99	0xc2407a4d	-48.119434
100	0xc0061c06	-2.0954604
101	0x41064ac2	8.393251
102	0xc145ec33	-12.370166
103	0xc253c255	-52.939777
104	0x40454a11	3.0826457
105	0xc1f43a88	-30.52858
106	0xc2138fe6	-36.890526
107	0xc0dd1ba6	-6.909625
108	0xc1bab2f6	-23.337383
109	0xc10dfbe3	-8.873996
110	0xc104fd2d	-8.3118105
111	0xc0d36adf	-6.606796
112	0xbf462258	-0.77396154
113	0xc01bf59d	-2.436866
114	0xc00e1400	-2.2199707
115	0x3fad17ff	1.3522948
116	0xc0504c48	-3.2546558
117	0xc06ddf2b	-3.716746
118	0xbed3d5dd	-0.41374102
119	0xbf8b254e	-1.087076
120	0xc023d2b4	-2.5597353
121	0xc02c877b	-2.695769
122	0xbfa79d8b	-1.3094953
123	0xc0636797	-3.5531976
124	0xc022649d	-2.537391
125	0xc036a26f	-2.8536642
126	0xc02e7edd	-2.7264931
127	0xbff1779d	-1.8864628
128	0x3f17b860	0.5926571
129	0x42646ce6	57.106346
130	0x42819c5c	64.80539
131	0xc2747fa5	-61.124653
132	0xc2008a5d	-32.13512
133	0xc068302b	-3.62794
134	0xc2048bbc	-33.13646
135	0xc233af71	-44.92133
136	0xc22bc9d2	-42.94709
137	0xc20135a3	-32.30238
138	0xc22e8e1f	-43.63879
139	0xc21f9414	-39.894608
140	0xc2276198	-41.845306
141	0xc123d76d	-10.240094
142	0x40bbf536	5.873683
143	0xc1d5b081	-26.711184
144	0xc29f1638	-79.543396
145	0xc1c2cac3	-24.349005
146	0xc1a0a060	-20.078308
147	0x3f51bab1	0.81925493
148	0xc1b29cce	-22.326565
149	0xc267a05a	-57.906593
150	0x428a5167	69.15899
151	0x4185db80	16.732178
152	0xc243610d	-48.844776
153	0xc2984569	-76.13557
154	0xc09ec006	-4.9609404
155	0x427d0731	63.257023
156	0x4094732b	4.6390586
157	0xc099e582	-4.809266
158	0xc0b017a8	-5.5028877
159	0xc144dc59	-12.303796
160	0x414190ea	12.097879
161	0xbf5a4398	-0.8525939
162	0xc1bcb5e6	-23.588818
163	0x4187c343	16.970343
164	0x4223702c	40.859543
165	0x423d30ee	47.297783
166	0x412fa6e0	10.978241
167	0x4233162e	44.77166
168	0xc206a575	-33.66158
169	0xc21997aa	-38.39811
170	0xc20dccad	-35.44988
171	0xc2958a01	-74.76954
172	0xc20f83be	-35.878654
173	0xc191a4c7	-18.205458
174	0xc219ea21	-38.47864
175	0xc081af48	-4.0526466
176	0xc08831b1	-4.256066
177	0xc21fb92e	-39.93084
178	0x4127759b	10.466212
179	0x419fc07a	19.968983
180	0xc1b8f7e8	-23.121048
181	0x41ad444a	21.658344
182	0x4283bf0a	65.87312
183	0x42b8f9fa	92.488235
184	0xc20846a9	-34.069004
185	0xc265abde	-57.41784
186	0xc0ca95ae	-6.3307714
187	0xc2ac8d1e	-86.27562
188	0x419cd580	19.604248
189	0xc2390654	-46.25618
190	0xc26bad01	-58.91895
191	0xc1176502	-9.46216
192	0xc1984406	-19.033215
193	0x428e24e9	71.07209
194	0x419fcf3c	19.976189
195	0x41ef8623	29.940496
196	0x4246eb00	49.729492
197	0xc1a2a2c0	-20.329468
198	0x40cc6962	6.387864
199	0xc196bcbf	-18.842161
200	0x4085efc3	4.185518
201	0xc23e71bb	-47.611065
202	0xc10117a0	-8.068268
203	0x422c07ea	43.00773
204	0x424ee5b2	51.72431
205	0x42684e34	58.07637
206	0x427c8479	63.129368
207	0x41d11163	26.13349
208	0xc2d18b52	-104.77211
209	0xc1e62c40	-28.771606
210	0x40972223	4.722917
211	0xc1fe2680	-31.768799
212	0xc2e4aa05	-114.33207
213	0xc2a045f8	-80.13666
214	0xc27e49ec	-63.57219
215	0xc23eeda4	-47.73207
216	0xc0a2817f	-5.0783076
217	0xc2cdfcf6	-102.994064
218	0xc23c48dc	-47.07115
219	0x4238ff2c	46.24919
220	0x41b19393	22.197058
221	0x40d98e42	6.7986155
222	0xbfd976b5	-1.6989352
223	0x40e1ef38	7.0604515
224	0x41a2efe5	20.367136
225	0x41aafd48	21.373672
226	0x42656843	57.351818
227	0x42c44039	98.125435
228	0xc270dd2a	-60.21598
229	0x41b44f21	22.538637
230	0x42317fd5	44.374836
231	0xc184f748	-16.620743
232	0x41d81fd5	27.015543
233	0xc0a51ad4	-5.159525
234	0xc2396a6e	-46.353935
235	0x40a276b1	5.0769887
236	0x4123691e	10.213163
237	0xc1e709bc	-28.879753
238	0xc23967f7	-46.35153
239	0x3f7c403a	0.985355
240	0xc16506a8	-14.314125
241	0x41a44ef4	20.538551
242	0x422a8b85	42.63625
243	0x3ffd91ab	1.9810079
244	0xc24329a2	-48.790657
245	0xc0ab3538	-5.3502464
246	0xc091732e	-4.54531
247	0xc285c121	-66.877205
248	0x41e9b50d	29.213404
249	0x41d73983	26.903082
250	0xc1f26d9d	-30.303522
251	0xbf964c6c	-1.1742072
252	0xc24b1c72	-50.77778
253	0xc1ba3468	-23.275589
254	0xc2520d06	-52.51272
255	0xc1028df0	-8.159653

conv2.bias f4 [32]
0	0xc2a3be9e	-81.8723
1	0xc2a39290	-81.786255
2	0xc20d8b13	-35.385815
3	0xc26c3ebc	-59.061264
4	0xc26e0d2c	-59.512863
5	0xc2b8cd5a	-92.40108
6	0xc1c85277	-25.040266
7	0xc19843fe	-19.0332
8	0xc2138f72	-36.890083
9	0xc2635078	-56.828583
10	0xc2bce8da	-94.45479
11	0xc27f3b07	-63.807644
12	0xc23f7ad7	-47.86996
13	0xc2b8d9cb	-92.42538
14	0xc26a4077	-58.562954
15	0xc1b6b8bc	-22.840202
16	0xc251a1e7	-52.408108
17	0xc27e7818	-63.61728
18	0xc28c503a	-70.15669
19	0xc14268d5	-12.150594
20	0xc1fc73c1	-31.55652
21	0xc27611fa	-61.517555
22	0xc2b71048	-91.5318
23	0xc2af2955	-87.58073
24	0xc256647b	-53.598125
25	0xc2269e4e	-41.654594
26	0xc28b5965	-69.6746
27	0xc29f9c34	-79.805084
28	0xc1cc84a1	-25.56476
29	0xc20e6a15	-35.603596
30	0x40880c1c	4.251478
31	0xc151a85b	-13.103602

bn2.weight f4 [32]
0	0x42b23e4c	89.12167
1	0x4293c03e	73.87547
2	0xc23476a2	-45.115852
3	0x4281f9d7	64.98797
4	0x420b3e4b	34.810833
5	0x42621ebd	56.530018
6	0xbf0a148f	-0.5393762
7	0x425f4fe7	55.82803
8	0x42a21709	81.04499
9	0x4234706d	45.10979
10	0x42382cfe	46.043938
11	0x4210dd95	36.21639
12	0xc094d703	-4.6512465
13	0x424e5577	51.58346
14	0x4246a82e	49.664238
15	0x425aba14	54.681717
16	0x403c324d	2.94057
17	0x4246799c	49.61876
18	0x421ee960	39.727905
19	0x41ea3bb7	29.279158
20	0x429733ba	75.60103
21	0x426c83ce	59.128716
22	0x423dca9f	47.447872
23	0xc17f9c0b	-15.975596
24	0x427528d2	61.289864
25	0x4298d77e	76.42088
26	0x42a8a67c	84.325165
27	0x423a46a4	46.568985
28	0x3f5f6f28	0.87278986
29	0x42598eec	54.389572
30	0x3f51f7ae	0.82018554
31	0x422d0329	43.253086

bn2.bias f4 [32]
0	0x41badaa5	23.35676
1	0x4153a723	13.228305
2	0xc13060f5	-11.023671
3	0x411f7c7e	9.967894
4	0x4163604e	14.211012
5	0x419634ea	18.775837
6	0xc02b4a6d	-2.6764176
7	0x414ef177	12.933951
8	0x419028a2	18.01984
9	0x40e1eb29	7.059956
10	0x408049eb	4.009023
11	0x411d8ecb	9.847362
12	0x3fc8cbce	1.5687196
13	0x4071e8fb	3.779845
14	0x40db07c2	6.844697
15	0x4139ae69	11.605081
16	0x40b02f5d	5.5057817
17	0x40d0aabd	6.520842
18	0x416d8c0a	14.846689
19	0x401b2665	2.4242184
20	0x41a8dba7	21.107252
21	0x417fd332	15.989061
22	0x419407db	18.503836
23	0xc0a837bf	-5.256805
24	0x418f04be	17.877316
25	0x4160b0c8	14.0431595
26	0x41d97ac7	27.18495
27	0x410efb56	8.936361
28	0x3f2a29fd	0.6647032
29	0x412a5b47	10.6472845
30	0xbf8b3b70	-1.0877514
31	0x40ed2a56	7.411418

bn2.running_mean f4 [32]
0	0x4645cd13	12659.269
1	0x462a60ad	10904.169
2	0x468cdbc7	18029.889
3	0x46605938	14358.305
4	0x462e719a	11164.4
5	0x4678c2f1	15920.735
6	0x46e664f0	29490.469
7	0x46686a4d	14874.575
8	0x46fd75b6	32442.855
9	0x46ac163b	22027.115
10	0x460ec554	9137.332
11	0x45b99977	5939.183
12	0x45cec6eb	6616.8647
13	0x462e0c25	11139.036
14	0x46ad7a89	22205.268
15	0x4691c77f	18659.748
16	0x446e5fd0	953.4971
17	0x46ebfb74	30205.727
18	0x45e69af2	7379.368
19	0x45e7d83d	7419.03
20	0x46efee78	30711.234
21	0x46ca9da3	25934.818
22	0x46e9c089	29920.268
23	0x4609b5bf	8813.437
24	0x4640206c	12296.105
25	0x46930bcf	18821.904
26	0x46ad1be6	22157.95
27	0x462188cd	10338.2
28	0x47604242	57410.258
29	0x4610d819	9270.024
30	0x473612e4	46610.89
31	0x4625c026	10608.037

bn2.running_var f4 [32]
0	0x4e5950df	9.1148896e+08
1	0x4e3226eb	7.4722374e+08
2	0x4e8bc0e9	1.1723378e+09
3	0x4e47cf10	8.38059e+08
4	0x4dfad4bd	5.2603075e+08
5	0x4e457dec	8.28341e+08
6	0x4f049e7a	2.2249784e+09
7	0x4e92c283	1.2311105e+09
8	0x4ee8cf4c	1.9529498e+09
9	0x4e5699f6	9.0010355e+08
10	0x4db509d8	3.7966515e+08
11	0x4d306fe5	1.850077e+08
12	0x4d6077f2	2.3537232e+08
13	0x4de81390	4.8669952e+08
14	0x4e57a58b	9.044876e+08
15	0x4e7bed13	1.0566545e+09
16	0x4c1ec2d2	4.161825e+07
17	0x4e9b2ea1	1.3017622e+09
18	0x4dd585a5	4.477882e+08
19	0x4d450131	2.0657435e+08
20	0x4ecb9a7a	1.7079493e+09
21	0x4e76b9e1	1.0348442e+09
22	0x4f2b3d59	2.8729244e+09
23	0x4dc6515d	4.1590262e+08
24	0x4e3237bd	7.474993e+08
25	0x4ea58634	1.3885179e+09
26	0x4ec4db1f	1.6513473e+09
27	0x4e01c277	5.442513e+08
28	0x4f63dc0e	3.8228495e+09
29	0x4dbe27c1	3.9878454e+08
30	0x4f4fdfe2	3.487556e+09
31	0x4dc1a846	4.0612883e+08

conv3.weight f4 [64, 32, 5, 5]
0	0x403be30b	2.9357326
1	0x41adeade	21.739681
2	0x423ce1ce	47.220512
3	0xc21165fd	-36.349598
4	0x4274c980	61.196777
5	0x42478498	49.879486
6	0xc175eda2	-15.370516
7	0x422a6fb4	42.609085
8	0xc20b4da6	-34.82583
9	0xc26bd11f	-58.95422
10	0x4182de87	16.358656
11	0xc26d0110	-59.251038
12	0xbf0f0dfa	-0.558807
13	0xc17a219b	-15.633204
14	0xc108fcf5	-8.561757
15	0xc210df0f	-36.21783
16	0xc211e3cc	-36.472458
17	0xc20fe5c0	-35.974365
18	0xc22b9939	-42.89963
19	0x41cb8a6c	25.442589
20	0xc2a486cf	-82.2633
21	0xc2acf824	-86.48465
22	0xc2804d03	-64.15041
23	0xc2319ddb	-44.404156
24	0xc28e52dc	-71.161835
25	0xc0b69a83	-5.7063613
26	0xc1d68a73	-26.817602
27	0xc01eeee9	-2.483332
28	0x4260c687	56.193874
29	0x42ab4afc	85.646454
30	0x40fcbefa	7.8983126
31	0x412653cd	10.395459
32	0xc16d34c1	-14.825379
33	0x40335a80	2.8023987
34	0xc18c099e	-17.504696
35	0x420ea38a	35.659706
36	0xc0f48d80	-7.642273
37	0x412e93ec	10.911114
38	0x422b8528	42.880035
39	0x401a8791	2.4145243
40	0xc15c9e4e	-13.788649
41	0xc07828ff	-3.8775022
42	0xc1eb5a32	-29.41904
43	0xc2294bad	-42.323902
44	0xc291e6cb	-72.95077
45	0x4262ac72	56.668404
46	0x416ce3a3	14.805575
47	0xc0f2aa12	-7.5832605
48	0xc1870a3b	-16.879995
49	0x42083ea9	34.06119
50	0xc1ce7331	-25.806246
51	0x41bb5d0b	23.420431
52	0x419e10b7	19.758162
53	0xc213d8a5	-36.961567
54	0xc1a7f466	-20.994335
55	0x4104f3b6	8.3095
56	0x419b8502	19.439945
57	0xc14dc3c4	-12.860294
58	0x413f1c30	11.944382
59	0x40292912	2.6431317
60	0x40698a46	3.6490645
61	0x4178d6da	15.552454
62	0xc1162ebb	-9.386409
63	0xc20d6c86	-35.35598
64	0x41bbd113	23.477087
65	0x41bcf3ae	23.618984
66	0x3ff8335b	1.9390672
67	0x42c9b94a	100.86189
68	0xc227879f	-41.882442
69	0xc183ec6d	-16.490442
70	0x41fc5574	31.541725
71	0xc1adb404	-21.712898
72	0x4220bcca	40.184364
73	0x41d86ca0	27.05304
74	0xbf967af8	-1.1756277
75	0xc1e86677	-29.050032
76	0xc0dbb5bf	-6.865936
77	0xc18426ea	-16.519001
78	0x40cd1dad	6.4098725
79	0xc210767d	-36.11571
80	0x4212b7ba	36.67942
81	0xc26df4a7	-59.48892
82	0x41b84d70	23.037811
83	0x41d55a63	26.669134
84	0xc14f196b	-12.943706
85	0x419c542b	19.541098
86	0xc20c2f57	-35.04623
87	0x42501ff7	52.031216
88	0xc29c3466	-78.10234
89	0xc1ec2d2f	-29.522062
90	0x402b32af	2.6749685
91	0x42aa3c79	85.11811
92	0xc245e01c	-49.468857
93	0x41e39223	28.446356
94	0x426688ee	57.63372
95	0xc21d3a13	-39.306713
96	0xc102fd11	-8.186784
97	0x41c2326a	24.274616
98	0xc0229e16	-2.5408988
99	0x419643d4	18.78312
100	0xc1d9eba0	-27.240051
101	0xbfebf011	-1.8432637
102	0x422e68fa	43.602516
103	0x42088a6c	34.135178
104	0x42974bd0	75.64807
105	0x41bc7b73	23.560278
106	0xc253891c	-52.883896
107	0x4216066f	37.506283
108	0x406144ec	3.5198317
109	0xc0810f6e	-4.0331335
110	0xc14d781d	-12.841825
111	0xc10af901	-8.685792
112	0x40b76bbe	5.731902
113	0x40f34300	7.6019287
114	0xc1e373d8	-28.431564
115	0x408674a6	4.2017393
116	0x4217ee1d	37.982533
117	0x425de3c2	55.47242
118	0xc238c313	-46.190502
119	0xc13e75ae	-11.90373
120	0x41be1a1b	23.762747
121	0x4280fdc9	64.495674
122	0x40fb38a7	7.8506656
123	0xc1d5f474	-26.744362
124	0x40bd59a8	5.9171944
125	0xc173c023	-15.234408
126	0x4147a363	12.477389
127	0xc26b4c77	-58.824673
128	0xc28126c3	-64.57571
129	0xc11c1cf1	-9.757066
130	0xc1c41ad9	-24.51311
131	0x422874b2	42.11396
132	0xc18261d1	-16.297762
133	0xc296453b	-75.135216
134	0x42407947	48.118435
135	0x42022ee2	32.545784
136	0xc0c52f90	-6.162056
137	0xc1373880	-11.451294
138	0xc185c500	-16.721191
139	0x404617ca	3.095202
140	0xc234e9ad	-45.2282
141	0xc1cc0f37	-25.50743
142	0xc210a011	-36.156315
143	0x4189519b	17.164846
144	0x427ab8e1	62.680546
145	0xc293c7f4	-73.89053
146	0xc1e49a91	-28.575472
147	0x420be5e7	34.974514
148	0x4189c1bd	17.219599
149	0x42088d74	34.138138
150	0xc0963523	-4.6939864
151	0x40134e95	2.3016713
152	0x421da575	39.41158
153	0x422f322c	43.798996
154	0xc183ba0e	-16.465847
155	0xc1011a47	-8.068915
156	0x40ef3bb6	7.476039
157	0x41cd9df0	25.702118
158	0x40de3a19	6.944592
159	0x422b175f	42.772823
160	0x40df6fa8	6.98238
161	0x40fc50bc	7.8848553
162	0xc2280176	-42.001427
163	0xc1e09a37	-28.0753
164	0x3e4ea9e9	0.20182003
165	0x418b1d13	17.389196
166	0x40df5b59	6.979901
167	0xc1f08cdc	-30.068779
168	0xc11f992d	-9.974896
169	0xc0b318e8	-5.5967903
170	0x415b4840	13.705139
171	0xc0912555	-4.535807
172	0x4162e9aa	14.182047
173	0x41f8f1ca	31.118061
174	0x4182748a	16.306904
175	0xc1125c25	-9.147496
176	0x4216f8d5	37.743
177	0x41c82781	25.019289
178	0x4269e2fb	58.47166
179	0x425a9471	54.644962
180	0x402eb73e	2.7299342
181	0xc1eb62ce	-29.423244
182	0xc2465ca0	-49.590454
183	0xc0b6b6b0	-5.7098007
184	0x424e5145	51.579365
185	0x40366619	2.8499815
186	0xc095cb3c	-4.681059
187	0xc205be13	-33.43562
188	0x42080284	34.002457
189	0x428fc773	71.88955
190	0xc02b4ee8	-2.676691
191	0x42803ccb	64.11874
192	0xc229f00a	-42.484413
193	0x3f97a2b5	1.1846529
194	0xc1951274	-18.63401
195	0xc128d807	-10.552741
196	0x428efbee	71.49205
197	0x41697830	14.591843
198	0x425cb2cd	55.17461
199	0xc1ce51d0	-25.789948
200	0x429c3093	78.09487
201	0x422c8d75	43.13814
202	0x41420a66	12.127539
203	0x409a6640	4.8249817
204	0xc2621ed9	-56.530125
205	0xc2c24365	-97.13163
206	0xc25c34d7	-55.0516
207	0x41cb8953	25.442053
208	0xc2c66e54	-99.215485
209	0xc1d96b4c	-27.177391
210	0x4070cd45	3.7625287
211	0xc1f5b9a9	-30.715654
212	0xc214ab74	-37.167435
213	0x4043272a	3.0492654
214	0xc2acf34f	-86.47521
215	0x42027fd2	32.624825
216	0xc2d6eda1	-107.46412
217	0xc2abe7eb	-85.952965
218	0xc22d0e72	-43.264107
219	0xc2813f11	-64.62318
220	0x41073d5f	8.452483
221	0xc2037d08	-32.8721
222	0x42159cdc	37.403183
223	0x40eff53c	7.498686
224	0x40a8ee20	5.279068
225	0x41df085b	27.87908
226	0xc1db6148	-27.4225
227	0x4032d506	2.794252
228	0x418b54b6	17.416363
229	0x41d68ae1	26.817812
230	0xc1b8ca4c	-23.098778
231	0xc24583f2	-49.378853
232	0xc2701db0	-60.02899
233	0x410d7c2a	8.8428135
234	0x41808555	16.065104
235	0x40c61fa4	6.1913624
236	0xc12f94ae	-10.973799
237	0xc0ab25ff	-5.348388
238	0x41daa750	27.331696
239	0xc03aa37e	-2.9162288
240	0xc0da3451	-6.8188863
241	0x42b6061a	91.01192
242	0x40b8ad50	5.7711563
243	0x41573500	13.450439
244	0x41c29698	24.323532
245	0x42395243	46.330334
246	0x4213da8d	36.96343
247	0x4212f746	36.741478
248	0x40f139de	7.538314
249	0xc2965730	-75.17029
250	0x41b30b00	22.380371
251	0x41171e85	9.444951
252	0x4196adee	18.834927
253	0x426b5106	58.829124
254	0xc04d30e5	-3.2061093
255	0x4218461a	38.06846

conv3.bias f4 [64]
0	0xc23b0cf3	-46.762646
1	0xc24dfdfe	-51.49804
2	0xc24c908e	-51.141167
3	0xc08f54ca	-4.4791
4	0xc202f0c4	-32.735123
5	0xc23ba690	-46.91266
6	0xc226ad91	-41.6695
7	0x420cc305	35.19045
8	0xc188ba7d	-17.091059
9	0x416bb388	14.731331
10	0xc2257b18	-41.37021
11	0x41993193	19.149206
12	0xc139995d	-11.599942
13	0xc1d9b88e	-27.215115
14	0xc1ccb5ef	-25.588835
15	0xc20c52ce	-35.080864
16	0xc29338ea	-73.61116
17	0xc14f5f1e	-12.960722
18	0x4115ac15	9.354512
19	0xc1ad91b5	-21.696146
20	0x41d97b63	27.185247
21	0xc1e49bcd	-28.576075
22	0xc2014a20	-32.322388
23	0x4035b8af	2.8393972
24	0xc1ef4437	-29.908308
25	0xc29558b4	-74.67325
26	0xc12286e8	-10.157936
27	0xc29cda85	-78.426796
28	0xc18a42d7	-17.282637
29	0xc24266df	-48.60046
30	0xc1a4a75d	-20.58172
31	0xc1e1965a	-28.198414
32	0x41096ef5	8.589589
33	0xc1a137e9	-20.1523
34	0xbf50afcd	-0.8151825
35	0xc20ee7d0	-35.72638
36	0xc1efda5f	-29.981627
37	0xc16800cf	-14.500197
38	0xc1451846	-12.318426
39	0xc215f1f9	-37.4863
40	0xc20f65ab	-35.849285
41	0xc2c23103	-97.095726
42	0x41218203	10.094241
43	0xc241add4	-48.419754
44	0xc1c94f7b	-25.163809
45	0xc2055daf	-33.341488
46	0xc22d959d	-43.396107
47	0x412ea9b1	10.916429
48	0xc1db787d	-27.433832
49	0xc170191e	-15.006132
50	0xc2a85240	-84.160645
51	0xc1cb27df	-25.394468
52	0xc265d667	-57.459377
53	0xc0d4eb44	-6.653719
54	0xc1992f89	-19.14821
55	0xc184cb7a	-16.599354
56	0xc2016caf	-32.356136
57	0xc109307b	-8.574336
58	0xc118f5b0	-9.559982
59	0xc230af76	-44.17135
60	0xc1d92089	-27.140886
61	0xc084049d	-4.125563
62	0xc291c1fa	-72.87886
63	0xc1dba79e	-27.456844

bn3.weight f4 [64]
0	0x4235eb3a	45.479713
1	0xc14c9f4d	-12.788892
2	0x4241eaa1	48.47913
3	0x425fc4ec	55.942307
4	0x42137b94	36.87068
5	0x4189637b	17.173574
6	0x425ee514	55.72371
7	0x42266e17	41.60751
8	0x4091f2f8	4.5609093
9	0x42706046	60.094017
10	0x4227bd04	41.934586
11	0x4250dcad	52.215504
12	0x4269893a	58.38401
13	0x427c6456	63.097984
14	0x41cb4430	25.408295
15	0x3f9533c0	1.1656418
16	0xc1b6f6e0	-22.870544
17	0x4235d533	45.458202
18	0xc20b69e9	-34.853428
19	0x4260256e	56.036552
20	0x424c7fdb	51.12486
21	0xc0a3b3e2	-5.1157084
22	0x41e451af	28.539885
23	0x4288cd74	68.401276
24	0x422786aa	41.881508
25	0x41a81d88	21.01442
26	0x42159a30	37.400574
27	0x41cd6104	25.67237
28	0x4288adaa	68.33919
29	0x3f001687	0.50034374
30	0x422cc0e1	43.18836
31	0x421e6a36	39.60372
32	0x42243b79	41.05808
33	0x42733b40	60.80786
34	0x42351923	45.274548
35	0x42267c3c	41.621323
36	0x424f7b1a	51.870216
37	0xc1577bbc	-13.467709
38	0xc1da3943	-27.27796
39	0x41514e27	13.08158
40	0x422c4366	43.06582
41	0xc131e498	-11.118309
42	0x41f0d493	30.103796
43	0x41494305	12.578862
44	0x423a4a70	46.572693
45	0x42595149	54.32938
46	0x421fd2dd	39.95592
47	0xc12e387e	-10.888792
48	0x41d0db23	26.107
49	0x4241f49c	48.488876
50	0x402a83c8	2.6642933
51	0xc1b49672	-22.57346
52	0x42291ef4	42.280228
53	0xc1bc8977	-23.567122
54	0x4285f8af	66.98571
55	0xc1a273e2	-20.306583
56	0xbe749882	-0.23886302
57	0x4275f963	61.49354
58	0x427fd45c	63.957382
59	0xc20f5dee	-35.84173
60	0x41ee4b94	29.786903
61	0x425607d2	53.507637
62	0x4177ae1a	15.480005
63	0x4286ee94	67.46597

bn3.bias f4 [64]
0	0x41e7980f	28.949247
1	0xc2765434	-61.58223
2	0x41d34752	26.409824
3	0xc26957c3	-58.335705
4	0xc1213b40	-10.076965
5	0x42cb670f	101.70129
6	0x4282d2f2	65.412
7	0xc25d2a77	-55.29147
8	0xc2821eb2	-65.05995
9	0x4143e3e8	12.243141
10	0x42be9986	95.29985
11	0x42483e02	50.060555
12	0x414f02bf	12.93817
13	0xc2aae461	-85.44605
14	0x4093d746	4.6200285
15	0xc2821555	-65.041664
16	0xc2023734	-32.55391
17	0xc1bcc971	-23.59836
18	0xc2c2eff6	-97.46867
19	0xc22004f2	-40.00483
20	0x41268697	10.407859
21	0xc30bf5aa	-139.95963
22	0x42cb8bac	101.7728
23	0xc1bfdab1	-23.981783
24	0xbea3ca50	-0.3199029
25	0x42b58d9b	90.77657
26	0xc2580ee3	-54.014538
27	0xc3314353	-177.26299
28	0xc12aab38	-10.666801
29	0xc2af40e8	-87.62677
30	0xc1ebda12	-29.48148
31	0xc2963d8d	-75.12022
32	0xc211e54c	-36.473923
33	0x421f9bbd	39.90209
34	0x423b653b	46.848858
35	0xc2c88bf9	-100.273384
36	0xc2903e45	-72.12162
37	0x42a54146	82.62749
38	0xc28576c2	-66.73195
39	0xc328343b	-168.20403
40	0x42bac76c	93.389496
41	0xc2bf78eb	-95.73617
42	0xc21bb698	-38.928314
43	0x3f5e3560	0.86800194
44	0x4306e51d	134.89497
45	0xc16f7de9	-14.96824
46	0x4245466f	49.318783
47	0x42b239f8	89.11322
48	0xc23e9889	-47.64896
49	0xc2a91255	-84.535805
50	0x43392336	185.13754
51	0xc2830c82	-65.52443
52	0xc2033314	-32.79988
53	0x42e01577	112.04192
54	0x42c818c6	100.048386
55	0xc0db0bc3	-6.8451858
56	0x42cd0233	102.504295
57	0xc248a872	-50.164497
58	0xc186863f	-16.81555
59	0xc1897331	-17.181246
60	0xc1daf956	-27.371746
61	0x42b78ce7	91.7752
62	0x422f4c50	43.824524
63	0x42ac51cc	86.15976

bn3.running_mean f4 [64]
0	0x4681116d	16520.713
1	0x451141a4	2324.1025
2	0x470d80a4	36224.64
3	0x47073317	34611.09
4	0x466bd004	15092.004
5	0x463a4df0	11923.484
6	0x473b5ae7	47962.902
7	0x470d2441	36132.254
8	0x47942f96	75871.17
9	0x47ccae4b	104796.586
10	0x471a3292	39474.57
11	0x47395178	47441.47
12	0x476eb14d	61105.3
13	0x4696f9d6	19324.918
14	0x47474a96	51018.586
15	0x43d74f6e	430.62054
16	0x4599952d	4914.647
17	0x4772f000	62192.0
18	0x45caee8a	6493.8174
19	0x472af7c2	43767.758
20	0x468976a8	17595.328
21	0x4618dca7	9783.163
22	0x46918f7c	18631.742
23	0x475ee86e	57064.43
24	0x46a17fe7	20671.951
25	0x468d5bac	18093.836
26	0x4634ed80	11579.375
27	0x4687473f	17315.623
28	0x476a53ed	59987.926
29	0x3faa09b1	1.3284208
30	0x46837972	16828.723
31	0x46c00b5c	24581.68
32	0x4705e282	34274.508
33	0x46f7163c	31627.117
34	0x47812cd2	66137.64
35	0x4630ad48	11307.32
36	0x46d05ba5	26669.822
37	0x45c984fd	6448.6235
38	0x460a5dca	8855.447
39	0x44f2bff3	1941.9984
40	0x46d08806	26692.012
41	0x439054d0	288.6626
42	0x46b6a4a5	23378.322
43	0x4611b730	9325.797
44	0x470a4d0c	35405.047
45	0x479e7f89	81151.07
46	0x453b4878	2996.5293
47	0x45b6381f	5831.015
48	0x453f8531	3064.3245
49	0x4732d0d8	45776.844
50	0x431df530	157.95776
51	0x46b1327a	22681.238
52	0x4711c04c	37312.297
53	0x4753fde9	54269.91
54	0x46cb4cfe	26022.496
55	0x45eaf6c1	7518.844
56	0x440feda0	575.7129
57	0x47a4dd85	84411.04
58	0x4729f758	43511.344
59	0x465c7c3c	14111.059
60	0x46bdd985	24300.76
61	0x46eccc12	30310.035
62	0x43032cdb	131.17522
63	0x46b3c632	23011.098

bn3.running_var f4 [64]
0	0x4e81e021	1.0894747e+09
1	0x4d28e138	1.7708326e+08
2	0x4f5cd1a2	3.704726e+09
3	0x4f54d4e2	3.5707213e+09
4	0x4eaf613b	1.4711924e+09
5	0x4e6b39f7	9.8661114e+08
6	0x4faf2a87	5.8775997e+09
7	0x4f2d5a53	2.9083779e+09
8	0x50200bb6	1.0740488e+10
9	0x5000e671	8.650343e+09
10	0x4f8e7e54	4.7812874e+09
11	0x4f88b64a	4.587296e+09
12	0x4fd97f90	7.2980316e+09
13	0x4ef624ac	2.0647992e+09
14	0x4f85ccb8	4.4895724e+09
15	0x4bd95ca5	2.8490058e+07
16	0x4d8dd541	2.974454e+08
17	0x4fdb1909	7.351702e+09
18	0x4df8f235	5.2207786e+08
19	0x4f431475	3.2728978e+09
20	0x4edbfae8	1.8453268e+09
21	0x4e51e572	8.803688e+08
22	0x4ea2851a	1.363316e+09
23	0x4ff90b74	8.356555e+09
24	0x4ed9981f	1.8253126e+09
25	0x4ef0f0d3	2.0211572e+09
26	0x4e83c786	1.1054456e+09
27	0x4ed35b65	1.7729911e+09
28	0x4fda4a96	7.3246423e+09
29	0x4713004d	37632.3
30	0x4ec5a247	1.6578733e+09
31	0x4f056ca3	2.2384893e+09
32	0x4f39cfe5	3.1174095e+09
33	0x4f759956	4.120467e+09
34	0x500fa2d4	9.639252e+09
35	0x4e73a3a5	1.021897e+09
36	0x4f29996f	2.845405e+09
37	0x4ddc4650	4.6194944e+08
38	0x4e2ae269	7.167412e+08
39	0x4d274f5d	1.7543726e+08
40	0x4f409f8e	3.231682e+09
41	0x4b5b1381	1.4357377e+07
42	0x4f1047f9	2.420636e+09
43	0x4e6968a6	9.789874e+08
44	0x4f71080b	4.0438362e+09
45	0x4fc68216	6.660828e+09
46	0x4d2bdef4	1.8021971e+08
47	0x4e10d3f9	6.0745274e+08
48	0x4d41c148	2.0316685e+08
49	0x4fa97e4f	5.6872545e+09
50	0x4a9047f2	4.727801e+06
51	0x4f355f7d	3.042934e+09
52	0x4f9d36f1	5.275247e+09
53	0x4f5d556c	3.713363e+09
54	0x4f22f43c	2.7339151e+09
55	0x4dcf55c2	4.34813e+08
56	0x4c0c2dc4	3.6747024e+07
57	0x4febc776	7.9114353e+09
58	0x4fa22ffd	5.442108e+09
59	0x4e8dba58	1.1888998e+09
60	0x4f1c4ca7	2.6222692e+09
61	0x4f3a41f9	3.1248858e+09
62	0x4aadafba	5.691357e+06
63	0x4f2bed6f	2.8844644e+09

fc1.weight f4 [256, 64]
0	0xc1302a4c	-11.010326
1	0x40de0b4f	6.9388804
2	0x4017ba0a	2.37073
3	0x40410013	3.0156295
4	0xc0c26cff	-6.075805
5	0xc005b431	-2.089123
6	0xc08e2068	-4.441456
7	0xbf537e2f	-0.82614416
8	0x40c03888	6.006901
9	0x405b8026	3.4296966
10	0xc0c16a04	-6.0441914
11	0x3feee9dd	1.866512
12	0x40963592	4.6940393
13	0x41047ffb	8.281245
14	0x4092dc66	4.589404
15	0x3f9d1f17	1.2275113
16	0x3fede97b	1.8586878
17	0xc0b31a1e	-5.596938
18	0x4071839f	3.7736585
19	0x40566674	3.3500032
20	0x41100506	9.001226
21	0x4020140d	2.5012238
22	0xbd1e7a51	-0.03869087
23	0x3ead3df7	0.33836338
24	0x40923467	4.568897
25	0xc0a33fca	-5.1015368
26	0x3e53eb53	0.20695238
27	0x4092ed62	4.5914774
28	0xbfd5d3c5	-1.6705252
29	0x40856891	4.1690145
30	0xc0ad3b25	-5.41347
31	0x40be46ea	5.9461565
32	0x40a5d153	5.1818023
33	0xbf2bb9b3	-0.6708023
34	0xc0602d82	-3.5027776
35	0x40cb1097	6.345775
36	0xc0a25b95	-5.0736794
37	0xbf4e0500	-0.8047638
38	0x411491d2	9.285601
39	0x40d9832e	6.797263
40	0xbff08726	-1.8791244
41	0x40be6fc3	5.951143
42	0x40df8ff4	6.9863224
43	0x4179db07	15.615973
44	0xc06d3917	-3.7066095
45	0xc05df2dc	-3.467948
46	0xc100770f	-8.029067
47	0xbec126dd	-0.37724963
48	0x4138ddd2	11.554155
49	0xbfddcd65	-1.7328306
50	0xc0c1a3f0	-6.051262
51	0x403bb9c7	2.933214
52	0x40934d27	4.603168
53	0xc131f5fb	-11.122554
54	0x3f9e3eba	1.2362893
55	0x401eb17b	2.4795825
56	0xc09345a3	-4.6022506
57	0x4025e57f	2.5921323
58	0xc005fdbb	-2.0936115
59	0x40ce1eaf	6.4412456
60	0xbfd22099	-1.6416198
61	0x402c9e1f	2.697151
62	0xc0228c32	-2.5398068
63	0x3f98f0dd	1.1948506
64	0xc26feedf	-59.983273
65	0xc2881e94	-68.05972
66	0x412777c1	10.466737
67	0x418b956a	17.447956
68	0x426ccf8a	59.202675
69	0x40aa9834	5.3310795
70	0x422bce0d	42.95122
71	0xc2882761	-68.07691
72	0x3fbb17a0	1.4616585
73	0xc1ded298	-27.852829
74	0xc14e8bb8	-12.909111
75	0xc100be61	-8.046479
76	0xc268b8c3	-58.18043
77	0xc2f84773	-124.13955
78	0xc0a1eeca	-5.060399
79	0xc2451a17	-49.27548
80	0xc27d57f3	-63.335888
81	0xc297651e	-75.697495
82	0xc1926ff1	-18.304659
83	0xc0fa19a7	-7.8156314
84	0x41edfd31	29.748629
85	0xc2043379	-33.050266
86	0x414fabe6	12.979467
87	0xc105a7e5	-8.35349
88	0xc1cc7019	-25.554735
89	0xc1490207	-12.562995
90	0x427cf5a1	63.239872
91	0xc2a80013	-84.000145
92	0xc20223df	-32.53503
93	0xc05f83bb	-3.4924152
94	0x42802eec	64.091644
95	0xc1bfb835	-23.964945
96	0x41aa0e06	21.256847
97	0xc1f99ce9	-31.201616
98	0xc10351a5	-8.207433
99	0xc142dc9b	-12.178859
100	0xc0ce2d4a	-6.4430285
101	0x42ae0e71	87.028206
102	0xc296f46c	-75.47739
103	0xc2287816	-42.11727
104	0x3ea1d291	0.31605962
105	0x408166aa	4.043782
106	0xc22db2cc	-43.424606
107	0x41f4bc09	30.591814
108	0xc07480de	-3.8203654
109	0xc0ee9bfc	-7.456541
110	0x42b446fe	90.13866
111	0x42b68132	91.252335
112	0x42b8ae05	92.33988
113	0xc07f297a	-3.9869065
114	0x419384be	18.439816
115	0xc195e7aa	-18.738117
116	0x41341a3f	11.256408
117	0xc20d3219	-35.298923
118	0x41caf1e5	25.368113
119	0xc18d0e3e	-17.631954
120	0x41a18ef1	20.194796
121	0xc1f7b137	-30.96153
122	0xc12ba6f2	-10.728258
123	0x415fa97e	13.97888
124	0x41eaca0e	29.34866
125	0x41fd299b	31.645315
126	0xc24eeb86	-51.730003
127	0x42ee4027	119.1253
128	0x40d96607	6.7937045
129	0x41109381	9.036012
130	0x4013de02	2.3104253
131	0x413ed7ea	11.927713
132	0x4053cba3	3.309304
133	0xc14078e9	-12.029519
134	0xc00206c0	-2.031662
135	0xc012e9a1	-2.2955096
136	0x4083c4d5	4.1177773
137	0xc03203ca	-2.7814813
138	0xc0c3df80	-6.1210327
139	0xbdbb8b87	-0.09157472
140	0x406c5af2	3.6930509
141	0xbf052813	-0.52014273
142	0x4025ddad	2.591655
143	0xc03d3a1a	-2.9566712
144	0xbd73f784	-0.05956222
145	0xc03ab116	-2.9170585
146	0x413d8e35	11.8472185
147	0x4084b9ce	4.147681
148	0x4089b288	4.3030434
149	0x408cac50	4.3960342
150	0xc11586f7	-9.34545
151	0xbf98f4ee	-1.1949747
152	0xbf9f5d9d	-1.2450444
153	0xc0d64b05	-6.6966577
154	0x40eb60a9	7.3555493
155	0xbfdf69e1	-1.7454187
156	0x40141828	2.3139744
157	0x40461599	3.0950682
158	0xc14c9fd3	-12.78902
159	0x3fb5509e	1.4165227
160	0x3ff57483	1.9176182
161	0xc0935595	-4.604197
162	0x3f552d3f	0.83272165
163	0x40d8893f	6.7667537
164	0x409a842e	4.828635
165	0xc17909ba	-15.564875
166	0x403b594a	2.9273248
167	0x40f76e98	7.73225
168	0xbf92e1ae	-1.1475122
169	0x3e95076e	0.2910723
170	0x409df106	4.935672
171	0x40c19229	6.049092
172	0xc110f3bb	-9.0595045
173	0x3f79e6f7	0.9761805
174	0xc15be1a0	-13.742584
175	0xc1133c12	-9.202166
176	0x409a240b	4.8169
177	0x408ae41c	4.3403454
178	0xc0f3ad8e	-7.614936
179	0xbf97aa6e	-1.1848886
180	0x40b1a036	5.550807
181	0xc0f3a21c	-7.6135387
182	0xc00e94f3	-2.2278411
183	0x40842aaa	4.130208
184	0xc0ee1199	-7.439648
185	0xc01c0a43	-2.4381263
186	0xbf94be54	-1.1620584
187	0x41474143	12.453433
188	0x3f8b8b2d	1.0901848
189	0x40e401c9	7.125218
190	0x410665a9	8.399819
191	0x40a1bccb	5.054296
192	0x3d989ef4	0.07452193
193	0x400e272a	2.2211404
194	0xbfbe4172	-1.4863722
195	0x415b6e26	13.714392
196	0xc132af4c	-11.167797
197	0xc0f52b25	-7.6615167
198	0xbf05e8ba	-0.5230824
199	0x40c4d380	6.150818
200	0x3ea38b88	0.3194239
201	0x40232b47	2.5495164
202	0xc0378f7c	-2.8681326
203	0xbec28c24	-0.37997544
204	0x3fb87a2e	1.4412286
205	0x4137353e	11.450499
206	0x3fe00f4f	1.7504672
207	0x402ee9fe	2.7330317
208	0xc0996c76	-4.79449
209	0x410b3611	8.7007
210	0x411d82df	9.844451
211	0x40dcb829	6.8974805
212	0x4078bde0	3.886589
213	0x402d50e8	2.7080631
214	0xc10bad89	-8.729867
215	0x3fb087f2	1.3791487
216	0x404424a6	3.0647368
217	0xc0c1804d	-6.0469117
218	0x402d0f3d	2.704055
219	0x40bc429b	5.8831306
220	0x40444986	3.0669875
221	0x40a0a109	5.0196576
222	0x3e4b63f0	0.19862342
223	0xbfdc8c40	-1.7230301
224	0x3ff1a5b0	1.8878689
225	0x409b450a	4.8521776
226	0x3f51f4d2	0.8201419
227	0x40aa0057	5.3125415
228	0x40355085	2.8330395
229	0xc10451a0	-8.269928
230	0x40dc8ba6	6.892047
231	0x40b9ccf3	5.806268
232	0xbf8f5245	-1.1196982
233	0x40a8a277	5.269832
234	0x402788ed	2.6177323
235	0x3f044a2a	0.51675665
236	0xc10f74ca	-8.966013
237	0xc085e1e3	-4.183824
238	0xc108d296	-8.551413
239	0xc0ed21e4	-7.410387
240	0x404c2451	3.1897166
241	0x4037d335	2.872266
242	0xc0316590	-2.771824
243	0xc015da10	-2.3414345
244	0xc02af0c0	-2.6709442
245	0xc1680ca1	-14.503083
246	0xc0e12363	-7.0355697
247	0x3fa26029	1.2685596
248	0xc129a172	-10.601915
249	0xc01f4980	-2.488861
250	0x3ff42a87	1.9075478
251	0x404103ef	3.015865
252	0x3eae2cc7	0.34018537
253	0x400d2d85	2.2059033
254	0x403b5c91	2.9275248
255	0xc0e1a47e	-7.0513296

fc1.bias f4 [256]
0	0xbfb552e2	-1.4165919
1	0x41ce5159	25.78972
2	0xc0c26587	-6.0748935
3	0xc0bf910c	-5.986456
4	0x42aa89b9	85.26899
5	0xc112b236	-9.168509
6	0xc0609a70	-3.509426
7	0xc1001b7b	-8.006709
8	0xc04746d8	-3.113699
9	0xc0a5ea12	-5.184823
10	0xc01d6ea8	-2.459879
11	0xc0a11aba	-5.0345125
12	0xc064cd00	-3.5750122
13	0x4106f5e1	8.435029
14	0xc14d6295	-12.836568
15	0x429bfee2	77.99782
16	0x428be44c	69.94589
17	0x411c7258	9.777916
18	0xc0ec0c9a	-7.3765383
19	0xc10af296	-8.684225
20	0xc042671a	-3.0375428
21	0x41ca26b0	25.26889
22	0xc0a6bd45	-5.210604
23	0xc132a1bf	-11.164489
24	0xc037624f	-2.8653753
25	0xc178a918	-15.541283
26	0xc0dbb65f	-6.866012
27	0xc0923b36	-4.569728
28	0xc0987ab2	-4.7649775
29	0xc086ff84	-4.218691
30	0xc0405427	-3.0051363
31	0xc083db13	-4.1204925
32	0xc11d5571	-9.83336
33	0xc1067acc	-8.40498
34	0x424d9355	51.39388
35	0x41d6acce	26.834377
36	0xc0c977fb	-6.295896
37	0xc0cb8550	-6.3600235
38	0xc0f8a865	-7.770556
39	0xc01e792c	-2.4761457
40	0xc0439aee	-3.0563312
41	0x429431a1	74.09693
42	0xbfa0b7f7	-1.2556142
43	0xc0c8584d	-6.260779
44	0xc0b7647c	-5.731016
45	0xc0cee967	-6.4659915
46	0xc123bec3	-10.234073
47	0x42aa439b	85.13204
48	0xc04a68c0	-3.1626434
49	0xc088a9c7	-4.270725
50	0xbfb0d83a	-1.3815987
51	0xc12377a7	-10.216712
52	0x428a2376	69.06926
53	0xc0ef45eb	-7.477285
54	0xc0ed32a0	-7.41243
55	0x4283e0fd	65.93943
56	0xc0bec46c	-5.9614773
57	0xc09f5899	-4.979565
58	0xc075d20d	-3.8409455
59	0xc11cfc14	-9.8115425
60	0xc0652b79	-3.5807784
61	0xc127e22e	-10.49272
62	0xc0f8853a	-7.766263
63	0x41e950f0	29.16452
64	0xc05d6bb9	-3.4596999
65	0xbf5f6334	-0.87260747
66	0x3f5efcd5	0.8710454
67	0x41bbb6d1	23.464266
68	0xc0dc3a85	-6.8821435
69	0x4231cdfe	44.451164
70	0x41f0bdd6	30.092693
71	0xc08d3151	-4.41227
72	0xc096eeb6	-4.7166395
73	0xc0717724	-3.7728968
74	0xc10c9ebd	-8.788754
75	0x42980d3d	76.025856
76	0xc1117453	-9.090899
77	0x41f10460	30.127136
78	0x411181de	9.094206
79	0xc0a1508f	-5.041084
80	0x41cdc537	25.721296
81	0xc057de67	-3.3729494
82	0xc07849cb	-3.879504
83	0xc0add529	-5.4322705
84	0xc0b0cce9	-5.5250134
85	0xc08fdc09	-4.4956098
86	0xc0eaaa4a	-7.3332872
87	0xc110524a	-9.02009
88	0xc080b079	-4.021542
89	0xc08d35a9	-4.4128003
90	0xc10896f1	-8.536851
91	0xc016fc78	-2.3591595
92	0xc10de0ce	-8.867384
93	0xc07c81ee	-3.9454303
94	0xc0c5c1f1	-6.1799245
95	0x42a5715e	82.72142
96	0xbfef4099	-1.8691589
97	0x42956ba6	74.71025
98	0x41b8f4f2	23.119602
99	0x420f3e7b	35.811016
100	0x41d8639a	27.048634
101	0xc10ea4cb	-8.915233
102	0xc013b5a8	-2.3079624
103	0x42a0abac	80.3353
104	0xc07a0f6a	-3.9071908
105	0x4183c245	16.469858
106	0xc0acfd26	-5.405902
107	0x41704cfd	15.018796
108	0xc115cb61	-9.362153
109	0xc1001752	-8.005693
110	0xc1039bb3	-8.2255125
111	0xc0bfaed7	-5.9900928
112	0xc0abdb8e	-5.370551
113	0x422f0ea6	43.764305
114	0xc1192687	-9.571906
115	0xc0ac31ac	-5.3810635
116	0xc0d1a7d0	-6.551735
117	0xc091db57	-4.558025
118	0x42d809e2	108.0193
119	0xc05cff30	-3.4530754
120	0x4243307e	48.797356
121	0x422c019e	43.00158
122	0xc0c387df	-6.110336
123	0xc045ebae	-3.0925097
124	0x421f90e9	39.891514
125	0xc083c29d	-4.1175065
126	0xc0e8c9b5	-7.2746224
127	0xc0f056e5	-7.5106072
128	0xc0dfbe00	-6.9919434
129	0x41d20c47	26.255995
130	0xc122e947	-10.181952
131	0xc0cc6a58	-6.3879814
132	0xc0b46192	-5.6369104
133	0xc071ed44	-3.7801065
134	0xc092acd2	-4.583596
135	0xc0976461	-4.7310033
136	0xc14f3557	-12.950522
137	0xc041b25d	-3.0265114
138	0x41e43111	28.523958
139	0x424c9591	51.14606
140	0xc04cea57	-3.201803
141	0xbfbca9ca	-1.4739316
142	0x42267d97	41.622646
143	0xc094acff	-4.6461177
144	0x42886c77	68.211845
145	0xc08abf90	-4.335884
146	0x41687346	14.528143
147	0xc0ce052e	-6.4381323
148	0x41079a7e	8.475218
149	0x3ed3e7ee	0.41387886
150	0x4185343c	16.650505
151	0xc03c0c0b	-2.938235
152	0x424a4504	50.567398
153	0x3da40f71	0.08010758
154	0xc062805e	-3.539085
155	0xc0ad3632	-5.4128656
156	0x41771a91	15.443986
157	0xc08bc488	-4.3677406
158	0x41a1faa6	20.247387
159	0xc10d7be6	-8.842749
160	0xc0d07a6d	-6.5149446
161	0xc0e3d1ee	-7.119376
162	0xc09d5ba5	-4.917437
163	0xc0be7e02	-5.952882
164	0xc0174b61	-2.3639758
165	0xc10411b8	-8.254326
166	0x42346974	45.10298
167	0x41e9306e	29.148647
168	0xc0baaa41	-5.833283
169	0xc0cb15ed	-6.3464265
170	0xc099c1e6	-4.8049192
171	0xc0c0a5a4	-6.02022
172	0xc1002830	-8.009811
173	0xbfbad9e3	-1.4597744
174	0xc09b8f50	-4.861244
175	0xc1230403	-10.188479
176	0xc0d2b1c0	-6.584198
177	0xc0f832c4	-7.756197
178	0xc0960892	-4.688546
179	0xc0a4ffbc	-5.1562176
180	0xc0d8a60f	-6.770271
181	0xc05b21a5	-3.4239285
182	0x428576a3	66.73171
183	0xc0e066bb	-7.0125403
184	0x4219d6be	38.45971
185	0xc0b1ecd3	-5.560159
186	0x424095ee	48.146416
187	0x419384ee	18.439907
188	0x41b02ed3	22.022863
189	0xc1174226	-9.4536495
190	0xc04e74fd	-3.2258904
191	0xc0de5c2f	-6.948753
192	0x423e78b4	47.617874
193	0xc0d0718a	-6.5138597
194	0xc0899e1c	-4.3005505
195	0x41d2f5cc	26.370018
196	0x421e6c3d	39.6057
197	0xc1370f3f	-11.441222
198	0xc0c51485	-6.158755
199	0xc04ffe0f	-3.2498815
200	0xc0b925df	-5.785873
201	0x42060ed5	33.514484
202	0xc0ed04fe	-7.4068594
203	0xc10156e6	-8.083715
204	0xc1209007	-10.035163
205	0xc1088edd	-8.534879
206	0x42bc77fd	94.23435
207	0xc0b1fa23	-5.5617843
208	0xc139dd96	-11.616598
209	0x41c11c76	24.138897
210	0xc10daf8a	-8.855356
211	0x41568990	13.408585
212	0xc039344f	-2.8938177
213	0xc0c48ba9	-6.1420484
214	0x41bade89	23.35866
215	0xc020d7b9	-2.5131667
216	0xc0eacdab	-7.337606
217	0xc03e2e79	-2.9715865
218	0xbfcb8c78	-1.5902243
219	0xc098a9f0	-4.7707443
220	0xc0b00eed	-5.501822
221	0xc0aa4ad9	-5.3216367
222	0xc0e0820b	-7.0158744
223	0xc08de06c	-4.4336452
224	0x42b16929	88.70539
225	0xc0d175db	-6.5456367
226	0xc0a48541	-5.1412663
227	0xc07bcf2e	-3.9345202
228	0xc099ace5	-4.8023553
229	0xbfd18ae2	-1.6370509
230	0xc008a70d	-2.135196
231	0xc099cb58	-4.806072
232	0x41e1e2eb	28.2358
233	0xc0a6158f	-5.1901317
234	0xc0b1f633	-5.5613036
235	0x41d13715	26.151896
236	0xc11e23bc	-9.883724
237	0x4232f777	44.741665
238	0xc0923df7	-4.570064
239	0x415493e4	13.286106
240	0xc0a2b0b8	-5.084072
241	0xbfb079fe	-1.3787229
242	0xc06d3416	-3.706304
243	0x42b98335	92.75626
244	0xc002ac21	-2.041756
245	0x42cd6593	102.69839
246	0x41e012d3	28.009192
247	0xc0b9c0b0	-5.8047714
248	0xc054b73e	-3.3236842
249	0xc030209b	-2.75199
250	0xc07308fe	-3.7974238
251	0xc08ef465	-4.4673333
252	0x426bda93	58.96345
253	0xc0d07de7	-6.515369
254	0xc0b59b97	-5.675243
255	0xc110814c	-9.031567

bn4.weight f4 [256]
0	0x401e8fe7	2.477533
1	0x3f94feec	1.1640296
2	0x3faaabac	1.333364
3	0xc11bff67	-9.749854
4	0x41d2d291	26.352816
5	0x3f95519b	1.1665529
6	0xc0c1a138	-6.05093
7	0xc0479996	-3.1187491
8	0x405994e4	3.3997126
9	0xbe8a5392	-0.27016884
10	0x4087134c	4.2211056
11	0x3f87f6e7	1.0622224
12	0x3e6b8d88	0.23003209
13	0xbe817f67	-0.25292513
14	0xc0d0c577	-6.5241046
15	0xc0305a6a	-2.7555184
16	0x41ee15ec	29.760704
17	0x3f7feb4f	0.9996843
18	0x40923dee	4.57006
19	0xbf62f996	-0.8866209
20	0x3e3c8231	0.18409039
21	0x3d374dfa	0.0447521
22	0x3fb1418c	1.3848128
23	0x3ee47240	0.44618416
24	0x40543d08	3.316225
25	0xbf2e69b1	-0.6813002
26	0x40b10d1d	5.5328507
27	0xbedb1151	-0.4278665
28	0xbf5bac20	-0.85809517
29	0x3fa50ddb	1.2894853
30	0x4027c674	2.6214876
31	0x3ec38c76	0.381931
32	0xc02c0870	-2.688015
33	0x3fa67511	1.3004476
34	0x3f52ee5c	0.8239496
35	0x40bc28f9	5.8800015
36	0x40976045	4.7305017
37	0x40096a26	2.1471038
38	0xbeb15772	-0.34637028
39	0x3e3f3d4d	0.18675728
40	0xc08cceca	-4.400243
41	0x3f528420	0.82232857
42	0xc0894bd7	-4.290508
43	0xc0b0426b	-5.5081077
44	0xbf4114a8	-0.75422144
45	0x3d051a2c	0.032495663
46	0x3f9127d9	1.1340286
47	0x400cf512	2.202458
48	0x3fb3a86f	1.4035777
49	0x3dee0627	0.11622267
50	0xbf8367f2	-1.0266097
51	0x402194d0	2.5247078
52	0xbd0b11d2	-0.03395254
53	0x3faa8161	1.3320733
54	0xc00512aa	-2.0792642
55	0xbd5404f5	-0.05176254
56	0x400b926e	2.1808124
57	0x4011cc4d	2.2780945
58	0x400cc870	2.1997337
59	0xbf3508cf	-0.70716566
60	0xbfae6a2a	-1.3626149
61	0x409affa0	4.843704
62	0xbfe02660	-1.7511711
63	0x41d21d69	26.26436
64	0x40219af2	2.525082
65	0x3f29c4d7	0.6631598
66	0xbebf9804	-0.37420666
67	0x3ef0da9b	0.47041783
68	0xbe3cf8a8	-0.1845423
69	0x3dae94ee	0.085245
70	0x3ed9f199	0.42567137
71	0x4098cccd	4.775
72	0x3f441e3f	0.7660865
73	0x3faac97b	1.3342737
74	0x401efd5f	2.4842145
75	0x3fae6f93	1.36278
76	0xc08717b6	-4.2216444
77	0x3f32d2de	0.6985301
78	0x3fb63749	1.4235622
79	0x4093436d	4.6019807
80	0xc04dcf38	-3.2157726
81	0xbf43e819	-0.7652603
82	0xc08cc1e4	-4.3986683
83	0x3f49929d	0.7873934
84	0xbf87cbbf	-1.0609053
85	0xbfc6ccde	-1.553127
86	0xc02b3a2f	-2.6754262
87	0x3e6f8009	0.23388685
88	0x3f59f3c7	0.851376
89	0x4010e205	2.2637951
90	0xbf946602	-1.159363
91	0x3f0a9968	0.5414033
92	0xbf08f40b	-0.5349738
93	0x400cdda7	2.2010286
94	0xbecfe3e2	-0.40603548
95	0x41faab40	31.333618
96	0xbd631efe	-0.05544948
97	0xbfc7ac81	-1.5599519
98	0x3efa71c9	0.48914936
99	0xbff1a879	-1.8879539
100	0xbfdf80d2	-1.7461188
101	0x40583bd0	3.3786507
102	0x41014b92	8.08095
103	0xbeff5cc4	-0.49875462
104	0x4061a5af	3.5257375
105	0x408adf4e	4.339759
106	0x40aff44f	5.498573
107	0x3f3a50f8	0.727798
108	0xc02c958a	-2.6966271
109	0xc015dc60	-2.3415756
110	0xbf04b449	-0.51837593
111	0x3fb94ac9	1.4475948
112	0xbfc0c07f	-1.5058745
113	0x3c72c994	0.014818568
114	0xc0f00ed9	-7.5018125
115	0x3ffcbd65	1.9745299
116	0x3e0e8b9b	0.13920443
117	0xbf700717	-0.9376082
118	0x41e79e2b	28.95223
119	0x3f9fc1b1	1.2480985
120	0x3fdd0874	1.7268205
121	0x41cabb23	25.341375
122	0x401ed717	2.481878
123	0xc0757f9e	-3.8359141
124	0x3f8b6f33	1.089331
125	0xc049943b	-3.1496723
126	0xc081ce47	-4.0564303
127	0x40f3f3c7	7.623508
128	0x3d3b22b1	0.04568738
129	0xbf156b95	-0.5836728
130	0xc07cb519	-3.9485533
131	0x3f9c9d61	1.2235528
132	0x3fdafe78	1.7108908
133	0x4097f79b	4.7489753
134	0xbf86ac09	-1.0521251
135	0xbe3ad947	-0.18246947
136	0x3deea83c	0.11653182
137	0x3da6fc66	0.0815361
138	0x3dcacbef	0.099021785
139	0x41f60787	30.753675
140	0xbf3478b4	-0.7049668
141	0x4119f93c	9.623348
142	0x3dda2d00	0.10653114
143	0xbf0762d7	-0.5288519
144	0x3fb90257	1.4453839
145	0x4021312b	2.518626
146	0xbfb0be90	-1.3808155
147	0xbfc5713b	-1.542518
148	0x3f99adff	1.2006224
149	0x3f1aa505	0.6040805
150	0x4028e319	2.638861
151	0x401f504d	2.4892762
152	0xbf4f657e	-0.8101424
153	0xbd9b63ba	-0.07587381
154	0xbf8a9b69	-1.0828677
155	0xc0de9df8	-6.9567833
156	0xc05a84af	-3.4143484
157	0xbfd38a4e	-1.6526582
158	0x4051a84e	3.2758975
159	0xc10f0674	-8.939075
160	0xbff5536e	-1.9166086
161	0xc0346740	-2.8188019
162	0xc06247c3	-3.53563
163	0x3f7afcf7	0.98042244
164	0xbe4078da	-0.18796101
165	0x41951fd3	18.64054
166	0xbe5b116a	-0.21393362
167	0xbe987f8b	-0.29784808
168	0xc05b6331	-3.4279292
169	0xbf51519b	-0.81765145
170	0xbfe98911	-1.8244954
171	0x40203ce0	2.5037155
172	0xbd9387cd	-0.07203636
173	0xc112886a	-9.158304
174	0x3f3819e8	0.7191453
175	0x3fc90fbe	1.5707929
176	0x411eedbf	9.9330435
177	0x3f93f859	1.1560165
178	0x40f63ba8	7.6947823
179	0xc05894a0	-3.3840714
180	0xbe140101	-0.14453508
181	0xc0781b25	-3.8766568
182	0x41db8edb	27.444754
183	0xbb4dbd14	-0.0031393217
184	0x3d312398	0.043246835
185	0xbf5673ba	-0.83770335
186	0xbfa59bc2	-1.2938159
187	0xbdcbe40b	-0.09955605
188	0x3e8a21e8	0.26978993
189	0xc0bdc39f	-5.9301295
190	0xc0fa10f1	-7.814568
191	0xc061054f	-3.515949
192	0xc06b1d2a	-3.673655
193	0xc0d9d138	-6.8067894
194	0x3f877801	1.0583497
195	0xbfcef3be	-1.6168134
196	0x3f1b5133	0.60670775
197	0xbf0f3bcc	-0.5595062
198	0x40a80a9b	5.2512946
199	0x40d5a78a	6.6767015
200	0x40be6f14	5.9510593
201	0xbf581a5c	-0.8441522
202	0xc0b44b1e	-5.6341696
203	0xc08fb05c	-4.4902782
204	0xc0324264	-2.7853022
205	0xc02539c2	-2.5816503
206	0xbe806b08	-0.25081658
207	0xc0a7b72e	-5.241111
208	0xc193beff	-18.46826
209	0xc034463c	-2.8167868
210	0xbed7891d	-0.42096797
211	0x3fe8aad0	1.8177128
212	0xbf60f9b5	-0.8788102
213	0x408b7e78	4.359188
214	0x3efdb9b6	0.4955575
215	0xbfa7519a	-1.3071778
216	0xc0470e31	-3.1102412
217	0xbc29f26c	-0.010372739
218	0x3e320670	0.17385268
219	0x403728f8	2.8618755
220	0x404de7d8	3.2172756
221	0xc044cd4d	-3.0750306
222	0x3f2bebd0	0.67156696
223	0x404d2466	3.2053466
224	0x42003412	32.05085
225	0x40a6d7c8	5.2138405
226	0xbe84648d	-0.25857964
227	0x3fcfe9ab	1.6243185
228	0xbdf5f031	-0.120087035
229	0x4085f972	4.1867
230	0x408b1132	4.345849
231	0xbf507ed6	-0.81443536
232	0xc015ccf5	-2.3406346
233	0xbfd3f005	-1.6557623
234	0x3f7cb38e	0.9871148
235	0x3fc5531e	1.541599
236	0x408267f7	4.075191
237	0x3f944d16	1.1586025
238	0x40b58363	5.6722884
239	0xbf03267a	-0.51230586
240	0x3f831491	1.0240651
241	0x409cb598	4.897167
242	0xbf52f1b4	-0.8240006
243	0x3e6466ef	0.22304891
244	0x409a51ac	4.8224697
245	0xbe5ad153	-0.21368913
246	0x3e474d5a	0.19463101
247	0xbf044fb7	-0.51684135
248	0x3efb019d	0.49024668
249	0xc104cb8f	-8.299697
250	0xc05a1216	-3.4073539
251	0x4056e975	3.357999
252	0xbff4453b	-1.9083627
253	0xc00ffad4	-2.2496843
254	0xc06d3eaf	-3.706951
255	0xc01f1b13	-2.4860275
