mini_batch_exp/models/mnist_adam_batch2_lr0.1.pt (torch_old, 968530 bytes, 62 tensors)

conv1.weight f4 [16, 1, 3, 3]
-55.915295 -53.65292 33.35386 -44.66237 -39.6815 39.87934 -33.37079 -46.316193
-1.5687749 9.691391 44.569153 56.255413 35.15007 -6.0474043 15.021808 50.40557
9.784102 78.3298 -0.9013601 -4.5717473 -8.4382925 -24.790138 -8.001318 -27.420795
-16.087257 -1.7025872 -16.114172 -0.4151191 -0.9253721 -0.39535207 -0.5029939 -0.27803445
-0.6858636 -0.90067947 -0.91626173 -0.7611978 -12.112138 47.98054 56.561207 26.724154
3.834146 65.706924 41.096977 33.33717 83.910484 -24.110195 -28.505476 -63.580082
-4.3844285 -28.528137 -45.760757 37.916832 -12.619272 -28.028187 38.227654 38.646618
43.193604 20.229155 58.86662 41.491463 39.63615 29.433086 33.06885 59.309185
34.242905 33.11392 82.07958 39.858044 41.476437 60.25519 37.656933 60.21478
23.473675 35.955765 87.2921 28.93212 -50.555363 34.773075 5.2495265 18.787561
-16.370956 -4.3283544 -2.8507993 -2.2073977 -2.3700645 -2.1384559 -4.814831 -2.3625665
-2.6498966 -0.75897616 -6.185393 -3.2502267 -4.188065 -0.26837605 -1.9612845 -2.3081381
-6.0120068 -1.8128746 -2.0783517 -16.374878 60.716465 62.70367 -21.52723 53.719196
67.74443 -35.094055 -4.831937 -21.552387 -2.730642 -77.45035 -85.98285 -7.532145
-53.53962 -25.356068 -13.506813 -49.42973 -56.988197 -49.41656 -36.32198 -24.190832
-48.970367 -22.13688 -8.707749 -4.0201945 42.033466 16.478437 -2.6355197 -6.9247737
-5.9286757 -3.0503347 -4.165312 -3.9035451 -1.0475045 -3.6067348 -0.7026928 -0.27200857
-0.60784566 -0.5156655 -0.8291012 -0.88088715 -0.75329083 -0.6394905 -0.80486804 -0.47895417
00000000: 43a9 5fc2 979c 56c2 5a6a 0542 44a6 32c2
00000010: dbb9 1ec2 7284 1f42 b07b 05c2 c843 39c2
00000020: 9ecd c8bf f00f 1b41 d046 3242 8b05 6142
00000030: ac99 0c42 5684 c1c0 5359 7041 4e9f 4942
00000040: af8b 1c41 dca8 9c42 89bf 66bf c14b 92c0
00000050: 3f03 07c1 3452 c6c1 6605 00c1 ca5d dbc1
00000060: b4b2 80c1 61ee d9bf d3e9 80c1 7e8a d4be
00000070: 30e5 6cbf 966b cabe 35c4 00bf 885a 8ebe
00000080: c294 2fbf ee92 66bf 2190 6abf dcdd 42bf
00000090: 51cb 41c1 13ec 3f42 ad3e 6242 11cb d541
000000a0: a662 7540 f269 8342 4e63 2442 4359 0542
000000b0: 2bd2 a742 aee1 c0c1 370b e4c1 0152 7ec2
000000c0: 3d4d 8cc0 a039 e4c1 040b 37c2 d6aa 1742
000000d0: 8ae8 49c1 ba39 e0c1 1ee9 1842 2396 1a42
000000e0: 40c6 2c42 4fd5 a141 6b77 6b42 42f7 2542
000000f0: 6b8b 1e42 f676 eb41 8146 0442 9b3c 6d42
00000100: bcf8 0842 a774 0442 bf28 a442 a36e 1f42
00000110: dfe7 2542 5105 7142 b3a0 1642 efdb 7042
00000120: 16ca bb41 b4d2 0f42 8e95 ae42 fb74 e741
00000130: b138 4ac2 a117 0b42 1ffc a740 ed4c 9641
00000140: b8f7 82c1 e181 8ac0 7f73 36c0 0146 0dc0
00000150: 23af 17c0 76dc 08c0 1813 9ac0 4a34 17c0
00000160: e897 29c0 434c 42bf bdee c5c0 b703 50c0
00000170: a104 86c0 9668 89be 5f0b fbbf 89b8 13c0
00000180: 5c62 c0c0 460c e8bf b703 05c0 c0ff 82c1
00000190: a9dd 7242 8fd0 7a42 c437 acc1 75e0 5642
000001a0: 267d 8742 5060 0cc2 3a9f 9ac0 4a6b acc1
000001b0: d7c2 2ec0 94e6 9ac2 38f7 abc2 5507 f1c0
000001c0: 9228 56c2 3ad9 cac1 e81b 58c1 0bb8 45c2
000001d0: eaf3 63c2 8faa 45c2 b549 11c2 d386 c1c1
000001e0: a8e1 43c2 5518 b1c1 f152 0bc1 6fa5 80c0
000001f0: 4522 2842 d7d3 8341 5bac 28c0 bf97 ddc0
00000200: b6b7 bdc0 af38 43c0 3c4a 85c0 afd3 79c0
00000210: a114 86bf bed4 66c0 ade3 33bf b544 8bbe
00000220: c69b 1bbf a702 04bf fa3f 54bf d281 61bf
00000230: abd7 40bf a6b5 23bf d50b 4ebf 7b39 f5be

conv1.bias f4 [16]
-8.556357 17.202078 -10.658307 -0.4918424 7.5460815 17.831585 -23.199642 20.254446
35.661366 -5.4008927 -6.789501 -6.096611 -24.185928 -16.211191 -10.276162 -0.12914163
00000000: d7e6 08c1 db9d 8941 6d88 2ac1 c4d2 fbbe
00000010: 8079 f140 16a7 8e41 de98 b9c1 1b09 a241
00000020: 3da5 0e42 1dd4 acc0 9843 d9c0 7017 c3c0
00000030: c87c c1c1 85b0 81c1 296b 24c1 b43d 04be

bn1.weight f4 [16]
-38.415783 50.50212 12.284595 0.39869604 -18.229435 -73.74562 -25.199644 -103.63732
61.697075 -2.086335 -1.2233149 -28.485683 -59.38907 48.208317 -2.208452 1.5899813
00000000: c3a9 19c2 2c02 4a42 b38d 4441 e321 cc3e
00000010: e2d5 91c1 c27d 93c2 df98 c9c1 4f46 cfc2
00000020: cec9 7642 8386 05c0 9595 9cbf aee2 e3c1
00000030: 688e 6dc2 51d5 4042 4757 0dc0 8284 cb3f

bn1.bias f4 [16]
-18.540483 55.00806 -24.78647 -78.913635 -41.744717 -4.022038 72.29779 18.695793
22.95147 60.45655 -6.863432 -17.249668 33.99751 40.494392 19.363943 48.648674
00000000: e952 94c1 4108 5c42 b14a c6c1 c8d3 9dc2
00000010: 97fa 26c2 89b4 80c0 7898 9042 fc90 9541
00000020: 9c9c b741 82d3 7142 3ca1 dbc0 52ff 89c1
00000030: 73fd 0742 42fa 2142 5be9 9a41 3e98 4242

bn1.running_mean f4 [16]
530.306 14142.1455 6e-45 6e-45 17149.684 245.8336 16744.629 21689.67
8780.105 6e-45 6e-45 9043.154 6e-45 1078.6882 6e-45 6e-45
00000000: 9693 0444 95f8 5c46 0400 0000 0400 0000
00000010: 5efb 8546 67d5 7543 42d1 8246 5773 a946
00000020: 6c30 0946 0400 0000 0400 0000 9e4c 0d46
00000030: 0400 0000 06d6 8644 0400 0000 0400 0000

bn1.running_var f4 [16]
4.7448105e+06 4.2822963e+08 6e-45 6e-45 6.8184365e+08 1.3162052e+06 6.411129e+08 1.0429725e+09
1.9259611e+08 6e-45 6e-45 2.5141112e+08 6e-45 8.378109e+06 6e-45 6e-45
00000000: d5cc 904a 2032 cc4d 0400 0000 0400 0000
00000010: 6f90 224e 6aab a049 6dda 184e fda9 784e
00000020: 89ac 374d 0400 0000 0400 0000 abc3 6f4d
00000030: 0400 0000 faad ff4a 0400 0000 0400 0000

conv2.weight f4 [32, 16, 4, 4]
-45.954777 -34.454178 -71.2442 -10.246351 -38.77524 -42.15447 -54.271114 14.980702
-23.89852 -33.144173 -48.55739 16.719044 -43.308582 -36.16683 -45.229122 28.81144
-7.342782 -77.827225 -15.48808 -9.852014 -33.721004 -35.14248 7.483469 -0.40464833
-20.656279 -38.962395 -2.477595 33.115116 15.184382 -15.10545 10.366513 45.99101
15.442171 -2.566573 22.7414 -0.7686979 4.76843 7.588546 9.417888 17.695774
-3.087723 3.2227917 -11.156924 2.8827968 10.011719 12.948287 3.09928 4.9229965
-34.705914 -34.67649 -35.9162 -35.91535 -34.792606 -35.872902 -35.866783 -35.930725
-35.87436 -35.971848 -35.94005 -35.87257 -35.963364 -34.65935 -35.972824 -35.967358
11.39063 71.10615 51.911655 33.323105 24.78853 45.616276 29.561588 8.835574
4.509352 39.621536 21.288118 -24.528275 -6.81128 31.150015 5.068625 -8.719732
7.197232 -65.56165 -11.078143 -26.586302 43.082756 -12.705024 -7.008761 -5.258279
9.022175 31.665258 -12.598091 -20.207113 13.277442 51.954494 29.008745 32.609264
72.290504 44.37308 2.1348972 26.978151 57.408134 1.4462407 -2.377725 37.5712
40.40347 -1.7348727 -16.456041 14.317902 43.477715 -15.730481 -31.924524 -13.572085
1.045348 29.305702 82.79976 -7.532176 22.728195 79.703735 105.12839 36.50656
24.305063 -14.624079 42.34213 17.35568 -10.669346 1.6980413 18.18473 12.539161
-37.957302 -86.71794 -42.384705 -24.827051 -41.659286 -40.875294 -31.301376 -1.0623529
-40.47317 -57.205074 16.854872 12.111296 -35.11064 -59.503956 -2.9967084 -18.86728
24.497969 27.598986 27.063738 29.111725 25.969479 27.017168 27.389845 28.174168
24.941164 25.75006 28.299637 26.743534 19.149305 27.40146 29.31043 22.20358
4.541033 14.17034 9.961802 11.334628 9.752391 6.455597 11.9266 9.023939
2.6808195 10.829659 9.134919 1.8571 11.9527025 9.53059 3.781772 5.6870685
11.725869 15.53829 -42.484016 -5.6596465 -38.5665 -13.984211 -41.875034 -7.0376806
-27.518639 -12.927908 -21.943924 6.500744 -43.564804 -17.86106 -29.85039 -23.223423
-17.059809 -13.161346 54.52575 50.849426 -25.436422 12.132164 19.069998 15.035931
-24.38354 33.19104 9.782539 27.968882 43.72115 31.379452 18.321873 51.802197
-1.5158488 3.105786 -29.630697 -25.5103 2.556264 -25.471571 -18.11783 -35.86339
-9.932245 1.9231503 19.202108 24.816774 -26.577185 -15.139513 21.694405 10.101158
12.538054 18.891327 9.019197 14.621707 17.993023 21.84548 20.844597 14.056562
13.180868 17.79754 9.236503 13.517765 15.2073765 12.198789 8.41853 12.200427
11.202459 9.779456 10.097952 8.759461 9.30511 8.89842 9.914865 11.204702
10.762243 9.73862 9.6763 11.705147 11.718912 11.20713 11.166436 10.505981
00000000: b1d1 37c2 14d1 09c2 087d 8ec2 0ef1 23c1
00000010: d919 1bc2 2d9e 28c2 9f15 59c2 f5b0 6f41
00000020: 2b30 bfc1 a293 04c2 c43a 42c2 9ac0 8541
00000030: fd3b 2dc2 d5aa 10c2 9fea 34c2 d47d e641
00000040: 12f8 eac0 8aa7 9bc2 2dcf 77c1 d9a1 1dc1
00000050: 4fe2 06c2 e691 0cc2 9478 ef40 112e cfbe
00000060: 0f40 a5c1 7ed9 1bc2 eb90 1ec0 e175 0442
00000070: 3bf3 7241 ecaf 71c1 3ddd 2541 cbf6 3742
00000080: 2213 7741 bb42 24c0 63ee b541 63c9 44bf
00000090: fb96 9840 5ed5 f240 abaf 1641 f290 8d41
000000a0: 419d 45c0 3842 4e40 c382 32c1 be7f 3840
000000b0: 0030 2041 2f2c 4f41 9b5a 4640 3089 9d40
000000c0: dbd2 0ac2 bab4 0ac2 30aa 0fc2 52a9 0fc2
000000d0: a12b 0bc2 da7d 0fc2 9677 0fc2 10b9 0fc2
000000e0: 587f 0fc2 2ce3 0fc2 9cc2 0fc2 837d 0fc2
000000f0: 7cda 0fc2 2da3 0ac2 2ce4 0fc2 93de 0fc2
00000100: 0540 3641 5936 8e42 89a5 4f42 dc4a 0542
00000110: e94e c641 1177 3642 227e ec41 835e 0d41
00000120: 9d4c 9040 747c 1e42 114e aa41 e839 c4c1
00000130: 01f6 d9c0 3b33 f941 2d32 a240 0684 0bc1
00000140: b94f e640 911f 83c2 1340 31c1 bfb0 d4c1
00000150: be54 2c42 c747 4bc1 c547 e0c0 d243 a8c0
00000160: d45a 1041 7352 fd41 c891 49c1 2ba8 a1c1
00000170: 6770 5441 67d1 4f42 e911 e841 e36f 0242
00000180: bd94 9042 097e 3142 28a2 0840 41d3 d741
00000190: eea1 6542 6a1e b93f a52c 18c0 e948 1642
000001a0: 279d 2142 4f10 debf f9a5 83c1 2016 6541
000001b0: 2ee9 2d42 0db0 7bc1 6d65 ffc1 4327 59c1
000001c0: f7cd 853f 1472 ea41 7a99 a542 9607 f1c0
000001d0: 58d3 b541 5068 9f42 bc41 d242 b806 1242
000001e0: c570 c241 3afc 69c1 575e 2942 6fd8 8a41
000001f0: a4b5 2ac1 6b59 d93f 547a 9141 67a0 4841
00000200: 47d4 17c2 966f adc2 f089 29c2 cd9d c6c1
00000210: 1ca3 26c2 4d80 23c2 3869 fac1 2efb 87bf
00000220: 87e4 21c2 ffd1 64c2 c7d6 8641 dec7 4141
00000230: 4c71 0cc2 0d04 6ec2 12ca 3fc0 30f0 96c1
00000240: d7fb c341 b9ca dc41 8982 d841 d0e4 e841
00000250: 7ec1 cf41 2923 d841 671e db41 b264 e141
00000260: 8187 c741 1f00 ce41 a865 e241 c2f2 d541
00000270: c731 9941 3136 db41 c37b ea41 efa0 b141
00000280: 2450 9140 b6b9 6241 8a63 1f41 a35a 3541
00000290: cb09 1c41 4094 ce40 5bd3 3e41 0e62 1041
000002a0: 8c92 2b40 4946 2d41 a128 1241 74b5 ed3f
000002b0: 453e 3f41 4c7d 1841 8d08 7240 77fc b540
000002c0: 299d 3b41 d69c 7841 a2ef 29c2 d31b b5c0
000002d0: 1944 1ac2 54bf 5fc1 0980 27c2 ae34 e1c0
000002e0: 2c26 dcc1 b6d8 4ec1 288d afc1 1806 d040
000002f0: 5c42 2ec2 73e3 8ec1 99cd eec1 92c9 b9c1
00000300: 7d7a 88c1 e094 52c1 5e1a 5a42 d065 4b42
00000310: cb7d cbc1 581d 4241 5b8f 9841 2c93 7041
00000320: 7d11 c3c1 a0c3 0442 4885 1c41 45c0 df41
00000330: 75e2 2e42 1e09 fb41 3293 9241 7335 4f42
00000340: 5507 c2bf 33c5 4640 ab0b edc1 1815 ccc1
00000350: d499 2340 c7c5 cbc1 51f1 90c1 1d74 0fc2
00000360: 7aea 1ec1 ca29 f63f eb9d 9941 c188 c641
00000370: 139e d4c1 723b 72c1 248e ad41 589e 2141
00000380: df9b 4841 7021 9741 a24e 1041 83f2 6941
00000390: b6f1 8f41 8bc3 ae41 bcc1 a641 aee7 6041
000003a0: d6e4 5241 5d61 8e41 b7c8 1341 c448 5841
000003b0: 6a51 7341 3d2e 4341 4db2 0641 f334 4341
000003c0: 463d 3341 a778 1c41 3691 2141 c126 0c41
000003d0: bbe1 1441 ee5f 0e41 49a3 1e41 7646 3341
000003e0: 2632 2c41 63d1 1b41 20d2 1a41 4848 3b41
000003f0: aa80 3b41 6850 3341 b9a9 3241 8018 2841

conv2.bias f4 [32]
10.949091 -2.8143976 4.3223996 -9.397257 -8.601087 5.2021904 1.7448008 -8.708113
-0.3175566 -2.7608752 12.643414 0.274317 -2.7713695 -6.033064 8.512409 -3.0713615
1.6889071 -2.8396742 8.225673 6.0060525 11.103783 -4.297466 6.717976 -13.25961
13.536805 19.222805 -19.635826 -20.795395 -12.217624 -0.7626395 -8.934878 -2.2756839
00000000: 7a2f 2f41 171f 34c0 1951 8a40 2a5b 16c1
00000010: 0d9e 09c1 5878 a640 a255 df3f 6e54 0bc1
00000020: c796 a2be 2eb2 30c0 6c4b 4a41 4773 8c3e
00000030: 1e5e 31c0 dc0e c1c0 d432 0841 3091 44c0
00000040: 1c2e d83f 39bd 35c0 5b9c 0341 9531 c040
00000050: 18a9 3141 d784 89c0 a9f9 d640 5d27 54c1
00000060: c196 5841 4ec8 9941 2c16 9dc1 f85c a6c1
00000070: 637b 43c1 583c 43bf 43f5 0ec1 cea4 11c0

bn2.weight f4 [32]
38.01367 64.98139 49.549156 -6.2231555 -66.95039 -60.918457 -41.14335 96.0547
0.65510446 12.0827875 140.84576 53.90812 -12.3531065 -5.067535 -23.456446 -62.627735
61.025078 28.874813 26.548061 60.988327 21.121065 85.381805 -7.2243295 95.90527
81.94435 30.228151 -97.76325 -26.564297 11.964972 27.192902 -15.181445 10.717587
00000000: 000e 1842 79f6 8142 5632 4642 1724 c7c0
00000010: 9ae6 85c2 80ac 73c2 ca92 24c2 021c c042
00000020: edb4 273f 1953 4141 84d8 0c43 eaa1 5742
00000030: 53a6 45c1 3f29 a2c0 cda6 bbc1 cd82 7ac2
00000040: ae19 7442 9eff e641 6e62 d441 0cf4 7342
00000050: f1f7 a841 7cc3 aa42 b52d e7c0 80cf bf42
00000060: 82e3 a342 41d3 f141 c986 c3c2 ae83 d4c1
00000070: 8670 3f41 108b d941 33e7 72c1 3d7b 2b41

bn2.bias f4 [32]
47.407104 76.24468 107.79969 -29.995296 -65.90689 -18.629204 -88.69955 -22.242918
-76.94625 83.166405 -31.177437 -35.311237 46.06566 -51.889572 -25.493074 -40.22272
-43.815525 -42.001987 71.50899 -98.652985 -80.86932 83.29604 -55.64143 2.9112482
-4.7870226 -86.21263 104.62077 -19.837503 -21.337992 -70.46571 27.254166 78.88988
00000000: e0a0 3d42 477d 9842 7199 d742 5ef6 efc1
00000010: 54d0 83c2 9c08 95c1 2b66 b1c2 7ff1 b1c1
00000020: 7be4 99c2 3355 a642 646b f9c1 b53e 0dc2
00000030: 3c43 3842 ec8e 4fc2 d1f1 cbc1 11e4 20c2
00000040: 1943 2fc2 0902 28c2 9a04 8f42 544e c5c2
00000050: 18bd a1c2 9397 a642 d390 5ec2 e451 3a40
00000060: 4a2f 99c0 de6c acc2 d63d d142 35b3 9ec1
00000070: 35b4 aac1 72ee 8cc2 8808 da41 9ec7 9d42

bn2.running_mean f4 [32]
98821.805 11154.497 75047.234 4.725339 74308.805 96104.555 136797.88 6e-45
13.381946 0.007330723 165510.9 120061.336 3.4982007 5.4267616 6e-45 59166.453
53604.824 66747.9 121068.695 146035.33 58227.6 119405.414 124622.445 6e-45
6e-45 36650.676 164703.53 3375.9695 10.079826 112316.88 6e-45 14.436398
00000000: e702 c147 fd49 2e46 9e93 9247 fa35 9740
00000010: 6722 9147 47b4 bb47 7897 0548 0400 0000
00000020: 731c 5641 9036 f03b baa1 2148 ab7e ea47
00000030: 85e2 5f40 08a8 ad40 0400 0000 741e 6747
00000040: d364 5147 f35d 8247 5976 ec47 d59c 0e48
00000050: 9a73 6347 b536 e947 3967 f347 0400 0000
00000060: 0400 0000 ad2a 0f47 e2d7 2048 83ff 5245
00000070: f846 2141 715e db47 0400 0000 7cfb 6641

bn2.running_var f4 [32]
2.9976164e+09 5.6719654e+08 1.2201787e+09 23929.04 7.786035e+08 3.342966e+09 2.5122765e+09 6e-45
73463.85 13.10479 8.2158285e+09 2.535342e+09 25416.896 16398.361 6e-45 8.695537e+08
1.0815126e+09 1.9659293e+09 4.1097938e+09 2.436994e+09 2.0320667e+09 3.6827302e+09 4.31037e+09 6e-45
6e-45 1.3950611e+09 6.9254584e+09 7.308752e+07 39248.05 2.549058e+09 6e-45 62584.867
00000000: ffab 324f ee3a 074e e674 914e 14f2 ba46
00000010: 30a2 394e 9d41 474f 4cbe 154f 0400 0000
00000020: ed7b 8f47 38ad 5141 ccd9 f44f 401e 174f
00000030: cb91 c646 b91c 8046 0400 0000 5951 4f4e
00000040: 25ed 804e 675b ea4e 7af6 744f 9441 114f
00000050: c13d f24e 0182 5b4f 8375 804f 0400 0000
00000060: 0400 0000 e34d a64e 0e65 ce4f 4467 8b4c
00000070: 0d50 1947 8aef 174f 0400 0000 de78 7447

conv3.weight f4 [64, 32, 5, 5]
-4.9565787 -1.6149073 0.3698998 -2.050093 -9.467225 -0.12458605 1.3873649 -2.146386
6.502637 -1.613989 1.683243 -5.9304113 3.1722624 1.4261352 -6.0342913 -7.536111
-6.4619436 -8.494278 -1.781157 -4.005562 -8.709617 -3.7029135 -3.9560735 4.876152
-1.7590443 -8.106905 -7.186952 -8.965495 -5.2209344 -7.6963367 -6.894456 -8.851185
-9.203197 -5.0315723 -8.229229 -6.602061 -8.072265 -5.3827457 -5.90989 -8.305317
-5.930859 -7.164016 -6.370586 -8.731146 -5.866186 -6.940387 -6.6450863 -9.301977
-8.411675 -5.3182735 -2.417774 -0.8166589 -0.91500473 -3.550715 -1.0004472 -2.050019
-1.2883759 -5.38948 -1.7155681 -1.9494292 -4.4631033 -3.8450155 -5.4593816 -0.7086449
-6.2763453 -5.641213 -3.745626 -1.6798673 -2.338164 -6.891737 -2.3794866 -2.0865498
-0.5885799 -0.6847568 -3.044645 -6.742628 -7.187113 -5.787327 -5.093173 -6.624584
-6.618585 -6.8963284 -5.885449 -5.2194533 -7.697203 -6.629058 -5.9606385 -5.4317794
-6.68958 -8.268159 -4.6324215 -4.1767488 -4.744885 -7.042001 -4.9397473 -6.45079
-5.874807 -9.155552 -7.142759 -5.5313597 6.2206006 5.9101005 5.5069737 5.51044
6.212632 6.2033215 6.6692615 6.405126 5.5481076 6.465139 6.2807374 6.2798963
6.60455 6.627325 6.5917134 5.4604473 5.4041247 5.223737 5.64995 6.23301
5.4748425 6.059096 5.2144856 6.7177825 6.255078 -3.029163 0.6240504 2.7194858
0.6191042 -4.092506 -2.5367587 3.872426 5.0481267 -0.43968633 1.7518566 -3.2046735
-0.78190106 4.6293817 2.8791883 -0.6742084 -3.9238477 0.07486704 5.2026916 4.1425314
-4.9651136 0.6072582 -5.8961773 8.656372 1.5010613 -4.4844866 -0.611753 3.635881
0.3583524 5.458054 4.2426934 -0.17774086 3.4127963 -2.6234598 2.7491307 -7.234889
5.3353777 4.9215093 3.479546 0.24817179 5.4178534 7.6625013 6.557084 -5.7894096
-4.127654 -3.0507088 -2.4217017 8.330113 -3.5912437 -0.42588356 -3.1646821 3.1299427
-5.726161 7.7498307 6.7599463 -5.433859 -2.689957 -8.993411 1.8279172 15.6337
-6.020745 8.883937 -4.515654 9.825141 -5.8404617 1.1045405 7.8563967 -1.8739698
3.0379314 -13.989763 4.859944 5.052542 9.728907 10.162018 -10.606443 -2.7042289
1.4696174 0.9866669 -0.3256728 -1.6863118 2.319076 0.7843088 1.8104087 -0.4077843
-0.50413287 3.523743 -0.74629045 0.5248741 -0.3037912 1.9889475 0.37938666 -1.0737069
-1.187784 -1.084738 1.344741 0.025371416 0.7822484 0.110267095 2.347655 1.7163464
0.14524597 -4.529265 -3.4611194 -3.4182293 -4.563749 -4.276166 -4.5089316 -4.866954
-4.687315 -4.467296 -4.497849 -4.5325327 -4.1944466 -4.212509 -4.4820466 -4.2166085
-3.4465156 -3.4567075 -3.4091434 -4.718197 -3.0078444 -3.3655457 -3.4558744 -3.444567
-4.2231193 -0.7328689 14.807139 12.24095 7.248208 7.230951 7.836461 6.356876
00000000: 4b9c 9ec0 48b5 cebf 8263 bd3e b934 03c0
00000010: c179 17c1 f926 ffbd 2c95 b13f 635e 09c0
00000020: 9a15 d040 3197 cebf 8274 d73f eec5 bdc0
00000030: 5906 4b40 998b b63f ea18 c1c0 d227 f1c0
00000040: 3ec8 cec0 90e8 07c1 f4fc e3bf 902d 80c0
00000050: 975a 0bc1 89fc 6cc0 4f30 7dc0 7009 9c40
00000060: 5d28 e1bf e2b5 01c1 83fb e5c0 ab72 0fc1
00000070: e511 a7c0 6448 f6c0 629f dcc0 749e 0dc1
00000080: 4b40 13c1 a402 a1c0 ecaa 03c1 1544 d3c0
00000090: ff27 01c1 743f acc0 d21d bdc0 94e2 04c1
000000a0: 99c9 bdc0 9e3f e5c0 d7db cbc0 c6b2 0bc1
000000b0: ccb7 bbc0 a617 dec0 8ca4 d4c0 e6d4 14c1
000000c0: 3996 06c1 4c2f aac0 cfbc 1ac0 8f10 51bf
000000d0: c03d 6abf ea3e 63c0 a70e 80bf 8333 03c0
000000e0: 80e9 a4bf 9f76 acc0 bc97 dbbf e586 f9bf
000000f0: bed1 8ec0 bc14 76c0 41b3 aec0 c169 35bf
00000100: d2d7 c8c0 d184 b4c0 56b8 6fc0 e405 d7bf
00000110: 7ba4 15c0 1c89 dcc0 8249 18c0 088a 05c0
00000120: 2cad 16bf 394c 2fbf 77db 42c0 9cc3 d7c0
00000130: d4fc e5c0 c831 b9c0 46fb a2c0 98fc d3c0
00000140: 73cb d3c0 b9ae dcc0 9955 bcc0 c305 a7c0
00000150: 7d4f f6c0 3e21 d4c0 8dbd bec0 23d1 adc0
00000160: 0a11 d6c0 614a 04c1 cc3c 94c0 eda7 85c0
00000170: 19d6 97c0 1258 e1c0 6912 9ec0 df6c cec0
00000180: 6bfe bbc0 247d 12c1 7b91 e4c0 e600 b1c0
00000190: 290f c740 8b1f bd40 2139 b040 8655 b040
000001a0: e2cd c640 9c81 c640 976a d540 cbf6 cc40
000001b0: 198a b140 6be2 ce40 cdfb c840 e9f4 c840
000001c0: 7958 d340 0c13 d440 51ef d240 fcbb ae40
000001d0: 97ee ac40 da28 a740 64cc b440 d174 c740
000001e0: e931 af40 1de4 c140 11dd a640 13f8 d640
000001f0: 9929 c840 cedd 41c0 c4c1 1f3f 0e0c 2e40
00000200: 9d7d 1e3f cff5 82c0 415a 22c0 d4d5 7740
00000210: 418a a140 911e e1be d63c e03f 5f19 4dc0
00000220: ab2a 48bf e523 9440 9f44 3840 ec98 2cbf
00000230: 5220 7bc0 e453 993d 737c a640 9e8f 8440
00000240: 36e2 9ec0 4675 1b3f 7cad bcc0 8080 0a41
00000250: c722 c03f ea80 8fc0 d89b 1cbf 46b2 6840
00000260: f779 b73e 61a8 ae40 25c4 8740 b301 36be
00000270: 416b 5a40 c4e6 27c0 c2f1 2f40 3684 e7c0
00000280: 6abb aa40 017d 9d40 e2b0 5e40 bf20 7e3e
00000290: 0e5f ad40 3633 f540 a2d3 d140 d842 b9c0
000002a0: be15 84c0 d03e 43c0 29fd 1ac0 2548 0541
000002b0: f0d6 65c0 690d dabe 278a 4ac0 fb50 4840
000002c0: b63c b7c0 9dfe f740 7b51 d840 2ce2 adc0
000002d0: 4128 2cc0 03e5 0fc1 31f9 e93f a323 7a41
000002e0: f1a9 c0c0 9b24 0e41 3d80 90c0 c733 1d41
000002f0: 10e5 bac0 9561 8d3f 9a67 fb40 3ede efbf
00000300: 786d 4240 12d6 5fc1 a984 9b40 6dae a140
00000310: 9aa9 1b41 a097 2241 feb3 29c1 1612 2dc0
00000320: 6c1c bc3f 3496 7c3f 96be a6be 11d9 d7bf
00000330: be6b 1440 76c8 483f 79bb e73f 1bc9 d0be
00000340: da0e 01bf 0185 6140 e40c 3fbf 265e 063f
00000350: 858a 9bbe d595 fe3f f83e c23e 3a6f 89bf
00000360: 4e09 98bf b2d8 8abf 7920 ac3f b7d7 cf3c
00000370: 6e41 483f b7d3 e13d fb3f 1640 3db1 db3f
00000380: 5cbb 143e bdef 90c0 fb82 5dc0 45c4 5ac0
00000390: 3b0a 92c0 5ad6 88c0 2b49 90c0 16be 9bc0
000003a0: 7cfe 95c0 17f4 8ec0 61ee 8fc0 820a 91c0
000003b0: e838 86c0 e0cc 86c0 ed6c 8fc0 75ee 86c0
000003c0: b693 5cc0 b23a 5dc0 682f 5ac0 78fb 96c0
000003d0: 8680 40c0 1a65 57c0 0c2d 5dc0 c973 5cc0
000003e0: cb23 87c0 4c9d 3bbf 0bea 6c41 eeda 4341
000003f0: 52f1 e740 f363 e740 4ac4 fa40 876b cb40

conv3.bias f4 [64]
-3.2819815 16.81279 1.0303762 -4.26819 13.894526 -1.5207864 -6.415912 -3.8741465
-7.116774 -5.145648 10.140235 -4.011293 -7.8780427 2.142086 -0.46870297 -3.9556973
0.4749007 0.86439544 5.6074715 -6.8759418 -6.4170322 2.1420436 -0.7834209 15.564908
8.890514 -5.3220334 -4.435755 -8.758796 -2.619155 24.327917 -2.995012 -2.2653904
-12.336769 13.432574 -0.5256513 -3.6898117 0.044359703 5.6227474 0.48329768 -2.6047328
8.766208 -1.7641996 -11.395454 3.8466907 5.1898327 7.6141286 23.678772 12.697448
16.537432 1.6374475 5.143154 -3.1825705 -1.0067265 -3.4762816 -10.524178 -1.5086027
-1.4283847 18.529617 -0.7565858 2.5263023 -10.492746 6.895496 -2.5120943 15.521228
00000000: fc0b 52c0 9880 8641 5ee3 833f 0395 88c0
00000010: fa4f 5e41 21a9 c2bf 274f cdc0 04f2 77c0
00000020: 9dbc e3c0 26a9 a4c0 673e 2241 835c 80c0
00000030: ed18 fcc0 f017 0940 d6f9 efbe 252a 7dc0
00000040: 2f26 f33e 0549 5d3f 6870 b340 b707 dcc0
00000050: 5458 cdc0 3e17 0940 468e 48bf dd09 7941
00000060: 8c3f 0e41 194e aac0 b4f1 8dc0 0724 0cc1
00000070: 3ca0 27c0 939f c241 47ae 3fc0 28fc 10c0
00000080: 6863 45c1 d3eb 5641 1591 06bf e025 6cc0
00000090: 85b2 353d 8ced b340 cb72 f73e f1b3 26c0
000000a0: 6342 0c41 4bd1 e1bf c853 36c1 2e30 7640
000000b0: 1c13 a640 f1a6 f340 206e bd41 bf28 4b41
000000c0: a94c 8441 e197 d13f b894 a440 3caf 4bc0
000000d0: 6adc 80bf 667b 5ec0 0863 28c1 e519 c1bf
000000e0: 4fd5 b6bf a83c 9441 9baf 41bf f0ae 2140
000000f0: 4ae2 27c1 e7a7 dc40 27c6 20c0 f356 7841

bn3.weight f4 [64]
-34.56155 7.8750777 -5.4764814 4.4114194 -16.46321 20.738266 8.060705 15.249443
14.98886 -3.921972 47.536713 -38.362244 42.106274 -22.624166 -11.469006 44.952698
104.19907 -32.167435 45.11679 43.22318 -10.994423 -72.688545 -65.60007 -76.67956
-16.211578 30.349888 29.886127 4.685637 -28.485434 -36.026722 -4.034461 -0.07262006
-24.98868 69.58932 -33.8598 36.77973 3.521514 -34.782482 48.090927 -1.4185646
28.364166 13.55569 10.559671 -21.653843 -16.163816 -60.70915 -97.18003 -18.694881
-88.256325 -40.29903 -45.376194 18.983223 24.16583 2.3883839 26.098621 20.661795
-1.4428006 -55.48161 -46.01172 14.013329 -23.926865 -109.702 57.475605 3.1947465
00000000: 073f 0ac2 a300 fc40 563f afc0 592a 8d40
00000010: a7b4 83c1 f8e7 a541 a6f8 0041 b8fd 7341
00000020: 5fd2 6f41 9701 7bc0 9825 3e42 f072 19c2
00000030: d36c 2842 4bfe b4c1 0c81 37c1 90cf 3342
00000040: ed65 d042 74ab 00c2 9877 3442 89e4 2c42
00000050: 28e9 2fc1 8960 91c2 3c33 83c2 ef5b 99c2
00000060: 50b1 81c1 92cc f241 ca16 ef41 bdf0 9540
00000070: 2be2 e3c1 5d1b 10c2 4e1a 81c0 d3b9 94bd
00000080: d1e8 c7c1 bb2d 8b42 6f70 07c2 721e 1342
00000090: 7c60 6140 4321 0bc2 1c5d 4042 8693 b5bf
000000a0: d0e9 e241 1be4 5841 6af4 2841 123b adc1
000000b0: 7f4f 81c1 2bd6 72c2 2d5c c2c2 1e8f 95c1
000000c0: 3d83 b0c2 3532 21c2 3981 35c2 a4dd 9741
000000d0: 9f53 c141 48db 1840 fac9 d041 5b4b a541
000000e0: b1ad b8bf 2bed 5dc2 000c 38c2 9836 6041
000000f0: 386a bfc1 6d67 dbc2 05e7 6542 ba76 4c40

bn3.bias f4 [64]
-0.28716013 1.9698648 -57.95073 -29.184643 27.385115 53.417957 41.18823 9.811278
-17.056662 -12.32523 -7.300382 6.3889627 8.235016 14.15107 -35.003 -66.67296
12.53462 -58.771275 2.6391428 17.499811 -37.598995 -39.22167 20.583944 -22.835012
-57.890507 -20.436611 6.895746 24.889145 2.975046 1.3635681 10.409901 -48.299652
-7.8381147 -40.310577 23.583672 -28.603758 11.742603 10.227791 -19.459688 66.94337
21.088358 -58.93612 11.147496 15.480807 74.281296 31.6365 68.990204 -19.842194
59.658443 35.006382 41.58729 -14.179886 14.364524 -25.51184 6.2637978 10.460357
3.679236 3.5477324 -37.13927 1.3807681 -21.330805 3.9524446 4.814451 -4.078231
00000000: a706 93be 8824 fc3f 8ccd 67c2 267a e9c1
00000010: b714 db41 fdab 5542 bfc0 2442 fffa 1c41
00000020: 0b74 88c1 2434 45c1 bb9c e9c0 6272 cc40
00000030: a0c2 0341 c86a 6241 1203 0cc2 8e58 85c2
00000040: ce8d 4841 c915 6bc2 b7e7 2840 9dff 8b41
00000050: 5f65 16c2 fde2 1cc2 ebab a441 1bae b6c1
00000060: e18f 67c2 2e7e a3c1 f4a9 dc40 f81c c741
00000070: 2767 3e40 6689 ae3f f48e 2641 d832 41c2
00000080: d6d1 fac0 083e 21c2 5cab bc41 7fd4 e4c1
00000090: b4e1 3b41 08a5 2341 71ad 9bc1 01e3 8542
000000a0: f5b4 a841 96be 6bc2 255c 3241 63b1 7741
000000b0: 0690 9442 8d17 fd41 fcfa 8942 d0bc 9ec1
000000c0: 3fa2 6e42 8906 0c42 6359 2642 d0e0 62c1
000000d0: 17d5 6541 4018 ccc1 0871 c840 9f5d 2741
000000e0: 9a78 6b40 0c0e 6340 9d8e 14c2 02bd b03f
000000f0: 7da5 aac1 daf4 7c40 fc0f 9a40 de80 82c0

bn3.running_mean f4 [64]
6e-45 951999.4 1.6512675e+06 0.6295864 6e-45 6e-45 164864.92 6e-45
6e-45 0.003034691 0.0015585565 6e-45 6e-45 0.09441113 6e-45 27.222094
6e-45 6e-45 6e-45 6e-45 6e-45 6e-45 0.0015346416 1.5620986e+06
642932.06 6e-45 7703.5586 7.124835 6e-45 6e-45 6e-45 6e-45
6e-45 6e-45 6e-45 0.13158412 6e-45 262.3044 6e-45 6e-45
425.29327 6e-45 6e-45 1.2637037 6e-45 6e-45 40748.96 6e-45
1.845302e+06 6e-45 6e-45 0.0060906396 6e-45 6e-45 6e-45 6e-45
6e-45 1.2800155e+06 6e-45 6e-45 448059.47 0.004890141 6e-45 6e-45
00000000: 0400 0000 f66b 6849 1c92 c949 932c 213f
00000010: 0400 0000 0400 0000 3b00 2148 0400 0000
00000020: 0400 0000 abe1 463b 7a48 cc3a 0400 0000
00000030: 0400 0000 9f5a c13d 0400 0000 d9c6 d941
00000040: 0400 0000 0400 0000 0400 0000 0400 0000
00000050: 0400 0000 0400 0000 0726 c93a 95af be49
00000060: 41f7 1c49 0400 0000 78bc f045 a6fe e340
00000070: 0400 0000 0400 0000 0400 0000 0400 0000
00000080: 0400 0000 0400 0000 0400 0000 fdbd 063e
00000090: 0400 0000 f726 8343 0400 0000 0400 0000
000000a0: 8aa5 d443 0400 0000 0400 0000 0bc1 a13f
000000b0: 0400 0000 0400 0000 f62c 1f47 0400 0000
000000c0: b041 e149 0400 0000 0400 0000 fd93 c73b
000000d0: 0400 0000 0400 0000 0400 0000 0400 0000
000000e0: 0400 0000 7c40 9c49 0400 0000 0400 0000
000000f0: 6fc7 da48 7a3d a03b 0400 0000 0400 0000

bn3.running_var f4 [64]
6e-45 8.395661e+08 4.725457e+09 2503.7974 6e-45 6e-45 4.8764688e+08 6e-45
6e-45 5.525608 1.4574403 6e-45 6e-45 544.3994 6e-45 522371.84
6e-45 6e-45 6e-45 6e-45 6e-45 6e-45 0.717296 4.33049e+09
1.4062122e+09 6e-45 2.1830952e+08 75134.39 6e-45 6e-45 6e-45 6e-45
6e-45 6e-45 6e-45 1709.8093 6e-45 8.188962e+06 6e-45 6e-45
1.0175503e+07 6e-45 6e-45 7109.5513 6e-45 6e-45 1.0850883e+09 6e-45
5.7237187e+09 6e-45 6e-45 17.318897 6e-45 6e-45 6e-45 6e-45
6e-45 8.677649e+09 6e-45 6e-45 4.3612165e+09 14.347964 6e-45 6e-45
00000000: 0400 0000 0c2b 484e 60d4 8c4f c27c 1c45
00000010: 0400 0000 0400 0000 3587 e84d 0400 0000
00000020: 0400 0000 c8d1 b040 678d ba3f 0400 0000
00000030: 0400 0000 9019 0844 0400 0000 7b10 ff48
00000040: 0400 0000 0400 0000 0400 0000 0400 0000
00000050: 0400 0000 0400 0000 b6a0 373f 040f 814f
00000060: 31a2 a74e 0400 0000 3932 504d 32bf 9247
00000070: 0400 0000 0400 0000 0400 0000 0400 0000
00000080: 0400 0000 0400 0000 0400 0000 e6b9 d544
00000090: 0400 0000 44e8 f94a 0400 0000 0400 0000
000000a0: 0f44 1b4b 0400 0000 0400 0000 692c de45
000000b0: 0400 0000 0400 0000 445a 814e 0400 0000
000000c0: 8294 aa4f 0400 0000 0400 0000 1a8d 8a41
000000d0: 0400 0000 0400 0000 0400 0000 0400 0000
000000e0: 0400 0000 9b4e 0150 0400 0000 0400 0000
000000f0: 71f9 814f 4391 6541 0400 0000 0400 0000

fc1.weight f4 [256, 64]
2.8588622 -11.351041 11.912169 -8.197443 -7.18335 3.3991573 -14.818039 9.7494135
-0.022534775 6.6367955 -2.8242993 11.837053 -0.33326724 2.0471835 15.083586 5.5246587
-7.0889525 17.021719 -7.068751 -1.3033329 -5.8627286 0.26472756 0.32487878 0.104021356
-6.402455 3.6814563 -3.013374 -1.9840283 11.0250025 -3.549042 2.7365339 13.968582
-1.4832102 -0.05094115 -12.418638 6.2151785 1.9009049 -1.3691536 1.3597742 -16.286829
-4.8859634 2.8409367 1.4411513 -12.668642 -8.428022 3.1748004 1.4538082 -1.2120671
-3.0305614 2.283277 7.4755163 -6.3459 2.3867087 3.075707 0.32744455 -1.6871606
2.1973975 9.613907 13.061373 7.858087 1.9223455 2.2042046 3.2656682 5.5157585
4.0851674 1.6283811 -0.5525059 -4.1855297 -1.8553953 1.5250605 -3.174524 2.3500402
4.8858037 1.6872914 0.30878857 5.558242 1.9560126 -4.8514104 6.7799273 8.1862135
-4.58775 10.907862 -8.459467 9.759375 -4.682565 -2.4495308 -3.6333835 -0.42570874
8.428925 5.4215837 -2.64989 1.9951667 8.651972 -0.7709988 -2.6400173 13.373616
2.4787383 -0.72445434 -7.1093993 3.8927717 4.07962 -4.007385 -0.6412062 -15.5477
-6.696481 4.833842 -6.4170866 -13.289906 -12.245327 -12.601135 -1.9949702 -3.3093657
-6.0957236 -5.4905806 -8.238604 -0.86081254 8.816244 3.9600358 5.6797833 -19.675625
-1.4116012 -2.8331192 16.643333 7.216442 2.515003 4.5764585 0.89596003 5.6802216
0.8803686 4.732904 1.7907343 -4.616968 5.347225 1.6037976 -2.2437646 3.5270197
6.436038 7.207222 -0.14702588 6.6141253 2.7885358 -11.212012 9.799098 14.149914
-4.43911 11.427654 -9.775057 -3.1137953 -4.3913426 -1.6919925 -7.6425443 1.3002338
1.8920196 2.2295394 8.502866 -3.0198345 7.980737 -6.5811186 -2.0095751 9.073318
4.832797 -2.9575357 -11.371039 4.341966 -2.2261088 -6.9605117 1.4905726 -13.867287
-7.2050476 4.263878 -3.2135243 -10.894191 -8.5200405 6.896068 1.697675 2.0985687
-4.5563765 0.6794949 -2.0650702 -0.8054096 -4.046241 13.077625 8.752963 -2.0854824
-6.6940007 6.5219727 10.212813 4.427309 -1.89947 2.905293 6.5987024 2.6315076
-7.008323 8.643888 4.7457438 -15.922511 -16.871103 -2.8402138 -7.6135592 6.0488553
10.840578 9.845559 -4.6769304 -3.6700406 -5.659944 -8.299847 12.644808 12.982089
-8.259912 3.616238 -1.7397821 -2.6982756 -2.2270973 6.0521684 -2.981708 -6.264798
5.8685513 3.5258384 10.696088 2.5280533 11.545005 -16.047716 -1.2763134 11.438465
6.2321806 5.5871 -13.24195 18.278746 3.3151178 -3.4721062 -1.7950246 -8.128013
-8.273394 13.018567 6.984035 -9.70354 0.72386533 4.772232 -0.35201856 4.7237186
-10.585586 -4.94798 -7.1805983 0.66597205 4.6954865 10.762413 -2.8452506 -9.87163
1.404345 4.3995867 7.6397915 6.762948 9.552794 3.264669 -2.477639 0.76168585
00000000: 99f7 3640 dd9d 35c1 3f98 3e41 ba28 03c1
00000010: 01de e5c0 cb8b 5940 b016 6dc1 99fd 1b41
00000020: d99a b8bc a160 d440 52c1 34c0 9264 3d41
00000030: 01a2 aabe 0e05 0340 5e56 7141 01ca b040
00000040: b3d8 e2c0 7b2c 8841 3533 e2c0 9dd3 a6bf
00000050: 799b bbc0 5f8a 873e 8356 a63e 2609 d53d
00000060: e9e0 ccc0 fb9c 6b40 1fdb 40c0 a4f4 fdbf
00000070: 6966 3041 8123 63c0 5f23 2f40 507f 5f41
00000080: d5d9 bdbf aba7 50bd beb2 46c1 bee2 c640
00000090: da50 f33f 6d40 afbf 150d ae3f 6d4b 82c1
000000a0: d059 9cc0 e8d1 3540 a577 b83f c2b2 4ac1
000000b0: 2ed9 06c1 ee2f 4b40 6316 ba3f 0425 9bbf
000000c0: b8f4 41c0 3621 1240 6e37 ef40 9d11 cbc0
000000d0: d6bf 1840 62d8 4440 d0a6 a73e e1f4 d7bf
000000e0: 29a2 0c40 90d2 1941 62fb 5041 7375 fb40
000000f0: 6b0f f63f b011 0d40 b500 5140 1881 b040
00000100: b1b9 8240 cb6e d03f 0771 0dbf dcef 85c0
00000110: 987d edbf 2f35 c33f 672b 4bc0 0f67 1640
00000120: 8158 9c40 2af9 d73f 8919 9e3e 1edd b140
00000130: 9f5e fa3f c13e 9bc0 2af5 d840 bbfa 0241
00000140: d9ce 92c0 9a86 2e41 fa59 07c1 6626 1c41
00000150: 93d7 95c0 1dc5 1cc0 5b89 68c0 7ff6 d9be
00000160: e0dc 0641 9d7d ad40 cc97 29c0 9f61 ff3f
00000170: 7a6e 0a41 2d60 45bf 0bf6 28c0 55fa 5541
00000180: a6a3 1e40 d775 39bf 3380 e3c0 2c23 7940
00000190: 3f8c 8240 7f3c 80c0 1726 24bf 61c3 78c1
000001a0: 9349 d6c0 d5ae 9a40 c658 cdc0 74a3 54c1
000001b0: dcec 43c1 409e 49c1 2f5b ffbf a6cc 53c0
000001c0: 2b10 c3c0 d6b2 afc0 52d1 03c1 365e 5cbf
000001d0: 560f 0d41 3a71 7d40 c9c0 b540 ae67 9dc1
000001e0: 59af b4bf d351 35c0 8c25 8541 18ed e640
000001f0: cff5 2040 5972 9240 a35d 653f 60c4 b540
00000200: d65f 613f f373 9740 c836 e53f 34be 93c0
00000210: 781c ab40 3d49 cd3f d799 0fc0 b1ba 6140
00000220: 06f4 cd40 90a1 e640 f48d 16be eaa6 d340
00000230: 5f77 3240 6764 33c1 1bc9 1c41 0c66 6241
00000240: 300d 8ec0 acd7 3641 a266 1cc1 6c48 47c0
00000250: e185 8cc0 3693 d8bf b98f f4c0 106e a63f
00000260: b32d f23f c6b0 0e40 bd0b 0841 f844 41c0
00000270: 3362 ff40 8698 d2c0 e19c 00c0 4f2c 1141
00000280: 46a6 9a40 4448 3dc0 c7ef 35c1 63f1 8a40
00000290: 9178 0ec0 83bc dec0 15cb be3f 68e0 5dc1
000002a0: c08f e6c0 b071 8840 62aa 4dc0 9b4e 2ec1
000002b0: 1652 08c1 97ac dc40 6a4d d93f f34e 0640
000002c0: d6cd 91c0 61f3 2d3f 1c2a 04c0 532f 4ebf
000002d0: ce7a 81c0 f43d 5141 230c 0c41 8b78 05c0
000002e0: 4135 d6c0 00b4 d040 af67 2341 84ac 8d40
000002f0: d521 f3bf 52f0 3940 9228 d340 9f6a 2840
00000300: 2f44 e0c0 5e4d 0a41 22dd 9740 9bc2 7ec1
00000310: 05f8 86c1 10c6 35c0 47a2 f3c0 3990 c140
00000320: 0273 2d41 6987 1d41 6aa9 95c0 f2e1 6ac0
00000330: 431e b5c0 2ccc 04c1 2251 4a41 a3b6 4f41
00000340: 9928 04c1 7270 6740 2eb1 debf 8cb0 2cc0
00000350: c388 0ec0 5dab c140 4ed4 3ec0 3a79 c8c0
00000360: 2ccb bb40 56a7 6140 2d23 2b41 a0cb 2140
00000370: 57b8 3841 b961 80c1 3d5e a3bf f403 3741
00000380: 066e c740 86c9 b240 07df 53c1 df3a 9241
00000390: e42a 5440 fd36 5ec0 5ec3 e5bf 570c 02c1
000003a0: d25f 04c1 0d4c 5041 377d df40 b341 1bc1
000003b0: 3d4f 393f 20b6 9840 c73b b4be b428 9740
000003c0: 8f5e 29c1 da55 9ec0 76c7 e5c0 257d 2a3f
000003d0: 6d41 9640 d832 2c41 9618 36c0 32f2 1dc1
000003e0: 94c1 b33f 6ac9 8c40 2c79 f440 126a d840
000003f0: 3fd8 1841 56f0 5040 a391 1ec0 d8fd 423f

fc1.bias f4 [256]
-13.613414 -11.243932 -12.0620775 -14.341592 20.043894 -0.8244854 -9.784692 9.773836
-11.876701 -15.909548 -10.694355 5.5339446 -5.99243 -5.7180815 -1.9116706 -6.2552943
-23.058058 -15.883509 -12.558523 -5.508433 -19.084702 -4.7085094 -2.9594176 -11.243468
-7.949429 -10.97922 -24.888742 -5.754241 -19.516172 -9.858377 -3.5255196 -5.9447794
-6.9955053 -6.809342 -4.0658154 -3.9422624 -6.4006176 -9.845171 -11.749286 -3.4334714
-9.568307 -3.3992567 -4.3724246 -10.9185 -7.117287 -5.4595976 -11.45158 -3.5736527
-12.375319 -9.710714 -2.6036928 -13.613659 -11.15447 -5.80125 -10.710736 -3.8726473
-14.462446 -8.606505 12.259257 -7.712498 -3.5226984 -2.8552442 -3.7324283 -2.53655
-7.899602 -5.179362 -3.897566 -4.538869 -7.7469115 -14.928874 -1.5247314 -2.448298
-6.712389 -11.683676 -3.6079817 5.927438 -4.706188 -10.758848 -10.695272 -11.258763
7.371005 -4.674796 -4.6630063 -8.539185 -12.568968 48.893005 -3.0135455 5.9508944
-9.00199 -4.811218 -6.193389 43.741215 -0.22422057 -3.0227432 -4.2022777 0.8485839
3.9926202 -6.1579237 0.6144879 -9.859601 -2.5833879 -4.624788 0.002657132 -2.69024
-12.522037 -15.261879 -5.464098 -4.803303 -8.894643 -22.59237 -10.456726 24.16195
-8.582503 -7.6252947 -9.993701 -4.576903 -13.544405 2.6859915 -10.84325 -6.398943
-3.868356 -9.9601965 -9.012688 -9.355062 -16.186188 -7.5496106 -12.289925 -5.6631465
-2.1462526 -12.886602 -1.3438978 -9.39701 -12.048927 -4.810865 -8.887508 -25.731863
-4.4535613 -7.873939 -5.49382 -15.4789915 -10.620508 -3.759359 -11.511078 -11.379119
-9.042238 -4.086666 -4.7011185 -8.032573 -22.88662 -6.591927 -6.814031 -20.980259
11.255048 -2.7189581 2.857059 -6.8700485 -11.275424 -2.9600592 -18.897043 16.835823
-11.831769 -8.450916 2.6088188 -9.520935 -16.70157 -22.99685 -30.669292 -14.813692
-25.92266 -12.649154 -13.418109 -0.7470037 -1.5684326 -12.396822 -2.492229 15.132179
-6.2473063 -4.0804477 -4.9817476 -18.765032 -9.638302 -1.749185 -6.152729 -7.1642942
-8.819781 -5.565652 -5.850262 -1.9233512 -2.4725811 -8.869657 -11.829624 -10.904482
-4.6936007 -11.980064 -3.3555853 -6.186864 -7.499219 -6.7231646 61.116955 -10.98693
-9.779475 -8.227216 -17.606384 -11.808996 -11.750262 -13.156347 -7.1768723 -19.733713
-1.4510835 -16.11497 3.1301653 -2.7114835 -1.751941 1.5202545 -7.1640472 -4.685692
-12.51288 -9.286085 -12.378007 20.234867 -8.300013 -0.9358675 -11.312358 0.8997417
-10.660658 -4.990291 -2.912863 -7.1270585 -4.544719 -11.192588 -6.577079 -5.630849
-7.2517276 2.2215369 -7.4961705 19.593273 -1.22546 -4.189435 -4.201245 -8.0941
-6.447291 -2.878595 -10.236151 -1.13018 -2.4867008 -6.1565475 6.8652873 -1.5699873
-9.829076 -4.1419563 -2.7024577 -9.874621 -5.3956285 -9.985985 -9.6208725 -7.8610663
00000000: 8bd0 59c1 25e7 33c1 45fe 40c1 2977 65c1
00000010: e559 a041 7a11 53bf 198e 1cc1 a261 1c41
00000020: f806 3ec1 828d 7ec1 141c 2bc1 1316 b140
00000030: fdc1 bfc0 86fa b6c0 9fb1 f4bf 5f2b c8c0
00000040: e776 b8c1 da22 7ec1 b6ef 48c1 1545 b0c0
00000050: 78ad 98c1 1cac 96c0 1967 3dc0 3fe5 33c1
00000060: b961 fec0 e3aa 2fc1 251c c7c1 be22 b8c0
00000070: 1f21 9cc1 eabb 1dc1 1da2 61c0 a23b bec0
00000080: 2edb dfc0 21e6 d9c0 291b 82c0 074e 7cc0
00000090: dcd1 ccc0 d285 1dc1 13fd 3bc1 ffbd 5bc0
000000a0: c917 19c1 6c8d 59c0 e7ea 8bc0 2db2 2ec1
000000b0: d1c0 e3c0 06b5 aec0 ac39 37c1 bab6 64c0
000000c0: 4e01 46c1 165f 1bc1 e7a2 26c0 8cd1 59c1
000000d0: b678 32c1 d7a3 b9c0 2d5f 2bc1 74d9 77c0
000000e0: 2e66 67c1 3fb4 09c1 eb25 4441 c9cc f6c0
000000f0: e473 61c0 52bc 36c0 1be0 6ec0 d656 22c0
00000100: 8ac9 fcc0 55bd a5c0 b971 79c0 6a3e 91c0
00000110: b3e6 f7c0 abdc 6ec1 662a c3bf eab0 1cc0
00000120: e4cb d6c0 56f0 3ac1 2ce9 66c0 92ad bd40
00000130: 1899 96c0 3e24 2cc1 d61f 2bc1 e523 34c1
00000140: 46df eb40 ee97 95c0 5937 95c0 80a0 08c1
00000150: 7e1a 49c1 7092 4342 eedd 40c0 ba6d be40
00000160: 2708 10c1 7ff5 99c0 3e30 c6c0 01f7 2e42
00000170: 149a 65be a074 41c0 0f79 86c0 cb3c 593f
00000180: 1787 7f40 b60d c5c0 144f 1d3f edc0 1dc1
00000190: 3a56 25c0 43fe 93c0 4723 2e3b e42c 2cc0
000001a0: 435a 48c1 a830 74c1 e4d9 aec0 a8b4 99c0
000001b0: 7550 0ec1 2cbd b4c1 c04e 27c1 ac4b c141
000001c0: ef51 09c1 6a02 f4c0 33e6 1fc1 fd75 92c0
000001d0: e2b5 58c1 49e7 2b40 f47d 2dc1 24c4 ccc0
000001e0: 2593 77c0 f75c 1fc1 f833 10c1 55ae 15c1
000001f0: 507d 81c1 6996 f1c0 88a3 44c1 7f38 b5c0
00000200: 345c 09c0 862f 4ec1 d804 acbf 275a 16c1
00000210: 68c8 40c1 9bf2 99c0 3c33 0ec1 dbda cdc1
00000220: 9383 8ec0 4ff7 fbc0 60cd afc0 f3a9 77c1
00000230: 9aed 29c1 5699 70c0 602d 38c1 df10 36c1
00000240: 02ad 10c1 f8c5 82c0 906f 96c0 6b85 00c1
00000250: cc17 b7c1 11f1 d2c0 8b0c dac0 92d7 a7c1
00000260: ad14 3441 6903 2ec0 0eda 3640 70d7 dbc0
00000270: 2368 34c1 9c71 3dc0 252d 97c1 c4af 8641
00000280: ed4e 3dc1 f436 07c1 e3f6 2640 c055 18c1
00000290: d19c 85c1 8cf9 b7c1 b65a f5c1 e204 6dc1
000002a0: 9c61 cfc1 ef62 4ac1 93b0 56c1 a23b 3fbf
000002b0: 66c2 c8bf 6259 46c1 ae80 1fc0 681d 7241
000002c0: efe9 c7c0 0793 82c0 7a6a 9fc0 c91e 96c1
000002d0: 7c36 1ac1 4be5 dfbf 28e3 c4c0 e641 e5c0
000002e0: d31d 0dc1 d219 b2c0 5935 bbc0 5f30 f6bf
000002f0: c53e 1ec0 1dea 0dc1 2446 3dc1 c278 2ec1
00000300: fa31 96c0 58ae 3fc1 e9c1 56c0 cafa c5c0
00000310: 9af9 efc0 2a24 d7c0 c377 7442 77ca 2fc1
00000320: bb78 1cc1 ada2 03c1 e0d9 8cc1 a6f1 3cc1
00000330: 1301 3cc1 6680 52c1 f0a8 e5c0 a5de 9dc1
00000340: 1bbd b9bf 75eb 80c1 a154 4840 f288 2dc0
00000350: 9a3f e0bf b397 c23f e03f e5c0 30f1 95c0
00000360: c234 48c1 ce93 14c1 510c 46c1 02e1 a141
00000370: dacc 04c1 0395 6fbf 6bff 34c1 7955 663f
00000380: 0e92 2ac1 77b0 9fc0 596c 3ac0 dd10 e4c0
00000390: 576e 91c0 d714 33c1 6e77 d2c0 ea2f b4c0
000003a0: 270e e8c0 a92d 0e40 a1e0 efc0 06bf 9c41
000003b0: e0db 9cbf da0f 86c0 9970 86c0 6f81 01c1
000003c0: 3550 cec0 e73a 38c0 46c7 23c1 bda9 90bf
000003d0: 1b26 1fc0 7002 c5c0 6fb0 db40 58f5 c8bf
000003e0: e543 1dc1 e88a 84c0 11f5 2cc0 73fe 1dc1
000003f0: fda8 acc0 98c6 1fc1 18ef 19c1 db8d fbc0

bn4.weight f4 [256]
-3.5345023 0.3250701 -0.19033462 3.3933973 -0.9519792 -9.017805 -0.9564022 3.0049596
0.73380995 0.28581008 2.718447 -1.5753284 -0.06755784 2.928466 0.9858785 -0.76644206
-0.6474053 0.10734791 -0.6167921 0.6406228 5.8342404 0.060134683 -0.8093657 3.125123
-0.4858863 0.4753792 1.2370344 0.63708466 0.0067963614 -0.025073368 -2.1854563 -0.58428854
-1.3054911 2.0563502 -2.0223823 -0.37858286 -1.6064395 -1.1547043 -0.21230125 -1.2059073
-1.4130534 -0.57045555 1.7067531 1.612833 0.079586536 0.05206333 0.737185 -0.7106499
0.29010203 2.6666467 -1.292812 -0.48201522 -1.9134214 0.563165 3.177582 -0.55038214
-1.5333296 2.637461 0.0313182 2.841399 1.6560359 0.36196056 1.2434344 -0.15678243
-0.24255143 0.5244586 4.890794 -0.37064466 0.20194295 1.7304208 0.105130926 -1.4997205
2.2893133 1.6020473 1.9513407 2.833588 -1.6706393 5.282177 0.41198274 -1.7228893
0.5714856 -1.6816497 -0.025628403 -0.29144692 0.130772 0.01078806 3.7246625 0.3585036
0.09090526 1.3616179 0.243515 -0.09611692 -0.9858501 -0.35923383 -1.2314955 -0.20948781
5.415478 2.6488955 0.18712264 0.36160177 -3.583515 2.3289943 1.0543904 -0.71543306
-1.3564706 -3.7577405 2.8852925 0.3527124 -0.6918094 -1.2374443 0.91879046 -0.031227462
0.81839085 0.08374091 1.6758225 0.18002479 0.40490705 0.53695446 0.8285018 -0.49638867
0.6254879 0.40257436 -0.67242146 0.2652051 -0.29220295 2.0271204 0.73420656 -1.4664217
-1.6677624 0.8326936 -0.8539633 5.990164 0.79134154 -2.4391878 0.10831892 -0.930826
2.0747185 -3.1760247 -0.057639282 -1.9114097 -2.3859272 2.5711153 -0.5483354 6.16099
-0.58853304 -0.5010712 2.1508753 -1.7329587 -0.9837589 -0.15178119 1.2018914 -0.54304826
1.1999816 0.83077276 0.24268527 -0.2661386 0.8526513 -0.1429341 0.4908072 0.39785603
-0.3391776 -4.016223 -0.46863708 -3.5657256 -0.23363778 -0.66589946 0.80452794 -0.09130028
-0.18012537 -2.0909963 -0.6935255 -0.7595758 0.42379242 1.552003 1.8917475 0.17807116
-1.0149931 0.61475205 -0.3452707 -0.34345606 -1.982893 -2.5561197 -0.1610269 3.786498
3.7135558 -2.2872493 0.81817544 -0.79784644 0.082810014 2.0713058 3.5006394 -0.15931475
3.046992 -0.688644 -2.330876 -0.5904823 -3.4520712 1.059621 -0.47737625 -0.6384098
-0.25537783 0.8043886 -2.880367 -0.11688234 1.0936359 0.78565663 -4.5937753 -1.1089436
-0.19266905 -4.0543466 -0.15200064 0.04126139 -2.6918626 2.4640625 0.16305178 4.559688
-0.3033208 2.969906 3.3373501 0.5850409 0.5788847 -0.706439 -3.0722127 1.4075944
0.30265462 -2.509648 -1.0000727 -0.3301514 -0.30525872 -1.6276876 3.9668303 -1.6173081
-0.91745406 -0.7666749 4.427246 0.15911649 0.19206364 -5.1812487 1.0201052 -4.5038695
4.673485 1.8998264 0.6459696 0.9974437 -3.6406004 -0.10175656 -2.4645753 -2.0690105
-2.1688015 0.028293917 -3.2420437 0.022918304 1.2821699 -0.48516613 0.75536054 -1.1943276
00000000: 4935 62c0 976f a63e 14e7 42be 6c2d 5940
00000010: e9b4 73bf ee48 10c1 c6d6 74bf 4251 4040
00000020: f8da 3b3f b355 923e 09fb 2d40 5ca4 c9bf
00000030: c45b 8abd fd6b 3b40 8962 7c3f 8c35 44bf
00000040: 5bbc 25bf 39d9 db3d 16e6 1dbf dbff 233f
00000050: 19b2 ba40 c94f 763d 9732 4fbf 0402 4840
00000060: 17c6 f8be e764 f33e 2557 9e3f fb17 233f
00000070: 03b4 de3b aa66 cdbc 84de 0bc0 ef93 15bf
00000080: 551a a7bf 3e9b 0340 b66e 01c0 9dd5 c1be
00000090: cf9f cdbf 5acd 93bf 8065 59be 2c5b 9abf
000000a0: efde b4bf 6009 12bf e376 da3f 5071 ce3f
000000b0: 44fe a23d 5c40 553d 28b8 3c3f 27ed 35bf
000000c0: 4188 943e 57aa 2a40 dd7a a5bf b3ca f6be
000000d0: feea f4bf 952b 103f 815d 4b40 d8e5 0cbf
000000e0: 2544 c4bf 29cc 2840 8347 003d 7bd9 3540
000000f0: fcf8 d33f e552 b93e dc28 9f3f 938b 20be
00000100: 675f 78be eb42 063f 6281 9c40 23c5 bdbe
00000110: 22ca 4e3e 6e7e dd3f e24e d73d d7f6 bfbf
00000120: 1c84 1240 e30f cd3f 88c5 f93f 8159 3540
00000130: 82d7 d5bf 9807 a940 67ef d23e a387 dcbf
00000140: e14c 123f 4c40 d7bf a8f2 d1bc 8838 95be
00000150: 18e9 053e 67c0 303c df60 6e40 c98d b73e
00000160: 892c ba3d 7f49 ae3f ff5b 793e f3d8 c4bd
00000170: ac60 7cbf 7fed b7be a5a1 9dbf f983 56be
00000180: 994b ad40 8187 2940 149d 3f3e de23 b93e
00000190: 4f58 65c0 3e0e 1540 44f6 863f 9f26 37bf
000001a0: d4a0 adbf d27e 70c0 a2a8 3840 b896 b43e
000001b0: 6c1a 31bf 9364 9ebf da35 6b3f bcd0 ffbc
000001c0: 1082 513f 5b80 ab3d 5a81 d63f 6b58 383e
000001d0: fa4f cf3e d975 093f b218 543f a826 febe
000001e0: fa1f 203f 3a1e ce3e d023 2cbf f6c8 873e
000001f0: a09b 95be 57bc 0140 f6f4 3b3f b5b3 bbbf
00000200: 3d79 d5bf 682b 553f 579d 5abf 6caf bf40
00000210: 5c95 4a3f a71b 1cc0 4fd6 dd3d 9d4a 6ebf
00000220: 30c8 0440 fd43 4bc0 2b17 6cbd 13a9 f4bf
00000230: 08b3 18c0 278d 2440 b55f 0cbf d526 c540
00000240: 1aaa 16bf 3446 00bf f1a7 0940 97d1 ddbf
00000250: a0d7 7bbf 876c 1bbe 94d7 993f 3605 0bbf
00000260: ff98 993f 86ad 543f 7d82 783e 5243 88be
00000270: 5b47 5a3f 515d 12be 154b fb3e c9b3 cb3e
00000280: b0a8 adbe e684 80c0 33f1 efbe d934 64c0
00000290: be3e 6fbe 6378 2abf 8bf5 4d3f a4fb babd
000002a0: c972 38be e2d2 05c0 e38a 31bf 8f73 42bf
000002b0: 52fb d83e 09a8 c63f c824 f23f 4958 363e
000002c0: 4beb 81bf 6460 1d3f 52c7 b0be 79d9 afbe
000002d0: 70cf fdbf 7797 23c0 3ce4 24be fc55 7240
000002e0: e6aa 6d40 4b62 12c0 f273 513f aa3f 4cbf
000002f0: 4c98 a93d 4690 0440 7a0a 6040 6823 23be
00000300: eb01 4340 f94a 30bf 132d 15c0 d929 17bf
00000310: bcee 5cc0 a9a1 873f a96a f4be d36e 23bf
00000320: e2c0 82be 69ec 4d3f ef57 38c0 0260 efbd
00000330: 43fc 8b3f cb20 493f 3500 93c0 ddf1 8dbf
00000340: 094b 45be 35bd 81c0 0ea6 1bbe b401 293d
00000350: 7a47 2cc0 33b3 1d40 0cf7 263e f7e8 9140
00000360: dd4c 9bbe f112 3e40 2597 5540 3ec5 153f
00000370: ca31 143f 30d9 34bf 229f 44c0 0e2c b43f
00000380: 8cf5 9a3e 139e 20c0 6202 80bf 9b09 a9be
00000390: df4a 9cbe 1158 d0bf 8ce0 7d40 f403 cfbf
000003a0: 45de 6abf ce44 44bf 00ac 8d40 6fef 223e
000003b0: 55ac 443e cacc a5c0 cf92 823f b31f 90c0
000003c0: 308d 9540 832d f33f 445e 253f 7858 7f3f
000003d0: 99ff 68c0 be65 d0bd 9abb 1dc0 ab6a 04c0
000003e0: a5cd 0ac0 a5c8 e73c a57d 4fc0 2bbf bb3c
000003f0: 251e a43f b267 f8be 4f5f 413f badf 98bf
