mini_batch_exp/models/mnist_sgd_batch16384_lr0.1.pt (torch_old, 326372 bytes, 26 tensors)

conv1.weight f4 [16, 1, 3, 3]
00000000: 0f98 783e 91cc debd 7101 8b3e b702 9f3e
00000010: d9e6 3d3e c686 ccbd 6198 a23e 5a36 97be
00000020: 3d26 19bd 1a58 30be 651d eabd 97ba 333e
00000030: 3c67 7f3e d9a8 49bb 1627 4fbd 4c4a 493e
00000040: bd48 893e 1e22 633e 58bd 51bc 8dad 873e
00000050: c29a 17be de16 5dbe 89db a83e 213f 6d3e
00000060: e069 be3d cf9b 02be 7ebb 3d3e c085 783e
00000070: 83e8 7c3e 1500 2e3e 5436 aabe 9b49 11be
00000080: c26d 49bd 5aec 8e3d d38a d8bd cf94 c2bd
00000090: 2c67 ad3e fd90 fabd 7878 a0be 7fd0 953e
000000a0: 3939 563e 3b38 a9be e31a 9abd 7ff0 9abe
000000b0: 8124 223e b654 973d e324 20bd cd52 59be
000000c0: 8231 98be 2200 10bd f00b 343d 0672 5e3e
000000d0: 59e9 1a3e 6072 703d 62ef 46be 049d 86bd
000000e0: c7ce 1cbe 5a90 ef3d 8dbb 79be 255b 183e
000000f0: dd62 4abe 35fd 963e 9bad a03e 6b2b 96bb
00000100: a8ba 98be c02a 51bd 2686 773e 9020 0f3e
00000110: a3e4 c2bc 78d5 103e 9761 113e 34bc dcbd
00000120: 4dce 8fbe 896b 96be 4b27 173e 10ce cabd
00000130: 82ec a03e 1667 9ebe 6883 743d f7b6 b23e
00000140: 393d 89be 6bb2 583e c3a8 57be a3f1 c4bd
00000150: 83a3 2abd e852 923e 1887 6e3c c0fe 843e
00000160: c956 43be bf8e d9bd 5386 a13e 4f3b 1bbe
00000170: e374 5bbe 2216 423e 25ea 42be 8bd3 1b3d
00000180: 5b8d 34be 03d4 4d3e c610 39be 9afc 0cbd
00000190: 9d34 343e 66ae 7b3e 20be 6bbe d201 383e
000001a0: 6612 6abc 8a73 5e3e 0879 7c3d 3a2c 9bbe
000001b0: 452d a1bd aa8b 6cbe fce3 66be c18d 22be
000001c0: c7a9 83bd a549 e2bd b6cf 5dbd fdb4 b6bd
000001d0: 2361 dfbd e5c3 b03d d26e 883e f666 113d
000001e0: ebcd 84be e1d4 cabd 3118 163e 1f8b 553c
000001f0: 9cd4 433d 16dc dd3d f4d3 373e b0f2 81be
00000200: 5e3e ff3d a469 3bbe 3541 0abe f966 09be
00000210: 905a 3cbe 6e63 afbd a096 933e 67cf 7a3e
00000220: ea2f 173e 4d84 ad3e b9c5 edbd 6409 7ebe
00000230: 7539 95be 44cb 84be 3551 073e 6de9 a0be
0.24276756 -0.10878862 0.27149537 0.3105676 0.18545093 -0.099866435 0.3175688 -0.29533654
-0.037389982 -0.17221108 -0.11431388 0.17551647 0.24941725 -0.0030770807 -0.050574385 0.19657248
0.26813307 0.22180983 -0.012801491 0.26499596 -0.14805129 -0.21590754 0.32979992 0.23168613
0.09297538 -0.12754749 0.18528554 0.24269772 0.24698071 0.16992219 -0.33244574 -0.14188235
-0.04917694 0.06978674 -0.105733536 -0.09501039 0.33867776 -0.122346856 -0.3134191 0.29260632
0.20920266 -0.33050713 -0.075246595 -0.3026161 0.15834238 0.07389204 -0.039097678 -0.21222992
-0.2972527 -0.035156377 0.043956697 0.21723184 0.15128078 0.058702826 -0.19427255 -0.06572917
-0.15313254 0.11697455 -0.24387951 0.14878519 -0.19764276 0.29490057 0.3138245 -0.0045828125
-0.29829907 -0.05106616 0.24172267 0.13977265 -0.023790663 0.14143932 0.14197384 -0.107780844
-0.28087083 -0.29378918 0.14761083 -0.099025846 0.3143044 -0.30938023 0.05969563 0.34905216
-0.26804522 0.21161811 -0.21060471 -0.09616401 -0.041659843 0.28578877 0.014558576 0.2597561
-0.19076075 -0.1062293 0.31547794 -0.15159343 -0.21431307 0.18953755 -0.19034632 0.03804354
-0.17632048 0.20100407 -0.18072805 -0.034420587 0.17598195 0.24578246 -0.23021746 0.17969444
-0.014286613 0.21723762 0.061638862 -0.3030718 -0.078699626 -0.23100153 -0.22547907 -0.15874387
-0.06428867 -0.11049203 -0.054153167 -0.089212395 -0.10907199 0.08631114 0.2664705 0.03549858
-0.25938353 -0.09903885 0.14657666 0.013033657 0.047810182 0.10832994 0.17951947 -0.25380468
0.124630675 -0.18302017 -0.13501437 -0.13418187 -0.18393922 -0.085638866 0.28825855 0.2449318
0.14764372 0.3389 -0.11609978 -0.2480827 -0.291454 -0.2593633 0.13214572 -0.3142809

conv1.bias f4 [16]
00000000: 56f6 d43d 6d75 7bbe bfdb ecbd 1a12 523e
00000010: 0b53 83be 57aa c1bd 89d1 2e3d fd5f 863c
00000020: 1e6b eb3d 50ba 60be 0d2b 07bd c88b 7d3d
00000030: 06c7 a9be 38b4 87be 236e 333e d0d3 b3bd
0.10398547 -0.24556513 -0.11565351 0.20514718 -0.25649294 -0.09456318 0.042680297 0.016403193
0.1149504 -0.21946073 -0.03300004 0.061900884 -0.33159655 -0.26504683 0.17522483 -0.087806344

bn1.weight f4 [16]
00000000: 20c5 7f3f 56e7 813f bd5e 803f 1c13 833f
00000010: 7dfd 7e3f b327 813f d8bb 7e3f c3df 813f
00000020: 472b 763f 9ea4 7d3f d0bc 7e3f 0760 7e3f
00000030: 0341 7d3f 334f 813f e1e9 793f 0445 833f
0.99910164 1.0148723 1.0028912 1.0240207 0.9960554 1.009024 0.99505377 1.0146412
0.96159786 0.9907931 0.99506855 0.99365276 0.98927325 1.0102295 0.97622496 1.0255437

bn1.bias f4 [16]
00000000: 4cc4 da3a 6c86 c33a 2d52 9abb f487 0dbc
00000010: eae3 593b 39c1 353c 5a56 30bb 8a60 dd3b
00000020: 5f65 e7b9 002d cfbb 8e0d 9e3b 0232 0b3b
00000030: ff99 dc3a 8a2a ac3a cfd0 53bb 96de 3d3b
0.0016690581 0.001491738 -0.004709503 -0.008638371 0.003324742 0.011093431 -0.0026906938 0.006755893
-0.0004413528 -0.006322503 0.004823393 0.0021239524 0.0016830562 0.0013135236 -0.0032320505 0.0028971783

bn1.running_mean f4 [16]
00000000: b2ba 4142 fcf4 3642 c4da 1042 03c5 5441
00000010: c2de 8741 3b7b 1a41 9ab4 9941 c5ea 9541
00000020: 9d4f c740 c5c5 7641 7739 1441 878a c741
00000030: c1dd d70a 9e63 b641 a83b dd40 f5f9 3841
48.43232 45.739243 36.21364 13.298099 16.983768 9.655086 19.213184 18.739634
6.2284684 15.423284 9.2640295 24.94264 2.0787161e-32 22.798641 6.9135323 11.561025

bn1.running_var f4 [16]
00000000: 130b bf45 a1eb a445 a58d 5545 11f5 6144
00000010: 5edb ab44 1374 ef43 cd2d c144 4ab1 9e44
00000020: a29f 9143 db15 4644 a4c9 0544 530c e844
00000030: dd99 de11 3b80 a644 da20 5f43 d23c 7244
6113.3843 5277.4536 3416.8528 903.82916 1374.8552 478.90683 1545.4313 1269.5403
291.24713 792.3415 535.15063 1856.3851 3.512025e-28 1332.0072 223.12833 968.9503

conv2.weight f4 [32, 16, 4, 4]
00000000: 5970 423c 219b 463d e1bd 363d 6cd5 853c
00000010: b1ed 453d b223 2bbd 8499 763d 6fd1 193c
00000020: e846 643c 0846 373d e617 623c e342 953c
00000030: 063e 80bd c2c8 833d 1213 00bd b9ef 5abd
00000040: 5614 20bd ad88 103c 83ef 273d da1c 79bd
00000050: 62cd 03bd a95a ee3c e065 7abb f296 0bbd
00000060: bb0e 19bd 856b 95b9 9d89 70bd 825c 81bd
00000070: db14 08bd 1e71 4bbd e155 973c ab96 12bd
00000080: 758a 6ebd 839a 3b3d 43b1 44bd 36d2 88bd
00000090: 49a4 e2bb 4d0a fdbb c3bf 5f3d 2ee9 143d
000000a0: 3544 2cbd bbab 2dbd 085f 31bc e60a c1bc
000000b0: c1e2 313c 66cb 813d 5dfa e8bb 5f23 04bd
000000c0: 67c5 3e3d dbc9 4ebd ecce 97ba 1cfd 123d
000000d0: 2866 a5bc a489 b2bb 9fa0 02bb bc71 733c
000000e0: 6a6b 76bd 8c98 ae3c 9321 8bbd 5fae 69bd
000000f0: 5434 84bd 7b4b 283d 962e 4bbd e4ce e6bb
00000100: 39a1 9ebc 9943 3b3d 96aa 75bd f87f f8bc
00000110: 3c6b 58bd b680 adbb de75 583c 9e05 473d
00000120: 7d8f b33c 7b5a 07bc 53ae 1fbd 5a30 813b
00000130: d8ff e53c 34b2 1abd 6e74 073d 284b 25bb
00000140: b4ec 98bc b866 91ba a899 80bc c92a 89bd
00000150: 1866 48bc 62f2 a53c 196b 39bd 1584 fabc
00000160: 6cfa 1f3d 8f12 dc3c 8f1f 033d 8e4e 053d
00000170: 9245 5a3d 005d 563d 79b8 18bd 1592 88bd
00000180: 9e84 41bd de86 89bc 70b9 fcbc 1a1d 81bc
00000190: e346 4dbc 2148 89bd c4a6 5b3c f86c 66bd
000001a0: 0cab 373d baef 18bc a1f9 c73b dc67 433d
000001b0: b7f9 3ebd 9891 9239 e5b1 103d 3415 34bc
000001c0: 7f45 1ebd 80c2 84bc 27ca bc3c dc99 973c
000001d0: f6e0 dd3c 6bca a83b 3c70 07bd 08f7 283d
000001e0: 4689 24bd ef71 143c 5c38 bd3c 5a88 b53c
000001f0: addc 2f3d 6d91 38bd f2d2 b53c 3d1e 6fbd
00000200: d0e6 59bd eedd b4bc 6e28 7fbd e4f8 123c
00000210: dd2c f9bc e407 8dbc 47a1 ff39 1b56 df3c
00000220: 4f00 eb3c d3a3 ca3c 767b 93bd f20b f43c
00000230: bd64 f33c 64a3 343c 8518 44bc d047 30bd
00000240: f3d9 12bd 50e3 453c cdb0 993c c695 34bb
00000250: 72c2 1a3d efd8 433c 7a2c 30bc dde7 3d3d
00000260: c5fd df3c 1562 653c 2b74 86bd 0f93 0dbd
00000270: a1d5 213c 7475 453d aa97 61bd 6b6f 25bd
00000280: fa53 56bd f115 6bbd d665 34bd 0a81 723a
00000290: 09b0 413c 0574 503c 63d6 853c cd28 f53c
000002a0: 4129 6d3d e980 f1bc a0bc 4a3d d0d9 103d
000002b0: 8e79 eb3c 5787 723d d319 223d 3227 83bc
000002c0: 13ab be3c db3e c93c 7fe6 6a3d 9c94 3eb9
000002d0: 5205 243d 2b85 2abd f073 25bd f40d c4bc
000002e0: e829 b23b b443 30bd e8e1 483c d7d0 b8bc
000002f0: db5f 823d bfa5 6cbd 193d b6bc 2218 6cbc
00000300: 781c 603d 57fa d53c d601 673d 5331 883c
00000310: b270 49bb ffdb 58bd 2f84 88bc 2175 c43c
00000320: d6c7 593d 66af 1c3d f6f9 1cbd 05b4 853c
00000330: 61f1 663c e2a5 573c 4749 5a3b fd7d 0a3d
00000340: 2952 a7bb f759 33bd 4005 5a3c d87c 8ebb
00000350: ecc3 cfbb 0422 a0bb 43bc 763c fce6 8bbd
00000360: 0cd0 42bd d1dc 20bd 952d 883a 25f3 bc3c
00000370: e6ef 6c3d 0fc1 843c ffff 0cbc 59d4 6bbd
00000380: 7bdb 8cbb 65c9 08bd 1925 a2bc 1931 a13c
00000390: 7d00 acbc 7459 213d a180 4cbc c095 e1bc
000003a0: a7b5 7ebc 9a68 25bd 6eaa 22bd d52f 41bd
000003b0: 0395 033d 60d1 d63b 7f46 283d 0022 3a3d
000003c0: 9130 58bd 51f2 33bd 4458 5fba 99f4 bbbc
000003d0: a05a 4abd a39b a2bb b586 d73c 47c1 c0bc
000003e0: 1c67 28bd e313 a5bb 8a8b b0bc fcc4 9ebc
000003f0: fd96 99bd 47ef 653a 05e8 85bd 61de 61bd
0.011867606 0.048487786 0.044614676 0.016337119 0.048322383 -0.04178209 0.060204998 0.009388312
0.013932921 0.04474452 0.013799643 0.01822037 -0.0626183 0.06434776 -0.031268187 -0.053451274
-0.039081894 0.008821649 0.0409999 -0.06081853 -0.03217829 0.029095965 -0.0038207695 -0.0340795
-0.037367564 -0.00028499603 -0.05872499 -0.063164726 -0.033223014 -0.049668424 0.018473567 -0.03578822
-0.05823751 0.04580165 -0.048020612 -0.066807196 -0.006916557 -0.007722175 0.054626238 0.03635519
-0.042057235 -0.042400103 -0.01082588 -0.023564767 0.010857285 0.06337623 -0.0071099238 -0.032260295
0.046574976 -0.050485473 -0.0011582053 0.035885915 -0.020190313 -0.005448537 -0.0019932163 0.014858659
-0.06016103 0.021312974 -0.06793513 -0.05705106 -0.06455293 0.04108761 -0.049604975 -0.0070437063
-0.019363986 0.045718763 -0.059977137 -0.030334458 -0.05283664 -0.0052948846 0.0132116955 0.04858934
0.021919006 -0.008261318 -0.038984608 0.0039425315 0.028076097 -0.037767604 0.03307002 -0.0025221799
-0.018667556 -0.0011093235 -0.015698269 -0.06697614 -0.012231372 0.020257179 -0.045268152 -0.03058056
0.03905718 0.026864318 0.03201252 0.03254562 0.053289004 0.052334785 -0.0372853 -0.06668488
-0.047245614 -0.016787942 -0.030850142 -0.015760947 -0.012529108 -0.067032106 0.013406459 -0.056256264
0.044840857 -0.009334499 0.006102756 0.04770647 -0.046624865 0.00027955766 0.035325903 -0.010991383
-0.038640495 -0.016206026 0.023045612 0.018505983 0.027084809 0.005151083 -0.03306602 0.041251212
-0.040169977 0.009060367 0.023098163 0.022159744 0.042935062 -0.045060564 0.022195313 -0.058378447
-0.053198636 -0.02207848 -0.062294416 0.008970473 -0.0304169 -0.017215677 0.0004875755 0.027262738
0.02868667 0.02473632 -0.07201283 0.029790852 0.029711122 0.0110252835 -0.011968737 -0.043037236
-0.035852384 0.012078121 0.018761063 -0.0027555092 0.037783094 0.0119535765 -0.010752792 0.0463637
0.027342686 0.014000435 -0.06565126 -0.034564074 0.009877593 0.048207715 -0.05507628 -0.04038946
-0.05232618 -0.05739397 -0.04404243 0.00092507957 0.011821755 0.012722974 0.01633758 0.029926682
0.05790067 -0.029480414 0.049496293 0.035363972 0.028744485 0.0592111 0.03957541 -0.0160099
0.023274934 0.024566105 0.057348724 -0.00018175173 0.040044136 -0.041630905 -0.04039377 -0.023932435
0.0054371245 -0.043033317 0.0122608915 -0.02256052 0.06365939 -0.057775255 -0.02224593 -0.014410051
0.05471465 0.026120348 0.056398235 0.016625082 -0.0030737338 -0.05294418 -0.016664593 0.023981633
0.053169094 0.03825321 -0.03832432 0.016321192 0.014095635 0.013162108 0.0033307837 0.033811558
-0.00510623 -0.04378697 0.013306916 -0.0043483786 -0.0063404944 -0.0048868675 0.0150595335 -0.06831166
-0.04756169 -0.039273087 0.0010389561 0.02306516 0.057845972 0.016205339 -0.008605956 -0.057575557
-0.004298625 -0.03339519 -0.01979308 0.019676732 -0.020996327 0.03939195 -0.012481839 -0.027537227
-0.015546239 -0.04038296 -0.039713316 -0.047164757 0.03212453 0.006555721 0.041082855 0.04544258
-0.05278069 -0.043932263 -0.00085199275 -0.022943782 -0.049402833 -0.004962401 0.02630935 -0.023529662
-0.041113958 -0.005037771 -0.021550912 -0.019381039 -0.07499502 0.0008771312 -0.06538395 -0.055143718

conv2.bias f4 [32]
00000000: 67d3 3a3d d0d5 67bc e697 0ebb fd3f 65bd
00000010: 6759 8dbc 5767 3f3d 2346 183d ab86 353d
00000020: 6a79 5abd 4c79 1c3d acb1 7fbd e399 d83c
00000030: 8f98 533d aaf0 2f3c 9580 25bd 1e56 473c
00000040: d8ae 71bd 2eaa 75bd d77d 8dbd 1890 c03c
00000050: b689 09bd f113 653d cb03 afbc 58f9 15bd
00000060: 7f5c 2ebc d8af 67bb 7fcc 423d 219d f1bc
00000070: 73d0 353d 676e c2bc 27cf d73c 474a 193d
0.045611765 -0.014150098 -0.002175802 -0.055969227 -0.017254544 0.046729412 0.037176263 0.044317883
-0.053338446 0.038201615 -0.0624253 0.026440566 0.051659163 0.010738531 -0.04040583 0.012166528
-0.059004635 -0.05997675 -0.06908768 0.02350621 -0.033578597 0.05592722 -0.021364113 -0.036614746
-0.01064217 -0.0035352614 0.047558304 -0.02949387 0.044388246 -0.023734285 0.026343895 0.037424352

bn2.weight f4 [32]
00000000: 4c83 7f3f cf49 803f 871a 813f 3e8d 7e3f
00000010: c758 7f3f 3bd4 7e3f 2a47 7e3f 6553 7e3f
00000020: fada 7b3f 97d3 7f3f 7c27 7f3f 267a 823f
00000030: 2d46 803f bfc2 813f fbc1 7d3f f273 803f
00000040: 489c 803f 81ab 7f3f 2bbd 7f3f 68e6 813f
00000050: d709 803f b922 803f 21b9 7f3f 6fc5 7b3f
00000060: 79ae 7d3f c97b 7e3f 4ea1 803f 02db 7c3f
00000070: 5770 7f3f e5cd 813f 632d 823f 2071 7f3f
0.9980972 1.0022525 1.008622 0.9943427 0.9974484 0.9954259 0.9932734 0.99346
0.98381007 0.99932235 0.99669623 1.0193527 1.0021416 1.0137557 0.99124116 1.0035384
1.0047693 0.9987107 0.9989802 1.014844 1.0003003 1.0010597 0.9989186 0.98348135
0.9909435 0.9940763 1.0049226 0.9877168 0.9978079 1.0140959 1.0170101 0.9978199

bn2.bias f4 [32]
00000000: 16dc 573b 41a5 cbba 6c5c 133b 2f3f e03a
00000010: 4fcd 26bb 4f0a 613b 3ad3 e53a 78b9 4ebb
00000020: 09ea fcb9 cba1 df3b a32c fa3a d3c0 523a
00000030: 6b27 bab9 932b fdba a1d5 2039 b0d0 003b
00000040: 5247 9d39 e5a4 f537 fb59 4cb7 479f d93a
00000050: 3109 1fba 7b00 473a d25b 053b 0c59 c13a
00000060: 98dd 023b 9028 63ba 4482 91ba fca1 1f3a
00000070: d425 11b9 d78e 0e3b 105e 17b8 2828 f0ba
0.0032937578 -0.001553692 0.0022485508 0.0017108674 -0.0025451963 0.003433842 0.0017534264 -0.0031543653
-0.00048239555 0.006824707 0.0019086789 0.00080395973 -0.00035506053 -0.0019315354 0.00015338372 0.0019655637
0.0002999851 2.9283061e-05 -1.2180298e-05 0.0016603254 -0.0006066738 0.0007591319 0.0020348919 0.001475127
0.0019968506 -0.0008665407 -0.0011101444 0.0006089506 -0.0001384237 0.002175262 -3.6088808e-05 -0.0018322514

bn2.running_mean f4 [32]
00000000: 5af1 d23e 5d14 683f 7ae4 433f 6fae dd3e
00000010: fad6 3c3f a673 5f3f 05ca 563f 99ec 793f
00000020: 2431 223f 7ecf e23e d7cc c13e bb01 d93e
00000030: ac01 383f 2a8b 283f d77b 533f f7aa 1e3f
00000040: 2607 d73e 3f31 2f3f d16e 0a3f f214 2e3f
00000050: b96c e53e f3ed 8c3f a008 4c3f afa6 043f
00000060: 27ee e73e 0657 0b3f eed9 453f 8423 303f
00000070: de73 ca3e ed30 f73e 4db2 043f f683 293f
0.41199762 0.9065607 0.765205 0.43297145 0.7376553 0.8728584 0.8390201 0.97626644
0.6335623 0.4429893 0.37851593 0.42384133 0.7187755 0.6583735 0.8261084 0.6197962
0.4199764 0.6843452 0.5407534 0.6800071 0.4480951 1.1010116 0.7970066 0.5181684
0.45298883 0.5442966 0.7728566 0.6880419 0.39541525 0.48279515 0.51834565 0.6621698

bn2.running_var f4 [32]
00000000: 2f8b 473e effc 3f3f 4a36 2e3f 0b14 5e3e
00000010: 3008 cc3e 04d5 233f 1079 253f 1ff6 343f
00000020: 3ff6 ab3e b986 4e3e e7db 5b3e 7d6f 453e
00000030: 0549 ce3e df13 fd3e 8582 cb3e 57bf 033f
00000040: 9c57 893e 80e3 bd3e 397e c13e d9ed fd3e
00000050: 6b0c 8d3e a688 503f 7f2e 0a3f 97f0 553e
00000060: 5faf 683e 98bb aa3e dc1c b73e 39f0 df3e
00000070: 48e0 0f3e fae0 af3e ce37 5c3e a78b b13e
0.19486688 0.7499532 0.6805159 0.21687333 0.39849997 0.6399691 0.6463785 0.7068805
0.33586308 0.2016858 0.21470605 0.1928081 0.40290084 0.49429223 0.39748016 0.51463836
0.26824653 0.3708763 0.37791613 0.49595526 0.27548537 0.8145851 0.539772 0.20892559
0.22723149 0.33346248 0.35764205 0.43737963 0.140504 0.3435133 0.21505663 0.3467686

conv3.weight f4 [64, 32, 5, 5]
00000000: 3345 f2bb 75ac 9abc 2d66 14bd ac35 16bb
00000010: 6c7f 72bc 05e0 fdba ccf0 fc3c 31a8 003d
00000020: f466 dbbc 65e2 353c 087d f43c 8182 273c
00000030: 017c 1a3d c030 e1bc c334 9b3c f38b 1c3c
00000040: d233 993c f36b e13b 6c7c 6d3c 1edc d23b
00000050: 7e59 ffbc eb21 c23c ded7 0bbd d1e0 e93c
00000060: 032c babb 327b e13c 699a aebc 74d7 5ebc
00000070: d3e1 073d 6330 88b8 5518 b13c 03e8 edbc
00000080: eb71 eebc bfac 2e3c a427 9cbc 142a ff3c
00000090: 2727 693c 109a df3c 87cb b03c 1f97 d43c
000000a0: da2b d7bc fe44 f2bc 7b64 adbc f4a2 b1bb
000000b0: cdc8 dbbc 1cdb 82bc 4645 603c 25b7 dfbc
000000c0: d70c c7bc d3db dfbc d78e c9bb c7db 2cbc
000000d0: 9f8c 2c3c e88c 36bc 6d90 383c 79d1 93bc
000000e0: 1011 fcbc 9700 b8bc 76fd 2ebc fea3 263c
000000f0: 67e8 36bc 8330 febb 67ae debc a1cc 90bc
00000100: 9c84 523c b92c 513b ff8a c13c 2d8a adbc
00000110: 140c 3b3c 36b4 a6bc 8aa8 093d 56ff c7bc
00000120: b47e dfbc f47e bc3c cef9 8fbc 8e50 f63c
00000130: e115 82bc 9519 ce3c 5c28 dbba 007d 1d3d
00000140: 441d edbc 6960 ab3a 0798 18bc b4fc 8cbc
00000150: 4a9c 273a 205b c5bc 1a4d ad3c dbd0 803c
00000160: cf21 cbbc 6c2b 1f3c 6df4 89ba 6ba1 07bc
00000170: c481 5bbc b6a7 d5bc e69a e43a 0ae5 03bd
00000180: 6daa 49bb 0064 f43b 5ca8 62bc e8fe e13b
00000190: 842d f9ba 25f2 fa3b 0384 d7bc 736a 70bc
000001a0: fb06 23bd 6cc1 49bc a8a8 a8bc 1378 193d
000001b0: 7b99 943b 9673 493c a79c b13a d61c a93c
000001c0: 39f3 263d 5ce9 853c 180e 9b3b 7b8b 343a
000001d0: 66c6 163d 2008 edbc 6b38 503c 49d4 863c
000001e0: f2f1 6cbc b790 493c f852 f83c c1c4 86bc
000001f0: a78a f6bc 7675 89bc 944b 443b 38b1 873b
00000200: 3d1d 34bc a112 1abc 314b df3a ad00 063d
00000210: 9dc7 303c 5941 0b3c 5b0a c83c 2c29 513c
00000220: 85e4 6d3c 9845 c9ba 7cf4 80bc 170c f7bc
00000230: 48da dcbb 07c5 b4bc 7418 d8bc b95b 11bd
00000240: a811 cd39 ed34 78bb dd94 a3ba 0ca2 cfbc
00000250: dbcf 853b 6eb5 d8bc 5144 0d3c fcde 66bc
00000260: b8ba c9bc 9f44 cabc 3cc6 39bc 96ee 713c
00000270: 18ce 52bc e3cc 7e3c 9540 753b 6671 c338
00000280: b84e d6bc ce0c 863b a43f 483c 5f0d 2fbb
00000290: da41 ab3c d8e8 89bb a75d f2bc aea6 ca3c
000002a0: 0645 d43b 6114 0bbc 35f9 83bc 58cf dbbb
000002b0: 1b6b 61bb fa7c d03c 584a 9a3c 1d63 303c
000002c0: c93f 32bc fbf2 923c e7d9 fc3c b0e9 f1bc
000002d0: 6f18 2c3c b220 00bd b672 343c aa2d 0b3c
000002e0: 2c36 263a fae6 733a 27b0 b7ba 5042 48bc
000002f0: 5063 59bc e5fe 033a e081 873c 9e08 f0bc
00000300: af24 36bb 5a10 a5bc 4ff8 d13b 2df4 d03a
00000310: 9fc2 d73c 106b ac3b 9bde 3d3b b7f5 373c
00000320: 0aaa 98bc d6d3 783c 36aa b2bc 3ec1 cdbc
00000330: 8bcb f53c 7e9a c7bc 547c bebc a9d4 bfbc
00000340: e5cf ddbc 7a8b fc3c 1fdb b73c 447a 39bc
00000350: 9b19 2ebc daf1 553c 3114 0fbd 4930 f3bb
00000360: 9e01 bd37 3004 20bb a548 203c 4186 ae3c
00000370: c4db cebc 1878 0d3c 67c5 afbc a994 96bc
00000380: 52aa 66bc 837e d4bb 385a f93c 7acc f2bc
00000390: 8373 a0bb e029 d3bb cd2c 0e3d fcf2 143d
000003a0: 6719 30b9 d877 8cbc f51e 5fbc 9d43 c83c
000003b0: 97d1 123c 70c4 4d3c 25f5 05bd 1738 5dbc
000003c0: b789 8f3c 409e b83c e1f0 27ba f6e2 cc3c
000003d0: f01f 5ebb 8c23 e6bc 4779 0d3d a7f3 c2bc
000003e0: 8a32 71bc 559f 06bd cd55 8abc 38e2 0dbd
000003f0: d0f6 d2bc 1903 843c d8fd 1f3c c030 e93c
-0.007393503 -0.018881062 -0.036230255 -0.0022920175 -0.014800888 -0.0019369131 0.03087654 0.0314104
-0.02678249 0.01110134 0.029844776 0.010223986 0.037715916 -0.027489066 0.018946057 0.009554851
0.018701468 0.0068793236 0.0144949965 0.0064349314 -0.031170603 0.023697814 -0.034141414 0.028549584
-0.005681516 0.027524564 -0.021313863 -0.013601173 0.033174347 -6.493998e-05 0.021618048 -0.029041296
-0.029107055 0.010661303 -0.01906187 0.031147994 0.014230526 0.027295142 0.021581424 0.025950966
-0.026266027 -0.029573914 -0.021166077 -0.005421037 -0.026829148 -0.01597362 0.013688391 -0.02730901
-0.024298115 -0.0273265 -0.006151061 -0.010550446 0.010531574 -0.011141993 0.011264903 -0.01804422
-0.030769855 -0.022461219 -0.010680547 0.010170935 -0.0111638075 -0.007757248 -0.02718277 -0.0176757
0.012848999 0.0031917526 0.023625849 -0.021184051 0.011416454 -0.020349603 0.033607997 -0.024413746
-0.027282096 0.023009755 -0.01757517 0.030067708 -0.015879573 0.025158683 -0.0016720402 0.038449287
-0.028944619 0.0013074997 -0.00931359 -0.017210342 0.00063938333 -0.024091303 0.021154929 0.01572459
-0.024796395 0.009714942 -0.0010525115 -0.008278231 -0.013397638 -0.026080947 0.0017441183 -0.03220085
-0.0030771748 0.00745821 -0.013834085 0.0068968423 -0.0019010757 0.0076582604 -0.026308065 -0.014673817
-0.03980158 -0.012314182 -0.020588234 0.037468027 0.004534898 0.012295624 0.0013550714 0.020643633
0.0407593 0.016346626 0.0047319047 0.0006887239 0.0368103 -0.028934538 0.012708764 0.016458647
-0.014461981 0.012302569 0.030313 -0.016451241 -0.030095411 -0.016779643 0.0029952275 0.004140999
-0.010993299 -0.009403856 0.0017035959 0.03271549 0.010789779 0.008499467 0.024419 0.012766164
0.014519815 -0.0015355824 -0.01574158 -0.030157132 -0.0067398883 -0.022066606 -0.026378848 -0.035487864
0.00039113802 -0.0037873343 -0.0012480278 -0.025345825 0.004083616 -0.0264537 0.008622245 -0.01409125
-0.024625167 -0.024690924 -0.011338767 0.014766356 -0.012866519 0.0155517785 0.0037422527 9.319447e-05
-0.026160583 0.004090882 0.012222204 -0.002671085 0.020905424 -0.0042086653 -0.029585673 0.024737682
0.006477955 -0.008488745 -0.016110042 -0.006708067 -0.0034396115 0.025450218 0.018834278 0.010765818
-0.010879465 0.017938128 0.030865623 -0.029530376 0.010503872 -0.03128118 0.011013677 0.008494774
0.00063404697 0.00093041325 -0.001401429 -0.012222841 -0.013268307 0.00050352357 0.016541421 -0.029300984
-0.0027792861 -0.020149399 0.0064077745 0.0015941911 0.02633792 0.0052617863 0.0028971795 0.011228017
-0.018635768 0.015187224 -0.021809679 -0.02511656 0.030004283 -0.02436566 -0.023252644 -0.023416834
-0.02707667 0.030828226 0.022443352 -0.011320654 -0.010626222 0.01305815 -0.034931365 -0.0074215275
2.2531309e-05 -0.0024416558 0.009782945 0.021304252 -0.025251277 0.00863459 -0.021456433 -0.018381434
-0.014078693 -0.006484808 0.030438527 -0.029638518 -0.0048965826 -0.006444201 0.034710694 0.03636454
-0.00016794131 -0.01714699 -0.013618221 0.024446303 0.008961103 0.012559041 -0.03270449 -0.013502142
0.017521722 0.022536397 -0.0006406438 0.025010567 -0.0033893548 -0.028093122 0.034539487 -0.023797823
-0.014721522 -0.032866795 -0.016886616 -0.034639567 -0.025752455 0.016114758 0.009765111 0.028465629

conv3.bias f4 [64]
00000000: 9c19 c4bc 9469 f23c a54c 9e3c 48fe 403a
00000010: 102c 0c3b 5a89 023d ba08 aebc 1f5c c73a
00000020: 712b 71bc 8f66 923c b198 50bc 1117 05bd
00000030: c786 933a 9944 683c 5dca 7e3b 2a7d d6bc
00000040: 0714 f03c 1c20 693c cb98 413c a774 91b9
00000050: 9f24 2e3c d379 783a 5697 033d 1c36 ebbc
00000060: b964 a53c a5a9 ae3c 299f bc3c 5622 03bc
00000070: 241f 0ebd e5ab b93c 60f5 813c 3d54 e5b8
00000080: dfdb 143c 4d27 e93c 6584 6bbc 2c01 033d
00000090: f51f ca3c a6eb 113c e2df 043d 933f 3ebc
000000a0: 7a95 92bc c75f e8bc 76a5 c53c 5494 fabc
000000b0: 3f00 c83c b73a 243b c5c0 a9bc 4840 d53c
000000c0: 387b 473c 6030 b13c 484e d43b 65de e93c
000000d0: 0776 dfbc ad36 e2ba b199 4fbc f192 4ebc
000000e0: 1c9a 85bc 0909 b83c 19f3 2abb 8a84 41bc
000000f0: 9b65 2c3c df5f 8b3c 1d9f 823c 66da 073a
-0.023937993 0.02959136 0.019323656 0.00073621096 0.0021388568 0.03186927 -0.021244396 0.0015209949
-0.01471983 0.01787117 -0.012731717 -0.0324927 0.0011255377 0.014176511 0.0038877942 -0.02618273
0.029306425 0.014228847 0.011816214 -0.00027743468 0.010628848 0.00094786024 0.032126747 -0.028712325
0.02018963 0.021321127 0.023025112 -0.008003792 -0.034697667 0.022664974 0.015864074 -0.000109352615
0.0090856245 0.028461123 -0.014374827 0.03198354 0.024673441 0.008906281 0.032440074 -0.011611837
-0.017893542 -0.028365983 0.02412675 -0.030588306 0.02441418 0.002505941 -0.020721802 0.026031628
0.012175374 0.021629512 0.0064790584 0.028548429 -0.02727796 -0.0017258726 -0.01267092 -0.012608276
-0.016308837 0.022465246 -0.002608484 -0.011811385 0.0105222715 0.017013488 0.015945012 0.0005182385

bn3.weight f4 [64]
00000000: e6d6 7c3f ee8f 813f 17a2 7e3f f14e 7f3f
00000010: 3511 7e3f a82d 813f b2f2 823f 5fa9 7c3f
00000020: b84e 843f 08bf 803f e364 7e3f 5024 7f3f
00000030: 3f09 803f f331 803f 60a1 7e3f 9e6f 803f
00000040: 1845 7d3f 9201 803f b051 803f 587b 813f
00000050: 5199 7a3f 3fc8 813f 3414 7e3f edb1 833f
00000060: 0e70 803f 3c6f 823f b02d 823f ebc3 7a3f
00000070: 8fbe 7e3f 5729 7f3f 9e53 803f 182a 7e3f
00000080: 750a 833f 68a6 803f adb1 7f3f 45b0 803f
00000090: b634 7d3f 8aca 813f a149 7e3f e496 813f
000000a0: b5b5 7d3f 4b92 7f3f ca7f 823f 2535 813f
000000b0: 5315 813f e803 7e3f 327f 7f3f 9c9e 803f
000000c0: d615 803f bc26 813f bc9c 7d3f 893b 7e3f
000000d0: 7566 7b3f 204f 813f cf02 803f b69b 7d3f
000000e0: af2b 7e3f 43f0 7a3f f6d5 783f b19d 783f
000000f0: f872 7b3f 7f51 803f 1e97 833f a8bc 783f
0.9876541 1.0122049 0.9946608 0.9972983 0.99245006 1.0092058 1.0230315 0.9869594
1.0336523 1.0058298 0.9937269 0.99664783 1.0002822 1.0015243 0.9946499 1.0034063
0.98933554 1.0000479 1.0024929 1.0115767 0.9789019 1.0139235 0.9924958 1.0288674
1.0034196 1.0190196 1.0170193 0.979552 0.9950952 0.99672455 1.0025518 0.9928298
1.0237566 1.0050783 0.99880487 1.0053793 0.98908556 1.0139935 0.993311 1.0124173
0.9910539 0.998326 1.0195248 1.0094343 1.0084633 0.9922471 0.9980346 1.0048404
1.0006664 1.0089946 0.9906728 0.99309593 0.9820321 1.0102272 1.0000857 0.9906572
0.99285406 0.9802286 0.9720148 0.9711562 0.98222303 1.0024871 1.0280492 0.97162867

bn3.bias f4 [64]
00000000: 3227 433a 0545 3fb8 cc84 56bb c99a 7eba
00000010: 8abd 0c3a 4388 1a3b 6def 22bb 21e0 093a
00000020: f837 f03b 1203 03bb 4cb0 9f3b 2b97 923a
00000030: 701e b13b dc54 7839 0d60 4ebb 8498 a23b
00000040: b98a 2b3b d329 49bb 1e2c 27ba d684 69bb
00000050: 793a c7bb 7683 603b 1175 f539 ac65 94bb
00000060: e706 473a 44b2 173b 449d c6ba ac4c 81bb
00000070: 9596 4bbb 8669 e83b 0eb5 0f3b e819 abbb
00000080: bf6e 1abb c39d ee3a b056 afba b0a7 9a3b
00000090: 5410 aa3a 5f60 603b 42f7 423b 57ed c7bb
000000a0: 1e67 8fbb 89bf 4bba 16d8 5c3b 78d9 b3bb
000000b0: 1898 bb3b 121d e53b 3286 963b 72bf 723a
000000c0: 615b c7bb 35b0 3d3a 5bc0 f1bb 293b c03b
000000d0: 85f1 4f3a 02ac 9cbb 4505 0f3b 6634 c03a
000000e0: 0f4f ecb9 28b8 60bb e7c4 133a 6786 af3a
000000f0: 218a 223b 73da 72bb bac5 03bb 0003 c53b
0.00074445 -4.5602228e-05 -0.0032732962 -0.0009712396 0.00053688197 0.0023579753 -0.0024861947 0.0005259533
0.0073308907 -0.0019990844 0.004873311 0.0011183968 0.0054052398 0.00023682736 -0.0031490356 0.004962029
0.0026175214 -0.0030695095 -0.00063771184 -0.0035632155 -0.0060799685 0.0034258044 0.00046817263 -0.004528722
0.0007592276 0.0023147026 -0.001515307 -0.0039459076 -0.0031065096 0.0070926575 0.0021927985 -0.005221594
-0.0023564545 0.0018204976 -0.0013377275 0.004719697 0.0012974837 0.003423713 0.0029749428 -0.006101291
-0.004376306 -0.00077723764 0.0033698133 -0.005488571 0.005724918 0.006991991 0.004593634 0.0009260095
-0.0060838913 0.0007236035 -0.007377667 0.0058664274 0.00079324126 -0.004781247 0.002182321 0.0014664053
-0.0004507233 -0.0034289453 0.0005636946 0.0013391495 0.002480157 -0.0037056475 -0.0020106868 0.0060123205

bn3.running_mean f4 [64]
00000000: 25c7 e33e c716 ab3e 6ace ac3e 12a9 893e
00000010: 1488 873f 2f50 883e 0874 b43d fdaa c43e
00000020: 2e8e 733e 43e9 013f 8578 d63e fd9b 843e
00000030: 5326 8b3e 2887 793e 4552 833e bb92 a43e
00000040: 0a56 053f 2952 8d3e 9ab3 293f e636 483e
00000050: d823 783e 5473 603e 5338 303e 0c2d 903d
00000060: 09c9 cc3d c0f5 993e 5d2b 173f 067d 3b3d
00000070: d372 313e ad18 cf3e debc 033f 2354 913e
00000080: 1f1e 283e 253d 613e 6e6c 083e 76d4 f23e
00000090: 9efb dc3e 0937 4a3e 19aa 533f 19d5 273f
000000a0: e97c db3e 4606 e43d b481 273e 5415 103e
000000b0: 3dd7 e13e 81cb 103f 9b30 0d3f 0f04 9e3e
000000c0: 0852 7c3e 2f87 f63e 6cde 893e 1ffc e63e
000000d0: adf0 7a3f 378d bb3e 692c a73e ea14 353f
000000e0: 92a4 4c3e 963c 0d3e 9668 ff3e 12b2 4b3e
000000f0: a11a bb3e 14be ee3e f9a8 ef3e e82c c63d
0.44487873 0.33415815 0.3375123 0.26886803 1.0588403 0.26623675 0.08811194 0.38411704
0.23784706 0.50746554 0.41888824 0.2590026 0.27177677 0.24367964 0.25648704 0.32143196
0.5208441 0.27601746 0.66289675 0.19552192 0.24232423 0.21918994 0.17208986 0.07039842
0.09999282 0.30070305 0.5905054 0.04577353 0.17328958 0.40448514 0.51460063 0.28384504
0.1641774 0.21995981 0.13322613 0.4742772 0.4316072 0.19747557 0.82681423 0.65559536
0.42868736 0.11134009 0.16358072 0.14070636 0.44109526 0.5656052 0.5515229 0.3086247
0.24640667 0.48150012 0.26927507 0.45114228 0.9802349 0.36631176 0.3265107 0.7073504
0.19984654 0.13792643 0.4988448 0.19892147 0.36543754 0.46629393 0.46808603 0.09676534

bn3.running_var f4 [64]
00000000: 46fe 3a3e 9455 213e 99f8 3e3e 959a 363e
00000010: 8948 dc3e a97d 0d3e 30c4 353d cc81 893e
00000020: 43fa c73d e13c 193e 0aef 843e 5cf7 153e
00000030: eb63 ea3d 9e25 0b3e 7572 b73d efb6 3d3e
00000040: bddc 693e 69e3 363e 6fd8 fd3e 4368 143e
00000050: d7ca 143e 92e3 c33d fc04 213e 8a9f de3c
00000060: ff80 6d3d 3199 203e 1705 893e 5f21 eb3c
00000070: f686 0d3e 0430 423e dc5e 8c3e 8a2d 263e
00000080: 2674 f23d 7f54 ef3d 962c dc3d 02ae 733e
00000090: caaf 503e af76 123e 8655 d03e a150 af3e
000000a0: f3c7 4f3e 6fac 823d a89e 053e 7c1c c23d
000000b0: 1b54 373e 259e f23e e631 4c3e 7de3 1c3e
000000c0: 96b5 4b3e 3e68 543e c2b0 523e 2bfb 623e
000000d0: c0f3 183f f3a9 283e 079b 213e 0aaa c33e
000000e0: 2394 1d3e 84cb a13d c9e5 a83e df40 c53d
000000f0: 6bfd a13e 94d3 5d3e 0c39 223e 411e 6b3d
0.1826106 0.15755302 0.1864952 0.17832406 0.4302409 0.13817467 0.044376552 0.2685684
0.097645305 0.1496463 0.25963622 0.14645141 0.11444839 0.13588569 0.08957378 0.18526815
0.22838111 0.17860188 0.49579188 0.14492898 0.14530502 0.0956489 0.15724558 0.027175684
0.05798435 0.15683438 0.26761696 0.028702436 0.13821015 0.18963629 0.27416122 0.1622831
0.1183856 0.11686038 0.107506916 0.23796847 0.20379558 0.14303087 0.4069025 0.34241202
0.20291118 0.06380545 0.13048804 0.09478089 0.17903177 0.4738628 0.1994091 0.15321155
0.19893488 0.2074289 0.2057524 0.22166125 0.59746933 0.1647108 0.15781794 0.38215667
0.15388541 0.07900146 0.32987812 0.09631514 0.31638655 0.21662742 0.15842074 0.0574019

fc1.weight f4 [256, 64]
00000000: 7e39 a8bd d347 23bd 4c97 843d 8d7e 20bd
00000010: 692b 31bc 6a6d fcbc bbd9 c03d e5c8 9d3d
00000020: 7fa0 f53c b135 013d 38be 91bb 2366 b03d
00000030: 2e8e e1bd ce1d 71bd 0c43 f13d cfc3 26bd
00000040: 8574 633d e5f5 9ebd 0b7d e23d 8862 9b3c
00000050: 9b92 eb3d 5246 e23d 88d2 9e3c 6dcd 5c3d
00000060: 9bbc 02bc 2d0c 113c 8722 a83d ce79 863d
00000070: 3b4e e53c d649 4bbd 702e 08bd 3a9d c93d
00000080: 2050 01bd caab 023d 9896 f1bd 5e8c 8cbd
00000090: a447 19bd e5dd a83c f223 c43c 2c9b 2ebc
000000a0: 1667 e43d d831 8c3d e5c8 69bd 4613 47bd
000000b0: 6397 fcbd dd8f ebbd 86c8 71bd be0a 5a3c
000000c0: a0e1 a6bd 4b41 b3bd e9bd cb3d 78db 873d
000000d0: de8e 6c3d db73 30bd f4e0 513d 7a7a cbbd
000000e0: ef8e e13d b191 b3bd dce0 82bc b8e8 9fbd
000000f0: 6454 f4bd a393 a2bd 7c52 ab3c 7adb 123d
00000100: 1055 0e3d fce8 ffbd 9d2b 963d 93fa afbd
00000110: 3513 b93d e6c7 a03d aae0 123d 6ac4 dabd
00000120: 1396 53bd f5eb a53d a422 d73c 29b7 dbbc
00000130: 1349 dcbd 9ea6 cabd 03be 59bd a096 d73d
00000140: a701 b0bd 19e5 ab3d a6a2 d9bc d802 843d
00000150: 11e4 0b3d af9d c43d d604 d6bd c0de 053e
00000160: 2813 f2bd 1e05 b93a f9c2 6b3d 789a 3cbc
00000170: e945 e5bd ae92 d83d 42b4 883d 8c81 653d
00000180: ad07 a6ba 3915 f53d c66f 95bd db86 dfbd
00000190: 1f06 973d e84d 37bd 9032 04bd 7c95 62bd
000001a0: 10ea 6a3d 3999 91bd 1683 a9bd 5eac ce3c
000001b0: 71d2 9dbd 81da acbb 8ef2 533d 2320 7d3d
000001c0: f490 e93d d142 2f3d 2993 d8bd a8c2 9ebc
000001d0: af5a 1e3d 23bf aa3d 2885 05bc 3ae7 723d
000001e0: 6b04 00be b9ae 70ba 4165 8a3b 4955 22bc
000001f0: bdbf c23d fe7b ed3d 366d ca3d 1786 35bd
00000200: f52e 0e3d a90b dbba 00ad 7d3c 8ae3 cfbd
00000210: 9d62 38bd 7d3a d03a d147 94bd f687 243d
00000220: 61cb 353b 3a9f ce3d 687a fb3c d76f dfbd
00000230: 041c 873d 3e0a 913c eae6 c7bc a8b7 9a3c
00000240: b0cb 9ebd 007a 563d c1b2 03be 2906 debb
00000250: 9917 adbc 4ba4 713c 95fc afbc 7c4e c13d
00000260: 1347 733d f134 003e 757d f2bb 3faa 9abc
00000270: 27ce dd3c 1b25 fabd ee8d bfbc 19c0 efbc
00000280: c2c9 053e 6781 8d3c 36ab 663c 2bd4 d43d
00000290: 6750 0a3d 90e4 babd cc8b e0bc 0264 b23d
000002a0: 6b02 6ebd 3794 d4bd 7a20 e83c 8f81 1b3d
000002b0: 22a7 983c 9053 c1bd e1c3 933d 3bb8 2cbd
000002c0: 9df0 33bd a2aa dabd 0974 5ebc 3c15 9b3d
000002d0: e013 4fbd 2bc4 e2bd 9d02 d23b b427 b13d
000002e0: a1b0 a3bd ad1a b1bd 42ff 4b3d e0f9 a2bd
000002f0: 2c43 033c 4454 283d a4fd ec3d 542c 76bc
00000300: 8b3a 76bc afb1 ef3c 7de0 41bd b6b1 71bd
00000310: 32e9 d4bd be22 40bd 6664 c6bd e37e 913c
00000320: e2b9 fb3c 81f5 af3d 2e83 e6bd 0a80 dabc
00000330: 6b80 6a3d e056 cfbc d91f e43c 570e bcbd
00000340: ddac 583d e105 ba3d adad e53d 1151 92bd
00000350: 0fba d7bd 2102 a23c 772c 2bbc 48a6 f13a
00000360: 06fa 5e3c f143 3e3d cd20 4b3c 692b 87bd
00000370: 097a a23d a664 e43d df26 9a3c 2737 e8bd
00000380: 2a3d ebbd 0ed1 f8bd ab7c 34bd d8bf 16bd
00000390: 1885 c43c d2d8 013d 5676 9e3d 74df 24bd
000003a0: df88 e4bd 9371 91bd d740 e7bd c57d d3bd
000003b0: 2a0b f3bd dd32 d9bd 4515 1bbc 0d5a e6bd
000003c0: 4035 b83d 5924 cf3d 7244 993c 845b 0ebd
000003d0: d06c 0f3c 8c5e e7bd 94be 903d c2b6 923d
000003e0: 47ab 99bd 27fb cd3c 47c3 96bd 8e22 d4bd
000003f0: 202e f43d ab20 d63d 8c98 5f3d 17e8 f13d
-0.08214091 -0.03986342 0.0647417 -0.03918319 -0.010813572 -0.030813891 0.09416529 0.07704333
0.029983757 0.031545345 -0.0044477247 0.08613231 -0.11013447 -0.058866315 0.11780366 -0.04071408
0.055531044 -0.077617444 0.11059006 0.018967882 0.11502572 0.11048569 0.019387498 0.053906847
-0.007979537 0.008853001 0.082097106 0.06566201 0.027991405 -0.049630962 -0.03324741 0.09844442
-0.031570554 0.031902112 -0.117963016 -0.068627104 -0.037421837 0.02061362 0.023942921 -0.010657113
0.111524746 0.068454444 -0.057076354 -0.048602365 -0.12333562 -0.11502049 -0.059029125 0.013308225
-0.08148503 -0.08752688 0.09948332 0.06633657 0.057753436 -0.04307924 0.051239923 -0.0993547
0.110135905 -0.08768023 -0.015976362 -0.078080595 -0.11930159 -0.07938316 0.020913355 0.03585384
0.03474909 -0.1249561 0.07332537 -0.08592715 0.090368666 0.078506276 0.035858788 -0.10681994
-0.051656794 0.08101646 0.026261635 -0.026820736 -0.10756125 -0.09895061 -0.053159725 0.10526776
-0.08594065 0.08393306 -0.026566815 0.06445855 0.034153048 0.09600388 -0.10450141 0.13073254
-0.1182006 0.0014115905 0.057558987 -0.011511438 -0.11194975 0.10574852 0.066750064 0.05603175
-0.0012667082 0.119669385 -0.0729671 -0.109143935 0.073742144 -0.04475203 -0.032274783 -0.05531834
0.057352126 -0.07109303 -0.08276956 0.025228675 -0.07706154 -0.005275071 0.05174499 0.061798226
0.11404601 0.04278833 -0.105749436 -0.019379929 0.0386607 0.08337238 -0.008149423 0.059302546
-0.12501685 -0.0009181309 0.004223496 -0.009908029 0.095092274 0.11595915 0.098841116 -0.04431733
0.03471275 -0.0016711849 0.015483141 -0.101508215 -0.04501592 0.0015886571 -0.072402604 0.040168725
0.0027739631 0.10088964 0.030698016 -0.10910004 0.065971404 0.01770508 -0.0244021 0.018886402
-0.07753694 0.052362442 -0.12861158 -0.0067756367 -0.021129416 0.014748643 -0.021482745 0.09438798
0.059393954 0.12520196 -0.0074002095 -0.018880008 0.02707584 -0.122141086 -0.023383107 -0.029266404
0.13065246 0.017273618 0.014078906 0.1039203 0.033768084 -0.09125626 -0.02741041 0.08710481
-0.058107775 -0.10379832 0.028335799 0.037965354 0.018634383 -0.094397664 0.07215095 -0.042167883
-0.04393064 -0.10677077 -0.01357747 0.075724095 -0.050556064 -0.11072572 0.006409003 0.08650151
-0.07992674 -0.08647666 0.04980398 -0.07957816 0.0080116205 0.041095987 0.115718156 -0.015025217
-0.015028606 0.02925953 -0.04733323 -0.05900737 -0.10396041 -0.046908133 -0.09687118 0.0177607
0.030728284 0.08591748 -0.11255489 -0.026672382 0.057251375 -0.02530998 0.027847217 -0.091824226
0.05289923 0.090831526 0.11214767 -0.071443684 -0.10533535 0.019776406 -0.010447613 0.0018436396
0.013609415 0.046451513 0.012397957 -0.06600077 0.079334326 0.1115201 0.018817363 -0.113386445
-0.114862755 -0.12149249 -0.044064205 -0.03680405 0.023989245 0.031700917 0.077374145 -0.040252164
-0.111589186 -0.07101741 -0.11291664 -0.10326723 -0.11867364 -0.106054045 -0.00946552 -0.112476446
0.08994532 0.10114355 0.018709395 -0.034755245 0.00875397 -0.1129733 0.070676 0.071637645
-0.07503372 0.025144173 -0.07361465 -0.10358153 0.1192286 0.1045545 0.05458884 0.11811846

fc1.bias f4 [256]
00000000: 5b74 03bd 2ab3 83bd 5fd2 e8bd fe6e 7dbd
00000010: d791 f53d f902 c7bb 2589 a4b9 598c dabd
00000020: 105f b1bd eb96 84bd 8b5b f1bc 3301 31bd
00000030: c714 aa3d 688f 8fbd 0d7c 993d 8920 683d
00000040: 1a5b 8abd 9eca cebd daa5 ed3d 4915 c03d
00000050: 568b ef3b d006 d93d dc9a be3d 8638 a3bd
00000060: 7b2c e4bd d127 04bd 45bd c53d 6fa7 32bb
00000070: 2aec debc 0222 cd3d 2f3b 37bd e76d b33c
00000080: 1f80 acbd d8fb d53d a134 cbbc 222a f6bd
00000090: 9cf5 e5bd e5ee fdbc 3534 8abd e415 d7bd
000000a0: b078 84bd 9872 823c 9afc dc3d 958b 243c
000000b0: 34b8 87bd 3389 cbbd 9053 a5bd 02e3 26bb
000000c0: d973 67bc 8f2c 7cbd 5405 f83d 861d 96bd
000000d0: a188 a2bd af85 6c3d 299d 8bbd c959 473c
000000e0: 80b6 1ebd ecb5 963d 0e19 2bbc da1a f13c
000000f0: 5a98 e83d 477d 24bd 3686 debd 9e0c 4e3c
00000100: 7d26 093d 2667 f7bd ce95 debb 3a04 7bbb
00000110: e924 b53d 2ec3 af3c 3d8c 5c3d 9316 8f3d
00000120: a0f0 98bd f70a c9bd 8443 04bc fe24 283c
00000130: db30 abbd 3f7c 92bd 2c7c 29bc 766c f7bc
00000140: d7c6 71bd 33d4 fe3d 48e4 5d3d 1e7c fdbc
00000150: d2a8 25bc 434d f93d cbb9 c2bd 8ad3 1d3d
00000160: d41a babc 6c4f 89bc 9fc4 99bd 5b3c f33d
00000170: ffef 393b 3734 d0bd b33b 78bd d5da 443d
00000180: d14f 83bd 4ff1 af3d fb1e e33c 27ad eb3d
00000190: 06d0 bc3d 94ab a73d 0162 393d 8e3e 4f3d
000001a0: 2f62 95bd dd72 aa3c 7f9d b9bd 2891 d2bd
000001b0: 8808 a93b cd97 863d 1a54 203d ec54 363d
000001c0: 7d1f a33d 74ea 7bbd a217 4e3d b51f 693d
000001d0: 5ab6 cc3c fffb f0bd e583 293d 2547 d4bc
000001e0: 2e59 afbd 0893 b13c 2ab5 0d3d 5303 46bc
000001f0: fad6 a63d 3b71 ae3d 0457 8c3d 5bce 6f3d
00000200: 4ba5 8a3d be4b d13d 1ff1 6e3d b3df ec3b
00000210: d053 92bd 4bbf 7ebd f69d 92bc 4943 fdbc
00000220: af11 a8bc dd1a ed3d 6119 de3d 0013 3c3c
00000230: 72ca 78bd 9ddf a7bd 55da b5bd 3707 97bb
00000240: 1b30 133d 93ce 6ebc 7df3 353d 0fb6 9c3c
00000250: 38f0 c2bc 53b3 bebc 5dca e8bc caac 49bb
00000260: 67d4 593d 4cf3 e13d 3ee7 663c 2467 d9bd
00000270: b307 0dbd f7d5 943d 252c 79bd dbde e13d
00000280: 72e7 dbbd 6e3d 97bd bf64 f23d 26a2 ab3d
00000290: 5aea e0bd 77d9 d43d a936 e2ba 9af4 ca3c
000002a0: f670 5b3d bcc9 a7bd d49f 023e f62a c0bd
000002b0: acca d2bd 4de3 863d 2bd6 96bc eee8 78bd
000002c0: 397f acbd 0fd2 06bd 97ba 1f3d 6434 a63d
000002d0: 7de3 fa3d 985f acbd ef28 213c 7c7d 0e3d
000002e0: fd6b 463d a543 ecbd 9f73 b3bd 36f0 64bd
000002f0: 9ceb 3a3d d238 dd3c 7802 f3bd 4038 6fbd
00000300: ad95 91bd 9926 2abd 5921 c9bd 1ad8 f03c
00000310: dcc0 4a3b 018e 743c bce8 333d 1f23 b6bd
00000320: e35f c8bd e15f 873a 4e0f 48bd 16e6 b03d
00000330: 3362 cebd d6e9 8bbd 976e 9a3d 39e1 babd
00000340: 39af c43d 394a 8f3c b785 623d 547f 123d
00000350: 7881 d33d e0e7 cc3d e74f 833c 337d 81bd
00000360: b6f0 04bd ffeb 0839 a482 da3d 822c 313d
00000370: 7097 1c3d d9a7 d4bd df4a 933d c958 dabd
00000380: 279a 053e 5923 c83d e5b5 c03c bd15 42bd
00000390: c6eb a4bd 8b42 d13c 0291 b13d 7311 5a3d
000003a0: 8d48 4abd 8da3 2dbc ccaf 6b3d 1271 95bd
000003b0: 15fb a93d 60a8 44bd 64ed 9abd 63ca 2f3d
000003c0: e015 f53d 909b 90bd 7790 6bbd c5c7 21bb
000003d0: 0087 103b 0b6b c6bd 9f7f dabd 7e55 ddbd
000003e0: b2bc 49bd d798 a3bb 0f35 8f3d 0af8 793c
000003f0: 6e0e 20bd 103b 833d e3f4 38bd 4927 15bd
-0.032093387 -0.06430657 -0.1136825 -0.06187343 0.11990707 -0.0060733524 -0.00031382698 -0.106713004
-0.0866071 -0.06474098 -0.029462596 -0.043214034 0.08304744 -0.070097744 0.07494364 0.056671653
-0.067556575 -0.1009724 0.11603899 0.0937906 0.0073103113 0.105970025 0.09306881 -0.07969765
-0.111412965 -0.032264534 0.09655241 -0.0027260443 -0.027212221 0.10016252 -0.044734176 0.021902991
-0.08422875 0.10448426 -0.024805369 -0.12019755 -0.11228487 -0.030997703 -0.06748239 -0.10502222
-0.06468332 0.015923783 0.107903674 0.010043045 -0.06626931 -0.09938278 -0.08072579 -0.0025464897
-0.014126741 -0.061565932 0.12110391 -0.0732985 -0.07936216 0.057744678 -0.06817085 0.012167403
-0.038748264 0.073589176 -0.010442985 0.02943175 0.11357184 -0.040158536 -0.108654425 0.01257625
0.03348397 -0.12080221 -0.0067927605 -0.003830208 0.08844931 0.021455374 0.05384468 0.069867276
-0.074677706 -0.098165445 -0.008072738 0.010262726 -0.08358928 -0.07152604 -0.010344546 -0.030203085
-0.05902752 0.124428175 0.054172784 -0.030942973 -0.010111051 0.1217294 -0.095080934 0.038531817
-0.02271787 -0.016761504 -0.075082056 0.11876746 0.0028371809 -0.10166209 -0.06060381 0.048060257
-0.06411708 0.08590948 0.027724734 0.115076356 0.09219365 0.08187023 0.04525948 0.050596766
-0.07294118 0.020806724 -0.09063243 -0.102815926 0.0051584877 0.065719225 0.039142706 0.04451458
0.0796499 -0.06150289 0.050315507 0.056915004 0.024989296 -0.117668144 0.04138555 -0.02591283
-0.085619316 0.021676555 0.0345966 -0.0120857535 0.08146472 0.08517691 0.068525344 0.058546405
0.067698084 0.10219525 0.05833542 0.0072288155 -0.07144892 -0.06219415 -0.017897587 -0.030915873
-0.020516245 0.115773894 0.108446844 0.011479139 -0.060739942 -0.08196948 -0.08879534 -0.0046090144
0.03593455 -0.014575618 0.04442166 0.019129781 -0.023796186 -0.023278868 -0.028416807 -0.0030773156
0.05318108 0.11032733 0.014093218 -0.10615376 -0.03443117 0.07267373 -0.060833115 0.110288344
-0.10737504 -0.07384764 0.11835622 0.08380537 -0.10982199 0.103930406 -0.0017258722 0.024774838
0.053574525 -0.08192775 0.12756282 -0.09383194 -0.10292563 0.06586323 -0.01841267 -0.060769014
-0.08422703 -0.03291517 0.038996305 0.081154615 0.12250421 -0.084166706 0.0098364195 0.03478764
0.04844283 -0.1153634 -0.08762287 -0.055893146 0.04563485 0.027004633 -0.11865705 -0.058403254
-0.071086265 -0.041540716 -0.09820814 0.02939992 0.0030937707 0.0149264345 0.043923125 -0.088934176
-0.09783914 0.0010328257 -0.04884272 0.086376354 -0.10077324 -0.0683171 0.075406246 -0.09124989
0.096037336 0.017491447 0.0553033 0.03576596 0.103274286 0.10005164 0.016029311 -0.06322708
-0.032456122 0.00013057886 0.10669449 0.043255337 0.03823036 -0.10383577 0.07192015 -0.10661466
0.13047086 0.09772367 0.023524234 -0.047384012 -0.08052783 0.025544425 0.08670236 0.053239297
-0.049385596 -0.010598076 0.0575407 -0.07296957 0.08299843 -0.048012137 -0.0756481 0.04291762
0.11967063 -0.07060921 -0.05751082 -0.0024685722 0.0022053123 -0.096883856 -0.10668873 -0.10807322
-0.04925222 -0.004992585 0.06992542 0.015256891 -0.03907626 0.0640775 -0.045155417 -0.03641442

bn4.weight f4 [256]
00000000: 0e73 813f 8912 813f 8e74 813f e95c 813f
00000010: d187 803f 7063 803f 6af0 813f 5c3b 813f
00000020: 498e 803f b03e 823f 31e0 803f fa49 803f
00000030: b1f8 803f 72fa 813f 71e4 813f d249 823f
00000040: d388 813f 4fb2 803f 5ff7 803f 663f 823f
00000050: 8611 813f 1084 803f e472 813f 3f2e 813f
00000060: 7040 813f 219e 803f d284 813f 2e25 813f
00000070: 996d 813f a8bf 803f 5b7e 823f 4648 823f
00000080: d7a1 803f 0d89 803f 45bc 813f 6593 803f
00000090: 2130 813f 3e4e 813f 0be6 813f 7761 813f
000000a0: a1b1 813f 8732 813f f879 823f e604 823f
000000b0: c879 803f 2339 803f 3017 813f 4898 813f
000000c0: edd6 813f 42b0 803f 4ca8 803f d73f 813f
000000d0: d09f 813f 0279 813f fca8 813f 7088 813f
000000e0: 2fc9 7f3f 813f 803f ece3 813f 56cf 803f
000000f0: 7bdc 813f af9c 813f 985a 813f 284d 813f
00000100: c7d6 813f 8eda 803f 305d 813f 83f8 803f
00000110: 43d3 823f e4e3 813f 7b35 803f 9ba7 813f
00000120: 2258 813f db56 803f 6528 803f 2565 813f
00000130: 1819 813f a690 813f ffb0 803f 7d70 823f
00000140: 0106 813f 47c0 803f 599d 813f 88f7 803f
00000150: dbfd 813f b1f5 813f 4b27 813f 0d53 803f
00000160: 6db8 813f acc7 813f 1af5 823f 39a9 813f
00000170: ac26 813f 1d5d 813f ebfd 813f 32a0 813f
00000180: 8600 813f 70dc 803f 90d7 813f 8605 813f
00000190: 31e5 803f c3f5 803f 7a47 823f 6441 813f
000001a0: e7a8 813f b956 813f 9ffa 803f c9aa 813f
000001b0: 033b 813f 87a0 803f 5ea9 813f 66ef 803f
000001c0: 1d2b 803f bf76 813f 3112 813f bcda 813f
000001d0: d719 813f 7389 813f 85e5 813f f27e 813f
000001e0: b6d5 813f 5f48 813f 01a6 813f c436 813f
000001f0: a6b7 803f 8f5d 813f c401 813f 8ed8 813f
00000200: abe1 813f 001d 813f 5082 803f 84de 803f
00000210: 16b3 813f 039e 813f 2479 813f 79ad 813f
00000220: 59cc 813f 6a73 803f a6c3 7f3f a92d 813f
00000230: d47c 813f 78f2 813f 8664 803f 7628 813f
00000240: 6444 813f 3e39 813f 0d9f 813f 578c 803f
00000250: e471 813f a3d6 823f 4465 813f 601b 823f
00000260: 189e 823f a03b 813f c6eb 813f 32da 813f
00000270: 9025 813f 8269 813f 929b 813f 7dc5 813f
00000280: 1664 813f d1c8 813f cb20 813f c970 823f
00000290: 5c3b 813f 1565 823f 86aa 803f ac8b 813f
000002a0: 8816 813f 0e8f 803f 95ff 803f d676 803f
000002b0: 3a23 813f 5b79 813f 9ead 813f 466b 813f
000002c0: cbf8 803f 839d 803f 4aba 803f 413b 813f
000002d0: 2005 813f 5224 813f 3751 813f 08fb 813f
000002e0: 5542 823f b91d 823f c464 803f d6fa 803f
000002f0: edb1 803f cf86 813f 7d0b 813f 0da2 813f
00000300: 72f3 813f 9148 813f 7a0c 813f 67b8 803f
00000310: 6b8d 803f f65a 813f 15c5 803f 5b13 823f
00000320: 54e8 803f 9728 813f 5e52 813f 6386 813f
00000330: b9db 803f 6381 803f 23b9 813f 3bc3 803f
00000340: 4813 823f efe5 813f 3bda 813f c8f9 813f
00000350: 1521 803f a310 823f 8ecf 813f 566a 813f
00000360: cfc2 813f c6ea 803f e35b 813f 5282 813f
00000370: e151 813f 92c3 803f 9b0b 823f 52bb 823f
00000380: ec31 823f cdc3 813f 9ab0 813f 83c8 813f
00000390: 4a94 813f 66b4 813f 0920 803f cb83 803f
000003a0: 00ef 813f 850f 813f 2377 813f ac57 823f
000003b0: ea62 813f 8181 823f 3432 813f bd65 803f
000003c0: 0e72 813f 9ca2 803f 0bbb 803f 73cc 813f
000003d0: 1033 803f ac61 813f 6551 823f 08da 803f
000003e0: 6015 823f 282f 813f c5a3 823f 2d25 803f
000003f0: 4149 813f 7e03 813f aa20 813f ade4 803f
1.0113237 1.0083781 1.0113695 1.0106479 1.0041448 1.0030346 1.0151494 1.009624
1.0043422 1.0175381 1.0068418 1.0022576 1.0075895 1.0154555 1.014784 1.0178778
1.011988 1.0054415 1.0075492 1.0175598 1.0083473 1.0040302 1.0113187 1.0092238
1.009779 1.0048257 1.0118659 1.0089471 1.0111572 1.0058489 1.0194811 1.0178306
1.004939 1.0041825 1.013558 1.0044981 1.0092813 1.0102003 1.0148329 1.0107869
1.0132333 1.0093545 1.0193472 1.0157745 1.0037165 1.0017437 1.0085201 1.0124598
1.0143715 1.005379 1.005136 1.0097607 1.0126896 1.0115054 1.0129695 1.0119762
0.99916357 1.001938 1.0147681 1.0063274 1.014541 1.0125941 1.0105772 1.0101671
1.014367 1.0066698 1.0106564 1.007584 1.0220722 1.0147672 1.0016321 1.0129274
1.0105021 1.0026506 1.0012327 1.0108992 1.0085783 1.0122268 1.0054015 1.0190579
1.0079957 1.0058678 1.0126144 1.007554 1.0155596 1.0153104 1.0090116 1.0025345
1.0134407 1.013906 1.0231049 1.0129768 1.0089927 1.0106541 1.0155615 1.0127013
1.0078285 1.0067272 1.014391 1.0079811 1.0069944 1.0075 1.0178063 1.0098081
1.012967 1.0104591 1.0076483 1.0130244 1.0096134 1.0048989 1.0129812 1.0073059
1.0013157 1.0114363 1.0083677 1.0144877 1.0086011 1.0120071 1.0148169 1.0116866
1.0143344 1.0100211 1.0128785 1.0094838 1.0056045 1.0106677 1.0078664 1.0144212
1.0146993 1.0086975 1.0039768 1.0067906 1.0132778 1.0126346 1.0115094 1.0131065
1.0140487 1.0035222 0.9990791 1.0092059 1.011622 1.015212 1.0030677 1.0090473
1.0098996 1.0095594 1.0126663 1.0042828 1.0112882 1.0221752 1.0109029 1.0164604
1.0204496 1.0096321 1.0150077 1.0144713 1.0089588 1.0110323 1.0125601 1.0138394
1.0108669 1.0139409 1.0088133 1.0190669 1.009624 1.0187098 1.005204 1.012075
1.0085001 1.0043657 1.0077997 1.0036266 1.0088875 1.011516 1.0131109 1.0110862
1.0075926 1.0048069 1.0056851 1.0096208 1.0079689 1.0089209 1.010291 1.0154734
1.0176493 1.0165321 1.0030751 1.0076549 1.0054299 1.0119265 1.0081631 1.0127579
1.0152419 1.010027 1.0081933 1.0056275 1.0043157 1.0105884 1.0060145 1.0162157
1.0070901 1.0090512 1.0103261 1.0119137 1.0067054 1.0039486 1.0134624 1.005958
1.0162134 1.0148295 1.0144724 1.0154352 1.0010096 1.0161327 1.0141466 1.0110576
1.0137576 1.0071647 1.0106167 1.0117896 1.0103112 1.0059683 1.0159792 1.0213416
1.0171485 1.0137879 1.013202 1.0139316 1.0123379 1.0133178 1.0009776 1.004022
1.0151062 1.0082861 1.0114483 1.0183005 1.0108311 1.0195771 1.0093446 1.0031048
1.0112932 1.0049624 1.0057081 1.0140518 1.0015583 1.0107932 1.018109 1.0066538
1.0162773 1.0092516 1.0206228 1.0011345 1.010048 1.0079191 1.0088093 1.0069786
