mini_batch_exp/models/mnist_adam_batch512_lr0.1.pt (torch_old, 968495 bytes, 62 tensors)

conv1.weight f4 [16, 1, 3, 3]
0	0xc15796d2	-13.474321
1	0xc06e4a1b	-3.723273
2	0x40c0b93d	6.022612
3	0xc188be68	-17.092972
4	0x3e704e90	0.23467469
5	0x413cc9d9	11.799279
6	0xc085b9de	-4.178939
7	0xc1a5b81d	-20.7149
8	0xc0f18515	-7.5474954
9	0xc1c76836	-24.925884
10	0x3f6a3966	0.91493833
11	0x408cdab6	4.401698
12	0xbebc0817	-0.36724922
13	0x41910198	18.125778
14	0xbd026824	-0.031837597
15	0x40029f73	2.040982
16	0xbf08f6b3	-0.53501433
17	0xc1011107	-8.066657
18	0xc01e71c4	-2.4756937
19	0xbf4711e3	-0.7776167
20	0xbf31aa6f	-0.69400686
21	0xbf30210b	-0.6880042
22	0xbf588d66	-0.84590757
23	0xbe9198b7	-0.28436825
24	0xbf90b3e8	-1.1304903
25	0xbf64ae76	-0.89328706
26	0xbf16d333	-0.58916014
27	0x3fe954f8	1.8229055
28	0xc103d286	-8.238897
29	0xc152ed9c	-13.18301
30	0xc1b2af1a	-22.335499
31	0xc033c53d	-2.8089135
32	0x40b5312e	5.6622534
33	0xc17d3a8e	-15.826796
34	0xbff8991e	-1.9421728
35	0x40eb69f2	7.356683
36	0x40011dd5	2.0174458
37	0x410deff8	8.871086
38	0x402c5aaa	2.6930337
39	0x4093431a	4.601941
40	0x411c1165	9.754247
41	0x3e264a8e	0.16239378
42	0xbf05bf1e	-0.52244747
43	0x402d6b0a	2.7096581
44	0x3d759340	0.05995488
45	0xbf4fa586	-0.81111944
46	0x3f736c73	0.95087355
47	0xc1076d68	-8.4642105
48	0xbeb7b582	-0.35880667
49	0x40c8b72d	6.2723603
50	0xc1a1099a	-20.129688
51	0xc0cb9b48	-6.362705
52	0x414e8e73	12.909778
53	0x40fb5f04	7.8553486
54	0x3f95d37f	1.1705168
55	0x410f6b4b	8.963695
56	0x413d2e63	11.823825
57	0xbff83d7d	-1.9393765
58	0x40ae8c16	5.4546003
59	0xbf04d1d3	-0.51882666
60	0xc19424f5	-18.518045
61	0xc1606858	-14.025475
62	0xc1853f11	-16.655794
63	0xc1751123	-15.316684
64	0x407f0beb	3.9851024
65	0x402f0cad	2.7351487
66	0xc1775c5a	-15.460047
67	0x40abf356	5.373454
68	0x40ff183a	7.9717073
69	0xc1653b97	-14.327048
70	0x409b7c62	4.8589334
71	0x40a972ed	5.295279
72	0x401ba179	2.4317305
73	0xc16134d5	-14.075398
74	0xc186eade	-16.864681
75	0x41594c22	13.581087
76	0xbf0d12f3	-0.5510704
77	0xc0728bd1	-3.7897837
78	0x408972ca	4.2952623
79	0x41227f3a	10.156061
80	0xbef99d59	-0.4875286
81	0xc0f2e208	-7.5900917
82	0xc170703f	-15.027404
83	0xc187668c	-16.925072
84	0xc126356c	-10.388042
85	0x4027805c	2.6172094
86	0xbf87b38f	-1.0601672
87	0x40934369	4.601979
88	0x4142c194	12.17226
89	0x4096af59	4.7089047
90	0x3f047c95	0.517526
91	0xc16a36ed	-14.63841
92	0xbf66adbb	-0.9010884
93	0xbfd37506	-1.6520088
94	0x3e3bdee7	0.18346749
95	0x419c6ee9	19.554155
96	0x40d03c87	6.5073886
97	0x40610d71	3.5164454
98	0xc10db406	-8.856451
99	0xc002280e	-2.0336947
100	0xc08e44c7	-4.4458957
101	0xc047e09c	-3.123084
102	0xc0b714b3	-5.7212768
103	0xc066700f	-3.6005895
104	0xc056ebb0	-3.3581352
105	0xc099aa6e	-4.8020544
106	0xbfc2abb4	-1.520865
107	0xc0aaa8d5	-5.3331094
108	0x4148a5b8	12.540459
109	0xc0b5fd37	-5.68716
110	0xc152c30e	-13.172621
111	0x4100dfb4	8.054615
112	0xc1496474	-12.587025
113	0xc0a15189	-5.041203
114	0xc110c799	-9.04873
115	0xc18cdb93	-17.607214
116	0xc056b376	-3.3547034
117	0x3f037ea3	0.5136511
118	0x406a9814	3.665532
119	0x40b03fb4	5.5077763
120	0x4090d2cc	4.525732
121	0x402d73e9	2.7101996
122	0x4070a427	3.760019
123	0x409c0452	4.8755274
124	0x41919cc4	18.201546
125	0x41205e7b	10.0230665
126	0xc111a87f	-9.103637
127	0xc1316a1b	-11.088405
128	0x40a6e7bb	5.2157874
129	0x40a6b7b2	5.2099237
130	0xc1241db5	-10.257253
131	0xc182771c	-16.308159
132	0x413874ea	11.528543
133	0x40819f0e	4.050666
134	0xc13d3bff	-11.8271475
135	0xc0811c63	-4.034715
136	0xc0c6c315	-6.2113137
137	0xc00ec5a3	-2.2308128
138	0x40d50cfd	6.6578355
139	0x40a7a46a	5.23882
140	0x40bb0356	5.844157
141	0x40d8c431	6.773949
142	0x410035e7	8.01316
143	0x40de5b0f	6.9486156

conv1.bias f4 [16]
0	0xc0279d5e	-2.61898
1	0xc1cd32f2	-25.649876
2	0xbf711f45	-0.9418834
3	0x4131b88a	11.1075535
4	0x401ad685	2.4193432
5	0xc0e51853	-7.1592193
6	0x422035f8	40.052704
7	0xc1e1e8af	-28.238615
8	0x4113e8bc	9.24432
9	0x420cf7a4	35.241837
10	0xc13f1b60	-11.944183
11	0xbfd12abc	-1.6341166
12	0x40979f99	4.738232
13	0xc1ed42e4	-29.657661
14	0x4215cb9e	37.448845
15	0xc1e8d46c	-29.103722

bn1.weight f4 [16]
0	0xc160249b	-14.008937
1	0x41315ad7	11.084678
2	0xbe6abf2c	-0.22924489
3	0x4161b08e	14.105604
4	0xbd5539a3	-0.05205692
5	0x40d1f13d	6.560698
6	0x419fbc90	19.967072
7	0xc0c1c219	-6.0549436
8	0x417c61bb	15.77386
9	0x40fd3c05	7.9135766
10	0x40ff130d	7.9710755
11	0xc003776a	-2.0541635
12	0x41873c1c	16.90435
13	0x40409a40	3.0094147
14	0x416fc0dd	14.984586
15	0x3f902495	1.1261164

bn1.bias f4 [16]
0	0x3da1b320	0.078954935
1	0xbffd9833	-1.9812073
2	0xbe34fa51	-0.17673613
3	0x409f9011	4.986336
4	0x3ea5779d	0.3231782
5	0xbf03504f	-0.51294416
6	0x4101f56c	8.122417
7	0xc01903a3	-2.390847
8	0xc0010b8e	-2.0163302
9	0x3fdb1b8a	1.7117779
10	0x3fd3f4f8	1.6559134
11	0x3e3c5b41	0.18394186
12	0x411391c5	9.223088
13	0x408655fa	4.197995
14	0x4111c513	9.110614
15	0x400c20f2	2.1895108

bn1.running_mean f4 [16]
0	0x42f02203	120.06643
1	0x43f65c82	492.72272
2	0x00000004	6e-45
3	0x4318b0df	152.6909
4	0x44d21f22	1680.9729
5	0x43ad742b	346.90756
6	0x44025078	521.2573
7	0x4413f611	591.8448
8	0x442e2cc4	696.69946
9	0x43e2ed06	453.85175
10	0x4428ccdd	675.201
11	0x00000004	6e-45
12	0x43834eeb	262.61655
13	0x4535d9b1	2909.6057
14	0x4350ffc4	208.99908
15	0x44ccc160	1638.043

bn1.running_var f4 [16]
0	0x48827559	267178.78
1	0x49af0c7d	1.4339996e+06
2	0x00000004	6e-45
3	0x48592446	222353.1
4	0x4adaac0f	7.1654475e+06
5	0x4947744a	816964.6
6	0x49e96d6a	1.9122372e+06
7	0x4a028331	2.1383162e+06
8	0x4a164a8f	2.4623718e+06
9	0x49a3f54f	1.3431459e+06
10	0x49ca0e4c	1.6552415e+06
11	0x00000004	6e-45
12	0x491f2911	651921.06
13	0x4b97f6de	1.9918268e+07
14	0x48d32753	432442.6
15	0x4ade7aeb	7.2902295e+06

conv2.weight f4 [32, 16, 4, 4]
0	0xc0af020c	-5.469
1	0xc07b0dc6	-3.9227157
2	0xbec2db65	-0.3805801
3	0xc0a84d76	-5.2594557
4	0x41101c45	9.006902
5	0x4086d272	4.213189
6	0xc100854a	-8.032541
7	0xc01ae9e9	-2.4205267
8	0xc06f290f	-3.736881
9	0x3f48d3d7	0.7844824
10	0xbfe7adc3	-1.8099903
11	0x40eabd1f	7.335586
12	0x41144cf5	9.268788
13	0xbe986d25	-0.2977077
14	0x3e2c33d4	0.16816646
15	0xc01ae79a	-2.4203858
16	0x409ca2ce	4.8948736
17	0xc1334a9e	-11.205717
18	0x40ccb706	6.3973417
19	0x4113512b	9.207316
20	0x4033c182	2.8086858
21	0x418911d1	17.1337
22	0x40c810a0	6.2520294
23	0xbf146c82	-0.5797807
24	0x40056d7c	2.0848074
25	0xc1534c8d	-13.206189
26	0xc11d2f66	-9.824072
27	0x410e3871	8.88878
28	0x4163c419	14.235375
29	0x4152c4ac	13.173016
30	0x40eb68c8	7.3565407
31	0xc0e3ccb9	-7.1187406
32	0x4064c5a6	3.5745635
33	0x405f1a7b	3.4859912
34	0x3f91a8bd	1.137962
35	0x3d041111	0.03224284
36	0x40046a5b	2.0689914
37	0xbef0dfad	-0.4704565
38	0x3f361c70	0.7113714
39	0x402af79a	2.6713624
40	0x40595b29	3.396189
41	0x405bc097	3.4336298
42	0x400e25dc	2.2210608
43	0x4017cfb7	2.372053
44	0x40886db4	4.2633915
45	0x410bbb9f	8.733306
46	0x404e9d90	3.2283669
47	0x40911aea	4.5345354
48	0xc0f9813a	-7.7970247
49	0xbf927976	-1.1443317
50	0x3d11fa02	0.035638817
51	0x3fbb68e6	1.4641387
52	0x40f3d0ea	7.619252
53	0xc0c4f80a	-6.155278
54	0xc02b1fea	-2.6738229
55	0x3f9de320	1.2334938
56	0x3bc7074a	0.006073867
57	0x413858d2	11.521685
58	0xc08ad202	-4.3381357
59	0xc0462287	-3.0958574
60	0x40931694	4.596506
61	0x40fe6639	7.9499784
62	0x408470e8	4.1387825
63	0xc012f40c	-2.2961454
64	0xc0b348d5	-5.6026406
65	0xc1014a84	-8.080692
66	0xc11e6889	-9.900521
67	0xc0c4fe0e	-6.1560125
68	0xbfb50449	-1.4141933
69	0xc052de47	-3.2948167
70	0xc04a1a58	-3.157858
71	0xbef5fe37	-0.48045513
72	0xbf88b220	-1.067936
73	0xbe09a435	-0.13441546
74	0x3fc21f48	1.5165796
75	0x40b455d2	5.635476
76	0x3fa03cd2	1.2518561
77	0x3edbf1fe	0.42958063
78	0x3efbfd49	0.4921668
79	0xbff6e109	-1.9287425
80	0x40583794	3.3783922
81	0x40987af1	4.7650075
82	0x40ab7a90	5.3587112
83	0xc08e860a	-4.453862
84	0x4147f74f	12.497878
85	0xc1ed3bde	-29.654232
86	0xc021648f	-2.5217626
87	0xbfa5a899	-1.2942077
88	0xbfccec91	-1.6009694
89	0x4143fcbb	12.249202
90	0x42071484	33.770035
91	0x4028fd69	2.640467
92	0xc0311b4c	-2.767291
93	0xc0553236	-3.3311896
94	0x4072ec1a	3.7956605
95	0x404abcf9	3.167784
96	0x40e39b84	7.112734
97	0x4053e21e	3.310676
98	0x403d2950	2.9556465
99	0xc06a1518	-3.6575375
100	0x4119ab79	9.604363
101	0x4100c3b6	8.047781
102	0x41337b12	11.217546
103	0x412fb4e6	10.981665
104	0x4028bd5c	2.6365576
105	0x4115eb76	9.369986
106	0x403013b9	2.7512038
107	0xc157da61	-13.490815
108	0xc1ddbf38	-27.718369
109	0x40b2d0a5	5.5879693
110	0x40c7ce38	6.243923
111	0xbfbb1aae	-1.4617517
112	0x40d55797	6.666942
113	0xc0298e73	-2.6493194
114	0x40502f15	3.2528737
115	0xc0e56ef7	-7.1697955
116	0x3f77ba8e	0.96769035
117	0xc028e891	-2.6391947
118	0x41904a23	18.0362
119	0xbf596044	-0.84912515
120	0xbfb689fd	-1.4260861
121	0x41135c1b	9.209987
122	0x41829c29	16.32625
123	0x3e680a68	0.2266022
124	0xc063509c	-3.551795
125	0x411382ef	9.219466
126	0x41082d1b	8.511012
127	0x41456093	12.336078
128	0xbffeeae1	-1.9915429
129	0x3f49234c	0.78569484
130	0x40c8e89f	6.278396
131	0xc0d260c7	-6.5743136
132	0x419227f1	18.269503
133	0xc126764c	-10.403881
134	0xc137acfc	-11.4797325
135	0xc1482ba6	-12.510656
136	0xbfffebb1	-1.9993802
137	0x40800b6d	4.0013947
138	0x41b54ec0	22.663452
139	0x400c9d6c	2.1971083
140	0x4123448d	10.204236
141	0x4029e0a5	2.6543362
142	0x40caef2c	6.341696
143	0x405eefbc	3.4833822
144	0x3fc61508	1.5475168
145	0xbfee9e93	-1.8642143
146	0x413d0fcd	11.816358
147	0xc00122f5	-2.0177586
148	0x3ee3d421	0.4449778
149	0xc16b0354	-14.688313
150	0xc16ed5c1	-14.927186
151	0xbfbf5d91	-1.4950429
152	0xc006c066	-2.105493
153	0x41ba0510	23.252472
154	0x41d6022d	26.751062
155	0x41538169	13.219094
156	0x411a92ff	9.660888
157	0x412a2ca2	10.635897
158	0x40e213d9	7.064923
159	0x3ff095a9	1.8795673
160	0xc06b0eb6	-3.672773
161	0x40af3f62	5.476487
162	0x411670ff	9.402587
163	0x40e80795	7.2509255
164	0x3ed095d3	0.40739307
165	0x41149a90	9.287735
166	0xc0a98405	-5.2973657
167	0xc13e0c83	-11.878055
168	0xc11c0d43	-9.753238
169	0xc10aea91	-8.682267
170	0x3f77d408	0.9680791
171	0x41075e87	8.460578
172	0x412cefd0	10.808548
173	0x4165b3e3	14.356418
174	0x40b25dbe	5.573943
175	0x3f96f110	1.1792316
176	0x402217a7	2.5326936
177	0x3f7acb63	0.97966594
178	0x4151ef1b	13.120875
179	0x4075b4e5	3.839166
180	0x3e69b0e0	0.22821379
181	0x40a16753	5.043863
182	0x3f6385e8	0.888762
183	0x3e5d2e27	0.21599637
184	0x3e9bc561	0.30424026
185	0x3f56e5b8	0.83944273
186	0xbf0c7d15	-0.5487836
187	0xbffb0134	-1.9609742
188	0x410599fb	8.350093
189	0x407dcb7f	3.9655454
190	0x4018c867	2.3872316
191	0x403a4659	2.9105437
192	0xc15beb58	-13.744957
193	0x40ac607a	5.386777
194	0x3f8f08b2	1.1174529
195	0x413f3448	11.950264
196	0x400e8396	2.2267814
197	0x40eb0403	7.3442397
198	0x41060e57	8.378501
199	0x40b886c9	5.7664533
200	0xc0012bf0	-2.0183067
201	0x40a9f1ce	5.310767
202	0x404a4b09	3.1608298
203	0xc1e0fe44	-28.124153
204	0xc140fb0c	-12.061291
205	0xc100219e	-8.008207
206	0xc19703a3	-18.876776
207	0xc12e0285	-10.875615
208	0xc0bb3c1b	-5.851087
209	0xbc666034	-0.014061023
210	0x40319567	2.7747438
211	0xbf6d05fc	-0.92587256
212	0x3fda11fe	1.7036741
213	0xc06e444b	-3.7229183
214	0xc13315de	-11.192839
215	0xc1134888	-9.205208
216	0xc0919eed	-4.55065
217	0xc07aaabf	-3.9166715
218	0xc05b0ea3	-3.4227684
219	0xbf4a2282	-0.78958905
220	0x40e1f44c	7.0610714
221	0x3fd6a96d	1.6770455
222	0x407af278	3.921049
223	0x40316fc0	2.7724457
224	0x40e22bc5	7.067843
225	0x40466929	3.1001685
226	0x3f8946f9	1.0724784
227	0x40e87eea	7.2654924
228	0x40a40cd1	5.1265645
229	0x408e242e	4.4419165
230	0xc149f84e	-12.623121
231	0xc0e62100	-7.1915283
232	0xc16c3e65	-14.765233
233	0xc1513b86	-13.077032
234	0x41097a3c	8.592342
235	0xbfc7261f	-1.5558509
236	0x414b6251	12.711503
237	0x3f4dee9c	0.80442214
238	0xc0f2e65d	-7.5906205
239	0xbf05d190	-0.5227289
240	0xc048c6e5	-3.1371396
241	0x403dd1a1	2.9659197
242	0x40e2a7a6	7.082965
243	0x3e14a31a	0.14515343
244	0x41055019	8.332055
245	0x402aa269	2.6661627
246	0xc0f133e7	-7.5375857
247	0xc12658fe	-10.396727
248	0xc0b6f6aa	-5.7176104
249	0xc08676d8	-4.2020073
250	0x403154c3	2.7707984
251	0x407f9267	3.9933107
252	0x414119ae	12.068769
253	0x40caba4d	6.335242
254	0x40b1075a	5.5321474
255	0x4067ae87	3.6200273

conv2.bias f4 [32]
0	0x4032417b	2.7852466
1	0xc0c3b553	-6.1158843
2	0xc08769bc	-4.231657
3	0xc036efc0	-2.8583832
4	0xc0f7fa20	-7.749283
5	0xc0f74738	-7.7274437
6	0xbf0fd12c	-0.56178546
7	0xbfc60b14	-1.5472131
8	0xbfa03333	-1.2515625
9	0xc1894193	-17.157019
10	0xc0b01373	-5.502374
11	0xc0178d29	-2.3679907
12	0xc13b1148	-11.691719
13	0xc06afca5	-3.6716702
14	0xc0f551d2	-7.666238
15	0xc08d5132	-4.4161615
16	0xc109b3aa	-8.606363
17	0xbe9010a2	-0.2813769
18	0xc028e513	-2.6389816
19	0xbf7a44f4	-0.97761464
20	0xc07a4e27	-3.91102
21	0xc0ce1bb3	-6.4408813
22	0xc096c269	-4.7112317
23	0xc11b1267	-9.691993
24	0xc0580d92	-3.3758283
25	0xc11ff8ad	-9.998212
26	0xc056a238	-3.353651
27	0xc13a85ca	-11.657663
28	0xc0df4aa6	-6.9778624
29	0x3e9d58a0	0.30731678
30	0xc10a9522	-8.661409
31	0xc0a2a380	-5.0824585

bn2.weight f4 [32]
0	0x414b81d5	12.719197
1	0x409d66e4	4.91881
2	0x415a0d44	13.628239
3	0x416ac45b	14.672938
4	0x41121930	9.131149
5	0x4103cf20	8.238068
6	0x4135e1e5	11.36765
7	0x416029ae	14.010176
8	0x40a0312b	5.006002
9	0x41502fc9	13.011666
10	0x41451fc3	12.320254
11	0x4114fd53	9.311847
12	0x416be4d3	14.743365
13	0x4163927c	14.223263
14	0x4173a08c	15.226696
15	0x41895015	17.164103
16	0x41922e53	18.27262
17	0x4110f6d6	9.060263
18	0x401051f1	2.2550013
19	0x40f6ce6c	7.712698
20	0x4158dfb1	13.554612
21	0x41250ab5	10.315114
22	0x412a9381	10.661012
23	0x4110fd99	9.0619135
24	0x40bd88ad	5.922934
25	0x4121d556	10.114584
26	0x414c8f34	12.784962
27	0x418cf782	17.620853
28	0x413a3b8c	11.639538
29	0x40fc9f5c	7.894453
30	0x413033ae	11.012617
31	0x4159e607	13.618659

bn2.bias f4 [32]
0	0x401a2e5f	2.4090803
1	0x3f505945	0.81386214
2	0x40059897	2.0874383
3	0x3f7b7159	0.9821983
4	0x40611705	3.51703
5	0x3fa52bfa	1.2904046
6	0x4015301e	2.3310618
7	0x3fed4d8f	1.8539294
8	0xbf1d4400	-0.61431885
9	0x3fabdf88	1.3427591
10	0x401dc30e	2.4650302
11	0x3fe5d2b7	1.795493
12	0x409e08c9	4.9385724
13	0x401eaa33	2.4791381
14	0x401daa54	2.463521
15	0x401b3891	2.4253275
16	0x40224319	2.5353453
17	0x3e97d7e7	0.29656908
18	0xbe9d1ade	-0.3068456
19	0x3fa9dffe	1.3271482
20	0x408dcf09	4.431523
21	0x3f6c445a	0.92291796
22	0x3ff32a76	1.8997333
23	0x400ed4a4	2.2317286
24	0x3e0e6b5e	0.13908145
25	0x4010f75f	2.2650983
26	0x404b161d	3.1732247
27	0x404c454d	3.1917298
28	0x3f4f3c1d	0.809511
29	0x3f828aab	1.0198568
30	0x3fbc8d0a	1.4730542
31	0x40873812	4.2255945

bn2.running_mean f4 [32]
0	0x44e4d057	1830.5106
1	0x43b90365	370.02652
2	0x43a67532	332.9156
3	0x44941af4	1184.8423
4	0x44059c11	534.43854
5	0x4411619b	581.5251
6	0x44b086c1	1412.211
7	0x443f548d	765.3211
8	0x4528e090	2702.0352
9	0x433a7584	186.45905
10	0x43e792ee	463.1479
11	0x43a653ad	332.65372
12	0x438ba67f	279.30075
13	0x446fd0d7	959.2631
14	0x44c0cccc	1542.3999
15	0x441cdad8	627.41943
16	0x4406629b	537.5407
17	0x44bb0eab	1496.4584
18	0x44da5eb7	1746.9598
19	0x44f1417b	1930.0463
20	0x44ddc105	1774.0319
21	0x440fcf2a	575.23694
22	0x4471b8da	966.8883
23	0x4404b190	530.7744
24	0x44e96107	1867.0321
25	0x44412d69	772.70953
26	0x4445bfe3	790.9982
27	0x4475a9d0	982.6533
28	0x43f40633	488.04843
29	0x446b508b	941.2585
30	0x43e84486	464.53534
31	0x443434dd	720.826

bn2.running_var f4 [32]
0	0x4a82a68f	4.2811595e+06
1	0x4914405f	607237.94
2	0x49582f93	885497.2
3	0x4a2973a5	2.7762972e+06
4	0x4996a50f	1.2340819e+06
5	0x498c584b	1.1497054e+06
6	0x4a2e40c8	2.854962e+06
7	0x49fbf3e5	2.0639966e+06
8	0x4a4a7e38	3.317646e+06
9	0x48d173f0	428959.5
10	0x497670f9	1.00942356e+06
11	0x4955cbbb	875707.7
12	0x491cfe7a	643047.6
13	0x4a37db88	3.012322e+06
14	0x4a0c5e63	2.2998008e+06
15	0x49b50734	1.4829825e+06
16	0x499560fe	1.2237118e+06
17	0x4a2546d0	2.707892e+06
18	0x49fa1ccd	2.0489216e+06
19	0x4a52278a	3.4431705e+06
20	0x4a79c4c6	4.0922095e+06
21	0x49a15dd9	1.3219151e+06
22	0x4a1d23ed	2.5745872e+06
23	0x49974391	1.2391541e+06
24	0x49da6903	1.7892164e+06
25	0x4a14b7ce	2.4365955e+06
26	0x49f85a2f	2.0345019e+06
27	0x4a17cd46	2.4871215e+06
28	0x49828d43	1.0694804e+06
29	0x4a2391b9	2.6799182e+06
30	0x49886e45	1.1176406e+06
31	0x49ed7544	1.9452565e+06

conv3.weight f4 [64, 32, 5, 5]
0	0x3f6db320	0.9285145
1	0xc0e79ad4	-7.23765
2	0xc053a074	-3.3066683
3	0x3f9de3fc	1.23352
4	0x40f8a306	7.7699003
5	0x40bc352f	5.881492
6	0xc0a1fc36	-5.0620375
7	0xc04aaa1a	-3.1666322
8	0xc112b920	-9.170197
9	0xc11a8484	-9.657352
10	0xc0343bce	-2.8161502
11	0xc13d6817	-11.837913
12	0xbf9f7d58	-1.2460127
13	0xc072d6cc	-3.7943602
14	0x4091c937	4.5558124
15	0xbfaf950e	-1.3717363
16	0xc0eee252	-7.465127
17	0xc129fd8f	-10.624404
18	0xc10e86f6	-8.907949
19	0x3de70ef2	0.112821475
20	0x40736510	3.8030434
21	0xc0de3524	-6.943987
22	0xc0a5d4d1	-5.1822286
23	0x4146e719	12.43142
24	0x409cf5b7	4.9049945
25	0x3f89785a	1.0739853
26	0x3f897bdb	1.0740923
27	0xc06bee2f	-3.6864126
28	0xc0c5f886	-6.1865873
29	0x40b6afba	5.708951
30	0x40507603	3.2572029
31	0x3faa410e	1.3301103
32	0xc0ba5b31	-5.823632
33	0xbf8f5dc9	-1.1200496
34	0x41576376	13.461782
35	0x403b7866	2.9292235
36	0xc136b8ab	-11.420085
37	0xc18193a0	-16.197083
38	0x40b61b92	5.6908655
39	0x40f4c088	7.6485023
40	0xc0d3082f	-6.594749
41	0xc0c6a4f8	-6.207638
42	0xc0b44238	-5.6330833
43	0x410f3970	8.951523
44	0x3fe5ddfb	1.7958368
45	0xbfc1ad88	-1.5131083
46	0xc1001360	-8.00473
47	0xc0815774	-4.0419254
48	0x4155b2bc	13.356136
49	0x3f1b5330	0.6067381
50	0xbf6fb3b6	-0.9363359
51	0xc0523eab	-3.285075
52	0xbfd4fba4	-1.6639295
53	0x3e031a24	0.1280294
54	0xc0c3d4a7	-6.1197085
55	0x410c72eb	8.778056
56	0x410cd295	8.801412
57	0xc12579b1	-10.34221
58	0xc113cd3b	-9.237605
59	0x40a7f529	5.248677
60	0x4076a424	3.8537683
61	0xc11265c7	-9.149848
62	0xc14fcc43	-12.987369
63	0x40bc68d6	5.8877974
64	0x412c7328	10.778114
65	0xc0353fbc	-2.832015
66	0x3fd06476	1.6280658
67	0xc1191b01	-9.569093
68	0x40f708e7	7.7198367
69	0x414e5b87	12.897346
70	0x400e0227	2.2188814
71	0x3cf43e50	0.02981487
72	0x3e8bb65f	0.27287576
73	0x40be43af	5.945762
74	0xbfe6399b	-1.798633
75	0xc16aae6f	-14.667586
76	0xc15f7e61	-13.968354
77	0xbfd446c7	-1.65841
78	0xc0e268af	-7.0752788
79	0x40b26a68	5.575489
80	0xc11c6faa	-9.777262
81	0xc0b0d526	-5.526019
82	0x41622e1c	14.136257
83	0xbfa902df	-1.3204001
84	0x40275a6a	2.6148934
85	0xc00a4d11	-2.1609538
86	0xbdbb04a2	-0.09131743
87	0x40990e66	4.7830076
88	0xbf46113a	-0.77370036
89	0x40c06542	6.0123606
90	0xc08bde0d	-4.370856
91	0xbff0899e	-1.8791997
92	0xc1452143	-12.320621
93	0xc15cb05e	-13.793058
94	0x408af032	4.3418207
95	0xc12932ba	-10.574884
96	0xc164d11c	-14.301052
97	0x40638b68	3.5553837
98	0x4118c842	9.548891
99	0x4115da96	9.365866
100	0x40c34649	6.1023297
101	0xc08219aa	-4.065633
102	0x40f66fe1	7.701157
103	0xc0d396b5	-6.612147
104	0x40db51a6	6.853717
105	0x4084c907	4.1495395
106	0xc0c93f3c	-6.288969
107	0xc14ec19d	-12.922269
108	0xc00c5a51	-2.1930125
109	0x40dbb557	6.865886
110	0x410e7960	8.904633
111	0x3f0ef0fa	0.5583645
112	0xc117bce6	-9.483618
113	0x40d66cc2	6.700776
114	0x4077fe9f	3.8749158
115	0x40f57111	7.670052
116	0xc1315e8d	-11.085584
117	0xc13ad8c1	-11.677918
118	0x4059094b	3.3911922
119	0x3f9a7021	1.2065469
120	0xc0c7a7a7	-6.2392154
121	0xbfe550fa	-1.7915337
122	0xc126f395	-10.434468
123	0x3f3c6251	0.7358752
124	0x4085fee8	4.1873665
125	0xc0a1fca1	-5.0620885
126	0x3e55bd84	0.20873076
127	0x408b5ad2	4.3548365
128	0xc10e2d80	-8.886108
129	0xbf12aba0	-0.5729313
130	0xc0eacf11	-7.3377767
131	0x3f6f5ce5	0.9350112
132	0xc1adeedf	-21.741636
133	0x3f7769ec	0.96646
134	0x411ce366	9.805517
135	0xbd48484b	-0.04889707
136	0xc0ed134e	-7.4086065
137	0x3faf7ca3	1.3709911
138	0x4118baa5	9.5455675
139	0x41a97f67	21.187208
140	0xc0de381f	-6.9443507
141	0xbe10fd3e	-0.14159104
142	0x3edb939d	0.42886057
143	0x4110ad24	9.042271
144	0x3fb7f108	1.4370432
145	0xbe748081	-0.23877145
146	0xc0a90704	-5.2821064
147	0xc051b608	-3.2767353
148	0x41293a62	10.576754
149	0xbd4ea9e1	-0.050454978
150	0xc080cf4c	-4.025305
151	0xc12cd006	-10.800787
152	0xc07d7796	-3.960424
153	0xc11146a4	-9.079746
154	0xc05b09fa	-3.422484
155	0x3ea6c0c8	0.32568955
156	0xc0de80fa	-6.953244
157	0xbf6d5ff4	-0.9272454
158	0xc0e318b2	-7.0967646
159	0x3f6174f5	0.8806909
160	0x402b55fe	2.6771235
161	0xc0fd02f0	-7.9066086
162	0xc0e155d2	-7.041726
163	0xc0c9f627	-6.311298
164	0x417884a6	15.532385
165	0x3f84ecc9	1.0384761
166	0xc12644dc	-10.391811
167	0xc10d4c62	-8.831148
168	0x40b6e4ff	5.7154536
169	0x410bb3ad	8.731366
170	0xc01d8a84	-2.4615793
171	0xc0abb155	-5.365397
172	0x40ca2e61	6.3181615
173	0x4118cab6	9.54949
174	0x40f6f7e3	7.7177596
175	0x41667b96	14.405172
176	0x41c4213a	24.516224
177	0xc0249551	-2.5716136
178	0xc08a9e9f	-4.331863
179	0xc18f954d	-17.9479
180	0xc00bf0a4	-2.1865625
181	0x40edf0b8	7.4356346
182	0x411ee701	9.931397
183	0x40dd75da	6.920636
184	0x3fd56203	1.6670536
185	0x401508f5	2.3286717
186	0x40c00172	6.0001764
187	0xc068b436	-3.6359992
188	0xc09488a0	-4.641678
189	0x40d7a0e1	6.7383885
190	0x40b380dd	5.6094804
191	0x40439403	3.055909
192	0x3ff46b8f	1.9095324
193	0xc0bebb2b	-5.9603477
194	0xc0afa8a5	-5.4893365
195	0x3d0f815c	0.035035476
196	0xbf33099e	-0.6993655
197	0xc100e600	-8.056152
198	0x401f649c	2.4905157
199	0xc06002a3	-3.500161
200	0x414c3f11	12.765397
201	0x4116c256	9.422445
202	0x3f9673f4	1.1754136
203	0xbf11ded4	-0.56980634
204	0xc0dd6f6b	-6.919851
205	0xbdae5be7	-0.08513623
206	0xc1345acd	-11.272168
207	0x3fcb05d0	1.5861149
208	0xc0f2ca25	-7.587176
209	0x41330275	11.1881
210	0x3f43dc3b	0.7650792
211	0xc126f795	-10.435445
212	0xc11e2fab	-9.886638
213	0x3f19a2b8	0.60013914
214	0xc0aa027f	-5.3128047
215	0xc0a55024	-5.166033
216	0xc1405d18	-12.022728
217	0x3eb81872	0.3595615
218	0xc083a19b	-4.113477
219	0xc0b9a960	-5.8019257
220	0xc01b7952	-2.4292798
221	0xc0bf02b1	-5.9690785
222	0x403a7692	2.913487
223	0x4083b2f5	4.1155953
224	0xc0c0fda0	-6.03096
225	0x410194cb	8.098826
226	0xbfcb3d2f	-1.5878047
227	0xc084d600	-4.151123
228	0xc11d9832	-9.849657
229	0x40978fb2	4.736291
230	0x4006812e	2.1016345
231	0xc069f2f5	-3.655454
232	0xbfc13f19	-1.5097381
233	0xc0bb8c80	-5.860901
234	0x40b3c3e9	5.617665
235	0x3f927012	1.1440451
236	0xbfde6e7e	-1.737747
237	0xc104bf21	-8.296662
238	0xc0c7c854	-6.243204
239	0xc06780c1	-3.6172335
240	0xc06e7d43	-3.7263954
241	0xc0c30d97	-6.095409
242	0xc16b01d2	-14.687944
243	0xc12a62e4	-10.649143
244	0x40c5a75e	6.1766806
245	0x3e259674	0.16170675
246	0xbff75ab5	-1.9324557
247	0x40cf7aa0	6.483719
248	0x40fbf957	7.874187
249	0x400c8ebf	2.1962125
250	0xc09d693a	-4.919095
251	0x3f521987	0.820702
252	0xc0cc1d6a	-6.3785906
253	0xc01ad961	-2.4195178
254	0xc0518cdc	-3.2742224
255	0xbf4fe0c2	-0.8120233

conv3.bias f4 [64]
0	0xbf9e0f50	-1.2348423
1	0xc06230f5	-3.534238
2	0xc09ef930	-4.9679184
3	0x3effc588	0.49955392
4	0xbf45450e	-0.77058494
5	0xbfeb3e35	-1.8378359
6	0xc02bd6ba	-2.6849809
7	0xbf5370b2	-0.82593834
8	0x3fd69f66	1.6767395
9	0xc0b31b00	-5.597046
10	0x3f96ca6f	1.1780528
11	0xc08c4edd	-4.384627
12	0xbf662855	-0.8990529
13	0xbfb9dd0f	-1.4520587
14	0x3e098040	0.1342783
15	0xbf716412	-0.9429332
16	0xc0ad923d	-5.4241014
17	0xc0e93feb	-7.2890525
18	0xbf10331b	-0.5632798
19	0x405befbf	3.436508
20	0xbf77be71	-0.96774966
21	0x3e75ce73	0.24004535
22	0x3fabdc8c	1.342668
23	0xbfb72398	-1.4307737
24	0xbecdbc9d	-0.40182963
25	0x3f5384e0	0.82624626
26	0xc014e5be	-2.3265224
27	0x3f869dbd	1.0516888
28	0xc00ef136	-2.2334723
29	0x40128f66	2.2900023
30	0xc09e2408	-4.9418983
31	0xc03ba8c7	-2.9321764
32	0xbfc91a2c	-1.5711112
33	0xbfdf3a4f	-1.7439669
34	0xbf66959c	-0.90072036
35	0x3d91439e	0.07092975
36	0xbfe6412d	-1.798864
37	0xbefd8b5d	-0.49520388
38	0xc0681e82	-3.626862
39	0x3fc1c93e	1.5139539
40	0xbf48b7f4	-0.7840569
41	0xc0255ac9	-2.583666
42	0xc01eea63	-2.4830558
43	0x402a5eb0	2.6620293
44	0x3fee502a	1.8618214
45	0xc042f84c	-3.0464048
46	0xc08cef6d	-4.404227
47	0xbfa84965	-1.3147398
48	0xbedd3948	-0.43207765
49	0xc0b3bca7	-5.616779
50	0xbe98f45b	-0.29873928
51	0x3f1b2f84	0.6061938
52	0xbfc3f442	-1.5308917
53	0xc0d66138	-6.6993675
54	0xc116dfd8	-9.429649
55	0xc0d81084	-6.752016
56	0xc0312117	-2.7676446
57	0xbe8603c6	-0.26174754
58	0xc002d2d8	-2.044119
59	0xbe60e3d7	-0.21961914
60	0x40eed255	7.4631753
61	0x3fb67388	1.4254007
62	0xc009137b	-2.141814
63	0xc0497afa	-3.148131

bn3.weight f4 [64]
0	0x411ed8bd	9.927915
1	0x4133b6cf	11.232131
2	0x408c92a6	4.3929014
3	0x4179f471	15.622178
4	0x413e524d	11.895093
5	0x40fdb859	7.9287534
6	0x419aa4f1	19.330538
7	0x40cdd528	6.43227
8	0x4145b535	12.35674
9	0x41138e0b	9.222178
10	0x410dc235	8.859914
11	0x410bd145	8.738591
12	0xc03e2091	-2.9707377
13	0x40b6da8e	5.714179
14	0x418d49c7	17.661024
15	0x41611068	14.066505
16	0x4100448b	8.016734
17	0x4052ab80	3.2917175
18	0x3f93ca77	1.1546162
19	0x41032937	8.197562
20	0x4152046d	13.1260805
21	0x4174c76a	15.298685
22	0x418e9666	17.823437
23	0x41982c6d	19.021692
24	0x417e2ff4	15.886707
25	0x411468fe	9.275633
26	0x41303353	11.01253
27	0x414d45b1	12.8295145
28	0x41294af6	10.580801
29	0x411f64f3	9.962146
30	0x415541dd	13.32858
31	0x410e99aa	8.912516
32	0x410461d1	8.273881
33	0x41399fb6	11.601492
34	0x418a3475	17.275614
35	0x40b6c6f3	5.711786
36	0x40a26e47	5.0759616
37	0x41468f12	12.409929
38	0x41857db3	16.686377
39	0x40e95248	7.291294
40	0x408f1af5	4.4720407
41	0x416c0594	14.751362
42	0x408c5960	4.38591
43	0x418e2a95	17.770792
44	0x415b69b8	13.71331
45	0x414841d1	12.516068
46	0x4143a4ba	12.227716
47	0x40de654e	6.9498663
48	0x41429005	12.160161
49	0x4187b4f2	16.963352
50	0x41151793	9.318255
51	0x4159f486	13.622198
52	0x4118ad1f	9.542266
53	0x40e7a009	7.2382855
54	0x410f2267	8.945899
55	0x41295ab7	10.584647
56	0x410ec04f	8.92195
57	0x3eaee739	0.34160784
58	0x40bab184	5.8341694
59	0x40b91163	5.7833724
60	0x411ee815	9.931661
61	0x41154ea3	9.331698
62	0xc010e03d	-2.2636864
63	0x41202d78	10.011101

bn3.bias f4 [64]
0	0x4009a342	2.1505895
1	0x3fc63abf	1.5486678
2	0x3c33c7af	0.010972901
3	0x408a9c0e	4.3315496
4	0x4093c007	4.617191
5	0x41206f51	10.027177
6	0x40909328	4.5179634
7	0x403a0e29	2.9071143
8	0x40920c90	4.5640335
9	0x40dd6ffb	6.9199195
10	0xc05f610c	-3.4902983
11	0x40b2dae6	5.589221
12	0xc10f6d3f	-8.964171
13	0x3f601dd6	0.87545526
14	0x410a8c59	8.659265
15	0x4089bce3	4.3043075
16	0x3fd7b1ef	1.6851176
17	0x4038ab95	2.8854725
18	0x3fdd00a3	1.7265819
19	0x410aedbc	8.683041
20	0x40c1588d	6.0420594
21	0xc09e95ae	-4.9557714
22	0x3ff52ebd	1.9154888
23	0x40ee250f	7.4420238
24	0x410d3917	8.826438
25	0x3ebfa958	0.37433887
26	0x40b8fffe	5.781249
27	0x4109c233	8.609912
28	0xbf6f7b01	-0.93547064
29	0x3fcb953f	1.5904921
30	0x3e254b72	0.16142061
31	0xbf21560c	-0.6302192
32	0xbea896af	-0.32927462
33	0x411a52c6	9.645208
34	0x409c9ab3	4.893884
35	0xbfaeead9	-1.366542
36	0x4020527c	2.5050344
37	0x40b4581b	5.635755
38	0x4076894f	3.8521307
39	0xc02a9efb	-2.6659534
40	0x401f4d0c	2.4890776
41	0x40777337	3.8664072
42	0xc1087dc0	-8.530701
43	0x3fe89e62	1.8173335
44	0x40943bfc	4.6323223
45	0x404c7d71	3.1951563
46	0x40b7e7d6	5.7470503
47	0x400f5f49	2.2401907
48	0x40204652	2.504292
49	0x40bb5136	5.8536634
50	0x4083fbde	4.1244955
51	0x409ecb02	4.962281
52	0x4069411d	3.6445992
53	0x400e23f8	2.2209454
54	0x40f1cbab	7.556112
55	0x3f9091d5	1.1294504
56	0x3f1fbbe6	0.62396085
57	0x3e6419b8	0.22275436
58	0x3ff36ab2	1.9016936
59	0x4030e57b	2.7640064
60	0xc00e1c1b	-2.2204654
61	0x40018b6b	2.0241344
62	0xbf9dd991	-1.2332021
63	0x4107a3a1	8.477448

bn3.running_mean f4 [64]
0	0x4410b583	578.8361
1	0x43d15cfa	418.72638
2	0x43a9495f	338.5732
3	0x45088eff	2184.9373
4	0x44849b53	1060.8539
5	0x44c94fc3	1610.4926
6	0x44f7bfa9	1981.9894
7	0x44522d09	840.7037
8	0x45d36e94	6765.8223
9	0x43c57e4b	394.98666
10	0x44b24190	1426.0488
11	0x44e78eb1	1852.4591
12	0x44400137	768.019
13	0x44279754	670.3645
14	0x449e16aa	1264.7083
15	0x45934ca8	4713.582
16	0x43b36b63	358.83896
17	0x446686dd	922.10724
18	0x446db964	950.8967
19	0x4553b9be	3387.609
20	0x44da1205	1744.5631
21	0x44f49fa2	1956.9885
22	0x44bf55db	1530.683
23	0x4538bb6f	2955.7146
24	0x450b3c7b	2227.78
25	0x443debbc	759.68335
26	0x45000e93	2048.911
27	0x45221b17	2593.693
28	0x4317bb38	151.73132
29	0x44f65e8d	1970.9547
30	0x446c8c86	946.1957
31	0x4489e586	1103.1726
32	0x44e504f7	1832.1552
33	0x43cd6b8f	410.8403
34	0x45372834	2930.5127
35	0x44045f62	529.49036
36	0x4475516d	981.2723
37	0x44fadcc6	2006.8992
38	0x44865460	1074.6367
39	0x452fd19b	2813.1003
40	0x445b07e8	876.12354
41	0x44a3ae35	1309.444
42	0x434c2531	204.14528
43	0x45c14611	6184.7583
44	0x44b75cfb	1466.9056
45	0x44160bfd	600.1873
46	0x44499890	806.3838
47	0x44d37039	1691.507
48	0x448e5eac	1138.9585
49	0x44419c22	774.4396
50	0x450e63f3	2278.2468
51	0x44d9fcfa	1743.9055
52	0x43b81436	368.1579
53	0x4394ea6b	297.8314
54	0x436a0fed	234.06221
55	0x432f243f	175.14159
56	0x442bb1d6	686.7787
57	0x43633655	227.21223
58	0x43e5caf7	459.58566
59	0x44547df2	849.9679
60	0x45b0966f	5650.804
61	0x44b14675	1418.2018
62	0x4282a3ed	65.32017
63	0x449f00a7	1272.0204

bn3.running_var f4 [64]
0	0x4a8a2040	4.526112e+06
1	0x4a29ace7	2.7799618e+06
2	0x49cc1cb3	1.6720864e+06
3	0x4b8c3678	1.8377968e+07
4	0x4af8d4bb	8.1536935e+06
5	0x4b12452f	9.585967e+06
6	0x4b7d76db	1.6611035e+07
7	0x4a7f101e	4.1789515e+06
8	0x4c19d597	4.0326748e+07
9	0x49b58cea	1.4872612e+06
10	0x4b1dcc34	1.0341428e+07
11	0x4b002bf2	8.399858e+06
12	0x4a407b8a	3.1536345e+06
13	0x4a992b15	5.0190185e+06
14	0x4b2bf5ea	1.126961e+07
15	0x4c19ef97	4.0353372e+07
16	0x49fd3c58	2.074507e+06
17	0x4a9818d0	4.983912e+06
18	0x4aaf9126	5.752979e+06
19	0x4b8139c4	1.6937864e+07
20	0x4b15de88	9.821832e+06
21	0x4b1fd450	1.0474576e+07
22	0x4b2c9bb8	1.1312056e+07
23	0x4bd0d996	2.737438e+07
24	0x4b5d1f60	1.4491488e+07
25	0x4aa7967f	5.4915195e+06
26	0x4b831c53	1.7184934e+07
27	0x4b966f7c	1.971788e+07
28	0x48a82c2e	344417.44
29	0x4b47dbec	1.3097964e+07
30	0x4acf71b7	6.7975315e+06
31	0x4b02c2f8	8.569592e+06
32	0x4b3c6aff	1.2348159e+07
33	0x49d7eb1e	1.7688038e+06
34	0x4bce778f	2.7062046e+07
35	0x4a0ac6a1	2.2737042e+06
36	0x4a5f6070	3.659804e+06
37	0x4b64c0c9	1.4991561e+07
38	0x4b2764d9	1.0970329e+07
39	0x4b89616d	1.8006746e+07
40	0x4a834f63	4.3027695e+06
41	0x4aed9908	7.785604e+06
42	0x495d2878	905863.5
43	0x4c103b08	3.7809184e+07
44	0x4b023814	8.534036e+06
45	0x4a43ddf2	3.2090845e+06
46	0x4a8bcb73	4.5807935e+06
47	0x4ada1d0b	7.1471415e+06
48	0x4ae0b724	7.363474e+06
49	0x4afb6bfe	8.238591e+06
50	0x4b5545e4	1.397706e+07
51	0x4b29fae9	1.1139817e+07
52	0x4a0f1fd1	2.3449482e+06
53	0x49f1f0f0	1.981982e+06
54	0x49a9a42e	1.3897018e+06
55	0x497b5647	1.02947644e+06
56	0x4a8ec273	4.6779455e+06
57	0x492af9c7	700316.44
58	0x49eb1aaf	1.9259739e+06
59	0x4a580de1	3.5398322e+06
60	0x4bc2b154	2.551876e+07
61	0x4b14c184	9.748868e+06
62	0x4857391e	220388.47
63	0x4ab976d0	6.077288e+06

fc1.weight f4 [256, 64]
0	0x3f2c6788	0.67345476
1	0x417c5dbb	15.772883
2	0xbf0bfa88	-0.54679155
3	0x3fd5ecd2	1.6712897
4	0x3dbc180f	0.09184276
5	0x3fd60b38	1.6722174
6	0x40566df1	3.3504603
7	0x4047d3ce	3.1223025
8	0xbf078eca	-0.52952254
9	0xc0c9ffd6	-6.31248
10	0x402df410	2.7180214
11	0xbf7b35f5	-0.98129207
12	0x40d86c16	6.763194
13	0x3ff1f565	1.8903013
14	0xc099ff43	-4.81241
15	0x3ed27895	0.41107622
16	0x3f176671	0.5914069
17	0xc05d6767	-3.4594362
18	0xbfe7f62b	-1.8122
19	0xc0c3ba45	-6.116488
20	0xc0a48561	-5.1412816
21	0xbee62731	-0.44951776
22	0x3fad1a63	1.3523678
23	0xbf96a068	-1.1767702
24	0x3ff6a503	1.9269108
25	0x400e1fb2	2.2206845
26	0xbf1d390d	-0.6141518
27	0xbf81bb79	-1.0135337
28	0x415c62c9	13.774117
29	0xc017fdbe	-2.3748622
30	0xc0151dfc	-2.329955
31	0x40137bb5	2.3044255
32	0xbf909c41	-1.1297685
33	0xc09424c3	-4.6294875
34	0xc0859249	-4.174107
35	0x40ccc151	6.398598
36	0xbfc2c022	-1.5214884
37	0x3e3b4960	0.18289709
38	0xc000bb8c	-2.011447
39	0x3e1c054b	0.15236394
40	0xc09bbfed	-4.8671784
41	0xc0293a39	-2.6441786
42	0x405ea829	3.4790137
43	0x3e8a37c5	0.26995674
44	0x404ca77e	3.197723
45	0x4143993d	12.224912
46	0xc015c77a	-2.3403
47	0x4022008e	2.5312839
48	0x3f96756d	1.1754586
49	0xbeaa6120	-0.33277225
50	0x3ea23d69	0.31687477
51	0xc10560d7	-8.336143
52	0xc01863bc	-2.3810873
53	0x4018506c	2.3799086
54	0xc047ae2f	-3.1200063
55	0x40afda6a	5.495412
56	0x3fac1262	1.344311
57	0x3f3ec30a	0.74516356
58	0xc0d6ab2f	-6.7083964
59	0xc06e3087	-3.7217119
60	0x40219482	2.5246892
61	0xc09793e9	-4.7368054
62	0x404963c9	3.1467154
63	0xc0b5354c	-5.662756
64	0x404116ba	3.0170121
65	0xc0c27447	-6.076694
66	0x40c1ba6d	6.054007
67	0x409cc61c	4.8991833
68	0xc0550f98	-3.3290768
69	0x408f1bd2	4.472146
70	0xc03c3d03	-2.9412239
71	0xc0ef7bde	-7.4838705
72	0x3f17b621	0.5926228
73	0xc0ee405c	-7.4453564
74	0x3f440bcf	0.7658052
75	0xc0ce9177	-6.455257
76	0x411afc09	9.686532
77	0x3e59b7f7	0.21261583
78	0x3f026cff	0.50947565
79	0xc0c0fdce	-6.030982
80	0xc0491db8	-3.142439
81	0xc05be7e2	-3.436028
82	0xc0ab22b5	-5.3479867
83	0xc0ccbfb6	-6.398402
84	0xc1487fcb	-12.531199
85	0x40446c74	3.0691195
86	0x40ce239b	6.4418464
87	0x3f3f915d	0.7483118
88	0x401c34b1	2.440716
89	0xbe770805	-0.24124153
90	0x3edef276	0.43544358
91	0xc0993a8e	-4.788398
92	0x40d6c559	6.7115903
93	0xc0b0ccb8	-5.52499
94	0x404ce70e	3.2016025
95	0xbe641b42	-0.22276023
96	0x3ee43f79	0.44579676
97	0xc17de285	-15.867803
98	0xc0541928	-3.3140354
99	0x40b10e46	5.5329924
100	0xbffe74a6	-1.9879348
101	0x3e9ca57b	0.30595002
102	0xc099e200	-4.808838
103	0x3f125ac1	0.5716973
104	0xc09e7d76	-4.952815
105	0xc043c938	-3.0591564
106	0x410f32be	8.949888
107	0x407ab30e	3.9171786
108	0xc0e160c8	-7.043064
109	0x3f537ca3	0.82612056
110	0xc1074771	-8.454942
111	0x3f6d143b	0.92608994
112	0x3f19b71e	0.6004504
113	0xc00b9398	-2.1808834
114	0x40cf3349	6.4750104
115	0xbf4e07cc	-0.8048065
116	0xc10bb1db	-8.730922
117	0xbf63a8a4	-0.889292
118	0xc0f52ca2	-7.6616983
119	0x416061e5	14.0239
120	0x408acc8e	4.33747
121	0xbf2645d3	-0.64950293
122	0xc0b9d028	-5.8066597
123	0xc0ae720e	-5.4514227
124	0xbfed3a09	-1.8533336
125	0xbe969e2f	-0.2941756
126	0xc059ce9b	-3.4032352
127	0xc126c117	-10.422141
128	0x3fdad061	1.7094842
129	0xc0ca4117	-6.3204455
130	0x4146004e	12.375074
131	0x403cc94e	2.9497867
132	0x405dca1d	3.465461
133	0x40409d90	3.0096169
134	0x3ea13bbd	0.3149089
135	0xc0ac83f3	-5.391107
136	0x3f2743fe	0.6533812
137	0xc0bf0e9e	-5.9705343
138	0x3f959dfa	1.1688836
139	0xc08872d4	-4.264017
140	0x40c882e1	6.2659764
141	0x408dac66	4.4272947
142	0x40bc829c	5.8909435
143	0x3f76d247	0.9641461
144	0x40b56597	5.668651
145	0xc0159804	-2.3374033
146	0xc0c26a57	-6.075481
147	0xc0ad1784	-5.4091206
148	0x409f5057	4.978557
149	0x4083527e	4.10382
150	0x407fe5d3	3.9984024
151	0xc1394454	-11.579182
152	0xc0232319	-2.5490172
153	0x40081157	2.1260583
154	0xc0ae2b03	-5.4427505
155	0xc14a3d23	-12.639926
156	0x3f8de064	1.1084104
157	0xc039607e	-2.8965144
158	0x3eefc799	0.46831968
159	0xbf2c08d4	-0.6720097
160	0x41074d1c	8.456326
161	0xc12c9052	-10.785234
162	0xc0ddaafd	-6.9271226
163	0xbf2c4d1f	-0.6730518
164	0xc06c5c9f	-3.6931531
165	0x409d27cf	4.9111094
166	0x412998df	10.599822
167	0x4026fdfc	2.609252
168	0x4041ad71	3.026211
169	0x3e0181ca	0.12647167
170	0x40defe8a	6.9685717
171	0xbfce595a	-1.6121018
172	0x4102241f	8.133819
173	0xbfbfefd0	-1.499506
174	0x40abd941	5.3702703
175	0xbfe6259e	-1.798023
176	0x416f9d38	14.9758835
177	0x3f4c6056	0.79834497
178	0xc095aa2e	-4.677024
179	0x412a79b6	10.654715
180	0x3ffe92b7	1.9888524
181	0x3ed2916c	0.41126573
182	0xc02a1bc0	-2.6579437
183	0x40b598b2	5.6748896
184	0xc06487da	-3.5707917
185	0xc0dd2965	-6.911303
186	0x40aed7c1	5.463837
187	0x4091f9e8	4.561756
188	0x3fb9375d	1.447002
189	0x3f9d17a7	1.2272843
190	0x40a4218c	5.129095
191	0xc1499d79	-12.600945
192	0xc0d3e79a	-6.6220217
193	0xc1226350	-10.149246
194	0xbf4d1319	-0.80107266
195	0xbff2a6ff	-1.8957213
196	0x40a5d9e6	5.182849
197	0xc08a8951	-4.3292623
198	0xc005a801	-2.0883791
199	0x40386ee5	2.8817685
200	0xbf86d4a6	-1.0533645
201	0xc0957623	-4.670671
202	0xbfc84d19	-1.5648528
203	0xbfdf52e8	-1.7447176
204	0x40f212b3	7.5647826
205	0x40f40a03	7.626222
206	0xc0bcb49f	-5.8970485
207	0xc01b453e	-2.4261012
208	0xc089c783	-4.3056045
209	0xc058bc55	-3.3864949
210	0xbf0a5e2b	-0.5404994
211	0xc0fe9c41	-7.956574
212	0xc0eb2142	-7.34781
213	0xc08aec6e	-4.341361
214	0xc0d46bb3	-6.638147
215	0xc06431e0	-3.5655441
216	0xbfde75ec	-1.7379737
217	0xc03786dc	-2.8676062
218	0xc126a628	-10.4155655
219	0xc0cf6d7d	-6.4821153
220	0x3fc67f23	1.5507549
221	0x3f9a8f21	1.207493
222	0xbf3604a4	-0.7110083
223	0x3efc51f0	0.49281263
224	0x3eb99f83	0.3625451
225	0xc11b2573	-9.696643
226	0xbfcb20b2	-1.5869353
227	0x405aee43	3.4207923
228	0xbfb1d053	-1.38917
229	0x3e889c9f	0.26681992
230	0x403534e8	2.8313541
231	0x409f3a38	4.975857
232	0xc0cefe29	-6.4685254
233	0xc06cce5e	-3.7000957
234	0x41093c48	8.577217
235	0x400b8419	2.1799376
236	0xbf8449ae	-1.0334985
237	0x402a6af5	2.6627781
238	0xc1210939	-10.064752
239	0x403a4421	2.9104083
240	0xc0728256	-3.789205
241	0xc0d6870f	-6.7039866
242	0xc0004c07	-2.0046403
243	0xc02586a9	-2.586344
244	0x409a3efa	4.8201876
245	0xc0b96c8a	-5.7944994
246	0xc096eb96	-4.716258
247	0xbfb03a68	-1.3767824
248	0xc08c7147	-4.388828
249	0x4002187a	2.032744
250	0x402db3d6	2.7141013
251	0xc06b1615	-3.6732228
252	0xbf5cc686	-0.8624042
253	0xc0b995b0	-5.7995224
254	0x401ddeb0	2.4667168
255	0xbf81bebe	-1.0136335

fc1.bias f4 [256]
0	0xc0f05bac	-7.5111904
1	0xc0fc0ef6	-7.8768263
2	0xc08928a4	-4.286211
3	0xbff8d4f7	-1.9439992
4	0xc032618c	-2.7872038
5	0xc06f8ea9	-3.7430823
6	0x4040ce2c	3.0125837
7	0xc07e3bed	-3.9724076
8	0xc0b8be47	-5.773227
9	0xc122076f	-10.126815
10	0xc0a163b7	-5.043422
11	0xc06ec397	-3.7306879
12	0xc0f2e49d	-7.590407
13	0xc05719a9	-3.3609412
14	0xbf06fb2e	-0.5272702
15	0xc0cce085	-6.402407
16	0xc0db4808	-6.852543
17	0xbfffaf0c	-1.9975295
18	0xc0fd1e19	-7.909924
19	0xbf92faa2	-1.1482737
20	0xc09c3489	-4.881413
21	0xc0f9d82c	-7.807638
22	0xc08fd20c	-4.4943905
23	0xc00a2446	-2.158464
24	0xc0c72ba5	-6.2240777
25	0xc0dd2f7c	-6.9120464
26	0xc09cb605	-4.897219
27	0xbff8c2cd	-1.9434448
28	0xc0fafeeb	-7.843618
29	0xc043f753	-3.0619705
30	0xc09933f1	-4.7875905
31	0xc092db05	-4.589236
32	0xc0431f1c	-3.0487738
33	0xc0cb6dc6	-6.35715
34	0xc05cb94b	-3.4488094
35	0xc08a0f92	-4.3144007
36	0xc0590f2f	-3.3915517
37	0xc01f1f58	-2.486288
38	0xc0de3b66	-6.944751
39	0xc0a9a2d0	-5.3011246
40	0xc096df7a	-4.71478
41	0xc06a3210	-3.6593056
42	0xc0d21e1a	-6.5661745
43	0xc04d42c5	-3.2072003
44	0xc01f2da2	-2.4871602
45	0xc0b9c9ab	-5.8058677
46	0x4083771b	4.1082892
47	0xc0ac8a72	-5.3919
48	0xc0df5715	-6.97938
49	0xc07a1624	-3.9076014
50	0xc0cc20cf	-6.379005
51	0xc098cf28	-4.7752876
52	0xc03bf4f2	-2.9368253
53	0xc0259f3d	-2.5878441
54	0xc03f9c9a	-2.9939332
55	0xbf9600ad	-1.1718956
56	0xc12c158b	-10.7552595
57	0xc0ab0069	-5.3438
58	0xc0ae57cd	-5.448218
59	0xc0e606ba	-7.188321
60	0xbfad35af	-1.3532008
61	0xc0a191ae	-5.049033
62	0xc02509c8	-2.578722
63	0xbfa87fc8	-1.3163996
64	0xc0929265	-4.5803704
65	0xbf85edc7	-1.0463189
66	0xc03059a5	-2.7554715
67	0x3e704417	0.23463474
68	0xc06bf515	-3.6868336
69	0x405235cd	3.2845337
70	0xc098720b	-4.7639213
71	0xc0d60b56	-6.688884
72	0xc0a23204	-5.0686054
73	0xc08a86ba	-4.328946
74	0xbf146337	-0.5796389
75	0xc0b41dba	-5.6286287
76	0xc0a8792b	-5.264791
77	0xbeecea28	-0.46272397
78	0xc0769b94	-3.8532457
79	0xc0b1ab65	-5.552172
80	0xc0510550	-3.2659492
81	0xc0a8bfa3	-5.273393
82	0x3f48cc84	0.78437066
83	0xc05c461b	-3.441779
84	0xc0aea502	-5.4576426
85	0xc102ce7d	-8.175412
86	0xc0c7af46	-6.2401457
87	0xc0d492c6	-6.6429167
88	0xc068a52d	-3.6350815
89	0xc0694501	-3.6448367
90	0xc06dd54c	-3.7161436
91	0xc0f9ccac	-7.8062344
92	0xc0b3f6c7	-5.623874
93	0xc060325c	-3.5030737
94	0xc06eeb3e	-3.733108
95	0xc08628f8	-4.192501
96	0xbf944376	-1.1583087
97	0xbf9a2be5	-1.2044646
98	0xc0660840	-3.5942535
99	0xc0ed815f	-7.4220424
100	0xc10acece	-8.675489
101	0xc0de983f	-6.9560847
102	0xc10d01dd	-8.812955
103	0xc0b6a92c	-5.708151
104	0xc10940cd	-8.5783205
105	0x4066135e	3.594932
106	0xc11eba69	-9.92051
107	0xc101ba19	-8.107934
108	0xc1383e9c	-11.5152855
109	0xc09d1038	-4.90823
110	0xc09fd714	-4.9950047
111	0xc063d768	-3.5600224
112	0xc0b0a4d2	-5.5201197
113	0xc146819e	-12.406645
114	0xc04f0e3f	-3.2352445
115	0xc0f1af33	-7.5526366
116	0xc0b5ce6d	-5.6814485
117	0xc069ff1d	-3.6561959
118	0xc0cd68c2	-6.419038
119	0xc041395c	-3.019126
120	0xc086c7b1	-4.2118764
121	0xc0a310cf	-5.095802
122	0xc0376b52	-2.8659253
123	0xbf8a412f	-1.0801142
124	0xc04d5f80	-3.2089539
125	0xc1014afe	-8.080809
126	0xc005a0ae	-2.087932
127	0xc09732a0	-4.72493
128	0xc01d5965	-2.4585812
129	0xc0cfda31	-6.4953847
130	0xc08eb061	-4.4590306
131	0xc0aa7a12	-5.327401
132	0xc08f0005	-4.4687524
133	0x402fb72e	2.7455554
134	0xbe67deff	-0.2264366
135	0x3f4c59db	0.7982461
136	0xc07342cd	-3.8009522
137	0xbfef139e	-1.8677862
138	0xc0d3daa7	-6.620441
139	0xc0f64936	-7.696437
140	0xc0a1b1ae	-5.0529394
141	0xc08c8ecb	-4.392431
142	0xc01c5fea	-2.4433541
143	0xc00af579	-2.1712325
144	0xc0001e15	-2.001836
145	0xc0d715de	-6.7214193
146	0xbfdf0888	-1.7424479
147	0xc0ce8c43	-6.454622
148	0xc0a2bb8a	-5.085393
149	0xc043461e	-3.0511546
150	0xc0db612d	-6.8556123
151	0xc0422274	-3.0333529
152	0xc0ed2d2f	-7.4117656
153	0xc08c937e	-4.3930044
154	0xc083b25c	-4.1155224
155	0xc098ead5	-4.778666
156	0xbfea03ac	-1.828237
157	0xc0811c12	-4.0346766
158	0xc0ac9669	-5.3933606
159	0xc0b60b2d	-5.688864
160	0xc0cde714	-6.434458
161	0xc07f8b82	-3.99289
162	0xc0eeb7fb	-7.4599586
163	0xc09c9a29	-4.8938184
164	0xbf10e490	-0.5659876
165	0xc0bbbcde	-5.866805
166	0xc0368cca	-2.852343
167	0xc0e47005	-7.1386743
168	0xc0949fd7	-4.6445117
169	0xbf2275b7	-0.6346087
170	0xc0a84b07	-5.2591586
171	0xc086bcde	-4.210555
172	0xc0b1acf9	-5.552365
173	0xbdcec568	-0.10096246
174	0xc105d986	-8.365606
175	0xc10b5e89	-8.71058
176	0xc0840f5a	-4.126874
177	0xbfdb75af	-1.7145289
178	0xc03f0432	-2.984631
179	0xbfd6e4e7	-1.6788605
180	0xbee621fc	-0.44947803
181	0xc002f4e9	-2.0461981
182	0xc0dc492f	-6.8839335
183	0xc0b19999	-5.5499997
184	0xc0fe75cb	-7.951879
185	0xc1117545	-9.09113
186	0xc0a67f50	-5.203041
187	0xc122aaa8	-10.166664
188	0x4092e889	4.5908856
189	0xc100b82e	-8.044966
190	0xc0292b1a	-2.6432557
191	0xc0b7037a	-5.7191744
192	0xc0a792e3	-5.2366805
193	0xbf75cace	-0.9601258
194	0xc0631d1b	-3.5486515
195	0xc03aaecb	-2.9169185
196	0xc0a4ff4c	-5.156164
197	0xc0ca7b85	-6.327578
198	0xc09b72eb	-4.857778
199	0xc091be05	-4.5544457
200	0xc0c7de2e	-6.2458715
201	0xc08f3f12	-4.476449
202	0x403a521c	2.9112616
203	0xc0f02ac3	-7.50522
204	0xc009639f	-2.1467054
205	0xc0e40193	-7.125192
206	0xc0cf3b02	-6.475953
207	0xbf67fd98	-0.9062133
208	0xc0895c18	-4.292492
209	0x3d103add	0.035212386
210	0xc0ea922a	-7.3303423
211	0xc0aa556e	-5.3229284
212	0xc11b317c	-9.699581
213	0xc0c018bd	-6.00302
214	0xc10e3a1e	-8.889189
215	0xc0be89e2	-5.9543314
216	0xc0e08624	-7.0163746
217	0xc074c8b9	-3.8247511
218	0xc0d7f544	-6.7486897
219	0xc03940ee	-2.894588
220	0xc10ff86e	-8.998152
221	0xc04105e2	-3.015984
222	0xc0d2a375	-6.5824533
223	0xc04b1a29	-3.1734717
224	0xc11e38ef	-9.8889
225	0xc0d0a934	-6.5206547
226	0xc0b43818	-5.6318474
227	0xc05a9732	-3.4154782
228	0xc074e2c9	-3.8263419
229	0xc0ed5e58	-7.4177666
230	0xbfb6f1d7	-1.4292554
231	0xbff38dfb	-1.9027704
232	0x3f9c5591	1.2213613
233	0xc123ed89	-10.245492
234	0xbfceee68	-1.6166506
235	0xc05d6ed0	-3.4598885
236	0xc039e82e	-2.9047961
237	0xc1052919	-8.322534
238	0xc0c5c679	-6.1804776
239	0xc0e9b73f	-7.303619
240	0xc0c0312f	-6.006004
241	0xc101bf10	-8.109146
242	0xc072d002	-3.7939458
243	0xc09c6b33	-4.888086
244	0xc034dea1	-2.8260882
245	0xc02ba6f1	-2.6820643
246	0x3f403893	0.75086325
247	0xc0be1063	-5.9395003
248	0xc0b8f9e7	-5.7805057
249	0xc0d9c6fb	-6.8055396
250	0xc1350225	-11.313024
251	0xc0e67236	-7.201442
252	0xbf8c0e72	-1.0941908
253	0xc0aaff19	-5.34364
254	0xc02d629c	-2.7091436
255	0xc0ff5038	-7.9785423

bn4.weight f4 [256]
0	0xbf396656	-0.7242178
1	0x3f92c7b1	1.1467191
2	0x3ec47af2	0.3837505
3	0x3f90a6bc	1.1300883
4	0x3e8c39ae	0.27387756
5	0x3f1654c9	0.5872312
6	0xbdeddc9c	-0.116143435
7	0xbfcecb39	-1.6155769
8	0xbf27ba8e	-0.65519035
9	0xbf5c13b5	-0.8596757
10	0x3cdb2f31	0.026755901
11	0x3c74006c	0.014892679
12	0xbfb4e590	-1.4132557
13	0x3de8e2af	0.113713615
14	0x3e131c3f	0.14366244
15	0x3ef33684	0.4750253
16	0xbde67519	-0.11252803
17	0x401b3d67	2.4256227
18	0xbd5d5ac3	-0.054041635
19	0xbd8daf17	-0.06918161
20	0xbf0336e9	-0.5125566
21	0x3f5fa1d9	0.87356335
22	0xbf80ad75	-1.0052935
23	0x3ecabfef	0.3959956
24	0x3f5376ae	0.82602966
25	0x3d213dc3	0.03936554
26	0x3fa151ed	1.2603127
27	0x3f50eadb	0.8160836
28	0xbe977bd7	-0.2958667
29	0xbe1536f8	-0.1457175
30	0xc0038da7	-2.0555208
31	0x3eaeab64	0.34115136
32	0x3fa85c70	1.315321
33	0xbd1496e0	-0.036276698
34	0xbf45a25f	-0.77200884
35	0x3df10b30	0.11769712
36	0xbebdf01f	-0.3709726
37	0x3fb28f7b	1.3950037
38	0x3f3bed2a	0.7340876
39	0x3f52be48	0.82321596
40	0xbf030e0a	-0.51193297
41	0xbf995b3c	-1.1980968
42	0xbe50c659	-0.20388164
43	0xbdbdaf19	-0.09261913
44	0x3eb630dc	0.35584152
45	0x3c71141a	0.014714265
46	0xbf40da50	-0.7533312
47	0xbf560c79	-0.8361278
48	0xbebc2a6a	-0.3675111
49	0xbdb7bd09	-0.089716025
50	0x3e6351ec	0.2219922
51	0x3ecd3df0	0.40086317
52	0xbf1fdf08	-0.62449694
53	0xbebbcf21	-0.36681464
54	0xbdfd9003	-0.12380984
55	0x3c8c2e3a	0.017111886
56	0xbf8df9a2	-1.1091807
57	0xbe104acc	-0.14091033
58	0x40be1959	5.940594
59	0x3ffb4241	1.9629594
60	0x400d2b1b	2.205756
61	0xbfd57098	-1.6674986
62	0xbded7454	-0.115944535
63	0x40c355e5	6.104235
64	0x3e69521b	0.22785227
65	0xbe686ebe	-0.22698495
66	0xbea1c75e	-0.31597418
67	0xbf740484	-0.9531939
68	0x3e039d09	0.12852873
69	0xbca45e57	-0.020064516
70	0xbea720e8	-0.32642293
71	0x3f431e75	0.7621835
72	0x3fb9a7fb	1.4504389
73	0x3f08e149	0.5346876
74	0x4017e865	2.3735592
75	0x3c281bd2	0.010260539
76	0xbe7854e7	-0.24251138
77	0x3dc786f3	0.097425364
78	0x3e2c2381	0.16810419
79	0xbdbc3006	-0.09188847
80	0x40db882c	6.8603725
81	0x3e04ef77	0.12981974
82	0x3cae1ae2	0.021253053
83	0xbf816f87	-1.011216
84	0xbf597403	-0.84942645
85	0x3e0aab7a	0.13541976
86	0x3ee445e9	0.44584587
87	0x3f1aafca	0.6042448
88	0xbdb4d083	-0.08828833
89	0xbd9d584f	-0.07682859
90	0x40a9bbba	5.304166
91	0x3dd1a802	0.10237123
92	0xbe14dae7	-0.1453663
93	0xbde09ff0	-0.10968006
94	0x400a561f	2.1615064
95	0xbe5ee1dd	-0.21765848
96	0x3da71865	0.0815895
97	0x40cb3cf5	6.351191
98	0x3d9abbfd	0.07555387
99	0xbefd33b6	-0.49453515
100	0x3d467514	0.0484515
101	0x3f54bf80	0.83104706
102	0x3f6cb796	0.9246763
103	0x3e31532d	0.17316885
104	0xbe224664	-0.15847164
105	0x404507f2	3.07861
106	0x3ea03d40	0.3129673
107	0xbebd4dd8	-0.36973453
108	0xbfd79a1f	-1.6843909
109	0x3fb510d8	1.4145765
110	0x3f53cdd5	0.8273595
111	0x3c92f58c	0.017939351
112	0xbca74dc2	-0.02042282
113	0x40806086	4.0117826
114	0x3f41340c	0.7547004
115	0x3e87384e	0.26410145
116	0xbd919f92	-0.07110514
117	0xbbdbfbd4	-0.00671337
118	0xbf9ebf9a	-1.2402222
119	0xbe826bb6	-0.25472802
120	0x400a5945	2.1616986
121	0x3e05c85e	0.13064715
122	0x404c4f1d	3.1923287
123	0x3d974141	0.07385493
124	0xbed90831	-0.42389062
125	0x3e672dbf	0.22576044
126	0x4017f56d	2.3743546
127	0xbf2c7633	-0.6736786
128	0xbd742e24	-0.059614316
129	0x3ee307dc	0.44341934
130	0xbef22b87	-0.47298834
131	0xbe81848c	-0.25296438
132	0xbe81f678	-0.25383353
133	0x3dcfa454	0.10138765
134	0x3e654356	0.22388968
135	0x3ec74204	0.38917553
136	0xbfc98bc2	-1.5745776
137	0xbcb3b385	-0.021936188
138	0xbda667fa	-0.08125301
139	0x3b502b47	0.0031764077
140	0xbd8a25d8	-0.06745499
141	0x3e9be0b4	0.30444872
142	0xbe7c86c9	-0.24660791
143	0xbed35142	-0.41272932
144	0x40689ccf	3.6345708
145	0x3e7debe9	0.24797024
146	0x3fdd09dc	1.7268634
147	0xbc8a2986	-0.016865503
148	0x3fcd5cb0	1.6043911
149	0xbe53a5c9	-0.20668711
150	0x3f777834	0.9666779
151	0x3e5cb3e5	0.21553
152	0xbf781e33	-0.9692108
153	0xbd457d8d	-0.048215438
154	0x3f8c4f66	1.096173
155	0xbed4c0c2	-0.41553313
156	0x3e07ea70	0.13273025
157	0x3eee48f7	0.46540043
158	0x3e013d23	0.12620978
159	0xbee888d2	-0.45416886
160	0x3f957ac2	1.1678088
161	0x40a8d72e	5.276267
162	0x3f88468f	1.0646533
163	0x3e2ea55c	0.17055267
164	0x3fcd87ce	1.6057069
165	0x3e55ce6c	0.20879525
166	0xbdc2f588	-0.095194876
167	0x3eb3fef1	0.35155442
168	0x402afa02	2.6715093
169	0xbf00b269	-0.5027223
170	0x3e38b632	0.18038252
171	0x3ea031a3	0.3128787
172	0xbe71a3b5	-0.23597606
173	0x3eae18b0	0.3400321
174	0xbd5a635c	-0.053317413
175	0xbe9be70e	-0.30449718
176	0x3e7df8a6	0.24801883
177	0x3cd9ac58	0.026571438
178	0x3e3c8bb4	0.18412668
179	0x3db4e8da	0.088334754
180	0x3d52a9c4	0.051431432
181	0x3e714d3e	0.23564622
182	0x40085dd1	2.130726
183	0xbea84a46	-0.32869166
184	0x3dabaca4	0.08382538
185	0x40887b2a	4.2650347
186	0xbcc598a9	-0.024120646
187	0x3e98e5c0	0.29862785
188	0xbe2695d4	-0.16268092
189	0x3f1bddcf	0.6088533
190	0xbd369c53	-0.044582676
191	0xbf90bf2c	-1.1308341
192	0x3da8b73a	0.08238073
193	0xbe8805df	-0.2656698
194	0x3dbc2a98	0.091878116
195	0xbc85d7a5	-0.016338179
196	0x3cbde52f	0.023180572
197	0xbe315944	-0.17319208
198	0x3e4c74cb	0.19966428
199	0xbf470ed5	-0.77757007
200	0xbfa466fa	-1.2843926
201	0xbee0554a	-0.4381507
202	0x40991e34	4.784937
203	0xbd79ffeb	-0.061035078
204	0xbe58f950	-0.21188855
205	0x3f8928f6	1.0715625
206	0xbe80d575	-0.25162855
207	0x3d09adf3	0.033613157
208	0xbe9925b9	-0.29911593
209	0x3ef7b35f	0.48379037
210	0x40c166b2	6.043786
211	0x3f2508c9	0.6446653
212	0x3f1bce8d	0.60862046
213	0xbda28712	-0.07935919
214	0x3ecc5cc0	0.39914513
215	0x3edae70d	0.42754403
216	0xc010fb6b	-2.2653453
217	0x3e9cf037	0.3065202
218	0xbeab3f98	-0.33446956
219	0x3c4f0d3b	0.012637432
220	0xbf02b696	-0.51059854
221	0x3cab1723	0.020885056
222	0xbd9c7255	-0.076389946
223	0xbd1bd533	-0.03804512
224	0x3ec6d7d2	0.38836533
225	0xbe08adb6	-0.13347515
226	0xbe28eb38	-0.16495979
227	0x3ed24d18	0.41074443
228	0xbed820f9	-0.42212656
229	0x3ecd8d82	0.40147024
230	0x3e6c7b6f	0.23093961
231	0x3e2b7514	0.1674388
232	0xbe9c1084	-0.3048135
233	0x40bbf665	5.8738275
234	0xbe916aac	-0.28401697
235	0xbe254156	-0.16138205
236	0xbe91a744	-0.28447926
237	0xc0648f91	-3.5712626
238	0x3e306c89	0.17228903
239	0x3df87fca	0.12133749
240	0x3fb467af	1.4094142
241	0xbe48dfc6	-0.19616613
242	0x3ef9e640	0.4880848
243	0xbe021058	-0.12701547
244	0x40dec33a	6.9613314
245	0x3e60888c	0.21927088
246	0x40d2b5a8	6.584675
247	0x3f4d5d3f	0.8022041
248	0xbea43e2d	-0.32078686
249	0x3d9f5bde	0.07781194
250	0x3f039ed9	0.5141426
251	0x3f83861f	1.0275306
252	0x400ff5a1	2.249367
253	0x3f4cc439	0.7998691
254	0xbdadd03d	-0.08486984
255	0x406a8fcb	3.6650264
