mini_batch_exp/models/mnist_sgd_batch1024_lr0.1.pt (torch_old, 326372 bytes, 26 tensors)

conv1.weight f4 [16, 1, 3, 3]
000000 af cd 66 bb bc 20 0b 3d 6b 68 16 3e e0 05 84 be
       -0.0035217812 0.033966765 0.1468827 -0.25785732
000010 f1 3f 95 3e c1 1f d3 3d b4 0d 81 bc d7 77 5c 3e
       0.29150346 0.10308791 -0.015753604 0.2153009
000020 46 05 21 bd ed 73 28 be 3c 05 9b 3e f2 4e 9f 3e
       -0.03931167 -0.16450472 0.3027743 0.31114918
000030 ee 87 d1 3d 46 62 b9 3b 86 94 b1 3d a8 62 cf ba
       0.10231005 0.005657467 0.08670907 -0.0015822249
000040 3a c7 8c bd a5 94 14 be 88 7c ea 3d 20 f1 df 3c
       -0.06873937 -0.14509828 0.11449534 0.027336657
000050 5b 0a 33 be f9 d3 c4 bd 6d da d6 3c 80 27 3b 3e
       -0.17484419 -0.09610743 0.0262272 0.18276787
000060 1a b6 59 bd f3 0f 58 be d2 c9 a1 3e 46 d7 9b bd
       -0.05315218 -0.21099834 0.3159929 -0.076094195
000070 da 95 0e 3e cf 53 52 be 8f 58 ed bc 65 c9 3b 3e
       0.13924351 -0.20539783 -0.028972892 0.18338545
000080 d3 da 40 3d 10 b7 98 3e 31 49 99 3d b1 00 91 3e
       0.047083687 0.29827166 0.07484663 0.2832084
000090 e7 4b 61 be 10 ca 8e 3d 69 0c ca be 36 1f 93 bd
       -0.2200161 0.06972134 -0.39462593 -0.071836874
0000a0 c0 e3 98 be 28 d6 40 3e 52 d3 07 3b 02 a9 0b be
       -0.2986126 0.18831694 0.0020725322 -0.1363869
0000b0 6e 66 91 3e c9 80 08 3e a7 ed 8a bd 6d 64 6f be
       0.2839846 0.13330378 -0.0678361 -0.23378153
0000c0 22 12 8b 3e 88 5d c0 3d 1f 95 9f be c2 43 72 bd
       0.27162272 0.0939284 -0.31168458 -0.05914665
0000d0 60 82 7d 3e 59 77 88 3e 8d 0e 9b be a5 04 09 be
       0.24756765 0.26653555 -0.3028454 -0.13380678
0000e0 05 75 b1 3e 51 d1 84 be 77 16 4b 3d e5 8e 6c be
       0.3465959 -0.25940946 0.04958197 -0.23101385
0000f0 6e 91 0d be 78 73 90 be c5 53 8e bd 41 be 05 be
       -0.13825008 -0.28213096 -0.069495715 -0.13060857
000100 86 c2 19 be 1b 6d a4 be 7e 75 32 3e 23 b3 5c be
       -0.15015611 -0.3211449 0.17427632 -0.2155271
000110 37 0f f7 3d 7a 65 8d 3d a0 c8 9b be 5c 44 67 be
       0.12063449 0.06904121 -0.30426502 -0.22584671
000120 89 bf 7a bd 19 32 55 be b9 00 90 be a9 9d 1f bd
       -0.06121782 -0.20819892 -0.2812555 -0.038968716
000130 ed e8 73 3d db ae 1b bd f6 31 19 3d 76 cc 47 3e
       0.059548307 -0.038008552 0.037401162 0.1951159
000140 16 d9 00 3e e8 99 4c b8 dd 72 cf 3c 16 f6 f8 bd
       0.12582812 -4.8780727e-05 0.025323326 -0.12156312
000150 76 da 06 3c 97 90 50 be 92 1f 72 3d 17 1f c2 3e
       0.008230796 -0.20367657 0.05911214 0.37914345
000160 15 22 4b be 58 9a 4d 3d 48 ee a6 3e f2 f1 9e be
       -0.1983722 0.05019602 0.3260367 -0.31043965
000170 88 e7 b6 bc d7 ef 4a be 26 91 af 3e 2f 97 59 3e
       -0.0223272 -0.19818054 0.34290427 0.21249078
000180 ba f0 08 3d 6f 39 05 3e d3 b7 7b be 98 f2 c4 3d
       0.0334327 0.1301019 -0.24581842 0.096165836
000190 bd 2f 4c be 0e 80 91 3e 02 c5 dd 3d 4e 01 38 3d
       -0.19940086 0.2841801 0.10828592 0.04492312
0001a0 5c 1d e8 bd 90 a4 ac 3c 8e 43 97 3d 78 55 a2 be
       -0.11333725 0.021074563 0.07385932 -0.31705832
0001b0 57 93 94 3e c4 01 f5 bd ae a2 a7 be 8b 49 5f 3e
       0.2901866 -0.119632274 -0.32741302 0.21805398
0001c0 16 aa 80 bd 16 ee 54 be 2a 9e 1c be ea 10 9a be
       -0.06282441 -0.20793948 -0.1529471 -0.3009103
0001d0 f0 74 e1 bd 7c f7 1e be c4 22 b5 3d d1 8a 6d 3e
       -0.11008632 -0.15524095 0.08844522 0.23197486
0001e0 ed b3 ef 3d 7d 2a 32 bd 22 9c 07 3e 89 83 4d 3e
       0.1170424 -0.04349755 0.13243154 0.20069708
0001f0 96 e0 86 3d 6d 93 0c 3e 9d 40 61 be 33 ca 85 bd
       0.06585805 0.13728113 -0.21997304 -0.06532707
000200 f2 b7 dd 3a db 48 a0 bd 43 77 3b be 3e d9 27 be
       0.0016915782 -0.07826396 -0.18307213 -0.16391465
000210 4b e7 73 3e 1d b8 b5 bc d8 08 8f be dc f1 8c be
       0.238187 -0.022182519 -0.27936435 -0.27528274
000220 b8 7c 74 be 4c dc 54 3c e8 a5 83 3e a0 aa 14 3e
       -0.23875701 0.012991976 0.25712514 0.14518213
000230 0e 44 c2 bc ed 12 57 3d e4 dc 32 3d aa 61 19 bd
       -0.023714092 0.052508283 0.04366769 -0.037446655

conv1.bias f4 [16]
000000 72 c5 f3 bd f0 49 ea bd f2 6f 1e 3d 4e d1 58 be
       -0.11902894 -0.11439884 0.038680978 -0.21173593
000010 51 18 53 3d e0 02 70 3d 10 b2 43 be 7b ac 7a be
       0.05153686 0.05859649 -0.19110894 -0.24479859
000020 20 db 45 bc 78 27 fe 3d bc d0 a0 be be 4c 9a 3e
       -0.012076169 0.12409872 -0.31409252 0.30136675
000030 cf e5 0b be da 0a 50 3e 80 98 c8 3b 8b c9 95 3d
       -0.13661884 0.2031664 0.006121695 0.07313832

bn1.weight f4 [16]
000000 7e 0e 80 3f f3 26 80 3f 8e 8b 7a 3f bf 4a 80 3f
       1.0004423 1.0011886 0.97869194 1.0022811
000010 ec 09 81 3f 8f c6 81 3f 33 8c 82 3f 55 89 73 3f
       1.0081153 1.013872 1.0199035 0.9513143
000020 9d 5c 83 3f 16 7e 7f 3f 88 6e 79 3f 4a be 76 3f
       1.0262638 0.99801767 0.9743428 0.9638411
000030 be d2 84 3f 1c 2a 81 3f 1d 4a 81 3f 7e 24 80 3f
       1.0376813 1.0090976 1.0100743 1.0011137

bn1.bias f4 [16]
000000 8b bd ea 3c 6a b6 97 3b 68 41 30 3b b7 9a 0e 3c
       0.028654834 0.0046298997 0.0026894454 0.008703879
000010 6d 6f a4 b9 9c 8c d9 3b b5 4d 0c bc 1d 3a 44 3c
       -0.00031363536 0.0066390764 -0.008563449 0.011976746
000020 10 89 28 bc 26 ab 10 3b 18 bc f3 3b d7 fb 49 3c
       -0.0102865845 0.0022074669 0.007438194 0.01232811
000030 d9 6d 83 3c 6d 90 65 3b d6 fc cc 3a e5 ae 53 3c
       0.01604359 0.0035028711 0.0015639316 0.012920116

bn1.running_mean f4 [16]
000000 48 83 f6 41 89 51 f1 41 43 e9 70 41 23 52 29 42
       30.814102 30.164812 15.056949 42.33021
000010 e9 af c7 40 eb 3c df 41 e3 47 02 40 79 83 70 3f
       6.2402234 27.904745 2.0356376 0.9395061
000020 81 9a 0e 41 82 18 18 41 37 d6 aa 41 9f c5 3f 41
       8.912721 9.505983 21.354597 11.985747
000030 66 49 ea 40 ec ad 2f 42 84 01 d2 3f 94 15 0c 41
       7.32146 43.919846 1.6406713 8.755268

bn1.running_var f4 [16]
000000 47 b7 2a 45 7a b4 2d 45 7e ac 30 44 26 54 90 45
       2731.4548 2779.2798 706.6952 4618.5186
000010 eb c2 a0 43 42 f1 0e 45 b3 99 b5 42 d8 d3 ae 41
       321.5228 2287.0786 90.80019 21.85344
000020 59 f3 f4 43 41 45 d4 43 8d e4 91 44 dc 1e f1 43
       489.90115 424.54105 1167.1422 482.2411
000030 e1 02 ea 43 8d 76 8b 45 4f 68 6f 42 fc 63 ed 43
       468.0225 4462.819 59.851864 474.78113

conv2.weight f4 [32, 16, 4, 4]
000000 fc d6 3c 3d 55 73 3b bd be 75 af bb 0a 0c 77 3d
       0.046103463 -0.045764286 -0.005354612 0.060314216
000010 42 33 a5 3c fe 53 58 3d 88 52 d0 bc be e4 db 3b
       0.020166043 0.052814476 -0.025429979 0.006710618
000020 c9 01 ff bc 0c a5 27 3b 07 6c 58 bd e5 05 02 bc
       -0.03112878 0.0025580553 -0.052837398 -0.007935976
000030 56 1b 5a 3c 0f d1 87 bd 4f 34 99 bd 63 d4 0e 3d
       0.013312181 -0.06631672 -0.0748068 0.034870517
000040 87 ab c0 bc 8c 72 06 bc cd fd 86 bc 81 ea d8 bc
       -0.02351929 -0.008206021 -0.016478444 -0.026479008
000050 8a 1b fb bc f8 60 31 3c e2 1e 88 3c 1b ec 09 3d
       -0.03065278 0.010826342 0.016616289 0.033672433
000060 5e 65 8c bc 83 b3 7a 3d 26 5b b4 bc d6 cf 66 bc
       -0.01713818 0.061206352 -0.02201612 -0.014087638
000070 2b 45 4c bc d5 c4 c4 bc 53 f9 9a 3c fd f9 0d bd
       -0.012467663 -0.024019638 0.018917715 -0.034662236
000080 67 c2 ad bc 8f 7e e4 3c 03 f1 c4 bc 75 fc b6 3c
       -0.021210862 0.02789238 -0.024040705 0.022337178
000090 56 ac a1 bc 62 b1 ad 3c 0e 0b 1b 3d 26 c0 1f bc
       -0.019735496 0.021202747 0.03785234 -0.009750402
0000a0 88 91 22 bd 2b f0 36 3c a3 26 cf 3c c3 ec 2f bc
       -0.03968957 0.011165659 0.025286978 -0.010737601
0000b0 2d 80 b8 3c eb c6 9b bc a4 c1 82 3c dd d1 79 bc
       0.022522056 -0.01901575 0.015961476 -0.015247789
0000c0 8d 00 03 bd d7 5b 7e bc 74 4a 8f 3c 8a eb 1a bd
       -0.031982947 -0.015524826 0.017491557 -0.037822284
0000d0 81 04 26 3d b3 ef 22 bd 4c 1d 28 bb 41 81 bf 3c
       0.04053164 -0.039779376 -0.0025652228 0.023377063
0000e0 72 e9 ba 3c 42 24 c9 bc 82 a5 f9 bc 07 41 52 3b
       0.022816394 -0.024553422 -0.030474428 0.0032082216
0000f0 ae c5 00 3c 0a 56 48 3d 2d 1f 9d 3a f2 ed 3e 3d
       0.0078596305 0.04891018 0.001198744 0.04661364
000100 59 f6 36 3d f4 4f fe ba da 6c 8a 3d 94 a6 d6 bc
       0.04466853 -0.001940249 0.06759043 -0.026202478
000110 23 a6 6a 3d 36 07 ae 3c 26 cc 0c bd 23 42 2c 3d
       0.057287347 0.021243673 -0.03437438 0.04205526
000120 cc 1e 1b bd 3b 0d 8a bc 5f 24 b4 3b c0 24 1a bc
       -0.037871167 -0.016852012 0.0054975 -0.009408176
000130 04 a5 05 bd 8e b8 45 bd 8e 60 cc 3c f5 f0 1f bd
       -0.032628074 -0.04827171 0.024948385 -0.039048154
000140 ee 10 b1 bc 3e 5e 79 bd 4e e9 70 bc d3 6a 8d 3c
       -0.021614518 -0.060880892 -0.014704062 0.017262852
000150 36 99 c0 3c 33 0c b9 3c 24 bf 8b bc e8 5a ce bb
       0.023510557 0.022588825 -0.017058916 -0.006297458
000160 5f b4 61 3d 30 85 64 3c 5c 4c 3c 3d 5e c5 b3 3c
       0.055103656 0.01394777 0.04597126 0.021944698
000170 b0 17 84 3c ec 4c a2 3d 3d 5f bc bc 02 bd c0 3c
       0.016124576 0.07924828 -0.022994632 0.023527626
000180 d5 50 3c 3c 4d 71 b7 3c 68 46 48 bd 93 0a 68 3c
       0.011493881 0.022392893 -0.04889527 0.014162677
000190 0e 9a 34 bd 73 95 5d bd 70 0e 90 3c 23 b3 bf bb
       -0.04409223 -0.054097604 0.01758501 -0.005850212
0001a0 76 2e 2f bc 07 a6 99 bd b9 1b 4c bc 53 20 8d 3c
       -0.0106922295 -0.0750237 -0.0124577815 0.017227327
0001b0 d1 47 64 bc 69 e9 22 3d e1 12 c4 3c ef c6 1b bc
       -0.013933138 0.03977338 0.023934783 -0.009507879
0001c0 50 fa e8 3c 44 bf 26 bd e6 e8 29 bc 40 fa 0a 3d
       0.02843967 -0.04070975 -0.010370469 0.033930063
0001d0 6b 50 b9 bc 96 95 6c bc b4 49 62 bd 9a 44 12 3d
       -0.022621354 -0.014439961 -0.05524607 0.035709955
0001e0 ff 50 d8 bc a5 d6 5e 3c 24 41 ad 3b ec 32 d3 bc
       -0.02640581 0.01360098 0.0052873064 -0.025781117
0001f0 38 55 35 bc 55 e1 d0 3a 74 8b 9a bc a0 2e 24 bc
       -0.011067681 0.0015936295 -0.018865325 -0.010020882
000200 25 d2 3f 3d c5 a0 a1 3c 28 41 4b bd 97 dd f7 3c
       0.04683127 0.019729981 -0.049622685 0.03025703
000210 f1 4b 8f bd 63 db a2 3c fa 0e 1f bd ac 8a 99 bc
       -0.069969065 0.019880002 -0.038832642 -0.018742882
000220 3c 01 bc bc e8 80 0d 3d 10 1d bd 3c ba 45 01 3d
       -0.022949807 0.034546763 0.023085147 0.031560637
000230 b3 37 5f bd 95 42 5f 3d 71 0e 52 3d e3 fd 02 bd
       -0.05449648 0.054506857 0.051283304 -0.031980406
000240 de 1b 17 bd b1 36 ab 3d f3 82 1c 3b ef 63 8a 3c
       -0.03689181 0.08360041 0.0023881763 0.016893355
000250 a6 01 67 bd b8 0c 5b 3b 83 26 80 bb 46 4b 32 3d
       -0.056398056 0.003342433 -0.003910841 0.043528818
000260 67 74 39 ba 9b 71 21 3d 1a 49 4a bc bd 66 a0 bc
       -0.0007074535 0.039414983 -0.01234653 -0.01958024
000270 7e 20 6c 3b d5 f4 a1 3d fa e7 96 3c c8 4b 81 3d
       0.003603011 0.07908026 0.018421162 0.06313282
000280 fc 26 0c bc 6c 29 43 3d 1e d0 9e 3b 26 3c 0a 3d
       -0.0085542165 0.047646925 0.004846587 0.03374877
000290 8a a1 0a 3d b0 19 40 3d d0 cb 3d 3d 4b 6b 30 3c
       0.033845462 0.046899498 0.04633695 0.010767768
0002a0 29 70 63 3c d8 f1 0c 3d 13 95 72 bd 2e e8 09 bd
       0.0138817215 0.034410328 -0.0592242 -0.03366869
0002b0 47 7b 5c 3d 8b cd 8d bc 09 2c 1e ba fb bc 94 3c
       0.053828504 -0.017309925 -0.00060337834 0.01815652
0002c0 e9 38 d1 3c eb 99 43 3d 86 2d d9 3c 3d 4c bc bc
       0.025539832 0.04775421 0.026510965 -0.022985572
0002d0 fe c4 87 3c e0 b3 14 bd 59 0b 39 bd df 15 0e 3d
       0.016573425 -0.036304355 -0.045176838 0.034688827
0002e0 14 67 9c 3c 65 f7 06 3d 3f cd e2 3c 2b 4f 4a 3c
       0.01909212 0.032950778 0.02768576 0.012347977
0002f0 bd e1 3e 3d a8 08 36 bd f1 69 1e 3d 7f 1a 3c 3d
       0.046602 -0.04444185 0.038675252 0.045923706
000300 98 04 5b 3d 7c 1c 8f 3d 03 28 fd 3c 97 bf a1 3b
       0.053471178 0.06987855 0.030902868 0.0049361694
000310 6b 6a fa 3a 94 4c 37 bd b6 4f 4d 3d fa 9c 33 bc
       0.0019105201 -0.044750765 0.050124846 -0.010962719
000320 81 8a 83 bd 28 ef b0 bd 6f 82 92 bd df e6 1f 3d
       -0.06422902 -0.086393654 -0.071537845 0.039038535
000330 10 41 11 bb f4 1c b7 bd 23 2f 5e bc d2 6f 87 bd
       -0.0022164024 -0.08941069 -0.013561043 -0.06613125
000340 22 60 90 bc 22 50 52 3d cc 88 55 bd 35 58 6f bd
       -0.017623965 0.05134595 -0.052132413 -0.05843373
000350 90 b3 3d 3d 3e 3d 0f 3d c4 96 3c 3c 49 ee 2a bc
       0.046313822 0.034970514 0.011510555 -0.010432788
000360 a1 38 27 3c 88 36 30 bd 73 86 01 3d fb 5f 32 3d
       0.0102063725 -0.043020755 0.03162236 0.043548565
000370 cf 23 85 bc 4f fe 40 bd b6 89 8c bd e9 43 30 bc
       -0.016252426 -0.047117528 -0.06862204 -0.010758379
000380 62 41 93 bd 76 aa 6c bd ac a4 51 bd 2e aa 19 bd
       -0.07190205 -0.05777975 -0.051182434 -0.03751581
000390 1e 1f 8c bd 84 d5 be bc 55 ce 83 3c 48 89 9c 3c
       -0.06841873 -0.023295172 0.016089598 0.01910843
0003a0 10 87 58 bd a8 99 33 3c 6c 2b 37 3d 2e 73 df bc
       -0.05286318 0.0109619275 0.044719145 -0.027276602
0003b0 0a d3 88 3d 12 9e 35 bc 23 ac 87 bd a9 01 b2 bc
       0.066808775 -0.01108505 -0.06624629 -0.021729307
0003c0 ee 59 b9 bc ae 58 c8 bc d0 4b f9 3c 2c 46 9c 39
       -0.02262589 -0.024456348 0.030431658 0.0002980692
0003d0 6f 07 e1 3c a2 58 81 bc b9 83 74 3d 7a 16 6e bc
       0.027469365 -0.015789334 0.059695933 -0.014531726
0003e0 3e 2e 75 3c c8 4c 66 bd 79 38 0d 3d b8 7d 58 3d
       0.014964638 -0.056225568 0.034477685 0.05285427
0003f0 76 39 56 3c 31 3a 8a 3d 6e 9a 9b 3d 3a ef 1e 3d
       0.013075223 0.067493804 0.075978145 0.038802363

conv2.bias f4 [32]
000000 a5 24 3b bc 9e 05 42 bd de d1 65 3d e4 d8 4e bd
       -0.011422311 -0.04736864 0.056108348 -0.05049981
000010 fe c9 11 bd 93 97 46 bc 47 64 c0 3c d2 4e 6f bd
       -0.035593025 -0.012121099 0.023485316 -0.05842478
000020 5a 84 be 3c c3 61 c1 bc a2 d9 ae 3c ae 8a a3 bc
       0.02325647 -0.023606187 0.02134401 -0.019963589
000030 97 96 21 3c 9b fe 4c 3d 62 01 06 3c 56 92 f2 bc
       0.009862564 0.0500475 0.008179041 -0.029610794
000040 83 93 5e 3c b4 3a 48 bd 91 73 58 bc 74 a3 25 3c
       0.013584974 -0.04888411 -0.013211147 0.010109771
000050 be 1d de bc c7 a0 4b bd e8 10 45 bd 82 bd 3e bd
       -0.027113792 -0.049713876 -0.048111826 -0.046567447
000060 cc e9 f9 3c e3 a0 69 bc 08 16 00 bd 50 5a 93 3c
       0.03050699 -0.01425955 -0.03127101 0.0179874
000070 40 29 a4 3c be fa c6 bc 1e 15 06 3d 92 0e 9f bc
       0.0200392 -0.024289485 0.032734983 -0.019416127

bn2.weight f4 [32]
000000 76 38 82 3f 2a 20 81 3f 9b 41 7d 3f 17 26 80 3f
       1.017348 1.0087941 0.9892823 1.0011624
000010 38 19 83 3f 19 3a 83 3f f1 38 7f 3f 06 60 7c 3f
       1.0242071 1.0252105 0.9969626 0.9858402
000020 2e 49 7b 3f 0b ff 7f 3f 69 62 81 3f f5 21 7e 3f
       0.9815854 0.9999854 1.0108157 0.99270564
000030 80 a5 7d 3f 6f d1 7f 3f f2 6e 7f 3f 4b 61 7d 3f
       0.9908066 0.99928945 0.99778664 0.9897658
000040 9b f6 80 3f 2b ef 7a 3f e6 b0 7a 3f fc 15 82 3f
       1.0075258 0.9802119 0.97926176 1.0162959
000050 f3 7e 80 3f eb 9f 7b 3f 1f 5a 81 3f fc be 7b 3f
       1.0038742 0.9829089 1.0105628 0.98338294
000060 a4 88 7c 3f b7 77 80 3f 90 e2 7f 3f 6d 2e 80 3f
       0.98646 1.0036534 0.9995508 1.0014168
000070 44 79 81 3f b9 4f 82 3f 27 b2 7f 3f ec 4b 80 3f
       1.0115132 1.018058 0.99881214 1.002317

bn2.bias f4 [32]
000000 08 b1 0c 3c 53 49 6c 3b 0d fb 34 3a de 9c 92 3a
       0.008587129 0.0036054447 0.00069038646 0.0011185666
000010 7e 84 d7 3a 18 bc 3a bb 43 e0 15 bb d7 28 8d 3b
       0.0016442684 -0.002849346 -0.0022869266 0.004307847
000020 a2 ec bd 3a 2e ed b5 3b f8 d9 18 bb 24 13 db 3b
       0.0014490078 0.0055519557 -0.002332328 0.0066856313
000030 64 dd 0f 3b 92 48 82 3b ca 1c c9 3a 56 d1 3a 3b
       0.0021952027 0.003975936 0.0015343663 0.0028506122
000040 b8 d7 4b ba d9 21 ad 3a 6c 26 72 ba 1c d8 90 ba
       -0.000777598 0.001320894 -0.00092372927 -0.0011050734
000050 a8 b8 fc 3a be 6b e0 3b eb 71 8f 39 7c 4e 5e bb
       0.0019281106 0.0068487814 0.0002735996 -0.0033921292
000060 ad 57 98 b9 e5 3a 1e bb b8 db 3e 3a ba 44 cf bb
       -0.00029057023 -0.002414399 0.00072806654 -0.0063253315
000070 bd 89 9f 3a ae a4 ec 3b 12 c5 85 3b 8f fb ed 3a
       0.0012171787 0.00722178 0.0040823305 0.0018156635

bn2.running_mean f4 [32]
000000 f3 ea 0a 3f f4 ed ee 3e c4 86 2c 3f 61 e9 c0 3e
       0.54264754 0.4666592 0.67393136 0.37678054
000010 c3 28 cd 3e 86 cc e2 3e e6 2a 05 3f 87 fb 08 3f
       0.4007016 0.44296664 0.5201858 0.535088
000020 12 ae 42 3f 1d 6c 21 3f 2b e5 1c 3f 7b 70 0d 3f
       0.7604686 0.6305559 0.6128718 0.55249757
000030 46 3a 01 3f ca 4d 2d 3f ef b6 02 3f a1 cc 2b 3f
       0.50479543 0.6769682 0.51060385 0.67109114
000040 c3 ba df 3e 3f 53 2a 3f 86 32 19 3f 13 62 0f 3f
       0.43697175 0.66533273 0.5984272 0.56009024
000050 55 16 78 3f 10 fa f6 3e a2 76 f4 3e 02 64 2a 3f
       0.96909076 0.48237658 0.4774676 0.6655885
000060 23 06 e8 3e 1d 7d e5 3e 58 4d 02 3f 9a 9d 06 3f
       0.45317182 0.44822016 0.5089927 0.5258423
000070 6b 57 0f 3f 0c e3 2b 3f 35 29 07 3f 0c 9e 14 3f
       0.55992764 0.6714332 0.5279725 0.5805366

bn2.running_var f4 [32]
000000 cf 01 97 3e e6 8a 84 3e 54 f6 cd 3e be e7 29 3e
       0.29493567 0.2588722 0.40226996 0.16592309
000010 a4 de 56 3e 46 b5 81 3e 5c 36 ac 3e b9 8b a0 3e
       0.20983368 0.25333613 0.33635223 0.313566
000020 c4 79 de 3e 79 91 c1 3e 4d 4f 93 3e a8 70 81 3e
       0.43452275 0.378063 0.2877144 0.25281262
000030 4d 48 77 3e ac d5 ed 3e 73 f0 7b 3e e7 7b cb 3e
       0.24148674 0.4645208 0.24603443 0.39742967
000040 e9 bb 6a 3e 3a dc ea 3e 80 bb a5 3e 0c eb 99 3e
       0.22923245 0.45871145 0.32369614 0.3006214
000050 6e e7 36 3f 25 31 53 3e a6 60 9c 3e 3f 37 d3 3e
       0.71446884 0.20624216 0.30542487 0.41253087
000060 8c 6a 47 3e d7 6f 54 3e da c9 88 3e 1c e4 57 3e
       0.19474238 0.20745789 0.267165 0.2108311
000070 20 7a eb 3e 00 56 00 3f a1 7d 51 3e 30 55 8d 3e
       0.4599161 0.50131226 0.2045808 0.27604055

conv3.weight f4 [64, 32, 5, 5]
000000 56 c4 07 bd 9b 18 2e bb ee db 37 3d fb c5 b1 bc
       -0.033146225 -0.002656496 0.044887476 -0.02170085
000010 d7 61 81 3c d9 72 15 3c d9 22 33 bc c1 8f 61 3c
       0.015793724 0.00912162 -0.010933601 0.013767184
000020 f1 93 a3 bc 77 dc 98 bc e7 66 d4 bc 9e 8a e6 bc
       -0.019968005 -0.018659813 -0.025927974 -0.02814227
000030 8c 78 2d bb b8 9b 64 3c 7b 0a f9 bc 3b 69 04 bd
       -0.0026469557 0.013953142 -0.030400505 -0.032326918
000040 89 8a f4 3c 12 32 e9 bc 59 d4 66 ba 43 75 8b 3c
       0.029851215 -0.028466258 -0.0008805446 0.017023688
000050 cd 7c 08 bd d8 4b 68 3b fc 18 85 3c 41 b4 94 bc
       -0.033322144 0.0035445597 0.016247265 -0.018152358
000060 3a 96 de 3c e1 69 e6 3b 44 3f e4 ba 52 88 07 3d
       0.027171243 0.0070316647 -0.0017413874 0.03308899
000070 45 8c 6b 3c 18 79 68 3c a1 89 b6 3c 85 58 1f bc
       0.014376705 0.014189027 0.022282423 -0.009725695
000080 65 d5 aa bc f7 1b 03 3d bb 2b 89 3b 74 19 14 3d
       -0.020853708 0.03200909 0.0041861213 0.036157086
000090 28 88 82 3c c5 e6 98 bc 76 13 89 bb 5a 27 1c 3b
       0.015934065 -0.018664727 -0.004183228 0.0023827166
0000a0 39 af d5 3c bd 10 d1 ba e5 f1 a2 bc cd 6a e8 3c
       0.02608453 -0.0015950423 -0.019890735 0.02837124
0000b0 d6 e7 8d 3a 9e 38 0f 3d 24 b6 b0 3c 63 2c 43 bb
       0.0010826539 0.034966104 0.021571226 -0.0029781095
0000c0 a6 7e 90 bb 16 a7 8d bc c6 ee 77 bb 0e cf 6d bc
       -0.004409629 -0.017291587 -0.003783153 -0.014514698
0000d0 93 19 e6 bc a4 c2 16 3d d4 3c 1f bc c7 eb b2 3c
       -0.028088367 0.036806718 -0.009719092 0.021840943
0000e0 2a ef 8a bc 17 c5 ea 3a 90 77 0e 3d c5 bd 9e bc
       -0.016959745 0.001791152 0.034781992 -0.019377599
0000f0 5c 9c e6 3c ec 61 e4 3b 5c 3a e5 3b 5d 6a d2 3c
       0.02815073 0.006969681 0.0069954824 0.025685484
000100 b3 60 75 3b 96 63 15 3d c0 1b ba bc 28 7d d1 bc
       0.003744167 0.036471926 -0.02271831 -0.025572374
000110 38 86 71 bc 12 d2 fb 3b 2a de c4 3b 72 ed 76 bb
       -0.014741473 0.0076849544 0.0060079293 -0.003767815
000120 5f d2 8f bc f0 ec 0a bc 7f cd 00 3c 28 71 e9 ba
       -0.017556367 -0.008479342 0.007861494 -0.0017810212
000130 26 32 63 bb 83 8a 36 3b 88 22 2f 3c 08 24 17 bc
       -0.0034667342 0.0027853556 0.010689385 -0.009224899
000140 02 70 08 bb 4c 3c 41 3c 91 9e 9c bc 7d 51 06 bd
       -0.0020818715 0.011794161 -0.01911858 -0.032792557
000150 ba f0 b3 bb c5 b3 14 3c 37 a1 43 bc 77 5b 4d bc
       -0.0054913433 0.0090760635 -0.011940292 -0.012534014
000160 49 cd 00 ba d2 ee 85 bc 7e 30 af bb ae c0 92 bb
       -0.00049134024 -0.01634923 -0.005346357 -0.0044785356
000170 c3 eb ac 3b 81 a0 be bc c5 e0 14 3d 5b 5e af bc
       0.0052771284 -0.023269894 0.03634717 -0.021407297
000180 aa 70 55 bc 52 c8 f5 3c e8 5c 1a 3d 92 05 b6 bb
       -0.0130273495 0.030002747 0.03768626 -0.0055548633
000190 e6 cd d6 bc a8 35 57 bc fe cc 60 3b 36 da 60 3b
       -0.026221227 -0.013135351 0.0034301872 0.0034309751
0001a0 0e 51 c8 bb 58 9f d1 3c 65 e6 c0 ba 9c 57 05 bc
       -0.006113178 0.025588676 -0.00147171 -0.0081385635
0001b0 1a 07 25 bc cf 05 0f 3d dc 80 03 bd 05 b4 87 ba
       -0.010072494 0.03491765 -0.03210531 -0.0010353333
0001c0 8e 12 66 bc 1c bc f6 3c da a8 68 bc 39 10 bb bb
       -0.01404251 0.030118994 -0.014200414 -0.005708721
0001d0 c3 d7 eb 3c 51 3a 99 bc 4a 89 af bc 85 ed b8 bc
       0.028789407 -0.018704565 -0.02142777 -0.022574196
0001e0 4b 37 13 3c e0 6c 2d bc 94 e0 f5 bc 24 6e ab bc
       0.008985351 -0.01058504 -0.030014314 -0.020926543
0001f0 82 62 de bb 06 e6 11 bd 87 1f 16 3d 33 db 8a bc
       -0.0067866454 -0.035619758 0.03665116 -0.016950225
000200 ca 60 61 bb f0 0e 82 3a 8a 43 41 bc c8 fe 5b 3d
       -0.0034389966 0.0009922665 -0.011795888 0.053709775
000210 49 df 9d 3c 5e 53 a6 3c 31 9c ed ba 82 02 67 3c
       0.01927151 0.020303424 -0.0018128214 0.014099719
000220 59 f2 25 3c 2f b7 e4 bc 66 b2 ab bb 7e aa f9 3a
       0.010128581 -0.02791938 -0.0052397726 0.0019048003
000230 0a 66 12 3d 42 d5 b7 bc c9 bc f3 3c 4e 90 bf bc
       0.035741843 -0.022440556 0.029753106 -0.02338424
000240 96 da 48 3c 84 44 87 bb ff 7c 97 3b d9 cf 37 3c
       0.012259146 -0.0041280407 0.004623055 0.011218988
000250 51 97 e9 bc 86 7e 41 3c c1 1a 10 3d 24 07 57 3c
       -0.028514536 0.011809951 0.035181765 0.013124261
000260 cd 11 17 bd 39 8f f5 bb fc c2 bb 38 7d 3b 84 3c
       -0.03688221 -0.00749388 8.9531735e-05 0.016141647
000270 a5 bf 88 ba 4e 00 9f 3a 8a da a0 bb 1e a3 0a 3d
       -0.0010433091 0.0012130828 -0.0049088644 0.033846967
000280 c3 b9 c2 3b ac 03 89 3b 0c c1 8e 3c 01 f6 84 3c
       0.0059425547 0.004181346 0.017426036 0.016230585
000290 ac 88 ac 3a 17 c8 3e 3b 1f 0d a4 ba e9 82 cc 3c
       0.001316329 0.0029110962 -0.0012516117 0.024964767
0002a0 f8 5c e0 bc bc 28 9f 3c 43 26 c9 bb 0f 17 08 bb
       -0.027388081 0.019428603 -0.0061385944 -0.0020765697
0002b0 1a 31 1a 3d 03 5d 94 3b 04 74 29 bc 78 b7 82 ba
       0.037644483 0.0045276894 -0.010342602 -0.0009972891
0002c0 a5 42 93 3b 2c 0d df bb 5f 0d 41 3c 2c 47 6a bb
       0.0044940286 -0.00680699 0.011782973 -0.0035747988
0002d0 e2 40 78 3c 6c bc 3d 3c 17 16 ed 3c b8 6c 1c 3d
       0.015152188 0.011580568 0.028941197 0.03818962
0002e0 10 50 5e bc 11 41 79 ba 61 ce 29 3d 25 7b 69 bc
       -0.013568893 -0.0009508292 0.041456584 -0.014250551
0002f0 77 d0 cb 3c 9d 29 23 3c 5d 9f cc 3c 32 7c 94 3b
       0.024879677 0.009958652 0.024978334 0.004531407
000300 12 95 e4 3c a4 92 8f 3c d7 90 b2 3c 49 1e d4 bb
       0.027903114 0.017525978 0.02179758 -0.006473337
000310 81 69 f1 3c 6c 44 17 bd a8 65 bc 3b 75 da 1d bc
       0.029469253 -0.036930487 0.005749423 -0.009634604
000320 e2 20 8f 3c 67 0b a4 3c 7b 95 a6 bc c9 57 b4 3b
       0.017471734 0.020024968 -0.02033495 0.005503629
000330 56 63 d9 bc 83 d6 1d bc 4d 3b cb bb 78 12 b1 3c
       -0.026536625 -0.009633663 -0.0062021376 0.021615252
000340 c1 fb 5a 3c 0d b1 c2 3c 7d 88 20 3c 19 1a fc bb
       0.013365687 0.023766065 0.009798166 -0.007693541
000350 76 8f 3f 3c 4b 0c 72 3c e4 ce d5 3c 78 68 68 3c
       0.011691919 0.014773439 0.02609963 0.014185064
000360 11 8e 7c 3c 5a 9a 54 bc 54 eb 1b bd b0 b4 1c bc
       0.015414731 -0.012976253 -0.038066223 -0.009564564
000370 83 66 36 3d c0 43 fb 3c e9 39 cc 3b 62 af f4 3b
       0.044531357 0.030671954 0.0062324894 0.0074671963
000380 ea ce a9 3b 74 f7 20 3c 90 77 0d 3c d5 55 c5 3b
       0.005182137 0.009824622 0.008634463 0.006022195
000390 fd 51 ab ba 15 55 79 3c cd 18 ce 3a 98 0d 46 3c
       -0.0013070699 0.015218039 0.0015723944 0.012088202
0003a0 10 07 45 ba 82 19 66 3a 83 e2 29 bc e2 bf 6e bb
       -0.0007516006 0.00087776047 -0.010368946 -0.003643029
0003b0 d8 ec ed bb ab 37 c3 bc 81 2f ff 3a 43 dd 05 3c
       -0.0072609 -0.023830255 0.0019469113 0.008170429
0003c0 90 07 39 bc 07 cd b2 3c dd 8a fc bc e2 89 48 bb
       -0.011293307 0.02182628 -0.030827934 -0.0030599763
0003d0 8e c5 a0 bc 53 da df 3a 25 e4 f2 bc db c0 88 3c
       -0.019625451 0.0017078615 -0.029649803 0.016693523
0003e0 d4 36 ab bc 0f f5 a3 bb c5 9c 97 3c 57 85 b5 3c
       -0.020900168 -0.0050035785 0.01850737 0.022158308
0003f0 16 64 42 bc cc af 1b bd 58 99 b5 bc 48 d0 e2 bc
       -0.011864683 -0.03800945 -0.022167847 -0.027687207

conv3.bias f4 [64]
000000 70 e6 38 bc 4d 2c 8e 3c 88 01 fc 3b 84 a6 61 3c
       -0.011285409 0.017355109 0.007690612 0.013772611
000010 4d 28 49 bc 52 d4 e3 bc 79 31 ae 3c 79 2d 1b 3d
       -0.012277675 -0.027811203 0.021263825 0.037885163
000020 9d 11 a9 3c 12 43 b8 3c fe ad a5 bc 6e 2b dc 3a
       0.020638281 0.02249292 -0.020224568 0.0016797611
000030 ca 30 f2 3c f5 9a ea bc 17 f2 cb bb 05 c0 0d 3d
       0.02956428 -0.028638342 -0.0062239277 0.034606952
000040 9b 34 e5 bc d3 36 1f bc fc 12 b7 bc c2 d8 dc bc
       -0.027979186 -0.009717661 -0.02234792 -0.026958827
000050 eb 57 97 3c 97 8e 02 bd 38 0e 4e bc ca f0 16 3c
       0.01847454 -0.031874266 -0.012576632 0.009212682
000060 ac 82 37 bb 40 53 ab 3c b6 b5 d7 bc 6d ad c9 3c
       -0.002800147 0.02091372 -0.026331764 0.024618829
000070 ee 3c e0 3c 60 0a 95 bc 5c 9d 70 3c b8 77 26 bb
       0.027372804 -0.018193424 0.014685955 -0.0025400948
000080 72 c5 eb bc 38 ca 94 bc 69 ee f5 bc be 3a 98 3c
       -0.028780673 -0.018162832 -0.03002091 0.018582698
000090 3e ca 86 bc dc c0 c6 3b 2b 00 f0 bc 6c 78 8e bc
       -0.016453858 0.006065471 -0.029296955 -0.017391406
0000a0 b9 5a b0 bc dd 84 f2 bc 53 84 6c bc e3 1e 3a 3b
       -0.021527635 -0.02960437 -0.014435845 0.0028399758
0000b0 c2 5c 36 bc 1b fd b4 bc c3 c3 82 39 6b 37 0d 3d
       -0.011130514 -0.022093346 0.00024941386 0.03447668
0000c0 0e fb 98 bc 5d 6c b1 3c b9 00 d0 3c bf df 65 3c
       -0.0186744 0.021658117 0.02539097 0.014030396
0000d0 35 4c d5 bb c1 86 15 3c 6b a8 af 3c 86 87 cc bc
       -0.0065093287 0.009126366 0.021442613 -0.024966966
0000e0 82 bc a0 bc 9a 7f 9a bb a7 5a c1 bc a5 6f 65 bc
       -0.019621138 -0.0047149183 -0.023602797 -0.014003669
0000f0 33 b3 75 bc 32 38 d1 bc 69 00 f1 bc 70 c7 89 3c
       -0.014996338 -0.025539491 -0.02941914 0.016818732

bn3.weight f4 [64]
000000 16 1f 80 3f cc 3b 7d 3f f0 02 7d 3f ee bc 82 3f
       1.0009487 0.9891937 0.9883261 1.0213907
000010 e8 b9 84 3f 27 9c 7f 3f 26 cc 82 3f 36 44 78 3f
       1.0369234 0.99847645 1.0218551 0.9697908
000020 46 d5 80 3f 16 9d 7d 3f 04 59 82 3f a7 62 80 3f
       1.0065086 0.9906782 1.0183415 1.0030106
000030 9c ae 7f 3f 5e 59 7c 3f 81 9c 80 3f cb c4 7b 3f
       0.9987581 0.98573864 1.0047761 0.9834716
000040 0d aa 81 3f 7e 83 83 3f 55 99 7e 3f e6 01 84 3f
       1.013002 1.0274503 0.99452716 1.0313079
000050 ac 99 7e 3f 39 de 7b 3f 65 98 7f 3f 72 00 80 3f
       0.99453235 0.9838596 0.9984191 1.0000136
000060 b1 d5 82 3f da 16 81 3f 6c b8 79 3f 91 52 82 3f
       1.0221463 1.0085099 0.9754703 1.0181447
000070 c0 b8 7c 3f be 3c 81 3f 3a dd 7a 3f 08 bf 7d 3f
       0.98719406 1.0096662 0.97993815 0.99119616
000080 5a cd 7e 3f 27 83 79 3f ef 00 80 3f ad 4b 7b 3f
       0.9953209 0.9746575 1.0000285 0.9816235
000090 58 02 7c 3f 72 bd 83 3f cb 8c 7b 3f 73 92 81 3f
       0.98441076 1.0292189 0.9826171 1.0122818
0000a0 c5 b0 82 3f d9 83 79 3f eb fa 80 3f 2a 31 78 3f
       1.0210196 0.9746681 1.0076574 0.9695002
0000b0 7a 26 80 3f 10 70 7e 3f c5 72 81 3f 79 fa 80 3f
       1.0011742 0.99389744 1.011315 1.0076438
0000c0 70 50 82 3f ff b7 7d 3f dc 1a 79 3f 5f 57 7e 3f
       1.0180798 0.9910888 0.9730661 0.9935207
0000d0 58 22 80 3f 41 f5 7d 3f c1 cb 7e 3f 0b 3b 84 3f
       1.0010481 0.9920235 0.99529654 1.0330518
0000e0 64 c8 7e 3f 3f 91 7f 3f f7 74 81 3f 23 10 81 3f
       0.9952452 0.99831 1.011382 1.008305
0000f0 f2 06 82 3f 21 e4 79 3f b4 68 80 3f 0c 2f 7f 3f
       1.015837 0.9761372 1.0031953 0.9968116

bn3.bias f4 [64]
000000 94 74 92 3b 1d cb 46 bc 12 e7 8a 3b 04 e0 19 bc
       0.0044694636 -0.012133387 0.0042389715 -0.009391788
000010 ea fd 4b bb 61 32 f2 3b 61 0a 3b 3c c3 5c 16 3c
       -0.0031126686 0.0073912595 0.011416049 0.00917739
000020 d1 cc b1 3b 4a 6a 24 bc 2f bc 8a 39 cf 85 c5 3b
       0.0054260273 -0.010035107 0.0002646162 0.006027914
000030 bf c2 f3 bb a3 20 8c 3b da f5 bc 3b d3 41 49 3c
       -0.007438987 0.0042763515 0.0057666125 0.01228376
000040 ee 5f ba 3b 66 8a 04 3b 2d 9d 4c bb 4c ec b8 3b
       0.0056877052 0.0020224093 -0.0031221614 0.005643403
000050 82 c5 03 3c 30 39 19 3c 16 9e 1d 3c 13 44 37 3c
       0.008042695 0.0093520135 0.00962021 0.011185664
000060 cc 15 3d 3c 72 a7 a5 3a 16 36 19 bc ca f4 06 bb
       0.011540841 0.0012638404 -0.009351274 -0.0020592683
000070 6b c0 72 ba 68 e0 29 3b d6 16 14 3b 65 76 88 b9
       -0.000926024 0.002592111 0.002259662 -0.00026028152
000080 d2 a0 fd 3b 62 b6 af bb db 85 9d bb 05 58 04 bb
       0.0077401185 -0.005362318 -0.0048072166 -0.0020194065
000090 44 09 76 ba 6d 09 f6 3b 9e 33 1b 3c bc d0 c3 b8
       -0.0009385536 0.007508448 0.009472756 -9.3372044e-05
0000a0 a1 fa b8 bb bb 6a 11 bc 0d a1 03 3c a7 2d dc 3b
       -0.0056451117 -0.008875544 0.008034003 0.0067193094
0000b0 e8 52 e2 ba f2 84 69 bc bb 4f 35 bb 21 a2 d3 bb
       -0.001726714 -0.014252888 -0.0027665931 -0.0064585363
0000c0 11 ea 62 3b 03 f2 8e 3b 5a e5 51 bb 36 86 70 3c
       0.0034624378 0.004362346 -0.0032027573 0.014680436
0000d0 37 40 9c 3b 27 2f 0e bc c8 a1 36 3c 48 67 46 3c
       0.004768397 -0.008678234 0.01114697 0.012109585
0000e0 bd 78 a9 bb 56 38 06 bc de cd 79 3c 3d d6 f3 ba
       -0.005171864 -0.0081921425 0.0152468365 -0.0018603277
0000f0 f1 5d ca 3b 39 ef 3d 3c 82 1b 54 3c f3 86 f3 bb
       0.0061757495 0.01159268 0.0129460115 -0.0074318587

bn3.running_mean f4 [64]
000000 9a cc b7 3d 92 88 c7 3e 26 4b e7 3d d1 8a 8b 3e
       0.089745715 0.38971382 0.1129363 0.27254346
000010 3b 65 a1 3d 75 88 2f 3f d7 24 15 3e 60 5b c6 3e
       0.07880636 0.6856759 0.14564835 0.3874159
000020 3f 6f 31 3f 5e ea 3a 3e 9c 8b 3f 3e 17 3a de 3e
       0.69310373 0.18253466 0.187056 0.43403694
000030 15 76 e8 3d 90 9f c0 3d e8 eb 81 3d a5 d1 4d 3f
       0.11350647 0.09405434 0.06343824 0.8039802
000040 ba c7 3a 3e a0 0c 32 3e bc 18 14 3e 41 38 1c 3e
       0.18240252 0.17387629 0.1446256 0.15255834
000050 53 37 93 3e 84 b4 b8 3e 7c 62 8b 3d 5f 54 5a 3e
       0.28753147 0.36075222 0.06805894 0.21321248
000060 ea 71 82 3e c1 ac 16 3e 11 73 a2 3e 77 fb 1f 3f
       0.25477535 0.14714338 0.31728414 0.6249308
000070 16 0b b3 3d 37 ed 17 3e a6 6a d5 3e 79 8c ab 3e
       0.08742349 0.14836584 0.4168293 0.3350561
000080 c1 80 43 3e d2 db cc 3e a2 cf 12 3e 51 97 26 3f
       0.19092084 0.4001146 0.14337018 0.6507464
000090 30 ab ec 3e 77 6c 84 3e 3a 69 e3 3e 98 33 fd 3d
       0.46224356 0.25864002 0.4441622 0.12363356
0000a0 f7 69 95 3e e8 51 17 3f 96 86 27 3e 1f 3b 03 3f
       0.29182407 0.59109354 0.16359934 0.51262087
0000b0 9f f6 0f 3e c1 5e df 3d 9b 90 29 3f 2e bd 1e 3f
       0.14058922 0.10906745 0.66236275 0.62007415
0000c0 0d c4 43 3e 0b 39 21 3f 3a 04 ba 3e 8b ac 35 3f
       0.19117756 0.62977666 0.3633135 0.70966405
0000d0 1e 8f 55 3e b1 70 f8 3e 78 37 c0 3e 7c 35 10 3e
       0.20855376 0.48523477 0.3754232 0.14082903
0000e0 d8 a4 2a 3f 1e d0 89 3e 89 8f 4a 3e 00 52 83 3e
       0.6665778 0.26916593 0.19781317 0.256485
0000f0 da 33 a0 3e 4f 57 49 3d 7a 4b 69 3e 49 79 0c 3e
       0.3128956 0.04915553 0.22782698 0.13718142

bn3.running_var f4 [64]
000000 23 9c 54 3d d2 c1 62 3e 7b d9 86 3d 28 53 27 3e
       0.051906716 0.22144249 0.0658445 0.16340315
000010 d5 f5 04 3d 33 e2 bc 3e bf b2 d3 3d ea f5 4d 3e
       0.032461006 0.36891326 0.103368275 0.2011334
000020 30 93 b6 3e 34 d1 36 3e 82 8d d9 3d 8f da 59 3e
       0.3565917 0.17853242 0.106226936 0.2127478
000030 06 c4 58 3d c9 2f 45 3d 96 19 15 3d 36 57 f5 3e
       0.052921318 0.048141275 0.036401354 0.479181
000040 c6 d6 ea 3d aa df e0 3d f5 49 ac 3d dd 3c b2 3d
       0.11466746 0.109801605 0.08412544 0.08703015
000050 cc b5 03 3e c2 a4 81 3e bc ab 07 3d 95 70 2f 3e
       0.12862319 0.25321013 0.033122763 0.1713279
000060 75 6f 1c 3e 16 99 99 3d 02 fd 2e 3e 88 ec 7c 3e
       0.15276892 0.07499902 0.17088702 0.24699605
000070 6e 88 51 3d e0 14 b7 3d fd 25 55 3e 36 7d 1f 3e
       0.0511555 0.089395285 0.20815273 0.15575108
000080 9e 04 09 3e 38 7f 92 3e 8b a7 1e 3e 69 b5 50 3e
       0.13380668 0.28612685 0.154936 0.20381702
000090 81 21 77 3e 2a ca fc 3d ac 95 99 3e 6d 8f a6 3d
       0.24133874 0.12343247 0.29997003 0.08132825
0000a0 f0 51 10 3e a8 e0 f3 3e f3 9d cd 3d 5a eb d4 3e
       0.14093757 0.47632337 0.10039892 0.4158581
0000b0 cf ef aa 3d 1b 82 9e 3d ed 3b c6 3e 6c f7 8c 3e
       0.08346521 0.077396594 0.38717595 0.27532518
0000c0 1d 36 f7 3d 97 12 a0 3e 85 4d 3c 3e 3c 15 7c 3e
       0.12070868 0.31264183 0.18388946 0.24617475
0000d0 d0 58 f8 3d a0 d0 6a 3e 56 31 a3 3e 8d 3f c3 3d
       0.12126315 0.22931147 0.31873578 0.09533606
0000e0 f5 a0 cd 3e e8 f7 16 3e f2 e2 09 3e 2a 01 10 3e
       0.40161863 0.14743006 0.13465479 0.14062944
0000f0 72 f2 5f 3e ec 78 bd 3c 52 98 06 3e de 89 c9 3d
       0.2186983 0.02312895 0.13144043 0.09840749

fc1.weight f4 [256, 64]
000000 36 9c 1f bd ba 41 84 3c b5 b9 bb bc 04 30 ed bd
       -0.038967334 0.016144622 -0.0229157 -0.11581424
000010 37 e4 be bd 5c 82 9a 3d fb b2 87 3a 81 f0 83 3d
       -0.09320872 0.07544395 0.0010353023 0.06442357
000020 b0 17 8c bc 1d e9 80 bc 97 59 22 bc e9 b3 68 bd
       -0.017101139 -0.015736157 -0.009909055 -0.0568122
000030 0c 97 6f 3d 58 df 97 bd a6 64 9b 3d 2d 1f 7b bd
       0.05849366 -0.07415646 0.075875565 -0.06130903
000040 e9 6c 62 3d d7 a4 33 bd 62 4d 96 bd 44 35 87 bd
       0.055279646 -0.043858375 -0.07338978 -0.066019565
000050 e1 c5 0d bd 67 2f b0 bd 15 8a 00 be bd a3 ea 3d
       -0.03461254 -0.08602791 -0.12552674 0.11457012
000060 73 b7 de 3d 9c 81 9b bd cf d6 04 bc 39 59 19 3e
       0.10874834 -0.075930804 -0.008107855 0.14975442
000070 c4 b7 e1 bd b3 29 d1 bb 7b b5 a9 bd 7e 60 62 3d
       -0.11021379 -0.0063831448 -0.08286568 0.055267803
000080 66 86 5b bd 49 e3 d4 3d 1b 84 cf 3c c6 6a 44 3d
       -0.05359497 0.10394914 0.025331547 0.04795339
000090 d2 70 e2 3d dc 82 8c 3c 4b f0 c7 3d b1 68 ca bd
       0.11056675 0.017152242 0.09762629 -0.098832496
0000a0 55 b7 79 bd fc 4a 8b 3d ee c8 f3 bc 0f c0 02 3d
       -0.060965855 0.068014115 -0.029758897 0.031921443
0000b0 07 5a 58 3d 78 c7 6d 3d d7 8f 57 bd 5c 97 e9 3d
       0.05282023 0.058051556 -0.05262741 0.11405823
0000c0 be 2d 8d bd f9 fb 6a 3d 5d d2 0b 3d 0f b0 ac bd
       -0.0689349 0.057369206 0.034136165 -0.08432018
0000d0 98 f9 32 3d 93 8f e9 3d 80 7f 2a bc a0 3d 47 bd
       0.043695062 0.11404338 -0.010406375 -0.048642755
0000e0 67 44 12 3d 16 09 0f bc 27 bf b9 3d 9b d0 48 bd
       0.035709765 -0.008730194 0.090696625 -0.049027067
0000f0 ff e9 e5 3d 26 82 ce 3d ff 8c d6 bb 2f b4 d6 3c
       0.11226272 0.100834176 -0.0065475698 0.026208965
000100 68 2f eb 3d c9 1b 0c 3d 9f 65 01 3d 09 34 0e bd
       0.114836514 0.034206185 0.031591054 -0.034717593
000110 26 d5 36 3d e8 50 60 3d ba 81 b4 3d 54 30 d6 3d
       0.044636868 0.05476466 0.08813806 0.104584366
000120 da 23 ec bc 63 d6 60 bd 02 60 86 bc 35 39 8d 3c
       -0.02882569 -0.054891955 -0.016403202 0.017239193
000130 28 7a 80 3d 1b 17 72 bd b0 3e 99 3d ac 32 b3 bb
       0.062732995 -0.059104066 0.0748266 -0.005468687
000140 45 7e 12 3d 7a 2a 0a 3c e3 7c bc bb d6 06 bf bc
       0.03576495 0.008432979 -0.0057521923 -0.02331869
000150 47 87 db 3b cd 40 2d 3d 8c 71 af 3c 3e 3c 67 3d
       0.006699476 0.042298127 0.021416448 0.056453936
000160 7d fb e7 3d ee ca 7d 3d 03 17 ee bd fc 61 fd bc
       0.113272645 0.061961107 -0.11625483 -0.030930512
000170 48 75 f1 bd c6 b9 a5 3c 9c 05 b2 bd ac 09 72 bd
       -0.11789948 0.020230185 -0.08692476 -0.059091255
000180 9d 60 00 3c 70 31 c5 bd 03 cc d5 3d c4 db dd bc
       0.007835534 -0.0962857 0.10439303 -0.027082331
000190 cf b3 98 bd 59 76 f3 3d e3 ac 77 3c 38 a6 60 3d
       -0.07456171 0.118878074 0.015116903 0.05484602
0001a0 80 ac a6 3d fa 06 ad bd 51 86 c0 3d 61 90 38 bd
       0.081383705 -0.08448596 0.09400619 -0.045059565
0001b0 02 eb 3b bd 77 87 6b 3a 6c a4 06 3e 0e 7a 2d bd
       -0.045878418 0.00089847244 0.1314866 -0.04235273
0001c0 06 14 92 3c c1 cc bc 3c a8 7b a8 3d 9d 69 b1 3d
       0.017831814 0.023046853 0.082267106 0.08662722
0001d0 a0 53 11 3d 85 f0 a3 3c 89 62 a3 3d 82 a7 b8 bc
       0.03548014 0.02001215 0.079777785 -0.022540811
0001e0 82 c7 33 bd 44 2a f3 bd 47 19 d9 bc 35 3a d0 bd
       -0.043891437 -0.11873296 -0.026501311 -0.10167352
0001f0 32 0b 1c bd 7b 57 87 3b ed e7 82 3d 7c f6 91 bd
       -0.038096614 0.0041303015 0.063918926 -0.07127091
000200 17 68 e2 bd 26 ee b3 3d 30 8c 36 bd 2d 52 b5 3d
       -0.1105501 0.087856576 -0.044567287 0.088535644
000210 4b a5 fe ba c5 c4 00 3e c2 80 cd 3d b7 74 63 3b
       -0.0019427923 0.12575062 0.10034324 0.0034707019
000220 ed b7 27 bd 1e 4f 7b 3d cd d1 a5 bd 03 52 b4 bd
       -0.04094689 0.06135475 -0.08096657 -0.08804705
000230 86 19 99 3d 69 ee ec 3d a3 f4 7c 3c 16 31 5c 3d
       0.07475571 0.11568911 0.015439185 0.05375775
000240 a8 3d 53 3d c9 23 15 bd 07 65 b1 bc 0a 02 b8 bd
       0.05157247 -0.03641108 -0.021654619 -0.08984764
000250 02 73 d3 3b 5c 66 86 3c f2 f3 47 3d 20 be 77 bd
       0.006452919 0.01640623 0.04881663 -0.06048405
000260 8c 58 10 bd 92 89 dd 3c b5 b0 f9 bd bd 79 16 bd
       -0.035240695 0.027043138 -0.12191907 -0.036737192
000270 65 b3 e5 bd 5d 53 85 3d dc 10 cb 3d 08 49 f6 bc
       -0.112158574 0.06510041 0.09915325 -0.03006412
000280 82 8a 39 bd fb fb 67 bc ee 21 8f bd 96 f1 21 3d
       -0.045298107 -0.014159198 -0.069888934 0.039537035
000290 38 75 99 bd 23 53 40 3c 7e 8a 16 bd 74 13 66 bd
       -0.07493061 0.011738571 -0.03675317 -0.056170896
0002a0 68 24 dd bd 2b 5a fd 3b b2 18 dd bd a4 e2 3b bd
       -0.107979596 0.007731696 -0.10795726 -0.04587044
0002b0 41 bd 92 bd df 29 16 3d a7 2c c9 3c cc ea 7b bd
       -0.071650036 0.036661025 0.024557425 -0.061503217
0002c0 a3 39 e3 3d 21 4e 0e 3d 79 67 46 bc 79 f6 1c 3d
       0.11094978 0.03474248 -0.012109631 0.038320992
0002d0 e5 72 09 3d 05 60 5f 3d e2 7a cf 3c b4 19 5e 3d
       0.033556838 0.05453493 0.02532715 0.05422373
0002e0 5d 73 a7 3d 81 ca f1 bd 10 fd de 3d 0b 42 b8 3d
       0.08176301 -0.11806203 0.108881116 0.08996972
0002f0 aa c4 a0 3d 40 b7 a2 3c 2c df 35 3c e0 9e c1 bd
       0.07850011 0.019862771 0.011100572 -0.09454131
000300 a9 29 64 3d 12 40 f8 3a 69 fe 55 bb b7 40 6d 3d
       0.055703793 0.0018939993 -0.003265286 0.057923045
000310 fe a1 d2 3d 86 10 af bc 78 4a 67 3d 12 08 c1 3d
       0.10284804 -0.021370184 0.056467503 0.094253674
000320 01 9d 97 bd 62 69 df bd 3a a8 43 bd bf 47 93 3d
       -0.07402993 -0.10908772 -0.047767855 0.07191419
000330 0e 10 8b bd ef 87 01 3d 71 bc cd 3d 9d 86 3b 3d
       -0.067901716 0.031623777 0.10045708 0.045782674
000340 17 ae b5 bd fb ac 82 bd 60 8c 10 3d 3a f3 e5 3d
       -0.08871096 -0.0638065 0.035290122 0.112280324
000350 9b 73 90 3c f6 66 91 3d 37 62 b9 3b 43 2e 0a 3d
       0.01763325 0.07099716 0.00565746 0.033735525
000360 89 8c 87 3d 5a 38 1b bc 3d 23 20 3c 65 67 dc 3d
       0.06618602 -0.0094738845 0.009774026 0.107619084
000370 1a cd d7 bc 62 3d 06 bd 6b 63 06 be df 9f b1 bd
       -0.026342917 -0.032773383 -0.13123862 -0.08673071
000380 5d 10 88 bd d1 2e 0b bd 88 c0 3f 3d 4d 14 50 3d
       -0.06643746 -0.033980194 0.04681447 0.05080061
000390 b0 88 f8 3d 44 05 de 3d 83 a2 99 bd 8a 69 d4 3d
       0.12135446 0.10840848 -0.075017 0.103716925
0003a0 13 a6 6c bc 09 5d bf 3d e9 7f ca 3c e9 50 d3 3d
       -0.014443892 0.09343917 0.024719195 0.10318167
0003b0 64 45 90 3d 3f b1 76 bd 47 91 c4 bd 44 74 e4 3c
       0.07044485 -0.06022763 -0.09598022 0.027887471
0003c0 33 e9 32 3d 92 35 07 be 81 1a 6e 3d 80 54 cb 3d
       0.043679427 -0.13204029 0.058130745 0.099282265
0003d0 d4 d5 9d 3b fc 14 e7 bd 36 d5 95 bd e7 59 d6 3c
       0.00481675 -0.11283299 -0.073160574 0.026165916
0003e0 e2 f9 95 bd c2 d1 1e bc 2b 22 75 3d 3b 73 76 3c
       -0.07323052 -0.009693565 0.05984704 0.0150421215
0003f0 3f 46 25 bd a3 4a 62 bd b1 ab e4 bd 08 c5 e6 bd
       -0.040350195 -0.05524696 -0.1116556 -0.112680495

fc1.bias f4 [256]
000000 c2 5b 70 3d 7d bb b5 3d e6 cd e8 3d fe 1b f1 3d
       0.058681257 0.08873651 0.11367397 0.11772917
000010 b9 46 8f bc 17 71 29 bb 25 d7 86 3d f0 86 b6 bd
       -0.017489778 -0.002585476 0.06584004 -0.08912456
000020 c2 95 78 3d f9 b5 05 bc 48 fc ee 3d 9f d1 5c bb
       0.060689695 -0.008161061 0.116692126 -0.003369428
000030 ad 4f a7 bc 79 2c 01 bd 0b d7 09 bd e4 99 85 bd
       -0.020423735 -0.031536553 -0.033652347 -0.06523493
000040 77 a5 ed 3c 18 e5 22 bd 75 0b b2 3d 67 1f ed 3d
       0.029009564 -0.039769262 0.086935915 0.11578255
000050 46 49 91 3d 40 a0 4c 3d ba 98 d5 bd de ae ba bd
       0.07094054 0.049957514 -0.10429521 -0.091153845
000060 9c 24 00 bc a6 ea e3 bd 52 ca ac 3d 3d 08 36 3d
       -0.007821228 -0.1112874 0.08437027 0.04444145
000070 fd d9 ba bd 6e 62 2b 3d e9 06 ca bd 46 a5 c9 bd
       -0.09123609 0.041841917 -0.09864599 -0.098459765
000080 1c 13 59 bd e9 1b d6 bd a4 30 83 bd af 0c 80 3d
       -0.05299674 -0.10454542 -0.06405762 0.06252419
000090 f2 85 c2 3c 93 fb a3 bd 42 72 aa bd 73 e3 95 bd
       0.02374551 -0.08006968 -0.08322574 -0.07318773
0000a0 03 b5 99 3d 67 9f 9c 3d ae f3 d6 3d 47 ac 1c 3d
       0.07505228 0.07647591 0.10495697 0.038250234
0000b0 18 4b 3d 3d 80 e4 46 3c 2f 67 fc 3d fb f1 b9 3d
       0.046214193 0.01213944 0.12324368 0.09079357
0000c0 0a 8c 61 bd f1 65 bb bd 64 f1 74 bd 4b 4f bc 3d
       -0.055065192 -0.09150303 -0.05980052 0.091948114
0000d0 98 98 5f 3d 0e 5c aa 3d 7a 1f a2 3d 6a 19 68 bd
       0.054588884 0.08318339 0.0791616 -0.05666486
0000e0 6e a5 d8 3d e8 43 58 bd ad 6f d2 3d 14 b4 2f 3d
       0.10578428 -0.052799135 0.10275207 0.042896345
0000f0 89 83 53 3d b0 30 db bd 0e d4 02 3e 0b e7 ad bd
       0.051639114 -0.10702646 0.12776205 -0.084913336
000100 ec 98 e7 bd a7 86 bc 3c 28 a0 4c 3d 02 cf eb 3d
       -0.113084644 0.023013426 0.049957424 0.11514093
000110 b4 46 b6 3d 8a 8f e6 bd 51 58 76 3d cf 9e fb bc
       0.08900204 -0.11257847 0.06014282 -0.030715374
000120 69 79 97 bd b2 27 cf bd 50 a6 a4 bc d7 98 8e 3c
       -0.07396204 -0.10114993 -0.020098835 0.017406864
000130 67 87 3c 3c 3f b3 f5 3d 31 0b bb bd c9 cb de 3d
       0.011506892 0.11997079 -0.09132994 0.10878713
000140 b3 16 99 3d a4 5a 84 bd fd 08 56 3d f7 fb c0 bd
       0.07475033 -0.06462601 0.052254666 -0.094230585
000150 62 c0 b3 3c 5c 6f 68 3d 72 3d 3c 3d 3a b5 91 bb
       0.021942321 0.056746826 0.045957036 -0.0044466527
000160 58 84 a0 bd f3 67 97 3c d7 4a e8 bd 18 84 33 3c
       -0.078377426 0.018482184 -0.113423996 0.010956787
000170 fc 96 1d 3d 04 8d 35 3d 07 94 57 bd 97 b4 92 bd
       0.038474068 0.044323936 -0.052631404 -0.07163351
000180 b7 a2 c1 3d fa 56 c4 3d 2b 68 8b 3d 0d 9f 10 3c
       0.094548635 0.09586902 0.06806978 0.008826983
000190 db e9 af 3d b5 b9 39 3d ce b1 b7 3d 58 18 e7 bd
       0.08589526 0.04534312 0.089694604 -0.1128394
0001a0 02 30 eb 3c 46 fb 6f 3d 3c ca 9f bd c6 2a c7 bd
       0.028709415 0.058589242 -0.07802245 -0.09724955
0001b0 1b fb 51 bd 36 7e d9 3c 43 24 bb bd e1 5b 3d 3d
       -0.051264863 0.02654944 -0.09137776 0.0462302
0001c0 9e 85 7a 3d 33 12 11 bd 96 e8 8b bd 6a 09 c5 bd
       0.061162584 -0.035417747 -0.068314716 -0.09620936
0001d0 58 40 06 bd bb 2b d1 bd b9 82 8a 3d 5a 66 9c bd
       -0.032776207 -0.10213419 0.067632146 -0.076367095
0001e0 bc ed f0 bd c7 7d ef 3d 3a eb 02 3d b6 3c c5 bd
       -0.11764094 0.11693912 0.03196261 -0.0963072
0001f0 2f 25 37 bd de 6b ef 3d df 10 6f bd 8e b4 77 bc
       -0.044713195 0.11690496 -0.0583657 -0.015118731
000200 be 95 aa bd 00 70 93 3d ec ec a8 bc d2 8e 2f 3d
       -0.08329342 0.07199097 -0.020620786 0.042860813
000210 e8 dd b4 bd 58 8a 17 3d a7 e9 8f bd 77 ba f1 bd
       -0.08831388 0.03699717 -0.070269875 -0.118031435
000220 19 a8 f4 bb b3 4c 71 3d d9 43 07 bd 38 dc 5a bd
       -0.007466328 0.058911037 -0.03302369 -0.053432673
000230 29 51 97 3d 7b 71 9b bd e4 ab da 3d 11 88 0d 3c
       0.07388527 -0.07590004 0.10677317 0.008638398
000240 74 c0 a4 3d de 73 65 bd 94 90 ff 3c 85 d6 2f 3d
       0.0804452 -0.056018703 0.03119687 0.04292919
000250 41 76 e5 bd 1d 3a 58 3d 61 f2 99 bd b4 0b c3 3d
       -0.11204196 0.052789796 -0.07516933 0.095237166
000260 29 fc 5e 3d b1 b4 73 bd a7 bf 85 3d c4 95 07 bd
       0.054439697 -0.059498493 0.065306954 -0.033101812
000270 f9 46 20 3d cc 0a 85 bd c3 f3 6c bd a4 84 2a bd
       0.039130185 -0.064962 -0.057849657 -0.041630402
000280 83 a1 2d 3d 08 b5 15 3d af c1 94 bd bc 04 e6 bd
       0.042390358 0.036549598 -0.07263505 -0.11231372
000290 35 9d 2b bd 6d 79 74 3d 0a 2a 8a bc 4b b9 a6 bc
       -0.04189797 0.059686113 -0.016865749 -0.020352026
0002a0 cd a7 f5 bd 70 75 98 bd 94 fd 05 3d d8 77 f0 3d
       -0.11994896 -0.074442744 0.032712534 0.117416084
0002b0 90 cb 3c 3d fe 38 91 3b 41 c5 d9 3d 78 21 91 3d
       0.04609257 0.004431843 0.10633326 0.07086462
0002c0 32 91 50 3d a7 6c b7 bd 51 7f 40 bd 18 e9 e3 bc
       0.05091972 -0.08956271 -0.04699642 -0.027821109
0002d0 10 be 40 bd 80 39 97 bd a7 a9 9d bd de 55 a3 bc
       -0.047056258 -0.07384014 -0.07698374 -0.019938406
0002e0 bb b0 cd 3d af 68 d3 bd 53 8b f6 bb be 48 f7 3d
       0.10043474 -0.10322701 -0.007523933 0.12074421
0002f0 f3 6f ed 3d 0f 05 03 bd eb fa 8a 3d a9 1c e3 3c
       0.11593618 -0.031987246 0.0678614 0.027723627
000300 77 43 ff 3c 30 88 8c 3d 73 39 48 3d 9e 6c 9f bd
       0.0311601 0.06861913 0.048882913 -0.07784389
000310 15 cd 9c 38 6b 5d 06 bd 3c f2 de 3d 58 0f eb 3c
       7.476859e-05 -0.032803934 0.10886046 0.02869384
000320 03 0b ff 3d 1d 30 35 3d 63 9a 84 bd 8e 25 e6 bd
       0.12453272 0.044235338 -0.064747594 -0.11237632
000330 6f b8 99 3c 37 87 6a 3d a9 31 e9 3c 12 4a 8c bd
       0.018764703 0.057257857 0.028466063 -0.06850065
000340 ee 4f 9e bd f9 53 a0 bd 2e ff 0a bd 88 de 02 3c
       -0.07730089 -0.078285165 -0.033934765 0.007987626
000350 ec db 13 bd e5 7c 0f 3a 92 12 bf 3d d3 65 ef 3d
       -0.036098406 0.0005473628 0.09329714 0.11689343
000360 f4 f2 e7 3d 99 7d b2 bd 57 7a 99 3d d3 6c 25 bd
       0.113256365 -0.08715362 0.074940376 -0.040386986
000370 7f 98 de 3d 65 30 09 3e e4 e7 1a bb 7d 1d fe 3d
       0.1086893 0.13397367 -0.0023636753 0.12407968
000380 ea 73 b2 3c d8 f8 fe 3d e2 f3 d6 3d 75 9f 6d bd
       0.021783788 0.12449807 0.10495736 -0.0580134
000390 91 7b bf bd cc a5 9b bd fc 1f d3 bd cc e0 01 3e
       -0.0934974 -0.075999826 -0.10308835 0.1268341
0003a0 50 0a 2b 3d d9 00 e6 3d a4 a5 9f bd c4 15 76 3b
       0.04175788 0.112306304 -0.07795265 0.0037549594
0003b0 09 9b a2 3d 61 c2 cb ba c8 c1 53 3d 9e cb 57 3b
       0.07939727 -0.00155456 0.051698476 0.0032927762
0003c0 9d f0 a5 bd c4 cd 68 bd 25 0f 81 3d 1b f7 01 bd
       -0.08102534 -0.05683686 0.06301717 -0.0317298
0003d0 95 f7 1e bd d9 5c fa bc 13 bf d3 3c 19 24 9e bd
       -0.03881033 -0.030561851 0.025847947 -0.07721729
0003e0 79 30 d6 bc 5b f2 e4 3d ce 91 83 3c d1 cf 70 bc
       -0.02614616 0.11179038 0.016060736 -0.014697985
0003f0 64 5d 7a 3d 67 93 88 bc c9 24 28 bd fc 55 d1 3c
       0.06112422 -0.01667185 -0.041050706 0.025553696
