mini_batch_exp/models/mnist_sgd_batch32_lr0.1.pt (torch_old, 326371 bytes, 26 tensors)

conv1.weight f4 [16, 1, 3, 3]
0	0xbbaa4a8d	-0.0051968754
1	0x3ebfa13b	0.37427697
2	0xbec048a1	-0.3755541
3	0xbe075119	-0.1321453
4	0x3e5dfc4a	0.21678272
5	0x3e76354c	0.24043769
6	0xbdc46aab	-0.09590658
7	0xbc346a73	-0.011011708
8	0x3d45315e	0.048142783
9	0x3ebedbcc	0.37277067
10	0xbe52792e	-0.20554039
11	0xbe2f8326	-0.17139873
12	0x3eb8d2f6	0.3609845
13	0xbef02919	-0.46906355
14	0x3db0add6	0.086269066
15	0x3e4431c2	0.19159606
16	0xbe7f0675	-0.24904807
17	0x3d0d40bc	0.034485564
18	0xbd946234	-0.07245293
19	0x3e5bdae1	0.21470214
20	0x3ed8ae9a	0.4232071
21	0x3eb3704f	0.35046622
22	0xbd96f704	-0.07371333
23	0xbe32c8ec	-0.17459458
24	0x3e7774cb	0.24165647
25	0xbebf21a6	-0.3733036
26	0xbe793eff	-0.24340437
27	0xbf03ddfb	-0.5151059
28	0xbd72d8a3	-0.059288632
29	0x3e1094e3	0.14119296
30	0x3e817105	0.2528154
31	0x3f25420f	0.6455392
32	0x3e417e82	0.18895915
33	0xbd67a3d3	-0.05655272
34	0xbe52a24a	-0.20569721
35	0xbf13fb79	-0.5780559
36	0x3e305b6b	0.17222373
37	0x3e6d54fd	0.23176952
38	0x3ea716a9	0.32634476
39	0xbe012ead	-0.12615462
40	0x3e2a4c25	0.1663061
41	0x3e537bba	0.20652667
42	0xbefe677e	-0.49688333
43	0xbeec0a49	-0.46101597
44	0xbeb78c7f	-0.35849378
45	0x3d1341dd	0.035951484
46	0xbf04b01a	-0.5183121
47	0x3eb867f0	0.36016798
48	0x3e8a0502	0.26956946
49	0xbebcc0c7	-0.36865827
50	0xbdda5fa8	-0.10662776
51	0xbe635743	-0.22201256
52	0xbe612c86	-0.2198964
53	0xbea148e6	-0.3150093
54	0x3e890e10	0.2676854
55	0x3eba175c	0.36345947
56	0x3e46eade	0.19425532
57	0x3e410a71	0.1885164
58	0x3e96da29	0.29463318
59	0x3e468838	0.19387901
60	0x3e322be5	0.17399557
61	0x3dd4ec28	0.10396606
62	0xbe5b1b7b	-0.21397202
63	0xbea6a8d4	-0.3255068
64	0x3e8d2769	0.2756913
65	0x3e2a5436	0.16633686
66	0xbefae16c	-0.49000108
67	0x3e0517c5	0.12997349
68	0x3e81b2c4	0.253317
69	0xbe7cb319	-0.24677695
70	0x3e7480cb	0.23877256
71	0xbd4e8327	-0.050418045
72	0x3e9b58c0	0.30341148
73	0xbd530923	-0.051522385
74	0xbeb4cbaa	-0.35311633
75	0x3dc304d5	0.09522406
76	0xbe92b9cd	-0.2865738
77	0xbebc7a84	-0.36812222
78	0xbe791816	-0.24325594
79	0xbf01ad0f	-0.5065469
80	0x3ec46678	0.38359427
81	0x3e8d6b4d	0.27620926
82	0x3da3d1bb	0.07998987
83	0xbd626b78	-0.05527827
84	0x3c32d976	0.010916105
85	0xbe085f2a	-0.13317552
86	0xbeef4030	-0.4672866
87	0xbf0c5dba	-0.54830515
88	0x3ec7bbfc	0.39010608
89	0x3e9c66c1	0.30547145
90	0x3e1d91c9	0.15387644
91	0x3e8f1749	0.27947453
92	0x3e58c1b0	0.21167636
93	0xbf104b45	-0.5636485
94	0xbe144702	-0.14480212
95	0xbe1eaa76	-0.15494713
96	0x3dc59030	0.09646642
97	0xbebbf3b2	-0.36709362
98	0xbe2dd225	-0.16974695
99	0x3dadabf6	0.084800646
100	0x3ec68b54	0.38778174
101	0xbcc14778	-0.02359365
102	0x3d94d6c7	0.07267528
103	0x3e3cb8b7	0.18429838
104	0xbedb7b8d	-0.428677
105	0xbd41b797	-0.047294226
106	0xbdd29f28	-0.10284263
107	0xbe9478ef	-0.28998515
108	0x3ed21631	0.41032556
109	0x3e1be32e	0.15223381
110	0xbe5527e4	-0.20815998
111	0xbe53a97d	-0.20670123
112	0xbc601660	-0.01367721
113	0x3e2a3206	0.16620645
114	0x3e7788c3	0.24173264
115	0x3e1637b8	0.14669693
116	0x3d82bd0e	0.063837156
117	0xbeb2281a	-0.3479622
118	0xbe4d4bfc	-0.20048517
119	0x3e9fb54c	0.31193006
120	0xbe76b32f	-0.2409179
121	0xbe354357	-0.1770147
122	0x3f00696a	0.5016085
123	0xbe3fe360	-0.1873908
124	0xbecdc5a8	-0.40189862
125	0xbd696a2e	-0.056986026
126	0x3e16c742	0.14724448
127	0xbc45a617	-0.012063525
128	0x3e8ed682	0.2789803
129	0x3eb9fee9	0.36327294
130	0x3eb77c1d	0.35836878
131	0xbe033146	-0.12811765
132	0x3e16f285	0.14740951
133	0xbe2557e1	-0.16146804
134	0x3e6f4ee9	0.23369946
135	0xbe3698ae	-0.1783168
136	0xbe9cba29	-0.3061078
137	0xbceb1381	-0.028695824
138	0x3ec5cb34	0.38631594
139	0xbd7b2289	-0.061312232
140	0xbf004b6a	-0.5011507
141	0x3d9fee7c	0.07809159
142	0x3f0bd05d	0.5461481
143	0xbe371daa	-0.1788241

conv1.bias f4 [16]
0	0x3e191fcb	0.14953534
1	0x3e7252a6	0.2366434
2	0xbe18733d	-0.1488771
3	0x3e92df35	0.28685918
4	0xbd8b7487	-0.06809335
5	0x3c377780	0.011197925
6	0xbe9f972d	-0.31170025
7	0xbdbc44c4	-0.091928035
8	0x3e89eb2d	0.26937237
9	0xbcfe917c	-0.031075232
10	0x3e3cc589	0.18434729
11	0x3d9529fb	0.07283398
12	0x3d64e297	0.055880155
13	0x3dd8fce8	0.10595113
14	0x3df0d7b4	0.11759892
15	0x3db5267b	0.0884523

bn1.weight f4 [16]
0	0x3f644171	0.89162356
1	0x3f7cdf57	0.9877829
2	0x3f5c5568	0.8606782
3	0x3f8551f1	1.0415632
4	0x3f94105b	1.1567491
5	0x3f86cce2	1.0531275
6	0x3f4e7562	0.8064786
7	0x3f84e942	1.0383685
8	0x3f93ebd3	1.1556343
9	0x3f6f358a	0.9344107
10	0x3f863939	1.0486213
11	0x3f72b7b0	0.94811535
12	0x3f3d221d	0.7388018
13	0x3f8d2059	1.1025497
14	0x3f4a6341	0.790577
15	0x3f9e92ec	1.2388587

bn1.bias f4 [16]
0	0x3e1d9160	0.15387487
1	0xbd7a6034	-0.061126903
2	0x3c58af6c	0.013225418
3	0xbdd0673a	-0.10175939
4	0x3e570703	0.20998769
5	0x3c4b7eeb	0.012420396
6	0x3e147394	0.14497215
7	0x3c1657ba	0.009176189
8	0x3d991f19	0.074766345
9	0x3e00cc91	0.12578036
10	0x3d99af94	0.07504192
11	0x3dab7bb2	0.083732024
12	0x3ba8f51f	0.005156174
13	0x3da8f4ab	0.08249792
14	0x3e137d01	0.14403154
15	0x3d90de0e	0.070736036

bn1.running_mean f4 [16]
0	0x41a40a47	20.505018
1	0x418f4c82	17.912357
2	0x420cca8b	35.197796
3	0x419cb980	19.590576
4	0x41a8205f	21.015806
5	0x402a2517	2.6585138
6	0x42b45ed6	90.18523
7	0x41aace48	21.350723
8	0x41153e17	9.327659
9	0x417df3ee	15.872053
10	0x4101aca3	8.104648
11	0x419d0d9a	19.631641
12	0x422e16e1	43.522343
13	0x41119163	9.097995
14	0x428a2d1c	69.088104
15	0x415cd73c	13.802547

bn1.running_var f4 [16]
0	0x4492ad78	1173.4209
1	0x44d483af	1700.1151
2	0x457c2461	4034.2737
3	0x44f4b41e	1957.6287
4	0x452aedbb	2734.8582
5	0x42bce484	94.44632
6	0x469aefda	19831.926
7	0x4511b274	2331.1533
8	0x43d8f58a	433.91827
9	0x4455e1d5	855.5286
10	0x441a3f1b	616.986
11	0x44e426fb	1825.2181
12	0x4575438d	3924.222
13	0x445f7c27	893.9399
14	0x46279d7e	10727.373
15	0x44abef13	1375.4711

conv2.weight f4 [32, 16, 4, 4]
0	0xbd7b9a34	-0.061426356
1	0xbc7eb2e0	-0.015545577
2	0xbc1648a2	-0.00917259
3	0xbda753c5	-0.08170275
4	0x3da5a428	0.08087951
5	0x3cf5ec02	0.030019764
6	0x3d0432f1	0.032275144
7	0xbd0a6a1d	-0.033792604
8	0xbc5d169b	-0.013494159
9	0xbc7e41ac	-0.015518587
10	0xbdd9448d	-0.10608778
11	0xbcef0bf9	-0.029180514
12	0x3d77aca7	0.06046739
13	0xbcb99706	-0.022655021
14	0xbdac8f9b	-0.08425828
15	0x3d5796a8	0.05263391
16	0xbd251e80	-0.04031229
17	0xbcd73c54	-0.026273884
18	0xbd33284c	-0.043739602
19	0xbc4b5cb6	-0.012412241
20	0xbdaae24d	-0.08343945
21	0xbcb91517	-0.022593064
22	0x3e344f52	0.17608383
23	0x3d40cdbf	0.047071215
24	0xbe35f540	-0.17769337
25	0x3db3e1d3	0.08783307
26	0x3dd7d6ba	0.10539003
27	0xbd2e79e7	-0.042596724
28	0xbd1dbf14	-0.038512304
29	0x3dafce07	0.085842185
30	0x3d3685b5	0.044561107
31	0xbb853665	-0.004065322
32	0xbd6e57b1	-0.058189098
33	0xbd428db5	-0.047498424
34	0x3cef0700	0.029178143
35	0xbd0c70b7	-0.03428718
36	0xbdc16717	-0.09443491
37	0xbd9b1726	-0.075727746
38	0x3d815941	0.06315852
39	0xbd72097b	-0.059091073
40	0xbdc55c91	-0.09636796
41	0xbb1a8115	-0.0023575474
42	0xbd118965	-0.03553142
43	0xbd45d4eb	-0.048298758
44	0xbd3cbb7c	-0.046077237
45	0x3dc7ce19	0.09756107
46	0x3d084889	0.0332723
47	0xbdebc8d6	-0.11512916
48	0xbd26cae7	-0.040720847
49	0x3dd2f318	0.10300273
50	0x3d02acbe	0.03190302
51	0xbd8480a6	-0.0646985
52	0xbcd1a691	-0.02559212
53	0xbdaf21c7	-0.085513644
54	0xbddb2c8d	-0.10701857
55	0xbd79380c	-0.060844466
56	0xbd5cac85	-0.053875465
57	0xbdfc6b11	-0.12325109
58	0xbd97c2c4	-0.074101955
59	0xbc99b7c1	-0.018764379
60	0x3d871172	0.06595124
61	0x3ce1e911	0.027576955
62	0xbcf8ab65	-0.030355165
63	0xbcc968cd	-0.024586106
64	0xbd3c2d69	-0.045941744
65	0xbc6a12b2	-0.014286684
66	0xbd904f97	-0.070464306
67	0x3c8e4360	0.017366111
68	0xbd90d19a	-0.07071228
69	0xbd97b56a	-0.07407649
70	0xbd705fe4	-0.0586852
71	0xbdf9bd84	-0.1219435
72	0xbe0c3843	-0.13693337
73	0xbe2d207b	-0.16906922
74	0x3ae4e569	0.0017463389
75	0xbd4b401f	-0.049621698
76	0xbbdee3ab	-0.0068020425
77	0x3c8227d4	0.015888132
78	0xbd844e17	-0.06460207
79	0xbc6d4c95	-0.014483591
80	0xbd483105	-0.048874874
81	0xbcba8f46	-0.022773396
82	0xbe0157e0	-0.12631178
83	0xbd651a89	-0.05593351
84	0xbced6ed1	-0.028983505
85	0xbd661b98	-0.05617866
86	0x3c1702af	0.009216948
87	0xbd2a2c5f	-0.04154622
88	0xbdac2d3b	-0.084070645
89	0xbc933ebe	-0.017974254
90	0x3e0b256e	0.13588497
91	0xbbad33bd	-0.0052857087
92	0xbe16aa84	-0.14713484
93	0x3dc72248	0.097233355
94	0x3b493207	0.0030699985
95	0xbd5d7815	-0.054069597
96	0xbcb5281f	-0.022113858
97	0x3d481c50	0.048855126
98	0xbd78509f	-0.06062376
99	0x3ca9db4a	0.020734448
100	0x3bddf93e	0.0067740967
101	0xbc1ed3e8	-0.009694077
102	0xbdaee6d0	-0.08540118
103	0xbdb80d3f	-0.089869015
104	0xbd0ea324	-0.03482355
105	0xbc640dc8	-0.013919301
106	0xbcae5a42	-0.021283273
107	0x3ab7c156	0.0014019411
108	0x3db16855	0.08662478
109	0x3dd0685e	0.101761565
110	0xbd74d7ed	-0.059776235
111	0xbd21fe6b	-0.039549273
112	0x3d0b00f7	0.033936467
113	0xbd96e0c4	-0.073670894
114	0xbc375858	-0.011190496
115	0x3d5d449d	0.054020513
116	0x3d47a17c	0.048737988
117	0xbdae6209	-0.085147925
118	0x3c3e98c0	0.011633098
119	0x3cdc9c5e	0.02693003
120	0x3db03ff6	0.086059496
121	0x3d5e1384	0.05421783
122	0x3d1d2fdc	0.03837572
123	0x3dc99e7d	0.09844682
124	0x3cb422e2	0.02198929
125	0xbdfc8946	-0.1233087
126	0xbda917a8	-0.08256465
127	0x3d33f5d7	0.043935623
128	0x3c7e7bcb	0.015532444
129	0xbdb51bb1	-0.08843172
130	0xbd1dce47	-0.0385268
131	0x3d0039e2	0.0313052
132	0xbd3f2888	-0.046669513
133	0xbc92dd60	-0.017927825
134	0x3e053ef6	0.13012299
135	0x3d457fd8	0.048217624
136	0xbc40ca6e	-0.011767013
137	0xbb058761	-0.0020374882
138	0x3d2b0952	0.041756935
139	0x3c4f703d	0.012661037
140	0x3cbe0cf1	0.02319953
141	0x3d83f477	0.06443112
142	0x3d362d65	0.044476885
143	0x39af47c5	0.00033432074
144	0x3d30f7b4	0.043204978
145	0xbbc315f3	-0.0059535443
146	0x3d71e949	0.05906037
147	0xbd144aea	-0.036204256
148	0x3bb93687	0.005652252
149	0xbc8528f5	-0.016254881
150	0xbcbe03fa	-0.023195256
151	0xbc638a28	-0.0138879195
152	0xbd3cec67	-0.04612389
153	0xbd2ee7a6	-0.042701386
154	0xbdb9e34f	-0.09076559
155	0xbe27c5aa	-0.16383997
156	0xbd6e171f	-0.05812752
157	0x3d36ea30	0.044656932
158	0x3c367afd	0.011137721
159	0x3dd09328	0.10184318
160	0xbdf7aecc	-0.12093887
161	0xbc84b2ce	-0.016198542
162	0xbd19e2d7	-0.037569847
163	0xbd9b31c9	-0.07577855
164	0xbccd5627	-0.025065495
165	0x3c0eb21f	0.00870946
166	0xbdc171b7	-0.094455175
167	0xbdc0c0a1	-0.09411741
168	0xbcf1bf5d	-0.029510194
169	0xbe0b6d9e	-0.13616034
170	0xbd84697f	-0.06465434
171	0xbc9e60e5	-0.019333312
172	0xbdd50dea	-0.104030445
173	0xbd5469a1	-0.051858548
174	0xbd872bc8	-0.066001475
175	0x386e5de3	5.683106e-05
176	0xbd3cd211	-0.046098772
177	0xbcf92a1b	-0.030415585
178	0xbca9bfff	-0.020721434
179	0xbd1408ab	-0.03614108
180	0x3b5c9880	0.0033660233
181	0x3d31c8b2	0.04340429
182	0xbce8befb	-0.02841138
183	0x3d262ad6	0.040568195
184	0xbd04a42a	-0.03238312
185	0x3cff05cf	0.0311307
186	0xbbc82668	-0.006108094
187	0xbc6b0f50	-0.0143469125
188	0x3cf27617	0.029597325
189	0x3d83f169	0.0644253
190	0xbd143e0f	-0.036191996
191	0xbd8ee9b0	-0.06978166
192	0x3d078fde	0.033096187
193	0xbd03b554	-0.03215535
194	0xbd192066	-0.037384413
195	0xba2b976c	-0.0006545696
196	0x3d255b94	0.04037054
197	0x3ba76693	0.0051086633
198	0xbd277b8b	-0.040889304
199	0x3d17e1c4	0.03708054
200	0x3c9250c8	0.017860785
201	0xbb14b76b	-0.0022692333
202	0x3c83f4a5	0.016107867
203	0xbd8857dd	-0.066573836
204	0xbc10c0fa	-0.008835072
205	0xbc8607db	-0.016361168
206	0xbd8f8e7a	-0.07009597
207	0x3d193407	0.037403133
208	0xbd2a85a9	-0.041631375
209	0x3d0ca237	0.034334388
210	0xbccbc250	-0.024872929
211	0x3e172da8	0.1476351
212	0x3d23fb48	0.040034562
213	0xbbe0260a	-0.006840472
214	0x3d260a01	0.040536884
215	0x3d1485d9	0.03626046
216	0x3c57bf90	0.013168231
217	0x3dbc81e0	0.09204459
218	0x3d81588c	0.06315717
219	0x3dca9cad	0.09893165
220	0xbdda03d7	-0.10645264
221	0xbdb67298	-0.08908576
222	0x3d3f3a48	0.04668644
223	0x3d346dee	0.04405015
224	0xbcaa9a97	-0.020825667
225	0x3d703ac9	0.058649812
226	0xbc41d7e6	-0.011831259
227	0x3bcffcd2	0.006347277
228	0xbd6901f1	-0.056886617
229	0x3991d2e6	0.00027813687
230	0xbdaf953c	-0.08573386
231	0xbda675fe	-0.08127974
232	0xbd4db78c	-0.050223872
233	0x3d79b6fd	0.060965527
234	0x3c94ef6a	0.018180568
235	0xbc66e2ea	-0.0140921865
236	0x3d416fb9	0.047225688
237	0xbc8eaf9d	-0.017417723
238	0x3c9ab481	0.0188849
239	0x3caa6f16	0.020804923
240	0xbd727b18	-0.059199423
241	0xbc41ae3b	-0.011821325
242	0x3e0b3403	0.1359406
243	0xbd7eb5ae	-0.062184982
244	0xbd429228	-0.047502667
245	0x3de5f7e2	0.112289205
246	0x3da566a9	0.080762215
247	0xbd423f77	-0.047423806
248	0xbe0e9b51	-0.13926436
249	0xbb13193c	-0.002244546
250	0x3a9911a5	0.0011678232
251	0xbe0f40b5	-0.13989528
252	0xbde79e3e	-0.11309479
253	0x3ba66f51	0.005079188
254	0xbcb528b3	-0.022114133
255	0xbc4c0d60	-0.012454361

conv2.bias f4 [32]
0	0xbccd2fe3	-0.025047248
1	0xbdd93f84	-0.10607818
2	0xbbdd4180	-0.006752193
3	0xbc88bd22	-0.016691748
4	0x3c8c6627	0.017138554
5	0xbd095dfb	-0.033536892
6	0xbd59b58e	-0.05315166
7	0xbdbb1a92	-0.09135927
8	0xbd9b2edb	-0.07577296
9	0xbd8ba62b	-0.068188034
10	0xbdb3754b	-0.08762606
11	0xba9dc7aa	-0.0012037654
12	0xbda55d8f	-0.080744855
13	0xbdb43705	-0.08799557
14	0xbd15b186	-0.036546253
15	0xbe204c07	-0.15654002
16	0xbdfb6b9d	-0.12276385
17	0x39b1a9fa	0.00033886713
18	0xbd741cbf	-0.059597727
19	0xbdcd85d2	-0.1003529
20	0xbd3844bf	-0.044987436
21	0xbe231a90	-0.15928102
22	0xbda6add5	-0.081386246
23	0xbdcae03b	-0.0990605
24	0xbd9689a4	-0.073504716
25	0xbd817da8	-0.06322795
26	0xbe271f00	-0.1632042
27	0xbe08a553	-0.13344316
28	0x3d24c546	0.040227197
29	0xbd8ecbbb	-0.06972452
30	0xbae2076e	-0.0017244646
31	0xbcab3926	-0.020901274

bn2.weight f4 [32]
0	0x3f78f829	0.9725366
1	0x3f6b91d1	0.92019373
2	0x3f758154	0.95900464
3	0x3f5865f1	0.8453055
4	0x3f6d4dbd	0.92696744
5	0x3f81e6e8	1.0148592
6	0x3f80a1af	1.0049342
7	0x3f804fe2	1.0024378
8	0x3f8b295d	1.0871998
9	0x3f77f7a0	0.9686222
10	0x3f82f135	1.022986
11	0x3f89dfd1	1.0771428
12	0x3f83d6b2	1.0299895
13	0x3f835bfd	1.0262448
14	0x3f7304df	0.9492931
15	0x3f8e7581	1.1129609
16	0x3f862e40	1.0482864
17	0x3f6f6c0d	0.9352425
18	0x3f75483d	0.9581335
19	0x3f5fc6cb	0.8741271
20	0x3f7eea6a	0.9957644
21	0x3f8f5e2e	1.1200616
22	0x3f6b6c38	0.91962004
23	0x3f8d9a52	1.106272
24	0x3f6aa174	0.9165261
25	0x3f736de8	0.9508958
26	0x3f9d1d8b	1.2274641
27	0x3f810afa	1.0081475
28	0x3f8508a0	1.0393257
29	0x3f7627cc	0.96154475
30	0x3f8a03f0	1.0782452
31	0x3f725b32	0.94670403

bn2.bias f4 [32]
0	0x3d00dffc	0.03146361
1	0xbcda2770	-0.026630133
2	0x3d360edb	0.04444776
3	0xbcf0fb1c	-0.029416613
4	0x3c157e9a	0.009124422
5	0x3c623fb6	0.013809135
6	0x3c31befe	0.010848759
7	0xbbb8fa74	-0.0056450907
8	0x3cf8bbf5	0.030363062
9	0xbc7b1791	-0.015325443
10	0xbcd41184	-0.025887258
11	0xbb07c9f6	-0.0020719743
12	0x3b706676	0.0036682165
13	0xbcd38914	-0.0258222
14	0xbb6d8efa	-0.003624855
15	0x3d2b807c	0.04187058
16	0x3adc4ff7	0.0016808499
17	0xbc40605a	-0.011741722
18	0x3aaaf516	0.0013043012
19	0x3d052bbf	0.032512423
20	0xbc7349e1	-0.014849157
21	0x3b343697	0.0027498358
22	0x3b0152d7	0.0019733214
23	0x3c0bdcae	0.008536501
24	0xbc8d74a6	-0.017267536
25	0x39b2ca5a	0.0003410157
26	0x3c287aed	0.010283214
27	0xbc0feaff	-0.008784055
28	0x3c8a791c	0.016903453
29	0x3cfbd929	0.030743198
30	0xbceb958f	-0.028757839
31	0x3bfe14cb	0.0077539436

bn2.running_mean f4 [32]
0	0x3f973f44	1.1816182
1	0x3f96efa1	1.1791879
2	0x3fa8df39	1.3193122
3	0x3fc83963	1.5642513
4	0x3f9e4e59	1.236766
5	0x3fb05aac	1.3777671
6	0x3f660ad3	0.89860266
7	0x3f73e299	0.95267636
8	0x3fb2c380	1.3965912
9	0x3f778e49	0.96701485
10	0x3f962506	1.1730049
11	0x3fac02fb	1.343841
12	0x3f92c2c5	1.1465689
13	0x3fba4986	1.4553688
14	0x3fbd5234	1.4790711
15	0x3f8e656a	1.1124699
16	0x3f906a4e	1.1282442
17	0x3f864e3b	1.0492624
18	0x3f994b46	1.1976097
19	0x3fc579ec	1.5427833
20	0x3fbcb146	1.47416
21	0x3f5c8386	0.8613819
22	0x3f80ca07	1.0061654
23	0x3f8cd9f5	1.1004015
24	0x3fb8d074	1.4438615
25	0x3fa5f232	1.2964537
26	0x3f9d035d	1.2266651
27	0x3f638943	0.8888132
28	0x3fd31036	1.6489322
29	0x3f64aa36	0.8932222
30	0x3f9042aa	1.1270344
31	0x3f7304b2	0.9492904

bn2.running_var f4 [32]
0	0x3fd96e57	1.6986798
1	0x3fe104e3	1.7579616
2	0x3feada9e	1.8347967
3	0x400cde82	2.2010808
4	0x3fa3f16c	1.2808051
5	0x401428aa	2.314982
6	0x3fa0430b	1.252046
7	0x3f9601e5	1.1719328
8	0x3ff8c923	1.9436382
9	0x3fad9974	1.3562455
10	0x3fe4a7c0	1.7863693
11	0x400393f3	2.055905
12	0x3fa8e7d0	1.3195744
13	0x4028c30b	2.6369045
14	0x3fdc9571	1.7233106
15	0x3fe849ab	1.8147482
16	0x3fd56809	1.6672374
17	0x4012d4d1	2.2942393
18	0x3fe61905	1.7976385
19	0x3fd098eb	1.6296667
20	0x401ffab2	2.4996762
21	0x3fa7ccfa	1.3109429
22	0x3fa7631c	1.3077121
23	0x3fdf1729	1.7428943
24	0x3fe2f83b	1.7732004
25	0x3febfea1	1.8437082
26	0x4006d28d	2.106601
27	0x3fbac29c	1.459064
28	0x4027e21f	2.6231763
29	0x3f9840ee	1.1894815
30	0x3fd57a76	1.6677997
31	0x3f91a824	1.1379437

conv3.weight f4 [64, 32, 5, 5]
0	0x3c8b6266	0.017014693
1	0xbd79747c	-0.060902104
2	0xbd17dde6	-0.037076853
3	0xbd3e2292	-0.046419688
4	0xbc8af288	-0.016961351
5	0xbcaafc19	-0.020872163
6	0xbdc41c45	-0.095757045
7	0xbd1b6305	-0.03793623
8	0x3c90068b	0.017581245
9	0xbc006c34	-0.007838298
10	0xbbf81dfe	-0.0075719347
11	0x3d3c6945	0.04599883
12	0x3d140e3c	0.036146387
13	0x3cddd852	0.027080689
14	0x3dd39bd2	0.10332455
15	0x3a3db8f2	0.0007237337
16	0xbc7c70de	-0.015407769
17	0xbd12955e	-0.03578698
18	0x3cbfc822	0.02341086
19	0x3dace774	0.08442584
20	0x3cb2bcf4	0.021818615
21	0xbbcd36a6	-0.006262618
22	0xbceb73b0	-0.028741688
23	0x3d2af122	0.04173387
24	0xbc8c0c49	-0.017095702
25	0xbb74daff	-0.0037361977
26	0x3d01da84	0.031702533
27	0xbb6b3c00	-0.0035893917
28	0xbc78e236	-0.015190652
29	0x3bedd35d	0.0072578625
30	0x3ca12ff5	0.019676188
31	0xbc7a57ea	-0.015279749
32	0xbd882300	-0.06647301
33	0x3d2d4215	0.04229935
34	0x3d14616b	0.036225718
35	0x3d3f8241	0.04675508
36	0x3d3b0d9d	0.04566728
37	0xbd0a5669	-0.033773813
38	0xbd3f56b1	-0.046713535
39	0x3c1704e6	0.0092174765
40	0x3cb1df68	0.021712974
41	0x3d897843	0.06712391
42	0xbbb9066a	-0.0056465166
43	0xbcd9bffb	-0.026580801
44	0x3c36a436	0.011147549
45	0x3c88966e	0.016673293
46	0xbcd613ab	-0.026132425
47	0xbc863fa9	-0.016387777
48	0x3d19c93d	0.03754543
49	0x3ce0fe93	0.02746514
50	0xbb5ac202	-0.0033379798
51	0xbc869dd4	-0.01643268
52	0xbc7f2384	-0.015572432
53	0x3cd9c6bd	0.026584024
54	0xbce79aca	-0.028272051
55	0x3d035b31	0.03206939
56	0x3ca47f83	0.020080334
57	0x3d0987a5	0.033576626
58	0xba76d41c	-0.0009415762
59	0x3c5e64a9	0.013573804
60	0xbc8cd3ed	-0.017190898
61	0x3d7890e1	0.060685042
62	0xbd091b47	-0.03347328
63	0xbd05525c	-0.032549247
64	0x3dac4240	0.08411074
65	0x39caf267	0.00038709046
66	0xbde36ad0	-0.11104357
67	0xbccddda6	-0.025130104
68	0x3da6b476	0.08139889
69	0xba1f64d3	-0.00060803926
70	0xbc0f59d6	-0.008749446
71	0x3ca8b227	0.020592762
72	0x3d4fe83b	0.05075858
73	0x3ce90d9e	0.028448876
74	0xbd392bca	-0.045207776
75	0x3cbfd913	0.023418939
76	0xbc18932f	-0.009312435
77	0xbce0a477	-0.027422173
78	0xbae75fb0	-0.0017652418
79	0x3cbe59c4	0.023236163
80	0xbcfde750	-0.030994087
81	0xbd6abec6	-0.057310842
82	0x3beda07a	0.0072517963
83	0x3d0b9a6e	0.034082823
84	0xbab60e10	-0.0013889689
85	0x3db5e530	0.08881605
86	0x3d95229f	0.07281994
87	0xbd736921	-0.05942643
88	0xbce22dc1	-0.027609708
89	0x3bcc2758	0.006230276
90	0x3d0c6ea2	0.034285195
91	0xbbacbbb6	-0.0052714003
92	0xbd64e80c	-0.05588536
93	0xbda739e1	-0.081653364
94	0x3afdaa3c	0.0019353102
95	0x3cdce550	0.026964813
96	0xbd2aca89	-0.04169706
97	0x3cb7b9dc	0.022427492
98	0xbd769216	-0.060197912
99	0xbbd7b29a	-0.0065825703
100	0xbbc3adc1	-0.005971641
101	0x3d6c7a9e	0.057734124
102	0x3d3af501	0.04564381
103	0xbd2d71a2	-0.042344697
104	0xbc355e9a	-0.011069918
105	0xba698f86	-0.0008909631
106	0xba15c6be	-0.0005713514
107	0xbc124406	-0.008927351
108	0xbd940b7f	-0.07228755
109	0xbd924015	-0.07141129
110	0x3d738341	0.059451345
111	0xbd440430	-0.047855556
112	0x3ca98c09	0.020696657
113	0x3d6c1568	0.057637602
114	0x3aa5870d	0.0012628749
115	0xbdd8d3b6	-0.10587256
116	0x3b7ad014	0.0038270997
117	0x3ce4bfdd	0.027923519
118	0x3d1e36c6	0.038626455
119	0x39d6e812	0.00040990167
120	0x3c8f0b77	0.017461522
121	0x3d07c38b	0.03314547
122	0xbc5a518b	-0.013325105
123	0x3cab2f16	0.020896476
124	0x3bba908f	0.0056935023
125	0xbc793457	-0.015210233
126	0x3c94555f	0.018107114
127	0xbcd8f1d8	-0.026482508
128	0xbd631ee6	-0.05544939
129	0xbadc2d3e	-0.0016798151
130	0xbca25a8b	-0.019818565
131	0xbd740e72	-0.05958409
132	0xbc9c5c6c	-0.019087039
133	0xbd1a2d65	-0.037640948
134	0xbd381636	-0.044943057
135	0xbd8f9a9f	-0.070119135
136	0xbd2476a5	-0.04015221
137	0xbc5e14c4	-0.013554756
138	0xbdb78b91	-0.08962167
139	0xbdab951c	-0.0837805
140	0xbc53f0e8	-0.0129358545
141	0xbd399478	-0.045307606
142	0xbcdd653a	-0.027025808
143	0xbd156053	-0.036468815
144	0xbdcc7716	-0.09983651
145	0xbcfa085c	-0.030521564
146	0xbd084c7c	-0.033276066
147	0xbd5391a6	-0.051652573
148	0x3c512222	0.012764486
149	0xbcea8791	-0.028629096
150	0xbc33018c	-0.010925662
151	0x3aa8218e	0.0012827383
152	0xbd55d59f	-0.052205678
153	0x3d20dfa7	0.03927579
154	0x3d785093	0.060623717
155	0x3d511882	0.051048763
156	0x3d1a24c9	0.037632737
157	0xbd93c254	-0.072147995
158	0xbd416924	-0.04721941
159	0x3c54ee71	0.012996302
160	0x3ddd0bc5	0.107932605
161	0x3cb3f680	0.021968126
162	0xbc7eba16	-0.015547296
163	0xbd22a046	-0.03970363
164	0x3d10feb1	0.035399143
165	0x3d17cf4e	0.037062936
166	0x3ca8747c	0.020563357
167	0xbb9829fc	-0.004643677
168	0x3d1d28ea	0.038369097
169	0x3c2e76db	0.010648455
170	0xbd4225b8	-0.047399253
171	0xbcb063f0	-0.021532029
172	0xbc210583	-0.009827974
173	0x3dabf953	0.08397164
174	0x3d246535	0.04013558
175	0x3cffa95b	0.031208685
176	0xbd2acea4	-0.041700974
177	0xbb145b30	-0.002263736
178	0xbd2c62fc	-0.042086586
179	0xbda73d2c	-0.081659645
180	0xbc1900ad	-0.00933854
181	0x3c643146	0.013927763
182	0xbcb28eea	-0.021796662
183	0xbd6bf91b	-0.057610612
184	0xbdb2f988	-0.087390006
185	0xbd07e363	-0.033175837
186	0x3cf6ae30	0.030112356
187	0xbcc2c9fa	-0.02377795
188	0xbcb020c3	-0.021499997
189	0x3d49dd92	0.04928357
190	0x3c38a1bb	0.011269028
191	0xbc5b4857	-0.013383946
192	0xbc510799	-0.012758159
193	0xbd23426f	-0.039858278
194	0x3dc8ec46	0.098106906
195	0x3cd8761e	0.02642351
196	0x3bc27c88	0.0059352554
197	0x3d11d9cd	0.0356081
198	0x3d3a43f6	0.04547497
199	0xbd388a45	-0.04505374
200	0x3a0f803e	0.00054741267
201	0x3ae31a39	0.001732654
202	0x3c893c4a	0.01675238
203	0xbd0c63c7	-0.034274843
204	0xbc92ecad	-0.017935121
205	0xbd4ecbfb	-0.0504875
206	0xbaac6da4	-0.0013155234
207	0xbc648c35	-0.013949444
208	0x38fa14a7	0.00011924776
209	0xbd94d6bd	-0.072675206
210	0xbd84221a	-0.06451817
211	0xbdbd3c76	-0.09240048
212	0x3d1033ac	0.03520553
213	0x3ccd35c7	0.025050057
214	0xbd93a293	-0.07208743
215	0x3c0af5a4	0.008481417
216	0x3c1f47be	0.0097216945
217	0x3b46789a	0.0030284286
218	0xba09c322	-0.00052552123
219	0x3d0b3849	0.033989225
220	0x3c711df3	0.014716613
221	0x3bce351e	0.006292953
222	0xbd09888a	-0.03357748
223	0xbcbdf767	-0.02318926
224	0xbc52bbe4	-0.012862179
225	0xbc188324	-0.00930861
226	0x3b8ab345	0.0042327964
227	0x3c95e548	0.018297806
228	0x3d558443	0.052128088
229	0xbba154e9	-0.004923452
230	0xbc524cbf	-0.0128356805
231	0xbd4ede1d	-0.050504792
232	0x3ce2785a	0.027645279
233	0x3d07528e	0.033037715
234	0x3d9695f5	0.07352821
235	0xbd82e039	-0.06390423
236	0x3d45263e	0.048132174
237	0x3d4d8729	0.050177727
238	0xbd7251f8	-0.059160203
239	0xbcbf37c3	-0.023342019
240	0xbc82c4a4	-0.015962906
241	0x3be0e753	0.0068635135
242	0xba7f5fc2	-0.0009741747
243	0xbd914da8	-0.0709489
244	0xbad959d7	-0.001658256
245	0x3c87108f	0.016487388
246	0xbc333558	-0.010938011
247	0x3bc0e3c0	0.005886525
248	0x3c0b2878	0.008493535
249	0xbc4f7a78	-0.012663476
250	0xbd802826	-0.06257658
251	0xbd58a218	-0.05288896
252	0xbd691d90	-0.05691296
253	0xbcb38a7d	-0.021916622
254	0x3c07e1a9	0.008293548
255	0xbd6da73f	-0.058020826

conv3.bias f4 [64]
0	0x3baa30d9	0.0051938114
1	0x3bba784d	0.0056906105
2	0xbc5b52aa	-0.013386408
3	0x3cb0f9a7	0.021603419
4	0x3cbd7571	0.02312729
5	0x3b50f15f	0.003188215
6	0x3c77d26d	0.015125853
7	0xbbce3687	-0.0062931213
8	0x3c936e84	0.017997034
9	0xbb4d7573	-0.0031350523
10	0x3cf796fa	0.030223358
11	0x3c2fe0ef	0.010734781
12	0xbc9507f3	-0.018192267
13	0xbd05b576	-0.032643758
14	0x3c99290f	0.018696336
15	0x3c08cd7d	0.0083497735
16	0xbc7b62bf	-0.015343367
17	0xbcfa3415	-0.030542413
18	0xbb920d2e	-0.0044571375
19	0x3cd9a772	0.026569102
20	0xbdbf6031	-0.09344519
21	0x3cc0939f	0.023507891
22	0x3caeea4e	0.02135196
23	0xbc1e3d48	-0.009658165
24	0xbc898223	-0.016785687
25	0x3ccdbbd7	0.025113983
26	0x3c49626d	0.012291533
27	0x3c9ab37a	0.01888441
28	0xbc8e5215	-0.017373124
29	0xbc4e9118	-0.012607835
30	0xbbeb6920	-0.0071841627
31	0xbcc3c242	-0.02389634
32	0x3c9d1a04	0.019177444
33	0xbc8f295f	-0.017475782
34	0x3c21bd77	0.009871832
35	0xba93c336	-0.0011273387
36	0xbc231646	-0.009954041
37	0x3d03cea8	0.032179505
38	0x3c02f30f	0.00799252
39	0xbc6db716	-0.014508983
40	0xbc90f5ed	-0.017695392
41	0x3ce11b8e	0.02747896
42	0x3d160224	0.036623135
43	0x3c83f3a1	0.016107382
44	0xbbbfb9fd	-0.005851029
45	0xbc2a5a74	-0.010397542
46	0xbd4f3f64	-0.050597563
47	0xbd177fe7	-0.03698721
48	0x3b2444c6	0.0025065406
49	0xbd02ef4f	-0.031966504
50	0x3d1966dd	0.037451614
51	0x3d029b79	0.03188655
52	0x3d0563fb	0.032566052
53	0x3c853c6b	0.016264161
54	0xbc6ff302	-0.01464534
55	0xbcdfa75a	-0.02730148
56	0xb99e7feb	-0.00030231415
57	0x3ce1daf8	0.027570233
58	0x3cf40cbe	0.029791232
59	0xbcccaea4	-0.024985619
60	0x3ad5b957	0.0016305846
61	0xbc340719	-0.01098802
62	0xbb815f82	-0.003948153
63	0x3cacbb0c	0.021085285

bn3.weight f4 [64]
0	0x3f83729f	1.0269355
1	0x3f8892d9	1.0669814
2	0x3f6a1a11	0.91446024
3	0x3f81648b	1.0108808
4	0x3f8424a6	1.0323684
5	0x3f8c78bf	1.0974349
6	0x3f82a66b	1.0207037
7	0x3f83f4a6	1.0309036
8	0x3f859787	1.0436867
9	0x3f82a3ad	1.02062
10	0x3f69d007	0.9133305
11	0x3f7d3e24	0.98922944
12	0x3f8a0ae4	1.0784574
13	0x3f60c0b9	0.8779407
14	0x3f827901	1.0193177
15	0x3f7d57e9	0.98962265
16	0x3f831f0a	1.0243847
17	0x3f76e023	0.96435755
18	0x3f7bc4c3	0.9834711
19	0x3f8be3ab	1.0928854
20	0x3f4ddf85	0.8041919
21	0x3f80ab4d	1.0052277
22	0x3f73f209	0.9529119
23	0x3f5f6173	0.8725807
24	0x3f66aa1d	0.9010332
25	0x3f817e10	1.0116596
26	0x3f71687c	0.94300056
27	0x3f82fb10	1.0232868
28	0x3f7900a2	0.9726659
29	0x3f810d5b	1.0082201
30	0x3f7d1a15	0.98867923
31	0x3f865f3e	1.0497816
32	0x3f79fbcc	0.97649837
33	0x3f80b5c6	1.0055473
34	0x3f8f36db	1.1188616
35	0x3f671ab8	0.90275145
36	0x3f777a91	0.96671396
37	0x3f68ca1f	0.9093341
38	0x3f81b8b8	1.0134497
39	0x3f7e84cc	0.9942138
40	0x3f7c56f3	0.98570174
41	0x3f756af0	0.958663
42	0x3f70c067	0.9404358
43	0x3f808343	1.0040058
44	0x3f897211	1.0737935
45	0x3f89d775	1.0768877
46	0x3f5f03be	0.87115085
47	0x3f85305b	1.0405382
48	0x3f86d3fc	1.0533442
49	0x3f803fb5	1.0019442
50	0x3f7e843a	0.9942051
51	0x3f789320	0.97099495
52	0x3f75fd12	0.9608928
53	0x3f877ce8	1.0584993
54	0x3f857733	1.0427002
55	0x3f821a4e	1.0164278
56	0x3f76857e	0.9629744
57	0x3f831a0b	1.0242323
58	0x3f87141f	1.0553015
59	0x3f8141e3	1.0098232
60	0x3f8b3fc0	1.087883
61	0x3f8dab01	1.1067811
62	0x3f800da1	1.0004159
63	0x3f84f71a	1.038791

bn3.bias f4 [64]
0	0x3cbec563	0.02328748
1	0x3ccb94d7	0.024851246
2	0x3c6803fd	0.014161107
3	0xbc942a77	-0.018086655
4	0x3cc190dc	0.023628645
5	0xbc37fd06	-0.011229759
6	0x3d2eda2e	0.04268854
7	0xbd4b0133	-0.04956169
8	0xbc4aa958	-0.012369476
9	0x3bb24081	0.0054398184
10	0xbb939ee8	-0.004505027
11	0xbb802484	-0.003910603
12	0x3cb48676	0.022036772
13	0x3bfaf27a	0.0076583
14	0x3cf829ac	0.030293308
15	0x3ca1d577	0.019755108
16	0x3c016033	0.007896471
17	0x3b74f0ab	0.0037374895
18	0xbcebbddc	-0.028777055
19	0x3cebd93a	0.028790105
20	0x3b076055	0.0020656784
21	0x3c3046e3	0.010759088
22	0x3c329806	0.010900503
23	0x3b9eb4a0	0.0048433095
24	0x3c2d1eda	0.010566438
25	0x3cf14682	0.029452566
26	0xbbd29031	-0.0064258804
27	0xbc5c5d2d	-0.013449949
28	0x3ba366cf	0.004986621
29	0xbc8ed624	-0.017436095
30	0xbc9ca261	-0.019120397
31	0x3d04e466	0.03244438
32	0xbc010c55	-0.007876475
33	0x3d4254da	0.047444202
34	0x3cd5217c	0.026016943
35	0x3c1bd750	0.009511784
36	0x3b251457	0.0025189125
37	0xbbfa72b4	-0.007643068
38	0x3cd66e3e	0.026175614
39	0x3d05e349	0.03268746
40	0xb9c5f5c2	-0.00037757872
41	0x3d29c3bc	0.041446432
42	0x3c5ac30e	0.013352169
43	0xbcd7eb20	-0.026357234
44	0x3d17041c	0.036869153
45	0x3c03d0a7	0.008045352
46	0x3c7cae6b	0.015422444
47	0x3c6fe034	0.0146408565
48	0x3c57408c	0.013137948
49	0xbcd80967	-0.02637167
50	0x3c0796ad	0.00827567
51	0xbb4a67f3	-0.0030884712
52	0xbbd741c3	-0.0065691187
53	0xbb94d01f	-0.0045414115
54	0x3b9a305e	0.004705473
55	0xbc4a6f05	-0.012355571
56	0xbd07f104	-0.033188835
57	0x3c81fbea	0.015867192
58	0xbbef8e2c	-0.0073106494
59	0x3d487ee5	0.04894914
60	0x3d2eedd0	0.042707264
61	0x3c9c8f32	0.01911125
62	0x3cce2e8b	0.025168678
63	0x3bba27bd	0.0056810067

bn3.running_mean f4 [64]
0	0x3f9b326e	1.2124765
1	0x3f65c3d6	0.89751947
2	0x3ed1ce7b	0.40977845
3	0x4017e64a	2.3734307
4	0x3f84e4d0	1.0382328
5	0x3f8a5831	1.0808164
6	0x3f353c25	0.707949
7	0x3f62a0ea	0.88526785
8	0x3faf72fc	1.3706965
9	0x3f601012	0.8752452
10	0x3ee6f706	0.4511034
11	0x4007973d	2.1186059
12	0x3f9cf2ac	1.2261558
13	0x3e939d29	0.2883084
14	0x3fa68fff	1.3012694
15	0x3f52a889	0.82288414
16	0x3ed30b4a	0.4121955
17	0x3fa2435f	1.267681
18	0x400a353d	2.1594994
19	0x3f36a9ab	0.7135264
20	0x3c02a054	0.0079727955
21	0x3fb685b2	1.425955
22	0x3fca05b3	1.5782989
23	0x3f20fcae	0.6288556
24	0x3f63d862	0.8900205
25	0x3fe89a77	1.8172139
26	0x3f5b5643	0.856785
27	0x3fc185ad	1.511892
28	0x3fc959ff	1.573059
29	0x3f8419b5	1.0320345
30	0x3f986b29	1.1907703
31	0x3f610735	0.8790162
32	0x3f8d8e26	1.1059005
33	0x3f41950c	0.7561805
34	0x400da76a	2.2133431
35	0x3e6cdc04	0.23130804
36	0x3fa2d745	1.2721945
37	0x40114c9f	2.2703016
38	0x3fb16bf4	1.386107
39	0x3f6d7166	0.9275116
40	0x3fd0524e	1.6275117
41	0x4024d297	2.5753534
42	0x3fb0cd5c	1.3812671
43	0x3f96b76f	1.177473
44	0x3f395eb2	0.7241012
45	0x3ffc8dfc	1.973083
46	0x401b230d	2.4240143
47	0x3fdfe246	1.7490928
48	0x3f3f8e0b	0.74826115
49	0x3f658b0a	0.8966528
50	0x3f8aa34d	1.0831085
51	0x3f322cfd	0.69599897
52	0x3f9cf6de	1.2262838
53	0x3ffef8f9	1.991973
54	0x3f527518	0.8220992
55	0x3fb65835	1.4245669
56	0x3f652c8d	0.89521104
57	0x3fd3c3b5	1.65441
58	0x4001f869	2.0307868
59	0x3f37031b	0.71489114
60	0x3fb34d2d	1.4007927
61	0x3f567b07	0.83781475
62	0x3f310916	0.6915449
63	0x3edf970d	0.4366993

bn3.running_var f4 [64]
0	0x40456d2a	3.0847878
1	0x40178937	2.36775
2	0x3f56a718	0.83848715
3	0x4085829a	4.1721926
4	0x401d95e8	2.4622746
5	0x407496a8	3.8216953
6	0x3fdc9e33	1.7235779
7	0x3ffcda4d	1.975412
8	0x403b7688	2.9291096
9	0x3feba0bb	1.8408426
10	0x3f409b9f	0.7523746
11	0x405b6c72	3.428494
12	0x4048c56e	3.1370502
13	0x3ee9c552	0.45658356
14	0x403e4ead	2.973552
15	0x3fc18066	1.5117309
16	0x3f828f75	1.020003
17	0x4025135a	2.5793061
18	0x400e57fe	2.2241206
19	0x3fd0739b	1.628528
20	0x3cabda2b	0.020978054
21	0x401a185d	2.407737
22	0x4031ac2d	2.7761338
23	0x400734d3	2.1125991
24	0x3fe6b660	1.8024406
25	0x4065fe90	3.5936623
26	0x3feda453	1.8565773
27	0x4072063a	3.78163
28	0x404cc677	3.1996133
29	0x4012aed6	2.2919211
30	0x3fcc44ff	1.5958556
31	0x400cbbcb	2.198962
32	0x4021fd2c	2.5310774
33	0x3fce00ae	1.6093957
34	0x40b883ec	5.7661037
35	0x3ee38084	0.44433987
36	0x400691fe	2.1026607
37	0x4076990c	3.8530912
38	0x40362f92	2.8466535
39	0x40261102	2.594788
40	0x4068bbc9	3.6364615
41	0x404c3b30	3.1911125
42	0x40351ba9	2.8298132
43	0x400de74a	2.2172418
44	0x3fba67e5	1.4562956
45	0x408b10bd	4.3457932
46	0x40eeb99b	7.460157
47	0x40887712	4.264535
48	0x40057d40	2.0857697
49	0x3fdba7e7	1.7160615
50	0x3feab7f1	1.8337384
51	0x3fb8df67	1.4443177
52	0x3f9b91ee	1.2153909
53	0x406b8369	3.6798956
54	0x3fe3c893	1.7795585
55	0x401b0c64	2.4226313
56	0x3ff53c38	1.9159002
57	0x4062a23b	3.5411518
58	0x406b3e4c	3.6756773
59	0x3fd3d34f	1.6548861
60	0x4063f121	3.5615923
61	0x3fe0387e	1.751724
62	0x3fd4da3d	1.6629101
63	0x3f863d81	1.048752

fc1.weight f4 [256, 64]
0	0xbdd959cd	-0.10612831
1	0x3bfc5063	0.0077000125
2	0xbcd3f35d	-0.02587288
3	0x3ba1a223	0.0049326583
4	0x3dc58eea	0.09646399
5	0xbde7e77d	-0.1132345
6	0xbaf73d6d	-0.0018862911
7	0x3d342d24	0.043988362
8	0x3dc256a3	0.09489181
9	0x3d05e1d8	0.032686085
10	0x3e181f4e	0.14855692
11	0x3e05c987	0.13065158
12	0xbdf6f6bf	-0.12058782
13	0x3c40e791	0.01177396
14	0x3d6f94d2	0.058491535
15	0xbda44684	-0.08021262
16	0x3e1cc354	0.15308887
17	0xbddfee83	-0.109341644
18	0x3de7e45e	0.113228545
19	0xbd701128	-0.05861011
20	0xbd26599b	-0.0406128
21	0x3d173620	0.036916852
22	0xbc22e51a	-0.009942317
23	0x3d05e519	0.032689188
24	0xbde8019f	-0.11328434
25	0xbcfa9d7c	-0.030592673
26	0xbd65794b	-0.056023877
27	0x3d081f33	0.03323288
28	0xbd5062ca	-0.050875463
29	0x3d3efbb7	0.046626773
30	0xbdebee2a	-0.115200356
31	0xbdf7b75d	-0.12095521
32	0x3de2ed25	0.11080388
33	0xbddf7759	-0.10911436
34	0xbc785b4e	-0.0151584875
35	0x3dc24782	0.09486295
36	0xbde66763	-0.11250188
37	0x3d5de302	0.05417157
38	0xbd64b7cf	-0.055839356
39	0xbd413cbc	-0.04717706
40	0x3dc03935	0.093859114
41	0xbdff22a3	-0.12457778
42	0x3de83c8b	0.11339673
43	0xbe2544b4	-0.1613949
44	0xbc95e16e	-0.01829597
45	0x3c34cb77	0.011034838
46	0x3d89e822	0.06733729
47	0x3dbe940c	0.093055815
48	0x3e05918a	0.130438
49	0xbde56a1e	-0.11201881
50	0x3dad92be	0.084752545
51	0xbde28d43	-0.110621
52	0x3dcd3300	0.10019493
53	0xbe0ee9e7	-0.13956414
54	0xbde4302e	-0.11142002
55	0xbda1887b	-0.0788736
56	0xbdaf877d	-0.08570764
57	0x3df2952e	0.1184486
58	0xbd97d897	-0.07414358
59	0xbe2bc2de	-0.16773555
60	0xba930023	-0.0011215251
61	0xbc988c45	-0.018621573
62	0xbd680c4e	-0.05665236
63	0xbcfbd367	-0.030740453
64	0xbd44d315	-0.048052866
65	0x3d713923	0.05889238
66	0x3aa25fdf	0.0012388191
67	0x3cc2c415	0.02377514
68	0x3d798ce4	0.06092538
69	0x3d4868bb	0.048928004
70	0xbd99ae15	-0.07503907
71	0x3c185751	0.009298162
72	0x3df711f7	0.120639734
73	0x3c02807d	0.007965204
74	0x3cf56911	0.029957326
75	0xbdefe7de	-0.11714147
76	0xba85f17a	-0.001021906
77	0xbd6dc0b8	-0.05804512
78	0xbdb535f4	-0.08848181
79	0xbcbf2b78	-0.023336157
80	0x3cc56e0f	0.024100332
81	0x3d980225	0.07422284
82	0x3e07f301	0.13276292
83	0x3d2a44ae	0.041569404
84	0x3ddd99eb	0.10820373
85	0x3dd0e2d2	0.101995125
86	0x3d9bf03f	0.07614183
87	0x3c296503	0.0103390245
88	0xbdc5fa45	-0.09666876
89	0x3dd8673a	0.10566564
90	0xbcec6cc4	-0.028860457
91	0x3d864648	0.06556374
92	0xbceefbf2	-0.029172871
93	0x3db9e7e9	0.090774365
94	0x3de1c029	0.1102298
95	0x3d5d4a5b	0.05402599
96	0x3c93bf0b	0.018035432
97	0xbc9bcbfb	-0.019018164
98	0x3ce2a0d8	0.027664587
99	0xbce0953f	-0.027414916
100	0xbd959a66	-0.0730484
101	0xbd65716f	-0.05601638
102	0x3d276526	0.040867947
103	0xbbe7e377	-0.0070766765
104	0x3d79b196	0.060960375
105	0x3d56e3d6	0.052463375
106	0xbd3e028b	-0.046389144
107	0x3ac747cb	0.0015203891
108	0x3c9b8e79	0.018988835
109	0x3dc5ff9c	0.09667894
110	0x3ddb70ff	0.10714912
111	0xbe046de2	-0.12932542
112	0x3da42c32	0.08016242
113	0x3a5a6f26	0.00083326024
114	0x3d890c72	0.06691827
115	0x3da81ebd	0.08208988
116	0x3d26b857	0.040703144
117	0x3c16bc55	0.009200175
118	0x3df73b74	0.12071887
119	0xbceb8de0	-0.028754175
120	0xbd9fc218	-0.07800692
121	0x3d4f0b6d	0.050548006
122	0x3d7cb31f	0.06169426
123	0xbd9ec1b1	-0.077517875
124	0x3dbc801f	0.09204125
125	0x3de01446	0.10941367
126	0xbd2ad54e	-0.04170733
127	0xbd6a74aa	-0.057240166
128	0xbc543625	-0.012952362
129	0xbde722b9	-0.1128592
130	0x3df5de15	0.120052494
131	0x3d7f3251	0.062303845
132	0x3b9440a2	0.0045243064
133	0x3d82c140	0.06384516
134	0xbdbfe410	-0.09369671
135	0xbc7655a0	-0.015035063
136	0x3bebeb5a	0.007199687
137	0x3c9e5a27	0.019330097
138	0x3da631d6	0.08114974
139	0xbd08e481	-0.033421043
140	0xbd1ff055	-0.039047558
141	0x3cfded7f	0.030997036
142	0x3cf8c6f3	0.030368304
143	0x3d5b2e67	0.05351105
144	0x3df2e9c7	0.11860996
145	0xbdf17416	-0.1178972
146	0xbd1e3874	-0.038628057
147	0xbdf3aac1	-0.11897803
148	0xbde90beb	-0.11379226
149	0x3e0b4f18	0.1360439
150	0x3d819edd	0.06329129
151	0x3ccc8f19	0.024970578
152	0xbc94fb73	-0.018186307
153	0x3ccbc3ee	0.0248737
154	0x3d3fd0df	0.046830054
155	0xbe32f38c	-0.17475718
156	0x3d41ad43	0.047284376
157	0xbd95793f	-0.072985165
158	0xbd934a32	-0.07191886
159	0x3d90fe9e	0.070798144
160	0xbba01695	-0.0048855045
161	0xbcf837b1	-0.030299993
162	0x3e3b468e	0.18288633
163	0xbcde4448	-0.027132168
164	0x3d113cb6	0.03545829
165	0xbd13365b	-0.03594051
166	0xbd81d94c	-0.06340274
167	0xbdb17ddd	-0.08666585
168	0x3dfd5ebd	0.123715855
169	0x3dfb2c5c	0.1226432
170	0x3ddf1eaf	0.10894524
171	0x3c033893	0.008009094
172	0x3de47020	0.11154199
173	0xbb0023e1	-0.0019552635
174	0x3db42442	0.08795978
175	0x3c025fb5	0.007957389
176	0xbd355cf3	-0.044278096
177	0x3d2a6529	0.04160038
178	0x3d868169	0.06567652
179	0x3d206698	0.03916034
180	0x3c4b9c03	0.012427333
181	0xbdcb2d8e	-0.09920798
182	0x3cc19b1b	0.02363353
183	0xbd343f61	-0.044005755
184	0xbd675c1e	-0.056484334
185	0x3ce71d6e	0.028212275
186	0x3c52bd71	0.012862549
187	0xbd004ca0	-0.031323075
188	0x3dc9f5dd	0.09861348
189	0x3d84d83b	0.06486555
190	0x3cfe8e39	0.031073676
191	0x3d977474	0.073952585
192	0x3d3ca019	0.04605112
193	0xbd069054	-0.032852486
194	0xbc19e70c	-0.009393465
195	0xbd6ad143	-0.057328474
196	0xbdc1a3bf	-0.0945506
197	0x3ca1fc12	0.019773517
198	0x3ce76d2f	0.028250305
199	0xbd8e3805	-0.06944279
200	0xbd8b93df	-0.068153135
201	0xbde0a6e2	-0.1096933
202	0xbdb7d25e	-0.08975671
203	0x3dfbe288	0.12299067
204	0xbddb8de5	-0.107204236
205	0x3dead8af	0.1146711
206	0xbc5170ed	-0.012783271
207	0xbd079bd6	-0.0331076
208	0x3daed54d	0.08536778
209	0x3e09026e	0.13379833
210	0x3d20faa3	0.039301526
211	0xbda39eb6	-0.07989256
212	0x3c413cd3	0.011794287
213	0xbc444c58	-0.011981092
214	0xbc8f41ab	-0.017487368
215	0x3dcea2af	0.10089623
216	0xbde46b75	-0.11153308
217	0xbc05c1cb	-0.00816388
218	0xbd8a3c57	-0.0674979
219	0x3dfea942	0.12434627
220	0x3e031f8a	0.12805
221	0x3d8d9d33	0.06914749
222	0xbdfbc457	-0.12293308
223	0x3dd10274	0.10205546
224	0x3d94c240	0.07263613
225	0x3b8fdd9e	0.0043904325
226	0xbd8088e0	-0.06276107
227	0xbd73392d	-0.0593807
228	0xbd86ee0b	-0.06588372
229	0xbd4bfbb8	-0.049800605
230	0xbde6633b	-0.112493955
231	0xbe0ea3e4	-0.13929707
232	0x3dec544c	0.11539516
233	0xbd01b0c6	-0.031662725
234	0x3c179a55	0.009253104
235	0xbca5a3e2	-0.020219747
236	0xbdc86a55	-0.09785906
237	0xbd798cf1	-0.060925428
238	0x3dcb039e	0.09912799
239	0xbdb0fc07	-0.086418204
240	0xbdcbd072	-0.09951867
241	0x3de62294	0.11237064
242	0x3e25d5b1	0.16194798
243	0x3dc152aa	0.09439595
244	0x3df16d2e	0.117884025
245	0x3def9168	0.11697656
246	0xbc38064d	-0.011231971
247	0x3ccd9017	0.025093121
248	0x3c00f3cd	0.007870627
249	0xbd9cc799	-0.07655258
250	0x3dd6bcc0	0.1048522
251	0xbc7f30b4	-0.015575577
252	0x3bbc8507	0.005753163
253	0x3de4a3fa	0.111640885
254	0x3cb1d5e1	0.02170843
255	0x3d26460e	0.040594153

fc1.bias f4 [256]
0	0xbdf5f90e	-0.12010394
1	0x3d888add	0.06667111
2	0xbdacf4fd	-0.08445165
3	0xbdb63149	-0.08896119
4	0xbd89bf41	-0.06725932
5	0xbd41e4d0	-0.047337353
6	0xbdea2358	-0.114325225
7	0x3d08c395	0.033389647
8	0xbd8b2099	-0.06793327
9	0xbe17fc62	-0.1484237
10	0x3c6568d7	0.014002047
11	0xbaa900c9	-0.0012893911
12	0x3c22cc10	0.009936348
13	0x3cdfaa03	0.027302748
14	0xbd4551fb	-0.048173886
15	0xbbe81caf	-0.0070834975
16	0x3d4395f0	0.047750413
17	0xbdd0b2ba	-0.101903394
18	0x3c661a2a	0.014044324
19	0xbdcd6961	-0.10029865
20	0x3d322b03	0.04349805
21	0xbdd98dac	-0.10622725
22	0xbcf8b146	-0.030357968
23	0x3dcfc6cf	0.101453416
24	0x3d96fdbb	0.07372614
25	0xbd2863c2	-0.04111076
26	0x3e03a27a	0.12854949
27	0x3ce04445	0.027376303
28	0xbce916a5	-0.02845318
29	0x3d8fe01e	0.07025169
30	0xbd188969	-0.03724042
31	0x3dbc3fd6	0.09191863
32	0xbdec1c13	-0.11528792
33	0x3c0fb339	0.008770757
34	0x3a8fcfa1	0.0010971912
35	0xbdbef843	-0.09324696
36	0xbd8dcf2f	-0.06924283
37	0x3de1634d	0.11005268
38	0xbc976c4d	-0.018484259
39	0x3cb69233	0.02228651
40	0xbc5ab286	-0.013348227
41	0x3c2d38cd	0.010572624
42	0x3d9b36a5	0.07578782
43	0x3dd5edaa	0.104457214
44	0xbde12312	-0.10993017
45	0x3da30bbe	0.07961224
46	0xbb100000	-0.0021972656
47	0xbc76ccb1	-0.015063451
48	0xbc2600fd	-0.010132072
49	0xbd9f402d	-0.077759124
50	0xbd50d515	-0.05098446
51	0x3c997349	0.01873173
52	0x3ccad59e	0.024760064
53	0xbc41a6f6	-0.011819592
54	0xbd3f5ac5	-0.046717424
55	0x3d956ff8	0.07296747
56	0xbcb6d637	-0.022318942
57	0x3d0b73ad	0.034045864
58	0xbdeb1a82	-0.11479665
59	0xbbcc833f	-0.0062412317
60	0xbe111ba5	-0.14170702
61	0x3b5862bc	0.0033017835
62	0x3c78a89d	0.015176919
63	0x3d4bc5b1	0.04974908
64	0x3dce434f	0.10071432
65	0xbde2694e	-0.110552415
66	0xbda4c3df	-0.08045172
67	0x3d32c1e3	0.043641936
68	0xbe019d29	-0.12657608
69	0x3cee4212	0.02908424
70	0x3db92a1c	0.09041235
71	0xbd91ac48	-0.07112938
72	0xbd8e2b97	-0.06941908
73	0xbd4b797a	-0.049676396
74	0xbbf7cf2e	-0.0075625395
75	0x3c71890d	0.014742148
76	0x3d924ac4	0.07143167
77	0xbd5f56b2	-0.05452604
78	0xbb538123	-0.0032273016
79	0x3da5e7c2	0.08100845
80	0x3db2fd24	0.08739689
81	0xbdaa7706	-0.08323483
82	0xbd731606	-0.059347175
83	0xbd980f75	-0.07424823
84	0xbd9c4412	-0.07630171
85	0x3ce99c33	0.028516864
86	0x3c4d0032	0.012512254
87	0x3be9320a	0.007116561
88	0xbda8c95d	-0.08241532
89	0x3c70f4e8	0.014706828
90	0x3de55031	0.11196936
91	0x3c982eae	0.018576946
92	0x3d880444	0.066414386
93	0xbd9b5de8	-0.075862706
94	0xbd03da1c	-0.032190427
95	0x3da32b0d	0.07967196
96	0xbd679a56	-0.05654367
97	0xbd2c04cc	-0.041996762
98	0x3dd3b7de	0.10337804
99	0xbdd060e4	-0.101747304
100	0x3dcb43c8	0.099250376
101	0x3d6c2d1e	0.057660215
102	0xbd9167ff	-0.07099914
103	0xbc94a695	-0.018145839
104	0x3d1a4b66	0.03766956
105	0xbcc1f984	-0.023678549
106	0x3be5d95d	0.007014437
107	0x3cc24e77	0.023719056
108	0x3db1bb36	0.08678286
109	0xbdb5c454	-0.08875337
110	0xbcd1dda0	-0.025618374
111	0xbe0409c9	-0.12894358
112	0x3df4925e	0.1194198
113	0xbd848839	-0.06471295
114	0x3d1df04a	0.038559236
115	0xbd986b64	-0.07442358
116	0xbcbaa086	-0.022781622
117	0x3ce4d28e	0.027932432
118	0x3dde0d74	0.1084241
119	0xbc6c6162	-0.014427515
120	0x3dac1c02	0.084037796
121	0xbdc1481e	-0.094375834
122	0x3dac8c8e	0.08425246
123	0x3da9a5c4	0.082835704
124	0xbd230a74	-0.03980489
125	0x3dc0d467	0.094155125
126	0xbde6b9bc	-0.11265895
127	0xbd39a39c	-0.045322046
128	0xbd934857	-0.07191532
129	0xbdc086d1	-0.09400714
130	0x3d8b4cef	0.06801783
131	0x3db6dacb	0.0892845
132	0xbdf3153a	-0.11869283
133	0x3defc2dc	0.11707088
134	0x3d3ef78f	0.04662281
135	0x3dad6149	0.08465821
136	0x3ba084a4	0.0048986245
137	0xbe007557	-0.12544762
138	0xbdf42f39	-0.119230695
139	0xbdf46105	-0.119325675
140	0xbd07f2f2	-0.033190675
141	0xbde73b0b	-0.112905584
142	0xbdf1fe5e	-0.11816095
143	0x3dc88a2f	0.097919814
144	0xbd38c0c9	-0.04510573
145	0x3d3ed4ba	0.04658959
146	0x3c41d5c1	0.011830748
147	0x3d1badfd	0.038007725
148	0x3dadf68b	0.0849429
149	0xbd7ebafc	-0.06219004
150	0x3d9fb2bd	0.077977635
151	0xbd67bd16	-0.05657681
152	0x3d95a7d5	0.07307402
153	0x3d67ad48	0.05656174
154	0xbdb4c13a	-0.088259175
155	0x3cca7810	0.024715453
156	0xbd452bac	-0.048137352
157	0x3d6c5aca	0.05770377
158	0xbda6a025	-0.08136014
159	0xbd460b84	-0.048350826
160	0x3dfc2f2b	0.12313684
161	0xbdc55b42	-0.09636547
162	0xbd465c46	-0.048427843
163	0x3d00c943	0.031441938
164	0x3c8e80d1	0.017395409
165	0xbda6c573	-0.08143129
166	0xbc18c90e	-0.009325279
167	0xbd7ce874	-0.061745122
168	0x3ce911c5	0.028450856
169	0x3dfe9557	0.12430828
170	0x3d5696f7	0.052390065
171	0x3d19b16c	0.03752272
172	0xbcb506ce	-0.022097971
173	0x3d4b7805	0.049675006
174	0x3dd3fb04	0.10350612
175	0x3db1c485	0.08680061
176	0x3d9d7709	0.0768872
177	0x3dae1be9	0.08501417
178	0xbd5dd901	-0.05416203
179	0xbdf7cec6	-0.12099986
180	0xbda05e38	-0.07830471
181	0x3dd0a685	0.10188011
182	0xbcdf8cca	-0.027288813
183	0xbcea3428	-0.028589323
184	0xbe248ce6	-0.16069373
185	0xbd4f5134	-0.05061455
186	0x3dfd6903	0.12373545
187	0xbc0fcc71	-0.00877677
188	0x3ccea8dd	0.025227005
189	0xbdb48864	-0.08815077
190	0x3dff8f5d	0.12478516
191	0xbd38d266	-0.045122527
192	0xbddbb36b	-0.10727581
193	0x3dedc8ef	0.11610591
194	0xbd83d716	-0.06437509
195	0xbdd07854	-0.10179201
196	0xbdcd6604	-0.100292236
197	0xbd9b2a73	-0.07576456
198	0xbd235def	-0.039884504
199	0x3df59df2	0.11993016
200	0xbc82d5a6	-0.015971016
201	0xbcb8256e	-0.022478785
202	0xbdca7913	-0.09886374
203	0xbd9d8544	-0.07691434
204	0xbd8d5ed1	-0.069028504
205	0xbdc2ed1b	-0.095178805
206	0x3e038e94	0.12847358
207	0xbe147897	-0.14499126
208	0x3d652485	0.05594303
209	0x3de755f1	0.11295689
210	0xbcbaa68a	-0.02278449
211	0xbca30842	-0.019901399
212	0x3d8e9453	0.06961884
213	0xbd3f062b	-0.04663674
214	0xbdd4690f	-0.10371601
215	0x3dbb70a8	0.09152347
216	0xbb9e575f	-0.004832193
217	0xbe044e75	-0.12920554
218	0x3d487486	0.04893925
219	0xbd82f0f7	-0.06393617
220	0x3d8b8667	0.068127446
221	0xbbbc18f5	-0.00574028
222	0x3dad3855	0.0845801
223	0xbcd2d8bf	-0.025738118
224	0x3d99d575	0.07511417
225	0x3d4d3f93	0.050109457
226	0xbe0fdcbf	-0.14049052
227	0xbd0ca77a	-0.034339406
228	0xbc80f1c1	-0.015740277
229	0x3d68c554	0.05682881
230	0x3de45d63	0.111506246
231	0x3dd70a29	0.10499985
232	0xbd451bdf	-0.048122283
233	0xbcc39050	-0.023872524
234	0xbdafb767	-0.08579903
235	0xbddf1b4f	-0.108938806
236	0x3d2c973a	0.04213641
237	0x3e0d3972	0.13791445
238	0xbe220fb5	-0.15826304
239	0x3d94b955	0.07261912
240	0xbd576d54	-0.052594498
241	0xbdc3efb0	-0.09567201
242	0xbcc99205	-0.02460576
243	0xbddc68e7	-0.10762196
244	0x3dc12b36	0.0943207
245	0x3c3bb629	0.011457005
246	0xbd253c2f	-0.0403406
247	0xbda7872b	-0.08180078
248	0x3cd9f0bf	0.026604054
249	0x3c8c75ec	0.017146073
250	0x3dcf7990	0.10130608
251	0x3db57ab5	0.08861295
252	0xbd3faaa2	-0.046793588
253	0xbdf3c5da	-0.119029716
254	0xbd6756be	-0.05647921
255	0xbdee231c	-0.1162779
