mini_batch_exp/models/mnist_sgd_batch256_lr0.1.pt (torch_old, 326372 bytes, 26 tensors)

conv1.weight f4 [16, 1, 3, 3]
000000 6c fe 4c be 88 8a d9 bd c3 e4 23 3e b8 fd e6 3d
       -0.20018929 -0.10622126 0.16005234 0.11278862
000010 9c ad 40 be ad 0f 2d 3e b7 bb 70 be 04 eb b9 bd
       -0.18816227 0.16900511 -0.23509108 -0.09078029
000020 23 86 92 be 01 97 46 3e 5a b0 d3 bd 28 a0 92 3d
       -0.28617963 0.19393541 -0.10336371 0.07159454
000030 ee 31 49 3e df 1f 71 be c7 42 5a be 2f 88 46 3d
       0.19647953 -0.23547314 -0.21314536 0.04846972
000040 26 a4 99 3e d5 7e 74 3e 25 d8 24 be 61 7c a7 3e
       0.30008048 0.23876508 -0.16098078 0.3271208
000050 b8 34 07 3d 38 cf 79 3e 30 89 41 3e a6 b7 a9 be
       0.03300926 0.24395454 0.18899989 -0.33147925
000060 89 03 a0 3d 29 52 8e 3e c8 0d e2 3d 46 6f d1 3d
       0.07813174 0.27797058 0.11037785 0.10226302
000070 23 e3 f9 bd 54 7e cd 3d 1d 74 ab 3e e2 d1 bf bd
       -0.12201526 0.10033861 0.33487025 -0.09366204
000080 e2 6b 2a 3e bd 1d 83 be 51 05 65 bd 64 a5 86 3e
       0.16642717 -0.25608626 -0.055913273 0.26298058
000090 3d 50 ae be de 4f 64 bc 2a 6d 56 3e 93 7b 91 3e
       -0.34045592 -0.013935057 0.2094008 0.28414592
0000a0 b7 f0 42 3e a6 bf a6 3d f7 7c 14 3b 38 82 cc bd
       0.19037138 0.08142023 0.0022657493 -0.09985775
0000b0 7f 03 9e be 8a 3f 2c 3d 93 a3 c6 3a 74 9e 9b 3e
       -0.30862042 0.042052783 0.001515495 0.30394328
0000c0 a9 9c 71 bd ff d4 85 bd 1d 49 5c 3e 0b 22 a4 be
       -0.058987293 -0.065347664 0.21512266 -0.32057223
0000d0 1c c5 a6 be d3 b7 5a 3e 02 a8 fb 3b d4 0c 57 3e
       -0.32572258 0.21359186 0.00767994 0.21000987
0000e0 b7 3a 7c 3e 8c da 58 3e 45 11 53 bd d2 ac d3 3d
       0.24631773 0.21177119 -0.05153014 0.10335697
0000f0 39 ef 03 3d de 0a 48 3e 2b 27 c1 bd a5 91 3d 3c
       0.032210562 0.19535396 -0.09431299 0.011570369
000100 8d 94 45 be 9c ee 94 3e 08 a7 b4 be 14 53 35 3e
       -0.19294949 0.29088295 -0.35283685 0.17707473
000110 ec ee 52 be 91 da da 3c c7 60 9c 3e cc f2 54 3e
       -0.20598954 0.026715549 0.30542585 0.20795745
000120 93 90 be 3d 13 38 ad 3e fb 3d a4 3e 2a 6f 1a 3e
       0.09304919 0.33831844 0.32078537 0.15081468
000130 de 9e 45 be ba 0e 51 be 78 3a 38 be 8f b5 66 be
       -0.19298884 -0.20415774 -0.17991054 -0.22530197
000140 be 6d 15 bd e7 ba 82 bc ee 12 f9 bd fc e4 42 3e
       -0.03648161 -0.015958263 -0.12161814 0.19032663
000150 69 fc 89 be 86 08 93 be da a8 0c be bf db 94 3e
       -0.26950386 -0.2871744 -0.13736287 0.29073903
000160 21 74 8c 3d ce 72 a1 be 3b 17 01 3d 11 1a 90 3e
       0.06858087 -0.31532902 0.031516295 0.28144887
000170 11 47 2d 3e b0 d8 51 3e d4 09 47 be 9a 0c a0 3e
       0.16921641 0.20492816 -0.19437343 0.31259614
000180 60 50 a2 3e 79 fc 39 be 0d 68 8c be 39 59 de 3d
       0.31701946 -0.18162717 -0.27423134 0.108568616
000190 a5 91 2c 3e 67 dd 7e 3e 00 f0 30 be 50 b3 f1 bd
       0.16852434 0.24889146 -0.17279053 -0.11801779
0001a0 0b 90 a7 3e 96 86 9d be af ab cc 3d bf 36 87 be
       0.32727084 -0.30766743 0.099936835 -0.26408955
0001b0 49 87 74 3c bf 1c 71 3d de c7 93 3e 69 3b f4 bd
       0.014924833 0.058865305 0.28863424 -0.11925394
0001c0 ee d9 c9 be 4f e8 f0 3d 93 dc b6 3d ce f6 f2 bd
       -0.3942408 0.11763059 0.0892879 -0.118634805
0001d0 25 0b a1 bd d6 b5 b6 be 67 95 bf bc 57 98 83 3e
       -0.07863454 -0.35685605 -0.02338667 0.25702164
0001e0 e2 f3 f8 bd 61 83 8f 3d 26 d6 a9 bc 6f 00 9b be
       -0.12155892 0.070074804 -0.020731997 -0.30273768
0001f0 d8 c9 19 bd b1 58 fb 3d 8f f7 98 3e 91 fc 7f 3d
       -0.03754601 0.12272776 0.29876372 0.062496725
000200 e4 8d a9 3c c1 aa 1f 3d 77 a9 83 bd 82 38 88 bd
       0.020697542 0.038981203 -0.06428807 -0.06651403
000210 0a 93 30 3e 78 90 33 be 1d 77 a2 be 0f 76 7a be
       0.17243591 -0.17535579 -0.317315 -0.24459098
000220 d5 69 43 3e 35 31 8c 3e 28 ff 6b be 5d 93 3e be
       0.1908334 0.27381292 -0.23046553 -0.18610902
000230 6e 38 1e bd 35 52 7a 3e 5f 85 a1 be 15 81 dc bd
       -0.038628034 0.24445422 -0.31547067 -0.10766808

conv1.bias f4 [16]
000000 99 f9 98 3e be 43 8c be 5c 5c 27 bd da f0 3a bd
       0.29877928 -0.27395433 -0.040859565 -0.04563985
000010 3a 5f fd ba 94 68 6f 3e 47 6e 33 bb 42 64 39 be
       -0.0019330748 0.23379737 -0.0027378963 -0.18104652
000020 ac cf c6 bc 54 15 5b 3e 9e 06 c3 3c e7 69 63 bd
       -0.024268948 0.21394855 0.023806866 -0.05552092
000030 c6 25 bd bd ba 10 66 be 83 8e 3f 3c fa 96 db bd
       -0.0923572 -0.22467318 0.011691692 -0.10722156

bn1.weight f4 [16]
000000 01 67 80 3f 22 b9 83 3f c6 f7 7d 3f 1d e6 7c 3f
       1.0031434 1.0290873 0.992062 0.98788625
000010 f4 da 81 3f c6 1b 81 3f 36 94 7d 3f 4e 86 78 3f
       1.0144944 1.0086601 0.99054277 0.9707993
000020 c1 62 86 3f 4b e1 7a 3f ac 43 7b 3f b9 7b 7f 3f
       1.0498887 0.9800002 0.98150134 0.9979816
000030 28 7a 80 3f 02 91 80 3f c6 1c 81 3f 63 b5 75 3f
       1.0037279 1.0044253 1.0086906 0.959799

bn1.bias f4 [16]
000000 75 fe d8 bc 63 8e 19 b8 ad 7d 12 3d 24 36 35 3d
       -0.026488522 -3.661065e-05 0.035764385 0.044241086
000010 3e f0 39 3d b1 b1 3f 3d 2a 63 78 3c d2 c1 ba 3c
       0.04539513 0.04680032 0.015160361 0.022797499
000020 71 e1 7c bb c1 c9 28 bd ba e6 2d 3d e2 00 0e 3c
       -0.0038586522 -0.041208033 0.042456366 0.008667203
000030 37 74 5e 3c 5f 1e 54 3d 07 08 41 3d 84 f3 f4 bb
       0.013577512 0.051786777 0.047126796 -0.0074753184

bn1.running_mean f4 [16]
000000 89 7f e3 3f 00 a2 f6 41 bc da 37 42 4b ea e5 41
       1.7773296 30.829102 45.963608 28.7394
000010 a6 8f 6d 41 e0 f9 9a 41 66 b3 3f 42 a7 f1 cc 41
       14.84757 19.37201 47.925194 25.617994
000020 2b 1d ad 41 8a 41 50 40 e5 b4 2d 42 b1 00 a3 41
       21.639242 3.2540002 43.426655 20.375338
000030 04 97 f9 40 03 41 fb 40 94 b2 93 41 47 ab a6 40
       7.7996845 7.851686 18.462196 5.208408

bn1.running_var f4 [16]
000000 1d 5d 6a 42 dc 90 04 45 8d 12 aa 45 dd d7 e4 44
       58.59093 2121.0537 5442.319 1830.7457
000010 68 93 6d 44 25 76 c8 44 65 c0 aa 45 9c 31 01 45
       950.3032 1603.692 5464.0493 2067.1006
000020 66 34 03 45 db 89 e9 42 64 aa 97 45 98 ab cb 44
       2099.275 116.76925 4853.299 1629.3623
000030 b1 9d d4 43 7c 75 d2 43 0a f8 a6 44 8e a0 82 43
       425.23196 420.91785 1335.7512 261.25433

conv2.weight f4 [32, 16, 4, 4]
000000 fa 5c 42 3b 8b f1 6e 3b 53 8a 4a 3b 20 a2 ae bc
       0.002965747 0.0036459889 0.0030905202 -0.021317542
000010 a6 42 95 bc cc b7 f3 3c 70 5c 19 3d b7 85 95 3d
       -0.018220257 0.029750727 0.03744167 0.07300895
000020 b4 ea 68 bd ea 32 0a bd bd c0 ae bc 01 bf 05 bd
       -0.056864455 -0.03373996 -0.02133214 -0.03265286
000030 32 78 e4 3c bd 86 32 3d eb 64 72 bd 29 d5 d2 3c
       0.027889345 0.043585528 -0.059178274 0.025736408
000040 c5 ec 04 bd d4 fa 01 bd 89 52 4f 3c 7a f2 21 3d
       -0.032452364 -0.03173335 0.012653955 0.039537884
000050 9c 6a 6f bd a6 60 5d bd b3 e5 70 3d 13 57 d8 3c
       -0.05845128 -0.05404725 0.05881281 0.026408708
000060 45 92 18 bc 30 fc be bc 45 07 f9 3c fc 89 b6 bc
       -0.009312217 -0.023313612 0.030398974 -0.022282593
000070 fe 5d 81 bd 88 3f fb 3c e3 04 c4 3b c9 1b 38 3d
       -0.06316756 0.030669942 0.005982028 0.044948373
000080 99 54 6b bd fa 62 43 3c 37 55 1a 3d f9 ea 3f bd
       -0.057453725 0.011925453 0.037678923 -0.046854947
000090 01 16 9f 3c 3b 91 cd 3c f3 45 2b 3d 29 41 4e 3d
       0.019419672 0.025093665 0.041814756 0.05035511
0000a0 63 8f c4 bb 13 bf c9 bb 5b 16 6a 3d 76 e0 12 bc
       -0.0059985383 -0.006156811 0.057150226 -0.0089646485
0000b0 7e ec cf 3c 28 21 9c 3b cf 68 9f bb 2e d4 3e bd
       0.025381323 0.0047646947 -0.004864789 -0.04658907
0000c0 ce 9a 81 3c bd d6 03 bd 28 a9 e6 3c 4e 67 48 3d
       0.015820887 -0.032187212 0.028156832 0.048926644
0000d0 ea 13 58 3d ea 5a 1d bd b0 5c 6a bb 01 0a 39 bd
       0.052753367 -0.03841678 -0.0035760812 -0.045175556
0000e0 db ff 14 bd be 78 17 3d 52 79 fd 38 86 33 62 3b
       -0.036376815 0.036980383 0.00012086578 0.0034515574
0000f0 7a 11 c6 bc c7 f2 81 bd 8e 05 94 3c b5 c3 fe bc
       -0.024178255 -0.06345134 0.018069055 -0.03109918
000100 50 8c ee bc 24 52 54 bd 58 15 bb bd 1f 68 67 bd
       -0.02911964 -0.051836148 -0.0913493 -0.056495782
000110 88 33 c8 bc eb a4 a1 bc 18 64 99 3c 30 9b ae bc
       -0.024438635 -0.01973196 0.018724486 -0.021314234
000120 2b cc 1a 3c 82 95 f9 bb 8b a6 c5 3d 45 aa 18 bc
       0.0094480915 -0.0076166997 0.09650906 -0.009317939
000130 21 1f 5b bd 96 54 57 3d bc 9e 83 3d 2e f0 a1 bc
       -0.053496484 0.0525709 0.064267606 -0.019767847
000140 16 63 42 bd 52 82 82 bd 50 15 b6 ba ce df d8 bb
       -0.047457777 -0.06372513 -0.001389185 -0.0066184765
000150 f6 d3 87 bd 0d 09 0d 3c dc e4 fe 3c cd aa 15 3c
       -0.06632225 0.008608115 0.031114988 0.00913496
000160 5e 67 f3 3c b9 a5 3d bd 7b bb 79 bd 8d 4e 24 3d
       0.029712375 -0.046300624 -0.06096981 0.040113974
000170 b0 30 45 3d 54 a9 68 bd 45 9d a3 bd 1a 3b 01 3d
       0.048142135 -0.05680211 -0.07988981 0.031550504
000180 96 d7 1f 3d 8a 45 19 bd 2f fd b6 3c e3 b4 5e 3d
       0.03902396 -0.037419833 0.022337524 0.054371726
000190 09 e6 2e 3d d5 23 c5 bc db 93 c4 bc 19 ff 93 3c
       0.042699847 -0.024064938 -0.023996284 0.018065976
0001a0 54 0d 5a bd b6 bd 66 3d 7f 62 a7 bb 65 c9 37 3d
       -0.053235367 0.056333266 -0.005108177 0.0448698
0001b0 58 80 26 bd bc da 61 bd ae 7a 8d 3c ae d8 23 3c
       -0.040649742 -0.055140242 0.017270412 0.010000391
0001c0 f9 6e 2e bd 58 c6 92 38 50 bf 03 bd 32 8a ae ba
       -0.0425863 6.998767e-05 -0.03216487 -0.0013316332
0001d0 f0 ce 1c 3d 25 4e e9 3c 7a cf 02 bb a1 e4 52 3d
       0.03828329 0.028479645 -0.0019960091 0.05148757
0001e0 35 11 68 3d b0 72 c6 3c c3 b0 2d 3d 7d ba 22 bd
       0.056657035 0.02422461 0.0424049 -0.03972863
0001f0 c7 3a c6 3c 6b d3 42 bd d9 7e 6d bc 31 ec 84 bd
       0.02419795 -0.047564905 -0.014495575 -0.064903624
000200 eb b3 e2 bc 27 50 24 3d 06 1c b3 bc 96 d5 3f bd
       -0.027673682 0.0401155 -0.021863949 -0.04683455
000210 d8 eb 7a 3d bc 45 85 3d e8 c0 19 3c a9 d8 b7 bb
       0.061260074 0.065074414 0.009384371 -0.0056105447
000220 00 5f f9 bc f6 55 5d bb 40 81 97 3d 2e b0 17 3d
       -0.030440807 -0.003377316 0.07397699 0.037033252
000230 5f 59 26 bd 17 c4 63 bd e1 4c b9 3a 53 4d a3 3d
       -0.040612575 -0.055606928 0.0014137292 0.07973733
000240 d8 cb 1f bc db b7 f7 bc 56 64 29 3d 40 81 86 3b
       -0.00975319 -0.030239036 0.041355453 0.0041047633
000250 f3 0e 51 bd ff 12 3a 3d 98 cf 4b bd 8e 7a 57 bc
       -0.051039647 0.045428272 -0.049758524 -0.013151778
000260 ae a8 c8 3c ee a3 0e 3c 33 0b 5b bd b1 87 c3 bc
       0.024494495 0.008706076 -0.053477477 -0.023868414
000270 89 24 72 3d ce c5 fa 3c 85 94 9a bc b8 6b 18 3c
       0.059116874 0.030611899 -0.018869648 0.009303026
000280 a0 c8 f1 3c ec df ef 3c 41 ec 38 3d ff 9d a9 3c
       0.02951461 0.029281579 0.045147184 0.020705221
000290 b2 e2 45 bd 80 02 70 bd 08 b5 68 bd ff 7b 9b bc
       -0.048311897 -0.058596134 -0.05681327 -0.018980024
0002a0 a4 15 7e bd 2b 65 24 bd 1d 15 93 3d b5 60 bd ba
       -0.062032357 -0.040135544 0.071817614 -0.0014448377
0002b0 d5 67 94 bd 67 a0 42 3b 94 61 6e 3c cf c5 81 bc
       -0.07246367 0.0029697658 0.014549632 -0.015841393
0002c0 dc 1c 56 bd 2e 0c a0 3b cb 27 d8 3c 46 d2 bf 3c
       -0.052273616 0.0048842644 0.026386162 0.023415696
0002d0 6a 1c ca bc da 40 a3 3c 38 fb e4 3c e7 9b e4 3c
       -0.024671752 0.019928385 0.027951822 0.027906371
0002e0 fa 3c 8f bb 5f 18 48 3d 28 99 18 3d d3 0f 37 3d
       -0.0043712826 0.048851367 0.037255436 0.044692826
0002f0 36 c6 8d bc 80 ee 19 3d 6a 58 3c bd f6 1a 8c bc
       -0.017306428 0.037580967 -0.045982756 -0.0171027
000300 70 31 16 bd 1f 3d 32 3d 0d cb 80 3c b4 fc bb 3c
       -0.03666824 0.04351532 0.015721822 0.022947647
000310 63 b6 6f bc cf 28 30 3c 64 7f 1e 3d 55 88 64 bb
       -0.014630887 0.010751917 0.038695708 -0.00348713
000320 0e ae 04 3d 5c 13 db bc 74 a6 fb 3c 43 c4 db 3c
       0.032392554 -0.02674263 0.03071902 0.026826983
000330 3d 21 9a bd 86 c3 0c 3c 6a c5 6a bc f5 b7 5a bd
       -0.07525871 0.008591538 -0.014329294 -0.05339809
000340 81 c7 91 3b 78 02 22 bd 1b 0c 5e 3d 47 d3 57 bd
       0.0044488315 -0.039553136 0.054210763 -0.052691724
000350 24 0e 50 3d 55 a2 97 3c 1a 4d 45 bb fa 90 21 bc
       0.050794736 0.018510023 -0.003010577 -0.009861225
000360 a3 33 4f bd ec ea 4d bc f2 d4 60 bd 50 26 5f 3d
       -0.050586354 -0.012568217 -0.05489058 0.054479897
000370 a0 d1 c5 3c 62 49 bd 3c 3b 8d 06 bd 68 7b 04 bd
       0.024147809 0.02310628 -0.03284953 -0.032344252
000380 fc 01 50 3d 42 c2 e2 3c b3 9f b8 bc 15 8c d0 bc
       0.050783142 0.02768052 -0.022537088 -0.025457421
000390 58 b1 19 3d 53 aa 20 3c 59 ef 45 3c f3 2a 70 bd
       0.037522644 0.009806233 0.012080991 -0.05863471
0003a0 f4 5c a1 bc af b3 bf 3c 69 d6 b8 3b 7e 3d 14 3d
       -0.019697644 0.02340111 0.005640794 0.036191456
0003b0 71 ad 5d bd de 59 9f 3c 65 ea 1d 3c 68 f2 88 3d
       -0.054120485 0.019452032 0.009638404 0.0668686
0003c0 08 77 79 3d 93 da 46 3d b2 4b 48 3b d4 05 1c 3d
       0.060904533 0.048548292 0.0030562696 0.038091496
0003d0 b6 21 54 3d e0 e0 a9 3c 3a e0 09 ba b7 87 c1 bc
       0.05178996 0.020737112 -0.00052595476 -0.023624284
0003e0 9d db 49 3d bd be 99 bd 05 70 b1 bb d1 72 1b bd
       0.049281705 -0.075070836 -0.005414965 -0.037951294
0003f0 0c e4 1f bd ed 5d 6f bc 06 5d 4b 3d 84 5c 7a 3c
       -0.03903584 -0.014609796 0.04964926 0.0152808465

conv2.bias f4 [32]
000000 7b e4 aa 3c 59 28 83 bc 2f 3c 16 bc 3d b0 8e 3a
       0.020860901 -0.01601045 -0.009169622 0.0010886263
000010 e6 b2 9b bd 25 e1 30 bb f1 87 1f bd fa a4 60 3c
       -0.076024815 -0.0026989665 -0.038948003 0.0137112085
000020 92 49 d9 bc fb 23 7b bd f7 84 16 3c 0f 08 81 3b
       -0.026524339 -0.06131361 0.009186975 0.0039377282
000030 88 b6 32 bd d7 e5 04 3d 12 91 cb bb 70 69 14 bd
       -0.043631107 0.032445755 -0.006212362 -0.036233366
000040 42 f6 2d 3d 7e 4c 0c 3d 40 53 97 bd 76 15 8e bd
       0.042471178 0.034252636 -0.073889256 -0.06937687
000050 07 0f 95 bd cc 58 9c bc 2f a0 9a bd 32 37 30 bd
       -0.07278257 -0.01908531 -0.07550084 -0.04302139
000060 3c 2d 37 3d 99 26 b9 bd 66 91 5d b9 23 f1 73 bd
       0.044720873 -0.09040565 -0.00021130368 -0.059556138
000070 12 bc d0 3b e5 5c f6 bc ad 9f 2e bd 1b 95 cf bc
       0.006370076 -0.030073592 -0.042632747 -0.025339654

bn2.weight f4 [32]
000000 b1 4c 7b 3f 2c 7c 7b 3f 20 6a 81 3f 1e f0 82 3f
       0.98163897 0.98236346 1.0110512 1.0229528
000010 68 35 7f 3f 0c 0e 83 3f 63 1c 82 3f 6d fa 78 3f
       0.99690866 1.0238662 1.0164913 0.9725712
000020 b6 95 7c 3f 2b ae 80 3f 63 07 80 3f 57 46 80 3f
       0.9866594 1.0053152 1.0002254 1.0021466
000030 64 2e 81 3f 04 7a 7c 3f c2 58 80 3f 1e 1b 79 3f
       1.0092282 0.9862368 1.0027087 0.97307
000040 ad 6a 7c 3f a7 d6 7a 3f ec df 80 3f fb d2 81 3f
       0.98600274 0.97983783 1.0068336 1.0142511
000050 26 3e 81 3f d5 60 7e 3f 3d 3b 84 3f bf c1 82 3f
       1.0097091 0.99366504 1.0330578 1.0215377
000060 f3 1b 7a 3f 7c c5 81 3f 73 87 80 3f 96 b1 81 3f
       0.976989 1.0138392 1.0041336 1.013232
000070 f1 7d 83 3f e1 b9 7e 3f ef 1d 78 3f de 1f 7a 3f
       1.0272809 0.9950238 0.96920675 0.97704875

bn2.bias f4 [32]
000000 a9 6d 91 3b 94 91 40 3c cb 4f 1f 3c 82 5d d6 3b
       0.0044381213 0.0117534585 0.009723614 0.0065419087
000010 a3 16 43 3b 37 e7 2e 3b 57 c9 61 3b 09 0d 87 3b
       0.0029768131 0.0026688108 0.0034452283 0.004121427
000020 8b 9a 4a 3c 29 74 9d 3b 0c b5 5f bb 23 ad 87 bb
       0.0123659475 0.004805107 -0.0034135012 -0.0041405126
000030 46 92 0c 3b b3 5e 0a 3c 27 de 0e bb a2 7f e9 3b
       0.002144949 0.00844543 -0.0021799894 0.0071258107
000040 76 21 b8 bb 44 73 0a 3a 87 4c 6e 3b 2f 3b ec 3a
       -0.005619223 0.0005281458 0.0036361532 0.0018023009
000050 b1 e1 6a 3c dc fe 38 3b 37 60 48 3b 2e 37 7c 3b
       0.014336036 0.002822808 0.0030574927 0.0038485038
000060 b2 c2 e4 38 9b 45 7e bb 72 30 a8 3b 6e 71 b9 3b
       0.00010908152 -0.0038798812 0.0051327283 0.005659274
000070 79 69 d3 3b 5b e5 e8 3b 85 d0 a2 bb 19 05 98 3b
       0.0064517823 0.0071074194 -0.004968705 0.0046392796

bn2.running_mean f4 [32]
000000 69 1f 2f 3f 3d 06 eb 3e 06 45 cc 3e d6 45 d0 3e
       0.68407303 0.45903197 0.3989641 0.4067828
000010 24 e2 d8 3e 57 04 d7 3e 81 59 bd 3e 8c 03 42 3f
       0.42360032 0.419955 0.3698235 0.7578666
000020 93 0e 39 3f 01 f1 1c 3f c9 64 25 3f 9a 3a 02 3f
       0.72287863 0.6130524 0.6460691 0.5087067
000030 a3 bb f5 3e 4d 8a 18 3f 30 c5 4e 3f 0d 53 15 3f
       0.47994718 0.5958603 0.80769634 0.5832985
000040 fa 7e 5d 3f d1 85 11 3f 1f f4 c7 3e dc 91 c2 3e
       0.86521876 0.5684481 0.39053437 0.38001907
000050 c8 bd de 3e 7a 3d 05 3f 6a 6e fe 3e df fe 12 3f
       0.43504167 0.5204693 0.49693614 0.5742015
000060 fd 77 29 3f 94 78 a9 3e 69 d4 08 3f 6a 1a 2b 3f
       0.6619871 0.33099806 0.5344911 0.6683718
000070 b6 c0 fd 3e 3f f3 e2 3e 83 30 de 3e 06 5c 2d 3f
       0.4956109 0.44326207 0.43396387 0.6771854

bn2.running_var f4 [32]
000000 e8 19 f9 3e 02 39 a2 3e e3 53 49 3e 43 10 8d 3e
       0.48652577 0.31684119 0.19660906 0.2755147
000010 74 56 67 3e 11 2d 8b 3e 63 91 6b 3e 30 27 12 3f
       0.22591573 0.2718282 0.2300468 0.57091045
000020 8d 72 cd 3e 62 b6 da 3e b5 32 cf 3e 04 78 aa 3e
       0.40126458 0.42717272 0.40468374 0.3329469
000030 bc 31 70 3e 53 2c ae 3e 91 76 e1 3e bf 6c a2 3e
       0.23456472 0.34018192 0.4403577 0.31723592
000040 37 25 5e 3f 50 bf 89 3e dc b6 a7 3e 01 44 63 3e
       0.86775535 0.26903772 0.32756698 0.2219391
000050 41 4e 6d 3e f9 5d b8 3e 13 21 c5 3e 70 8b ec 3e
       0.23174383 0.36009195 0.38501796 0.46200132
000060 96 51 c4 3e 92 05 2d 3e 38 75 9f 3e bc c4 1d 3f
       0.38343495 0.16896656 0.31144118 0.6162832
000070 dd c5 af 3e 66 cd 7b 3e d7 e3 86 3e 57 58 03 3f
       0.34330645 0.24590072 0.26345703 0.5130667

conv3.weight f4 [64, 32, 5, 5]
000000 c1 ae 55 3b b2 5f 9e 3c 97 4a d9 bc 15 11 0f bd
       0.0032605382 0.01933274 -0.026524825 -0.0349284
000010 db e8 c7 bb 2b 44 89 3c a6 44 84 3c a4 bf e0 bc
       -0.0061007566 0.016756138 0.016146015 -0.027435131
000020 2e ac 02 3d f7 68 ef 3b c6 c3 1a 3d 2c 83 b8 ba
       0.031902485 0.007306214 0.03778436 -0.0014077178
000030 27 5c f2 bc e6 ed 11 bc ee f2 a7 bc f1 50 28 3d
       -0.029584957 -0.008906817 -0.02050158 0.041092817
000040 bc 22 07 3d 03 96 3e bd 88 ac f3 3c e9 aa af 3c
       0.03299211 -0.04652978 0.029745355 0.021443801
000050 0c fe ab 3c 03 14 40 3b c5 ff 9a 3c 75 59 05 3d
       0.020995162 0.0029308803 0.018920789 0.032556016
000060 99 aa 9c 3b 08 a3 b0 bb 12 3d 8d bc 0e 8b 60 bc
       0.004781079 -0.0053905286 -0.017241035 -0.013705028
000070 32 80 be bb 4a bc ec 3c 42 7a 59 bb a6 0f 40 3d
       -0.005813622 0.028898377 -0.0033184444 0.046889924
000080 89 79 a7 bb ca 96 18 bd f9 21 e6 bc dc 44 46 bc
       -0.0051109237 -0.03725318 -0.028092371 -0.012101378
000090 c7 b6 7e 3a fb d2 00 3c 2b 2d 43 bc 87 51 1a 3d
       0.0009716567 0.007862802 -0.011912624 0.037675407
0000a0 1b 11 63 bc bb f1 a2 bc 8f fc a5 bc a4 a1 05 bc
       -0.013859059 -0.019890657 -0.02026203 -0.008156214
0000b0 26 be 80 bc de 20 47 3c bf 92 ab bb c6 89 3c 3b
       -0.01571567 0.012153832 -0.0052359994 0.0028768643
0000c0 40 7a f6 3c 4b 3b 5d bd 3d a4 cf 3a eb 0c d0 bb
       0.03008759 -0.054011624 0.0015841794 -0.006349196
0000d0 6a 5a c1 bb 15 7b c4 bb e5 d9 1b 3d 28 4c d7 bb
       -0.005900671 -0.005996118 0.038049597 -0.006570358
0000e0 35 2a 98 bc 44 77 05 bd 73 4e 59 3c 22 0a 01 bd
       -0.018574813 -0.032584444 0.013263333 -0.031503804
0000f0 05 1b c9 bc d7 9e 0d 3c 08 47 21 bd ef 30 c1 bc
       -0.024549017 0.008643827 -0.03937438 -0.023582904
000100 7d 22 6e bb 60 17 18 3c 64 5f cb 3c 54 b9 7b 3b
       -0.0036336475 0.009282917 0.02482576 0.0038410025
000110 86 73 80 3c bd 2e ab ba 14 39 83 bc 10 af e0 bc
       0.015680086 -0.0013060194 -0.016018428 -0.027427226
000120 7e 65 ae bc 1b d3 1b 3a 2c 16 1f bd 7d 2b 38 3c
       -0.02128863 0.0005944238 -0.038839504 0.011240837
000130 cc 8a a6 bc d4 91 dc 3c 43 24 97 bc 4e 57 ef bc
       -0.020329855 0.026925005 -0.018449908 -0.029216435
000140 74 3e 2f 3c 68 d9 51 b9 e3 fb 4d bc b2 c6 14 bc
       0.010696042 -0.00020012783 -0.0125722615 -0.009080576
000150 03 bd c0 bc 71 ba 88 3c db f9 0d bd 9a c2 51 bd
       -0.023527628 0.016690465 -0.03466211 -0.051210977
000160 44 e2 2f bd 6a 45 9e 3c d0 54 fa 3c ba 02 4d bc
       -0.042940393 0.019320209 0.03055802 -0.012512857
000170 6d 9f e6 bc 49 80 84 3c e3 e5 8d bc e1 19 20 3d
       -0.028152192 0.016174452 -0.017321533 0.03908718
000180 d5 8c 86 3c 1e 61 d9 bb 4f 4c 19 bd 85 b2 4e bc
       0.016424576 -0.0066338917 -0.03742629 -0.012615805
000190 7d 33 a0 3c 1e 9e 20 bd 88 2e 31 3c c0 28 d2 3c
       0.019555802 -0.039213292 0.010814317 0.025654197
0001a0 05 89 46 bc 99 2a 10 bc d4 1c ee 3b 3a 56 83 3c
       -0.012117629 -0.008799219 0.00726662 0.016032327
0001b0 ba 01 2b bd e7 0b 9c bc 40 56 2e bb cd 63 2a 3c
       -0.041749693 -0.019048644 -0.0026601702 0.010399771
0001c0 44 8a 75 3c ea 2f a0 bc a0 54 c7 3c 4e 57 97 bb
       0.014986578 -0.019554097 0.024332345 -0.004618562
0001d0 96 56 9d bc 6f 5d e5 3b b3 86 77 3d 49 53 14 3d
       -0.019206326 0.0069996635 0.060431194 0.03621224
0001e0 8b 48 e3 3c bb 58 c7 bc 73 df 48 bd d8 32 4d bd
       0.027744552 -0.024334302 -0.049041223 -0.050097317
0001f0 25 22 f5 ba bb 39 d3 3c d9 ac c4 bc 89 00 98 3c
       -0.0018702192 0.025784364 -0.024008201 0.018554943
000200 77 22 48 bb f1 87 de 3b 27 a8 60 3c 29 0a 59 3c
       -0.003053812 0.006791108 0.013711966 0.013247051
000210 aa 20 be 3c 6e 3d 1c bd 6f 99 bc bb 50 c7 86 3c
       0.023208935 -0.03814452 -0.0057555954 0.016452461
000220 e3 18 18 bc 2b cb 98 bc 08 a5 90 bc 3a 50 a6 3c
       -0.009283277 -0.018651566 -0.017656818 0.020301927
000230 bf ea 8d 3a 22 25 57 bc 63 b6 b7 bc 23 ba 92 bc
       0.0010827406 -0.013131412 -0.022425836 -0.017911023
000240 16 e0 bb 3b 3d 87 8a 3c b0 48 4a 3c 24 5f cf 3b
       0.0057335002 0.01691019 0.012346432 0.0063284803
000250 1f 0c 81 bc 22 1e d3 bc 38 cd ad 3b 27 ed 46 bc
       -0.01575285 -0.025771204 0.005304005 -0.012141502
000260 99 57 21 3c 15 1a f8 3c a0 1b ab 3c 06 8a 5c 3c
       0.009847545 0.030285874 0.020887196 0.013460642
000270 9f 44 ed bc c4 bf ba bc f2 86 18 3d 09 dd 9d 3c
       -0.028963385 -0.02279652 0.03723807 0.019270437
000280 d2 b2 e0 bc d6 5d 17 bd 94 10 ab bc 37 33 cf bb
       -0.027429018 -0.036954723 -0.020881929 -0.006323244
000290 7f d9 1f 3d e1 db 85 bc 2b c1 48 bc 0d 52 0b bd
       0.03902578 -0.016340198 -0.012253086 -0.034013797
0002a0 62 4a a8 bc 52 c5 0c bd a6 2c 39 bc f6 e9 27 bd
       -0.020543281 -0.034367867 -0.011302149 -0.040994607
0002b0 2e 8f 54 bd 14 17 ed bc 27 e2 8e 3b 71 d9 c5 bb
       -0.05189436 -0.028941669 0.0043604556 -0.006037884
0002c0 a9 f7 84 bc d3 bd 85 ba 40 32 f2 3a 13 77 4d 3c
       -0.016231375 -0.0010203667 0.001847811 0.012540597
0002d0 fd 8f 1d 3c 5e 1f 83 3b a4 e8 db 3c a5 b1 b8 bc
       0.009616849 0.004001542 0.02684433 -0.022545645
0002e0 29 ec b1 bb f6 a9 9b 3c 03 4a 8e bc 8d a4 dd 3c
       -0.005429764 0.019001942 -0.017369276 0.027056003
0002f0 c1 fd 96 3c 8e 31 ba bc bb f4 8d bb 9a d7 69 3c
       0.018431546 -0.022728708 -0.0043321527 0.014272595
000300 44 a3 48 bb 46 f3 c4 3c 56 ef 44 3c ed 29 84 bb
       -0.0030614892 0.024041783 0.012019953 -0.0040333183
000310 95 46 82 3c 50 83 12 3c 8c 22 bc 3c ea a5 59 bc
       0.015902797 0.00894244 0.022965692 -0.013284186
000320 9c eb 28 bd b4 62 e8 bb 04 55 4a 3c 82 14 0c bd
       -0.04124032 -0.0070918445 0.012349371 -0.034199245
000330 8c a7 f2 3c 48 c5 20 3c 87 c9 63 3c 5f 5d bb 3b
       0.029620908 0.0098126605 0.013903028 0.005717918
000340 6d 06 06 3d c3 fa 11 3c ba 05 a1 bc 35 e7 9c 3c
       0.03272097 0.008909884 -0.019656051 0.019153217
000350 64 75 3e bc 76 2d ef 3c 0f 78 e4 3c 48 b2 7a 3c
       -0.011624668 0.029196482 0.02788928 0.015301295
000360 2b ad 95 3b 11 54 2e bc 13 11 cb 3c 9f 69 ab bc
       0.0045677624 -0.01064016 0.024788415 -0.020924387
000370 f7 7d cc bb 7e 94 b0 bb ad 63 e4 3c a6 1c 13 3c
       -0.006240602 -0.0053887954 0.02787956 0.008978998
000380 23 36 14 bd 59 05 20 bb 4d e3 01 bd cb b7 4d bc
       -0.03618444 -0.002441725 -0.03171091 -0.012556027
000390 d9 74 11 bc 56 47 d9 bc 79 87 d6 bc f3 64 c4 bc
       -0.008877956 -0.026523273 -0.026187645 -0.023973918
0003a0 4d f8 14 3d 3c 32 6d bc 69 01 da 3c 03 2e 5f 3c
       0.03636961 -0.014477309 0.026612 0.01362181
0003b0 28 27 08 3d cb 84 ab 39 4f f4 21 3c 91 cd f0 bc
       0.033240467 0.000327146 0.009884908 -0.029394897
0003c0 9d 89 16 3d 19 dd b0 bc 3a 13 70 3c de eb 82 bb
       0.036752332 -0.021589803 0.0146530215 -0.0039954027
0003d0 8e 6c d7 3c dc 8b f2 3c a1 8f a1 bc 34 ec 5a 3c
       0.02629688 0.029607706 -0.019721808 0.013361979
0003e0 f6 f7 b6 bc 41 44 16 3c 61 f6 00 bb e3 04 0b 3d
       -0.022335034 0.009171546 -0.0019678103 0.033940207
0003f0 af 50 14 bd 4b 56 d4 bb eb 26 17 3c 87 cf 9c bb
       -0.03620976 -0.0064800135 0.009225587 -0.0047854814

conv3.bias f4 [64]
000000 6c a5 6c 3c 77 72 cc bc 1f 16 8d ba 44 da 28 bc
       0.0144437365 -0.024956925 -0.0010764039 -0.010305945
000010 bd 87 00 bd fd 49 ca 3c cf 3e 9f bc 54 9f 1e bd
       -0.03137945 0.024693483 -0.01943913 -0.038726166
000020 d2 c5 00 bc dd 66 60 3b 18 cc cf bc b2 3d 8c 3c
       -0.007859664 0.0034240999 -0.025365874 0.017119262
000030 5b 42 9d bc dc a3 76 bc 3e 7f d6 3c 3a de 93 3c
       -0.01919668 -0.015053716 0.02618372 0.018050302
000040 dd 5b 8b bc cb e6 d9 bc cc ff ad 3c d7 01 04 bd
       -0.017011577 -0.026599308 0.021240138 -0.032228317
000050 0b 8a de 3c 0e 92 f2 bc 77 41 74 bc ce 10 a3 bc
       0.027165433 -0.02961066 -0.014908186 -0.019905474
000060 83 96 12 bd 7e ee 94 bc 0d 09 9b bc 4f 36 a3 3c
       -0.03578807 -0.018180128 -0.018925214 0.019923357
000070 45 a1 0b 3c 66 59 56 3b 1c 9e 0f 3d 3c 51 b0 3c
       0.008522336 0.0032707094 0.035062894 0.02152311
000080 86 13 b4 3b 9d 02 ab 3c f4 ab b6 3c cc 82 7c 3c
       0.0054954914 0.02087527 0.02229879 0.015412044
000090 a0 1c 4d bc bf 29 25 bc d5 eb 5c 3c f0 68 91 bc
       -0.012519032 -0.010080754 0.013483961 -0.017750233
0000a0 0e b3 20 bb dc bd e1 ba 93 7f 67 3c 2b 9a 94 3c
       -0.0024520787 -0.001722272 0.014129537 0.01813992
0000b0 ea 0b 0c 3d d7 97 14 bd 19 3e c8 3c fb 89 17 3b
       0.03419105 -0.03627762 0.024443673 0.0023123014
0000c0 52 05 13 3d 2e 47 e6 3c 93 22 f5 3a a5 a5 0a 3c
       0.035893746 0.028110113 0.001870232 0.008462344
0000d0 4e a9 9c bc f2 a8 d7 3c 93 92 56 bc e8 60 c0 3c
       -0.0191237 0.026325677 -0.013096469 0.023483709
0000e0 77 7a 2a bc ed c3 29 bc 74 8c d4 3c e4 a6 94 bc
       -0.010405174 -0.010361654 0.02594588 -0.018145986
0000f0 7f ce 92 bc 3f 44 cf bc 17 75 00 bc 7f 6d d7 bc
       -0.01792073 -0.025301097 -0.007840416 -0.026297329

bn3.weight f4 [64]
000000 28 db 81 3f f8 7a 7b 3f 21 29 7d 3f d9 a9 86 3f
       1.0145006 0.9823451 0.9889088 1.0520583
000010 01 17 7f 3f 21 f5 7d 3f 62 22 7d 3f 65 84 80 3f
       0.99644476 0.9920216 0.9888059 1.0040404
000020 e1 af 7d 3f 7b 01 81 3f 6f 17 7b 3f e1 1f 7b 3f
       0.99096495 1.0078577 0.9808263 0.9809552
000030 24 3c 82 3f e9 f0 7d 3f 48 2f 7c 3f ac ab 82 3f
       1.0174603 0.99195725 0.98509645 1.020864
000040 d7 c5 7e 3f 34 7a 84 3f e1 c1 82 3f 16 3c 80 3f
       0.9952063 1.0349793 1.0215417 1.0018337
000050 f3 7d 84 3f 40 75 83 3f 27 20 78 3f ed ad 81 3f
       1.0350937 1.0270157 0.9692406 1.0131203
000060 2c 89 7d 3f a8 a7 7d 3f b2 e9 81 3f d6 64 7e 3f
       0.9903743 0.9908395 1.0149443 0.99372613
000070 b4 97 81 3f 3b 37 7e 3f 20 44 82 3f a2 ac 80 3f
       1.0124421 0.99303025 1.017704 1.0052683
000080 b2 42 7e 3f 83 41 7d 3f 27 14 7d 3f 0e 58 82 3f
       0.9932052 0.9892809 0.98858875 1.0183122
000090 f2 61 7c 3f 0c d7 77 3f 41 fa 79 3f 4c 73 7b 3f
       0.9858695 0.9681251 0.9764748 0.98222804
0000a0 9e 23 7f 3f aa d2 80 3f b8 b1 81 3f 3a 61 82 3f
       0.9966372 1.006429 1.013236 1.0185921
0000b0 ab e9 7c 3f 76 1e 82 3f ed 8c 81 3f e2 0c 7d 3f
       0.9879405 1.0165546 1.0121132 0.9884778
0000c0 bd 3f 74 3f 4e 80 7f 3f ec f7 83 3f f4 93 7c 3f
       0.95409757 0.9980515 1.0310035 0.9866326
0000d0 fa 4b 75 3f 0f bf 7f 3f 8c 2a 78 3f 18 2c 80 3f
       0.95819056 0.9990091 0.9693992 1.0013456
0000e0 e7 95 7d 3f fd 87 81 3f 2a f1 7f 3f 14 86 81 3f
       0.9905686 1.0119625 0.9997736 1.0119042
0000f0 3b 12 80 3f 63 36 83 3f d4 e8 82 3f ba b3 7a 3f
       1.0005563 1.0250973 1.0227304 0.9793049

bn3.bias f4 [64]
000000 f1 e3 11 bc ad 9c 0a bc 7b f7 ff bb 8b ad 52 bc
       -0.008904443 -0.008460206 -0.0078114844 -0.012858759
000010 62 50 16 3c da 97 5c bb 99 d9 bc bb 5d 73 f7 3b
       0.009174438 -0.0033659847 -0.0057632443 0.007551594
000020 45 6d f0 ba a5 ee 04 3c 94 a5 bf 3b 7e f2 15 bc
       -0.0018343112 0.008113538 0.005848596 -0.009152053
000030 0d 35 85 3c 4d 25 29 bc 6b b9 3c bc 0b 5b 96 3a
       0.016260648 -0.010323835 -0.011518816 0.0011471225
000040 e2 0e 23 3a ed e8 77 3c 21 91 00 3b 44 88 ab 3b
       0.0006220174 0.015131217 0.0019617754 0.00523475
000050 d5 5a 10 3c 5a c0 45 3c 49 8c 05 3a ff aa df ba
       0.008810719 0.012069786 0.00050944515 -0.0017064511
000060 fe bc 46 bc 7b 7b f4 3a aa d6 0a 3b e0 56 95 3a
       -0.01213002 0.0018652523 0.0021185079 0.0011393689
000070 4b dc 22 3c d9 0e a7 39 0f 19 ba 3b fd 04 bf bb
       0.009940217 0.00031863785 0.0056792567 -0.005829452
000080 9c 9c f4 bb 93 7c e4 3b ac d4 db bc 57 ae 51 3c
       -0.0074649584 0.006972858 -0.026834808 0.0127979135
000090 7c a1 f6 ba 3c 3a 27 3c aa 75 84 3b 45 1e ef 3c
       -0.0018816437 0.010206755 0.004042347 0.029189238
0000a0 52 19 93 3b 0c 0b e9 ba 7e 60 87 3c 81 f6 f1 3a
       0.0044891024 -0.0017779781 0.016525503 0.0018460305
0000b0 d3 13 bf 3c 54 f8 a2 ba fc 22 91 3b 19 df ae 3a
       0.023324883 -0.0012433627 0.0044292193 0.0013341635
0000c0 c3 88 1e bb 28 70 9e 3b 60 c7 a5 3b 43 a4 96 3c
       -0.0024190403 0.0048351474 0.0050591677 0.018388873
0000d0 11 01 88 3c c9 53 98 b9 a1 db cd 3a 8a cf 42 bc
       0.016602071 -0.00029054124 0.0015705713 -0.0118903015
0000e0 52 f8 9c 3c 9a 6c 0f bb e1 2a c8 3b 57 9f a2 3a
       0.019161377 -0.00218848 0.006108627 0.0012407106
0000f0 fd a0 01 3c c6 2c 2a 3c 2c f2 20 3c 0d 8a 88 bb
       0.007911918 0.010386651 0.009823363 -0.0041668476

bn3.running_mean f4 [64]
000000 f3 cb 17 3f df a6 0b 3f f6 59 07 3f 2f 84 14 3e
       0.59295577 0.545515 0.52871644 0.14503549
000010 fe 79 1a 3e 04 b0 a5 3e 04 00 00 00 02 57 9f 3e
       0.15085599 0.32360852 6e-45 0.3112107
000020 4e 44 d0 3e 03 32 b4 3e 94 6e ca 3d 61 63 74 3e
       0.40677112 0.35194406 0.09884372 0.23866035
000030 ed 0d 88 3e e7 84 c2 3e f2 3d be 3e 64 6a 73 3f
       0.26573125 0.3799202 0.37156636 0.95084214
000040 88 25 1a 3e 59 65 4d 3e 04 ad 99 3d af cc fe 3e
       0.1505338 0.20058192 0.07503703 0.49765536
000050 be 74 58 3e f7 92 84 3e 29 9d 8e 3d e5 b4 81 3e
       0.21138284 0.25893375 0.0696357 0.25333324
000060 dd e7 8a 3e 17 60 20 3f df 08 b4 3e 5e e2 82 3e
       0.27130023 0.6264662 0.35163018 0.2556333
000070 e6 b2 df 3e 42 3f dc 3e dd 8c 9c 3e f6 68 b3 3d
       0.43691176 0.43017012 0.3057622 0.08760254
000080 ce 94 e5 3d 0c b4 46 3f 74 2d 24 3e 2b f6 03 3e
       0.11210023 0.7761848 0.16032964 0.12886874
000090 28 ac 92 3e cf f5 f6 3e ea 1a 29 3f 9b d6 07 3f
       0.2864697 0.48234412 0.6605669 0.53061837
0000a0 d3 da 80 3e 30 e9 e4 3e 8d 7b 59 3f 3b 3c 99 3e
       0.2516695 0.44709158 0.8495415 0.29928765
0000b0 8b 7a 9c 3e f2 c6 ad 3e d9 5a 89 3e a1 fc 14 3f
       0.30562243 0.33940846 0.26827124 0.5819798
0000c0 e7 da 75 3f 5e f4 2a 3e b3 b9 85 3e c6 90 48 3e
       0.96037143 0.16694781 0.2611824 0.19586477
0000d0 bb da 71 3e 82 d2 38 3f a5 e7 0d 3f 61 fd b1 3e
       0.23618595 0.7219621 0.55431587 0.34763625
0000e0 12 01 a6 3e f5 0b 60 3e 62 4f c7 3e 28 5c 03 3e
       0.32422692 0.21879561 0.38927752 0.12828124
0000f0 3b c0 86 3e 13 41 ed 3d e8 cf ee 3d 2b 4b ef 3e
       0.26318535 0.115846775 0.11660749 0.46737036

bn3.running_var f4 [64]
000000 1e 3f a0 3e d4 15 b1 3e 08 b2 ce 3e df 16 0a 3e
       0.31298155 0.34586966 0.40370202 0.13485287
000010 18 9d d6 3d 66 7a 5f 3e 04 00 00 00 a4 ef 38 3e
       0.10479182 0.21824035 6e-45 0.18060166
000020 cc 10 9d 3e 5a 74 82 3e 1a 14 7c 3d 83 34 3d 3e
       0.30676877 0.25479394 0.061542608 0.18477063
000030 c6 c6 5e 3e 08 02 85 3e c6 b5 a0 3e 72 61 0b 3f
       0.21755514 0.25978112 0.31388682 0.54445565
000040 df 94 d8 3d 06 60 5c 3e a0 f9 37 3d 4b e8 a6 3e
       0.1057527 0.21521005 0.044915795 0.325991
000050 c9 ef 22 3e e7 89 3a 3e 00 a3 55 3d 35 e0 3d 3e
       0.15911783 0.18216668 0.052157402 0.1854256
000060 2d 89 2a 3e 6c fa ee 3e c8 67 7e 3e f2 69 31 3e
       0.16653891 0.46675432 0.24844277 0.17325571
000070 1d f7 99 3e 7a 77 b2 3e 0d c2 3b 3e da aa 84 3d
       0.30071345 0.34856778 0.18335743 0.064779
000080 46 e9 d4 3d e3 50 21 3f 83 a1 32 3e fd e6 9e 3d
       0.10396056 0.6301405 0.17444424 0.07758901
000090 41 f6 58 3e ee 5b df 3e 05 44 bc 3e 0b 05 f7 3e
       0.21187688 0.43624824 0.36770645 0.48246035
0000a0 b9 fa 43 3e a0 b5 b0 3e 82 1d f6 3e 03 fe 7c 3e
       0.19138612 0.3451357 0.48069388 0.24706273
0000b0 54 64 86 3e 82 9c 68 3e 31 b7 4f 3e 57 99 d9 3e
       0.2624842 0.22715953 0.20284726 0.42499802
0000c0 74 51 f6 3e 79 9e 09 3e 90 eb 3b 3e a1 f5 2d 3e
       0.4810902 0.13439359 0.18351579 0.16988231
0000d0 40 5f 11 3e 86 1d d5 3e d6 09 09 3f ff b9 5f 3e
       0.14196491 0.41624087 0.53530633 0.21848296
0000e0 3c e9 89 3e e0 9a e9 3d 2c 35 60 3e b7 33 c8 3d
       0.26935756 0.11406493 0.21895283 0.09775489
0000f0 99 a9 4e 3e 05 0b bc 3d e9 a7 aa 3d 21 ce 7d 3e
       0.20181884 0.09181789 0.083328076 0.24785663

fc1.weight f4 [256, 64]
000000 aa 99 89 3c 8b c7 91 3d b7 f6 cf bd 66 79 65 bd
       0.016796906 0.07118138 -0.10154479 -0.056023978
000010 fe 18 01 be ff 3c 27 bd 32 25 d8 bd 98 63 ad bd
       -0.1260719 -0.040829655 -0.105539694 -0.084662616
000020 d2 1d 8f 3b 68 c3 23 bc 80 44 c0 bd 6f 07 8d bd
       0.0043675685 -0.009995319 -0.09388065 -0.068861835
000030 f9 14 9d bc db 57 55 3d 73 9b 06 be 67 af ae 3c
       -0.01917504 0.05208574 -0.13145237 0.021323873
000040 4d 88 25 bd df 37 a0 3d b8 23 db bd 44 ce 9f 3d
       -0.04041319 0.078231566 -0.10700172 0.07803014
000050 f0 9a c5 bb 8f 4c 54 bd 32 38 da bd ed 5b 6e 3d
       -0.006030433 -0.051830824 -0.1065525 0.058193136
000060 a2 2f 86 bd de d2 b8 bc 07 8d 3f bc 11 44 4b bd
       -0.06552054 -0.022561487 -0.011691338 -0.04962546
000070 d2 b2 26 bd ac 2a c9 bd cf 69 e5 bc 45 76 b4 bd
       -0.04069788 -0.09822592 -0.028004555 -0.088116206
000080 7c ed 82 bc d3 45 36 bd bc 3c 00 3e 1e 13 66 bc
       -0.015982382 -0.044500183 0.12523168 -0.014042644
000090 63 9e a1 3d e4 96 b3 bd 85 7a bd bd db 13 18 3d
       0.07891538 -0.087690145 -0.09251884 0.03712831
0000a0 26 52 58 bd 3c ea a7 3d 9b a1 a9 bd 00 9d c1 bd
       -0.052812718 0.081989735 -0.08282777 -0.094537735
0000b0 29 29 66 bd 19 c3 b1 bd a2 51 21 3d 61 4f 83 bc
       -0.056191597 -0.0867979 0.03938449 -0.016029062
0000c0 d8 c2 9e 3c 5f b7 04 be da 65 e3 bd 68 04 b0 3d
       0.019380018 -0.12960576 -0.11103411 0.085945904
0000d0 c8 1a 73 3d c8 82 0f bd 7e 5e 82 bd f3 bb 3f bd
       0.059351712 -0.035036832 -0.06365679 -0.0468101
0000e0 6e 55 9c bd a4 b8 4d bd d6 c7 28 bc ae 56 6c bd
       -0.07633482 -0.050224915 -0.010301551 -0.05769985
0000f0 2f 52 1d bd 0e 4e 16 3d 51 e3 a2 3d fc 2e a2 bc
       -0.038408455 0.036695533 0.079535134 -0.019797795
000100 39 78 ad 3b 8a 02 45 b9 9a 38 6f 3c db 20 93 3d
       0.0052938727 -0.0001878833 0.014600897 0.07184001
000110 ff 6c 69 3c 3d 03 96 3d 89 82 70 3c 3b d7 7f bd
       0.014247178 0.073248364 0.0146795595 -0.06246112
000120 0d 76 7e 3d 96 08 b2 3d ed 11 b6 bc 4f dc 2b 3d
       0.0621243 0.08693044 -0.022225345 0.04195815
000130 fc 26 02 bc 52 08 80 3d 63 c1 c6 bb 93 75 a4 bd
       -0.007943865 0.06251587 -0.006065534 -0.08030238
000140 e1 02 01 be 39 cb f9 bd 58 96 87 3d 1f d8 e8 3c
       -0.12598754 -0.12196965 0.06620473 0.028423367
000150 57 6a 77 bd 2f 3a 19 3c 84 67 a1 bd 8c 9f f9 3d
       -0.060404148 0.009352251 -0.07881072 0.12188634
000160 7c 3c 7c bb 3c 99 fd bc 63 9c cf 3d 4d 49 2f bd
       -0.00384882 -0.030956857 0.1013725 -0.042794514
000170 21 c2 81 bd 32 c6 b6 3d 61 38 35 3d f5 26 8d bd
       -0.06335855 0.089245215 0.04424322 -0.06892196
000180 34 3d 25 bd 3f 13 82 3c 39 60 a6 3d 1d d3 86 bd
       -0.04034157 0.015878318 0.08123822 -0.065832354
000190 f3 b9 81 bd d3 cb ab 3d 30 bd d2 3d c8 91 d6 bd
       -0.06334295 0.08388486 0.10289991 -0.10477024
0001a0 9a 0e 00 bc ef 79 d7 3c ab 25 d1 bd f7 90 37 bd
       -0.007815981 0.02630326 -0.10212263 -0.044815984
0001b0 ac b3 c7 bd f5 37 eb 3d 6f 1b 9a 3d 5d e8 6d 3c
       -0.097510666 0.11485282 0.07524764 0.014520732
0001c0 a0 af 3e bd 14 94 c6 bd 5f 20 40 3d 61 43 c5 bd
       -0.046554208 -0.096962124 0.04690587 -0.09631992
0001d0 37 70 9b bd 0d fb c4 3d dc e3 d3 bd cc f4 a1 bd
       -0.07589763 0.09618197 -0.10346195 -0.079080194
0001e0 c1 9f 03 bd a3 f6 d5 bd 06 7a a5 3d 8d 0b ff 3b
       -0.032134775 -0.10447433 0.08079915 0.0077833594
0001f0 d0 54 86 ba e7 af 89 bd 5a 4c 9d bc 14 3d 43 bd
       -0.0010248665 -0.06723004 -0.019201446 -0.04766567
000200 5b 54 d1 bd 5f 78 ef 3d be dd 18 3d 5c f0 b2 bb
       -0.10221168 0.11692881 0.037320845 -0.005460782
000210 9f 61 a1 bc 04 f9 9b 3d 14 cb 86 3d 08 f3 fe bc
       -0.01969987 0.07615855 0.06581703 -0.031121746
000220 81 9a 75 3c 03 37 66 3d 42 49 0f bd 4c 71 9a 3c
       0.01499045 0.056204807 -0.034981973 0.018852852
000230 08 b3 b6 bd de 5e 73 3d 5d 6b b8 bd 07 0a 81 3d
       -0.08920866 0.059416644 -0.09004853 0.06300741
000240 ee 78 c9 bd b4 69 b6 bd 83 97 93 bd 4e eb a4 3d
       -0.09837519 -0.0890688 -0.07206633 0.08052693
000250 7e f7 42 3d 15 c4 e7 bc a2 fd ad bd ca 16 ce 3d
       0.04759931 -0.028291741 -0.08495642 0.100629404
000260 85 e1 32 3d 94 9a ba bd dc a0 ad 3d 2f 5e a9 bc
       0.043672103 -0.09111515 0.08477947 -0.020674793
000270 93 b3 98 3d 52 c2 db 3c 23 10 9a bd d3 8d 90 bc
       0.07456126 0.026826058 -0.07522609 -0.017645752
000280 4f 57 af 3d ee d8 f9 bc ea 4e a0 bc 30 78 f8 3c
       0.08561575 -0.030498948 -0.01956888 0.030330747
000290 d3 3d a1 3d 29 d6 c7 3d 27 af 92 bd 9d 95 8e 3d
       0.0787312 0.09757645 -0.07162314 0.0696213
0002a0 93 f3 ee bd 5d 95 56 bd ae a5 f7 bc 23 5a 6e bd
       -0.11667552 -0.052388538 -0.03023037 -0.05819143
0002b0 30 2c e3 3d 08 4f 09 3e 47 a9 01 3d a7 65 b8 bd
       0.110924125 0.13409054 0.031655576 -0.09003764
0002c0 89 b9 b5 bd 81 fb bb 3c 95 75 27 bc bb 79 a7 bc
       -0.08873279 0.022947075 -0.010220905 -0.020443788
0002d0 c0 f4 97 bc 9f d5 a3 3d 4d a3 6e 3c 03 1c dd 3b
       -0.018549323 0.07999729 0.014565301 0.006747724
0002e0 11 49 80 3d 56 85 82 3d c1 f4 08 3e 5a 22 3e 3d
       0.06263936 0.06373088 0.13374616 0.04641948
0002f0 a4 dd ae 3d e2 d8 ca bd f4 27 9c 3c 39 17 de 3c
       0.08538368 -0.09904648 0.01906202 0.027110683
000300 1d 7f 16 3c 1b 0d 4d 3d 22 85 1e 3c 3c 61 fe bd
       0.00918558 0.050061326 0.009675296 -0.1242089
000310 3a 9c 3a bd d5 2f 04 3e 40 cc c5 3d 94 00 ca bd
       -0.045559146 0.12908871 0.09658098 -0.098633915
000320 80 da d7 bd 3c ef 68 3d 1a ae 7e bc 94 6c c1 bd
       -0.105397224 0.056868777 -0.015544439 -0.09444538
000330 12 0a e9 3d 60 ae 6a bd a2 08 fc bb 0d 1e 8e 3d
       0.11378874 -0.057295203 -0.007691459 0.069393255
000340 f6 7a 9f bd 5a 31 4f bd 1e 2b d8 3d 40 d9 bf b8
       -0.07787125 -0.050584175 0.10555099 -9.148056e-05
000350 9d 1d 82 3d 2d ee ae bd bc c6 ef 3d b2 f6 77 bd
       0.063533045 -0.08541522 0.117078274 -0.060538
000360 c7 48 f3 bd 2c 2e a3 bd 67 a1 bd 3d 7f 57 02 bd
       -0.118791156 -0.07967791 0.09259301 -0.031821724
000370 c4 b3 91 bd 88 a9 03 bb 88 08 8c 3d e1 7a 85 3c
       -0.07114366 -0.0020090062 0.06837565 0.016293945
000380 19 33 01 3e 0e bf 65 bc ac 10 c4 3d 02 27 9d 3d
       0.12617148 -0.014022602 0.095734924 0.07673456
000390 07 48 05 bc da 32 91 bd 5d 56 a0 bc e0 c3 5a bd
       -0.008134848 -0.07089777 -0.019572431 -0.053409457
0003a0 b1 6e 2c bd ef 0c 58 3d a4 4b 68 3d 53 0e 30 3c
       -0.04209775 0.05274671 0.05671276 0.010745603
0003b0 f1 54 00 be ec 97 40 bd bf df e3 bb 8a f8 8a bd
       -0.12532403 -0.047019884 -0.006954163 -0.06785686
0003c0 52 f9 aa 3d 1e cb a6 3d 3a 32 dd bd a4 93 33 3d
       0.08348335 0.0814421 -0.108005956 0.043841973
0003d0 51 29 a7 bd a3 20 14 3c cc 42 26 bd 6b 6f 49 3d
       -0.08162177 0.009040984 -0.040591046 0.049178522
0003e0 df 56 eb bb df 57 3e 3d 0e 32 b2 3d 66 61 08 bd
       -0.0071819867 0.04647052 0.087009534 -0.03329601
0003f0 22 25 25 3d 35 21 d6 3d 8e 11 25 bb fa f4 08 bd
       0.040318616 0.104555525 -0.0025187465 -0.033436753

fc1.bias f4 [256]
000000 3c 12 db 3d 86 45 1a 3d d8 74 fb 3d b9 55 48 3d
       0.10696837 0.03766396 0.122781456 0.048909876
000010 71 ce f5 bd dc 32 bc bd 1a 9b c7 bd e4 ba 6d bc
       -0.12002266 -0.09189388 -0.0974638 -0.01450989
000020 5a 9f ac 3d e4 6e bc bd c9 aa 07 bd ae a8 ea 3d
       0.084288314 -0.09200838 -0.033121858 0.11457954
000030 ac 1b 8d 3d a4 7d d8 bc 83 66 84 bd ab 01 24 bd
       0.068900436 -0.026427098 -0.06464865 -0.040040653
000040 7a 6e 30 3c 7b 0b 93 bd c2 48 53 bd eb 06 66 3d
       0.010768527 -0.07179924 -0.05158306 0.05615894
000050 7f 3f ef 39 23 2c 8f bd a9 34 b8 3c 08 84 61 bd
       0.0004563294 -0.0699084 0.022486048 -0.055057555
000060 00 27 20 bd 78 c5 2e 3d 9d 2e 17 3d 88 ae 26 bd
       -0.039099693 0.04266879 0.03690969 -0.04069379
000070 60 90 f9 3c 0c e0 cd bd 3f 02 44 3d 10 42 81 bd
       0.030464351 -0.10052499 0.047853705 -0.063114285
000080 f2 3f e5 bd 37 91 79 3d 23 f6 6c bc 05 24 37 3d
       -0.11193837 0.060929503 -0.01446298 0.044712085
000090 09 33 c2 bb 0d 26 65 bc a1 2f d0 3d 8b 58 0b bd
       -0.005926494 -0.013986123 0.101653345 -0.034019988
0000a0 e0 a3 4e 3c 73 34 cf 3d f3 2e f9 3d 68 0b 30 3d
       0.012612313 0.10117426 0.12167158 0.042979628
0000b0 94 c1 6b bd ea b9 57 3c ba d5 f0 3d 9b a3 cc bd
       -0.057557657 0.013166884 0.11759515 -0.09992143
0000c0 ed 32 92 3d 0f b4 04 3e 2c 2b 94 3d b1 9e d0 3d
       0.071386196 0.12959312 0.07234797 0.10186518
0000d0 31 c7 da bc 97 51 df 3c 3f 42 a1 3d c8 b5 9c 3d
       -0.02670631 0.027260585 0.078739636 0.076518595
0000e0 62 c3 f3 3c 3c 1d 4f bd e6 22 b6 3c e0 e9 ab 3d
       0.029756252 -0.05056499 0.022233438 0.083942175
0000f0 1c d5 fe 3d 17 b3 f5 bb 18 ac c5 bd f1 cb 32 bd
       0.12442991 -0.007498156 -0.09651965 -0.043651525
000100 07 07 49 3d 0f 13 98 bd f6 bf af 3d 40 6e b0 bc
       0.049078967 -0.0742551 0.085815355 -0.021536946
000110 d7 09 99 3d fa f6 e9 bd 3c 14 a6 bd d9 32 a2 3d
       0.0747258 -0.1142406 -0.08109328 0.07919855
000120 26 bd 81 3d a4 1a 96 3d c0 38 df 3c c6 2e 0a 3e
       0.06334905 0.073293 0.02724874 0.13494405
000130 08 df 01 bc dd e2 ce bd 8c 0f 87 3d 52 9a f6 3c
       -0.00792671 -0.101018645 0.06594762 0.030102883
000140 64 91 e1 bd 2c da 09 3d f3 64 cb bd be 0b de 3c
       -0.11014059 0.03365533 -0.09931364 0.027105208
000150 b0 01 ec 3d ba dd 3c 3d a8 f5 51 3d 1e 4b 91 3d
       0.11523759 0.046109892 0.051259667 0.070944056
000160 81 75 86 bd 04 de 77 bd 71 20 a1 3d a5 f4 98 bc
       -0.06565381 -0.060514465 0.07867516 -0.018671343
000170 b0 14 c6 bc 1d 74 97 3c eb 3d 9c bd b2 9e f3 3d
       -0.024179786 0.018487984 -0.076289974 0.11895503
000180 a2 79 5f 3d ce a8 88 3d fc 5c 2a 3c d6 bc 97 3d
       0.054559357 0.06672822 0.010398146 0.074090645
000190 2b b9 54 bd 82 c5 e9 bd 3c a8 1d 3d ab 92 d9 3d
       -0.051934402 -0.11414625 0.03849052 0.10623678
0001a0 fc 2b 22 3d 54 5c a0 3d a2 fc 01 3d e8 57 a7 3d
       0.039592728 0.0783011 0.03173507 0.08171064
0001b0 25 18 03 3e 93 55 82 3c 3f ac bf bd 88 a0 35 bd
       0.12802179 0.015909946 -0.09359025 -0.044342548
0001c0 e8 62 bf bd 84 69 a1 bd b4 fd 0b 3d 75 10 b6 3c
       -0.09345037 -0.07881454 0.034177497 0.022224644
0001d0 62 b4 9d bd 98 4a 84 bd 34 d6 85 bd a4 a1 a8 bd
       -0.07700421 -0.0645954 -0.06534997 -0.082339555
0001e0 5f fe 81 bd a5 0c 87 bd 45 67 af bd 8f 60 ce 3d
       -0.063473456 -0.06594209 -0.08564619 0.10077011
0001f0 6f 24 08 bd 44 1b 71 3d cf cb 8a bc 59 6a e1 3d
       -0.03323787 0.058863893 -0.016942887 0.11006612
000200 bc d7 7b bd 29 de b5 bd f5 52 e3 3d 04 86 6f bc
       -0.061485037 -0.08880264 0.11099807 -0.014619354
000210 05 27 00 bd 01 e2 62 3d db 03 7d bd 94 fa 57 bc
       -0.031287212 0.055391315 -0.061771255 -0.013182301
000220 51 45 37 bd cb 74 bf 3d c2 58 d4 bd b9 a2 cb 3d
       -0.04474384 0.09348448 -0.10368492 0.09943146
000230 84 0f bb bd 5a 83 cf bd 66 f5 a4 3d 43 c2 53 3d
       -0.09133819 -0.10132475 0.080546185 0.051698934
000240 b0 02 9d 3c 14 87 a1 3d 15 28 e6 bd 97 0c 40 bd
       0.01916632 0.07887092 -0.11238114 -0.046887007
000250 da 0e 78 3d f8 93 ee 3d 8a af fe bd c6 1a ba 3c
       0.06056104 0.116493165 -0.12435825 0.022717845
000260 e8 d4 05 3e 0d d2 e1 3c bf bb e2 bd e5 6d 26 bd
       0.13069499 0.02756598 -0.11070966 -0.040632147
000270 d6 f6 bb bd a2 a0 08 bd 9c e6 20 3d 1e 7b 71 3d
       -0.091779396 -0.033356316 0.039282426 0.058955304
000280 3c 27 ad bd 8a d1 7c 3d 98 94 ca 3d 3f 39 7d 3d
       -0.08454749 0.06172327 0.09891623 0.061822172
000290 a8 64 f7 3d 47 35 25 3d 26 d7 c6 bc ea 6d 25 3d
       0.120797455 0.040334012 -0.024272513 0.040388025
0002a0 0d 14 d6 bc 2b 52 1e bb 0a 1f 20 3d 84 b1 ca 3d
       -0.026132608 -0.0024157863 0.0390921 0.0989714
0002b0 9b 3d 5d bd ae 17 19 bc ec 26 bd 3c ec bb bb 3c
       -0.05401383 -0.009344025 0.023089848 0.022916757
0002c0 e0 e4 35 ba 3e 42 a6 3c a1 89 9b 3b a8 83 ce b8
       -0.0006938707 0.020295259 0.0047466313 -9.847368e-05
0002d0 6f 53 e9 3b 77 83 3d 3d f3 2a 3a 3d 1b 49 9b 3b
       0.0071205418 0.046267953 0.045451116 0.0047389395
0002e0 43 40 32 bd 37 b9 a2 bd 1f 09 9b 3d 47 9d 9d bd
       -0.043518316 -0.07945483 0.07570099 -0.07696014
0002f0 5d b8 cc 3c 6c b3 2d 3d 7b c2 72 bd ea 7c 8d bd
       0.024990255 0.04240744 -0.059267502 -0.06908591
000300 b9 ce d8 3d d8 54 59 bb 16 e6 1b bd 1e 8a 4c 3d
       0.10586304 -0.0033162143 -0.038061224 0.049936406
000310 13 c9 ce bd 8c 42 98 bd 04 de 9b bd 16 cd 93 3d
       -0.100969456 -0.07434568 -0.076107055 0.072168514
000320 a5 48 38 3d 6b ec f6 3c f9 8c 6b bd b9 c8 81 bd
       0.044991154 0.03014203 -0.05750749 -0.06337113
000330 00 32 a4 3d cb f5 80 bd 19 30 89 bd 5e 39 bf 3c
       0.08017349 -0.06296881 -0.06698627 0.023342784
000340 a2 62 a6 bd ec 9a 75 bc 66 aa f6 bc 3f 79 18 bd
       -0.081242815 -0.01499055 -0.03011055 -0.037225004
000350 cf 80 17 3b 42 d4 1a bd 03 2d e8 bd 30 81 dc bd
       0.0023117547 -0.03780008 -0.1133671 -0.10766828
000360 1f c8 bd bd f9 b2 86 bd f0 cd 9f bd 52 19 8b 3d
       -0.09266686 -0.06577105 -0.07802951 0.06791939
000370 e9 3d 29 3b 0b ae ae 3d 4d 5f e2 bb 78 a3 88 bd
       0.0025824255 0.0852929 -0.0069083334 -0.06671804
000380 58 a4 3e 3d f0 9c 6c 3d 4d dc 87 bd 3a 5e 97 bc
       0.04654345 0.057766855 -0.06633816 -0.018477548
000390 b7 bf a8 3c 7d b3 11 bd e1 ca f2 3d 29 87 e7 bc
       0.02059923 -0.035571564 0.11855102 -0.028262692
0003a0 a8 b5 9f 3d 08 ea 5c 3d 61 28 86 3d 0a 02 18 bd
       0.0779832 0.053934127 0.065506704 -0.03711132
0003b0 7c 8e 3f 3c 23 c6 d3 bd 9a 54 ff 3c 0f a3 06 bd
       0.011691686 -0.10340526 0.03116827 -0.03287035
0003c0 83 2e 77 bd 7a dd c0 bd 93 f2 55 bd 5a a3 83 3d
       -0.06034709 -0.09417243 -0.05223329 0.06427641
0003d0 ed d7 b6 bd a5 d1 e5 3b 6a 6e b5 bc c0 e6 af bb
       -0.08927903 0.007013517 -0.022147376 -0.0053680837
0003e0 1f d0 df 3d 4d 7b 48 bd e0 24 75 bc 33 8f f8 bc
       0.10928368 -0.048945714 -0.014962405 -0.03034172
0003f0 0a b4 89 bd d0 3c d2 bd 83 9e 9b bd ef d4 8e bd
       -0.06723793 -0.10265505 -0.07598593 -0.069742076
