mini_batch_exp/models/mnist_adam_batch64_lr0.1.pt (torch_old, 968530 bytes, 62 tensors)

conv1.weight f4 [16, 1, 3, 3]
00000000: db00 8ec1 ca83 01c1 c2e2 a5c0 ff70 90be
00000010: 0169 69c0 3369 03c1 4a4a 1cc1 0a12 5dc1
00000020: bd99 2bc1 d77f d841 d529 f7c1 580f 65c2
00000030: d1b7 8741 75c9 2ac2 d281 1fbf 2387 87c1
00000040: cb4b 10c2 94d2 42c1 d76d 16c2 dc99 c241
00000050: 1514 a3c1 a644 e2c0 77b2 edc0 c4e2 f2c0
00000060: ad50 7bc2 fbc9 20c2 998d 9fc1 bfda f4c1
00000070: cb50 08c1 81a9 6f41 68ef 2841 de08 4742
00000080: bc50 6841 86e8 9640 4c72 9dc1 f30b 62c2
00000090: 3372 5841 69aa 9e41 67ae e041 61ee 24c1
000000a0: 24a4 aa41 d7b5 5dc0 be88 5dc2 9950 31c2
000000b0: f0dd 1ac2 3e57 723f 846f 85c1 ca8c 38c1
000000c0: 0fd0 9c41 3eee 8340 1548 83c2 9dfb c540
000000d0: 066b 3642 ff25 bfbe 3b7a 7bc1 26b5 8240
000000e0: 4ff7 1cc2 6f01 c640 5e79 6b42 12d5 0d40
000000f0: e4cf 09c2 177a b3bf c741 24c0 26d7 bcc1
00000100: cc22 fdc0 c89f dd41 e24d b3c2 8bbc 85c1
00000110: c278 3b41 7577 b541 4f9a 7bc2 45f2 b5c1
00000120: 1d0e 34c1 2ead ce41 60ee 2642 808e 8741
00000130: 3a03 4641 97be 8ec1 ee5b bbbf cd53 3ec2
00000140: 57cf c9c1 5a27 d8bf a9a5 dabf 57c2 dfbf
00000150: 8c5b edbf 6c07 7dc0 c8ef 17c0 1df4 15c0
00000160: 9160 c6bf 137e 0cbf 155a d240 52f8 e241
00000170: 80dd 1bc2 f7dd 1740 350e cfc0 9121 44c2
00000180: 2e37 17c2 76ae 00c2 33fd 9141 e46f ef40
00000190: 7fbb a442 9d92 82c1 776e d5c1 daee 1a42
000001a0: c2a8 bfc1 4f39 cac1 0ddf 8d41 2550 4241
000001b0: 2f57 a941 45e4 da41 fda2 b940 ecf8 1442
000001c0: ac66 01c1 6d55 46c2 221c 2841 e7a7 eac1
000001d0: f4a2 e640 bc98 bdc1 4394 11c2 b847 1541
000001e0: 325a 9dc2 7542 0a41 6e93 1342 ae0f 0ac2
000001f0: 7f3c c9c0 dcae 7f41 b4cd 6ac2 9822 b8c1
00000200: af6d 30c1 fb25 00c1 61aa a141 0b7f ab40
00000210: 6450 4342 551c 8b41 2793 5dc1 182f 7040
00000220: 2ef8 8a3f 35ab 94c1 0294 3842 6790 02c1
00000230: b304 aec2 d674 2441 19d0 25c1 412f 07c2
-17.750418 -8.094675 -5.1839304 -0.2821121 -3.647034 -8.213183 -9.768137 -13.816904
-10.725034 27.062422 -30.895426 -57.264984 16.964754 -42.696735 -0.62307465 -16.940985
-36.074017 -12.176411 -37.607265 24.325127 -20.384806 -7.07088 -7.4280353 -7.5901814
-62.828785 -40.197247 -19.94414 -30.60681 -8.519725 14.978883 10.558449 49.75866
14.519711 4.715884 -19.680809 -56.51167 13.527881 19.833208 28.085157 -10.308198
21.330147 -3.4642236 -55.383537 -44.32871 -38.716736 0.9466437 -16.679451 -11.534372
19.601591 4.1228323 -65.640785 6.1869645 45.604515 -0.37333676 -15.717341 4.084613
-39.241512 6.187675 58.868523 2.2161298 -34.45302 -1.4021634 -2.5665147 -23.605053
-7.9104977 27.703018 -89.652115 -16.717062 11.716982 22.683329 -62.900692 -22.743296
-11.253446 25.83456 41.732788 16.94458 12.375788 -17.843061 -1.463743 -47.581837
-25.22624 -1.6887009 -1.7081805 -1.7481183 -1.8543563 -3.953578 -2.37401 -2.3430245
-1.549822 -0.54879874 6.5734963 28.37125 -38.96631 2.3729227 -6.4704843 -49.03278
-37.803886 -32.170372 18.248632 7.4824085 82.3662 -16.321589 -26.678938 38.733253
-23.957401 -25.277983 17.733912 12.144567 21.16757 27.36146 5.801146 37.243088
-8.087566 -49.583424 10.506868 -29.331984 7.2073917 -23.699577 -36.394787 9.330009
-78.67616 8.641225 36.893974 -34.515312 -6.288635 15.98019 -58.700882 -23.016891
-11.026778 -8.009273 20.208193 5.359258 48.828506 17.388834 -13.848426 3.7528744
1.0856988 -18.583597 46.14454 -8.1602545 -87.00918 10.278524 -10.363305 -33.796146

conv1.bias f4 [16]
00000000: df21 5cc1 2fc1 5042 c251 1142 8d1e 91c2
00000010: 1c4f 1342 e2ca bdc1 035c 1dc1 85d5 4442
00000020: 9c2e 8ac2 cbf5 87c0 7271 3c41 7499 1541
00000030: b879 9ac2 7f9d 1b42 7752 3e42 eb12 4bc2
-13.758269 52.188656 36.32984 -72.55967 36.827255 -23.724064 -9.834964 49.208515
-69.091034 -4.248754 11.777697 9.349964 -77.23773 38.903805 47.580532 -50.768475

bn1.weight f4 [16]
00000000: 143f 1f3e 7337 2842 b756 41c1 6ac6 f041
00000010: fadf 8642 71e3 2f42 c28e 4441 e5ac 4242
00000020: 0aa4 c53d 1be1 413f 7969 e2c1 76be cd41
00000030: e841 a841 c1fb 4042 b088 1c42 3dfc 3d40
0.15551406 42.05415 -12.083671 30.096882 67.437454 43.97211 12.284853 48.668842
0.096504286 0.7573411 -28.3015 25.717999 21.03218 48.245853 39.133484 2.9685204

bn1.bias f4 [16]
00000000: 6e8f 36c0 3992 b741 3740 1e3e 08c4 1141
00000010: 168f 1b42 72c2 4bc1 2431 e3c0 2b78 cd41
00000020: 0e9a aebf 09f1 30be ae03 26c1 4c59 edc1
00000030: 6f91 2841 c12e b641 fe71 08c1 5169 c2be
-2.8525043 22.946398 0.15454184 9.110359 38.889732 -12.734972 -7.0997486 25.683676
-1.3640764 -0.17279448 -10.375898 -29.668602 10.535506 22.77283 -8.52783 -0.37970975

bn1.running_mean f4 [16]
00000000: 0400 0000 20c8 f243 0290 e841 660c b144
00000010: 05b7 b544 c941 b644 aa76 1a44 3a22 ab43
00000020: 75b3 0a45 0400 0000 596c ce43 8cb1 9045
00000030: 7f17 4d45 f6e7 a244 1588 0145 0572 a544
6e-45 485.56348 29.070316 1416.3875 1453.7194 1458.0558 617.8541 342.2674
2219.216 6e-45 412.84647 4630.1934 3281.4685 1303.2488 2072.5051 1323.5631

bn1.running_var f4 [16]
00000000: 0400 0000 5ab9 084a 6e8e e345 a8a0 304b
00000010: 46f6 614b f6ea 4a4b 3b91 4a4a 5ca6 b549
00000020: 7011 b64b 0400 0000 45ab a449 2a41 664c
00000030: d466 144c 2be6 334b 412c a74b 2e66 3a4b
6e-45 2.2400865e+06 7281.8037 1.1575464e+07 1.4808646e+07 1.3298422e+07 3.3188628e+06 1.4880755e+06
2.3864032e+07 6e-45 1.3489686e+06 6.035985e+07 3.890261e+07 1.1789867e+07 2.1911682e+07 1.2215854e+07

conv2.weight f4 [32, 16, 4, 4]
00000000: 3a56 12c1 a057 0f40 5be9 e43f d68c 93be
00000010: cc05 cbc0 05a5 96c0 9e55 d73e 7b08 61c1
00000020: b625 02c1 16a3 39c1 5283 10c1 ef04 f4c0
00000030: 46db 16c1 bb0f a4c0 9924 44c1 cd48 333f
00000040: a889 1342 37e0 4ec2 cb36 8dc2 8e7d 0041
00000050: bb9d d540 e67a a1c1 a1d9 b141 fe05 4041
00000060: ef3d f33f 6720 07c1 1659 2142 32c8 13c2
00000070: 4665 67c2 145a 8a41 3c0a 4040 0ef7 a8c1
00000080: 0894 ebc1 214b 5040 8a06 d4c1 1933 0542
00000090: 5b8e 0dc1 2d7c 7041 858b 75c1 aa0c d7c0
000000a0: 49ad 5ac1 aa5b 8540 ffc5 2c40 ed33 6441
000000b0: 3df6 903f 80e5 7341 9b40 3942 b247 c2c1
000000c0: 9d9a 12c2 0053 bf41 6dd5 0dc0 1dec 4041
000000d0: 6004 3b41 898b 8241 d55b 3842 4e4c c2c1
000000e0: c865 9ec1 daff 18c2 1492 44c2 e8d2 53c2
000000f0: 750b 7941 e8c5 5142 e9b1 8041 8f75 b741
00000100: 2f9f 4ec1 850f adc2 6831 9fc2 0f3f 87c2
00000110: de43 1c3f 85cf 3741 c75d 9d41 3fab 6e41
00000120: 3a29 a43f f1ed 0dc2 f920 15c2 7719 0fc2
00000130: 99b9 39c0 76b1 3042 e91b 3042 5073 4542
00000140: fc59 10c0 db9b 1b41 10eb 0e42 bdbc aac1
00000150: e1a0 4d41 32b1 15c0 8656 22c1 76f5 30c1
00000160: 0adc 6dc1 6d7d 83c1 5a86 0541 e203 9cc1
00000170: cd05 ce41 1034 e6c0 3ca0 2ac1 f23a 98c1
00000180: 22f6 80c1 9674 0042 0b60 fd41 d985 d3c0
00000190: e537 0542 8476 19c2 ee1e 0641 7114 26c1
000001a0: d40c 0541 b053 7f40 1fd3 2cc2 616d 34c2
000001b0: 3ae1 8241 ef64 61c1 4718 0240 cf8f 2042
000001c0: 5563 4342 123e 13c2 e16f 44c1 e5a7 e641
000001d0: 0ece 5a41 c635 45c2 b54d a3c1 88f4 0cc2
000001e0: 944c 7540 b9a5 12c2 3378 9441 c296 79c2
000001f0: 35c1 1d41 51f0 4fc0 08e8 a940 82f3 83c1
00000200: 8fbb 43c2 c332 85c2 f03f 8dc2 6cd2 e1c1
00000210: ff12 d03e 3b10 6442 dbcd aa41 8cd2 6841
00000220: 48a3 6041 6afa 6641 cf49 9ec0 0282 afc1
00000230: b748 0041 9a82 f141 b0a7 0942 adcd f041
00000240: 287f bd41 aa52 cb41 1988 c741 ef4d c541
00000250: 1d23 ba41 feec d041 6508 c641 aa5b c341
00000260: 7624 c241 3559 c741 df3f bb41 24f8 c041
00000270: 01a9 ba41 1225 c041 2f01 b841 18dc b941
00000280: 3f3f e6c1 3952 2441 f633 8342 ca63 f941
00000290: 7b9e fec0 9234 04c2 9e96 c5c1 69ef 9441
000002a0: 9a6d e240 02b4 b4c1 c98f c0c1 fd59 3c42
000002b0: 503e 0742 1f54 09c0 397b ac3f cf35 53c1
000002c0: fe0a cec1 0403 2c3e 3ec7 d6c1 011e 2dc1
000002d0: 1c90 2f41 0bdb d4c0 10b5 8942 eaea 9d41
000002e0: b99e 2742 862b cc41 6e20 c141 12a3 ac40
000002f0: 4df2 2341 3665 2541 5660 61c1 7a11 9741
00000300: 4079 b7c0 dd70 0ec2 e0ab a5c1 edff 64c2
00000310: f0f3 5bc1 a90d 73c0 9eb6 9441 4524 67c0
00000320: 35ea f5c0 dd0d bfc0 9264 3541 4540 07c2
00000330: 3934 01c1 766f a741 bea9 0142 9ac9 81bd
00000340: 5103 a441 9a88 a0c0 8af2 b140 51bd 6a41
00000350: 5915 4040 5cf1 d2c1 4c2e 3642 7cd0 6ac2
00000360: 5254 d4c1 648c 03c2 8d2e fdbf 0dd0 13c2
00000370: 7a63 95c0 320a 1ec2 82db 23c2 d99b bf40
00000380: b52a 0f42 1d24 8941 4ffc 2e42 c4a6 6942
00000390: f9da bf41 5672 ea40 e5e5 2341 14c6 e6c0
000003a0: a454 81c2 930e 3bc2 94b9 b6c1 5344 57c2
000003b0: 6490 2fc2 b307 d9c1 4b8f 91c1 893d c3c1
000003c0: 6010 0942 7b8e 6ec2 1f4f 2441 2649 81c1
000003d0: 1e09 bec1 bec7 73c2 54ea d441 3792 05c2
000003e0: 546a 02c2 c749 a0c0 eb30 4ec1 15ce 3dc2
000003f0: 270e 77c2 d494 2541 5c84 b0c0 0a54 cb3f
-9.146051 2.2397232 1.7883714 -0.28818387 -6.3444576 -4.707644 0.42057508 -14.06457
-8.134207 -11.602316 -9.032061 -7.6256022 -9.428534 -5.12692 -12.258935 0.7003296
36.88443 -51.71896 -70.60702 8.030653 6.675504 -20.185009 22.231264 12.001463
1.9003276 -8.445411 40.336998 -36.945503 -57.8489 17.293983 3.0006247 -21.120632
-29.44728 3.2545855 -26.503193 33.2999 -8.847255 15.030316 -15.346562 -6.720296
-13.667306 4.1674395 2.6995847 14.262677 1.1325146 15.24353 46.31309 -24.285007
-36.65099 23.915527 -2.2161515 12.057645 11.688568 16.318132 46.08968 -24.287258
-19.799698 -38.249855 -49.142654 -52.955963 15.565297 52.443268 16.08687 22.932402
-12.913863 -86.53031 -79.5965 -67.62316 0.6104106 11.488164 19.67079 14.916808
1.2825081 -35.482365 -37.2822 -35.774868 -2.901953 44.1733 44.027256 49.36261
-2.2554922 9.725551 35.729553 -21.342157 12.851777 -2.3389401 -10.146124 -11.059927
-14.86622 -16.436243 8.345301 -19.501896 25.752832 -7.1938553 -10.66412 -19.028782
-16.120182 32.113853 31.671896 -6.610089 33.304585 -38.365738 8.382551 -10.379991
8.315632 3.9894829 -43.206173 -45.106815 16.359974 -14.087142 2.0327318 40.140438
48.847004 -36.810616 -12.277314 28.83198 13.675306 -49.302513 -20.412943 -35.2388
3.832799 -36.66184 18.558691 -62.397224 9.85967 -3.2490427 5.309574 -16.4939
-48.933163 -66.599144 -70.62488 -28.227745 0.40639493 57.01585 21.350515 14.551403
14.039864 14.436136 -4.94651 -21.93848 8.017753 30.18877 34.413757 30.100428
23.687088 25.415363 24.941454 24.663054 23.267145 26.115719 24.754099 24.419758
24.267803 24.918558 23.406187 24.121162 23.332521 24.0181 23.000578 23.232468
-28.780882 10.270074 65.60149 31.173725 -7.9568458 -33.05134 -24.698544 18.6169
7.075879 -22.587894 -24.070208 47.08788 33.810852 -2.1457593 1.3475105 -13.200637
-25.755367 0.16798025 -26.847286 -10.819825 10.972683 -6.6517386 68.85364 19.739704
41.905003 25.521252 24.140835 5.394906 10.246655 10.33721 -14.0860195 18.883533
-5.733551 -35.610218 -20.708923 -57.249928 -13.747055 -3.7977087 18.589169 -3.6115887
-7.6848397 -5.9704423 11.337053 -33.812763 -8.07525 20.929424 32.415764 -0.063372806
20.50162 -5.016675 5.560857 14.67122 3.001303 -26.367851 45.54521 -58.703598
-26.541172 -32.8871 -1.9779831 -36.953175 -4.668393 -39.509956 -40.964363 5.9877744
35.791706 17.142633 43.746395 58.412857 23.98192 7.326457 10.243627 -7.2116795
-64.66531 -46.764233 -22.840614 -53.816723 -43.891006 -27.12876 -18.194967 -24.405046
34.26599 -59.63914 10.269317 -16.160717 -23.754452 -60.94506 26.614418 -33.392788
-32.603836 -5.009006 -12.886943 -47.451252 -61.76382 10.348835 -5.516157 1.5885022

conv2.bias f4 [32]
00000000: fa44 41c1 1e76 2641 4120 73c2 f852 0ec2
00000010: 5091 fec1 d907 16c2 964b a3c0 129d 3ec2
00000020: fecb e1c1 86e0 5ac2 a225 32c2 f3e6 17c2
00000030: b5c5 efc1 61a6 18c2 9b2c 68c2 d5c5 d8c1
00000040: 02a0 46c2 db99 34c2 6189 4bc2 0788 41c1
00000050: 61e9 c3c1 3ac9 7dc2 dd5b 09c2 f744 c8c1
00000060: ad56 0cc2 1729 c4c1 c1a6 4fc1 7446 3ac2
00000070: 6786 c0c1 344c 26c1 8304 5ac1 fcac 22c0
-12.07934 10.403837 -60.781498 -35.581024 -31.820953 -37.507664 -5.102977 -47.65339
-28.224606 -54.71926 -44.53675 -37.975536 -29.971537 -38.16248 -58.04356 -27.096598
-49.656258 -45.15025 -50.88416 -12.09571 -24.488955 -63.44651 -34.33971 -25.033674
-35.084644 -24.520063 -12.978211 -46.5688 -24.065626 -10.393604 -13.6261015 -2.5418081

bn2.weight f4 [32]
00000000: 328d c541 5ab1 1a42 167c 6642 0b50 b841
00000010: 9a76 6542 0737 fa41 03fc ed41 d09a e841
00000020: aab7 b541 a247 0542 d038 3942 b10a 2442
00000030: a7b2 01c1 bcbc e441 c9fb 2e42 a00f 3c42
00000040: 5f99 08c0 8bf7 3042 893e 0842 5204 d541
00000050: 52bb 9941 54f4 d0c1 9f81 bf41 bbdb 4e42
00000060: cecd 0c40 2cc4 1b42 d178 0642 d0b1 90c1
00000070: a772 4b42 f285 6342 aae0 2142 1f6d c241
24.693943 38.673195 57.621178 23.039083 57.36582 31.276869 29.748053 29.075592
22.71468 33.319954 46.30548 41.01044 -8.106116 28.592155 43.745884 47.01526
-2.134361 44.24174 34.06107 26.62711 19.216465 -26.1193 23.938292 51.71458
2.2000613 38.941574 33.617985 -18.086823 50.861965 56.880806 40.4694 24.303282

bn2.bias f4 [32]
00000000: dd86 9540 1573 a940 0a4d 4141 bfc4 0a40
00000010: 5f3c 7340 d36d 3741 5398 753c d42e 9fc0
00000020: 8184 9340 6529 8240 8705 2b41 a440 ea40
00000030: 3ce0 67bf 9b4d e23f 285d 6541 05ae 8d41
00000040: f922 10c0 1020 0d41 3426 4540 65c4 f740
00000050: a328 a240 143b d5c0 9e1e d440 9636 6541
00000060: c14d 2740 1ded 5441 93ec 1341 f178 5bc0
00000070: 2290 6941 3f0b 6641 d2b3 a840 cfac f740
4.672713 5.295298 12.081308 2.1682584 3.8005598 11.464313 0.01498993 -4.9744663
4.609925 4.067553 10.688849 7.3203907 -0.9057653 1.7679933 14.335243 17.70997
-2.2521346 8.820328 3.0804567 7.742724 5.0674605 -6.6634617 6.6287374 14.325827
2.6141207 13.307889 9.245257 -3.4292567 14.597689 14.377746 5.2719507 7.739845

bn2.running_mean f4 [32]
00000000: 8eed bf45 96ce 2a47 a0c6 6745 5dbe 9945
00000010: 6813 2e46 bc4f 7445 9b24 ba45 2834 4846
00000020: 3584 cf44 de35 b043 ae88 1445 b1d1 3845
00000030: c4a5 6e43 0a24 7245 e1fa ee45 061d 0d46
00000040: 2c47 bc42 f169 4645 11e3 3b45 7457 1b45
00000050: 1714 5e45 05e0 e543 97d4 3f46 0f6f 8745
00000060: 3353 a445 a1ee 6845 048c d844 872e 4e45
00000070: fdf0 b845 f750 d545 edc8 0a46 42b3 1945
6141.6943 43726.586 3708.414 4919.7954 11140.852 3908.9834 5956.5757 12813.039
1660.1315 352.42084 2376.5425 2957.1057 238.64752 3874.2524 7647.36 9031.256
94.13901 3174.6213 3006.1917 2485.4658 3553.2556 459.75015 12277.147 4333.8823
5258.4 3726.9143 1732.3755 3298.908 5918.1235 6826.1206 8882.231 2459.2036

bn2.running_var f4 [32]
00000000: 54a3 ef4c dbf6 a94d f43e d44c bf08 e54c
00000010: 9c9e 9f4d d2e4 c04c 15e0 a04c 7aeb 4f4d
00000020: 20bf e34b 2421 b94a 8f30 834c e0f2 904c
00000030: 7646 644a 6e58 8f4c 6e9d 514d f1c9 ae4d
00000040: b3d8 9249 69cc ae4c 688e 7c4c e737 0d4c
00000050: b7f7 9a4c ec92 014b fd9b 484d 84ac b44c
00000060: 6aa5 a64c 249d ac4c 8de7 1f4c efea 6e4c
00000070: 0052 054d 5c9f 504d a19f 6f4d da61 1c4c
1.2563933e+08 3.5644093e+08 1.1127798e+08 1.20079864e+08 3.347465e+08 1.0113192e+08 8.4345e+07 2.1801974e+08
2.98512e+07 6.066322e+06 6.8781176e+07 7.599488e+07 3.7400615e+06 7.515429e+07 2.1979722e+08 3.6655875e+08
1.2029664e+06 9.1644744e+07 6.620611e+07 3.7019548e+07 8.124767e+07 8.491756e+06 2.1035413e+08 9.472515e+07
8.737058e+07 9.049936e+07 4.1918004e+07 6.2630844e+07 1.3979648e+08 2.1875654e+08 2.512635e+08 4.0994664e+07

conv3.weight f4 [64, 32, 5, 5]
00000000: 3384 c041 ce7b f540 1e83 edc0 75fb b4c1
00000010: d041 9040 061d 0fc1 1283 1bc2 ef35 2ac2
00000020: c1a3 1ac1 cf65 6141 80df 02c2 5808 4c42
00000030: 3344 1b42 9eae 0642 a4ca 9ac0 7acc c1c1
00000040: 9599 ffc0 47e0 4bc1 7e46 fdc1 3486 c9c1
00000050: b495 5042 4ab6 8141 941e 92c1 5cae 2741
00000060: 298f 1e42 d26b 6b42 891e e0c1 c361 29c1
00000070: 1f19 e5c0 dce1 5cc2 6af3 df41 ca18 fa41
00000080: a6db f741 d882 a7c1 97f6 adc1 250a 5a40
00000090: fcba 2bc1 597e 1cc2 587a b8c1 c5f6 a841
000000a0: a484 d6c1 8552 c2c0 c335 ddc1 5c6f 26c2
000000b0: 35df 3841 46e9 3cc2 0628 09c2 3833 9040
000000c0: 9851 b541 b5c3 9841 6867 07c1 7158 7d40
000000d0: 6fd6 18c2 1fd8 1ac1 eb08 dd41 6905 ad40
000000e0: 1de2 1642 b472 1a41 d5a3 bebf 94ff 1d41
000000f0: 280c f7bf 0b02 bb41 a475 9e41 6519 a841
00000100: 92e2 11c2 b318 9141 bd7a 1442 e0d8 5bc1
00000110: 0bbe c3c1 8b16 04c2 e630 a0c0 ce85 0542
00000120: aab9 9ec1 af88 48c1 ed52 fec1 64ed 5c41
00000130: f3a0 5142 4b9b 9841 e146 d4c1 e2d8 c940
00000140: 2483 da41 87aa a73e 16a5 3cc0 c820 2641
00000150: 16c3 00c2 5c76 5dc0 8be6 a0c1 c4ce f2c0
00000160: 399b f5c1 df3c d1c0 d50b 4e41 eeec 0241
00000170: abf2 3e41 18a2 5b41 2226 98c1 027a b241
00000180: 691e 76c1 75b7 18c2 3536 d6c0 af37 993f
00000190: 5131 3441 af8c 3ec2 722f 80c2 98fc eec1
000001a0: b04d fcc1 aa91 57c2 b31f c6c1 cb70 4741
000001b0: c42d 3c42 5174 1640 4503 f041 ce22 0842
000001c0: 8941 e4bf 3f1e c7c0 0645 c240 a2cc 5542
000001d0: 1b3c fb41 7a81 4e42 20c4 4942 ea0a 5141
000001e0: ab85 1142 77c8 0e42 be6f 33c1 bf56 0cc1
000001f0: a76f 6142 575a e6c1 3ccd af41 5374 dbc1
00000200: 7e80 fdc1 9767 0841 356a bc41 3d56 d241
00000210: 788f c1c1 60fd ad3f b1f4 1942 59a8 0242
00000220: 4558 2540 8e0b 1e42 cb9b 50c0 4e47 2841
00000230: 4e5f 0241 c4bf 10c2 fdd6 5842 c432 6042
00000240: e4e6 8a40 522d eb40 fe23 b2c1 7175 51c0
00000250: 1d02 5542 57ec a2c1 28fc 8441 d5c5 c941
00000260: e82b 85c1 2958 a6c1 f659 1040 990c 3041
00000270: 5b6f a4c0 2f0f 2542 0237 29c1 0c28 96c1
00000280: eaaa 143f 5459 56c1 0d62 a041 c496 4541
00000290: 7f8e d041 7c34 e141 8230 3941 e09b 33c1
000002a0: d087 9dc1 4413 64c2 e4ef ccc1 51f6 0e40
000002b0: 8b99 8441 af0b 2741 90ca 1740 744e 1840
000002c0: 779d 3342 ffe6 c841 6388 2cc2 dc70 d6c1
000002d0: 439b 8442 c843 d341 d124 e941 1ba0 dfc1
000002e0: cc07 c4c0 d8b5 9c41 358d 20c0 9462 d341
000002f0: 54b9 f83f d488 5abf 4689 b5bf 360f 27c1
00000300: bb92 cf41 e40e 8d41 e408 48c1 d6f4 ec41
00000310: b4e6 82c0 63c0 8fc2 eaf1 c4bf 5df6 fec0
00000320: 70aa 1a42 02e3 b140 56e2 87c2 303a b041
00000330: da62 a440 30b1 67c1 ddd9 9bc1 6efa c641
00000340: 68f7 9141 9a2a 1fc2 035a 84c1 4105 96c1
00000350: c628 91c1 55b5 dd40 516f ba40 b9aa 6d41
00000360: a02b ef40 488c 2941 b30f ad3f 250c 1fc2
00000370: af9e 7cc1 8b54 2641 148f db40 94f0 5bc1
00000380: 4f97 2042 77a9 0542 c2a9 10c2 6418 4441
00000390: 4fc0 3bc2 8cc5 5340 ecc0 55c1 6b2a 05c2
000003a0: e39f c6c1 87dc f9c1 5c5a 8e41 27bd 1442
000003b0: 2857 9ac0 d990 f0bf 901f 8741 527f 813e
000003c0: bbbe 3341 ea5c 88c1 c5e3 2b40 17a6 b7c1
000003d0: 582e d3bf 548e ea40 f8ae 9ec1 f814 a8c0
000003e0: b523 d2c1 9c07 04c1 c298 bd40 1ccd 87c1
000003f0: c00a e7c1 2b15 5ac1 32fc c941 6ee5 94bf
24.06455 7.671363 -7.4222555 -22.622782 4.5080338 -8.944586 -38.878 -42.55267
-9.664979 14.087356 -32.71826 51.00815 38.8166 33.670525 -4.8372364 -24.224842
-7.987498 -12.742255 -31.65942 -25.190529 52.146194 16.214008 -18.26493 10.480068
39.639805 58.855293 -28.01491 -10.586368 -7.1593165 -55.220566 27.993855 31.262104
30.98225 -20.938889 -21.745405 3.4068692 -10.7331505 -39.123386 -23.059738 21.120493
-26.814766 -6.072573 -27.65125 -41.60875 11.554494 -47.227806 -34.289085 4.5062523
22.66484 19.09556 -8.462746 3.958523 -38.209408 -9.677764 27.629354 5.4069104
37.720814 9.653004 -1.4893748 9.874897 -1.9300585 23.375998 19.807442 21.0124
-36.47126 18.13706 37.11986 -13.740448 -24.467794 -33.022015 -5.005969 33.38067
-19.840656 -12.53337 -31.790491 13.807957 52.407177 19.075827 -26.534609 6.307725
27.314034 0.3274729 -2.947576 10.383003 -32.190514 -3.460349 -20.11257 -7.58774
-30.700792 -6.5386806 12.877889 8.182844 11.934245 13.727074 -19.01862 22.309574
-15.382424 -38.179157 -6.694117 1.1970118 11.26204 -47.637386 -64.09267 -29.873337
-31.537933 -53.89225 -24.765478 12.465037 47.044693 2.3508494 30.001596 34.03399
-1.78325 -6.222442 6.0709257 53.449837 31.404348 51.626442 50.44153 13.065165
36.380535 35.695766 -11.214781 -8.771178 56.359035 -28.794111 21.975212 -27.431799
-31.68774 8.5252905 23.551859 26.292109 -24.195053 1.3592949 38.488956 32.664402
2.5835125 39.511284 -3.2595088 10.517408 8.148268 -36.18727 54.20995 56.049576
4.340685 7.3492823 -22.267574 -3.272793 53.252064 -20.3654 16.623123 25.221598
-16.646439 -20.793047 2.2554908 11.003076 -5.138593 41.264828 -10.57593 -18.769554
0.58073294 -13.396809 20.047876 12.349308 26.069578 28.150627 11.574343 -11.225555
-19.691315 -57.018814 -25.617134 2.233784 16.574972 10.440352 2.3717384 2.3797884
44.903774 25.112791 -43.13319 -26.805107 66.303246 26.408096 29.142977 -27.953176
-6.125952 19.58879 -2.5086186 26.423134 1.9431558 -0.85365033 -1.4182518 -10.441214
25.946646 17.63227 -12.502171 29.619549 -4.090662 -71.875755 -1.5386326 -7.9675736
38.666443 5.558961 -67.94206 22.028412 5.137067 -14.480759 -19.481379 24.87228
18.245804 -39.791603 -16.543951 -18.752565 -18.144909 6.9283853 5.8260884 14.85418
7.4740753 10.596748 1.3520416 -39.76186 -15.788741 10.39564 6.8612156 -13.746235
40.147762 33.415493 -36.16578 12.255955 -46.9378 3.3089323 -13.3596 -33.291424
-24.82807 -31.23268 17.79412 37.18472 -4.823139 -1.8794204 16.890411 0.2529245
11.234065 -17.045368 2.685777 -22.956099 -1.6498518 7.329874 -19.835434 -5.2525597
-26.267435 -8.251858 5.924897 -16.975151 -28.880249 -13.630168 25.248142 -1.1632516

conv3.bias f4 [64]
00000000: b8a1 05c1 07f2 9cc0 9ede 5cc1 580e 16c1
00000010: 2ad8 8fc1 0b12 3bbf 402b 34c2 aaba 8141
00000020: f4dc 40c1 4a9c a0c1 416a b140 9796 ce40
00000030: d444 6bc1 7a9c d1c1 55e1 8ec1 6355 34c2
00000040: 0521 b2c1 d5e4 f3c1 f88a 0bc2 76d3 3f40
00000050: 1840 ebc1 77b6 adc1 bf5c 6bc2 eb6e f8c1
00000060: 53cf 19c2 1dd0 8cc1 3216 efc0 9903 f8c0
00000070: f293 34c2 78e5 ecc0 9241 43c1 7bf4 c1c1
00000080: d67b e7c1 b821 0c40 7200 35c2 0c11 9fc1
00000090: 10dd a8c1 4d66 46c1 10d3 d641 1793 0ac1
000000a0: 6c68 e7c1 c0e9 26c1 c63d 1a42 7d79 94c0
000000b0: 6201 b4c1 7f18 34c1 8d1c b1c1 79f7 30c1
000000c0: 6b03 c03f d741 f0c1 4083 79bf 747b 83c1
000000d0: 32c6 50c0 58cb 4ac2 9254 00c2 0a50 2ec2
000000e0: abd4 3fc1 171b a941 7481 c1c0 aac7 91c1
000000f0: 42e9 88c0 d758 8dc1 c043 36c2 3f0c 8dc1
-8.351982 -4.9045444 -13.80435 -9.378502 -17.980549 -0.73074406 -45.042236 16.216145
-12.053944 -20.076313 5.5442204 6.4558825 -14.704304 -26.201405 -17.860025 -45.083385
-22.266123 -30.486734 -34.88571 2.9972816 -29.406296 -21.714094 -58.840572 -31.05416
-38.452465 -17.601618 -7.4714594 -7.750439 -45.144478 -7.4030113 -12.203508 -24.244375
-28.935467 2.189558 -45.250435 -19.883324 -21.10794 -12.399976 26.853058 -8.660911
-28.925987 -10.432068 38.560326 -4.63983 -22.500675 -11.2559805 -22.13894 -11.060418
1.5001043 -30.032148 -0.97465897 -16.43528 -3.262097 -50.698578 -32.08259 -43.578163
-11.989421 21.138227 -6.0470524 -18.222492 -4.278474 -17.668379 -45.566162 -17.63098

bn3.weight f4 [64]
00000000: 3239 bc41 fb7b 2142 15af f041 9b62 3042
00000010: a6bf cdbf d60b 3442 7346 5d42 a78f 1042
00000020: ab62 5141 c55e d641 f506 ff41 30e7 d241
00000030: 541a c0bf 9fe9 29c1 06c6 1142 609b 36c0
00000040: 0611 a541 4ad0 a1bf b28c c2c0 d8f7 d741
00000050: 039e 1842 0b26 3bc1 1ec6 41c0 bbe8 1542
00000060: 802b 6342 e4cf 0542 12e3 783f 9b5b de41
00000070: 3977 2dc1 4dfe 0a42 98aa 2b42 9c4b 14c1
00000080: 5192 d341 aafe 1f42 f570 60c0 5bc2 cc41
00000090: 7571 2742 2418 c541 8ec4 1e42 291e 2042
000000a0: d772 3c42 a2b0 c440 aa07 8e41 1a0a 973f
000000b0: 1b10 e041 3670 0442 d6b1 2542 3278 0642
000000c0: 9b86 5942 3d85 7841 00c2 0442 5b99 8bc0
000000d0: 8613 9541 8f14 2a42 4470 8e41 a68d afc1
000000e0: 9101 1442 b2c5 b441 f33b 1842 78a5 d941
000000f0: 5c94 0442 f6cf c541 a5f9 c741 f22c 9d41
23.527927 40.371075 30.08549 44.096294 -1.6074111 45.01156 55.318798 36.140285
13.086589 26.796274 31.878397 26.362885 -1.5008035 -10.619536 36.443382 -2.8532333
20.633312 -1.264169 -6.0796747 26.996017 38.15431 -11.696788 -3.027717 37.477276
56.79248 33.45302 0.9722148 27.79473 -10.841607 34.74834 42.916595 -9.268459
26.446444 39.998695 -3.5068944 25.5949 41.860798 24.636787 39.691948 40.029453
47.11215 6.1465616 17.753742 1.1799958 28.007864 33.10958 41.423668 33.61738
54.38145 15.532529 33.189453 -4.36247 18.634533 42.520077 17.804817 -21.944164
37.00153 22.59653 38.058544 27.205795 33.144882 24.726543 24.996897 19.646946

bn3.bias f4 [64]
00000000: d45e e040 d1e9 65c1 3e2f 6241 a5ed 8b41
00000010: e137 58be c0d4 eec0 50da 3442 1fba 1e40
00000020: 43b1 59c1 8963 e541 76e0 4040 4e42 8c40
00000030: 7e06 f13d ace9 8841 f591 5c41 d0ba 85c1
00000040: 38f8 5640 2de6 cf3f 0f72 eac1 f72e af41
00000050: 4b9c 8740 568a b9c0 95af 57bf 0fa8 9a41
00000060: b90d 0142 47ca 393f 6507 69c0 68fd 15c0
00000070: d53c a4c0 f572 3041 1907 8441 5f8f 9f41
00000080: 2e44 6841 7a89 e5c1 7b16 31c0 d775 0ec0
00000090: 4275 c841 d5ff 21c2 2185 a441 6555 3fc1
000000a0: 00da da41 3dba 9bbf 89bc ae41 9202 e03f
000000b0: 1363 de41 4de2 8541 0370 70c0 4d14 6c41
000000c0: c136 8741 d988 5bc2 2545 2f41 7f56 13be
000000d0: 8b1d b2c1 4f1a 5841 340e ebbe a137 c1c1
000000e0: 462f 1641 b9a0 0741 2bf5 c441 8a03 2d42
000000f0: d968 16c1 736e a041 e370 a241 7755 3441
7.0115757 -14.369584 14.136534 17.491037 -0.21115066 -7.4634705 45.213196 2.48011
-13.605777 28.673601 3.0137 4.383094 0.117688164 17.114098 13.785634 -16.716217
3.3589 1.6242119 -29.305693 21.897932 4.2378287 -5.7981367 -0.8425229 19.33206
32.2634 0.72574276 -3.6410763 -2.3435917 -5.132426 11.028066 16.503466 19.945005
14.516645 -28.692127 -2.766997 -2.2259424 25.057255 -40.499836 20.565004 -11.958348
27.356445 -1.216621 21.842058 1.7500784 27.798376 16.735498 -3.7568367 14.754956
16.901735 -54.88364 10.954381 -0.14388464 -22.264425 13.506423 -0.45909274 -24.152163
9.386541 8.476739 24.61971 43.253456 -9.400598 20.05393 20.30512 11.270865

bn3.running_mean f4 [64]
00000000: 8fe9 2d46 829e 7d46 852e 9146 ed89 5e46
00000010: 4191 2a42 6cc9 0647 e571 0e46 fe53 3a46
00000020: 5520 8e45 7b55 0a46 de3b b546 406e 3646
00000030: f976 b146 ef30 7845 2137 c546 689d 6e44
00000040: 1739 e744 5a3b ce45 6a45 1544 fa1f 7945
00000050: 32ff 9e46 d10d 0d46 1d39 6940 f421 a046
00000060: 1302 ca46 7404 3046 16e1 9246 ecbd 0647
00000070: ed12 9945 c9ab a145 9d7d c546 e54a e445
00000080: 915f 4a46 e62c 3746 b964 4145 c2fc a144
00000090: d762 9046 c844 8445 e835 6846 f083 3e47
000000a0: eddb db46 4d78 d945 95f4 a847 98b3 3946
000000b0: a485 a445 59f1 f646 089a 0e46 9e37 2446
000000c0: ce2e 3647 6d48 eb45 7293 a746 5e90 1944
000000d0: dce0 7945 b985 c746 8656 9a43 aeca ae45
000000e0: 3cbe 2c46 d292 4247 585c 9046 5a7d 5046
000000f0: 076d 8746 79df ba45 4fe3 5f44 8c91 f745
11130.39 16231.627 18583.26 14242.481 42.64185 34505.42 9116.474 11924.998
4548.0415 8853.37 23197.934 11675.5625 22715.486 3971.0583 25243.564 954.4595
1849.784 6599.419 597.0846 3985.9985 20351.598 9027.454 3.644111 20496.977
25857.037 11265.113 18800.543 34493.92 4898.3657 5173.473 25278.807 7305.362
12951.892 11723.225 3094.2952 1295.8987 18481.42 4232.5977 14861.477 48771.938
28141.963 6959.0376 86505.164 11884.898 5264.705 31608.674 9126.508 10509.904
46638.805 7529.053 21449.723 614.25574 3998.0537 25538.861 308.67596 5593.335
11055.559 49810.82 18478.172 13343.338 17334.514 5979.934 895.5517 7922.1934

bn3.running_var f4 [64]
00000000: 7ec4 ca4d 7d20 564e e775 934e 3738 4a4e
00000010: 2c8e 0349 29e3 d84e c547 244e cf8d 0f4e
00000020: 7ff6 824d 38c2 ad4d 68ef 884e 02e5 c94d
00000030: 60f1 854e 19f0 6f4d 41b9 c04e 9a19 d24b
00000040: c7bc 754c ae3b e74d d403 9e4b 57c2 034d
00000050: b5c8 ac4e 303c 9b4d 62e4 8b46 81d7 954e
00000060: 960d 0a4f 490a 1b4e d6fb 904e a3ee a24e
00000070: 964a 4c4d 8c8d 754d 0422 bc4e a6aa af4d
00000080: 4d9c 084e 36c0 164e fa1f f74c c877 344c
00000090: 16a1 854e 0b88 004d ebcd 4e4e 8013 0f4f
000000a0: 2289 ce4e 06d6 c44d 1f81 0d4f c143 584e
000000b0: 2850 834d acdc af4e d65c 2c4e f3b4 094e
000000c0: a89f 2b4f 4132 fc4d c8c1 894e 34e9 be4b
000000d0: 95ff ff4c 2a20 9a4e 1430 0f4b dfe0 704d
000000e0: ccc9 0e4e 6cd3 e34e dda5 8a4e fe6c 414e
000000f0: 0ad1 5e4e c2e7 774d 7520 c14b c97a d94d
4.2523437e+08 8.9811334e+08 1.2369888e+09 8.4817043e+08 538850.75 1.8193829e+09 6.890417e+08 6.0210886e+08
2.7464906e+08 3.6439834e+08 1.1486956e+09 4.234036e+08 1.1235942e+09 2.515931e+08 1.6166831e+09 2.7538228e+07
6.4418588e+07 4.84931e+08 2.0711336e+07 1.3815947e+08 1.4494173e+09 3.255516e+08 17906.191 1.2569642e+09
2.3161462e+09 6.5028563e+08 1.2162117e+09 1.3667741e+09 2.14215e+08 2.574809e+08 1.5781729e+09 3.6839955e+08
5.729862e+08 6.322948e+08 1.2956462e+08 4.7308576e+07 1.1209633e+09 1.3477496e+08 8.674004e+08 2.4004198e+09
1.7325468e+09 4.1279507e+08 2.3740495e+09 9.0707974e+08 2.7538355e+08 1.4752374e+09 7.229413e+08 5.775843e+08
2.8793672e+09 5.2889398e+08 1.1555891e+09 2.502308e+07 1.3421687e+08 1.2928996e+09 9.383956e+06 2.5257931e+08
5.988974e+08 1.9111419e+09 1.1630629e+09 8.112864e+08 9.345604e+08 2.5994755e+08 2.5313514e+07 4.5608784e+08

fc1.weight f4 [256, 64]
00000000: e12e e23f 00c9 0ec1 e5be 9fc0 1e10 a8c1
00000010: 413a 7f41 5629 c63f 341c 04c2 5de5 0b40
00000020: 8083 c041 2200 e3c0 8e8f bcc0 628b 27c1
00000030: 64c0 813f bb29 1dc2 4569 c23f eb9e 3242
00000040: c5b6 ebc0 e603 bcc1 3dba f141 6f6e 1a3f
00000050: 859b 8641 f83b 0ec1 d3f0 93c1 19d3 0a40
00000060: 5088 f7c0 16f6 8341 70ed 1b42 471f 8fc0
00000070: 8b6a 0ec2 76f3 5241 008b 0cbf 53e2 b9c1
00000080: 0616 d5c1 9f3e 323f 7f14 cf41 4da4 5ac1
00000090: 7d66 8f3f 2f7e 8841 2a55 5240 87ce 5941
000000a0: 6771 38c1 c338 4f41 7c9c eb3e b624 bcc1
000000b0: b150 86c0 ae62 73c1 0329 c040 9b41 b841
000000c0: 87a8 bcc0 0fab ef41 bec4 9dc0 c048 32c1
000000d0: ee6a e241 98b6 4cc1 c78e 44c1 0afc 1342
000000e0: a215 3f3f 859a 5dc1 98cb 52c0 f771 e2c1
000000f0: 38c3 f141 9238 37c0 a7a8 13c2 754d a6c1
00000100: 7a4e d240 b19f 6340 e7eb 9cc0 0620 71c1
00000110: 46d4 70c0 88a2 95bf 6551 a2c1 8080 3541
00000120: c1c8 2640 eecb 05c2 5448 43c0 dba0 a040
00000130: 2f3a 3241 32a2 9ec1 62af 6240 bdba c141
00000140: 03c1 4dc1 4d89 6ebf 3508 a841 7b5e 48c1
00000150: 5b6a 1d41 5abf 2cc1 68a5 ad40 484c 7641
00000160: 3344 cec0 5b98 7441 c14c f541 eaae d940
00000170: 98d3 73c1 2ab8 2fbf d9c3 b1c0 d5d2 62c1
00000180: 907f f3bf 4b44 e1c0 3d27 4fc0 777c 06c0
00000190: 4781 94c1 3663 5841 f0da ad40 493c 34bf
000001a0: fea4 2240 76c8 ac40 e1c3 ec3f f58f 2d41
000001b0: ff7f 9840 5a3b a940 8062 9941 bc53 4141
000001c0: c9e4 97c0 7b55 e541 8395 623f f432 07c0
000001d0: df23 e941 5f55 af3e 7d77 55c1 21fc 1142
000001e0: 8f92 0740 a081 0b40 db42 28c1 87a9 1fc1
000001f0: 77fc 7241 e3fa 96c1 4edf d5c1 379b e7c1
00000200: 278c e9c0 044d 93c0 61e4 0041 0121 9cc1
00000210: 98e9 0641 a7f8 1e40 c23c c1c1 6bec d640
00000220: 3cb6 c23f 8b3b 66c1 ac95 b8be d4b9 7cc0
00000230: 5b07 c0bf 47e2 06c2 c72b bc40 7503 c841
00000240: 7ac3 9f40 3cbb f1c0 a38e 2142 2e80 49c1
00000250: 9389 9d41 faf4 dcc1 7370 1ec1 334a ed40
00000260: a30d 863e 718f ea40 c242 ae41 4c17 5a41
00000270: 0fea 49c1 5e97 8140 83d1 0bc1 a771 dec1
00000280: 455a 25c1 8f81 833f 4ee4 ea40 582e 0841
00000290: 8ad9 cec0 abe2 38bf 8052 3241 27ce 99bf
000002a0: c345 2241 7f58 5241 2e2a afc0 e9ec ba40
000002b0: cb28 53c1 721c 03c1 5d1a 7741 cf4c ac40
000002c0: 11d6 06c1 d95c ab41 9b5c 7bc1 3d1d 9e40
000002d0: 9cb8 ae41 14a4 13c1 9eb2 0c41 02f5 1642
000002e0: b02f b6c0 1aac 77c0 b4ce 8740 c660 06c2
000002f0: acfb 8e3f fcac 9dc1 0cb4 13c2 567e 9fc1
00000300: dbb6 ddc1 55e4 98c1 1625 99c1 904e 84c0
00000310: fee9 36c1 ce75 82c1 4b76 0043 2fc1 acc1
00000320: e98d 10c2 46b1 3f41 ee5c 97c1 23e3 5a41
00000330: deac 71c1 b0d2 cf41 c413 9040 9761 5fc2
00000340: 08a2 85c1 d008 0742 5810 44c2 8fb3 40c1
00000350: 99a2 b2c1 c504 2cc1 fec3 d040 9e5f 06c1
00000360: d39c 4c41 aba9 c8c0 3735 b6c1 2a4c c3c0
00000370: f339 0241 9088 45c2 15ca eac1 155c c941
00000380: a013 3b41 08d3 3dc1 efac b640 8cd0 f4c1
00000390: 2b51 d2bc 7a6b 80c1 251e 10c1 9177 6b41
000003a0: aefa 95c1 362c b0c1 21d5 c641 f1de cd3f
000003b0: 8d74 9842 4855 b13f e2f2 3f41 714f 27c2
000003c0: 0380 4e41 9ba1 76c2 5561 f0be 94ac 62c1
000003d0: c80c 39c1 c3ac 0f41 ed7f 96c1 8fd7 2c41
000003e0: ce52 74c1 e7c0 e9c0 94f0 c741 157b 4442
000003f0: c972 9cc1 d5d5 5d41 e892 8ec2 b563 4741
1.7670556 -8.924072 -4.9920526 -21.00787 15.951722 1.5481365 -33.027542 2.1858742
24.064209 -7.093766 -5.892524 -10.471529 1.0136838 -39.290752 1.5188376 44.655193
-7.3660607 -23.501904 30.215937 0.6032476 16.825937 -8.889641 -18.49259 2.1691344
-7.7353897 16.49516 38.981873 -4.472568 -35.604046 13.184439 -0.548996 -23.23551
-26.635754 0.696268 25.885008 -13.6651125 1.1203152 17.061613 3.286448 13.612922
-11.527686 12.951358 0.46017826 -23.517925 -4.19735 -15.211592 6.0050063 23.032034
-5.895572 29.958525 -4.9302664 -11.142761 28.302212 -12.794579 -12.284858 36.99613
0.74642384 -13.8502245 -3.2936764 -28.305647 30.220322 -2.8628278 -36.9147 -20.78782
6.5720797 3.5566218 -4.9037967 -15.070318 -3.7629561 -1.1690226 -20.289743 11.343872
2.606003 -33.44915 -3.0512896 5.0196357 11.139205 -19.829197 3.5419545 24.21618
-12.859622 -0.93178254 21.004007 -12.5230665 9.838466 -10.796717 5.426441 15.393623
-6.445825 15.287196 30.662477 6.802602 -15.239159 -0.6864039 -5.555157 -14.176473
-1.9023304 -7.0395865 -3.23677 -2.1013467 -18.563124 13.524221 5.432976 -0.7040449
2.5413203 5.3994703 1.8497277 10.847646 4.7656245 5.288495 19.173096 12.082943
-4.746678 28.666739 0.88509387 -2.112485 29.142515 0.3424482 -13.341672 36.49622
2.1183202 2.1797867 -10.516322 -9.9788885 15.186637 -18.872503 -26.734035 -28.950788
-7.2983584 -4.6031513 8.055757 -19.516115 8.43203 2.4839265 -24.154667 6.7163596
1.5211864 -14.389537 -0.3605169 -3.948842 -1.5002245 -33.720974 5.880344 25.001688
4.992612 -7.5541058 40.389294 -12.593794 19.692175 -27.619617 -9.902453 7.4153075
0.2618228 7.33001 21.782597 13.630688 -12.619643 4.0497274 -8.73865 -27.805494
-10.334538 1.0273913 7.340369 8.511314 -6.464055 -0.7222087 11.145142 -1.2016038
10.142032 13.1466055 -5.473899 5.8414197 -13.197459 -8.194445 15.443936 5.384376
-8.427262 21.420336 -15.710109 4.941069 21.840141 -9.227558 8.793608 37.739265
-5.693321 -3.8698792 4.2439823 -33.594505 1.1170554 -19.709465 -36.925827 -19.936687
-27.714285 -19.11149 -19.143108 -4.13459 -11.432127 -16.307522 128.46208 -21.594328
-36.138584 11.98078 -18.920376 13.680453 -15.104704 25.977875 4.502413 -55.845303
-16.704117 33.758606 -49.01596 -12.043838 -22.329393 -10.751164 6.523925 -8.398344
12.788287 -6.2707114 -22.775984 -6.1030474 8.139148 -49.38336 -29.348673 25.169962
11.692291 -11.864021 5.70861 -30.60183 -0.02567347 -16.052479 -9.0073595 14.716691
-18.747402 -22.021587 24.854067 1.6083661 76.22764 1.3854151 11.996798 -41.82758
12.906253 -61.657818 -0.46949258 -14.167133 -11.56562 8.979678 -18.812464 10.802627
-15.270216 -7.3047976 24.99247 49.120197 -19.556047 13.864705 -71.28693 12.461843

fc1.bias f4 [256]
00000000: 7d96 15c2 849f ddc1 64c6 e0c1 6e73 8b42
00000010: 9727 e1c1 212e 04c2 035d 15c2 be60 f93c
00000020: 5ef0 07c2 8c13 e742 300f b7c1 7e46 9fc1
00000030: 47d8 d2c0 a27c cec1 f0bc c742 695a bc42
00000040: 27d6 edc1 5afa dbc1 bda7 89c1 b476 6bc1
00000050: 5478 8a42 cfe8 9dc1 7d02 03c2 aead d93d
00000060: 0568 b1c1 9b8e a2c1 816e 1cc2 a2d5 8d42
00000070: d949 2042 8f4c 0ec2 ac26 2dc2 d732 fec1
00000080: b187 bfc1 e248 1cc2 0c45 b8c1 cccf 7242
00000090: f906 91c1 4d48 03c2 d1b6 28c2 0647 f1c1
000000a0: 5841 0cc2 f215 09c2 4bc0 1fc2 b66e fdc1
000000b0: 462f ebc1 f1a6 44c1 4457 bec1 c22e efc1
000000c0: 5233 8fc1 db31 bec1 1122 f1c1 4934 03c2
000000d0: cdb6 d5c1 431d 6a42 f596 efc1 9498 f4c1
000000e0: 8a99 95c1 d18e c5c1 fa78 cec1 cc6d 15c2
000000f0: de52 0bc2 3437 bc42 edd4 d1c1 f35f cfc1
00000100: 2c79 dec1 3939 e7c1 1b1e 10c2 adbf 1fc1
00000110: 7246 cfc1 b621 fbc1 903f aec1 64c8 03c2
00000120: 3ff5 cdc1 3078 d1c1 c8fa d4c1 4f7b 13c2
00000130: 72a1 20c2 94f1 eac1 e2df f0c1 5856 0dc2
00000140: 49c9 b5c1 cf89 fbc1 b4a3 c9c1 7a7f 8242
00000150: 22bd 81c1 f4c5 ddc1 0862 edc1 a9ec 8642
00000160: 8d26 5bc1 84ae ccc1 fb34 5b41 0aa6 c2c1
00000170: c429 bcc1 356e 2bc2 34c1 e3c1 6fb7 08c2
00000180: 3c69 c542 136b 00c2 5aef b841 0741 4bc1
00000190: 50a9 b7c1 6573 f9c1 6251 b7c1 9ce1 87c1
000001a0: e3a9 c2c1 a306 bac1 dfb0 68c1 2793 efc1
000001b0: 248d f1c1 7e26 a7c1 c15f b9c1 1a40 ffc1
000001c0: 14ea 04c2 c2ea e9c1 a7e1 ca42 ca15 35c2
000001d0: 31b8 23c2 0f23 1341 6314 cec1 2dc7 bbc1
000001e0: 16c0 24c2 b2d6 bec1 f317 c8c1 7779 88c1
000001f0: 9370 dcc1 475d 06c2 1723 cfc1 822f 89c1
00000200: 3193 e6c1 e0be d4c1 6374 b7c1 bc67 bfc1
00000210: 6536 8042 cf21 22c2 149f d3c1 b95a cfc1
00000220: c747 06c2 1c42 bec1 ae4e 17c2 e022 87c1
00000230: 2af9 e742 d35c 14c2 3ae2 fcc1 762c 06c2
00000240: 01c3 aac1 d0ac e3c1 ce8c e1c1 ed7b c8c1
00000250: aa25 f542 5401 a542 b571 cec1 d06e c7c1
00000260: 73bf e7c1 f6d4 d3c1 9080 b2c1 7fe0 bac1
00000270: ad40 ecc1 c05b fac1 8a18 c8c1 6a9c 2cc2
00000280: 4de1 d941 d2e1 65c1 202e 12c2 76e4 08c2
00000290: c5de c8c1 d1e5 22c2 d24a 07c2 24f4 18c2
000002a0: d02f cfc1 4736 0cc2 4684 d7c1 e52a fa42
000002b0: d626 e142 a14e fec1 b7a4 1cc2 e509 ccc1
000002c0: 5577 d4c1 8287 d7c1 fc48 bbc1 509e eec1
000002d0: f2d4 01c2 259b 0bc2 8569 59c1 a384 a4c1
000002e0: c51d d2c1 398b 25c2 1876 bbc1 e7ed b6c1
000002f0: f539 cdc1 d5ff e9c1 9e0c dbc1 75fb 19c2
00000300: 17b8 a2c1 3871 bdc1 4151 d9c1 338a e5c1
00000310: 2eaa e8c1 ff3f 1bc2 16f9 18c2 d7e9 aec1
00000320: c93c 6042 7f42 14c2 f5cc dcc1 460c 0cc2
00000330: 8ee0 e9c1 727f 24c2 d9b8 a3c1 89d6 e2c1
00000340: cf92 b142 7c0b cec1 f8dd d742 41f9 9dc1
00000350: 33dc dfc1 5235 e3c1 c46a e4c1 3b81 e9c1
00000360: c119 4cc2 88a6 09c2 bebc e4c1 c551 a142
00000370: e376 d4c1 2130 e0c1 3092 8941 bee2 a9c1
00000380: c7b2 0cc2 1f66 c3c1 f014 9bc1 edb3 9342
00000390: e625 ecc1 f602 c1c1 9c79 e6c1 1ee3 f5c1
000003a0: 4da9 33c2 a5a6 85c1 9583 21c2 e01b fec1
000003b0: 8535 dfc1 8edb 3942 b8c9 87c1 afb1 7542
000003c0: df62 2cc2 4d76 1fc1 4714 fbc1 4f26 e8c1
000003d0: 9ec4 d9c1 2b4f bbc1 b058 0dc2 63f5 a242
000003e0: 3835 d7c1 affb c0c1 7a99 38c2 e6f6 c8c1
000003f0: 0357 bac1 ead8 0ac2 097a dbc1 f342 bb42
-37.39696 -27.702888 -28.09687 69.72545 -28.144331 -33.045048 -37.34083 0.030441638
-33.984734 115.53818 -22.882416 -19.90942 -6.588901 -25.810856 99.86902 94.17658
-29.729567 -27.497242 -17.206903 -14.71648 69.235016 -19.738676 -32.75243 0.1062883
-22.17579 -20.319632 -39.107914 70.91725 40.072117 -35.574764 -43.287766 -31.774824
-23.941256 -39.071175 -23.033714 60.702927 -18.128405 -32.820606 -42.17853 -30.15968
-35.063812 -34.27143 -39.937786 -31.679058 -29.398083 -12.290757 -23.79261 -29.897831
-17.900059 -23.774343 -30.141634 -32.80106 -26.714258 58.528576 -29.94871 -30.574501
-18.69997 -24.694735 -25.80907 -37.357224 -34.830925 94.10782 -26.228968 -25.92185
-27.809166 -28.90294 -36.0294 -9.984296 -25.909397 -31.39146 -21.781036 -32.945694
-25.74475 -26.183685 -26.622452 -36.87042 -40.15766 -29.367958 -30.109318 -35.33432
-22.723284 -31.44229 -25.204933 65.24898 -16.21735 -27.721657 -29.672867 67.46223
-13.696912 -25.585213 13.700435 -24.331074 -23.520393 -42.857624 -28.469337 -34.179134
98.705536 -32.104565 23.11687 -12.703376 -22.957672 -31.181345 -22.914738 -16.98516
-24.332952 -23.25324 -14.543181 -29.946852 -30.193916 -20.893795 -23.171755 -31.9063
-33.228592 -29.239628 101.44073 -45.27128 -40.929874 9.196059 -25.759954 -23.472254
-41.187584 -23.854832 -25.011694 -17.059309 -27.554968 -33.59109 -25.892134 -17.148197
-28.82187 -26.5932 -22.93183 -23.925652 64.10624 -40.533016 -26.452675 -25.919298
-33.570095 -23.78228 -37.826836 -16.892029 115.98665 -37.09065 -31.610462 -33.54342
-21.345217 -28.459381 -28.193752 -25.06051 122.57356 82.502594 -25.805521 -24.929108
-28.968481 -26.478985 -22.312775 -23.359617 -29.53158 -31.2948 -25.011982 -43.15275
27.23501 -14.367632 -36.545044 -34.223106 -25.108774 -40.72443 -33.823067 -38.23842
-25.898346 -35.053005 -26.939587 125.08378 112.57585 -31.788393 -39.160854 -25.504831
-26.558268 -26.941166 -23.410637 -29.827301 -32.457954 -34.90151 -13.588262 -20.564764
-26.264536 -41.38596 -23.432663 -22.866163 -25.6533 -29.249918 -27.38116 -38.495564
-20.339888 -23.680283 -27.164675 -28.69248 -29.083096 -38.812496 -38.243248 -21.86418
56.05936 -37.064938 -27.600077 -35.011986 -29.234646 -41.12446 -20.465258 -28.354753
88.786736 -25.755608 107.93353 -19.746706 -27.98252 -28.401035 -28.552132 -29.1881
-51.02515 -34.41263 -28.59216 80.659706 -26.55805 -28.0235 17.19638 -21.235714
-35.174587 -24.424864 -19.385223 73.85142 -29.518505 -24.126446 -28.80938 -30.735897
-44.915333 -16.70637 -40.378498 -31.76361 -27.901133 46.46441 -16.973495 61.42352
-43.096554 -9.966382 -31.384901 -29.018705 -27.221004 -23.413656 -35.33661 81.47927
-26.900986 -24.122892 -46.14988 -25.120556 -23.292486 -34.71183 -27.434587 93.63076

bn4.weight f4 [256]
00000000: 202d 13c0 e66e 3941 3580 ea3d a00d 8a3f
00000010: 9761 1fc0 2be0 80bf 376a c340 ab0f 43c0
00000020: 3286 3140 a2d7 3dc0 acbc 26c1 d7ec 2340
00000030: fc9b 15c0 ee49 85c0 ebcc 8bbf eb83 83bf
00000040: ea3b 84c1 a323 a2c0 bdb7 e040 2c1e 58bf
00000050: 5873 fa41 be30 bec0 95b7 bd3f 101b 8741
00000060: 22d4 51bf ac1a 6ec0 f566 8cc0 e94d 5c3f
00000070: d6c8 12c0 1d18 6441 ee78 6d40 aad1 df40
00000080: 2449 813f fbb5 8bbf 9391 fe40 dc27 8a3f
00000090: 2270 af40 3055 5341 9f1d 2cc0 a0fe e1c0
000000a0: 3d34 0c40 1c73 dec0 b0a4 6b40 6a14 1841
000000b0: 61a3 f73f 84c3 79c0 15cc 3dc0 5fbc 943f
000000c0: e69c 8340 b62c d8bf 0d41 7ec0 e8db 7c40
000000d0: 23f0 6b40 5747 9b41 53ea 2cc1 eeaf 25c1
000000e0: 3a98 afc0 1519 b13f 419f 02be 9321 1f40
000000f0: 2327 b540 a700 48c0 79f2 4640 2e51 cbbf
00000100: 595b 0840 e7ff 3f41 e246 1b41 6338 2cc0
00000110: 2a3f d63f 7ec4 4440 067d 67c0 64a3 afbe
00000120: f9a4 d540 0ac3 2340 17f0 0c41 14a5 99be
00000130: eba9 e43f 8a84 fac0 e984 ec3e 1ba6 b940
00000140: 6c56 8e40 0085 2cc0 6dc3 0ec1 b62f 0a3f
00000150: 0d9c dfc1 4e65 3941 550d 48c1 2fce ad41
00000160: 80bf a8bf dab8 1c41 169e 3441 6c06 a53f
00000170: 127d 15bf 3ec4 a5c0 ef37 0240 447d 4f3f
00000180: e095 8bbf d41b f240 edc2 9241 b506 1641
00000190: 9d72 b63f 9776 5040 739d 7bc0 06b6 f43f
000001a0: 1fc4 033e c7e6 0ac1 bb03 84c0 10d2 01c0
000001b0: 8ec5 bd3f 6aee 7840 549d 9dc0 303c 08c0
000001c0: 18f8 f43f 0d90 0f3f 3d0a ef3f 032b 91c0
000001d0: 543b 56c0 dbbc bd41 f2c4 b340 692b d9c0
000001e0: c620 15c0 ce3f 1140 bd8b f13f 6a9a 8ec0
000001f0: 2795 18c1 10da 5d41 c20e a9bf 1900 41c1
00000200: 7c77 c0c0 6a78 f33f 67ae 5a41 6c9e 8ec0
00000210: 662e 3f3f c912 6540 ccb5 3a40 1841 bcc0
00000220: c9f5 9a40 1394 01c1 e445 89bf 4c10 ae40
00000230: e8c8 37c0 fe37 1641 70a9 9c40 d60b 9540
00000240: 6549 9040 6bb9 b6bf 6fb2 e440 ba2e 3bbe
00000250: 3937 653f 452c b83e dda8 d6c0 b2bb 99c0
00000260: 435c 9fc0 95bd b9bf cd85 e740 1d8c 2d3f
00000270: d387 8f3d c635 a33f 23f4 8540 822b d03f
00000280: c42f 9e41 2c0f 2340 1656 a3c0 1df3 a6c0
00000290: a45e 24be a6dc 52c1 b22a b7be de26 b3be
000002a0: e6ce 803f 04e8 5ac0 16d2 c9c0 eef8 17c0
000002b0: f1d6 5dbf a93a b6c0 ece4 d63f 5d80 9740
000002c0: 8ed4 6b3f 2872 15c0 7ab6 b941 9e1a babf
000002d0: 4116 6ac1 08ec bb40 42be c440 2427 18c1
000002e0: 9a60 6241 9736 bb40 6855 90c0 25ca f13f
000002f0: 73b5 8fc0 91dc 6d41 2bf7 c43f 1629 8540
00000300: 6c78 6b40 230c 40c0 7bfb c640 86c3 4741
00000310: 8823 073f 22df a1bf 92df a5bf ce61 1fc1
00000320: 2e63 aa3d 210e 4f41 f1b4 4341 759e d0c0
00000330: ed21 b3c0 aba5 a2bf 7ee1 14c0 6be4 0240
00000340: 52b2 13c0 b500 42bf 4c55 37be 415d 743f
00000350: 598b 9b40 5369 f93f c398 bcc0 0b4a 85c1
00000360: 2ab6 81c1 ffe6 0bc0 8d94 b2c0 ce78 1940
00000370: 7cd2 1e41 5188 10c0 9652 b741 9b86 b2c0
00000380: 0671 fd3c 674d 0dc1 ddd9 c3bf 33b9 52bf
00000390: 3414 77c1 30ff 6840 d8b0 2cc0 35ff 1140
000003a0: 1d9d aa40 8ebb 4d3f 73f7 1840 3fb9 bac0
000003b0: c4cf a340 0613 6841 01cf b0bf b3af e13f
000003c0: 23b2 2d3f 13bc 823f b44b 15c1 0e0f ba40
000003d0: dd84 ad40 9b50 debf 910f 54c0 faf1 b741
000003e0: 4a91 3a3f d2d4 7340 e4f2 183e 36dc 11bf
000003f0: 3842 6bbe 7e58 9c3e f91d b0c1 04b5 1940
-2.2996292 11.589575 0.11450235 1.0785408 -2.4903314 -1.0068411 6.1067157 -3.0478313
2.7738156 -2.9662862 -10.421062 2.5613306 -2.3376455 -4.1652746 -1.0921911 -1.0274633
-16.529255 -5.06685 7.022429 -0.8442104 31.30632 -5.94345 1.482165 16.888214
-0.81964314 -3.720378 -4.387568 0.8605638 -2.293508 14.255887 3.710506 6.9943438
1.0100446 -1.0914911 7.9552703 1.0793414 5.482438 13.208298 -2.689308 -7.062332
2.1906884 -6.9515514 3.6819267 9.504984 1.9346734 -3.9025583 -2.9655812 1.1619986
4.1129026 -1.6888645 -3.9727204 3.950922 3.6865318 19.409834 -10.807208 -10.355452
-5.4873323 1.383578 -0.12756063 2.4864242 5.6610274 -3.1250398 3.1085494 -1.5884149
2.1305754 11.999976 9.704805 -2.6909416 1.6738026 3.074493 -3.6170058 -0.34304345
6.6763883 2.5587792 8.808616 -0.30008757 1.7864355 -7.828679 0.46195152 5.8015265
4.4480495 -2.6956177 -8.922711 0.5397905 -27.951197 11.587233 -12.503255 21.725676
-1.3183441 9.79513 11.288595 1.2892585 -0.5839397 -5.1802053 2.034664 0.81050515
-1.0905113 7.565897 18.345179 9.376637 1.4253727 3.2572381 -3.931485 1.9118049
0.12867783 -8.681342 -4.1254554 -2.0284462 1.4825914 3.8895516 -4.925455 -2.1286736
1.9138212 0.5607918 1.8675 -4.5365005 -3.347371 23.717215 5.617791 -6.786549
-2.3301253 2.2695193 1.887077 -4.4563494 -9.536414 13.865738 -1.3207629 -12.062524
-6.0145855 1.9021122 13.667579 -4.4568386 0.74680173 3.5792716 2.917346 -5.882946
4.842503 -8.098651 -1.0724454 5.4394894 -2.8716373 9.38867 4.8956833 4.657695
4.5089593 -1.4275335 7.1467814 -0.18279544 0.8953739 0.35971275 -6.708113 -4.804162
-4.9800124 -1.4510981 7.235083 0.6779192 0.07008328 1.2750785 4.186052 1.6263278
19.773323 2.547801 -5.1042585 -5.217177 -0.16051728 -13.178869 -0.3577476 -0.3499059
1.006314 -3.420411 -6.3068953 -2.3745685 -0.866561 -5.6946607 1.6788611 4.7344193
0.9212121 -2.3350925 23.2141 -1.4539373 -14.630433 5.8725624 6.148225 -9.509556
14.148584 5.850414 -4.5104256 1.8889815 -4.4908996 14.866349 1.538793 4.1612654
3.679225 -3.0007408 6.2181983 12.485235 0.5278859 -1.264622 -1.2958853 -9.961378
0.08319698 12.940949 12.231675 -6.519343 -5.5978913 -1.2706808 -2.326263 2.0451915
-2.3077588 -0.7578233 -0.17903632 0.95454794 4.86076 1.9485267 -5.8936477 -16.661154
-16.213947 -2.185974 -5.5806336 2.3979983 9.926388 -2.25832 22.915325 -5.5789313
0.030937683 -8.831397 -1.5300862 -0.8231384 -15.442432 3.6405754 -2.6982937 2.2812016
5.331679 0.8036431 2.390103 -5.835113 5.119112 14.504644 -1.3813173 1.7631744
0.6784994 1.0213646 -9.330982 5.8143377 5.4224687 -1.7368349 -3.31345 22.993153
0.72877944 3.8098645 0.14936405 -0.5697664 -0.22974479 0.30536264 -22.014635 2.4016733
