mini_batch_exp/models/mnist_sgd_batch8_lr0.1.pt (torch_old, 326371 bytes, 26 tensors)

conv1.weight f4 [16, 1, 3, 3]
2.1561358 -1.3464421 -1.173587 2.3912725 -1.1120242 -2.9546995 -0.3190325 -2.2521298
-3.6197937 -1.7376599 -0.7317037 -0.5090359 -0.96812534 -0.3863974 -0.8803949 -1.3300277
-0.40131873 -1.2577869 2.2962227 -0.60676146 -2.5303276 4.1371574 0.60420656 -2.9151552
2.773731 1.5554513 0.15982555 -0.3011173 -0.62238485 -0.05110474 -0.27820963 -0.1241715
-0.12865292 -0.013883723 -0.20375755 -0.15575482 0.46898857 0.3508295 -2.8250015 -1.0047681
-0.50189894 -0.6350613 -0.66615766 -0.53784466 0.88692594 -0.21100856 -0.086071596 -0.64049006
-0.61843395 -0.14316013 -0.72352755 -0.17802106 -0.1366374 -0.09654227 -0.91240454 -1.7603002
-0.15324473 -1.9980302 -0.91600275 1.5082201 -0.6997619 2.249642 3.2431629 -0.01733645
-0.7659997 -1.7549714 -1.0679314 -0.44767773 -0.8129057 -1.5356749 -1.0546389 -0.7942164
1.6061654 2.967397 -0.19920492 2.695713 0.21427502 -2.8419645 -1.8317518 -1.9588672
-1.0831406 -1.0143305 -0.370398 -0.4725559 -0.091560245 -0.23974994 -0.92944586 -0.464028
-1.0202701 -0.7490893 -0.44920382 -2.334556 -1.3996456 -2.1289308 -1.7998642 -0.5105342
1.6398573 1.3808322 -2.0982654 1.2998314 -0.96620345 -1.4401838 -1.3106796 -1.1774075
-1.0379455 -1.8882297 -0.17135179 -0.040483117 -1.0019542 -0.29014853 -0.4829046 -0.119194314
-0.026472244 -0.69275844 -0.24473941 -0.7450287 -0.69609135 -0.02387941 -2.2166586 -0.8614893
0.10767306 -0.6075884 -0.26079568 1.8396907 2.206624 -0.20080535 0.7093124 2.6576335
2.0627143 -1.9513999 0.50124115 1.1269364 -3.1392632 -2.9641182 -2.810115 -1.6493328
-0.106121846 -0.4390223 -0.14646514 -0.21788992 -0.01676627 -0.7707637 -0.8083391 -0.94726974
00000000: 21fe 0940 3758 acbf 1938 96bf 9c0a 1940
00000010: cf56 8ebf cc19 3dc0 3a58 a3be e522 10c0
00000020: b3aa 67c0 a46b debf ef50 3bbf 2d50 02bf
00000030: 10d7 77bf e1d5 c5be 8f61 61bf 593e aabf
00000040: a679 cdbe 29ff a0bf 50f5 1240 b854 1bbf
00000050: e3f0 21c0 9863 8440 48ad 1a3f e791 3ac0
00000060: cf84 3140 0719 c73f 4fa9 233e 0c2c 9abe
00000070: 9d54 1fbf 3453 51bd 7e71 8ebe a14d febd
00000080: 97bd 03be 8e78 63bc d2a5 50be 317e 1fbe
00000090: 451f f03e ed9f b33e d3cc 34c0 3e9c 80bf
000000a0: 737c 00bf 6193 22bf 4f89 2abf 30b0 09bf
000000b0: 940d 633f a112 58be 4e46 b0bd 28f7 23bf
000000c0: b051 1ebf 9298 12be 1a39 39bf 274b 36be
000000d0: adea 0bbe f4b7 c5bd 5893 69bf 8451 e1bf
000000e0: 30ec 1cbe 74bf ffbf 287f 6abf 5b0d c13f
000000f0: 9923 33bf 22fa 0f40 fb8f 4f40 2c05 8ebc
00000100: 8e18 44bf e7a2 e0bf fab1 88bf 0436 e5be
00000110: 971a 50bf ff90 c4bf 68fe 86bf c451 4bbf
00000120: d496 cd3f d5e9 3d40 60fc 4bbe 9086 2c40
00000130: e96a 5b3e bfe2 35c0 d876 eabf 29bc fabf
00000140: 5aa4 8abf 95d5 81bf cfa4 bdbe d9f2 f1be
00000150: f083 bbbd 0281 75be 2af0 6dbf 1495 edbe
00000160: 3698 82bf 51c4 3fbf 0bfe e5be 5e69 15c0
00000170: 9627 b3bf 6740 08c0 f361 e6bf 5fb2 02bf
00000180: d8e6 d13f 1cbf b03f fb49 06c0 e060 a63f
00000190: 1c59 77bf f157 b8bf 59c4 a7bf 4ab5 96bf
000001a0: 66db 84bf 83b1 f1bf d876 2fbe a0d1 25bd
000001b0: 0940 80bf 598e 94be 463f f7be 261c f4bd
000001c0: 52dc d8bc 9e58 31bf f89c 7abe 33ba 3ebf
000001d0: 0b33 32bf c19e c3bc bcdd 0dc0 908a 5cbf
000001e0: b183 dc3d ea8a 1bbf 0387 85be fc7a eb3f
000001f0: 5439 0d40 eb9f 4dbe 7f95 353f ab16 2a40
00000200: 8303 0440 79c7 f9bf 5751 003f 743f 903f
00000210: b0e9 48c0 1db4 3dc0 edd8 33c0 561d d3bf
00000220: 6956 d9bd 88c7 e0be f5fa 15be 891e 5fbe
00000230: 6b59 89bc c550 45bf 50ef 4ebf 4580 72bf

conv1.bias f4 [16]
0.275176 0.34691173 0.2356175 -0.08101782 0.19397739 -0.12077103 0.23641989 -0.029654998
-0.08295664 -0.07999852 0.17577009 0.27196866 0.2362699 0.30606905 -0.24078773 -0.019118896
00000000: dee3 8c3e 6a9e b13e b745 713e acec a5bd
00000010: 02a2 463e cd56 f7bd 0e18 723e 0aef f2bc
00000020: 2ce5 a9bd 44d6 a3bd 13fd 333e 7a3f 8b3e
00000030: bdf0 713e 15b5 9c3e 0f91 76be 3b9f 9cbc

bn1.weight f4 [16]
3.5135655 -2.5425131 4.068961 0.96427894 -0.32691187 1.5132197 4.024542 2.1772366
5.4366326 1.074568 -0.626157 1.193409 -2.0508773 4.1015162 5.57547 0.7420935
00000000: 42de 6040 89b8 22c0 ee34 8240 fcda 763f
00000010: fe60 a7be 2fb1 c13f 0cc9 8040 d857 0b40
00000020: e5f8 ad40 728b 893f d34b 20bf a0c1 983f
00000030: 9341 03c0 9f3f 8340 406a b240 d7f9 3d3f

bn1.bias f4 [16]
-0.3233663 0.63236785 0.1940162 0.15710446 -0.28892317 -0.30778816 0.61894625 0.693966
1.2139913 0.21666823 -0.7225869 0.6056886 -0.9091238 -1.4744674 -0.7283855 -0.59996307
00000000: 4590 a5be dce2 213f 2fac 463e fedf 203e
00000010: bded 93be 6996 9dbe 4373 1e3f c1a7 313f
00000020: 1164 9b3f 47de 5d3e 75fb 38bf 680e 1b3f
00000030: 56bc 68bf 59bb bcbf 7977 3abf 2e97 19bf

bn1.running_mean f4 [16]
76.8521 0.24338982 389.64655 6e-45 15.0527315 6e-45 232.11731 6e-45
217.04138 6e-45 13.574628 12.402163 0.16576459 109.309616 119.81103 6e-45
00000000: 46b4 9942 2e3b 793e c2d2 c243 0400 0000
00000010: fdd7 7041 0400 0000 081e 6843 0400 0000
00000020: 980a 5943 0400 0000 ad31 5941 426f 4641
00000030: 31be 293e 869e da42 3f9f ef42 0400 0000

bn1.running_var f4 [16]
42514.812 0.025193164 482694.0 6e-45 1376.7949 6e-45 215434.0 6e-45
206066.61 6e-45 4553.5503 1840.0657 0.011685879 58272.543 101211.23 6e-45
00000000: d012 2647 e561 ce3c c0b0 eb48 0400 0000
00000010: 7019 ac44 0400 0000 8062 5248 0400 0000
00000020: a73c 4948 0400 0000 674c 8e45 1a02 e644
00000030: 2176 3f3c 8ba0 6347 9dad c547 0400 0000

conv2.weight f4 [32, 16, 4, 4]
-0.6029168 -0.6187435 -0.28942004 -0.34334278 -0.76366043 -0.377153 0.42993206 -0.017289273
-0.38754708 -0.56918705 -0.047981147 0.016975306 0.6365359 0.34086725 0.3096595 0.6335469
-0.37407187 -0.24063043 -0.038660727 0.18121248 -0.5601109 -0.29532185 0.55451137 0.42408141
-0.17773922 -0.42526928 0.1173749 -0.01739927 -0.22844261 -0.2725623 -0.08545219 0.09001156
-0.7601545 -0.84892905 -0.16705923 -0.3679712 -0.17871337 -0.86852944 0.21351813 0.7509717
0.88049334 -0.4839686 -0.011915362 0.88510865 0.688468 -0.5204336 -0.786181 0.43308088
-0.0068977503 -0.034346394 -0.02227074 -0.005691727 0.011778465 -0.04311754 0.045174148 0.025053987
-0.04016466 -0.063091606 -0.039084457 0.1009453 0.0093047405 0.123659275 0.039812364 -0.010654811
-0.29921874 -0.22791705 0.08541565 0.00870688 -0.066502586 -0.047435604 0.104888484 -0.049899805
-0.117875084 -0.13467708 -0.13571525 0.3088589 -0.044108763 -0.3077508 -0.013456514 0.06432471
-0.09685379 -0.07386069 -0.03949851 -0.03713037 -0.09481793 -0.07316874 -0.05453447 -0.0731823
-0.17672297 0.005794721 -0.08447864 0.033544652 -0.1762963 -0.012940795 -0.07716834 -0.09924908
-0.57165706 0.74097973 0.3611055 0.05497725 -1.135671 0.04896795 -0.21272087 -0.356997
-1.0450453 -0.13249494 -0.16543195 -0.16128032 -0.67820936 -0.15426087 0.43987674 -0.2671435
-0.061595447 -0.06492036 -0.08354815 -0.10177178 -0.14724196 -0.13868088 -0.06495194 0.0023396628
-0.27512303 -0.22010621 -0.24844308 -0.18184862 -0.097877495 -0.1598312 -0.27638394 -0.1647137
-0.28781548 -0.023394234 -0.1469654 -0.39619893 -0.670107 -0.6175236 -0.35255116 0.012094476
-0.5293152 -1.1953639 -0.013690477 -0.7041086 0.05705475 -0.82813716 -0.3186183 -0.96414
-0.15123448 -0.12967066 -0.11124754 -0.025728432 -0.04436189 -0.1138629 -0.073503 0.116301134
-0.00015763885 -0.043132696 -0.10650712 -0.023338763 0.07206104 -0.027683454 -0.07261174 -0.02754747
-0.46567136 -0.3389727 0.04073171 0.096586406 0.36749277 0.35883257 0.5540836 0.23969132
0.3738445 0.50460327 0.16326022 0.31789133 -0.016949996 -0.387316 -0.11916189 -0.2020302
-0.22804065 0.26282316 0.32269067 0.28830898 -0.44745284 -0.07786312 -0.017752752 -0.11453546
-0.009464679 -0.10825971 -0.12891872 -0.3397712 -0.36069384 -0.29698887 -0.21074715 -0.37833166
-0.4753514 -0.15573262 -0.012327138 -0.034542464 -0.4532765 -0.1402025 0.3091052 0.28810808
-0.007094969 -0.29700726 -0.0697811 -0.058072735 0.04009358 -0.11141219 -0.07754812 0.2560294
-0.54206973 -0.33474517 0.68005913 0.38924518 0.36773792 -0.5201407 0.29865324 0.8525604
0.6867106 0.1142107 0.2579409 0.560011 0.42595008 -0.044082012 -0.055806823 -0.15983188
-0.32595694 -0.064816654 -0.58159244 -0.1490452 -0.56378984 -0.14926162 0.956655 0.67406917
-0.12848377 0.3484623 0.6960925 -0.4210311 -0.19963463 -0.06270759 -0.22215143 -0.54916334
-0.17960805 -0.15644698 -0.12530766 -0.01650065 -0.0058353823 0.023797465 0.03595815 0.12560362
0.03631321 0.010388158 -0.13255161 -0.13233376 0.02779305 -0.043890122 -0.045548134 0.073316425
00000000: c158 1abf f965 1ebf dd2e 94be a0ca afbe
00000010: 407f 43bf 331a c1be 0e20 dc3e 3ca2 8dbc
00000020: 926c c6be 3eb6 11bf e187 44bd cc0f 8b3c
00000030: 04f4 223f 2786 ae3e b18b 9e3e 2130 223f
00000040: 5986 bfbe d367 76be b65a 1ebd c48f 393e
00000050: 6e63 0fbf 6d34 97be 75f4 0d3f 3321 d93e
00000060: 4501 36be e5bc d9be 4062 f03d ea88 8ebc
00000070: dcec 69be 498d 8bbe 8f01 afbd fb57 b83d
00000080: 7c99 42bf 6a53 59bf 9311 2bbe b966 bcbe
00000090: a300 37be f257 5ebf 7fa4 5a3e ae3f 403f
000000a0: 0368 613f bbca f7be a738 43bc 7b96 623f
000000b0: 703f 303f 233b 05bf 2843 49bf c7bc dd3e
000000c0: 8606 e2bb ceae 0cbd 2071 b6bc ab81 babb
000000d0: 76fa 403c 059c 30bd 8708 393d 053e cd3c
000000e0: b383 24bd 2c36 81bd 0617 20bd 69bc ce3d
000000f0: e972 183c 1341 fd3d 4a12 233d 8491 2ebc
00000100: 3333 99be 1663 69be 66ee ae3d 4da7 0e3c
00000110: 8232 88bd d64b 42bd c6cf d63d bd63 4cbd
00000120: 7e68 f1bd cae8 09be f0f8 0abe c122 9e3e
00000130: 64ab 34bd 8391 9dbe b678 5cbc acbc 833d
00000140: 485b c6bd 4644 97bd 31c9 21bd 0416 18bd
00000150: e72f c2bd 7ed9 95bd 895f 5fbd 9ae0 95bd
00000160: def6 34be a5e1 bd3b 2303 adbd 1e66 093d
00000170: 0487 34be a105 54bc 6f0a 9ebd 1a43 cbbd
00000180: 1e58 12bf d9b0 3d3f d2e2 b83e d32f 613d
00000190: ab5d 91bf 9e92 483d 80d3 59be 50c8 b6be
000001a0: 0bc4 85bf c1ac 07be fe66 29be ab26 25be
000001b0: 219f 2dbf 90f6 1dbe 8637 e13e 08c7 88be
000001c0: 824b 7cbd f7f4 84bd 4b1b abbd b96d d0bd
000001d0: 99c6 16be 5c02 0ebe 8605 85bd 0755 193b
000001e0: eddc 8cbe 8663 61be dd67 7ebe 8636 3abe
000001f0: ff73 c8bd caaa 23be 3282 8dbe b5aa 28be
00000200: 8d5c 93be 44a5 bfbc 197e 16be 96da cabe
00000210: 228c 2bbf 0716 1ebf 9681 b4be e927 463c
00000220: 3381 07bf af01 99bf 064e 60bc 7640 34bf
00000230: 3eb2 693d cc00 54bf f021 a3be e1d1 76bf
00000240: 36dd 1abe 63c8 04be c0d5 e3bd 6fc4 d2bc
00000250: d0b4 35bd f430 e9bd be88 96bd 4a2f ee3d
00000260: db4b 25b9 e9ab 30bd 6820 dabd ef30 bfbc
00000270: bd94 933d 69c8 e2bc 77b5 94bd 3bab e1bc
00000280: 7a6c eebe d48d adbe 4bd6 263d 18cf c53d
00000290: 0328 bc3e e7b8 b73e 6cd8 0d3f a471 753e
000002a0: 8c68 bf3e ae2d 013f b02d 273e a7c2 a23e
000002b0: b8da 8abc 484e c6be 260b f4bd 01e1 4ebe
000002c0: 7d83 69be c290 863e b637 a53e 3c9d 933e
000002d0: 8a18 e5be b376 9fbd 386e 91bc 9191 eabd
000002e0: be11 1bbc 44b7 ddbd 4503 04be 7ef6 adbe
000002f0: ddac b8be ed0e 98be 1ace 57be b0b4 c1be
00000300: 4261 f3be 5f78 1fbe c4f7 49bc 667c 0dbd
00000310: db13 e8be 3f91 0fbe 0943 9e3e e782 933e
00000320: ea7c e8bb 5611 98be 65e9 8ebd addd 6dbd
00000330: 2a39 243d 132c e4bd 8cd1 9ebd 4916 833e
00000340: 15c5 0abf b863 abbe 5b18 2e3f 254b c73e
00000350: 2548 bc3e f127 05bf 14e9 983e 6641 5a3f
00000360: 44cc 2f3f 4de7 e93d d410 843e e25c 0f3f
00000370: 2116 da3e 578f 34bd b295 64bd f8aa 23be
00000380: d4e3 a6be 98be 84bd 3ee3 14bf 4e9f 18be
00000390: 8854 10bf 0ad8 18be 58e7 743f cc8f 2c3f
000003a0: 4091 03be a769 b23e 1e33 323f 6391 d7be
000003b0: 056d 4cbe d66c 80bd aa7b 63be f895 0cbf
000003c0: 2ceb 37be a333 20be a750 00be 5f2c 87bc
000003d0: bc36 bfbb e7f2 c23c da48 133d 3c9e 003e
000003e0: 29bd 143d 1833 2a3c 9cbb 07be 8082 07be
000003f0: 40ae e33c 21c6 33bd ae90 3abd ec26 963d

conv2.bias f4 [32]
-0.028694382 -0.07181174 -0.07516587 -0.024080401 -0.30979204 -0.00040514313 -0.36796448 -0.012265587
-0.041978788 0.008753091 -0.15541232 -0.31067958 -0.16250856 0.035155725 0.049732633 -0.24647966
-0.12607647 -0.119147845 -0.12459705 -0.050590932 -0.07442825 0.34272128 -0.08051673 -0.112290375
-0.14909033 -0.11868641 -0.17165183 -0.03782559 -0.06481848 -0.35248148 -0.3486924 -0.16394247
00000000: 7b10 ebbc 0912 93bd 90f0 99bd 4344 c5bc
00000010: 109d 9ebe 6469 d4b9 d765 bcbe 9af5 48bc
00000020: f3f1 2bbd 2069 0f3c 6824 1fbe 6511 9fbe
00000030: a568 26be 73ff 0f3d 72b4 4b3d 2a65 7cbe
00000040: 311a 01be c903 f4bd bd2c ffbd 7038 4fbd
00000050: d76d 98bd 2a79 af3e f5e5 a4bd 7ff8 e5bd
00000060: 23ab 18be dc11 f3bd 7fc5 2fbe 02ef 1abd
00000070: 8dbf 84bd 7478 b4be cf87 b2be 89e0 27be

bn2.weight f4 [32]
2.6166644 1.386733 2.7327213 1.0613213 0.39200345 0.8215729 2.7182486 0.7266767
2.2696743 0.48624918 1.923141 2.7014945 2.2041128 2.3259754 2.1037068 2.8077116
2.399269 1.6247978 3.0964808 2.0289426 -1.010209 1.1126643 2.517923 1.4190384
2.875234 1.9388587 1.8357779 2.674023 2.501523 3.001258 3.4539857 2.6642418
00000000: 6e77 2740 7880 b13f e8e4 2e40 60d9 873f
00000010: adb4 c83e 9a52 523f c9f7 2d40 7c07 3a3f
00000020: 5842 1140 a7f5 f83e 7c29 f63f 49e5 2c40
00000030: 2f10 0d40 c8dc 1440 22a3 0640 8cb1 3340
00000040: a08d 1940 60f9 cf3f be2c 4640 32da 0140
00000050: 874e 81bf c96b 8e3f a725 2140 0da3 b53f
00000060: d503 3840 862c f83f c5fa ea3f 3123 2b40
00000070: f418 2040 9c14 4040 1a0e 5d40 f082 2a40

bn2.bias f4 [32]
2.8497734 -4.637698 -1.7761366 0.6962742 -0.8795409 0.06746503 0.087567784 -1.3722895
-1.5221156 -2.3561332 -1.3950286 -0.25931853 2.3225229 3.4457467 -1.171232 1.0854194
0.074104704 -2.6021423 -2.4847305 0.3839221 -4.279793 -2.8945715 -0.38285443 -1.278337
1.3816365 -3.1962547 3.2566292 1.9421986 -2.9304128 -3.483373 -5.846512 -1.9364277
00000000: b062 3640 0668 94c0 7258 e3bf 073f 323f
00000010: 9829 61bf 1b2b 8a3d bd56 b33d 2fa7 afbf
00000020: afd4 c2bf e3ca 16c0 4c90 b2bf 66c5 84be
00000030: 37a4 1440 1d87 5c40 eeea 95bf 06ef 8a3f
00000040: 35c4 973d 8089 26c0 d305 1fc0 7091 c43e
00000050: 10f4 88c0 a940 39c0 7f05 c4be 8ca0 a3bf
00000060: 77d9 b03f 708f 4cc0 9d6c 5040 f799 f83f
00000070: e28b 3bc0 95ef 5ec0 a016 bbc0 dddc f7bf

bn2.running_mean f4 [32]
12.631488 56.79786 24.056583 13.9172535 45.12176 28.095314 19.000044 10.969584
19.747824 22.930632 76.17552 36.139652 25.02823 41.382854 20.022858 67.80132
26.73722 15.13704 37.262215 25.92048 20.147923 161.0562 24.824703 38.26479
7.1647415 21.312475 37.66184 56.427135 17.53886 17.75826 23.471165 26.839417
00000000: 931a 4a41 0231 6342 e273 c041 12ad 5e41
00000010: af7c 3442 34c3 e041 1700 9841 6b83 2f41
00000020: 8bfb 9d41 ef71 b741 de59 9842 018f 1042
00000030: d139 c841 0b88 2542 d02e a041 479a 8742
00000040: d4e5 d541 5131 7241 820c 1542 255d cf41
00000050: f22e a141 630e 2143 fe98 c641 250f 1942
00000060: 9045 e540 f37f aa41 b9a5 1642 63b5 6142
00000070: 964f 8c41 eb10 8e41 f2c4 bb41 20b7 d641

bn2.running_var f4 [32]
309.0615 2334.1523 1099.308 178.37686 3999.406 980.26447 517.2216 186.79688
547.7982 531.12146 5464.697 1399.6759 744.8634 1726.5778 444.08688 4868.6665
534.3929 128.98943 1694.8176 729.83936 539.5293 21614.572 556.91486 1434.3531
246.19908 1071.7303 1338.6383 1781.0988 449.52972 996.4728 1116.1807 1058.9332
00000000: df87 9a43 70e2 1145 db69 8944 7a60 3243
00000010: 7ff6 7945 ed10 7544 2f4e 0144 00cc 3a43
00000020: 16f3 0844 c6c7 0444 93c5 aa45 a1f5 ae44
00000030: 4237 3a44 7dd2 d744 1f0b de43 5525 9845
00000040: 2599 0544 4bfd 0043 2ada d344 b875 3644
00000050: e0e1 0644 25dd a846 8d3a 0b44 4d4b b344
00000060: f732 7643 5ff7 8544 6d54 a744 29a3 de44
00000070: cec3 e043 421e 7944 c885 8b44 dd5d 8444

conv3.weight f4 [64, 32, 5, 5]
-0.42883116 -0.15484941 -0.05194478 -0.039880536 -0.34927097 -0.23410535 0.069785185 -0.2706776
-0.14708374 -0.29253918 -0.22963695 0.047035087 0.10563498 0.08333054 -0.068135574 -0.26811904
-0.19089855 -0.06459618 0.022423454 -0.08732719 -0.5331253 -0.3092339 -0.03513961 0.0071946857
-0.027396025 -0.029341815 -0.2323344 0.0844259 -0.18315177 0.014455489 0.12460791 0.3155694
0.08329009 -0.13994831 -0.043505777 -0.054351076 -0.13016395 -0.08567342 0.058121156 -0.08409312
0.09705132 0.020296033 0.08812481 0.17393126 0.36513364 0.028595725 -0.31386834 -0.36604404
-0.10138979 -0.049997527 0.009601606 -0.188566 -0.0408548 0.08849522 0.10306477 -0.14532532
-0.4317763 -0.2694835 0.037014887 0.07318575 -0.13906193 -0.18734908 -0.22220616 0.008519883
-0.0034142078 -0.04608608 0.12757592 0.02628605 -0.00089797605 -0.025121737 -0.060647804 0.035884015
-0.081893586 -0.010305905 0.09640054 0.014074547 0.039414328 -0.17148906 -0.055670056 -0.08320208
0.057420373 -0.18678771 -0.10030875 -0.16195932 -0.17907974 0.040387403 -0.28322214 0.0057578417
-0.15305153 -0.22235003 -0.13045077 -0.042081445 -0.14111619 -0.15406711 -0.24201363 -0.03618974
-0.16854045 -0.16140424 -0.17937365 -0.01335786 0.14166337 0.035821274 -0.11472733 -0.14822385
0.07226378 0.057116117 -0.003784788 -0.1617788 0.15268584 -0.1280436 -0.08300201 0.23590748
0.079357356 -0.05930822 0.13397393 0.1357557 0.24108075 -0.13641465 0.106359094 -0.1561036
0.09288002 -0.049215198 -0.113975376 -0.09657629 0.17245284 0.10547825 0.012540036 -0.0251062
-0.056345012 0.14265329 -0.08020634 -0.215496 0.018263776 -0.08014593 0.10675665 -0.19450198
-0.3639462 -0.35709068 -0.105117366 0.009160687 -0.1774781 -0.2745777 -0.01217209 0.11121339
-0.013516938 0.17401199 0.10283327 -0.0018079939 0.073845975 0.15606533 -0.10255693 0.018151397
0.12886292 0.1317786 -0.010514486 -0.044527296 0.053667974 -0.018051969 0.096270934 0.16397548
0.01849979 -0.30505344 -0.17933865 -0.16397202 0.09236005 0.09549549 -0.04838467 0.023541696
-0.054656807 -0.08769344 -0.11377438 0.17509079 0.011046924 0.10647836 0.28011823 -0.14239757
-0.19947909 -0.0999784 0.060460113 0.0055346047 -0.025102101 -0.12666045 -0.1361385 -0.05285023
-0.1200083 0.11362347 -0.19174963 0.012664109 0.013624493 -0.09682771 -0.06669275 -0.12794793
0.07434955 0.16911481 0.00026039055 -0.010517841 -0.1522701 -0.17455277 -0.008679794 -0.12045403
0.21997175 0.1823292 0.06306389 0.13920285 0.12323928 0.29866916 0.010574966 0.09835413
0.499245 0.2976692 0.26386115 -0.10545472 -0.22742423 0.28979385 0.4119875 0.16194336
-0.06205271 -0.1070479 0.13359234 0.12188162 0.270958 0.24236901 0.086542524 0.2666779
0.09432552 0.16817068 0.046636987 0.034664813 0.10752631 0.09256387 0.13734944 0.09810193
-0.05534332 0.1908546 0.19231176 0.16452153 -0.03884515 0.06355732 -0.0026781862 0.1084066
0.17267388 0.11308319 0.050841358 0.116927885 0.07560388 0.13996299 0.10377319 0.019006921
0.08915373 0.13836536 0.3804686 0.2783722 -0.012154934 -0.08524946 -0.13361298 0.15395576
00000000: c28f dbbe d890 1ebe 0dc4 54bd c659 23bd
00000010: a5d3 b2be 50b9 6fbe 89eb 8e3d 4196 8abe
00000020: 1f9d 16be b2c7 95be f325 6bbe dda7 403d
00000030: 2757 d83d 34a9 aa3d aa8a 8bbd e646 89be
00000040: e97a 43be 014b 84bd 64b1 b73c 99d8 b2bd
00000050: e67a 08bf e853 9ebe 8dee 0fbd 66c1 eb3b
00000060: a16d e0bc 3f5e f0bc 12e9 6dbe 7ce7 ac3d
00000070: 238c 3bbe b7d6 6c3c 6f32 ff3d 5092 a13e
00000080: ff93 aa3d 9c4e 0fbe 1d33 32bd 3c9f 5ebd
00000090: b349 05be 8c75 afbd 7310 6e3d 0439 acbd
000000a0: d8c2 c63d de43 a63c c87a b43d 091b 323e
000000b0: ccf2 ba3e 9541 ea3c 5ab3 a0be 206a bbbe
000000c0: 73a5 cfbd 35ca 4cbd 0e50 1d3c 7217 41be
000000d0: 5d57 27bd fb3c b53d 9f13 d33d 29d0 14be
000000e0: c811 ddbe bef9 89be ec9c 173d 69e2 953d
000000f0: 4066 0ebe 70d8 3fbe 038a 63be fb96 0b3c
00000100: e7c0 5fbb c2c4 3cbd 43a3 023e d855 d73c
00000110: 2766 6bba 1acc cdbc d569 78bd 1efb 123d
00000120: d3b7 a7bd 19da 28bc a56d c53d ee98 663c
00000130: eb70 213d d49a 2fbe 4906 64bd da65 aabd
00000140: a031 6b3d 4745 3fbe ad6e cdbd aad8 25be
00000150: ae60 37be 436d 253d 7e02 91be 47ac bc3b
00000160: 8ab9 1cbe baaf 63be e394 05be 985d 2cbd
00000170: c380 10be c5c3 1dbe 6cd2 77be b13b 14bd
00000180: de95 2cbe 2747 25be baad 37be edda 5abc
00000190: 3410 113e 54b9 123d 2af6 eabd fec7 17be
000001a0: 08ff 933d 97f2 693d 350a 78bb 57a9 25be
000001b0: ad59 1c3e dd1d 03be f5fc a9bd bb91 713e
000001c0: 1c86 a23d 2ded 72bd 7630 093e 8b03 0b3e
000001d0: dfdd 763e 48b0 0bbe ccd2 d93d 9fd9 1fbe
000001e0: e137 be3d e095 49bd ec6b e9bd cac9 c5bd
000001f0: 7a97 303e fb04 d83d b974 4d3c 84ab cdbc
00000200: 07ca 66bd b413 123e 3943 a4bd fcaa 5cbe
00000210: ea9d 953c 8d23 a4bd 3ba3 da3d 872b 47be
00000220: 2857 babe 97d4 b6be c647 d7bd b516 163c
00000230: d2bc 35be 7395 8cbe 726d 47bc d9c3 e33d
00000240: 2676 5dbc 3330 323e 409a d23d 35fa ecba
00000250: 8f3c 973d 97cf 1f3e 5e09 d2bd 3db2 943c
00000260: a4f4 033e f8f0 063e f344 2cbc 4162 36bd
00000270: f3d2 5b3d b9e1 93bc b229 c53d 30e9 273e
00000280: df8c 973c f72f 9cbe 8da4 37be 48e8 27be
00000290: 4427 bd3d 2493 c33d 012f 46bd 84da c03c
000002a0: d1df 5fbd 9e98 b3bd 8b02 e9bd 004b 333e
000002b0: 28fe 343c 5411 da3d a86b 8f3e abd0 11be
000002c0: 3f44 4cbe 7ac1 ccbd 06a5 773d a15b b53b
000002d0: eca2 cdbc 47b3 01be e467 0bbe 7c79 58bd
000002e0: e9c6 f5bd 6cb3 e83d 045a 44be 1f7d 4f3c
000002f0: 4439 5f3c 9b4d c6bd 3596 88bd c804 03be
00000300: 9444 983d 6f2c 2d3e 0785 8839 0653 2cbc
00000310: b1ec 1bbe f6bd 32be b235 0ebc 9ab0 f6bd
00000320: 4640 613e 81b4 3a3e a427 813d 318b 0e3e
00000330: e064 fc3d 2aeb 983e 9f42 2d3c e46d c93d
00000340: 0a9d ff3e 1968 983e cf18 873e a5f8 d7bd
00000350: e6e1 68be dc5f 943e 07f0 d23e 7bd4 253e
00000360: fc2a 7ebd ee3b dbbd 6ecc 083e 129d f93d
00000370: 02bb 8a3e 952f 783e 353d b13d 018a 883e
00000380: bd2d c13d ef34 2c3e 6d06 3f3d b1fc 0d3d
00000390: c136 dc3d 2092 bd3d 55a5 0c3e aae9 c83d
000003a0: adaf 62bd 636f 433e 60ed 443e 5578 283e
000003b0: 181c 1fbd 572a 823d 8284 2fbb 4804 de3d
000003c0: 6cd1 303e 2998 e73d 073f 503d e377 ef3d
000003d0: 35d6 9a3d 7552 0f3e 0a87 d43d 67b4 9b3c
000003e0: 3b96 b63d a6af 0d3e c8cc c23e cd86 8e3e
000003f0: 7d25 47bc 4597 aebd d7d1 08be 94a6 1d3e

conv3.bias f4 [64]
-0.07084744 0.086560905 0.05148241 -0.1386257 0.26177344 0.013861947 0.16139552 0.16440858
0.07687851 0.046309028 0.16590282 -0.08105338 0.04390324 0.022702267 0.105027765 0.22217923
0.01942506 0.07963242 -0.07163198 -0.5809949 -0.5828103 0.077508144 0.0056906864 -0.20140477
0.03818712 0.0022937336 0.06243017 0.049404427 0.11283336 -0.034239896 -0.19068725 0.07598486
0.10986535 0.06507744 -0.0993246 -0.42960802 -0.07237332 -0.4224117 0.30487904 -0.6910537
-0.14655428 -0.11382135 -0.0033669143 0.08812665 0.14569493 0.03570749 -0.8405554 -0.13083614
-0.04787953 -0.05382323 -0.6795659 -0.7585159 0.052892223 0.066418774 -0.15986632 -0.05868462
-1.0537189 -0.04159086 0.5751553 0.16902177 0.15276675 -0.07502328 0.052456073 0.12819736
00000000: 7618 91bd d846 b13d 38df 523d e5f3 0dbe
00000010: 2b07 863e 381d 633c de44 253e b95a 283e
00000020: 7b72 9d3d 89ae 3d3d 6ee2 293e 51ff a5bd
00000030: e2d3 333d 1bfa b93c cc18 d73d f482 633e
00000040: 4e21 9f3c 5216 a33d cab3 92bd 15bc 14bf
00000050: 0e33 15bf 97bc 9e3d f078 ba3b 0d3d 4ebe
00000060: 196a 1c3d 7752 163b c7b6 7f3d 4c5c 4a3d
00000070: 2d15 e73d 223f 0cbd 8543 43be f39d 9b3d
00000080: 1601 e13d 5247 853d b26a cbbd 95f5 dbbe
00000090: 7738 94bd 5946 d8be 1b19 9c3e e5e8 30bf
000000a0: 5312 16be 2b1b e9bd 73a7 5cbb bf7b b43d
000000b0: 0d31 153e 0442 123d a42e 57bf e9f9 05be
000000c0: 531d 44bd bf75 5cbd 08f8 2dbf 192e 42bf
000000d0: 84a5 583d 9106 883d ffb3 23be 495f 70bd
000000e0: 43e0 86bf 2d5b 2abd 613d 133f 0b14 2d3e
000000f0: e36e 1c3e cea5 99bd 2edc 563d 2b46 033e

bn3.weight f4 [64]
1.0241355 0.5895254 1.9242154 0.82699573 1.3331399 1.7910358 1.1457886 0.9472197
1.6137526 1.4811817 0.8496398 0.9359272 2.0011728 1.7851263 1.9821676 0.8370168
1.4572752 1.3636855 1.7181153 0.9686144 0.9875238 0.917531 2.0328214 1.0851028
1.7712873 1.938283 1.7471609 1.8390703 1.7795188 1.9287316 0.96765065 1.8054672
1.5056176 1.0398042 0.8697854 1.0437783 1.3371394 0.76646125 0.62106895 0.6746904
1.4238459 0.6840192 1.4753399 1.9335248 1.0680345 1.4788374 0.80221635 0.9562441
1.4373832 0.97714484 1.185721 0.7018907 1.8940412 1.7104392 0.7753201 1.7067841
0.63774127 1.3297257 1.1869154 0.9297556 1.6861552 1.5241728 1.5413458 1.4875404
00000000: df16 833f 23eb 163f b14c f63f feb5 533f
00000010: 54a4 aa3f a940 e53f 33a9 923f fe7c 723f
00000020: 728f ce3f 5d97 bd3f fe81 593f ed98 6f3f
00000030: 3713 0040 057f e43f abb7 fd3f bc46 563f
00000040: fe87 ba3f 3f8d ae3f 34eb db3f 1df7 773f
00000050: 5cce 7c3f 50e3 6a3f bf19 0240 a6e4 8a3f
00000060: 8bb9 e23f a819 f83f f8a2 df3f a866 eb3f
00000070: 46c7 e33f ade0 f63f f4b7 773f 8d19 e73f
00000080: 14b8 c03f 4e18 853f 42aa 5e3f 879a 853f
00000090: 6227 ab3f ce36 443f 60fe 1e3f 83b8 2c3f
000000a0: 9540 b63f e21b 2f3f f0d7 bc3f be7d f73f
000000b0: 5bb5 883f 8b4a bd3f 0d5e 4d3f 6acc 743f
000000c0: 2cfc b73f 2a26 7a3f b5c5 973f 1caf 333f
000000d0: f16f f23f acef da3f 617b 463f e777 da3f
000000e0: 0343 233f 7434 aa3f d8ec 973f 7704 6e3f
000000f0: efd3 d73f 1818 c33f d24a c53f b967 be3f

bn3.bias f4 [64]
-0.011124413 0.024289332 -0.11481267 -0.7149686 -0.120087475 -0.2638711 0.17699265 -0.372523
0.0434677 -0.5607384 -0.5867778 -0.029722841 0.4595146 -0.4230976 0.37400156 0.3723369
-0.5050176 0.6522204 0.15839516 -0.2839502 -0.29945183 -0.6533678 0.60548824 -0.45039627
0.24555762 -0.3813077 0.23517369 0.36202767 -0.12477167 0.1390021 -0.31525433 0.23235436
-0.11848553 0.244304 -0.47354546 0.0833505 -0.098082595 -0.5938244 0.10593865 0.07521375
-0.7291991 -0.1623604 0.12982915 0.34150818 0.20088883 0.26226333 0.26800033 0.04249717
-0.43660632 0.32546487 0.53194225 -0.34873775 0.14281514 0.080775104 -0.20199232 -0.42973152
-0.014065748 -0.40883112 -0.318833 -0.15127204 0.015743325 -0.12510991 -0.94006884 0.26522684
00000000: 2c43 36bc 6cfa c63c e822 ebbd 2f08 37bf
00000010: 6cf0 f5bd 1d1a 87be 903d 353e 56bb bebe
00000020: 300b 323d 8d8c 0fbf 1237 16bf 517d f3bc
00000030: 7f45 eb3e 40a0 d8be 227d bf3e f1a2 be3e
00000040: d548 01bf ebf7 263f 5732 223e ec61 91be
00000050: c051 99be 1d43 27bf 4701 1b3f 579a e6be
00000060: 7573 7b3e c33a c3be 5fd1 703e b15b b93e
00000070: 4a88 ffbd 9156 0e3e 0469 a1be 4dee 6d3e
00000080: 8ba8 f2bd d42a 7a3e 8d74 f2be abb3 aa3d
00000090: 87df c8bd e004 18bf 5df6 d83d ab09 9a3d
000000a0: cbac 3abf ce41 26be eff1 043e 29da ae3e
000000b0: cdb5 4d3e 6147 863e 5737 893e 8311 2e3d
000000c0: dd8a dfbe 55a3 a63e 5e2d 083f c18d b2be
000000d0: 223e 123e 6b6d a53d 13d7 4ebe c505 dcbe
000000e0: 0674 66bc 5052 d1be 143e a3be 0fe7 1abe
000000f0: 25f8 803c d01c 00be 5aa8 70bf d0cb 873e

bn3.running_mean f4 [64]
6e-45 6e-45 33.032593 6e-45 257.76727 85.34169 86.96452 3.7564932e-05
25.065514 27.61964 6e-45 6e-45 38.101105 35.017143 33.531002 319.246
34.88656 62.206444 33.678234 56.433807 8.442689e-06 6e-45 28.57226 1.6618475e-05
43.514427 58.70916 21.36248 31.053684 97.41889 95.25947 6e-45 28.884777
88.5271 6e-45 6e-45 6e-45 24.952522 6e-45 1263.7156 6e-45
6e-45 6e-45 6e-45 27.288258 156.33669 109.089554 0.25313824 6e-45
6e-45 6e-45 39.368576 290.06247 26.184246 47.7674 6e-45 6e-45
0.0015605116 31.606043 2808.383 76.636406 143.50926 6e-45 115.48673 0.0012063459
00000000: 0400 0000 0400 0000 6021 0442 0400 0000
00000010: 36e2 8043 f2ae aa42 d6ed ad42 0a8f 1d38
00000020: 2c86 c841 06f5 dc41 0400 0000 0400 0000
00000030: 8867 1842 8e11 0c42 bf1f 0642 7d9f 9f43
00000040: d68b 0b42 66d3 7842 83b6 0642 38bc 6142
00000050: 13a5 0d37 0400 0000 fd93 e441 e767 8b37
00000060: c60e 2e42 2ed6 6a42 5ce6 aa41 f26d f841
00000070: 79d6 c242 d984 be42 0400 0000 0614 e741
00000080: e00d b142 0400 0000 0400 0000 0400 0000
00000090: c49e c741 0400 0000 e6f6 9d44 0400 0000
000000a0: 0400 0000 0400 0000 0400 0000 5a4e da41
000000b0: 3156 1c43 da2d da42 569b 813e 0400 0000
000000c0: 0400 0000 0400 0000 6c79 1d42 ff07 9143
000000d0: 5679 d141 d111 3f42 0400 0000 0400 0000
000000e0: 158a cc3a 2dd9 fc41 2186 2f45 d745 9942
000000f0: 5f82 0f43 0400 0000 35f9 e642 401e 9e3a

bn3.running_var f4 [64]
6e-45 6e-45 592.4555 6e-45 1656.8221 570.4858 1916.0254 0.0001582871
665.3857 400.0648 6e-45 6e-45 1337.8278 825.15875 726.95 1903.4879
347.4469 452.41504 446.90842 2939.9082 4.2767355e-05 6e-45 517.2599 4.749497e-05
723.5343 535.42163 449.9634 460.3452 949.7024 890.1782 6e-45 798.9925
465.71408 6e-45 6e-45 6e-45 66.82454 6e-45 21474.697 6e-45
6e-45 6e-45 6e-45 523.46893 7426.9653 478.85394 28.159473 6e-45
6e-45 6e-45 3754.992 12401.943 563.9457 487.16425 6e-45 6e-45
0.069041476 621.1502 88400.8 1145.0024 1769.7375 6e-45 658.92633 0.011751517
00000000: 0400 0000 0400 0000 271d 1444 0400 0000
00000010: 4f1a cf44 179f 0e44 d080 ef44 dff9 2539
00000020: af58 2644 4b08 c843 0400 0000 0400 0000
00000030: 7d3a a744 294a 4e44 cdbc 3544 9def ed44
00000040: 34b9 ad43 2035 e243 4774 df43 88be 3745
00000050: 1961 3338 0400 0000 a250 0144 5635 4738
00000060: 32e2 3444 fcda 0544 51fb e043 302c e643
00000070: f46c 6d44 688b 5e44 0400 0000 85bf 4744
00000080: 67db e843 0400 0000 0400 0000 0400 0000
00000090: 2aa6 8542 0400 0000 65c5 a746 0400 0000
000000a0: 0400 0000 0400 0000 0400 0000 03de 0244
000000b0: b917 e845 4e6d ef43 9a46 e141 0400 0000
000000c0: 0400 0000 0400 0000 dfaf 6a45 c6c7 4146
000000d0: 86fc 0c44 0695 f343 0400 0000 0400 0000
000000e0: 9e65 8d3d 9d49 1b44 66a8 ac47 1420 8f44
000000f0: 9a37 dd44 0400 0000 49bb 2444 6f89 403c

fc1.weight f4 [256, 64]
0.19101848 0.050502993 0.057305716 -0.07408508 0.1191301 0.022827491 0.105643556 0.0029377122
0.17522547 -0.15489945 0.045748122 -0.006650173 0.4302192 -0.11219584 0.0055062184 0.287265
-0.01384423 0.02618514 0.037946206 -0.115047716 -0.11765153 0.28176704 -0.013705575 -0.05212806
-0.19606005 0.25745 -0.04402464 0.26940197 0.30997473 -0.37915343 0.005156302 -0.042832125
0.03194481 0.11264211 -0.043323115 -0.27853635 -0.057667244 0.061820753 0.07761421 -0.06430491
0.030437136 0.04192287 0.10814021 0.3076941 0.15153265 -0.22626138 0.16127737 0.037289735
0.08848777 0.11082362 -0.095443726 0.017460838 0.29909575 0.44865265 0.09351266 0.4059691
-0.104450844 0.1353204 1.0760986 -0.1737555 0.04991633 0.2641657 -0.07997141 -0.11479131
0.05621458 0.116891675 -0.12316941 0.053789206 -0.14148113 0.14997219 0.1388823 0.20662566
0.08361094 0.0627272 0.2742367 -0.009153454 -0.81675345 -0.37880185 -0.06667378 0.11331655
0.20808221 0.40213415 0.09334669 -0.06456493 0.12010191 -0.059484553 -0.63337034 -0.11514883
-0.055432104 -0.57480496 -0.10624242 -0.15123321 -0.031796847 0.2124607 -0.09950796 -0.38254398
-0.13423042 -0.02780493 0.14713965 0.044851 0.015451758 0.1413939 0.27592137 0.081328824
0.15247852 -0.02901088 0.13012895 0.40858585 -0.048879705 -0.12022731 -0.36299232 0.09421836
0.45642376 -0.079159215 -0.20805003 -0.32082254 -0.3702415 -0.42512202 0.037665825 -0.103232145
-0.07206013 0.082373284 -0.32595333 -0.17546998 0.18171094 -0.11317145 -0.3697301 -0.13365234
0.23118307 0.14422809 0.03389382 0.03744572 0.36521694 0.34140182 0.17815775 0.3739316
-0.2945297 -0.012753227 -0.03014955 -0.011412364 -0.13334762 -0.2785246 0.49782625 -0.4596086
-0.12061004 -0.69867337 -0.43650538 -0.15088892 0.028426409 -0.31351286 0.15269004 -0.11293424
0.019608555 -0.24969848 -0.13201137 0.07075631 0.24611738 0.21776447 0.10091193 0.28237653
0.03915446 -0.020705305 -0.10709382 0.17558694 -0.033009063 -0.06410671 -0.12948608 -0.103248775
-0.17519252 -0.038179282 0.1669177 0.80635786 0.033071697 -0.15921381 0.18609303 0.085701756
0.118047714 -0.06330122 0.24075289 -0.34573877 -0.40702102 0.45576265 -0.084134564 -0.086412355
0.0094163995 -0.69052035 0.22299932 0.19325598 -0.11756617 -0.39154974 -0.09335642 -0.16092822
0.12099279 0.13182065 -0.3119559 -0.04271904 0.06984698 0.5473897 -0.031052839 0.15339524
-0.18330082 0.2760123 -0.17011873 -0.023601772 0.36039892 0.057950597 -0.45133314 -0.26811254
0.32129332 -0.08760087 -0.14083454 0.08747319 -0.06012583 -0.19618225 -0.7084984 0.13626118
0.35809734 0.13065428 0.28162017 -0.12543625 0.051327154 0.006739595 -0.18096751 -0.21939878
0.09436803 -0.097991645 0.061006315 -0.526471 0.105593294 -0.070210405 -0.01775872 -0.06347551
-0.33679587 -0.054826885 0.057603933 -0.095791444 -0.21555236 -0.10211212 0.118986174 -0.19721511
-0.361577 -0.094528005 -0.26320434 -0.2139382 -0.7962597 0.5694651 0.03659672 -0.19400625
-0.017222993 -0.44051304 0.5129494 0.20945686 -0.2815671 0.12861907 0.1097329 0.21082217
00000000: 599a 433e 3adc 4e3d 66b9 6a3d ebb9 97bd
00000010: 7bfa f33d b800 bb3c a65b d83d a286 403b
00000020: 4e6e 333e f69d 1ebe 6262 3b3d b2e9 d9bb
00000030: b145 dc3e efc6 e5bd 826d b43b 6614 933e
00000040: e9d2 62bc 3882 d63c 7b6d 1b3d 239e ebbd
00000050: 49f3 f0bd c543 903e 598d 60bc 3c84 55bd
00000060: f7c3 48be 7dd0 833e 2e53 34bd 0eef 893e
00000070: 02b5 9e3e 6620 c2be 32f6 a83b bd70 2fbd
00000080: 90d8 023d e8b0 e63d 9473 31bd 519c 8ebe
00000090: 7d34 6cbd c237 7d3d 33f4 9e3d 4bb2 83bd
000000a0: 4d57 f93c 51b7 2b3d 9d78 dd3d 158a 9d3e
000000b0: 602b 1b3e 10b1 67be e525 253e 1fbd 183d
000000c0: 1339 b53d 7ef7 e23d 0078 c3bd 080a 8f3c
000000d0: 1423 993e cdb5 e53e 9183 bf3d 2fdb cf3e
000000e0: 53ea d5bd 6e91 0a3e 99bd 893f f6ec 31be
000000f0: 1175 4c3d ba40 873e 0dc8 a3bd b517 ebbd
00000100: 4241 663d e764 ef3d 3e40 fcbd 1252 5c3d
00000110: 6ee0 10be 4f92 193e 2937 0e3e ad95 533e
00000120: 363c ab3d 1e77 803d c168 8c3e 5ef8 15bc
00000130: c116 51bf 51f2 c1be 438c 88bd 8212 e83d
00000140: 8113 553e 87e4 cd3e 8d2c bf3d 9e3a 84bd
00000150: fdf7 f53d 13a6 73bd 8f24 22bf 26d3 ebbd
00000160: c60c 63bd 6b26 13bf a095 d9bd e1dc 1abe
00000170: 693d 02bd 4c8f 593e d4ca cbbd cedc c3be
00000180: b373 09be 2ac7 e3bc c7ab 163e afb5 373d
00000190: 5f29 7d3c 90c9 103e 9145 8d3e ba8f a63d
000001a0: 5423 1c3e 3aa8 edbc 8640 053e 2a32 d13e
000001b0: 1636 48bd bc39 f6bd 21da b9be 8ef5 c03d
000001c0: 60b0 e93e 3a1e a2bd 110b 55be da42 a4be
000001d0: 4b90 bdbe 98a9 d9be 7b47 1a3d 606b d3bd
000001e0: 4394 93bd 53b3 a83d 5be3 a6be 67ae 33be
000001f0: 6f12 3a3e 6fc6 e7bd 434d bdbe 29dc 08be
00000200: 41bb 6c3e 87b0 133e 3fd4 0a3d af60 193d
00000210: b7fd ba3e 38cc ae3e fc6e 363e f673 bf3e
00000220: 99cc 96be e9f2 50bc 30fc f6bc edfa 3abc
00000230: 478c 08be c79a 8ebe 15e3 fe3e d251 ebbe
00000240: 6602 f7bd 42dc 32bf a27d dfbe a082 1abe
00000250: 80de e83c c284 a0be c75a 1c3e 114a e7bd
00000260: 1fa2 a03c f5b0 7fbe fd2d 07be afe8 903d
00000270: 3206 7c3e a6fd 5e3e eaaa ce3d a893 903e
00000280: 6d60 203d 2c9e a9bc 0154 dbbd 10cd 333e
00000290: 8334 07bd 614a 83bd 0098 04be 1874 d3bd
000002a0: ab65 33be e161 1cbd 79ec 2a3e 786d 4e3f
000002b0: 3076 073d f208 23be 2c8f 3e3e 6784 af3d
000002c0: 00c3 f13d 12a4 81bd ed87 763e ac04 b1be
000002d0: 0f65 d0be b959 e93e be4e acbd f6f8 b0bd
000002e0: 3e47 1a3c f1c5 30bf ef59 643e e5e4 453e
000002f0: 88c6 f0bd 3579 c8be a731 bfbd 5eca 24be
00000300: 11cb f73d fefb 063e afb8 9fbe 29fa 2ebd
00000310: ef0b 8f3d bb21 0c3f 8662 febc a413 1d3e
00000320: 36b3 3bbe 7c51 8d3e 9b33 2ebe 8158 c1bc
00000330: 3586 b83e 9b5d 6d3d 2315 e7be 0c46 89be
00000340: 8f80 a43e 1668 b3bd ee36 10be 2525 b33d
00000350: 8146 76bd 00e4 48be 2760 35bf 0d88 0b3e
00000360: 8958 b73e 3cca 053e 8530 903e 5c72 00be
00000370: 6c3c 523d d2d7 dc3b 8c4f 39be 13aa 60be
00000380: 0744 c13d d8af c8bd c2e1 793d cec6 06bf
00000390: 4c41 d83d 79ca 8fbd bc7a 91bc 73ff 81bd
000003a0: 8270 acbe 2892 60bd 1af2 6b3d 4e2e c4bd
000003b0: c2b9 5cbe 2920 d1bd 06af f33d c2f2 49be
000003c0: 9f20 b9be e697 c1bd b8c2 86be 9e12 5bbe
000003d0: add7 4bbf 77c8 113f 71e6 153d 93a9 46be
000003e0: 3c17 8dbc ed8a e1be a750 033f dc7b 563e
000003f0: 9029 90be b8b4 033e a5bb e03d c4e1 573e

fc1.bias f4 [256]
-0.04739642 -0.072372824 0.13240999 -0.12234534 0.036302023 -0.25451183 0.13831906 -0.04615683
0.110724665 -0.1366476 -0.20426889 -0.15001145 -0.14304535 -0.10923122 0.28397015 -0.025684495
0.101273365 -0.052041072 -0.18060157 -0.24933878 0.26604584 -0.13721009 -0.15835617 -0.16298139
-0.22158001 0.17583248 0.213215 -0.015900595 0.11999552 -0.113398865 0.04294503 0.09015989
0.08771684 -0.060000803 0.15255965 -0.19636871 0.06797487 0.00961419 0.12148882 -0.2150698
-0.16092531 -0.18707882 -0.32121497 -0.09426628 -0.081715785 0.09534532 0.3297404 0.07431327
-0.3891769 -0.20341568 0.26754314 0.09221452 -0.07273297 -0.08333769 -0.057492916 0.030638635
-0.9807388 -0.08626168 -0.21237938 -0.0056394185 0.15454397 -0.18776628 -1.1015334 0.15942281
-0.16923629 -0.039351735 -0.045401692 0.3389105 -0.28749517 -0.1050423 -0.10433086 -0.0692242
-0.2536337 0.10283893 0.031725008 -0.014483729 -0.26875874 -0.06969403 -0.0008846135 -0.04922052
0.008079053 -0.20031944 0.28591686 -0.07633305 -0.046328217 -0.071752734 -0.14184128 0.109403946
0.14113785 0.007643529 -0.0182853 0.08732994 0.028906405 -0.013306432 0.16691291 -0.59110755
-0.082898594 -0.11192591 -0.45224208 -0.112431645 0.069458745 0.029219572 0.072490156 0.6230167
-0.02976712 0.0909715 -0.148379 -0.1313479 0.22782765 0.15976818 -0.13145356 -0.015775735
-0.16967173 0.18742926 -0.42456722 -0.18837075 0.015176783 -0.22477296 -0.018325761 -0.22267756
-0.061213605 -0.07973099 0.10209351 -0.08709247 -0.16345908 0.14783819 0.0018556071 -0.23591292
-0.082819276 0.10962877 0.05412976 0.108312376 -0.04630985 -0.034191206 0.2572612 0.07637123
0.09506628 0.0672411 -0.08706004 -0.4144481 -0.10437077 0.22693314 0.14898962 0.022736058
-0.011125947 0.015356742 -0.14442872 -0.16041048 0.0045683244 -0.08626988 -0.37229553 -0.029625176
-0.25217637 -0.32112688 -0.0057098544 -0.17019089 -0.34309182 -0.15969618 -0.018012818 -0.07399146
0.088795945 -0.12311628 0.016157186 0.09536878 0.2955692 -0.16907382 0.13586852 0.004172607
-0.050264128 0.1004437 -0.127555 -0.29177412 -0.28356612 -0.061223634 0.07182942 0.014934504
-0.031945087 -0.10666474 0.04172972 0.36975116 -0.32048392 0.011566701 -0.1726818 -0.19407722
0.11754494 0.027556865 -0.2893217 -0.035753205 0.10960546 -0.1853483 -0.062415306 0.06268155
0.03059291 -0.23885751 -0.6400423 -0.63035655 0.19522938 0.10857228 0.026353102 0.08390158
-0.14428784 -0.019131703 -0.031889636 -0.15294652 -0.0551647 0.1875106 -0.2775252 -0.27471
-0.25281146 -0.1546061 0.1640108 -0.1835585 0.027356582 -0.15027148 -0.06646322 -0.18656263
-0.1367443 0.096854314 -0.07072271 -0.20227785 -0.060749967 -0.32464343 -0.24805035 -0.097158864
-0.15057302 0.18975459 0.06124636 -0.23118022 0.08132983 -0.13527004 -0.028752204 0.12565754
-0.09423179 0.11273272 -0.057468843 -0.024194926 -0.14126402 -0.05447763 -0.16388735 -0.037215207
-0.03196188 -0.29550287 0.06253608 0.013708305 -0.09315462 -0.04057363 -0.07693801 -0.24388865
0.14432855 -0.21313918 -0.10399322 0.059699528 0.048707325 -0.09726073 -0.646472 0.034533367
00000000: c022 42bd 3438 94bd 7c96 073e 3290 fabd
00000010: 6eb1 143d 604f 82be 83a3 0d3e f20e 3dbd
00000020: 9dc3 e23d 59ed 0bbe dd2b 51be 9a9c 19be
00000030: 7b7a 12be 9eb4 dfbd 8964 913e 4a68 d2bc
00000040: 6968 cf3d 0529 55bd 9eef 38be aa52 7fbe
00000050: 2937 883e cd80 0cbe 1f28 22be 98e4 26be
00000060: dfe5 62be 6e0d 343e 0855 5a3e f741 82bc
00000070: 36c0 f53d aa3d e8bd 21e7 2f3d c0a5 b83d
00000080: e3a4 b33d 67c3 75bd 9938 1c3e e114 49be
00000090: 6936 8b3d d684 1d3c 21cf f83d 423b 5cbe
000000a0: 9bc9 24be 9791 3fbe 4a76 a4be ae0e c1bd
000000b0: 9b5a a7bd 6844 c33d bcd3 a83e 8e31 983d
000000c0: 3242 c7be 334c 50be 6afb 883e f7da bc3d
000000d0: 06f5 94bd f3ac aabd b17d 6bbd e0fd fa3c
000000e0: b311 7bbf f7a9 b0bd fb79 59be dfca b8bb
000000f0: c640 1e3e ce45 40be 0cff 8cbf bc3f 233e
00000100: 474c 2dbe 492f 21bd 20f7 39bd ad85 ad3e
00000110: 9132 93be 6b20 d7bd 6bab d5bd 6bc5 8dbd
00000120: 47dc 81be 389d d23d 15f2 013d 2a4d 6dbc
00000130: bf9a 89be bebb 8ebd 68e5 67ba 759b 49bd
00000140: 015e 043c 8a20 4dbe b263 923e 8154 9cbd
00000150: a8c2 3dbd 19f3 92bd d73e 11be 2d0f e03d
00000160: 7186 103e 9276 fa3b 0ecb 95bc 0ada b23d
00000170: 20cd ec3c 3903 5abc 38eb 2a3e d352 17bf
00000180: bdc6 a9bd 6939 e5bd 468c e7be 9042 e6bd
00000190: 6340 8e3d e25d ef3c b875 943d 067e 1f3f
000001a0: 2dda f3bc 444f ba3d aaf0 17be 1080 06be
000001b0: a74b 693e 459a 233e c39b 06be 1d3c 81bc
000001c0: 6dbe 2dbe 75ed 3f3e e060 d9be 43e4 40be
000001d0: 0ba8 783c e22a 66be e81f 96bc 9605 64be
000001e0: 1ebb 7abd 004a a3bd 6716 d13d 895d b2bd
000001f0: d161 27be e562 173e d837 f33a 2893 71be
00000200: 279d a9bd 0c85 e03d 2bb7 5d3d e1d2 dd3d
00000210: 66af 3dbd 140c 0cbd bdb7 833e 8568 9c3d
00000220: 1cb2 c23d b4b5 893d 894c b2bd 8b32 d4be
00000230: 58c0 d5bd 2961 683e bc90 183e f840 ba3c
00000240: 9b49 36bc d89a 7b3c 1fe5 13be a542 24be
00000250: e2b1 953b 43ae b0bd 859d bebe 7fb0 f2bc
00000260: 431d 81be be6a a4be bb19 bbbb 8546 2ebe
00000270: bba9 afbe 6587 23be 9e8f 93bc d688 97bd
00000280: a6da b53d 6324 fcbd 135c 843c b550 c33d
00000290: d954 973e b021 2dbe 1e21 0b3e 5dba 883b
000002a0: c2e1 4dbd 6db5 cd3d c79d 02be 6b63 95be
000002b0: 942f 91be a2c5 7abd 4e1b 933d daaf 743c
000002c0: dad8 02bd 0b73 dabd c8ec 2a3d 0650 bd3e
000002d0: 7816 a4be 4382 3d3c 7fd3 30be 2ebc 46be
000002e0: 67bb f03d efbe e13c f921 94be f471 12bd
000002f0: d478 e03d f2cb 3dbe 31a7 7fbd 2f5f 803d
00000300: fb9d fa3c 1097 74be d0d9 23bf 0c5f 21bf
00000310: 36ea 473e 255b de3d 76e2 d73c 97d4 ab3d
00000320: 31c0 13be 17ba 9cbc b59e 02bd 039e 1cbe
00000330: 61f4 61bd c702 403e c817 8ebe caa6 8cbe
00000340: 8170 81be 1051 1ebe 72f2 273e c2f6 3bbe
00000350: e91a e03c c4e0 19be de1d 88bd 460a 3fbe
00000360: b306 0cbe 8e5b c63d 11d7 90bd ed21 4fbe
00000370: f5d4 78bd aa37 a6be e900 7ebe 3afb c6bd
00000380: d02f 1abe 074f 423e 77dd 7a3d 82ba 6cbe
00000390: 4190 a63d 3b84 0abe be89 ebbc 5fac 003e
000003a0: 99fc c0bd 6ae0 e63d 7364 6bbd 7034 c6bc
000003b0: 84a7 10be ef23 5fbd 16d2 27be f96e 18bd
000003c0: 76ea 02bd 274c 97be eb12 803d cc98 603c
000003d0: d9c7 bebd 8930 26bd ad91 9dbd f2bd 79be
000003e0: ddca 133e 2841 5abe 66fa d4bd 7e87 743d
000003f0: 5581 473d a230 c7bd 307f 25bf dc72 0d3d

bn4.weight f4 [256]
0.71161443 0.9843863 1.1312785 0.88273436 0.8968851 1.0416973 1.0683023 0.9343222
0.7916384 0.8703613 0.72998035 0.63443714 0.642136 0.8782192 1.0846088 0.89372593
1.11701 0.6807749 0.69436556 1.0091631 0.8505239 1.1699172 0.37265316 1.0067742
1.0148433 0.83631825 0.8121224 0.9296747 1.1699852 0.70976275 0.9423536 0.96457744
0.908926 0.84900135 0.8528266 1.0927594 0.81814516 1.09083 0.88411075 0.7673552
0.7348194 0.96316886 0.67035 1.0832151 1.1698952 1.5698402 1.1168272 0.58552575
0.8730444 0.93343616 1.0627388 0.8173676 0.7105913 1.0937374 0.79244125 0.987775
0.33197987 1.1225717 1.1452653 0.8866185 0.8818566 0.98780566 0.42865255 0.9576935
1.5535214 1.1458215 0.8616251 0.6249381 1.0605035 0.82782996 0.8564367 0.8487434
0.89315015 1.099203 0.97674304 0.9825612 0.9887892 0.8964552 1.0446821 0.8931444
1.1619564 0.9386696 0.9163906 0.99157596 0.5200706 0.54783285 1.9213438 0.7672648
1.15184 0.90641946 0.75074345 0.78767407 0.8125544 0.6643533 0.9756923 0.53379637
1.3059093 0.82318854 1.0555257 0.7815947 0.9115756 0.81826556 0.5131753 0.6666692
0.7754268 1.0339657 0.890347 0.8722102 0.8617087 1.2505205 0.81051445 0.8604064
0.677233 0.99241185 0.95462406 1.0733396 0.9578735 0.87002623 0.63454324 0.74817157
0.9710436 0.8016004 0.9726831 0.8949291 1.0949085 0.992425 1.1628138 0.53306216
1.0214572 1.1825678 0.47588408 0.96349925 0.721838 0.7966186 0.567994 0.93680954
1.6009808 1.0491089 1.0079875 0.3984179 0.8817653 1.0750949 0.75601876 1.016619
0.94740444 0.76175076 0.61082965 0.6961363 0.8808175 0.66407984 1.0448387 0.8954354
0.91165984 0.8766768 0.725122 0.73931444 1.1763353 0.87724614 1.000298 0.9681987
0.7136282 1.2612883 1.0185355 0.8634956 0.84675115 0.76329255 0.85416627 1.8347195
0.9585325 1.0678496 1.1697779 0.9795266 0.98662317 0.9082665 1.0171194 1.3088815
1.0174997 0.85097605 0.8013865 0.9231101 0.31201357 1.1681644 0.964835 0.9737972
0.967226 1.0744274 0.43354473 1.0518677 0.85340124 0.83884317 0.8456304 1.0219214
0.6756437 1.05621 0.2862751 0.4001574 0.98739415 1.0847667 0.9274708 0.8726339
0.7875283 0.8529479 0.87359875 1.066361 0.8740749 0.9284266 0.67910266 1.5619795
0.96116346 1.567456 0.9711316 0.8948239 0.9797677 1.5027343 1.066163 0.9177017
1.0111573 0.86868566 0.9197775 0.9363601 0.6970867 0.528774 0.915374 0.91185045
0.9456461 0.7859919 0.91261643 0.982541 1.8597611 0.40295306 0.78322357 1.0486563
0.933684 0.6661281 0.77967954 1.0789021 0.6013359 1.0191942 0.9029458 1.029563
0.8167095 1.005834 0.8769977 0.75150853 1.6939628 0.7540562 0.94387627 0.9477053
0.99347544 0.72648525 0.9958664 0.8101342 1.0314562 0.34202728 0.55000335 0.78046906
00000000: 5d2c 363f be00 7c3f bccd 903f e1fa 613f
00000010: 439a 653f 5656 853f 21be 883f bd2f 6f3f
00000020: d0a8 4a3f 00d0 5e3f fedf 3a3f 796a 223f
00000030: 0663 243f f9d2 603f 76d4 8a3f 39cb 643f
00000040: 2ffa 8e3f 4447 2e3f f1c1 313f 422c 813f
00000050: efbb 593f d9bf 953f 65cc be3e fadd 803f
00000060: 63e6 813f f418 563f 41e7 4f3f 29ff 6d3f
00000070: 13c2 953f 03b3 353f 163e 713f 8cee 763f
00000080: 60af 683f 2758 593f d852 5a3f 8adf 8b3f
00000090: f671 513f 51a0 8b3f 1555 623f 6471 443f
000000a0: 201d 3c3f 3c92 763f 0f9c 2b3f cba6 8a3f
000000b0: 20bf 953f 86f0 c83f 32f4 8e3f 04e5 153f
000000c0: d67f 5f3f acf5 6e3f d307 883f 013f 513f
000000d0: 50e9 353f 96ff 8b3f 6edd 4a3f d3de 7c3f
000000e0: 44f9 a93e 6eb0 8f3f 0e98 923f 6ef9 623f
000000f0: 5bc1 613f d5e0 7c3f 5978 db3e 672b 753f
00000100: cad9 c63f 47aa 923f 7693 5c3f f1fb 1f3f
00000110: 94be 873f aaec 533f 703f 5b3f 3f47 593f
00000120: 7da5 643f afb2 8c3f d50b 7a3f 2189 7b3f
00000130: 4a21 7d3f 177e 653f 25b8 853f 1da5 643f
00000140: fdba 943f a74c 703f 9398 6a3f ecd7 7d3f
00000150: 5923 053f c63e 0c3f 98ee f53f 776b 443f
00000160: 7e6f 933f 1b0b 683f b930 403f 02a5 493f
00000170: 9103 503f 0f13 2a3f f8c6 793f e1a6 083f
00000180: 0928 a73f 7cbc 523f 771b 873f 9716 483f
00000190: 055d 693f da79 513f 755f 033f d5aa 2a3f
000001a0: 5f82 463f fd58 843f c8ed 633f 2b49 5f3f
000001b0: f198 5c3f 0e11 a03f e07d 4f3f 9843 5c3f
000001c0: 245f 2d3f b40e 7e3f 3e62 743f 3163 893f
000001d0: 3337 753f 0aba 5e3f 6d71 223f 2c88 3f3f
000001e0: 5096 783f af35 4d3f c201 793f 131a 653f
000001f0: f625 8c3f 910f 7e3f 15d7 943f c376 083f
00000200: 1cbf 823f 625e 973f 14a7 f33e e3a7 763f
00000210: 60ca 383f 32ef 4b3f 0e68 113f c0d2 6f3f
00000220: f0ec cc3f 3349 863f bc05 813f 6efd cb3e
00000230: 5fbb 613f b69c 893f 728a 413f 9220 823f
00000240: 1989 723f 1902 433f 555f 1c3f fd35 323f
00000250: 417d 613f 2301 2a3f 46bd 853f 413b 653f
00000260: 8a62 693f e46d 603f 98a1 393f b643 3d3f
00000270: 2892 963f 3493 603f c409 803f dfdb 773f
00000280: 56b0 363f e571 a13f 5f5f 823f 0c0e 5d3f
00000290: afc4 583f 2467 433f a4aa 5a3f 17d8 ea3f
000002a0: 6362 753f 4caf 883f 48bb 953f 41c2 7a3f
000002b0: 5693 7c3f 2784 683f f830 823f 6e89 a73f
000002c0: 6e3d 823f 91d9 593f aa27 4d3f f250 6c3f
000002d0: 3ec0 9f3e 6986 953f 6dff 763f c64a 793f
000002e0: 209c 773f d686 893f 93f9 dd3e 9aa3 863f
000002f0: 8178 5a3f 6dbe 563f 3c7b 583f 52ce 823f
00000300: fcf6 2c3f e431 873f a692 923e 6ee1 cc3e
00000310: ddc5 7c3f a3d9 8a3f ba6e 6d3f ef64 5f3f
00000320: 749b 493f cb5a 5a3f 2ba4 5f3f 847e 883f
00000330: 5fc3 5f3f 5ead 6d3f acd9 2d3f f2ee c73f
00000340: cf0e 763f 66a2 c83f 159c 783f 2e13 653f
00000350: 0ed2 7a3f 9959 c03f 0778 883f 80ee 6a3f
00000360: 9a6d 813f 2f62 5e3f 8a76 6b3f 4cb5 6f3f
00000370: 4674 323f bc5d 073f f355 6a3f 086f 693f
00000380: dd15 723f c436 493f 3ba1 693f cf87 7b3f
00000390: a70c ee3f dd4f ce3e 5781 483f 5f3a 863f
000003a0: ea05 6f3f 5f87 2a3f 1499 473f 7719 8a3f
000003b0: 26f1 193f f574 823f 7527 673f b8c8 833f
000003c0: e013 513f 2bbf 803f ec82 603f dd62 403f
000003d0: c6d3 d83f d409 413f e0a1 713f d19c 723f
000003e0: 6854 7e3f f0fa 393f 1af1 7e3f f464 4f3f
000003f0: c206 843f 331e af3e 05cd 0c3f d2cc 473f
