mini_batch_exp/models/mnist_adam_batch8_lr0.1.pt (torch_old, 968530 bytes, 62 tensors)

conv1.weight f4 [16, 1, 3, 3]
0	0x4257ba83	53.93214
1	0x428e4d1a	71.15059
2	0xc1ef597b	-29.918692
3	0x41677745	14.466619
4	0xc17459c9	-15.27192
5	0xc3077c23	-135.48491
6	0xc2674fe7	-57.82803
7	0xc2f3facb	-121.98983
8	0xc381365b	-258.42465
9	0x401d185f	2.4546125
10	0x42ab5b61	85.678474
11	0x42f19129	120.783516
12	0xc21159e7	-36.337795
13	0xc1da203a	-27.265736
14	0x41f903fe	31.12695
15	0xc3133559	-147.20839
16	0xc21353b4	-36.83174
17	0x3f3683bd	0.71294767
18	0x3e9493e6	0.29019088
19	0x42593e7e	54.311028
20	0x41b2252f	22.268156
21	0xc294ef6d	-74.46763
22	0x428058db	64.173546
23	0xc127e3ef	-10.493148
24	0xc2fa57e8	-125.17169
25	0xc2f8aa88	-124.33307
26	0xc300699c	-128.41254
27	0xbeab7541	-0.33487895
28	0xbedf0f25	-0.43566242
29	0xbeede999	-0.46467283
30	0xbf4a4650	-0.7901354
31	0xbf479909	-0.7796789
32	0xbfae12e9	-1.3599521
33	0xbf0093d1	-0.5022555
34	0xbf35c70e	-0.7100686
35	0xbf32760a	-0.69711363
36	0xc276635f	-61.597042
37	0x402c9592	2.696629
38	0x4265389a	57.305275
39	0xc2f486db	-122.26339
40	0xc2835165	-65.65897
41	0x4260612d	56.0949
42	0x4249d104	50.454117
43	0xc2e9019a	-116.50313
44	0xc282e119	-65.439644
45	0x422b10b2	42.766304
46	0x4148959e	12.536528
47	0xc278a01a	-62.15635
48	0x413b1f84	11.695194
49	0xc2fa0f08	-125.02936
50	0xc223aa25	-40.916157
51	0xc2e91f8d	-116.56162
52	0xc2041aaa	-33.02604
53	0x42bc01ea	94.00374
54	0xc1d7833d	-26.939081
55	0x41c4f6c0	24.620483
56	0xc1aa8c9b	-21.318655
57	0x40c128c5	6.0362267
58	0x42209372	40.14399
59	0xc2a477fc	-82.234344
60	0xc2dcfbcd	-110.4918
61	0x42c908c8	100.51715
62	0xc088f420	-4.2798004
63	0xc21bca46	-38.947533
64	0x40868b38	4.2044945
65	0x422ab3ab	42.675457
66	0x43008b4c	128.54413
67	0x426a0145	58.50124
68	0x41b7a163	22.953802
69	0xc257155d	-53.770863
70	0xc2d7e15d	-107.94016
71	0xc22438f1	-41.055607
72	0xbf3bbbe5	-0.7333358
73	0xbed96bc6	-0.42465037
74	0xbf976543	-1.1827778
75	0xbeee3660	-0.4652586
76	0xbea27610	-0.317307
77	0xbf950cb2	-1.1644499
78	0xbf6f8584	-0.93563104
79	0xbf5a595c	-0.852926
80	0xbe34ca6d	-0.17655344
81	0x429fc96f	79.893425
82	0xc18f58ee	-17.918423
83	0xc2c318e1	-97.54859
84	0x42567923	53.618298
85	0x42094b03	34.323254
86	0xc2da92dc	-109.286835
87	0x424c9923	51.149548
88	0xc2bc189a	-94.04805
89	0xc2abbb2a	-85.865555
90	0xc2670ed3	-57.764477
91	0xc25f6082	-55.844246
92	0xc23433e3	-45.05067
93	0xc1f1a7c4	-30.206917
94	0x42c8cdd2	100.40199
95	0x4239beef	46.43646
96	0xc215353e	-37.301994
97	0x41f714bb	30.885122
98	0xc2d1a27a	-104.81734
99	0xc2e4dc4a	-114.43025
100	0xc23cd0d8	-47.20395
101	0x41488f77	12.535026
102	0xc2eb27da	-117.577835
103	0xc13ff388	-11.996956
104	0x42e043b5	112.13224
105	0xc279158b	-62.271038
106	0x425551e3	53.329967
107	0x42586251	54.096012
108	0x4216ec71	37.7309
109	0x42da4b2a	109.146805
110	0x41c84b89	25.036882
111	0xc2ef07c5	-119.515175
112	0xc180f0bf	-16.117552
113	0x4217dd72	37.966255
114	0xc1fee91a	-31.86382
115	0x42b17342	88.72511
116	0x42d194ab	104.79037
117	0xc0e08500	-7.0162354
118	0xc2abff03	-85.99807
119	0xc2b49e9c	-90.309784
120	0x41e5e514	28.736855
121	0xc1994c30	-19.1622
122	0xc286547b	-67.165
123	0x426c394d	59.055958
124	0x42cb3463	101.60232
125	0x42a1664a	80.69978
126	0xbf5f89a4	-0.873194
127	0xbee8f4cc	-0.45499265
128	0xbfb3edf9	-1.4056998
129	0xbf6efd71	-0.9335547
130	0xbf64d3ea	-0.89385855
131	0xbe54408f	-0.20727752
132	0xbf1bbd3b	-0.6083562
133	0xbfaee7c7	-1.3664483
134	0xbf27bad1	-0.65519434
135	0xc27aa839	-62.66428
136	0x4280cdfb	64.402306
137	0xc296904a	-75.281815
138	0xc1c80b25	-25.005442
139	0x434ebba6	206.733
140	0xc19f4a5f	-19.911314
141	0x40d9c8f0	6.8057785
142	0x405c2798	3.4399166
143	0xc2456d28	-49.356598

conv1.bias f4 [16]
0	0x435ebedf	222.74559
1	0xc3a5895b	-331.0731
2	0x43624849	226.28236
3	0xbf7cc36c	-0.9873569
4	0x433589aa	181.53775
5	0x439b081a	310.0633
6	0xc294288b	-74.079185
7	0x43853519	266.41483
8	0xbf27f1e3	-0.65603465
9	0x41d96538	27.174423
10	0xbf0245c8	-0.5088773
11	0xc3d367e8	-422.81177
12	0xc3f722d5	-494.27213
13	0x43109df9	144.61708
14	0xbfdf89e2	-1.7463953
15	0x42424367	48.565823

bn1.weight f4 [16]
0	0x42bf2e24	95.59012
1	0x42ef8d05	119.77543
2	0x4319c4e0	153.76904
3	0x3f808c43	1.0042804
4	0x430ada38	138.85242
5	0xc2cd3316	-102.59978
6	0x41d443ab	26.533041
7	0x42b2b1f6	89.34758
8	0x3fa5bd67	1.2948426
9	0x42d2a838	105.32855
10	0x4224beb9	41.186253
11	0x4302fd4b	130.98943
12	0x42363383	45.550304
13	0x43326a91	178.41628
14	0x3f60378a	0.87584746
15	0x429683ba	75.25728

bn1.bias f4 [16]
0	0x42943518	74.1037
1	0x42233679	40.803196
2	0x42b425b4	90.07364
3	0x400f2663	2.236718
4	0x42955ac3	74.67727
5	0x413ec4b3	11.923022
6	0x40acbf0a	5.39832
7	0x419026c0	18.01892
8	0xbfab3ba6	-1.3377578
9	0xc175fe77	-15.374625
10	0xbf917d11	-1.1366292
11	0x4280804f	64.2506
12	0x409e1387	4.9398837
13	0x42097c78	34.37155
14	0xc116fc85	-9.43665
15	0x3f9046ca	1.1271603

bn1.running_mean f4 [16]
0	0x4536a303	2922.1882
1	0x45b8c25d	5912.2954
2	0x44ab4112	1370.0334
3	0x00000004	6e-45
4	0x4463d5f8	911.34326
5	0x4518a5d1	2442.3635
6	0x443c2c6e	752.6942
7	0x45b41ded	5763.7407
8	0x00000004	6e-45
9	0x457018bd	3841.5461
10	0x43d18242	419.01764
11	0x45b920ab	5924.0835
12	0x465b6271	14040.61
13	0x45ce6c70	6605.5547
14	0x00000004	6e-45
15	0x45cbc457	6520.5425

bn1.running_var f4 [16]
0	0x4c41958a	5.074692e+07
1	0x4d30342d	1.8476309e+08
2	0x4b867496	1.762334e+07
3	0x00000004	6e-45
4	0x4b205b37	1.0509111e+07
5	0x4bacc383	2.2644486e+07
6	0x4ae7395c	7.57675e+06
7	0x4d00e9f8	1.3517606e+08
8	0x00000004	6e-45
9	0x4cb169f9	9.301601e+07
10	0x4a8336f6	4.299643e+06
11	0x4d2e621f	1.8285413e+08
12	0x4dea4e57	4.9137533e+08
13	0x4d38b6c9	1.9368667e+08
14	0x00000004	6e-45
15	0x4d1712be	1.5841174e+08

conv2.weight f4 [32, 16, 4, 4]
0	0xc177db04	-15.490971
1	0xc1d592ef	-26.696745
2	0xc323b52c	-163.7077
3	0xc1d4916b	-26.571005
4	0x42ea8ef7	117.27923
5	0x42c22724	97.07645
6	0xc12aed81	-10.682984
7	0x427b2dd3	62.79475
8	0x427f6e2b	63.857586
9	0x4287b325	67.84989
10	0x42d104c8	104.50934
11	0x3fdb9533	1.7154907
12	0x421c3fab	39.062176
13	0x42c0919d	96.2844
14	0xc3296f82	-169.43558
15	0xc146b160	-12.418304
16	0x41d087d9	26.066332
17	0xc26fd31e	-59.95617
18	0xc31dd2bb	-157.82317
19	0xc3324b7f	-178.2949
20	0x40bde377	5.9340167
21	0xc1e44dec	-28.538048
22	0x42a1c78c	80.88974
23	0xc1c5d012	-24.726597
24	0xc30ea342	-142.63773
25	0x429a281e	77.078354
26	0x4218088d	38.00835
27	0xc02623fc	-2.5959463
28	0xc34260b3	-194.37773
29	0x4230bde7	44.18545
30	0xc1f593f9	-30.697252
31	0xc24ae657	-50.72494
32	0xc2d87147	-108.221245
33	0xc309c12b	-137.75456
34	0xc2f18306	-120.755905
35	0xc3091754	-137.09113
36	0x424c26bf	51.037838
37	0xc2ac774d	-86.23301
38	0x422cf701	43.241215
39	0x40df0eeb	6.970571
40	0xc25105e7	-52.255764
41	0xc2ad53e9	-86.66389
42	0x407dd086	3.9658523
43	0xc1fbfa3f	-31.49719
44	0xc290e909	-72.45515
45	0x424fca55	51.94759
46	0xc1755e07	-15.335456
47	0x423e4e9d	47.57677
48	0xc21080a0	-36.12561
49	0xc20adaf9	-34.71384
50	0xc20d9fb5	-35.405964
51	0xc20fa9c0	-35.91577
52	0xc20fbd9e	-35.935173
53	0xc2155be2	-37.33973
54	0xc2167d9f	-37.622677
55	0xc2104f18	-36.07724
56	0xc213c7e5	-36.94521
57	0xc20de24c	-35.470993
58	0xc213f47d	-36.988758
59	0xc20ec4da	-35.692238
60	0xc20d0082	-35.250496
61	0xc20e8807	-35.63284
62	0xc2141332	-37.018745
63	0xc20b3107	-34.79788
64	0x418b2036	17.390728
65	0xc2e2e539	-113.4477
66	0xc1f58dfa	-30.694324
67	0x4183b332	16.462498
68	0xc1ba7307	-23.306166
69	0x42506cc7	52.106228
70	0xc2d08afe	-104.27147
71	0xc220c705	-40.194355
72	0xc29a8902	-77.26759
73	0x42411c3e	48.27758
74	0xc20ab2f8	-34.674774
75	0x428d2332	70.56874
76	0x428b44af	69.63415
77	0x42a27c2b	81.242516
78	0x429bf2d5	77.97428
79	0xc14aefaa	-12.683512
80	0xc27fd4d1	-63.95783
81	0x42f914f0	124.54089
82	0x4265576d	57.335377
83	0x428544c2	66.63429
84	0xc0c841f1	-6.2580495
85	0xc205007d	-33.250477
86	0x4280e945	64.455605
87	0xc23c9287	-47.143093
88	0x42f911d4	124.53482
89	0xc1bec89b	-23.847952
90	0xc2eac12d	-117.3773
91	0x42d9d10a	108.90828
92	0x40a48bb9	5.142056
93	0xc23eb27c	-47.6743
94	0x437f61d5	255.38216
95	0x42ad1ec6	86.560104
96	0xc2ce9f63	-103.3113
97	0xc2ac2863	-86.07888
98	0x4208313c	34.04808
99	0x42de73c2	111.22609
100	0xc3377001	-183.43752
101	0xc26b828e	-58.877495
102	0xc273a36b	-60.909588
103	0x4222e667	40.725002
104	0x41d1c3f6	26.220684
105	0xc2663d03	-57.55958
106	0xc2bde637	-94.94964
107	0xc2535227	-52.830227
108	0x42beb5ec	95.355316
109	0xc1d3c365	-26.470407
110	0xc1a484f5	-20.56492
111	0x42be13fc	95.03903
112	0xc28e0446	-71.00835
113	0xc359266b	-217.15007
114	0xc3325a6a	-178.35318
115	0xc2c4bf50	-98.37366
116	0xc24aba9f	-50.682247
117	0x423e4477	47.56686
118	0xc1e42159	-28.516283
119	0xc24b13fd	-50.76952
120	0x421bb732	38.9289
121	0x42ada4c9	86.821846
122	0x3ffe4340	1.9864273
123	0xc31cf4ea	-156.9567
124	0xc28f504e	-71.656845
125	0xc299781d	-76.7346
126	0xc207ad35	-33.919147
127	0x42dc44f4	110.134674
128	0x419a1606	19.260754
129	0x418e6369	17.79854
130	0x417c2892	15.759905
131	0x4190cdd6	18.100506
132	0x418b7690	17.432892
133	0x418294b9	16.322618
134	0x419da5c7	19.705946
135	0x4194772c	18.55819
136	0x41845e92	16.546177
137	0x4180e433	16.111425
138	0x41909316	18.07182
139	0x41998436	19.189556
140	0x419210fe	18.258297
141	0x4196fd58	18.873703
142	0x4196d498	18.853806
143	0x419c00e1	19.50043
144	0xc1532439	-13.196343
145	0x413b795b	11.717128
146	0xc24f6e43	-51.857677
147	0x432ed5e6	174.83554
148	0x41bddde9	23.733355
149	0xc1e617e7	-28.761671
150	0xc2e0bbbb	-112.36666
151	0x4308f123	136.94194
152	0xc2068385	-33.628437
153	0x42a290c5	81.28275
154	0xc2a17d4e	-80.744736
155	0x4296274f	75.076775
156	0x432ea7f2	174.65604
157	0xc177ccba	-15.487482
158	0xc3a593e4	-331.1554
159	0x42f45dc5	122.18314
160	0xc2b7d8a0	-91.923096
161	0x41a0709d	20.054987
162	0x4082f639	4.0925565
163	0x42ecdc1f	118.429924
164	0x431858a4	152.34625
165	0xc350c98a	-208.78726
166	0xc22eb05b	-43.672222
167	0x40cb44b7	6.352138
168	0x42085a13	34.087963
169	0xc39eb754	-317.43225
170	0xc2d7389a	-107.61055
171	0x42f6baa7	123.364555
172	0x4258b945	54.180927
173	0xc317ce4b	-151.80583
174	0xc28ef874	-71.48526
175	0xc2e4d1d4	-114.40982
176	0xbf814cc2	-1.010155
177	0xc2338eef	-44.889584
178	0xc26a75ad	-58.614918
179	0xc2802eb8	-64.09125
180	0x420b14c0	34.770264
181	0xc233a385	-44.909687
182	0xc28a14f5	-69.04093
183	0x42416785	48.351093
184	0xc30dcba2	-141.79544
185	0x428bb694	69.8566
186	0x42cdd039	102.906685
187	0x40fbfa37	7.874294
188	0xc2b3fc0e	-89.992294
189	0x4285f9f3	66.98818
190	0x42eadb00	117.427734
191	0xc32b62c3	-171.38579
192	0x43089d51	136.61452
193	0x425b5eaa	54.842445
194	0xc18357d7	-16.41789
195	0xc2c3517d	-97.65916
196	0x424a3348	50.55008
197	0x41ffb928	31.965408
198	0x41662255	14.383382
199	0xc0daf2bb	-6.84213
200	0xc263793b	-56.86839
201	0xc1d4fe46	-26.624157
202	0x4250ae95	52.17049
203	0xc21b63ce	-38.847466
204	0xc20d0703	-35.256847
205	0xc1de6b8f	-27.802519
206	0x418cb0bb	17.586294
207	0xc25fd321	-55.95618
208	0xc1fdc5eb	-31.72164
209	0xc17fa160	-15.976898
210	0x4219cf6b	38.452557
211	0x42a85a37	84.1762
212	0xc268e6a6	-58.225243
213	0xc311438a	-145.26382
214	0xc26c476c	-59.069748
215	0x427857c3	62.085705
216	0xc2c6c047	-99.37554
217	0xc2e26ddc	-113.21457
218	0xc240f7cc	-48.24199
219	0x40e98d8e	7.2985296
220	0x42b8dfcf	92.437126
221	0x42187770	38.11664
222	0x4188a1c4	17.078987
223	0x41cd5ea9	25.67122
224	0xc23c681d	-47.101673
225	0xc23f1c8d	-47.77788
226	0xc2420066	-48.50039
227	0xc23a39c3	-46.556408
228	0xc23d6cc0	-47.3562
229	0xc23cbd6f	-47.184994
230	0xc2336cc5	-44.85622
231	0xc2390664	-46.25624
232	0xc23cb10a	-47.17289
233	0xc2444887	-49.070827
234	0xc23fb137	-47.92306
235	0xc2369a8e	-45.650932
236	0xc23d8735	-47.38204
237	0xc2404d96	-48.075768
238	0xc2397fbb	-46.374737
239	0xc23a5d74	-46.591263
240	0x411068f3	9.025622
241	0xc1293235	-10.574758
242	0xc1bb338e	-23.400173
243	0x4212e6fa	36.725563
244	0x41717e01	15.093263
245	0x40deae30	6.958763
246	0x41d39ae9	26.45064
247	0x414e4c71	12.893662
248	0x42488f98	50.14023
249	0xc2dff204	-111.97269
250	0xc33b1705	-187.08992
251	0xc1814504	-16.158699
252	0x41d03444	26.02552
253	0xc30a74cd	-138.45625
254	0xc220a639	-40.162327
255	0x42a22cb3	81.0873

conv2.bias f4 [32]
0	0x41ec89d8	29.567307
1	0x41dce2d1	27.61075
2	0xc2fee329	-127.44367
3	0xc00a05db	-2.1566074
4	0xc29dde67	-78.93438
5	0xc146bd41	-12.421205
6	0xc2d7c3d5	-107.882484
7	0xc307cad8	-135.79236
8	0xc2a3a286	-81.81743
9	0xc32d3121	-173.19191
10	0xc29d3229	-78.59797
11	0xc16f6437	-14.9619665
12	0xc3299a4d	-169.60274
13	0xc2dce2b7	-110.4428
14	0xc27675bd	-61.61498
15	0xc2fbdb56	-125.92839
16	0xc316edce	-150.92892
17	0xc2b94896	-92.64177
18	0xc35538d7	-213.22203
19	0xc3149382	-148.5762
20	0xc2dfd222	-111.910416
21	0xc2f7a681	-123.8252
22	0xc32923fe	-169.1406
23	0xc32b57f9	-171.34364
24	0xc2dbd1d9	-109.90986
25	0x423e420e	47.564507
26	0x427fdafe	63.96386
27	0xc2ea886f	-117.26647
28	0xc242f6c7	-48.740993
29	0xc32b452c	-171.2702
30	0xc2ca8d38	-101.27582
31	0xc2b83a03	-92.113304

bn2.weight f4 [32]
0	0xc20db801	-35.42969
1	0xc29aae1b	-77.34005
2	0xc2efea3f	-119.95751
3	0xc0dc0edf	-6.8768153
4	0x431fb259	159.69667
5	0xbf98de17	-1.1942776
6	0x42bdd41e	94.91429
7	0x425fabef	55.917904
8	0x42ae6191	87.19056
9	0x431dc7d5	157.7806
10	0xc2a36611	-81.69935
11	0xc0bb6bff	-5.856933
12	0xc2c7c323	-99.88113
13	0x42b24798	89.13983
14	0x42ccaaf9	102.33393
15	0xc2fc7a15	-126.23844
16	0xc2bae20b	-93.44149
17	0x4316db9e	150.85788
18	0xc2fa0ae8	-125.0213
19	0x42eacccc	117.399994
20	0xc18d7834	-17.683693
21	0x42a2b9aa	81.362625
22	0xc315c13c	-149.75482
23	0x42e2a0ec	113.3143
24	0x429c0332	78.00624
25	0xc2155762	-37.335335
26	0x42ba64f7	93.1972
27	0x42e0b066	112.34453
28	0xbf385e5e	-0.7201899
29	0x430d908b	141.56462
30	0x42a1deb7	80.93499
31	0xc30874d1	-136.45631

bn2.bias f4 [32]
0	0xbfaf182b	-1.367925
1	0xc196841c	-18.814507
2	0xc110282a	-9.009806
3	0xbfaeca97	-1.3655576
4	0x41a8bc08	21.091812
5	0x40346c2e	2.8191028
6	0x421f6b77	39.854946
7	0x41aa2e20	21.272522
8	0x4195fff0	18.74997
9	0x4087195a	4.2218447
10	0x40ed8631	7.422631
11	0x40296967	2.6470582
12	0x41545789	13.271371
13	0x417b4e71	15.706651
14	0xc10371fd	-8.215329
15	0xc0cacda9	-6.337605
16	0xc0da3da4	-6.8200245
17	0x421bca56	38.947594
18	0x40544614	3.3167772
19	0x419ad273	19.352758
20	0x403da158	2.9629726
21	0x3ffd7078	1.9799948
22	0x4210a8af	36.16473
23	0x418599bd	16.700068
24	0x4146e2e0	12.430389
25	0xc1265f9b	-10.398341
26	0xc0c42aa5	-6.1302056
27	0x418eeae0	17.864685
28	0x40fde3b4	7.934046
29	0x42038e26	32.888817
30	0x4013e712	2.3109784
31	0xc084f42b	-4.1548057

bn2.running_mean f4 [32]
0	0x47b62324	93254.28
1	0x47c7869d	102157.23
2	0x4718fa3a	39162.227
3	0x487619f8	252007.88
4	0x47c30b8f	99863.12
5	0x00000004	6e-45
6	0x470a36b8	35382.72
7	0x46a15e43	20655.13
8	0x46b4ce1a	23143.05
9	0x47b57786	92911.05
10	0x47766b1f	63083.12
11	0x00000004	6e-45
12	0x46a97d16	21694.543
13	0x46f5f9fa	31484.988
14	0x473233f9	45619.973
15	0x46f16f03	30903.506
16	0x46bea668	24403.203
17	0x4718d136	39121.21
18	0x4738c103	47297.01
19	0x47d2e04e	107968.61
20	0x3885631c	6.360395e-05
21	0x4706b7e0	34487.875
22	0x47672124	59169.14
23	0x47eed7f1	122287.88
24	0x462b9870	10982.109
25	0x47d0559b	106667.21
26	0x48328b91	182830.27
27	0x47ca4117	103554.18
28	0x4886a938	275785.75
29	0x47785549	63573.285
30	0x469cd9eb	20076.959
31	0x479a497e	78994.984

bn2.running_var f4 [32]
0	0x500c4d23	9.415462e+09
1	0x5060e00a	1.5091116e+10
2	0x4fec01e7	7.9190953e+09
3	0x5150cb8f	5.604802e+10
4	0x50cc90ac	2.7456266e+10
5	0x00000004	6e-45
6	0x4f8708d9	4.531008e+09
7	0x4f1ac02f	2.5962862e+09
8	0x4f706214	4.0329595e+09
9	0x50a92a8b	2.27051e+10
10	0x4fc3c50e	6.5689426e+09
11	0x00000004	6e-45
12	0x4f2658df	2.790842e+09
13	0x4f90c2e3	4.8573824e+09
14	0x4f9921a1	5.138236e+09
15	0x4fbe064a	6.3761664e+09
16	0x4f323f01	2.9904735e+09
17	0x4fa73f37	5.611876e+09
18	0x5017bc70	1.0182836e+10
19	0x505c1fdf	1.4772305e+10
20	0x3d788d68	0.06068173
21	0x4fbc1316	6.310735e+09
22	0x506b4d51	1.5790851e+10
23	0x512d0a2d	4.6450004e+10
24	0x4eb27841	1.4971127e+09
25	0x5015d818	1.0055868e+10
26	0x50b70eae	2.456954e+10
27	0x503cb94c	1.2665041e+10
28	0x5132bb94	4.79782e+10
29	0x5047b7ae	1.3402814e+10
30	0x4f0ce07d	2.3635223e+09
31	0x5052e450	1.4152712e+10

conv3.weight f4 [64, 32, 5, 5]
0	0xc1ec31b7	-29.524275
1	0x41d34773	26.409887
2	0xc263711b	-56.860455
3	0xc2cfc117	-103.87713
4	0xc2293f87	-42.31204
5	0xc30ab8b7	-138.72154
6	0x42c91c70	100.55554
7	0x425bf499	54.988865
8	0x431a33d1	154.20241
9	0x43115c85	145.3614
10	0xc2202234	-40.0334
11	0x4338aedb	184.68303
12	0xc13377bc	-11.216732
13	0x41f8944c	31.07241
14	0xc17e9b05	-15.912847
15	0xc2866456	-67.19597
16	0x41bb27c8	23.394424
17	0xc194c00a	-18.59377
18	0x42a96bf6	84.71086
19	0xc339dc06	-185.85947
20	0x416640c0	14.390808
21	0x4271c84b	60.4456
22	0xc2a1d671	-80.91883
23	0x42a3f5dc	81.980194
24	0xc2cfa6d0	-103.825806
25	0x416db0c4	14.855656
26	0x428dd808	70.921936
27	0xc2eaa4a1	-117.32154
28	0xc269e9a1	-58.478153
29	0xc2b646de	-91.13841
30	0x42095b76	34.339317
31	0xc206a9fd	-33.666004
32	0x4225da2d	41.463062
33	0x431eafbc	158.68646
34	0x429b0e92	77.52846
35	0xc2f9dd7b	-124.93258
36	0x4249a197	50.407803
37	0x41466b66	12.40122
38	0x42d03297	104.09881
39	0x41f29ca9	30.326494
40	0x41657262	14.3404255
41	0xc1bce7d1	-23.613192
42	0xc1f7d268	-30.977737
43	0xc1bd6e2d	-23.678797
44	0x40e1ca75	7.055964
45	0x41eaf33f	29.368773
46	0xc075b72e	-3.8393054
47	0x42354883	45.320812
48	0xc2be0eb7	-95.02874
49	0xc285ace0	-66.83765
50	0x423a9d08	46.65335
51	0xc286a3c2	-67.31984
52	0xc25b9fa8	-54.905914
53	0xc0da939a	-6.830518
54	0xc18b7255	-17.430826
55	0xc2887d74	-68.245026
56	0xc2ba0730	-93.01404
57	0xc316e89e	-150.90866
58	0xc2e7c714	-115.888824
59	0xc30a2a26	-138.16464
60	0x401e9138	2.4776134
61	0xc101d5d2	-8.114702
62	0xc2cc9ed3	-102.3102
63	0x413019ac	11.006268
64	0xc2c1187e	-96.54784
65	0x42e56b78	114.7099
66	0x420c2bbe	35.042717
67	0x41ccb349	25.587542
68	0xc2fab5bc	-125.35495
69	0x42bee017	95.437675
70	0xc2086bbb	-34.105206
71	0x430875ac	136.45966
72	0x430685ab	134.52214
73	0xc2b4af2e	-90.34215
74	0xc2b70d43	-91.5259
75	0x41f5a639	30.706163
76	0xc120e784	-10.056522
77	0xc2787ea8	-62.123688
78	0x4135a85a	11.353601
79	0x42089bbd	34.15209
80	0x416be0ad	14.7423525
81	0x41e66407	28.798841
82	0x4137eeca	11.495798
83	0xc300f833	-128.96953
84	0x42a56dfb	82.714806
85	0x40f3e0a9	7.6211743
86	0x4219bf32	38.436714
87	0xc28894ab	-68.29037
88	0x429446e1	74.138435
89	0x42d891bd	108.284645
90	0x3faa8555	1.332194
91	0x4294ffc8	74.49957
92	0xc2b95fea	-92.68733
93	0xc25209a1	-52.509403
94	0xc22b3730	-42.803894
95	0x41525e88	13.148079
96	0xc196bc14	-18.841835
97	0x42d3c981	105.89356
98	0xc1c0a5d5	-24.080973
99	0xc16e8289	-14.906869
100	0xc289f7bf	-68.98388
101	0xc21fc220	-39.939575
102	0xc3150529	-149.02016
103	0xc2e5951b	-114.79122
104	0xc25f9c16	-55.902428
105	0xc18b2115	-17.391153
106	0x4152449b	13.141749
107	0x40768852	3.8520703
108	0xc2186fed	-38.109303
109	0x42f9f969	124.98713
110	0x42c9ef04	100.96683
111	0xc285e568	-66.94806
112	0xc3000aae	-128.04172
113	0xc266813e	-57.626213
114	0xc22d5069	-43.328526
115	0xc2ecc98d	-118.393654
116	0xc27a0a4c	-62.510056
117	0xc20d9a01	-35.400394
118	0xc225abfb	-41.41795
119	0xc2d93975	-108.61222
120	0xc229eb5b	-42.47984
121	0xc196b7d4	-18.83976
122	0x42c5e0fd	98.93943
123	0x42844c3c	66.148895
124	0xc1e0f9fd	-28.122065
125	0xc066c529	-3.6057837
126	0xc111e1e5	-9.11765
127	0xc011975b	-2.274863
128	0x405e5571	3.473965
129	0x3f19dfa7	0.6010689
130	0xbfd6b7ff	-1.6774901
131	0xc01aa6d5	-2.4164326
132	0xc0282f71	-2.6278956
133	0xbf9e28ba	-1.2356179
134	0xbe8904fa	-0.2676161
135	0x40684b8e	3.6296115
136	0x3fc52735	1.540259
137	0xc084778b	-4.1395926
138	0x40b12d4e	5.5367804
139	0x3fe3d32e	1.7798822
140	0x402cf3ca	2.7023797
141	0x401ac5c5	2.418321
142	0x3fa265e6	1.2687347
143	0x3ff67219	1.925357
144	0x4000c294	2.011876
145	0x3e45fc8f	0.19334625
146	0xbf16e418	-0.58941793
147	0x4006f19a	2.1084962
148	0x3fb1ae68	1.388135
149	0xc02b15d3	-2.673207
150	0xc2267848	-41.617462
151	0xc2660c7c	-57.51219
152	0x42c0b601	96.35548
153	0x42884192	68.12807
154	0xc2a0e2e9	-80.443184
155	0xc18d0b1e	-17.630428
156	0xc3264bc5	-166.29597
157	0x421eaddf	39.669796
158	0x41b7a41e	22.955135
159	0x4252a79c	52.66368
160	0xc2c00bdd	-96.02317
161	0xc2eb89a1	-117.76881
162	0xc2244df6	-41.076134
163	0x407936ad	3.8939621
164	0xc2d08fc6	-104.28081
165	0xc28e2b70	-71.08484
166	0xc285d46f	-66.91491
167	0xc29f22fa	-79.56831
168	0xc244b075	-49.17232
169	0xc2c68dc5	-99.27689
170	0x4274d127	61.20425
171	0xc233e62e	-44.974785
172	0xc30e7315	-142.44954
173	0xc26c1d3b	-59.028545
174	0x42bcf971	94.48719
175	0x4204c7f2	33.19526
176	0xc17b7e49	-15.718331
177	0x41e497c9	28.574114
178	0x42a6d3b0	83.41345
179	0x424b5cdc	50.840683
180	0x419d17ad	19.63656
181	0x4315a08a	149.6271
182	0xc2861132	-67.033585
183	0x4363589e	227.34616
184	0xc1780a6a	-15.5025425
185	0x40592bde	3.3933024
186	0x42929841	73.29737
187	0x419f648f	19.9241
188	0x41681b2b	14.506633
189	0x420cf779	35.241673
190	0xc2b660d5	-91.189125
191	0xbfed1efa	-1.8525078
192	0x4280e24e	64.442
193	0xc2014919	-32.321384
194	0x425d20a9	55.281895
195	0x427908d7	62.258633
196	0xc1a8a190	-21.078888
197	0xc2a54542	-82.63527
198	0x4234ad4c	45.169235
199	0xc2d3dd78	-105.932556
200	0x43085369	136.32582
201	0xc29dbfc2	-78.87453
202	0x4202da6b	32.7133
203	0x42cc3951	102.111946
204	0x42e2209c	113.06369
205	0xc32aa6e9	-170.652
206	0x41b2577b	22.292715
207	0xc2967620	-75.23071
208	0xc265b0c6	-57.42263
209	0xc3426288	-194.38489
210	0xc2d19953	-104.79946
211	0xc284cd90	-66.40149
212	0x42d9fc22	108.99245
213	0xc252fa19	-52.744236
214	0xc2157760	-37.366577
215	0xc29879f1	-76.23817
216	0xc2e2b62a	-113.35579
217	0xc2ba27ce	-93.07774
218	0xc3390334	-185.01251
219	0xc1853b9f	-16.654112
220	0x421c18d2	39.02424
221	0x413c5d1c	11.772732
222	0xc19b074e	-19.378567
223	0x4251bf6d	52.43694
224	0xc204a341	-33.159428
225	0xc11e7411	-9.903337
226	0x3f10784f	0.56433576
227	0x42a2f562	81.47926
228	0xc20ea8ea	-35.664955
229	0x428e6782	71.20216
230	0xc21741cc	-37.814255
231	0xc1974bd4	-18.912025
232	0xc26ded50	-59.48175
233	0xc347fed2	-199.99539
234	0x42b069bb	88.206505
235	0xc16b3bf0	-14.702133
236	0x4012ad7a	2.2918382
237	0xc3111a6e	-145.10324
238	0xc2495e25	-50.341938
239	0x41b56dce	22.678616
240	0x42959b4d	74.80332
241	0xc309ae92	-137.68192
242	0xc2a097eb	-80.296715
243	0x42cb9851	101.79749
244	0x42105495	36.0826
245	0xc1ce4fd0	-25.78897
246	0xc34e02ab	-206.01042
247	0xc239b92e	-46.43084
248	0x425b5fd3	54.84358
249	0x423395ef	44.89642
250	0xc33acb54	-186.79425
251	0xc110f65d	-9.060147
252	0xc200fd63	-32.247448
253	0x426d9666	59.396873
254	0xc15a1df1	-13.63231
255	0xc171150c	-15.067638

conv3.bias f4 [64]
0	0xc1a3f66a	-20.49532
1	0x427d56f0	63.3349
2	0xc209e417	-34.472744
3	0xc24765e6	-49.84951
4	0xc286d712	-67.42006
5	0xc2256247	-41.345974
6	0xc172324d	-15.13728
7	0xc027d67c	-2.622466
8	0xc17fdef7	-15.991935
9	0xc2974a08	-75.64459
10	0x426f813e	59.876213
11	0xc1a9a79d	-21.206842
12	0xc29ebc7c	-79.36813
13	0xc254f89c	-53.242783
14	0x42a99687	84.794
15	0x433f5c41	191.36037
16	0x421e215e	39.532585
17	0xc28869fe	-68.207016
18	0xc149e2f0	-12.617905
19	0xc18ab928	-17.340408
20	0x42107fc0	36.124756
21	0xc2bd874c	-94.76425
22	0x40275231	2.6143916
23	0x3f185d6f	0.5951757
24	0xc1e4b0fd	-28.58642
25	0x40047491	2.0696146
26	0xc1b1833d	-22.189081
27	0x428d8c08	70.7735
28	0xc2009103	-32.141613
29	0x42c74ca3	99.64968
30	0xc2d880fb	-108.251915
31	0xc1019d2c	-8.100872
32	0xc2a1a78c	-80.82724
33	0xc26f711c	-59.86046
34	0xc1a13551	-20.151033
35	0x41adf562	21.744816
36	0xc28ae057	-69.43816
37	0xc302a817	-130.6566
38	0xc28d17e5	-70.54667
39	0xc0fd3211	-7.9123616
40	0xc12b36e3	-10.7009
41	0xc298c810	-76.39075
42	0xc20e8171	-35.626408
43	0x43331577	179.08385
44	0xc26ea3f1	-59.6601
45	0xc2a6167b	-83.04391
46	0xc2523641	-52.552982
47	0xc1e2fae5	-28.372507
48	0xc277976a	-61.897865
49	0xc1b9fc77	-23.248274
50	0xc2a11e11	-80.55872
51	0xbfd5e4c7	-1.6710442
52	0xc1e9b4b7	-29.21324
53	0x41e4ed9e	28.616024
54	0xc2ba1fb7	-93.06194
55	0x41911aee	18.13815
56	0xc27589c4	-61.384537
57	0x420ce863	35.22694
58	0xc1e8a402	-29.080082
59	0xbfca30b4	-1.5796113
60	0xc2087c27	-34.121243
61	0xc234efa8	-45.23404
62	0x420b1aac	34.776047
63	0xc294c952	-74.3932

bn3.weight f4 [64]
0	0x42a15895	80.67301
1	0x42b93ff7	92.62493
2	0xc20c368c	-35.05327
3	0x4285d6ce	66.91954
4	0xc1a97b1c	-21.185112
5	0x429a93be	77.28856
6	0x40a24cfc	5.0718975
7	0xc2699a4e	-58.40069
8	0xc2409639	-48.1467
9	0xc17e6b68	-15.901222
10	0x432a30b2	170.19022
11	0xc26eee94	-59.732986
12	0x410e6115	8.898702
13	0xc2237f7c	-40.874496
14	0xc32bd6b3	-171.83867
15	0x43227107	162.44151
16	0x42da8537	109.260185
17	0x42031cdf	32.778194
18	0x41dd8571	27.690157
19	0x41ada26a	21.704304
20	0x431f6bbb	159.42082
21	0xc16c1733	-14.755664
22	0x42d853b5	108.16349
23	0x42995b57	76.6784
24	0x41a95c5c	21.170097
25	0x42adc867	86.89141
26	0x42a6d15a	83.40889
27	0x4309f49f	137.95555
28	0x42478b04	49.885757
29	0x3ec0f082	0.37683493
30	0x4204af7d	33.171375
31	0x42793a86	62.30715
32	0x4111be3b	9.108943
33	0xc1632d7b	-14.198604
34	0x4133a1c6	11.226995
35	0x42b63097	91.0949
36	0xc24b4407	-50.816433
37	0x4260641e	56.09777
38	0xc1ef06ce	-29.878323
39	0x3ff9f840	1.9528885
40	0x42bd6d1c	94.713104
41	0xc139d2e7	-11.61399
42	0x421b0d52	38.76301
43	0x431ac6ba	154.77628
44	0x42ae2d64	87.08865
45	0xc1ac08f9	-21.504381
46	0x41f675a5	30.807444
47	0x42e16ef0	112.716675
48	0xc1b34efa	-22.413563
49	0x433aed71	186.9275
50	0x41c274a1	24.306948
51	0x429b770b	77.732506
52	0x4126babd	10.42059
53	0x42b94366	92.63164
54	0xc2a3722b	-81.722984
55	0x43288784	168.52936
56	0x4226d903	41.711926
57	0x42ab20d4	85.56412
58	0xc266c747	-57.694607
59	0x3f07d8c1	0.53065115
60	0x4226df0b	41.717815
61	0x423a605d	46.594105
62	0xc2a2847c	-81.25876
63	0x42159da8	37.40396

bn3.bias f4 [64]
0	0xc2cb4581	-101.63575
1	0xc367dd09	-231.86342
2	0x43658c40	229.54785
3	0xc3934473	-294.53476
4	0xc059479f	-3.3949964
5	0xc143d49a	-12.239405
6	0x43adbb0d	347.46133
7	0xc324ebac	-164.9206
8	0xc388d2f0	-273.64795
9	0xc2fc6dd1	-126.214485
10	0xc2986b39	-76.20942
11	0x42a0387a	80.110306
12	0x438e8be4	285.0929
13	0x4366de30	230.86792
14	0x4208e424	34.222794
15	0xc339b354	-185.7005
16	0x42825fab	65.18685
17	0xc2e443be	-114.13231
18	0x43354689	181.27553
19	0x42b502ec	90.50571
20	0xc28ae619	-69.44941
21	0x419e1142	19.758427
22	0xc27674fa	-61.614235
23	0xc0ac8cbb	-5.392179
24	0x42f78741	123.76417
25	0x4343a10a	195.62906
26	0xc2f3e735	-121.95158
27	0x420f2f01	35.795902
28	0xc2e7b02e	-115.8441
29	0x43307539	176.4579
30	0xc215fbce	-37.495903
31	0xc3830ef8	-262.11694
32	0x436b582e	235.34445
33	0x4362b45b	226.70451
34	0xc2143c9f	-37.0592
35	0xc30d5117	-141.31676
36	0xc2843c97	-66.11834
37	0x4288e54b	68.44784
38	0xc191d519	-18.229052
39	0xc348e1cd	-200.88203
40	0xc1e28e1b	-28.319387
41	0xc3081d98	-136.1156
42	0x418bef75	17.491922
43	0x42bef6cf	95.48205
44	0xc32e05af	-174.0222
45	0xc299e2ae	-76.94273
46	0xc2c6ab43	-99.334496
47	0x42dac09e	109.376205
48	0x40b65f80	5.6991577
49	0xc11c1b7c	-9.75671
50	0x43555c2b	213.36003
51	0xc299fca9	-76.99348
52	0xc388b770	-273.4331
53	0xc306174e	-134.09103
54	0x42558393	53.37849
55	0xc26c44a3	-59.067028
56	0x41812b7b	16.14623
57	0xc11d6f95	-9.839742
58	0x411fe540	9.993469
59	0xc3cb6005	-406.75015
60	0x4237394b	45.80595
61	0xc36a3ed9	-234.2455
62	0xc2b8cd8e	-92.401474
63	0x426be3ad	58.97234

bn3.running_mean f4 [64]
0	0x47b3a795	91983.164
1	0x47f25d49	124090.57
2	0x477cfb61	64763.38
3	0x47c360a0	100033.25
4	0x461fb363	10220.847
5	0x47a57de6	84731.8
6	0x459ff7a1	5118.9536
7	0x4705c90a	34249.04
8	0x480672f4	137675.81
9	0x4441c14b	775.0202
10	0x48ab4037	350721.72
11	0x47d7c59a	110475.2
12	0x467f554b	16341.323
13	0x473733a4	46899.64
14	0x489aab12	316760.56
15	0x4885d4db	274086.84
16	0x487a26df	256155.48
17	0x47349372	46227.445
18	0x4748c77e	51399.492
19	0x3d988c04	0.07448581
20	0x48c7da56	409298.7
21	0x45028511	2088.3167
22	0x4810fc65	148465.58
23	0x48054de5	136503.58
24	0x47649e18	58526.094
25	0x4814e4ca	152467.16
26	0x4836adfd	187063.95
27	0x48749702	250460.03
28	0x471d39a2	40249.633
29	0x48b9abe1	380255.03
30	0x481b246e	158865.72
31	0x47e8f763	119278.77
32	0x430dcde2	141.80423
33	0x43770730	247.02808
34	0x47262a2c	42538.17
35	0x48014404	132368.06
36	0x42924419	73.133
37	0x4831e40b	182160.17
38	0x483751b9	187718.89
39	0x47f00e00	122908.0
40	0x480fff86	147454.1
41	0x46e4b59e	29274.809
42	0x45eb23e2	7524.4854
43	0x48b09ce8	361703.25
44	0x4879fbcd	255983.2
45	0x42205cb7	40.09054
46	0x46c5b8d3	25308.412
47	0x4844f47b	201681.92
48	0x44e75b19	1850.8468
49	0x48a06e24	328561.12
50	0x46417869	12382.103
51	0x48ed191d	485576.9
52	0x3e763e96	0.24047312
53	0x47df74b6	114409.42
54	0x47eeb38a	122215.08
55	0x489fb438	327073.75
56	0x444e909d	826.2596
57	0x47ed3a37	121460.43
58	0x47ad2e43	88668.52
59	0x3c749083	0.014927032
60	0x48292432	173200.78
61	0x47cfa548	106314.56
62	0x483b1556	191573.34
63	0x43ceecaf	413.8491

bn3.running_var f4 [64]
0	0x50cb521c	2.7289248e+10
1	0x50ffeca9	3.4349599e+10
2	0x50d19afd	2.8132764e+10
3	0x50efcee6	3.2186511e+10
4	0x4f274de5	2.8069e+09
5	0x50b43150	2.4185045e+10
6	0x4e040c7e	5.538528e+08
7	0x5007b55f	9.107242e+09
8	0x51215aec	4.3313447e+10
9	0x4cff18cb	1.33744216e+08
10	0x51e0a235	1.2059926e+11
11	0x50e5266e	3.0756008e+10
12	0x4fa38834	5.487225e+09
13	0x502d4c96	1.162991e+10
14	0x51d66525	1.1510249e+11
15	0x5195cd41	8.0424215e+10
16	0x5186a12e	7.227872e+10
17	0x50219e8f	1.0846092e+10
18	0x50a8ebf3	2.2672284e+10
19	0x450ed1b8	2285.1074
20	0x51facfdf	1.34653665e+11
21	0x4d4aac01	2.1251688e+08
22	0x510ec38a	3.8322872e+10
23	0x512aaf28	4.5817692e+10
24	0x50daf11a	2.9385871e+10
25	0x5110a936	3.8832136e+10
26	0x51363378	4.890922e+10
27	0x515afe52	5.8785604e+10
28	0x4ffcfbfe	8.488746e+09
29	0x5211a2a0	1.5637466e+11
30	0x515b9a13	5.8948923e+10
31	0x5152c80d	5.6581214e+10
32	0x4b5ece05	1.4601733e+07
33	0x4b68eb78	1.5264632e+07
34	0x5036deb7	1.2272197e+10
35	0x50f7b48d	3.324644e+10
36	0x4ad6a2ac	7.033174e+06
37	0x5187e911	7.296635e+10
38	0x51411e21	5.1839635e+10
39	0x517fef72	6.8702118e+10
40	0x50faa850	3.3642676e+10
41	0x50015db2	8.681605e+09
42	0x4ea9f15b	1.4255835e+09
43	0x51b7be4b	9.864645e+10
44	0x51ad4022	9.301316e+10
45	0x4a7f655a	4.1844065e+06
46	0x4fdbf269	7.380194e+09
47	0x513dff37	5.1001913e+10
48	0x4ddc478f	4.6195965e+08
49	0x51a99f94	9.106584e+10
50	0x4f385cf0	3.0930985e+09
51	0x51e0d39a	1.20702845e+11
52	0x45497e80	3223.9062
53	0x50d0c161	2.8018674e+10
54	0x50d335b6	2.83481e+10
55	0x51d26135	1.1294675e+11
56	0x4d2c1e48	1.804791e+08
57	0x51028790	3.5038757e+10
58	0x50a3d93e	2.1991387e+10
59	0x419036ac	18.026695
60	0x515d72cf	5.944462e+10
61	0x50af950e	2.356625e+10
62	0x513b70d7	5.031575e+10
63	0x4c40f6e7	5.0584476e+07

fc1.weight f4 [256, 64]
0	0x3f61a99e	0.8814944
1	0x3f739d70	0.95162106
2	0xc0074f03	-2.1141975
3	0x3f98f353	1.1949257
4	0xbe0df1a8	-0.13861716
5	0x3f62b1f2	0.88552773
6	0xc0260df9	-2.5946028
7	0x40091a0b	2.1422145
8	0x3f9df5d1	1.2340642
9	0xbf83fa8e	-1.0310838
10	0xbece6c30	-0.40316916
11	0xbfa9f030	-1.3276424
12	0x3f07e8d4	0.5308964
13	0xc07e4945	-3.973222
14	0x3e48da27	0.19614469
15	0x3fcada4d	1.584787
16	0xbfaf1ce0	-1.3680687
17	0xbe8d9a92	-0.2765699
18	0xc022f277	-2.5460489
19	0xbfa495bf	-1.2858199
20	0xc01c671c	-2.4437933
21	0x3f70c582	0.94051373
22	0x3fdf3902	1.7439272
23	0x3e933a83	0.28755578
24	0xc0ac0d82	-5.376649
25	0x3fd52642	1.66523
26	0x4039785f	2.8979719
27	0xbf983944	-1.1892476
28	0x3f25e970	0.6480932
29	0xbfe3c4b4	-1.7794404
30	0x3fc303b6	1.5235507
31	0xbcfdf2f2	-0.030999634
32	0xbfeb49b2	-1.8381865
33	0xbf7ad78c	-0.9798515
34	0x3ee66ce5	0.45004955
35	0xbf5ed548	-0.8704419
36	0x3f2a76bd	0.6658743
37	0x3f58a111	0.8462077
38	0xbead4b8c	-0.338467
39	0x404689f8	3.102171
40	0xbe94670c	-0.2898487
41	0x3f8676ad	1.0504967
42	0xbeaf121a	-0.34193498
43	0xbf4047ad	-0.7510937
44	0xbfdfd120	-1.7485695
45	0x3f8614d9	1.0475112
46	0xbe51fb84	-0.20506102
47	0x3fdae386	1.7100685
48	0x3f0cb04a	0.54956496
49	0xbf60cea8	-0.8781533
50	0xbfe66386	-1.7999122
51	0x3f14aad8	0.58073187
52	0x3fa8887d	1.3166653
53	0x3d7fffda	0.06249986
54	0xc0488d70	-3.1336327
55	0x3f791e6b	0.9731204
56	0x3fb751f9	1.4321891
57	0x3e83c3b5	0.2573525
58	0xbee6d3ce	-0.4508347
59	0x3fc08206	1.503968
60	0x3ef6b768	0.48186803
61	0x3f8c340c	1.0953383
62	0x3e8ff4a9	0.28116348
63	0x3e26b7bf	0.16281031
64	0xc05a7d35	-3.413892
65	0x40708c30	3.7585564
66	0xc086e252	-4.215127
67	0xc01251aa	-2.2862344
68	0xc0180f4f	-2.3759344
69	0x4069703d	3.6474755
70	0xc0211b73	-2.5173004
71	0x4035afa4	2.8388453
72	0x40830cb6	4.0953016
73	0x4063af2e	3.5575671
74	0x405be97a	3.4361253
75	0xc03b1b38	-2.9235363
76	0xc0584068	-3.378931
77	0xc080b3b1	-4.021935
78	0x3fbc959f	1.4733161
79	0x401f79d0	2.4918098
80	0xc049ce0f	-3.1532018
81	0xc072bb1a	-3.7926698
82	0xc07d9592	-3.962254
83	0xc0432afd	-3.0494988
84	0x3fa3dac2	1.2801135
85	0xc016f539	-2.3587172
86	0x404bc70a	3.1840234
87	0xc021b236	-2.5265021
88	0xc08155e8	-4.0417366
89	0xbf95fb1c	-1.1717257
90	0x403e437e	2.9728694
91	0xc0450bc9	-3.0788443
92	0x402d2e21	2.7059405
93	0x400b5242	2.1768956
94	0x406ba988	3.6822224
95	0x4075dd9d	3.8416512
96	0xbff6ddef	-1.9286479
97	0xc084f65c	-4.155073
98	0x402cd27f	2.7003477
99	0x403deb33	2.9674804
100	0x404601db	3.0938632
101	0x40061234	2.094861
102	0xc05b8144	-3.4297647
103	0x408031f6	4.0060987
104	0xbf80efd2	-1.0073187
105	0xc04452f4	-3.067563
106	0x401907c5	2.3910992
107	0xbfcf7327	-1.6207017
108	0x4067cdb9	3.6219313
109	0x403fa4d4	2.9944353
110	0xbfd50a94	-1.6643853
111	0x4045c351	3.0900462
112	0x40660ae7	3.5944154
113	0x408750a9	4.228596
114	0xc08359ef	-4.104728
115	0xbf95b9b8	-1.1697302
116	0x40362e87	2.8465898
117	0xc08c2250	-4.3791885
118	0xc013fba7	-2.3122346
119	0x4052fb0a	3.2965722
120	0x407acffa	3.918944
121	0x40688e61	3.63369
122	0x3fcd7e61	1.6054193
123	0x40311252	2.7667432
124	0xc02df8f8	-2.7183208
125	0x406918d4	3.6421404
126	0xc035af81	-2.838837
127	0x40503c8e	3.253696
128	0xc01bdf4b	-2.4355037
129	0xc15f2e09	-13.948739
130	0xc0cac713	-6.336801
131	0x413b2043	11.695376
132	0x40dc491a	6.8839235
133	0x41182fed	9.511701
134	0xc0da11f5	-6.814692
135	0xc0616f2d	-3.5224106
136	0x40f69ae8	7.7064095
137	0x40034a80	2.051422
138	0x40c432b9	6.1311917
139	0xc100f2d4	-8.059284
140	0xc10b202f	-8.695357
141	0xc0fc6ccc	-7.888281
142	0xc0789371	-3.883999
143	0x412c0659	10.75155
144	0x413fd0bf	11.988463
145	0xbf7d7624	-0.99008393
146	0xc0f76eb2	-7.7322626
147	0xc050dd1e	-3.263496
148	0x40e42278	7.1292076
149	0xc19e55c8	-19.791885
150	0x40ad42ae	5.4143896
151	0x417bc0c1	15.734559
152	0xc123b523	-10.231723
153	0xc004a9b9	-2.072859
154	0xc0b16b90	-5.54438
155	0x411c6464	9.774509
156	0xc12ffbe2	-10.998995
157	0xc102acfd	-8.167233
158	0xc01a9e60	-2.4159164
159	0xc04d4c73	-3.207791
160	0xc11585e1	-9.345185
161	0xc0ec69aa	-7.3878984
162	0x40ff1845	7.9717126
163	0xc096ce9b	-4.7127204
164	0xc037e46d	-2.873317
165	0x40b950e4	5.7911243
166	0xc0c098fc	-6.018675
167	0x4090898e	4.5167913
168	0xc1119f6d	-9.101422
169	0x41367ada	11.404993
170	0xc0a4b3f5	-5.1469674
171	0x40bbbf24	5.8670826
172	0x4148411e	12.515898
173	0x4103e791	8.244035
174	0x4123d8d4	10.240437
175	0xc19210b5	-18.258158
176	0xc0032602	-2.0491948
177	0x3f0744b1	0.5283919
178	0xc1164df8	-9.394035
179	0xc0fc9e18	-7.8942986
180	0x40d571eb	6.670156
181	0x41217550	10.091141
182	0xbf3829c2	-0.7193872
183	0xc08fe9ac	-4.4972744
184	0x40a32b83	5.0990615
185	0x40f11a25	7.5344415
186	0x4141d841	12.115296
187	0x409413d1	4.627419
188	0x401f6701	2.4906619
189	0x411e5161	9.894868
190	0xc003ffd3	-2.0624893
191	0x40593195	3.3936512
192	0x3f9bca27	1.2171067
193	0xc06752a9	-3.6144202
194	0xc03ea7ff	-2.9790037
195	0xbcdfc3d2	-0.027315054
196	0xbc155a95	-0.009115835
197	0xbf3c7004	-0.7360842
198	0xc0199bd0	-2.400135
199	0x404f01e0	3.2344894
200	0x3fba0529	1.4532825
201	0x3dc4c13c	0.09607169
202	0x3f840196	1.0312984
203	0x405f2214	3.486455
204	0xbe3ccb46	-0.18436918
205	0xc05b63f4	-3.4279757
206	0xbf2213c3	-0.63311404
207	0x3f38741e	0.7205218
208	0xbf90baba	-1.1306984
209	0xbfbe9bda	-1.4891312
210	0xc02ea58a	-2.7288537
211	0x3ea57f7e	0.3232383
212	0xbc830385	-0.01599289
213	0xc021ae37	-2.5262582
214	0x40591a59	3.3922331
215	0xbf398b5a	-0.7247826
216	0xc0305483	-2.7551582
217	0x40125b42	2.28682
218	0x3e81cf02	0.25353247
219	0xc0864c3b	-4.1968055
220	0xbda87a3b	-0.082264386
221	0x3fb9f256	1.452708
222	0x3efd86be	0.49516863
223	0x3fdb88ff	1.7151183
224	0xbeb86e58	-0.36021686
225	0x3f9db8f4	1.2322068
226	0xbfe86d04	-1.8158269
227	0x3e867000	0.26257324
228	0xbd443da0	-0.047910333
229	0x3f981a6f	1.1883067
230	0xbee9f9e9	-0.4569848
231	0x4074e707	3.8266008
232	0x4028fc6b	2.6404064
233	0x3fa06f75	1.2534014
234	0x3f9309c4	1.1487355
235	0x3f492c3c	0.7858312
236	0x40cfd894	6.4951878
237	0x40052c40	2.0808258
238	0xbef1169e	-0.47087568
239	0xbfaa8c80	-1.3324127
240	0x3f179579	0.5921245
241	0xbf8312b3	-1.0240082
242	0xc03870dd	-2.8818886
243	0x3f6a766c	0.9158695
244	0x3fab4e8f	1.3383349
245	0xbfb6bbf5	-1.427611
246	0xbe95f80f	-0.29290816
247	0xc046b892	-3.1050153
248	0x3f713316	0.94218576
249	0xbf2c7822	-0.6737081
250	0x3fdb8d15	1.715243
251	0x3fde12b3	1.7349457
252	0xbf1468be	-0.57972324
253	0x3f643015	0.8913587
254	0x3ea95751	0.3307443
255	0x401ec1e2	2.4805837

fc1.bias f4 [256]
0	0xbfc5bee4	-1.544888
1	0xc0737995	-3.8042958
2	0xc10e30eb	-8.886943
3	0xbf63abef	-0.88934225
4	0xc0f98534	-7.79751
5	0x41b3bafc	22.466301
6	0x4171df2e	15.116987
7	0xc10d05bc	-8.8139
8	0xbf948fa1	-1.1606332
9	0x429da3ec	78.82016
10	0xc14eb8cd	-12.920117
11	0xc01aece0	-2.4207077
12	0xbfbfa2dd	-1.4971577
13	0xc076a9d8	-3.8541164
14	0xc0c17474	-6.0454655
15	0xc0970d08	-4.7203407
16	0xc18055ae	-16.041836
17	0x42c8006a	100.00081
18	0xc10a0f84	-8.628788
19	0xbfcc03cb	-1.5938658
20	0xc0306bea	-2.7565866
21	0xbeeaa259	-0.45826986
22	0xbf98f120	-1.1948586
23	0x42417095	48.359943
24	0xc0aeba38	-5.460232
25	0x40da448c	6.8208675
26	0xc11377e3	-9.216769
27	0xc0af3503	-5.475221
28	0xbfcc1849	-1.5944911
29	0xc0909df9	-4.519284
30	0xc0dc489a	-6.8838625
31	0xbf9133cb	-1.1343931
32	0xc0ce5101	-6.447388
33	0xc04e8188	-3.226656
34	0xc0f0c05a	-7.5234804
35	0xbfd3f1e9	-1.65582
36	0x4218f4fe	38.23925
37	0xc10add10	-8.67897
38	0xc0746d07	-3.8191545
39	0x41513df7	13.077628
40	0xc0f52e5f	-7.6619105
41	0xc0cf999b	-6.4875007
42	0xc0aff582	-5.498719
43	0xc0e8113d	-7.2521043
44	0xc0794bd7	-3.895254
45	0xc02d7d88	-2.7107868
46	0xc0bc88df	-5.891708
47	0xc003200b	-2.0488307
48	0xc09fe33d	-4.996489
49	0xc0a5db90	-5.183052
50	0xc05b29f9	-3.4244368
51	0x428926ce	68.57579
52	0xc03603b8	-2.843977
53	0x421b0ad7	38.760586
54	0xc0686481	-3.6311343
55	0x4225fca5	41.496723
56	0xbfdec938	-1.7405157
57	0xc01a25a6	-2.4085479
58	0xbfd9dc4e	-1.7020357
59	0xc04a815d	-3.1641457
60	0x4193927b	18.446524
61	0xc11da94b	-9.853831
62	0x4152819d	13.156644
63	0xbfaf40c4	-1.369164
64	0xbf52e68e	-0.8238305
65	0x41d0520c	26.040062
66	0xbd8d6946	-0.06904845
67	0xc1767d06	-15.405523
68	0xc1366312	-11.399187
69	0xc07c25c0	-3.939804
70	0xc03744e4	-2.8635798
71	0xbf9c5d0b	-1.2215894
72	0xc024ce5f	-2.575096
73	0x4202090a	32.508827
74	0xc03339c3	-2.8004005
75	0x41792b2c	15.57304
76	0xbf5a715a	-0.8532921
77	0xc0a99280	-5.2991333
78	0xc107625f	-8.461516
79	0x41d02730	26.019135
80	0xc0fc13e0	-7.877426
81	0xc04de3ac	-3.217021
82	0xc01d0ee2	-2.4540334
83	0xc0aa55c3	-5.322969
84	0xc0a2d1bd	-5.088103
85	0xc03d18ca	-2.954638
86	0x41cf93a5	25.947092
87	0xbf607984	-0.8768542
88	0xc0c18984	-6.0480366
89	0xbfbd5357	-1.4791058
90	0xc193d81d	-18.480524
91	0xbf557d4c	-0.8339431
92	0xc05588aa	-3.3364663
93	0xbfd5144a	-1.6646817
94	0x420aa284	34.658707
95	0xc05f051d	-3.484687
96	0xc121562a	-10.083536
97	0xc0d38de8	-6.6110725
98	0xc09d767a	-4.9207125
99	0xc00317a7	-2.0483186
100	0xc04d26a9	-3.2054846
101	0xc09020b3	-4.5039916
102	0xc016d171	-2.3565333
103	0x42544406	53.06643
104	0xc087cb58	-4.243572
105	0xc0bc7257	-5.8889575
106	0xbf7ea915	-0.9947675
107	0x41ced8cb	25.855856
108	0x423e4876	47.570763
109	0xbf8876e5	-1.0661284
110	0xbf5b6eff	-0.8571624
111	0xbf4d729e	-0.80253017
112	0x40e9593b	7.2921424
113	0xc0c5dd1d	-6.1832414
114	0xc161d07c	-14.1133995
115	0xbe93a069	-0.2883332
116	0x41c74e58	24.913254
117	0xc11199f1	-9.100083
118	0xc0be00bb	-5.937589
119	0xc0b089b7	-5.516811
120	0xc0ce53f0	-6.4477463
121	0xc0b8fda5	-5.7809625
122	0x42225415	40.58211
123	0x4180344b	16.025534
124	0xc092e5d3	-4.5905547
125	0xc059a26a	-3.400538
126	0xbff563f9	-1.9171134
127	0xc0740849	-3.8130057
128	0x4267837f	57.878414
129	0xc095dd9f	-4.6833034
130	0xbf42a969	-0.7603975
131	0xbfb8285c	-1.4387317
132	0xc193f98c	-18.49685
133	0xbe290167	-0.16504441
134	0xbfa53928	-1.2908068
135	0xc123d7cd	-10.240186
136	0x424adc39	50.71506
137	0x4151ffb2	13.124926
138	0x409cbc85	4.8980126
139	0xc06aeb52	-3.6706128
140	0x42187f45	38.124287
141	0xc0c1b75a	-6.053632
142	0xc030fbbe	-2.7653651
143	0x420f3db4	35.810257
144	0xc06142d2	-3.5197034
145	0x41ef2437	29.892683
146	0xc11d899c	-9.846096
147	0x424813ba	50.019264
148	0xbfe40c2b	-1.7816213
149	0xc104d5d5	-8.302205
150	0xc0cfc23f	-6.4924617
151	0xbe386c91	-0.18010165
152	0xc09e49ed	-4.946524
153	0x42487cf4	50.122025
154	0xbf58a367	-0.8462433
155	0x42005cbd	32.090565
156	0x4260470e	56.06939
157	0xc08c684d	-4.387732
158	0x420a8bff	34.636715
159	0xc08cf732	-4.405175
160	0x3fd3408a	1.6504071
161	0x42f89925	124.29911
162	0xbf1e9a7f	-0.6195449
163	0x40178ef7	2.368101
164	0xbfbe5b18	-1.487155
165	0x41a8216d	21.016321
166	0xc116bcb1	-9.421067
167	0xc0cf66b3	-6.4812865
168	0xbf9eaf06	-1.2397163
169	0xbfe406aa	-1.7814534
170	0xc0580ded	-3.37585
171	0xbfc817ba	-1.5632241
172	0xc04e4ede	-3.2235637
173	0xc127207b	-10.44543
174	0xc106ab07	-8.416755
175	0x417315a2	15.192781
176	0xc12f9bf5	-10.975575
177	0x42007441	32.11353
178	0xc06520ed	-3.5801346
179	0xbf4bff9f	-0.7968692
180	0x417abb87	15.670783
181	0xbfc00a79	-1.5003196
182	0xc08fcc6a	-4.493703
183	0x428daf56	70.84245
184	0xc043e878	-3.0610638
185	0xc07edb5b	-3.9821384
186	0xc0aa5196	-5.322459
187	0xc0a24b34	-5.07168
188	0xc07194f6	-3.7747169
189	0x4208c900	34.19629
190	0x41ec72a5	29.555979
191	0x425eaf1b	55.671
192	0x422601bb	41.50169
193	0xc0a08e30	-5.017357
194	0x4275b8f1	61.430607
195	0xc08d295f	-4.4113
196	0x4270ddaf	60.216488
197	0x4219e8dc	38.4774
198	0xc0225ecf	-2.5370367
199	0x426bf422	58.98841
200	0xbfb517ea	-1.4147923
201	0xc0ba1675	-5.8152413
202	0xc12d64e8	-10.837135
203	0x40a0f788	5.030216
204	0xc10a2484	-8.633915
205	0xbfac4dd4	-1.3461251
206	0xc0a38e1d	-5.111098
207	0xc11feafb	-9.994868
208	0xc0ec97d6	-7.3935347
209	0xc1546060	-13.273529
210	0x42bf6d76	95.71379
211	0xc0515050	-3.270527
212	0x41ae1842	21.761845
213	0x41081bb9	8.506768
214	0xc049319e	-3.1436534
215	0x41ff3ee0	31.9057
216	0xc0f87772	-7.7645807
217	0x416ece51	14.92537
218	0x4248a206	50.158226
219	0xc0148bdd	-2.3210366
220	0xc0af59fd	-5.479735
221	0xc0a5ec08	-5.1850624
222	0xc082b472	-4.084527
223	0xc1238421	-10.219758
224	0xc0a280b8	-5.0782127
225	0x4129e382	10.618044
226	0xbd81632b	-0.06317743
227	0xc123090c	-10.189709
228	0xbfb4e0cc	-1.4131103
229	0xc01932ee	-2.3937335
230	0xbf0be73f	-0.5464973
231	0x41fe6a59	31.801928
232	0xbfcb4ed8	-1.5883436
233	0xc0089d8b	-2.1346157
234	0xbfb1ffb1	-1.3906156
235	0xc11de79c	-9.869045
236	0xc1652037	-14.320365
237	0xc06e82e2	-3.7267385
238	0xc0724656	-3.785543
239	0xc1b183be	-22.189327
240	0xbfd841b2	-1.6895049
241	0xc062f005	-3.5458996
242	0xc1adb76c	-21.714561
243	0x42b72a3e	91.582504
244	0xc144e5f7	-12.306144
245	0xc108c210	-8.547379
246	0xc0ab0610	-5.34449
247	0xc00c81cf	-2.195423
248	0xc08a876b	-4.3290305
249	0x412cf983	10.810916
250	0xc0849428	-4.1430855
251	0xc0047aec	-2.0700026
252	0x41212f53	10.074054
253	0xc04621b6	-3.0958076
254	0xbf8201de	-1.015682
255	0xc03f9031	-2.9931757

bn4.weight f4 [256]
0	0xbefc6c6f	-0.49301478
1	0xc0605f8a	-3.5058312
2	0xbf31f558	-0.6951499
3	0x408c53d0	4.385231
4	0x4197e7b8	18.988144
5	0x401a0794	2.4067125
6	0xbfbea100	-1.4892883
7	0x4036a616	2.853887
8	0x3fe7bc39	1.8104316
9	0x421569aa	37.353188
10	0xc08dc708	-4.430546
11	0x3c87f477	0.016596062
12	0x40a3f555	5.1236978
13	0x3f1e6b8c	0.61882854
14	0xc05461c9	-3.3184683
15	0x3e462511	0.19350077
16	0x41349f2e	11.288862
17	0x4236f0e2	45.735237
18	0xc072b403	-3.792237
19	0xc00904a9	-2.1409094
20	0xc1cc6a26	-25.55183
21	0xbf8af1cb	-1.0855039
22	0x4039adab	2.9012249
23	0x403239bb	2.7847736
24	0x4096989b	4.7061286
25	0xbfaba0af	-1.3408412
26	0xc0347696	-2.819738
27	0x4024b616	2.5736136
28	0x3e6ba45a	0.23011914
29	0xc0307308	-2.757021
30	0xc0d3feb5	-6.624842
31	0xbc3c2ba6	-0.011485016
32	0x40bebfdb	5.96092
33	0x406e68ff	3.7251585
34	0x3f549f91	0.8305598
35	0x3e7e0d49	0.24809755
36	0x41014a06	8.080572
37	0xc159a403	-13.602542
38	0x3f92e46c	1.1475959
39	0xbd170a28	-0.03687492
40	0xbf059425	-0.52179176
41	0x4095f81f	4.686538
42	0x3fa65dd7	1.2997388
43	0x3ecab9fd	0.39595023
44	0x3fb4edf8	1.4135122
45	0xbfea8d1d	-1.8324314
46	0x405a30f4	3.4092379
47	0x3fcc9ca0	1.5985298
48	0xbf8fc9cd	-1.123346
49	0xbf17685c	-0.59143615
50	0x40259bf2	2.5876431
51	0x422ea3e9	43.66007
52	0x3f22ff4b	0.63670796
53	0xbd8a9f3a	-0.06768651
54	0xbfc9118f	-1.5708483
55	0x3feafe36	1.8358829
56	0xbffa9f24	-1.9579816
57	0xbfc389b4	-1.5276399
58	0xbf08cf21	-0.53441054
59	0xc07c4ea8	-3.9423008
60	0x3d94517c	0.072421044
61	0x41053e9b	8.327785
62	0x411e42b4	9.891285
63	0xbe11a00e	-0.14221212
64	0xc034e71d	-2.826606
65	0x3fe58751	1.793192
66	0xbf66d5f6	-0.9017023
67	0xc1ad8e29	-21.694414
68	0x40036d24	2.0535364
69	0xbed8d920	-0.42353153
70	0x3e7eeccf	0.24895023
71	0xbdc18c96	-0.09450643
72	0x40751538	3.82942
73	0x3ff6ebdf	1.9290732
74	0xbf23630d	-0.63823014
75	0xc0b15edd	-5.54283
76	0xc102c513	-8.173114
77	0x3ff9df60	1.9521294
78	0x4035ea4e	2.8424258
79	0x40720828	3.7817478
80	0x402f31ed	2.7374222
81	0xbf0bcbb4	-0.546077
82	0x3dfd0f3b	0.123564206
83	0x3f791789	0.97301537
84	0xbe12f725	-0.1435209
85	0x3ff1ebdd	1.8900105
86	0xbf1b7a96	-0.60733926
87	0x3f9583da	1.1680863
88	0x3fc3d146	1.529824
89	0xbff425e5	-1.9074064
90	0x419f67fe	19.925777
91	0x3e0d1ca3	0.13780455
92	0xc0279f46	-2.6190963
93	0xbf05e1ea	-0.5229784
94	0xbfd12811	-1.6340352
95	0x3f7a7e25	0.9784873
96	0x4037f5b1	2.8743708
97	0x3f67b98b	0.9051749
98	0xbf10465b	-0.56357354
99	0xbe9357c1	-0.28777888
100	0xc081d7eb	-4.057607
101	0x409f255e	4.9733114
102	0x3f7ead1b	0.9948289
103	0x4235c3c5	45.44118
104	0x408b2423	4.348161
105	0xc12c7bfc	-10.78027
106	0x4001566b	2.0208995
107	0xc01f533b	-2.489455
108	0xbe56f3e4	-0.20991474
109	0xbe923ff3	-0.28564414
110	0x3e8548bd	0.26032057
111	0xbfda1f77	-1.7040852
112	0x41081a8a	8.506479
113	0x41651342	14.317202
114	0x4169b0e6	14.605688
115	0xbfc28710	-1.5197468
116	0xbe3d83ff	-0.18507384
117	0x40cfc079	6.492245
118	0x401d4851	2.4575388
119	0x3fdacc80	1.7093658
120	0x4146f8ae	12.435713
121	0xbfcd4544	-1.6036763
122	0xbfa8f2b0	-1.3199062
123	0xbf30836b	-0.6895053
124	0xbed4ad5b	-0.4153851
125	0x3e2a8ec5	0.16656025
126	0xc0923d04	-4.569948
127	0x3ca10de7	0.01965995
128	0xbeb6c225	-0.35694996
129	0xc02da0fc	-2.7129507
130	0xc001fe82	-2.031159
131	0x3d8a93a4	0.067664415
132	0x409e2cf6	4.9429884
133	0x3e223e2a	0.15844026
134	0xbe845268	-0.2584412
135	0xc1aa1dd5	-21.264566
136	0x4000ec7f	2.0144346
137	0x3e698942	0.22806266
138	0xc0eb015f	-7.3439174
139	0x4036fb38	2.8590832
140	0xc03bb578	-2.932951
141	0x411a0a4c	9.627514
142	0x40a24b00	5.0716553
143	0xbdac9041	-0.08425952
144	0xbf6dcca6	-0.92890394
145	0xbfe3f6a4	-1.7809644
146	0x3dd0855d	0.10181687
147	0xc04c6733	-3.1937988
148	0xbef8922f	-0.4854903
149	0x3fc49ca2	1.53603
150	0xbf38a554	-0.7212727
151	0x401c4ed0	2.4423103
152	0x3f349dae	0.705531
153	0x41ef71ea	29.930622
154	0xbdb7739a	-0.08957596
155	0x3f9bc957	1.2170819
156	0xc04e3ba2	-3.2223897
157	0x3fb4ab18	1.4114714
158	0x406f5fa6	3.740213
159	0xc096091d	-4.6886125
160	0x3fdf8457	1.7462262
161	0x421aacd5	38.66878
162	0x404326fc	3.0492544
163	0x40e274aa	7.076741
164	0xc081b594	-4.0534153
165	0x4063b2b4	3.5577822
166	0xbf6d1e59	-0.9262443
167	0xc0e43d28	-7.1324654
168	0x3d09ea9d	0.03367101
169	0x3e96d574	0.29459727
170	0xbfebb550	-1.8414707
171	0x401d1b95	2.4548085
172	0xbffb2456	-1.9620464
173	0xc18b0bcd	-17.380762
174	0x3f8cb7e5	1.099362
175	0xbf1eadcb	-0.6198394
176	0xbff8edae	-1.9447534
177	0xbfdd4126	-1.7285507
178	0x3f8f2b57	1.1185101
179	0xc080e1dd	-4.027571
180	0xbfb5e14d	-1.4209381
181	0x401e7593	2.4759262
182	0xc0869e6a	-4.2068377
183	0x420ae1eb	34.720623
184	0xc0219907	-2.524965
185	0xbff18d3f	-1.887123
186	0xc0475748	-3.1147022
187	0x3fc67d79	1.5507041
188	0xbfffe5d5	-1.9992014
189	0x3f3f0102	0.7461091
190	0x3fb82d48	1.4388819
191	0xc07ea9ff	-3.9791257
192	0xbeec7dbe	-0.46189684
193	0x408b2ade	4.348983
194	0x3eb1f735	0.34758916
195	0x3f94f9e9	1.1638767
196	0x4231be99	44.43613
197	0x3f195a3c	0.5990331
198	0x4014300c	2.3154325
199	0xbf121b2b	-0.57072705
200	0xbf2321f9	-0.63723713
201	0x3ff16b10	1.8860798
202	0x40a98ae5	5.298205
203	0xc1fb38a6	-31.40266
204	0x3f96061a	1.1720612
205	0x3fd8ed0e	1.6947343
206	0xc037c988	-2.8716755
207	0xbeec91f3	-0.462051
208	0xc06872dc	-3.6320105
209	0xbfab8b12	-1.3401816
210	0x42380cf8	46.012665
211	0xbe9c0b91	-0.30477574
212	0xbd40da1b	-0.047083
213	0xc03b9ee9	-2.931574
214	0xbee4f5d3	-0.447188
215	0xbfb88770	-1.4416332
216	0xc0998dba	-4.7985506
217	0xbfcbea70	-1.593092
218	0xc0e8dac8	-7.2767067
219	0xbe5544c0	-0.20827007
220	0xc0517323	-3.2726524
221	0xc1142223	-9.258334
222	0xbf5c9da9	-0.8617807
223	0x40b3b7e4	5.6161976
224	0x40b15d6c	5.542654
225	0x3f0d10a1	0.551035
226	0x3ef9327e	0.48671335
227	0xc043060e	-3.0472445
228	0xbfb7a219	-1.4346343
229	0xc0526bdb	-3.287833
230	0xc012ae44	-2.2918863
231	0x40fd7cf7	7.9215045
232	0xbfe7a9ed	-1.8098732
233	0x3eae5ba5	0.34054294
234	0x40ad0271	5.406548
235	0xc0231541	-2.5481722
236	0xc0af9aa7	-5.4876285
237	0x3f7ec41e	0.99518
238	0xc015a4b5	-2.338178
239	0x41a70a68	20.880081
240	0xc09fc988	-4.993351
241	0xbb81907c	-0.0039539915
242	0x40ef4140	7.476715
243	0x4213dba5	36.964497
244	0x41d392fd	26.446772
245	0xc063a6b3	-3.5570495
246	0xbea0fb9a	-0.31441957
247	0x4021133d	2.5167992
248	0xc0a2ef73	-5.0917296
249	0xbf8aa945	-1.0832907
250	0x3f8a452b	1.0802358
251	0xc18cf545	-17.61976
252	0x40e36f1e	7.107314
253	0xc09dc2cb	-4.9300284
254	0x40096773	2.146939
255	0x40e30cf5	7.0953317
