mini_batch_exp/models/mnist_sgd_batch8192_lr0.1.pt (torch_old, 326372 bytes, 26 tensors)

conv1.weight f4 [16, 1, 3, 3]
0.2390156 -0.10606061 0.2734019 0.30975154 0.18770777 -0.10137701 0.31439483 -0.29951552
-0.040639523 -0.16460706 -0.11326094 0.17514102 0.25045025 -0.0022404895 -0.054478087 0.19273156
0.27161086 0.22547126 -0.010270896 0.26712584 -0.14990386 -0.21106616 0.33409578 0.22824354
0.0956151 -0.1284098 0.18116133 0.24164683 0.24460854 0.17252049 -0.33271143 -0.13922772
-0.04435729 0.069678016 -0.11051653 -0.0998782 0.34481776 -0.11478848 -0.31246454 0.29321715
0.20446669 -0.32871297 -0.0688092 -0.3053704 0.15941378 0.07559354 -0.045080177 -0.20414224
-0.29796222 -0.038831264 0.04752663 0.22502361 0.14396136 0.0636196 -0.20065352 -0.069575064
-0.14836134 0.11226829 -0.24588992 0.1577061 -0.2004403 0.29095906 0.30898976 -0.0013663755
-0.2971183 -0.059016913 0.23965383 0.1409258 -0.03013139 0.13781099 0.14615096 -0.10844389
-0.28470677 -0.2914133 0.14114001 -0.095663205 0.30574477 -0.32219446 0.05522745 0.3496101
-0.26695266 0.20973833 -0.21353406 -0.09932592 -0.037104547 0.28602633 0.023458937 0.255803
-0.19337475 -0.10660887 0.3170569 -0.15690936 -0.2095947 0.19669046 -0.19043747 0.035845425
-0.16835845 0.19225927 -0.1888832 -0.036949556 0.17416245 0.23824736 -0.22905457 0.1883024
-0.017668497 0.21970691 0.0661981 -0.302658 -0.07897824 -0.22961782 -0.22547668 -0.160707
-0.08179471 -0.110276766 -0.05038578 -0.081209175 -0.10913326 0.08635427 0.27475345 0.03359681
-0.2591181 -0.09006433 0.14213414 0.00886559 0.04919851 0.102726154 0.1848536 -0.25136372
0.11756928 -0.17794988 -0.13979317 -0.13963008 -0.18432862 -0.08458224 0.28869298 0.24265775
0.14884837 0.34036925 -0.11541972 -0.24958326 -0.29139638 -0.26221898 0.12384976 -0.31413338
00000000: 81c0 743e 4e36 d9bd 55fb 8b3e c197 9e3e
00000010: 7736 403e c09e cfbd 5cf8 a03e 195a 99be
00000020: a175 26bd c18e 28be 5af5 e7bd 2b58 333e
00000030: 043b 803e 2dd5 12bb 6a24 5fbd 6c5b 453e
00000040: 9410 8b3e f0e1 663e 4347 28bc b8c4 883e
00000050: 6680 19be ba21 58be 9a0e ab3e adb8 693e
00000060: d9d1 c33d dc7d 03be 5b82 393e 4472 773e
00000070: a97a 7a3e 36a9 303e 2759 aabe b691 0ebe
00000080: fdaf 35bd 59b3 8e3d 7e56 e2bd f18c ccbd
00000090: f48b b03e 3916 ebbd 5afb 9fbe 8f20 963e
000000a0: b75f 513e 114d a8be d6eb 8cbd 8259 9cbe
000000b0: 5e3d 233e c9d0 9a3d fea5 38bd aa0a 51be
000000c0: 818e 98be 880d 1fbd 49ab 423d 976c 663e
000000d0: 9b6a 133e fe4a 823d 1e78 4dbe 5f7d 8ebd
000000e0: 09ec 17be ebec e53d 91ca 7bbe b57d 213e
000000f0: 3940 4dbe 96f8 943e e833 9e3e f417 b3ba
00000100: e41f 98be b8bb 71bd d067 753e da4e 103e
00000110: 1bd6 f6bc 531e 0d3e 99a8 153e d517 debd
00000120: 16c5 91be 2034 95be 0287 103e 12eb c3bd
00000130: 948a 9c3e acf6 a4be 2e36 623d 1800 b33e
00000140: 05ae 88be a5c5 563e aca8 5abe 636b cbbd
00000150: f0fa 17bd 0b72 923e f52c c03c 9cf8 823e
00000160: 0804 46be c055 dabd 4855 a23e d9ac 20be
00000170: fe9f 56be 3969 493e 0a02 43be a7d2 123d
00000180: 2866 2cbe 9ddf 443e 996a 41be 6b58 17bd
00000190: a457 323e 1ef7 733e 488d 6abe 58d2 403e
000001a0: 86bd 90bc d9fa 603e df92 873d fdf5 9abe
000001b0: 58bf a1bd ef20 6bbe 5ce3 66be 6090 24be
000001c0: fc83 a7bd c9d8 e1bd 5261 4ebd ff50 a6bd
000001d0: 4281 dfbd 82da b03d 7cac 8c3e cf9c 093d
000001e0: 21ab 84be a673 b8bd 9d8b 113e fb40 113c
000001f0: 6084 493d 1762 d23d 434a 3d3e bfb2 80be
00000200: 2ac8 f03d 7e38 36be f125 0fbe 30fb 0ebe
00000210: a4c0 3cbe 7439 adbd 91cf 933e 467b 783e
00000220: b56b 183e e144 ae3e 2d61 ecbd c192 7fbe
00000230: e831 95be 9141 86be f1a4 fd3d 17d6 a0be

conv1.bias f4 [16]
0.10397569 -0.24557683 -0.115607984 0.20513771 -0.25640225 -0.0945284 0.042667985 0.016433459
0.11482913 -0.21944451 -0.032980476 0.06189493 -0.33205426 -0.26511544 0.17515051 -0.087866664
00000000: 35f1 d43d 7e78 7bbe e1c3 ecbd 9f0f 523e
00000010: 2847 83be 1b98 c1bd a0c4 2e3d 769f 863c
00000020: 892b eb3d 10b6 60be 8916 07bd 8a85 7d3d
00000030: 0403 aabe 36bd 87be a85a 333e 70f3 b3bd

bn1.weight f4 [16]
1.0001163 1.0163035 1.0029349 1.0266882 0.994674 1.0135541 0.9951678 1.0167189
0.95839554 0.98839116 0.99454594 0.995015 0.9851263 1.0129263 0.97532153 1.0221307
00000000: d003 803f 3c16 823f 2c60 803f 856a 833f
00000010: f5a2 7e3f 24bc 813f 51c3 7e3f d823 823f
00000020: 6959 753f 3407 7d3f 909a 7e3f 4eb9 7e3f
00000030: 3d31 7c3f 92a7 813f acae 793f 2ed5 823f

bn1.bias f4 [16]
0.0032203349 0.0017590295 -0.0026093717 -0.0075708386 0.0053409953 0.010438992 -0.002051238 0.0066610277
0.0014374704 -0.008145663 0.010569756 0.0042595165 0.0009993659 0.0018646371 -0.008188828 -0.0009414939
00000000: 410c 533b 3c8f e63a fe01 2bbb cc14 f8bb
00000010: 8403 af3b 4e08 2b3c 106e 06bb c044 da3b
00000020: 8169 bc3a 6375 05bc c52c 2d3c 6a93 8b3b
00000030: 28fd 823a d766 f43a 6f2a 06bc 96ce 76ba

bn1.running_mean f4 [16]
48.078377 46.092648 36.416077 13.306914 17.598907 9.929574 18.996603 18.399775
5.680505 15.363517 9.43857 25.05083 6e-45 22.88849 6.879793 11.566076
00000000: 4250 4042 df5e 3842 10aa 1142 1fe9 5441
00000010: 90ca 8c41 89df 1e41 0bf9 9741 bd32 9341
00000020: b2c6 b540 f7d0 7541 6204 1741 1a68 c841
00000030: 0400 0000 a11b b741 4427 dc40 a60e 3941

bn1.running_var f4 [16]
6044.3647 5337.2847 3437.1667 907.33734 1450.222 497.217 1531.236 1239.6925
262.75848 784.44836 556.1275 1870.9574 6e-45 1344.5167 218.39038 973.64984
00000000: ebe2 bc45 47ca a645 abd2 5645 97d5 6244
00000010: 1b47 b544 c79b f843 8d67 bf44 29f6 9a44
00000020: 1661 8343 b21c 4444 2908 0b44 a3de e944
00000030: 0400 0000 8910 a844 f063 5a43 9769 7344

conv2.weight f4 [32, 16, 4, 4]
0.01263781 0.048328377 0.04487535 0.016824478 0.04635758 -0.04581191 0.06421208 0.013939746
0.014722774 0.04599944 0.01063101 0.019508805 -0.062354308 0.06568762 -0.035449553 -0.049290325
-0.03952813 0.009670868 0.043435287 -0.057893094 -0.03168907 0.02935468 -0.0016319802 -0.034477867
-0.037824504 0.00081571634 -0.05925734 -0.06349032 -0.030341884 -0.05160665 0.018886838 -0.034259852
-0.057696607 0.041463375 -0.050018515 -0.064191215 -0.011559045 -0.0066512427 0.058378547 0.035826463
-0.040656127 -0.04345781 -0.009046094 -0.025455717 0.013393906 0.06150206 -0.006756993 -0.035253525
0.049751796 -0.050912272 -0.001764126 0.028311618 -0.017883085 -0.000533953 0.002584579 0.022057187
-0.061849177 0.023853736 -0.061307207 -0.05392324 -0.06770294 0.045344654 -0.04657096 -0.00933026
-0.021975785 0.051957905 -0.0594309 -0.03337515 -0.049652208 -0.0085339565 0.016531773 0.045012143
0.02127727 -0.007980264 -0.039539162 0.005882478 0.027024023 -0.035688665 0.029611474 -0.0053859847
-0.02244756 -0.0061046793 -0.015135127 -0.0645469 -0.008603782 0.018846573 -0.043225516 -0.028878924
0.03742607 0.030264033 0.03167055 0.035881057 0.050036196 0.05351706 -0.037342414 -0.064547084
-0.046842337 -0.014267411 -0.026500398 -0.011319814 -0.011349366 -0.06867104 0.015595288 -0.054263443
0.042991355 -0.008836401 0.010168453 0.049960203 -0.04776637 0.0011986465 0.04335717 -0.011174585
-0.04055484 -0.018115776 0.01910972 0.016814142 0.0298864 0.001676942 -0.032266922 0.037817612
-0.03550353 0.012580383 0.021201555 0.02371506 0.046388894 -0.043318924 0.019861264 -0.056819506
-0.05777286 -0.02008782 -0.061938155 -0.0064708795 -0.022171566 -0.01818911 -0.0011506322 0.019287929
0.02700441 0.029584983 -0.074576035 0.029942194 0.035260998 0.011213458 -0.0040061246 -0.040908977
-0.034920163 0.008646489 0.01392915 -0.0044067875 0.0339318 0.0077062235 -0.009726084 0.048180774
0.030050615 0.014178826 -0.06831428 -0.03141495 0.010955301 0.051071726 -0.059665706 -0.03774734
-0.057109382 -0.052950624 -0.044056777 -0.0021300071 0.015237318 0.010345352 0.016751526 0.026898382
0.057579942 -0.030591788 0.04643253 0.03807913 0.024518108 0.060774215 0.037070137 -0.016946474
0.02837859 0.024342356 0.058542177 -0.0015944134 0.038731255 -0.04175309 -0.03635189 -0.016505804
0.002842718 -0.042475935 0.015447912 -0.020721002 0.069154486 -0.057135426 -0.022348007 -0.013472948
0.05370323 0.025969187 0.058512792 0.017188841 -0.0032937322 -0.052858002 -0.016695408 0.023083676
0.051917758 0.039263964 -0.03831812 0.01569818 0.015033652 0.014133708 0.003378523 0.031531338
-0.0051415376 -0.044247 0.014176059 -0.006134792 -0.010273733 -0.004182582 0.018077957 -0.06715926
-0.048282787 -0.04341695 0.0046830843 0.01985275 0.05564849 0.0123875225 -0.006293498 -0.06149997
-0.009146396 -0.03163388 -0.0126985125 0.02102471 -0.0267851 0.039010715 -0.0085763885 -0.024505997
-0.022136677 -0.042204257 -0.03255192 -0.04005558 0.026330823 0.0070996988 0.049280036 0.03912228
-0.049217705 -0.044715244 -0.0020971792 -0.034437656 -0.049383998 -0.0038010431 0.03381724 -0.0151561815
-0.043599878 -0.0027853574 -0.01594044 -0.011341948 -0.08255258 0.00592085 -0.06305803 -0.056642223
00000000: d10e 4f3c faf3 453d 37cf 373d 7dd3 893c
00000010: 72e1 3d3d 45a5 3bbd 9f81 833d 8863 643c
00000020: ca37 713c e969 3c3d b02d 2e3c eed0 9f3c
00000030: 3b67 7fbd 3b87 863d 8d33 11bd a7e4 49bd
00000040: 40e8 21bd 8f72 1e3c 33e9 313d 4f21 6dbd
00000050: 66cc 01bd 3a79 f03c 2be8 d5ba aa38 0dbd
00000060: deed 1abd ccd5 553a d3b7 72bd 3707 82bd
00000070: 8b8f f8bc 7f61 53bd 92b8 9a3c 0f54 0cbd
00000080: 4753 6cbd 80d5 293d 37e0 4cbd af76 83bd
00000090: 2662 3dbc abf2 d9bb 581e 6f3d c5be 123d
000000a0: 0a87 26bd d100 32bd 1136 14bc 8288 d0bc
000000b0: 1d72 5b3c 96e9 7b3d c469 ddbb 0066 10bd
000000c0: 8ac8 4b3d 6389 50bd 3f3a e7ba c4ed e73c
000000d0: 8c7f 92bc fbf8 0bba 0a62 293b 46b1 b43c
000000e0: 9055 7dbd e968 c33c 441d 7bbd 9ede 5cbd
000000f0: d7a7 8abd 51bb 393d 31c1 3ebd f2dd 18bc
00000100: 9006 b4bc d0d1 543d d16d 73bd 62b4 08bd
00000110: 1d60 4bbd 02d2 0bbc a46d 873c a75e 383d
00000120: ab4d ae3c a7bf 02bc d1f3 21bd cdc1 c03b
00000130: 7c61 dd3c 472e 12bd c393 f23c ea7c b0bb
00000140: f2e3 b7bc c309 c8bb 53f9 77bc 2a31 84bd
00000150: e1f6 0cbc 2164 9a3c 3d0d 31bd 7e93 ecbc
00000160: 144c 193d 47ec f73c fbb8 013d 04f8 123d
00000170: c1f2 4c3d b434 5b3d 5cf4 18bd 4331 84bd
00000180: c0dd 3fbd dcc1 69bc 5d17 d9bc be76 39bc
00000190: b1f2 39bc 67a3 8cbd 6183 7f3c 5843 5ebd
000001a0: b417 303d 8dc6 10bc 9599 263c 12a3 4c3d
000001b0: aba6 43bd e71b 9d3a 4a97 313d 9b15 37bc
000001c0: d51c 26bd 8967 94bc fd8b 9c3c d0bd 893c
000001d0: 53d4 f43c d6cc db3a 522a 04bd a4e6 1a3d
000001e0: 266c 11bd f31d 4e3c e2ae ad3c 1646 c23c
000001f0: 4802 3e3d 2f6f 31bd 17b4 a23c 92bb 68bd
00000200: 3ca3 6cbd 368f a4bc ddb2 7dbd ac09 d4bb
00000210: 25a1 b5bc 5401 95bc cfd0 96ba b801 9e3c
00000220: 5a38 dd3c 355c f23c 52bb 98bd 5549 f53c
00000230: d66d 103d a7b8 373c cf45 83bb 2c90 27bd
00000240: 7208 0fbd 01aa 0d3c 1737 643c d066 90bb
00000250: 12fc 0a3d 7d84 fc3b 275a 1fbc 3459 453d
00000260: b52c f63c 4e4e 683c 5be8 8bbd f6ac 00bd
00000270: dd7d 333c 9630 513d 0764 74bd f49c 1abd
00000280: 87eb 69bd c1e2 58bd e174 34bd 9797 0bbb
00000290: f2a5 793c 8d7f 293c 7f3a 893c ff59 dc3c
000002a0: f2d8 6b3d a19b fabc 0930 3e3d ddf8 1b3d
000002b0: 33da c83c 62ee 783d dbd6 173d 55d3 8abc
000002c0: 377a e83c 9f69 c73c ecc9 6f3d a3fb d0ba
000002d0: aaa4 1e3d 4a05 2bbd b8e5 14bd 2e37 87bc
000002e0: e54c 3a3b 3ffb 2dbd 3d19 7d3c 17bf a9bc
000002f0: dea0 8d3d d606 6abd 2b13 b7bc a4bd 5cbc
00000300: ebf7 5b3d 55bd d43c 1cab 6f3d 9dcf 8c3c
00000310: a8db 57bb a281 58bd cfc4 88bc fa19 bd3c
00000320: b7a7 543d 40d3 203d 76f3 1cbd 7899 803c
00000330: b54f 763c 1191 673c 366a 5d3b 0127 013d
00000340: 587a a8bb 583c 35bd b342 683c 5e06 c9bb
00000350: 2953 28bc 0a0e 89bb 3918 943c cb8a 89bd
00000360: 2cc4 45bd f9d5 31bd 8f74 993b 3ca2 a23c
00000370: acef 633d 09f5 4a3c b039 cebb 64e7 7bbd
00000380: c4da 15bc 8792 01bd 6c0d 50bc 033c ac3c
00000390: 6d6c dbbc b3c9 1f3d fb83 0cbc cdc0 c8bc
000003a0: fa57 b5bc 5fde 2cbd 2955 05bd 5211 24bd
000003b0: bdb3 d73c 97a4 e83b ddd9 493d af3e 203d
000003c0: 8198 49bd 5527 37bd d470 09bb 800e 0dbd
000003d0: e046 4abd ec1a 79bb f283 0a3d a251 78bc
000003e0: c995 32bd 8b8a 36bb 8795 82bc 94d3 39bc
000003f0: 5411 a9bd b103 c23b 9224 81bd ad01 68bd

conv2.bias f4 [32]
0.046877015 -0.014572807 -0.0002575403 -0.05826403 -0.017593106 0.044139102 0.038137756 0.04414137
-0.052331362 0.03619259 -0.06194908 0.018766358 0.047803394 0.010942721 -0.043205954 0.010218793
-0.055694617 -0.0587619 -0.07110891 0.02180309 -0.03378944 0.05494403 -0.022345131 -0.04035334
-0.0066909296 -0.0031375242 0.049962863 -0.029631032 0.03925127 -0.031281214 0.026524121 0.035160527
00000000: 1d02 403d c8c2 6ebc 7906 87b9 43a6 6ebd
00000010: 6b1f 90bc 34cb 343d 5636 1c3d 95cd 343d
00000020: 6959 56bd ae3e 143d 52be 7dbd e8bb 993c
00000030: 7ecd 433d 1949 333c baf8 30bd b96c 273c
00000040: 0a20 64bd 51b0 70bd 8ca1 91bd 659c b23c
00000050: cc66 0abd fe0c 613d 230d b7bc 8b49 25bd
00000060: 963f dbbb ec9e 4dbb dca5 4c3d c7bc f2bc
00000070: f1c5 203d bb20 00bd 1d49 d93c 7c04 103d

bn2.weight f4 [32]
0.9987428 1.0026736 1.0119408 0.99271685 0.99753886 0.9977416 0.9924617 0.99526185
0.9835847 0.99817836 0.99381566 1.0215628 1.0037779 1.012943 0.9875309 1.00557
1.0039188 0.9984484 0.99957156 1.0162904 0.99770075 1.003073 1.0001016 0.9787736
0.99113905 0.9957466 0.9998613 0.9881614 1.0000911 1.0169628 1.0168865 0.9950764
00000000: 9cad 7f3f 9c57 803f 4787 813f b122 7e3f
00000010: b55e 7f3f fe6b 7f3f f811 7e3f 7bc9 7e3f
00000020: 35cc 7b3f 9e88 7f3f b46a 7e3f 92c2 823f
00000030: cb7b 803f 1ea8 813f d3ce 7c3f 85b6 803f
00000040: 6980 803f 509a 7f3f ece3 7f3f ce15 823f
00000050: 5169 7f3f b264 803f 5403 803f e890 7a3f
00000060: 4abb 7d3f 40e9 7e3f e9f6 7f3f 25f8 7c3f
00000070: fc02 803f d62b 823f 5629 823f 54bd 7e3f

bn2.bias f4 [32]
0.0037978154 -0.0016208711 0.0026391796 0.0022974284 -0.00242882 0.0048813503 0.0019176563 -0.0032742727
-0.0010854106 0.008149219 0.002154053 0.0029179633 -0.0010734452 -0.0014046591 0.0015502409 0.002190819
-0.0011062463 -0.0007007545 0.0007256365 0.0008667789 -0.001260285 0.0014676964 0.0035054435 0.0018307989
0.002278639 -5.2432264e-05 -0.0016329396 0.00044337806 4.354036e-05 0.0039764503 0.0010395442 -0.0016381136
00000000: c5e4 783b 6973 d4ba 16f6 2c3b 7490 163b
00000010: d62c 1fbb bcf3 9f3b de59 fb3a 2e95 56bb
00000020: 5644 8eba 4d84 053c 032b 0d3b 4d3b 3f3b
00000030: d8b2 8cba 8a1c b8ba 7431 cb3a d893 0f3b
00000040: 77ff 90ba d7b2 37ba a438 3e3a 8c38 633a
00000050: 2630 a5ba b85f c03a 95bb 653b 6bf7 ef3a
00000060: 3855 153b b7ea 5bb8 5c08 d6ba 3275 e839
00000070: 1b9f 3638 e24c 823b 5141 883a f9b5 d6ba

bn2.running_mean f4 [32]
0.40774477 0.9067952 0.7603023 0.4560419 0.7089825 0.84659547 0.8349956 0.9528636
0.62292695 0.3980968 0.37714955 0.41209123 0.6714416 0.6213934 0.82524633 0.6120895
0.42059854 0.63452435 0.5266328 0.67737347 0.470596 1.0153425 0.7611589 0.5078083
0.45724684 0.53170186 0.7619487 0.6651499 0.39637107 0.4781174 0.5231693 0.647514
00000000: ecc3 d03e bb23 683f 2ca3 423f 537e e93e
00000010: e17f 353f 7bba 583f 46c2 553f deee 733f
00000020: 2478 1f3f 58d3 cb3e bf19 c13e 9ffd d23e
00000030: 99e3 2b3f a313 1f3f 5843 533f e6b1 1c3f
00000040: b158 d73e 3070 223f 68d1 063f 5968 2d3f
00000050: f5f1 f03e bef6 813f 4fdb 423f baff 013f
00000060: 421c ea3e 9d1d 083f 120f 433f 4447 2a3f
00000070: 26f1 ca3e cecb f43e 6cee 053f 7ac3 253f

bn2.running_var f4 [32]
0.19229625 0.74234766 0.6688247 0.24143751 0.370779 0.60719717 0.6356477 0.67311466
0.31919247 0.16573434 0.21347709 0.18622054 0.36520675 0.45519271 0.39448997 0.49266466
0.26444027 0.31300044 0.3544719 0.4967213 0.29636985 0.68907267 0.50909567 0.2021025
0.23570497 0.3206455 0.3537617 0.40777633 0.1449845 0.327952 0.22445454 0.34061337
00000000: 4fe9 443e 7f0a 3e3f 1838 2b3f 653b 773e
00000010: bfd6 bd3e 4671 1b3f cfb9 223f 3e51 2c3f
00000020: 326d a33e 43b6 293e bd99 5a3e 99b0 3e3e
00000030: 61fc ba3e 050f e93e 97fa c93e 8b3e fc3e
00000040: b764 873e 9841 a03e 577d b53e 4152 fe3e
00000050: cabd 973e 1167 303f 1854 023f f5f3 4e3e
00000060: a55c 713e a62b a43e 4120 b53e 0fc8 d03e
00000070: d176 143e 53e9 a73e 69d7 653e e064 ae3e

conv3.weight f4 [64, 32, 5, 5]
-0.006158632 -0.022228532 -0.037061602 0.0020551358 -0.015792035 -0.0030912417 0.031151738 0.03150793
-0.026674014 0.010331143 0.03315416 0.011002132 0.039971035 -0.030145902 0.020062955 0.010081698
0.019884873 0.0047489787 0.01431435 0.00462563 -0.032070786 0.02462732 -0.035708625 0.029088274
-0.0027893512 0.027451087 -0.01825283 -0.011982783 0.034352433 0.00021618258 0.02197217 -0.027776707
-0.027671326 0.010724558 -0.016932525 0.03181051 0.013238844 0.026884487 0.022931887 0.026606273
-0.028084898 -0.028483419 -0.025278822 -0.005995915 -0.027033092 -0.014880991 0.01141431 -0.031714465
-0.02319981 -0.027238615 -0.0065964847 -0.010871943 0.00783465 -0.0123759145 0.012415786 -0.01701529
-0.029695358 -0.01908592 -0.011412004 0.012795416 -0.012787897 -0.010245921 -0.030925216 -0.016759118
0.012277328 0.003030137 0.021174315 -0.02314086 0.011905308 -0.018757999 0.033953633 -0.02701363
-0.027563427 0.02247121 -0.017842315 0.029197032 -0.018629586 0.0237064 -0.0027471401 0.03885427
-0.026528914 0.0023944578 -0.007664883 -0.019938855 0.0018210702 -0.02036914 0.023968246 0.016140053
-0.024957422 0.011901919 -0.0014267861 -0.004628867 -0.015528048 -0.025445037 0.0021785984 -0.035641477
-0.0076354104 0.0024820138 -0.01048543 0.0073728515 -0.0031247411 0.007938138 -0.024432225 -0.013038745
-0.041561216 -0.0107173445 -0.021868011 0.036354948 0.005414731 0.012822053 0.0009792987 0.018052982
0.04523396 0.015777389 0.00059414154 0.00039449468 0.03749267 -0.030115636 0.0125216665 0.014105091
-0.014366918 0.009969384 0.03002985 -0.017072262 -0.031391505 -0.015803026 0.0031149795 0.0027362485
-0.013605941 -0.010725133 0.003747864 0.03773654 0.012808453 0.0076862825 0.023314653 0.012778057
0.013769918 -0.0053962907 -0.015628362 -0.029836174 -0.008701518 -0.026193999 -0.026885962 -0.037154667
-0.0008298763 -0.0012616204 -0.0018754214 -0.026402386 0.001543393 -0.026605152 0.009530722 -0.013019345
-0.018917713 -0.02325142 -0.011795735 0.015188782 -0.011424125 0.015518887 0.0050395085 -0.0016776376
-0.02525215 0.002098133 0.013909188 -0.0033266433 0.021593504 -0.0021005285 -0.030317912 0.024376143
0.0067629996 -0.0070849247 -0.016663928 -0.008675237 -0.0026679528 0.027711388 0.018757403 0.009072837
-0.011766411 0.016290322 0.03171537 -0.02598838 0.009395347 -0.030191105 0.013214309 0.010196162
0.0034780717 0.0008231292 2.9283256e-05 -0.0126009565 -0.01391576 0.00052002224 0.016736696 -0.028992854
-0.00050700974 -0.019714827 0.0096069705 0.0015643965 0.026834844 0.008166248 0.0036894707 0.011778137
-0.016268408 0.015981464 -0.017733406 -0.021712918 0.026303556 -0.024737984 -0.023828149 -0.02141224
-0.028289199 0.03074372 0.019778844 -0.011378462 -0.011146345 0.013322418 -0.03204631 -0.008122604
-0.0011412234 -0.0043765116 0.014836069 0.021370215 -0.024192575 0.0066722645 -0.020085402 -0.016716367
-0.013225275 -0.00720499 0.029711103 -0.028409744 -0.0098213665 -0.008816456 0.033725403 0.0336035
-0.0018283867 -0.021348026 -0.015653579 0.0258817 0.0065978914 0.012951817 -0.031323962 -0.013878101
0.016193293 0.022102365 0.000565585 0.025131363 -0.0046094474 -0.02875179 0.03327033 -0.02585795
-0.015234857 -0.032840636 -0.015008261 -0.031058108 -0.024539707 0.019716308 0.0074466406 0.026922725
00000000: 5ace c9bb 9c18 b6bc e8cd 17bd 75af 063b
00000010: 4c5e 81bc 6e96 4abb ee31 ff3c 760e 013d
00000020: 7683 dabc f443 293c a8cc 073d 4942 343c
00000030: abb8 233d 8af4 f6bc 115b a43c b52d 253c
00000040: 9ae5 a23c 529d 9b3b bc86 6a3c 9992 973b
00000050: a85c 03bd 3cbf c93c 3543 12bd 884a ee3c
00000060: 8ccd 36bb 1ae1 e03c f586 95bc 6f53 44bc
00000070: 23b5 0c3d 12af 6239 fbfe b33c fa8b e3bc
00000080: faae e2bc 0eb6 2f3c 14b6 8abc bd4b 023d
00000090: bde7 583c db3c dc3c a7db bb3c 66f5 d93c
000000a0: 4d12 e6bc 0f56 e9bc 8815 cfbc 6179 c4bb
000000b0: 8174 ddbc 66cf 73bc 1603 3b3c 07e7 01bd
000000c0: 870d bebc 8423 dfbc 5327 d8bb 3c20 32bc
000000d0: e75c 003c 59c4 4abc 956b 4b3c a663 8bbc
000000e0: ae43 f3bc 135a 9cbc 6af9 3abc dda3 513c
000000f0: 5484 51bc 82de 27bc e156 fdbc 6b4a 89bc
00000100: d926 493c 4395 463b c275 ad3c e791 bdbc
00000110: 7b0e 433c 60aa 99bc f712 0b3d b04b ddbc
00000120: b2cc e1bc 8b15 b83c 0c2a 92bc 9d2e ef3c
00000130: 139d 98bc ed33 c23c 5d09 34bb a825 1f3d
00000140: 2a53 d9bc 56ec 1c3b b329 fbbb cf56 a3bc
00000150: fab0 ee3a 2fdd a6bc 0e59 c43c 2538 843c
00000160: 8273 ccbc 4400 433c ff02 bbba c0ad 97bb
00000170: 5b69 7ebc 1c72 d0bc d1c6 0e3b ccfc 11bd
00000180: 7732 fabb 48a9 223b 15cb 2bbc f697 f13b
00000190: 75c8 4cbb f70e 023c 1726 c8bc 76a0 55bc
000001a0: 183c 2abd cd97 2fbc 8b24 b3bc ede8 143d
000001b0: 0e6e b13b 9713 523c d05b 803a d9e3 933c
000001c0: 3f47 393d 953f 813c 2ac0 1b3a 2ed4 ce39
000001d0: ea91 193d 11b5 f6bc ad27 4d3c 0a19 673c
000001e0: 3963 6bbc a156 233c 2901 f63c 21db 8bbc
000001f0: 6194 00bd 5975 81bc af24 4c3b a252 333b
00000200: 74eb 5ebc 78b8 2fbc b99e 753b a191 1a3d
00000210: 8cda 513c 36dd fb3b 5ffe be3c 0e5b 513c
00000220: 399b 613c 5ed3 b0bb 0d07 80bc fe6a f4bc
00000230: d090 0ebc cc94 d6bc f33f dcbc 7e2f 18bd
00000240: 0e8c 59ba f55c a5ba b3d0 f5ba d149 d8bc
00000250: ad4b ca3a 0cf3 d9bc bf26 1c3c 174f 55bc
00000260: 52f9 9abc c379 bebc e642 41bc 5eda 783c
00000270: 412c 3bbc ee42 7e3c 7622 a53b 2de4 dbba
00000280: 99dd cebc d580 093b 5de3 633c d003 5abb
00000290: dce4 b03c 05a9 09bb 455d f8bc 7ab0 c73c
000002a0: 279c dd3b a828 e8bb ca82 88bc 9522 0ebc
000002b0: d2d8 2ebb fe02 e33c 20a9 993c 3da6 143c
000002c0: e8c7 40bc 4873 853c fae7 013d 95e5 d4bc
000002d0: f1ee 193c 5653 f7bc d480 583c ce0d 273c
000002e0: 5cf0 633b 44c7 573a 50a5 f537 3e74 4ebc
000002f0: eefe 63bc 1a52 083a 651b 893c 6c82 edbc
00000300: d9e8 04ba fd80 a1bc 8e66 1d3c 700c cd3a
00000310: bfd4 db3c bacb 053c 0ccb 713b 16f9 403c
00000320: 5345 85bc 8feb 823c a645 91bc 4adf b1bc
00000330: 8e7a d73c 50a7 cabc 4033 c3bc b968 afbc
00000340: c0be e7bc 41da fb3c 3e07 a23c bb6c 3abc
00000350: 299f 36bc 4546 5a3c fe42 03bd ac14 05bc
00000360: 1a95 95ba d768 8fbb fc12 733c 9710 af3c
00000370: 822f c6bc 03a3 da3b 248a a4bc c3f0 88bc
00000380: d3ae 58bc d617 ecbb b364 f33c 8dbb e8bc
00000390: cce9 20bc e672 10bc a623 0a3d d3a3 093d
000003a0: 7aa6 efba 0ee2 aebc ef3b 80bc dc05 d43c
000003b0: 2033 d83b dc33 543c 8e4d 00bd f960 63bc
000003c0: cca7 843c 0510 b53c c443 143a 4ae0 cd3c
000003d0: d90a 97bb e088 ebbc 7846 083d 0dd4 d3bc
000003e0: 9f9b 79bc e783 06bd 36e5 75bc 936d febc
000003f0: 7f07 c9bc 1884 a13c f302 f43b 0c8d dc3c

conv3.bias f4 [64]
-0.024051575 0.029237917 0.017541764 0.00057654997 0.0025785284 0.03216416 -0.022459183 0.0011017193
-0.014674323 0.017192172 -0.013029356 -0.033667963 -0.00014428425 0.014013112 0.0032289731 -0.02779348
0.029559271 0.013519852 0.011350705 -0.0018508924 0.010695393 -0.0007459843 0.031968366 -0.031182287
0.019798633 0.021718062 0.023165418 -0.007662405 -0.03496698 0.0222212 0.01503181 0.00043068326
0.008077707 0.027548272 -0.015194682 0.031623524 0.025399838 0.008224318 0.032265604 -0.011254066
-0.018458866 -0.029898435 0.023954084 -0.030480064 0.023855763 0.0025550008 -0.021220567 0.02579074
0.011726006 0.021144575 0.0056845397 0.02936072 -0.02679702 -0.0019716572 -0.012446855 -0.0118039595
-0.01726315 0.022121286 -0.0028054463 -0.013160733 0.010375383 0.016915794 0.016272023 0.00091838144
00000000: cf07 c5bc 5b84 ef3c bfb3 8f3c 9d23 173a
00000010: 87fc 283b 91be 033d 52fc b7bc 9167 903a
00000020: 926c 70bc 99d6 8c3c 1479 55bc 6be7 09bd
00000030: 024b 17b9 4097 653c 2e9d 533b 27af e3bc
00000040: 4926 f23c 5f82 5d3c 4ff8 393c a599 f2ba
00000050: bb3b 2f3c 298e 43ba 43f1 023d ff71 ffbc
00000060: be30 a23c 14ea b13c 67c5 bd3c e914 fbbb
00000070: 8939 0fbd 3c09 b63c fb47 763c 54cd e139
00000080: 5c58 043c eaac e13c 1ef3 78bc ab87 013d
00000090: 5213 d03c 4abf 063c f028 043d f962 38bc
000000a0: 0c37 97bc 90ed f4bc 5b3b c43c 54b1 f9bc
000000b0: 296d c33c cd71 273b c1d6 adbc 1a47 d33c
000000c0: 6f1e 403c 6337 ad3c 6045 ba3b e585 f03c
000000d0: 6d85 dbbc eb36 01bb e5ed 4bbc 6565 41bc
000000e0: 736b 8dbc b337 b53c 94db 37bb 1da0 57bc
000000f0: 83fd 293c fe92 8a3c e84c 853c 89bf 703a

bn3.weight f4 [64]
0.9852169 1.0108311 0.9950922 0.9983083 0.98803616 1.009483 1.0278593 0.9852237
1.0391349 1.0093187 0.99340314 0.99619627 0.9999533 1.0024934 0.9931349 1.0041497
0.9879811 1.0014329 1.001065 1.0143778 0.9728163 1.017657 0.9918251 1.0359656
1.0070308 1.0224073 1.0189776 0.9779042 0.9963711 0.9955754 1.0023415 0.99117893
1.0291781 1.0054501 0.99792373 1.0077868 0.9857342 1.0189968 0.98925686 1.0173149
0.98958844 1.000211 1.0230672 1.0136013 1.0094727 0.9888488 0.9979911 1.0064579
0.9988792 1.0092193 0.9891286 0.99259937 0.97872144 1.0118871 1.000379 0.9860993
0.9941557 0.976925 0.96454316 0.9605797 0.9768318 1.0003412 1.0331181 0.96693814
00000000: 2d37 7c3f ea62 813f 5dbe 7e3f 2291 7f3f
00000010: f0ef 7c3f bd36 813f e590 833f 9f37 7c3f
00000020: 5f02 853f 5b31 813f ab4f 7e3f b806 7f3f
00000030: f1fc 7f3f b451 803f 173e 7e3f fa87 803f
00000040: 54ec 7c3f f42e 803f e622 803f 22d7 813f
00000050: 7d0a 793f 9642 823f 40e8 7d3f 859a 843f
00000060: 63e6 803f 3ede 823f dc6d 823f ee57 7a3f
00000070: 2d12 7f3f 08de 7e3f ba4c 803f e7bd 7d3f
00000080: 1cbc 833f 97b2 803f ee77 7f3f 28ff 803f
00000090: 1459 7c3f 7d6e 823f f03f 7d3f 6037 823f
000000a0: ab55 7d3f ea06 803f def3 823f b0bd 813f
000000b0: 6736 813f 3225 7d3f 587c 7f3f 9dd3 803f
000000c0: 8cb6 7f3f 192e 813f 8837 7d3f fe1a 7e3f
000000d0: 7d8d 7a3f 8485 813f 6b0c 803f 0171 7c3f
000000e0: fd80 7e3f c217 7a3f 4dec 763f 8de8 753f
000000f0: a611 7a3f 2e0b 803f 373d 843f 4289 773f

bn3.bias f4 [64]
0.00039576492 -0.0004742531 -0.0033644356 -0.00016190784 0.002045939 0.002392834 -0.0041127945 0.0016824129
0.0075881323 -0.0017163315 0.0066053024 0.002120134 0.0054781977 0.00085606775 -0.0037432397 0.0060375235
0.002358195 -0.0020329063 -0.0027374409 -0.004155507 -0.0066129644 0.0028755644 0.0019805913 -0.00545129
0.0012208506 0.0039102254 -0.0028909405 -0.0038564047 -0.0034800593 0.008911508 0.00025967992 -0.004068577
-0.0032761209 0.0024115653 -0.0010582744 0.0062852106 0.0009682249 0.0032079057 0.00309899 -0.006497399
-0.0037353337 0.0015676349 0.0056181373 -0.00567221 0.0084317 0.007171018 0.0034515057 0.00051670324
-0.006501623 0.0003034937 -0.0077286125 0.0054184054 4.2718802e-05 -0.0061696563 0.0023556491 0.0029611045
3.0468811e-05 -0.002656272 -0.0002373645 0.001560017 0.004363842 -0.0036976647 -0.0018616267 0.0072321403
00000000: ab7e cf39 2ca5 f8b9 dd7d 5cbb cec5 29b9
00000010: 2915 063b 18d1 1c3b 9fc4 86bb 6984 dc3a
00000020: dea5 f83b 87f6 e0ba 4b71 d83b f2f1 0a3b
00000030: 7482 b33b bc69 603a 2451 75bb 6bd6 c53b
00000040: f28b 1a3b 823a 05bb a366 33bb eb2a 88bb
00000050: 91b1 d8bb f773 3c3b cfcc 013b bca0 b2bb
00000060: f304 a03a 5921 803b ef75 3dbb bcbb 7cbb
00000070: b511 64bb 9301 123c a625 8839 b351 85bb
00000080: 30b4 56bb 5a0b 1e3b ccb5 8aba 2bf4 cd3b
00000090: 79d0 7d3a ba3b 523b 6d18 4b3b 22e8 d4bb
000000a0: 80cc 74bb 1979 cd3a 5a18 b83b f2dd b9bb
000000b0: 1d25 0a3c dcfa ea3b a832 623b 5e73 073a
000000c0: 910b d5bb 3c1e 9f39 4d40 fdbb e18c b13b
000000d0: f72c 3338 d42a cabb 3c61 1a3b 170f 423b
000000e0: 4697 ff37 d914 2ebb 0ce5 78b9 7c79 cc3a
000000f0: 8ffe 8e3b 8554 72bb d401 f4ba 97fb ec3b

bn3.running_mean f4 [64]
0.43258548 0.2637139 0.2197064 0.21314588 1.0211424 0.23938219 0.07752238 0.33872095
0.18863812 0.49416342 0.34375545 0.21211763 0.23704219 0.19390783 0.25807422 0.2032045
0.5119221 0.21554323 0.62237644 0.15734534 0.26126632 0.16930081 0.17910706 0.049915254
0.074928366 0.26395404 0.56954914 0.07113133 0.15898328 0.3326921 0.46750176 0.24308269
0.1345945 0.19832833 0.104219794 0.44296306 0.45556936 0.16009633 0.85533 0.66239536
0.36688608 0.08971774 0.15890837 0.117733136 0.43376073 0.56152 0.5330612 0.24758068
0.24191895 0.39540505 0.25424814 0.42000884 0.9973938 0.29254824 0.33529887 0.6780528
0.1519416 0.16253322 0.38635612 0.11597576 0.36088285 0.43811336 0.3751076 0.110708
00000000: d87b dd3e 8205 873e b7fa 603e ea42 5a3e
00000010: cbb4 823f 9b20 753e 0ec4 9e3d d56c ad3e
00000020: 5a2a 413e fd02 fd3e b700 b03e 5d35 593e
00000030: 30bb 723e c68f 463e 4e22 843e d714 503e
00000040: 540d 033f 5db7 5c3e 1054 1f3f 231f 213e
00000050: b3c4 853e 315d 2d3e d767 373e f073 4c3d
00000060: 0b74 993d fc24 873e f9cd 113f 4ead 913d
00000070: 83cc 223e 9e56 aa3e 645c ef3e abea 783e
00000080: 24d3 093e 9516 4b3e 3071 d53d 0ecc e23e
00000090: 6340 e93e 4bf0 233e e8f6 5a3f be92 293f
000000a0: 7ed8 bb3e efbd b73d e0b8 223e 121e f13d
000000b0: e315 de3e c6bf 0f3f b376 083f ca85 7d3e
000000c0: 9ab9 773e 8872 ca3e d02c 823e 660b d73e
000000d0: 3355 7f3f e2c8 953e 4bac ab3e de94 2d3f
000000e0: 9496 1b3e 1c6f 263e 78d0 c53e b384 ed3d
000000f0: a3c5 b83e 6550 e03e 1a0e c03e e0ba e23d

bn3.running_var f4 [64]
0.16511275 0.11934668 0.123398766 0.12983778 0.4284568 0.116363905 0.039266285 0.25204328
0.075004935 0.15180695 0.19426574 0.10665749 0.097387046 0.09002287 0.09310705 0.10995913
0.23487502 0.12644087 0.442874 0.10939328 0.15741093 0.065845996 0.15835993 0.018810367
0.03496459 0.12592687 0.25147447 0.041236673 0.12181724 0.16462772 0.23367967 0.1397874
0.08587461 0.096888565 0.07510545 0.21292652 0.21619006 0.107025 0.43948278 0.29056808
0.17552996 0.044548802 0.12000917 0.076107726 0.17535232 0.47744665 0.19667728 0.11793002
0.18380393 0.1732526 0.1853076 0.1890703 0.56201166 0.12480289 0.16008468 0.3520747
0.10403696 0.092955835 0.2871053 0.05874648 0.2661254 0.20235917 0.11573634 0.0682965
00000000: 5113 293e 086c f43d 7eb8 fc3d 32f4 043e
00000010: b15e db3e 3350 ee3d afd5 203d d10b 813e
00000020: 309c 993d 4873 1b3e 99ed 463e 3e6f da3d
00000030: dc72 c73d e95d b83d e9ae be3d 4132 e13d
00000040: 1483 703e b779 013e 62c0 e23e 9609 e03d
00000050: 5530 213e 44da 863d 1b29 223e 3318 9a3c
00000060: 0837 0f3d f9f2 003e 43c1 803e c9e7 283d
00000070: 517b f93d 2b94 283e b949 6f3e 6e24 0f3e
00000080: 07df af3d 836d c63d e3d0 993d 6909 5a3e
00000090: ed60 5d3e ec2f db3d e303 e13e 57c5 943e
000000a0: 20be 333e ce78 363d 5ec7 f53d 5ede 9b3d
000000b0: 8f8f 333e e373 f43e c565 493e 4b85 f13d
000000c0: 1937 3c3e 2169 313e 47c1 3d3e a59b 413e
000000d0: ffdf 0f3f a898 ff3d 3ded 233e 2343 b43e
000000e0: 5411 d53d a15f be3d 77ff 923e 26a0 703d
000000f0: 9741 883e 3e37 4f3e 2d07 ed3d 09df 8b3d

fc1.weight f4 [256, 64]
-0.08293254 -0.041212834 0.06443096 -0.039689686 -0.011022185 -0.030078225 0.0934046 0.07696536
0.029290555 0.031745356 -0.004521109 0.08760969 -0.11071011 -0.057072677 0.118607104 -0.042008076
0.056072418 -0.07736051 0.111499555 0.018502561 0.114147246 0.11121934 0.018951852 0.055503167
-0.0074524884 0.0066441516 0.08224424 0.06366265 0.027037513 -0.050044566 -0.032101445 0.09575408
-0.031756476 0.032002144 -0.11906366 -0.068062104 -0.037976846 0.020854745 0.025138937 -0.011038608
0.111904904 0.06784798 -0.060074832 -0.050044406 -0.12266304 -0.11535408 -0.059154905 0.014433321
-0.08086232 -0.086920604 0.09709253 0.066441484 0.059697762 -0.044275958 0.05013036 -0.09883384
0.11055247 -0.088522814 -0.016974745 -0.07753878 -0.11845174 -0.07894721 0.021634856 0.034711428
0.033302408 -0.12621869 0.07526284 -0.08493013 0.08896248 0.077255026 0.035267964 -0.1069995
-0.052050628 0.081651874 0.024929207 -0.024139807 -0.108301535 -0.09597914 -0.050604858 0.10438799
-0.085750274 0.08462541 -0.025436265 0.06482512 0.03433861 0.097093515 -0.10282026 0.13549684
-0.11872853 -0.0011167771 0.057735432 -0.00808749 -0.111924045 0.105831794 0.07059511 0.055315815
-0.001791668 0.12043406 -0.07278986 -0.10743948 0.07246666 -0.043503232 -0.03261086 -0.055789076
0.05890346 -0.07109005 -0.085048944 0.024888515 -0.07795348 -0.0057426235 0.051095083 0.06236926
0.11225542 0.04225311 -0.104424894 -0.021733072 0.039149076 0.0809462 -0.008952609 0.05777654
-0.1270734 -0.0014322037 0.006430616 -0.0072714807 0.093976036 0.116291925 0.09728369 -0.045139447
0.03594118 -0.0018707942 0.014312134 -0.102406 -0.045902893 0.00231199 -0.072544724 0.040838275
0.006306309 0.10158605 0.031080259 -0.10904645 0.067556314 0.016007183 -0.025191927 0.016992634
-0.07594451 0.052757066 -0.13013972 -0.008257641 -0.02237017 0.013043609 -0.021210495 0.090906076
0.055996813 0.123992704 -0.0077942484 -0.019585459 0.02590602 -0.122906044 -0.023199698 -0.030538555
0.1329179 0.016765388 0.014976234 0.10448732 0.03340552 -0.09143643 -0.027150013 0.086506724
-0.057927307 -0.104034565 0.026291128 0.037005726 0.017690305 -0.094973154 0.0717449 -0.045003965
-0.044994857 -0.10647741 -0.016063817 0.07587307 -0.05165262 -0.108619235 0.00808668 0.0861154
-0.07812581 -0.08687176 0.047822062 -0.0810853 0.007505017 0.04076311 0.116746634 -0.017210057
-0.018492077 0.027847541 -0.045680854 -0.061104443 -0.104603626 -0.044378754 -0.0953847 0.019220505
0.029765837 0.08305656 -0.11463421 -0.027990155 0.053104028 -0.023970177 0.029059062 -0.09133716
0.052536614 0.0892646 0.112506166 -0.07193641 -0.10620807 0.020543545 -0.010045883 0.0017839855
0.018685909 0.04442976 0.008629266 -0.06628942 0.07835473 0.11421272 0.018905437 -0.11258954
-0.11395029 -0.12116075 -0.044127554 -0.033373214 0.02301536 0.033810887 0.07704072 -0.039144244
-0.11386303 -0.06914098 -0.11350985 -0.10512806 -0.11710036 -0.10576892 -0.008586824 -0.11411687
0.092643164 0.10454332 0.017427238 -0.03125823 0.0080897305 -0.11169758 0.07021606 0.069792986
-0.07201707 0.026712662 -0.073320605 -0.10333019 0.11981678 0.104643986 0.055394504 0.118598804
00000000: 89d8 a9bd cace 28bd 61f4 833d a791 22bd
00000010: 6596 34bc 9c66 f6bc e94a bf3d 04a0 9d3d
00000020: bff2 ef3c 6b07 023d d025 94bb b66c b33d
00000030: fbbb e2bd 0ac5 69bd 48e8 f23d a910 2cbd
00000040: 31ac 653d 306f 9ebd e159 e43d af92 973c
00000050: 08c6 e93d f7c6 e33d ea40 9b3c 4a57 633d
00000060: 0134 f4bb 2fb7 d93b ab6f a83d 9061 823d
00000070: c67d dd3c 88fb 4cbd ce7c 03bd b71a c43d
00000080: 1413 02bd ae14 033d a6d7 f3bd 2564 8bbd
00000090: 9c8d 1bbd 92d7 aa3c 2cf0 cd3c 47db 34bc
000000a0: 662e e53d e2f3 8a3d 0711 76bd 5dfb 4cbd
000000b0: c336 fbbd c33e ecbd 6a4c 72bd bc79 6c3c
000000c0: 259b a5bd 6e03 b2bd 73d8 c63d 7912 883d
000000d0: a485 743d b55a 35bd 7e55 4d3d 6569 cabd
000000e0: 5569 e23d 734b b5bd 9f0e 8bbc a7cc 9ebd
000000f0: d396 f2bd 13af a1bd 953b b13c 922d 0e3d
00000100: 1b68 083d 793f 01be 6723 9a3d d9ef adbd
00000110: f631 b63d e237 9e3d 2475 103d 8e22 dbbd
00000120: 0a33 55bd 1939 a73d 5638 cc3c d8c0 c5bc
00000130: 32cd ddbd b690 c4bd 0a47 4fbd 5fc9 d53d
00000140: d79d afbd 1650 ad3d b75f d0bc 08c3 843d
00000150: a4a6 0c3d f7d8 c63d 6e93 d2bd afbf 0a3e
00000160: f227 f3bd d260 92ba fd7b 6c3d 6481 04bc
00000170: 6f38 e5bd 57be d83d 2b94 903d d692 623d
00000180: 67d6 eaba 22a6 f63d da12 95bd 3b09 dcbd
00000190: 6669 943d 7230 32bd f792 05bd 1683 64bd
000001a0: c144 713d a997 91bd 242e aebd 00e3 cb3c
000001b0: 13a6 9fbd 9e2c bcbb 1449 513d e976 7f3d
000001c0: 2be6 e53d 9911 2d3d b8dc d5bd 8e09 b2bc
000001d0: c85a 203d 1fc7 a53d f7ad 12bc 18a7 6c3d
000001e0: 881f 02be c8b8 bbba ebb7 d23b 9a45 eebb
000001f0: 8276 c03d 762a ee3d ac3c c73d 24e4 38bd
00000200: 0f37 133d 7035 f5ba 717d 6a3c 3dba d1bd
00000210: ac04 3cbd c184 173b 5492 94bd 0946 273d
00000220: 27a5 ce3b 590c d03d 079c fe3c bf53 dfbd
00000230: f75a 8a3d 7f21 833c 4d5f cebc 2334 8b3c
00000240: cc88 9bbd cb17 583d 5943 05be 0f4b 07bc
00000250: a641 b7bc ddb4 553c a2c1 adbc f72c ba3d
00000260: ea5c 653d e3ef fd3d e566 ffbb af71 a0bc
00000270: dd38 d43c 2ab6 fbbd 4b0d bebc fe2b fabc
00000280: a11b 083e 9157 893c e15e 753c 73fd d53d
00000290: 3ad4 083d 0643 bbbd b469 debc 702a b13d
000002a0: 2f45 6dbd 1310 d5bd 7e60 d73c 5193 173d
000002b0: 42eb 903c 4981 c2bd fdee 923d 1456 38bd
000002c0: 874c 38bd d410 dabd 4498 83bc 5763 9b3d
000002d0: b391 53bd c373 debd ff7d 043c 455d b03d
000002e0: 6d00 a0bd d2e9 b1bd 11e1 433d 0d10 a6bd
000002f0: a5ec f53b 38f7 263d dc18 ef3d 1bfc 8cbc
00000300: b27c 97bc 8720 e43c d91b 3bbd a748 7abd
00000310: 6d3a d6bd 7fc6 35bd 0e59 c3bd 5274 9d3c
00000320: 7cd7 f33c 8f19 aa3d 57c5 eabd 9c4b e5bc
00000330: 9c83 593d 1b5d c4bc 450d ee3c fa0e bbbd
00000340: a230 573d 5cd0 b63d a269 e63d 6653 93bd
00000350: 9e83 d9bd f04a a83c 7d97 24bc 9fd4 e93a
00000360: 3113 993c fbfb 353d c461 0d3c bfc2 87bd
00000370: 7278 a03d 5ce8 e93d 93df 9a3c 5895 e6bd
00000380: c55e e9bd 2123 f8bd 18bf 34bd 5ab2 08bd
00000390: b58a bc3c 497d 0a3d 86c7 9d3d b755 20bd
000003a0: 0531 e9bd c999 8dbd da77 e8bd 614d d7bd
000003b0: 50d2 efbd 609d d8bd c0af 0cbc 1bb6 e9bd
000003c0: b3bb bd3d cf1a d63d 91c3 8e3c a108 00bd
000003d0: ca8a 043c b3c1 e4bd 70cd 8f3d a0ef 8e3d
000003e0: b07d 93bd 83d4 da3c 1d29 96bd c79e d3bd
000003f0: 8062 f53d 964f d63d 59e5 623d eee3 f23d

fc1.bias f4 [256]
-0.03179177 -0.06483126 -0.11208624 -0.063253164 0.11944488 -0.0058490653 -0.0017916103 -0.10653629
-0.08820763 -0.0657415 -0.02915376 -0.042814292 0.08479818 -0.07022049 0.07349149 0.057525016
-0.06853644 -0.10170243 0.11573798 0.09317378 0.008642355 0.105768524 0.09467967 -0.078179374
-0.111135095 -0.031202964 0.09990532 -0.0009058532 -0.026347483 0.10007708 -0.045565724 0.022061916
-0.08447011 0.10475332 -0.024011401 -0.11973774 -0.113973394 -0.031472392 -0.066441536 -0.10422305
-0.063418545 0.016664123 0.10839309 0.010181917 -0.06688912 -0.09890675 -0.07909957 -0.0027198328
-0.014986913 -0.061050653 0.121806964 -0.07290092 -0.07890559 0.057683744 -0.069526084 0.013657647
-0.038103756 0.073866464 -0.008494766 0.030539723 0.11563046 -0.041654453 -0.109641716 0.012875055
0.033503145 -0.11954388 -0.006866239 -0.0033005006 0.09063015 0.021471202 0.054381955 0.06930146
-0.07442772 -0.09839075 -0.0068965796 0.009418137 -0.08510025 -0.071665645 -0.010084254 -0.02926381
-0.05826244 0.12452466 0.054570947 -0.030972825 -0.009972994 0.1224708 -0.09542519 0.03800236
-0.02282326 -0.016262121 -0.07565097 0.118798815 0.0030015288 -0.10221056 -0.060372133 0.04822039
-0.06437419 0.08513594 0.027743654 0.11506681 0.09256906 0.08242671 0.04536235 0.051070165
-0.07160818 0.02134127 -0.09024465 -0.10204263 0.0056268703 0.06569964 0.038565267 0.045137994
0.07892507 -0.061869588 0.049669225 0.058162127 0.026231075 -0.1178631 0.04190324 -0.025846394
-0.08407436 0.02286484 0.036171634 -0.011598397 0.080877036 0.08706582 0.07049275 0.058413267
0.06753801 0.102281936 0.05936092 0.0071213953 -0.07180692 -0.063138776 -0.018246695 -0.030213531
-0.020296294 0.11597155 0.10838964 0.011227738 -0.06065469 -0.07990493 -0.08746288 -0.004151867
0.035597272 -0.013741591 0.046541158 0.018182375 -0.022479607 -0.024125503 -0.02876953 -0.0033222276
0.053266887 0.11026509 0.015085503 -0.10602168 -0.03576095 0.072367 -0.059869844 0.110648125
-0.10894102 -0.07309256 0.11849751 0.08376049 -0.11062019 0.10328607 -0.00023534069 0.023336215
0.055939347 -0.08148851 0.12822178 -0.09359392 -0.10039103 0.06670778 -0.019525124 -0.061888147
-0.08200402 -0.033465575 0.040161595 0.08142595 0.12267073 -0.08420282 0.011589102 0.035851616
0.04852879 -0.11672802 -0.087186016 -0.056628425 0.045097027 0.02858853 -0.11881833 -0.057584323
-0.06890507 -0.043289736 -0.09815733 0.029803313 0.0037216786 0.016406804 0.045528665 -0.08805617
-0.09805634 0.0008473769 -0.04945967 0.08592512 -0.09982082 -0.067906745 0.0753565 -0.09037726
0.095969215 0.017801585 0.056348488 0.033417024 0.1038605 0.099617176 0.015927825 -0.06360174
-0.030035539 0.0018357119 0.10652874 0.043305945 0.038810484 -0.10272118 0.07353449 -0.10642138
0.13073924 0.0968025 0.023742117 -0.046824947 -0.07951664 0.025636652 0.08678278 0.051902395
-0.050430063 -0.011479428 0.056184534 -0.07259977 0.08381782 -0.04907361 -0.07551448 0.04287129
0.12087866 -0.069456495 -0.056288242 -0.0027586685 0.0026332217 -0.09907473 -0.10546987 -0.1074465
-0.049398445 -0.0038196563 0.06809659 0.01538272 -0.039530527 0.063789025 -0.04592014 -0.035439625
00000000: 1638 02bd 40c6 84bd 788d e5bd e08a 81bd
00000010: 849f f43d 84a9 bfbb 77d4 eaba b32f dabd
00000020: 34a6 b4bd 7ba3 86bd ded3 eebc 0a5e 2fbd
00000030: abaa ad3d c3cf 8fbd b582 963d 5a9f 6b3d
00000040: d55c 8cbd 5d49 d0bd 0908 ed3d e5d1 be3d
00000050: aa98 0d3c 2b9d d83d 6ae7 c13d 821c a0bd
00000060: cc9a e3bd 5c9d ffbc 299b cc3d c776 6dba
00000070: add6 d7bc 36f5 cc3d 20a3 3abd 31bb b43c
00000080: aafe acbd e988 d63d 8fb3 c4bc 0f39 f5bd
00000090: e26a e9bd 32e9 00bd 8012 88bd e572 d5bd
000000a0: 95e1 81bd 3383 883c 32fd dd3d 0ed2 263c
000000b0: 2afd 88bd 9f8f cabd f5fe a1bd 393f 32bb
000000c0: ab8b 75bc 4010 7abd ee75 f93d 144d 95bd
000000d0: 4199 a1bd ca45 6c3d b163 8ebd 53c4 5f3c
000000e0: af12 1cbd 4d47 973d a22d 0bbc 712e fa3c
000000f0: aacf ec3d dc9d 2abd d68b e0bd e5f1 523c
00000100: 983a 093d 6cd3 f4bd 30fe e0bb 364d 58bb
00000110: 4d9c b93d 60e4 af3c 9dbf 5e3d eded 8d3d
00000120: 8f6d 98bd 1781 c9bd b4fc e1bb 884e 1a3c
00000130: 0a49 aebd 70c5 92bd 6d38 25bc a8ba efbc
00000140: 99a4 6ebd c906 ff3d c985 5f3d b9ba fdbc
00000150: c565 23bc f9d1 fa3d 486e c3bd 5da8 1b3d
00000160: d8f7 babc 2438 85bc e5ee 9abd cb4c f33d
00000170: 4cb5 443b c553 d1bd c548 77bd be82 453d
00000180: 9ed6 83bd c05b ae3d a946 e33c 26a8 eb3d
00000190: d994 bd3d 56cf a83d dfcd 393d f32e 513d
000001a0: 4fa7 92bd e3d3 ae3c 30d2 b8bd bafb d0bd
000001b0: 9c61 b83b 888d 863d 9df6 1d3d 9ee2 383d
000001c0: 78a3 a13d f76a 7dbd f571 4b3d 693b 6e3d
000001d0: 8de2 d63c 3562 f1bd bba2 2b3d d1bb d3bc
000001e0: 2e2f acbd 0c4f bb3c b528 143d 3407 3ebc
000001f0: dca2 a53d 914f b23d 815e 903d c042 6f3d
00000200: 5e51 8a3d 3179 d13d 7024 733d 985a e93b
00000210: 820f 93bd e74e 81bd 187a 95bc 5e82 f7bc
00000220: 6a44 a6bc 7e82 ed3d 63fb dd3d 8cf4 373c
00000230: 0d71 78bd 32a5 a3bd bd1f b3bd 620c 88bb
00000240: 72ce 113d 6924 61bc f1a1 3e3d 34f3 943c
00000250: 2727 b8bc d9a2 c5bc 14ae ebbc bbb9 59bb
00000260: 612e 5a3d aad2 e13d 3029 773c e521 d9bd
00000270: 137a 12bd 2635 943d 153a 75bd 7c9b e23d
00000280: 781c dfbd 8db1 95bd d3ae f23d 9f8a ab3d
00000290: d78c e2bd a687 d33d c9c5 76b9 972b bf3c
000002a0: a820 653d 73e3 a6bd 924c 033e 2bae bfbd
000002b0: d099 cdbd 179e 883d 27f3 9fbc 6d7e 7dbd
000002c0: b9f1 a7bd 3313 09bd 7c80 243d a6c2 a63d
000002d0: cb3a fb3d 8772 acbd 38e0 3d3c 25d9 123d
000002e0: 20c6 463d 1a0f efbd 958e b2bd 35f3 67bd
000002f0: a9b7 383d 7e32 ea3c 0657 f3bd 8add 6bbd
00000300: 1a1e 8dbd 9450 31bd b606 c9bd 1426 f43c
00000310: 68e7 733b 9067 863c 447c 3a3d cb56 b4bd
00000320: c3d1 c8bd 8022 5e3a 3996 4abd 82f9 af3d
00000330: dc6e ccbd b112 8bbd 8254 9a3d b717 b9bd
00000340: 828b c43d a1d4 913c accd 663d 4ae0 083d
00000350: d0b4 d43d 1704 cc3d 127b 823c a141 82bd
00000360: 170d f6bc 459c f03a bd2b da3d 9361 313d
00000370: bef7 1e3d 7b5f d2bd 4099 963d 74f3 d9bd
00000380: 82e0 053e 6440 c63d d47e c23c 84cb 3fbd
00000390: 9fd9 a2bd f503 d23c 2cbb b13d 9b97 543d
000003a0: c18f 4ebd 3614 3cbc c121 663d 30af 94bd
000003b0: ada8 ab3d 6901 49bd 56a7 9abd ce99 2f3d
000003c0: 3b8f f73d 353f 8ebd 808e 66bd c7ca 34bb
000003d0: 2192 2c3b b1e7 cabd 9600 d8bd e90c dcbd
000003e0: 0656 4abd 3353 7abb 3a76 8b3d ce07 7c3c
000003f0: c3ea 21bd d2a3 823d c216 3cbd 2429 11bd

bn4.weight f4 [256]
1.0143133 1.0112869 1.0140967 1.0131756 1.0058453 1.004152 1.0197704 1.0120275
1.0074314 1.0217843 1.0080334 1.003285 1.0092424 1.0200002 1.0183465 1.022026
1.0158467 1.0078582 1.010947 1.0209899 1.0101858 1.0051701 1.0152239 1.0117817
1.0121578 1.0069135 1.0163014 1.0114231 1.0143479 1.0079831 1.0252813 1.0214103
1.0073678 1.0059998 1.0173293 1.0064435 1.0126866 1.0139084 1.0190498 1.014488
1.0169696 1.0116074 1.0238883 1.0193436 1.0066614 1.0024219 1.0112102 1.0166448
1.0180389 1.0074801 1.0067616 1.0135094 1.0153319 1.015054 1.0169008 1.0139875
1.0000792 1.0036836 1.019473 1.0084839 1.0184504 1.0164243 1.014001 1.0126951
1.0184463 1.0083965 1.0139495 1.0091563 1.0278386 1.0180937 1.0039946 1.0167592
1.012822 1.0046883 1.0028168 1.0149864 1.012227 1.0154619 1.0064981 1.0249436
1.0116785 1.0075823 1.0162247 1.0101414 1.0193992 1.0189472 1.0119606 1.0034162
1.0175233 1.017292 1.0286505 1.015514 1.0133504 1.0143652 1.0201615 1.0157179
1.0108559 1.0101327 1.0184374 1.0098583 1.00879 1.0096577 1.0240343 1.0133693
1.0152732 1.0134671 1.0091501 1.0161216 1.0127488 1.0071508 1.0162868 1.0101507
1.0024568 1.015484 1.0105247 1.0188572 1.011011 1.0159119 1.0194824 1.0148492
1.0178492 1.0134437 1.0160574 1.0111032 1.0084071 1.014283 1.0101545 1.0178335
1.0179387 1.0114415 1.0054269 1.0094014 1.0187694 1.0173765 1.0156429 1.0171077
1.0187477 1.0048568 1.0011185 1.0115024 1.0147513 1.0202192 1.0045909 1.0124757
1.012485 1.0121862 1.0160736 1.0065577 1.0152175 1.0292248 1.0139129 1.0204071
1.0252169 1.0123985 1.01798 1.0185751 1.0123222 1.0143425 1.0174093 1.0175003
1.0152171 1.016842 1.011892 1.0223706 1.0127568 1.022435 1.006879 1.0163733
1.0112727 1.0070928 1.0102981 1.0056541 1.0115317 1.0147349 1.0160778 1.0143994
1.0093787 1.0064287 1.0078679 1.0122684 1.0105069 1.0123824 1.0133427 1.0206932
1.0229646 1.0209868 1.0043209 1.0105425 1.0081893 1.0149933 1.0109038 1.0166632
1.0195274 1.0136826 1.0096396 1.008479 1.0058558 1.0137118 1.0085257 1.0214088
1.0094136 1.0120528 1.0135614 1.0152559 1.0075004 1.0053502 1.0179294 1.0084785
1.0200744 1.0190866 1.0185572 1.0208248 1.0016135 1.0209831 1.0180272 1.0137889
1.0176144 1.0100766 1.0127782 1.015088 1.0145872 1.0077744 1.0204455 1.0273052
1.0220957 1.018369 1.01668 1.0168091 1.0162624 1.0158341 1.0029858 1.0057461
1.0192275 1.0114266 1.0160366 1.0222118 1.0137923 1.0243807 1.0119231 1.0056647
1.0154614 1.0063939 1.0081959 1.0183189 1.0032909 1.0142376 1.0220197 1.0090082
1.01945 1.0128783 1.0253202 1.0028224 1.0128789 1.0100527 1.011935 1.0102051
00000000: 05d5 813f d971 813f eccd 813f bdaf 813f
00000010: 8abf 803f 0e88 803f d687 823f 1e8a 813f
00000020: 83f3 803f d4c9 823f 3d07 813f a56b 803f
00000030: db2e 813f 5e8f 823f 2e59 823f bfd1 823f
00000040: 4407 823f 7f01 813f b666 813f ccaf 823f
00000050: c54d 813f 6aa9 803f dbf2 813f 1082 813f
00000060: 638e 813f 8be2 803f 2a16 823f 5076 813f
00000070: 27d6 813f 9705 813f 6b3c 833f 93bd 823f
00000080: 6ef1 803f 9ac4 803f d937 823f 24d3 803f
00000090: b79f 813f c0c7 813f 3970 823f beda 813f
000000a0: 0f2c 823f 5a7c 813f c60e 833f da79 823f
000000b0: 48da 803f 5c4f 803f 566f 813f 6b21 823f
000000c0: 194f 823f 1cf5 803f 90dd 803f adba 813f
000000d0: 65f6 813f 4aed 813f ce29 823f 58ca 813f
000000e0: 9802 803f b478 803f 177e 823f 0016 813f
000000f0: 955c 823f 311a 823f c9ca 813f fe9f 813f
00000100: 735c 823f 2313 813f 19c9 813f 092c 813f
00000110: 3790 833f e550 823f e582 803f 2a25 823f
00000120: 27a4 813f a099 803f 4d5c 803f 13eb 813f
00000130: a890 813f a8fa 813f eed4 803f 5a31 833f
00000140: ae7e 813f 75f8 803f a713 823f 504c 813f
00000150: ac7b 823f dd6c 823f ed87 813f f16f 803f
00000160: 343e 823f a036 823f d2aa 833f 5dfc 813f
00000170: 77b5 813f b8d6 813f a794 823f 0b03 823f
00000180: ba63 813f 074c 813f 285c 823f 0943 813f
00000190: 0820 813f 773c 813f 8e13 833f 16b6 813f
000001a0: 79f4 813f 4ab9 813f d52b 813f 4610 823f
000001b0: c1a1 813f 51ea 803f b015 823f 9e4c 813f
000001c0: 8150 803f 61fb 813f e058 813f ea69 823f
000001d0: cf68 813f 6709 823f 667e 823f 94e6 813f
000001e0: e248 823f 86b8 813f 2b0e 823f d46b 813f
000001f0: 7c13 813f 06d4 813f be4c 813f 5e48 823f
00000200: d14b 823f ea76 813f d4b1 803f 1134 813f
00000210: 0967 823f 6539 823f 9600 823f 9630 823f
00000220: 5366 823f 269f 803f a724 803f e978 813f
00000230: 5fe3 813f 8b96 823f 6f96 803f ce98 813f
00000240: 1c99 813f 518f 813f b30e 823f e2d6 803f
00000250: a6f2 813f a3bd 833f e6c7 813f b39c 823f
00000260: 4f3a 833f 4696 813f 2b4d 823f ab60 823f
00000270: c693 813f fad5 813f 783a 823f 733d 823f
00000280: a2f2 813f e127 823f ad85 813f 0add 823f
00000290: 04a2 813f 26df 823f 69e1 803f 8518 823f
000002a0: 6271 813f 6be8 803f 7351 813f 46b9 803f
000002b0: df79 813f d5e2 813f d60e 823f d7d7 813f
000002c0: 5233 813f a8d2 803f d101 813f 0392 813f
000002d0: 4a58 813f bf95 813f 37b5 813f 13a6 823f
000002e0: 81f0 823f b2af 823f 968d 803f 7559 813f
000002f0: 590c 813f 4deb 813f 4c65 813f 0522 823f
00000300: e07f 823f 5ac0 813f df3b 813f d715 813f
00000310: e2bf 803f 4fc1 813f 5f17 813f 86bd 823f
00000320: 7734 813f f28a 813f 61bc 813f e8f3 813f
00000330: c6f5 803f 51af 803f 834b 823f d315 813f
00000340: cc91 823f 6e71 823f 1560 823f 63aa 823f
00000350: df34 803f 93af 823f b74e 823f d6c3 813f
00000360: 3041 823f 314a 813f b7a2 813f 67ee 813f
00000370: fedd 813f c0fe 803f f59d 823f bd7e 833f
00000380: 08d4 823f ea59 823f 9222 823f cd26 823f
00000390: e314 823f da06 823f d761 803f 4abc 803f
000003a0: 0c76 823f 6d76 813f 7d0d 823f d6d7 823f
000003b0: f2c3 813f e81e 833f b286 813f 9fb9 803f
000003c0: a4fa 813f 84d1 803f 900c 813f 4658 823f
000003d0: d66b 803f 8ad2 813f 8bd1 823f 2e27 813f
000003e0: 567d 823f ffa5 813f b13d 833f 7c5c 803f
000003f0: 04a6 813f 6849 813f 1687 813f 674e 813f
