mini_batch_exp/models/mnist_sgd_batch16_lr0.1.pt (torch_old, 326371 bytes, 26 tensors)

conv1.weight f4 [16, 1, 3, 3]
-0.07779244 0.23613903 0.5505922 -0.7003172 0.19602911 0.3051591 -0.7348041 -0.7517082
-0.89526486 -0.3952256 0.18782695 0.15400662 -0.5799543 0.40758684 0.19220762 -0.38328975
0.5551448 -0.05393783 0.21194226 0.031636976 0.07195614 0.6980155 -0.73513806 -0.32683146
0.3209921 -0.6437454 0.3696413 -0.8254989 -0.18286581 0.56283844 -0.318852 -0.013264595
-0.43047303 0.7738481 0.54016733 -0.73842067 0.41521242 0.50843596 -0.03593944 -0.3169846
-0.09462333 0.37844932 -0.15600754 -0.03290535 0.4302355 -0.32900596 -0.6950967 -0.3588023
0.08330525 -0.32641208 -0.08775854 0.81678843 0.4388923 0.45864558 0.23330636 0.40132684
0.29253098 -0.10970735 -0.12767237 0.2893254 -0.27739993 -0.596063 0.1949791 0.4196775
-0.029069217 -0.7905344 0.3613234 0.11933582 -0.31262815 -0.30393463 -0.6468435 -0.4389714
0.27304184 0.71155304 -0.092397854 0.08389049 -0.2645971 -0.6359535 -0.7497913 -0.49221015
0.14317408 -0.03033879 0.46969658 -0.09884637 0.13977697 0.34979883 -0.21457502 0.11403581
-0.20368552 0.38486537 -0.3380615 -0.22363031 -0.11244625 0.2458885 0.24646086 0.6355975
0.40458786 -0.28462723 0.15350118 -0.27598363 -0.44554204 -0.37130317 -0.29986718 -0.019080244
0.1813426 0.21658996 0.609142 0.26391912 -0.33804598 -0.1401848 -0.27665642 -0.07753405
-0.013635706 -0.29771525 -0.05342578 -0.2081536 -0.13279197 0.30791613 -0.7406286 0.16453496
-0.5903545 -0.30966502 0.5117108 -0.15744203 0.4292931 0.37336472 0.30774856 -0.036484864
-0.50941294 -0.47346607 -0.556946 -0.25308803 -0.5286479 -0.23954862 0.76950604 -0.089984074
0.42348173 0.34181243 0.49847522 -0.05092649 0.25660995 -0.22535396 -0.32828534 -0.5064962
00000000: a551 9fbd 6ece 713e 9cf3 0c3f fd47 33bf
00000010: dbbb 483e d03d 9c3e 1f1c 3cbf f36f 40bf
00000020: 1430 65bf 035b cabe b555 403e e9b3 1d3e
00000030: e377 14bf 39af d03e 13d2 443e 8e3e c4be
00000040: f81d 0e3f eaed 5cbd 6407 593e c695 013d
00000050: be5d 933d 25b1 323f 0232 3cbf 7456 a7be
00000060: 1459 a43e 80cc 24bf a041 bd3e e553 53bf
00000070: 2d41 3bbe 2e16 103f 9240 a3be be53 59bc
00000080: f666 dcbe e91a 463f 6848 0a3f 2309 3dbf
00000090: b996 d43e dc28 023f 3c35 13bd ce4b a2be
000000a0: e0c9 c1bd 1cc4 c13e 71c0 1fbe c3c7 06bd
000000b0: d447 dc3e 7873 a8be dbf1 31bf efb4 b7be
000000c0: f19b aa3d 7c1f a7be c0ba b3bd 0c19 513f
000000d0: 7eb6 e03e 98d3 ea3e dde7 6e3e b67a cd3e
000000e0: 9fc6 953e 3fae e0bd 8cbc 02be 7522 943e
000000f0: 5d07 8ebe 9697 18bf 9aa8 473e f8df d63e
00000100: 9122 eebc 7660 4abf 61ff b83e 5766 f43d
00000110: cc10 a0be 529d 9bbe 8997 25bf dcc0 e0be
00000120: 24cc 8b3e 5728 363f 163b bdbd c7ce ab3d
00000130: 4579 87be d9cd 22bf 53f2 3fbf f802 fcbe
00000140: 3a9c 123e 0e89 f8bc 127c f03e f76f cabd
00000150: b221 0f3e d518 b33e 8eb9 5bbe 9b8b e93d
00000160: f092 50be 130d c53e 6616 adbe 58ff 64be
00000170: 384a e6bd 32ca 7b3e 3c60 7c3e 85b6 223f
00000180: 2426 cf3e a9ba 91be 6a2f 1d3e ba4d 8dbe
00000190: 161e e4be 731b bebe 3188 99be 2c4e 9cbc
000001a0: e0b1 393e c2c9 5d3e bbf0 1b3f 6820 873e
000001b0: 5d14 adbe 9b8c 0fbe e9a5 8dbe 2cca 9ebd
000001c0: 4c68 5fbc 226e 98be fed4 5abd 3826 55be
000001d0: 9efa 07be 2fa7 9d3e d699 3dbf da7b 283e
000001e0: 7921 17bf 6a8c 9ebe 7bff 023f 7c38 21be
000001f0: 4ecc db3e a929 bf3e 3891 9d3e 2771 15bd
00000200: e368 02bf 256a f2be 0394 0ebf c194 81be
00000210: 7855 07bf 3c4c 75be 59fe 443f 9249 b8bd
00000220: 99d2 d83e 0a02 af3e 2538 ff3e 4c98 50bd
00000230: 6162 833e 30c3 66be 0415 a8be bca9 01bf

conv1.bias f4 [16]
0.30353397 0.13817737 0.23972252 -0.07039802 0.19264407 -0.11274618 0.234987 0.0077368035
-0.10962417 0.035753027 0.16127603 0.22222663 0.31851602 0.28623828 -0.30203968 0.24607264
00000000: ce68 9b3e 5e7e 0d3e d279 753e d62c 90bd
00000010: 7d44 453e 78e7 e6bd 6fa0 703e 0385 fd3b
00000020: a382 e0bd c471 123d 8b25 253e 618f 633e
00000030: 8814 a33e d38d 923e f2a4 9abe 77fa 7b3e

bn1.weight f4 [16]
1.3779421 0.8378129 1.167098 1.0651435 0.79651785 1.2901648 0.8357389 1.2096697
1.2124882 0.7683849 0.64967316 0.90447 0.6501233 1.093695 1.2136712 0.8961131
00000000: 6860 b03f e87a 563f 7863 953f 9f56 883f
00000010: 98e8 4b3f 1f24 a53f fcf2 553f 75d6 9a3f
00000020: d032 9b3f dfb4 443f fb50 263f 598b 673f
00000030: 7b6e 263f 33fe 8b3f 9459 9b3f ab67 653f

bn1.bias f4 [16]
0.2841621 -0.20965458 0.1913618 -0.06276737 0.27730438 0.4591784 0.16494702 0.21303605
0.2829104 0.25974786 0.42304346 -0.24298686 0.05057213 0.38586295 0.0065942174 0.17355278
00000000: b27d 913e b1af 56be 59f4 433e 2e8c 80bd
00000010: d7fa 8d3e 6e19 eb3e dfe7 283e 1f26 5a3e
00000020: a2d9 903e acfd 843e 2799 d83e 8cd1 78be
00000030: b924 4f3d d48f c53e 4e14 d83b d2b7 313e

bn1.running_mean f4 [16]
12.657249 32.71274 31.554474 22.76084 63.62942 46.84301 36.561943 13.149587
20.971869 52.41693 52.899685 35.812458 0.22274049 40.460377 14.7177925 43.061264
00000000: 1884 4a41 d9d9 0242 906f fc41 3316 b641
00000010: 8784 7e42 3e5f 3b42 6e3f 1242 b564 5241
00000020: 63c6 a741 f0aa 5142 4799 5342 f53f 0f42
00000030: 1516 643e 6dd7 2142 147c 6b41 bc3e 2c42

bn1.running_var f4 [16]
1956.8885 4882.4663 3905.6748 2998.5444 9032.014 9831.014 4600.0483 1425.9788
2876.9124 6407.2354 7879.6064 5832.601 0.021298433 6687.7944 1309.766 6732.968
00000000: 6f9c f444 bb93 9845 cc1a 7445 b668 3b45
00000010: 0e20 0d46 0e9c 1946 63c0 8f45 523f b244
00000020: 99ce 3345 e239 c845 da3c f645 cf44 b645
00000030: 0d7a ae3c 5bfe d045 83b8 a344 be67 d245

conv2.weight f4 [32, 16, 4, 4]
0.0073400824 0.143574 -0.15367676 -0.1938143 0.11449247 0.015606404 -0.1933617 0.058444683
-0.2294931 -0.15289463 0.10185011 0.019460613 -0.18938386 -0.047152966 0.06484536 0.17077027
0.04498272 0.06653888 -0.08954233 0.111589134 0.056832124 -0.12595262 0.0756307 -0.014181576
-0.0588723 -0.13502602 0.109918915 -0.053100787 -0.115219824 0.04948856 0.25445867 -0.010580793
-0.18473123 -0.00021020557 0.04987401 0.055459596 0.0016059572 0.105652615 -0.06899482 0.014920108
0.0045259697 0.053669024 0.046905592 0.010492763 0.100638255 -0.088619 -0.08221037 -0.111684784
0.06554433 -0.028739776 -0.23317225 -0.114258595 0.09442834 -0.04923414 -0.0747693 -0.18262184
-0.115952484 -0.19276705 0.11499443 0.16742808 0.03676487 -0.0070147673 0.20339485 0.30679858
-0.033246126 -0.06672286 -0.104186215 -0.04989982 -0.004002853 -0.09128291 -0.1027778 -0.04494534
-0.12431771 0.04076551 -0.04692464 -0.007962104 -0.064067066 -0.027676057 0.17086327 -0.03658076
-0.08065148 -0.09757905 -0.2623897 -0.23408222 -0.06085384 -0.001908429 -0.0032267661 -0.04660001
-0.3771075 -0.19143358 0.030012878 0.13777114 -0.19064543 -0.19764917 -0.10274454 -0.04668574
-0.025446994 0.0029723027 -0.016619576 -0.015790394 -0.08043407 -0.06513959 -0.1391319 -0.038344763
-0.057416175 0.051585924 -0.014560247 -0.030887643 -0.005429904 -0.0976225 0.017753664 -0.023650117
-0.04416367 0.064610384 0.057370007 0.08427509 -0.07337011 0.07993362 -0.07252117 0.021033663
0.15666687 -0.009698763 0.017336747 0.19600332 0.19412757 -0.045106333 -0.025831565 -0.029975839
-0.14065407 0.032853927 0.29563066 -0.033987384 -0.08108161 0.18727615 -0.040117532 -0.103284314
0.05978877 -0.0523227 -0.11304786 0.12108003 0.117732726 -0.11619128 -0.06503667 -0.07685748
-0.060648594 -0.015475889 -0.0052118846 -0.0048023867 0.044448104 -0.060798403 -0.14671528 0.0077674035
-0.03757332 -0.0616925 0.00032424572 0.016078806 -0.10786645 -0.13012686 0.13293886 0.07706994
-0.054121263 0.04297477 -0.15773913 -0.027640324 0.028392348 -0.16909218 0.0025157295 0.059455954
-0.20633723 -0.019469893 -0.024057122 0.015979756 -0.19891346 -0.14260729 0.0985783 0.051738504
0.026588496 -0.057933908 0.08243071 0.11578967 -0.061697863 -0.016252419 0.1130176 0.081962936
-0.07723513 0.1469094 0.18607919 -0.15356785 -0.046344392 -0.07360493 -0.120137185 -0.19594452
0.08953416 0.0011128357 0.058276877 0.15610349 -0.033821248 0.1417119 0.060736902 0.03632811
0.04756561 0.13345408 -0.044981264 -0.07299184 0.04999054 0.09072458 -0.010122188 -0.111596555
0.01318887 -0.28634536 -0.041266948 0.13818057 0.03698921 -0.09303679 0.09183568 0.072304614
-0.20457545 0.11638298 0.058470543 -0.10741005 -0.08548498 0.08988912 0.011429761 -0.21781243
-0.036565404 -0.07818168 0.021656128 0.05657694 0.042743478 0.21489976 0.058762643 0.06855554
-0.07023094 0.15092193 -0.02407966 0.22093849 0.1791871 0.10172694 0.07101287 0.02199134
0.0033667819 0.017163262 0.080528766 -0.067506686 0.037507586 -0.02957681 -0.18930711 0.07853053
-0.040307038 -0.082113 -0.060763735 0.010232868 -0.102162875 -0.15552337 -0.0162773 0.0009416811
00000000: 1385 f03b 1005 133e 715d 1dbe 4177 46be
00000010: 077b ea3d 01b2 7f3c 9c00 46be b163 6f3d
00000020: 3d00 6bbe 6990 1cbe ca96 d03d dd6b 9f3c
00000030: d8ed 41be 7823 41bd a5cd 843d 67de 2e3e
00000040: cd3f 383d 8945 883d f861 b7bd d888 e43d
00000050: cdc8 683d b9f9 00be 45e4 9a3d d759 68bc
00000060: 1524 71bd 4344 0abe 2b1d e13d 3680 59bd
00000070: 5ff8 ebbd 84b4 4a3d 6848 823e 105b 2dbc
00000080: 2f2a 3dbe a16a 5cb9 b148 4c3d 9a29 633d
00000090: fb7e d23a 6660 d83d 284d 8dbd 7873 743c
000000a0: 964e 943b 0dd4 5b3d 1420 403d d6e9 2b3c
000000b0: 6e1b ce3d e17d b5bd e95d a8bd feba e4bd
000000c0: 1b3c 863d ae6f ebbc b5c4 6ebe 6900 eabd
000000d0: a563 c13d bda9 49bd a620 99bd 3801 3bbe
000000e0: 7f78 edbd ba64 45be 3382 eb3d 4472 2b3e
000000f0: c396 163d 22dc e5bb bd46 503e b414 9d3e
00000100: 172d 08bd ffa5 88bd 955f d5bd c163 4cbd
00000110: 5d2a 83bb 89f2 babd 2b7d d2bd 9b18 38bd
00000120: 499a febd bcf9 263d 0d34 40bd 7c73 02bc
00000130: 9835 83bd e6b8 e2bc c8f6 2e3e b5d5 15bd
00000140: 9a2c a5bd 86d7 c7bd f157 86be 40b3 6fbe
00000150: e041 79bd 4024 faba 2778 53bb a7df 3ebd
00000160: 3c14 c1be 2a07 44be 91dd f53c e113 0d3e
00000170: 8e38 43be 8b64 4abe bb6b d2bd 8c39 3fbd
00000180: 3776 d0bc f7ca 423b c725 88bc db5a 81bc
00000190: 9eba a4bd e867 85bd 9878 0ebe 660f 1dbd
000001a0: 392d 6bbd c34b 533d 1a8e 6ebc 1508 fdbc
000001b0: 56ed b1bb 4eee c7bd 2270 913c e4bd c1bc
000001c0: f7e4 34bd 7352 843d d0fc 6a3d 6b98 ac3d
000001d0: 1143 96bd 3db4 a33d fb85 94bd ca4e ac3c
000001e0: 486d 203e 8fe7 1ebc cb05 8e3c 18b5 483e
000001f0: 61c9 463e 6bc1 38bd b89c d3bc e48f f5bc
00000200: 9f07 10be d791 063d e75c 973e 5b36 0bbd
00000210: 1d0e a6bd 52c5 3f3e 4852 24bd ba86 d3bd
00000220: 12e5 743d 5450 56bd a385 e7bd cff8 f73d
00000230: db1d f13d b2f5 edbd f231 85bd 7467 9dbd
00000240: a96a 78bd 958e 7dbc 75c8 aabb 575d 9dbb
00000250: 370f 363d bf07 79bd 883c 16be b485 fe3b
00000260: 7be6 19bd 46b1 7cbd 86ff a939 b3b7 833c
00000270: 16e9 dcbd fa3f 05be 2021 083e d8d6 9d3d
00000280: 42ae 5dbd 5006 303d 5e86 21be f66d e2bc
00000290: 1297 e83c 8026 2dbe f0de 243b 1688 733d
000002a0: 114a 53be 537f 9fbc 7113 c5bc fae7 823c
000002b0: f8af 4bbe a507 12be 6be3 c93d c1eb 533d
000002c0: 1ed0 d93c 1b4c 6dbd 6fd1 a83d 2223 ed3d
000002d0: e6b6 7cbd cb23 85bc c575 e73d 2fdc a73d
000002e0: 742d 9ebd 6b6f 163e 8b8b 3e3e e440 1dbe
000002f0: 9ed3 3dbd 2ebe 96bd 7c0a f6bd aea5 48be
00000300: b05d b73d 92dc 913a bcb3 6e3d 98d9 1f3e
00000310: 2688 0abd ed1c 113e 42c7 783d c9cc 143d
00000320: 28d4 423d 30a8 083e 463e 38bd bf7c 95bd
00000330: e1c2 4c3d cfcd b93d 89d7 25bc bc8c e4bd
00000340: 2116 583c dc9b 92be 8807 29bd 357f 0d3e
00000350: ff81 173d 138a bebd 5814 bc3d 7114 943d
00000360: 3a7c 51be 335a ee3d cf7e 6f3d cdf9 dbbd
00000370: c012 afbd c917 b83d e443 3b3c 390a 5fbe
00000380: 9bc5 15bd b71d a0bd 3168 b13c 39bd 673d
00000390: c913 2f3d af0e 5c3e 19b1 703d d966 8c3d
000003a0: 3dd5 8fbd 478b 1a3e b542 c5bc b33d 623e
000003b0: d37c 373e 3756 d03d 326f 913d 2f27 b43c
000003c0: 3aa5 5c3b f899 8c3c 44ec a43d f240 8abd
000003d0: 8ea1 193d 114b f2bc b9d9 41be 9dd4 a03d
000003e0: fe18 25bd dc2a a8bd 65e3 78bd c2a7 273c
000003f0: c53a d1bd 8541 1fbe f957 85bc 26db 763a

conv2.bias f4 [32]
-0.007985954 -0.044121806 -0.18595187 0.03815614 -0.108762085 0.0013537691 -0.16728371 0.08698576
0.06746579 -0.058529455 -0.016946254 -0.013961637 -0.060214426 -0.038578425 0.038320623 -0.11414371
-0.015140254 -0.06731623 -0.23265208 0.03504394 -0.03037104 -0.117589585 -0.034607645 -0.102799
-0.03617415 -0.07404218 -0.098154195 -0.0060825604 -0.0063228714 0.013835356 -0.15316539 0.038523745
00000000: 85d7 02bc 11b9 34bd 2b6a 3ebe 9d49 1c3d
00000010: a8be debd f470 b13a 6c4c 2bbe 9725 b23d
00000020: 812b 8a3d 95bc 6fbd dfd2 8abc 5abf 64bc
00000030: 67a3 76bd 6904 1ebd 16f6 1c3d 2dc4 e9bd
00000040: d40e 78bc 17dd 89bd 593c 6ebe 3c8a 0f3d
00000050: b0cc f8bc cfd2 f0bd bfc0 0dbd 4888 d2bd
00000060: 582b 14bd 6da3 97bd 1105 c9bd 3750 c7bb
00000070: 1730 cfbb b0ad 623c 63d7 1cbe 13cb 1d3d

bn2.weight f4 [32]
1.0425484 1.0940485 1.0978011 0.89729446 0.786417 0.9608407 1.1664884 0.91822636
1.0357174 0.9216175 1.0636226 0.97078747 0.90877604 1.0034097 0.85765874 0.72683764
0.86329865 1.0617553 1.4809309 1.1930158 0.8889999 1.2302271 1.1264771 1.1125263
1.0470257 1.225772 1.2780724 0.99255484 0.75014716 1.4234031 1.2534807 0.9030497
00000000: 3a72 853f c809 8c3f bf84 8c3f 17b5 653f
00000010: a052 493f a8f9 753f 7e4f 953f e210 6b3f
00000020: 6392 843f 20ef 6b3f c924 883f 8785 783f
00000030: 8ca5 683f bb6f 803f 868f 5b3f 0812 3a3f
00000040: 2401 5d3f 99e7 873f 258f bd3f beb4 983f
00000050: 7f95 633f 1578 9d3f 6730 903f 4367 8e3f
00000060: f004 863f 19e6 9c3f e097 a33f 1318 7e3f
00000070: a509 403f 1332 b63f 0e72 a03f 442e 673f

bn2.bias f4 [32]
-0.11235586 0.08523464 -0.12088072 -0.10793811 -0.14673004 0.08655236 0.080771156 0.13861087
0.119946405 0.18529688 0.012917141 0.0247508 -0.19133216 0.042425457 -0.00800052 -0.053103685
0.03388945 -0.13551234 0.11593945 -0.22182316 -0.10867269 0.051503014 0.15054612 0.10381759
-0.12652513 -0.20292717 -0.06487205 -0.029102193 0.09808758 -0.17968772 -0.190554 -0.069626756
00000000: d41a e6bd 808f ae3d 5090 f7bd a80e ddbd
00000010: 6640 16be 5d42 b13d 596b a53d 02f0 0d3e
00000020: 76a6 f53d 77be 3d3e 6ba2 533c 31c2 ca3c
00000030: 94ec 43be 51c6 2d3d 9d14 03bc 4083 59bd
00000040: aacf 0a3d bfc3 0abe aa71 ed3d 9c25 63be
00000050: ca8f debd d3f4 523d c328 1a3e 519e d43d
00000060: ce8f 01be 24cc 4fbe a3db 84bd b967 eebc
00000070: 24e2 c83d 0f00 38be 9620 43be 7998 8ebd

bn2.running_mean f4 [32]
1.7448623 2.0910707 1.2460679 4.3414044 2.2346795 2.480608 1.0637237 3.1656816
3.1220222 1.5073842 2.4380455 2.9549463 3.0129578 2.616204 3.9999578 0.8651034
2.1770601 2.8455508 1.4294885 2.306435 1.8340083 1.8268042 2.7002265 2.2820756
2.326494 4.683616 1.2104625 1.3724382 5.0642476 2.266949 2.2437952 3.3292747
00000000: a657 df3f 1ad4 0540 277f 9f3f c9ec 8a40
00000010: fd04 0f40 48c2 1e40 1928 883f 879a 4a40
00000020: 36cf 4740 f7f1 c03f f008 1c40 d71d 3d40
00000030: 4dd4 4040 e36f 2740 4fff 7f40 6b77 5d3f
00000040: f454 0b40 811d 3640 7bf9 b63f a29c 1340
00000050: c9c0 ea3f b8d4 e93f 83d0 2c40 870d 1240
00000060: 47e5 1440 2fe0 9540 6ff0 9a3f 0eac af3f
00000070: 510e a240 b115 1140 579a 0f40 d612 5540

bn2.running_var f4 [32]
3.7338457 8.501564 6.3106213 18.084522 8.359632 7.0203958 3.8657908 9.124341
9.011559 3.8238964 6.834261 12.224906 10.294889 7.176327 18.557354 1.7161238
6.6963735 10.209027 5.8236794 5.65172 4.3408837 5.406447 11.173741 8.113307
7.893892 15.62865 4.005265 3.3311353 18.399162 7.4161944 7.9138193 10.926962
00000000: 54f7 6e40 6806 0841 9cf0 c940 1aad 9041
00000010: 0dc1 0541 15a7 e040 1e69 7740 4dfd 1141
00000020: 582f 1041 b8ba 7440 44b2 da40 3799 4341
00000030: deb7 2441 79a4 e540 7675 9441 f2a9 db3f
00000040: b148 d640 2d58 2341 955b ba40 e4da b440
00000050: 85e8 8a40 9d01 ad40 a5c7 3241 1bd0 0141
00000060: c39a fc40 f30e 7a41 222b 8040 5231 5540
00000070: 7c31 9341 7751 ed40 023e fd40 d6d4 2e41

conv3.weight f4 [64, 32, 5, 5]
0.0934447 0.118599854 0.117684625 0.20542851 0.096512124 -0.006311461 0.008907396 -0.033138055
0.040168215 -0.0026324142 0.02785707 -0.008018172 -0.06841486 0.020676132 -0.010358369 0.03833092
-0.06566257 -0.0032385823 -0.052342974 0.046455275 -0.022825448 -0.012106573 -0.08201731 0.07935825
0.0574017 -0.05902914 0.008647502 0.09371598 -0.058637034 0.02171262 -0.035581123 -0.14616361
-0.14065415 0.03761996 0.21047176 0.028231844 0.00021251441 0.052985482 0.065219015 0.19133337
-0.029252674 -0.088019796 -0.0128173465 0.11840511 0.045991927 -0.048827745 -0.07934573 0.03818711
-0.026859473 -0.033532206 -0.067062706 -0.08020319 -0.12120788 0.013070482 0.044058066 -0.051329337
-0.09777425 -0.024613926 0.012978646 0.097598426 -0.07288918 -0.09034286 -0.08108971 0.010728112
0.16021359 0.11425455 -0.072002366 0.17952266 0.087147735 0.052956484 -0.01652675 -0.03967844
0.020281753 -0.07079893 -0.045819197 0.051897094 0.00909794 0.07534115 -0.03832616 0.06460371
-0.0053915214 0.0010458294 0.13399865 0.129298 0.1377724 -0.0409466 0.08244521 0.017751405
0.17309551 0.104632005 -0.015920881 -0.013193565 -0.12641215 -0.023295792 -0.035400216 0.00867883
-0.061587907 0.0046177595 -0.027661905 -0.024508199 0.0090214955 0.0012973727 -0.004945093 0.0396711
0.07122038 0.04927566 -0.03104304 -0.037015386 0.057294697 0.02069206 -0.017595261 -0.07404558
-0.054609373 0.03840682 0.05426702 -0.01223791 -0.02282275 -0.036068406 0.014580661 -0.006854626
0.017357415 -0.058450438 0.020213608 0.013197546 0.004581348 0.006872924 0.027684776 0.0097347675
0.0023515495 0.1591391 -0.0021537698 0.022507044 -0.047165707 0.10529573 0.06738507 -0.052285872
-0.01615214 -0.14518453 0.061618317 0.03819243 -0.06491579 -0.014095883 -0.072204344 -0.00078882364
0.059638288 0.008870912 -0.041070133 -0.02631488 -0.049298227 -0.047021933 0.1892339 0.08314332
0.08171945 0.11136143 0.0044178446 0.05363917 0.11972545 -0.06422418 0.11273344 -0.057226446
0.04121665 0.04928481 -0.1418196 -0.20053986 -0.010801351 -0.015324529 -0.06279119 -0.07865003
-0.10715345 0.010106554 0.019582452 -0.0010741535 -0.05865694 0.029793823 0.026832191 0.010236582
0.0069317212 -0.09175861 -0.072218776 0.0058560637 -0.048230927 -0.012994572 -0.012369367 0.031195566
0.08013367 -0.021961508 -0.053360924 0.20646065 0.17625698 0.12879586 0.035750262 -0.050199293
-0.034410723 0.07383859 0.08237174 -0.00979075 -0.062355604 -0.0017569282 0.027944136 -0.05699387
-0.056179278 -0.04461812 0.046074055 0.074276924 0.06003216 0.043228857 0.058560412 0.086472586
0.17455022 0.08379809 0.04779896 0.01186976 -0.085951515 -0.008936013 0.021799956 0.020805966
0.0192234 0.0076915305 0.0058098035 -0.047420554 0.08980511 0.071435936 0.07860981 -0.060276847
-0.0048864046 0.08694998 0.026349938 -0.06895683 0.026937598 0.06957366 -0.011580418 -0.03745241
-0.0038916345 0.004503466 -0.023107186 -0.046650134 -0.11782851 0.029685821 0.026746407 0.13793251
0.0050225137 0.016871868 0.00031879215 0.04582168 0.0015854992 -0.038703397 -0.18879153 -0.090294875
-0.10479354 0.0139506655 0.039011393 -0.078768305 0.06171207 0.112567596 -0.020502698 -0.013000402
00000000: ef5f bf3d 7be4 f23d a304 f13d da5b 523e
00000010: 26a8 c53d 5fd0 cebb 54f0 113c c5bb 07bd
00000020: 6d87 243d 9584 2cbb 8334 e43c a75e 03bc
00000030: 171d 8cbd fe60 a93c 26b6 29bc e200 1d3d
00000040: 197a 86bd 653e 54bb 9665 56bd e347 3e3d
00000050: 6ffc babc a65a 46bc b1f8 a7bd 9486 a23d
00000060: 0c1e 6b3d 8ac8 71bd 41ae 0d3c 2aee bf3d
00000070: 632d 70bd aade b13c 83bd 11bd eaab 15be
00000080: a407 10be 6317 1a3d e985 573e 7846 e73c
00000090: 67d6 5e39 4e07 593d 8c91 853d e5ec 433e
000000a0: 4ea3 efbc b943 b4bd d9ff 51bc 617e f23d
000000b0: 0862 3c3d 9aff 47bd 0480 a2bd 166a 1c3d
000000c0: 6608 dcbc 1159 09bd 2c58 89bd 9241 a4bd
000000d0: d63b f8bd 9325 563c 3b76 343d b63e 52bd
000000e0: de3d c8bd 25a3 c9bc 63a4 543c afe1 c73d
000000f0: ec46 95bd ad05 b9bd 5d12 a6bd f7c4 2f3c
00000100: 080f 243e 4afe e93d fa75 93bd cad4 373e
00000110: 837a b23d e6e8 583d 1b63 87bc dc85 22bd
00000120: eb25 a63c 08ff 90bd e9ac 3bbd 0c92 543d
00000130: 870f 153c 764c 9a3d e4fb 1cbd f34e 843d
00000140: 5cab b0bb 3614 893a f136 093e b266 043e
00000150: 3514 0d3e 9fb7 27bd 09d9 a83d 656b 913c
00000160: f33f 313e 4e49 d63d 826c 82bc d329 58bc
00000170: 3072 01be d1d6 bebc d1ff 10bd a731 0e3c
00000180: 9a43 7cbd 9350 973b 389b e2bc 6bc5 c8bc
00000190: e5ce 133c 9b0c aa3a 720a a2bb 2a7e 223d
000001a0: fedb 913d 46d5 493d f94d febc 729d 17bd
000001b0: d8ad 6a3d 6582 a93c f023 90bc 36a5 97bd
000001c0: 14ae 5fbd 7850 1d3d 1847 5e3d 8481 48bc
000001d0: c7f6 babc 77bc 13bd bae3 6e3c c59c e0bb
000001e0: 2331 8e3c ba69 6fbd 0297 a53c 853a 583c
000001f0: 221f 963b 4436 e13b 2fcb e23c 937e 1f3c
00000200: 741c 1a3b 5cf5 223e 4326 0dbb b160 b83c
00000210: d430 41bd 4aa5 d73d 2f01 8a3d b629 56bd
00000220: 7e51 84bc 41ab 14be 7d63 7c3d aa6f 1c3d
00000230: 92f2 84bd 6bf2 66bc dfdf 93bd 0fc9 4eba
00000240: 4747 743d 4d57 113c 2839 28bd 4e92 d7bc
00000250: f0ec 49bd 129a 40bd 88c6 413e 0c47 aa3d
00000260: 875c a73d 7611 e43d 91c3 903b bfb4 5b3d
00000270: 9e32 f53d f887 83bd cae0 e63d 4766 6abd
00000280: cad2 283d dede 493d 2839 11be 525a 4dbe
00000290: 26f8 30bc bc13 7bbc ab98 80bd 4413 a1bd
000002a0: 4573 dbbd f695 253c 616b a03c 9cca 8cba
000002b0: 4242 70bd 2d12 f43c 2fcf db3c 56b7 273c
000002c0: 7e23 e33b f0eb bbbd 70e7 93bd 39e4 bf3b
000002d0: cb8d 45bd 2fe7 54bc e3a8 4abc d88d ff3c
000002e0: 1f1d a43d 9fe8 b3bc fc90 5abd 6c6a 533e
000002f0: b67c 343e 10e3 033e de6e 123d c69d 4dbd
00000300: 42f2 0cbd b038 973d 84b2 a83d 6269 20bc
00000310: 9768 7fbd ba48 e6ba 1aeb e43c 6772 69bd
00000320: 3e1c 66bd 7dc1 36bd 26b8 3c3d 801e 983d
00000330: 48e4 753d be10 313d 0bdd 6f3d 8a18 b13d
00000340: 4bbd 323e 559e ab3d d8c8 433d 6279 423c
00000350: 5907 b0bd 5b68 12bc d295 b23c 4671 aa3c
00000360: 647a 9d3c 3c09 fc3b 2a60 be3b 0e3c 42bd
00000370: beeb b73d 014d 923d 2efe a03d dbe4 76bd
00000380: 221e a0bb d512 b23d d3db d73c 3d39 8dbd
00000390: 3dac dc3c a37c 8e3d cbbb 3dbc b367 19bd
000003a0: cb0a 7fbb d091 933b 484b bdbc 3614 3fbd
000003b0: 1350 f1bd ae2f f33c 481b db3c 2e3e 0d3e
000003c0: e693 a43b df36 8a3c 8f23 a739 84af 3b3d
000003d0: 86d0 cf3a 7487 1ebd 9152 41be 85ec b8bd
000003e0: ff9d d6bd 5591 643c 69ca 1f3d 4751 a1bd
000003f0: ccc5 7c3d d789 e63d 46f5 a7bc a3ff 54bc

conv3.bias f4 [64]
-0.03925714 0.021706915 0.011633681 -0.011806332 -0.47880575 -0.14616798 -0.010767191 -0.018457238
0.0156361 0.041584548 -0.029392924 0.0050727 -0.025363235 0.00781742 0.060310397 -1.6786647e-05
0.04316167 0.023960235 -0.0070263464 -0.04731214 -0.0052764537 -0.022026805 -0.24334486 -0.09886165
0.057950933 7.521303e-06 -0.101212665 0.0065995622 0.03685781 -0.00014231059 0.044241644 0.058690377
0.05652874 0.03372917 -0.013006407 0.0029624926 0.0068703387 -0.024935612 -0.059812386 -0.024767568
-0.0007286925 0.034847047 -0.017998422 0.0035672225 0.016607014 0.017895587 -0.0031815353 -0.1196305
-0.039915178 0.0136738755 0.034369644 -0.30599892 0.018475952 0.06160118 -0.011213668 0.026270326
0.008695491 0.018052801 0.031136807 0.022799699 -0.0014532916 -0.013968112 0.09503583 -0.17427942
00000000: 18cc 20bd b3d2 b13c 329b 3e3c 586f 41bc
00000010: 0726 f5be 0fad 15be df68 30bc a233 97bc
00000020: 4717 803c 8f54 2a3d 6ec9 f0bc e438 a63b
00000030: 8fc6 cfbc a314 003c 0908 773d 0dd1 8cb7
00000040: 4bca 303d 4148 c43c 443d e6bb 60ca 41bd
00000050: 1ae6 acbb 8f71 b4bc 652f 79be fa77 cabd
00000060: f55d 6d3d 805f fc36 9648 cfbd 2441 d83b
00000070: 37f8 163d 3539 15b9 ba36 353d 5265 703d
00000080: ae8a 673d 9927 0a3d d318 55bc 6126 423b
00000090: 9420 e13b c545 ccbc d5fd 74bd 5be5 cabc
000000a0: ba05 3fba c7bb 0e3d 6d71 93bc 10c8 693b
000000b0: 6f0b 883c c499 923c 4e81 50bb d600 f5bd
000000c0: 197e 23bd 6408 603c 2fc7 0c3d e4ab 9cbe
000000d0: e15a 973c 8551 7c3d 88b9 37bc de34 d73c
000000e0: 8877 0e3c 78e3 933c 9e12 ff3c 6fc6 ba3c
000000f0: 607c beba 82da 64bc 25a2 c23d 4e76 32be

bn3.weight f4 [64]
1.1450409 1.0559361 0.7404524 1.029297 0.85449505 0.7673787 1.0239177 0.97392505
0.84357667 1.1527015 0.9721267 1.0840833 1.1946197 0.91680664 1.2210735 1.059084
0.9341102 1.0798681 1.1196954 1.1621326 1.1731122 0.9843244 0.8637977 0.9114724
0.7104938 0.9307371 0.98963904 1.0431551 1.1181849 0.8195704 0.7826615 1.1782365
1.0227348 0.9546196 0.88128567 1.096777 1.0358831 0.918832 0.6722114 1.0244715
0.84087783 1.1914771 1.2308292 0.9353298 1.0711524 1.2394984 1.1528075 0.85298693
1.1567038 1.1125546 1.119098 0.925464 0.8670205 0.8061371 1.2036653 1.0446119
0.80392003 1.1309431 1.0070428 1.1611806 1.0166625 1.1304439 0.8957782 0.9000856
00000000: b390 923f ea28 873f 4a8e 3d3f 01c0 833f
00000010: 30c0 5a3f ee72 443f bc0f 833f 2753 793f
00000020: a4f4 573f b98b 933f 4cdd 783f 3ec3 8a3f
00000030: 4ce9 983f d7b3 6a3f 234c 9c3f 1190 873f
00000040: d921 6f3f 1e39 8a3f 2e52 8f3f c3c0 943f
00000050: 8a28 963f affc 7b3f d921 5d3f 4156 693f
00000060: ece2 353f c944 6e3f fc58 7d3f 1b86 853f
00000070: af20 8f3f 5ecf 513f 815c 483f 74d0 963f
00000080: f9e8 823f f361 743f f09b 613f 3063 8c3f
00000090: d197 843f 9338 6b3f 0c16 2c3f e221 833f
000000a0: c543 573f 5282 983f d08b 9d3f c671 6f3f
000000b0: 861b 893f e2a7 9e3f 328f 933f 5a5d 5a3f
000000c0: df0e 943f 3068 8e3f 9a3e 8f3f 35eb 6c3f
000000d0: 0ef5 5d3f 005f 4e3f b411 9a3f d8b5 853f
000000e0: b4cd 4d3f bec2 903f c7e6 803f 91a1 943f
000000f0: ff21 823f 63b2 903f b851 653f 036c 663f

bn3.bias f4 [64]
0.10846102 -0.0721629 0.0050137765 -0.12801433 -0.07553182 0.1549389 0.0017648208 0.086487204
-0.008446821 0.025965212 -0.14722575 0.0053192694 0.057916634 -0.087492645 -0.08311555 0.07725334
0.098753616 0.057649218 0.09653584 0.062116027 -0.04698719 -0.0075069116 -0.0016339049 -0.0015093023
0.03240354 0.041426197 0.045774557 0.11010371 0.20193806 -0.040538553 0.05272051 0.04818904
-0.06570815 -0.10411574 0.10742834 0.06002415 -0.0060262657 0.07829929 -0.0365107 0.16034509
0.029670209 -0.054666683 0.040981635 -0.012590301 0.013515445 -0.06656225 0.07809796 -0.037333194
0.09197868 0.08136307 -0.0025736112 -0.012947734 -0.02944418 0.01935072 0.054000527 0.09418849
-0.043811556 -0.023519762 0.010227477 0.037213158 -0.108538955 0.1381114 0.029641919 -0.009622733
00000000: d020 de3d 24ca 93bd 9b4a a43b 3016 03be
00000010: 6db0 9abd 4ea8 1e3e 8f51 e73a 3420 b13d
00000020: 8964 0abc ffb4 d43c 59c2 16be 444d ae3b
00000030: fe39 6d3d 582f b3bd 7c38 aabd 0037 9e3d
00000040: 563f ca3d 9621 6c3d 95b4 c53d 606d 7e3d
00000050: a475 40bd 8afc f5bb c028 d6ba c8d3 c5ba
00000060: 93b9 043d 84ae 293d 1a7e 3b3d 0e7e e13d
00000070: dac8 4e3e c10b 26bd 76f1 573d df61 453d
00000080: ff91 86bd a23a d5bd 6403 dc3d e2db 753d
00000090: fb77 c5bb 615b a03d 3e8c 15bd 8131 243e
000000a0: f00e f33c 2cea 5fbd 5cdc 273d 8d47 4ebc
000000b0: e36f 5d3c ca51 88bd d3f1 9f3d b1ea 18bd
000000c0: 515f bc3d aea1 a63d 08aa 28bb bc22 54bc
000000d0: ec34 f1bc 6785 9e3c a82f 5d3d e5e5 c03d
000000e0: bf73 33bd 84ac c0bc 2691 273c d36c 183d
000000f0: ac49 debd 136d 0d3e 9cd3 f23c aba8 1dbc

bn3.running_mean f4 [64]
2.3166392 2.8556328 12.853864 3.106768 0.7198802 0.0017197428 4.669581 2.4706457
2.7296133 2.5189917 1.4205029 2.846543 4.5589385 2.0486438 2.6900234 4.3111405
3.6176572 3.3483417 2.6364093 3.116498 2.630459 1.0561433e-06 0.004804154 1.8672863e-05
8.741359 2.0503724 1.4435666 3.16998 3.143224 2.403043 1.0603907 3.3700526
3.0021546 2.8328886 0.7732827 1.4915977 6.4877667 2.6277122 2.8550436e-05 2.880923
0.5265606 3.878634 3.8976946 1.779039 3.329043 4.492009 3.4563227 7.078464e-05
1.0288675 2.5012536 3.4244459 0.0052909846 1.5871612 1.4154395 4.9952416 2.891396
1.9137821 2.8341415 6.4259024 3.1190014 2.5678189 3.3751957 14.131075 0.4162504
00000000: d143 1440 b0c2 3640 6da9 4d41 49d5 4640
00000010: 124a 383f fe68 e13a 356d 9540 0f1f 1e40
00000020: fcb1 2e40 2937 2140 0ad3 b53f c32d 3640
00000030: d3e2 9140 fb1c 0340 5829 2c40 ddf4 8940
00000040: b287 6740 3b4b 5640 eeba 2840 b474 4740
00000050: 7159 2840 cfc0 8d35 2a6c 9d3b aba3 9c37
00000060: 9bdc 0b41 4d39 0340 cac6 b83f f4e0 4a40
00000070: 952a 4940 75cb 1940 e2ba 873f f1ae 5740
00000080: 4d23 4040 0c4e 3540 dbf5 453f acec be3f
00000090: c99b cf40 702c 2840 987f ef37 0b61 3840
000000a0: adcc 063f 8a3b 7840 d473 7940 8db7 e33f
000000b0: 0a0f 5540 8abe 8f40 6434 5d40 3772 9438
000000c0: eeb1 833f 8a14 2040 1f2a 5b40 ff5f ad3b
000000d0: 1928 cb3f 1f2d b53f 05d9 9f40 a20c 3940
000000e0: d0f6 f43f 9362 3540 fea0 cd40 b89d 4740
000000f0: 2557 2440 3503 5840 e218 6241 c61e d53e

bn3.running_var f4 [64]
10.457579 8.560309 93.04053 9.822655 11.626648 0.0067491946 8.485848 4.418522
22.802631 13.159207 5.0940175 11.622748 24.534828 5.1342087 13.744991 18.161806
7.828235 10.403827 13.24688 13.821912 14.772656 1.239265e-07 0.02255621 2.3104896e-05
30.148201 8.685398 11.588954 11.2958555 12.778547 8.364909 7.297281 11.700761
14.02345 13.834856 3.6839437 5.3736186 15.976732 15.088865 2.3848688e-05 10.187165
3.1501849 15.142698 19.555298 6.516481 11.56323 17.072958 19.590717 0.00027983924
4.3334694 10.740198 15.786862 0.035843667 5.4770784 14.846604 16.60716 14.1546335
10.939839 20.308418 14.845648 15.835919 9.840462 15.403696 62.1234 5.064273
00000000: 3e52 2741 07f7 0841 c014 ba42 9829 1d41
00000010: c006 3a41 5928 dd3b 09c6 0741 8864 8d40
00000020: ca6b b641 1d8c 5241 3102 a340 c7f6 3941
00000030: 5447 c441 704b a440 7ceb 5b41 614b 9141
00000040: e780 fa40 1376 2641 38f3 5341 8d26 5d41
00000050: cd5c 6c41 a810 0534 cdc7 b83c 63d1 c137
00000060: 842f f141 64f7 0a41 5b6c 3941 d3bb 3441
00000070: ee74 4c41 abd6 0541 5383 e940 5136 3b41
00000080: 0d60 6041 925b 5d41 bcc5 6b40 aff4 ab40
00000090: b2a0 7f41 fe6b 7141 ab0e c837 a1fe 2241
000000a0: a19c 4940 7e48 7241 4071 9c41 0387 d040
000000b0: fd02 3941 6b95 8841 cab9 9c41 63b7 9239
000000c0: c8ab 8a40 dad7 2b41 fd96 7c41 cfd0 123d
000000d0: 3a44 af40 b18b 6d41 77db 8441 6179 6241
000000e0: 9509 2f41 a477 a241 c687 6d41 ed5f 7d41
000000f0: 8872 1d41 8a75 7641 5d7e 7842 860e a240

fc1.weight f4 [256, 64]
0.018193237 0.14185706 0.0529602 -0.0038101524 -0.036210306 -0.09354969 -0.03931935 0.028762504
-0.06296771 -0.22570208 -0.0036122045 -0.00032865518 0.072380215 -0.011638347 -0.0072240867 0.055600353
-0.032103192 0.005861749 -0.0089121265 -0.18759242 -0.08092799 0.12301257 -0.034533016 0.09622655
0.0022993234 -0.04501573 -0.103943184 -0.087323144 0.12731376 -0.19988881 -0.13907698 -0.17352746
-0.01661286 0.014637905 0.10182487 -0.12668651 0.015993474 0.05518815 0.026171638 -0.0020441087
0.06927637 0.15404688 0.11836904 -0.05979087 0.008608594 -0.25190616 -0.07402957 0.025923755
0.241006 0.15646277 0.21649867 -0.052590515 -0.115362436 0.02572147 0.047342684 0.040811773
-0.0325284 0.1032371 -0.042534355 0.0070790322 -0.030550526 0.06995006 -0.06707537 0.07758419
-0.15520234 -0.05913216 -0.056900077 -0.014095651 -0.06577949 -0.154747 0.13436359 -0.09780814
0.037824064 -0.042531833 -0.02809757 -0.008942139 -0.16100475 -0.142613 0.13689291 0.063381545
0.19796428 -0.09947895 0.10071135 0.1286792 -0.022364546 -0.08722073 -0.04658515 -0.15526186
-0.20197727 -0.08775611 -0.0645917 0.19754763 -0.20596057 -0.03622651 -0.0696109 -0.009224665
0.011620099 0.0411559 0.07129021 -0.082365446 0.0059833983 -0.082642846 0.012863338 -0.07247033
0.004988312 -0.20263821 -0.06246253 0.2675485 0.00524245 -0.07893323 0.043064527 -0.12488192
-0.20810983 0.07695932 -0.28624552 -0.08208013 -0.04038988 -0.060111973 -0.017906735 -0.058123067
-0.08783171 -0.11858936 0.07665925 -0.02099779 -0.10362096 -0.13262096 -0.11315711 -0.08792894
0.13124387 -0.013915646 0.037217256 0.19870996 -0.14368881 -0.11022091 0.19266807 0.10893255
-0.04292919 -0.013240601 -0.026467081 0.09445984 -0.17975298 -0.05778783 0.14550847 -0.15863869
-0.12104405 -0.014085976 0.011751583 0.06358145 0.17086345 -0.02630567 -0.0718516 -0.022618465
-0.013158902 -0.09926775 -0.038451593 -0.06042273 -0.02347669 0.13028058 0.13928379 -0.018584307
-0.20928137 -0.10868493 -0.041686118 -0.11728924 0.11540362 -0.15190074 0.013573565 -0.08516207
-0.018235017 -0.02009222 0.1310077 0.123063244 -0.115463495 -0.12736489 0.08956687 0.09054818
0.042696755 -0.10941169 -0.1027498 -0.07002509 0.004810295 -0.0037776402 -0.114867456 -0.18027924
-0.0829443 -0.06970588 0.03325674 0.1478838 -0.10834215 -0.06639807 0.064929195 -0.043221712
-0.13853449 0.05389828 -0.17970866 -0.026164249 -0.0069740387 -0.149389 0.06881907 0.052797716
0.13439758 0.1877005 -0.09038091 0.027999263 -0.06619323 -0.11493339 -0.044867866 -0.022846308
-0.11264522 0.02962653 -0.02362733 -0.033539202 -0.11470265 -0.119079985 0.020084238 0.09595765
0.19468859 0.12341809 0.0939846 0.044247624 -0.13651773 -0.066328764 -0.007576224 -0.23072052
0.15962103 0.13843672 0.031784773 -0.098197974 -0.029113196 0.039555717 -0.013424738 -1.4432997e-05
-0.10605836 -0.12225105 0.019193789 -0.11421068 -0.10428843 -0.12370954 0.07854921 0.04577499
-0.0722905 0.12642178 -0.24284983 -0.037900876 0.030103657 0.10104632 0.024518374 -0.0870493
-0.111033745 -0.04145082 -0.007192115 0.0846296 -0.1958155 -0.0019254312 -0.093475774 -0.0061526876
00000000: fc09 953c fa42 113e cbec 583d c0b3 79bb
00000010: 4251 14bd fb96 bfbd 540d 21bd 589f eb3c
00000020: 37f5 80bd 721e 67be bcba 6cbb 5a4f acb9
00000030: 143c 943d c4ae 3ebc 08b8 ecbb 32bd 633d
00000040: a37e 03bd ea13 c03b 2b04 12bc 3a18 40be
00000050: 93bd a5bd 04ee fb3d 7e72 0dbd 6d12 c53d
00000060: 3fb0 163b 6a62 38bd 2ae0 d4bd 7ad6 b2bd
00000070: 8a5e 023e a7af 4cbe 326a 0ebe 2fb1 31be
00000080: b117 88bc d3d3 6f3c 8f89 d03d 1cba 01be
00000090: bf04 833c f80c 623d e765 d63c 74f6 05bb
000000a0: c5e0 8d3d 77be 1d3e 786b f23d 45e7 74bd
000000b0: 0f0b 0d3c d8f9 80be d19c 97bd 0e5e d43c
000000c0: 47ca 763e c737 203e d4b1 5d3e 2769 57bd
000000d0: 2443 ecbd d5b5 d23c 67ea 413d 3f2a 273d
000000e0: 803c 05bd f96d d33d 8138 2ebd 3af7 e73b
000000f0: 1945 fabc fa41 8f3d d05e 89bd 76e4 9e3d
00000100: 5ded 1ebe 9034 72bd 0e10 69bd 72f1 66bc
00000110: 66b7 86bd ff75 1ebe 9c96 093e a24f c8bd
00000120: 68ed 1a3d dc35 2ebd e02c e6bc 0d82 12bc
00000130: 6ede 24be 2409 12be a82d 0c3e 2fce 813d
00000140: 26b7 4a3e 9fbb cbbd c141 ce3d 7bc4 033e
00000150: da35 b7bc c8a0 b2bd 12d0 3ebd f7fc 1ebe
00000160: 21d3 4ebe 7ab9 b3bd a748 84bd ed49 4a3e
00000170: 54e7 52be 4062 14bd 2990 8ebd 0d23 17bc
00000180: 3a62 3e3c 1793 283d 9a00 923d 37af a8bd
00000190: 6210 c43b a740 a9bd c0c0 523c 536b 94bd
000001a0: fe74 a33b 6480 4fbe b6d8 7fbd 1efc 883e
000001b0: dcc8 ab3b bfa7 a1bd 6e64 303d 18c2 ffbd
000001c0: be1a 55be d99c 9d3d c68e 92be a119 a8bd
000001d0: dc6f 25bd f937 76bd 25b1 92bc 7412 6ebd
000001e0: 1de1 b3bd fade f2bd 86ff 9c3d 8f03 acbc
000001f0: 3a37 d4bd cacd 07be eabe e7bd 1714 b4bd
00000200: cb64 063e 73fe 63bc 1f71 183d a07a 4b3e
00000210: 2923 13be 80bb e1bd c74a 453e 0718 df3d
00000220: 85d6 2fbd 1bef 58bc 7ed1 d8bc 2974 c13d
00000230: 2a11 38be eeb2 6cbd 2c00 153e 2e72 22be
00000240: f1e5 f7bd dec8 66bc b689 403c fe36 823d
00000250: d4f6 2e3e fd7e d7bc ef26 93bd 5c4a b9bc
00000260: 6f98 57bc e44c cbbd 6b7f 1dbd d37d 77bd
00000270: 3052 c0bc 4668 053e 69a0 0e3e 1e3e 98bc
00000280: db4d 56be 3496 debd 10bf 2abd 5735 f0bd
00000290: bc58 ec3d de8b 1bbe a863 5e3c 7469 aebd
000002a0: 9a61 95bc 7098 a4bc e226 063e 9508 fc3d
000002b0: 2078 ecbd f16b 02be d66e b73d 5371 b93d
000002c0: cbe2 2e3d 3c13 e0bd 7d6e d2bd 5069 8fbd
000002d0: ae9f 9d3b 4992 77bb a13f ebbd 1f9b 38be
000002e0: b3de a9bd f5c1 8ebd 3838 083d da6e 173e
000002f0: 7de2 ddbd b6fb 87bd 99f9 843d 4009 31bd
00000300: fcdb 0dbe 71c4 5c3d 8c05 38be 6856 d6bc
00000310: 7a86 e4bb 6ef9 18be 03f1 8c3d 6b42 583d
00000320: 859f 093e 8f34 403e a019 b9bd b65e e53c
00000330: 5190 87bd 3262 ebbd 5ec7 37bd 2e28 bbbc
00000340: 89b2 e6bd 56b3 f23c 1a8e c1bc 6760 09bd
00000350: 39e9 eabd 35e0 f3bd b387 a43c 7285 c43d
00000360: 725c 473e a0c2 fc3d ff7a c03d ff3c 353d
00000370: 4ecb 0bbe 60d7 87bd f941 f8bb 0042 6cbe
00000380: b273 233e 5bc2 0d3e c030 023d 051c c9bd
00000390: cc7e eebc 2d05 223d 6ff3 5bbc 4025 72b7
000003a0: 2035 d9bd c25e fabd 4b3c 9d3c 4ae7 e9bd
000003b0: 2c95 d5bd 6d5b fdbd 69de a03d 8e7e 3b3d
000003c0: 0b0d 94bd b674 013e a0ad 78be f33d 1bbd
000003d0: f29b f63c 5ff1 ce3d c2da c83c e746 b2bd
000003e0: a965 e3bd 56c8 29bd d5ab ebbb 4952 ad3d
000003f0: dc83 48be c05e fcba 3a70 bfbd 7c9c c9bb

fc1.bias f4 [256]
-0.06110634 -0.04307718 -0.058869544 -0.09319686 -0.12836759 -0.058859672 0.03529946 -0.06434756
0.0656254 -0.06179666 0.058930743 -0.11732592 -0.2094343 -0.039236624 -0.012745781 0.024679873
-0.15962222 -0.019573566 -0.03180099 -0.10890148 0.1376075 -0.06903773 0.110597834 -0.10553188
0.040726177 0.06346886 0.05864521 -0.17666562 0.089781575 -0.07511596 0.10876946 0.10406772
0.09510644 -0.1294187 0.05285851 -0.163489 -0.014719016 -0.003896666 0.07885392 -0.055555686
-0.058116645 0.11397121 -0.054562405 0.03558084 0.12431867 0.087611735 -0.0578316 0.064738356
0.048999663 -0.027329687 0.04709728 0.085248016 0.09324142 -0.04928283 0.012132584 0.02598229
-0.072838426 0.02738916 -0.038468745 -0.18234102 0.105371095 -0.036111582 -0.1626209 -0.11378976
-0.024011444 0.09229767 0.08627715 -0.14415722 0.049078092 -0.10476275 -0.066315874 0.035971265
-0.13461074 0.033277635 0.14316389 0.03476016 -0.09081149 0.10510268 0.012705916 0.05245912
0.15757266 -0.17950961 -0.0010856261 -0.023234313 -0.021370826 -0.01833188 -0.15238374 -0.042454243
-0.13048516 0.03916261 0.08486665 -0.014500673 -0.086682305 -0.015397888 0.117280215 -0.10317022
0.08318688 0.04009528 -0.14246109 0.029264934 0.006645275 0.019489227 0.028920766 0.05756183
-0.0073370333 0.048840255 -0.06862672 0.03349532 0.027307663 -0.19090974 0.035331234 0.091712095
-0.08263125 0.0954691 -0.11609881 -0.096491046 -0.027081287 -0.24796376 0.060216326 -0.09290046
0.02974848 0.08286667 -0.026938478 -0.05366381 -0.12351907 -0.045817554 0.017095089 0.06667502
0.070838526 0.09225951 -0.08318526 0.07751001 -0.12331887 -0.22235411 0.043392394 -0.09515343
0.002473873 0.058400773 0.052438512 -0.17355186 -0.11924254 0.15900919 -0.04263886 0.092326686
-0.1658709 -0.0009990216 -0.012951548 -0.010212831 -0.01751092 0.006987527 -0.10088728 0.012587734
-0.061958864 -0.055993214 0.105769336 0.09428274 -0.102140024 -0.17658563 -0.11699228 -0.15063033
0.16449235 0.050885048 -0.0056595397 0.07042306 0.101388454 -0.041140694 -0.039781623 0.093705274
0.0040304796 0.015283817 -0.09270926 -0.09101849 -0.14468737 -0.07828137 0.069834866 -0.0060610976
-0.11701845 -0.087372705 0.08848061 0.13843304 -0.005078007 -0.120915785 -0.020564483 0.029299611
0.10505205 0.054172307 -0.07010524 0.0659145 0.041427787 0.00034065102 -0.06750686 -0.117140755
-0.061856985 -0.059053235 -0.13491093 -0.016393946 0.08003123 -0.0012005583 -0.043204464 -6.0635455e-05
-0.029923322 -0.046321243 0.07489358 -0.14354551 -0.011391112 0.0698871 -0.1531939 -0.096161574
0.028764859 -0.05924582 0.037352215 -0.11925786 0.036667928 -0.04702388 -0.028771725 -0.06143906
-0.050159212 0.020644143 -0.1328427 -0.07032559 0.04578442 -0.08535307 -0.0065347743 -0.12878214
-0.14284366 0.09509379 0.107144125 -0.07302957 -0.11309755 0.060048915 0.021883193 0.062025238
-0.10360566 0.10927449 0.04864485 -0.08924317 -0.0953223 -0.1555644 0.018918024 0.016588792
-0.045600925 -0.122238785 -0.08077724 -0.08306855 0.14736724 0.07376342 0.012274115 -0.15443917
-0.0019520294 -0.10542204 -0.030679073 0.007916516 -0.08263034 -0.071702555 -0.08029565 -0.039460447
00000000: a44a 7abd b271 30bd 3121 71bd ffdd bebd
00000010: cb72 03be d716 71bd 2b96 103d a7c8 83bd
00000020: 9c66 863d 7f1e 7dbd 5d61 713d 9248 f0bd
00000030: f275 56be 95b6 20bd aed3 50bc 722d ca3c
00000040: 0274 23be be58 a0bc c141 02bd bd07 dfbd
00000050: fbe8 0c3e a763 8dbd 1e81 e23d 1921 d8bd
00000060: 7ed0 263d f6fb 813d f635 703d d5e7 34be
00000070: 67df b73d 65d6 99bd 86c2 de3d 7521 d53d
00000080: 2ac7 c23d 5686 04be 2a82 583d a969 27be
00000090: 0728 71bc 355f 7fbb 2a7e a13d 5c8e 63bd
000000a0: b80b 6ebd bd69 e93d d47c 5fbd 37bd 113d
000000b0: c99a fe3d c86d b33d d4e0 6cbd 8b95 843d
000000c0: dfb3 483d 82e2 dfbc 14e9 403d 8396 ae3d
000000d0: 5cf5 be3d cbdc 49bd bfc7 463c d0d8 d43c
000000e0: 502c 95bd 3b5f e03c 6791 1dbd 9bb7 3abe
000000f0: cdcc d73d bde9 13bd 1886 26be 9b0a e9bd
00000100: a6b3 c4bc 9006 bd3d 13b2 b03d f39d 13be
00000110: 1c06 493d da8d d6bd 9ed0 87bd 9b56 133d
00000120: 66d7 09be 214e 083d 8e99 123e ab60 0e3d
00000130: 60fb b9bd 1340 d73d 792c 503c 60df 563d
00000140: ba5a 213e 5ed1 37be 914b 8eba e355 bebc
00000150: df11 afbc bd2c 96bc 7c0a 1cbe 80e4 2dbd
00000160: e79d 05be f968 203d 91ce ad3d 3b94 6dbc
00000170: 7e86 b1bd 6c47 7cbc 9c30 f03d e94a d3bd
00000180: e25d aa3d f33a 243d 52e1 11be 04bd ef3c
00000190: 9bc0 d93b dfa7 9f3c 3eeb ec3c f4c5 6b3d
000001a0: 7f6b f0bb b80c 483d 2a8c 8cbd 6332 093d
000001b0: 52b4 df3c d87d 43be 7cb7 103d 8dd3 bb3d
000001c0: 933a a9bd 4e85 c33d 37c5 edbd 199d c5bd
000001d0: 93d9 ddbc 36ea 7dbe 65a5 763d 9942 bebd
000001e0: 16b3 f33c 00b6 a93d 15ae dcbc 95ce 5bbd
000001f0: 91f7 fcbd 30ab 3bbd 000b 8c3c ea8c 883d
00000200: ca13 913d 8ef2 bc3d 095d aabd 91bd 9e3d
00000210: 9b8e fcbd ccb0 63be 39bc 313d cddf c2bd
00000220: b420 223b a635 6f3d c4c9 563d 94b7 31be
00000230: 6f35 f4bd 4ed3 223e 16a6 2ebd c615 bd3d
00000240: 10da 29be 9af1 82ba bb32 54bc b853 27bc
00000250: 1073 8fbc a0f7 e43b fe9d cebd c83c 4e3c
00000260: 94c8 7dbd 2459 65bd 989d d83d 4f17 c13d
00000270: ca2e d1bd ddd2 34be a699 efbd d63e 1abe
00000280: af70 283e d76c 503d a973 b9bb f739 903d
00000290: c0a4 cf3d 2583 28bd 0ef2 22bd 8de8 bf3d
000002a0: 1d12 843b fa68 7a3c 5ade bdbd e767 babd
000002b0: ed28 14be fc51 a0bd 9505 8f3d 2c9c c6bb
000002c0: 5ea7 efbd 76f0 b2bd 5235 b53d 64c1 0d3e
000002d0: 6965 a6bb b2a2 f7bd d976 a8bc bd05 f03c
000002e0: 8725 d73d c8e3 5d3d 5693 8fbd 2efe 863d
000002f0: 2fb0 293d 6899 b239 0941 8abd 7ee7 efbd
00000300: c05d 7dbd cee1 71bd 1726 0abe 994c 86bc
00000310: 6ae7 a33d 0d5c 9dba 2af7 30bd d352 7eb8
00000320: c121 f5bc 58bb 3dbd ce61 993d 98fd 12be
00000330: c9a1 3abc f820 8f3d ddde 1cbe 5cf0 c4bd
00000340: 48a4 eb3c bfab 72bd a3fe 183d 773d f4bd
00000350: 1c31 163d 1d9c 40bd aeb2 ebbc 86a7 7bbd
00000360: bf73 4dbd e81d a93c eb07 08be dd06 90bd
00000370: 7288 3b3d 97cd aebd a921 d6bb 77df 03be
00000380: 9c45 12be 88c0 c23d 616e db3d 8790 95bd
00000390: b09f e7bd daf5 753d 6244 b33c 2d0e 7e3d
000003a0: 342f d4bd 4ecb df3d d23f 473d 20c5 b6bd
000003b0: 5738 c3bd 464c 1fbe f9f9 9a3c 38e5 873c
000003c0: 09c8 3abd 5458 fabd 8a6e a5bd d81f aabd
000003d0: 70e7 163e 4711 973d 5f19 493c 4d25 1ebe
000003e0: 3ddb ffba 83e7 d7bd ae52 fbbc 46b4 013c
000003f0: 183a a9bd cad8 92bd 0c72 a4bd 47a1 21bd

bn4.weight f4 [256]
1.0546534 1.1194404 1.0769705 0.95959634 1.0078021 1.0660866 1.0794519 0.98501414
0.9914158 1.074643 1.0975215 1.0401751 1.1269035 0.9994145 1.0789376 0.99014854
1.0309908 1.0355607 1.0142703 1.1294607 0.98157156 0.9731704 1.0450611 1.1529576
0.9959525 1.0496726 1.0769771 1.0800488 1.055187 1.0949813 1.0891516 1.0010386
1.046129 1.0396168 1.0300528 1.0459095 1.0175831 0.98510206 1.0605979 0.9568176
1.0096395 1.1702929 1.0945812 1.0259424 0.9283774 1.1995548 1.0084971 1.0545613
1.0160556 1.0111331 1.0591328 1.056463 0.9724012 1.0350472 1.0347369 1.0697355
1.0748479 1.0064179 0.9963947 1.0890161 0.9940407 1.013932 1.1213533 0.99806935
1.1565548 1.0492455 1.0399868 1.0789583 1.036794 1.06304 0.98268515 1.0250512
1.1147255 1.0025548 1.0345429 0.98676515 1.0346502 1.0486968 1.0285323 0.981588
1.0398127 1.1053268 0.97530454 0.9855463 1.0442098 1.0868901 1.0103607 1.0500398
1.0196277 1.0647794 0.95469517 1.0141072 1.0112628 1.0119889 1.0335653 1.0460671
1.0539087 1.0095475 1.0323299 1.0155004 1.0414616 1.0781944 1.0004741 1.0073068
1.030651 0.96888137 1.0196491 1.0252547 0.9998043 1.0449336 0.9952624 1.0617753
0.98437804 1.1218084 1.1176755 1.0771912 1.014263 1.1613076 1.0082648 1.0192841
0.9487566 1.1003196 0.99338835 1.0294555 1.0087224 1.0838126 0.96430373 1.1570193
0.9663764 0.96337825 0.97871435 0.9979871 1.0261202 1.0912224 1.0464115 1.0463068
1.0030953 1.0263997 0.9992676 1.021279 1.0395304 1.0097485 1.019991 1.0492227
1.0090029 0.99101657 1.0133928 1.0072129 1.1026688 1.0690267 0.98179036 1.059327
1.052783 1.0069382 1.0330826 1.0452776 0.9888895 1.0697765 0.98635143 1.0118858
0.9695707 0.9387975 0.93214834 0.99007213 0.95081764 1.1037347 1.05521 1.0960907
1.1045147 1.069241 1.0459946 1.0570067 1.0112871 1.0134395 0.98875314 1.0749706
1.0236771 0.98714775 1.0190808 0.9975637 1.0362749 0.9653577 0.9636803 1.0584959
1.093577 1.0603162 0.9793193 1.0308913 0.97678024 1.0228784 1.0422132 0.9904278
0.9856487 0.9845627 1.1035587 0.99451184 1.0974362 1.0375901 1.0379771 1.0036718
0.9825454 0.94970846 0.99805003 0.9938421 1.0608196 1.0762134 0.99241066 1.0458705
1.037322 1.0183718 1.0084084 1.1134398 1.0295923 0.98027575 1.0572206 1.1267345
1.0438688 1.0808858 1.0382627 0.95408314 1.1190126 1.0484178 1.0463915 1.0384874
1.0169656 0.9292174 1.0817108 1.0035268 1.0171648 1.0220313 1.0531007 1.05714
1.0275302 1.0896493 1.0523695 1.0011196 1.0080855 0.9866634 1.0428071 1.1043807
1.0026554 0.9915339 1.0682625 1.0381987 0.9795276 0.9809442 1.0276661 0.9596573
1.0173846 1.0382828 1.03587 1.0576049 1.0570313 1.1251987 0.9803051 1.076447
00000000: e2fe 863f d349 8f3f 2bda 893f 1ba8 753f
00000010: a9ff 803f 8775 883f 7b2b 8a3f e329 7c3f
00000020: 6dcd 7d3f e78d 893f 967b 8c3f 7524 853f
00000030: 603e 903f a1d9 7f3f a11a 8a3f 607a 7d3f
00000040: 82f7 833f 418d 843f 9cd3 813f 2b92 903f
00000050: 4648 7b3f b221 793f 90c4 853f 1d94 933f
00000060: bef6 7e3f ac5b 863f 63da 893f 0a3f 8a3f
00000070: 5e10 873f 5928 8c3f 5269 8b3f 0822 803f
00000080: 8ee7 853f 2a12 853f c5d8 833f 5de0 853f
00000090: 2a40 823f a62f 7c3f acc1 873f 00f2 743f
000000a0: de3b 813f 28cc 953f 3d1b 8c3f 1552 833f
000000b0: 24aa 6d3f 038b 993f 6f16 813f ddfb 863f
000000c0: 1c0e 823f cf6c 813f aa91 873f 2e3a 873f
000000d0: 49ef 783f 6d7c 843f 4272 843f 18ed 883f
000000e0: 9e94 893f 4dd2 803f b913 7f3f e164 8b3f
000000f0: 7479 7e3f 86c8 813f 8188 8f3f 7981 7f3f
00000100: fd09 943f ad4d 863f 4a1e 853f 4e1b 8a3f
00000110: aab5 843f b211 883f 4191 7b3f e134 833f
00000120: 53af 8e3f b753 803f e76b 843f a49c 7c3f
00000130: 6b6f 843f b23b 863f f2a6 833f 5a49 7b3f
00000140: 9518 853f 597b 8d3f 8fad 793f c34c 7c3f
00000150: aba8 853f 371f 8b3f 8053 813f b467 863f
00000160: 2983 823f b14a 883f e766 743f 44ce 813f
00000170: 0f71 813f da88 813f de4b 843f 87e5 853f
00000180: 7be6 863f da38 813f 6323 843f ebfb 813f
00000190: 9d4e 853f 4602 8a3f 890f 803f 6eef 803f
000001a0: 5fec 833f 9c08 783f dd83 823f 8c3b 833f
000001b0: 2df3 7f3f 62c0 853f 84c9 7e3f 41e8 873f
000001c0: 3300 7c3f 6b97 8f3f fe0f 8f3f 67e1 893f
000001d0: 5fd3 813f baa5 943f d20e 813f e777 823f
000001e0: b6e1 723f 46d7 8c3f b34e 7e3f 33c5 833f
000001f0: d11d 813f 5fba 8a3f 9cdc 763f 3519 943f
00000200: 7264 773f f59f 763f 068d 7a3f 157c 7f3f
00000210: e857 833f 2dad 8b3f d0f0 853f 62ed 853f
00000220: 6d65 803f 1161 833f 00d0 7f3f 45b9 823f
00000230: 550f 853f 703f 813f 118f 823f ee4c 863f
00000240: 0227 813f 43b3 7d3f dbb6 813f 5aec 803f
00000250: 4024 8d3f ded5 883f 9d56 7b3f 0798 873f
00000260: 98c1 863f 5ae3 803f 0d3c 843f a8cb 853f
00000270: dd27 7d3f 70ee 883f 8781 7c3f 7985 813f
00000280: c935 783f 0855 703f 46a1 6e3f 5e75 7d3f
00000290: c968 733f 2e47 8d3f 1f11 873f b34c 8c3f
000002a0: bd60 8d3f e4dc 883f 27e3 853f ff4b 873f
000002b0: db71 813f 63b8 813f ed1e 7d3f a398 893f
000002c0: da07 833f b7b5 7c3f 3d71 823f 5660 7f3f
000002d0: a8a4 843f af21 773f c1b3 763f cb7c 873f
000002e0: 55fa 8b3f 71b8 873f abb4 7a3f 3ff4 833f
000002f0: 450e 7a3f aeed 823f 3e67 853f ad8c 7d3f
00000300: 7953 7c3f 4d0c 7c3f 6941 8d3f 5498 7e3f
00000310: ca78 8c3f c1cf 843f 6fdc 843f 5178 803f
00000320: 1888 7b3f 1820 733f 3580 7f3f 706c 7e3f
00000330: f0c8 873f 5cc1 893f a00e 7e3f 16df 853f
00000340: f8c6 843f 025a 823f 8713 813f 3285 8e3f
00000350: aec9 833f 5af3 7a3f 0153 873f d638 903f
00000360: 7e9d 853f 775a 8a3f cbe5 843f cb3e 743f
00000370: ce3b 8f3f 8e32 863f 28f0 853f 28ed 843f
00000380: ee2b 823f 31e1 6d3f 8075 8a3f 9173 803f
00000390: 7532 823f ecd1 823f 01cc 863f 5d50 873f
000003a0: 1c86 833f a179 8b3f 0bb4 863f b024 803f
000003b0: f208 813f f995 7c3f b47a 853f 595c 8d3f
000003c0: 0357 803f 2ad5 7d3f d3bc 883f b2e3 843f
000003d0: 52c2 7a3f 291f 7b3f 908a 833f 1aac 753f
000003e0: a939 823f 73e6 843f 6397 843f 995f 873f
000003f0: cd4c 873f 8306 903f 46f5 7a3f 04c9 893f
