mini_batch_exp/models/mnist_sgd_batch64_lr0.1.pt (torch_old, 326371 bytes, 26 tensors)

conv1.weight f4 [16, 1, 3, 3]
00000000: a723 e23c d9e0 9e3e 5840 afbe 0c49 b1bd
00000010: 6802 a53d 53fb 5c3e 1d0b 873c 468f 42bd
00000020: fdab 173d b70b 843e 3728 40be e969 21be
00000030: 708f 7d3e 2534 c5be 41dc da3d 982a 483e
00000040: 5c2b 77be 317f 6b3c 0a1c 3cbd 4bd8 143e
00000050: da13 ab3e 9ccf a93e 3887 04be 7a21 20be
00000060: 3c6e a33e 0d28 a0be 20bd 75be 5132 70be
00000070: 7b67 c2bd 5c45 0f3e 7a94 4b3e d456 ea3e
00000080: 48cf 263e 28d5 14bd 9b53 5ebe e368 ccbe
00000090: 6c9c 133e f2c8 d93d 66d9 233e 2ba3 05be
000000a0: 41ee 593e 0225 043e ded1 e2be 5c01 9bbe
000000b0: 1475 b5be 1c74 a0bd 61eb 92be 5e8f a13e
000000c0: a886 483e f826 bebe b35e e0bd 5154 15be
000000d0: 13ef 35be bc9b 4bbe 0eaa a13e c18a aa3e
000000e0: 9d9d 2d3e 511f 523e d94c 8a3e d267 553e
000000f0: a5f9 3a3e 6884 db3d b991 46be b2ae a2be
00000100: f9a8 393e 74c6 b23d ccf1 a9be 2d85 303e
00000110: 5054 563e 9420 d4bd 1078 813e be9b 81be
00000120: d0e9 cc3d d8fa 803d 8ff9 65be 3953 cc3d
00000130: 9a88 c13b f191 a8be 4a72 c9bd f363 fbbe
00000140: c218 4c3e 265a a53e 6e5a aa3c 5672 cf3b
00000150: 6971 bd3c 8d81 86bd a68b babe 5fed a3be
00000160: cc06 a63e c5e4 743e 2701 843e 1851 ce3d
00000170: a9be 583e 0ae1 6abe a90d c93d 3e02 84bb
00000180: 62d9 5f3d a7b2 afbe 8c2c 5c3d aeac 6c3e
00000190: d92d a03e 4930 1fbc 5d8b 143e 29cc 703e
000001a0: 9f7c a7be 4077 95ba 37da c9bc a79f 63be
000001b0: 59d2 be3e cab9 f83d 4088 4abe 5540 44be
000001c0: 2e43 783c bd6e 283e 18a3 8b3e aa9f 0f3e
000001d0: 6860 fb3d 54cb 92be ded3 97be 8768 563d
000001e0: 1bf8 5fbe 28cd f3bd 4471 f43e bb5b 44be
000001f0: ad5e 86be 0326 e7bd e14c 293e de79 98bc
00000200: bdd5 933e 8de5 a73e 843b ad3e 7706 d3bd
00000210: e595 1e3e 40ec 26be a542 853e 1ed3 ebbb
00000220: 3c3e 81be f78e babc 619f 7b3e e59d 9abd
00000230: 2d37 6bbe 6ff2 333c 3ad7 c33e 3da3 39be
0.027604891 0.3103092 -0.34228778 -0.08656511 0.080570996 0.21580248 0.016484791 -0.047499917
0.037029255 0.25790188 -0.18765341 -0.15763058 0.24761748 -0.38516346 0.10686541 0.19547498
-0.24137634 0.0143735865 -0.045925178 0.14535634 0.33413583 0.33166206 -0.12942207 -0.1563777
0.3192004 -0.31280556 -0.23997927 -0.23456694 -0.094923936 0.13991302 0.19880858 0.4576937
0.16290009 -0.036336094 -0.2171158 -0.39923772 0.14415139 0.106340304 0.160009 -0.13050525
0.21282293 0.12904742 -0.4430074 -0.30274475 -0.35440886 -0.07834646 -0.28695205 0.31554693
0.19582617 -0.37139106 -0.109555624 -0.14582945 -0.17766981 -0.19883627 0.31575054 0.33308986
0.16954656 0.20519759 0.27011755 0.20840386 0.18259294 0.10718614 -0.19391526 -0.31773907
0.18130864 0.08729258 -0.3319229 0.17238303 0.209306 -0.10357776 0.25286913 -0.25314134
0.10005534 0.06297845 -0.2245848 0.09976811 0.0059061768 -0.32923844 -0.09836252 -0.49099693
0.1993132 0.3229534 0.020795073 0.0063307686 0.023125367 -0.065676786 -0.36434668 -0.32017037
0.3242706 0.23915394 0.2578213 0.10074061 0.21166481 -0.22937408 0.098170586 -0.0040285876
0.05465067 -0.34315988 0.05375342 0.23112747 0.3128498 -0.009716102 0.14506288 0.23515381
-0.32712266 -0.0011403337 -0.024640186 -0.22228871 0.37269858 0.121448115 -0.19778538 -0.19165166
0.015152736 0.16448493 0.27272868 0.14025751 0.122742474 -0.28670752 -0.2965383 0.05234578
-0.21871988 -0.11904365 0.47742665 -0.19175617 -0.26244107 -0.11286547 0.16533233 -0.018612798
0.28874007 0.3279232 0.3383447 -0.103039674 0.15486868 -0.1630106 0.26027408 -0.007196798
-0.25242794 -0.02277325 0.24572517 -0.07549647 -0.22970267 0.010983094 0.38250142 -0.18128677

conv1.bias f4 [16]
00000000: 273c 193e 7f49 723e caa3 17be 8165 943e
00000010: f52a 8ebd b112 173b 8ea3 9fbe e944 bbbd
00000020: 7680 893e a6f6 f8bc f8fb 3a3e 2953 943d
00000030: 69c7 643d a113 d33d b4d7 f03d e528 af3d
0.14964353 0.23660849 -0.14808574 0.2898369 -0.06941787 0.0023051912 -0.3117947 -0.09144003
0.2685582 -0.030391049 0.18260181 0.07242424 0.055854235 0.10306478 0.11759892 0.08552722

bn1.weight f4 [16]
00000000: 2768 6e3f 963c 7f3f 847c 6c3f 3636 8a3f
00000010: 6894 913f 45ac 873f fea4 663f 90a4 833f
00000020: 2566 8e3f fecc 6f3f b1fc 6c3f 7f0e 723f
00000030: e445 623f 67ab 883f 443c 663f 48aa 873f
0.93127674 0.9970182 0.92377496 1.0797794 1.1373415 1.0599447 0.9009551 1.0284595
1.1124922 0.9367217 0.92573076 0.9455337 0.88387895 1.0677308 0.8993571 1.0598841

bn1.bias f4 [16]
00000000: 7aa6 943d 262f 55bc e053 8c3d 2684 fabc
00000010: 32fd 803d 6c45 013d 3b22 863d aa5e 02bd
00000020: f781 ff3d 7db6 9dbc ff93 733c 4d76 bb3d
00000030: b16d 893c 9442 f3bc c087 ba3d 6175 55bd
0.072583154 -0.013011729 0.068519354 -0.030580591 0.06298293 0.031560346 0.06549498 -0.03182856
0.12475961 -0.019252056 0.014866828 0.091534235 0.016775938 -0.029694833 0.091079235 -0.052113894

bn1.running_mean f4 [16]
00000000: d319 8341 b8e2 3b41 bfd7 f641 5929 8941
00000010: b78d 3541 ed6f db3f 87d6 b642 099f 5c41
00000020: ba75 a140 ddeb ab41 4d1d a141 e114 0d42
00000030: 144c 3b42 164a 9040 61cc 8b42 0220 1241
16.38761 11.742851 30.855345 17.14519 11.347098 1.7143532 91.419 13.788827
5.045621 21.490168 20.139307 35.27039 46.824295 4.5090437 69.89918 9.132814

bn1.running_var f4 [16]
00000000: 2780 2d44 9963 5044 f386 3e45 3333 a944
00000010: ab8c 6c44 35f6 7942 3c24 9c46 14d4 8344
00000020: b8a7 0943 88ff 8944 a793 a044 d0ee 8045
00000030: 6ec5 8c45 48c3 8643 7cd9 2646 36e6 0a44
694.0024 833.5562 3048.4343 1353.6 946.19794 62.490437 19986.117 1054.6274
137.65515 1103.9854 1284.6141 4125.8516 4504.6787 269.52563 10678.371 555.59705

conv2.weight f4 [32, 16, 4, 4]
00000000: 781b c4bc 2819 b1bc a462 4f3b 1746 83bd
00000010: 598d 673d 47e3 f83c 6cae 233d e339 63bc
00000020: 46bb 0d3d e1a0 a9bc 478e 87bd 4c53 6dbc
00000030: 5fdc 133d f58b 9cbd 75ed 86bd ff11 bc3c
00000040: 4337 b3bc a85c 89bc 00bc a8bc 4ebd c9bc
00000050: fec4 eabc a6db ad3b ee9c 143e 9617 d13a
00000060: 2010 dfbc c904 bd3c 2933 fe3b 194a 99bd
00000070: 5edd 223d b240 39bd f455 95bc acc0 15bb
00000080: 45ff 89bd 9012 5ebd eebc 973d 8b89 1fbd
00000090: 7e75 a9bd 9548 57bd 56c8 483d 1952 95bd
000000a0: ac2e da3c fe6c 12bc e0e5 6fbd 5d63 cfbc
000000b0: c7ba c03c e9cf 513c 238a f9ba 33ce adbd
000000c0: 511f 7abd 510b 46bc 87c9 7abc 8490 1bbd
000000d0: 3922 9cbd b8ca 92bd 1b71 96bd 9f96 bcbc
000000e0: 77f4 433c 4f26 36bd f20a 80bd ec29 2dbc
000000f0: 64f2 153e 0b50 033d 27f5 f8bb 4b6c 00bd
00000100: 048a d03c 472c 0ebc e82d bdbd 3e6f 443d
00000110: 4c0b 24bd 84dc 55bd 88db 0ebc 3357 bdbc
00000120: b3d6 a53c 5c09 9cbd b45a b23c 7ec4 30bd
00000130: ce6d 073d 2cd3 a53d 1aeb 01bc 5047 813c
00000140: b25b 3abc 9d37 37bb b9a6 8bbc 18ca 8abd
00000150: 7674 aebc e472 bd3c 5598 943b f746 0bbc
00000160: 9fb2 e4bc 8942 44bd 8c33 b03d 22b7 52bb
00000170: 5567 113c a245 0c3d 9a31 e5bc 3135 aabd
00000180: 71c8 96bc f329 613d 5104 1dbd 8bcc 983c
00000190: ec42 e2ba c1b3 06ba 2947 89bd 9b06 9fbd
000001a0: c0ed 823c facc 05bd 9938 afbb 0bec 923c
000001b0: 59ea 633d 1183 2e3d 8925 69bd 0cd2 00bd
000001c0: 4690 813d 5aa0 c13c 898b 7abb fe6c 3c3d
000001d0: 8052 603d e64d ddbc 93fb a8bc d638 acbb
000001e0: 9f0e b53d 7174 fd3c 871d 4dbb af77 dd3c
000001f0: 771f 983c a7a5 e0bd b5b0 42bd a3ef e9bb
00000200: ee89 bebc 8a3c d6bd f125 b0bd e1a0 eebc
00000210: ec98 18bd 73d6 14bc cedf 0c3e 8f8c 91bd
00000220: 781a 413d 67b3 72bd 31c1 5c3d d3bf 193c
00000230: 3982 013e db1a 01bc bdee 0f3d fdb3 09bd
00000240: b7f5 c93a 7807 debb 13d6 ae3b 9069 8cbd
00000250: 0fec 3cbd 4af0 383d 9805 6a3b 7f0d 88bd
00000260: f590 94bc efff 2dbd 15fb a8bd 742d 56bd
00000270: 855f 46bd 5c10 1b3d 78da 1ebd 153b 0b3c
00000280: 5ef3 afbb b67c 1e3d db83 6dbc 7ef9 6ebd
00000290: 8cec 7ebc e42d f3bb 6ef8 56bd 8a0c 38bd
000002a0: d993 203d bc94 4abd 28b3 91bd b036 b2bc
000002b0: b016 f63b 1d6e 913c 0285 d5bc 1325 423d
000002c0: 5573 05bd f8b7 96bb a135 3f3d db6c 38bd
000002d0: 3909 8f3c 315e 2f3d ed0c 10bc 5f7f ec3b
000002e0: f25a 943d c5c1 333c 161d 33bc 5227 07bb
000002f0: d32d a73d 9fb3 51bc 5050 60bd a388 b8bb
00000300: ab06 393d 17f0 09bd a3f7 96bc 913e 94bc
00000310: 12da 823d 325e cf3b 025b 19bd 3b34 0e3d
00000320: 8bd7 653d c329 c9bc bbf2 dc3c 8ba1 5ebd
00000330: 3e31 51bd 8303 cabd 67d4 87bd 6399 703b
00000340: 2875 073c 79ea d73d b8b9 ec3b 439c 9b3d
00000350: 96d2 5a3c 7f31 2dbb b763 9c3c 1b82 bc3c
00000360: 7a18 00bd f49a 213d 5f92 b53b d643 473d
00000370: d62c a8bd 8c30 92bd d4b7 3f3c 06de 943d
00000380: e5c6 51bc 07a9 873d 051a 19bc 5813 8d3a
00000390: 441a 51bd bdcf 56ba 8452 8dbd 6492 b3bd
000003a0: a3ac c23b 50f0 5d3d aa3d 213d f573 a73b
000003b0: 1769 d5bb 2e1f 71bd d2bf 1b3c f8b1 ea3b
000003c0: 4147 67bc e15b 48bc 7c80 b63d b8be 49bd
000003d0: 69c8 993d 2d2f 603d d6e0 183d 40c5 9ebd
000003e0: 5362 56bd 5c77 c0bc 3a5f debc 6940 95bd
000003f0: ee65 82bd 69c6 95bd 2f02 82bd a7be 0ebd
-0.02393888 -0.02161844 0.0031644488 -0.06409853 0.056531284 0.030381812 0.039961264 -0.013868782
0.034602426 -0.020706596 -0.06618934 -0.014485192 0.036098834 -0.07643882 -0.0658826 0.0229578
-0.021876937 -0.016767815 -0.020597458 -0.0246264 -0.028658386 0.005305725 0.14512989 0.0015952464
-0.027229369 0.02307357 0.0077575636 -0.07484836 0.039761893 -0.045227714 -0.018229462 -0.0022850437
-0.06738142 -0.05421692 0.07409082 -0.03894953 -0.08274363 -0.052559454 0.04901918 -0.072910495
0.026633583 -0.008937119 -0.058568835 -0.025315935 0.023526562 0.012805917 -0.001903836 -0.08486595
-0.061065022 -0.012087659 -0.015306837 -0.037979618 -0.07623715 -0.07167572 -0.07345792 -0.02302104
0.01196014 -0.044470128 -0.06252088 -0.010569077 0.14643246 0.032058757 -0.007597584 -0.031353276
0.025456436 -0.008677549 -0.092372715 0.04795765 -0.040049836 -0.052212253 -0.0087193325 -0.023112869
0.020243978 -0.07618973 0.021771766 -0.04315614 0.033063702 0.080969185 -0.007929588 0.015781075
-0.011374401 -0.0027956732 -0.017047273 -0.067768276 -0.021295767 0.023126073 0.004534761 -0.008500806
-0.027917204 -0.047915015 0.08603582 -0.0032152613 0.008874734 0.034246095 -0.027977753 -0.08310927
-0.018406125 0.054971647 -0.038334195 0.018652221 -0.0017262376 -0.000513848 -0.06703026 -0.07764932
0.015982509 -0.032666184 -0.005347323 0.01793482 0.055643413 0.042605463 -0.056920562 -0.031450316
0.06326346 0.023636032 -0.0038230142 0.04600238 0.054766178 -0.027014684 -0.020627772 -0.005255799
0.088406794 0.030939313 -0.0031298117 0.027034609 0.018569691 -0.10969096 -0.047531802 -0.0071391626
-0.02325913 -0.10460766 -0.08600987 -0.029129447 -0.037255213 -0.009084332 0.1375725 -0.071068875
0.047144383 -0.059253123 0.05389518 0.009384113 0.12647332 -0.007879938 0.035139788 -0.033618916
0.0015408312 -0.0067757927 0.005335578 -0.06856072 -0.04612356 0.045151033 0.00357089 -0.06643199
-0.018135527 -0.042480405 -0.08251015 -0.05228944 -0.04843094 0.0378574 -0.038782567 0.008497973
-0.005369588 0.038693152 -0.014496769 -0.058343403 -0.015559327 -0.007421242 -0.052483015 -0.044933833
0.0392035 -0.04945825 -0.071142495 -0.021754593 0.007510029 0.017752701 -0.0260644 0.047398638
-0.032580692 -0.0045995675 0.046682004 -0.045025688 0.017460452 0.042814437 -0.008792144 0.0072173323
0.07243909 0.010971491 -0.010932228 -0.0020622802 0.08163037 -0.012799173 -0.054764092 -0.0056315227
0.045172375 -0.033676233 -0.01842863 -0.01809624 0.0638925 0.0063283676 -0.037440307 0.03471778
0.05611376 -0.024556046 0.026971212 -0.054353278 -0.05107235 -0.09863951 -0.066323094 0.003671252
0.008267678 0.10542769 0.007224288 0.07598164 0.013355872 -0.0026427207 0.019090516 0.023011258
-0.031273343 0.039454415 0.0055411304 0.048648678 -0.08211677 -0.07138166 0.011701543 0.0726891
-0.012803768 0.06624036 -0.009344582 0.0010763211 -0.05105044 -0.00081944076 -0.06900504 -0.08768156
0.00594099 0.054184258 0.039365448 0.0051102587 -0.006512772 -0.058867626 0.009506183 0.007162329
-0.014116109 -0.012228937 0.08911225 -0.04925415 0.07508928 0.05473249 0.037323795 -0.07752466
-0.052339863 -0.023494415 -0.027145017 -0.07287676 -0.06367098 -0.07313234 -0.06348073 -0.03484979

conv2.bias f4 [32]
00000000: 6b77 8ebd 8792 99bd 4906 053d d79e d1bc
00000010: e42e 8d3c cd91 82bc 4462 cdbc e3d3 6fbd
00000020: 6470 84bc 6e37 0ebe 066a dabd cc7c 6a3a
00000030: f83c d1bc d486 abbd ba18 6ebc ee8c f7bd
00000040: c86e c5bd a50b a03b 0688 89bd 6b45 c8bd
00000050: fbfe 81bd 4162 9ebd 0dfe a3bd d35a 94bd
00000060: 8789 8ebd 3972 73bd 9c51 3dbd 9aed fdbd
00000070: 88f0 073d d203 34bd 12a3 483c 33c8 4ebc
-0.06956371 -0.07498651 0.032476697 -0.025588436 0.017234273 -0.015938664 -0.02507127 -0.05855168
-0.016166873 -0.13888332 -0.106647536 0.0008944988 -0.025541767 -0.08375326 -0.014532262 -0.12087427
-0.096402705 0.0048842006 -0.067153975 -0.097788654 -0.06347462 -0.07733584 -0.08007441 -0.07243886
-0.06959825 -0.059435103 -0.046220407 -0.123988345 0.033188373 -0.043948956 0.01224591 -0.012620973

bn2.weight f4 [32]
00000000: 0bb1 7f3f 4247 753f b4bb 823f a274 793f
00000010: 5cbd 813f 9560 8a3f 5fd2 773f 9a54 7b3f
00000020: a196 7c3f 5160 8e3f 522f 7a3f b19a 843f
00000030: 492d 7c3f ded7 773f eb1a 703f 69f2 833f
00000040: 6e0b 823f 4bc7 733f c348 743f adf2 813f
00000050: bead 833f a318 7c3f e376 7b3f 78d7 883f
00000060: 7f09 783f db75 7a3f 33eb 873f cefa 7c3f
00000070: 5cc0 7f3f 80ee 683f 5518 763f 3c9f 8a3f
0.9987952 0.95811856 1.0213532 0.9744359 1.0135913 1.0810724 0.96805376 0.98175967
0.9866734 1.1123143 0.97728455 1.0359708 0.985066 0.9681376 0.93791074 1.0308353
1.0159738 0.9522597 0.95423526 1.0152184 1.0287397 0.9847509 0.9822828 1.0690756
0.9688949 0.97836083 1.0618652 0.988202 0.9990289 0.9098892 0.9613088 1.0829844

bn2.bias f4 [32]
00000000: dd8d d73c 58ea 12bc a140 3b39 ce04 a1bc
00000010: 60fd 48bc 4de7 8c3b 689a 153c 62cf 013b
00000020: 1c89 043d 3cd8 e03b d61e 3cbc 8907 983c
00000030: 589a 2c3c dbb6 c1bc d18a 683b 7c28 d9b9
00000040: 1041 973c 619a 0bbc dde6 3abc a859 6f3c
00000050: 7ae9 a2bc a821 aa3c f701 d43c 7c9c 973b
00000060: df73 93bc 75c3 043c bc11 5abb 0c1f abbb
00000070: e112 623b b309 09bc 56bd 0d3c 7159 803c
0.026312763 -0.008967005 0.00017857786 -0.019655611 -0.012267441 0.004300034 0.009131052 0.0019807448
0.03235732 0.0068617146 -0.011481961 0.01855828 0.010534845 -0.023646763 0.0035483132 -0.00041419629
0.018463641 -0.0085206935 -0.011407581 0.014608778 -0.01988672 0.020768002 0.025879843 0.0046268087
-0.017999588 0.008103241 -0.003327473 -0.005222207 0.0034496116 -0.008364129 0.008651098 0.015667649

bn2.running_mean f4 [32]
00000000: 7981 5d3f 919e 263f ecc4 8f3f 697c 3c3f
00000010: 845e 443f 96a8 523f 0dfb 883f e6c0 453f
00000020: b370 803f 8fba 1a3f 639f 223f 24f5 6a3f
00000030: d059 793f 094a 2e3f 84f1 823f c6bf 693f
00000040: a106 683f 9c01 423f 9439 363f 3848 2a3f
00000050: a5ac 433f 91f9 783f 6df3 223f b9e2 243f
00000060: 412a 873f a08f 713f 4898 6c3f 5df8 273f
00000070: 7b2d 893f 7e80 1e3f caa0 783f 9e69 5b3f
0.86525685 0.65085703 1.1231971 0.73627335 0.7670672 0.8228849 1.0701615 0.77247465
1.0034393 0.60440916 0.63524455 0.91780305 0.9740267 0.6808172 1.0229955 0.9130825
0.90635115 0.75783706 0.7118161 0.6651645 0.7643531 0.9725581 0.6365269 0.6440845
1.055977 0.9435978 0.9241986 0.6561335 1.0717005 0.61914814 0.97120345 0.85708034

bn2.running_var f4 [32]
00000000: 4b30 653f 44ff 123f dc01 513f cffc 513f
00000010: 6209 573f b1b1 663f 4d78 833f bb69 3d3f
00000020: f477 963f 30b3 3a3f 598a 113f b6ab 403f
00000030: 2054 713f f303 2b3f 6242 153f 5361 843f
00000040: 3cf8 813f f235 673f dba3 543f 458b 343f
00000050: 0ca1 3d3f e616 793f 4ca3 ed3e cbf4 313f
00000060: 00c8 883f e642 0d3f 1b7c 933f 6b1b 003f
00000070: 8eb0 a33f 02f4 bb3e fcfa 6a3f 8cb2 6c3f
0.89526814 0.57420754 0.8164346 0.8202638 0.8399869 0.90114886 1.0271088 0.73989457
1.1755357 0.7292967 0.56851727 0.7526201 0.9426899 0.668029 0.5830442 1.0342201
1.015388 0.9031669 0.83062524 0.7052501 0.74073863 0.97300565 0.46413648 0.6951415
1.0686035 0.55180204 1.1522249 0.50041837 1.2788255 0.367096 0.9178922 0.9245994

conv3.weight f4 [64, 32, 5, 5]
00000000: c382 003b 508b 14bc 32c8 1bbc 3b39 10bc
00000010: 4ec0 d3bc 60b0 c7bc e013 8bbc 787e 2bbb
00000020: e472 363c b187 69bc 7142 53bc 29a5 c13c
00000030: 1f1e cbbc f029 9f3c 871e 4a3b 9497 0d3c
00000040: 398f 873a 90f2 32bd c998 233d 448f 383d
00000050: 6d1b 323c 11e4 23bd 9a65 c9bc 4045 253d
00000060: 93e3 3f3c 750f 05bd 20b0 683c ec97 c23c
00000070: f3d3 273b dffb ac3c 6b4d 1dbc ab93 b23c
00000080: 022b 15ba 52d9 a33c d3f8 4fbb a7b1 87bc
00000090: 0920 94bb 0805 6bbc 5da3 56bd 6125 aa3a
000000a0: 29f0 9d3c 5601 b43c a082 9c3c 6db1 96bc
000000b0: f6b4 07bc 0d35 353d 7467 133b bb45 15bc
000000c0: 828b c33c 79d0 473d 80cb baba bf2b 8bbc
000000d0: e097 61bc ebbc 28bc 6287 273c 37c3 653d
000000e0: e392 603d cf37 1a3d 02ca 07bd c89d 7abc
000000f0: dc70 4fbc 1382 423d 92aa f23c e51d 73bd
00000100: 82c1 3b3d 7daf cf3c 57f5 653b dc1f 58bc
00000110: 4ac9 833c e8cb 08bd 5247 dbbc 3221 62bc
00000120: fbeb cb3c 99cf 243c 48b7 7cbc e05c dd3c
00000130: b898 e0bb daf9 d9bc 5b3c 16ba 76f4 263b
00000140: 7ab5 71bc 946f dc39 559a 813c ae23 0db8
00000150: 6688 ccbc d415 323d 58ba e93c 80c6 88bc
00000160: c3af 09bd dada a0b9 4fdd d53c af1a 89bc
00000170: 8227 7bbc 2aaa 753c f55f c33c 2e4b 123d
00000180: 3572 b93b 0faf 7b3b ef03 f2bc ad20 2fbc
00000190: 5f31 edbc 507e c13b 4b41 aa3b bc4b 96bc
000001a0: 6c76 33bc 369a e2bb 90da 36bd 26fb b8bb
000001b0: 0615 40bc 9f09 04bd d05f 523c 492f 8abd
000001c0: 56c7 47bd 9ea8 313c a729 8e3c 4ec8 a5bc
000001d0: 29f7 78bc e677 ca3b b535 583c 7a0c 103b
000001e0: 1198 b23c 93ce 04bd b479 2e3b de8a 033c
000001f0: 24a2 96bb ef28 a2bc 6da4 87ba fa21 f2bc
00000200: 38ed 04bd d21c f83b bce9 d7bc fa09 68bd
00000210: c33c 40bd 97c5 2b3b 96fc e6bc a7c5 8cbd
00000220: 9833 c3bd 414b bebc a7be 933b e92c 103d
00000230: 24d9 f7bc 052f a6bc 77ca d43b 9270 d53c
00000240: 2528 f3bc 8730 fcbc 9d8b 133c 28cc 4abd
00000250: 6989 073c 9a67 fabc ad6c 8c39 52da 8b3c
00000260: d624 33bc 9149 cebc 1b2a 4c3c e394 ce3b
00000270: 3263 98bc 4315 2dbd 3c52 42bc 0ecd cebc
00000280: 5796 5f3d a994 14bb 5ba0 bcbb a4ff c03c
00000290: 407b d43c f35e 9b3c bea9 7c3c 639c dd3b
000002a0: 7567 363d 218d 1b3d 50d8 3ebc c32a 17bc
000002b0: 2b47 91bc 0204 153d fe24 973c a64a c73c
000002c0: 994f cbbc 9929 a1bb aff5 ee3b 25c4 55bc
000002d0: a243 b53c ed63 7f3c d054 98bc f64d 2fbd
000002e0: 1040 83bd 9279 bdb7 1ffc 303d 67a4 2abd
000002f0: 1bc7 3abc 76a2 a73c b6ee 423c 30f6 163c
00000300: 581a 80bc b772 0bbd 71a1 193d 3f0d 7d3c
00000310: 6a43 b4ba 183e b33c f87b 823c 6d9f e4bc
00000320: abb2 c6bc ed03 6f3c 73fe 9dbb baad febc
00000330: 0245 45bd cad4 3ebd 5c9d 3c3c 605f b5bc
00000340: 10fe 3e3b c463 25bd c234 afbc 0009 cfb9
00000350: 2ddb 883c 2b16 e63c a31c 8cbc daff c0bb
00000360: 9785 4fbb 2101 06bd 413e 023d 9a93 fd3c
00000370: e0e6 383c cdac c9bb dfab b43b fdaf e43c
00000380: adfd 143c 45f9 53bc c656 083c b3e4 db3c
00000390: 817a 893c 4652 c1bc 5508 04bd 1aa2 24bd
000003a0: 231b ca3c 8cb2 353b 98b7 d03c a571 f6bd
000003b0: e583 2bba f747 5a3c 6f91 283c c07f d83b
000003c0: cb02 22bd c377 09bd 93dc 573d dcf2 08bd
000003d0: 2963 933a 6397 323d 2331 e9bc ec4f a93c
000003e0: fb10 b2bc f833 e1bc b108 35bd aa1c 82bb
000003f0: 759a 2dbd 466e 3fbd f55f 5b3c 5247 25bd
0.001960919 -0.009066418 -0.0095081795 -0.008802707 -0.025848534 -0.024376094 -0.01697725 -0.002616791
0.0111357905 -0.014253543 -0.012894259 0.023638325 -0.024794636 0.019429177 0.003084095 0.008642096
0.0010342366 -0.043688357 0.03994063 0.045058504 0.010870797 -0.040012423 -0.02458458 0.040349245
0.011711973 -0.032485444 0.014202148 0.023754083 0.002560851 0.021116195 -0.009600977 0.02179893
-0.00056903076 0.020001087 -0.0031734004 -0.016564203 -0.0045204205 -0.014344461 -0.05240189 0.001298111
0.019279556 0.021973293 0.019105256 -0.01839515 -0.008282891 0.044240046 0.0022492083 -0.009110863
0.023870233 0.0487828 -0.0014251322 -0.016988633 -0.01376912 -0.010298948 0.010225149 0.056094375
0.054827582 0.03765088 -0.033151634 -0.015296407 -0.012661185 0.04748733 0.02962235 -0.05935468
0.04583884 0.025352234 0.003508886 -0.01319119 0.016087193 -0.033397585 -0.026767407 -0.01380186
0.024892798 0.010059261 -0.015424557 0.027021825 -0.006854143 -0.026608396 -0.00057310396 0.00254753
-0.01475274 0.00042044802 0.015820662 -3.365025e-05 -0.024967384 0.04347785 0.028531238 -0.016696215
-0.033614885 -0.00030680635 0.026106505 -0.016736357 -0.015329244 0.014994184 0.023849467 0.03571623
0.0056593665 0.0038403904 -0.029542891 -0.010688943 -0.028954206 0.00590495 0.005195772 -0.01834666
-0.010953527 -0.006915356 -0.04464203 -0.0056451736 -0.011723762 -0.032235738 0.012840226 -0.067473
-0.048774086 0.010843424 0.017353846 -0.020237114 -0.015195646 0.006178844 0.0131963985 0.0021980093
0.021801027 -0.032423567 0.0026622834 0.008028714 -0.0045969654 -0.01979491 -0.0010348685 -0.029557217
-0.032452792 0.007571795 -0.02635657 -0.05665014 -0.046932947 0.0026210302 -0.028196614 -0.06873637
-0.09531325 -0.023229243 0.0045088115 0.03519908 -0.030254908 -0.020286093 0.0064938623 0.026054654
-0.029682228 -0.030784858 0.009005454 -0.049511105 0.008272507 -0.03056698 0.0002678385 0.017071877
-0.010934075 -0.025181564 0.012461211 0.00630437 -0.018601988 -0.042256605 -0.0118604265 -0.025244262
0.054586735 -0.0022671616 -0.0057564205 0.023559399 0.025937676 0.018966174 0.015421329 0.0067630275
0.044532258 0.037976388 -0.011648253 -0.009226504 -0.01773413 0.036380775 0.018450256 0.024327587
-0.024818229 -0.004918289 0.0072924714 -0.013047253 0.022126976 0.015587789 -0.01859513 -0.04279896
-0.06408703 -2.2587166e-05 0.04320919 -0.041660693 -0.0114000095 0.02046321 0.011897733 0.009213969
-0.015637562 -0.034044947 0.03750748 0.015445053 -0.0013753001 0.021880195 0.015928254 -0.027908051
-0.024255117 0.014588338 -0.0048215925 -0.031088699 -0.048161514 -0.04658965 0.011512127 -0.022140205
0.0029143132 -0.040378347 -0.021387462 -0.00039488822 0.016706074 0.028086742 -0.017103499 -0.005889875
-0.003166532 -0.03271592 0.03179765 0.030954171 0.011285514 -0.0061546327 0.0055136527 0.027915949
0.009093684 -0.012937848 0.00832147 0.02684245 0.016782047 -0.023598801 -0.03223451 -0.040193655
0.024671143 0.002772483 0.02547817 -0.12033395 -0.0006542786 0.013322822 0.01028858 0.006607026
-0.039553445 -0.03356148 0.05270059 -0.033434734 0.0011244762 0.043601405 -0.028465813 0.020667993
-0.021736613 -0.027490601 -0.044197742 -0.003970702 -0.04238363 -0.046736024 0.013389577 -0.04035122

conv3.bias f4 [64]
00000000: 7cf4 753c f0d9 813c 7488 fe3b 143a d83c
00000010: c4d1 953c 22cd f63c 9a35 28bc ea9f 40bb
00000020: 1ba8 aa3c b535 123c 4821 f83c b6b2 c7ba
00000030: 2abf b0bc 033f 5bbc 09fb 953c 3ba8 8c3c
00000040: 1372 56bc bc14 02bd 239c 40bc cef7 8a3c
00000050: 5ed5 f7bc 792d 3c3c 40c7 9f3b cafa b73c
00000060: 844b cebc cdf4 443c 2703 c63c 76c2 993b
00000070: b65e 13bd 191a a0bb f0e0 6abc 55cf adbc
00000080: 5ad7 f23c 62a3 9cbc b80b 3f3c 9f0e 1f3c
00000090: bd3a bdbc 902a 073d c195 2c3c aa3e 6c3b
000000a0: f05d f1bc ae37 a43c 5cbb 063d 16de da3c
000000b0: 39f8 07bc 2a4e ef3b 12bf b5bc 4ed7 e5bc
000000c0: 51bb 0dbc af90 e4bc 3bb1 c83c bc03 b33c
000000d0: 61ed 043d 2ac3 b23c 8b87 b2bc 59ad b8bc
000000e0: f9a3 d6ba 2c53 a43c 3d7c 253d 4416 87bc
000000f0: 31f8 c9ba bdea 7dbc 049c 913c c2ba db3c
0.015011903 0.015850991 0.0077677313 0.026394881 0.0182885 0.030127112 -0.010266686 -0.0029392191
0.020832112 0.008923938 0.030289307 -0.0015235755 -0.02157553 -0.013381722 0.01830818 0.017170062
-0.013088721 -0.031758055 -0.011755976 0.016963866 -0.030253109 0.011485451 0.0048760474 0.022458453
-0.025182493 0.012021256 0.024171425 0.004692371 -0.035978995 -0.0048859236 -0.014335856 -0.021217028
0.029643703 -0.019120876 0.011660509 0.009708076 -0.023099298 0.032999575 0.010533751 0.0036048093
-0.029463738 0.020046081 0.032893524 0.026717227 -0.008298927 0.007303019 -0.022185836 -0.028056767
-0.008650617 -0.027901022 0.024498573 0.021852367 0.032452945 0.021821577 -0.021793148 -0.022543596
-0.0016375772 0.02005919 0.040401686 -0.01649011 -0.001540905 -0.0154978605 0.01777459 0.026822452

bn3.weight f4 [64]
00000000: 0af8 883f 6a22 7f3f 902c 793f 8275 813f
00000010: cd0c 823f a4de 843f 1424 7a3f f7c6 7e3f
00000020: 4cc0 773f 5531 853f afce 7e3f 3823 7e3f
00000030: fc0c 843f 84da 7a3f 8299 803f a86b 7d3f
00000040: e5fd 7d3f ac25 7d3f 75a6 833f 521f 883f
00000050: 518d 713f f8b8 883f ba84 783f 3880 823f
00000060: 303f 703f 1775 7a3f 91be 7f3f 539e 833f
00000070: 447b 7c3f 698b 833f c2c2 753f 8777 7e3f
00000080: d6f0 803f 86fd 7f3f d3e7 843f 5f9d 793f
00000090: f6e5 813f 2797 7c3f 6bb8 7a3f eba2 753f
000000a0: f8cd 6c3f b29f 7c3f 3d63 813f 9dcd 793f
000000b0: e4b1 843f a2c9 823f f3c8 7d3f dec3 843f
000000c0: 7710 803f 6c26 7f3f 177a 863f 864b 7c3f
000000d0: 5890 843f f295 833f 8324 793f 9875 773f
000000e0: 92ae 783f 16c5 753f b853 7a3f 4b35 843f
000000f0: b43b 843f 447a 7b3f 3fe0 823f 6b15 743f
1.0700696 0.99661887 0.9733362 1.0113986 1.0160156 1.0380445 0.977113 0.99522346
0.96777797 1.040568 0.99534124 0.9927249 1.0316463 0.9798968 1.0046847 0.98992395
0.9921554 0.9888561 1.0285174 1.0634558 0.94356257 1.0681448 0.97077525 1.0195379
0.93846416 0.97834915 0.99900156 1.0282692 0.9862559 1.027692 0.960003 0.99401134
1.0073497 0.9999622 1.0383247 0.97505754 1.0148304 0.9866814 0.9793765 0.9595172
0.92501783 0.98681176 1.010841 0.97579366 1.0366788 1.0217783 0.9913475 1.0372274
1.0005025 0.99668 1.0506009 0.9855274 1.035655 1.0280135 0.9732134 0.9666381
0.97141373 0.96003854 0.97783995 1.0328764 1.033072 0.9823344 1.0224684 0.9534518

bn3.bias f4 [64]
00000000: 9ca5 3d3d 2f75 ec3c d90a 0c3c 03e2 dfb9
00000010: dfa4 e9ba 728b 843c 6831 2abc 7529 223c
00000020: 4575 ac3c 8685 b23c 9432 fd3b 23d8 943c
00000030: 6885 8ebc f94c e03b 751a 863c 9572 db3a
00000040: 1832 ebbb e006 f63b e36a 8fbb d1a5 fa3b
00000050: 9418 4cbc 4b67 f1bc ffae 593b 688a 11bc
00000060: 00b9 cc3c 4ba0 563c 7b10 113c baa3 c23c
00000070: 4b2f 88bc 17c3 c8bc a3a7 e3bb c321 cabb
00000080: 9234 b43c bead 9a3c 0b78 503c 5962 fd3b
00000090: c7f8 023d f2ad 2e3b 7dd6 923c 26dd cbbb
000000a0: 6552 abbb 0154 88bb 83eb 273b b34e 25bc
000000b0: 1576 223c d952 d63c 2679 a8bb 1b67 bd3b
000000c0: ca83 9cba 2639 a4bb 3b84 5abc 4d33 d63c
000000d0: 5f7a a73b b549 e43b 1800 92bb bf48 673c
000000e0: 71a2 a13c 523d 26bc 8e69 3e3b cb70 8d3c
000000f0: 73c8 6dbc d7e2 2d3b 45e4 353d 3bb6 993a
0.046300516 0.028864471 0.008547508 -0.00042702266 -0.0017825625 0.016179774 -0.010387756 0.009897579
0.021052012 0.021792185 0.0077269766 0.018169468 -0.017397597 0.0068451134 0.016370038 0.0016742522
-0.0071776025 0.007508144 -0.0043767556 0.0076491614 -0.012457032 -0.0294682 0.0033215878 -0.008883096
0.024990559 0.01309974 0.008854027 0.023759712 -0.016624114 -0.024507089 -0.006947474 -0.0061685755
0.021997724 0.018881675 0.012723933 0.007732671 0.031975534 0.0026653972 0.017924542 -0.0062214313
-0.005228328 -0.0041604047 0.0025622554 -0.010089564 0.009915848 0.026162552 -0.005141395 0.0057801134
-0.0011941132 -0.0050116954 -0.01333719 0.026147509 0.0051110233 0.0069667944 -0.0044555776 0.014116465
0.019730778 -0.010146456 0.0029054615 0.017265698 -0.014513123 0.0026532912 0.044407148 0.0011727283

bn3.running_mean f4 [64]
00000000: c159 d23e 89ec 913f 5227 a43e b414 d13f
00000010: 31e5 333f 3539 733f d08c 9134 d7ba e63e
00000020: 8471 053f 13a8 683f c3f6 733f e42d 333f
00000030: 3efa f33e 727a 853f 7647 583f 3955 c63f
00000040: 96f3 033f 4643 703f 473b 8b3f e110 f53e
00000050: b7fc 493e d37a 043f 385a 353f afed aa3e
00000060: 0d25 8b3e f9ed 793f d717 b53f 3235 f83e
00000070: 0317 e33e 3c4a f33e 20f9 5a3f cffb 513f
00000080: 62da 6e3f 578d 713e 5005 6b3f 88d4 0c3f
00000090: 049d 593f 8020 fd3e b7d5 473f 1a53 4a3f
000000a0: 226e 3c3e 6ba3 6c3f 50d6 6a3f 85d6 243f
000000b0: 9478 b73e 4c90 513f 3037 033f e0b3 8e3f
000000c0: 33d5 d23e 0c61 013f 6443 4e3f efd6 063f
000000d0: 0f5a 5f3f 19b4 863f e42f 673e fbd5 9d3f
000000e0: 5e1a 003f c5af 733f 8bc3 a83f 35f8 5c3f
000000f0: a9cf 243f 1437 0b3f 0c41 ff3f c926 323e
0.41084102 1.140031 0.3206125 1.6334443 0.70271593 0.95009166 2.711081e-07 0.45064422
0.52126336 0.9088146 0.95298404 0.699919 0.47651857 1.0427992 0.8448404 1.5494758
0.5154356 0.9385265 1.0877465 0.4786444 0.1972531 0.51749915 0.7084079 0.33384463
0.27176705 0.9762874 1.41479 0.48478085 0.44353494 0.47517574 0.85536385 0.82024854
0.93301976 0.23589073 0.9180498 0.55011797 0.8500521 0.49438858 0.7806048 0.7903305
0.18401387 0.92436856 0.91733265 0.6438983 0.3583418 0.81860805 0.51256084 1.1148643
0.41178283 0.50538707 0.8057158 0.5267171 0.87246794 1.0523711 0.22576863 1.2330927
0.50040233 0.9519008 1.3184675 0.86316234 0.64379364 0.5438092 1.9941726 0.17397608

bn3.running_var f4 [64]
00000000: 5764 313f a713 9c3f 13e4 da3e 11c4 ad3f
00000010: 5d45 6d3f ea57 b73f ac67 3d33 4deb 533f
00000020: 67c4 273f be86 983f 5551 803f 3fef 7b3f
00000030: a5eb 0e3f c7c5 803f 4e6b 963f 8c08 ae3f
00000040: a4a6 283f 54db a53f 1b34 e43f c948 603f
00000050: 1e66 5e3e 4536 313f 1996 4c3f 92fe f33e
00000060: 35e6 c23e 2b4e ab3f 94be b83f d09a 4c3f
00000070: 2551 003f d01f 1d3f 60e6 893f 7645 673f
00000080: d058 db3f 8e9f 823e c24b 9d3f b4cc 773f
00000090: 3db2 ab3f 1572 323f 27e4 7e3f f352 7a3f
000000a0: d79c 823e 8ee4 6e3f 7bac 733f a0c2 373f
000000b0: 8f82 e83e 7444 473f 3b6f 583f ae6b c73f
000000c0: 37fb e53e 7240 093f 50a3 6c3f 8dc7 233f
000000d0: d176 a23f 38f5 873f 7c70 633e 56b3 8f3f
000000e0: 933b 013f 9430 7f3f f443 903f 87bd 8b3f
000000f0: e7f1 9c3f 8920 0f3f 57ad df3f ed01 ac3e
0.6929373 1.2193497 0.42752132 1.357546 0.92683965 1.4323704 4.409928e-08 0.82780915
0.6553406 1.191612 1.002482 0.98411936 0.55828315 1.0060357 1.1751497 1.3596358
0.65879273 1.2957559 1.7828401 0.8761106 0.21718642 0.69223434 0.7991653 0.4765516
0.3806626 1.338323 1.443316 0.79923725 0.50123817 0.6137667 1.077343 0.90340364
1.7136478 0.25512356 1.2288744 0.9679673 1.3413769 0.69705325 0.9956688 0.9778282
0.25510284 0.93317497 0.9518506 0.7178135 0.45412108 0.77838826 0.84544724 1.5579736
0.44918224 0.5361396 0.92436695 0.63976365 1.269251 1.062171 0.22210878 1.1226604
0.5048153 0.996835 1.1270738 1.0917214 1.2261323 0.5590902 1.7474774 0.3359522

fc1.weight f4 [256, 64]
00000000: 27f0 dfbd 4428 013d 06b5 ce3c 2982 213d
00000010: 9ae8 943d f6be 9bbd 5d32 393d d75b 563c
00000020: 8d25 c33d 59a8 b33c f4d4 c73d 7a0f c93d
00000030: 7948 12be c077 3b3c 820a 7d3d cccf a5bd
00000040: 97bf b63d 1938 cabd 0b60 d33d f078 aebd
00000050: bb23 36bd ecd2 a03d 7e70 bc3b 4b8b b73d
00000060: 8bc7 eabd 6b3b 16bd 2b5a 27bd dcbf 5b3d
00000070: d282 8cbd 4a3b 9a3d 7bba ccbd d91b fdbd
00000080: c929 ff3d d2c6 f3bd 2c5a 253d 4a44 a83d
00000090: bc13 a1bd 19e2 863d a0ed c7bd bcac f1bb
000000a0: 3ec3 b33d 561c 93bd f1b3 d33d 07fb 15be
000000b0: ce40 ef3b 5fe5 b43c c50b 6c3d c9eb b63d
000000c0: 4343 fe3d fb02 a9bd c630 d83d 061c 82bd
000000d0: 1549 b93d 9085 90bd 5775 fbbd 4ccc 81bd
000000e0: 798a 8cbd 37df d93d e409 07bc 63d9 11be
000000f0: e9f2 20bd cf77 f13c 4951 bebd a910 97bc
00000100: 3f9e 22bd 9d1d 433d 53c9 893c 16f9 dc3c
00000110: c7c5 9d3d a485 423d 5129 a6bd 0ce6 8b3c
00000120: f498 f83d 1359 ed3c 5410 833c 741c f2bd
00000130: bd6d f5bb de50 82bd 71a3 a8bd aa77 77bd
00000140: 9b0f 3a3d 2f1b cb3d 64c4 d63d 5437 0d3d
00000150: 7b5e c53d 90b8 833d ba40 683d cf60 d1bb
00000160: 2af7 6cbd 8c4f e73d e9fe f3bc 3078 753d
00000170: 2cfe adbb 851e 943d 1de2 b73d 41c7 7f3d
00000180: fd86 1a3c b4f7 ff3b d16d 3b3d 8645 bfbc
00000190: 86ef a5bd 13a5 e7bc 879a 523d 968c 953b
000001a0: 7b0e 963d 7c7b e83c 8629 e3bc 5d88 c3bc
000001b0: d190 e33c 27b6 e13d 4818 eb3d bdbd edbd
000001c0: 8858 9b3d 1756 ef3c 3219 ef3c ed54 bb3d
000001d0: d4c4 e33c fecf c0b9 672c cc3d e1f3 20bd
000001e0: 3c98 8fbd f43c 1e3d ca2d 0b3c 09c7 bfbd
000001f0: 01c7 e43d 0e8c ec3d e15e babd 7897 4bbd
00000200: a029 ac3c 4af2 66bd 78eb c93d 8d3a 923d
00000210: 0d38 9abc 7d16 b53d 8ad9 bdbd e811 c9bc
00000220: 6146 393d cfdb e43c 5033 803d 6252 d2bc
00000230: 1d61 afbc abef 683d c6a2 593d 70bc 913d
00000240: 2b59 d73d e03e ccbd 0781 77bd bf43 f4bd
00000250: 1db8 e8bd ce3c ed3d 05c1 233d 812c fe3c
00000260: a5ee ea3c cf59 d43b 8e95 0c3d 83c3 ccbd
00000270: 32ce a13d e045 7abd f7dc f4bc 5fd2 cb3d
00000280: 66d1 e9bc ef55 8ebc 0edd 173e cb06 22bd
00000290: bad5 473c 7617 76bc 1598 b5bd 56b1 9abd
000002a0: 4ecd fe3d 6e60 ad3d 2460 dd3d 4e03 053d
000002b0: 11ca f73d ef4b aebb 7539 8d3d a697 bfbb
000002c0: 9f4b 33bc e190 c53d 7993 d13d ca58 083d
000002d0: 376c dabb 8832 fdbc 10e9 503d 7e29 afbc
000002e0: 727e 4abd a0fc 0d3d c3fd 6a3a b63b 28bd
000002f0: 3824 ba3d cd66 843d 8dc6 673d 478b 803d
00000300: 284d 883d 5e3f 78bd 6fb4 b23c aedc 96bd
00000310: 631d a7bd ae1d 48bd 3bd5 1e3d 48ad 5abd
00000320: 68b2 17bd 8ce0 15be 009c c4bd 04a8 e13d
00000330: 7cf5 93bd e578 9c3d 739b 3a3c 26e3 b7bc
00000340: 7a6d b23d 9496 013e a06e 2d3d 40ea b7bd
00000350: 8e65 81bb af6f 33bd a6d3 62bc 5d3b 983d
00000360: a5ed aabd 30b0 3e3b c028 90bd 4190 c23d
00000370: 5f0b f83d 21a1 d43d ac65 f1bd 0d49 a83d
00000380: 6f9a cf3d dcbf 2c3d 8fdd 27bd c66d 69bd
00000390: 648d 97bd a153 54bd 761c b8bd 6969 00be
000003a0: bf6c a23d 9492 c1bc 72ba 90bc fdf2 55bd
000003b0: dd85 01be d215 12bd 4b90 ef3d 4217 34bd
000003c0: f128 c3bd be83 d93d 0ea2 163e be66 f73d
000003d0: 5b24 ad3d 61c7 163e c93e 74ba b34b 5e3c
000003e0: 7f84 0dbc 8d86 b4bd 3bc6 bb3d 9194 273c
000003f0: 4425 d63a 6d54 cf3d 1082 0c3d 897d 203d
-0.10934477 0.03153254 0.025232803 0.03943077 0.07270928 -0.07604782 0.045214046 0.01308342
0.095286466 0.02193086 0.097574145 0.09817405 -0.14285459 0.011442125 0.0617776 -0.08096275
0.089232616 -0.09873981 0.10321053 -0.08519161 -0.04446767 0.0785273 0.005750715 0.08962115
-0.11463841 -0.03667776 -0.040857475 0.05364977 -0.068608895 0.0753084 -0.09996506 -0.12358827
0.12459142 -0.11903156 0.040369198 0.0821615 -0.07865092 0.065860935 -0.0976212 -0.007375328
0.08777474 -0.07183139 0.103370555 -0.1464654 0.0073014265 0.022082029 0.05762841 0.08931691
0.12415173 -0.082525216 0.10556178 -0.06353001 0.090471424 -0.07056725 -0.1227824 -0.06337795
-0.06862349 0.10638278 -0.008242104 -0.14243083 -0.039294157 0.029476075 -0.09292848 -0.018440561
-0.039701696 0.047635663 0.016819632 0.026974242 0.07703739 0.04749073 -0.08113349 0.017077468
0.121385485 0.028973138 0.015998997 -0.11821833 -0.0074898885 -0.063630804 -0.08234299 -0.060416855
0.04542504 0.09917294 0.10486677 0.034476593 0.09637161 0.06431687 0.056702353 -0.0063897143
-0.0578529 0.11294469 -0.029784637 0.059929073 -0.0053098407 0.07232384 0.089786746 0.062445883
0.009431598 0.007811511 0.045759026 -0.023348581 -0.08102326 -0.028276956 0.0514169 0.0045638783
0.07326981 0.028379194 -0.02772976 -0.023868734 0.027779015 0.11021071 0.11479241 -0.11608455
0.07585245 0.029215856 0.029186819 0.09147058 0.027803816 -0.0003677606 0.099694066 -0.03929508
-0.07011458 0.03863235 0.008494804 -0.09364135 0.111707695 0.11550151 -0.09100128 -0.049705
0.021015942 -0.05638341 0.09859365 0.07140074 -0.018825555 0.0884218 -0.09270008 -0.024544671
0.045233134 0.027936844 0.06259787 -0.025674049 -0.021408612 0.05686919 0.05313375 0.0711602
0.10515054 -0.0997293 -0.060425784 -0.11926984 -0.11363242 0.11583863 0.039979 0.03102708
0.028678248 0.0064804326 0.034322314 -0.099982284 0.07900657 -0.061101794 -0.02989052 0.099522345
-0.028542232 -0.01737496 0.1483042 -0.03955726 0.0121969525 -0.015020242 -0.08866898 -0.075533554
0.124415025 0.08465658 0.10809353 0.032473855 0.12099088 -0.0053191106 0.06895725 -0.0058469353
-0.010943322 0.09646774 0.10233206 0.0332878 -0.0066657322 -0.030907884 0.051003516 -0.02138209
-0.049436994 0.03466475 0.0008964205 -0.04107257 0.090889394 0.0646492 0.056585837 0.06276565
0.066553414 -0.060607307 0.021814553 -0.0736631 -0.08159902 -0.04885643 0.03877757 -0.05338791
-0.037035376 -0.14636439 -0.09600067 0.110183746 -0.07224557 0.07640246 0.011389601 -0.02244718
0.08712287 0.12655097 0.04234183 -0.089802265 -0.003948874 -0.04380768 -0.013844406 0.07433198
-0.08346108 0.0029096715 -0.070390224 0.095001705 0.12111544 0.103822954 -0.117869705 0.08217058
0.10136878 0.04217516 -0.04098278 -0.056989454 -0.07400015 -0.051837567 -0.089898035 -0.12540211
0.07930898 -0.023629464 -0.017667029 -0.052233685 -0.12648721 -0.03566534 0.116974436 -0.043967493
-0.09529293 0.10620831 0.14710256 0.120801434 0.084542 0.14724495 -0.0009317217 0.013567853
-0.008637547 -0.08814726 0.09168669 0.010228292 0.001633801 0.10123525 0.034303725 0.03918222

fc1.bias f4 [256]
00000000: f4f8 e3bd c5f3 933d 1735 febd ba3c c7bd
00000010: e51d 1abd 2a97 56bd 9a48 b9bd 8b9e 723d
00000020: a63a 8ebd 1157 01be e712 f13b ff7d a23c
00000030: 0e60 ed3b 2b80 a43c efbe 44bd 919e e63b
00000040: 1af4 a43c afb2 d6bd 1c2e 263b 01db d5bd
00000050: 8bf0 9f3c cc51 e2bd 2028 8ebc 7aaf b53d
00000060: 3726 503d c6ee 99bd f2fd df3d 2fb3 1d3d
00000070: 279e 13bd dce9 7b3d 027b 2abd 2599 7f3d
00000080: 296f e1bd e7ac 02bc e450 eabc 24ee c7bd
00000090: dd36 7abd a90e 9e3d 43f8 e8bc bb0f a73c
000000a0: a212 8d3d 3d9c 513d 143f 8a3d 8190 e33d
000000b0: 3031 90bd 4f64 643d 9247 bb3c 4585 b23a
000000c0: d27a 023c e5a3 ecbd 41e9 65bd 1353 f03b
000000d0: 7c47 583d 3acb fbbb 417d d7bc 588a 103d
000000e0: 82cb fc3a 7d00 7b3d 8ec2 a9bd e4c1 43bc
000000f0: d793 d3bd 5152 263d fc78 e5bb 665a 9a3d
00000100: 8206 f93d 1b9d a4bd 371b b9bd c7fd 823d
00000110: e6dc bebd b005 e23b 8fc4 993d 55e3 abbc
00000120: 0c44 6dbd 2b82 8bbd 3594 a0ba 1695 0c3b
00000130: 3285 733d 5652 6ebd 5c77 1bbb 3214 9c3d
00000140: 00cc 8f3d 35dd 65bd 7aba bdbc d0d0 f3bd
00000150: 80c9 c1bd 411d adbb 9fe7 1f3d 08b3 53bc
00000160: 266b 96bd ba7c 073d 3d18 a73d 068a 263d
00000170: d5dc d23d 3080 9dbd 1611 0ebd fbc2 8d3d
00000180: 9bfd 8ebd f404 0bbd 540a 953d 07b4 eebd
00000190: 1ce1 a73d e78e a83c f0b0 a7bd 4e2d 0bbd
000001a0: f0f1 693d eaca 9dbc 24c3 033c fa88 8e3a
000001b0: 86dd a23d 1d9c 7bbd 594f e6bc 856c 14be
000001c0: cd50 eb3d 1d51 91bd b1b9 be3c 5b7f babd
000001d0: eef1 6dba 6cdc e43c 7dbd a33d 7c73 0e3d
000001e0: 1f79 dc3d 36e9 8bbd acf0 a23d 1880 ab3d
000001f0: d860 0dbd 8828 aa3d 90ff dbbd 8676 79bd
00000200: 940d b1bd c15b bcbd f50b 893d b82c ca3d
00000210: f248 efbd 6369 a33d 0756 243d 4e59 c23d
00000220: 9f33 c03a 019e 05be 4cd7 17be 92ab cdbd
00000230: da5b a0bc 8437 ffbd a195 06be f7d0 e73d
00000240: e3e9 16bd f258 303d c8ac 06bb 06b1 6c3d
00000250: 5a9a c43d 07e9 8ebd 8445 9e3d 94ed 40bd
00000260: bcf4 bc3d 2bb7 0339 dcca f9bd b8de 2f3c
00000270: 9e32 76bd afd7 343d e3d1 b7bd 9ec1 87bd
00000280: 894c 073e 4dd5 d6bd 3fc1 f3ba 2be6 99bb
00000290: f6bc 3d3d 885f 56bd 117e a9bc c615 53bd
000002a0: be86 973c 6d69 bf3d 196c 9e3d 39da 073d
000002b0: 4335 7d3c 303e 803d 06ee a53d b279 a03d
000002c0: c41a c43d acff 4f3d ed3d fcbc 75cd b8bd
000002d0: 20b0 9fbd 0c61 983d 10bc b7bc c2ca 7ebc
000002e0: 8fa3 bcbd db68 79bd 0b4b ce3d d5ce c83b
000002f0: c33e 573d 710a d2bd 5996 f33d a76e 77bd
00000300: bbb0 f3bd 40c6 f03d 56d7 66bd 95ff dcbd
00000310: 4139 b2bd 985b 9ebd 55f7 76bd fcdd e73d
00000320: 246e e1bc d1a2 14bc c3fe f4bd 669b c2bd
00000330: 6202 85bd 3fda d8bd 5eb3 fa3d 1510 03be
00000340: 032f 3e3d f8ca 0c3e dee2 20bd fa5d e9bc
00000350: 2c40 4d3d 9286 2fbd 3f92 bcbd 604a 8f3d
00000360: 2f4d f8bb aa1d c3bd 2529 283d 48a8 3fbd
00000370: 2136 943d b262 d93c 1d74 573d ba7b 56bd
00000380: 1ce8 453d 667c a83d a0ce e9bd 369d 6abd
00000390: 14a8 4b3c 12a7 1a3d b1bd e93d 9896 023e
000003a0: b5dc 79bd e559 40bd 16c6 ccbd d192 b3bd
000003b0: 6112 ce3c ad49 003e 23f9 cebd 018f 683d
000003c0: aef3 49bd fc5c c3bd 4d4a 55bc a613 06be
000003d0: 88da b43d 6021 18bc f9ad 023d 5914 51bd
000003e0: f8ea 1cbd 7510 8f3c 1efb 9e3d 2dd9 723d
000003f0: 6a70 13bd 19be 00be 8963 9fbd b902 e9bd
-0.111314684 0.0722423 -0.1241247 -0.097283795 -0.037626166 -0.052390255 -0.09047051 0.05923323
-0.0694478 -0.1263087 0.0073569897 0.01983547 0.0072441166 0.020080646 -0.04803365 0.0070379456
0.020135928 -0.104833 0.0025357073 -0.10442162 0.01952388 -0.11050758 -0.017353117 0.0887136
0.050817695 -0.075162455 0.10937108 0.03850096 -0.036039498 0.061502323 -0.041621216 0.06240191
-0.1100753 -0.007975793 -0.028603025 -0.097622186 -0.061087478 0.0771764 -0.028438693 0.020393243
0.068883196 0.05117439 0.067503124 0.11111546 -0.07040632 0.055759724 0.022861276 0.001362004
0.007963853 -0.11554698 -0.05613065 0.007334122 0.052802548 -0.0076841386 -0.026304843 0.035288185
0.0019286724 0.061279763 -0.082890615 -0.011948083 -0.103309326 0.040605847 -0.007002948 0.075367734
0.121594444 -0.08037778 -0.09038394 0.063960604 -0.09319477 0.0068976507 0.07508194 -0.020982424
-0.057926223 -0.06811937 -0.00122512 0.0021451167 0.059453197 -0.05818399 -0.0023722267 0.076210395
0.07021332 -0.056119163 -0.023160208 -0.11905062 -0.09462261 -0.0052830284 0.03903925 -0.012921102
-0.07344656 0.033077933 0.0815892 0.040658973 0.102960266 -0.076904655 -0.034684263 0.06921955
-0.06981965 -0.03394027 0.072773606 -0.11655431 0.08197233 0.020575954 -0.08188045 -0.033978753
0.057115495 -0.019261796 0.008042131 0.0010874562 0.079524085 -0.061428178 -0.028114008 -0.14494522
0.11490021 -0.07095549 0.023281904 -0.091063224 -0.0009076883 0.027937137 0.079951264 0.034778103
0.107652895 -0.06831591 0.07956061 0.08374041 -0.034516186 0.08308512 -0.10742104 -0.06090405
-0.08645168 -0.09197188 0.06691734 0.09871811 -0.11683835 0.07979085 0.040121105 0.0948969
0.0014663822 -0.13048555 -0.14828223 -0.1004249 -0.019575048 -0.12461761 -0.13143016 0.11319154
-0.036844146 0.043053575 -0.0020549763 0.05778601 0.09599753 -0.0697804 0.07728103 -0.047101572
0.09226367 0.00012561369 -0.121968955 0.010734253 -0.060106866 0.044151004 -0.089755796 -0.066287264
0.1321279 -0.10489903 -0.001859702 -0.0046966276 0.046322785 -0.0523372 -0.020689996 -0.051534437
0.018496867 0.0934628 0.07735462 0.033167098 0.015454593 0.06261861 0.0810204 0.078357115
0.09575418 0.050780937 -0.030791247 -0.09023563 -0.07797265 0.07440385 -0.022428542 -0.015551271
-0.09210884 -0.060891014 0.10072907 0.006128172 0.05255009 -0.10255898 0.11893911 -0.06040826
-0.11898943 0.11756563 -0.056357704 -0.10790936 -0.087023266 -0.07732314 -0.060294468 0.11321637
-0.02751834 -0.009072022 -0.119626544 -0.09502296 -0.06494595 -0.10588502 0.12241243 -0.12799104
0.046431553 0.13749301 -0.039278857 -0.028487194 0.050110027 -0.042852946 -0.09207582 0.06996608
-0.0075775604 -0.09527142 0.041054863 -0.046791345 0.07236887 0.02653632 0.05260097 -0.05236409
0.04831706 0.08226852 -0.11416364 -0.057278834 0.01243021 0.037756987 0.11413134 0.1275276
-0.0610015 -0.04696073 -0.099987194 -0.087682374 0.025155248 0.12528105 -0.10106113 0.056777004
-0.049304657 -0.0953922 -0.013018203 -0.13093433 0.08830744 -0.009285301 0.031904195 -0.051044796
-0.03831002 0.017463902 0.077627406 0.059289146 -0.03599588 -0.12572517 -0.07782657 -0.113774724

bn4.weight f4 [256]
00000000: cd14 883f 64d6 843f 47d6 863f c3ff 853f
00000010: 5268 833f 3e6c 843f dbba 813f d2d4 833f
00000020: 6281 863f e891 853f 05da 873f 4658 853f
00000030: 179f 843f 474d 853f d5bc 853f 1f06 843f
00000040: 30fd 893f 6f42 853f 82b0 813f b062 863f
00000050: d8bc 843f 276c 853f 89ae 843f 3959 853f
00000060: 9302 853f 11a3 873f c489 853f 5f36 853f
00000070: e961 853f c8f8 853f 0bc5 883f e291 853f
00000080: e529 843f 4400 853f f81d 843f eb4d 863f
00000090: 9a6f 863f ab15 8b3f 9c43 823f ec1a 883f
000000a0: 718b 863f 1c45 873f f5a8 873f 757e 833f
000000b0: 9eaf 813f c4a4 853f 70c7 853f 0a23 853f
000000c0: 278e 833f 3296 853f 73ad 833f d4b2 833f
000000d0: 2c91 863f c52c 893f b071 853f b90b 883f
000000e0: 2147 843f 46a3 843f 2d95 863f 91c7 873f
000000f0: 7eb2 823f 486b 893f 2daa 873f c041 873f
00000100: 0610 833f d766 863f 69ba 813f 4b83 843f
00000110: 76b3 833f 6d5c 873f 0c99 823f e4e5 863f
00000120: c99f 863f ad33 853f 2b0c 8a3f 6723 843f
00000130: a507 823f 8214 863f 4d1c 853f 2491 843f
00000140: 6ac3 853f 7e4e 883f 05dc 863f feb2 863f
00000150: 6bc2 873f 7bd5 853f b6f1 813f 239a 823f
00000160: fe98 843f 2fa0 843f ddfe 893f 4b49 843f
00000170: 0aeb 853f 8c71 863f 4139 873f 596d 853f
00000180: c2dc 833f 2a85 843f 77cd 833f 4fd2 843f
00000190: 3aae 833f 3af9 863f a9f3 853f 7bc7 853f
000001a0: 6547 863f 678d 823f 0fde 823f 4457 863f
000001b0: 82f2 843f ff19 863f 08c0 853f d609 873f
000001c0: ea2a 893f 4d73 843f 2389 853f cfee 853f
000001d0: eed0 833f 4116 853f c1d9 833f 2282 843f
000001e0: 5a45 863f 856c 843f 71c9 853f 4012 863f
000001f0: c90d 853f be79 833f 1ffd 863f a54b 863f
00000200: 905d 843f db79 853f 9f0f 8a3f a1e4 833f
00000210: d9b9 873f f40c 863f bbf7 843f 9c03 873f
00000220: c1fa 853f 905c 883f 6c51 863f 5c24 853f
00000230: 53a7 853f b0be 853f 9efe 823f 010b 853f
00000240: 9cc3 833f 1b80 853f cc36 823f fc30 843f
00000250: 56a7 873f 9b91 873f 4f22 863f b911 883f
00000260: eca0 873f cb2c 843f 8fba 873f c3f9 853f
00000270: 1bdb 843f 0734 843f 768b 833f 5856 883f
00000280: 275b 883f 9e78 893f c37b 853f f2c8 843f
00000290: 968a 873f 4d3d 853f 693d 853f 508d 843f
000002a0: 5101 863f 5878 853f c360 873f d98d 853f
000002b0: 2f3e 843f 55ce 823f 1e07 833f 56a5 853f
000002c0: 8cc0 843f 2cc5 853f a545 893f e723 823f
000002d0: 735a 833f 6d71 833f bd79 853f fd62 863f
000002e0: e27e 863f c71e 863f 8e73 843f f7f8 833f
000002f0: e2d3 8d3f b05a 843f 3ac5 853f fe28 883f
00000300: 5975 833f 6dcd 843f 95e1 863f 90ea 853f
00000310: fc6e 853f f5e1 853f 769c 873f 077f 823f
00000320: a9de 863f f492 853f 3a8e 863f 1acc 813f
00000330: dde3 843f 718d 823f b199 873f 1a85 843f
00000340: e51c 833f e9bb 853f 004f 863f 51b8 853f
00000350: 71f6 883f 6138 843f ce28 853f e9fd 863f
00000360: bb4a 883f b503 843f 900f 873f e329 833f
00000370: df79 853f ae8b 833f 7466 843f 02fd 8a3f
00000380: 8a93 863f dd14 833f b461 823f 1da7 833f
00000390: 9db5 853f d4d2 853f 302d 843f 1c60 843f
000003a0: 3967 863f 4ea9 863f 180a 833f af9a 843f
000003b0: a57e 843f 4d6c 823f 5c20 843f 2baa 863f
000003c0: c1bf 853f 3b78 863f 7f4d 873f 0b0f 833f
000003d0: 4041 833f 0ff2 853f 8a98 823f de6e 853f
000003e0: 32bd 833f 7d3e 883f dab2 853f 8966 863f
000003f0: 4008 843f 95b3 843f d3d8 863f 12a6 863f
1.0631348 1.0377927 1.0534142 1.0468677 1.0266211 1.0345533 1.0135149 1.0299323
1.0508235 1.0435152 1.0613409 1.0417564 1.036105 1.0414208 1.0448252 1.0314368
1.0780392 1.0410899 1.0131991 1.0498867 1.037013 1.042363 1.0365764 1.0417854
1.039141 1.0596639 1.0432668 1.0407218 1.0420505 1.0466547 1.0685133 1.0435145
1.0325285 1.0390706 1.0321646 1.0492529 1.0502808 1.0865988 1.0176883 1.0633216
1.0511304 1.0567966 1.0598437 1.0272967 1.0131719 1.0440907 1.0451488 1.0401318
1.0277756 1.0436461 1.0287308 1.0288949 1.0513053 1.0716788 1.042532 1.0628577
1.0334207 1.0362327 1.0514275 1.0607778 1.0210721 1.0735865 1.0598809 1.056694
1.0239265 1.0500134 1.0135013 1.0352567 1.0289142 1.0575081 1.0202956 1.0538907
1.0517513 1.0406395 1.0784963 1.0323304 1.0158583 1.0475008 1.0399262 1.0356793
1.0450261 1.0648954 1.0535895 1.0523374 1.0606207 1.0455774 1.0151889 1.0203289
1.035919 1.0361384 1.0780903 1.0334867 1.0462353 1.0503402 1.0564348 1.0423995
1.0301745 1.0353138 1.0297078 1.0376681 1.0287545 1.0544808 1.0464984 1.0451502
1.0490538 1.0199403 1.0224017 1.0495381 1.0386508 1.0476683 1.0449228 1.0549877
1.0716221 1.0347687 1.0432476 1.0463504 1.0298135 1.0397416 1.0300828 1.0352213
1.0489914 1.0345618 1.04521 1.047432 1.0394832 1.0271528 1.0545996 1.0491835
1.0341053 1.0427812 1.0786017 1.0304147 1.0603591 1.0472703 1.0388101 1.0547976
1.0467149 1.0653248 1.0493598 1.0401721 1.0441688 1.0448818 1.0233953 1.0393983
1.029407 1.042972 1.0172973 1.0327449 1.0597942 1.059131 1.047922 1.0630409
1.0595984 1.032617 1.0603808 1.0466846 1.0379366 1.0328377 1.0276935 1.065135
1.0652817 1.0739934 1.0428394 1.0373824 1.0589168 1.0409333 1.0409366 1.0355625
1.0469152 1.0427351 1.0576404 1.0433913 1.0331477 1.0219218 1.0236547 1.0441082
1.0371261 1.0450797 1.0724379 1.0167207 1.0261978 1.026899 1.0427777 1.0498959
1.0507472 1.0478142 1.0347764 1.0310353 1.1080287 1.0340176 1.0450814 1.063751
1.0270187 1.0375191 1.0537592 1.0462208 1.0424495 1.0459582 1.0594623 1.0195016
1.05367 1.0435472 1.0512154 1.0140412 1.0382038 1.0199414 1.0593778 1.0353119
1.0243193 1.0447971 1.0492859 1.0446874 1.0700208 1.0329705 1.0403078 1.0546237
1.0647806 1.0313631 1.0551624 1.0247158 1.0427817 1.0277002 1.0343766 1.0858462
1.0513775 1.0240742 1.0186067 1.0285374 1.0446049 1.0454965 1.032629 1.034183
1.0500251 1.0520418 1.0237455 1.0359706 1.0351149 1.0189301 1.0322375 1.0520681
1.0449144 1.0505441 1.0570525 1.0238966 1.0254288 1.0464495 1.0202801 1.0424459
1.0292113 1.064407 1.0445206 1.0500041 1.0315018 1.0367304 1.053492 1.0519431
