mini_batch_exp/models/mnist_adam_batch256_lr0.1.pt (torch_old, 968495 bytes, 62 tensors)

conv1.weight f4 [16, 1, 3, 3]
-2.0207217 16.674791 17.295982 -18.054483 -10.64547 -0.19991685 -9.00015 -12.334245
-28.291685 -28.349281 -13.06511 -0.5823155 -4.750468 22.663609 11.733878 5.6658783
11.89042 -8.985414 -6.778537 6.8515515 -10.588273 -6.2170978 -2.68442 -41.17066
-0.5286652 -24.169077 -8.259558 -10.420826 -17.80381 4.517466 -28.910727 5.488318
17.52058 -38.75966 -20.293478 -8.069672 -11.147146 -11.197712 -3.734098 16.191223
-6.173699 -5.7887273 -14.769047 -11.995031 -6.227825 8.8053465 15.311197 7.7309675
-6.7277484 3.6241424 5.102159 -35.970257 -11.552504 8.987911 6.3157268 18.503447
-1.040098 5.8830495 37.88766 -2.7638664 -6.837452 5.970338 -3.3517017 8.119979
-1.3039916 -11.834037 -31.507372 -22.032808 -10.562026 -15.857092 10.1066265 16.436642
9.712858 8.013136 -13.197294 9.793962 -10.371758 -16.655098 -24.959333 -22.278896
12.102844 -16.89131 -17.833347 8.457813 9.884996 -12.232069 -29.185904 12.756483
12.098955 0.4218246 -1.4290766 7.851389 0.13840209 17.040306 7.9756002 -33.927044
14.466598 -3.4306371 -17.307262 -30.963541 -0.9104674 -5.340437 12.907088 23.73284
-1.3047581 0.08764415 -4.1475716 -18.687859 6.7702346 8.57082 19.545353 10.531602
0.991151 1.4447922 -12.900281 -34.52923 1.9802529 -27.84848 0.6352957 8.459733
-31.597872 8.224867 23.449884 -20.192438 -3.2419043 4.8473663 14.516842 -16.51751
-20.474972 12.728378 -10.940753 -8.825983 -5.9757056 -23.056475 -1.6443355 -8.0178995
-7.0182743 -1.8987259 -4.790299 -7.8010263 -7.055701 -8.7813225 -8.538432 -12.107698
00000000: 8153 01c0 f965 8541 2c5e 8a41 956f 90c1
00000010: d853 2ac1 01b7 4cbe 9d00 10c1 1159 45c1
00000020: 5f55 e2c1 54cb e2c1 b10a 51c1 a112 15bf
00000030: d503 98c0 124f b541 f7bd 3b41 e04e b540
00000040: 293f 3e41 41c4 0fc1 c6e9 d8c0 e93f db40
00000050: 9169 29c1 77f2 c6c0 8acd 2bc0 c1ae 24c2
00000060: 9a56 07bf 455a c1c1 2627 04c1 b4bb 26c1
00000070: 346e 8ec1 158f 9040 2b49 e7c1 4da0 af40
00000080: 262a 8c41 e409 1bc2 0b59 a2c1 601d 01c1
00000090: b65a 32c1 d429 33c1 76fb 6ec0 a087 8141
000000a0: f18e c5c0 413d b9c0 044e 6cc1 a6eb 3fc1
000000b0: 584a c7c0 b3e2 0c41 aafa 7441 1664 f740
000000c0: b749 d7c0 f3f1 6740 e344 a340 8be1 0fc2
000000d0: 0ed7 38c1 7cce 0f41 6f1a ca40 0f07 9441
000000e0: ee21 85bf f141 bc40 f78c 1742 30e3 30c0
000000f0: 68cc dac0 020d bf40 4882 56c0 6feb 0141
00000100: 32e9 a6bf 3758 3dc1 190f fcc1 3143 b0c1
00000110: 0ffe 28c1 a6b6 7dc1 beb4 2141 3e7e 8341
00000120: de67 1b41 ce35 0041 1e28 53c1 11b4 1c41
00000130: b9f2 25c1 a43d 85c1 b7ac c7c1 2e3b b2c1
00000140: 40a5 4141 6721 87c1 b2aa 8ec1 3453 0741
00000150: f228 1e41 8eb6 43c1 bb7c e9c1 8e1a 4c41
00000160: 5295 4141 65f9 d73e fbeb b6bf 943e fb40
00000170: 47b9 0d3e 8c52 8841 1e38 ff40 4bb5 07c2
00000180: 2f77 6741 8f8f 5bc0 4675 8ac1 55b5 f7c1
00000190: 6414 69bf dce4 aac0 6f83 4e41 dbdc bd41
000001a0: 5002 a7bf c77e b33d e8b8 84c0 bc80 95c1
000001b0: c3a5 d840 1422 0941 e25c 9c41 7181 2841
000001c0: 12bc 7d3f f3ee b83f 8d67 4ec1 ee1d 0ac2
000001d0: ed78 fd3f b0c9 dec1 bda2 223f 115b 0741
000001e0: 71c8 fcc1 0e99 0341 5d99 bb41 1d8a a1c1
000001f0: 5c7b 4fc0 a01d 9b40 fc44 6841 dc23 84c1
00000200: becc a3c1 70a7 4b41 530d 2fc1 3a37 0dc1
00000210: fb38 bfc0 a973 b8c1 9679 d2bf 5149 00c1
00000220: b495 e0c0 7309 f3bf 214a 99c0 02a2 f9c0
00000230: 4dc8 e1c0 4c80 0cc1 6b9d 08c1 22b9 41c1

conv1.bias f4 [16]
35.22634 -19.577751 -10.650009 22.726095 11.302622 -38.36606 10.268062 15.27428
42.05727 43.323544 -44.560207 -7.455492 24.659609 26.597 12.969971 -9.360002
00000000: c6e7 0c42 3c9f 9cc1 7066 2ac1 0bcf b541
00000010: 8ad7 3441 d876 19c2 fb49 2441 7363 7441
00000020: a53a 2842 4f4b 2d42 a73d 32c2 6493 eec0
00000030: e146 c541 a8c6 d441 0085 4f41 91c2 15c1

bn1.weight f4 [16]
24.666843 16.023159 0.006040175 22.096102 11.402409 12.448357 0.4693011 18.671572
20.762608 28.483238 11.466362 8.883522 19.29372 26.11151 17.38427 -1.5106626
00000000: b255 c541 6e2f 8041 a9ec c53b d1c4 b041
00000010: 4470 3641 782c 4741 3c48 f03e 615f 9541
00000020: d219 a641 acdd e341 3876 3741 e822 0e41
00000030: 8a59 9a41 5fe4 d041 fc12 8b41 645d c1bf

bn1.bias f4 [16]
15.986322 0.75043726 1.0249697 4.307508 4.193105 -2.7908554 -0.11864007 6.0189576
17.362646 8.653852 -2.3728135 -1.4339 -1.3483089 14.235632 3.6773238 2.2780943
00000000: fac7 7f41 a81c 403f 3532 833f 1bd7 8940
00000010: eb2d 8640 609d 32c0 91f9 f2bd 4d9b c040
00000020: b3e6 8a41 2e76 0a41 2ddc 17c0 098a b7bf
00000030: 6395 acbf 26c5 6341 4659 6b40 4ccc 1140

bn1.running_mean f4 [16]
470.21442 1170.3323 0.7981315 145.1883 15.821995 1198.5514 3561.303 372.23944
414.3553 437.04688 1220.5653 276.09927 1409.986 967.9099 317.69043 6e-45
00000000: 721b eb43 a24a 9244 5952 4c3f 3430 1143
00000010: e426 7d41 a5d1 9544 d994 5e45 a61e ba43
00000020: 7a2d cf43 0086 da43 1792 9844 b50c 8a43
00000030: 8d3f b044 3cfa 7144 60d8 9e43 0400 0000

bn1.running_var f4 [16]
2.2104508e+06 6.6155335e+06 428.12558 325261.44 9303.746 6.0818425e+06 3.4555456e+07 940072.25
968228.0 1.6382431e+06 7.499749e+06 889131.1 8.230169e+06 5.9494965e+06 980642.75 6e-45
00000000: 4bea 064a dbe3 c94a 1310 d643 aed1 9e48
00000010: fc5e 1146 659a b94a 90d1 034c 8482 6549
00000020: 4062 6c49 19fb c749 cadf e44a b212 5949
00000030: 322a fb4a 7190 b54a 2c6a 6f49 0400 0000

conv2.weight f4 [32, 16, 4, 4]
-4.143183 -0.19846457 -10.557615 -11.992396 -23.925272 10.660984 17.717392 14.039937
-3.3643422 -9.135983 -14.690921 -3.0874953 -36.467846 -13.3894615 -12.534943 -7.684549
-4.012499 4.0828223 9.194899 13.47398 -13.079113 -9.828677 -13.603306 -9.177401
4.078068 -12.142165 -9.584535 -9.223575 -1.0615665 -4.259267 -0.48196715 1.7795408
-10.09016 -5.2430224 -10.728791 -6.3398733 5.3130794 -13.20879 -8.42008 7.1758814
-6.345448 -15.044892 0.2973583 -1.0209377 -3.9544454 -8.444678 7.9293075 13.527278
2.7633576 14.140347 11.007933 -7.258812 -4.209019 0.62525725 3.2085264 13.005435
-10.053238 -6.708542 4.005122 6.314916 -6.9360504 -17.689512 -15.8517685 -6.848596
-2.6138446 -2.5649965 14.32309 -12.108163 0.18830915 2.2518568 -8.877365 2.773637
-1.3722891 -1.6841111 0.46618924 6.3953557 -6.52583 -2.796671 -8.494993 -5.999054
-3.7534602 8.534855 25.095919 12.874051 -4.4462247 1.5112015 12.577426 14.859545
-5.0792046 -9.705354 -15.060541 -1.9525516 -16.594275 -12.1909685 -12.33145 -2.3822174
2.1683428 0.06286743 1.9643376 -3.8526866 -4.256465 -3.1845627 -0.7264086 -1.6361637
-0.276127 2.338929 -2.6904073 -11.290304 -1.6044868 0.27509478 -12.285378 -12.486595
-7.067527 -4.574729 -9.034361 -34.64 5.4651017 -11.228801 -3.579715 -10.199138
-10.406557 -18.54771 -7.8188367 -6.676689 3.8085349 -4.738993 -1.2073902 19.548119
-5.0044 -19.535774 -20.172941 -11.088592 1.7085352 -10.528559 8.114418 -3.4644601
-6.5662255 -20.23392 -16.704185 -19.60308 -19.584791 -18.899458 -9.017944 -2.1476555
-7.181037 -14.982209 -21.355358 -2.6734776 -14.117772 1.1192228 0.78046834 -7.125659
-8.021406 -15.418362 -19.70233 -5.1027093 -6.635436 9.5746565 1.1879165 -4.06831
-3.0981207 -10.826039 -4.9283047 8.609904 -3.2196212 -6.817121 16.938148 -1.0325403
-10.3721695 -6.4999814 -2.8841274 1.7873949 -6.286737 5.4324503 0.8241808 -1.3134187
5.020752 19.931993 17.622374 2.5921886 -0.4925194 -8.877396 -18.26056 -1.0222975
-6.38926 -3.7901063 4.2036095 7.2599106 -0.35298353 8.245239 7.9968762 11.085401
1.2940282 11.888382 26.397457 10.820836 0.6999177 7.438085 11.047538 10.188824
-5.881523 -6.57563 -16.1612 0.8417597 -20.99553 -9.92182 -2.9225292 2.7117136
-16.834963 3.1130474 3.4245477 -5.4066153 -29.917253 -1.1497911 -5.2606573 4.3578377
-13.5665245 -18.043947 -6.2342806 -5.026059 -12.965157 -16.501749 -19.29773 -8.060695
-16.668308 -10.941599 -4.2467246 -15.792727 7.7512145 -7.86435 -3.6505692 -4.9099064
-1.8029293 -3.274713 -9.748907 -9.50371 -5.947911 -3.592905 2.5263994 -3.0267737
0.6030722 4.574331 1.4761841 1.432421 2.5274868 -2.7167258 3.9924092 -0.61043966
0.2775184 -1.5844059 1.0094153 5.85475 -1.1097933 1.2207056 -0.29544625 -2.306713
00000000: f594 84c0 4c3a 4bbe feeb 28c1 dbe0 3fc1
00000010: f566 bfc1 6493 2a41 38bd 8d41 95a3 6041
00000020: 6251 57c0 fd2c 12c1 030e 6bc1 8699 45c0
00000030: 13df 11c2 3c3b 56c1 208f 48c1 d3e7 f5c0
00000040: 6466 80c0 7ba6 8240 4e1e 1341 6c95 5741
00000050: 0c44 51c1 4342 1dc1 24a7 59c1 a2d6 12c1
00000060: 887f 8240 4f46 42c1 415a 19c1 c393 13c1
00000070: 69e1 87bf ea4b 88c0 66c4 f6be fec7 e33f
00000080: 4c71 21c1 d7c6 a7c0 21a9 2bc1 3ee0 cac0
00000090: bf04 aa40 3457 53c1 a6b8 06c1 d2a0 e540
000000a0: e90d cbc0 e1b7 70c1 593f 983e 16ae 82bf
000000b0: a215 7dc0 671d 07c1 e3bc fd40 bb6f 5841
000000c0: dada 3040 dc3e 6241 7e20 3041 3048 e8c0
000000d0: 49b0 86c0 dc10 203f 7f58 4d40 4316 5041
000000e0: 10da 20c1 60ac d6c0 f629 8040 cb13 ca40
000000f0: 20f4 ddc0 1f84 8dc1 d8a0 7dc1 b327 dbc0
00000100: 3b49 27c0 e728 24c0 602b 6541 09bb 41c1
00000110: 1dd4 403e 6c1e 1040 b009 0ec1 4583 3140
00000120: 2ba7 afbf f490 d7bf 5bb0 ee3e c1a6 cc40
00000130: 99d3 d0c0 a8fc 32c0 7eeb 07c1 40f8 bfc0
00000140: b138 70c0 c48e 0841 71c4 c841 1dfc 4d41
00000150: 7947 8ec0 0d6f c13f 233d 4941 b2c0 6d41
00000160: d888 a2c0 2149 1bc1 faf7 70c1 36ed f9bf
00000170: 13c1 84c1 350e 43c1 9f4d 45c1 4076 18c0
00000180: 21c6 0a40 a4c0 803d 6a6f fb3f 6b92 76c0
00000190: f634 88c0 e0cf 4bc0 eaf5 39bf d06d d1bf
000001a0: 8560 8dbe 03b1 1540 a22f 2cc0 16a5 34c1
000001b0: d35f cdbf 39d9 8c3e e990 44c1 18c9 47c1
000001c0: 2e29 e2c0 2e64 92c0 be8c 10c1 5c8f 0ac2
000001d0: 1de2 ae40 2ba9 33c1 0d1a 65c0 ab2f 23c1
000001e0: 4281 26c1 b661 94c1 e933 fac0 70a7 d5c0
000001f0: 09bf 7340 d5a5 97c0 c38b 9abf 8c62 9c41
00000200: 0b24 a0c0 4449 9cc1 2f62 a1c1 df6a 31c1
00000210: 48b1 da3f fa74 28c1 a8d4 0141 b7b9 5dc0
00000220: 851e d2c0 11df a1c1 2ca2 85c1 1cd3 9cc1
00000230: a7ad 9cc1 1732 97c1 8049 10c1 3073 09c0
00000240: 0ecb e5c0 21b7 6fc1 c6d7 aac1 421a 2bc0
00000250: 65e2 61c1 b142 8f3f c6cc 473f 6605 e4c0
00000260: ae57 00c1 9cb1 76c1 5f9e 9dc1 6549 a3c0
00000270: 7e55 d4c0 cb31 1941 a60d 983f 982f 82c0
00000280: 9c47 46c0 7537 2dc1 acb4 9dc0 2bc2 0941
00000290: 460e 4ec0 db25 dac0 5481 8741 482a 84bf
000002a0: 68f4 25c1 d9ff cfc0 8b95 38c0 5bc9 e43f
000002b0: f32c c9c0 a2d6 ad40 83fd 523f 1b1e a8bf
000002c0: 00aa a040 b974 9f41 9ffa 8c41 6be6 2540
000002d0: 812b fcbe d009 0ec1 a015 92c1 a5da 82bf
000002e0: d174 ccc0 1a91 72c0 f883 8640 3051 e840
000002f0: 42ba b4be 80ec 0341 69e6 ff40 cd5d 3141
00000300: b7a2 a53f d036 3e41 fe2d d341 2522 2d41
00000310: ce2d 333f cb04 ee40 b7c2 3041 6c05 2341
00000320: 7035 bcc0 906b d2c0 234a 81c1 907d 573f
00000330: d8f6 a7c1 c6bf 1ec1 b80a 3bc0 b78c 2d40
00000340: 01ae 86c1 2b3c 4740 ca2b 5b40 fe02 adc0
00000350: 8956 efc1 5b2c 93bf 4e57 a8c0 6873 8b40
00000360: 7c10 59c1 015a 90c1 3a7f c7c0 7ad5 a0c0
00000370: 4871 4fc1 9503 84c1 c061 9ac1 9bf8 00c1
00000380: b258 85c1 ca10 2fc1 2be5 87c0 03af 7cc1
00000390: f309 f840 c1a8 fbc0 eda2 69c0 f41d 9dc0
000003a0: 63c6 e6bf e694 51c0 86fb 1bc1 320f 18c1
000003b0: 4955 bec0 28f2 65c0 87b0 2140 a9b6 41c0
000003c0: f162 1a3f eb60 9240 9af3 bc3f 9259 b73f
000003d0: 58c2 2140 d6de 2dc0 a283 7f40 c645 1cbf
000003e0: e416 8e3e d0cd cabf 8534 813f 1d5a bb40
000003f0: b50d 8ebf 1540 9c3f bb44 97be 30a1 13c0

conv2.bias f4 [32]
-8.022835 -11.078635 -11.892385 -19.818249 -11.171217 0.09373892 -30.012085 -10.638848
-19.779303 -18.363022 -15.9789715 -1.9697009 -13.445716 -14.712964 -17.439274 -15.72526
-8.74077 -18.719252 5.091995 -15.945508 -8.086998 -6.850611 -10.867743 -10.047094
-9.423743 -11.652164 2.1886523 -17.521019 -9.680672 -8.365713 -14.452955 -13.071708
00000000: 885d 00c1 1742 31c1 3547 3ec1 c68b 9ec1
00000010: 4ebd 32c1 31fa bf3d c018 f0c1 b938 2ac1
00000020: 033c 9ec1 78e7 92c1 dea9 7fc1 291f fcbf
00000030: a721 57c1 4d68 6bc1 a283 8bc1 aa9a 7bc1
00000040: 32da 0bc1 07c1 95c1 9ff1 a240 cd20 7fc1
00000050: 5864 01c1 3538 dbc0 46e2 2dc1 e6c0 20c1
00000060: a7c7 16c1 446f 3ac1 e112 0c40 0c2b 8cc1
00000070: 08e4 1ac1 f6d9 05c1 4e3f 67c1 b725 51c1

bn2.weight f4 [32]
-0.47186527 15.462016 24.038994 12.815706 12.3041935 24.047468 23.352888 16.008762
15.519765 20.456432 29.494135 20.757614 14.806746 14.544294 28.655773 23.127182
12.426448 -10.857271 16.561296 13.797428 17.466259 16.248228 -7.8907857 15.853431
-6.0234666 23.213766 17.0486 26.520422 17.387142 19.942282 20.165232 19.072823
00000000: 5398 f1be 6b64 7741 dc4f c041 220d 4d41
00000010: fadd 4441 3761 c041 b7d2 ba41 f211 8041
00000020: f550 7841 c6a6 a341 fdf3 eb41 980f a641
00000030: 6ee8 6c41 6eb5 6841 063f e541 7804 b941
00000040: bbd2 4641 62b7 2dc1 897d 8441 44c2 5c41
00000050: e6ba 8b41 5ffc 8141 5181 fcc0 a7a7 7d41
00000060: 3dc0 c0c0 cbb5 b941 8863 8841 d329 d441
00000070: de18 8b41 cb89 9f41 6552 a141 2495 9841

bn2.bias f4 [32]
0.14263327 4.113793 3.7004132 1.9358691 5.8827233 6.862514 3.8940053 5.4790983
3.098904 4.735841 7.4932175 1.1874369 3.5573795 1.8585516 8.130881 5.916607
1.9472141 -2.2307892 3.7555194 3.815003 2.016065 0.2691276 -1.0001798 1.9431689
-0.5530254 1.6036005 5.2999783 7.598173 4.0243206 7.8413477 4.902646 3.0353107
00000000: 750e 123e 31a4 8340 92d3 6c40 8fca f73f
00000010: 453f bc40 b799 db40 6237 7940 c654 af40
00000020: 7154 4640 028c 9740 70c8 ef40 effd 973f
00000030: 1bac 6340 05e5 ed3f 1718 0241 d854 bd40
00000040: 503e f93f 40c5 0ec0 6e5a 7040 0229 7440
00000050: 3507 0140 18cb 893e e405 80bf c2b9 f83f
00000060: 1393 0dbf c842 cd3f 6c99 a940 3c24 f340
00000070: 3cc7 8040 52ec fa40 7ae2 9c40 8842 4240

bn2.running_mean f4 [32]
493.59207 1647.955 3500.307 1491.9609 643.7528 2343.6023 3311.4626 649.457
1264.7013 849.5974 443.3846 1398.4468 2784.533 795.1729 1355.0012 2201.0564
2626.4597 708.0616 4736.942 2479.5645 3530.7085 5145.3916 392.12152 2685.2136
3787.6978 2969.7312 2274.542 1877.9844 2268.616 811.93665 2122.986 2066.6482
00000000: c9cb f643 8ffe cd44 e9c4 5a45 c07e ba44
00000010: 2ef0 2044 a379 1245 67f7 4e45 3f5d 2244
00000020: 7116 9e44 3c66 5444 3bb1 dd43 4cce ae44
00000030: 8708 2e45 11cb 4644 0a60 a944 e790 0945
00000040: 5b27 2445 f103 3144 8907 9445 08f9 1a45
00000050: 56ab 5c45 22cb a045 8e0f c443 6bd3 2745
00000060: 2abb 6c45 b39b 3945 ac28 0e45 80bf ea44
00000070: dbc9 0d45 f2fb 4a44 c7af 0445 5f2a 0145

bn2.running_var f4 [32]
3.2048452e+06 1.1531603e+07 1.6819884e+07 7.947382e+06 3.3560598e+06 2.1057028e+07 1.8132698e+07 4.1263468e+06
8.083889e+06 5.314899e+06 3.112131e+06 6.429199e+06 1.7602626e+07 3.0689545e+06 9.846296e+06 1.1658452e+07
1.2654035e+07 4.2247175e+06 2.9040706e+07 1.5142094e+07 2.575469e+07 2.6999902e+07 1.8216414e+06 1.5236245e+07
1.2259724e+07 1.6431945e+07 1.4105925e+07 1.5023633e+07 1.5949978e+07 6.0068245e+06 1.4907786e+07 1.2479882e+07
00000000: b59b 434a 53f5 2f4b 5653 804b ec88 f24a
00000010: 6fd6 4c4a 02a7 a04b 6d57 8a4b 2bda 7b4a
00000020: 62b3 f64a a632 a24a 0cf3 3d4a 1e34 c44a
00000030: 214c 864b 6a50 3b4a 183e 164b d4e4 314b
00000040: d315 414b 9bed 804a 2190 dd4b ce0c 674b
00000050: 217e c44b 2ffe cd4b 4b5e de49 957c 684b
00000060: 8c11 3b4b 49bb 7a4b 453d 574b 113e 654b
00000070: 9a60 734b 5150 b74a 8a79 634b 8a6d 3e4b

conv3.weight f4 [64, 32, 5, 5]
-5.821464 -7.7119927 -12.457808 -0.7497371 -2.6825626 -0.10651182 -6.8373084 -9.655472
-0.201764 -3.1917188 0.5675048 -4.8082676 -8.520362 -8.849124 -3.2571013 7.8454494
15.811088 -7.7464733 -15.918804 -1.5067363 -7.6242557 -15.89301 -2.7965372 -10.566941
-2.6391923 22.845646 -1.6605734 5.153049 2.9659164 5.331834 -16.862051 15.12346
-3.8959343 -0.22082663 -10.275298 10.838771 7.827631 0.965675 1.6126904 -1.2052554
0.1818587 2.6188338 -2.4912872 7.120892 4.362002 -1.716948 -25.279474 -29.064278
-6.365473 5.8271227 1.4330943 -25.621964 -20.892817 8.356813 17.166325 -12.393713
2.0677722 13.231097 16.91096 23.362825 -1.0421551 -3.6405082 2.7731245 -6.2953753
6.783698 -21.484798 1.9642572 5.7737617 16.790619 7.516073 -14.67742 9.640316
12.868285 -1.8706392 15.489601 20.221294 4.043697 11.568141 15.406215 15.836527
-14.783077 10.599632 14.591237 -5.3544903 19.681705 9.888233 -5.4037848 13.775716
-27.253613 27.214642 4.6197815 26.961664 -0.05119776 -10.624783 1.9251462 4.930352
2.427326 -3.3294582 -5.287591 10.037669 0.6776071 6.921649 -5.487438 -1.6956207
-14.567981 -24.140593 0.49326125 15.729701 -5.4631405 -3.5947094 10.356627 0.434673
3.4280589 -4.096906 -15.772007 -0.20733707 -5.996939 2.9489586 7.4125776 2.7474463
7.9161997 -10.332162 -6.8248315 10.140763 6.1934056 2.136225 17.920673 9.789929
-14.385273 -18.348293 1.8522823 10.931921 3.7930086 -27.00469 -18.69957 10.344902
4.1557894 10.201981 -37.899094 -27.554052 2.7294297 2.1151814 -6.28507 -29.008886
-15.667701 33.934864 -1.9337896 10.232118 7.023041 -5.895599 5.5039577 10.8389
12.683675 15.866623 4.269587 13.517184 -6.625395 -1.7776079 5.385382 1.4106147
0.13581131 9.065189 6.469138 -8.047703 -25.65101 -3.3161304 -0.53352785 15.732771
-9.552613 2.4849691 -10.11699 -5.1089797 6.468152 -2.3710845 8.564162 16.315275
7.2923965 10.602581 1.5688869 13.422333 21.233097 -11.95181 5.8052497 -11.544794
48.70019 -13.281176 -3.1831777 -20.900497 -1.5350553 2.9449859 6.3721704 -3.8313313
-9.663949 -5.7452507 -20.394506 11.377676 -10.858189 -4.7006216 -12.836377 3.9064958
-0.5383333 17.091465 8.900475 3.8464055 5.889896 3.2403953 6.3381543 8.443911
-14.441813 -12.20941 1.2832723 0.68375826 -1.2570497 3.0296896 -0.5295931 11.71762
-5.692281 -1.432514 -0.13483866 -4.279794 -8.524301 -5.264919 0.7442418 12.753561
-1.1269444 15.256368 10.427564 3.9196332 12.136201 26.917904 9.418589 3.6359823
-37.937283 -21.854248 -13.124986 -8.166148 10.690344 15.775507 1.8313833 -1.326949
19.25913 3.042792 3.376731 2.2548587 15.816621 -6.387027 -5.308798 2.3687243
-23.141811 19.723373 1.8334882 9.184941 10.29872 26.042645 9.853684 13.718325
00000000: 6f49 bac0 a5c8 f6c0 2e53 47c1 c5ee 3fbf
00000010: 1baf 2bc0 de22 dabd 3bcb dac0 d07c 1ac1
00000020: 399b 4ebe 1f45 4cc0 ff47 113f 54dd 99c0
00000030: 6753 08c1 0396 0dc1 5974 50c0 ec0d fb40
00000040: 37fa 7c41 1ce3 f7c0 6cb3 7ec1 bcdc c0bf
00000050: e7f9 f3c0 c549 7ec1 77fa 32c0 3112 29c1
00000060: 87e8 28c0 e2c3 b641 ab8d d4bf c7e5 a440
00000070: 93d1 3d40 629e aa40 7be5 86c1 b1f9 7141
00000080: fd56 79c0 6020 62be 9f67 24c1 9b6b 2d41
00000090: f47b fa40 7a36 773f a46c ce3f cf45 9abf
000000a0: 2b39 3a3e f99a 2740 4071 1fc0 59de e340
000000b0: 8595 8b40 f4c4 dbbf 5d3c cac1 a483 e8c1
000000c0: f4b1 cbc0 ca77 ba40 a26f b73f c8f9 ccc1
000000d0: 7d24 a7c1 82b5 0541 a254 8941 a64c 46c1
000000e0: 6156 0440 93b2 5341 a549 8741 11e7 ba41
000000f0: 5765 85bf 16fe 68c0 df7a 3140 b773 c9c0
00000100: 0e14 d940 dee0 abc1 c86c fb3f a8c2 b840
00000110: 3053 8641 ac83 f040 b6d6 6ac1 bc3e 1a41
00000120: 7fe4 4d41 1b71 efbf 68d5 7741 36c5 a141
00000130: f765 8140 1b17 3941 db7f 7641 6a62 7d41
00000140: 7c87 6cc1 1898 2941 b575 6941 fc57 abc0
00000150: 2274 9d41 3436 1e41 ceeb acc0 5569 5c41
00000160: 6607 dac1 96b7 d941 40d5 9340 7db1 d741
00000170: beb4 51bd 1cff 29c1 316b f63f 72c5 9d40
00000180: 4f59 1b40 d815 55c0 f233 a9c0 4b9a 2041
00000190: a977 2d3f 267e dd40 1899 afc0 190a d9bf
000001a0: 7316 69c1 ef1f c1c1 bd8c fc3e dbac 7b41
000001b0: 0cd2 aec0 b80f 66c0 bfb4 2541 768d de3e
000001c0: 5165 5b40 db19 83c0 245a 7cc1 2b50 54be
000001d0: ede6 bfc0 bdbb 3c40 d633 ed40 29d6 2f40
000001e0: 8251 fd40 8950 25c1 0565 dac0 9140 2241
000001f0: 6130 c640 e9b7 0840 8a5d 8f41 8da3 1c41
00000200: 142a 66c1 4ec9 92c1 9617 ed3f 26e9 2e41
00000210: a7c0 7240 9b09 d8c1 b898 95c1 b884 2541
00000220: 3afc 8440 503b 2341 ac98 17c2 b36e dcc1
00000230: faae 2e40 225f 0740 4b1f c9c0 3312 e8c1
00000240: e7ae 7ac1 4dbd 0742 6b86 f7bf c1b6 2341
00000250: c0bc e040 bfa8 bcc0 6c20 b040 226c 2d41
00000260: 55f0 4a41 b0dd 7d41 75a0 8840 6346 5841
00000270: 3c03 d4c0 a888 e3bf 0d55 ac40 068f b43f
00000280: 1f12 0b3e 040b 1141 2e03 cf40 64c3 00c1
00000290: 4535 cdc1 7b3b 54c0 4895 08bf 6eb9 7b41
000002a0: 81d7 18c1 bc09 1f40 31df 21c1 c37c a3c0
000002b0: 1afb ce40 d9bf 17c0 cf06 0941 af85 8241
000002c0: 505b e940 2ca4 2941 49d1 c83f e0c1 5641
000002d0: 62dd a941 9d3a 3fc1 9bc4 b940 7ab7 38c1
000002e0: ffcc 4242 b27f 54c1 2fb9 4bc0 3834 a7c1
000002f0: b17c c4bf a67a 3c40 d2e8 cb40 8834 75c0
00000300: 899f 1ac1 18d9 b7c0 f327 a3c1 f60a 3641
00000310: 24bb 2dc1 7e6b 96c0 cd61 4dc1 0704 7a40
00000320: 36d0 09bf 52bb 8841 5868 0e41 822b 7640
00000330: 077a bc40 a362 4f40 29d2 ca40 421a 0741
00000340: ab11 67c1 be59 43c1 4442 a43f c80a 2f3f
00000350: 01e7 a0bf 6fe6 4140 6a93 07bf 5f7b 3b41
00000360: 2a27 b6c0 9e5c b7bf 2513 0abe 13f4 88c0
00000370: 8963 08c1 377a a8c0 a186 3e3f 960e 4c41
00000380: b73f 90bf 151a 7441 4dd7 2641 45db 7a40
00000390: e12d 4241 de57 d741 8ab2 1641 efb3 6840
000003a0: c7bf 17c2 80d5 aec1 f1ff 51c1 8ba8 02c1
000003b0: a60b 2b41 7a68 7c41 c56a ea3f 77d9 a9bf
000003c0: b312 9a41 1bbd 4240 5c1c 5840 9b4f 1040
000003d0: e110 7d41 8662 ccc0 ace1 a9c0 2e99 1740
000003e0: 6e22 b9c1 78c9 9d41 beaf ea3f 85f5 1241
000003f0: 8fc7 2441 5657 d041 b1a8 1d41 427e 5b41

conv3.bias f4 [64]
-10.805643 -5.4793563 0.10380892 2.843188 -14.017743 -8.546582 -6.587426 -0.080557965
-2.3391879 1.8101815 -4.5973687 -1.1142923 -10.539556 -2.5210419 -7.3283668 -6.972324
-2.3720748 -8.801277 3.64516 -10.061036 -13.802819 -6.456954 -15.879979 -11.659701
6.526206 -5.699405 6.2399077 3.9344969 -0.537032 7.9829574 -4.2040653 -8.588838
-5.56195 -16.649427 -0.7483355 1.4140636 -7.666313 -3.3229914 -6.3061447 -8.034294
-12.161099 -1.6798697 -4.8355403 2.0502663 -12.351798 0.75836545 -4.9978085 -13.82324
-2.430255 -14.454802 9.487955 -12.6048155 -7.416906 -0.8120264 -8.850495 -0.23846453
-3.8528488 -4.74859 2.0287843 0.77364147 -3.253352 -12.386706 -7.0846286 -4.005658
00000000: eae3 2cc1 e356 afc0 c599 d43d cbf6 3540
00000010: ad48 60c1 cdbe 08c1 32cc d2c0 93fb a4bd
00000020: 41b5 15c0 07b4 e73f a51d 93c0 21a1 8ebf
00000030: 05a2 28c1 c058 21c0 fb81 eac0 471d dfc0
00000040: 13d0 17c0 08d2 0cc1 4d4a 6940 01fa 20c1
00000050: 59d8 5cc1 5e9f cec0 6514 7ec1 238e 3ac1
00000060: aed6 d040 8761 b6c0 53ad c740 ccce 7b40
00000070: ee7a 09bf 6374 ff40 b487 86c0 e16b 09c1
00000080: 7ffb b1c0 0732 85c1 ea92 3fbf 0900 b53f
00000090: 7052 f5c0 e4ab 54c0 f0cb c9c0 788c 00c1
000000a0: dd93 42c1 f805 d7bf bfbc 9ac0 9037 0340
000000b0: f7a0 45c1 3d24 423f 0cee 9fc0 fe2b 5dc1
000000c0: 4c89 1bc0 de46 67c1 aace 1741 53ad 49c1
000000d0: 4b57 edc0 f6e0 4fbf a19b 0dc1 0c30 74be
000000e0: 1395 76c0 73f4 97c0 9ad7 0140 5e0d 463f
000000f0: eb36 50c0 f32f 46c1 47b5 e2c0 5a2e 80c0

bn3.weight f4 [64]
15.747614 13.1750145 7.3104243 18.371023 31.372889 1.9745176 20.852297 15.262188
15.951616 25.578499 17.405619 4.1937337 11.8879 18.175585 13.752812 -1.5064151
13.882393 15.464792 35.30784 7.930136 16.263416 21.979534 6.2748814 12.538617
24.815987 12.219066 16.426012 13.990759 20.194897 -1.1449519 15.805063 5.719405
21.388893 23.652645 11.804431 14.455743 13.065571 10.840118 22.679037 16.257437
18.186941 17.51023 10.417854 18.720194 17.471153 14.25603 2.5993054 27.61211
12.779976 13.034842 21.207342 17.818777 0.43938637 21.217731 12.627656 13.475633
22.071732 30.898912 11.611717 6.5487647 -0.95151556 20.304852 20.27514 15.548016
00000000: 3af6 7b41 dccc 5241 ffee e940 dbf7 9241
00000010: adfb fa41 febc fc3f 81d1 a641 ec31 7441
00000020: d239 7f41 c4a0 cc41 b53e 8b41 1133 8640
00000030: d734 3e41 9967 9141 850b 5c41 36d2 c0bf
00000040: 481e 5e41 ca6f 7741 3a3b 0d42 adc3 fd40
00000050: 7a1b 8241 16d6 af41 d4cb c840 2d9e 4841
00000060: 2487 c641 4b81 4341 7968 8341 26da 5f41
00000070: 268f a141 c98d 92bf 8ae1 7c41 5e05 b740
00000080: 741c ab41 9e38 bd41 f3de 3c41 b94a 6741
00000090: 940c 5141 2071 2d41 ab6e b541 3b0f 8241
000000a0: db7e 9141 f314 8c41 88af 2641 f5c2 9541
000000b0: ecc4 8b41 b318 6441 055b 2640 9ae5 dc41
000000c0: c87a 4c41 b68e 5041 a3a8 a941 db8c 8e41
000000d0: 40f7 e03e eabd a941 e10a 4a41 319c 5741
000000e0: e892 b041 f930 f741 98c9 3941 7b8f d140
000000f0: 8696 73bf 5670 a241 7d33 a241 acc4 7841

bn3.bias f4 [64]
0.7211235 10.427398 19.209026 3.3050752 2.1718085 1.2287347 11.167135 3.5336943
4.902136 3.0809746 12.437627 -4.432973 16.802746 7.815626 -1.7612443 1.3182743
12.582892 1.6058947 7.6595454 8.743731 4.6749907 3.1399796 -0.61691445 5.056979
-0.19692339 3.3004014 10.479748 3.133253 6.0270057 0.11806477 -0.48247597 2.5058582
2.9758666 11.722308 8.066905 7.16762 -12.253919 4.044741 -2.0321064 18.090944
1.0472293 6.6712985 6.1167903 6.9787836 5.107649 6.807916 3.0440044 13.40346
3.6047006 -0.65933335 -3.163238 9.720704 8.15399 11.055922 7.229214 9.236759
11.865591 9.577647 7.2945805 1.3414686 -2.8871362 6.4402566 7.2087693 1.9593728
00000000: 8d9b 383f 9fd6 2641 16ac 9941 5a86 5340
00000010: e9fe 0a40 2e47 9d3f 96ac 3241 0c28 6240
00000020: 4cde 9c40 b02e 4540 8500 4741 eada 8dc0
00000030: 066c 8641 9c19 fa40 7470 e1bf 36bd a83f
00000040: 8753 4941 f58d cd3f ff1a f540 52e6 0b41
00000050: 8699 9540 6df5 4840 1bee 1dbf c6d2 a140
00000060: 49a6 49be c739 5340 0cad 2741 3887 4840
00000070: 3bdd c040 f1cb f13d 1707 f7be fb5f 2040
00000080: 9974 3e40 938e 3b41 0b12 0141 255d e540
00000090: 0d10 44c1 856e 8140 080e 02c0 41ba 9041
000000a0: 9c0b 863f 477b d540 bfbc c340 3252 df40
000000b0: dc71 a340 73da d940 f8d0 4240 9274 5641
000000c0: 6ab3 6640 12ca 28bf 7e72 4ac0 0188 1b41
000000d0: be76 0241 0ee5 3041 b955 e740 c4c9 1341
000000e0: 76d9 3d41 0b3e 1941 346d e940 3eb5 ab3f
000000f0: d7c6 38c0 9516 ce40 3dae e640 bacc fa3f

bn3.running_mean f4 [64]
835.27606 4324.857 5823.971 14304.428 853.2943 1129.704 8847.581 1404.8972
2994.131 2783.0173 3228.819 6653.2456 791.74347 4775.416 2935.5571 1992.9077
2390.6868 2380.9028 1722.06 3247.1099 1341.5126 5258.1914 56.73488 258.0127
9469.863 3154.6497 10954.842 19729.62 4810.67 14660.833 3147.5742 281.04132
2843.3914 2039.3068 3642.258 6476.932 6429.442 1968.9661 3692.9055 3555.7847
3633.693 9202.948 6036.1025 9690.846 1368.5597 11602.897 1706.9215 2415.2136
7859.646 943.29944 8438.23 3528.6765 2574.635 3749.7659 1455.5323 2294.7847
3143.2825 3676.372 4384.974 1016.62537 11172.652 1522.8068 1695.9872 502.159
00000000: abd1 5044 db26 8745 c5ff b545 b681 5f46
00000010: d652 5544 8736 8d44 533e 0a46 b69c af44
00000020: 1922 3b45 47f0 2d45 1bcd 4945 f7e9 cf45
00000030: 95ef 4544 543b 9545 ea78 3745 0c1d f944
00000040: fd6a 1545 72ce 1445 ec41 d744 c2f1 4a45
00000050: 67b0 a744 8851 a445 84f0 6242 a001 8143
00000060: 74f7 1346 652a 4545 5e2b 2b46 3d23 9a46
00000070: 5c55 9645 5513 6546 30b9 4445 4a85 8c43
00000080: 43b6 3145 d1e9 fe44 21a4 6345 7567 ca45
00000090: 89eb c845 ea1e f644 7dce 6645 8e3c 5e45
000000a0: 171b 6345 cbcb 0f46 d2a0 bc45 626b 1746
000000b0: e911 ab44 974b 3546 7d5d d544 6bf3 1645
000000c0: 2b9d f545 2ad3 6b44 ecd8 0346 d38a 5c45
000000d0: 29ea 2045 415c 6a45 09f1 b544 8e6c 0f45
000000e0: 8574 4445 f4c5 6545 cb07 8945 0628 7e44
000000f0: 9c92 2e46 d159 be44 97ff d344 5a14 fb43

bn3.running_var f4 [64]
1.0880715e+07 8.4821704e+07 8.342828e+07 1.5286344e+08 1.692422e+07 1.4982353e+07 1.9828323e+08 1.9479454e+07
6.4677948e+07 3.971085e+07 5.3065884e+07 8.392357e+07 1.2780372e+07 7.980826e+07 3.891746e+07 2.9137908e+07
3.2172368e+07 5.2390412e+07 2.6407426e+07 5.112946e+07 1.8798158e+07 1.1377693e+08 269997.2 1.3812798e+06
2.0959429e+08 7.542442e+07 1.7385707e+08 2.6803394e+08 6.096701e+07 2.0876794e+08 3.691447e+07 1.5252761e+06
4.6591892e+07 3.945075e+07 5.4240028e+07 9.489542e+07 1.0877175e+08 1.8321832e+07 8.0290584e+07 8.793128e+07
8.277682e+07 1.432854e+08 1.0106503e+08 1.4196528e+08 2.0511564e+07 1.7321912e+08 1.8809044e+07 5.6165456e+07
1.122843e+08 1.297132e+07 1.393203e+08 7.1864376e+07 3.9296372e+07 6.533117e+07 2.3418554e+07 2.7075368e+07
6.0656116e+07 8.786112e+07 6.819631e+07 9.506411e+06 1.11831144e+08 2.978472e+07 2.7183396e+07 4.6813435e+06
00000000: cb06 264b d9c8 a14c 7720 9f4c 2dc8 114d
00000010: 1e1f 814b d19c 644b fe18 3d4d cf9d 944b
00000020: 0fba 764c 207c 174c 276e 4a4c 4e12 a04c
00000030: 5403 434b e038 984c 5575 144c fa4d de4b
00000040: a874 f54b 83da 474c 0179 c94b 1d0b 434c
00000050: 276b 8f4b 2403 d94c a6d5 8348 fe9c a849
00000060: 7be2 474d 54dc 8f4c 93cd 254d f99d 7f4d
00000070: 1892 684c bc18 474d 4ad1 0c4c e130 ba49
00000080: e5bb 314c 207e 164c c7e8 4e4c a8ff b44c
00000090: 3577 cf4c d4c8 8b4b 6324 994c 32b7 a74c
000000a0: 5ee2 9d4c caa5 084d 29c4 c04c 7e63 074d
000000b0: a67d 9c4b d331 254d 6a80 8f4b 1441 564c
000000c0: 522a d64c 38ed 454b bfdd 044d 0712 894c
000000d0: 5de7 154c f837 794c 5dab b24b 9491 ce4b
000000e0: 7d62 674c f094 a74c fb12 824c 6b0e 114b
000000f0: 0d4d d54c 483d e34b 9264 cf4b ffdc 8e4a

fc1.weight f4 [256, 64]
-9.13332 -5.6388545 -7.4144216 -8.845112 4.6634636 -2.4469469 5.404468 -2.8166952
-16.379091 -8.245339 -20.910147 4.442284 6.596014 -24.419748 -25.585514 -2.7055764
14.408205 7.850029 -9.842439 14.566122 -11.198964 18.963758 -4.297441 1.2204438
-19.829576 -15.198237 13.832471 4.4264784 -17.052994 1.9586502 2.9288104 1.8943406
-8.232512 21.417303 -5.646132 7.214153 -8.745765 -11.276081 -27.526245 14.669235
-25.0545 -13.284047 -7.215504 10.328061 -21.367994 11.856773 0.47024548 27.50122
12.261297 -13.25244 -17.40626 9.955996 -2.152277 -33.402977 -14.271129 2.3417292
-10.268056 -2.4969041 -4.096485 6.619526 -2.5355287 7.006092 -16.439592 9.262401
13.325309 -14.41122 -25.515896 -0.97564405 7.710384 -8.135221 -5.9576287 -8.120008
-0.4326437 2.4079828 -19.598944 8.4071865 -21.780647 -15.304718 -4.448635 -1.8755351
-22.93832 0.32586262 5.631164 -3.3738346 -7.32906 7.687483 -1.4356277 -11.19122
-0.8639202 5.750021 -1.5252674 2.7156978 -13.842833 -6.6402316 13.415955 3.8165157
1.4148866 2.3387115 -10.888511 -6.9530315 17.693026 -4.730873 4.6898227 -7.818848
5.261352 -3.4515438 -10.594987 -1.2739638 -4.2861214 -4.3464274 -5.7186003 -0.43564886
-3.360664 3.532488 -3.114459 3.1670785 -25.119184 -9.219438 -12.864249 -6.0679865
-12.779143 -5.466859 -0.3194253 4.371286 8.040398 -5.863881 -8.485167 -3.2790725
11.712486 -16.56222 -14.198315 3.695751 7.987706 4.00477 -1.2299037 -12.770967
-7.9781737 0.3895535 -6.7509913 11.883578 -14.377906 -3.8191442 2.43055 -2.101953
-15.074644 -0.78494585 7.8316565 -10.371877 -4.454964 2.0064576 3.703504 -11.323102
3.7302752 -0.60126585 -2.1893773 0.27691555 -2.646937 -3.4984524 6.9734573 -6.552086
-2.512008 -10.806759 -3.1565146 -4.4530506 6.8350987 -1.5208869 9.08287 -18.095835
0.52517 -1.0517511 -2.162814 -5.4545913 -10.742222 3.0728805 -1.116063 -11.7800865
1.0063652 -8.250176 -4.744746 -5.036198 -7.1354403 -12.790591 -13.696812 -17.927038
-15.481374 -1.6178476 -8.347464 2.7635655 2.112184 -9.443721 -10.621892 1.7117993
1.9564579 -13.751175 -12.533447 5.48378 -0.8022852 -0.41244417 -14.888788 -5.93361
2.7701464 -7.61139 -12.161619 1.8928368 -11.966841 -5.913509 -0.2793912 -6.5361
-4.4131184 4.5107174 6.333239 -0.868846 9.483364 -10.013425 -0.6959862 -9.587212
6.809768 -7.3241544 -4.9083886 2.4552941 -6.1232014 2.7740545 -2.404536 -3.3297124
-3.6411126 -10.527841 -9.288935 1.4680206 2.27981 4.5933914 5.6192155 -7.501441
4.939672 -10.333971 9.292891 2.6576455 -11.002982 -8.239595 4.4122157 -6.1574454
-0.50924826 -6.177215 -5.1484337 -13.297207 -9.607542 -2.3511891 -9.278277 -4.944775
-10.833054 -8.845448 -5.6474404 6.576446 -0.034488782 4.609036 5.8171554 0.89115995
00000000: 1422 12c1 7f71 b4c0 f142 edc0 9485 0dc1
00000010: 183b 9540 c79a 1cc0 67f1 ac40 bc44 34c0
00000020: 6108 83c1 e9ec 03c1 fb47 a7c1 3127 8e40
00000030: 8c12 d340 a55b c3c1 22af ccc1 2a28 2dc0
00000040: 0288 6641 7033 fb40 a17a 1dc1 d60e 6941
00000050: f52e 33c1 c7b5 9741 a384 89c0 8137 9c3f
00000060: f9a2 9ec1 fb2b 73c1 cd51 5d41 b6a5 8d40
00000070: 886c 88c1 0db5 fa3f a171 3b40 c179 f23f
00000080: 5fb8 03c1 a356 ab41 1dad b4c0 57da e640
00000090: a7ee 0bc1 d46a 34c1 c035 dcc1 30b5 6a41
000000a0: 9e6f c8c1 758b 54c1 69e5 e6c0 bd3f 2541
000000b0: a7f1 aac1 58b5 3d41 04c4 f03e 8002 dc41
000000c0: 462e 4441 ff09 54c1 0540 8bc1 c24b 1f41
000000d0: e8be 09c0 a69c 05c2 8b56 64c1 e4de 1540
000000e0: f549 24c1 47cd 1fc0 6816 83c0 28d3 d340
000000f0: 1a46 22c0 e831 e040 4984 83c1 cb32 1441
00000100: 7734 5541 5b94 66c1 8e20 ccc1 cfc3 79bf
00000110: 77bb f640 dd29 02c1 e5a4 bec0 8eeb 01c1
00000120: 7a83 ddbe 641c 1a40 a3ca 9cc1 d683 0641
00000130: c43e aec1 20e0 74c1 385b 8ec0 8911 f0bf
00000140: ae81 b7c1 77d7 a63e 7f32 b440 e8ec 57c0
00000150: a987 eac0 dcff f540 a6c2 b7bf 3d0f 33c1
00000160: e029 5dbf 2c00 b840 f63b c3bf fecd 2d40
00000170: 3e7c 5dc1 c77c d4c0 c0a7 5641 cb41 7440
00000180: 011b b53f 73ad 1540 5737 2ec1 3c7f dec0
00000190: 518b 8d41 5063 97c0 0713 9640 0134 fac0
000001a0: ff5c a840 18e6 5cc0 1185 29c1 3f11 a3bf
000001b0: e827 89c0 ef15 8bc0 c6fe b6c0 5e0d dfbe
000001c0: 1e15 57c0 4914 6240 4c53 47c0 6ab1 4a40
000001d0: 17f4 c8c1 d182 13c1 f7d3 4dc1 f22c c2c0
000001e0: 5f77 4cc1 82f0 aec0 b78b a3be 93e1 8b40
000001f0: 78a5 0041 eaa4 bbc0 3ec3 07c1 53dc 51c0
00000200: 5866 3b41 6d7f 84c1 4c2c 63c1 2f87 6c40
00000210: 4a9b ff40 1327 8040 7c6d 9dbf e155 4cc1
00000220: 334d ffc0 8e73 c73e 1f08 d8c0 2323 3e41
00000230: e70b 66c1 dc6c 74c0 228e 1b40 6686 06c0
00000240: be31 71c1 36f2 48bf ee9c fa40 35f3 25c1
00000250: 118f 8ec0 cd69 0040 3606 6d40 6d2b 35c1
00000260: d4bc 6e40 8fec 19bf c21e 0cc0 e0c7 8d3e
00000270: 6a67 29c0 a5e6 5fc0 9026 df40 b0aa d1c0
00000280: bdc4 20c0 7ce8 2cc1 5604 4ac0 647f 8ec0
00000290: 21b9 da40 6cac c2bf 6f53 1141 45c4 90c1
000002a0: 8b71 063f c89f 86bf 8b6b 0ac0 038c aec0
000002b0: 24e0 2bc1 13aa 4440 27db 8ebf 3c7b 3cc1
000002c0: 93d0 803f b900 04c1 f6d4 97c0 8928 a1c0
000002d0: 8755 e4c0 43a6 4cc1 2426 5bc1 936a 8fc1
000002e0: b5b3 77c1 a115 cfbf 368f 05c1 42de 3040
000002f0: 062e 0740 7b19 17c1 45f3 29c1 3d1c db3f
00000300: 366d fa3f d004 5cc1 0089 48c1 207b af40
00000310: 9062 4dbf e22b d3be 7a38 6ec1 22e0 bdc0
00000320: 144a 3140 8290 f3c0 fe95 42c1 7a48 f23f
00000330: 2e78 3fc1 773b bdc0 5d0c 8fbe bb27 d1c0
00000340: 4438 8dc0 cc57 9040 e5a9 ca40 b16c 5ebf
00000350: dcbb 1741 fd36 20c1 272c 32bf 3865 19c1
00000360: 9fe9 d940 795f eac0 8511 9dc0 8a23 1d40
00000370: 44f1 c3c0 1c8a 3140 ebe3 19c0 021a 55c0
00000380: fd07 69c0 0972 28c1 7a9f 14c1 19e8 bb3f
00000390: 68e8 1140 10fd 9240 9dd0 b340 ce0b f0c0
000003a0: cb11 9e40 f257 25c1 aeaf 1441 dd16 2a40
000003b0: 370c 30c1 62d5 03c1 df30 8d40 cb09 c5c0
000003c0: 185e 02bf bfab c5c0 f8bf a4c0 5cc1 54c1
000003d0: 7eb8 19c1 e279 16c0 d373 14c1 993b 9ec0
000003e0: 3054 2dc1 f486 0dc1 d5b7 b4c0 3f72 d240
000003f0: 1c44 0dbd 397d 9340 2326 ba40 0f23 643f

fc1.bias f4 [256]
1.4538907 -14.900543 -12.469956 -4.706125 -11.55704 -8.032296 -6.6958337 -10.231862
-1.4344969 -2.9383833 -22.599508 -16.215868 -11.421184 -6.065279 1.4184506 -12.851203
-16.084808 -17.75874 -13.784415 -20.103508 -22.674538 -15.430571 1.4023306 -12.88128
-5.356877 -15.4018755 -20.775726 -14.569109 -3.8062515 8.216008 -10.943358 -12.30527
-12.278326 -9.337905 -7.0003533 -18.038776 -11.929257 -8.531833 -18.41314 -19.804466
-14.751342 11.659042 -2.604721 13.537462 -8.820123 -12.107765 -16.88696 -14.208153
-4.611299 9.666414 -7.159189 1.5410191 -19.570208 -13.251363 8.275724 -7.3971996
-16.94467 -13.54256 -8.817623 -9.694434 -15.147975 -17.652235 -14.58204 -14.060687
-7.579129 -13.477316 -18.142494 10.903383 -5.490324 -5.6336417 -13.37256 -18.557426
-11.525017 -20.220049 -2.5486863 -16.907837 -16.906378 -8.027769 -13.601157 -5.4203143
-18.041939 -3.642428 10.153064 -5.935247 28.80264 -6.691299 -18.516758 -17.418322
2.113392 -6.106384 -3.5742934 -21.731916 -9.965944 -8.943774 -18.383919 -14.6842375
-14.361187 -18.126629 -0.03309929 -11.225428 -17.898872 34.657166 -19.384506 -11.732858
-13.162264 -11.545518 -19.203442 -22.819654 -13.927332 -15.705626 -10.827018 -16.13895
-2.0029032 -10.57613 -13.200124 -20.013912 -15.654164 1.9447284 -3.5937552 -16.892332
35.242035 -15.833776 20.330708 10.069196 -3.3927395 -13.35165 -18.671871 -10.755544
-7.434273 -14.295613 -0.85105175 -14.333834 -15.171374 -23.440403 -11.273096 -16.68443
-9.602282 -19.277124 9.586473 -7.934278 -10.889131 -10.429047 -11.779666 -22.256985
-6.1447268 -21.29569 -22.495659 -14.817665 -8.124931 -10.452509 -8.60788 -0.94902015
-20.966558 -14.279146 -17.739841 -11.974433 -9.324255 -18.990446 -3.8466756 -10.448019
-2.30068 4.06403 -17.769394 -20.886381 -9.471566 -4.929593 -8.736638 -13.07544
-12.349914 -3.188436 -1.1712162 -12.92729 -16.971552 -18.592424 -15.596803 -17.573366
-9.925909 -12.147875 -14.804065 -0.37996638 -13.208863 -11.568125 -16.177902 -1.5626192
-7.8391714 -10.832204 -9.957916 -5.1964526 -10.78917 -12.669808 -4.349372 -18.54645
-0.70164585 -4.594734 -9.390996 -6.643605 -12.10056 -9.157731 -21.750998 3.638033
-1.3550694 -13.788132 -9.582167 -15.611465 -8.295365 -11.297272 -6.2255244 -15.820987
-17.28896 -19.478306 -15.539634 -16.665377 -8.004913 -10.875759 -15.681226 -17.291487
-16.08719 -10.448591 -14.028354 -18.664928 -15.042138 -5.147268 17.039812 -13.186667
-17.265078 -12.926761 0.5883163 -8.888477 -17.13135 -10.58629 -22.566492 -14.602179
-8.134647 12.37458 -15.0303135 -2.8856893 -6.8945293 -19.305002 -12.740545 -11.515965
-9.285105 -7.4578795 -13.717118 -18.248125 -12.354334 20.053616 -11.560115 -11.292283
-19.74024 -16.856628 2.639603 -18.74571 -8.369114 -11.419352 -2.7376666 -13.336487
00000000: 1719 ba3f a068 6ec1 f184 47c1 9398 96c0
00000010: a3e9 38c1 4984 00c1 4544 d6c0 b5b5 23c1
00000020: 989d b7bf 790e 3cc0 cbcb b4c1 19ba 81c1
00000030: 2bbd 36c1 c416 c2c0 ca8f b53f 879e 4dc1
00000040: b0ad 80c1 e611 8ec1 f78c 5cc1 fcd3 a0c1
00000050: 7465 b5c1 9ee3 76c1 927f b33f b919 4ec1
00000060: 896b abc0 156e 76c1 b034 a6c1 121b 69c1
00000070: a099 73c0 c574 0341 ff17 2fc1 63e2 44c1
00000080: 0674 44c1 0f68 15c1 e502 e0c0 6a4f 90c1
00000090: 3dde 3ec1 6382 08c1 1c4e 93c1 8c6f 9ec1
000000a0: 7f05 6cc1 708b 3a41 c0b3 26c0 7299 5841
000000b0: 391f 0dc1 68b9 41c1 7e18 87c1 9854 63c1
000000c0: c38f 93c0 a2a9 1a41 1418 e5c0 1d40 c53f
000000d0: c98f 9cc1 9505 54c1 5e69 0441 dcb5 ecc0
000000e0: af8e 87c1 53ae 58c1 fc14 0dc1 671c 1bc1
000000f0: 1b5e 72c1 c737 8dc1 0950 69c1 93f8 60c1
00000100: 3a88 f2c0 16a3 57c1 d423 91c1 4274 2e41
00000110: bcb0 afc0 cb46 b4c0 01f6 55c1 9c75 94c1
00000120: 7866 38c1 a9c2 a1c1 ad1d 23c0 4043 87c1
00000130: 4340 87c1 be71 00c1 579e 59c1 3773 adc0
00000140: e455 90c1 8a1d 69c0 f372 2241 8bed bdc0
00000150: cf6b e641 1f1f d6c0 5222 94c1 b958 8bc1
00000160: d141 0740 7f67 c3c0 39c1 64c0 f7da adc1
00000170: 8274 1fc1 b319 0fc1 4412 93c1 a3f2 6ac1
00000180: 6cc7 65c1 5603 91c1 1f93 07bd 5a9b 33c1
00000190: e430 8fc1 f0a0 0a42 7813 9bc1 c9b9 3bc1
000001a0: a298 52c1 71ba 38c1 a6a0 99c1 a78e b6c1
000001b0: 5ad6 5ec1 3e4a 7bc1 773b 2dc1 921c 81c1
000001c0: 912f 00c0 d437 29c1 b533 53c1 7e1c a0c1
000001d0: 7577 7ac1 dcec f83f 1600 66c0 7f23 87c1
000001e0: d8f7 0c42 2657 7dc1 4aa5 a241 6d1b 2141
000001f0: a522 59c0 5ca0 55c1 fe5f 95c1 b516 2cc1
00000200: 90e5 edc0 d5ba 64c1 87de 59bf 6257 65c1
00000210: f3bd 72c1 f285 bbc1 9a5e 34c1 b679 85c1
00000220: f2a2 19c1 8d37 9ac1 3262 1941 9be5 fdc0
00000230: e139 2ec1 60dd 26c1 8379 3cc1 4e0e b2c1
00000240: 9aa1 c4c0 935d aac1 1cf7 b3c1 2815 6dc1
00000250: b8ff 01c1 7a3d 27c1 e0b9 09c1 fcf2 72bf
00000260: 83bb a7c1 6277 64c1 32eb 8dc1 4797 3fc1
00000270: 2630 15c1 6fec 97c1 ef2f 76c0 162b 27c1
00000280: 573e 13c0 890c 8240 b827 8ec1 4f17 a7c1
00000290: 898b 17c1 3abf 9dc0 45c9 0bc1 0135 51c1
000002a0: 3f99 45c1 560f 4cc0 6aea 95bf 2ed6 4ec1
000002b0: bdc5 87c1 49bd 94c1 818c 79c1 4196 8cc1
000002c0: 86d0 1ec1 b25d 42c1 73dd 6cc1 f48a c2be
000002d0: 8157 53c1 0a17 39c1 586c 81c1 e803 c8bf
000002e0: 7eda fac0 b550 2dc1 a053 1fc1 5749 a6c0
000002f0: 71a0 2cc1 89b7 4ac1 0e2e 8bc0 215f 94c1
00000300: 109f 33bf 1008 93c0 8541 16c1 6a98 d4c0
00000310: e59b 41c1 1186 12c1 0b02 aec1 88d5 6840
00000320: ea72 adbf 309c 5cc1 8e50 19c1 90c8 79c1
00000330: d1b9 04c1 a0c1 34c1 7f37 c7c0 c322 7dc1
00000340: ca4f 8ac1 92d3 9bc1 57a2 78c1 b152 85c1
00000350: 2014 00c1 1c03 2ec1 4de6 7ac1 f754 8ac1
00000360: 91b2 80c1 6e2d 27c1 2374 60c1 c651 95c1
00000370: 99ac 70c1 6bb6 a4c0 8951 8841 97fc 52c1
00000380: e11e 8ac1 03d4 4ec1 e69b 163f 3437 0ec1
00000390: 010d 89c1 7261 29c1 2d88 b4c1 86a2 69c1
000003a0: 8427 02c1 48fe 4541 2a7c 70c1 22af 38c0
000003b0: fc9f dcc0 a570 9ac1 46d9 4bc1 6541 38c1
000003c0: ca8f 14c1 f3a6 eec0 5179 5bc1 29fc 91c1
000003d0: 5aab 45c1 ce6d a041 3bf6 38c1 31ad 34c1
000003e0: 03ec 9dc1 60da 86c1 41ef 2840 37f7 95c1
000003f0: e4e7 05c1 aab5 36c1 ee35 2fc0 4062 55c1

bn4.weight f4 [256]
11.23175 0.08932132 -0.4278773 0.18681292 5.838665 0.28899488 2.0668845 1.6744231
5.0874834 -0.38256204 -0.77390033 -0.27580157 -1.9559423 7.119329 11.127374 -5.3593373
0.089803666 -1.7431046 -2.0286918 1.3503101 -3.428073 -0.209251 0.4971086 3.6676006
-2.2278903 -4.6438785 -2.8179007 -3.2539992 -0.058205172 1.6702069 0.1092389 -0.17646185
0.020014832 -1.6164788 0.5428596 -1.6757102 -0.6146434 1.3513076 0.37818635 5.7051387
1.9502598 -0.13683146 0.5199556 0.75848114 -0.70929694 0.12212284 0.0088432375 4.134544
-0.0007246763 -0.01356975 -1.8505838 8.559694 1.1758949 3.73696 -0.84530824 3.034793
-0.51769376 -0.4005342 -0.25388452 -2.3536997 -0.96284735 1.6259601 1.0168762 0.72675717
-0.09770037 -0.61412483 0.22313899 -0.14568973 -0.47336152 0.2606205 1.2105099 2.0164917
-1.0112365 -7.445394 0.75166625 4.488615 -0.15476757 0.12537354 4.7534676 -0.038363535
-1.8193685 9.5554905 0.5797594 -0.13397695 1.2318342 -0.7393969 -0.74581075 -0.50800353
0.269047 0.1809465 -0.7247514 1.4925088 -0.19585915 0.03532495 0.82606244 -0.65375596
0.19505553 0.011008807 11.059414 0.10181499 1.1001363 0.57159615 0.26101944 0.578452
2.412081 0.24290574 1.8025448 -0.51224655 -1.9323083 1.8044087 -4.8063707 2.1815524
0.84181094 1.8976028 1.070148 -1.1397861 -3.7773182 7.454386 0.43825984 1.3258507
0.5226098 -1.2189043 -0.5924176 10.8595085 -1.9537472 2.4595819 0.7359551 1.8057392
-0.55786234 -1.8203775 -1.8077044 -1.00744 0.40278628 -1.1379083 1.5322684 -0.7612528
-0.8946366 1.1922067 -0.08210401 0.27890232 -0.93154806 -0.55535024 0.5771361 1.3762335
0.27622783 3.8727248 -0.7952009 0.0047719176 -0.7594349 -1.7769979 -1.7887892 -0.77045095
0.059370816 0.018533297 -2.2280538 3.8487086 2.7844615 2.349521 10.099388 2.3531175
14.12512 -0.13794316 2.108961 -3.787361 -1.795079 0.5067981 -1.4867743 0.5557178
1.0013463 -0.45572674 -0.30490658 2.0370932 -2.205045 -4.6826563 -1.4958373 3.682455
1.3019586 3.5933952 1.9853423 9.755166 -1.4188856 3.0225458 -0.2114332 7.911847
0.21117784 -0.45086175 -1.6277097 0.54400903 -0.12321595 -0.43915805 -1.3004454 4.118334
1.4808229 -0.19172427 -1.4323803 -3.6302526 -0.59053135 0.8405802 -0.2914681 9.959317
-2.025178 0.69775873 9.05622 -1.5826398 -0.8180964 -3.5645728 1.1524142 -1.3790302
0.38062033 -1.7300202 -5.6562753 -1.6098571 -3.0201812 -0.9007016 -0.32794392 -3.5393188
0.13945991 0.1261305 -1.2694215 2.8027623 2.8819683 -0.721026 -0.16905504 3.0046604
1.4058832 -0.88543516 9.268713 0.088347904 -1.2478304 0.5806247 3.0994554 -2.59158
1.6304986 9.677327 3.1954675 -0.39288548 -0.5137774 -0.7057718 -0.07357663 1.3325869
-1.9113331 -1.8566811 0.47522962 -2.0237005 0.10530229 -0.37979186 1.1704286 0.03955038
0.9934391 -1.5332088 6.783227 -4.316109 1.3394043 0.31251314 10.393517 5.1112084
00000000: 3fb5 3341 19ee b63d bc12 dbbe e34b 3f3e
00000010: 58d6 ba40 23f7 933e d647 0440 7f53 d63f
00000020: aacc a240 2cdf c3be 551e 46bf dd35 8dbe
00000030: 515c fabf 8bd1 e340 b909 3241 b17f abc0
00000040: fcea b73d 0d1e dfbf 16d6 01c0 f6d6 ac3f
00000050: 8c65 5bc0 e545 56be 0585 fe3e f8b9 6a40
00000060: c195 0ec0 a79a 94c0 7c58 34c0 8641 50c0
00000070: 8c68 6ebd 57c9 d53f a5b8 df3d 6ab2 34be
00000080: 25f6 a33c c7e8 cebf d9f8 0a3f ac7d d6bf
00000090: 4559 1dbf a6f7 ac3f a4a1 c13e 7f90 b640
000000a0: 1da2 f93f 8c1d 0cbe cf1b 053f d22b 423f
000000b0: 7c94 35bf 8a1b fa3d 3ae3 103c 2f4e 8440
000000c0: 34f8 3dba a853 5ebc eedf ecbf 82f4 0841
000000d0: b983 963f 5a2a 6f40 1f66 58bf 0c3a 4240
000000e0: 9487 04bf d212 cdbe 27fd 81be 04a3 16c0
000000f0: 2a7d 76bf 761f d03f 0029 823f c20c 3a3f
00000100: 2217 c8bd 4937 1dbf 8c7e 643e b02f 15be
00000110: 715c f2be 0d70 853e fdf1 9a3f 330e 0140
00000120: 3370 81bf ab40 eec0 336d 403f bca2 8f40
00000130: 647b 1ebe ec61 003e 681c 9840 1523 1dbd
00000140: 11e1 e8bf 4ae3 1841 1d6b 143f 4131 09be
00000150: beac 9d3f 1e49 3dbf 74ed 3ebf 850c 02bf
00000160: 87c0 893e 0a4a 393e 4f89 39bf 870a bf3f
00000170: 4d8f 48be e5b0 103d d478 533f 8d5c 27bf
00000180: a3bc 473e 495e 343c 5cf3 3041 6184 d03d
00000190: 44d1 8c3f 2054 123f 57a4 853e 6e15 143f
000001a0: 895f 1a40 48bc 783e cab9 e63f 9722 03bf
000001b0: e155 f7bf ddf6 e63f cacd 99c0 8e9e 0b40
000001c0: ec80 573f a6e4 f23f 9cfa 883f 83e4 91bf
000001d0: 95bf 71c0 558a ee40 9863 e03e 7ab5 a93f
000001e0: c1c9 053f 0e05 9cbf aea8 17bf 8cc0 2d41
000001f0: 6314 fabf ca69 1d40 8e67 3c3f 7622 e73f
00000200: 11d0 0ebf 2102 e9bf dc62 e7bf cbf3 80bf
00000210: 013a ce3e fba6 91bf 5f21 c43f 77e1 42bf
00000220: e706 65bf 3b9a 983f 2626 a8bd 49cc 8e3e
00000230: ef79 6ebf 6f2b 0ebf 31bf 133f 6b28 b03f
00000240: bc6d 8d3e b9da 7740 4992 4bbf bf5d 9c3b
00000250: 536a 42bf ab74 e3bf 0bf7 e4bf 463c 45bf
00000260: d02e 733d 24d3 973c 6f98 0ec0 3e51 7640
00000270: 9e34 3240 8d5e 1640 1897 2141 7a99 1640
00000280: 7e00 6241 f940 0dbe 38f9 0640 1f64 72c0
00000290: 26c5 e5bf 85bd 013f 9f4e bebf 8643 0e3f
000002a0: 1e2c 803f 0455 e9be b71c 9cbe bc5f 0240
000002b0: 751f 0dc0 52d8 95c0 9977 bfbf 58ad 6b40
000002c0: 94a6 a63f 30fa 6540 b21f fe3f 2915 1c41
000002d0: 0b9e b5bf 6471 4140 f281 58be da2d fd40
000002e0: 013f 583e 5ad7 e6be cb58 d0bf 2d44 0b3f
000002f0: a558 fcbd 53d9 e0be ff74 a6bf 64c9 8340
00000300: 9b8b bd3f 5e53 44be 3d58 b7bf 0f56 68c0
00000310: 102d 17bf 4430 573f 4f3b 95be 5d59 1f41
00000320: 849c 01c0 51a0 323f 47e6 1041 f193 cabf
00000330: c46e 51bf f621 64c0 4f82 933f 1084 b0bf
00000340: abe0 c23e 4d71 ddbf 3500 b5c0 cc0f cebf
00000350: a64a 41c0 6194 66bf 44e8 a7be 3384 62c0
00000360: 94ce 0e3e 5b28 013e 677c a2bf 7560 3340
00000370: 2b72 3840 2995 38bf c41c 2dbe 5b4c 4040
00000380: fbf3 b33f e1ab 62bf a64c 1441 bfef b43d
00000390: e8b8 9fbf d2a3 143f 7a5d 4640 72dc 25c0
000003a0: 2eb4 d03f 55d6 1a41 8a82 4c40 4928 c9be
000003b0: ea86 03bf 76ad 34bf 58af 96bd 3592 aa3f
000003c0: 90a6 f4bf baa7 edbf 4c51 f33e 4f84 01c0
000003d0: baa8 d73d 1474 c2be 9bd0 953f 94ff 213d
000003e0: 0652 7e3f 3040 c4bf 3210 d940 911d 8ac0
000003f0: 9a71 ab3f b901 a03e d84b 2641 058f a340
