mini_batch_exp/models/mnist_sgd_batch32768_lr0.1.pt (torch_old, 326372 bytes, 26 tensors)

conv1.weight f4 [16, 1, 3, 3]
000000 d2 b7 41 3b 31 57 18 be 7b 4b 43 3d db 50 1e 3e
       0.0029559028 -0.14877011 0.047679406 0.15460531
000010 f9 c9 49 be f7 94 94 3e 65 1d fc bd 3c 21 d2 3d
       -0.19705953 0.290199 -0.12310294 0.10260245
000020 0a bd a1 3e 94 35 ef bc c0 10 40 3e 8a f4 73 bd
       0.31589538 -0.029200353 0.1875639 -0.059559382
000030 71 57 8c 3e 9b 5d 53 be 6c a3 0a be 89 d5 01 3e
       0.27410462 -0.20641176 -0.13538903 0.12679113
000040 10 5e 19 bb d5 cc 94 bd e1 9f ae bd e4 54 c6 bd
       -0.0023402013 -0.07265631 -0.08526588 -0.0968416
000050 74 c7 3b 3e 67 3b 9f be fa a2 8b 3e bd 36 2b 3e
       0.18337804 -0.31100008 0.2727278 0.167201
000060 10 67 1f be 81 75 8c bb 6a 29 c4 bd 5a 5d 44 3d
       -0.15566659 -0.0042864685 -0.095782116 0.04794059
000070 c0 5d 00 3e 1f 2d 92 be cc 51 cb bd 5a 28 a2 be
       0.12535763 -0.2855005 -0.09927711 -0.3167141
000080 a3 80 95 be 17 73 51 3d 7b 43 1f 3e c0 7e 97 3e
       -0.29199705 0.05113515 0.15553086 0.2958889
000090 e9 cd 2b 3e d6 08 03 3e 74 2f a3 be ca 63 49 bd
       0.16777767 0.1279634 -0.3187214 -0.049167432
0000a0 3b c6 98 bc 07 db d2 b9 37 67 a4 3e 6d a6 70 3e
       -0.018649211 -0.0004021751 0.32109997 0.23500986
0000b0 f0 89 9d bd 3d 52 81 be 17 64 76 3e 10 5c 6e be
       -0.07692325 -0.25258055 0.24061619 -0.23277307
0000c0 fb 65 8d be fa d5 fd 3d a7 95 7f 3e 9b fb 9f be
       -0.27616867 0.123943284 0.24959432 -0.31246647
0000d0 65 bc 8c be de 8f 9a 3e 34 20 89 be e8 aa 6f 3d
       -0.27487484 0.30187887 -0.26782382 0.0585126
0000e0 55 e7 8e be b7 06 2f 3e 45 db 10 3d 3f 49 ed bd
       -0.27910867 0.17092405 0.03536536 -0.11586236
0000f0 5c 26 12 3e a0 b3 4e be 97 bb 5c 3e 3b 32 73 3e
       0.14272445 -0.20185709 0.21555935 0.2374963
000100 2c 80 8e be cb d7 63 3e c0 14 59 bd 62 f0 ca bc
       -0.27832162 0.22250287 -0.052998304 -0.024772827
000110 24 7b a6 3e 84 db b3 bd 1c 4c 9f be 22 19 9e 3e
       0.32515824 -0.08782104 -0.31112754 0.3087855
000120 f8 da ab be 52 e3 52 3d da 41 f4 bd 86 7f 89 3e
       -0.33565497 0.05148632 -0.11926623 0.26855105
000130 a1 66 99 be 9e a4 ab bd 3b 26 7a 3d 68 93 83 3e
       -0.29961112 -0.083810076 0.061071616 0.256984
000140 53 75 11 be 66 b0 8e 3c d3 70 e3 3d 2b 5f 49 3e
       -0.14204912 0.017418098 0.11105504 0.1966521
000150 1d d7 db 3d 93 bd 8e 3e fa a9 9f 3d 3a 13 03 3d
       0.10734389 0.2787901 0.07796092 0.032000758
000160 24 2e 91 be e4 be 02 3e 92 f4 be 3d cb a3 1b be
       -0.28355515 0.12768131 0.09323992 -0.15199201
000170 c6 3d 96 be aa 34 06 3e f0 e2 e0 bd 3f 39 bc bc
       -0.29344004 0.13106027 -0.10980785 -0.022976516
000180 d1 00 14 be 16 db 82 be 08 73 db 3d 70 b7 25 be
       -0.14453436 -0.25557774 0.107153 -0.16183257
000190 6c ba 4e bd 43 07 c3 3d 25 fc 27 bd 31 d1 9e 3e
       -0.050470755 0.095228694 -0.04101195 0.31018975
0001a0 6c 80 14 3e 0a f3 89 3e 32 c4 84 be 66 e8 81 be
       0.14502114 0.26943237 -0.25930935 -0.25372618
0001b0 e4 3e 7d bc e5 cf 83 3e 7e 2b d8 bc 8c 4b 7c 3e
       -0.015456889 0.25744548 -0.026387926 0.24638194
0001c0 37 61 c4 3d e6 fb 0f 3e 30 0a aa be f1 c5 e2 bd
       0.09588855 0.14060935 -0.33210897 -0.110729106
0001d0 aa 34 36 bd b3 0e a5 3e df 5f b3 3d 9a 4a 73 3e
       -0.044483818 0.32237777 0.0875852 0.23758927
0001e0 89 46 9b 3d 65 86 50 3e 9d 92 c7 bd 4c 73 a7 3e
       0.07581813 0.20363767 -0.09744761 0.32705152
0001f0 24 31 7d bd 44 a5 39 be 33 cb 3b 3d 6c 55 1a bb
       -0.061814442 -0.1812945 0.045848083 -0.002354945
000200 84 cf af be b5 34 2a 3e 02 a8 51 3e 09 77 cc 3d
       -0.3433801 0.16621669 0.20474246 0.09983642
000210 06 fb 10 3e f2 a6 84 be 8c 96 89 be c6 cd 8b bc
       0.14158258 -0.2590862 -0.2687267 -0.017065894
000220 37 04 06 3e 40 f1 b9 3a 35 58 72 be 5e c7 41 3e
       0.13087545 0.0014186278 -0.23666461 0.18923709
000230 08 b0 9a 3e c8 05 de bd a0 58 9e be 09 4e 6a be
       0.30212426 -0.108409464 -0.3092699 -0.2288133

conv1.bias f4 [16]
000000 9a 03 89 be f6 16 69 be 58 12 97 bd 83 bb c2 3c
       -0.2676056 -0.22762665 -0.07376546 0.023771053
000010 fa 7d c8 3d a3 73 8e be c7 19 c3 bc 19 8b a2 be
       0.09789653 -0.278226 -0.023816003 -0.31746748
000020 f0 42 0f 3e 56 b5 b4 3d 3d fa 90 be 05 d4 80 3d
       0.13990378 0.088236496 -0.28315917 0.062904395
000030 aa 8b 8e be 20 ca 6e 3e 9b 75 1a bd 1d c1 04 be
       -0.2784093 0.23319292 -0.037709814 -0.12964292

bn1.weight f4 [16]
000000 6b 46 7e 3f 00 ba 80 3f 63 8c 7c 3f 1c 0a 81 3f
       0.993262 1.0056763 0.98651713 1.008121
000010 c8 55 81 3f e5 0c 7d 3f 2a fa 75 3f f9 35 80 3f
       1.0104303 0.988478 0.96084845 1.0016471
000020 fa 11 81 3f c3 84 81 3f 20 e3 7a 3f 8a 9d 81 3f
       1.0083611 1.0118641 0.98002815 1.0126202
000030 96 f4 81 3f cb 1a 80 3f 32 f2 7e 3f b4 48 82 3f
       1.0152767 1.0008177 0.9958831 1.0178437

bn1.bias f4 [16]
000000 de b9 52 ba ae 5c 63 3b 6f 84 df bb 6c de 05 3c
       -0.00080385606 0.0034692693 -0.0068212072 0.008170705
000010 b5 12 0b 3b 9f db 83 bc 1c ef cc 3b 03 5f ae bb
       0.0021220867 -0.016095934 0.00625409 -0.005321385
000020 8a 41 ad 3b 51 42 fe 3a ff 26 18 bb 5a 47 1f 3c
       0.005287354 0.0019398426 -0.0023216603 0.009721601
000030 e4 76 79 3c 62 98 ff ba ab 16 84 bb 84 e2 5b 3c
       0.0152261 -0.001950037 -0.0040310225 0.013420705

bn1.running_mean f4 [16]
000000 85 76 f1 41 a3 7d 64 41 39 34 2b 41 41 61 08 41
       30.18287 14.280673 10.70025 8.523744
000010 30 86 e7 41 c6 2a 22 41 5b 3b be 40 f6 ce de 41
       28.940521 10.135443 5.9447455 27.851055
000020 16 7a 8c 40 b4 dc 1b 42 5d 4b 16 40 2b 88 65 41
       4.389903 38.96553 2.3483498 14.345744
000030 cd a0 a1 41 a0 34 5c 42 e0 a2 1c 41 ff f6 d9 40
       20.203516 55.05139 9.789764 6.811401

bn1.running_var f4 [16]
000000 c7 2b 24 45 64 b8 49 44 0c ab 23 44 48 ee eb 43
       2626.736 806.8811 654.6726 471.86157
000010 ad 8c 18 45 51 39 2f 44 db e8 40 43 fd c9 08 45
       2440.7922 700.89557 192.90959 2188.6243
000020 0a 6d 5f 43 ab e2 6d 45 17 fe 2e 42 26 ea 3e 44
       223.42593 3806.1667 43.748135 763.65857
000030 f2 6f b8 44 ba 5f f1 45 67 f5 07 44 11 3a dd 43
       1475.4983 7723.966 543.8344 442.45364

conv2.weight f4 [32, 16, 4, 4]
000000 99 02 16 bd c1 26 31 3c cd da 03 3d 50 1c 7f bd
       -0.03662357 0.010812462 0.032191087 -0.06228286
000010 0c 86 30 3c 76 8e 0f bd 5c 85 07 bd 25 29 9e bc
       0.010774147 -0.03504797 -0.033086166 -0.019306729
000020 7a f9 37 bd 7d f3 8e bc 8f 59 88 bd 5b bf 38 3d
       -0.044915654 -0.017450089 -0.06657707 0.045104366
000030 a8 f8 39 3b b9 d4 b9 3c 85 71 39 bd ff 13 55 3d
       0.002837697 0.022684442 -0.045274276 0.052021023
000040 20 08 93 3d cb 67 01 ba 59 82 47 3d 2d c0 19 3d
       0.07179284 -0.0004936426 0.048708294 0.03753679
000050 09 10 80 3d 8f 5d c6 3c f1 6d 90 bc 17 c3 98 3a
       0.062530585 0.024214534 -0.01763055 0.0011654821
000060 68 3d 31 3d bb 91 da 3c 5e a4 47 3d 86 77 30 3d
       0.043271452 0.026680818 0.048740737 0.043082736
000070 68 78 2b 3d 90 ed ff ba 7b 96 d1 3c 33 72 61 bd
       0.041862875 -0.0019525755 0.02558445 -0.05504055
000080 75 c9 2c 3d 34 f3 be 3a f6 ca 04 3d a1 70 86 bc
       0.042184312 0.001456833 0.03242012 -0.016411128
000090 d7 39 e3 bb 57 bf 34 3d e5 88 29 bc 24 e2 33 bd
       -0.0069343853 0.04412779 -0.01034758 -0.043916836
0000a0 6f e6 8f 3c 22 05 d2 bc 0a f3 20 3d f4 f1 c9 bc
       0.017565934 -0.025637213 0.03929428 -0.024651505
0000b0 40 d6 9a bc 8f ca 9e bc 29 f8 2f 3d 3c 0e 89 bd
       -0.01890099 -0.019383697 0.042961273 -0.06692168
0000c0 8c 6f 23 3d e6 cf 68 3d c4 d3 00 bd bd 4f 38 3d
       0.0399013 0.056838892 -0.031451955 0.04499792
0000d0 6f 33 23 3c 61 5d 8c 3d 9c 4f e9 bb 6e 2a a0 3c
       0.009960993 0.06853748 -0.007120086 0.019551482
0000e0 38 a9 0e 3d 47 61 ec 3c b6 07 45 bd 5d ec 78 3d
       0.03482935 0.02885498 -0.048103057 0.06077229
0000f0 d7 56 2c 3a c8 bf 03 bd 10 21 30 bd 6f e3 8d 3c
       0.00065742194 -0.03216532 -0.04300028 0.017320363
000100 1b 1e 69 3d 1a 22 da 3b 6c 1e 60 3c 69 d1 36 bd
       0.056913476 0.0066568973 0.013679128 -0.044633303
000110 6f 2f 17 3a e7 7b 94 bb de 29 e3 3b be 70 4e bb
       0.0005767261 -0.004531372 0.006932481 -0.0031500305
000120 6d 19 2c bd 5c 95 45 bd 97 c1 04 bd e0 80 90 bd
       -0.042016435 -0.048238143 -0.032411184 -0.07055831
000130 c9 92 7f bc eb 86 06 bc 8e af 10 bd 8d 6d 8d bd
       -0.015598961 -0.008210878 -0.035323672 -0.06905661
000140 4d cd 62 bc 10 52 45 bd 29 d6 15 3d a5 b1 80 3c
       -0.013842893 -0.048173964 0.036581192 0.015709708
000150 65 eb 0b 3c aa 73 0d 3c b8 de f0 bc b1 94 6e bd
       0.008540009 0.0086335335 -0.029403076 -0.058247272
000160 87 27 76 bb 5b f1 83 bd 68 6a ae 3c ae bd d1 39
       -0.0037560181 -0.06442519 0.021290973 0.0004000491
000170 ad d0 c4 bb a6 73 20 bd 23 68 8e 3c 4e 03 81 3b
       -0.0060063214 -0.03917279 0.01738364 0.0039371615
000180 1f 77 96 3b 8f 20 19 3d ed 1d 3f bc 14 77 30 ba
       0.004591837 0.037384566 -0.01166485 -0.0006731611
000190 f5 d1 ea 3b 7a f4 d7 bc a4 78 1f bc ab b3 50 bd
       0.007166142 -0.026361693 -0.009733353 -0.050952595
0001a0 b4 4b ef 3c 5d 38 22 bd 9a 75 41 bd 49 ce 37 3d
       0.029210903 -0.039604533 -0.047231294 0.044874463
0001b0 4d ce 05 3d eb 5b 34 bc 64 f8 d5 3c 63 3b 3b bc
       0.032667447 -0.011008243 0.026119418 -0.011427733
0001c0 31 42 38 bb 20 91 5d bd 39 12 41 3d 2b 26 02 bd
       -0.0028115625 -0.05409348 0.04713652 -0.03177468
0001d0 06 43 33 bd 92 e5 5b bd 7f 83 94 bc 3a 9b 34 bd
       -0.04376509 -0.053685732 -0.018129108 -0.044093348
0001e0 fd e3 06 bd e1 85 3a bd 16 9d b8 ba 4b 2b 6b bd
       -0.03293227 -0.045537833 -0.0014084901 -0.057414334
0001f0 05 81 ed bc 21 c4 15 3d ef 51 fd bc d2 65 8f bd
       -0.028992185 0.036563996 -0.030922858 -0.070018426
000200 f2 b7 18 bd e4 b8 38 bb 05 15 74 3d 52 24 25 bd
       -0.0372848 -0.0028186375 0.05959036 -0.04031784
000210 21 c3 f2 3b 05 41 e9 3c 1c 43 da bc 4d c7 ad bc
       0.007408515 0.028473387 -0.026643328 -0.021213198
000220 9e c1 09 3d 61 52 8c 3d 5b fb 3d 3d 60 97 c7 bc
       0.033631913 0.0685165 0.04638229 -0.024364173
000230 9f 83 83 3c c2 d6 5b 3d 32 0e 40 3d 7b 48 be bb
       0.016053973 0.053671606 0.046888538 -0.00580698
000240 5f ec 81 3c e7 47 68 3d eb a5 b3 3b ca 37 a6 bc
       0.01585978 0.056709196 0.0054824254 -0.020290274
000250 31 bf 2a bc 82 b4 2f 3b f6 3d 4f bc 6e 01 1b 3d
       -0.01042156 0.0026810472 -0.01264905 0.03784316
000260 04 5d 6c 3c 17 cb de 3c 67 52 48 3c 72 03 40 bd
       0.0144264735 0.02719645 0.0122266775 -0.046878286
000270 fe 6f ae 3c f9 29 c7 3a 74 f4 99 bd ed 8c 98 bb
       0.021293636 0.0015195004 -0.07517329 -0.0046554715
000280 e7 03 f5 3c fe bc 03 bd 7f b9 fd bc 1e 08 1b 3d
       0.029909087 -0.03216266 -0.03097224 0.037849538
000290 fb 81 83 bd 66 96 b1 bc 46 bf 72 3c 38 cf 6a bc
       -0.06421276 -0.02167816 0.014816111 -0.014331631
0002a0 d4 60 33 bd c9 88 43 bd 57 db 4b bd a1 ac e7 3c
       -0.043793514 -0.04773787 -0.049769726 0.028280558
0002b0 ef 82 1e bd 9a e4 0d bd 8f 85 55 bd 10 fb 28 3c
       -0.038699087 -0.03464184 -0.052129325 0.010313764
0002c0 21 23 db 3b f3 58 6d 3d da dd 0f 3d fe 34 d7 3c
       0.0066875373 0.057946157 0.035123684 0.026270386
0002d0 c6 eb 43 3d de ea fd bc 38 9e 0c 3d 9d 70 da 3c
       0.047832273 -0.030995782 0.034330577 0.026665026
0002e0 d9 8f 88 bc a9 3d b7 3b b0 3c 0c 3d 89 7f 1f 3d
       -0.016670154 0.0055920673 0.034237564 0.038939986
0002f0 72 27 24 bd 42 75 44 3d 55 ac d4 3b d3 37 f6 3c
       -0.04007668 0.04796339 0.00649027 0.030055916
000300 b3 86 30 3b 02 d3 22 bc 3c ce 04 3a 1d 59 75 bb
       0.0026935756 -0.0099380035 0.00050661317 -0.003743715
000310 d5 10 00 3d cf 30 05 3d b5 2c b6 3c 59 ba 70 3d
       0.031266052 0.03251725 0.022238115 0.058771465
000320 ae 8f 94 3c 53 5b e1 3c 0d 4d 5f 3d af 0f 52 3c
       0.018134918 0.027509367 0.05451684 0.012821122
000330 79 2d 65 3b c3 7e 17 bd 8e 13 0d 3d d8 11 db 3b
       0.003496973 -0.036986124 0.034442477 0.0066854768
000340 f0 c9 6f 3c d5 a5 1d 3d 71 a5 15 bd 53 99 1f 3d
       0.014635548 0.038488228 -0.03653473 0.03896458
000350 e9 e0 6b bb 26 e1 88 3c 7f 55 d3 bc 26 87 5e bd
       -0.0035992211 0.016708922 -0.025797604 -0.054328106
000360 ba a0 e4 3c 67 a0 92 bc 57 4b b0 bc 28 4b b2 3c
       0.027908672 -0.017898751 -0.0215203 0.021764353
000370 21 e6 89 bb 40 ec 3a bd 01 01 c0 3c 3f e5 2d 3d
       -0.0042083417 -0.04563546 0.023437979 0.042454954
000380 9f d1 de 3c 39 fb 73 ba 51 ab 1d 3d 85 c2 84 3c
       0.027199565 -0.00093071494 0.03849346 0.016206035
000390 1d 1a 88 bd 84 e1 55 bd 6e bb 16 3d ca 7d 5c bd
       -0.06645606 -0.05221702 0.03679984 -0.0538309
0003a0 f8 ef 86 bb 02 15 a2 bc 9c ce d1 3c f4 e5 43 bd
       -0.004117962 -0.019785408 0.025611214 -0.047826722
0003b0 89 47 68 bd bc 22 2e bd d4 5e e5 3c ac 31 9b 3c
       -0.056708846 -0.042513594 0.02799932 0.018944584
0003c0 07 97 81 3d e1 f7 cd 3c 70 12 14 3d ea 60 4c 3d
       0.06327634 0.025142612 0.036150396 0.049897112
0003d0 72 80 3c bd 92 0f 8f 3c 88 aa f2 bc c6 84 1f bd
       -0.046020932 0.01746348 -0.029622331 -0.038944982
0003e0 fd 05 58 3d 75 9f 41 bc 57 a6 21 bd f1 3a c4 3c
       0.052740086 -0.011817803 -0.039465275 0.023953887
0003f0 ec fc 20 bc 17 32 62 3d 1e 69 af 3c 24 d1 3c bd
       -0.009825926 0.05522355 0.021412428 -0.04609789

conv2.bias f4 [32]
000000 74 9c 07 3d 9f af 02 bc c9 4e 35 bd 81 fe 9f bc
       0.03310819 -0.007976442 -0.04426459 -0.019530537
000010 91 59 9e 3c 1f 42 3e 3c 19 fc be 3c fd 47 1a bd
       0.019329818 0.011612444 0.023313569 -0.03766631
000020 3f 40 82 3c 91 ae 41 bc f1 cc a2 3c a5 25 63 3d
       0.015899776 -0.011821405 0.019873114 0.055455822
000030 98 a2 a4 bc b3 00 49 3d f6 98 59 3d 52 d6 87 3c
       -0.020097062 0.049072932 0.05312439 0.016581688
000040 94 27 53 3c 24 9d a0 3c 93 5d 42 bd 1c ec 58 bc
       0.012887854 0.01960618 -0.04745252 -0.013239887
000050 58 5c 58 3c a6 bc 22 3d b7 c1 2d 3c 0c 6a 7d 3c
       0.01320561 0.03973069 0.010605267 0.015467178
000060 97 fc 8f 3d 16 ba 71 3c 68 76 6e bd 40 16 9e 3b
       0.070305996 0.014753839 -0.05821839 0.0048244298
000070 7a 04 06 bd 38 6d 14 3c 97 01 2d 3d 9f 15 ee bc
       -0.032719113 0.009059243 0.042237844 -0.029063044

bn2.weight f4 [32]
000000 2d 61 80 3f c0 a4 7e 3f 4e 79 7f 3f 1f 89 80 3f
       1.0029656 0.9947014 0.9979447 1.0041846
000010 e9 4a 7e 3f 5f fa 7f 3f 59 bf 80 3f 8a 71 7f 3f
       0.99333054 0.9999141 1.0058395 0.9978262
000020 2d 15 7c 3f 20 5c 7f 3f ba 19 7f 3f 1d 91 7e 3f
       0.9846981 0.99749947 0.9964863 0.99440175
000030 4e 45 80 3f 0a dd 7f 3f c7 f0 7e 3f 43 a0 7d 3f
       1.002115 0.99946654 0.9958615 0.99072665
000040 90 2d 7f 3f e5 df 7f 3f 7c 5d 82 3f c6 d0 7d 3f
       0.996789 0.9995101 1.0184779 0.9914669
000050 9e 00 81 3f 60 3b 80 3f 2f 6a 80 3f 09 8c 7b 3f
       1.0078313 1.001812 1.0032405 0.9826055
000060 41 d2 80 3f fa 61 81 3f ed 84 7f 3f cf 1f 7d 3f
       1.0064164 1.0108025 0.99812204 0.9887666
000070 71 3b 82 3f 41 c3 80 3f 8c 51 81 3f c3 2d 80 3f
       1.017439 1.0059587 1.0103011 1.0013965

bn2.bias f4 [32]
000000 f5 af 2c 3b 47 d1 69 3a 52 96 51 b7 d7 54 b3 3a
       0.0026349996 0.00089194294 -1.249237e-05 0.00136819
000010 de 0b 7e ba 1a 4d 11 3b fa ac 80 ba 5a 7d ee ba
       -0.00096910994 0.00221712 -0.0009817176 -0.0018195317
000020 34 cf ec ba d8 6f b8 ba 6d a1 db ba fe c3 16 b9
       -0.0018067122 -0.0014071418 -0.0016756483 -0.00014378128
000030 3c 94 52 3b c6 bd 68 39 fe 7d 12 ba 8a bc 25 3b
       0.0032131812 0.0002219594 -0.00055882323 0.002528938
000040 4e b4 28 ba 04 b7 ec ba ac 21 aa ba 0b d6 16 ba
       -0.0006435559 -0.0018059914 -0.0012980006 -0.0005753941
000050 77 f4 ea ba 1d 3f e0 ba ec a2 2e b8 fc c4 f0 37
       -0.0017925639 -0.0017108653 -4.1636566e-05 2.8701957e-05
000060 16 59 f1 3a 5e 48 32 bb 0f 0a e2 3a 4a 68 27 3b
       0.001841339 -0.0027203779 0.0017245429 0.002554434
000070 d0 26 11 b9 21 37 e4 3a 2b 39 a9 3b 90 71 8f ba
       -0.00013842736 0.0017411449 0.0051642857 -0.0010943878

bn2.running_mean f4 [32]
000000 3f 94 ed 3e 6e b7 27 3f a1 dd 29 3f 52 f7 03 3f
       0.46402165 0.65514266 0.66353804 0.51549256
000010 78 6f 25 3f 81 a5 0c 3f 21 b3 30 3f 93 df 5c 3f
       0.6462321 0.5494004 0.6902333 0.8627865
000020 af e0 46 3f 01 8f 4e 3f 2b 71 12 3f 52 6f 36 3f
       0.7768659 0.80686957 0.5720393 0.7126361
000030 da 59 55 3f 3f fe 72 3f bf 45 27 3f 6e 67 f6 3e
       0.8334023 0.949192 0.653408 0.48125786
000040 1a 0d 4a 3f 66 8e 0b 3f 1f dd d6 3e 5a 45 2c 3f
       0.7892624 0.5451416 0.41965577 0.6729332
000050 d6 af f9 3e e4 fa 44 3f a1 1e 11 3f 31 f8 31 3f
       0.48766965 0.7694533 0.5668736 0.69519335
000060 19 b5 10 3f f0 4d e3 3e d6 bc ef 3e b9 4c 06 3f
       0.56526333 0.443954 0.46823758 0.5246082
000070 60 3d 07 3f 3c c6 1e 3f cf c8 11 3f 4b 00 64 3f
       0.52828026 0.6202123 0.56947035 0.8906295

bn2.running_var f4 [32]
000000 a2 69 7e 3e e4 62 c5 3e 4a 79 e1 3e 94 ee cb 3e
       0.24844983 0.3855201 0.4403785 0.39830458
000010 2e 7b ed 3e 38 45 df 3e 58 f7 dd 3e ed 29 2f 3f
       0.4638304 0.43607497 0.4335277 0.6842335
000020 53 a3 e2 3e 4f fb f0 3e fd e6 b1 3e c9 c1 dd 3e
       0.44265231 0.47066733 0.34746543 0.4331191
000030 8d 54 37 3f 04 34 39 3f 9a 84 a0 3e 4e e1 a2 3e
       0.7161339 0.72344995 0.31351167 0.3181252
000040 5f 78 f3 3e 42 d5 86 3e ec 22 49 3e ef ca 0c 3f
       0.47552773 0.26334578 0.19642228 0.5499715
000050 f6 9c 90 3e 54 cd 37 3f b1 3f bb 3e d8 48 09 3f
       0.28244752 0.7179768 0.3657203 0.53626776
000060 3b d9 8c 3e bd 8d 45 3e 95 5b 8c 3e 2b 76 52 3e
       0.27509484 0.1929235 0.27413622 0.2055289
000070 19 43 ac 3e 9a fb a8 3e 82 6c 73 3e ca fd 1a 3f
       0.3364494 0.33004457 0.23771861 0.605435

conv3.weight f4 [64, 32, 5, 5]
000000 3e ae d2 3c 0e 3a ad bc 64 93 30 3c c1 4a de bc
       0.02571785 -0.021145847 0.010777328 -0.027135255
000010 16 fe 7b bc 9f 86 03 3b c3 a9 ec ba e0 5a cb bc
       -0.015380403 0.0020069254 -0.0018055964 -0.024823606
000020 b3 88 da 3c 87 21 fb bc 38 bd d2 bb c3 91 d9 bc
       0.026676511 -0.030655636 -0.006431248 -0.026558762
000030 16 0e 58 bc 0d 62 96 3c 67 ae 2c bd 48 a0 39 bc
       -0.013186952 0.018357301 -0.04215851 -0.011329718
000040 04 75 6b 3b a0 1e a5 bc cc 7e a3 3b 19 f7 30 bc
       0.00359279 -0.020156205 0.0049894806 -0.0108011
000050 b2 57 99 ba c3 c6 08 3d 85 10 f4 3c 04 ea a6 bb
       -0.0011699109 0.03339268 0.029793033 -0.005093815
000060 4b d9 aa bc e0 47 c6 bc 19 6c 3f 3c a6 f0 70 3b
       -0.020855566 -0.024204195 0.011683487 0.0036764531
000070 72 73 cf 3c 7c 98 b9 3c 37 1c 12 3a d9 8c 22 3d
       0.025323603 0.022655718 0.00055736623 0.039685104
000080 3b d1 87 bc 82 4f 51 bc 4f 7c 11 bd 96 8b 89 bb
       -0.016579261 -0.012775304 -0.03551894 -0.004197548
000090 23 4c 92 3c 48 64 de bc 2f 43 11 bd 65 30 42 3c
       0.01785857 -0.027147427 -0.035464462 0.0118523585
0000a0 8a 73 12 3a 55 20 90 bc 53 53 4e 3c 81 b1 17 bd
       0.00055866747 -0.017593542 0.012593108 -0.037034515
0000b0 07 a4 84 3c c3 a3 34 3c 9e e3 16 bd a6 93 d7 3b
       0.016191496 0.011025372 -0.036838166 0.0065788804
0000c0 ae c6 82 3a 4a 2c 08 3d 29 e2 82 3c 60 fb 91 3c
       0.0009977424 0.033245362 0.015976982 0.01782006
0000d0 0c b5 02 ba e8 48 3f bc 5c 2d 07 bd 13 8a 30 bd
       -0.00049860845 -0.011675097 -0.033002242 -0.043100428
0000e0 5a 1b fe 3c 69 ed c5 3c d0 41 a5 3c 80 af 41 bc
       0.031018902 0.024161058 0.020172983 -0.011821628
0000f0 92 39 45 bc d7 8d f2 3c 61 01 92 b8 8a 7d 30 3c
       -0.012037652 0.02960865 -6.962079e-05 0.010772118
000100 41 41 d0 3c cb 6d ba 3c aa 70 68 bc 68 7e a3 3c
       0.02542174 0.022757431 -0.014187017 0.019957736
000110 d6 75 e5 b9 ed 68 f3 bb b4 29 99 3c 72 55 ff 3c
       -0.00043766078 -0.0074282796 0.018696643 0.031168673
000120 0a 51 97 bc f1 c7 c5 39 8b d7 04 3b 97 b9 0a bd
       -0.01847126 0.00037723736 0.0020270075 -0.0338684
000130 93 b7 25 bd 08 e1 d7 bb 1b 25 a0 bc 00 31 df 3c
       -0.040458273 -0.006588105 -0.019548943 0.027245045
000140 52 b3 1e bc 7f 86 b9 3c a9 d6 af 3c 16 54 01 bc
       -0.009686308 0.02264714 0.021464663 -0.007893583
000150 c6 98 7a 3c ac 5c 94 3c 0c 62 ab ba 2e bd 65 bb
       0.015295213 0.018110596 -0.0013075485 -0.0035055387
000160 40 b3 24 bd 3d 40 e8 3a 70 56 c5 3c 0b 04 b5 3b
       -0.04021001 0.001771934 0.024089068 0.0055241636
000170 82 10 cc ba 3f 2f 7c 3b bf 3f 31 3d 99 2a 90 bc
       -0.0015568885 0.003848031 0.043273684 -0.017598437
000180 de 68 8c bc 27 cc b7 bc a7 cd 0e bc 80 fc 0d 3d
       -0.017139848 -0.022436215 -0.0087160235 0.03466463
000190 04 96 96 3b b0 d2 94 3c c0 bc 86 bc 29 d9 f3 3c
       0.00459552 0.01816687 -0.016447425 0.029766636
0001a0 9d d3 da 3c fe 89 da bc 39 b2 0f bc c2 61 97 bc
       0.026712233 -0.026677128 -0.008770519 -0.018479232
0001b0 55 c9 cf 3b 32 d7 d4 bc 52 40 12 bb 55 39 86 3b
       0.0063411393 -0.02598152 -0.002231617 0.00409619
0001c0 4e 5a 9c ba 5e e6 d6 bc 0b 86 02 bd 42 6d 05 bd
       -0.0011928768 -0.026232895 -0.031866115 -0.0325749
0001d0 a0 78 08 3c bd 07 31 3c 3b 9b 9d 3b f6 d7 44 bb
       0.0083295405 0.010805068 0.0048097647 -0.003003595
0001e0 49 55 0e 3c cc 0d af 3c 3a d4 97 3c 9d ee d7 ba
       0.008687326 0.021368884 0.018533815 -0.001647431
0001f0 d0 a2 a3 3b 92 e9 24 bc 40 3d 58 bc bd fe fe bc
       0.004993774 -0.010065453 -0.013198197 -0.031127328
000200 3e 73 e3 bc b7 b4 1b 3b 4a 6f 88 3c 07 ba d4 3c
       -0.027764913 0.0023758837 0.01665463 0.025967611
000210 bd 6c 8d bc 95 93 00 bd af a9 11 bd 5b 03 00 3d
       -0.017263765 -0.031390745 -0.035562214 0.0312532
000220 10 68 18 3c 5f 77 cb bc d5 b6 bc 3c 4f b0 4d bc
       0.009302154 -0.024837194 0.0230364 -0.012554242
000230 f0 a4 45 bb ba e1 99 3a 71 ae ff 3b c5 2d 50 3a
       -0.0030158125 0.0011740245 0.0078027775 0.00079413905
000240 fd 1b 10 ba bc ab 15 3d 85 82 89 3b fa 7b fe 3c
       -0.00054973346 0.03654073 0.0041964673 0.031064976
000250 56 b8 ae 3c a1 74 da 3c ca 1c 02 bd 7e 96 3d bc
       0.021328133 0.026666941 -0.031765737 -0.011571525
000260 c1 8f 01 bd 8d cb 23 bd 80 d7 87 3b f3 90 92 3b
       -0.031631235 -0.039989043 0.0041455626 0.0044728457
000270 ab c3 c3 bb 5c 3c d6 bc 7b a8 ec bb 7e 87 ec bb
       -0.005974253 -0.026151828 -0.007222233 -0.0072183004
000280 22 b3 c2 bb 17 24 c9 3c 22 93 9d 3b 74 01 1a bc
       -0.0059417645 0.024553342 0.0048087994 -0.0093997605
000290 89 8f b2 3c 3e ed c8 3c 76 76 26 3d 25 a2 7a 3c
       0.021796959 0.024527188 0.040640317 0.015297447
0002a0 50 9c 06 3d 31 70 c6 bc dd bb 01 bd 63 bb 4b bc
       0.032863915 -0.024223419 -0.0316733 -0.012434813
0002b0 16 ae c9 bc 71 32 2b 3c a7 36 0a bd 3d 13 c1 3b
       -0.024619143 0.010449038 -0.033743527 0.005892186
0002c0 b0 67 9c 3c fc 46 11 bd 4c 6f 3c 3b d1 55 5e 3c
       0.01909241 -0.035468087 0.0028752862 0.013570265
0002d0 f9 84 23 bd a5 c3 f7 b9 7c d0 92 bc 3e 4e c5 3c
       -0.039921734 -0.00047257278 -0.017921679 0.02408516
0002e0 a5 3e aa bc 8c ec 9d bb e1 81 aa bb 81 16 86 3b
       -0.020781824 -0.0048194584 -0.005203471 0.004092038
0002f0 66 eb 8d 3c 5c 11 19 3b ad 76 a2 3c ea 0e 0c 3c
       0.01732416 0.0023356294 0.01983198 0.008548478
000300 f9 5b eb 3c 59 31 86 bb c0 ff e4 3b 60 71 ec bc
       0.02873038 -0.004095238 0.0069884956 -0.028862655
000310 ae 72 43 3c bd 29 be 3a 3f dc 58 bb 0e e8 f7 bc
       0.011929197 0.0014508289 -0.0033090261 -0.03026202
000320 ac 48 75 3c 8d d3 c2 3c a2 08 d0 3c ce 1d 15 bd
       0.01497094 0.023782516 0.025394741 -0.036405377
000330 c6 1b 72 3c dc 73 94 3a b4 da d6 39 cf 9d 09 3d
       0.0147771295 0.0011326033 0.00040980207 0.033597764
000340 5d e9 27 bc e8 1d 80 3c e2 36 a1 3c e4 fe 0b bd
       -0.010248509 0.01563926 0.01967949 -0.03417863
000350 d6 65 f0 bc 5a 46 a3 3c c9 49 f0 bb f4 96 0b 3b
       -0.029345434 0.019931007 -0.0073330146 0.0021299692
000360 9d d9 02 3d f6 1d 86 3c 1b b8 d7 3c ad dd 01 bc
       0.031945813 0.016371708 0.026332906 -0.007926387
000370 98 65 a0 3c 94 85 0a bd 58 a6 a1 bc 46 9a cd bc
       0.019579694 -0.033818796 -0.01973264 -0.025097977
000380 61 57 4f bb 6f cb 84 3c 0b 93 9f bc 94 b8 f2 3c
       -0.0031637775 0.016210286 -0.019479295 0.02962903
000390 fd da 8a bc 9e 5f b6 bc cb f2 27 bc d4 77 8f 3c
       -0.016950125 -0.02226239 -0.010250757 0.017513193
0003a0 53 e0 92 bc 7c c0 77 3c 47 a5 a0 bc 3e e5 3c 3c
       -0.017929232 0.015121575 -0.01961006 0.011529265
0003b0 a7 0b 15 bd 60 4a b7 3c 83 82 8b bc 18 98 33 3c
       -0.036388066 0.022374332 -0.017030006 0.010961555
0003c0 bc 30 9a 3b dd 80 d6 bb cc d9 5d bc 89 95 3c 3c
       0.0047055166 -0.0065461234 -0.013540696 0.011510261
0003d0 ae c8 5d 3c 4e 55 0e 3d d2 82 a3 bc 83 34 d4 bb
       0.013536615 0.03474932 -0.01995984 -0.0064759864
0003e0 96 4e bb 3c c9 91 98 bc e2 c1 9d ba a5 20 97 3b
       0.022864621 -0.018624203 -0.0012035931 0.004612046
0003f0 e1 00 56 3b 61 d3 55 bc 09 9d c6 3c b8 7e a0 3c
       0.0032654332 -0.013050885 0.024244802 0.019591674

conv3.bias f4 [64]
000000 4c 90 a8 3c b3 03 f1 bc 01 1f 93 3a a1 0f 48 bc
       0.020576619 -0.02942071 0.001122445 -0.0122107575
000010 4d e2 b9 bb 13 f9 0b bb 2b fc c5 3b b9 d8 50 3c
       -0.005672729 -0.0021358177 0.0060420237 0.012746983
000020 6f 89 5a 3c e2 4a 32 bc 83 27 30 bc f0 e0 d1 3c
       0.013338431 -0.010882111 -0.010751608 0.025619954
000030 0a 99 0f 3d 16 14 6a 3c fa 31 e7 bc 33 e9 f7 bb
       0.03505806 0.014287015 -0.028222073 -0.0075656413
000040 2f f9 ac bc d6 3a 2f bc 97 18 f7 bc 8e 03 d0 bc
       -0.021114914 -0.01069518 -0.030163093 -0.02539232
000050 07 0c b9 3c b1 ff d7 bc 0f 8d e1 bc 0f d7 0f bc
       0.022588743 -0.02636704 -0.027533082 -0.008779301
000060 62 06 5d 3c de 7c f4 bc 2a 17 e7 3c 12 7a 13 3a
       0.013490291 -0.029844698 0.028209288 0.0005625795
000070 30 b2 0f 3d 2e 41 e1 3b 8f e3 41 3c a7 bc 18 3d
       0.035082042 0.006874225 0.011834039 0.037289288
000080 ec 1b 08 3b 83 53 b4 3b e6 07 70 3a ba 50 49 bc
       0.0020768596 0.0055031194 0.00091564504 -0.012287313
000090 5e 37 8f 3b 74 89 0a 3d 53 a0 44 3a 34 cc a9 bc
       0.004370614 0.03382249 0.0007500697 -0.020727254
0000a0 49 52 89 bc 5c 15 c6 3c e5 ae ce bb b7 95 47 bc
       -0.01676287 0.024180107 -0.00630747 -0.012181691
0000b0 6d 2b ce bc 7e 80 8a bc 0a 1f 68 3c 78 50 6a 39
       -0.025167191 -0.016906973 0.014167557 0.00022345956
0000c0 32 e5 a5 3b f9 89 b7 bc 7b 3d 51 3c 52 53 c8 bc
       0.0050627226 -0.022404658 0.012771006 -0.024453793
0000d0 fe 14 28 3b af 80 24 3c d5 5e d3 bc 8f d2 0e bd
       0.0025647278 0.010040446 -0.025802055 -0.034868773
0000e0 70 78 3f bc 2e 76 f1 3c 55 ad 00 3c ea ba b6 3c
       -0.011686429 0.029475298 0.007853826 0.022305924
0000f0 e9 fe bf bc ed 96 85 bc f6 39 09 3d 95 bc ba 3c
       -0.02343698 -0.016307319 0.03350254 0.022795001

bn3.weight f4 [64]
000000 dd c8 81 3f df a1 82 3f 38 c7 7f 3f 47 7a 80 3f
       1.0139424 1.0205649 0.9991336 1.0037316
000010 46 e4 7e 3f 34 dd 7d 3f 04 76 7f 3f 40 15 7d 3f
       0.9956707 0.99165654 0.9978945 0.9886055
000020 f1 f2 7b 3f 2d c4 7b 3f 9f 37 80 3f ee 09 7c 3f
       0.98417574 0.98346215 1.0016974 0.9845265
000030 83 26 80 3f 49 98 7e 3f f1 08 80 3f cf cd 7e 3f
       1.0011753 0.9945112 1.0002729 0.9953279
000040 26 f1 81 3f df f8 7f 3f 8f 0e 7e 3f 28 ed 7e 3f
       1.0151718 0.9998912 0.99240965 0.9958062
000050 99 d0 7c 3f 19 ad 81 3f 76 06 80 3f c9 9d 7d 3f
       0.98755795 1.013095 1.0001972 0.99068886
000060 0f 1c 7e 3f b0 12 80 3f ea 56 7e 3f 63 4f 7b 3f
       0.99261564 1.0005703 0.9935137 0.9816801
000070 24 21 82 3f 2e a7 80 3f b4 88 80 3f 9c 94 80 3f
       1.0166364 1.0051019 1.0041718 1.0045352
000080 d5 8c 7e 3f bf 18 7d 3f d4 d9 80 3f 27 51 7f 3f
       0.9943364 0.98865885 1.0066476 0.99733204
000090 38 ef 7d 3f ad c4 82 3f 58 3a 80 3f 56 6b 80 3f
       0.99193144 1.0216271 1.0017805 1.0032756
0000a0 8b 8a 7e 3f 5e c7 81 3f a8 b8 80 3f f4 7d 80 3f
       0.9943015 1.0138967 1.0056353 1.0038438
0000b0 59 b6 80 3f bf 2b 7e 3f 9e d8 80 3f d0 79 81 3f
       1.0055648 0.992855 1.0066106 1.0115299
0000c0 4f f5 7e 3f 21 e0 80 3f 5e 3f 7f 3f e1 8e 7c 3f
       0.9959306 1.0068399 0.99706066 0.98655516
0000d0 f4 d6 80 3f 37 85 82 3f 4c a1 7d 3f 80 a2 7d 3f
       1.0065598 1.0196904 0.99074244 0.9907608
0000e0 04 78 80 3f 28 a3 80 3f a9 d2 81 3f c9 bd 7e 3f
       1.0036626 1.0049791 1.0142413 0.9950834
0000f0 6d 1e 80 3f a9 d3 7c 3f ab 2c 7f 3f 30 21 81 3f
       1.0009285 0.9876047 0.9967753 1.0088253

bn3.bias f4 [64]
000000 d5 b0 d3 ba 3e b2 76 bb e3 a7 a3 bb 66 48 fa 3a
       -0.0016150723 -0.0037642862 -0.004994379 0.0019095063
000010 54 e3 39 3b 49 23 87 bb 22 7c ee 39 ef c3 1d 3b
       0.0028364258 -0.0041240794 0.00045487384 0.0024073084
000020 a8 cc 35 3a 60 3f 24 3b 57 0c 8a 3b 99 39 36 3b
       0.0006935098 0.0025062189 0.004212897 0.0027805327
000030 45 f7 c9 3b e8 3c 01 3b 80 c0 32 3b b1 63 aa 3b
       0.00616351 0.001972014 0.0027275383 0.0051998724
000040 81 fe 81 bb cf 7c d1 ba 09 d0 a8 ba fe 99 1a 3b
       -0.003967107 -0.001598263 -0.0012879382 0.0023590322
000050 af d3 83 3b 4d 16 bf 3b b7 2e b8 b9 2f c6 6e 3b
       0.0040230374 0.005831516 -0.0003513002 0.0036434045
000060 3d 29 bc ba 96 ff 65 3b bc 34 90 3b df db f5 bb
       -0.0014355552 0.0035094968 0.0044008177 -0.0075030173
000070 d9 83 b8 3a cd 91 6f b8 69 f5 75 3b 4d da 8a 3b
       0.001407738 -5.7117828e-05 0.003753031 0.0042374493
000080 95 5f 14 3c 36 7c 8d bb 89 d1 5b 3b b9 3c b4 bb
       0.009055992 -0.0043177856 0.003354164 -0.005500403
000090 8b 7f d0 3a d6 f8 0b bb 15 9e de 3b 27 b7 cd b7
       0.0015907151 -0.0021358035 0.006793747 -2.4523191e-05
0000a0 0c 83 2e 3b de ad 19 bb 3b 9b de 3a 4c 18 c0 ba
       0.0026628403 -0.002344958 0.0016983518 -0.0014655679
0000b0 35 7e 9e bb 40 41 f1 3a 8c 98 9c 3b 9a 90 1e bc
       -0.0048368224 0.0018406287 0.004778927 -0.00967803
0000c0 73 04 36 bb a2 1e 80 3b f1 e2 5b 3b ec 29 82 bb
       -0.0027773648 0.0039099017 0.0033552016 -0.0039722826
0000d0 6d 4e 77 bb ef 97 d4 b9 6c 95 cd 3b ee b5 9e ba
       -0.0037735954 -0.0004054899 0.006273916 -0.0012108663
0000e0 44 1f 02 bb 3c e6 d2 3b de 62 38 bb a8 98 12 bc
       -0.0019855062 0.0064361375 -0.0028135101 -0.008947529
0000f0 66 22 6c 3b e9 c1 e3 3b 04 c5 b0 b8 e3 3b 29 3b
       0.0036031245 0.006950606 -8.429031e-05 0.0025823049

bn3.running_mean f4 [64]
000000 51 c9 23 3e 36 d2 d6 3e 2a d2 00 3f e6 20 ce 3e
       0.15994765 0.41957253 0.50320685 0.40259475
000010 9e f0 10 3f 7a f1 fc 3d 90 86 bb 3e a5 46 f4 3e
       0.5661715 0.123507455 0.366261 0.47710148
000020 8d 18 fd 3e 0b 6c 80 3e 69 4e 44 3e 82 2b bb 3e
       0.49432793 0.2508243 0.19170536 0.3655663
000030 14 2b 0d 3f b7 20 5f 3e 4f 69 00 3f 51 ef 82 3e
       0.55143857 0.21789823 0.5016069 0.2557321
000040 c8 92 52 3e 5b fb 35 3e c8 5d 48 3e 24 3a db 3e
       0.20563805 0.17771666 0.19567025 0.42817795
000050 78 a0 27 3f fa f4 83 3f 18 d8 03 3f 99 3a a9 3e
       0.6547923 1.0309136 0.5150161 0.3305252
000060 65 27 1b 3f 6c 3f a7 3d e4 d7 a8 3e ad a4 35 3e
       0.60606986 0.08166394 0.3297721 0.177386
000070 0f c6 74 3f 8d a7 93 3e 92 59 c7 3e bd 0b d6 3e
       0.95614713 0.2883877 0.38935524 0.4180583
000080 27 8a 0a 3f a6 8a 3a 3e 12 d6 5d 3e 85 f2 87 3d
       0.54117054 0.18216953 0.21663693 0.06638054
000090 13 bd b5 3e 1c c0 06 3f 9a f9 12 3f b1 5a 8b 3e
       0.35495815 0.52636886 0.5741211 0.2721763
0000a0 0e a1 b2 3e a8 84 19 3f 7b 41 0b 3f f0 e0 c1 3e
       0.348885 0.5996804 0.5439679 0.37866926
0000b0 49 87 20 3e 93 f4 3c 3f 6a dd ac 3e 7c 58 ce 3e
       0.15676607 0.7381069 0.33762676 0.40301883
0000c0 00 bb 21 3f 08 45 d0 3e 9e c3 61 3e b6 d3 73 3e
       0.63175964 0.40677667 0.22047278 0.2381123
0000d0 ec 53 2f 3e 33 5a 5f 3e 60 18 26 3f e5 3b 81 3e
       0.17121857 0.21811752 0.64880943 0.25241008
0000e0 05 37 c4 3e e6 03 b0 3e 08 75 24 3f 2a 70 c6 3e
       0.38323227 0.34377974 0.64241076 0.3875745
0000f0 fd 75 45 3f 22 2d 87 3e d5 9a 06 3f 6e f1 71 3e
       0.7713316 0.2640162 0.52580005 0.23627254

bn3.running_var f4 [64]
000000 60 3f 09 3e 69 1b 76 3e d1 23 b3 3e 63 80 2d 3e
       0.13403082 0.24033894 0.34988263 0.16943507
000010 95 55 a1 3e be 28 f1 3d 19 22 5d 3e ca d7 59 3e
       0.31510606 0.11775349 0.21595038 0.21273723
000020 06 e5 9d 3e 8d cb 52 3e 73 1a a3 3d 5e 49 73 3e
       0.30838794 0.20585461 0.07964029 0.23758456
000030 45 64 79 3e ef f1 ea 3d 32 2f 9b 3e 86 23 5b 3e
       0.24354656 0.114719264 0.30309445 0.2140027
000040 54 0c df 3d d6 1f 02 3e ef d6 e0 3d a7 9e 97 3e
       0.10891023 0.12707457 0.10978495 0.2961323
000050 2c e7 5a 3e b3 55 9c 3e 5f b9 9c 3e f8 f2 24 3e
       0.21377248 0.30534133 0.30610177 0.1610831
000060 c3 73 7e 3e 92 fc 63 3d a6 5c 90 3e 2b a8 db 3d
       0.24848847 0.05566079 0.28195685 0.10725435
000070 14 e7 ae 3e cb a8 32 3e e6 7f 51 3e c0 f0 b3 3e
       0.34160674 0.17447202 0.20458946 0.35144615
000080 cf e9 a9 3e 93 cb 38 3e 0a 6d 5f 3e 75 8c 96 3d
       0.33186194 0.18046407 0.21818939 0.07351009
000090 3a df 21 3e bb 04 cd 3e 52 4e a3 3e 2d 37 2b 3e
       0.1580781 0.40042672 0.3189569 0.16720267
0000a0 36 95 6a 3e a6 85 a0 3e 2a 3b 81 3e 39 df 81 3e
       0.22908482 0.31351966 0.2524045 0.25365618
0000b0 63 61 ac 3d 58 19 b5 3e 86 6a 10 3e c8 c8 97 3e
       0.084170125 0.35370898 0.14103135 0.2964537
0000c0 88 b7 7b 3e d9 fc 94 3e 6f 6e 1c 3e 43 e8 35 3e
       0.2458173 0.29099157 0.15276502 0.17764382
0000d0 61 3c ec 3d ac 3d 6b 3e e8 2f d6 3e 0b 18 30 3e
       0.11534954 0.22972745 0.41833425 0.17196672
0000e0 03 03 85 3e b4 33 4a 3e df d5 b3 3e 80 43 17 3f
       0.2597886 0.19746286 0.35124108 0.5908737
0000f0 80 90 6a 3e 38 a7 2b 3e 78 fa 86 3e 21 38 4a 3e
       0.22906685 0.16763008 0.26362967 0.19747974

fc1.weight f4 [256, 64]
000000 9f 39 b3 3d 23 14 98 bc 01 09 47 bd 87 e7 63 3d
       0.08751225 -0.01856429 -0.04859257 0.055640724
000010 2f e0 b8 3d 2f f3 c8 3c 8e 44 cd bc a5 a9 66 bd
       0.090271346 0.024530021 -0.025057103 -0.05631413
000020 9d 96 fa 3c 9b 65 2b 3d 9f 17 a9 bd d9 d8 95 bc
       0.030589396 0.041844945 -0.082564585 -0.018291878
000030 d8 5d c8 3d 9b 13 c4 bd 87 37 f5 3d c6 ef c7 3c
       0.09783524 -0.09574052 0.119734816 0.024406325
000040 d0 9f 04 3d 05 50 d8 3d e8 d7 b8 bd 9c a8 c5 bd
       0.03237897 0.105621375 -0.09025556 -0.096513
000050 18 21 be 3d bd cb 93 3d 88 ae 82 bd 6e 0f 3f bd
       0.09283656 0.07216594 -0.063809454 -0.046645574
000060 c9 78 cc bd 0e 25 ad 3d bf 7d d0 3d 99 b7 c6 bd
       -0.099839754 0.08454333 0.10180234 -0.09702987
000070 48 14 fc bd ef 06 d7 3d af e0 de bc ba 55 f7 3d
       -0.12308556 0.10499369 -0.027206747 0.12076898
000080 4d b0 49 bc 51 7a 07 3d ed a7 2a 3c c0 c8 6f bd
       -0.0123101 0.033075634 0.010416013 -0.05854106
000090 f6 19 81 bd 47 8b dd 3d c5 9e ae 3d 50 c9 8a 3d
       -0.0630378 0.10817581 0.08526377 0.067766786
0000a0 73 fb 1b 3d e8 2e 8b bd e7 ce e1 3d 13 23 39 bd
       0.038081598 -0.06796056 0.110257916 -0.045199465
0000b0 09 3e b0 3d 2f bd a9 3d 8e 42 0a bd c0 7e a2 bc
       0.08605582 0.08288037 -0.033754878 -0.01983583
0000c0 ef f8 00 3d e3 e7 c6 3d c6 b1 d2 3d 9e 02 7e bb
       0.0314874 0.09712198 0.10287814 -0.0038758884
0000d0 da 87 d4 bd b4 6d ac 3d 70 81 8a 3d a1 14 d9 3c
       -0.10377474 0.08419362 0.067629695 0.026499094
0000e0 30 5f d4 3d 7d cc 8e 3b 2d ee bc 3c 10 3a f1 3d
       0.10369718 0.004357873 0.02306279 0.11778653
0000f0 4e bc e8 bd 4b 1f de 3b ca d5 1e bd 60 60 b4 bd
       -0.11364041 0.0067786328 -0.038778104 -0.088074446
000100 03 f3 e6 3d 33 8d c6 bc 30 6f fa bd d2 a8 30 bd
       0.112768196 -0.02423725 -0.122282386 -0.04312975
000110 8b e2 44 bd 9a 3e d6 3d 9d 03 2a 3d e3 f2 d8 3d
       -0.04806761 0.10461159 0.041507352 0.10593202
000120 98 e8 4a 3d 62 49 ec bc b8 2b 61 bb 9e e6 d5 bd
       0.049538225 -0.028843585 -0.0034358334 -0.10444377
000130 5e 8e fd bc 1d 92 f1 bd 93 89 c2 bd 82 4c 12 bd
       -0.030951675 -0.11795447 -0.094988964 -0.035717495
000140 2a 26 05 3e 4c 28 77 bd 04 aa 24 3d c0 1e f1 bc
       0.1300284 -0.060341164 0.040201202 -0.029433608
000150 65 5a 6e ba 2e f5 6e bd 2f 7f 5a 3d 07 2d 80 bd
       -0.00090924493 -0.05833929 0.053343948 -0.06258588
000160 60 05 2c 3d 8a 86 81 3d 80 73 57 3c bb c0 5b bc
       0.041997313 0.063244894 0.013150096 -0.01341265
000170 dd 58 de 3d 34 f8 19 3d ad 20 a2 3d f5 4b a2 3d
       0.10856793 0.03759022 0.07916389 0.07924644
000180 5a 9d 94 3d 9b 49 c8 bd db 86 17 3d 15 a2 b6 3d
       0.07256575 -0.09779664 0.036993843 0.089176334
000190 78 f8 98 3d 75 c8 3f 3d 56 2d 17 bd f0 59 ed bd
       0.07469267 0.04682203 -0.03690847 -0.1158942
0001a0 17 37 20 3d 0f 79 a6 3d 40 98 8d bd d4 a2 a5 3d
       0.039115038 0.08128559 -0.06913805 0.080876976
0001b0 a6 eb 67 3d 55 08 29 bd 16 e6 cc 3d 0b 3f 1c bd
       0.056621216 -0.04126771 0.10004823 -0.03814606
0001c0 c8 47 8b bd 5b 12 ac bd e1 cb c0 bd ef 40 bb 3d
       -0.068008006 -0.084019385 -0.09413887 0.091432445
0001d0 60 3b 87 bc 0b e5 90 3d 47 b6 5a 3d ef e4 fb 3c
       -0.016507804 0.070749365 0.05339649 0.030748812
0001e0 29 e1 84 bd 0d b5 be bd 73 52 f9 bc 06 37 4d 3d
       -0.064882584 -0.093118764 -0.030434823 0.050101303
0001f0 98 1f 48 3d 1b 3c 8b 3d 1f d9 8c bd ca c4 be 3c
       0.048858255 0.067985736 -0.0687735 0.023287196
000200 f5 0a 77 bd 7c 11 ee bd d5 24 40 3d c6 21 bb bd
       -0.060313184 -0.11624429 0.046910126 -0.09137301
000210 b6 70 b8 3d f3 27 c0 bd 83 57 d2 bd 13 c7 f2 3b
       0.09005873 -0.0938262 -0.10270598 0.0074089854
000220 09 d2 bc bd 8b 3c 70 bd 6a e5 eb 3d c4 2d 83 bc
       -0.092197485 -0.05865149 0.11518367 -0.016013034
000230 c3 3c 2b 3d 82 d4 8e 3d f5 0a f6 bd 88 0a 82 3d
       0.041805994 0.069741264 -0.12013809 0.06349665
000240 39 99 db bd 78 be c2 bd ac d8 0f bd 7f 66 7a 3c
       -0.10722584 -0.09508985 -0.035118744 0.015283226
000250 89 b6 22 3d 45 97 c1 3c 49 da 65 bd 18 ab e5 bc
       0.03972486 0.023631701 -0.056116376 -0.028035685
000260 51 66 f8 b9 14 87 8f 3d 27 23 09 3e d4 9d c6 bd
       -0.00047378478 0.07008186 0.13392316 -0.09698072
000270 ed 27 dd 3d c2 32 f7 bd 51 07 a3 bd 96 38 d6 3d
       0.10798631 -0.12070228 -0.0796038 0.10460012
000280 1f aa e1 bd e4 8f f2 3d 84 08 03 be e5 f8 72 3d
       -0.11018776 0.11843851 -0.12796217 0.059319396
000290 6a 9d ed 3d 25 75 8c 3b 92 82 d1 3d 70 c1 4f 3d
       0.1160229 0.0042864257 0.102299824 0.050721586
0002a0 77 06 b2 bd 5e a9 c5 ba bf b3 10 bd 98 ff ef bd
       -0.08692639 -0.0015080383 -0.03532767 -0.117186725
0002b0 77 0b 7c bd ba 4d a6 bc 15 6e cf bc ea 22 bb 3d
       -0.06153437 -0.020300735 -0.025321046 0.09137519
0002c0 0a a4 4e 3d 48 be 1c 3c 7f a6 cd bd 47 5d 43 ba
       0.05044941 0.009566851 -0.10041522 -0.0007452559
0002d0 6d 24 a1 bd cb 38 32 3d 2f 25 63 3d 9d f5 9f 3d
       -0.07868276 0.043511193 0.055455383 0.07810519
0002e0 a6 07 37 bd d1 6e 57 bc 55 b5 e2 bd b7 f3 cd bd
       -0.04468503 -0.013148979 -0.110697426 -0.100562505
0002f0 a2 9c dc 3d 84 85 7e bd 80 a2 df 3d 9e 73 91 bd
       0.10772063 -0.06213905 0.10919666 -0.0710213
000300 36 73 f6 bc 63 8c 0d bd 41 f2 2b 3d 2b 8e da bc
       -0.030084234 -0.03455771 0.04197908 -0.02667912
000310 02 78 92 3c e1 89 c2 3d 9f be 96 bd 31 a7 ef 3d
       0.01787949 0.094989546 -0.07360577 0.11701811
000320 88 7f 47 3d ef 3c f0 3c 30 91 0b 3b dc 18 d6 3b
       0.048705608 0.02932593 0.0021296255 0.006533725
000330 e8 41 9d ba 14 35 b0 bd d8 3a 65 bd f3 d7 b8 3d
       -0.0011997791 -0.08603874 -0.05596432 0.09025564
000340 73 b1 0c bc 40 ea 64 bd f7 50 b5 3d 64 0b 47 bd
       -0.008587229 -0.05588746 0.088533334 -0.048594847
000350 0b 97 30 bd 21 26 29 bd 7a e1 7d bd fc 46 46 bd
       -0.043112796 -0.04129613 -0.06198261 -0.04840754
000360 3c 5d 86 bd 4e ec 98 bd 73 4d d7 bd da cc d8 bd
       -0.06560752 -0.074669465 -0.10512819 -0.10585947
000370 ba 44 90 bc 48 98 e7 bd a8 2f cf 3d 6d 37 aa 3d
       -0.017610896 -0.11308342 0.101165116 0.08311353
000380 0b 04 a6 3d 48 2f d8 3d ba 9d d4 3c 8c e5 8a 3c
       0.0810624 0.10555893 0.025954116 0.01695516
000390 4c 48 c5 3d 29 2d 11 bd d2 46 2d 3d 21 9e 20 3d
       0.0963293 -0.03544346 0.042303868 0.039213303
0003a0 bc ea 6c bd 60 7f b6 bd 1e 85 f7 bc 24 0d 11 3d
       -0.057841048 -0.089110136 -0.030214842 0.035412923
0003b0 48 21 a6 3d ce 92 53 3d db 8f 44 3d 83 f8 17 3d
       0.08111817 0.051653676 0.047988754 0.037102234
0003c0 5e 16 54 3d f5 6d b9 bd c7 8f 8c 3c 61 90 90 bd
       0.051779144 -0.09054176 0.017158402 -0.07058788
0003d0 d6 a0 d9 3d 30 36 84 3c 13 fc 96 3d 18 76 c2 bd
       0.1062638 0.01613912 0.07372298 -0.09495181
0003e0 1c 96 84 3d 7f 82 b6 bd f7 69 38 3d 4c a4 b0 3c
       0.064739436 -0.08911609 0.04502293 0.021562718
0003f0 08 e9 1c bd c8 fc 90 bd be e5 9f 3d 46 95 96 bd
       -0.038308173 -0.07079464 0.07807492 -0.073526904

fc1.bias f4 [256]
000000 6e d2 ed 3c 65 26 84 3d d1 ec 8e bb 41 8b 84 3d
       0.029031005 0.06452636 -0.004361727 0.06471873
000010 98 df 18 bc bf e2 61 3d b8 12 5f 3d 68 e9 92 3d
       -0.009330653 0.055147883 0.05446121 0.07173425
000020 f7 e2 e9 3d 4a 60 55 bb cd 32 28 3d 73 ab cd 3d
       0.11420243 -0.0032558613 0.041064072 0.10042467
000030 1d 9a 90 bd 59 90 41 bc 2f 28 34 3d a8 cf 68 bc
       -0.07060645 -0.0118142 0.043983635 -0.014209665
000040 7e 6d 93 bd 63 bb b1 3d 5e 24 f2 bd b5 35 a9 bd
       -0.07198618 0.08678319 -0.11823343 -0.08262197
000050 a3 f6 e3 bd 81 47 df 3d e4 9f dd 3b d7 ef 6e 3a
       -0.111310266 0.1090231 0.006763445 0.00091147184
000060 a8 d1 ca 3c 15 95 f6 bc d3 ec ee bd 3b 37 28 3d
       0.024758175 -0.030100385 -0.116662644 0.041068297
000070 b6 f4 a7 bd af c5 83 3d 8f 29 c4 bd 9c 82 dd bd
       -0.08200972 0.064341895 -0.09578239 -0.108159274
000080 5b 36 ef 3d bc 76 e5 3b 38 ae 47 bd 17 f8 92 3d
       0.11680289 0.0070026796 -0.048750132 0.07176226
000090 20 89 0d bd ce 9c c0 bd ed 7b a5 3d 32 ad 90 bd
       -0.0345546 -0.09404908 0.080802776 -0.070642844
0000a0 fb aa 28 3d c4 8c f3 3d a6 a9 19 bd 32 a2 be 3d
       0.041178685 0.11892083 -0.037515305 0.0930828
0000b0 f6 44 d2 bd ad a5 8d 3d e9 42 73 3d ec c7 da 3d
       -0.102670595 0.06916366 0.059389982 0.10682663
0000c0 8e a2 99 bd e5 5c 87 b9 fc c6 8c 3d 9b e2 4c 3d
       -0.07501708 -0.00025818418 0.06873891 0.050020795
0000d0 6b fc b8 bd 30 63 e6 bd 7f 62 94 bc e1 5c b1 3c
       -0.0903252 -0.11249387 -0.018113373 0.021650733
0000e0 9e 8b 85 3d ee 4e 29 3d 7f ed c5 3d 94 e5 df 3d
       0.065207705 0.04133504 0.096644394 0.109324604
0000f0 45 a0 8f 3d e5 86 b3 3d ac 64 d3 3d d6 6f e9 bd
       0.07012991 0.087659635 0.10321936 -0.11398284
000100 b6 fc fb bc 03 49 9a bc 69 85 c3 3d f5 5d e1 3d
       -0.03076015 -0.018833643 0.0954693 0.11004249
000110 54 d2 d6 bd e0 73 cc bd cd ce b2 3d f1 a0 2b bd
       -0.10489336 -0.09983039 0.0873085 -0.041901533
000120 b4 d9 6f 3d e2 4e 18 bd 93 b4 3c bd f6 32 ea 3d
       0.058557227 -0.037184604 -0.046070646 0.11435501
000130 08 e6 f6 3d 1e e1 ee 3d 8c 06 01 3e 51 e4 f1 3c
       0.12055594 0.116640314 0.12600154 0.029527815
000140 cb 36 00 3e 8e 98 e3 bc 80 c0 f3 3d af 5c c2 3b
       0.12520902 -0.027782705 0.11901951 0.005931459
000150 da c3 9f bd 46 ea d4 3d 26 0f aa 3d 8f 33 17 3c
       -0.078010276 0.103962466 0.083036706 0.009228601
000160 5e c2 9f 3c b9 e9 4d 3d 99 5a 7a 3b 1e 70 f7 bd
       0.019501861 0.050271723 0.0038200973 -0.120819315
000170 ea 28 84 3c c6 55 5f 3d 21 d1 a6 bd 6a 51 c3 bd
       0.01613279 0.05452516 -0.08145357 -0.09537013
000180 1e 1a b7 3d 2d d5 b5 bd 1f 0d c1 3d 57 66 0d bc
       0.08940528 -0.08878551 0.09426331 -0.008630357
000190 20 21 b2 3c 6d 48 c8 3d b1 27 44 3d 7b 62 fb bd
       0.02174431 0.09779439 0.047889415 -0.12274643
0001a0 a7 d9 f2 3b 7e 86 b2 3d 2b 9e f1 bd 98 ca b3 3d
       0.0074112 0.087170586 -0.11797746 0.08778876
0001b0 17 91 fe 3d eb 4b f2 bc e2 a6 b3 3d 76 af 8b 3c
       0.124300174 -0.029577216 0.08772065 0.01705144
0001c0 20 6c ba bd 6f fd 90 3d 02 91 24 3d 64 57 96 3b
       -0.091026545 0.070795886 0.040177353 0.0045880545
0001d0 73 6c 09 3d 59 3a e5 3d ba f2 3e 3d b8 6b 51 bd
       0.03355069 0.111927696 0.0466182 -0.05112812
0001e0 8b 56 99 bd c2 3f df bd d2 2d 65 3b a9 98 f4 bd
       -0.0748721 -0.10900833 0.0034969938 -0.1194318
0001f0 99 cf a6 bd b5 2e 39 bd 7b 74 9e 3d 2c 6f d9 3c
       -0.08145065 -0.04521056 0.07737061 0.026542269
000200 71 b6 04 3e 30 fd b8 bd f7 af 8e bc 76 42 a8 bc
       0.12960221 -0.09032667 -0.017417891 -0.020539504
000210 78 97 b1 3c 2f a9 da bd 73 66 a0 3d d4 03 de bd
       0.021678671 -0.106768005 0.07832041 -0.10840574
000220 db 07 e4 3b 7a ab 05 3d 7f 9f 61 bd 1a 60 40 3d
       0.0069589443 0.032634236 -0.055083748 0.04696665
000230 ae 48 2c 3d 1a c8 a9 3d d8 50 c4 3d 2e a9 0d bc
       0.0420615 0.082901195 0.09585732 -0.008646293
000240 23 8b 48 3d a6 b5 ba 3d 1a 2c 5c bd 51 7b df 3c
       0.048960816 0.09116678 -0.053752996 0.027280482
000250 96 47 50 3c 37 1d 86 3d c9 68 30 3d 04 f4 23 bd
       0.01271238 0.06548541 0.04306868 -0.040027633
000260 57 d0 e4 bb 02 1b 71 3d f4 cc c2 3c 2a c0 d4 bd
       -0.006982844 0.058863647 0.02377937 -0.10388215
000270 1a 50 9d 3d 4d 91 f0 bd 87 12 17 3d 97 a6 01 bd
       0.07681294 -0.11746464 0.036882903 -0.031653013
000280 00 d5 80 3d 39 4d 35 bb 45 12 f9 bc f3 b5 7e 3d
       0.062906265 -0.0027664436 -0.03040422 0.06218524
000290 35 d6 1e 3d c4 fc bd bd 05 2d 6a bd 31 0f b1 bd
       0.038778502 -0.09276727 -0.05717184 -0.08645476
0002a0 61 f9 bc 3d 63 e8 1e bd ec 8a 75 3d e2 74 9e 3d
       0.09227253 -0.03879584 0.05994694 0.077371374
0002b0 61 29 c9 3d 85 b6 7a bd e7 e3 c9 3d bb 49 df 3b
       0.098223455 -0.06120922 0.09857922 0.0068142093
0002c0 a0 20 45 3d 4e b9 b9 bd 95 e6 91 bd 7d cf fe 3d
       0.048126817 -0.09068547 -0.07124058 0.12441919
0002d0 39 13 db bd d4 b4 b6 bd c0 6b da 3d 85 71 08 3c
       -0.10697026 -0.08921209 0.10665083 0.008327846
0002e0 06 18 fb bd 66 ed f9 3d c0 ea d9 bd 6f ba 78 bd
       -0.122604415 0.12203483 -0.10640478 -0.060724672
0002f0 56 59 54 3d de 5c 2d 3d af e8 58 bd 0d d1 a9 3d
       0.05184301 0.042324893 -0.05295628 0.082918264
000300 ce 82 c9 bd 35 a8 a5 3d db 46 d4 3d 27 02 df bc
       -0.09839402 0.080887236 0.10365077 -0.027222706
000310 28 9b 36 bc 6f 6f 03 3e 3d 0c f1 bd 14 af e0 3d
       -0.011145391 0.12835477 -0.117699124 0.109708935
000320 1d 75 93 3d 0b f7 8e bd da 1f dd 3d b8 48 d2 bd
       0.07200072 -0.069807135 0.10797091 -0.10267776
000330 67 83 dd 3d 3d a5 e3 bd a8 ed 42 3c 14 fc 7c 3d
       0.10816079 -0.11115501 0.011897482 0.061763838
000340 de f0 b0 bd 1a 09 c4 3c 49 19 69 bd a9 6d 35 bd
       -0.08639692 0.023930121 -0.05690888 -0.044294033
000350 ef ee dd bd cf 18 96 3d 8d 0a 95 3d 13 d9 52 3d
       -0.108365886 0.073289506 0.07277403 0.05147655
000360 60 5d bd bd a2 4d 69 3d 5c 0e 89 3d ca df a6 3c
       -0.092463255 0.056958802 0.06692192 0.020370383
000370 68 74 b9 bd 32 f0 e1 bd 98 89 f5 bd 27 f9 db bc
       -0.09055406 -0.11032142 -0.119891346 -0.026852204
000380 3f e0 e5 bd 6a 2b c5 bd 6c a1 00 3d c7 31 e9 bd
       -0.11224412 -0.09627421 0.031403944 -0.113864474
000390 9e df ec bc 0d 4b aa bd e8 47 bb 3d 9d a5 a9 3c
       -0.028915223 -0.08315096 0.091445744 0.020708853
0003a0 ae 3f 8b 3d 7a 6f e9 bd 9b d0 4c bd 6a 15 8c 3d
       0.06799255 -0.113982156 -0.05000363 0.06840022
0003b0 41 b6 92 3d f3 4c de 3d 5d eb 11 3d 59 06 8d 3d
       0.071636684 0.10854521 0.03562485 0.06885976
0003c0 7b de fb 3d fc d8 95 bd 74 73 80 3d 73 9b e3 3d
       0.12298294 -0.07316777 0.06272021 0.11113634
0003d0 8a 25 16 3d 3e 0c d4 3d 9f 5c 66 3b 63 f9 c9 bd
       0.036656894 0.103538975 0.0035150421 -0.0986202
0003e0 d3 4c 3b ba ec 16 59 3d 3d 55 f0 3d e0 a0 07 3d
       -0.00071449316 0.053000376 0.11735008 0.033112407
0003f0 e9 ba d2 bd 26 38 1b 3d 6d 40 25 3d 21 b3 4f bc
       -0.102895565 0.037895344 0.040344644 -0.012676985
