mini_batch_exp/models/mnist_adam_batch4_lr0.1.pt (torch_old, 968530 bytes, 62 tensors)

conv1.weight f4 [16, 1, 3, 3]
00000000: fb9f 9843 4e7a 7f42 9b88 1fc2 7664 e142
00000010: 4a9c e440 9938 3142 3d1e 0bc2 01e2 8c42
00000020: 91e5 af42 d60a 36c3 d4cc c340 5446 be42
00000030: 85e2 9fc2 9c13 06c2 d405 ee42 8a53 b8c2
00000040: 97a5 a2c2 1912 1642 7786 aac2 db44 dec2
00000050: cfd0 14c0 5738 4441 14f5 3fc2 0468 04c3
00000060: 318c dc42 de0c 8842 1635 ddc0 8968 5542
00000070: 60d3 d7c0 7adf 97c1 7bfd a4c2 9c79 81c3
00000080: df73 fac2 4477 f7c2 6285 5f40 aedc bb42
00000090: 5ae0 5e41 e51b ae42 7781 c642 b166 e3c1
000000a0: 8035 2b41 209c e441 8f87 11c3 63d9 efc2
000000b0: 4ab8 eec2 f526 7941 f632 ffc2 e0bb 51c2
000000c0: 2ea4 b942 5fa9 aa41 7c42 36c3 e29b ac42
000000d0: 3c65 f5c0 23e5 47c3 ad96 4fbf cc05 5fc0
000000e0: 420a a7bf 6252 62c0 dee9 1dc0 bba8 69bf
000000f0: 42ae 61bf 489c 85bf 0591 59bf 6cef e2bf
00000100: 01ad 81bf b645 6abf 6de0 12c0 724f e4bf
00000110: 6285 7ebf 1f84 26c0 7375 dfbf a960 40c0
00000120: ce83 6042 bffe 76c3 2d42 fbc2 0986 51c3
00000130: 49c0 3c41 433a 7e42 51ea c6c2 e4ff 7641
00000140: 5bd9 9b42 5082 a8bf 1414 1ac0 f5dc cbbe
00000150: e502 29bf f31f 3ebf 8652 68bf ba73 69bf
00000160: 7a2a 66c0 d49a 9bbf babc e3c2 90fd a842
00000170: 21a2 3c42 bfdc bb42 6661 2243 a409 f7c2
00000180: a020 a141 0b98 96c2 765e 08c3 29d8 5640
00000190: 9ad0 4542 7cff 5e41 c0ae 1fc3 c645 a942
000001a0: a1a5 e643 761d a142 7645 2b42 341a 99c2
000001b0: a991 05c3 9e9a b942 234d f341 ecd1 85c2
000001c0: a88c 17c3 5486 cfc2 b42b 0ac2 0cc3 8b42
000001d0: 484f 3141 9d89 41bf f6ba 89bf 5e51 b8be
000001e0: 00c7 84bf 17bf 08bf d8fd adbd a6dd 25bf
000001f0: 92e4 77be bfa6 28bf 18f1 d5c1 0e46 a342
00000200: 151b 9bc1 2308 0cc3 6317 26c3 7fbe 3dc3
00000210: 7638 8641 e953 eb42 9f7f e0c2 6328 93c0
00000220: e24c 16bf 8520 a1c0 bd9a 2fc1 f830 18bf
00000230: 2a01 11be d924 12c1 5557 bfc0 553a 14c0
305.24985 63.86944 -39.883404 112.69621 7.1440783 44.30527 -34.77953 70.441414
87.94837 -182.04233 6.1187534 95.13736 -79.94242 -33.51915 119.01138 -92.16316
-81.32342 37.517673 -85.26263 -111.13448 -2.3252447 12.263755 -47.989334 -132.40631
110.27381 68.02513 -6.91273 53.352085 -6.7445526 -18.98412 -82.49508 -258.95007
-125.22631 -123.73294 3.492516 93.931015 13.929773 87.05448 99.25286 -28.425142
10.700562 28.576233 -145.52953 -119.92458 -119.35994 15.572011 -127.59953 -52.43347
92.82066 21.3327 -182.2597 86.30446 -7.6686077 -199.89507 -0.8108929 -3.4847288
-1.3050005 -3.5362782 -2.4673991 -0.9127309 -0.8815652 -1.0438318 -0.8498691 -1.7729316
-1.0130922 -0.9151262 -2.2949479 -1.7836745 -0.99422276 -2.601814 -1.7457718 -3.0058997
56.128716 -246.9951 -125.62925 -209.52357 11.796945 63.556896 -99.45765 15.437473
77.92452 -1.3164768 -2.4074755 -0.39817014 -0.6602004 -0.742675 -0.9075092 -0.9119221
-3.5963426 -1.2156625 -113.86861 84.49524 47.15833 93.931145 162.38046 -123.51883
20.14093 -75.29696 -136.36899 3.3569434 49.453712 13.937374 -159.68262 84.63628
461.29398 80.55754 42.817833 -76.55118 -133.56898 92.80199 30.412664 -66.91
-151.54944 -103.76236 -34.54268 69.88095 11.081856 -0.75600606 -1.0760181 -0.35999578
-1.037323 -0.5341658 -0.084956825 -0.64791334 -0.24208286 -0.65879434 -26.742722 81.636826
-19.388224 -140.03178 -166.09135 -189.74413 16.777569 117.66389 -112.24926 -4.59868
-0.58711064 -5.0352197 -10.975278 -0.5944972 -0.141606 -9.133996 -5.9794106 -2.3160603

conv1.bias f4 [16]
00000000: 750c fb40 a8d6 12c4 d766 5442 6575 bf41
00000010: aece 9e43 a960 dec2 cf0b 7ac0 a5f9 9dc0
00000020: 13b5 0244 218d 61bf e906 9942 8163 afc2
00000030: 980a f543 7159 4ebf 3315 e443 aba5 a8c1
7.8452706 -587.354 53.10043 23.932322 317.6147 -111.18879 -3.9069707 -4.936724
522.8293 -0.8810597 76.5135 -87.69434 490.08276 -0.80605227 456.16562 -21.080893

bn1.weight f4 [16]
00000000: ad4f 0940 b4c8 1643 e674 3d43 3539 5b41
00000010: 3d87 8443 bf70 1443 c6b2 6540 4fa5 89c0
00000020: 1724 3c43 99f9 f53e 9952 1dc3 5b0e 2243
00000030: 00ed b7c2 6d27 1a3f d9cc bc42 4879 0941
2.145488 150.784 189.45663 13.701467 265.05655 148.44041 3.5890365 -4.3014293
188.14098 0.4804199 -157.32265 162.05608 -91.96289 0.6021641 94.40009 8.59211

bn1.bias f4 [16]
00000000: 81f0 29bf 174a f4c0 109c 6c41 1a1d b5c0
00000010: 0f85 bd42 7fca 92c1 cc4b 86c0 10e3 afc2
00000020: 47ce 4d42 15fa d0c0 2295 8642 ad64 5b42
00000030: 29d8 b9c1 1f55 0dc0 631c e841 d20a 6a40
-0.66382605 -7.634044 14.788101 -5.6598024 94.75988 -18.348875 -4.1967525 -87.94348
51.451443 -6.5305276 67.291275 54.848316 -23.230547 -2.2083204 29.01386 3.6569104

bn1.running_mean f4 [16]
00000000: 3b04 f646 2a49 6b45 3cb4 1745 a2ba ea44
00000010: bae4 9c45 a676 1145 0400 0000 0400 0000
00000020: 5bcc 4845 0400 0000 dc31 f645 3379 e646
00000030: a64a 9844 0400 0000 2933 6d44 0400 0000
31490.115 3764.5728 2427.2646 1877.8323 5020.591 2327.4155 6e-45 6e-45
3212.7722 6e-45 7878.2324 29500.6 1218.3328 6e-45 948.7994 6e-45

bn1.running_var f4 [16]
00000000: 4e7d 074f 5595 dc4c daad 6a4c e78f 8c4b
00000010: 9088 134d 683c 6b4c 0400 0000 0400 0000
00000020: 2245 464c 0400 0000 203b 8e4d e388 1b4f
00000030: fce8 014b 0400 0000 97f8 d44a 0400 0000
2.273136e+09 1.1564919e+08 6.151972e+07 1.8423758e+07 1.5470003e+08 6.1665696e+07 6e-45 6e-45
5.1975304e+07 6e-45 2.9827994e+08 2.6094395e+09 8.513788e+06 6e-45 6.9786355e+06 6e-45

conv2.weight f4 [32, 16, 4, 4]
00000000: 4e70 bfc2 7fb0 0f41 715b 6641 89cd d5c2
00000010: c81c 5142 40c3 e4c2 333d 3a41 8e95 9442
00000020: 7f15 8842 ce05 cf41 8f26 9f42 0e2b 4ec1
00000030: 754a c942 f568 84c0 7bb3 6841 931d 8a40
00000040: c73c b0c2 2cf3 3b43 a93b d642 96c2 14c2
00000050: d778 d8c2 0a7a dac2 fdfd 1ec3 22c3 d1c2
00000060: f8ca 45c1 fd4d 16c3 2b58 73c3 2ae2 dbc1
00000070: 7a48 87c2 f065 a7c2 8217 1dc3 5d41 8a42
00000080: 721a 7e43 7af7 9d42 538c 12c3 4a93 a342
00000090: 0bfd 4443 3ef0 c7c2 c3ea adc2 0f78 09c3
000000a0: 8a09 ea42 d06c 55c2 1b90 5fc3 3950 8ec3
000000b0: d78b 3bc2 b5f8 e3c2 f8cd 02c3 5ad3 0a43
000000c0: 7c8d 9cc2 4c38 2ac3 fb37 18c3 171b b841
000000d0: 2e2c afc2 fc7f 89c2 d67a f140 70c7 a942
000000e0: c5f1 4241 7a4b be40 3fa2 ee3f e4c2 0843
000000f0: dda0 98c2 92d4 6b42 c9ec 86c2 754d 8b42
00000100: d50a e1c1 1b22 2541 7af0 a541 790b d642
00000110: b763 5243 3950 e8c2 235b 54c1 5cd0 cec2
00000120: 9b4e 0a43 7e53 aec1 6f23 8cc2 9470 eec0
00000130: 9bff 8e42 fc3c 7f42 ba1b 90c0 5f45 4042
00000140: 27f1 c242 7d1e 5c42 2300 a842 1127 69c2
00000150: 89e9 56c1 2ff9 2bc3 8131 47c3 aef7 80c2
00000160: ddb0 9fc2 aa74 76c3 79ed e9c2 bdf5 1443
00000170: 42cc 7ec3 b9a6 28c3 1177 0142 c8b1 9743
00000180: 5ef1 cb42 6aa9 ce42 bc8b c942 0fe9 c742
00000190: 68b7 cb42 efc8 ce42 871c c842 3ab0 c742
000001a0: d91f cc42 46ef cd42 4112 c442 d061 c042
000001b0: b6ad c542 358f c642 a1d1 bd42 5e16 c342
000001c0: 2994 be42 35d1 b642 d1e8 b542 bbc5 b742
000001d0: f1fb b442 6819 ba42 2ead b642 b03a c042
000001e0: af84 b842 a06c bd42 bd89 bf42 f430 b242
000001f0: 023a a842 7347 bb42 b1fe b342 d112 b342
00000200: 29ba 53c3 bb33 9ec2 bec3 a942 8e59 44c2
00000210: eaf3 1742 5323 0e43 61ab b5c0 0a1e 5043
00000220: dc65 9bc0 f24a c142 8f9e 8442 c7b2 2b43
00000230: bcd0 aec2 f435 84c1 007c 9241 2056 8a42
00000240: a73d 78c1 3733 57c1 20f7 77c1 7180 51c1
00000250: 55e6 3fc1 5255 44c1 0868 76c1 3803 6cc1
00000260: 77df 75c1 9698 72c1 3a9e 84c1 e4f3 7bc1
00000270: 5eca 7ac1 70b6 7bc1 553d 85c1 f1f0 82c1
00000280: 4251 38c2 0e37 29c2 f948 a342 7e90 d441
00000290: f71e 1a42 74be 9243 99fa 2343 0ff4 c8c1
000002a0: 1130 0d43 f398 e842 4e85 74bf 51e2 2dc3
000002b0: 072d 8341 ff6e e342 2f8b 5bc2 7fa3 bc41
000002c0: 84f9 8dc2 a8e2 a4bf e9cf 2e42 dd8e 43c1
000002d0: e5a6 4ac3 428d 1142 275e ae42 b784 e342
000002e0: 6467 5ac2 6f06 7541 9129 7743 4dec 9942
000002f0: 43ba bf42 d51a 2c43 c4eb ac42 986a a83f
00000300: 4587 acc2 de5b 42c2 4e56 c8c1 5a05 9840
00000310: 85f4 9fc2 c6fb ce41 5871 5dc3 e455 2bc2
00000320: a757 c2c1 a969 b2c2 944b e9c2 c130 21c2
00000330: 77be 12c3 6fce b9c2 54b8 b841 0f4d 38c3
00000340: 96de 9cc0 5b1b 51c0 c044 70c0 9dd8 44c0
00000350: 55c2 8bc0 c98b 6ec0 a60c 27c0 e290 0ec0
00000360: fff5 73c0 ca6a 5ec0 f802 1fc0 fab1 80c0
00000370: 4bca 6dc0 0a53 81c0 9e57 58c0 4f14 91c0
00000380: 2dcb 0443 d886 0fc2 1455 ecc2 e8d2 18c2
00000390: aa88 2743 9c05 39c2 bb5a 8ec2 c39f 0cc3
000003a0: f8ca 21c2 e367 d8c2 098f 0cc3 7f5d 47c2
000003b0: 1155 b842 6264 8042 3724 f3c2 4149 ac42
000003c0: c70d 4e42 0337 5f42 37c4 6442 e229 5842
000003d0: d1c9 5842 e853 5942 b67e 4b42 440b 4342
000003e0: 1995 5842 b15b 3d42 8b91 4642 a33c 4e42
000003f0: dbbf 3d42 7997 5742 a8d1 5142 c839 5642
-95.719345 8.98059 14.397325 -106.901436 52.278107 -114.38135 11.639941 74.2921
68.041985 25.877834 79.57531 -12.885511 100.645424 -4.137812 14.543818 4.31611
-88.118706 187.94989 107.11652 -37.190025 -108.236015 -109.23836 -158.99214 -104.88112
-12.362053 -150.30464 -243.3444 -27.485432 -67.641556 -83.6991 -157.09183 69.12766
254.1033 78.98335 -146.54814 81.787674 196.98845 -99.96922 -86.95852 -137.46898
117.01863 -53.356262 -223.56291 -284.62674 -46.886562 -113.985756 -130.80457 138.82559
-78.27634 -170.21991 -152.21867 23.013227 -87.58629 -68.74997 7.5462446 84.88953
12.184026 5.9467134 1.8643264 136.76129 -76.314186 58.95759 -67.46247 69.65128
-28.13029 10.320827 20.74242 107.02241 210.38951 -116.156685 -13.27225 -103.40695
138.30705 -21.790768 -70.06921 -7.4512424 71.49923 63.809555 -4.5033846 48.067745
97.471 55.029774 84.00027 -58.28815 -13.432015 -171.97337 -199.19337 -64.48375
-79.845436 -246.45572 -116.96381 148.95992 -254.79788 -168.65126 32.366276 303.38892
101.97142 103.33089 100.77292 99.95519 101.858215 103.39245 100.05572 99.84419
102.0622 102.96733 98.03565 96.19104 98.83928 99.2797 94.90943 97.543686
95.289375 91.40861 90.95472 91.88619 90.49207 93.04962 91.33824 96.114624
92.25915 94.71216 95.76902 89.09561 84.1133 93.63955 89.997444 89.53675
-211.72719 -79.101036 84.88231 -49.087456 37.988197 142.13799 -5.6771703 208.11734
-4.856184 96.64638 66.309685 171.69835 -87.407684 -16.526344 18.310547 69.16821
-15.515052 -13.450004 -15.497833 -13.093858 -11.993733 -12.27083 -15.400398 -14.750786
-15.367057 -15.162252 -16.57726 -15.747044 -15.674406 -15.73204 -16.654947 -16.367647
-46.079353 -42.303764 81.642525 26.570553 38.53024 293.4879 163.9789 -25.11917
141.18776 116.29873 -0.95515907 -173.88405 16.396986 113.71679 -54.88592 23.579832
-70.987335 -1.288167 43.703037 -12.222379 -202.65193 36.387947 87.18389 113.75921
-54.600967 15.314071 247.16237 76.961525 95.86379 172.10481 86.46048 1.315753
-86.2642 -48.589714 -25.042141 4.7506533 -79.97758 25.872936 -221.44275 -42.833878
-24.292799 -89.20637 -116.64761 -40.29761 -146.744 -92.90319 23.090004 -184.30101
-4.902171 -3.2672946 -3.7541962 -3.075721 -4.367472 -3.7272818 -2.610147 -2.227593
-3.8118894 -3.475268 -2.4845562 -4.0217257 -3.715472 -4.0413866 -3.3803477 -4.533729
132.79366 -35.881683 -118.16617 -38.205963 167.53384 -46.255478 -71.17721 -140.62407
-40.44821 -108.2029 -140.55873 -49.841305 92.166145 64.19606 -121.57073 86.143074
51.513454 55.803722 57.191616 54.0409 54.197086 54.33194 50.87374 48.761
54.145603 47.339542 49.64213 51.559216 47.43736 53.897923 52.454742 53.556427

conv2.bias f4 [32]
00000000: ccc3 bcc2 ee24 6bc2 d21b 2dc3 faa3 04c3
00000010: 8220 00c3 2167 ddc2 eb01 46c3 8e0f e8c1
00000020: 3ee1 09c3 5bc1 0341 59f5 6bc3 06c8 e3c2
00000030: 8709 cdc2 3720 40c3 e332 5bc3 c5d2 aac2
00000040: fb8d 51c3 6c2c 42c3 f455 9dc2 ff1e cdc2
00000050: ee49 87c3 4155 69c3 7acb 01c2 fe29 19c3
00000060: ecad d8c2 cfea 24c3 710a 6f43 29e4 28c3
00000070: fc68 8dc2 6d48 71c3 7f0f 31c3 44ad 4ac3
-94.382416 -58.786064 -173.10867 -132.64053 -128.12698 -110.70142 -198.00749 -29.007595
-137.87985 8.234706 -235.95839 -113.89067 -102.51861 -192.12584 -219.19878 -85.41166
-209.55461 -194.17352 -78.66788 -102.56054 -270.57758 -233.33302 -32.448708 -153.16403
-108.33969 -164.91722 239.04079 -168.89125 -70.70505 -241.28291 -177.06053 -202.67682

bn2.weight f4 [32]
00000000: b52b 0143 4dbd 0243 5452 53c2 97a8 9dc2
00000010: 9cc6 3dc3 857b f5c2 9ced 1343 967b 1c43
00000020: 7001 7643 6b04 7dbf 3e09 1243 279f cb42
00000030: fbfe 43c1 1a9f 0243 3e2b eb42 6f3b 2843
00000040: f242 2cc3 2c90 2e43 0ca4 9342 6ebe f842
00000050: 13cc d042 4ff6 5643 9115 0dc3 5279 1643
00000060: 36d6 1543 04af f742 6741 5442 8b71 1043
00000070: 54ea fc42 c3ff 0643 a0be ea42 d545 d442
129.17073 130.73946 -52.8304 -78.82928 -189.77582 -122.74125 147.92816 156.48276
246.00562 -0.98834866 146.0361 101.810844 -12.249751 130.62149 117.58446 168.23216
-172.2615 174.56317 73.820404 124.37193 104.39858 214.96214 -141.08424 150.4739
149.83676 123.84183 53.06387 144.44353 126.45767 134.99907 117.372314 106.13639

bn2.bias f4 [32]
00000000: 6176 f541 4229 13c1 c4da 30c1 0f10 5841
00000010: 76a5 3742 0e99 30c1 bbae 2641 4494 e341
00000020: 5dfe 46c2 c9ae 1341 2387 96c1 0060 7941
00000030: 7328 0cc1 d9d3 c641 8498 38c0 d7d8 d8c1
00000040: 3e28 a641 2277 c3c1 f48a 623f c2cc 7c41
00000050: 1f4e d641 c85c 65c2 7464 2441 6fba b741
00000060: aa3d 43c1 fc66 a841 3169 cc41 ca9b 29c2
00000070: 07df 9641 4db8 d841 f2f1 00c2 0087 b63f
30.682802 -9.197573 -11.05341 13.503921 45.911583 -11.037367 10.417659 28.447395
-49.7484 9.230172 -18.815985 15.5859375 -8.759875 24.853441 -2.8843088 -27.105879
20.76965 -24.43317 0.88493276 15.79999 26.788145 -57.340607 10.274525 22.966032
-12.202555 21.050285 25.551363 -42.402138 18.8589 27.08999 -32.236275 1.4259949

bn2.running_mean f4 [32]
00000000: 7a57 8b48 1337 d547 a80b 9947 8b12 0248
00000010: 2e3f a747 5585 c247 35cb 0947 c373 9747
00000020: 69b4 fe47 72c8 4548 eefd 4c47 a37a a847
00000030: f014 cf48 c7ac 5447 f2cf 0c47 3849 2348
00000040: 6ad4 ec46 731a ed47 a7a7 8c47 ee7a e647
00000050: c418 4547 9ed7 b247 4842 1a48 d872 af47
00000060: cb05 1648 47ea 4d47 d0bd 2f49 d6d3 e847
00000070: e498 2d48 fd78 1648 e1d4 2e48 fcca 2447
285371.8 109166.15 78359.31 133194.17 85630.36 99594.664 35275.207 77543.52
130408.82 202529.78 52477.93 86261.27 424103.5 54444.777 36047.945 167204.88
30314.207 121396.9 72015.305 118005.86 50456.766 91567.234 157961.12 89829.69
153623.17 52714.277 719837.0 119207.67 177763.56 154083.95 179027.52 42186.984

bn2.running_var f4 [32]
00000000: 9fdb 4e51 33d7 fb50 30aa 8850 2936 b350
00000010: 1a50 ee50 d5f1 8c50 6ae2 5e50 fee3 7550
00000020: d3b6 7851 b10f aa51 baf0 8e50 93f7 a550
00000030: 0dc7 1552 0c46 8c50 782b 2750 1f1e 1151
00000040: 425c 0b50 cc9b 3851 a37c 7450 45e5 dd50
00000050: 3f8b 6150 9c80 2351 33a6 de50 06cb d550
00000060: a380 f750 425d a250 9d9c 8651 8413 0a51
00000070: a129 4651 2a30 5051 3873 3351 0c1f 1e50
5.5527993e+10 3.3801476e+10 1.8342838e+10 2.4053369e+10 3.1985816e+10 1.8917272e+10 1.4957521e+10 1.6501438e+10
6.67637e+10 9.130096e+10 1.9185127e+10 2.2275725e+10 1.6082241e+11 1.8827207e+10 1.1218575e+10 3.8954725e+10
9.352317e+09 4.955549e+10 1.6407236e+10 2.9782321e+10 1.5135997e+10 4.3889836e+10 2.9883472e+10 2.8694819e+10
3.3219222e+10 2.1792166e+10 7.226914e+10 3.7064557e+10 5.319387e+10 5.588508e+10 4.8170762e+10 1.0611339e+10

conv3.weight f4 [64, 32, 5, 5]
00000000: ea03 2d43 8871 21c1 4f31 0dc3 2b66 f8c2
00000010: 963c e541 62af b442 299a ab42 ae54 cec2
00000020: e604 ca42 8603 8942 bcec 5940 8762 8742
00000030: 6be9 23c2 9c33 5343 be5f 7641 a0c0 f1c1
00000040: 4824 a942 03b1 65c2 4e12 97c1 eeba cbc0
00000050: 8197 3742 defa e4c2 0011 b1c0 f158 c4c2
00000060: 39b6 ed42 93f2 6b42 586f 07c3 9391 9141
00000070: 7c12 6941 37c2 14c3 f2ae 14c3 d4e4 5ec3
00000080: 29cc 3842 0a72 f5c2 8c25 c4c2 0a37 88c2
00000090: 229e e2c0 e502 2943 3f06 10c3 175c 9bc2
000000a0: ee81 e242 0e8d 2242 d58a 5c42 3839 b740
000000b0: f43e 4940 4b82 9f41 b3b6 1f42 f8a5 bebe
000000c0: 993d e640 5398 8e41 94de 27c2 3cea 31c2
000000d0: c04e f041 ef54 0540 c32c b042 ace0 e942
000000e0: 384f a3c2 d4b4 a4c2 91cb 1242 d423 3e43
000000f0: 6155 07c3 10b0 67c2 7d4e 2e42 173a 2642
00000100: 2776 de41 b694 7b41 60de 92c2 085d 2e41
00000110: 6709 a342 3f9b d841 72c3 db42 b7ba 1842
00000120: 3b71 ef42 6871 f4c1 6587 6f42 4290 10c2
00000130: 6deb 4842 89b1 c241 dd96 85c2 fe70 2043
00000140: 1a9c a9c1 7f10 db42 01df 51c3 71ad 0541
00000150: 7d19 7a42 c3ae 9dc2 146c 9a42 8fbf 5040
00000160: d462 c942 f6a3 1141 755c b1c2 c8e2 0e43
00000170: 4b34 aac2 7427 5bc3 b5f8 b5c1 72ab b742
00000180: a601 b141 a501 fd41 11d1 9942 8d14 6042
00000190: 811a 1843 4cc9 6342 4b48 8843 e620 f942
000001a0: 7ec9 dfc2 0412 5241 5115 a242 829a ce42
000001b0: 349f 8dc2 8d3d eec0 b969 97c2 2d09 c140
000001c0: bd75 a1c1 69e0 89c2 c5aa 2242 2a11 7841
000001d0: 5a75 1ec3 0ccf 58c3 9605 a7c2 84b1 b542
000001e0: 8ef7 c5c2 bdc9 33c2 4177 05c2 965f 2742
000001f0: 007a 9f41 b586 1442 94ca d8c2 11e0 0543
00000200: 6f36 9243 b962 f6c1 502b 52c3 b212 8a42
00000210: 06f8 6e40 778d b242 65be f9c2 6cab 7842
00000220: 2ec2 13c3 66e3 11c3 6c5a 1241 1584 8ec2
00000230: 8fc5 3a43 bca6 6142 63c3 91c1 21a1 1a42
00000240: ec26 6dc3 d46b 4842 7337 d4c2 ecd2 e841
00000250: 0595 e5c2 30b8 7240 e2da 0442 2844 0ac3
00000260: f96e 78c2 8bc5 26c2 b0e1 a2c0 769d 52c3
00000270: aa7e 9b41 c633 21c3 7ed7 5343 9887 a140
00000280: 8753 26c3 8f3e cc42 3a89 0bc3 ef42 8c42
00000290: 081d 31c2 b292 a741 987d 1042 d2b1 cbc2
000002a0: 4033 61c3 d059 2d42 7875 b242 81d5 3742
000002b0: 2215 1dc3 da78 2743 ad16 1dc2 f548 29c1
000002c0: 7e58 84c1 c157 1ac2 1797 01c3 38b6 4ac2
000002d0: e5e8 c4c2 d0c6 4ac3 a537 13c3 ed0a ecc2
000002e0: 3c9d 6a43 7a0d 24c2 d600 ff41 9875 17c3
000002f0: b5f9 33c1 e524 8c43 6f79 a4c1 9e57 4b43
00000300: 1e03 5cc1 4e22 8542 08b5 51c2 984f 3141
00000310: dd3b 4a42 4666 f1c1 5e37 0ec2 98e0 f6be
00000320: 4c7b d9c2 3df2 2543 b603 0d42 b6b1 c9c2
00000330: 509d db41 0eb7 f142 e3e7 5342 32d3 31c1
00000340: f6df 4fc3 fa85 1942 d95c 1d41 d7ae 0a42
00000350: 9b46 8241 4843 25c1 121a ab42 3ad4 13c3
00000360: 3465 05c3 d46c dc41 61b5 43c2 7e12 12c1
00000370: c488 46c3 90f4 b842 3b54 5842 870b a342
00000380: 05cf ef42 0b51 1ac2 3187 a241 bc8f 4843
00000390: edcd efc1 cccc a3c2 d620 6242 156b b8c1
000003a0: 6d1b 1b43 e97e 4843 6c28 c2c1 790d bc42
000003b0: d1c2 5e42 4caa c142 d3df 7c43 b88e 7542
000003c0: 217b 0543 1d63 3543 1f88 0543 e213 1b43
000003d0: 2364 a341 36b3 ffc2 ef2d 97c2 366e bac1
000003e0: 25c5 2c43 cd05 6442 4490 2ac1 91ed 01c2
000003f0: 38f8 0a43 2631 7dc2 404f 5142 cf0f 74c2
173.01529 -10.090218 -141.19261 -124.19955 28.654583 90.342545 85.801094 -103.16539
101.00957 68.50688 3.4050741 67.69244 -40.977947 211.2016 15.398375 -30.219055
84.57086 -57.422863 -18.883938 -6.3665686 45.897953 -114.489975 -5.533325 -98.17371
118.8559 58.98689 -135.43494 18.196081 14.567013 -148.75865 -148.68338 -222.89386
46.199375 -122.72273 -98.07333 -68.1075 -7.0818033 169.0113 -144.0244 -77.67986
113.25377 40.63775 55.13558 5.7257347 3.1444674 19.93862 39.928417 -0.37236
7.1950192 17.824377 -41.96736 -44.478745 30.038452 2.083309 88.087425 116.93881
-81.654724 -82.35318 36.698795 190.13995 -135.33351 -57.921936 43.57665 41.55673
27.807692 15.723806 -73.434326 10.897713 81.518364 27.075804 109.88173 38.18234
119.72115 -30.555374 59.88222 -36.140877 50.229908 24.336687 -66.794655 160.44138
-21.201221 109.53222 -209.87111 8.354844 62.52489 -78.84133 77.21109 3.2616918
100.69302 9.10253 -88.68058 142.88586 -85.102135 -219.15411 -22.746439 91.834854
22.125805 31.625803 76.90833 56.02007 152.10353 56.94658 272.5648 124.564255
-111.89354 13.129398 81.04163 103.30177 -70.81094 -7.4450135 -75.70649 6.03237
-20.18249 -68.9383 40.666767 15.50419 -158.4584 -216.80878 -83.51091 90.84671
-98.983505 -44.94701 -33.36646 41.843346 19.93457 37.13155 -108.39566 133.87526
292.42526 -30.798204 -210.16919 69.036514 3.7338881 89.2763 -124.871864 62.167404
-147.75851 -145.88828 9.147076 -71.25797 186.77171 56.412827 -18.220404 38.657352
-237.15204 50.1053 -106.1083 29.10299 -114.79105 3.792492 33.213753 -138.26624
-62.10837 -41.692913 -5.0900497 -210.61508 19.436848 -161.20224 211.84177 5.047802
-166.32628 102.122185 -139.53604 70.13073 -44.27835 20.946629 36.12265 -101.847305
-225.2002 43.337708 89.22943 45.9585 -157.08255 167.47208 -39.272144 -10.580312
-16.54321 -38.585697 -129.5902 -50.677948 -98.45487 -202.77661 -147.21736 -118.02134
234.6142 -41.01316 31.875408 -151.45935 -11.248464 280.28824 -20.559294 203.34225
-13.750761 66.567 -52.42679 11.081932 50.55846 -30.174938 -35.55407 -0.48218226
-108.740814 165.94624 35.253624 -100.84709 27.451813 120.85753 52.97645 -11.114061
-207.87485 38.380836 9.835168 34.670742 16.284475 -10.328926 85.55092 -147.82901
-133.39532 27.553139 -48.927128 -9.129515 -198.53424 92.47766 54.082256 81.522514
119.904335 -38.579144 20.316011 200.56146 -29.97555 -81.899994 56.532066 -23.052286
155.10713 200.49574 -24.269737 94.02631 55.69025 96.83261 252.87431 61.389374
133.48097 181.38716 133.53172 155.07767 20.423895 -127.85002 -75.589714 -23.303814
172.7701 57.005665 -10.660221 -32.482 138.9696 -63.297997 52.327393 -61.015438

conv3.bias f4 [64]
00000000: b165 f641 7d4c 0ec2 69c3 13c2 2db6 d541
00000010: de38 79c2 b4ee 5e40 d854 8ec0 1e7a 7ec2
00000020: 16dd 86c2 6212 e2c2 3a6f e5c1 03d7 8dc1
00000030: d218 1ac2 552c 15c3 271b 66c1 b283 4ec2
00000040: 3eaa d3c2 3a53 cdc2 4451 f4c1 7b03 8d41
00000050: e0de 31c2 a600 03c2 becf 9341 ffbb e1c2
00000060: 06b4 36c2 5460 abc2 bc1e 11c3 d84c c0c0
00000070: b63c 01c3 6c7a d8c2 2437 00c3 e542 24c3
00000080: 7fcb 9dc2 af8c 9ac2 adad fec1 75ff 8a41
00000090: 9f40 9cc1 50c3 0141 78ed 07c2 4646 a2c2
000000a0: 951a 26c2 3192 4ec1 a012 78c1 92bd 9bc1
000000b0: 921f 2643 d325 da42 25a4 93c2 6144 0942
000000c0: 092f 52c0 e4f2 55c2 cf32 2542 3f83 2d41
000000d0: cff3 d440 10fe f242 4fdd 0743 5d29 0c43
000000e0: 938a 76c1 847b 44c2 c12d 84c2 48ee b5c2
000000f0: 670c 52c3 6bae afbf 9d9f a2c2 1433 54c2
30.799654 -35.574696 -36.94083 26.713953 -62.305534 3.4833193 -4.447857 -63.619255
-67.43181 -113.035904 -28.67931 -17.729986 -38.52424 -149.17317 -14.381629 -51.62861
-105.832504 -102.66255 -30.53968 17.6267 -44.46765 -32.750633 18.476437 -112.86718
-45.675804 -85.68814 -145.12006 -6.0093803 -129.23715 -108.239105 -128.2154 -164.2613
-78.89745 -77.27477 -31.834803 17.374735 -19.531553 8.110184 -33.981903 -81.13725
-41.52596 -12.910691 -15.504547 -19.467564 166.12332 109.073875 -73.820595 34.316776
-3.2841208 -53.487198 41.299618 10.8445425 6.654762 121.496216 135.86449 140.16158
-15.408832 -49.12062 -66.08936 -90.96539 -210.04845 -1.3725103 -81.311745 -53.04988

bn3.weight f4 [64]
00000000: a20b 2242 245b db42 27fa fcc0 a1ae adc2
00000010: 4a28 a341 f6c5 2a43 6b03 8f42 0c1f 8242
00000020: d8bf 7342 354f ba42 ccfc 8042 5922 87c2
00000030: 1758 a042 b8c6 9d42 c530 4d42 b266 4243
00000040: 46fb ae42 72c1 4243 2e7e 0d42 b740 76c2
00000050: 5361 28c2 8580 bfc2 29e9 75c2 bb8a ae41
00000060: 3a90 6a42 db65 2b41 b94e 82c2 36f6 8c40
00000070: c609 27c1 db4e 6dc1 bca6 c241 1295 d6c2
00000080: d4d3 9c42 36d8 6ac2 12b6 1542 6c09 8d42
00000090: 71c9 a1c2 0758 adc2 2b86 8542 e4df 52c2
000000a0: 1f13 81c2 45f4 50c2 d585 17c2 117a 2ac2
000000b0: 2c2a 2c43 f995 9b42 163e c9c1 620a 1cc3
000000c0: 2db6 3743 8bc8 9042 1b09 3543 8489 9942
000000d0: 1f93 6bc2 7250 0743 c111 2043 126c 5d43
000000e0: 8947 92c1 ca96 9e41 fd85 3842 0f9b 0b43
000000f0: 17e6 cf42 06c9 8742 fa6d 6342 c768 40c2
40.51136 109.67801 -7.905536 -86.84107 20.394672 170.77328 71.506676 65.06064
60.937347 93.1547 64.493744 -67.567085 80.17205 78.88812 51.297626 194.40115
87.49077 194.75565 35.373222 -61.563198 -42.095043 -95.751015 -61.477695 21.81774
58.640846 10.712367 -65.153755 4.405055 -10.439886 -14.831752 24.331413 -107.29115
78.41373 -58.711143 37.427803 70.5184 -80.89344 -86.67193 66.76205 -52.718643
-64.537346 -52.238544 -37.880695 -42.619205 172.16473 77.792915 -25.155315 -156.04056
183.71162 72.391685 181.03557 76.768585 -58.893673 135.31424 160.06935 221.42215
-18.28493 19.823627 46.130848 139.6057 103.949394 67.892624 56.8574 -48.10232

bn3.bias f4 [64]
00000000: 8c12 4cc3 2502 b141 c846 9a42 3c39 a2c3
00000010: 4e7d 7742 b317 b542 ef99 a942 d0ad 0043
00000020: e67c e542 5af3 fb40 1d60 31c2 04b1 4d43
00000030: 3705 8b42 0509 7043 88e4 a143 b67c 1441
00000040: 4a45 5442 81af 0342 57f5 8942 edf1 6d43
00000050: d208 d8c2 e275 6743 a133 a543 08d2 fc42
00000060: 1e25 0843 542b 3243 df1b 0643 4bd9 ee42
00000070: b788 33c3 2991 03c3 b0cb a4c2 3d0b 0a41
00000080: 08b5 27c3 d55d 2f40 880e f741 9333 5743
00000090: 068b 3cc3 22d5 cf42 22c4 9b42 48c2 51c3
000000a0: dbfe bd42 3ccf b8c1 71f6 c0c1 8dd7 9743
000000b0: 11dd 33c2 bbfa 3343 45f8 163d 7085 c0c2
000000c0: 023b 72c2 94ce 1043 460d d9c1 18dd 4642
000000d0: 4d4b 1c43 433b 7741 0f24 88c3 d1e9 d842
000000e0: 9634 6342 ac28 9b41 dcb6 2a42 4049 38c3
000000f0: 469c 05c2 d9cb 14c3 4981 5e42 2f66 b2c2
-204.07245 22.126047 77.138245 -324.44714 61.872368 90.54629 84.80065 128.67896
114.74394 7.873456 -44.34386 205.69147 69.510185 240.03523 323.7854 9.280447
53.067665 32.92139 68.97918 237.94502 -108.01723 231.46048 330.40335 126.41022
136.14499 178.16925 134.10887 119.4244 -179.53404 -131.56703 -82.39783 8.627744
-167.70715 2.740102 30.882095 215.20146 -188.54306 103.916275 77.88307 -209.75891
94.997765 -23.101189 -24.120333 303.684 -44.965885 179.97942 0.036857862 -96.26062
-60.557625 144.80695 -27.131481 49.71591 156.29414 15.451968 -272.2817 108.45667
56.801353 19.39486 42.678574 -184.28613 -33.40261 -148.79628 55.626255 -89.19958

bn3.running_mean f4 [64]
00000000: 03d2 7248 6f9c f148 9357 4547 9ff3 8f48
00000010: a013 8845 3b24 4e49 0f8b a048 8c03 7248
00000020: 7a2a cf48 c350 9048 9b36 ac41 0400 0000
00000030: 366e 3048 e4ac 8f48 d0cd 2d48 bf71 3d49
00000040: 6c0c 9a48 6d1e 3549 a13a c13d 049e 4e48
00000050: 58e6 4248 43f3 6a42 8c5a 0349 87aa 2248
00000060: 9126 9048 ffae fd44 4447 0d48 521d d73c
00000070: d597 8847 d412 9c46 6c47 7f47 4497 a448
00000080: 6e9a 9648 dcab c548 e98b 6b48 e11b d148
00000090: 13a5 d248 6de6 fd48 d77e 7b40 a8ea 8748
000000a0: ffb5 0149 489c 4048 1e4e 0648 3e61 5c48
000000b0: e179 0649 b1dd 3c49 50aa eb42 05db 0149
000000c0: 36a9 1449 7941 a848 521a 3049 ee8a a148
000000d0: 199f 6e48 7a18 0949 a82c 0949 16a8 2a49
000000e0: 0fcb 203f e7ee d342 1970 6a48 258c f748
000000f0: c387 f448 2a29 6648 f34d 7748 3c52 3848
248648.05 494819.47 50519.574 294812.97 4354.453 844355.7 328792.47 247822.19
424275.8 295558.1 21.526663 6e-45 180664.84 294247.12 177975.25 775963.94
315491.38 741862.8 0.09435011 211576.06 199577.38 58.73756 538024.75 166570.11
295220.53 2029.4686 144669.06 0.026259098 69935.664 19977.414 65351.42 337082.12
308435.44 404830.88 241199.64 428255.03 431400.6 519987.4 3.9296167 278357.25
531295.94 197233.12 137528.47 225668.97 550814.06 773595.06 117.83264 531888.3
608915.4 344587.78 721317.1 330839.44 244348.39 561543.6 561866.5 699009.4
0.6280984 105.966606 240064.39 506977.16 500798.1 235684.66 253239.8 188744.94

bn3.running_var f4 [64]
00000000: 80db 0152 9ea2 5d52 fe2a e950 5ef2 0c52
00000010: a8d8 b54e 61dc c452 07b9 2452 3a98 e951
00000020: 102f 7152 f81b 0a52 61f1 a549 0400 0000
00000030: cf05 9851 d5b4 ef51 f9d5 a051 8362 0253
00000040: c695 1b52 3912 c952 28bf 0345 2172 cc51
00000050: be8b fc51 7d7f 724a 3660 8a52 f75c 6a51
00000060: 15e5 0852 5d6c 6f4e 624f 6051 5371 a043
00000070: 37e8 6451 45bc f94f 1c47 b650 7ebd 3852
00000080: 4564 1152 f3f5 4452 cf53 ea51 eb38 2252
00000090: d427 2852 6286 4552 5543 6348 dc7d 0952
000000a0: 793c 2652 9404 9651 63a5 8251 d5b2 0652
000000b0: 490c 9b52 7d16 a752 9fe1 834b f10b 6352
000000c0: b3ce 5052 e4d2 e351 255c 9b52 91bf 1452
000000d0: c93c d951 814b 8a52 6ecf 8c52 137b c252
000000e0: 8884 4646 b5c9 4a4b 5377 1e52 c78e 3652
000000f0: 80d2 5252 291a db51 06a1 2452 1bb6 cc51
1.3943335e+11 2.3797901e+11 3.129527e+10 1.5134042e+11 1.5254374e+09 4.2275547e+11 1.7686972e+11 1.25410165e+11
2.5896917e+11 1.4829368e+11 1.3594041e+06 6e-45 8.161656e+10 1.2869138e+11 8.634808e+10 5.599985e+11
1.6705818e+11 4.3179708e+11 2107.9473 1.0976101e+11 1.3558453e+11 3.9730872e+06 2.9715982e+11 6.2911377e+10
1.4698973e+11 1.0042141e+09 6.021278e+10 320.88535 6.144678e+10 8.3797304e+09 2.4464908e+10 1.9836328e+11
1.5611313e+11 2.1148498e+11 1.2580355e+11 1.741849e+11 1.8055568e+11 2.1209078e+11 232717.33 1.4763052e+11
1.7849478e+11 8.054024e+10 7.014006e+10 1.4463148e+11 3.3296302e+11 3.588184e+11 1.728595e+07 2.4378948e+11
2.2420526e+11 1.2231197e+11 3.3363293e+11 1.5971728e+11 1.1662846e+11 2.969861e+11 3.0238776e+11 4.1764425e+11
12705.133 1.3289909e+07 1.7015169e+11 1.9601986e+11 2.2636868e+11 1.1762959e+11 1.7676904e+11 1.0990357e+11

fc1.weight f4 [256, 64]
00000000: 9fea 14c2 99b8 6dbf 8437 cfc0 3adb adc2
00000010: c566 ccc2 e248 ac42 d8fc 82c2 da35 9fc2
00000020: 18a3 13c2 fbc6 20c2 7a4a 84c1 be7f 2e42
00000030: 08a7 5942 282a 0a42 1958 b542 4d0f 3742
00000040: f9a7 dec1 29c7 3142 a903 2c42 b096 2541
00000050: bfca aac2 7e40 1342 9a3d e2c2 3d73 8842
00000060: f033 67c0 7312 f342 865b 83c2 2a45 2742
00000070: a8c3 eac1 f30a c241 2522 5342 2816 9c42
00000080: 03c7 47c2 5f38 9842 1f00 4342 9adf 7542
00000090: c31b 65c2 178a d942 4010 0142 f5dd cc40
000000a0: 9c8a a0c2 2e0b 4242 0fc9 83c2 51eb 2441
000000b0: 0b7e ee42 86f4 bb42 557b 3a42 c373 a942
000000c0: 60dc 0a42 169a 8742 ee6a d241 5f9e 92c2
000000d0: 8c22 29c1 7ad4 0b43 1a59 14c2 1bc2 eec2
000000e0: f2e9 5942 6fd1 d841 2f53 a2c2 05c4 20c3
000000f0: a6ba b7c2 3c72 cfc1 6f8f 7542 44d5 5141
00000100: d1a1 cb41 b391 bc41 fd0d 4bc1 5bba df41
00000110: f5d2 42c0 8495 88c1 d067 cd3d ee59 49c1
00000120: b321 a6c0 9c5c 2f41 e45d f8bd 74c2 01c1
00000130: 3438 c641 2dee eac1 f945 afc0 9f85 74c2
00000140: f2d9 76c1 2dc0 27c2 87db b7c1 4e55 da41
00000150: 77d0 8e41 ac64 933f db13 56c1 32f7 29c0
00000160: 78a9 2fc2 604d aac1 54dc f0c1 a04a f6c0
00000170: 9fbe 2041 2f19 8cc0 0af1 0342 0af8 8341
00000180: 057a 90c1 ba53 02c2 44c8 24c1 5b38 e8c1
00000190: ad26 efc0 1e91 8141 f840 14c2 bd04 2c42
000001a0: 3500 00c1 e5d4 71bd d2fa f7bf 5b5a ffc1
000001b0: 0a7d 2342 3405 2f41 f376 9ac1 0bc4 3ac1
000001c0: 7dfe 0ec1 b41c e5c0 9a55 c93c 4cbb 23c1
000001d0: caed 2041 60ec 19c2 5d8f 1442 f94e e241
000001e0: e14c 78c0 d25c d140 fa7b 8ac0 d56e ae41
000001f0: 6deb bfc1 09cb 0c42 dcf5 79c2 e840 cac1
00000200: 9ac7 cc40 0e1d 96c0 c6d1 08c1 0b46 ecbf
00000210: 7b52 95c0 ff26 2cc1 167e ee40 8802 efbf
00000220: 3885 5bc0 464e 28c0 39c7 1541 4def 0b40
00000230: 7c41 d3c0 9e4a d8c0 2e4f 2bc1 6da2 78c0
00000240: eacb a2c0 5f54 e0be d31d 4c40 1cd0 1ec1
00000250: c0e0 a0c0 346d c040 cb3a fdc0 5af2 8bc0
00000260: 7e7f 8c40 137b 5cc1 51ae 923f e9ba 05c1
00000270: 78ec 6cbf c287 b540 cf9c bac0 720a 92bf
00000280: 0b0a 2c40 306f 0f41 c01c cac0 d808 5bc0
00000290: c629 9ac0 8fb1 093d d652 2cc1 4cd9 6240
000002a0: 7f33 9640 e1d2 1ac1 d840 14c1 91b3 86c0
000002b0: b706 a740 40e0 3ec1 7c67 1dc0 2ca0 20c0
000002c0: 9300 efc0 37d9 24c1 f10d 13c0 2d51 b23f
000002d0: 0769 05c1 bbe0 c13f 4698 ed3f 96a8 3941
000002e0: 707c 6840 7563 2fc0 db23 a03f 4723 7ec0
000002f0: b220 9a3f 2df0 0cc1 0aa9 c340 b76a 5c40
00000300: 8ef6 c23f e4e5 913f 4fca 7cc0 da0f 46bf
00000310: c230 9d40 7617 0ac0 57d0 7740 0fa7 68bf
00000320: b0ee fbbd 2983 04c0 1e97 1940 b5b8 27bf
00000330: 89b1 8cbf b8e2 c33e 75a6 103f 3ba3 e83f
00000340: c5ee 31c0 b2c8 9abf 8dfc a53e 02ad a2c0
00000350: 0d5e 853e a9f4 09c0 d11f 0fc0 1ff7 bcc0
00000360: 4478 ef3f 03d5 abc0 6b66 a03d 7aa5 4c3f
00000370: ed73 e93f 39d7 1d40 69b0 2fc0 d572 46be
00000380: 75ad 3240 fba8 693e 1ea9 54c0 564d 61bf
00000390: eb0b ad3f 7f59 83bf 1aa7 c4bf 6613 f53f
000003a0: 9583 e53f 1411 07bf 26c4 dbbc d3f2 3abf
000003b0: a9be e13e c935 16c0 9830 d0bf 4c1e bc3f
000003c0: e8d7 9bbf c1e9 fcbf c1ff 083f 27d6 c53e
000003d0: fd6f 4a3f 3e5d aa3e c9e8 2a3f 7e38 2940
000003e0: a783 a5bf 0eb0 c93f e220 3d40 f992 0e40
000003f0: 7ff7 debf 9242 aebe 2847 573f 8260 62bf
-37.229122 -0.928598 -6.475527 -86.92818 -102.20072 86.14235 -65.493835 -79.60518
-36.90927 -40.194317 -16.536366 43.62475 54.413116 34.54117 90.672066 45.764942
-27.832018 44.444492 43.003574 10.349289 -85.39599 36.81298 -113.120316 68.225075
-3.612545 121.53603 -65.67876 41.817543 -29.345535 24.255346 52.783344 78.043274
-49.944347 76.1101 48.75012 61.46836 -57.27711 108.76971 32.26587 6.4020944
-80.27072 48.510918 -65.89269 10.30745 119.24618 93.977585 46.62044 84.7261
34.71521 67.80095 26.302212 -73.30932 -10.570934 139.82999 -37.087013 -119.37911
54.478462 27.102262 -81.16247 -160.7657 -91.86455 -25.930779 61.39007 13.114567
25.454012 23.571142 -12.690915 27.965994 -3.0441258 -17.073006 0.10029566 -12.5844555
-5.1916137 10.96011 -0.12127283 -8.109974 24.777443 -29.366297 -5.4772916 -61.13049
-15.428209 -41.93767 -22.982191 27.291653 17.85179 1.1515098 -13.379848 -2.6557126
-43.915497 -21.28778 -30.107582 -7.6966095 10.046538 -4.378074 32.98539 16.496113
-18.05958 -32.581764 -10.298893 -29.027517 -7.473471 16.195858 -37.063446 43.004627
-8.000051 -0.059040923 -1.9373419 -31.919119 40.87211 10.93877 -19.30808 -11.672862
-8.937131 -7.159754 0.02457695 -10.233227 10.058054 -38.480835 37.140003 28.28856
-3.8796923 6.5425806 -4.327634 21.804117 -23.989954 35.198277 -62.490097 -25.281693
6.3993654 -4.6910467 -8.551214 -1.8458875 -4.6663184 -10.759521 7.4528913 -1.8672647
-3.430006 -2.6297774 9.361138 2.1864808 -6.6017437 -6.7591085 -10.706831 -3.8849137
-5.087392 -0.4381437 3.1893203 -9.925808 -5.0274353 6.0133305 -7.913427 -4.373334
4.390563 -13.780047 1.1459447 -8.358132 -0.9254832 5.672822 -5.8316417 -1.1409438
2.688113 8.964645 -6.3160095 -3.4224148 -4.8175993 0.0336166 -10.770224 3.5445127
4.693786 -9.676484 -9.265831 -4.2094197 5.2195697 -11.929749 -2.4594412 -2.509776
-7.46882 -10.303031 -2.297726 1.3931023 -8.338141 1.5146707 1.8562095 11.603659
3.632595 -2.7404454 1.2510942 -3.9709032 1.2041228 -8.808637 6.1143847 3.4440134
1.5231493 1.1398282 -3.949848 -0.7736794 4.912202 -2.157682 3.872091 -0.9087991
-0.123013854 -2.0705054 2.3998485 -0.65516216 -1.099168 0.3825891 0.56503993 1.8174814
-2.7801983 -1.2092497 0.32419243 -5.083619 0.26048318 -2.1555579 -2.236317 -5.905166
1.8708577 -5.3697524 0.07832035 0.7994 1.8238503 2.4662611 -2.7451422 -0.19379742
2.791837 0.22818367 -3.322822 -0.8800863 1.3519262 -1.0261687 -1.5363495 1.9146545
1.7930781 -0.52760434 -0.02682693 -0.7302677 0.44090775 -2.3470328 -1.626483 1.4696746
-1.2175264 -1.9758836 0.5351525 0.38639948 0.7907713 0.33274263 0.6676145 2.644073
-1.2930802 1.5756853 2.955132 2.2277205 -1.741928 -0.34035164 0.8409295 -0.8842851

fc1.bias f4 [256]
00000000: 871c 2342 6f63 7ec1 4045 bcc0 74b4 63be
00000010: d91c b0c0 6c6c 4cbf f908 01c2 1011 1cc0
00000020: 2705 0042 395d 1542 1427 e9c0 f027 82c1
00000030: 4bf8 f9c0 4dd7 77c1 c316 adc1 6f02 9d42
00000040: 4bc7 85c1 79b6 b4c0 5bd6 a841 2985 3ac1
00000050: fe56 ab41 12e6 9dc0 6ffc 2fc0 0541 34c1
00000060: c6b4 8dc2 6413 743f ea3f 24c0 c8b3 74c1
00000070: 9c0e e841 82dd 0dc1 5eab bb42 3fc8 36c1
00000080: e95a 4541 870a c541 a015 21c0 87c5 33c1
00000090: bb40 e642 d7aa f141 6399 cbc0 edc6 d0bf
000000a0: 22f9 d9c2 3198 8bc0 e570 bbc1 7725 e3bf
000000b0: 32f9 2ec2 495d e6c0 c7f3 9fbf 503e 93c0
000000c0: e488 18c2 ff40 17c1 bc0f a841 e39a 64c1
000000d0: 40c9 9dc1 d4b4 0743 6d62 77c0 b8c1 8dc0
000000e0: 2f39 76c0 f778 27c1 f5f2 b03e 54e4 17c2
000000f0: 3776 96c1 2a96 4a3f 564a 82c1 86f6 ddc1
00000100: 9bbf 4bc1 3a27 06bf 228c c441 1cd0 81c1
00000110: aa65 0ac1 447e debf b383 f4bf caab 32c0
00000120: 6570 00c1 8470 0042 001f 0cc2 d7cd 86c0
00000130: 1872 47c0 57e6 7fc0 45e2 c7c1 6dca 603f
00000140: e3b5 f4c1 4fa0 8fc0 cdff e9c0 51c0 16c1
00000150: 01dd c8c0 cd4b 9dc0 23da 09c1 d973 5dc0
00000160: cd38 84c1 7514 a6c0 26b8 433f e74c e342
00000170: 96a2 6cbf a092 33c0 fc1a 04c0 db7d 91c0
00000180: fe88 cc42 8790 a140 a121 293e f96d c1c0
00000190: ae4e 17c1 f8ab e1c0 7578 22c0 705c f8c0
000001a0: b9c3 3fc1 9d12 a742 848b acc0 cf81 82c1
000001b0: 5cbf 7cc1 3af0 5dc0 eba0 05c0 2ca3 4041
000001c0: 376f 3cc1 cb7f 8bc0 8f1d aec0 8541 4f41
000001d0: 412b 1dc2 d81b eec0 1a11 a4c0 c88b e2c0
000001e0: 654b 32c1 dec0 2ac1 4a4a 6e3e 482a 5ac0
000001f0: 0aba 4ac0 2d07 a6c0 534a 2541 5aaa 56c0
00000200: 1777 e0be a344 e5c0 61f8 a7c0 12e0 3ac0
00000210: 6908 a0c0 6cad e2c0 c67a eebe 1140 1fc1
00000220: 584c b240 1ca2 f7c0 5a42 1041 8094 a0c0
00000230: 41d0 b8c1 d59b 9dbf b778 98bf 0ff7 9ac0
00000240: 9396 5242 7cc3 c842 c378 c6c0 f769 d1c0
00000250: c2cc 11c1 1bc5 fcbf f645 a8c0 31d7 a4c0
00000260: 857a 71bf bb5a 8cc0 170c 15c1 39d5 cec0
00000270: 6afe b441 df8b 5c42 8103 3942 8538 6dc1
00000280: e0ed 75c0 562e 7fc1 fb1c 4742 552a 33c1
00000290: 20ea ea41 980a bfbf c4c5 5842 702a efc0
000002a0: 1680 b9c2 17e5 8fc1 4f2e 4142 b394 1bc1
000002b0: 50dc 20c0 1e11 a23f 4f86 ddc0 352d a3c0
000002c0: 5310 c0c0 c14a 1242 e842 39c1 aae7 9bc0
000002d0: e363 f1c0 bb04 cfbf 2c5a 5c40 7eb3 96c0
000002e0: 5a2f 65c0 e7ba 52c1 af0e 8540 0364 71c0
000002f0: ffbe 78bf 278a 18c1 c7e0 b13d 7107 51c1
00000300: f9e2 0c40 801a 7742 20f8 2fc1 b44e aac0
00000310: 38bc e240 18a5 93c0 310e 8bbe 2167 acc0
00000320: c54b 08c1 6217 f241 6a87 bdbf f1ce b73f
00000330: 6b47 b43e b15c 84c0 2555 97c0 c27a 5cc0
00000340: aad3 cec0 b373 c7c0 2c96 6cc0 dfa8 76c1
00000350: 1d11 35c0 551a aac0 e531 33c0 a604 09c1
00000360: 855b 3cc1 1fdb 5ac0 2211 1b43 dcb6 c242
00000370: 2fbf d4c0 621d 13c1 7544 52c0 2de6 0bc2
00000380: 3908 9dc0 1952 0cc0 3640 f6c1 97d9 e141
00000390: e8c6 08c0 7951 f8c0 5c88 eac0 3b0f 23c0
000003a0: 0907 5bbf 641d 3dc1 4dfd 85c1 5fc1 90c1
000003b0: 97d7 dcbe 1668 46c0 c5cb cac1 7566 47c0
000003c0: d83e b6c0 faeb 2c43 a2e4 93c0 0ced d5c2
000003d0: de48 c7c1 b03c 96bf 2baf b5c0 4a3f 2942
000003e0: 871c dbc0 0e24 0ac0 ab50 97c0 bdb5 0fc2
000003f0: 6a64 6a42 d1ec 54c2 6e0c 46c0 4857 93c1
40.77786 -15.899276 -5.8834534 -0.22236806 -5.5035214 -0.7985294 -32.258762 -2.4385414
32.00503 37.341038 -7.2860203 -16.2695 -7.811559 -15.490064 -21.636114 78.50475
-16.722311 -5.6472745 21.104666 -11.65751 21.417477 -4.9343348 -2.7497823 -11.265874
-70.85307 0.9534209 -2.566401 -15.293892 29.007133 -8.866579 93.8347 -11.423888
12.334695 24.63014 -2.516945 -11.235724 115.12643 30.208418 -6.362474 -1.6310707
-108.98659 -4.362328 -23.430124 -1.7745808 -43.743355 -7.1988873 -1.249627 -4.6013565
-38.133682 -9.453368 21.007683 -14.287814 -19.723267 135.70636 -3.8653824 -4.4298973
-3.8472402 -10.467032 0.34560362 -37.972977 -18.807722 0.7913538 -16.286297 -27.745373
-12.734279 -0.52403605 24.568424 -16.226616 -8.64982 -1.7382283 -1.9102691 -2.7917352
-8.02744 32.10988 -35.030273 -4.212627 -3.1163387 -3.9984338 -24.985483 0.8780888
-30.588812 -4.488319 -7.3124757 -9.421952 -6.276978 -4.915503 -8.615756 -3.4601958
-16.527735 -5.189997 0.76452863 113.6502 -0.92435586 -2.8058243 -2.064147 -4.546613
102.26756 5.0488925 0.16516735 -6.0446744 -9.456709 -7.0522423 -2.538602 -7.761284
-11.985284 83.536354 -5.3920307 -16.313383 -15.796719 -3.4677873 -2.0879467 12.039837
-11.777152 -4.3593497 -5.441108 12.953496 -39.29224 -7.440899 -5.1270876 -7.079563
-11.143407 -10.672087 0.23270527 -3.4088306 -3.167605 -5.188376 10.330646 -3.3541474
-0.43840858 -7.1646285 -5.2490697 -2.9199262 -5.0010266 -7.0836697 -0.46578044 -9.953141
5.5718193 -7.7385387 9.016199 -5.0181274 -23.101686 -1.2313181 -1.1911839 -4.8426585
52.647045 100.381805 -6.2022414 -6.544185 -9.11249 -1.9747652 -5.25854 -5.1512685
-0.94327575 -4.3860755 -9.315452 -6.463528 22.624226 55.136593 46.25342 -14.826299
-3.8426437 -15.9488125 49.7783 -11.197835 29.364319 -1.4925108 54.19313 -7.4739304
-92.75017 -17.98686 48.295223 -9.7238035 -2.5134468 1.2661474 -6.922645 -5.0992684
-6.0019927 36.573 -11.578835 -4.8720293 -7.543443 -1.6173319 3.4430037 -4.7094107
-3.581015 -13.17063 4.1580424 -3.7717292 -0.97166437 -9.533729 0.08685451 -13.064317
2.2013533 61.77588 -10.998077 -5.3221073 7.085476 -4.613903 -0.27159265 -5.387589
-8.518498 30.261417 -1.480695 1.4360029 0.35210738 -4.136315 -4.7291436 -3.4449925
-6.463338 -6.2328734 -3.6966658 -15.416228 -2.8291695 -5.3157144 -2.7999203 -8.563635
-11.772344 -3.419624 155.06693 97.35715 -6.648338 -9.194674 -3.2854283 -34.97478
-4.9072537 -2.1925108 -30.781353 28.231245 -2.1371403 -7.7599454 -7.3291454 -2.5478046
-0.8555761 -11.819675 -16.748682 -18.09442 -0.43133232 -3.100103 -25.349497 -3.1156285
-5.6951714 172.92178 -4.6216593 -106.96298 -24.91058 -1.173727 -5.677633 42.311806
-6.8472323 -2.1584506 -4.728597 -35.92748 58.59806 -53.231266 -3.0945086 -18.417618

bn4.weight f4 [256]
00000000: 8940 a63f 8314 b641 5cdd 6641 aff0 47bf
00000010: e44b e63e 4ad7 57c0 b933 c841 6e27 acc1
00000020: afe9 953f 46d3 3cc1 34e0 05c0 2bd6 b641
00000030: b15b 56bf 1f93 96c1 e1fe 7242 fc13 c1c1
00000040: 38da 2a42 9e51 88c0 327d 8c3f f1c2 0dc1
00000050: 1bb7 bdbd d861 583f 1b12 97bf 92db cac1
00000060: 9724 7f41 2f26 8cc1 1a27 babf 1734 7b41
00000070: c93d 17bf 450e 7342 d395 c7bf 62ef 0ac1
00000080: 091e 3a3f 4a7e 0e40 3da9 ea40 8334 ad41
00000090: c810 b4c1 ba3c f03e bf31 6141 5883 5ac0
000000a0: 99e1 a8c1 97de 6cc1 976c 39c0 fde6 0abf
000000b0: 89a5 32c2 3be3 9f3f 20bc afc0 1a0e 2141
000000c0: 47e0 8a40 e056 69c1 d6ef 80bf 3b06 3041
000000d0: 11eb 51c2 322b b6c1 6c57 2cbd 3c5b 9fbf
000000e0: 45f4 5f3e b845 c541 1063 3c3f 4d32 77c1
000000f0: bd5b 29c0 4bda 46c1 bee5 74c1 700b 1541
00000100: 5f53 87c0 1073 09c0 ac93 8d40 9ce7 97c0
00000110: 76aa 4cc1 3ce3 e9bd 0814 f6bf 5739 05c1
00000120: a8fa b03e 30f1 1641 614b c441 fd25 dbbe
00000130: fb21 7441 a017 813f e3d4 0140 b0ce ca40
00000140: 6dd7 cfbf 6836 9841 4d00 41c0 74a0 a9c1
00000150: efc3 9fc1 270d 05c0 44ee dabf e385 3241
00000160: 4744 dfc1 0a4f 1f41 8624 3cc0 00e9 abc1
00000170: 4e6b 0ebd 730d adbf e825 83bd 23c2 b940
00000180: 63e1 c841 15d9 473f 314e b93f 9978 b5be
00000190: 3d25 4fc1 d6ca acbf 02c1 cd3e db4e ac41
000001a0: ecd4 49c1 0527 c441 01ca 3240 a27c acbf
000001b0: 003d 8cc0 5e81 a6c0 5dc8 1440 b365 19c2
000001c0: b09f 46bf e180 bf3e 398e 2840 2580 a33f
000001d0: 766d b441 2a79 64c0 3824 ea40 9099 3f40
000001e0: f40e 04c2 5827 8dc0 990c 8441 5d4c 83bf
000001f0: d49b 753f 0518 9841 3382 a9bf 0435 66be
00000200: 7a21 bac0 a9d6 ab3f cc7f d53e 402f 43c0
00000210: c1da b73f 0803 d1c0 988e 83bd 31c2 35c0
00000220: 6149 b3bf 1aa1 87c0 2600 82bf 0975 1d40
00000230: 0acb 743f 9d4e 1941 7ed7 6141 2814 d43d
00000240: 8fff d53f 443a b241 f6b3 2dbf ca90 38bf
00000250: 45a0 b041 7af0 0041 c0b3 bdbf 6de9 0440
00000260: 3450 613f 4078 503f 746a 1bc1 df42 10c0
00000270: 24bc 12c0 c4c0 31c0 3747 77bf 5203 9841
00000280: 4159 8ec0 025a 06c0 07ce 78bf 709c b73d
00000290: 2059 a3bf 4db0 763d ce27 a041 21a9 46c1
000002a0: 6742 94c0 19e3 df40 dc46 08c1 dad7 eb40
000002b0: 7f89 8a3f d10c 6e40 1820 d3c0 d211 c5bf
000002c0: c49d 453f 32d2 a141 4d66 2441 565b da3f
000002d0: 5f57 a9c1 9500 2640 c240 0ec0 9aa4 923f
000002e0: 0d4e 153f 335a a941 64f5 a640 8519 4340
000002f0: a0dd ba3f e851 3a41 c6b4 2240 edf6 3242
00000300: b2ed 8e41 d36a 7b3f 0ec0 9241 8746 4dbd
00000310: d62d 5abf 0096 0bc1 a1fb 8bc0 ac94 5a3f
00000320: c47e 3340 92f9 333f e841 cc40 f30c ddc0
00000330: 38ed b9be 69a8 0e41 8af4 923f 544d bbbe
00000340: 4504 d1c0 9b0b f2c1 a7a9 51c1 3960 be41
00000350: 86b5 07be af13 f540 a3ef 993e b3ea 3441
00000360: a757 25c1 60b5 f33f dec9 6b3f 4b62 69bf
00000370: 68a7 60bf 452d a7c1 a0e4 26c0 1e3c eb41
00000380: c68b cbbe 736b cb40 90d2 b441 96f6 a83f
00000390: 7667 043e 6505 b241 11b8 2841 20e9 7d41
000003a0: ab69 18be 2d52 1e40 d050 9540 7142 74c1
000003b0: fa0f 26be 8ba1 a6c0 bcbd 64c1 d073 15c1
000003c0: f3e7 1440 fe34 a53c 06c8 e33f 92ca b7c0
000003d0: d318 6541 3c6b 5dbf 0539 8740 c0ec 2440
000003e0: f48e c040 920d aa41 cce6 11bd 3544 9ec1
000003f0: 09d9 00be 555b 2d42 d3a2 8440 f097 66c2
1.2988445 22.760015 14.429043 -0.7810163 0.44979775 -3.3725152 25.025255 -21.519253
1.171194 -11.80158 -2.0918093 22.854574 -0.8373366 -18.821836 60.748905 -24.134758
42.713104 -4.259963 1.0975707 -8.860093 -0.0926344 0.845243 -1.18024 -25.357212
15.946433 -17.518644 -1.4543183 15.700217 -0.5907865 60.763935 -1.5592598 -8.683443
0.7270208 2.226458 7.333159 21.65064 -22.508194 0.4692133 14.074645 -3.4142666
-21.110155 -14.804343 -2.8972528 -0.5425871 -44.661655 1.249122 -5.4917145 10.065943
4.3398776 -14.58371 -1.0073192 11.001521 -52.479557 -22.771091 -0.04207556 -1.2449718
0.21870525 24.659042 0.7358866 -15.44978 -2.6462243 -12.428294 -15.306089 9.315292
-4.228927 -2.1476479 4.4242764 -4.7470226 -12.791616 -0.11420295 -1.9224863 -8.326499
0.34566236 9.433884 24.536806 -0.4280242 15.258296 1.0085335 2.0286186 6.3377304
-1.6237618 19.026566 -3.0156434 -21.203346 -19.97067 -2.0789278 -1.7103963 11.157687
-27.908339 9.956797 -2.9397292 -21.48877 -0.034770302 -1.3519729 -0.064037144 5.8049483
25.110052 0.78065616 1.4476987 -0.3544357 -12.946591 -1.3499401 0.40186316 21.538504
-12.614483 24.519053 2.7935793 -1.3475535 -4.3824463 -5.203292 2.3247292 -38.349316
-0.77587414 0.37403014 2.6336806 1.2773482 22.553448 -3.5698953 7.316921 2.9937477
-33.014603 -4.4110527 16.506151 -1.0257679 0.959409 19.011728 -1.3242859 -0.22481161
-5.8165865 1.3424884 0.41699064 -3.049759 1.4363633 -6.53162 -0.06423682 -2.8399775
-1.4006768 -4.2384157 -1.0156295 2.4602683 0.95622313 9.581693 14.11511 0.10355407
1.6718615 22.27845 -0.67852724 -0.7209593 22.078257 8.05871 -1.482048 2.0767472
0.88013005 0.81433487 -9.71349 -2.2540815 -2.2927332 -2.7773905 -0.9659304 19.001621
-4.4483953 -2.0992436 -0.9718937 0.08965385 -1.2761574 0.060226727 20.019436 -12.416291
-4.6331058 6.996472 -8.5173 7.370099 1.082321 3.7195323 -6.5976677 -1.5396063
0.77193856 20.227634 10.274976 1.7059124 -21.167662 2.5937855 -2.2227025 1.1456482
0.5832222 21.169043 5.217455 3.0484326 1.4598885 11.644997 2.5422835 44.74114
17.866062 0.98209876 18.343777 -0.05011609 -0.8522619 -8.724121 -4.3744664 0.85383105
2.8046122 0.7030269 6.383045 -6.9078307 -0.36313796 8.916116 1.1480877 -0.36582434
-6.531771 -30.255667 -13.103919 23.796984 -0.1325284 7.658653 0.3006564 11.3073
-10.3338995 1.9039726 0.921049 -0.9116561 -0.8775544 -20.897104 -2.6077042 29.404354
-0.39755076 6.3568664 22.602814 1.3200252 0.12930092 22.252634 10.544938 15.869415
-0.14884059 2.4737656 4.666115 -15.266221 -0.16217032 -5.2072196 -14.296322 -9.340775
2.326657 0.02016687 1.7795417 -5.743478 14.318561 -0.8649175 4.2257104 2.57695
6.0174503 21.256626 -0.035620496 -19.783304 -0.12582792 43.33919 4.144876 -57.648376
