mini_batch_exp/models/mnist_adam_batch4096_lr0.1.pt (torch_old, 968495 bytes, 62 tensors)

conv1.weight f4 [16, 1, 3, 3]
0	0xbf989abf	-1.1922225
1	0x3df4b7b6	0.119491026
2	0x3e95ffbd	0.29296675
3	0xbeef9bbb	-0.467985
4	0xbdfe1f57	-0.12408321
5	0x3f3ddb2d	0.7416256
6	0x3e394922	0.18094304
7	0x3f232ca7	0.6374001
8	0x3f0c0a7e	0.5470351
9	0xbec627b2	-0.3870216
10	0xbbec7283	-0.0072157993
11	0x3f42ddf6	0.76119936
12	0xbe94a470	-0.29031706
13	0x3daabc4b	0.08336695
14	0x40000f29	2.0009253
15	0x3d94b243	0.07260563
16	0x3e0c7280	0.13715553
17	0x3e1f5188	0.15558445
18	0x3fbb1d7e	1.4618375
19	0x3eca6f61	0.395381
20	0xbf6ba447	-0.9204754
21	0x3fafd31a	1.3736298
22	0xbfb7d71b	-1.436252
23	0xc00b064a	-2.1722589
24	0xbf632ac2	-0.8873712
25	0x3f7975a1	0.9744511
26	0xbd97ac67	-0.0740593
27	0xbedf3ee4	-0.4360267
28	0x3e72f91b	0.23727839
29	0xbe16bb0a	-0.14719787
30	0x3e9357ad	0.2877783
31	0x402b7cdb	2.6794956
32	0xbdb277c0	-0.08714247
33	0xbea0fd43	-0.31443223
34	0xbdcc3c31	-0.09972418
35	0x3d5f888d	0.054573584
36	0xbd1f8214	-0.03894241
37	0x3f47d6bd	0.7806204
38	0xbf5dff5a	-0.8671776
39	0x3e08ab99	0.1334671
40	0x3fb4a0ed	1.4111611
41	0xbf7cec64	-0.98798203
42	0xbf406277	-0.75150245
43	0x3f87956d	1.0592476
44	0x3f2ea953	0.6822712
45	0x3d5eb752	0.054374047
46	0xbe7b6bda	-0.24552861
47	0xbf544e1f	-0.82931703
48	0x3f6d67c1	0.9273644
49	0xbf18b0d2	-0.59644806
50	0xc00f4a86	-2.2389235
51	0x3fadd356	1.358012
52	0x3fae1784	1.3600926
53	0x3e60a624	0.21938378
54	0xc0198329	-2.3986304
55	0xbf968f47	-1.1762475
56	0x3e1f117f	0.15534018
57	0x3f891092	1.0708182
58	0x3fc94ec9	1.5727168
59	0x3ead61fa	0.33863813
60	0x3f7c4590	0.98543644
61	0xbf80b322	-1.0054667
62	0xbfbdf3bd	-1.4840008
63	0xc0122d12	-2.2840009
64	0xbf13215e	-0.5747279
65	0x3fd633e2	1.6734583
66	0xbfa8727e	-1.315994
67	0x3f15fe44	0.58591104
68	0x3fb72cea	1.4310582
69	0x3dc45453	0.09586396
70	0x3ed3622d	0.4128584
71	0xbc54746f	-0.012967213
72	0x3fe1aa19	1.7630035
73	0x3e8197ad	0.25311032
74	0xbec5dbcb	-0.3864425
75	0x3f54d830	0.83142376
76	0x3eacb335	0.33730474
77	0x3f13239f	0.5747623
78	0x3f3706eb	0.7149493
79	0x3f4ed1b7	0.8078875
80	0x3f080f1a	0.53148043
81	0xbe69eb14	-0.22843581
82	0xbe84bc50	-0.2592492
83	0x3f01c83d	0.50696164
84	0x3f2d6433	0.67731017
85	0x3fc193d4	1.5123239
86	0x3cdf551a	0.02726226
87	0xbe6edd9b	-0.23326723
88	0xbce19286	-0.027535688
89	0x3bf44cbd	0.007455437
90	0xbe55c7ec	-0.20877045
91	0xbe286196	-0.16443476
92	0x3ebd4ca0	0.36972523
93	0x3ee80e5d	0.45323458
94	0x3f3bb612	0.7332469
95	0x3f98e075	1.1943499
96	0x3e53d716	0.20687518
97	0x3f5ba997	0.8580565
98	0xbcc6f133	-0.024284935
99	0x3f98d4d2	1.1939948
100	0x3f41a89f	0.7564792
101	0x3f1d63a7	0.6148018
102	0x3f4d8d16	0.80293405
103	0x3f2768ff	0.65394586
104	0x3e4bf72f	0.19918512
105	0x3f20de13	0.6283886
106	0x3eb5eb89	0.35531262
107	0x3eb14869	0.34625557
108	0xbf61c9c5	-0.881985
109	0x3f2832dd	0.6570261
110	0x3f18d1bd	0.59695035
111	0xbf933b01	-1.1502382
112	0x3e7faefd	0.24969096
113	0x3f201a4a	0.62540114
114	0xbeebe9d4	-0.46076834
115	0x3f2a87f2	0.66613686
116	0x3f1bd4e9	0.6087175
117	0xbf64d494	-0.8938687
118	0xbd95352b	-0.072855316
119	0xbeae1aae	-0.3400473
120	0xbf6691a7	-0.90066
121	0xbdabeafe	-0.083944306
122	0x3f1a46a1	0.6026402
123	0xbf68d503	-0.9095003
124	0xbf7c5280	-0.98563385
125	0x3f944f9a	1.1586792
126	0xbfadec43	-1.3587726
127	0xbf49de5e	-0.7885493
128	0x3dc50623	0.09620311
129	0xbed08971	-0.4072986
130	0x3f81ab66	1.0130432
131	0x3dbd74dc	0.09250805
132	0xbef7c777	-0.48394367
133	0x3f6a26fc	0.91465735
134	0x3ea6c2e6	0.3257057
135	0x3ecf91e8	0.40541005
136	0x3fae45e7	1.3615083
137	0x3fdc1e04	1.719666
138	0xbfa9ec72	-1.3275282
139	0x3ded4e70	0.115872264
140	0x3ec47a88	0.38374734
141	0xbfecdf8c	-1.8505721
142	0xbfe08426	-1.7540329
143	0xbfb9acd8	-1.4505873

conv1.bias f4 [16]
0	0xbeeaf0c5	-0.45886818
1	0xbe1a6c4b	-0.15080373
2	0xbdbc50c6	-0.09195094
3	0xbfe0b392	-1.75548
4	0xbfb437fa	-1.4079583
5	0xc0214318	-2.51972
6	0xbf2eac43	-0.682316
7	0xc04bdfe1	-3.1855395
8	0x3d0a2441	0.03372598
9	0xbeb2bd48	-0.34910035
10	0x3d0d43ac	0.034488365
11	0x3f2dd1fa	0.67898524
12	0xbe914b67	-0.2837784
13	0xbed707db	-0.4199818
14	0x3fc4ba0d	1.5369278
15	0x3f0dc813	0.55383414

bn1.weight f4 [16]
0	0x3e90fce3	0.28317937
1	0x3f58e21f	0.84720033
2	0x40096bf9	2.1472151
3	0x3f6cbc0d	0.9247444
4	0x3fcf128d	1.6177536
5	0x3fed067e	1.8517606
6	0x4010b14f	2.260822
7	0x4024dd01	2.575989
8	0x3faf74ef	1.370756
9	0x3f1e1e35	0.6176484
10	0x3f120382	0.570366
11	0x3f7e00b2	0.9921981
12	0x3f354683	0.7081072
13	0x40115eaa	2.2714028
14	0xbf89fba0	-1.0779915
15	0x4057716a	3.3662972

bn1.bias f4 [16]
0	0xbdf9ae38	-0.12191433
1	0xbea8ee3a	-0.32994252
2	0x3f59997d	0.8499983
3	0x3db740cc	0.08947906
4	0xbea6cf09	-0.3257983
5	0xbf87207d	-1.055679
6	0xbe1027f6	-0.14077744
7	0xbf624d91	-0.88399607
8	0x3f99f0cd	1.2026612
9	0x3d76e417	0.060276117
10	0xbd6a6022	-0.057220586
11	0x3e404aa6	0.18778476
12	0xc0434a72	-3.0514188
13	0xbfc855f2	-1.5651228
14	0xbf103a69	-0.56339127
15	0xbe91b0c2	-0.28455168

bn1.running_mean f4 [16]
0	0x42b41bf4	90.054596
1	0x431ecfe9	158.81215
2	0x42917fd5	72.74967
3	0x4309a11c	137.62933
4	0x42cab782	101.35841
5	0x42bd3777	94.60833
6	0x41f6d8ed	30.85592
7	0x42f076f1	120.23231
8	0x439289b8	293.07593
9	0x42ebcc9e	117.89964
10	0x4341b0b2	193.69022
11	0x43959df2	299.23395
12	0x42cc6ca4	102.21219
13	0x41d9526a	27.165241
14	0x4262fbe5	56.74599
15	0x4290c7fe	72.39061

bn1.running_var f4 [16]
0	0x46d7a9b4	27604.852
1	0x478f5d91	73403.13
2	0x46d41f50	27151.656
3	0x47642c48	58412.28
4	0x46f10a5a	30853.176
5	0x472836aa	43062.664
6	0x4608677f	8729.874
7	0x477f1c69	65308.41
8	0x483dbee1	194299.52
9	0x47164a1c	38474.11
10	0x47bb2e8b	95837.086
11	0x484640da	203011.4
12	0x47127061	37488.38
13	0x45b86d98	5901.699
14	0x466b27e7	15049.976
15	0x47157df5	38269.957

conv2.weight f4 [32, 16, 4, 4]
0	0x3f4a34f1	0.7898703
1	0x3ec2815b	0.37989315
2	0x3e956b9b	0.2918366
3	0xbd52bf70	-0.0514521
4	0x3f226ef6	0.6345056
5	0x3ed0eead	0.40807095
6	0x3f312ba4	0.69207215
7	0x3d4d5305	0.050128
8	0xbe6262e9	-0.22108044
9	0x3ec1db70	0.3786273
10	0x3f1e64a1	0.618723
11	0x3f0f8177	0.5605692
12	0xbea53e35	-0.32274023
13	0x3ecff530	0.4061675
14	0x3f18a9ba	0.5963398
15	0x3eed99b5	0.46406332
16	0x3f24d370	0.6438513
17	0xbe70bf8a	-0.23510566
18	0xbea4a87d	-0.32159796
19	0xbe0878b1	-0.1332729
20	0x3f1a6d82	0.60323346
21	0x3e8fd793	0.28094158
22	0x3f21279e	0.62951076
23	0x3d00495c	0.03131996
24	0x3e2ce276	0.16883263
25	0x3f01aae3	0.5065138
26	0x3f24bad6	0.6434759
27	0xbe3c6ad3	-0.18400125
28	0xbe7e1b29	-0.24815048
29	0xbdc8f4f0	-0.09812343
30	0x3f073d00	0.52827454
31	0xbe69e5c9	-0.22841562
32	0xbfac028a	-1.3438275
33	0x3ea92a42	0.33040053
34	0xbe9b9fff	-0.30395505
35	0x3e9b9a60	0.30391216
36	0x3ee5c818	0.44879222
37	0x3cc5e328	0.024156168
38	0x3e93618e	0.28785366
39	0x3e2ab316	0.16669878
40	0xbec42f90	-0.38317537
41	0xbfaaed13	-1.3353599
42	0xbf64078f	-0.89074033
43	0xbefb9850	-0.49139643
44	0xc00f4dad	-2.239116
45	0xbf4236d3	-0.75864905
46	0xbf4ec189	-0.8076406
47	0xbff58dd7	-1.9183911
48	0x3f358f01	0.7092133
49	0x3e9e0474	0.30862772
50	0xbea7429c	-0.32668006
51	0xbebd6e38	-0.36998153
52	0x3f3fda28	0.74942255
53	0x3f067a2f	0.5253019
54	0x3f2cf4c2	0.6756097
55	0xbd2b9148	-0.041886598
56	0x3ed6a003	0.41918954
57	0x3efdf4ba	0.49600774
58	0x3f44858b	0.7676627
59	0x3f6cd46c	0.9251163
60	0xbf0b382e	-0.543826
61	0x3e0999b3	0.13437538
62	0x3f18364e	0.5945786
63	0x3f454687	0.7706074
64	0x3f548cb9	0.83027226
65	0x3ef39120	0.4757166
66	0x3e44385b	0.19162123
67	0xbe8dceb7	-0.27696773
68	0x3f4920aa	0.78565466
69	0x3f62fb86	0.88665044
70	0x3fae27ee	1.3605936
71	0x3d58b3e5	0.052905936
72	0xbf34fba3	-0.7069647
73	0x3ebf7c2d	0.37399426
74	0x3f85b407	1.0445565
75	0x3f80a043	1.0048908
76	0xbfa02a79	-1.2512962
77	0xbe782c33	-0.2423561
78	0x3e77cea1	0.24199916
79	0x3f2dfb4b	0.6796157
80	0x3ef270f8	0.47351813
81	0x3f3b96e0	0.7327709
82	0x3df902f9	0.1215877
83	0xbe09521e	-0.13410231
84	0x3f8075e7	1.0035981
85	0x3fa7b94e	1.3103426
86	0x3f55ecc0	0.83564377
87	0x3f3cb238	0.7370944
88	0x3ee36561	0.44413283
89	0xbf1f5fc2	-0.6225549
90	0x3f2bb27f	0.6706924
91	0xbd066cd5	-0.032818634
92	0xbfcbbed5	-1.5917612
93	0xbfa87040	-1.3159256
94	0xbf872f27	-1.0561265
95	0xbf1bf850	-0.6092577
96	0x3f7a3af7	0.97746223
97	0x3f818587	1.0118874
98	0xbc26c92d	-0.0101798
99	0xbe85dca4	-0.26144898
100	0x3ea83429	0.32852295
101	0x3f5dce10	0.8664255
102	0xbd77db52	-0.060511895
103	0x3f0ea159	0.55714947
104	0xbfbbebc4	-1.4681325
105	0xbf3bd099	-0.7336517
106	0xbed97d96	-0.42478627
107	0x3f80be27	1.005803
108	0x3dbf5271	0.09341896
109	0xbea21112	-0.3165365
110	0xbf45cb7e	-0.7726363
111	0x3f8369b6	1.0266635
112	0x3d0f8d87	0.03504708
113	0xbf99fe89	-1.2030803
114	0xbedeb0f1	-0.4349437
115	0xbebc706b	-0.36804518
116	0xbf3146c1	-0.69248587
117	0xbf77e151	-0.9682818
118	0xbf641030	-0.890872
119	0xbfcdb6c3	-1.60714
120	0x3ed24073	0.41064796
121	0xbea48f59	-0.32140616
122	0xbf8944ce	-1.0724123
123	0xbf88c086	-1.0683753
124	0x3f8fcef4	1.1235032
125	0x3fc6e822	1.5539591
126	0xbf16f143	-0.58961886
127	0xbfb615f3	-1.4225448
128	0xbe1120cc	-0.14172667
129	0x3dd35f41	0.103209026
130	0xbecf703f	-0.40515324
131	0x3d1945eb	0.037420195
132	0x3f32428e	0.69632804
133	0xbe6da723	-0.23208289
134	0xbec695c0	-0.38786125
135	0x3bf441f9	0.0074541536
136	0x3db2b9f4	0.08726874
137	0xbeac7a05	-0.33686844
138	0x3e6b0a75	0.22953208
139	0x3f750707	0.9571385
140	0xbfb64106	-1.4238594
141	0xbf689ed0	-0.9086733
142	0x3dddb12b	0.10824808
143	0x3f6b78d9	0.91981274
144	0x3f02a7dd	0.5103739
145	0x3e8cafba	0.2747782
146	0xbec8852a	-0.39164096
147	0xbec85f4c	-0.39135206
148	0x3f68185f	0.9066219
149	0x3f223b37	0.63371605
150	0x3f4d14b3	0.8010971
151	0xbe86944f	-0.26285025
152	0x3f3c6017	0.7358412
153	0x3f391c9a	0.7230927
154	0x3f54df6b	0.8315341
155	0x3f756eb1	0.95872027
156	0xbe55e577	-0.20888315
157	0x3e9a2726	0.30107993
158	0x3f22550b	0.63411015
159	0x3f481b0d	0.78166276
160	0x3f4a2246	0.7895855
161	0x3eb65833	0.35614166
162	0x3e928d49	0.28623417
163	0x3dad1e61	0.0845306
164	0x3f51a0c1	0.81885916
165	0x3ea77759	0.32708243
166	0x3f1ff74e	0.6248673
167	0xbdf2d8b4	-0.11857739
168	0xbd6a7dac	-0.057248756
169	0x3ed676c4	0.41887486
170	0x3f2ba614	0.6705029
171	0x3f5898db	0.8460824
172	0xbf03d459	-0.5149589
173	0x3e4418b3	0.19150047
174	0x3f15cfbe	0.58520114
175	0x3f2ae183	0.66750354
176	0x3ef9ce19	0.48790053
177	0x3e9d055b	0.30668148
178	0xbc5a08c2	-0.013307752
179	0x3dfe6a94	0.12422672
180	0x3f49cec2	0.7883111
181	0x3e9c0f3e	0.3048038
182	0x3e3c2a4e	0.18375513
183	0x3ed4e39f	0.4157991
184	0x3f04a348	0.5181165
185	0xbe438e26	-0.19097194
186	0x3e7b0f4d	0.24517556
187	0x3f522c5b	0.8209893
188	0xbf932922	-1.1496928
189	0xbee3bc4a	-0.4447959
190	0x3e557f73	0.208494
191	0x3f2dfd1e	0.6796435
192	0x3eecddd9	0.46263006
193	0xbf64cf0b	-0.8937842
194	0x3d778042	0.06042505
195	0x3f56e7d8	0.83947515
196	0xbf233d93	-0.6376583
197	0xbeace705	-0.33770004
198	0x3ece317d	0.40272132
199	0xbbbc9908	-0.0057555474
200	0xbec0ec4a	-0.37680274
201	0x3e00e32d	0.1258666
202	0x3ef77dce	0.4833817
203	0xbefc4f3a	-0.49279195
204	0xbf456612	-0.7710887
205	0x3fbe07d2	1.4846137
206	0x3e132574	0.14369756
207	0x3e7bb75c	0.24581665
208	0xbf3e4664	-0.7432616
209	0xbf693085	-0.9108966
210	0xbf0a37c6	-0.53991354
211	0x3c19483d	0.009355602
212	0x3f8ba424	1.0909467
213	0x3f091812	0.53552353
214	0xbf16477d	-0.5870283
215	0x3ddd49e2	0.10805108
216	0x3e752d0f	0.2394297
217	0xbf417525	-0.75569373
218	0xbebe1700	-0.37126923
219	0xbe7ccc7a	-0.24687377
220	0xbf396bd6	-0.7243017
221	0xbefde80c	-0.495911
222	0xbf585aa0	-0.8451328
223	0xbf1b283c	-0.6060827
224	0x3f84d70a	1.0378125
225	0x3e5cab1e	0.21549651
226	0xbf65ca12	-0.8976146
227	0xbf0a1030	-0.5393095
228	0x3fbb540b	1.4635023
229	0x3f5d65d7	0.8648352
230	0x3f670a4c	0.90250087
231	0x3f446179	0.7671123
232	0xbe8ef7f8	-0.2792356
233	0x3e867945	0.26264396
234	0x3f47e8c6	0.7808956
235	0x3f245f3d	0.6420782
236	0xbf473cff	-0.7782745
237	0xbeee3651	-0.46525815
238	0x3f32bacf	0.698163
239	0x3f420b40	0.75798416
240	0xbf6c5a72	-0.9232551
241	0x3ea67914	0.3251425
242	0x3f880f57	1.0629681
243	0xbf1dac8b	-0.61591405
244	0xbde36915	-0.11104027
245	0x3f3a8232	0.7285491
246	0x3e146e77	0.14495264
247	0xbcf82e08	-0.030295387
248	0x3f202bfa	0.625671
249	0x3f254b44	0.6456797
250	0x3f38a33a	0.72124064
251	0x3cb00890	0.021488458
252	0x3dee74ce	0.116433725
253	0x3f273cb8	0.65327024
254	0x3f7e3b7f	0.99309534
255	0x3f975235	1.1821963

conv2.bias f4 [32]
0	0xbedcc907	-0.43122122
1	0xbf5747ea	-0.8409411
2	0x3e839978	0.25703025
3	0xbf5d5868	-0.8646302
4	0xbf681599	-0.90657955
5	0x3ec54539	0.38529375
6	0x3e81e399	0.25368956
7	0x3f764c44	0.9621012
8	0x3ecce0e9	0.40015343
9	0x3f990611	1.1954976
10	0x3ea836eb	0.328544
11	0xbf81b3cc	-1.0132995
12	0x3de60ce7	0.1123293
13	0xbf4ab3b0	-0.7918043
14	0xbf3160b7	-0.692882
15	0xbf6ba0eb	-0.92042416
16	0xbf30dfcd	-0.6909149
17	0xbfa4ba38	-1.286933
18	0x3f536b0d	0.8258522
19	0x3f51ef4d	0.8200577
20	0xc02e5641	-2.7240145
21	0xbeb47ad7	-0.3524997
22	0xbf41671f	-0.75547975
23	0xbb0a6aea	-0.0021120855
24	0xbeae7900	-0.3407669
25	0xbe5f4190	-0.21802354
26	0x3f31bd2c	0.6942928
27	0xbf901e06	-1.1259162
28	0xbf4f1d6d	-0.80904275
29	0xbf93ba90	-1.1541309
30	0xbf30359d	-0.6883181
31	0xbeef3dd0	-0.46726847

bn2.weight f4 [32]
0	0x4007396b	2.1128795
1	0xbedcb3cf	-0.43105933
2	0xbef12021	-0.47094825
3	0x3fc98325	1.5743147
4	0xbfb579e7	-1.4177827
5	0x4017010c	2.359439
6	0x3fabff01	1.3437196
7	0xbed9b39d	-0.42519847
8	0x3f63ae9d	0.88938314
9	0x3f442310	0.76616
10	0x3fca1d5c	1.579021
11	0x3fa42221	1.2822915
12	0x3e28deb9	0.16491212
13	0x3faf4b59	1.3694869
14	0x3fdb7e79	1.7147971
15	0x400b6b70	2.1784325
16	0x3ffed42e	1.9908502
17	0x3fa7226f	1.3057383
18	0x3fa9f476	1.3277729
19	0x3f8835ca	1.0641415
20	0x3fced558	1.6158857
21	0x3f9a5553	1.2057289
22	0x3fda4f7d	1.7055508
23	0x3ff0c4fd	1.8810116
24	0x3f96ee41	1.1791459
25	0x3f9904dd	1.1954609
26	0x3fdd5fcd	1.7294861
27	0x401fb398	2.4953365
28	0xbf30c44d	-0.6904953
29	0x3fbbf6db	1.4684709
30	0xbf2e0cfa	-0.6798855
31	0x3fd07d67	1.628827

bn2.bias f4 [32]
0	0x3f51cc6b	0.8195254
1	0x3f2e1da9	0.6801401
2	0xbed8492f	-0.42243335
3	0xbe9dc1e6	-0.30811995
4	0xbf26e758	-0.6519675
5	0xbf0da021	-0.5532246
6	0x3d0c1e85	0.034208793
7	0xbf0ac10a	-0.54200804
8	0xbe62d2c8	-0.22150719
9	0x3e8ef0ee	0.2791819
10	0x3ec55664	0.38542473
11	0x3f799325	0.9749015
12	0xbf5ed915	-0.8704999
13	0x3e201f0e	0.15636846
14	0xbec73fc2	-0.3891583
15	0xbe8697d8	-0.26287723
16	0x3ebf6740	0.3738346
17	0x3e61301e	0.21991012
18	0xbf05ec85	-0.52314025
19	0xbe9f50d0	-0.31116343
20	0xbf26c59b	-0.6514527
21	0x3f733714	0.9500592
22	0x3d09447c	0.033512577
23	0xbdfbf582	-0.12302686
24	0xbf08941c	-0.53350997
25	0xbe9b6863	-0.30353078
26	0x3eaa77db	0.33294567
27	0xbf48ca70	-0.78433895
28	0xbf2c1d23	-0.6723196
29	0x3e5f6321	0.21815158
30	0xbebd2e14	-0.36949217
31	0xbe9583c4	-0.29202092

bn2.running_mean f4 [32]
0	0x41dfa341	27.954714
1	0x41d496f2	26.573704
2	0x42496c84	50.355972
3	0x41f8d493	31.103796
4	0x40b71c28	5.722187
5	0x4174e758	15.30648
6	0x41382b73	11.510608
7	0x42a2c050	81.37561
8	0x414796e5	12.4743395
9	0x428b19d5	69.55045
10	0x41bbcbd5	23.474527
11	0x4154d5d5	13.302205
12	0x4208c3b3	34.191113
13	0x418fde7d	17.983637
14	0x41df86eb	27.940878
15	0x4206b33f	33.675045
16	0x41bad617	23.354536
17	0x41832058	16.390793
18	0x41e6d10e	28.852077
19	0x4271251c	60.28624
20	0x410de2d1	8.867875
21	0x41622600	14.134277
22	0x41af9525	21.947824
23	0x42501835	52.02364
24	0x41f5f844	30.746223
25	0x41725c2e	15.147505
26	0x420dd21b	35.45518
27	0x4182fdd4	16.37394
28	0x41e3ccfb	28.475088
29	0x41c5b437	24.712996
30	0x420db6e9	35.428623
31	0x424b109f	50.76623

bn2.running_var f4 [32]
0	0x44999406	1228.6257
1	0x447e9b15	1018.42316
2	0x4486a267	1077.0751
3	0x44981b60	1216.8555
4	0x432226df	162.15184
5	0x441a4ab2	617.1671
6	0x439c3dd6	312.4831
7	0x45080d74	2176.8408
8	0x43a09b22	321.21198
9	0x44889dd3	1092.932
10	0x447e5abb	1017.41766
11	0x43a02a10	320.3286
12	0x44a3c3ac	1310.1147
13	0x43c07435	384.90787
14	0x4455065e	852.0995
15	0x448c7180	1123.5469
16	0x446ef77f	955.8671
17	0x4423ab00	654.6719
18	0x448cda48	1126.8213
19	0x44e2dd4b	1814.9154
20	0x43c8cabd	401.5839
21	0x4402fc1b	523.93915
22	0x4482bd40	1045.9141
23	0x44af15f8	1400.6865
24	0x449d8e72	1260.4514
25	0x441a8bd5	618.1849
26	0x44b26c05	1427.3756
27	0x43fe2309	508.2737
28	0x4458b839	866.8785
29	0x443c414f	753.02045
30	0x4454520f	849.28217
31	0x44685d5d	929.4588

conv3.weight f4 [64, 32, 5, 5]
0	0x3f13d190	0.5774164
1	0x3d9e6213	0.0773355
2	0x3e82ffc2	0.25585753
3	0x3f4bd5d4	0.7962315
4	0xbb53ad88	-0.0032299478
5	0x3f38e4d4	0.72224164
6	0x3f12ec60	0.5739193
7	0xbf5360cb	-0.8256957
8	0xbdc2b826	-0.0950778
9	0x3fb3d0b5	1.4048067
10	0x3f565883	0.8372881
11	0xbf132b32	-0.57487786
12	0xbeacf371	-0.3377948
13	0xbee56761	-0.44805434
14	0x3f286156	0.6577352
15	0x3ed1065d	0.40825167
16	0x3eed12e8	0.46303487
17	0xbe1c9ded	-0.15294619
18	0xbf284898	-0.6573577
19	0x3eb7e9a2	0.35920435
20	0x3f03344c	0.51251674
21	0x3ed50aae	0.4160971
22	0xbf2866ee	-0.6578206
23	0xbf068caa	-0.52558386
24	0x3e455666	0.1927124
25	0x3ea808ec	0.32819307
26	0xbe259903	-0.1617165
27	0x3e8bc840	0.27301216
28	0x3f3be875	0.73401576
29	0x3e2a0984	0.16605192
30	0xbefa4564	-0.48881066
31	0x3f07b6c7	0.5301327
32	0x3f1acfed	0.6047352
33	0x3f3a8318	0.72856283
34	0xbe9b3a6a	-0.30318004
35	0x3d6464dd	0.055760253
36	0x3ed4f163	0.41590413
37	0xbd371a2e	-0.0447027
38	0x3eec5e76	0.46165818
39	0xbf3310e6	-0.6994766
40	0xbe652bb1	-0.22379948
41	0x3ea1514c	0.31507337
42	0x3e9613d6	0.2931201
43	0xbf49a2d2	-0.7876407
44	0xbf2ad348	-0.6672864
45	0xbea95cc3	-0.33078584
46	0x3f176f32	0.59154046
47	0x3f790716	0.9727644
48	0xbe9483cc	-0.29006803
49	0x3efff284	0.49989712
50	0x3f2e45bc	0.68075156
51	0x3f3bf835	0.7342561
52	0x3f3b9b37	0.73283714
53	0x3f3847f9	0.7198482
54	0xbe9195ff	-0.2843475
55	0x3f5448c4	0.8292353
56	0x3f3992d9	0.72489697
57	0x3ee99a47	0.45625517
58	0xbe9e5a76	-0.3092839
59	0xbee56c34	-0.44809115
60	0x3cf2129b	0.029549887
61	0x3e6c40cf	0.23071598
62	0xbf45fcdf	-0.77338976
63	0xbf37cc86	-0.71796453
64	0x3f438cff	0.7638702
65	0x3f521ae7	0.820723
66	0xbdafdb77	-0.085867815
67	0xbe807c70	-0.25094938
68	0xbe4666db	-0.19375174
69	0x3f366c99	0.71259457
70	0x3f50f1ae	0.81618774
71	0x3f334512	0.7002727
72	0xbe116471	-0.14198472
73	0x3f139dcd	0.5766266
74	0x3f21e7f5	0.63244563
75	0x3f14c0e3	0.5810682
76	0x3e47e311	0.19520213
77	0x3ec2b02d	0.38025036
78	0xbee52915	-0.44757906
79	0xbeaf4ceb	-0.3423837
80	0x3e59e7c9	0.21279825
81	0xbf89c4c1	-1.076317
82	0xbf44cf67	-0.7687897
83	0xbf4f7160	-0.8103237
84	0x3f51f9c4	0.8202174
85	0x3e9e3511	0.3089986
86	0xbda0c726	-0.078504845
87	0xbf454abf	-0.7706718
88	0xbf64027a	-0.8906628
89	0x3f266a29	0.6500574
90	0x3f2af7a5	0.66784126
91	0x3e91934e	0.28432697
92	0xbefaf004	-0.49011242
93	0x3f163229	0.5867029
94	0x3e9056a9	0.28191116
95	0x3f3f1799	0.7464538
96	0x3db8e13c	0.09027335
97	0xbf1f79e5	-0.6229537
98	0x3ede8849	0.43463352
99	0x3e408d19	0.18803824
100	0x3f435720	0.7630482
101	0xbf18bc64	-0.5966246
102	0xbf4c778a	-0.798699
103	0xbf241c83	-0.64106005
104	0xbef60394	-0.48049605
105	0xbe8f5582	-0.27994925
106	0xbf677d0b	-0.90425175
107	0xbe372585	-0.17885406
108	0x3ea3dac9	0.32002857
109	0xbebea84f	-0.37237784
110	0xbeeedd10	-0.46653032
111	0xbecda22d	-0.40162793
112	0xbf9c1e34	-1.2196717
113	0x3f229b0c	0.6351783
114	0xbf7416db	-0.95347375
115	0xbf181f67	-0.59422916
116	0xbf00d8fa	-0.5033108
117	0xbe53d113	-0.20685224
118	0x3eb29ea4	0.34886658
119	0xbd9c229e	-0.0762379
120	0xbf4fda34	-0.81192327
121	0xbf534db2	-0.8254043
122	0xbf15ee8c	-0.5856712
123	0x3dbc32a7	0.09189349
124	0xbf204301	-0.6260224
125	0xbf5c4a3e	-0.86050785
126	0xbf2bb816	-0.6707777
127	0xbeecf9a5	-0.46284214
128	0xbf7cf4eb	-0.98811215
129	0xbf37a871	-0.71741396
130	0xbf66c139	-0.90138584
131	0xbf41a20e	-0.756379
132	0x3b45aa8c	0.0030161468
133	0xbd8ca004	-0.06866458
134	0xbf2bb1a0	-0.6706791
135	0xbf3d81a4	-0.7402594
136	0x3f574ad9	0.84098583
137	0x3f38ba3b	0.72159165
138	0x3f187cbd	0.59565336
139	0xbf59d2a0	-0.85087013
140	0xbf5d7dc1	-0.8652001
141	0xbf8ff2af	-1.1245936
142	0x3f4412c0	0.7659111
143	0x3f267492	0.6502162
144	0xbf2ca978	-0.6744609
145	0xbf0f7509	-0.56037956
146	0xbeca8f3c	-0.39562404
147	0xbeb4aa34	-0.35286105
148	0xbe960388	-0.2929957
149	0xbec7d8b6	-0.39032525
150	0xbf22b12b	-0.63551587
151	0xbe00f191	-0.1259215
152	0xbf3f599d	-0.74746114
153	0xbf366620	-0.7124958
154	0xbef84a66	-0.48494262
155	0x3d58a4f1	0.052891675
156	0x3f1d8aa4	0.61539674
157	0xbf5d8613	-0.86532706
158	0xbf48b3ea	-0.7839953
159	0x3f2bb3a8	0.6707101
160	0xbe0f9389	-0.14021124
161	0x3eb3b5d3	0.35099658
162	0x3dc15c18	0.094413936
163	0xbf3c3f1f	-0.73533815
164	0x3f3fdd54	0.74947095
165	0xbf3fc9ce	-0.74917305
166	0x3f514cfc	0.81758094
167	0x3ed058e2	0.40692812
168	0x3f2f3b6b	0.6845004
169	0xbf49fc8b	-0.78900975
170	0xbf6b4a4c	-0.91910243
171	0x3e11e907	0.14249049
172	0x3eda5e66	0.42650145
173	0xbe1eceb1	-0.15508534
174	0xbf3e90ae	-0.74439514
175	0xbf45c973	-0.7726051
176	0xbf23f7f9	-0.6405025
177	0xbdb46247	-0.088078074
178	0x3db8e1c3	0.09027436
179	0xbf7c42c1	-0.9853936
180	0xbf25c961	-0.64760405
181	0xbe820e88	-0.2540171
182	0x3f3a18c4	0.7269404
183	0xbe948df5	-0.29014555
184	0xbf42b7ab	-0.76061505
185	0x3f22fcb0	0.6366682
186	0x3f2f53dd	0.6848734
187	0x3f58d3ee	0.8469838
188	0xbee83672	-0.45354038
189	0xbe7297cf	-0.23690723
190	0x3f2b7b46	0.66984975
191	0x3f526155	0.82179767
192	0x3de0b4bc	0.10971972
193	0xbf4a8a66	-0.7911743
194	0x3e4db355	0.20087941
195	0xbf5c1f32	-0.859851
196	0xbeb721bc	-0.35767925
197	0xbf601f20	-0.87547493
198	0xbf4d17f7	-0.8011469
199	0x3e3dc74d	0.18533058
200	0xbf22e245	-0.6362651
201	0xbf79e71b	-0.97618264
202	0x3f1a3422	0.602358
203	0x3e509ee4	0.20373112
204	0xbe75bb4a	-0.23997226
205	0x3e641833	0.22274856
206	0x3f48d083	0.78443164
207	0x3ee2831e	0.4424066
208	0xbeb2dbd9	-0.34933355
209	0x3f51e064	0.8198302
210	0x3f4666af	0.7750043
211	0x3f5551e3	0.83328074
212	0x3c800df0	0.015631646
213	0xbf545a28	-0.8295007
214	0x3e976fe8	0.29577565
215	0x3edc391b	0.43012318
216	0x3f375b98	0.71624136
217	0xbf2b1169	-0.6682344
218	0xbf219861	-0.63123137
219	0x3e57ef3b	0.21087353
220	0x3e182fbb	0.14861958
221	0x3f2db40f	0.6785287
222	0x3bb57f54	0.0055388603
223	0xbd55f826	-0.052238606
224	0xbec83674	-0.39104044
225	0x3f200475	0.625068
226	0x3eea0e85	0.45714203
227	0xbf4424c2	-0.7661859
228	0xbdaddee6	-0.0848978
229	0x3d69ab40	0.057048082
230	0x3f370375	0.7148965
231	0xbe84dd50	-0.25950098
232	0xbe96f34c	-0.29482496
233	0x3e1edc7b	0.15513794
234	0xbeaeb5cc	-0.34123075
235	0x3eccd9d0	0.40009928
236	0xbeb3380a	-0.35003692
237	0xbeb3b909	-0.35102108
238	0x3f3a2612	0.7271434
239	0xbf42e6b6	-0.76133287
240	0x3f4e1ba0	0.805109
241	0x3f462afc	0.7740934
242	0x3f440615	0.7657178
243	0x3f4ad33d	0.79228574
244	0x3f2de93d	0.6793402
245	0xbef819a8	-0.48457074
246	0x3efecd3e	0.49765962
247	0x3f3fc223	0.74905604
248	0xbddac791	-0.106825955
249	0x3f4106ea	0.75401175
250	0xbf0c0858	-0.5470023
251	0x3f1f91cd	0.6233185
252	0x3ebd8494	0.37015212
253	0xbf54259e	-0.828699
254	0xbec48a1c	-0.3838662
255	0x3f23da71	0.6400519

conv3.bias f4 [64]
0	0xbee8f1c5	-0.45496956
1	0xbe729719	-0.23690452
2	0x3f425bcf	0.7592134
3	0x3f63ecd5	0.8903325
4	0x3ea85776	0.32879227
5	0x3ee815a9	0.45329025
6	0xbf32e0cb	-0.69874257
7	0xbf662dee	-0.89913833
8	0x3f251f3a	0.6450077
9	0x3eb521f2	0.3537746
10	0x3f854ddf	1.0414389
11	0x3f51a07f	0.8188552
12	0xbf1ba72c	-0.6080196
13	0xbf427c6d	-0.7597111
14	0xbf4a71e1	-0.79080015
15	0x3f229b5b	0.63518304
16	0xbf2c0c59	-0.6720634
17	0x3f3e3410	0.7429819
18	0xbf690dbd	-0.9103659
19	0x3eb9a01d	0.3625497
20	0x3eacecca	0.33774406
21	0x3f160f43	0.5861704
22	0x3f45a4df	0.772047
23	0x3e57c97c	0.21072954
24	0xbf7fc79f	-0.9991397
25	0x3e269796	0.16268763
26	0x3d836a91	0.0641681
27	0x3f85dbb6	1.0457675
28	0x3f5d0f36	0.86351335
29	0xbe9385dd	-0.28813067
30	0x3eae9d5a	0.34104425
31	0xbe70393d	-0.23459335
32	0xbf384682	-0.71982586
33	0xbf556b2d	-0.8336666
34	0xbf49d884	-0.78846
35	0x3f519bdb	0.8187844
36	0x3e6f0e29	0.23345245
37	0xbf2239f8	-0.63369703
38	0x3da0a718	0.078443706
39	0xbf19502d	-0.59887964
40	0xbe97e2f9	-0.29665354
41	0xbf0b28f2	-0.5435935
42	0x3ea8a768	0.3294022
43	0x3f4b0338	0.79301786
44	0x3e857cb3	0.260717
45	0xbf6a0389	-0.91411644
46	0xbe7bc675	-0.24587424
47	0xbf3c4540	-0.7354317
48	0xbf409c6c	-0.7523868
49	0xbf231e72	-0.6371833
50	0xbed37c79	-0.41305903
51	0x3f569df7	0.83834785
52	0xbefd57d6	-0.49481076
53	0xbf734954	-0.95033765
54	0x3edadd05	0.4274675
55	0x3f08bb4a	0.5341078
56	0x3e42ca20	0.19022417
57	0xbf698317	-0.9121565
58	0xbf0d29b6	-0.5514177
59	0xbf584498	-0.84479666
60	0xbe88d9be	-0.26728624
61	0x3f0c7b2e	0.5487546
62	0xbedead0d	-0.43491402
63	0x3f3c208e	0.73487175

bn3.weight f4 [64]
0	0x3f4b05a4	0.7930548
1	0x3f7a34c0	0.9773674
2	0x3f4537e8	0.7703843
3	0x3f96b0ec	1.1772742
4	0x3eee1a80	0.46504593
5	0x3fee885a	1.8635361
6	0x3f3741b9	0.7158466
7	0xbfad0f45	-1.3520285
8	0x3dc59ca2	0.09649016
9	0x3ff66999	1.9250976
10	0x3fabf370	1.3433666
11	0x3fa9cce7	1.3265656
12	0x3fc2da62	1.5222895
13	0x3fd1cc68	1.6390505
14	0x3f883ff4	1.0644517
15	0x3fe0ad57	1.7552899
16	0x3f2705df	0.65243334
17	0x3f811e84	1.0087438
18	0x3f5da983	0.8658678
19	0x3f3519e9	0.7074266
20	0x400a4e69	2.1610358
21	0x3fd1821f	1.6367835
22	0x3ff3e89e	1.9055364
23	0x3f280c6e	0.65643966
24	0x3f1486a2	0.58017933
25	0x4037843a	2.8674455
26	0x3fa6067a	1.2970726
27	0x3fb139df	1.3845786
28	0x401dc1a7	2.4649446
29	0x3fe652cb	1.7994016
30	0x3f8e0f8a	1.1098492
31	0x3fdea6ea	1.7394688
32	0x3f5c5230	0.8606291
33	0x3f46215e	0.77394664
34	0xbf0bb927	-0.54579395
35	0x40107911	2.2573893
36	0x3ff35bad	1.9012352
37	0x3fc1b395	1.5132929
38	0x3fe5a3b4	1.7940583
39	0x3ff5ae55	1.9193827
40	0xbee4d509	-0.44693783
41	0x3f867189	1.0503398
42	0x3f83b4d9	1.0289565
43	0x3fb2c59c	1.3966556
44	0x3fef2a80	1.8684845
45	0x3f416727	0.75548023
46	0x3f8146b2	1.00997
47	0x3fe7e496	1.8116634
48	0x3fc47eab	1.5351156
49	0x3f8b3565	1.087567
50	0x3fbbf2ad	1.4683434
51	0x3f660fbf	0.89867777
52	0x3fea154d	1.828775
53	0x3f9f64ff	1.2452697
54	0x3facc0b5	1.349631
55	0x3fa4a9ff	1.2864379
56	0x3fc1df3a	1.5146248
57	0xbbbb1442	-0.005709202
58	0x3e3afbc7	0.18260108
59	0x3eccfe13	0.40037593
60	0x3eaf58aa	0.34247333
61	0x4024d16c	2.575282
62	0x3f893f08	1.0722361
63	0x3f378173	0.716819

bn3.bias f4 [64]
0	0xbebdbdfd	-0.37059012
1	0xbf435d0a	-0.7631384
2	0x3f5b841f	0.85748476
3	0xbdd5763c	-0.10422942
4	0x3b9ef933	0.004851484
5	0x3cd83a7f	0.02639508
6	0x3ed79111	0.42102864
7	0x3f297702	0.66197217
8	0xbf1c02ac	-0.60941577
9	0xbed695a9	-0.41911057
10	0x3e8eca1c	0.27888572
11	0x3e9a4922	0.3013392
12	0xbe623876	-0.2209185
13	0xbf474f56	-0.7785543
14	0xbf5a7f15	-0.8535016
15	0x3daa451a	0.08313961
16	0x3b9f7c9b	0.004867149
17	0xbf2272e3	-0.63456553
18	0x3f4a193f	0.7894477
19	0xbf3f5089	-0.7473226
20	0x3f916eef	1.1361979
21	0xbeab08f3	-0.33405265
22	0xbe30f586	-0.1728116
23	0xbeeb028c	-0.4590038
24	0xbe69cfff	-0.2283325
25	0xbd20d419	-0.039264772
26	0x3f00e433	0.50348204
27	0x3f6d2035	0.9262727
28	0x3cf4660c	0.029833816
29	0x3ee40f80	0.44543076
30	0xbeb13e8b	-0.3461803
31	0xbb9aef90	-0.004728265
32	0xbe8ce6d0	-0.27519846
33	0xbec15929	-0.37763336
34	0xbf1ae7dd	-0.60510045
35	0x3f7f2af0	0.9967489
36	0x3f5cf603	0.86312884
37	0x3e262b3e	0.16227433
38	0x3f61a914	0.8814862
39	0xbe11c502	-0.14235309
40	0xbf9b3c36	-1.212775
41	0x3e966e8e	0.29381222
42	0x3f5f4bb0	0.87224865
43	0x3f08ead7	0.5348334
44	0xbebb35bf	-0.36564443
45	0x3dcfebc8	0.101523936
46	0x3ee4c863	0.44684133
47	0xbebfb7e2	-0.3744498
48	0xbd327af1	-0.043574277
49	0xbeb54df2	-0.3541103
50	0xbd537abc	-0.05163072
51	0x3f9ce02f	1.2255915
52	0x3eb09231	0.34486535
53	0x3ee6c0a0	0.45068836
54	0x3f71f484	0.94513726
55	0xbf1f36dd	-0.6219309
56	0xbe10c566	-0.14137802
57	0xbf868be7	-1.0511445
58	0x3f1b4050	0.6064501
59	0xbec7d5a1	-0.39030173
60	0x3f48b11a	0.78395236
61	0xbe54b7d7	-0.20773254
62	0xbef2c616	-0.47416753
63	0x3d838f57	0.06423824

bn3.running_mean f4 [64]
0	0x41cd7926	25.684155
1	0x4073444c	3.8010435
2	0x41edc046	29.718884
3	0x42841a99	66.05195
4	0x41e3861b	28.440481
5	0x41df0a69	27.880083
6	0x3f2bb907	0.67079204
7	0x41508ced	13.034406
8	0x41ae61b3	21.797705
9	0x421da9a3	39.41566
10	0x4292b525	73.3538
11	0x424fc089	51.938023
12	0x4189f05f	17.242369
13	0x41a5cbce	20.724514
14	0x3f6c3157	0.92262787
15	0x41e8429a	29.03252
16	0x4131e6fa	11.118891
17	0x41e0dc56	28.107586
18	0x4008dedc	2.1386023
19	0x421c779d	39.11681
20	0x41f7ed04	30.99073
21	0x424f97fe	51.89843
22	0x42491aa6	50.276024
23	0x420ac7ad	34.694996
24	0x3f27f3a8	0.65606165
25	0x42811c8a	64.55574
26	0x422e03e5	43.503803
27	0x4222d70a	40.71
28	0x428ff52e	71.97887
29	0x424708d1	49.75861
30	0x420d45cf	35.318172
31	0x419a5de5	19.295847
32	0x3ff406c3	1.9064564
33	0x40c213ad	6.064902
34	0x3f134cef	0.57539266
35	0x4276f4f4	61.739212
36	0x419090ca	18.070698
37	0x416bbddb	14.733851
38	0x42111d09	36.278355
39	0x417f1091	15.941545
40	0x41e7e29d	28.985651
41	0x3f81bf20	1.0136452
42	0x42db3c45	109.617714
43	0x428e798c	71.2374
44	0x420378cb	32.86796
45	0x41834c0f	16.412138
46	0x4069fe39	3.6561415
47	0x413fb489	11.981576
48	0x40e6eaf3	7.2161803
49	0x407505f1	3.8284876
50	0x412fa70b	10.978282
51	0x428b8e83	69.77834
52	0x41f4f8f3	30.621557
53	0x4198d3a5	19.103342
54	0x41b36152	22.42252
55	0x41473d12	12.45241
56	0x421a9ecd	38.65508
57	0x3f127a1b	0.5721757
58	0x3f40c8ef	0.753066
59	0x3e0c30c1	0.13690473
60	0x41ccd188	25.60231
61	0x4215e446	37.472923
62	0x41efc2fa	29.970203
63	0x41c80d9a	25.006641

bn3.running_var f4 [64]
0	0x45029b03	2089.6882
1	0x4359c227	217.7584
2	0x44e7306c	1849.5132
3	0x4546b861	3179.5237
4	0x44f6d37a	1974.6086
5	0x44cd4374	1642.1079
6	0x41b80a9d	23.005182
7	0x43bca688	377.30103
8	0x44c80da4	1600.4263
9	0x45076b8b	2166.7214
10	0x452d88dc	2776.5537
11	0x44f9c6d8	1998.2139
12	0x447c15f3	1008.34296
13	0x44c214a1	1552.6447
14	0x4224770c	41.116257
15	0x44a5c26c	1326.0757
16	0x43bfcdb4	383.60706
17	0x44960836	1200.2566
18	0x42bbc451	93.88343
19	0x450d509e	2261.0386
20	0x44db0550	1752.166
21	0x45051b17	2129.693
22	0x4510a0a1	2314.0393
23	0x44c87823	1603.7543
24	0x41aaeae6	21.364697
25	0x45445eab	3141.9167
26	0x44dde25f	1775.0741
27	0x448b8d51	1116.4161
28	0x453902a5	2960.1653
29	0x4489fef3	1103.9672
30	0x450437bf	2115.4841
31	0x448739f2	1081.8108
32	0x428bfdc0	69.995605
33	0x439f3e8d	318.48868
34	0x419ba490	19.455353
35	0x451ed73c	2541.4521
36	0x448622f8	1073.0928
37	0x444cafa9	818.7447
38	0x44c8ab91	1605.3615
39	0x4414ef54	595.7395
40	0x44e42aa9	1825.3331
41	0x42443d2f	49.05975
42	0x44c17022	1547.5042
43	0x4512bb81	2347.719
44	0x450b3c71	2227.7776
45	0x448d50fa	1130.5305
46	0x4366d92c	230.84833
47	0x44025a2b	521.4089
48	0x43c1348b	386.4105
49	0x436fe684	239.90045
50	0x443f3b2b	764.9245
51	0x45602889	3586.5334
52	0x44e64560	1842.168
53	0x4447b618	798.8452
54	0x44b06ce2	1411.4026
55	0x43dd2f20	442.36816
56	0x454c32e9	3267.182
57	0x4188528b	17.040304
58	0x41c02b18	24.021042
59	0x407ce1d3	3.9512832
60	0x44d83ae9	1729.841
61	0x4525e124	2654.0713
62	0x44f53717	1961.7216
63	0x4496897a	1204.2961

fc1.weight f4 [256, 64]
0	0x3e57b230	0.21064067
1	0xbe6e6aaa	-0.23282877
2	0x3f8a591b	1.0808443
3	0x3ece0d1e	0.40244383
4	0xbf2aef77	-0.66771644
5	0xbf23215c	-0.6372278
6	0xbe527854	-0.20553714
7	0xbd30ba99	-0.043146703
8	0xbed1e1b2	-0.40992504
9	0xbe275216	-0.16339907
10	0x3e8df78e	0.27727932
11	0xbf967638	-1.1754827
12	0xbe875f29	-0.2643979
13	0xbe70054c	-0.2343952
14	0xbf42151f	-0.7581348
15	0xbf97f2b2	-1.187094
16	0xbee08411	-0.4385076
17	0xbf2f2592	-0.684167
18	0xbe1589ae	-0.14603302
19	0xbf3fd3b2	-0.74932396
20	0x3f9be357	1.2178754
21	0xbf3c23de	-0.7349223
22	0x3ec70585	0.388714
23	0x3e95647e	0.29178232
24	0xbf6aae9e	-0.91672695
25	0xbec43924	-0.38324845
26	0x3c4e2a5e	0.012583343
27	0x3ee080a7	0.43848154
28	0xbdd4089e	-0.10353206
29	0xbf8a9e2f	-1.0829524
30	0xbf53e803	-0.82775897
31	0xbdff822b	-0.124759994
32	0xbf0e27b3	-0.55529326
33	0xbeabc9d9	-0.33552435
34	0xbf2e5a56	-0.6810659
35	0xbf304314	-0.68852353
36	0x3e0e904b	0.13922231
37	0x3f2af40b	0.6677863
38	0xbe13349c	-0.14375538
39	0xbfab00d6	-1.335963
40	0xbe3173f2	-0.17329386
41	0xbf1ce769	-0.61290604
42	0xbeab45d1	-0.33451703
43	0xbf2e6379	-0.68120533
44	0xbd7d8a78	-0.061899632
45	0xbda7a800	-0.0818634
46	0xbf54703e	-0.8298377
47	0xbebd5697	-0.36980125
48	0xbcc81189	-0.024422424
49	0xbcb456f9	-0.022014128
50	0x3f4fa29a	0.81107485
51	0xbf00005d	-0.50000554
52	0xbf849b83	-1.0359958
53	0xbf48a766	-0.7838043
54	0x3f2d188b	0.67615575
55	0xbd9f0b53	-0.07765832
56	0xbf58fb92	-0.84758866
57	0xbecb0d5a	-0.39658624
58	0x3f4c1194	0.7971432
59	0xbd8a123c	-0.06741759
60	0xbe4a8a9c	-0.19779438
61	0xbf242523	-0.64119166
62	0x3e67be20	0.2263112
63	0x3eb38d65	0.35068813
64	0x3f686d3b	0.9079167
65	0xbfa0b3a8	-1.2554827
66	0x3f7c2002	0.9848634
67	0x3e9f6294	0.31129897
68	0xbefa2dd3	-0.48863086
69	0x3ed20155	0.4101664
70	0x3ea19661	0.31560043
71	0x3f02c8bd	0.5108755
72	0x3ee3aade	0.444663
73	0x3ef033e5	0.46914592
74	0x3f0784ba	0.529369
75	0xbf3905e8	-0.7227464
76	0x3cac6e57	0.021048708
77	0xbf13dd86	-0.5775989
78	0x3ec13453	0.37735233
79	0x4042c969	3.043543
80	0xbe393c21	-0.18089344
81	0x3e9a10d5	0.30090967
82	0x3fafbd59	1.3729659
83	0x3e97c5cc	0.29643095
84	0xbfae8925	-1.3635603
85	0xbf846327	-1.0342759
86	0xbf44a84d	-0.76819307
87	0xbf2def45	-0.6794322
88	0x3e74e54c	0.23915595
89	0xbd564e63	-0.05232085
90	0xbf451986	-0.7699207
91	0x3eea28a3	0.45734128
92	0x3fe415ec	1.781919
93	0x3dc9f793	0.09861674
94	0x3e9ac66e	0.30229515
95	0xbf1b3628	-0.6062951
96	0x3e29607b	0.1654071
97	0x3c95cc62	0.018285934
98	0x3f46dc87	0.7768025
99	0xbed9e81a	-0.42559892
100	0xbe1e1f94	-0.15441734
101	0xbfe4b82e	-1.7868707
102	0xbeb12e89	-0.34605816
103	0x3ed4799d	0.41499034
104	0xbefaa6ba	-0.48955327
105	0x3f443ba8	0.7665353
106	0x3e5e8293	0.21729498
107	0xbd3a5c15	-0.045497973
108	0x3fbce530	1.4757442
109	0x3f385395	0.72002536
110	0xbf1b668c	-0.6070335
111	0xbe14705e	-0.1449599
112	0xc0037717	-2.0541437
113	0x3d50b04f	0.05094939
114	0x3d954eef	0.07290446
115	0x3f34d7a4	0.7064154
116	0x3f7f7a8d	0.9979637
117	0x3edc4778	0.43023276
118	0x3f36eadb	0.7145211
119	0xbdbd42c0	-0.09241247
120	0x3f4627ef	0.77404684
121	0x3ec1631b	0.37770924
122	0x3f29a107	0.66261333
123	0x3ecd0e63	0.4005004
124	0xbe6b80b3	-0.22998314
125	0xbfedbb03	-1.8572696
126	0x3ef7126a	0.48256236
127	0x3e218b96	0.15775904
128	0x3f0ba6f8	0.5455165
129	0x3f23f456	0.640447
130	0xbd90fb29	-0.07079155
131	0x3f9c2dd6	1.2201488
132	0xbef5b9e4	-0.47993386
133	0x3f67375c	0.90318847
134	0xbe37db36	-0.17954716
135	0xbd8709f8	-0.06593698
136	0x3e2f9e99	0.17150344
137	0x3dfaee77	0.12252515
138	0x3f8b1128	1.0864611
139	0xbd7e7dbc	-0.06213163
140	0x3dbd517c	0.092440575
141	0x3ed8f7f4	0.42376673
142	0xbdb9000f	-0.09033214
143	0x3dd25132	0.10269393
144	0xbd7d8801	-0.06189728
145	0x3ea497b9	0.32147005
146	0xbf12511b	-0.5715501
147	0xbe52a4c8	-0.20570672
148	0xbebbcffd	-0.3668212
149	0xbf1bf51f	-0.609209
150	0xbe3a0aba	-0.18168154
151	0xbd1bd394	-0.038043573
152	0x3e1f0d71	0.15532471
153	0xbf3334a0	-0.70002174
154	0xbf0a26b5	-0.5396531
155	0x3df08c16	0.11745469
156	0x3ed9ae05	0.4251558
157	0x3b377e23	0.0027998767
158	0xbe081525	-0.13289316
159	0x3f212c62	0.6295835
160	0x3f87062d	1.054876
161	0x3f32535a	0.69658434
162	0x3f830dda	1.0238602
163	0xbf174a19	-0.5909744
164	0x3d966e70	0.07345283
165	0x3f327f83	0.6972582
166	0xbf1b2028	-0.6059594
167	0x3eb460c8	0.35230088
168	0xbd8a329c	-0.06747934
169	0xbf134d4e	-0.5753983
170	0xbe31bffc	-0.17358392
171	0xbec5d7e3	-0.3864127
172	0x3e0c2f33	0.1368988
173	0xbe16c71f	-0.14724396
174	0x3fbc1ca7	1.4696244
175	0xbf5e66de	-0.8687571
176	0x3f56609d	0.8374117
177	0x3f59264c	0.8482406
178	0x3f925fea	1.1435521
179	0x3e4b17ce	0.198333
180	0x3ebba802	0.36651617
181	0xbd898b72	-0.0671605
182	0x3f58198d	0.8441399
183	0x3ef8a569	0.48563698
184	0x3f79b544	0.97542214
185	0x3e516b79	0.20451154
186	0xbc133a3d	-0.008986053
187	0x3f315f8c	0.6928642
188	0x3d75f26c	0.060045645
189	0x3f7549b2	0.95815575
190	0x3db6bc6a	0.08922656
191	0x3f271d49	0.6527906
192	0xbea58883	-0.32330713
193	0x3ed03632	0.40666348
194	0xbee70631	-0.4512191
195	0x3ed67361	0.41884902
196	0x3f3d51be	0.73952854
197	0xbe483e89	-0.19555105
198	0xbf8db340	-1.1070328
199	0x3dd2b2fd	0.102880456
200	0xbe2450e8	-0.16046488
201	0xbdfe78a8	-0.12425357
202	0x3f45ce0e	0.7726754
203	0xbf5892c3	-0.8459894
204	0x3eb5f40d	0.35537758
205	0x3e6374ba	0.22212496
206	0x3f0ca955	0.5494588
207	0x3f8b1a86	1.0867469
208	0x3f47b782	0.78014386
209	0x3ef7c852	0.4839502
210	0x3eb209ab	0.34773
211	0x3f277a22	0.65420735
212	0xbf956311	-1.1670858
213	0x3f3a0578	0.72664595
214	0x3f1f0646	0.6211895
215	0x3f184465	0.5947936
216	0x3eb40f10	0.35167742
217	0x3eeebca6	0.46628302
218	0x3f3fc3e5	0.74908286
219	0xbf521e2d	-0.82077295
220	0x3f907aee	1.1287515
221	0x3f98f54b	1.1949857
222	0x3f5b86f0	0.85752773
223	0x3d1d2d50	0.03837329
224	0x3f39f40c	0.7263801
225	0x3f4289eb	0.75991696
226	0xbe30157f	-0.171957
227	0xbd0542ce	-0.032534413
228	0xbde84f4d	-0.113432504
229	0xbf5415b9	-0.82845646
230	0x3e896c5d	0.26840487
231	0x3f95182e	1.1648004
232	0x3f203c8a	0.62592375
233	0x3f6af978	0.9178691
234	0xbf547ddb	-0.8300454
235	0xbf73b163	-0.95192546
236	0x3f9c60b8	1.2217016
237	0xbf36494a	-0.7120558
238	0x3e2e246e	0.17006084
239	0x3f8296ca	1.0202267
240	0xbda8ac20	-0.08235955
241	0x3ebca178	0.3684194
242	0xbe9c32fe	-0.30507654
243	0xbcb7ea39	-0.022450553
244	0xbf394348	-0.7236829
245	0xbf8fd87c	-1.1237941
246	0x3d1b87c8	0.037971288
247	0x3d52348f	0.051319655
248	0x3e3d8e57	0.1851133
249	0x3f793fb4	0.9736283
250	0xbf35d945	-0.7103465
251	0xbdd2f645	-0.103008784
252	0x3e5aa875	0.21353324
253	0x3f795119	0.9738937
254	0x3c9141ab	0.017731508
255	0xbf6d48f3	-0.92689437

fc1.bias f4 [256]
0	0x3f0c76f3	0.54869
1	0x3f30ea3e	0.69107425
2	0xbf328b0c	-0.6974342
3	0xbfb90703	-1.4455265
4	0xbee55165	-0.44788662
5	0xbf029296	-0.5100492
6	0x3e3a279f	0.18179177
7	0xbf9eb7e5	-1.239987
8	0xbe80f8ad	-0.25189725
9	0x3d2c014e	0.04199343
10	0xbf683ca7	-0.9071755
11	0x3e0a0aa3	0.1348062
12	0xbe44e337	-0.192273
13	0xbe935f3b	-0.28783593
14	0xbeeba9bc	-0.46027935
15	0xbd2cf3ef	-0.04222482
16	0xbec308f2	-0.38092762
17	0xbe6f0b90	-0.23344254
18	0xbf714733	-0.94249266
19	0xbf403f95	-0.7509702
20	0xbf20c7f8	-0.6280513
21	0x3de5d5bf	0.112224095
22	0x3f7e78da	0.99403155
23	0x3f565f43	0.8373911
24	0xbe989a00	-0.29804993
25	0x3f5c1480	0.8596878
26	0xbde1a5f8	-0.11017984
27	0x3e0d37d9	0.13790835
28	0x3e449a04	0.19199377
29	0xbec8f102	-0.39246374
30	0x3f40899f	0.75209993
31	0xbebf988f	-0.3742108
32	0xbef837d8	-0.48480105
33	0xbf86ceee	-1.05319
34	0x3db7b344	0.08969739
35	0xbf0132dc	-0.5046823
36	0xbf2c9693	-0.6741726
37	0xbf778069	-0.96680313
38	0xbfaadd40	-1.334877
39	0xbf333581	-0.70003515
40	0xbf955b38	-1.1668463
41	0xbeb373d6	-0.35049313
42	0x3f4c3788	0.79772234
43	0xbf0c8895	-0.5489591
44	0xbf172350	-0.5903826
45	0xbf76c000	-0.9638672
46	0x3ee41a6e	0.44551414
47	0xbf5412a0	-0.8284092
48	0xbf30d589	-0.6907583
49	0xbf8cb98e	-1.0994127
50	0xbf62bc74	-0.88568807
51	0xbc08cee5	-0.008350109
52	0xbe9d9790	-0.30779696
53	0xbf1a5f62	-0.6030179
54	0x3ea10dc8	0.31455827
55	0xbccd48bf	-0.025059102
56	0xbea1f3b9	-0.31631258
57	0x3e4796f2	0.19491175
58	0xbef54774	-0.47906077
59	0xbec79cad	-0.38986722
60	0xbe9234c3	-0.2855588
61	0xbeef77d2	-0.46771103
62	0x3d303b5a	0.043025352
63	0xbf3c45ca	-0.7354399
64	0xbf28eaeb	-0.65983456
65	0xbe89bf47	-0.26903746
66	0xbe8007d4	-0.25005972
67	0xbe99c2de	-0.30031484
68	0xbeb8ba2e	-0.36079544
69	0x3f014626	0.50497663
70	0xbf47ac50	-0.77997303
71	0xbf25538d	-0.64580613
72	0xbf1f900d	-0.6232918
73	0xbf47e301	-0.78080755
74	0xbd2de1af	-0.042451557
75	0xbf5d2b97	-0.8639464
76	0x3ded503b	0.11587568
77	0xbe5ff6b9	-0.21871461
78	0xbfc6f1ef	-1.5542582
79	0xbef8d9bf	-0.48603627
80	0x3e3858cd	0.18002625
81	0x3dc2684c	0.09492549
82	0x3f11d189	0.5696035
83	0xbf7958d0	-0.9740114
84	0x3e549aa6	0.20762119
85	0x3e5e5e7c	0.2171573
86	0xbf09acf1	-0.5377951
87	0xbe9fcec2	-0.3121243
88	0x3f10a950	0.5650835
89	0x3dc5f7f0	0.09666431
90	0xbe006d21	-0.1254163
91	0xbe3a7ab7	-0.18210874
92	0xbf552946	-0.83266103
93	0xbefd5d09	-0.49485043
94	0xbf3e763b	-0.74399155
95	0x3f9a0403	1.2032474
96	0xbf2ca344	-0.67436624
97	0xbf9f3c6a	-1.2440312
98	0xbeb6b81d	-0.35687342
99	0xbf523be9	-0.82122666
100	0xbe1bc43d	-0.15211578
101	0x3d134226	0.035951756
102	0xbeecfa13	-0.4628454
103	0xbee0e86b	-0.4392732
104	0x3e7e37df	0.24826
105	0xbf827bc9	-1.0194026
106	0xbefc2b0a	-0.49251586
107	0xbe826973	-0.25471076
108	0xbfaad28a	-1.3345501
109	0x3ebbd196	0.3668334
110	0x3e4a03af	0.19727968
111	0xbf9090d3	-1.1294197
112	0xbea65a59	-0.32490805
113	0x3ded5577	0.11588567
114	0xbeada42f	-0.33914325
115	0x3f1bfd2d	0.6093319
116	0xbf8e00ca	-1.1093991
117	0xbf0fe4a7	-0.5620827
118	0xbf628302	-0.8848115
119	0xbd7ca6a5	-0.061682362
120	0xbef14d3f	-0.47129247
121	0xbea35003	-0.31896982
122	0xbf263619	-0.64926296
123	0x3f3ca3a9	0.73687226
124	0xbfd11963	-1.6335872
125	0xbd3809f7	-0.04493138
126	0x3f5bc61d	0.8584917
127	0xbefb7899	-0.49115446
128	0x3f2deedd	0.679426
129	0xbeb70b07	-0.357506
130	0xbf3b4883	-0.7315752
131	0xbeeecfec	-0.46643007
132	0xbf8d6482	-1.1046298
133	0xbeadd127	-0.33948633
134	0x3fb9569c	1.4479556
135	0xbe8429e7	-0.2581322
136	0xbf8f6edf	-1.120571
137	0xbf5a00a5	-0.85157233
138	0x3c6e1fbe	0.014533935
139	0x3e92714c	0.28602064
140	0x3dc4447c	0.09583375
141	0xbefccd7f	-0.4937553
142	0xbdb93797	-0.09043806
143	0x3bffe79f	0.007809594
144	0xbe889d5d	-0.2668256
145	0xbdbd5e59	-0.09246511
146	0xbf64d120	-0.893816
147	0xbf141252	-0.57840455
148	0xbf388a4c	-0.72086024
149	0xbf54bb7c	-0.8309858
150	0xbe3bc779	-0.18337812
151	0xbf3ad90a	-0.72987425
152	0x3ef6cd6a	0.48203593
153	0x3f1d4474	0.61432576
154	0xbe50bd04	-0.20384604
155	0x3ef7835d	0.4834241
156	0xbf328cef	-0.697463
157	0x3f08c15d	0.5342005
158	0xbfa49ee2	-1.2860987
159	0xbf5a775c	-0.8533838
160	0xbf067ff4	-0.5253899
161	0x3e9e0fb2	0.3087135
162	0xbf1d0b38	-0.61345243
163	0xbf8e1025	-1.1098677
164	0xbf46f415	-0.7771619
165	0x3f9f85d4	1.2462716
166	0xbede5f46	-0.43432063
167	0xbee23d5c	-0.44187438
168	0xbf443630	-0.76645184
169	0x3e8bd1f6	0.27308625
170	0x3d4cb681	0.049978737
171	0xbeef1531	-0.46695855
172	0xbd6362a7	-0.055514004
173	0xbce55932	-0.027996633
174	0x3ef92b72	0.4866596
175	0xbfd6a2b5	-1.6768404
176	0xbebd878e	-0.37017483
177	0x3e0d71a5	0.13812883
178	0x3df7dd84	0.121027976
179	0xbfd050a5	-1.6274611
180	0x3eb2eafb	0.349449
181	0x3f81f4c3	1.015282
182	0xbcd9fcfe	-0.026609894
183	0xbe7a79de	-0.24460551
184	0x3f37d9c8	0.7181668
185	0x3e06f993	0.13181143
186	0xbea1845b	-0.31546292
187	0xbf619c71	-0.88129336
188	0x3d1e4852	0.03864319
189	0x3f20174f	0.62535566
190	0xbf295017	-0.6613783
191	0xbf3fccba	-0.7492176
192	0xbf6155ad	-0.88021356
193	0x3ea12a6a	0.31477672
194	0xbf6e87c6	-0.93175924
195	0x3eb35be1	0.35031036
196	0x3e353e53	0.17699556
197	0xbf156ab2	-0.5836593
198	0xbf058377	-0.52153724
199	0xbf696efd	-0.9118498
200	0xbf2bf465	-0.6716979
201	0xbe7dd3a4	-0.24787766
202	0xbe872c30	-0.264009
203	0xbdae517f	-0.08511638
204	0x3da336f4	0.07969466
205	0x3bbbe2a9	0.005733807
206	0xbefba2a4	-0.49147522
207	0xbf423a4a	-0.7587019
208	0xbf00a3ce	-0.50249946
209	0x3d83a151	0.06427253
210	0x3da91c31	0.0825733
211	0xbf00cb37	-0.5031008
212	0xbf0ca6a3	-0.5494177
213	0xbe3ef63d	-0.1864862
214	0xbf5165fd	-0.81796247
215	0x3e1f269b	0.1554207
216	0xbf817a41	-1.0115434
217	0xbfbb0967	-1.4612244
218	0xbf7ea25b	-0.99466485
219	0xbf0a914c	-0.54127955
220	0xbf7e13c1	-0.9924889
221	0x3da2ab41	0.0794282
222	0xbf697f69	-0.9121004
223	0xbf0f2509	-0.55915886
224	0xbdb19eff	-0.08672904
225	0xbe26ee7c	-0.16301912
226	0xbdca109d	-0.0986645
227	0xbf7af0c7	-0.9802365
228	0xbfe69ae3	-1.8016018
229	0xbf3d4321	-0.73930556
230	0xbf4fdabd	-0.81193143
231	0xbc82331c	-0.015893511
232	0xbf371b16	-0.71525705
233	0xbf829ac1	-1.0203477
234	0x3ee1c102	0.44092566
235	0xbf2a808b	-0.6660239
236	0xbf8b520a	-1.0884411
237	0xbf3e6f39	-0.7438846
238	0xbf46f757	-0.7772116
239	0xbf500d14	-0.81269956
240	0xbf0d802c	-0.552737
241	0xbf2b5650	-0.6692858
242	0xbedf67e4	-0.4363395
243	0x3df5871b	0.1198866
244	0xbf23256f	-0.63728994
245	0xbec87732	-0.3915344
246	0xbf6b67a1	-0.91955
247	0xbf8534bb	-1.0406717
248	0x3d853126	0.06503515
249	0xbe450570	-0.19240355
250	0xbdd62901	-0.104570396
251	0x3ee1576f	0.4401202
252	0xbf5f9573	-0.87337416
253	0xbe98beb0	-0.29832983
254	0x3f17d34d	0.59306794
255	0xbf581e14	-0.84420896

bn4.weight f4 [256]
0	0x3f0316ad	0.51206475
1	0x3fda49d5	1.7053782
2	0x3f7776aa	0.9666544
3	0x3f18be87	0.5966572
4	0x3f77ee93	0.9684841
5	0x3fbfb049	1.4975673
6	0x3f327113	0.6970379
7	0x3d46ee41	0.04856706
8	0xbed81426	-0.42202872
9	0x3f31f6cb	0.695172
10	0x3f5ccf48	0.86253786
11	0x3e8a0a82	0.26961142
12	0x3ef6bc72	0.48190647
13	0x3fa9ee55	1.3275858
14	0x3f85a22c	1.0440116
15	0x3d3cbfa9	0.04608122
16	0x3e19bb68	0.15012896
17	0x3f097ab2	0.53702843
18	0x3f321c3d	0.6957434
19	0x3f2f66d2	0.68516266
20	0x3f603f2e	0.87596405
21	0xbdef97c1	-0.11698867
22	0xbd8301ea	-0.063968495
23	0x3fa2b0fe	1.2710264
24	0x3f78f5ea	0.97250235
25	0x3e990a0b	0.29890475
26	0xbf8ba3da	-1.0909379
27	0x3f28633c	0.6577642
28	0x3f67d9d4	0.90566754
29	0x3f645be7	0.8920273
30	0x3f62fc18	0.88665915
31	0x3efc5d2f	0.49289843
32	0x3ff5909b	1.9184755
33	0x3f3c9732	0.73668206
34	0xbe2d7ccb	-0.16942136
35	0x3f9f4877	1.244399
36	0x3f960dfe	1.172302
37	0x3c3f5399	0.011677646
38	0x3f9e7add	1.2381245
39	0x3f452cfc	0.77021766
40	0xbf8a1091	-1.0786306
41	0x3ef69dac	0.4816717
42	0x3f830e42	1.0238726
43	0x3e2a88ec	0.16653794
44	0xbeb9876f	-0.3623614
45	0xbf8fee6c	-1.1244636
46	0x3f09b37b	0.5378949
47	0x3f5f5ef5	0.8725427
48	0x3f691221	0.9104329
49	0x3f8b2090	1.0869312
50	0x3fc7eed1	1.5619756
51	0x3e01f01c	0.1268925
52	0x3faee244	1.3662801
53	0x3fa1a321	1.2627908
54	0xbeada135	-0.33912054
55	0x3f2d1c00	0.6762085
56	0x3e506ec3	0.20354752
57	0x3f1b15f3	0.60580367
58	0xbe9690ce	-0.29407352
59	0x3ec6b76f	0.38811824
60	0x3f4743b3	0.77837676
61	0x3f71f691	0.94516855
62	0x3f1a2c9b	0.6022431
63	0x3f70977c	0.93981147
64	0x3f69ddf2	0.91354287
65	0x3fa6a126	1.3017929
66	0x3eeba919	0.4602745
67	0x3f08595e	0.53261364
68	0x3f470a02	0.77749646
69	0x3f1971d7	0.5993933
70	0x3fbbd155	1.4673258
71	0x3d5f9aff	0.054591175
72	0x3fb35c48	1.4012537
73	0x3fb39fac	1.4033103
74	0x3fb781db	1.4336504
75	0x3ec5aad7	0.38606903
76	0x3f3dc636	0.7413057
77	0x3f495c71	0.7865668
78	0x3f66103a	0.8986851
79	0x3ead404f	0.33838126
80	0x3f438aa1	0.76383406
81	0x3f9559ef	1.166807
82	0x3f2326ac	0.63730884
83	0x3efa5133	0.48890075
84	0x3f407117	0.7517256
85	0x3f8b44d9	1.0880386
86	0x3f0316be	0.51206577
87	0x3f53cf3f	0.8273811
88	0x3f91d21e	1.1392248
89	0x3f1ea50b	0.61970586
90	0x3f1252c4	0.5715754
91	0x3f8f7147	1.1206445
92	0x3ec767ac	0.38946283
93	0x3fb2d14c	1.3970122
94	0x3f7f5583	0.99739856
95	0x3f59dd30	0.8510313
96	0x3dff0983	0.12452986
97	0x3de11797	0.109908275
98	0xbdc760e7	-0.097352795
99	0x3f83746b	1.0269903
100	0x3ef69f74	0.48168528
101	0x3e594912	0.2121928
102	0x3e591ca9	0.21202339
103	0x3e715c86	0.23570451
104	0x3f1f05fa	0.62118495
105	0x3fd903e9	1.6954318
106	0x3f236956	0.63832605
107	0x3ecdf69e	0.40227216
108	0x3f796325	0.9741691
109	0x3f25288c	0.64514995
110	0x3fbf49d0	1.4944401
111	0x3b10cd64	0.0022095079
112	0x3e29fdfd	0.16600795
113	0x3e8776ef	0.26457927
114	0xbd51804b	-0.05114774
115	0x3ec58dc6	0.38584727
116	0x3f5c89ad	0.86147577
117	0x3f236362	0.6382352
118	0x3f5054b1	0.8137923
119	0x3fb306ef	1.3986491
120	0x3e9544f9	0.29154184
121	0x3e99fda2	0.3007632
122	0x3f0bf05e	0.54663646
123	0x3fec1bbe	1.8445966
124	0xbf7b2e21	-0.9811726
125	0x3f1e910f	0.6194009
126	0xbdf40c88	-0.11916453
127	0x3f64bedb	0.8935372
128	0x3e9a6256	0.3015315
129	0x3f570b69	0.84001786
130	0x3f16a5db	0.58846825
131	0x3f15dba4	0.5853827
132	0x3f72562e	0.9466275
133	0x3f9ce819	1.225833
134	0x3f8ee581	1.1163789
135	0xbbb8dc6d	-0.005641511
136	0x3d53a038	0.05166647
137	0x3e0b8bb0	0.13627505
138	0x3f271ab4	0.6527512
139	0x3f989e03	1.1923221
140	0x3db3e61d	0.08784125
141	0x3f1d7012	0.6149913
142	0x3f407de4	0.75192094
143	0x3e690ddc	0.22759193
144	0x3fa374bb	1.2769998
145	0x3f6ca9d0	0.92446613
146	0xbed68dc9	-0.41905048
147	0x3f683923	0.90712184
148	0xbf81b45c	-1.0133166
149	0x3e1a264a	0.15053669
150	0x3fbece25	1.490666
151	0xbb79b0df	-0.0038099808
152	0x3f2815ae	0.6565808
153	0x3f981f71	1.1884595
154	0x3e735151	0.23761488
155	0x3f7b1326	0.98076093
156	0xbf0de67d	-0.5542982
157	0x3f884118	1.0644865
158	0x3f989368	1.1919985
159	0x3f9434d3	1.1578621
160	0x3f73eb37	0.95280784
161	0x3f60db22	0.8783437
162	0x3fc166f8	1.5109549
163	0x3f14fa35	0.58194286
164	0x3eab163e	0.33415407
165	0x3fe232fc	1.7671809
166	0x3f873b1c	1.0564914
167	0x3f6b01ee	0.9179982
168	0x3f865850	1.0495701
169	0x3edf9510	0.43668413
170	0x3f4d35d5	0.80160266
171	0xbf091659	-0.53549725
172	0x3f1fe52c	0.62459064
173	0x3fc857b7	1.5651768
174	0x3ec721f7	0.388931
175	0x3f9c460d	1.2208878
176	0x3f0f52dc	0.5598581
177	0x3e9064c1	0.2820187
178	0x3fa9cf90	1.3266468
179	0xbf1a273c	-0.60216117
180	0x3f76fe42	0.96481717
181	0x3f10ca61	0.56558806
182	0x3efbb309	0.4916003
183	0xbdffcffd	-0.124908425
184	0x3ec07670	0.3759036
185	0x3d37acc7	0.044842508
186	0x3f83d162	1.0298274
187	0x3f457d3b	0.7714421
188	0x3f6c596b	0.9232394
189	0x3fcc4ab1	1.5960294
190	0x3f925b51	1.1434118
191	0x3f18ff72	0.5976478
192	0x3f27d0aa	0.6555277
193	0x3f128a20	0.5724201
194	0x3f816f75	1.0112139
195	0x3f2fed4e	0.68721473
196	0x3f63f62f	0.8904752
197	0x3f929b68	1.1453676
198	0x3f66618a	0.8999258
199	0x3f893bff	1.0721434
200	0x3f0dd78f	0.5540704
201	0x3eab9b01	0.33516696
202	0x3efb48f4	0.49079096
203	0x3f37fe59	0.7187248
204	0x3d27b9b3	0.04094858
205	0x3ffb902c	1.9653373
206	0x3dc57ef9	0.09643359
207	0x3f18ab4a	0.59636366
208	0x3f817b03	1.0115665
209	0xbb6d6c86	-0.0036228015
210	0x3f5a8e9e	0.85373867
211	0x3f475cba	0.77875865
212	0x3e00ab36	0.12565312
213	0x3ecb74af	0.3973746
214	0x3f515e5f	0.81784624
215	0x3f0474a9	0.5174051
216	0x3f7d675b	0.9898583
217	0x3f4dcb81	0.8038865
218	0x3f0786d7	0.52940124
219	0x3f6e91b4	0.93191075
220	0x3f5deaad	0.8668621
221	0x3f453a42	0.7704202
222	0x3f9c6b14	1.2220178
223	0x3f66c83e	0.90149295
224	0x3eedad1d	0.46421137
225	0xbd99f4f6	-0.07517426
226	0xbf106456	-0.564031
227	0x3f531893	0.8245937
228	0x3faa629b	1.3311342
229	0x3fa1ea30	1.2649593
230	0x3ecebad9	0.40376928
231	0x3f9c1635	1.2194277
232	0x3f5ecbf4	0.8702996
233	0x3ebfa565	0.37430874
234	0x3e4dcd8a	0.20097938
235	0x3f8fc291	1.1231252
236	0xbedfbd51	-0.43699124
237	0xbefbae2d	-0.49156323
238	0x3e299772	0.16561678
239	0x3efcb88a	0.49359542
240	0xbcf16e13	-0.029471433
241	0x3fb7c92b	1.4358267
242	0x3ccc8564	0.02496595
243	0xbc00db04	-0.007864717
244	0x3f9804a5	1.1876417
245	0x3fd0ab0e	1.6302202
246	0xbe5815b6	-0.21102032
247	0x3f44b79d	0.7684267
248	0x3f02163f	0.50815195
249	0x3f572fd9	0.84057385
250	0x3f09123e	0.5354346
251	0x3f9b0e8a	1.2113812
252	0xbe72f2bb	-0.23725407
253	0x3e926027	0.28588983
254	0x3f525492	0.82160294
255	0x3f4001dc	0.7500284
